GraphNeuralNet/Skim1E2Mu/epoch100/MHc-100_MA-95_vs_nonprompt/models/ParticleNet-nNodes64_AdamW_initLR-0p01_StepLR.pt (torch, 301953 bytes, 102 tensors)

gn0.weight f4 [9]
1.6491725 1.0639797 1.0288543 0.02943102 1.1255481 1.7333148 1.0281096 0.773805
0.7535429
00000000: 1618 d33f 7d30 883f 7fb1 833f 5319 f13c
00000010: f611 903f 42dd dd3f 1899 833f 1618 463f
00000020: 30e8 403f

gn0.bias f4 [9]
1.0936122 0.060232922 -0.16004008 0.010715034 0.09616257 -0.7994473 0.3409221 0.90825677
0.92654914
00000000: 7cfb 8b3f ccb6 763d 8ce1 23be 1c8e 2f3c
00000010: e2f0 c43d 94a8 4cbf 578d ae3e 8483 683f
00000020: 5332 6d3f

gn0.mean_scale f4 [9]
2.1361344 -1.6663518 -1.4606227 0.64419127 4.641884 -1.6141739 -0.3383312 0.37922442
1.1363931
00000000: 6db6 0840 044b d5bf aff5 babf b8e9 243f
00000010: 508a 9440 409d cebf bf39 adbe b429 c23e
00000020: 5475 913f

gn1.weight f4 [64]
1.6072145 1.5466157 1.1664917 1.5369534 1.3257122 1.4835079 1.3742067 1.4006671
1.1076943 1.1120131 1.6646949 1.101459 0.9999513 1.0814849 0.91184086 1.3273348
1.3800915 1.2948754 1.3007696 1.1836118 1.4084811 0.7999617 1.1892492 1.3730596
1.3940398 1.3454701 1.0362618 1.2871367 1.1384937 0.9047775 0.7541478 1.0018103
1.5718757 0.87327564 0.95446277 1.149675 1.7567444 0.6454626 1.4153495 1.1643232
0.9842492 0.9112468 1.070311 1.0680858 1.1903753 1.0679897 1.438015 1.1334623
1.064457 1.1779038 1.42369 0.8212975 1.3339028 1.336199 0.72644114 1.0758485
1.0078956 1.35851 1.019004 1.5118537 1.5306101 1.4517525 1.1403143 0.90868074
00000000: 34b9 cd3f 81f7 c53f 9a4f 953f e4ba c43f
00000010: f0b0 a93f 96e3 bd3f 01e6 af3f 0f49 b33f
00000020: edc8 8d3f 7256 8e3f b914 d53f 9cfc 8c3f
00000030: cffc 7f3f 196e 8a3f 676e 693f 1be6 a93f
00000040: d7a6 b03f 7abe a53f 9e7f a63f 9780 973f
00000050: 1c49 b43f 4aca 4c3f 5139 983f 6bc0 af3f
00000060: e56f b23f 5d38 ac3f 3aa4 843f e5c0 a43f
00000070: 29ba 913f 809f 673f d50f 413f 523b 803f
00000080: 3933 c93f fe8e 5f3f ac57 743f 8d28 933f
00000090: 00dd e03f 093d 253f 2c2a b53f 8b08 953f
000000a0: c1f7 7b3f 7847 693f f3ff 883f 09b7 883f
000000b0: 385e 983f e3b3 883f e010 b83f 4b15 913f
000000c0: 2140 883f 8dc5 963f 793b b63f 8e40 523f
000000d0: 54bd aa3f 9208 ab3f 0cf8 393f 67b5 893f
000000e0: b902 813f a8e3 ad3f b96e 823f 6c84 c13f
000000f0: 08eb c33f 07d3 b93f d2f5 913f 4d9f 683f

gn1.bias f4 [64]
1.4897852 0.05916601 0.42232567 0.13280897 -0.3305943 -0.085282065 0.36874327 0.43703607
-0.63946676 0.17868336 -0.44547546 0.010403894 0.48647103 0.26244003 0.093085386 0.67398924
0.33484054 -0.0039522313 -0.38291794 0.4408425 -0.6538062 -1.7210269 0.1521204 0.8115432
-0.832012 1.6643 -1.1628659 -0.28318447 -0.9639979 -0.5419218 0.7452061 0.5760308
-0.1266994 -0.73111445 1.5356036 -1.2506047 0.415422 -1.0744723 -0.9911497 -1.3843622
0.31953335 0.063847 0.7637636 0.41153917 0.67166775 1.0445486 -0.17855424 0.029349314
-0.711037 0.5460922 0.58175933 0.19293065 1.045906 -0.01682769 0.43147242 1.0921909
-1.0331912 0.15483907 -1.243491 -0.54247785 0.38553125 0.22504635 -0.12159875 -1.1142955
00000000: 48b1 be3f 0f58 723d 123b d83e 13ff 073e
00000010: a843 a9be 5da8 aebd ebcb bc3e 31c3 df3e
00000020: 18b4 23bf c5f8 363e 5c15 e4be 1875 2a3c
00000030: bb12 f93e 8a5e 863e 8da3 be3d 8f8a 2c3f
00000040: 3870 ab3e b881 81bb d20d c4be 1cb6 e13e
00000050: d85f 27bf 9c4a dcbf 73c5 1b3e 4cc1 4f3f
00000060: bdfe 54bf c807 d53f cad8 94bf 8efd 90be
00000070: 91c8 76bf 63bb 0abf d4c5 3e3f c176 133f
00000080: 7dbd 01be 512a 3bbf a98e c43f d113 a0bf
00000090: 31b2 d43e 4f88 89bf fdbb 7dbf c832 b1bf
000000a0: e099 a33e 37c2 823d 0386 433f 43b5 d23e
000000b0: 6bf2 2b3f c5b3 853f ecd6 36be f96d f03c
000000c0: 8506 36bf b3cc 0b3f 2eee 143f 9d8f 453e
000000d0: 3fe0 853f 39da 89bc f4e9 dc3e e9cc 8b3f
000000e0: 9c3f 84bf 228e 1e3e b72a 9fbf d4df 0abf
000000f0: 5a64 c53e 8d72 663e c408 f9bd 3ca1 8ebf

gn1.mean_scale f4 [64]
0.85126 0.743498 1.057056 1.0276182 1.1486793 1.4067764 0.7404795 0.7265603
1.4672577 0.84083253 0.7675674 1.2300314 1.0438946 1.3368939 1.1488749 1.4406929
0.9563026 0.6957984 1.1868432 0.775082 0.963503 1.1996272 0.99732083 1.3089437
1.2242811 0.86081076 1.2502563 0.76601195 0.78342146 1.3517749 0.7775404 1.1308159
1.0499283 0.6683031 0.9589662 0.8208811 1.3662599 0.8211348 0.9143632 0.9151093
0.95768464 1.2945971 0.69517094 0.64882594 1.3584275 0.7974686 1.136957 1.0274453
1.0177407 1.2782521 1.3134594 1.197864 1.4989198 0.6869809 1.2894801 1.2801095
0.6548485 0.5045905 1.132388 0.92297804 0.7738737 0.99142545 0.8848888 1.128891
00000000: 2dec 593f e355 3e3f 9c4d 873f fe88 833f
00000010: ec07 933f 4011 b43f 1190 3d3f dbff 393f
00000020: 1acf bb3f cd40 573f 4c7f 443f ab71 9d3f
00000030: 579e 853f 571f ab3f 550e 933f a068 b83f
00000040: 3fd0 743f d81f 323f 7aea 973f c66b 463f
00000050: 22a8 763f 628d 993f 6b50 7f3f 788b a73f
00000060: 3eb5 9c3f 185e 5c3f 6608 a03f 5c19 443f
00000070: 4f8e 483f f606 ad3f e30c 473f 93be 903f
00000080: 0d64 863f e915 2b3f cf7e 753f 4425 523f
00000090: 9be1 ae3f e435 523f b513 6a3f 9a44 6a3f
000000a0: d22a 753f 5cb5 a53f b9f6 313f 7519 263f
000000b0: f4e0 ad3f e726 4c3f cf87 913f 5483 833f
000000c0: 5445 823f c49d a33f 701f a83f 9c53 993f
000000d0: 9bdc bf3f fbdd 2f3f af0d a53f a1da a33f
000000e0: 27a4 273f d82c 013f 17f2 903f 4a48 6c3f
000000f0: 961c 463f 0fce 7d3f 1388 623f 807f 903f

gn2.weight f4 [64]
1.1744184 0.94046354 0.8954533 0.9590032 1.4601558 0.8143305 1.0875825 0.7001404
0.66174793 1.0867538 1.0412706 0.981121 1.268685 0.8332307 0.9077456 0.9678367
1.0339713 0.51704866 0.9802124 1.3897202 1.5939882 1.1296434 1.4316509 1.6100076
0.9807374 0.8710759 0.206061 0.7834656 1.266354 1.3355236 0.8233813 0.99333566
1.3534796 1.0243086 0.6585386 0.7573329 0.24741066 0.6834548 1.1361629 1.6641074
1.4648786 0.46830598 0.94217175 0.56953555 0.95102745 0.9569535 1.1057744 1.8921856
0.74858797 1.3486708 1.1520346 1.0597385 0.8623195 1.1832242 0.6253666 0.90310967
0.74516356 0.9308535 0.7679463 1.4570262 0.40874663 0.9381568 1.3414589 0.9810105
00000000: 5853 963f 38c2 703f 6d3c 653f 3c81 753f
00000010: 63e6 ba3f f777 503f e735 8b3f 673c 333f
00000020: 5068 293f c01a 8b3f 5b48 853f bf2a 7b3f
00000030: 4564 a23f 9b4e 553f 0462 683f 25c4 773f
00000040: 2c59 843f 4d5d 043f 33ef 7a3f 5ae2 b13f
00000050: ce07 cc3f 2898 903f 5640 b73f bb14 ce3f
00000060: 9b11 7b3f d5fe 5e3f a801 533e 3491 483f
00000070: e317 a23f 70f2 aa3f 1ec9 523f 3f4b 7e3f
00000080: d23e ad3f 8b1c 833f fc95 283f 92e0 413f
00000090: 3859 7d3e e5f6 2e3f c96d 913f 7901 d53f
000000a0: 2481 bb3f cdc5 ef3e 2b32 713f 15cd 113f
000000b0: 8976 733f e8fa 743f 048a 8d3f 2333 f23f
000000c0: 76a3 3f3f 3fa1 ac3f df75 933f 83a5 873f
000000d0: f9c0 5c3f e473 973f 0718 203f 3232 673f
000000e0: 0ac3 3e3f 6a4c 6e3f 2198 443f d67f ba3f
000000f0: 3d47 d13e 0b2b 703f edb4 ab3f 8123 7b3f

gn2.bias f4 [64]
-0.2476081 -0.34686118 0.55111676 0.20732547 -0.363579 0.39952683 0.061117046 -0.68810403
0.4487865 -0.24500543 0.4477593 0.041232947 0.756268 -0.43209392 0.29854867 -0.2695271
0.054646052 -0.37743023 0.73896563 0.24557404 0.7861889 -0.06648749 -0.53879684 -0.27752388
-0.32138386 0.060419362 0.2123859 -0.2002832 -0.43634 -0.65416867 0.30785674 0.055864263
-0.43509924 -0.23024338 0.0106485905 0.69865894 -0.42013225 -0.25132084 -0.2597388 0.028827136
-0.71198475 0.19536993 0.21410462 -0.35351363 -0.8858757 -0.2875457 0.21970673 -0.46205452
-0.258333 -0.2967134 0.29831052 -0.10721493 -0.33859816 -0.26535687 0.4028087 0.062332407
0.1088478 0.63043416 -0.595405 -0.21005584 -0.09267512 -0.0950755 0.41542083 0.18377441
00000000: fa8c 7dbe ca97 b1be fd15 0d3f 214d 543e
00000010: 0727 babe c88e cc3e de55 7a3d 9627 30bf
00000020: 58c7 e53e b4e2 7abe b540 e53e e1e3 283d
00000030: c89a 413f 6a3b ddbe 5fdb 983e 75ff 89be
00000040: 8ad4 5f3d 893e c1be da2c 3d3f c377 7b3e
00000050: ad43 493f 982a 88bd 97ee 09bf 9c17 8ebe
00000060: 6d8c a4be 4b7a 773d b07b 593e 0a17 4dbe
00000070: f567 dfbe 9977 27bf 669f 9d3e edd1 643d
00000080: 54c5 debe ecc4 6bbe 6d77 2e3c 50db 323f
00000090: 931b d7be 20ad 80be 7cfc 84be e326 ec3c
000000a0: a244 36bf 0e0f 483e 3e3e 5b3e bdff b4be
000000b0: c0c8 62bf 3139 93be cdfa 603e 6992 ecbe
000000c0: 3944 84be d2ea 97be 28bc 983e 8093 dbbd
000000d0: bd5c adbe dbdc 87be f13c ce3e 4450 7f3d
000000e0: 98eb de3d 2264 213f 766c 18bf e118 57be
000000f0: 74cc bdbd f2b6 c2bd 0ab2 d43e 5c2f 3c3e

gn2.mean_scale f4 [64]
0.7590916 0.9228886 1.0978979 0.90171736 1.2145697 1.1377915 0.8172597 0.74841446
0.94199014 0.8134625 1.0591496 1.4234701 0.7666451 1.1730121 0.8463374 0.7467544
0.8801377 0.967155 1.2252069 1.0736626 1.0789467 0.3757763 0.75862885 1.1946336
0.9310195 1.0427413 0.9363604 0.78899956 1.2317716 0.92968845 1.2569352 0.6177481
0.9193193 0.6876111 0.8927559 0.6494224 1.0051455 1.0396475 0.96895146 0.84845454
1.3840789 1.1690235 1.1063694 1.1055527 0.7578652 1.2209381 1.183703 0.7327432
1.0938429 1.1882352 0.95268834 0.77865463 1.0773911 1.0387937 0.75176924 1.1519108
0.65923905 1.0145276 0.7338669 1.303226 0.8594636 0.9825749 1.1477613 0.82519895
00000000: d453 423f 6d42 6c3f eb87 8c3f f3d6 663f
00000010: 0577 9b3f 27a3 913f ef37 513f 1798 3f3f
00000020: 4426 713f 143f 503f 3792 873f 4534 b63f
00000030: da42 443f 4325 963f 91a9 583f 4c2b 3f3f
00000040: b450 613f 7897 773f 94d3 9c3f c76d 893f
00000050: ed1a 8a3f c065 c03e 8035 423f c1e9 983f
00000060: 4b57 6e3f 8c78 853f 51b5 6f3f e0fb 493f
00000070: b1aa 9d3f 1000 6e3f 41e3 a03f bd24 1e3f
00000080: 8258 6b3f 4807 303f a78b 643f 8c40 263f
00000090: 9ca8 803f 2b13 853f 340d 783f 5134 593f
000000a0: 7f29 b13f 90a2 953f 839d 8d3f c082 8d3f
000000b0: 7403 423f b347 9c3f 9483 973f 0f95 3b3f
000000c0: 0b03 8c3f 1718 983f 62e3 733f e955 473f
000000d0: f4e7 893f 31f7 843f f373 403f d071 933f
000000e0: e4c3 283f 0adc 813f b3de 3b3f 1cd0 a63f
000000f0: ce05 5c3f 078a 7b3f d8e9 923f 3d40 533f

gn3.weight f4 [64]
0.8908591 0.8508771 1.4154259 1.2871109 0.11929955 0.5395061 0.2732702 0.573903
0.7049701 0.9588264 0.810105 0.3815612 0.44440055 0.24862953 0.8102687 0.37670475
1.0286834 0.66522217 0.35505998 0.97429585 1.5362881 0.15315363 0.58831054 0.95124453
0.6943094 0.9340031 0.11862788 0.8211257 0.504225 0.8290453 0.5223396 0.6206722
0.99171776 0.84177136 1.2565006 0.38461947 0.09144594 0.88356584 1.5468152 1.1071488
0.84364265 0.22972505 0.17849496 0.5945809 0.50384974 0.17627922 1.1195056 0.49708372
1.4396578 0.61927676 1.1471859 0.22673532 0.8267361 0.94959116 -0.09182181 0.18540788
1.1544341 0.2525395 1.166923 0.88019145 0.1804264 1.350652 1.2758999 0.5749139
00000000: 580f 643f 15d3 593f ad2c b53f 0dc0 a43f
00000010: 5353 f43d 121d 0a3f 12ea 8b3e 4feb 123f
00000020: ec78 343f a675 753f 0b63 4f3f fd5b c33e
00000030: 7888 e33e bd98 7e3e c56d 4f3f 72df c03e
00000040: e6ab 833f 004c 2a3f 6cca b53e 746b 793f
00000050: 17a5 c43f 4ed4 1c3e 859b 163f c384 733f
00000060: 43be 313f d41a 6f3f 2df3 f23d 4b35 523f
00000070: e414 013f 503c 543f 0cb8 053f 60e4 1e3f
00000080: 37e1 7d3f 547e 573f 03d5 a03f d8ec c43e
00000090: 0248 bb3d 5f31 623f 0afe c53f 0db7 8d3f
000000a0: f7f8 573f 0b3d 6b3e 62c7 363e 7436 183f
000000b0: 4cfc 003f 8a82 343e f64b 8f3f c281 fe3e
000000c0: b546 b83f ec88 1e3f fdd6 923f 4e2d 683e
000000d0: faa4 533f 6818 733f 130d bcbd 90db 3d3e
000000e0: 7fc4 933f db4c 813e bc5d 953f 3a54 613f
000000f0: b3c1 383e 2ae2 ac3f b050 a33f 8f2d 133f

gn3.bias f4 [64]
-0.008581234 -0.035634223 -0.093580395 0.023635231 0.053722624 0.04674532 -0.034823485 -0.0746056
0.04106136 -0.0067617213 0.08622657 0.10055191 -0.0895333 0.021554068 0.083464205 -0.04615326
-0.046382833 0.065895766 -0.00034349796 0.07282974 -0.038578715 0.07224075 -0.021869011 0.033736546
-0.0065381327 -0.05499644 -0.08287918 -0.032586273 -0.05131108 -0.020045683 0.14335355 -0.037429843
0.037838902 0.044744514 0.0075256987 0.075104356 -0.056537997 0.05748122 0.044111535 0.0067870403
0.026723787 0.12050375 -0.009826935 0.022734353 -0.17965953 -0.045380063 0.047550578 -0.0591204
0.02889959 -0.081521146 -0.045146685 -0.00617022 -0.040783253 -0.03253019 -0.013471767 0.04736751
0.06762792 -0.09833005 0.032305587 0.049298864 -0.07107233 0.023867765 -0.097483344 -0.047040977
00000000: 4e98 0cbc 31f5 11bd 14a7 bfbd ac9e c13c
00000010: 410c 5c3d 0578 3f3d 12a3 0ebd d2ca 98bd
00000020: f52f 283d 6e91 ddbb 8e97 b03d 29ee cd3d
00000030: 3c5d b7bd 2892 b03c 48ef aa3d 330b 3dbd
00000040: edfb 3dbd 5cf4 863d 8417 b4b9 c227 953d
00000050: b704 1ebd f5f2 933d a426 b3bc 552f 0a3d
00000060: d53d d6bb f243 61bd 8fbc a9bd 2f79 05bd
00000070: 912b 52bd d836 a4bc 46cb 123e 0950 19bd
00000080: f7fc 1a3d 0646 373d 239a f63b 50d0 993d
00000090: 6394 67bd 6e71 6b3d 4cae 343d d265 de3b
000000a0: d8eb da3c acca f63d 2701 21bc 653d ba3c
000000b0: abf8 37be 72e0 39bd 65c4 423d 3c28 72bd
000000c0: d5be ec3c 8ff4 a6bd bbeb 38bd 8f2f cabb
000000d0: 570c 27bd 603e 05bd b0b8 5cbc 6f04 423d
000000e0: 8280 8a3d 4461 c9bd dd52 043d 9bed 493d
000000f0: 5f8e 91bd 5586 c33c 59a5 c7bd 0aae 40bd

gn3.mean_scale f4 [64]
0.93829495 0.9249487 0.7574936 1.1098841 1.0116965 1.0057713 0.9834544 0.8382507
1.0337126 1.0718058 1.0241086 0.74883217 0.8778039 0.93926936 0.9362456 0.99770546
0.9110033 0.897007 0.9873754 0.88036513 1.1954173 1.012725 0.9581731 1.1168034
0.9439779 0.9880218 0.9906497 1.058389 0.9536622 1.0282737 1.1079115 0.8595628
0.8632827 1.0840597 1.1768882 0.87578815 0.984948 1.0400544 0.7095517 1.1533124
1.1091715 1.0238733 0.9475613 0.920501 0.9730276 0.98910534 1.1383542 0.9685853
0.7338276 1.0479778 0.8609527 0.8670539 1.0215033 1.0926833 0.9816551 1.0454857
0.8785716 1.0623302 1.1410366 1.0200195 0.98335266 0.82944894 1.1606883 1.0777569
00000000: 1934 703f 70c9 6c3f 1aeb 413f af10 8e3f
00000010: 457f 813f 1dbd 803f abc3 7b3f 9997 563f
00000020: b250 843f ef30 893f fe15 833f 77b3 3f3f
00000030: c2b7 603f f573 703f cbad 6f3f a069 7f3f
00000040: 8337 693f 40a2 653f a2c4 7c3f 9c5f 613f
00000050: 6f03 993f f9a0 813f d54a 753f 6af3 8e3f
00000060: 89a8 713f ffee 7c3f 389b 7d3f 4a79 873f
00000070: 3523 743f 799e 833f 0bd0 8d3f 4f0c 5c3f
00000080: 1800 5d3f 78c2 8a3f 46a4 963f a733 603f
00000090: 8d25 7c3f 8120 853f 2ea5 353f be9f 933f
000000a0: 55f9 8d3f 480e 833f 6193 723f f4a5 6b3f
000000b0: 5618 793f 0236 7d3f 97b5 913f 35f5 773f
000000c0: 20dc 3b3f 2324 863f 6567 5c3f 3ff7 5d3f
000000d0: 9fc0 823f 0cdd 8b3f c04d 7b3f 7ad2 853f
000000e0: 12ea 603f 70fa 873f 7d0d 923f 0090 823f
000000f0: 00bd 7b3f c456 543f 6f91 943f f0f3 893f

bn0.weight f4 [70]
0.23236498 -0.023475777 -0.012308558 0.058524843 0.44321293 0.5694108 0.25000912 0.4222602
0.49678802 0.13579953 0.24988423 0.5045405 0.22966897 0.4362093 -0.170807 0.43342477
0.22221728 0.58919173 0.31532475 0.3398797 -0.110354595 0.45223665 0.16558713 0.09706308
0.3426788 0.0320766 0.4053148 0.3164944 0.4692557 0.117279045 -0.60445917 0.24008669
0.09879422 0.49910235 0.10923206 0.3494595 0.73956525 0.07854458 0.3739606 -0.07869315
0.30779892 0.35927904 0.27154255 0.5303845 0.41913185 0.5859204 0.43455276 0.5593531
-0.17427325 0.54565006 0.3253243 0.38359493 0.27675667 -0.23551583 0.50346935 0.35049912
0.3959066 0.37483752 0.23749742 0.17848714 0.8581425 0.15958989 0.20554933 0.3290024
1.7718979 2.2262828 2.0704427 2.5162396 2.2959638 2.1705518
00000000: 16f1 6d3e 4650 c0bc d6a9 49bc bfb7 6f3d
00000010: ceec e23e e8c4 113f 3201 803e 7d32 d83e
00000020: 005b fe3e 080f 0b3e a7e1 7f3e 9129 013f
00000030: 582e 6b3e d356 df3e 08e8 2ebe dae9 dd3e
00000040: ed8c 633e 45d5 163f 3f72 a13e b604 ae3e
00000050: 9701 e2bd 908b e73e ac8f 293e 02c9 c63d
00000060: 9873 af3e c162 033d 6c85 cf3e 8e0b a23e
00000070: 4842 f03e ff2f f03d d6bd 1abf 49d9 753e
00000080: a054 ca3d 588a ff3e 0fb5 df3d 5bec b23e
00000090: 2654 3d3f fbdb a03d c477 bf3e e029 a1bd
000000a0: d297 9d3e 6cf3 b73e a007 8b3e 47c7 073f
000000b0: 7398 d63e e1fe 153f b37d de3e c431 0f3f
000000c0: b074 32be b9af 0b3f e890 a63e 8e66 c43e
000000d0: 0db3 8d3e 102b 71be 5ee3 003f 9f74 b33e
000000e0: 45b4 ca3e b4ea bf3e 8632 733e 55c5 363e
000000f0: 3aaf 5b3f 886b 233e 867b 523e 0173 a83e
00000100: 8dcd e23f 6b7b 0e40 2282 0440 120a 2140
00000110: 12f1 1240 52ea 0a40

bn0.bias f4 [70]
0.0028318784 -0.037386574 -0.19394177 -0.013289419 -0.105868824 -0.123343214 0.009839539 -0.06683961
0.089558475 -0.040924735 0.26694918 0.10239922 0.0365067 0.4147482 0.19380979 0.12186638
-0.05549557 0.09917535 -0.2136284 0.31145227 -0.12704358 0.20347995 -0.30704185 0.22917381
-0.060289796 0.032314673 0.14080091 0.05059122 0.0013993067 -0.08024754 0.20611566 0.18446833
-0.072481796 0.051360838 0.07065562 -0.070354424 -0.43419352 0.038391158 0.12041379 0.02468404
-0.15258843 -0.034237936 0.07743865 -0.050333027 0.13921817 0.21358493 -0.085394695 -0.11608668
-0.18537325 0.18581492 0.08453229 -0.07036199 0.052550185 0.3800051 -0.25341895 0.20246318
0.22146471 0.1095304 -0.10726694 0.105847284 -0.034938395 -0.07319226 -0.088936366 -0.14982484
0.17742322 0.09316979 0.23566152 -0.269842 0.17582469 -0.49917653
00000000: 0997 393b aa22 19bd ac98 46be ddbb 59bc
00000010: c1d1 d8bd 5e9b fcbd 0536 213c 35e3 88bd
00000020: 6f6a b73d b2a0 27bd 90ad 883e afb6 d13d
00000030: 0d88 153d e059 d43e 1376 463e 1595 f93d
00000040: 534f 63bd 721c cb3d 67c1 5abe ac76 9f3e
00000050: b617 02be 0c5d 503e 9734 9dbe 8aac 6a3e
00000060: 6ff2 76bd 645c 043d 1d2e 103e bd38 4f3d
00000070: f168 b73a d258 a4bd fc0f 533e 44e5 3c3e
00000080: 5671 94bd be5f 523d e5b3 903d fb15 90bd
00000090: 9d4e debe 0c40 1d3d 819b f63d 2f36 ca3c
000000a0: 2440 1cbe 143d 0cbd 2898 9e3d 012a 4ebd
000000b0: 358f 0e3e 02b6 5a3e 6ae3 aebd dabe edbd
000000c0: 7cd2 3dbe 4446 3e3e 441f ad3d f219 90bd
000000d0: dd3e 573d 0790 c23e 21c0 81be 8252 4f3e
000000e0: a5c7 623e 7951 e03d c5ae dbbd 76c6 d83d
000000f0: 901b 0fbd d3e5 95bd 4524 b6bd af6b 19be
00000100: 6fae 353e cecf be3d 4151 713e bb28 8abe
00000110: 630b 343e 1194 ffbe

bn0.running_mean f4 [70]
1.0140766 -0.22769922 0.8159824 0.46083966 -0.6583372 0.8428115 0.23670569 0.023747092
0.298232 -0.04613957 0.123772904 0.08860616 1.4399055 0.1702066 0.48176375 0.31033102
0.31591317 -0.5237302 0.2392608 0.69787776 0.28944257 -2.3299768 -0.17973371 0.5419128
-1.0563599 1.7251722 -0.94089967 -0.59774107 -1.4424924 -1.3226373 1.1967624 0.22540301
-0.5892938 -1.4674319 1.6193641 -0.26648414 0.5986291 -1.259018 -1.3224714 -1.5913392
-0.5134882 0.4983397 1.1512235 0.032146152 -0.7434792 0.7361151 0.3492604 -0.868704
-1.324269 0.37312603 0.77531636 0.34030056 0.89662707 -0.3446973 0.8210465 1.4051012
-1.1897806 1.0477977 -1.6540182 -0.7158293 -0.06406909 0.02884027 0.1232313 -0.838339
3.533832 1.1170673 69.53459 66.570595 102.69909 60.517376
00000000: 43cd 813f fc29 69be 39e4 503f 2df3 eb3e
00000010: c988 28bf 7fc2 573f fa62 723e 4389 c23c
00000020: ddb1 983e d9fc 3cbd a67c fd3d 2577 b53d
00000030: d34e b83f a44a 2e3e bda9 f63e b5e3 9e3e
00000040: 5fbf a13e 2f13 06bf c800 753e 1ea8 323f
00000050: d131 943e 571e 15c0 1d0c 38be ccba 0a3f
00000060: cd36 87bf 71d2 dc3f cdde 70bf 8f05 19bf
00000070: 97a3 b8bf 2e4c a9bf 832f 993f 0cd0 663e
00000080: f5db 16bf cfd4 bbbf 5347 cf3f 9c70 88be
00000090: c23f 193f 8027 a1bf be46 a9bf 01b1 cbbf
000000a0: f673 03bf 6226 ff3e 4b5b 933f afab 033d
000000b0: a754 3ebf 0a72 3c3f 42d2 b23e 6363 5ebf
000000c0: a681 a9bf 600a bf3e 227b 463f e03b ae3e
000000d0: 5a89 653f 2a7c b0be 1a30 523f 5bda b33f
000000e0: bb4a 98bf 3c1e 863f deb6 d3bf 9740 37bf
000000f0: a836 83bd 6e42 ec3c b160 fc3d 629d 56bf
00000100: 4e2a 6240 10fc 8e3f b611 8b42 2524 8542
00000110: ef65 cd42 cb11 7242

bn0.running_var f4 [70]
0.038895354 0.015885781 0.015719222 0.005110936 0.016837073 0.04960195 0.03547418 0.04558865
0.047764678 0.0072964807 0.020160554 0.051744703 0.010786924 0.041751005 0.007282395 0.09167221
0.0029374352 0.032875344 0.012925179 0.012689148 0.020692712 0.09068013 0.0107747335 0.03324135
0.014751634 0.0039247223 0.01843313 0.023621837 0.019556528 0.009967094 0.022722676 0.037894525
0.007250844 0.07223678 0.0061033615 0.0208208 0.0822021 0.0023965782 0.037456658 0.013942953
0.054667052 0.030516468 0.017916651 0.03554258 0.02893603 0.02029755 0.026756896 0.08361337
0.016193867 0.048368752 0.032909494 0.011696667 0.06283586 0.03070406 0.012572231 0.027401775
0.066945605 0.02051001 0.015138716 0.028185641 0.034949943 0.0202505 0.020986704 0.008953836
2.2242818 0.5467249 2153.7004 1926.8645 4802.0703 1846.7004
00000000: bc50 1f3d e622 823c 99c5 803c a379 a73b
00000010: e7ed 893c 6a2b 4b3d 604d 113d 2abb 3a3d
00000020: e5a4 433d 5117 ef3b bf27 a53c 41f2 533d
00000030: a3bb 303c 1a03 2b3d 28a1 ee3b a4be bb3d
00000040: fc81 403b 4ca8 063d 21c4 533c 25e6 4f3c
00000050: c383 a93c 81b6 b93d 8288 303c 1528 083d
00000060: d6b0 713c f59a 803b 1301 973c 9582 c13c
00000070: 0335 a03c 064d 233c e824 ba3c 4a37 1b3d
00000080: 7d98 ed3b e0f0 933d b5fe c73b 6290 aa3c
00000090: 9359 a83d e90f 1d3b 276c 193d fc70 643c
000000a0: 8fea 5f3d acfd f93c f1c5 923c 1995 113d
000000b0: 410b ed3c 0c47 a63c 4731 db3c 7d3d ab3d
000000c0: 00a9 843c 501e 463d 1bcc 063d 61a3 3f3c
000000d0: 16b0 803d 1587 fb3c c2fb 4d3c b079 e03c
000000e0: c71a 893d 9c04 a83c 6108 783c 93e5 e63c
000000f0: ac27 0f3d 60e4 a53c 4fec ab3c 1cb3 123c
00000100: a25a 0e40 2af6 0b3f 359b 0645 aadb f044
00000110: 9010 9645 6ad6 e644

bn1.weight f4 [64]
1.3374847 0.9066806 0.90442705 1.9712566 1.3843696 1.5478507 0.67411417 1.6337177
1.1897595 0.6590427 0.7574104 1.0368627 1.229741 0.82342446 1.2540762 0.45520258
1.0898788 0.75805545 1.1510987 0.9199042 1.5939122 1.0899578 0.9739886 0.9941871
1.0937057 1.2012547 1.3531623 1.2143029 1.2237048 1.5243121 0.9685525 0.94872993
1.3653216 0.2552178 0.91628796 0.9749659 1.4066533 1.2860476 0.23321605 1.1052266
2.1240199 1.5050234 0.016923232 1.1732875 1.4084035 0.8388514 1.1924689 1.5009665
1.6806118 0.39575788 0.77205884 1.2796118 1.2677472 0.87662977 0.4032413 0.43055683
1.157563 0.8940464 1.0830842 1.0036283 1.3703605 1.3163924 1.2836448 1.3160613
00000000: b332 ab3f 381c 683f 8888 673f 2352 fc3f
00000010: 0633 b13f f91f c63f bf92 2c3f a91d d13f
00000020: 0a4a 983f 06b7 283f a6e5 413f ebb7 843f
00000030: 2768 9d3f f2cb 523f 9285 a03f 5010 e93e
00000040: 2681 8b3f ec0f 423f 3457 933f d77e 6b3f
00000050: 5105 cc3f bd83 8b3f 5157 793f 0c83 7e3f
00000060: 8cfe 8b3f b7c2 993f 6c34 ad3f 476e 9b3f
00000070: 5ca2 9c3f a91c c33f 0ef3 773f f7df 723f
00000080: dcc2 ae3f e8ab 823e d991 6a3f 5d97 793f
00000090: 370d b43f 359d a43f 30d0 6e3e 1178 8d3f
000000a0: f1ef 0740 9ba4 c03f 97a2 8a3c 492e 963f
000000b0: 9146 b43f f7be 563f d2a2 983f ac1f c03f
000000c0: 4a1e d73f c7a0 ca3e a6a5 453f 52ca a33f
000000d0: 8a45 a23f cf6a 603f a575 ce3e f271 dc3e
000000e0: 062b 943f 3ae0 643f 81a2 8a3f e476 803f
000000f0: f967 af3f 8c7f a83f 794e a43f b274 a83f

bn1.bias f4 [64]
0.6267373 0.19654314 -0.34080645 0.5389782 0.22396408 0.14288571 0.48661825 -0.12552814
-0.21853884 0.029703792 -0.036633547 0.4609098 0.57671624 0.21136102 -0.3032328 0.35918728
0.09674823 -0.0135041615 0.10859684 0.52886 -0.02249289 -0.48596594 -0.12860537 0.1293173
0.391209 -0.13916418 0.3523418 0.38223812 0.2028765 -0.24581186 0.38121328 0.4454415
0.19933698 -0.018883673 0.4296022 0.3113288 -0.0081387805 0.31186113 -1.0954251 0.008827115
0.7227152 0.0939079 0.07697252 0.14373837 0.014418692 0.03272537 0.06183047 0.6230497
0.19828936 0.017240578 -0.37858933 0.005643144 0.6598942 -0.20541789 0.16260454 0.42812952
0.13602124 -0.054669548 0.05664705 0.09878816 0.13842969 0.43691257 0.37960342 0.33632463
00000000: db71 203f 9b42 493e 2f7e aebe 7afa 093f
00000010: d756 653e a250 123e 0726 f93e 738a 00be
00000020: a5c8 5fbe 5e55 f33c 0f0d 16bd 5ffc eb3e
00000030: ada3 133f 066f 583e 5441 9bbe 65e7 b73e
00000040: f023 c63d 8f40 5dbc 0568 de3d 5e63 073f
00000050: 0243 b8bc 87d0 f8be 20b1 03be c16b 043e
00000060: 8c4c c83e 0e81 0ebe 2566 b43e b7b4 c33e
00000070: dbbe 4f3e 1bb6 7bbe 632e c33e e910 e43e
00000080: fe1e 4c3e efb1 9abc d2f4 db3e 7d66 9f3e
00000090: 8558 05bc 43ac 9f3e e436 8cbf 9b9f 103c
000000a0: dd03 393f c952 c03d c5a3 9d3d 2730 133e
000000b0: 613c 6c3c 0a0b 063d f241 7d3d 2f80 1f3f
000000c0: 5e0c 4b3e 1d3c 8d3c 76d6 c1be 1fea b83b
000000d0: d4ee 283f 1159 52be ce81 263e cb33 db3e
000000e0: 2749 0b3e 2ded 5fbd bd06 683d 7251 ca3d
000000f0: 83c0 0d3e 01b3 df3e 615b c23e be32 ac3e

bn1.running_mean f4 [64]
0.3373096 0.9501579 0.6426513 1.9843949 1.2974179 0.70171386 1.1804242 1.8383638
1.4621199 0.6620784 2.1644886 0.96173966 0.9096904 1.24507 2.3159006 1.1819754
1.9897753 0.465747 0.46040833 0.31395456 2.38995 1.7773925 1.7262827 1.942459
1.2469746 0.89893705 1.1322448 0.9529808 1.0587946 3.1373453 1.2436689 0.77766013
2.6180844 1.2346592 2.4874756 0.9955422 2.850589 0.5723095 1.601863 1.0262723
2.3652327 0.75649464 0.78946507 1.0935289 0.8234913 1.2997532 0.4284048 2.8007479
1.588421 1.7484156 0.61526287 1.242115 2.5878987 1.0905486 0.4080401 0.60200727
2.42996 1.2496033 1.3828222 0.29412055 1.4157221 1.1356064 1.7854542 1.163068
00000000: d8b3 ac3e 8c3d 733f cc84 243f a700 fe3f
00000010: ca11 a63f 85a3 333f 2418 973f 814f eb3f
00000020: bf26 bb3f f87d 293f fb86 0a40 9234 763f
00000030: 78e1 683f 745e 9f3f b737 1440 f84a 973f
00000040: f5b0 fe3f 6476 ee3e a4ba eb3e a7be a03e
00000050: f1f4 1840 9981 e33f d5f6 dc3f 7fa2 f83f
00000060: dd9c 9f3f bd20 663f 66ed 903f 8df6 733f
00000070: 9586 873f 44ca 4840 8b30 9f3f bc14 473f
00000080: b28e 2740 5009 9e3f cd32 1f40 dbdb 7e3f
00000090: 0d70 3640 e082 123f d909 cd3f e45c 833f
000000a0: f95f 1740 a2a9 413f 621a 4a3f c1f8 8b3f
000000b0: 53d0 523f 505e a63f e057 db3e 743f 3340
000000c0: 6151 cb3f 15cc df3f de81 1d3f a0fd 9e3f
000000d0: 22a0 2540 1997 8b3f a2ea d03e 261d 1a3f
000000e0: 7784 1b40 00f3 9f3f 5100 b13f f896 963e
000000f0: 6236 b53f 8d5b 913f c389 e43f 6adf 943f

bn1.running_var f4 [64]
2.2326071 2.8160908 3.2548976 17.090088 4.1963854 1.861452 3.3709588 12.332668
10.288517 2.6872785 5.4577785 5.5342946 2.6954894 7.202741 10.82107 2.536021
6.7820897 0.7917556 0.9581307 0.84148496 9.452388 6.268939 4.114068 7.5053515
7.253456 3.4965286 3.3436186 5.30303 3.4334567 9.201333 7.738299 2.4198625
9.522084 2.4281547 7.486751 4.963214 10.231545 1.5349717 5.0625486 2.4513478
15.07852 2.6919553 0.51177585 4.1820397 2.8633807 5.3749466 1.9971219 8.734359
5.407878 3.4301472 1.5727502 4.337058 7.954356 2.1418698 1.2776093 1.2423172
7.0444775 3.1369398 4.207489 0.5882252 9.541002 5.992332 5.8771167 3.3015811
00000000: 09e3 0e40 d53a 3440 3e50 5040 80b8 8841
00000010: ca48 8640 0f44 ee3f cabd 5740 9c52 4541
00000020: c49d 2441 5ffc 2b40 1fa6 ae40 f118 b140
00000030: e682 2c40 db7c e640 1a23 2d41 2b4e 2240
00000040: e106 d940 7fb0 4a3f 0e48 753f 8f6b 573f
00000050: fb3c 1741 269b c840 72a6 8340 d72b f040
00000060: 501c e840 20c7 5f40 d9fd 5540 6cb2 a940
00000070: c1bd 5b40 a938 1341 25a0 f740 07df 1a40
00000080: 755a 1841 e366 1b40 7793 ef40 a6d2 9e40
00000090: 69b4 2341 f479 c43f 6600 a240 e2e2 1c40
000000a0: 9e41 7141 ff48 2c40 be03 033f 45d3 8540
000000b0: a141 3740 90ff ab40 b1a1 ff3f efbf 0b41
000000c0: 560d ad40 8887 5b40 e14f c93f 2ec9 8a40
000000d0: 168a fe40 6514 0940 b488 a33f 4004 9f3f
000000e0: 5c6c e140 9fc3 4840 c0a3 8640 ed95 163f
000000f0: f2a7 1841 2fc1 bf40 5711 bc40 1b4d 5340

bn2.weight f4 [64]
0.40996912 0.7889344 0.4172121 0.34822226 0.80005425 0.8369025 0.8418144 0.075399406
0.93376327 0.5839487 0.8093103 0.17485948 0.22127834 0.8037969 0.44616985 0.7171548
0.24860217 0.90999156 0.75210506 0.5932166 0.45259663 0.58507675 0.65895057 0.75991565
0.9781539 0.71362394 0.66623026 -0.026453927 0.78938395 0.7512512 0.88350564 0.99903584
1.0538951 0.3464843 0.7455189 0.2927998 0.7338008 0.33149827 0.67510957 0.7405091
0.5000847 0.8457653 0.49800256 0.19644639 0.42064795 0.8594481 0.3969803 0.34673864
0.92353904 0.056236867 0.05502435 0.6341822 0.4336579 0.64581996 0.15792024 0.2723919
0.8657988 1.0892762 0.77620035 0.8287526 0.5962263 0.9342367 0.25129715 0.63967294
00000000: 79e7 d13e 9bf7 493f d39c d53e 304a b23e
00000010: 5bd0 4c3f 3e3f 563f 2681 573f 016b 9a3d
00000020: 1c0b 6f3f a97d 153f f62e 4f3f 5d0e 333e
00000030: ca96 623e a2c5 4d3f 6070 e43e 7597 373f
00000040: 9191 7e3e 35f5 683f f589 403f 0bdd 173f
00000050: bfba e73e 97c7 153f fcb0 283f d589 423f
00000060: 4b68 7a3f 0fb0 363f 118e 2a3f e8b5 d8bc
00000070: 1115 4a3f 0052 403f 6d2d 623f d0c0 7f3f
00000080: 09e6 863f 6466 b13e 54da 3e3f dbe9 953e
00000090: 5fda 3b3f 24ba a93e fbd3 2c3f 0192 3d3f
000000a0: 8d05 003f 1384 583f 31fa fe3e 3e29 493e
000000b0: 2b5f d73e ca04 5c3f 0041 cb3e ba87 b13e
000000c0: 0e6d 6c3f a158 663d 3661 613d c459 223f
000000d0: 6908 de3e 7554 253f d8b5 213e f376 8b3e
000000e0: fda4 5d3f 676d 8b3f 11b5 463f 2129 543f
000000f0: 49a2 183f 232a 6f3f 05aa 803e 9bc1 233f

bn2.bias f4 [64]
0.14791416 0.3725785 0.13977711 0.09235624 0.2824351 0.20078143 0.2989268 -0.14055094
0.22699034 0.23961538 0.37311623 0.019342637 0.09262018 0.34150994 0.09383461 0.29762018
0.052071024 0.19708316 0.29639676 0.112915896 0.18064904 0.2113606 0.22392157 0.34095967
0.28262556 0.30138102 0.28453198 0.010176222 0.2623639 0.28389883 0.39005196 0.39447463
0.4483166 0.07219092 0.15866005 0.081671365 0.31064788 0.10918239 0.18101081 0.24689314
0.1841777 0.33631963 0.14699419 0.024072776 0.122391924 0.3527662 0.12820303 0.075418845
0.40320626 0.0014489761 -0.044426434 0.2576035 0.14760067 0.22611634 0.05206288 0.09107769
0.3078142 0.4646036 0.33482817 0.21073759 0.26167655 0.3690104 0.044890244 0.30035707
00000000: cf76 173e 9cc2 be3e bb21 0f3e 4525 bd3d
00000010: 559b 903e a699 4d3e ef0c 993e 96ec 0fbe
00000020: 2870 683e bc5d 753e 1709 bf3e 7374 9e3c
00000030: a6af bd3d 64da ae3e 5c2c c03d ac61 983e
00000040: 6d48 553d 2bd0 493e 51c1 973e 7340 e73d
00000050: 10fc 383e ea6e 583e b24b 653e 4492 ae3e
00000060: 4cb4 903e 9d4e 9a3e 2dae 913e 2bba 263c
00000070: 9054 863e 305b 913e e4b4 c73e 94f8 c93e
00000080: c189 e53e d5d8 933d c877 223e 5143 a73d
00000090: 3d0d 9f3e 049b df3d e65a 393e 8ed1 7c3e
000000a0: 1499 3c3e 1632 ac3e a585 163e 4534 c53c
000000b0: 9ea8 fa3d c59d b43e a847 033e 3275 9a3d
000000c0: 0d71 ce3e 92eb bd3a 7ef8 35bd 9be4 833e
000000d0: a124 173e 0b8b 673e e33f 553d f186 ba3d
000000e0: d399 9d3e 86e0 ed3e 996e ab3e 98cb 573e
000000f0: 78fa 853e eeee bc3e d5de 373d 67c8 993e

bn2.running_mean f4 [64]
1.5687895 4.949953 0.9672166 1.1412146 2.4115956 1.1352562 1.6116965 0.22078282
1.2266651 1.7380401 4.1709347 0.7087696 1.5875219 4.882097 1.8008192 1.9333683
0.838329 2.0365803 3.0490563 0.6951231 2.0961213 2.7378008 3.9328156 1.9476898
1.547605 2.2313344 1.7092211 1.0150642 4.163215 2.355024 3.168512 3.9937303
3.426251 0.28967327 2.8401585 0.44848308 2.0040505 1.5838104 2.1411996 3.483172
1.4791992 2.3202746 1.5769769 1.1084431 0.66701347 3.5394738 0.8369813 0.47119313
3.2018106 0.31858227 0.10403826 3.7025352 1.4081013 1.8738087 1.0060827 0.96392596
2.5464895 3.7581596 4.1163197 1.2576584 3.3198888 2.903446 0.1406509 3.490529
00000000: 18ce c83f 0466 9e40 829b 773f 5213 923f
00000010: 9557 1a40 1350 913f 124c ce3f e414 623e
00000020: 5d03 9d3f 1978 de3f 4c78 8540 ed71 353f
00000030: eb33 cb3f 233a 9c40 3e81 e63f 9d78 f73f
00000040: bb9c 563f 5557 0240 bd23 4340 96f3 313f
00000050: da26 0640 2138 2f40 40b3 7b40 e64d f93f
00000060: ec17 c63f 2fce 0e40 c2c7 da3f a0ed 813f
00000070: 0f39 8540 b7b8 1640 e7c8 4a40 4799 7f40
00000080: b247 5b40 0e50 943e 28c5 3540 939f e53e
00000090: 5d42 0040 4dba ca3f 6a09 0940 4aec 5e40
000000a0: 6656 bd3f 617f 1440 61da c93f 77e1 8d3f
000000b0: 65c1 2a3f bd86 6240 6844 563f 3a40 f13e
000000c0: 77ea 4c40 371d a33e 0312 d53d 56f6 6c40
000000d0: aa3c b43f f7d8 ef3f 51c7 803f dac3 763f
000000e0: aff9 2240 b085 7040 e4b8 8340 f3fa a03f
000000f0: 0f79 5440 0fd2 3940 ca06 103e d464 5f40

bn2.running_var f4 [64]
15.327978 103.44125 8.203623 7.627962 39.221382 20.906183 24.475592 0.9585226
23.23695 17.051502 63.20333 4.558565 13.333727 106.71804 33.592022 22.977304
9.879377 47.53977 43.950386 8.233817 22.893763 29.700548 82.14161 19.776062
21.652473 28.236393 16.392172 8.727386 103.96473 34.31533 42.29568 81.52551
57.527905 1.6705074 69.61954 2.4693284 23.152681 15.788538 38.17155 53.31355
15.208068 30.082994 23.534307 11.921242 4.0990725 63.131664 5.6576896 3.0552332
51.183228 3.242399 0.5258618 43.7047 16.642332 20.6563 5.511807 9.272766
38.295475 68.33657 78.46718 21.930883 55.11512 49.254498 0.71037954 52.803715
00000000: 663f 7541 ece1 ce42 0a42 0341 4418 f440
00000010: b2e2 1c42 dd3f a741 03ce c341 bd61 753f
00000020: 46e5 b941 7a69 8841 36d0 7c42 c4df 9140
00000030: f256 5541 a36f d542 3b5e 0642 85d1 b741
00000040: ee11 1e41 b928 3e42 32cd 2f42 b7bd 0341
00000050: 6d26 b741 b99a ed41 8148 a442 6035 9e41
00000060: 4438 ad41 22e4 e141 2b23 8341 60a3 0b41
00000070: f1ed cf42 e642 0942 c72e 2942 100d a342
00000080: 931c 6642 30d3 d53f 343d 8b42 7a09 1e40
00000090: b138 b941 da9d 7c41 abaf 1842 1341 5542
000000a0: 3f54 7341 f9a9 f041 4346 bc41 68bd 3e41
000000b0: 9a2b 8340 d386 7c42 cb0b b540 f188 4340
000000c0: a0bb 4c42 7783 4f40 e19e 063f 9dd1 2e42
000000d0: 7f23 8541 1a40 a541 b960 b040 405d 1441
000000e0: 912e 1942 53ac 8842 32ef 9c42 7372 af41
000000f0: e275 5c42 9b04 4542 6fdb 353f 0137 5342

conv1.mlp.0.weight f4 [64, 18]
-0.1917591 -0.5982821 2.6643414 0.0071744933 -0.14283988 0.6830091 0.2469436 0.20967193
0.088237405 0.15915619 -0.06421749 -0.006680919 0.6167407 0.06452768 0.0637145 -0.09212505
-0.3199737 -0.14589304 0.43496898 -0.23020002 -0.55016506 -0.21309695 -0.12815134 -2.4500794
-0.30508107 0.48942545 -0.42887592 -0.22084866 0.06701922 0.28140706 0.0667805 -0.78453314
0.06456577 0.46045032 -0.6892933 0.7160003 -0.3550097 2.6881783 0.041048642 0.06873448
-0.50562394 0.3050215 -0.21836264 -0.14291 0.05466801 0.23748843 0.04902922 2.3970266e-05
0.30514783 -0.017934559 -0.064597525 -0.2148511 -0.26965442 0.13226843 0.50332385 -0.049805574
0.08739875 -0.18504107 2.028594 0.29334036 -0.37759942 -1.3583931 -0.19108582 0.12026631
-0.18392889 0.16647404 0.37438813 -0.26073167 -0.19626822 -0.25350022 0.02837026 0.03991262
-0.19891095 -3.471659 0.051841937 -0.09982958 0.027461354 0.17422494 0.057872914 -0.37065917
-0.31245294 0.163295 0.20331219 -0.009204525 -0.1821264 -0.053370938 0.19124053 0.016043875
-0.028094953 0.02634467 -0.1503192 0.672301 2.5793188 0.40668353 -0.19770584 0.33939344
-0.4244968 0.022112347 -0.3760448 0.21907733 0.021589963 0.08141221 -0.29053736 -0.09156951
-0.114012025 -0.00037894447 -0.5322129 -0.020146376 -0.23609273 0.16203597 1.6639106 0.23816065
0.15511648 0.074698135 -1.0999402 -0.6425529 -0.01750103 -0.09530064 -0.10174784 -0.80545884
-0.049241725 0.097978614 0.10948406 0.30456015 0.26570922 0.29207376 -0.10174875 -1.2519405
-1.3322275 -0.23478466 -0.533139 0.42516968 -0.20492353 -0.42397454 0.35059637 0.2940631
0.37391677 0.07946743 -0.030869951 -0.12311483 -0.44489148 -0.015249104 -0.48148775 0.24922885
-0.37361956 0.41983956 -2.950816 0.098030746 0.03453007 0.18480891 -0.4827794 -0.26868394
-0.3290791 0.030110246 -0.097701356 0.09774822 0.05069519 -0.32663527 0.004915351 -0.3212855
-0.2193838 0.14379302 -0.23607174 1.1698371 1.6521963 -0.047388773 0.12811437 0.46295986
0.22646731 0.11117134 0.012820117 0.15095863 0.055536103 0.13580467 -0.030868486 0.018470382
-0.39461258 -0.22072884 -0.5463603 -0.19581293 -1.4352232 -0.09491647 0.062476337 0.14266439
0.18116918 -0.34427756 -0.8904498 -0.44924057 -1.2963024 0.29754353 0.06673473 0.1251064
0.18698888 0.01100295 0.35569575 0.639481 0.66290057 0.051802117 -1.0093454 -0.27264622
-0.12549557 -0.20120391 0.12355789 -1.3077115 -1.1370032 0.08457596 0.602949 0.7127621
-0.124991186 0.022582198 -0.38853103 0.07386418 0.17581974 -0.14869471 -0.6186051 0.21345712
0.6545226 0.40866598 0.76525706 -0.18906203 0.0557676 0.48413408 -0.575047 -0.31812614
-1.425641 -0.3780285 0.06092761 0.18529421 0.08907369 0.05893891 -0.22102211 -0.7016124
0.22030514 -0.58845794 0.13135348 -1.283996 -1.5647029 0.37575635 -0.08383662 -0.023822315
-0.24371335 -0.26538754 0.065910496 -0.014523009 0.13653183 0.000672138 -0.022201594 0.021267738
-0.1541882 -0.14523214 0.021743944 0.10670437 -0.44741517 0.09830875 -2.320923 0.053559303
00000000: 7f5c 44be 0429 19bf 9284 2a40 0318 eb3b
00000010: 9e44 12be afd9 2e3f c8de 7c3e 3db4 563e
00000020: d0b5 b43d d7f9 223e 7684 83bd 9ceb dabb
00000030: b8e2 1d3f 1727 843d bf7c 823d 0fac bcbd
00000040: 98d3 a3be fc64 15be 41b4 de3e 8eb9 6bbe
00000050: 9ed7 0cbf 1636 5abe 1b3a 03be 1ace 1cc0
00000060: 9633 9cbe f995 fa3e a095 dbbe 2726 62be
00000070: 5f41 893d 9614 903e 37c4 883d 2ad7 48bf
00000080: 0f3b 843d 25c0 eb3e 8775 30bf cc4b 373f
00000090: d5c3 b5be 1d0b 2c40 9f22 283d aac4 8c3d
000000a0: 9270 01bf c72b 9c3e 759a 5fbe 0057 12be
000000b0: 90eb 5f3d 2b30 733e ddd2 483d c113 c937
000000c0: 563c 9c3e 7feb 92bc b54b 84bd ed01 5cbe
000000d0: 2510 8abe 6071 073e d5d9 003f ee00 4cbd
000000e0: 1efe b23d 687b 3dbe 7cd4 0140 b530 963e
000000f0: b654 c1be d3df adbf 00ac 43be 2f4e f63d
00000100: db57 3cbe 2c78 2a3e cdaf bf3e 9f7e 85be
00000110: 89fa 48be c8ca 81be bf68 e83c 6a7b 233d
00000120: 50af 4bbe a92f 5ec0 3658 543d 7373 ccbd
00000130: a2f6 e03c 0668 323e 260c 6d3d 0ac7 bdbe
00000140: d5f9 9fbe ce36 273e 1231 503e 93ce 16bc
00000150: 587f 3abe 7c9b 5abd 8fd4 433e 726e 833c
00000160: 6327 e6bc c7d0 d73c 47ed 19be eb1b 2c3f
00000170: 8f13 2540 d338 d03e 6673 4abe fac4 ad3e
00000180: a557 d9be f424 b53c f288 c0be cf55 603e
00000190: 6fdd b03c 72bb a63d 50c1 94be cc88 bbbd
000001a0: 237f e9bd 11ad c6b9 1b3f 08bf 030a a5bc
000001b0: 4bc2 71be c2ec 253e 06fb d43f 63e0 733e
000001c0: dbd6 1e3e 56fb 983d d7ca 8cbf 597e 24bf
000001d0: 525e 8fbc fb2c c3bd 2c61 d0bd 8d32 4ebf
000001e0: b1b1 49bd 03a9 c83d 2e39 e03d 4fef 9b3e
000001f0: 0a0b 883e b18a 953e a661 d0bd 963f a0bf
00000200: 6e86 aabf 646b 70be cc7b 08bf d7af d93e
00000210: 79d7 51be 3113 d9be 5e81 b33e 708f 963e
00000220: 0572 bf3e d2bf a23d fbe2 fcbc a123 fcbd
00000230: d1c8 e3be 61d7 79bc 9085 f6be d935 7f3e
00000240: 104b bfbe 36f5 d63e 2bda 3cc0 58c4 c83d
00000250: 676f 0d3d 8c3e 3d3e dd2e f7be f190 89be
00000260: 0e7d a8be c3a9 f63c a617 c8bd 3830 c83d
00000270: c2a5 4f3d bd3c a7be f410 a13b 887f a4be
00000280: 26a6 60be 7a3e 133e cabc 71be 39bd 953f
00000290: 2b7b d33f bb1a 42bd 6a30 033e 1309 ed3e
000002a0: 0ce7 673e cdad e33d 780b 523c e694 1a3e
000002b0: d379 633d 6110 0b3e e8df fcbc 334f 973c
000002c0: a90a cabe be06 62be 45de 0bbf 2f83 48be
000002d0: 65b5 b7bf 9163 c2bd 30e7 7f3d 9d16 123e
000002e0: 6a84 393e 2645 b0be 85f4 63bf dc02 e6be
000002f0: 3ded a5bf a057 983e 38ac 883d e41b 003e
00000300: 037a 3f3e b845 343c c11d b63e 07b5 233f
00000310: dab3 293f 752e 543d 3b32 81bf 4998 8bbe
00000320: e981 00be 6608 4ebe eb0b fd3d 1763 a7bf
00000330: 5289 91bf 2936 ad3d de5a 1a3f 9477 363f
00000340: 61fb ffbd 4dfe b83c 8aed c6be 1a46 973d
00000350: 170a 343e 6d43 18be e75c 1ebf 8194 5a3e
00000360: cb8e 273f ab3c d13e e3e7 433f 7a99 41be
00000370: 916c 643d 6ce0 f73e 4836 13bf 6ee1 a2be
00000380: 677b b6bf f48c c1be 3b8f 793d c4bd 3d3e
00000390: 446c b63d ed69 713d 9f53 62be df9c 33bf
000003a0: ac97 613e 2ea5 16bf 8781 063e fb59 a4bf
000003b0: 2f48 c8bf 2363 c03e 89b2 abbd 0427 c3bc
000003c0: fe8f 79be e0e0 87be 15fc 863d eaf1 6dbc
000003d0: 00cf 0b3e 6b32 303a 1ee0 b5bc ae39 ae3c
000003e0: 83e3 1dbe bcb7 14be 5b20 b23c d287 da3d
000003f0: 9a13 e5be 1956 c93d 018a 14c0 0061 5b3d

conv1.mlp.0.bias f4 [64]
-1.0217854 0.105417475 -0.9720524 -1.3886877 -0.8190148 -0.7584496 -0.6803412 -0.85637116
-0.7970865 -0.72519016 -0.8996911 0.5514326 -0.7640634 -0.4957888 -0.9082635 -0.7138465
-0.19504885 -0.15771592 -0.86715835 0.2790122 -0.18106212 -0.61420035 -0.9212843 -0.58286524
-1.4573046 -0.82596314 0.95120484 -0.24288695 -0.6489731 -0.08266888 -1.22416 -0.5061931
-0.20936175 -0.83324534 0.04582209 0.005501892 -1.2575172 0.10634905 -0.4711764 0.16894852
-0.50600505 -0.47324562 -0.36703423 0.24360928 -1.1528126 -0.50864375 -0.6669763 -1.0214154
0.20317316 -0.50550026 -0.6714263 -0.35289636 -0.50986856 -1.4307634 -1.0359931 0.39324546
0.7347782 -0.9054755 -0.06749422 -0.86854947 -1.4830164 0.0714902 -0.83527017 0.45197746
00000000: ddc9 82bf 1ee5 d73d 6dd8 78bf 85c0 b1bf
00000010: f4aa 51bf c129 42bf d72a 2ebf 243b 5bbf
00000020: dc0d 4cbf 10a6 39bf 2852 66bf b02a 0d3f
00000030: a999 43bf 08d8 fdbe f583 68bf a5be 36bf
00000040: e3ba 47be 4880 21be 17fe 5dbf b0da 8e3e
00000050: 5968 39be 3c3c 1dbf 4ad9 6bbf a836 15bf
00000060: f588 babf 5272 53bf 2982 733f 5bb7 78be
00000070: 1a23 26bf 4d4e a9bd 46b1 9cbf df95 01bf
00000080: ed62 56be 914f 55bf f2af 3b3d 3749 b43b
00000090: 53f6 a0bf 88cd d93d 083e f1be d700 2d3e
000000a0: 8c89 01bf 404d f2be e9eb bbbe b674 793e
000000b0: 5d8f 93bf 7a36 02bf f5be 2abf bdbd 82bf
000000c0: a00c 503e 7768 01bf 98e2 2bbf d5ae b4be
000000d0: bf86 02bf 4123 b7bf 6c9b 84bf 7857 c93e
000000e0: 6d1a 3c3f 3ecd 67bf 693a 8abd 4259 5ebf
000000f0: 7bd3 bdbf 7469 923d 44d4 55bf 9769 e73e

conv1.mlp.2.weight f4 [64]
1.6169171 1.0650306 1.537667 2.1159089 1.8249346 1.5184127 1.2368906 1.1451949
1.5184405 1.3145585 0.9005017 1.0578797 1.248743 0.9877446 1.4072834 1.3366072
1.3941984 0.71423644 1.2030834 1.0135393 1.1088109 0.9971589 1.542066 0.701496
2.0059574 1.2465171 1.1431644 0.7350387 1.3415985 1.1376603 1.8098148 1.405063
0.7253917 1.3555193 1.0365022 0.72825223 1.4681242 1.6620655 0.88759243 1.0460168
1.1024296 1.0023835 0.9262172 0.29107776 1.6753198 1.2543832 1.3137984 1.2872913
0.94437003 0.7474912 1.49136 1.239764 0.95515394 1.5156323 1.1427629 0.629551
1.1500849 1.2415076 1.2353609 1.3255129 1.3592048 1.3340114 0.8290952 1.4418525
00000000: 24f7 ce3f ec52 883f 46d2 c43f 0d6b 0740
00000010: 7597 e93f 595b c23f 6e52 9e3f bf95 923f
00000020: 425c c23f 7443 a83f 4887 663f 9a68 873f
00000030: d0d6 9f3f d5dc 7c3f dd21 b43f f215 ab3f
00000040: 1875 b23f 33d8 363f a3fe 993f a8bb 813f
00000050: 84ed 8d3f ce45 7f3f 6b62 c53f 3e95 333f
00000060: 9b61 0040 df8d 9f3f 3653 923f 7f2b 3c3f
00000070: 80b9 ab3f da9e 913f 03a8 e73f 1bd9 b33f
00000080: 45b3 393f a881 ad3f 1bac 843f bd6e 3a3f
00000090: 7eeb bb3f 90be d43f 4239 633f e1e3 853f
000000a0: 6a1c 8d3f 1a4e 803f 921c 6d3f 2508 953e
000000b0: e170 d63f a18f a03f 8c2a a83f f6c5 a43f
000000c0: 3cc2 713f 955b 3f3f e2e4 be3f 96b0 9e3f
000000d0: f884 743f 3d00 c23f 0e46 923f 412a 213f
000000e0: fb35 933f b9e9 9e3f 4e20 9e3f 68aa a93f
000000f0: 6cfa ad3f e3c0 aa3f 953f 543f 9f8e b83f

conv1.mlp.2.bias f4 [64]
0.01172682 0.5282323 0.090862066 -0.08640777 0.31987903 -0.1068683 -0.11650829 -0.15857826
0.16002849 0.3345706 -0.2759421 -0.31013674 -0.06733492 -0.024705553 0.24640846 -0.12695391
0.5391533 0.06339872 -0.29096723 -0.035168678 -0.019819243 -0.31687364 0.14943041 -0.18250586
-0.28416887 0.13056242 -0.19391812 0.48943084 -0.055812266 0.11475438 0.3034056 -0.3462319
-0.35483983 -0.050419785 0.14566469 -0.30363992 -0.067964494 -0.1310352 0.03970101 -0.47794163
0.070013516 0.22050059 -0.107080616 -0.07570947 0.1929844 -0.037191395 0.11843024 0.110101126
0.25776216 -0.5187577 0.081020385 0.024418835 -0.28335005 -0.34654644 -0.0917809 0.07685783
0.04584007 0.067786776 0.16717865 0.09758935 0.14431159 0.5018211 0.21492682 -0.25801924
00000000: d921 403c 3b3a 073f e415 ba3d 8ff6 b0bd
00000010: 2fc7 a33e c4dd dabd e69b eebd 5762 22be
00000020: 82de 233e d64c ab3e 4848 8dbe 3eca 9ebe
00000030: e4e6 89bd 4d63 cabc 8052 7c3e 3500 02be
00000040: f305 0a3f 30d7 813d a8f9 94be 080d 10bd
00000050: f75b a2bc 433d a2be 4904 193e d1e2 3abe
00000060: 957e 91be 28b2 053e 7992 46be ae96 fa3e
00000070: 679b 64bd 5804 eb3d fb57 9b3e 4f45 b1be
00000080: 91ad b5be fa84 4ebd 2029 153e b176 9bbe
00000090: f830 8bbd 172e 06be 879d 223d c4b4 f4be
000000a0: 3f63 8f3d e8ca 613e 154d dbbd 910d 9bbd
000000b0: b49d 453e 0156 18bd 8e8b f23d b37c e13d
000000c0: 67f9 833e 4ecd 04bf 04ee a53d 020a c83c
000000d0: 4213 91be 896e b1be a0f7 bbbd a367 9d3d
000000e0: ccc2 3b3d cbd3 8a3d e130 2b3e eddc c73d
000000f0: 6bc6 133e 5977 003f c715 5c3e 191b 84be

conv1.mlp.2.running_mean f4 [64]
0.8190573 0.682052 0.68229645 0.18827687 0.8271914 0.4182451 0.19222586 0.5913022
0.69534165 0.6987334 0.0308627 0.7799753 0.052052654 0.47092062 0.4833614 0.06558275
0.27776936 0.7713112 0.07643571 0.4071267 0.2598911 0.40907568 0.5773293 0.38294306
0.12482143 0.9637522 0.4341361 0.7234682 0.22687522 1.3996478 0.50980556 0.11806279
0.056889765 0.71018344 0.83644694 0.4657033 0.18782103 0.060953744 0.67448044 0.91068256
0.7457108 0.061671816 0.027845308 0.5242044 0.10206667 0.4137846 0.37370515 0.21527877
0.5195524 0.0656703 0.04226103 0.36702454 0.034502517 0.081489176 0.08370078 1.3729031
0.69039434 0.36013326 0.18421794 0.37537026 0.48209006 0.13653727 0.28828412 1.5862803
00000000: bdad 513f f69a 2e3f fbaa 2e3f a7cb 403e
00000010: d1c2 533f 3924 d63e dbd6 443e 955f 173f
00000020: e901 323f 31e0 323f c6d3 fc3c 76ac 473f
00000030: 2a35 553d 821c f13e 257b f73e 4050 863d
00000040: c937 8e3e a774 453f 538a 9c3d e972 d03e
00000050: 7210 853e 5e72 d13e dacb 133f 1d11 c43e
00000060: 61a2 ff3d 77b8 763f 1647 de3e 3635 393f
00000070: fa51 683e a927 b33f 9e82 023f e7ca f13d
00000080: 3e05 693d 95ce 353f 6321 563f aa70 ee3e
00000090: 2854 403e a2aa 793d c0aa 2c3f 7e22 693f
000000a0: e7e6 3e3f 969b 7c3d d81b e43c 4232 063f
000000b0: 5508 d13d 93db d33e 4856 bf3e 0a72 5c3e
000000c0: 6301 053f 267e 863d e719 2d3d a4ea bb3e
000000d0: 8352 0d3d cce3 a63d 516b ab3d 4abb af3f
000000e0: afbd 303f 6363 b83e a1a3 3c3e 8830 c03e
000000f0: 82d4 f63e 6dd0 0b3e fa99 933e 3c0b cb3f

conv1.mlp.2.running_var f4 [64]
1.8760405 1.9083006 1.4799109 0.31975627 2.615787 0.8988432 0.38954258 1.3319844
1.7691698 1.3423359 0.034016985 1.3153045 0.08657949 1.032407 0.9915391 0.10174464
0.6321187 1.0080626 0.074127294 0.7934516 0.32999995 0.8617203 1.3208727 0.6134515
0.19115567 2.3326552 0.42031115 1.5863746 0.3144771 2.6441076 1.1855415 0.12019746
0.06289275 1.540702 1.2564493 0.60776067 0.2724352 0.09021012 1.1517525 1.455571
2.027745 0.10491576 0.03764542 0.7018309 0.18136382 0.81676024 0.88143045 0.44158325
1.2040589 0.07578168 0.03355761 0.9030237 0.037545335 0.106702365 0.103966765 1.8986824
0.75853777 0.86327755 0.33182594 0.8144121 1.074996 0.21956761 0.455003 2.7926912
00000000: 1822 f03f 3243 f43f b86d bd3f 18b7 a33e
00000010: 0e69 2740 971a 663f 2072 c73e 777e aa3f
00000020: 2874 e23f aad1 ab3f 6555 0b3d e65b a83f
00000030: 9650 b13d ea25 843f 82d5 7d3f 7e5f d03d
00000040: 88d2 213f 3208 813f 0dd0 973d a51f 4b3f
00000050: c1f5 a83e b499 5c3f 5b12 a93f 280b 1d3f
00000060: 50be 433e 394a 1540 0633 d73e 530e cb3f
00000070: 2403 a13e 0f39 2940 d3bf 973f 162a f63d
00000080: eacd 803d b935 c53f 55d3 a03f 3496 1b3f
00000090: a07c 8b3e 15c0 b83d a06c 933f 2750 ba3f
000000a0: 93c6 0140 13de d63d 1532 1a3d 31ab 333f
000000b0: 70b7 393e 3317 513f 6da5 613f 3317 e23e
000000c0: 9a1e 9a3f 6d33 9b3d b473 093d 902c 673f
000000d0: 23c9 193d c586 da3d 87ec d43d 0608 f33f
000000e0: 882f 423f c2ff 5c3f 17e5 a93e 507d 503f
000000f0: 7899 893f 55d6 603e 27f6 e83e 74bb 3240
