GraphNeuralNet/Skim1E2Mu/MHc-160_MA-120_vs_nonprompt/models/ParticleNet-nNodes64_Adam_initLR-0p002_StepLR.pt (torch, 292297 bytes, 89 tensors)

gn0.weight f4 [9]
0	0x3fa7ab1a	1.3099091
1	0x3f1d4fa5	0.6144965
2	0x3f1c6ce6	0.61103666
3	0x3f7c3c3d	0.98529416
4	0xbb6e6375	-0.00363752
5	0x3f58546b	0.8450381
6	0x3f8865bc	1.0656047
7	0x3f001b02	0.5004121
8	0x3f66f1c3	0.9021265

gn0.bias f4 [9]
0	0x3f30da63	0.6908323
1	0xbe2326c1	-0.15932752
2	0x3ea65a67	0.32490847
3	0xbda430bd	-0.080171086
4	0xbee21c2e	-0.44162124
5	0xbcf6e478	-0.03013824
6	0xbda56278	-0.08075422
7	0x3f1c6add	0.6110056
8	0x3ee1d322	0.44106394

gn0.mean_scale f4 [9]
0	0x3fd6bbb4	1.6776032
1	0x3f611848	0.87927675
2	0x3f3c0201	0.7344056
3	0x400dae71	2.213772
4	0x3f8eb0c1	1.1147691
5	0x3f0b85f2	0.5450126
6	0x3f09d15a	0.5383507
7	0x3e392deb	0.18083923
8	0x3f497858	0.78699255

conv1.mlp.0.weight f4 [64, 18]
0	0xbf19c48f	-0.6006555
1	0x3cf858bf	0.030315755
2	0x3c509da9	0.012732902
3	0xbb237556	-0.0024941764
4	0x3e143628	0.14473784
5	0xbe1d5255	-0.15363438
6	0xbdf30253	-0.11865678
7	0xbea4247b	-0.32059082
8	0xbf59b9f1	-0.8504935
9	0xbcaa03e2	-0.020753805
10	0xbcac4ae4	-0.021031804
11	0x3d4d6247	0.050142553
12	0x3ca78f34	0.020454027
13	0x3e28bdb8	0.16478622
14	0x3d8c1d42	0.06841518
15	0x3d17fca0	0.037106156
16	0x3e167d61	0.14696266
17	0x3cdcb961	0.026943864
18	0x3d44b5ba	0.04802487
19	0x3c452b4c	0.012034249
20	0xbd748e91	-0.059706274
21	0x3f0f5520	0.55989265
22	0x3e6ca84e	0.23111078
23	0x3e024247	0.12720595
24	0xbdffdc7b	-0.12493225
25	0xbe61a907	-0.22037135
26	0xbeafa37e	-0.34304422
27	0xbe450f10	-0.19244027
28	0x3bd1b2b3	0.0063994764
29	0xbb1a962c	-0.0023588045
30	0x3da48117	0.080324344
31	0x3e6140b4	0.21997339
32	0x3ccdd927	0.02512796
33	0xbe84c4d2	-0.25931412
34	0x3c71a17e	0.014747975
35	0xbd78e950	-0.06076938
36	0xbe16934f	-0.14704631
37	0xbd842d75	-0.06453983
38	0xbd623cd7	-0.055233803
39	0x3e7e1e57	0.24816261
40	0x3e39e9c3	0.1815558
41	0x3e88b037	0.2669694
42	0x3d17bbf9	0.0370445
43	0xbe922cb8	-0.28549743
44	0xbe9cb0b4	-0.30603564
45	0xbea51264	-0.32240593
46	0xbd93a3f6	-0.072090074
47	0xbd6c4114	-0.05767925
48	0x3df1344f	0.11777555
49	0x3de1d438	0.11026806
50	0x3d561d40	0.05227399
51	0xbe258d16	-0.16167101
52	0x3e1b5632	0.151696
53	0x3dea7158	0.114474
54	0x3d985f52	0.07440056
55	0xbd13ca8e	-0.036081843
56	0x3bacdfd1	0.0052757044
57	0xbe331685	-0.1748906
58	0x3d5802bd	0.052736986
59	0x3ef0f5e3	0.47062597
60	0x3e04a977	0.1295527
61	0xbe16c067	-0.14721833
62	0xbec1cee5	-0.3785316
63	0xbd858988	-0.06520373
64	0x3a9faa04	0.0012181406
65	0xbd4c4433	-0.049869727
66	0xbe8332e3	-0.2562476
67	0x3d448afa	0.0479841
68	0xbe10141d	-0.14070173
69	0xbe666588	-0.22499669
70	0x3d81edc6	0.0634418
71	0x3de3cfb3	0.111236
72	0xbebcea3c	-0.36897457
73	0x3dbc2c14	0.09188095
74	0xbd6892c7	-0.056780603
75	0xbe051ad4	-0.12998515
76	0x3e09b57d	0.13448139
77	0xbe4c63b4	-0.19959909
78	0x3e42ad4f	0.19011424
79	0xbe660809	-0.22464003
80	0xbd5b9253	-0.053606343
81	0xbe909751	-0.28240445
82	0x3c7a058b	0.015260111
83	0xbb4cc041	-0.0031242522
84	0x3ede7854	0.43451178
85	0x3dd35195	0.10318295
86	0xbe3bbb2c	-0.18333119
87	0x3e33edaa	0.1757113
88	0xbdc1a359	-0.09454984
89	0xba5aec39	-0.000835124
90	0xbf56165d	-0.83627874
91	0x3cc54996	0.02408294
92	0x3c4ce2eb	0.012505273
93	0x3cfe179c	0.031017117
94	0xbc69e936	-0.014276793
95	0x3e3886ad	0.18020125
96	0x3d15d208	0.036577255
97	0xbf0ad3a2	-0.54229176
98	0xbe4f8858	-0.20266855
99	0x3d2a0e36	0.04151746
100	0x3d0a0d72	0.03370423
101	0xbce41463	-0.027841752
102	0x3c61ede9	0.013789632
103	0xbd42af1f	-0.04753029
104	0xb91ce76f	-0.00014963535
105	0x3d812abc	0.06306979
106	0xbbde71ba	-0.0067884596
107	0x3d2bf2e7	0.041979697
108	0xbe1e2352	-0.15443161
109	0xbe8cac0d	-0.27475014
110	0x3e26ab99	0.16276397
111	0x3dee453d	0.116343
112	0xbd36255f	-0.044469234
113	0x3d1db775	0.038505036
114	0xbebedd17	-0.37278053
115	0xbdd1dbb5	-0.10246984
116	0xbd274822	-0.040840276
117	0xbe802bac	-0.2503332
118	0x3e364ec3	0.17803483
119	0xbe0b1157	-0.13580833
120	0xbee34d90	-0.44395113
121	0x3d2147b6	0.03937503
122	0x3d816461	0.06317974
123	0xbd464f58	-0.04841551
124	0x3e0c3563	0.1369224
125	0x3e043616	0.12911257
126	0xbf006a68	-0.50162363
127	0xbcd12b88	-0.025533453
128	0xbd545a76	-0.051844083
129	0xbdb891f2	-0.09012212
130	0x3de7f286	0.113255545
131	0x3ccf056b	0.025271138
132	0x3ecabc11	0.39596608
133	0xbe6e7edb	-0.23290579
134	0xbe90862f	-0.28227374
135	0x3e1228bb	0.1427335
136	0x3c75435e	0.014969675
137	0xbd4b880c	-0.04969029
138	0x3c8e2952	0.017353687
139	0xbe31fed2	-0.17382362
140	0xbd7bf4c4	-0.061512724
141	0x3ec0f061	0.37683395
142	0x3e06209a	0.13098374
143	0x3e08f1c3	0.13373475
144	0x3da54ffa	0.08071895
145	0x3c799fd4	0.01523586
146	0xbca2bb0a	-0.019864578
147	0xbf22a732	-0.6353637
148	0x3ee1da7d	0.44112006
149	0xbc832c28	-0.016012266
150	0x3e8c4b30	0.27401114
151	0xbf3cd530	-0.737628
152	0x3e961734	0.29314578
153	0xbd57bb78	-0.05266902
154	0x3d134699	0.035956
155	0xbd504492	-0.050846644
156	0x3e24e680	0.16103554
157	0x3e569fde	0.20959422
158	0x3b9a46ef	0.004708163
159	0xbd0b214d	-0.033967305
160	0x3c8c9f19	0.017165707
161	0xbd48340d	-0.048877764
162	0xbeb957b9	-0.3619974
163	0xbee68f84	-0.4503137
164	0x3d96c3f2	0.07361592
165	0x3bb3e149	0.0054895026
166	0xbca106ec	-0.01965662
167	0xbe03ab4d	-0.12858315
168	0xbee42ab2	-0.44563824
169	0xbe1e5bcb	-0.15464704
170	0xbe256372	-0.16151217
171	0xbb1e4f79	-0.0024156256
172	0x3e876d1c	0.2645043
173	0xbdadb5bc	-0.08481929
174	0x3c9f4d8d	0.019446159
175	0xbd253b87	-0.040339973
176	0xbe21ee33	-0.15813522
177	0x3e84780a	0.25872833
178	0xbe2baf0a	-0.16765991
179	0x3e0163d0	0.12635732
180	0x3dda55e5	0.10660914
181	0x3ce203f7	0.027589781
182	0xbdd5ce46	-0.10439734
183	0xbd322530	-0.043492496
184	0x3edded0a	0.4334491
185	0x3c5d5525	0.01350907
186	0xbd8697c6	-0.06571917
187	0xbe242b29	-0.1603209
188	0x3ebdfd79	0.37107447
189	0x3e1731e4	0.14765126
190	0x3c82ddbe	0.015974876
191	0xbd551377	-0.052020516
192	0xbd770cc4	-0.06031491
193	0x3e19e57d	0.15028949
194	0xbcbea328	-0.023271158
195	0xbcadba73	-0.02120707
196	0x3de2389e	0.11045955
197	0xbea0b6ec	-0.31389558
198	0xbe089e8e	-0.13341734
199	0x3d374190	0.04474026
200	0xbcd933f1	-0.026514025
201	0xbd2349ad	-0.039865185
202	0x3c9341bf	0.017975686
203	0xbe668bdf	-0.22514294
204	0x3ef61c50	0.48068476
205	0xbeb0fb8f	-0.34566924
206	0xbe259908	-0.16171658
207	0xbe940104	-0.28907025
208	0xbd4e4d2b	-0.05036656
209	0x3d63cf76	0.055617772
210	0x3ec8760b	0.3915256
211	0x3d117271	0.03550953
212	0xbe110989	-0.14163794
213	0x3e92acac	0.28647363
214	0xbe7ff7e5	-0.24996908
215	0xbdd6838d	-0.1047431
216	0x3d8b5b54	0.06804529
217	0x3b218a72	0.002464917
218	0xbb1bdfc7	-0.0023784505
219	0xbc4abb31	-0.0123737315
220	0x3f0f5d8c	0.56002116
221	0x3c1fd0e6	0.009754395
222	0xbd945fef	-0.072448604
223	0xbf79e30f	-0.9761209
224	0x3f049172	0.5178443
225	0x3c974fab	0.018470606
226	0xbc0be522	-0.008538516
227	0xbc7b5f52	-0.01534255
228	0xbcb613b2	-0.022226188
229	0x3d99b6fd	0.07505605
230	0x3d7b0a55	0.06128915
231	0xbc832e14	-0.016013183
232	0x3d9f93ee	0.07791887
233	0xbc45ec4e	-0.012080265
234	0x3d57525e	0.052568786
235	0xbce4032e	-0.027833547
236	0x3d8ee7cb	0.06977805
237	0x3e15ba87	0.14621936
238	0x3da91a15	0.08256928
239	0xbd6cb44a	-0.057789125
240	0xbe859480	-0.2608986
241	0xbead5486	-0.3385355
242	0xbcafea24	-0.021473952
243	0x3d54ecad	0.051983524
244	0x3b283e30	0.0025671832
245	0x3bad953f	0.0052973325
246	0xbdfa91e7	-0.1223486
247	0xbd87f1f2	-0.06637944
248	0xbd99eea5	-0.07516221
249	0x3ed83020	0.42224216
250	0x3e236a05	0.15958412
251	0x3eb2fa31	0.34956506
252	0x3e654fed	0.2239377
253	0xbd5fcec3	-0.054640543
254	0x3c5c6907	0.013452775
255	0xbf302f10	-0.6882181

conv1.mlp.0.bias f4 [64]
0	0xbeaa0686	-0.33208102
1	0xbf108e2e	-0.5646695
2	0xbf3b204a	-0.73096144
3	0xbedb38cd	-0.42816773
4	0xbed66dae	-0.41880554
5	0xbeec39cb	-0.46137843
6	0x3db459d4	0.08806196
7	0xbd0fd4a5	-0.035114903
8	0xbec8b32c	-0.39199197
9	0x3e0e5d57	0.13902794
10	0xbf217e40	-0.6308327
11	0xbe814836	-0.25250405
12	0xbf0548b7	-0.5206408
13	0x3e92b951	0.2865701
14	0xbf138d02	-0.57637036
15	0xbf38c86a	-0.7218081
16	0xbe049cc4	-0.12950426
17	0x3e35c7f3	0.17752056
18	0xbe9dd9ff	-0.3083038
19	0xbda76c59	-0.081749626
20	0xbeb6a269	-0.35670784
21	0xbe314906	-0.17313012
22	0xbd0d9bbd	-0.03457235
23	0x3e089139	0.13336648
24	0xbde368dc	-0.11103985
25	0xbef2d4f9	-0.4742811
26	0xbe47f9b2	-0.19528845
27	0xbe73d607	-0.23812114
28	0xbf03c1e9	-0.5146776
29	0xbeed9647	-0.46403715
30	0xbc57d4fa	-0.013173336
31	0xbe11af3f	-0.14227007
32	0xbe0bc55a	-0.13649502
33	0xbdcb9b60	-0.09941745
34	0x3d090bf7	0.033458676
35	0xbcb6549c	-0.022257142
36	0xbd6bdaa8	-0.057581574
37	0xbeef5299	-0.46742705
38	0xbf16d1fc	-0.5891416
39	0xbedbc784	-0.42925656
40	0xbdb776e9	-0.08958227
41	0xbf0950fa	-0.53639185
42	0xbf1671f9	-0.5876766
43	0xbee36ee5	-0.44420543
44	0x3e35b107	0.17743312
45	0xbea4cf5f	-0.32189462
46	0xbd8018c2	-0.06254722
47	0xbed6b545	-0.41935173
48	0xbf122758	-0.57091284
49	0xbcc4ebab	-0.024038156
50	0xbedd3d45	-0.43210807
51	0xbead1628	-0.33805966
52	0xbe8ada57	-0.27119705
53	0xbf035427	-0.5130028
54	0xbe6d153a	-0.23152629
55	0xbed2ecb2	-0.4119621
56	0x3d301be9	0.042995367
57	0xbed846f7	-0.42241642
58	0xbe8b6c3c	-0.27231014
59	0xbed652ba	-0.4185999
60	0xbe011237	-0.12604605
61	0xbe58d0ef	-0.21173452
62	0xbf0f8dd0	-0.56075764
63	0xbee05dd9	-0.438216

conv1.mlp.2.weight f4 [64]
0	0x3f78b1d7	0.9714636
1	0x3f795228	0.97390985
2	0x3f6d2664	0.92636704
3	0x3f8d0244	1.1016316
4	0x3f7f1626	0.9964317
5	0x3f474bcf	0.7785005
6	0x3f7a153f	0.9768867
7	0x3f10fb1b	0.56633157
8	0x3f7cda36	0.98770463
9	0x3f304d89	0.6886831
10	0x3f3091c4	0.6897242
11	0x3f946580	1.1593475
12	0x3f55ac11	0.8346568
13	0x3f4d8d61	0.8029385
14	0x3f70912f	0.9397153
15	0x3f11ef8e	0.57006156
16	0x3f598427	0.84967273
17	0x3f6e48e7	0.9307999
18	0x3f94efc5	1.1635672
19	0x3f4ee8f0	0.80824184
20	0x3f5c6cd0	0.86103535
21	0x3f8d1e0a	1.1024792
22	0x3fb2375a	1.3923142
23	0x3f42ea11	0.76138407
24	0x3f5e2349	0.8677259
25	0x3f68a4d2	0.90876496
26	0x3f31f34f	0.69511884
27	0x3f2660ad	0.64991266
28	0x3f8adaf4	1.0848069
29	0x3f83ec39	1.0306464
30	0x3f4c4214	0.7978833
31	0x3f996d02	1.1986392
32	0x3fa9188e	1.3210618
33	0x3f90bd17	1.1307706
34	0x3f4e4b32	0.8058349
35	0x3f50bb3b	0.8153569
36	0x3f43a126	0.7641777
37	0x3f6d2170	0.92629147
38	0x3f304ff8	0.6887202
39	0x3f0c3eb6	0.5478319
40	0x3f8cfa95	1.1013972
41	0x3f950bee	1.1644266
42	0x3f8ae7c7	1.0851983
43	0x3f5ae868	0.85510874
44	0x3f845426	1.033818
45	0x3fa9b302	1.3257754
46	0x3f09a710	0.5377054
47	0x3f81a6b9	1.0129005
48	0x3f59a2b6	0.850139
49	0x3f87977a	1.0593102
50	0x3fa0beb7	1.2558202
51	0x3f800389	1.0001079
52	0x3f75f449	0.96075875
53	0x3f8fcc39	1.1234199
54	0x3f9f11c2	1.2427294
55	0x3f7e3666	0.99301755
56	0x3efdc65a	0.49565393
57	0x3f76eccd	0.9645508
58	0x3f810fc0	1.0082932
59	0x3f966fa3	1.1752819
60	0x3f7d1d31	0.9887267
61	0x3f8505b0	1.0392361
62	0x3f81e281	1.0147249
63	0x3f6a41b4	0.91506505

conv1.mlp.2.bias f4 [64]
0	0xbcb9e624	-0.022692747
1	0x3dba0585	0.09083084
2	0x3e14371c	0.14474148
3	0x3e1e7e0e	0.15477774
4	0x3e89b644	0.2689687
5	0xbd34a25d	-0.044100154
6	0x3eea1406	0.45718402
7	0xbef0d38f	-0.47036406
8	0x3e36f69f	0.17867516
9	0x3ed04c41	0.40683177
10	0xbe103a83	-0.1408482
11	0x3e980bbf	0.29696462
12	0xbe8adcd8	-0.27121615
13	0x3ec62d0b	0.3870624
14	0x3d72a3b4	0.05923815
15	0xbe545552	-0.20735672
16	0x3ed56ae3	0.4168311
17	0x3ea77b97	0.3271148
18	0x3e903235	0.28163305
19	0x3cb6eebf	0.02233064
20	0x3e83c924	0.25739396
21	0x3e93aa47	0.2884085
22	0x3f1bfa6e	0.60929
23	0x3ee5fb0f	0.44918105
24	0x3e12e643	0.1434565
25	0x3e978ffb	0.29602036
26	0xbd81fc84	-0.06346992
27	0xbe22748a	-0.15864769
28	0x3ec5eb9c	0.38656318
29	0x3e15d73e	0.1463289
30	0x3db98103	0.0905781
31	0x3ee1e99e	0.44123548
32	0x3efb811d	0.49121943
33	0x3e8e9c79	0.27853754
34	0x3e44fe25	0.19237573
35	0x3e603bc4	0.21897799
36	0x3e7b9002	0.24566653
37	0x3e2c5117	0.16827808
38	0x3d839adc	0.064260215
39	0xbeedfd03	-0.46482095
40	0x3ea2ebe4	0.31820595
41	0x3eb057ef	0.34442088
42	0x3dd56e3d	0.10421417
43	0x3e3283e4	0.17433125
44	0x3ee72ee0	0.4515295
45	0x3db77b17	0.089590244
46	0xbebfa0d0	-0.37427378
47	0x3e92c4ca	0.28665763
48	0xbd83b97d	-0.064318635
49	0x3ed13db4	0.40867388
50	0x3ec12440	0.3772297
51	0x3e7b1a3f	0.24521731
52	0x3e847fa4	0.25878632
53	0x3ebc3866	0.3676178
54	0x3ee07cf1	0.43845323
55	0x3e09c022	0.13452199
56	0x3ead68e9	0.33869103
57	0x3ebcfe2d	0.3691267
58	0x3eb54ecf	0.3541169
59	0x3ef0fd93	0.47068462
60	0x3efea3d1	0.49734357
61	0x3eb17e8e	0.34666866
62	0x3e1b67fe	0.15176389
63	0xbceecd43	-0.02915061

conv1.mlp.2.running_mean f4 [64]
0	0x3cd5b232	0.026085947
1	0x3cbadf28	0.022811487
2	0x3c66c3d7	0.014084778
3	0x3dc68bfe	0.0969467
4	0x3d939760	0.07206607
5	0x3cdd3491	0.027002605
6	0x3eb47fb2	0.35253674
7	0x3e26b9a8	0.1628176
8	0x3dd3ec2c	0.103477806
9	0x3eb64341	0.35598186
10	0x3d955e65	0.07293395
11	0x3def88e0	0.11696029
12	0x2d5729ee	1.2230645e-11
13	0x3e6d60bb	0.23181431
14	0x3d1a84ec	0.03772442
15	0x3cc54db7	0.024084909
16	0x3e9da732	0.30791622
17	0x3ec552e9	0.38539818
18	0x3db2dfb3	0.087340735
19	0x3d9841b4	0.07434407
20	0x3decbace	0.11559068
21	0x3eb5c3fe	0.35501093
22	0x3ed01ab9	0.40645388
23	0x3eef8c13	0.46786556
24	0x3d504871	0.050850336
25	0x3e84822a	0.25880557
26	0x3dbd0c4a	0.092308596
27	0x3dd59bf8	0.10430139
28	0x3e846bcf	0.258635
29	0x3e1c079d	0.15237279
30	0x3eadc25b	0.33937344
31	0x3df145c9	0.117808886
32	0x3e13c059	0.14428844
33	0x3ddf9af6	0.10918228
34	0x3f3930fa	0.7234036
35	0x3eb4f860	0.35345745
36	0x3efbcd7e	0.49180216
37	0x3e370ca2	0.17875913
38	0x3d43dfdd	0.047820915
39	0x3d70e95a	0.05881629
40	0x3e41aa2c	0.18912572
41	0x3e04dfc8	0.12975991
42	0x3d141a9a	0.03615818
43	0x3d8f5f7a	0.070006326
44	0x3e27fc1d	0.16404767
45	0x3cf430d3	0.029808437
46	0x3e2a683d	0.16641326
47	0x3e2d7238	0.16938102
48	0x3c61f304	0.01379085
49	0x3e0e113c	0.13873762
50	0x3e1f3b58	0.15549982
51	0x3deb7ffb	0.1149902
52	0x3e229561	0.15877296
53	0x3e0040c0	0.125247
54	0x3e12f467	0.14351045
55	0x3dfd089b	0.12355157
56	0x3ef6df3a	0.48217183
57	0x3e4bc0fd	0.19897838
58	0x3e3e49f2	0.18582895
59	0x3e79c525	0.24391611
60	0x3e919d09	0.2844012
61	0x3e391232	0.18073347
62	0x3dbf2902	0.093339935
63	0x3d5b1bf8	0.05349347

conv1.mlp.2.running_var f4 [64]
0	0x3c265996	0.010153195
1	0x3c4e4cd4	0.012591559
2	0x3b8bd8d4	0.0042677913
3	0x3d471bc9	0.048610482
4	0x3d141dff	0.03616142
5	0x3c0d8459	0.008637511
6	0x3e7ef2bb	0.24897282
7	0x3db5cd1a	0.08877011
8	0x3da31e9f	0.07964825
9	0x3e55e3a6	0.20887622
10	0x3cb3cee1	0.021949233
11	0x3dac752d	0.08420787
12	0x29e2fa03	1.0079786e-13
13	0x3dee520e	0.116367444
14	0x3ca3c255	0.019990126
15	0x3c0cf9c1	0.008604468
16	0x3de04c32	0.10952033
17	0x3eb61786	0.35564822
18	0x3d68c908	0.056832343
19	0x3cea721a	0.028618861
20	0x3db92b92	0.090415135
21	0x3ed91b9c	0.42403877
22	0x3f0eb10f	0.5573892
23	0x3e3a3bd3	0.18186884
24	0x3c8820d1	0.01661721
25	0x3e5c531f	0.21516083
26	0x3d32d1da	0.04365716
27	0x3d84a5fc	0.064769715
28	0x3e870306	0.26369494
29	0x3ded87db	0.11598178
30	0x3e4d700e	0.20062277
31	0x3d7da853	0.061928105
32	0x3da4c273	0.08044901
33	0x3d9392ce	0.07205735
34	0x3e4d00d0	0.20019841
35	0x3e9e8ed0	0.30968332
36	0x3e8dd8d0	0.27704477
37	0x3dd2ccff	0.10293006
38	0x3c7501af	0.014954015
39	0x3ccbe30d	0.02488854
40	0x3de8f849	0.11375482
41	0x3dfea4bc	0.12433764
42	0x3cbf71e9	0.023369746
43	0x3d01ac40	0.03165841
44	0x3dc0eff2	0.09420766
45	0x3b9d0336	0.0047916425
46	0x3db565f8	0.088573396
47	0x3dde043b	0.10840651
48	0x3b899802	0.004199029
49	0x3dab99e1	0.083789594
50	0x3e158155	0.14600118
51	0x3da1cb51	0.07900108
52	0x3de15c76	0.11003964
53	0x3da72218	0.081608
54	0x3df0a12e	0.117494926
55	0x3da46e6f	0.08028876
56	0x3eba0a28	0.36335874
57	0x3e347d3d	0.176259
58	0x3e268286	0.16260728
59	0x3e881013	0.26574764
60	0x3e42f42a	0.19038454
61	0x3dd20261	0.1025436
62	0x3d4da38c	0.0502048
63	0x3ce88861	0.028385343

conv1.mlp.4.weight f4 [64, 64]
0	0x3e02878b	0.12747018
1	0x3e0bc567	0.13649522
2	0x3e12957b	0.14314835
3	0x3c863f3a	0.01638757
4	0xbe961ede	-0.29320425
5	0x3cc46a6d	0.023976529
6	0xbe8152b0	-0.25258398
7	0x3dd1ad22	0.102381006
8	0x3cdc292d	0.026875103
9	0x3d54f777	0.051993813
10	0x3dba0103	0.09082224
11	0xbe72c9d0	-0.23709798
12	0x3de820b5	0.11334363
13	0x3e21cb3c	0.15800184
14	0x3d37cbaf	0.044871982
15	0x3dc99fc0	0.09844923
16	0xbe40310b	-0.18768708
17	0xbd90dd15	-0.07073418
18	0xbe488933	-0.19583587
19	0x3dadc449	0.08484704
20	0xbe06f7ae	-0.1318042
21	0xbcbd0376	-0.02307294
22	0xbe351a80	-0.1768589
23	0xbe521a50	-0.2051785
24	0x3c3f35cb	0.01167054
25	0xbe53d209	-0.20685591
26	0x3daf2924	0.08552769
27	0x3d6fc148	0.058533937
28	0xbed74139	-0.42041948
29	0x3e29ab27	0.16569196
30	0xbdffdc73	-0.12493219
31	0xbd26f22e	-0.040758304
32	0x3dba165e	0.090862975
33	0xbe62b037	-0.22137533
34	0xbda9240b	-0.08258828
35	0x3d4ed80c	0.050499007
36	0x3df60408	0.12012488
37	0xbe896a94	-0.26839125
38	0x3c4d392d	0.012525839
39	0xbbabe456	-0.0052457256
40	0xbd93d764	-0.07218817
41	0xbebda913	-0.37043056
42	0xbcbcf748	-0.023067132
43	0xbe9b9d20	-0.30393314
44	0x3cda77c0	0.02666843
45	0xbdf6abdd	-0.12044499
46	0x3b373b26	0.002795884
47	0xbe24c4d6	-0.16090712
48	0x3ea31692	0.31853157
49	0xbcbab809	-0.022792833
50	0xbf0f25a1	-0.5591679
51	0xbdbe32b1	-0.09287012
52	0xbdc6a577	-0.09699529
53	0xbef16253	-0.47145328
54	0xbf1730b5	-0.59058696
55	0xbd4c0905	-0.04981329
56	0xbd289f46	-0.04116752
57	0xbe0cf8b3	-0.13766746
58	0xbd88a9cd	-0.06673012
59	0xbe71946c	-0.23591775
60	0xbf034991	-0.5128413
61	0xbe0a3ac7	-0.13498984
62	0xbe2a564c	-0.16634482
63	0x3c250b06	0.010073429
64	0xbd36d2ae	-0.044634514
65	0xbef7172b	-0.48259863
66	0xbd34c896	-0.044136606
67	0xbec8436e	-0.39113945
68	0x3e3863d1	0.18006827
69	0xbde6a9ba	-0.112628415
70	0xbe96afa5	-0.2943088
71	0x3d008aff	0.031382557
72	0x3e502039	0.20324792
73	0xbe2f7aa0	-0.17136621
74	0x3e262b3e	0.16227433
75	0x3d837a59	0.0641982
76	0x3e658ccc	0.22416991
77	0xbe86141a	-0.2618721
78	0xbda3fb63	-0.080069326
79	0x3d1dea6a	0.038553633
80	0x3e55a62a	0.20864168
81	0xbe91b070	-0.28454924
82	0xbe19de1e	-0.15026137
83	0xbd76d32c	-0.060259983
84	0xbb194845	-0.0023389023
85	0x3c4a03d0	0.0123300105
86	0xbeef2ecd	-0.46715394
87	0x3e01a7ee	0.12661716
88	0xbcf822e2	-0.03029007
89	0x3dbf467a	0.09339614
90	0xbd1ca9d1	-0.038247887
91	0x3da69e8a	0.08135708
92	0xbe0cfe68	-0.13768923
93	0x3db3eedf	0.087857954
94	0xbdf5b983	-0.11998274
95	0x3d1ff70d	0.039053965
96	0x3e1b2857	0.15152107
97	0xbec4d04a	-0.38440162
98	0x3e588874	0.21145803
99	0xbba5d637	-0.005060937
100	0xbd1140c4	-0.035462156
101	0x3dd52e7b	0.10409256
102	0x3d3b08db	0.045662742
103	0xbdfccc13	-0.123436116
104	0x3e4e5f27	0.20153485
105	0x3e4da240	0.20081425
106	0xbea716a0	-0.3263445
107	0x3e60d146	0.21954831
108	0xbe82ef2c	-0.255731
109	0xbe5ea8c5	-0.21744068
110	0x3d233212	0.039842673
111	0x3dd36b08	0.10323149
112	0xbe840712	-0.25786644
113	0xbe27bea5	-0.16381319
114	0xbe969f0e	-0.29418224
115	0xbaa96ef7	-0.0012926747
116	0x3abd6fdb	0.0014452891
117	0x3e1ce24a	0.15320697
118	0xbe579b5c	-0.21055359
119	0x3d816010	0.063171506
120	0xbd81d04c	-0.063385576
121	0x3dcaa03c	0.098938435
122	0xbddaa0e9	-0.106752224
123	0x3ddef7df	0.108871214
124	0xbe500eee	-0.20318195
125	0x3d5c7b1f	0.053828355
126	0x3d31a65b	0.04337154
127	0xbc47c300	-0.012192488
128	0xbea93e2d	-0.3305525
129	0xbd438c17	-0.047741022
130	0x3d6e29d4	0.05814536
131	0x3d118f26	0.035536908
132	0xbd8edcf7	-0.069757394
133	0xbd9e915c	-0.07742569
134	0x3da95710	0.08268559
135	0xbdc5f78f	-0.09666359
136	0xbdf9c52e	-0.12195812
137	0x3e2e8e94	0.17046577
138	0xbd15f56b	-0.036611002
139	0xbde80a38	-0.11330074
140	0x3d57a750	0.052649796
141	0x3dfc3397	0.123145275
142	0x3e6b3034	0.22967607
143	0xbe1a09e2	-0.15042832
144	0xbdb288c1	-0.0871749
145	0xbc9f08d1	-0.019413384
146	0x3e2935f8	0.16524494
147	0x3e404ce3	0.1877933
148	0xbdd050f2	-0.10171689
149	0xbd85b99b	-0.06529542
150	0xbdc8f2ee	-0.0981196
151	0xbde4cc84	-0.11171821
152	0xbee6aba6	-0.45052832
153	0x3d44b0d1	0.048020188
154	0xbe4de5f8	-0.20107257
155	0xbe28664d	-0.16445275
156	0xbdbd96e8	-0.09257299
157	0x3d27b2a1	0.04094184
158	0xbea371f2	-0.3192287
159	0x3e41cf79	0.18926801
160	0xbcd31a6a	-0.025769431
161	0xbe38569e	-0.18001792
162	0x3c901a65	0.01759071
163	0x3e3ed675	0.18636496
164	0xbea00cc6	-0.31259745
165	0xbec0a915	-0.37629
166	0xbe9615d1	-0.2931352
167	0xbded3b0e	-0.115835294
168	0x3c10ba12	0.008833425
169	0x3e20feb0	0.15722156
170	0x3d188bab	0.037242573
171	0x3d9ba5cb	0.07599982
172	0x3e5d8c5b	0.21635573
173	0x3e3d7659	0.18502177
174	0x3e858923	0.2608119
175	0x3db2e9cf	0.08736002
176	0x3d614c55	0.055004437
177	0x3e6cf234	0.23139268
178	0x3ce63f80	0.028106451
179	0x3dd78add	0.10524533
180	0x3df54a73	0.11977091
181	0xbe8f733a	-0.28017598
182	0xbe7000ab	-0.23437755
183	0x3e3b4ef5	0.18291838
184	0x3d85a182	0.06524946
185	0x3cea0f2b	0.028571686
186	0xbdbdb590	-0.09263146
187	0xbd6fe257	-0.058565464
188	0x3caa4b4b	0.020787856
189	0x3ddb04da	0.10694285
190	0x3e382eff	0.17986678
191	0x3d35df6d	0.04440253
192	0xbf01d72d	-0.5071896
193	0xbc88cbea	-0.016698796
194	0xbe7c1287	-0.24616443
195	0x3e3c535b	0.18391173
196	0x3dc371e4	0.09543207
197	0xbcd66438	-0.026170835
198	0xbde87cbe	-0.11351918
199	0x3e21e6e9	0.15810741
200	0x3e0f0238	0.1396569
201	0x3e1626ea	0.14663282
202	0x3ea58cf5	0.32334104
203	0x3dcacbbe	0.09902142
204	0x3d0aa575	0.0338492
205	0x3df2d62d	0.11857257
206	0x3e7ffc31	0.24998547
207	0x3e1da912	0.15396526
208	0xbe565641	-0.20931341
209	0x3bb4b175	0.0055143186
210	0x3d8cd706	0.0687695
211	0x3b825561	0.003977463
212	0x3d0b043d	0.03393959
213	0x3d98c914	0.074602276
214	0xbe1b58a9	-0.1517054
215	0xbceeb69b	-0.029139807
216	0xbeaaae94	-0.33336318
217	0xbda29824	-0.07939175
218	0xbcff87d5	-0.0311927
219	0x3dc18c37	0.09450572
220	0xbe87d728	-0.2653134
221	0xbd8963eb	-0.06708511
222	0xbe846135	-0.25855413
223	0xbde28a1a	-0.11061497
224	0xbe210000	-0.15722656
225	0xbef8de14	-0.48606932
226	0xbdbe27e2	-0.09284951
227	0x3e8bac85	0.2728006
228	0x3c754521	0.014970095
229	0xbe45cd59	-0.19316615
230	0x3e1d6590	0.15370774
231	0xbc89e413	-0.016832387
232	0xbe5b5d96	-0.21422419
233	0x3d32c023	0.043640267
234	0x3e8349d5	0.25642267
235	0xbdc30882	-0.09523107
236	0xbdb38785	-0.08766083
237	0x3e25abd9	0.16178836
238	0xbe3ca085	-0.18420608
239	0x3e73aa72	0.23795488
240	0x3e497d78	0.19676769
241	0xbd56479b	-0.052314382
242	0xbbd7cdd5	-0.0065858164
243	0x3ddb712a	0.10714944
244	0x3dcce89e	0.10005306
245	0xbdebd42f	-0.1151508
246	0xbd33a2a5	-0.04385628
247	0x3e3e1f30	0.18566585
248	0x3d13113b	0.035905104
249	0xbb9617e9	-0.004580487
250	0x3b902b4e	0.0043996936
251	0xbe85bfe2	-0.26122957
252	0xbe3f8020	-0.1870122
253	0xbdc1b276	-0.09457867
254	0xbbecc656	-0.007225792
255	0x3dcc14b0	0.09964883

conv1.mlp.4.bias f4 [64]
0	0xbe49ec37	-0.19719015
1	0xbe2d5156	-0.16925558
2	0xbeb3aac5	-0.35091224
3	0xbdcd5eb1	-0.100278266
4	0xbea014d2	-0.31265885
5	0xbe9b2c29	-0.3030713
6	0xbe4fd499	-0.20295943
7	0xbefffadd	-0.4999608
8	0xbf10ecf7	-0.5661158
9	0xbeadeb7d	-0.33968726
10	0xbe778ca6	-0.24174747
11	0xbe4ef4ab	-0.20210521
12	0xbeba5d20	-0.36399174
13	0x3e2b6c19	0.16740455
14	0xbdac5edc	-0.084165305
15	0xbe3f5480	-0.18684578
16	0xbf072cdf	-0.5280284
17	0xbed50d88	-0.41611886
18	0xbeed3b79	-0.46334437
19	0xbee66336	-0.44997567
20	0xbec67a2f	-0.38765094
21	0xbf2c865a	-0.67392504
22	0xbe9839a5	-0.2973148
23	0xbeb32cfe	-0.34995264
24	0xbd1583a9	-0.036502514
25	0xbeaaacc7	-0.33334944
26	0xbe1c7fe7	-0.15283166
27	0xbe010091	-0.12597872
28	0x3d96164f	0.07328474
29	0xbf085c3f	-0.53265756
30	0x3e5d03f5	0.2158354
31	0xbda39775	-0.079878725
32	0xbe29767a	-0.16549101
33	0xbf2f74f6	-0.68537843
34	0xbea6f8ee	-0.32611793
35	0xbe3df0e6	-0.18548927
36	0xbf0f2b59	-0.5592552
37	0xbb27befa	-0.0025596009
38	0xbeae305a	-0.34021264
39	0x3de6845a	0.11255713
40	0xbe23dee0	-0.16002989
41	0x3e8ccd6e	0.2750048
42	0xbeddb711	-0.4330373
43	0xbe3e9d00	-0.18614578
44	0xbe400e02	-0.18755344
45	0xbe414c0b	-0.18876664
46	0xbf0dcb25	-0.553881
47	0xbf0606c9	-0.52354103
48	0x3bf24268	0.00739317
49	0xbe5a1e1f	-0.21300553
50	0x3ee9d9b1	0.45673898
51	0xbe215579	-0.15755261
52	0xbea4e52a	-0.32206088
53	0xbe9ca91f	-0.3059778
54	0xbeb12c04	-0.34603894
55	0xbe8c3a12	-0.27388054
56	0xbebcd04e	-0.36877674
57	0xbf1e925e	-0.6194209
58	0xbefb9589	-0.49137524
59	0xbd8b7acd	-0.06810532
60	0x3ddbba91	0.10728944
61	0x3e0eb599	0.13936462
62	0x3ce932ea	0.02846666
63	0xbcf2e332	-0.02964935

conv1.mlp.6.weight f4 [64]
0	0x3f625db0	0.88424206
1	0x3f9c336c	1.2203193
2	0x3f913ed4	1.1347299
3	0x3f77ed2e	0.9684628
4	0x3f87e321	1.0616189
5	0x3f88edb8	1.0697546
6	0x3f8446f6	1.0334156
7	0x3f8376ad	1.0270592
8	0x3f78bda3	0.9716436
9	0x3f7051f9	0.9387508
10	0x3f836705	1.0265814
11	0x3f461a92	0.77384293
12	0x3f90a784	1.1301122
13	0x3f79100f	0.9729013
14	0x3f8455fd	1.0338742
15	0x3f9025a2	1.1261485
16	0x3f844c1b	1.0335726
17	0x3f9947d6	1.1975048
18	0x3f7d9280	0.99051666
19	0x3f8cb0a0	1.0991402
20	0x3f873316	1.0562465
21	0x3f847f83	1.0351413
22	0x3f82bff4	1.021483
23	0x3f82a563	1.0206722
24	0x3f934f2b	1.1508535
25	0x3f82befd	1.0214535
26	0x3f70dfe5	0.94091636
27	0x3f667280	0.90018463
28	0x3f6bf218	0.9216628
29	0x3f64da25	0.8939536
30	0x3f5dfd66	0.8671478
31	0x3f6f3389	0.9343801
32	0x3f84c667	1.0373048
33	0x3f70302e	0.93823516
34	0x3f641b0d	0.89103776
35	0x3f627432	0.8845855
36	0x3f7cc945	0.9874461
37	0x3f8dfd4a	1.1092923
38	0x3f84b35f	1.036724
39	0x3f837695	1.0270563
40	0x3f834fb9	1.0258704
41	0x3f81d430	1.014288
42	0x3f7f681c	0.99768233
43	0x3f65e6c3	0.8980524
44	0x3f821465	1.0162474
45	0x3f8ac7a5	1.0842177
46	0x3f68749a	0.9080292
47	0x3f71d34a	0.94463027
48	0x3f8329bb	1.024711
49	0x3f6ed7bb	0.9329793
50	0x3f805217	1.0025052
51	0x3f8282df	1.0196189
52	0x3f82d2a9	1.0220538
53	0x3f93fd42	1.1561663
54	0x3f7e6776	0.9937662
55	0x3f89efe6	1.0776336
56	0x3f9bd0e1	1.217312
57	0x3f8693c9	1.051385
58	0x3f605a24	0.87637544
59	0x3f3cd7bc	0.73766685
60	0x3f79ddba	0.9760395
61	0x3f7f7018	0.99780416
62	0x3f883953	1.0642494
63	0x3f92aa69	1.1458255

conv1.mlp.6.bias f4 [64]
0	0xbe8c1f96	-0.27367848
1	0x3e958fbf	0.29211232
2	0x3cf12205	0.029435167
3	0xbd3d073e	-0.046149485
4	0x3e7560b9	0.23962678
5	0xbcd375d0	-0.025813013
6	0x3e4248c5	0.18973072
7	0x3e0c1c9a	0.13682786
8	0xbec0dce6	-0.37668532
9	0xbe489db2	-0.19591406
10	0x3d50788c	0.050896212
11	0xbe845768	-0.25847936
12	0x3e83d659	0.25749472
13	0xbe2dd0c3	-0.16974168
14	0x3e6ed169	0.23322071
15	0x3e93e03c	0.28882015
16	0x3ed71c90	0.4201398
17	0xbe39015b	-0.18066923
18	0xbe1c6760	-0.1527381
19	0xbd2b1a79	-0.041773293
20	0x3db6379c	0.088973254
21	0xbe94d33c	-0.2906741
22	0x3c862f45	0.016379962
23	0x3d61c2c5	0.055117387
24	0x3dfb995f	0.122851126
25	0xbde841fd	-0.11340711
26	0xbd49a583	-0.04923011
27	0x3e99fcb3	0.30075607
28	0x3e0199ad	0.12656279
29	0xbd5fa639	-0.05460188
30	0xbe12b479	-0.14326657
31	0x3e744b5d	0.23856874
32	0x3e9f503f	0.3111591
33	0xbeace766	-0.33770293
34	0xbe3aee40	-0.18254948
35	0xbe3074da	-0.17232075
36	0xbc881aff	-0.016614435
37	0xbe350e5f	-0.17681263
38	0x3d809d5b	0.06280013
39	0x3e7a1385	0.24421509
40	0xbefd9352	-0.4952646
41	0xbb61b02d	-0.0034437284
42	0x3dfab2c9	0.12241132
43	0x3d8fff97	0.07031172
44	0x3c7199d6	0.01474615
45	0x3e611ef2	0.21984461
46	0xbe2b7d79	-0.16747083
47	0xbc90112f	-0.017586319
48	0x3ea258ed	0.3170847
49	0x3e1958a4	0.1497522
50	0x3e4024af	0.18763994
51	0x3acb1bc4	0.0015495946
52	0xbdc26b7c	-0.09493157
53	0x3eb851ee	0.36000007
54	0x3db25fdf	0.08709692
55	0xbd12a08b	-0.035797637
56	0x3f003588	0.5008168
57	0xbd09b815	-0.03362282
58	0xbd8edbdb	-0.06975528
59	0xbebf3f8e	-0.37353176
60	0x3e8185a0	0.2529726
61	0x3e751a92	0.23935917
62	0xbb509ed1	-0.0031832943
63	0x3e964272	0.2934757

conv1.mlp.6.running_mean f4 [64]
0	0x3dd571cc	0.10422096
1	0x3f29173e	0.6605109
2	0x3f09c2d5	0.53812915
3	0x3ec2d2ce	0.38051456
4	0x3f19a7c7	0.6002163
5	0x3e9c12ce	0.30483097
6	0x3f1c2193	0.6098873
7	0x3e716506	0.23573694
8	0x3d4bccdd	0.04975592
9	0x3df9e010	0.1220094
10	0x3e1f1d3d	0.15538497
11	0x3e06ab6b	0.13151328
12	0x3ecb27f2	0.39678913
13	0x3e6ac021	0.22924854
14	0x3f796fc9	0.97436196
15	0x3e951af6	0.29122132
16	0x3f605a19	0.8763748
17	0x3f065e3e	0.5248755
18	0x3dac4627	0.08411818
19	0x3dd8ce5c	0.10586235
20	0x3f03a164	0.5141814
21	0x3cbd1d7c	0.023085348
22	0x3eb6141a	0.3556221
23	0x3eb487e0	0.35259914
24	0x3f8b834f	1.0899447
25	0x3eb8ec04	0.36117566
26	0x3efcb512	0.49356896
27	0x3f3fb572	0.7488624
28	0x3f155d51	0.58345515
29	0x3e447e93	0.19188909
30	0x3ec134b5	0.37735525
31	0x3f682fc6	0.90697896
32	0x3f85405f	1.041027
33	0x3ce744d8	0.02823107
34	0x3e33c10d	0.17554112
35	0x3dd38dca	0.103297785
36	0x3d985155	0.07437388
37	0x3e9fec6e	0.3123507
38	0x3eb79a78	0.35860038
39	0x3f9036d0	1.1266727
40	0x3e03b4f6	0.12862
41	0x3ee1a5c9	0.44071797
42	0x3eb96fee	0.36218208
43	0x3f3e07e6	0.742308
44	0x3f501ee4	0.81297135
45	0x3f5a436a	0.85259116
46	0x3cdc0cf2	0.026861642
47	0x3e1dd2cb	0.15412442
48	0x3f094489	0.536202
49	0x3f120479	0.57038075
50	0x3f869bf3	1.0516342
51	0x3f03024d	0.51175386
52	0x3e050fc5	0.12994297
53	0x3f745802	0.9544679
54	0x3ed66e16	0.41880864
55	0x3e9eb9b8	0.31001067
56	0x3f930e21	1.1488687
57	0x3de321ed	0.11090455
58	0x3db70517	0.08936518
59	0x3db70933	0.089373015
60	0x3f46b733	0.7762329
61	0x3f5966e5	0.8492263
62	0x3f1a3724	0.6024039
63	0x3f454e4e	0.7707261

conv1.mlp.6.running_var f4 [64]
0	0x3df2cc10	0.11855328
1	0x3fb61500	1.4225159
2	0x3f67605d	0.90381414
3	0x3f25cc61	0.6476498
4	0x3f9021d2	1.1260321
5	0x3ee0a4f1	0.4387584
6	0x3f9c37a5	1.2204481
7	0x3e9801d8	0.29688907
8	0x3d4030ac	0.046921417
9	0x3e1e4777	0.15456949
10	0x3e28a755	0.16470082
11	0x3e2da8d7	0.16958939
12	0x3f104e0c	0.5636909
13	0x3ebd0585	0.36918274
14	0x3fd05f94	1.6279168
15	0x3f037112	0.51344407
16	0x400ae38f	2.170139
17	0x3f57d805	0.84313995
18	0x3db2a96c	0.08723721
19	0x3dbf8687	0.09351831
20	0x3f823c4d	1.0174652
21	0x3c8b38fc	0.016994946
22	0x3f300abd	0.68766385
23	0x3f839316	1.0279262
24	0x3fbef287	1.4917763
25	0x3f08a6f5	0.53379756
26	0x3fb7b691	1.435259
27	0x3fcadfb0	1.5849514
28	0x3f608128	0.87697077
29	0x3eaf6c91	0.34262517
30	0x3f0bdf3c	0.54637504
31	0x3faf9aeb	1.3719152
32	0x3fff633e	1.9952161
33	0x3ca48c44	0.020086415
34	0x3e4fd8e0	0.20297575
35	0x3df9c9d3	0.12196698
36	0x3d86d3e4	0.06583384
37	0x3ef1a8a1	0.47198966
38	0x3eedde8f	0.4645886
39	0x3fd68e2c	1.6762137
40	0x3e1656c2	0.14681533
41	0x3efac5dd	0.48979083
42	0x3f1cfb50	0.6132097
43	0x3f96e689	1.1789104
44	0x3fa63e70	1.2987804
45	0x3fb5c840	1.4201736
46	0x3cbc522c	0.022988401
47	0x3e2a52f2	0.16633204
48	0x3f3c0297	0.7344145
49	0x3f991b80	1.1961517
50	0x3fd2cf8b	1.6469587
51	0x3f3a0668	0.72666025
52	0x3df75fcb	0.12078818
53	0x402745b0	2.6136284
54	0x3f23afe1	0.63940245
55	0x3ed3eb9b	0.4139069
56	0x4053df7f	3.310516
57	0x3dec6fc6	0.115447566
58	0x3dc1e99c	0.094683856
59	0x3d8cf6a1	0.06882978
60	0x3f954c71	1.1663953
61	0x3f83a65f	1.0285147
62	0x3f82e491	1.0226003
63	0x3f885763	1.0651668

conv1.mlp.8.weight f4 [64, 64]
0	0x3e1f078b	0.15530221
1	0xbeb2654f	-0.34842917
2	0x3dcccf81	0.10000516
3	0x3cfbf4c1	0.030756356
4	0xbe9399b8	-0.28828216
5	0xbc40ee9b	-0.011775638
6	0xbe4ff4fb	-0.20308296
7	0xbe50b9ff	-0.20383452
8	0x3e1c7901	0.15280534
9	0xbcd33a20	-0.025784552
10	0xbde227d8	-0.11042756
11	0xbdf10875	-0.11769191
12	0x3d8930b0	0.066987395
13	0x3e3d122c	0.18463963
14	0xbdb38220	-0.08765054
15	0x3e0b6b61	0.1361518
16	0xbe90733a	-0.2821291
17	0xbcd8b140	-0.026451707
18	0xbdd22196	-0.10260312
19	0xbe14507d	-0.14483829
20	0x3e8114ab	0.2521108
21	0x3df9825d	0.12183068
22	0xbcf5d5a9	-0.030009108
23	0x3d9315fc	0.071819276
24	0x3e37fed4	0.17968303
25	0xbe79624b	-0.24353902
26	0xbd5dee0d	-0.0541821
27	0xbda9cf0b	-0.082914434
28	0xbe6f6968	-0.23380053
29	0x3d8bb695	0.06821934
30	0x3d975496	0.0738918
31	0xbe516f23	-0.20452552
32	0xbe31926a	-0.17341009
33	0x3d75649c	0.0599104
34	0xbc8265be	-0.015917655
35	0x3dd21955	0.10258738
36	0xbde7c72a	-0.113172844
37	0x3d568e9b	0.052382093
38	0x3e3ec4df	0.18629788
39	0xbd2b2cae	-0.041790657
40	0x3dc66d00	0.09688759
41	0xbe38ced3	-0.18047647
42	0xbe8dee21	-0.2772074
43	0xbe7cd4ca	-0.24690548
44	0xbe021f7a	-0.1270732
45	0xbed0787e	-0.40716928
46	0xbdd574f8	-0.10422701
47	0x3dba9c9c	0.09111902
48	0xbea0713f	-0.313364
49	0x3dd10450	0.10205901
50	0xbe8a89c1	-0.27058223
51	0xbe14f1f5	-0.14545424
52	0xbdd79c8b	-0.10527905
53	0xbc5c2342	-0.0134361405
54	0xbdc33053	-0.095307015
55	0xbcad99d9	-0.021191524
56	0xbe82d1a7	-0.25550577
57	0xbd1a95af	-0.037740406
58	0xbd62b4e4	-0.055348292
59	0x3df64a4d	0.120258905
60	0xbe94e93a	-0.29084188
61	0xbe955ce2	-0.29172426
62	0x3d075520	0.033040166
63	0x3cf7cfcc	0.030250452
64	0x3e382ded	0.1798627
65	0xbec5c20f	-0.38624617
66	0xbd094e4c	-0.033521935
67	0xbdf410bc	-0.11917254
68	0xbe79aabf	-0.2438154
69	0x3d863d2e	0.06554638
70	0xbe9f2456	-0.3108241
71	0x3d2ee0d1	0.04269487
72	0x3e76489f	0.2405114
73	0x3b891acf	0.004184104
74	0xbd244acc	-0.040110394
75	0x3db88eb2	0.09011592
76	0xbecfa2ec	-0.40553987
77	0x3dedd1c8	0.11612278
78	0xbeb2d555	-0.34928384
79	0xbe59adc4	-0.21257693
80	0xbe65f6bc	-0.22457403
81	0xbdd83c61	-0.10558391
82	0xbc498361	-0.01229939
83	0x3ca237ec	0.019802056
84	0xbb28b4b4	-0.0025742473
85	0x3e87fd49	0.2656043
86	0xbea4391f	-0.3207483
87	0x3e774e48	0.24150956
88	0xbe1b15ff	-0.1514511
89	0xbd9ef1ef	-0.07760989
90	0xbcd728b6	-0.02626453
91	0xbe73b40d	-0.23799153
92	0xbe31d859	-0.17367686
93	0xbe0eeef7	-0.13958345
94	0xbda96763	-0.082716726
95	0xbd937f9e	-0.072020754
96	0xbda68efd	-0.081327416
97	0x3d4c1585	0.04982521
98	0x3e0df9cb	0.1386482
99	0x3d4a78d7	0.049431648
100	0x3dd8c670	0.10584724
101	0xbd96b428	-0.07358581
102	0xbe60593f	-0.21909045
103	0xbdfabedb	-0.12243434
104	0x3e3fff5d	0.18749757
105	0x3d16918d	0.0367599
106	0xbe27884d	-0.16360588
107	0x3c63a951	0.013895349
108	0xbe6247a8	-0.22097647
109	0x3cf7bae8	0.030240491
110	0x3b560dbd	0.0032661997
111	0xbe2c592f	-0.16830896
112	0xbd0d10f2	-0.03443999
113	0xbd346dff	-0.044050213
114	0xbedb2db5	-0.4280831
115	0xbd763d49	-0.06011704
116	0x3d84964d	0.0647398
117	0xbe4e5b31	-0.20151974
118	0x3d7b02ec	0.061282083
119	0x3dd67709	0.10471923
120	0xbe8dc641	-0.27690318
121	0x3c80601a	0.015670825
122	0x3d2f0668	0.04273072
123	0x3e424afe	0.1897392
124	0xbd78a303	-0.060702335
125	0x3d05d9d7	0.03267845
126	0xbe3d9a6c	-0.18515939
127	0xbca0b68e	-0.019618299
128	0xbd3e58d8	-0.046471447
129	0xbd23cb2e	-0.03998869
130	0xbe6793df	-0.22615002
131	0x3d88887a	0.06666656
132	0xbdc254e2	-0.09488846
133	0xbd27b748	-0.040946275
134	0x3d2c6b27	0.042094376
135	0x3d9fa458	0.07795018
136	0x3d59b12c	0.05314748
137	0x3d28c691	0.041204993
138	0x3dac62b0	0.08417261
139	0x3ea66dac	0.32505548
140	0xbd1270f1	-0.03575224
141	0xbd3da8e9	-0.046303663
142	0xbe823dad	-0.2543768
143	0xbd8b0a29	-0.06789047
144	0xbe31d0a3	-0.17364745
145	0x3e0855d8	0.13313997
146	0x3e91b20d	0.28456154
147	0x3e8dd84b	0.2770408
148	0xbe5c4f26	-0.21514568
149	0x3d9e27dd	0.07722447
150	0xbdc2d73a	-0.095137075
151	0xbe125332	-0.14289549
152	0x3d01d272	0.031694837
153	0x3de6f4e6	0.112771794
154	0x3db3f62e	0.087871894
155	0xbcc01cca	-0.023451228
156	0x3db6948a	0.0891505
157	0xbe0aaaa6	-0.1354166
158	0xbd6bed42	-0.057599314
159	0xbea01598	-0.31266475
160	0xbdd2811d	-0.10278533
161	0xbdcd5c61	-0.100273855
162	0x3b2e1fd2	0.002656926
163	0xbd4aaf03	-0.04948331
164	0x3e139fa2	0.14416364
165	0x3e5a1cc7	0.2130004
166	0xbe47d2fe	-0.19514081
167	0xbdfa048d	-0.12207899
168	0x3dd1d88e	0.10246383
169	0xbd85e969	-0.0653866
170	0x3e707775	0.23483069
171	0x3d2e439a	0.04254494
172	0x3cc0f35b	0.02355354
173	0x3ca7a945	0.020466456
174	0x3e82f99a	0.25581056
175	0xbdeb42dd	-0.114873625
176	0xbe94d73a	-0.29070455
177	0xbecbd611	-0.39811757
178	0x3ba17b40	0.0049280226
179	0x3d57cdcc	0.052686498
180	0x3dca2936	0.098711416
181	0xbd988fb9	-0.07449288
182	0x3e05cfeb	0.13067596
183	0x3d79d746	0.060996316
184	0xbd878fad	-0.06619201
185	0x3cfd845f	0.030946909
186	0x3d6537d5	0.05596145
187	0x3dfe9f73	0.12432756
188	0xbe0b395f	-0.13596104
189	0xbcb0b849	-0.021572249
190	0x3e249a00	0.16074371
191	0xbed34af3	-0.4126812
192	0x3da4697d	0.08027933
193	0x3ca1a867	0.01973362
194	0xbe7fd694	-0.24984199
195	0x3d95ddbb	0.07317682
196	0xbdc7fdde	-0.09765218
197	0xbd7b91ff	-0.06141853
198	0xbd43cacc	-0.047800824
199	0x3d7d9e5f	0.061918613
200	0x3e841e0d	0.25804177
201	0xbbc89b62	-0.0061220387
202	0xbd84d4d1	-0.06485904
203	0xbc9239dd	-0.017849857
204	0xbebdf997	-0.37104484
205	0x3ea920be	0.33032793
206	0xbe6a1457	-0.22859322
207	0xbde7be98	-0.1131565
208	0xbd8327ad	-0.06404052
209	0x3ddc627f	0.10760974
210	0xbde7d419	-0.11319751
211	0x3dbbf578	0.09177679
212	0xbe31eceb	-0.17375533
213	0x3ea6fb3e	0.32613558
214	0xbe441794	-0.1914962
215	0xbe405c0c	-0.18785113
216	0xbe886ce6	-0.26645583
217	0xbdb9cad8	-0.090718925
218	0xbe04ef5f	-0.12981938
219	0xbe6e7cbe	-0.23289773
220	0x3d51aea3	0.051191937
221	0xbdd225ff	-0.102611534
222	0x3e02902e	0.12750313
223	0xbd4d663c	-0.050146326
224	0x3d4bd76c	0.04976599
225	0x3e53f504	0.20698935
226	0x3e62b758	0.22140253
227	0x3e3a708e	0.18206999
228	0x3df14028	0.11779815
229	0xbdfd99c0	-0.12382841
230	0xbe5b6069	-0.21423496
231	0xbe24941a	-0.16072121
232	0x3e50d26d	0.20392771
233	0x3dcda5fc	0.10041425
234	0x3dce6b4c	0.10079059
235	0xbe095526	-0.13411388
236	0xbd99fbeb	-0.07518753
237	0x3e06a24c	0.13147849
238	0x3d125777	0.035727944
239	0xbdb5485e	-0.088516936
240	0xbd658f8a	-0.056045093
241	0xbe0551f3	-0.13019542
242	0xbeb8c3e5	-0.36086956
243	0xbb224683	-0.0024761267
244	0xbcc078a4	-0.023495026
245	0xbe5bafd9	-0.214538
246	0x3cb7350d	0.022364164
247	0x3e1a03ca	0.15040508
248	0xbea48177	-0.32130024
249	0xbd697b0a	-0.057002105
250	0x3e234754	0.15945178
251	0x3da68297	0.08130377
252	0xbca2a482	-0.019853834
253	0x3e6a76f2	0.22896937
254	0xbdaab7c2	-0.0833583
255	0x3e1128ea	0.14175764

conv1.mlp.8.bias f4 [64]
0	0xbe6c6c13	-0.23088102
1	0xbe07b4b2	-0.13252524
2	0xbe91eaaf	-0.28499362
3	0xbe04f05e	-0.12982318
4	0xbeed0916	-0.46295995
5	0x3eb5c56b	0.3550218
6	0xbebf1bf0	-0.37326002
7	0x3e352def	0.17693304
8	0xbeec0ae6	-0.46102065
9	0xbe2cfd40	-0.16893482
10	0xbd34ddb2	-0.044156738
11	0xbe71f1eb	-0.2362744
12	0x3c4f4d84	0.0126527585
13	0xbda3f592	-0.08005823
14	0xbdb2d710	-0.08732426
15	0xbd56f4d7	-0.05247959
16	0x3dd2a1c0	0.102847576
17	0x3f010659	0.5040031
18	0x3e6cc24a	0.2312099
19	0x3d7e31af	0.0620591
20	0xbd28bbc3	-0.04119469
21	0xbbceed50	-0.006314911
22	0xbc5dd4bb	-0.013539488
23	0x3ecd50ce	0.40100712
24	0xbe05da4a	-0.13071552
25	0x3e2b8761	0.16750862
26	0xbe9f2389	-0.310818
27	0x3def4a1b	0.11684056
28	0x3de79385	0.11307434
29	0x3e4a9c60	0.19786215
30	0xbdbadcc7	-0.09124141
31	0x3e6a9894	0.22909766
32	0xbe009dd3	-0.12560205
33	0x3de9a103	0.11407664
34	0x3e7e2519	0.24818839
35	0x3ef7925e	0.48353857
36	0xbde9879f	-0.11402821
37	0x3cfbd0ca	0.030739207
38	0x3c5291ea	0.012852171
39	0xbea9e185	-0.3317987
40	0x3e27809b	0.16357653
41	0xbe4e749f	-0.20161675
42	0xbe02651c	-0.12733883
43	0xbdd4b2c9	-0.10385663
44	0xbe4b70a4	-0.19867188
45	0x3dbf472b	0.09339746
46	0x3cecc637	0.02890311
47	0x3c6bed00	0.014399767
48	0x3eb67ece	0.3564362
49	0x3e134069	0.1438004
50	0x3d2c8d33	0.042126846
51	0x3e798c2c	0.24369878
52	0x3dbd48ef	0.092424266
53	0xbeae064d	-0.33989182
54	0xbdee7a36	-0.11644404
55	0x3e915770	0.28387022
56	0xbdf8d0f1	-0.121492274
57	0xbe0de273	-0.13855915
58	0xbe2cc10d	-0.16870518
59	0x3db17fa0	0.08666921
60	0x3e8f4a13	0.27986202
61	0x3f4a5e1c	0.7904985
62	0x3eb25925	0.34833637
63	0xbdae944c	-0.08524379

conv1.mlp.10.weight f4 [64]
0	0x3fe22f71	1.7670728
1	0x3f816f21	1.0112039
2	0x3f972e52	1.1811011
3	0x3f71c77b	0.9444501
4	0x3faacf44	1.3344502
5	0x3fa79bb5	1.3094393
6	0x3f9c8b75	1.2230059
7	0x3fa15742	1.2604754
8	0x3f86b4e5	1.0523955
9	0x3ff095ae	1.8795679
10	0x3f847296	1.0347469
11	0x3f5c8e23	0.86154383
12	0x3f819255	1.0122782
13	0x3f8fc9b1	1.1233426
14	0x3fc31f09	1.5243846
15	0x3fe8bd19	1.8182708
16	0x3f51c31a	0.81938326
17	0x3f9591a6	1.1685073
18	0x3f7126b1	0.94199663
19	0x3f25d8f1	0.6478415
20	0x3f64558c	0.89193034
21	0x3fcffd7b	1.6249231
22	0x3f86a398	1.0518675
23	0x3f95c2a9	1.170003
24	0x3f9b0ed9	1.2113906
25	0x3f78b532	0.9715148
26	0x3fbd8079	1.4804832
27	0x3f82d8c1	1.0222398
28	0x3f84c8d7	1.0373791
29	0x3f8476d2	1.0348761
30	0x3fa3086c	1.2736945
31	0x3f8ef4fd	1.1168514
32	0x3f943a12	1.1580222
33	0x3f5059ef	0.8138723
34	0x3f69dc54	0.9135182
35	0x3f760d0e	0.9611367
36	0x3fbd74e4	1.4801297
37	0x3fe35842	1.7761309
38	0x3f6867bf	0.90783304
39	0x3fd952ca	1.697839
40	0x3f44b093	0.7683193
41	0x3fa6533d	1.2994152
42	0x3f9ea133	1.2392944
43	0x3f941e01	1.1571656
44	0x3fe5a348	1.7940454
45	0x3fa4e740	1.2883072
46	0x3fa2ad6c	1.2709174
47	0x3f5b3353	0.8562519
48	0x3fa89623	1.3170818
49	0x3f7b7d96	0.98238504
50	0x3f319941	0.6937447
51	0x3f45d284	0.77274346
52	0x3f56b995	0.83876926
53	0x3f4b2497	0.79352707
54	0x3f9cd0b8	1.2251196
55	0x3f98254b	1.1886381
56	0x3f92d42a	1.1470997
57	0x3f929225	1.145085
58	0x3ff60d6f	1.922285
59	0x3f82e046	1.0224693
60	0x3f7c1ab4	0.98478246
61	0x3f759736	0.95933855
62	0x3fe8e9c9	1.8196346
63	0x3fb17dfb	1.3866571

conv1.mlp.10.bias f4 [64]
0	0x3e93042d	0.28714123
1	0x3d74b6f1	0.05974478
2	0xbe8a0858	-0.2695949
3	0xbdf7ea57	-0.12105244
4	0xbe53b855	-0.20675786
5	0x3d8907d4	0.06690946
6	0x3deec187	0.11658006
7	0x3d97e9e2	0.074176565
8	0x3e342cc4	0.17595202
9	0x3f01ac2f	0.50653356
10	0xbf13a10f	-0.5766763
11	0xbe3332b6	-0.17499813
12	0xbd5c5bb4	-0.053798392
13	0x3ea77835	0.32708898
14	0x3f2a8c86	0.6662067
15	0x3ea40ed7	0.32042572
16	0xbe8c4818	-0.27398753
17	0x3e3a28ea	0.1817967
18	0x3cce3422	0.025171343
19	0xbe832170	-0.25611448
20	0xbe3a455b	-0.1819052
21	0x3ea69c48	0.32541108
22	0x3eb23ac1	0.3481045
23	0x3b63dcc2	0.0034769033
24	0x3e03c2ba	0.12867251
25	0x3dfc49be	0.12318753
26	0x3e433e66	0.19066772
27	0xbda90bde	-0.082542166
28	0xbeb3b5ea	-0.35099727
29	0xbe53231f	-0.20618866
30	0x3e9f4e4a	0.31114417
31	0xbe64bdb6	-0.22337994
32	0x3db748ad	0.08949409
33	0xbef59606	-0.4796602
34	0xbf039646	-0.51401174
35	0xbe1497c7	-0.14511023
36	0x3e34cf91	0.17657305
37	0x3e833191	0.25623754
38	0xbe84ca05	-0.2593538
39	0x3e9dd33c	0.30825222
40	0xbea07e45	-0.31346336
41	0xbecb0d03	-0.39658365
42	0x3e09adf8	0.1344527
43	0xbe8152f6	-0.25258607
44	0x3ed7e4d4	0.4216677
45	0x3d8dc18a	0.0692168
46	0x3def74cc	0.11692199
47	0xb972730a	-0.00023121774
48	0x3e610320	0.21973848
49	0xbee77205	-0.45204177
50	0x3a9d1357	0.0011983913
51	0xbf41fd62	-0.75777256
52	0xbe6d5aab	-0.23179118
53	0xbef3310a	-0.4749835
54	0xbebb68b0	-0.36603308
55	0xbdeb33e3	-0.11484506
56	0xbe038ef3	-0.128475
57	0x3c5b771f	0.0133951
58	0x3ec8010d	0.39063302
59	0xbe99fbb6	-0.30074853
60	0x3e0eaf04	0.1393395
61	0xbdd8af59	-0.1058032
62	0x3ecb93e8	0.3976128
63	0x3d20390d	0.039116908

conv1.mlp.10.running_mean f4 [64]
0	0x3f037ffc	0.51367164
1	0x3ee6d22c	0.45082223
2	0x3e91a7f0	0.2844844
3	0x3ed7a16f	0.42115352
4	0x3e8bd048	0.27307343
5	0x3f49f64f	0.7889146
6	0x3e595e48	0.21227372
7	0x3f812422	1.0089152
8	0x3f046abf	0.5172538
9	0x3f0f7011	0.56030375
10	0x3f9b6074	1.213881
11	0x3f847558	1.034831
12	0x3f7d4d31	0.9894591
13	0x3f29dae9	0.66349655
14	0x3f514046	0.817387
15	0x3f111035	0.56665355
16	0x3f5b1eaa	0.85593665
17	0x3fc22e35	1.5170351
18	0x3fa4e024	1.2880902
19	0x3f9368cc	1.1516356
20	0x3ef5af32	0.47985226
21	0x3f0892dd	0.53349096
22	0x3f5435a4	0.8289435
23	0x3f9f85fd	1.2462765
24	0x3f889bb9	1.0672523
25	0x3f9342c9	1.1504756
26	0x3ef7c747	0.48394224
27	0x3f91fc4c	1.140512
28	0x3f293f20	0.66111946
29	0x3f815d31	1.0106565
30	0x3f7432e8	0.95390177
31	0x3f7e8d1d	0.9943407
32	0x3ed45eae	0.41478485
33	0x3f64eefe	0.89427173
34	0x3f9976ef	1.1989421
35	0x3f920d17	1.1410245
36	0x3f05a870	0.5221014
37	0x3f12cef2	0.57347023
38	0x3f9939fb	1.1970819
39	0x3ed13d97	0.40867302
40	0x3fadc4c1	1.357567
41	0x3eab8523	0.33500013
42	0x3ef38265	0.4756042
43	0x3f85d030	1.0454159
44	0x3efb2599	0.49052122
45	0x3f6e77b2	0.9315139
46	0x3f331052	0.6994678
47	0x3f988f2e	1.1918695
48	0x3f89c857	1.0764264
49	0x3f4b1ee1	0.7934399
50	0x3f4157e1	0.7552472
51	0x3f9af3a0	1.2105598
52	0x3f9dd5e8	1.2330904
53	0x3eb8fabf	0.36128804
54	0x3f157802	0.5838624
55	0x3f53b7d4	0.82702374
56	0x3eb7ae2b	0.35875067
57	0x3ea20fab	0.3165258
58	0x3f01c1d7	0.506864
59	0x3f0bb658	0.5457511
60	0x3f54605c	0.8295953
61	0x3fbfe149	1.4990627
62	0x3f74df5b	0.95653313
63	0x3efa9cbf	0.48947713

conv1.mlp.10.running_var f4 [64]
0	0x3fb4a17d	1.4111782
1	0x3fc7085d	1.5549427
2	0x3f8ba503	1.0909733
3	0x3ff5e31e	1.9209936
4	0x3f17f916	0.5936445
5	0x3ff1fd76	1.8905475
6	0x3f0a3c50	0.5399828
7	0x3ffd7aca	1.9803097
8	0x3fc6dd43	1.5536274
9	0x3ffed1a4	1.9907727
10	0x405eaf79	3.47946
11	0x4026f834	2.608899
12	0x400f0036	2.2343879
13	0x3fbfb415	1.4976832
14	0x3fac48f0	1.3459759
15	0x401653d6	2.348867
16	0x4007c352	2.1212964
17	0x4008f101	2.1397097
18	0x4040a2f0	3.009945
19	0x4003ac8b	2.0574062
20	0x3fe55230	1.7915707
21	0x40042ae3	2.0651176
22	0x3fa8d67c	1.3190455
23	0x3fe640e0	1.7988548
24	0x40588b93	3.383519
25	0x40253764	2.5815058
26	0x402562c4	2.5841532
27	0x4025027d	2.5782769
28	0x3fe78eb2	1.8090422
29	0x40270512	2.6096845
30	0x3fa8a307	1.3174752
31	0x4011035c	2.26583
32	0x3fc4d9d3	1.5378975
33	0x40221488	2.5325031
34	0x40625a6b	3.5367687
35	0x40112c38	2.268324
36	0x3fe15a70	1.7605724
37	0x3ff90f9b	1.9457887
38	0x4039d582	2.9036565
39	0x3fb6f831	1.4294492
40	0x406022bb	3.5021198
41	0x3f72e900	0.9488678
42	0x3f8a663f	1.0812453
43	0x402706a1	2.6097796
44	0x40052740	2.0805206
45	0x3fcc80f6	1.5976856
46	0x3faa27fc	1.3293452
47	0x403e2fd0	2.9716682
48	0x40272a29	2.6119483
49	0x3fe36bb3	1.7767242
50	0x3ff0846e	1.8790414
51	0x40300bbf	2.750717
52	0x40554f5b	3.3329685
53	0x3f776e8e	0.9665307
54	0x3fde0467	1.7345093
55	0x3fd82e91	1.6889211
56	0x3f83c29f	1.0293769
57	0x3f934fe3	1.1508754
58	0x3fd100cd	1.6328369
59	0x3fca03f2	1.5782454
60	0x3f984f7f	1.189926
61	0x403c8eba	2.9462113
62	0x3ff7ed70	1.9369335
63	0x3fcc0a93	1.5940727
