DenseNeuralNet/Skim3Mu/MHc-70_MA-65_vs_diboson/models/SNN-nNodes128_Adam_initLR-0p005_StepLR.pt (torch, 295346 bytes, 16 tensors)

bn.weight f4 [47]
00000000: 0000 803f 0000 803f 0000 803f 0000 803f
00000010: 0000 803f 0000 803f 0000 803f 0000 803f
00000020: 0000 803f 0000 803f 0000 803f 0000 803f
00000030: 0000 803f 0000 803f 0000 803f 0000 803f
00000040: 0000 803f 0000 803f 0000 803f 0000 803f
00000050: 0000 803f 0000 803f 0000 803f 0000 803f
00000060: 0000 803f 0000 803f 0000 803f 0000 803f
00000070: 0000 803f 0000 803f 0000 803f 0000 803f
00000080: 0000 803f 0000 803f 0000 803f 0000 803f
00000090: 0000 803f 0000 803f 0000 803f 0000 803f
000000a0: 0000 803f 0000 803f 0000 803f 0000 803f
000000b0: 0000 803f 0000 803f 0000 803f
1.0 1.0 1.0 1.0 1.0 1.0 1.0 1.0
1.0 1.0 1.0 1.0 1.0 1.0 1.0 1.0
1.0 1.0 1.0 1.0 1.0 1.0 1.0 1.0
1.0 1.0 1.0 1.0 1.0 1.0 1.0 1.0
1.0 1.0 1.0 1.0 1.0 1.0 1.0 1.0
1.0 1.0 1.0 1.0 1.0 1.0 1.0

bn.bias f4 [47]
00000000: 0000 0000 0000 0000 0000 0000 0000 0000
00000010: 0000 0000 0000 0000 0000 0000 0000 0000
00000020: 0000 0000 0000 0000 0000 0000 0000 0000
00000030: 0000 0000 0000 0000 0000 0000 0000 0000
00000040: 0000 0000 0000 0000 0000 0000 0000 0000
00000050: 0000 0000 0000 0000 0000 0000 0000 0000
00000060: 0000 0000 0000 0000 0000 0000 0000 0000
00000070: 0000 0000 0000 0000 0000 0000 0000 0000
00000080: 0000 0000 0000 0000 0000 0000 0000 0000
00000090: 0000 0000 0000 0000 0000 0000 0000 0000
000000a0: 0000 0000 0000 0000 0000 0000 0000 0000
000000b0: 0000 0000 0000 0000 0000 0000
0.0 0.0 0.0 0.0 0.0 0.0 0.0 0.0
0.0 0.0 0.0 0.0 0.0 0.0 0.0 0.0
0.0 0.0 0.0 0.0 0.0 0.0 0.0 0.0
0.0 0.0 0.0 0.0 0.0 0.0 0.0 0.0
0.0 0.0 0.0 0.0 0.0 0.0 0.0 0.0
0.0 0.0 0.0 0.0 0.0 0.0 0.0

bn.running_mean f4 [47]
00000000: 0000 0000 0000 0000 0000 0000 0000 0000
00000010: 0000 0000 0000 0000 0000 0000 0000 0000
00000020: 0000 0000 0000 0000 0000 0000 0000 0000
00000030: 0000 0000 0000 0000 0000 0000 0000 0000
00000040: 0000 0000 0000 0000 0000 0000 0000 0000
00000050: 0000 0000 0000 0000 0000 0000 0000 0000
00000060: 0000 0000 0000 0000 0000 0000 0000 0000
00000070: 0000 0000 0000 0000 0000 0000 0000 0000
00000080: 0000 0000 0000 0000 0000 0000 0000 0000
00000090: 0000 0000 0000 0000 0000 0000 0000 0000
000000a0: 0000 0000 0000 0000 0000 0000 0000 0000
000000b0: 0000 0000 0000 0000 0000 0000
0.0 0.0 0.0 0.0 0.0 0.0 0.0 0.0
0.0 0.0 0.0 0.0 0.0 0.0 0.0 0.0
0.0 0.0 0.0 0.0 0.0 0.0 0.0 0.0
0.0 0.0 0.0 0.0 0.0 0.0 0.0 0.0
0.0 0.0 0.0 0.0 0.0 0.0 0.0 0.0
0.0 0.0 0.0 0.0 0.0 0.0 0.0

bn.running_var f4 [47]
00000000: 0000 803f 0000 803f 0000 803f 0000 803f
00000010: 0000 803f 0000 803f 0000 803f 0000 803f
00000020: 0000 803f 0000 803f 0000 803f 0000 803f
00000030: 0000 803f 0000 803f 0000 803f 0000 803f
00000040: 0000 803f 0000 803f 0000 803f 0000 803f
00000050: 0000 803f 0000 803f 0000 803f 0000 803f
00000060: 0000 803f 0000 803f 0000 803f 0000 803f
00000070: 0000 803f 0000 803f 0000 803f 0000 803f
00000080: 0000 803f 0000 803f 0000 803f 0000 803f
00000090: 0000 803f 0000 803f 0000 803f 0000 803f
000000a0: 0000 803f 0000 803f 0000 803f 0000 803f
000000b0: 0000 803f 0000 803f 0000 803f
1.0 1.0 1.0 1.0 1.0 1.0 1.0 1.0
1.0 1.0 1.0 1.0 1.0 1.0 1.0 1.0
1.0 1.0 1.0 1.0 1.0 1.0 1.0 1.0
1.0 1.0 1.0 1.0 1.0 1.0 1.0 1.0
1.0 1.0 1.0 1.0 1.0 1.0 1.0 1.0
1.0 1.0 1.0 1.0 1.0 1.0 1.0

dense1.weight f4 [128, 47]
00000000: 57ba 34be f741 68bd 28a7 c63c 4c71 903d
00000010: d6e9 323d 6e3c cabb 5e49 7fbb e81a 86bd
00000020: 5f1c 08be 85d4 87bd 950e 26be 1faa d93d
00000030: c91c 49be 6f77 35bd f8ca 9f3d eb44 8dbd
00000040: 1283 be3d 796a 8dbd 6142 9abd 69ae 3e3d
00000050: 94e1 e13c 7c34 a3bc 120c 92bd f4d9 843d
00000060: b916 843d 20b2 083d fab1 193c a14b c33d
00000070: 6653 22bc 7cb6 f3ba 86b0 31be 1aa2 3cbe
00000080: 88c0 fabd af18 2dbe e811 39be 1b76 c73d
00000090: 5340 adbd 352c e8bd 9b7b 24bd 0729 6ebe
000000a0: a170 47be 4c9a 40be f255 b5bd 93b5 973c
000000b0: 24f8 b7bc afd0 03bd 8187 b73d 447c febc
000000c0: c371 1e3e 4e40 90bd bfb2 d43b 788b 5c3d
000000d0: 1f3b 1abb eb29 7c3e e002 5d3c b45f 01be
000000e0: 81db d43e f89f 17bd 19f9 033d 4368 debd
000000f0: fd72 a2bd 3d67 703f f14d 903c 3577 f1be
00000100: cb18 e13c a521 da3c cd51 30be 19b4 b5c0
00000110: 404b ffbd fc88 6fbe 1530 66bb 5911 463e
00000120: 51c5 c1bc c0d6 9fc0 18f6 d33e 4129 cebc
00000130: 59d5 d8be c37d 87be 2e07 d5be 2413 6abe
00000140: 0247 debd be79 17be e497 a7be ae55 48bf
00000150: 0643 cabd 94a5 36be 38e6 393d bc40 cb3d
00000160: 446c 0bbd 1ebf 403e 6b28 bdbe 361a b5c0
00000170: 3555 b3be abdb b6c0 350e 7bbd f062 503c
00000180: 1ae7 ed3d 8239 ccbc e5bb c83d 7bac 92bc
00000190: 257a 36bd 526c 873e 4e6d 973a 2041 7f3e
000001a0: 2b50 c83d 5160 85bd c0f5 15bc f80a 7bbe
000001b0: 0ec6 023f fee7 0b3d 29f8 433d 305b 0ebf
000001c0: 8d1a 3bbc 5dbb 09be ba31 c9c0 fd90 0e3d
000001d0: 98ff f8bd 8b91 4fbe 02d0 f63c e010 bc3e
000001e0: 7631 a3c0 2583 3abf 5a9f 59bf 1e72 7fbf
000001f0: 06e7 3dbf e4b3 58bf 6606 69bf 4965 f9be
00000200: 5051 11bf ae31 23bf eb8c 86bf ab3f 30be
00000210: 0ba2 333d 875e 3a3d 84be 3ebd 3cb8 babc
00000220: ede6 383e d912 97bf f6c3 d2c0 4d77 57bf
00000230: a999 ccc0 9aee fcbd 2289 3dbe 6cb3 e9bd
00000240: 070f 063e e9b5 f5bd eed2 e6bd 34f8 bf3c
00000250: fc33 dcbd d895 63bc 2c3d 933e 01be 353d
00000260: 6cd4 6b3b 0065 a6be 1eb2 9e3d 9b52 0fbe
00000270: 211c 23be 0346 e2bd aeed 51be cf8e 03be
00000280: ded9 7bbd f4ee 8a40 086c 9ebc dc29 a83e
00000290: d1b6 5fbe a817 0c3e 20eb fa3d 070e 4140
000002a0: 46c3 98bf b7bd 49bf 918d 71bd ca7c b1be
000002b0: ab8e f2be fb9a 98be 77e5 c3be d697 10bf
000002c0: 84c8 09bf 6dc6 b8be 227e 023e f0d4 5f3d
000002d0: d1ad a0bd 6c0b 4cbc 504a 8ebd 3d26 b73c
000002e0: 76fe 14bf a59f 6340 e306 3abf 7d74 8240
000002f0: a27c 32be 79d4 d1bd ac91 bfbd d4a4 a0bd
00000300: 0c7c b2bd 66a8 51be 7f26 a03d e462 80bb
00000310: 583b a83d c42c 3fbd a756 903d 0e11 b03c
00000320: 2d64 503d e0a4 d13d a5f2 d03d 0fb3 0dbe
00000330: 7124 0b3d 0ba2 3bbd 062b 2d3d eadc 22be
00000340: 8701 733c 7131 1d3c 666e 04bd f189 123c
00000350: 12f1 d1bc b456 1fbe 544f 7f3d ae3e 993d
00000360: 1979 d53d ba42 7a3d a60a 683b 40ef 06be
00000370: 0130 f5bd 3134 0bbe af62 dd3d 6949 b8bd
00000380: 7890 34be 4917 a9bd fbad 95bd 9088 17bd
00000390: 55be ecbd b8dc 57bd 44cb 05be d869 85bd
000003a0: ba38 603d 9e05 f9bd d983 f3bc ba24 ffbc
000003b0: 910c 31be 9ee7 073d bc70 0b3d aeb2 87be
000003c0: d9a2 63bc 108b c8bd 1ae1 9e3c 66f5 a0bb
000003d0: dbb6 a63d 674f 25bd b8ea 20be 1dfa f83d
000003e0: a7cf 233d 2f22 a4be 8286 083a c0a5 dbbd
000003f0: fd40 a53d bdcf 86bc ad48 32bd 3c4f db40
-0.17649208 -0.056703534 0.024249628 0.0705286 0.043680035 -0.0061717546 -0.0038953642 -0.06548101
-0.13292073 -0.06632332 -0.162165 0.10628151 -0.19639887 -0.044303354 0.07802385 -0.06897911
0.093023434 -0.06905074 -0.07532192 0.04655305 0.027573384 -0.019922487 -0.071312085 0.06486884
0.064496465 0.033373 0.009380812 0.095359094 -0.009907579 -0.0018593813 -0.17352495 -0.18421212
-0.12243754 -0.16903947 -0.18073237 0.09739324 -0.084595345 -0.11336557 -0.04015694 -0.23257838
-0.19476558 -0.1880886 -0.088542834 0.018519199 -0.02245719 -0.032181438 0.08961392 -0.031065114
0.15473084 -0.07043515 0.0064910348 0.053843945 -0.0023533774 0.24625365 0.013489455 -0.12634164
0.41573718 -0.037017792 0.03221998 -0.1085973 -0.079320885 0.9390753 0.01761529 -0.4716126
0.027477643 0.026627371 -0.17218705 -5.6782346 -0.12465525 -0.23392099 -0.0035123874 0.19342555
-0.023653658 -4.9949646 0.41398692 -0.025166156 -0.4235027 -0.26463136 -0.4160704 -0.22858864
-0.108533874 -0.14792535 -0.3273307 -0.78255737 -0.09876065 -0.178366 0.04538557 0.099244565
-0.034038797 0.18822905 -0.369449 -5.6594496 -0.35025945 -5.714315 -0.061292846 0.012718901
0.11616345 -0.024929766 0.09801463 -0.01790451 -0.04455008 0.2644983 0.0011552961 0.24927187
0.09780916 -0.065125115 -0.00915283 -0.24515903 0.5108346 0.034156792 0.047844086 -0.5560789
-0.011419904 -0.1345038 -6.28732 0.03480624 -0.12158126 -0.20270364 0.030128483 0.36731625
-5.0997877 -0.7285636 -0.85008776 -0.99783504 -0.7418064 -0.8464949 -0.9102539 -0.48710087
-0.567647 -0.6374768 -1.0511755 -0.17211787 0.043855708 0.045500305 -0.04656841 -0.022792928
0.18056841 -1.1802627 -6.586421 -0.84166414 -6.3937573 -0.12350197 -0.18509343 -0.11411175
0.1309167 -0.11997587 -0.112707004 0.023433782 -0.10752103 -0.013890706 0.28757608 0.044370655
0.0035984768 -0.32498932 0.07748817 -0.13996355 -0.15928699 -0.1104851 -0.20500824 -0.12847446
-0.06148707 4.341669 -0.019338623 0.32844436 -0.21847083 0.13680899 0.12251878 3.0164812
-1.1934593 -0.78805107 -0.0589729 -0.3466552 -0.47374472 -0.2980574 -0.38261005 -0.56481683
-0.5382159 -0.36088887 0.12743428 0.054646432 -0.07845653 -0.012453895 -0.06947768 0.0223571
-0.58200777 3.556619 -0.7266676 4.0767198 -0.17430356 -0.10245604 -0.093539566 -0.078439385
-0.08715066 -0.20474395 0.078198425 -0.0039180387 0.08214444 -0.04667355 0.070477776 0.021492507
0.050876785 0.102365255 0.10202531 -0.13837837 0.0339703 -0.045808833 0.04227736 -0.15904585
0.014831907 0.009594307 -0.032331847 0.008944021 -0.025627647 -0.15560418 0.062331513 0.07482658
0.10423488 0.06109879 0.0035406738 -0.13177204 -0.11972047 -0.13594128 0.10809838 -0.08998377
-0.17633235 -0.082563944 -0.07308575 -0.03699547 -0.115597405 -0.05270073 -0.13065821 -0.06514329
0.0547416 -0.121592745 -0.029725956 -0.031145442 -0.1728995 0.03317987 0.03404306 -0.2650351
-0.013893806 -0.09792149 0.019394446 -0.0049120663 0.08140346 -0.040358927 -0.15714538 0.1215708
0.039992955 -0.3205733 0.00052080315 -0.10724974 0.08069036 -0.01645648 -0.04352634 6.853422

dense1.bias f4 [128]
00000000: 21b4 723d 23f9 b4be 07db 89bf 4636 06bf
00000010: e7b2 77bc c853 2fbf 987f 44bb b8fb e2bd
00000020: 5b52 4abf c74c adbe 0874 cebe 449a 67be
00000030: e386 bfbe a453 993c b12d 6bbe 5152 a4be
00000040: 5ab2 2cbf ed07 3abf 5c89 3fbf 82bf 27bf
00000050: d9f6 4e3e 4d5e 35bd 44c6 01bf de87 ebbe
00000060: 5888 86bd 1e4a 633d 27c3 c13e 4782 413b
00000070: 98e0 d5bc e038 0cbf 1071 6abe c8d4 f7be
00000080: 0d77 85ba 649f 38bf 3034 8dbd c1a4 86bd
00000090: 19aa 76bf d2f6 e4be db50 01bf b0ce 21bf
000000a0: 947a 6e3d 70db 163f 7432 b2be fb81 2bbe
000000b0: 1e72 89be 4606 46be 70ad 2abe 9be2 f3bd
000000c0: 2afe e1be 394f 3e3e 4c41 02be 669f 0ebf
000000d0: 4ec6 2cbf f229 94be efae babe abf7 f9bc
000000e0: 6b52 063f 34b1 ffbe 2311 bfbe 6c73 6a3c
000000f0: 7a68 f43d ddf8 abbe 95e5 d1be 32b8 8fbe
00000100: 8043 06bf 3544 cfba 3caa 15bf 79e4 493d
00000110: e042 82be 7903 51bf d392 0cbf 6dd4 97be
00000120: 28bf b83c 8f04 c7be 223f 293e ebc6 50be
00000130: eae6 b9bd cc0c 9a3d c47b 29bf 7351 9abe
00000140: ae53 be3d ee7b bdbd 0321 4ebe b36a 91bf
00000150: 21a2 8cbe e09c 203e f15d 173d 980e 9f3d
00000160: 0060 01be 282b c5be e461 993f ab1e 4bbe
00000170: b737 58bf 0411 43be 4a77 0ebf 9403 1cbf
00000180: ff08 92bf e77b 3dbf c156 983d c787 2dbe
00000190: d1ec 2cbf 723e c7be aa9d 0bbf 53e9 9e3d
000001a0: 5970 32bf d088 abbe e33e 97bd 93bb fbbd
000001b0: 481d 25bf b56e 42be b589 cdbe 7613 efbe
000001c0: add8 6dbe b482 d2be c4ff 593e 7bc3 04bf
000001d0: 5366 99bd 7e8b 033f 76f8 05bf eea4 a1bb
000001e0: 2797 1abe 1ad4 60bf 4dc3 39be d4b7 43bf
000001f0: 3935 60bf b00b 0ebf ad35 4fbe bd33 2ebf
0.059253816 -0.35346326 -1.0769967 -0.52426565 -0.015118337 -0.68487215 -0.0029983278 -0.11083168
-0.79031914 -0.3384764 -0.403229 -0.22617441 -0.37407598 0.01871664 -0.22966649 -0.32094052
-0.6745964 -0.72668344 -0.7481897 -0.6552659 0.20211352 -0.044279385 -0.50693154 -0.46002096
-0.06568974 0.055490606 0.37844202 0.0029527114 -0.026108071 -0.54774284 -0.22894692 -0.48404527
-0.0010182575 -0.7211821 -0.068947196 -0.06574393 -0.963533 -0.4471956 -0.50514 -0.63206005
0.05822237 0.58928585 -0.34804118 -0.16748802 -0.26844877 -0.1933833 -0.16667724 -0.11908456
-0.44139224 0.18584909 -0.12720221 -0.5571197 -0.6749009 -0.28938252 -0.3646159 -0.030513605
0.5246951 -0.49939883 -0.37317762 0.014309745 0.1193399 -0.33588305 -0.4099547 -0.28070217
-0.52446747 -0.0015813174 -0.5846288 0.049290154 -0.25441647 -0.81645924 -0.54911536 -0.29654256
0.022552088 -0.38870665 0.1652799 -0.20388381 -0.090772465 0.07521972 -0.66204476 -0.30140266
0.092933044 -0.09252153 -0.2012978 -1.1360687 -0.27467445 0.15684843 0.036954824 0.077664554
-0.12634277 -0.38509488 1.1982999 -0.19835918 -0.84460014 -0.1904946 -0.5565077 -0.6094296
-1.1408995 -0.74017185 0.07438422 -0.16946326 -0.67548853 -0.3891483 -0.5453745 0.07759347
-0.6970268 -0.33502817 -0.073850416 -0.12291636 -0.64497805 -0.18987544 -0.40144125 -0.46694535
-0.23227187 -0.41115344 0.21288973 -0.5186078 -0.0749022 0.51384723 -0.52332246 -0.004932991
-0.15096723 -0.8782364 -0.18140908 -0.76452374 -0.8758121 -0.55486584 -0.2023532 -0.68047696

dense2.weight f4 [128, 128]
00000000: bb9e 193e be34 b13d a913 20bf d469 77be
00000010: 5c22 bcbd 88a8 393b 4d05 29be 2164 1fbd
00000020: bce2 7a3d ac9c 8a3d 9bb6 a5bd bdfb 36bd
00000030: c205 673e d8e9 1f3d 48cf 52bd c5b9 5e3d
00000040: 48e9 c63e 4f11 3cbf 8d7e f03d da2d 893d
00000050: 123c 37bd 150a dd3c 2488 893d 5077 293e
00000060: 7019 8ebd 4e41 04be f08f 45be 4a31 2b3f
00000070: 73c5 3b3d 6f4c 183d 0114 3abe d8c2 09bd
00000080: 6475 efbc 0348 3bbe d3ab 443d 4c63 8abd
00000090: 5d1d b73c 151b c1bc cbe8 14bf 3d8f 2b3d
000000a0: a5e1 403c 15b3 e7bd d09a 263e 2937 b13d
000000b0: 58f6 bf3e ed79 acbd 2317 c5bd dbe5 15be
000000c0: a42e 783d 2630 ad3c 7472 063e 9ac4 1bbe
000000d0: 3b40 f23c 7186 79bc ca69 393e ef04 013e
000000e0: ce46 b1bd dfda 5fbe 5dc0 0cbe 9ff9 9dbd
000000f0: 7082 32be ab58 08bd 4636 83be b664 b53d
00000100: a83c d7bd 944e 88bd c1df 3c3e c527 d7bc
00000110: 6c01 15be 6bee abbc 1d6d 8abe 381e c6bd
00000120: 4215 32be 140b 5a3e d81d 823d 77f9 4dbd
00000130: 5a8b 143e ea66 963d ae93 bebe 904a 8e3d
00000140: 7566 4d3e 3522 06bd ffe0 993d 545f 2cbd
00000150: 2b9f 313c 129b a93d 4092 31be c766 0dbe
00000160: 0284 73bc e15e 80bc 76cb 2dbe 4468 bfbd
00000170: 757a 2bbe 73e6 913d 8923 fabd c60b 09bf
00000180: b50a 4bbe b913 eabe 93d0 f63c 3182 03be
00000190: d453 0bbf f59c 5b3d dad4 0a3e 3cf8 25bd
000001a0: e87b 06bc f3c8 9d3d 9482 9f3d 9401 fcbd
000001b0: 49ec c93d 5b2d 86bd 6b1c d83c f235 87be
000001c0: acc2 4cbd 87bf 2e3e 8506 163e 4e91 d03e
000001d0: fbb8 123d 3cbb e1bc 2319 4abf 1967 09bc
000001e0: f5c8 763d e374 3cbe ad67 383c 1dac 0a3f
000001f0: b425 873d b9c8 12bf 7d07 7b3c 9508 b1be
00000200: 0e46 953e 9fd2 e4bd 45bd 12be 75ba b9be
00000210: a79d d13e 6955 363e 07f5 003f 9303 823e
00000220: 5624 f4be 5fe5 eb3d 598e 5c3e acfd 893e
00000230: d7c8 c8bd 6ef8 1f3e 4bfe 343e 8866 393e
00000240: ecb8 eebc 200e 96be 9bc0 b73e 3543 8d3e
00000250: ecfc 8c3d ae2b f83e 366b 4dbe f62a e3bd
00000260: b063 523e 429e d43e 1ff4 c5be 53cc 7f3d
00000270: 20b2 853e 0be5 c8bb 9046 523e bd21 d6bd
00000280: 23e4 b5bd 5027 d53c 05f4 e93d 67c2 073f
00000290: b18e 26be 7fd0 423e 4f42 f4be b1f9 0c3e
000002a0: 4248 ae3e 3141 d83d d7a1 51be 7a35 09be
000002b0: a571 9d3e 9a5e ef3c 5a5f 723e 5939 103f
000002c0: 1183 0bbe 5e99 403e bf96 aa3e 07e8 96bd
000002d0: 5ddf 02bd 6e63 893e e209 a73c 84f6 083e
000002e0: 1610 7fbe 4472 083e 2f2b 033e 51b1 ec3e
000002f0: f128 da3e 2019 d53d 5e22 3abe 2dcd 443d
00000300: 23dd 04bf 33ca e53d 467b a93c 427a 143f
00000310: 068c c23e c5cb 8ebe be95 f7be 7af3 ad3e
00000320: 210c 9cbb ab72 683e a111 033e 5fb8 143d
00000330: 9e0b 623e b9d5 40be 39ee 82be 4eb3 ce3d
00000340: 53e6 b53d c9e7 d4bd c464 8737 1290 d03d
00000350: 49d0 b03d ff71 893e 7458 233f 6f93 073f
00000360: b236 9fbe 3658 1b3e 5604 b5be 9890 b1bd
00000370: b95e a8bd c5f9 613e 6bff b4be cd97 e0be
00000380: dd11 493e e8e6 3ebe 4059 9a3d b2cb 523e
00000390: ea59 b8bd d1bf 7d3e 828c bf3e a8ef 113f
000003a0: ac9e 7dbd 0452 8a3e 01dd 333e 68d6 23bd
000003b0: ca8f b23d 4f2b d13e 6bb8 153e 4ff9 f33c
000003c0: 9f23 a1bd f1d8 033e 4e9e 753d d76d 1fbe
000003d0: f1ac 8f3e a0d7 fa3d ddfb 64bf 0574 9e3e
000003e0: 86f4 a63e 85a8 b1be 1333 f23d eef6 4cbe
000003f0: bb43 54be 73ff 7e3e 5a44 053d 6e4a de3c
0.15001957 0.08652638 -0.6253 -0.24161464 -0.09186241 0.0028329212 -0.16505928 -0.03891385
0.061251387 0.06768164 -0.0809147 -0.04467367 0.2256079 0.03904137 -0.05146721 0.054376382
0.38849854 -0.7346391 0.11742888 0.066981986 -0.044735022 0.026982347 0.0671542 0.1654942
-0.069384456 -0.12915537 -0.19293189 0.66872084 0.0458426 0.037182268 -0.18171693 -0.033633083
-0.02923078 -0.18289189 0.048015427 -0.067572206 0.022352869 -0.023572484 -0.58167714 0.04188465
0.011772548 -0.11313454 0.16269994 0.08653099 0.37492633 -0.08421693 -0.096235536 -0.14638464
0.060591355 0.021141123 0.13129598 -0.15211716 0.029571643 -0.015229807 0.18106762 0.12599538
-0.08656083 -0.21860836 -0.13745256 -0.07713627 -0.1743257 -0.033287685 -0.25627345 0.088571
-0.10509616 -0.066556126 0.1844473 -0.02626408 -0.14551324 -0.02098771 -0.27036372 -0.096737325
-0.17390922 0.21293288 0.063533485 -0.050286736 0.14506283 0.07343848 -0.37222046 0.069478154
0.20058616 -0.032747466 0.07513618 -0.0420831 0.010841171 0.082815304 -0.17340946 -0.13808738
-0.014863016 -0.015670242 -0.16972145 -0.09346059 -0.16745932 0.07124033 -0.12213809 -0.5353359
-0.19828303 -0.45718172 0.030128753 -0.12842633 -0.54424787 0.053616483 0.13557759 -0.040519938
-0.0082082525 0.07704344 0.07788578 -0.123049885 0.09859521 -0.065516196 0.026380738 -0.26408345
-0.04999034 0.1706525 0.14650925 0.4073586 0.035820942 -0.0275551 -0.78944606 -0.008386397
0.06025024 -0.18403964 0.011255187 0.54168874 0.06598988 -0.5733753 0.01532161 -0.3457686
0.2915501 -0.11172985 -0.14330013 -0.36275068 0.40940592 0.17806019 0.5037388 0.25393352
-0.47683972 0.115183584 0.21538676 0.2695135 -0.09803932 0.15622112 0.1767513 0.18105519
-0.029140912 -0.29307652 0.35889134 0.27590337 0.068841785 0.48470825 -0.20060429 -0.110921785
0.2054584 0.4152699 -0.38662812 0.062450718 0.2611246 -0.0061308197 0.2053473 -0.10455654
-0.08881404 0.026019722 0.11423496 0.5303101 -0.1626537 0.19024847 -0.4770684 0.13767125
0.34039503 0.10559309 -0.20471893 -0.13399306 0.30750766 0.029219914 0.23669186 0.56337506
-0.13624217 0.18808505 0.33318135 -0.073684745 -0.031951297 0.2683367 0.020390455 0.13375288
-0.2490848 0.13324839 0.12809442 0.46229032 0.4260936 0.10405183 -0.18177173 0.048047233
-0.5189993 0.11220207 0.020688664 0.5799905 0.37997454 -0.2788984 -0.48356432 0.3397482
-0.004762188 0.22699992 0.12799694 0.036308642 0.22074744 -0.18831529 -0.25572374 0.100927934
0.088818215 -0.10395772 1.6140177e-05 0.10183729 0.08633477 0.26844785 0.63806844 0.5295934
-0.31096417 0.15170369 -0.3535487 -0.08670157 -0.08221192 0.22067936 -0.35351118 -0.43865815
0.1963572 -0.18642771 0.07536554 0.20585516 -0.09001525 0.24780203 0.37411886 0.5700631
-0.0619189 0.27015698 0.17564775 -0.039999396 0.08718832 0.40853354 0.14621131 0.029781966
-0.07868122 0.12875725 0.059965424 -0.15569244 0.2806163 0.122481585 -0.8944681 0.3094789
0.32608432 -0.34698883 0.11826148 -0.20016071 -0.20728962 0.24902134 0.03253589 0.0271351

dense2.bias f4 [128]
00000000: 8881 cb3d b538 e6be 9f81 ccbe a126 dbbe
00000010: 4e6b 44be 776c a83e 10cb 7dbe e8c3 d8bd
00000020: 8f32 b2be bc63 1ebf be8e 2bbe 85a3 d5be
00000030: 6681 b8be 645b a03d 20d3 94be 2ed0 b0be
00000040: ceeb a53e 6a6e 08bf 7e8f 08bf 69f5 e7be
00000050: ec09 88be 345d ccbe 67c5 c3be e58f c8be
00000060: 2946 9abe 7b3c b1bd 20fd 31bf 61fb d4be
00000070: 7a3d 023c 4918 2dbe fb24 23be e5dc 14bf
00000080: ad69 7c3c 755a 97be 7766 bbbe bce2 1a3d
00000090: cd56 0cbf 7e07 01bf 4d37 ddbe 2932 a9be
000000a0: f326 3ebf 451e 2cbf 5867 23be 3a36 fbbe
000000b0: 134e 33be e117 9cbe dc63 b6be 081a d2be
000000c0: df7a ffbd a8fe 323d 888e 14bf e331 ddbe
000000d0: 6af4 02bf c440 20bf 9cbf 77be 1037 94be
000000e0: eb3d cdbd 7a75 84be 7580 9cbe 957e 5cbe
000000f0: 2316 c83e 21b2 2dbf 1856 6cbe ab12 90be
00000100: 7560 63be 6a58 1fbe 50d1 b3be 6047 87be
00000110: bd77 4dbe c1e4 4cbe ce99 dcbe d87f 18bf
00000120: d30c 87be ca1e cdbe e4e4 e2bc f63e d8be
00000130: a068 30be 38f7 8bbe dd9c fabe 3d85 afbe
00000140: ad9e 86be 1911 eabd c973 a9be 0b92 fcbd
00000150: a2ce 09be 32c3 953e 323f babe 697b c8be
00000160: 5ffb 13bf f455 61be 0ced 7bbe c7e4 dabe
00000170: 92bc 84bd 66a8 b1be 3322 0bbf 6305 a8bd
00000180: 5f5e 99be a5e8 8abe 7e7f 5fbe a314 86be
00000190: 7d75 63bd 45af 0bbf 5b5e ea3d 51ad d7be
000001a0: 243b 1ebc 2678 2dbf fb46 9cbe 0226 0f3d
000001b0: 4f7c 3ebe c685 ccbe 3494 29bf d2fb 59be
000001c0: 5b8b 393d 0122 bbbe bb87 b1be 5fdf 4ebe
000001d0: e34e edbe ce36 b7be fa06 b6be 889d a6be
000001e0: c366 73bf d15e afbe 0a33 e3be 0a0e 92be
000001f0: bfbb e2be 7df9 9fbe 81de 86be b6ef 10be
0.099368155 -0.4496514 -0.39942643 -0.4280291 -0.19181558 0.32895252 -0.24784493 -0.10584241
-0.34804198 -0.6187093 -0.1675367 -0.41726318 -0.36036223 0.078299314 -0.29067326 -0.34533828
0.32406467 -0.5329348 -0.5334395 -0.4530442 -0.2657007 -0.39914858 -0.38236544 -0.39172283
-0.30131653 -0.08654114 -0.69526863 -0.41598037 0.0079492275 -0.16903795 -0.15932076 -0.5814956
0.015406054 -0.295612 -0.36601612 0.037813887 -0.5481995 -0.5040206 -0.43206254 -0.33046082
-0.7427818 -0.6723369 -0.15957391 -0.4906481 -0.17510252 -0.30486968 -0.35623062 -0.41035485
-0.12474608 0.04369989 -0.58029985 -0.43202123 -0.51154196 -0.62598825 -0.24194187 -0.2894826
-0.100215755 -0.25870878 -0.30566755 -0.21532662 0.3907939 -0.6784993 -0.23079717 -0.28139243
-0.22204764 -0.15561071 -0.3512063 -0.26421642 -0.20065208 -0.20009138 -0.43086094 -0.59570074
-0.26376972 -0.40062553 -0.027697034 -0.42235535 -0.17227411 -0.2733705 -0.48947802 -0.3428134
-0.26292935 -0.11429042 -0.3309615 -0.12332543 -0.1345773 0.29250485 -0.3637634 -0.39156654
-0.57805437 -0.22005445 -0.24602145 -0.42752668 -0.064812794 -0.3469879 -0.5434906 -0.082041524
-0.29954812 -0.2713062 -0.21825978 -0.2618762 -0.055531967 -0.54564315 0.11443778 -0.42124417
-0.009657655 -0.67761457 -0.30522904 0.034948356 -0.18602107 -0.3994581 -0.66241765 -0.21287468
0.045298915 -0.3654938 -0.34673867 -0.20202397 -0.46349248 -0.35784 -0.35552198 -0.32542062
-0.95078677 -0.34252027 -0.44374877 -0.28526336 -0.44283864 -0.31245032 -0.26341632 -0.14153942

dense3.weight f4 [128, 128]
00000000: 9f64 a8bd a5b3 393d c541 b23c 85f6 403e
00000010: ea4a 773d 7fe8 e6be 4794 86be ad3c 89bd
00000020: f0f9 833d 548e 973d e9a8 41be 8d1a 50be
00000030: 0fda 3f3e 053b 0a3e 5003 513e a23f 61be
00000040: 45cb e23b d6f8 2f3e ada2 3dbd 9deb 3cbd
00000050: b2b1 13bc ef98 6ebd dd47 9f3c 7249 24be
00000060: 5d25 d43d 93cc a0bc 57ab 243e e256 f13d
00000070: 89dc 20be 97b0 83bd 9f12 c7bd da54 323d
00000080: 92ef 663d 7b21 3abe ed16 02be a58a 8d3d
00000090: 53da ffbd a3a4 c83c 8102 d63d 8344 583e
000000a0: 4eac 113e 0c06 1f3c dbbb e8bc 4e58 12be
000000b0: 0975 b3bd d752 0a3e 0da8 9c3d 1b90 8a3d
000000c0: aa54 9b3d 3f7c 86bc a9a3 813e 2cca b6bd
000000d0: fad1 d3bc edb8 ce3d 0496 9ebd 9d13 b83d
000000e0: d490 e2bd 4f42 d5bd b219 083e 57e6 04be
000000f0: 09ee 89be 4bee 8b3d e567 5fbd 11ad 373e
00000100: ba5d e3bd e23a db3c 843c c7bd a563 563c
00000110: 84bd 60bd f1f8 5bbd 50de 11bd fa06 383e
00000120: 39b5 cd3c abea b7be be0c 2ebd 0900 e8bd
00000130: 98de 4bbe bd0e abbd d3a7 f2bd f49c 25bd
00000140: 140c 353d 479d 07bc cdaa ccbd 307d c43b
00000150: 5960 39be c0a4 32be 017f d13c 0554 33be
00000160: 7cfc 06be 4d55 6dbc d027 9a3d 7b8c 093d
00000170: 15c9 4fbe 3e4f 53be b3b9 693d fe6d 1fbe
00000180: ce99 4abd 9942 393d 5049 78be c867 3ebd
00000190: d41b e3bd 2126 c5bd 62b4 54be 30d7 d53d
000001a0: a55b 5ebe 801c 9a3e 70e8 5d3d eef4 0b3d
000001b0: e2b6 2fbd 56d7 dbbc c59a 89be fe51 62be
000001c0: 6793 cebd f6c5 5cbd d000 033e 6cef cf3d
000001d0: 0859 eb3d 57e3 093d cff8 62bd 791b 743c
000001e0: 7f90 4d3e a113 043e f26e 153d d85f d7bd
000001f0: 2a65 5c3e 902e 2d3d dfa3 a5bc c55f b5bd
00000200: 3e4b b93d d317 d43e f93f 8ebc bf15 493c
00000210: 9c64 9abd 3c53 1d3e d333 d1bd b04b 57be
00000220: 4491 aebe 5d00 1f3d dd5c 82be 2558 b8bc
00000230: 196b 863d 04fd 22be 8709 abbe e38a 3f3d
00000240: 8ee3 c3bd f1b2 c23d bced 00be 2374 b13a
00000250: 2c33 9fbd 3890 58be c526 9f3d 48b5 3a3e
00000260: ef18 3fbe 04c3 b2be d063 c7bd e064 b8bd
00000270: 1b24 60be ac78 a1be eab7 9fbd d4c5 f93d
00000280: 5a61 c3bd c1f3 363c e97d 87be c404 66bd
00000290: 56cb 0bbe 090c 903e 3586 8c3d ed61 623d
000002a0: d462 273e ecde bf3c 4567 21be e40b 35be
000002b0: 676d a8bd df61 25be 4698 053e e07b 763d
000002c0: 9a90 5b3e 5746 c5bd 998b a63d 346b acbd
000002d0: 3d59 14be b655 5d3e 1a71 133d 8756 993e
000002e0: bd99 0dbe d235 ee3d e047 303d e2cc 35be
000002f0: b0ef d73d 89a3 1e3d 2b2d 4cbe 485c 77bc
00000300: 7dfe 623d f9fa 86bb 51b3 5a3d ec9f b3bc
00000310: fdf6 0dbe 7493 84be 11cf 0d3e 70f9 723d
00000320: 40cf 443d 1891 8b3d 8f4a cebd 858f e8bd
00000330: ca87 aebd f993 013e 2c45 0abe 4756 72be
00000340: 4653 32bc 71e5 44be df2d bc3c 5bed 88be
00000350: 200b d3bd 321e d53d a56d 57bd 86a2 9a3d
00000360: 2d04 0a3e 9711 e6bd ca73 913d ade8 2bbd
00000370: 9e93 b8be 819a 393c 4d22 323e f2ae 47bd
00000380: 4e8c 353e 28fe 673d bfea 9d3d 99b8 063e
00000390: aa20 8cbe eda7 e23c c165 43bd 8274 22be
000003a0: 7fe9 3cbe 135e efbd fdd0 0b3e 8094 25bd
000003b0: e98f 04bd eb25 a53a 4671 713d db5b 47be
000003c0: c2ae 17be d5ed 4cbe c7a7 93bd 3ed5 15be
000003d0: e6c4 723d 7485 933d 576f 2f3e 25e9 1bbe
000003e0: b138 07be 0dd4 14be bdcc 873e 2a78 18be
000003f0: edad 4e3d 90f6 09be 9360 f4bd cde9 5b3e
-0.08222317 0.045337338 0.021759877 0.1884404 0.060374178 -0.45099255 -0.26285002 -0.06701026
0.06444156 0.07400194 -0.1891209 -0.20322628 0.18735527 0.13499077 0.2041142 -0.2199693
0.0069212043 0.17184767 -0.046297718 -0.046123136 -0.009014534 -0.058251318 0.019443447 -0.16043642
0.10358689 -0.019628799 0.16080986 0.1178415 -0.15709127 -0.06430166 -0.097203486 0.043537952
0.056380816 -0.18176834 -0.12704058 0.0691121 -0.12492814 0.024492567 0.10449696 0.21119885
0.14225885 0.0097060315 -0.028409889 -0.14291498 -0.08762557 0.13508163 0.07649241 0.06765767
0.07584508 -0.016416667 0.25320175 -0.0892528 -0.02585696 0.100938655 -0.07743457 0.08988116
-0.1106278 -0.10413038 0.13291052 -0.12978493 -0.2693942 0.0683256 -0.05454244 0.17937113
-0.11101861 0.026761476 -0.09728339 0.013085281 -0.054868236 -0.053704206 -0.035612404 0.17971411
0.025110828 -0.35921225 -0.04249262 -0.11328132 -0.19909132 -0.083524205 -0.11848416 -0.040432885
0.04420097 -0.008277244 -0.09993515 0.005996369 -0.1810316 -0.1744566 0.025573255 -0.1751252
-0.13182253 -0.014485669 0.07527125 0.03358124 -0.2029155 -0.20635697 0.057061862 -0.15569302
-0.049463086 0.045229528 -0.24246716 -0.046485692 -0.11089292 -0.09626413 -0.20771936 0.104414344
-0.21714647 0.3009987 0.054176748 0.03416913 -0.04289902 -0.026836079 -0.26875892 -0.2210159
-0.100867085 -0.053899728 0.12793279 0.10153088 0.11491591 0.033664074 -0.055413064 0.014899128
0.20074652 0.12898113 0.03648276 -0.105163276 0.21522966 0.042280734 -0.020219741 -0.08856157
0.090475544 0.41424426 -0.017364489 0.012273251 -0.07538721 0.15363783 -0.10214963 -0.21024966
-0.34095204 0.038818706 -0.25461474 -0.022502968 0.06563396 -0.1591683 -0.33405706 0.046763312
-0.09564887 0.095067866 -0.12590688 0.001353864 -0.07773432 -0.21148765 0.077710666 0.18233216
-0.18661855 -0.3491441 -0.097358346 -0.090036154 -0.21888773 -0.31537378 -0.07798751 0.12195936
-0.09540053 0.011166514 -0.2646325 -0.05615689 -0.13651785 0.28134182 0.068615355 0.05526917
0.16346294 0.023421727 -0.1576205 -0.17680317 -0.08223992 -0.16150616 0.13046369 0.06017673
0.2144188 -0.09632557 0.08132095 -0.08418885 -0.14487167 0.21614727 0.035996534 0.29948828
-0.13828178 0.11631359 0.043037295 -0.17753938 0.10543764 0.038730178 -0.19939105 -0.015097685
0.05541848 -0.0041192737 0.053393666 -0.021926843 -0.1386375 -0.25893748 0.13848521 0.059319913
0.04804921 0.06814784 -0.10072815 -0.11355499 -0.085219935 0.12654103 -0.1350295 -0.23665725
-0.010884112 -0.1922815 0.022971092 -0.26743588 -0.10304856 0.1040615 -0.0525948 0.0755053
0.13478155 -0.11233824 0.07102163 -0.041969944 -0.36050123 0.0113283405 0.17395897 -0.048750825
0.17729303 0.056638867 0.0771079 0.13156356 -0.2736867 0.027667964 -0.047704462 -0.15864757
-0.18448447 -0.11687865 0.13653941 -0.040424824 -0.032363806 0.0012599801 0.058945917 -0.19468634
-0.14812759 -0.200126 -0.07209735 -0.14632127 0.05926981 0.072031885 0.17132317 -0.15225656
-0.1320522 -0.14534016 0.2652339 -0.14889589 0.050458837 -0.13472962 -0.119324826 0.21475907

dense3.bias f4 [128]
00000000: 8cb1 99be 3f3e 56be 6ea1 23be c517 d2be
00000010: 090a e2be 9150 2ebe 9bcc d2bd afe1 f4be
00000020: 0539 13bf c650 94bd aa5c 25bf f5f1 77be
00000030: 582a 8dbe a106 d1bd 8295 e8be fb36 293e
00000040: 9515 5bbe 4e0c acbe 40f0 03bf 4ece 833e
00000050: 02cd 9abc 69ac 05bf b411 cebe b388 07bf
00000060: d746 f4be 950a 193e 798e 303e eb56 0fbf
00000070: 6ef4 05bf 2dc2 293d 467a c6be cabb 80be
00000080: 6f04 eabd b7aa a93d d872 63be 0efe 76be
00000090: 6be7 57bf f170 ecbe 6723 0dbf 1a04 02bf
000000a0: 278a 97be 6c69 d6be 2120 423d 93c4 1dbe
000000b0: 6704 f73d 0b08 03bf baac 97be b6fe 4dbe
000000c0: ae21 b2be f351 d8bd 5d29 c7be 3759 353e
000000d0: 5509 c5bd 6f57 cabe e121 abbe 1060 63be
000000e0: eb50 7ebd 8289 edbe 6874 71be 9403 94bd
000000f0: fd32 72be 056c afbd cce7 a3be 6853 03bf
00000100: b3ba a5be 51f8 01be 9113 82be 34f0 d8bc
00000110: 07bb a5bd ebb6 a53e a612 d9be a97f c7be
00000120: ee94 29bf fb1d 3e3e fb78 34bd 2d52 00be
00000130: 2573 30be fa69 c1bb bea9 843e 7d2d c4be
00000140: 01e3 e4be 0bec ddbe 5043 07bf c350 69be
00000150: 4a07 a0bd 9bc1 0abb 9ddc 4bbd 6470 5dbe
00000160: 665d c9bd 42c6 08bf 1091 69be 3e5c 0cbc
00000170: f924 363e 70c3 bcbd 93ef 38be 08ad 25be
00000180: dd5e efbc 766f c4be b9c3 94be 14e9 efbc
00000190: f962 f7be 6c3b b83d 6dd2 9fbe 2da4 d0be
000001a0: f0d4 99bd e5c9 853e dfa4 18bf 8e8a ae3d
000001b0: d684 cdbe 2f08 06bf e347 92be 3b5d 39bd
000001c0: 7858 abbe 7d90 06be 7a0a d3be bc78 09bf
000001d0: 85fe 8dbd d533 ffbe f0b8 413e 0f44 3cbe
000001e0: 5abc afbe 00d4 73be ddd4 813d 15e5 a7be
000001f0: 4da3 f2be 5e15 b6be 77ba 44be 4e78 eebd
-0.3001827 -0.20922183 -0.1597955 -0.4103376 -0.4414828 -0.17022921 -0.10292932 -0.47828433
-0.5750888 -0.07241969 -0.6459452 -0.24213393 -0.27571368 -0.102063425 -0.45426565 0.1652488
-0.21394952 -0.33603138 -0.5153847 0.25743335 -0.018896583 -0.522162 -0.4024788 -0.5294296
-0.47710297 0.14945443 0.17241849 -0.55992 -0.52326095 0.041444946 -0.38765162 -0.25143272
-0.11426627 0.082845144 -0.22211778 -0.24120352 -0.8433749 -0.46179917 -0.55132145 -0.5078751
-0.2959759 -0.41877306 0.04739392 -0.15407018 0.120613866 -0.5118415 -0.29623967 -0.20116696
-0.3479132 -0.105625056 -0.38898745 0.17709814 -0.096209206 -0.39519832 -0.33424285 -0.22204614
-0.06208889 -0.46393973 -0.23579562 -0.07227245 -0.23652263 -0.08565525 -0.32012784 -0.5129914
-0.32369003 -0.12692381 -0.25405553 -0.026481725 -0.08092313 0.32366118 -0.4239704 -0.38964584
-0.66242874 0.18566124 -0.04406069 -0.12531348 -0.17231424 -0.005902526 0.25910753 -0.38315955
-0.4470444 -0.4334415 -0.52837086 -0.22784714 -0.0781389 -0.0021172527 -0.04977094 -0.21624905
-0.098322675 -0.5342752 -0.22809243 -0.008566914 0.17787541 -0.09216964 -0.1806014 -0.16179287
-0.029220039 -0.38366288 -0.29055575 -0.029285945 -0.48317698 0.08995709 -0.3121523 -0.40750256
-0.07511318 0.26130596 -0.59626573 0.08522521 -0.40140408 -0.5235624 -0.2857047 -0.045254927
-0.33465934 -0.13141055 -0.4121893 -0.5369985 -0.069333114 -0.49844232 0.18918204 -0.18385337
-0.34323388 -0.2381134 0.063394286 -0.32791963 -0.47390214 -0.35563177 -0.19211756 -0.1164404

dense4.weight f4 [128, 128]
00000000: e37e 5bbd 95a6 85be c362 78be e2b9 5a3d
00000010: ea27 bf3d 9c92 713e 7840 00bc 1448 693d
00000020: 83e6 d33c b20b 49be a7ab 373e 96f3 79bb
00000030: 7556 efbd 4a05 0fbe 16fc 6e3e 286c 6bbe
00000040: 97ef 62bd 738e 843d 3142 6f3e b52f 37bd
00000050: ec8d 603d d0e9 1bbd 59b8 3e3e 0faa bc3d
00000060: a2a7 13bd 3db2 82be 9063 38be 04eb 3d3e
00000070: 9bdf 5a3e f8ec 00bd fd6b 023e 08a1 0cbd
00000080: cfeb 00be 79cf 98bd fd94 d8bc 4a0b 923d
00000090: a9c2 56bb 6fe7 eabc c902 b03d bf92 4fbe
000000a0: a801 193d 605f ca3d d105 30be df13 c3bc
000000b0: 49f7 42be 013c eb3d b5f5 40be ad68 b73e
000000c0: 9e6f 2f3e 3086 5dbe 8cc8 183e c804 d1bd
000000d0: 084c f0bd 8488 873b efde 233e ed85 acbc
000000e0: 04ee 253d 15c2 a73d db0e 1bbe c0f4 653d
000000f0: 5918 b5bc f865 53be 4cc4 eebd 2e20 db3d
00000100: 382d ba3d 42ec 4a3e b84d 9e3c 2f2c 44be
00000110: 09a6 08be 7180 08bd afbe e73c ac59 a2bb
00000120: d911 1e3e 789e 0fbe 12e8 453e 9a3c 013d
00000130: f053 793d 7b1c 4a3d f4d7 de3d 2153 c53c
00000140: 361e 293e 146e 403e 6c95 e5bd df01 75bd
00000150: 669b 5c3d 9d4d 113e fbe0 5b3d 5c42 153d
00000160: e845 7ebd b699 303a f218 0dbe 1fca e93d
00000170: a8bd 79bd f561 163e d948 36be a0e6 533c
00000180: b256 91bc 3256 83bd f5cf 083e 2286 28bd
00000190: 34fb 32bd 6c94 9a3d dcc4 f43d adf8 5e3c
000001a0: b8a0 1bbe 7006 a43d 11e2 babd a63b 913e
000001b0: 7d48 e9bb 734e f83c 942f 813d 75fc 81be
000001c0: 8c0b f4bc df63 05be 686a 283e 1864 073d
000001d0: ed7d 2e3d 3c7f c33d a922 00bd b0da 0a3e
000001e0: e065 c83d 1a55 86be 0bd4 743e eeef 183c
000001f0: 93fa 71be 1c92 fa3d 130c 9fbd fd5d d7bd
00000200: 8fdf 643e 5a8c 23be 2c72 c9bc 697f 073e
00000210: cc6b 8fbc 1cfc b5bd ee4c d93c e1d3 543e
00000220: 096f 373e 556c 963d 5a4e 1d3e 8b12 0c3e
00000230: ed10 9bbd 284d 053e ad9d 643e 2c24 8dbe
00000240: 43bb b1bd 040a 553d 9deb d03d 4972 5dbe
00000250: cdcb 85bd e08a 7b3d 40ba b03d b58f 593c
00000260: d880 a23d c906 c4be f9ee acbe 2a93 19bb
00000270: 7bc3 ebbd 901b cb3d c843 f03d 9005 80bd
00000280: 2b93 5a3d 8d5c 10be 1bba a9bd d190 ba3d
00000290: adf0 583e 58dd 493e 3bf2 3cbb 2e01 e93e
000002a0: 84cb a1be 430d 6c3c e1e5 f6be c3da 8ebe
000002b0: 875e 033e 3f93 5239 3561 1f3e ea49 00bd
000002c0: a3b0 a1bd e3b4 36be 84a2 293e 2365 29be
000002d0: 69b7 f6bd 3488 343d 0f4e 003e ba16 4a3d
000002e0: 8e1f d3bd dfeb 143e afa1 263e 33a1 32bd
000002f0: d4a3 293e 2329 b4be af7b d23d 99ff 173e
00000300: ef22 173e 791a b2be afb3 863d 00ff ba3c
00000310: c27a 05be 79f8 8ebe 0825 973b d1b1 f8bc
00000320: 5833 073e 8648 cfbe 9778 243c 8eb3 33be
00000330: d938 0cbd 8795 bfbd 1734 2fbe e6a8 233d
00000340: b8e5 163e bff7 193e 1569 2dbe 0469 123e
00000350: d066 2abe 7168 d9bd 3475 b4bd 50e2 f53d
00000360: dec9 123d a797 dc3d 3fc7 0c3d 5324 0cbe
00000370: 83ff 8bbe e5ea fbbd 7625 0cbc 0ef6 15be
00000380: 7e6f 143e e9b5 033e fc7b 613e 369a f8bd
00000390: 04fa 703e 3b9c 12be ebb9 3a3d 7f68 ca3d
000003a0: 0210 79bd 6961 9d3d 87ad c43d fae9 2f3c
000003b0: ab44 5f3e 48b3 253e 480b 7a3d c005 07be
000003c0: f82d 063d fdfb 5ebd 84e7 62bc b463 db3e
000003d0: 5da4 973d 90eb e63d ca25 abbe 8aa4 253e
000003e0: fe73 30bc adca c03d 06dd 47bd 46ed 8d3e
000003f0: 60eb c6be 28a5 80bc ea8d b93d b365 20bd
-0.053587805 -0.26103655 -0.24256425 0.053399928 0.09333785 0.23591083 -0.007827871 0.056953505
0.025866752 -0.19633368 0.17936574 -0.0038139573 -0.11686412 -0.13966861 0.2333835 -0.22990477
-0.055404272 0.064724825 0.23365094 -0.04472323 0.054822847 -0.038064778 0.1862501 0.092121236
-0.03604854 -0.2552661 -0.1800673 0.18546683 0.21374361 -0.03147599 0.12736507 -0.03433326
-0.12589954 -0.07461447 -0.02643823 0.071310595 -0.0032769835 -0.02867481 0.08594281 -0.20270823
0.037355095 0.098814726 -0.17189719 -0.023813186 -0.19039644 0.11486054 -0.1884373 0.3582205
0.17132422 -0.2163322 0.14920253 -0.1020599 -0.11733252 0.004136147 0.16003011 -0.021059955
0.040510193 0.08191315 -0.15142386 0.056141615 -0.022106336 -0.20644367 -0.116585344 0.10699497
0.09090656 0.19816688 0.019324169 -0.1915748 -0.13344587 -0.033325616 0.028289167 -0.0049545374
0.15436496 -0.14025295 0.19326809 0.031551935 0.060871065 0.049343567 0.108810335 0.02408749
0.16515431 0.18791991 -0.112101406 -0.059816238 0.053859137 0.14189763 0.053681355 0.03644024
-0.062078387 0.0006736772 -0.13779047 0.11415505 -0.060971886 0.14685805 -0.17801227 0.012933403
-0.017741535 -0.06412925 0.1336058 -0.041143544 -0.043696597 0.075478405 0.119516104 0.013609094
-0.15198028 0.0800904 -0.0912515 0.2836582 -0.007119237 0.030310845 0.06307903 -0.25387922
-0.029790662 -0.13026379 0.16446841 0.03305444 0.04260056 0.095457524 -0.031283055 0.13559985
0.09785056 -0.26236802 0.23909013 0.009334547 -0.23630743 0.122348994 -0.07765975 -0.10515974
0.22350906 -0.15971509 -0.024590574 0.13232197 -0.017507456 -0.08885977 0.02652594 0.2078395
0.1791345 0.073448814 0.1536192 0.13678949 -0.07571588 0.13017714 0.22325774 -0.2756666
-0.086782955 0.052011505 0.1020119 -0.21625628 -0.065330125 0.06141174 0.08629274 0.013278891
0.07934731 -0.38286427 -0.33776072 -0.0023433664 -0.11511894 0.099173665 0.11731678 -0.06251061
0.053363007 -0.14097805 -0.0828745 0.09109653 0.2118556 0.19713342 -0.0028830904 0.45508713
-0.31600583 0.014407459 -0.4822226 -0.27901277 0.12829028 0.00020082014 0.15564425 -0.03132049
-0.07895019 -0.1784244 0.16565901 -0.16542487 -0.120467015 0.044075206 0.12529777 0.04933808
-0.10308753 0.14543103 0.16272615 -0.043610763 0.16566402 -0.35187635 0.10277497 0.14843597
0.1475942 -0.34785822 0.06577241 0.022826672 -0.1303511 -0.27923945 0.0046125688 -0.030358227
0.1320318 -0.40485018 0.0100385165 -0.17548963 -0.0342339 -0.09354692 -0.17109714 0.039955996
0.14736068 0.15035914 -0.16934617 0.14297873 -0.16640782 -0.10615624 -0.08811417 0.12006056
0.035837047 0.10771113 0.034369703 -0.13685732 -0.27343377 -0.12300662 -0.008553853 -0.14644644
0.14495656 0.12862362 0.22019953 -0.121387884 0.23532873 -0.1431741 0.04558746 0.09883212
-0.060806282 0.07684595 0.0960341 0.010736937 0.21803539 0.16181672 0.061045915 -0.13185787
0.032758683 -0.054439534 -0.013849143 0.42849505 0.07404397 0.11275399 -0.33427268 0.16176048
-0.010769842 0.09413657 -0.04879477 0.27720088 -0.38851452 -0.015703753 0.09060271 -0.039159488

dense4.bias f4 [128]
00000000: 64c0 d1bd 75ef cabd 331d 2f3d 3b2d 2ebe
00000010: 447b 08bf 0fd1 1fbe 4c5f 00bf 9a64 c9be
00000020: 2bdc a0be 07f9 bfbe d32a 55be 508d 10be
00000030: 6be9 dabe 9bf2 ea3d 9407 2e3e 93c2 eebe
00000040: 0be4 54be 6409 2dbe d6d5 b7bc 4ff5 4ebe
00000050: f9a2 52be ec58 24be 375f 29be 9209 25be
00000060: 5236 d9bd f9c4 403d ff06 95be bcae 01be
00000070: 0eb1 bcbe a900 adbd 9b30 d7bc c251 c1be
00000080: 2749 be3c c99f c0be 9dd0 94be 03fb efbd
00000090: f9d8 053e 6879 0cbe 6783 aebe 6427 a4be
000000a0: 8e04 7ebe 21e7 97bc 5d01 80be 9fee f8be
000000b0: e6c7 e6bc 5ee0 dcbe 3361 41be 7767 84bc
000000c0: b8dd c9bd b5b4 97be 7ceb 65be 974e b3be
000000d0: ae46 74be 3a5b e8be 8d7b 4bbe b7dd a9be
000000e0: a181 6e3d 7669 d2be a382 3fbe 92c6 46bd
000000f0: 3f40 c6be 5b36 bbbc d902 82be 40c5 9ebd
00000100: 53ca acbe 279f e4be 9958 babc 4937 a5be
00000110: d2dd 2abe 677f a2bd d274 2bbe 2a1a 293d
00000120: 9edb 73be 4ade 67be f2af 28be eb8d d1bd
00000130: aefd 43be 4141 80be a27d 1fbe 7ce8 c3be
00000140: 7b48 43be d23d df3d 6f99 46be f247 6abd
00000150: e872 f0bd 84c6 b4be 1ac1 e3be 73aa 37be
00000160: b59d f1be ace9 97be dbe5 0fbf 0603 acbe
00000170: 810e 28be e3df e4be a993 d7be ab8c 13bf
00000180: f5c5 93be 166f 6bbe f8d6 2ebe 676a 93be
00000190: 1756 9abe 314d 13be 429f b6be 7f44 f9bd
000001a0: 1187 eebc 2d04 05be d244 94be 5b39 97bd
000001b0: dbea 6abd fadc a7be f892 8fbe 931f bfbe
000001c0: 83e2 4bbd 7854 b6be 6c9b 7cbe 847f 17be
000001d0: cbbb bcbe 775f 33be d296 29be c439 2ebe
000001e0: b411 94be e9fb 9cbe 047d b3be 5e1b f6bd
000001f0: 5f65 76bd 9e16 aa3c 79d1 18be bdd2 01bf
-0.10241774 -0.09908954 0.042752456 -0.17009442 -0.5331309 -0.15607093 -0.5014541 -0.39334565
-0.31417975 -0.3749468 -0.20817117 -0.14116406 -0.4275621 0.114720546 0.16995078 -0.46632823
-0.20790116 -0.16898113 -0.022440832 -0.20210765 -0.20569982 -0.16049546 -0.16540228 -0.16116932
-0.10606064 0.047062848 -0.291069 -0.12664312 -0.36853832 -0.084473915 -0.026268294 -0.3775769
0.023228241 -0.37621906 -0.2906541 -0.117177986 0.1307105 -0.13718188 -0.34084627 -0.32061303
-0.24806425 -0.018542828 -0.2500104 -0.48619553 -0.02817149 -0.4313993 -0.18884735 -0.016162617
-0.098567426 -0.29630056 -0.22453111 -0.35020897 -0.23855087 -0.453821 -0.1987135 -0.33176968
0.058229093 -0.41096085 -0.18702178 -0.048529215 -0.3872089 -0.022853067 -0.25392798 -0.07752466
-0.3374811 -0.44652674 -0.022747325 -0.32268742 -0.1668618 -0.07934456 -0.16743782 0.041284718
-0.23814246 -0.2264339 -0.16473368 -0.10232147 -0.1913974 -0.25049785 -0.15575269 -0.3826331
-0.19070618 0.10900463 -0.19394468 -0.05719752 -0.11740667 -0.35307705 -0.44483262 -0.17936115
-0.47190633 -0.29670465 -0.56210107 -0.33596057 -0.16411783 -0.44702062 -0.42104843 -0.5763652
-0.28861967 -0.22991595 -0.17074192 -0.28792116 -0.30143806 -0.14384915 -0.3566838 -0.12171268
-0.029117139 -0.12989874 -0.28958756 -0.073839866 -0.057352882 -0.3278578 -0.28041816 -0.37328777
-0.049776565 -0.3561132 -0.24668664 -0.14794737 -0.36862025 -0.17516886 -0.1656144 -0.17014223
-0.28919756 -0.30660942 -0.35056317 -0.120169386 -0.06015527 0.020762738 -0.14923657 -0.50712186

dense5.weight f4 [128, 128]
00000000: a160 103e 0d09 313e dfc0 19be f4c6 383d
00000010: 30bb ba3d a41e 153e 66ba a63d aadb 7c3e
00000020: b2a0 443d c4d8 f63d 550a b23c 1b6a 453e
00000030: b07d b2bd 25d7 8fbc 664f c3be 0314 193d
00000040: 8907 553e f10c 583d a65b 47bd 367a bf3b
00000050: e034 5d3e 8e75 5c3e a8fd bb3c dfd4 1b3d
00000060: 2b1c 003b 314e 61bd f956 013e 20b8 733d
00000070: b9db 6b3e f56e 2cbd d527 9cbd d50e fd3d
00000080: af1f a03c c6bb 773c e475 81bd 6995 c83d
00000090: fa9d 63bc cd3d 2e3d 7fb9 563e e83b aa3d
000000a0: 10ab dbbb a7c0 69be 6044 703d 108d 3e3e
000000b0: f110 1c3e 359b a13e 10a8 b63c 1373 353d
000000c0: da9c 5fbc 6d12 183e a9bf acbd 7143 963e
000000d0: f368 853e 828c 79bd dd0c 01bc 98e7 133e
000000e0: 87a6 163e dc16 f4bd d21b 19be ba7e 10bd
000000f0: 8d70 003e 0c69 233c cfca 8f3e a6f5 1f3d
00000100: 07e6 a83e 83fa ff3d 00a0 0fbd ba0e 533e
00000110: 6305 0e3d 2a5c 533d 759e 8cbb 17db 10bc
00000120: 1624 fb3d 0869 9cbd ff3f 2b3d 8a33 bfbe
00000130: f3b5 233e 1952 793e 7dc6 2e3d 1f05 cd3e
00000140: 8d00 813d 05dc 193d 8d12 a5bd 52c7 bfbd
00000150: d1c9 c8bd 9c00 883e f6a6 a4bd 4f35 e83d
00000160: 57d4 c33c cbd8 4d3d 0af7 be3d 9aa5 d43d
00000170: 0fe9 0e3e 624d 103e 2f8b 4e3e 4d8a abbd
00000180: 3b33 e53d a794 913d c623 4ebe aee4 253e
00000190: 3f5e 433e ff04 f43d 0993 e33e 6318 343c
000001a0: f821 a7bd 924b 213e df22 593e 4ef7 99be
000001b0: c2a9 4b3e 7de1 6a3e 52f5 613e 4c15 9d3e
000001c0: 63a7 8bbe a922 e93d 1626 1a3e ef3c bdbd
000001d0: 0e52 393e 75da 3a3e 00ba 4abd 1735 0c3e
000001e0: 0b12 643e e1cf 063e 7fa6 1f3e d29a 373e
000001f0: 3f2b 3bbd 6908 383d 04f9 08bd a93c 6f3d
00000200: dd14 173c 3442 7ebc 439c 3cbe b345 a3bc
00000210: ca57 5d3d af95 d83d 0fba 343c 7896 be3d
00000220: 4b9b 4b3d 8988 a5bb 0602 d33c b194 903c
00000230: 72a9 a1bc b5c2 1abe 1cf7 a7bb 6d4e 8b3b
00000240: fa5e 9f3d 4f5f 733d e291 47bd 7b83 adbd
00000250: 5e75 c4bd c6a2 eb3d 00fa 2d3e 3f95 e0bd
00000260: a5ca 533d 891e 26be b3d3 663d 4b6c 873d
00000270: 5c88 4e3d a646 89be c4e9 463e a202 823d
00000280: 9e1a 5bbd cd5d 12bd 79a6 aebc 1922 cbbd
00000290: 5fe7 22bc a3fb 273e 12e6 0d3d eadf 50bd
000002a0: a7f1 63bd 0b11 54bd e599 d43d cd1b d63d
000002b0: 4924 85be 8e6e 0f3e dcd2 0d3e c5a0 adbb
000002c0: fc62 1a3d 1f44 52bc 2f97 06be 7d03 063d
000002d0: 5412 a0bb 05b3 c0bd 5843 febc 0515 513e
000002e0: aff7 8e3b 17d9 1bbe 6e60 37be b95c d5bc
000002f0: 7437 c63d 1938 dfbc 4d18 2e3e c80b 093e
00000300: e35c a83d 418a 493d e97b 61be c607 1b3c
00000310: 88d6 7cbc f5c3 06be 5e54 a8bd 5390 923c
00000320: 64d8 733e f118 123e e10e b3bc e82f cabc
00000330: 200f 183e 93c2 833e 21a6 c73d 7017 dd3d
00000340: d387 0bbd a84d a6bd ee80 93bd b489 383d
00000350: dc94 263d c92c 973e a7b5 ff3b ef0e 1d3e
00000360: d214 b73d 78ec dabd ba0b 25be 630c 383d
00000370: 7264 0a3e a11a 0b3d c145 423e df60 3c3e
00000380: 506f fc3d 03e7 86bc cad3 7d3d 3838 fa3d
00000390: 683d af3d 9463 383d 7da0 ecbd 7a3e 94bd
000003a0: 718e 80bd 2fd9 f53c a698 083d ef85 6cbd
000003b0: 2de2 593d 7bf1 62bc ffb6 283e 6477 0d3e
000003c0: 5308 40be 8b71 0e3e 1c8a 7dbd 028b cabd
000003d0: be2f 6a3c f43d 6fbc c765 963d c8ae 373d
000003e0: 28a2 083e ab48 9e3d 7723 753d b484 0abc
000003f0: f3b7 3a3b a812 c2bd d063 7cbd 4d7c a33d
0.14099361 0.17288609 -0.1501498 0.04511161 0.091177344 0.1456247 0.081410214 0.2469317
0.048004813 0.120530635 0.021733442 0.19278757 -0.08715379 -0.017558644 -0.38146514 0.0373726
0.20803656 0.052746717 -0.048671387 0.005843426 0.21602201 0.21529219 0.022948101 0.038044807
0.001954804 -0.05500621 0.12630834 0.059501767 0.23033036 -0.042098004 -0.07624785 0.123563446
0.019546358 0.015120452 -0.06321314 0.09794123 -0.013892645 0.042539407 0.20969199 0.083122075
-0.006703742 -0.22827397 0.058658957 0.18608499 0.15240838 0.31563726 0.022296935 0.044299196
-0.013648236 0.14850779 -0.08434994 0.2934833 0.26056632 -0.060925014 -0.007876602 0.14443815
0.14711963 -0.119184226 -0.14952019 -0.035277106 0.12542935 0.009973776 0.28084418 0.039052628
0.32987997 0.12498953 -0.035064697 0.20611086 0.034673106 0.051601566 -0.0042913505 -0.008841298
0.12262742 -0.076372206 0.04180908 -0.3734401 0.15987377 0.24347724 0.042669762 0.4004297
0.06298933 0.037563343 -0.08060179 -0.09364189 -0.098041184 0.26562965 -0.08039658 0.11338293
0.023904962 0.050255578 0.09324463 0.103831485 0.13956092 0.14092019 0.20170282 -0.08375988
0.11191412 0.07108431 -0.20130834 0.16200516 0.19078921 0.119150154 0.44448116 0.010992142
-0.08160776 0.15751484 0.21204709 -0.3007149 0.19888976 0.2293758 0.22066239 0.3068031
-0.27276143 0.11383564 0.15053591 -0.09240138 0.18097708 0.18247397 -0.04949379 0.13692127
0.22272508 0.13165237 0.15590857 0.17930153 -0.04569554 0.044929896 -0.033440605 0.05840746
0.009221283 -0.015518714 -0.18418984 -0.019930696 0.0540388 0.10575425 0.011030688 0.093060434
0.049708646 -0.0050516766 0.0257578 0.017649027 -0.019734118 -0.15113337 -0.0051258933 0.0042512924
0.07781787 0.059417065 -0.04872311 -0.084723435 -0.095926985 0.11505656 0.16989899 -0.109659664
0.05170693 -0.16222586 0.056354236 0.06612452 0.05042301 -0.26811713 0.19425112 0.063481584
-0.05349218 -0.035733987 -0.021319615 -0.09918613 -0.0099428585 0.16404586 0.03464324 -0.05099479
-0.05565038 -0.051774066 0.103809156 0.10454521 -0.26004246 0.14007017 0.13849968 -0.0052987062
0.037692055 -0.012833624 -0.1314361 0.03271817 -0.0048849974 -0.09409145 -0.031037971 0.20418175
0.0043630223 -0.15219532 -0.17907879 -0.02604519 0.096785456 -0.02724843 0.17001458 0.133834
0.08220842 0.049204115 -0.22019924 0.009462303 -0.015432008 -0.13160689 -0.08219217 0.017891085
0.23813015 0.14267327 -0.02185768 -0.024681047 0.1484952 0.25734386 0.097484834 0.10795486
-0.03406508 -0.081202805 -0.07202326 0.0450532 0.040669307 0.29526356 0.007803637 0.15337728
0.08939518 -0.10689634 -0.16117755 0.044933688 0.1351488 0.033960942 0.18971922 0.18396328
0.12325919 -0.016467577 0.061969556 0.12217754 0.08556634 0.04501684 -0.11554048 -0.07238479
-0.062771685 0.030010788 0.033348702 -0.057744917 0.053194214 -0.013851519 0.16476057 0.13815075
-0.18753175 0.139105 -0.06189929 -0.09889795 0.014293609 -0.014602173 0.07343631 0.04484442
0.13343108 0.07728704 0.059848275 -0.00845449 0.002849099 -0.09476215 -0.061618626 0.07982693

dense5.bias f4 [128]
00000000: 76de 35be 3556 7bbc ece3 e3be 069c f6bd
00000010: de0a 8abe d363 8abe 4600 0bbe 8b49 4fbd
00000020: 3c4a 64bd 1828 2bbd 31d0 1a3d 4d78 aebe
00000030: ac1b ebbe ab45 3ebe 02d8 283d 1277 84bc
00000040: 7d2d 0abe b3ff 4fbe 9045 8cbe 5e7a 44bd
00000050: 539c 003d d002 c5bd a91f 28be c0af d23c
00000060: 4533 8dbd 83d3 ca38 78da e3bd d3cb d1bd
00000070: 1c73 33be d3f0 43be 5241 11be e547 9cbe
00000080: 4fbe b5bd 9566 2bbd 4688 aebe 3afd 1fbe
00000090: 19ae 5dbc c31d 31be c2d4 08bd b810 71bd
000000a0: b25e aebd 18b5 4ebe e97e 7a3d 7a3d d3bd
000000b0: 26d7 bebe 6909 fdbd 9f8d 20be 77e3 99be
000000c0: 948d e9bd 462f d3bd 1a48 a5be 7272 1fbe
000000d0: 0653 d3be 0082 83bd f17f 8abd 5a95 c13b
000000e0: 3ac1 1cbd 60b8 88be c607 9abe b763 3dbe
000000f0: 54c9 50be e9c1 04be 397b 233d 6bd4 24bd
00000100: e229 92bb 0bc7 1abe 2982 2fbe cf68 f8bd
00000110: c928 80be 8e4e fdbd 42ed a0bd 9ad5 e5be
00000120: 863b 88bd ff45 46be 75e8 a0bd 0eaf 1cbe
00000130: 8aea a5bd f6ff 84be 7cd2 aa3d 3751 96be
00000140: 6cdb 0bbe 0c99 0dbe e94f 26be 75e6 1fbe
00000150: 3668 733c 93d5 b3bc 0329 f1bc 4ac9 a3bd
00000160: 8f20 d1bd 3b1c 2ebe eaee 4dbe f5e3 87be
00000170: 50cf 2dbe 7897 9cbe 0846 80be d5e2 86be
00000180: 2e84 aebe f5a9 27be 0c1f 90be e151 bcbc
00000190: ec26 67be ef42 bdbe 2bc6 42be 5cb4 24bd
000001a0: b2a0 fb3b 7b6c 45be ac7d 0ebe 0c74 1abe
000001b0: 06df 30be 51b9 3f3c a2b6 77be 738c 91be
000001c0: 1bb1 2bbd 79a2 3e3d 06f6 8fbe 0399 77be
000001d0: 4eb3 ccbd e1fc 21be 7790 2bbe f448 da3d
000001e0: c98f 07be 5c4a 813d 6c75 04be c76b 36be
000001f0: e083 4abe 057b 77be 9d07 f1be 109f bebe
-0.17760643 -0.015340378 -0.44509828 -0.12041478 -0.26961416 -0.27029285 -0.13574323 -0.050607245
-0.055734858 -0.041786283 0.037796203 -0.34076157 -0.4591955 -0.18581264 0.041221626 -0.016170058
-0.13493915 -0.20312385 -0.27396822 -0.04796826 0.031399082 -0.09619677 -0.16418327 0.02571857
-0.068945445 9.671508e-05 -0.11125654 -0.102439545 -0.1752438 -0.19134836 -0.14185074 -0.305236
-0.08874189 -0.041845877 -0.34088343 -0.15623942 -0.013530278 -0.1729651 -0.033406027 -0.058853835
-0.085141554 -0.2018627 0.061156187 -0.1031446 -0.3727352 -0.123553105 -0.15679024 -0.30056354
-0.11403957 -0.10311751 -0.32281572 -0.15571001 -0.4127428 -0.0642128 -0.06762684 0.0059076967
-0.038270213 -0.26703167 -0.30084056 -0.1849507 -0.203893 -0.12964596 0.039912436 -0.04024164
-0.004460559 -0.15114991 -0.17139496 -0.12129366 -0.25031117 -0.12368499 -0.07857753 -0.44889528
-0.06651978 -0.19362639 -0.07856838 -0.15301153 -0.081013754 -0.25976533 0.08340928 -0.29358837
-0.13657922 -0.13827914 -0.16241421 -0.15615256 0.014856389 -0.021952426 -0.029438501 -0.07997377
-0.10211288 -0.17002957 -0.2011067 -0.26541105 -0.16973615 -0.3058431 -0.2505343 -0.26344934
-0.3408522 -0.16373427 -0.28148687 -0.022988262 -0.22573441 -0.3696513 -0.19020908 -0.040211067
0.0076790685 -0.19279663 -0.13915128 -0.15083331 -0.17272577 0.011701898 -0.24190763 -0.28427467
-0.041916948 0.046541665 -0.28117388 -0.24179463 -0.09995137 -0.15819122 -0.16754328 0.10658446
-0.13238443 0.06313011 -0.12935418 -0.17814551 -0.19776869 -0.24168022 -0.4707612 -0.3723073
