GraphNeuralNet/Skim1E2Mu/MHc-160_MA-120_vs_ttZ/models/ParticleNet-nNodes64_RMSprop_initLR-0p01_CyclicLR.pt (torch, 301917 bytes, 102 tensors)

gn0.weight f4 [9]
00000000: 10d0 3d41 8ce3 0e40 e42d 1b40 7ce4 9640
00000010: 2687 db3e d06c c940 8789 d440 d74b 2c40
00000020: 5cef 9d40
11.8632965 2.2326384 2.424676 4.715391 0.42876548 6.294533 6.641788 2.692129
4.9354687

gn0.bias f4 [9]
00000000: 5bd0 1f40 c32d 0fc0 57a0 5a3f 71e0 2d3f
00000010: 5857 1dbf bf66 ca3d 501a 403c b9b0 1840
00000020: f10b 1fbf
2.497092 -2.237168 0.8540091 0.67920595 -0.614614 0.098828785 0.011725023 2.3857863
-0.62127596

gn0.mean_scale f4 [9]
00000000: 1b29 e13e 8a64 a13f bbe1 b1bf c285 ef3f
00000010: 09df d840 2b14 c9bf 0d85 c13f 8011 80c0
00000020: 15ec afbe
0.43976673 1.2608807 -1.3897012 1.8712695 6.777226 -1.570928 1.5118729 -4.002136
-0.34359804

gn1.weight f4 [64]
00000000: e8f7 a1c0 b692 bf40 2e60 d540 1cbc 6340
00000010: 2d25 4340 e303 0541 6930 de40 4901 f240
00000020: 9207 a040 3fb0 0741 ff23 d540 4da3 2541
00000030: 0c58 8540 fa05 4b40 4921 fc40 09cd bac0
00000040: 7607 4ac0 c73f db40 4335 1b41 8cff ca40
00000050: 6e3e c040 075f 9d40 d4f1 b73f b9ee 1541
00000060: 5009 1441 4e35 ad40 7d07 1d40 5491 d3c0
00000070: d5af 1bc0 1e6d 3940 502a 1e41 dda8 b740
00000080: 5311 6f40 955f c340 8a1c c240 e3cb bc40
00000090: 34cd 9140 3cda f440 cb00 c040 c90d af40
000000a0: 7ca0 8c40 03ad e0c0 3e4d 8640 92dd e440
000000b0: 347b f140 9c9d edc0 2bec e7bf dfa7 7b40
000000c0: c07c 0441 950f f340 ab7f da40 196f a940
000000d0: a996 d440 7aed e840 13fe 593f 0563 02c1
000000e0: 5893 e040 b8e7 e440 f269 b140 69c1 d8c0
000000f0: e578 debf 0755 b040 481a 8540 2fb0 f140
-5.061512 5.986659 6.6679907 3.5583563 3.049144 8.313449 6.9434094 7.562657
5.000924 8.480529 6.660644 10.352368 4.166998 3.1722398 7.879063 -5.8375287
-3.1567054 6.8515353 9.700503 6.3436947 6.007621 4.91785 1.4370675 9.370782
9.252274 5.412757 2.453582 -6.6114902 -2.432607 2.897285 9.88533 5.739363
3.7354324 6.1054177 6.065984 5.8998885 4.556299 7.65164 6.000097 5.4704328
4.3945904 -7.0211196 4.196929 7.152047 7.5462894 -7.4254894 -1.8118948 3.932121
8.280457 7.595652 6.8280845 5.2948117 6.643391 7.278989 0.8515331 -8.149175
7.0179863 7.153286 5.544183 -6.7736096 -1.7380644 5.5103793 4.159458 7.552757

gn1.bias f4 [64]
00000000: 41ab 6440 9ece 44c0 0546 ae3e 0037 de3f
00000010: 6a89 4440 59a4 00c0 aff9 e9c0 0888 bfc0
00000020: bf20 6bc0 6f90 b0bf 8641 5cc0 d7f8 bac0
00000030: 292e e8c0 390f b9bd 699c 2cc0 d623 32c0
00000040: fa32 1141 6ccc cfbf 162e b340 8ccb 65bd
00000050: 8741 41bf 2a94 d3c0 bcb6 83c0 41bb d43f
00000060: dc4d 45bf 54b5 9b40 e1a3 6d40 63b4 f83e
00000070: 97c7 03c1 d15c 35c1 9022 dac0 ba07 8bbf
00000080: bb11 7ebf 3654 a440 b285 1340 1508 f3c0
00000090: a5d8 2640 1443 aa3d 8e9e 57bf 7649 033e
000000a0: 1407 5740 fe51 9440 d168 05c1 f3dd 9f40
000000b0: 4f86 9740 4fd1 a6c0 5a70 e53d 2fcd ca40
000000c0: 2a28 2540 e8b3 3e40 6df0 5f40 d12b 973f
000000d0: 41a0 94bf 8ed2 26c0 e3cc 353f 9f69 01c0
000000e0: e870 fbbf 73c8 85c0 8ecd 7b3e da35 163e
000000f0: 9203 5ec0 d3bd c8c0 143c 40be 5950 a840
3.5729525 -3.075111 0.34037796 1.7360535 3.070887 -2.010031 -7.311729 -5.9853554
-3.6738737 -1.3794078 -3.4414992 -5.842876 -7.255635 -0.090361066 -2.6970465 -2.7834373
9.074945 -1.623426 5.5993757 -0.05610232 -0.7549061 -6.6118364 -4.1160564 1.6619645
-0.7707193 4.865885 3.7131274 0.48575124 -8.236228 -11.33516 -6.816719 -1.0861733
-0.99245805 5.1352797 2.305035 -7.5947366 2.606973 0.083135754 -0.8422631 0.12820992
3.359807 4.635009 -8.33809 4.9958434 4.735145 -5.2130504 0.1120307 6.337547
2.5805764 2.9797306 3.4990494 1.1810247 -1.1611406 -2.6066012 0.7101576 -2.0220716
-1.9643831 -4.180719 0.24590132 0.1466898 -3.468968 -6.273172 -0.18772918 5.259808

gn1.mean_scale f4 [64]
00000000: c4de 6640 7ba5 a23f 88cc 69be a0a1 0940
00000010: d467 623e 67d3 0440 722e df3f fbbf 443e
00000020: 62c5 1340 12a6 1c40 cd14 1ebd e510 1fbf
00000030: ad14 ea3e c744 39bf 21ff ef3f efbe 3f40
00000040: 20b1 4c40 14c6 c53f 2078 ea3f 4167 b7bf
00000050: 502d ae3f ac9a e1bf a151 2fc0 2d82 153f
00000060: dbaa fdbf 9d0a 1240 3c87 45bf d763 b63f
00000070: 4de9 3c40 fdd0 3440 892e 2840 af47 3440
00000080: 65d5 23be 6c4d 4e40 2936 df3f f2a7 2ec0
00000090: a284 8c3e 7b93 e7bd f60f e53f 1564 e73f
000000a0: 3208 423f 3820 5140 b16d bbbf 2451 893f
000000b0: bbd1 56be c2dd 8b3e 2c34 5c3e 5054 61bf
000000c0: 3fe4 ba3e c04b 9340 23c7 0ac0 f616 8a3f
000000d0: a6c9 9dbf ff57 2f40 41a5 37c0 1cf8 c6be
000000e0: b7a1 1ac0 0525 2e40 d362 193f 69a1 b9be
000000f0: 6ba8 09c0 5a24 0c40 d0cd d73f 5372 633f
3.6073465 1.2706751 -0.22831929 2.1504898 0.2210992 2.075403 1.7436049 0.1921386
2.3089223 2.4476361 -0.038594056 -0.62135154 0.457189 -0.7237057 1.8749734 2.9960287
3.1983109 1.5451074 1.8317909 -1.4328386 1.3607578 -1.7625327 -2.7393572 0.5840176
-1.9817766 2.2818978 -0.77159476 1.4249219 2.9517395 2.8252556 2.6278403 2.8168752
-0.15999372 3.2234755 1.7438403 -2.7290006 0.2744494 -0.113074265 1.7895496 1.8077418
0.75793755 3.2675915 -1.464285 1.0727887 -0.20978443 0.27317625 0.21504277 -0.88019276
0.36502263 4.602997 -2.1684043 1.0788257 -1.2327163 2.7397459 -2.8694613 -0.38861167
-2.4161203 2.7210095 0.5991642 -0.3625596 -2.1509044 2.1897187 1.6859684 0.8884632

gn2.weight f4 [64]
00000000: 94bf 2ec1 0355 d23f c67d 0b40 c4f6 1bc0
00000010: ea18 7fbf e004 1841 3f6d 1240 ef2c 17c0
00000020: 920b a13f eaeb 3040 9de8 97c0 11fc 1d40
00000030: 6fd3 92c0 5a18 9840 f460 b6c0 fcd2 12c0
00000040: 6251 71c0 3594 9840 a1da 3540 2e95 0fbf
00000050: 105f a740 7f33 f7c0 8966 a7c0 cb01 abbf
00000060: c5f6 9cc0 0d4e 3d40 a9ac e43f 6818 be40
00000070: c5ff 013f 7972 1cc0 f3e6 703f c0a6 8c40
00000080: ce33 6b40 4708 41bf e2b6 ed3f 4d5c d8bf
00000090: 70d6 2640 cc2c c9c0 e2f3 38c0 75ae 5bc0
000000a0: 5239 3940 a134 a7bf b02b db40 58c1 f93e
000000b0: 6833 97c0 8b3a a53f 3d96 fa3e 01ef cd3f
000000c0: 6f99 5541 09cf 9ac0 9d2a dd40 1406 d640
000000d0: 36ea 35c1 6e5c b940 7260 163f 9018 e63d
000000e0: 7850 a8c0 ada8 5bc0 8987 9ec0 3ac4 353f
000000f0: 4ced a4c0 1104 5240 4901 cf40 c9d7 8cc0
-10.921772 1.6432194 2.1795516 -2.4369364 -0.9964739 9.50119 2.2879179 -2.3621175
1.2581656 2.764399 -4.747145 2.46851 -4.58831 4.7529726 -5.699335 -2.2941275
-3.7705922 4.7680917 2.841469 -0.56087005 5.2303543 -7.725036 -5.2312665 -1.3359922
-4.905123 2.9578888 1.7865192 5.9404793 0.507809 -2.4444869 0.941024 4.395355
3.675037 -0.75403255 1.8571436 -1.6903168 2.6068382 -6.2867184 -2.8898854 -3.432523
2.8941236 -1.3062936 6.849083 0.48780322 -4.725025 1.2908491 0.48942748 1.6088563
13.349959 -4.837773 6.911452 6.688242 -11.36968 5.792533 0.58740914 0.11235154
-5.259823 -3.4321702 -4.954045 0.7100254 -5.153967 3.2814982 6.468907 -4.401341

gn2.bias f4 [64]
00000000: 6c86 ed3f 1e96 86be bd28 8a40 cce4 d9c0
00000010: 3230 a3c0 2185 cc40 cd8c 0dc1 12d8 3940
00000020: d9e4 20c0 00b0 cdc0 c2dc 10c1 40bb ccc0
00000030: 94ef f740 0503 8fc0 696c 3c41 717a d3c0
00000040: 7d2f 00c0 5ae1 0ec1 6989 c73f cc89 8bc0
00000050: 7218 d1c0 1a4a 50bf 7c1a c2c0 83f3 283f
00000060: cbc1 1bbf 48c3 0040 b2b2 6b3f 9c5a 8040
00000070: 6a2d c7bf 6962 4bc0 854a d6c0 4c0a b9c0
00000080: 59fd ccc0 1a1f 0d41 e195 0c41 c2ab 0dc0
00000090: 2f5d be3e c7ac 84bf 8a9e 2a41 3d2b 80c0
000000a0: a989 09c1 dc15 ed40 93c0 38bf 56a2 e5c0
000000b0: 985b 0e40 c244 8dc0 6809 9540 56ca a4c0
000000c0: 92fc b13f c794 8fc0 74bb 88c0 434f 33c0
000000d0: 2a00 2e41 5daa 863f f64f 3e40 fd08 d240
000000e0: 2941 93c0 7455 d940 afe1 273f 3b38 c3c0
000000f0: 1a19 4f40 9469 3640 5bbf 93bf b416 b140
1.8556647 -0.26286405 4.317473 -6.8091793 -5.099633 6.391251 -8.846875 2.903813
-2.5139678 -6.4277344 -9.053896 -6.3978577 7.7479954 -4.4691186 11.776467 -6.6086965
-2.0028985 -8.930017 1.5588809 -4.360571 -6.534234 -0.8136307 -6.065733 0.6599657
-0.6084258 2.011919 0.9206954 4.0110607 -1.5560734 -3.1778815 -6.6965966 -5.782507
-6.405926 8.820093 8.786592 -2.2136083 0.37180468 -1.0365227 10.663706 -4.005278
-8.596108 7.4089184 -0.72168845 -7.1760664 2.2243404 -4.4146433 4.657398 -5.149699
1.3905203 -4.4869113 -4.2728825 -2.8017128 10.87504 1.0520741 2.9736304 6.563597
-4.601704 6.7916813 0.6557874 -6.100614 3.235907 2.850194 -1.1542772 5.5340214

gn2.mean_scale f4 [64]
00000000: b1eb 47bf 0d3b 4740 4931 2440 9a5e 173f
00000010: ee0b 82c0 0271 44bf 2fe7 72c0 2a58 df40
00000020: 9a45 da3e a076 ba3f 37da 2e40 0a32 7b40
00000030: 8109 1240 c7cc f13f ec9e f13e 2754 783e
00000040: c96f 313f 075a 5940 7f00 edc0 fe46 0940
00000050: 103c 8dbf 278c e83f a104 c73f b15a 1c40
00000060: 9a67 07c0 5c16 64c0 7f98 1840 3d3e 56be
00000070: 26b9 c040 d274 5d40 3090 4fc0 4142 3040
00000080: 1d2d 1a40 e035 d340 f86a 83bc ba1e 02c0
00000090: 981f f73f cf07 fa3c e834 8e40 bf66 2740
000000a0: 194a 8d40 315d e23f ea72 40c0 b0ae 9440
000000b0: a7aa 37c0 8040 993f 9429 843f f04d 9240
000000c0: a2a3 d6be e8c9 6abf d274 87bf 32d7 5d40
000000d0: 42b1 e3bf 3006 15bf 6543 c140 fb81 62c0
000000e0: 94bc b0bf 7a26 b340 e240 3640 4717 cb40
000000f0: 271b 1dc0 4103 4d40 126e 3240 42ee 6140
-0.7809401 3.1129792 2.5655081 0.59128726 -4.0639563 -0.76734936 -3.7953603 6.979512
0.42631227 1.4567451 2.7320688 3.9249291 2.28183 1.8890618 0.4719156 0.24250852
0.69311196 3.3961198 -7.4063106 2.144958 -1.1033955 1.8167771 1.5548288 2.4430354
-2.1156983 -3.5638647 2.3843076 -0.2092218 6.022601 3.4602551 -3.2431755 2.7540438
2.4090035 6.6003265 -0.016042218 -2.0331254 1.9306517 0.030521302 4.4439583 2.6156461
4.415295 1.768469 -3.0070138 4.646324 -2.8697908 1.1972809 1.0325189 4.572014
-0.41921717 -0.91714334 -1.0582526 3.4662595 -1.778847 -0.58212566 6.039477 -3.5391834
-1.380755 5.598447 2.8477101 6.3465915 -2.4547822 3.2033236 2.7879682 3.530167

gn3.weight f4 [64]
00000000: 9c4d dd3f 04e6 e140 056e 2bbd 99bd 8f3e
00000010: f617 0abf 6e4e 3fbe 13c9 243f 657c fb3f
00000020: c7fd d4bf 5d66 b4c0 f99d 3dc0 4077 e340
00000030: 8469 ab3f 5bd3 cf3f 22a4 4a3f 6f78 9f40
00000040: 6211 3abf 5b22 1dbf 2378 2fbf b9d8 953e
00000050: f3ce 4dc0 a09f 76be a090 6640 bef6 bdbf
00000060: 40cb c0bf 9ecd eabd 5615 0ac0 18e9 d03e
00000070: 5bf8 1140 0506 51c0 2516 01be eb1e 5ebe
00000080: 0b5c 9540 ac1c 90c0 e7fa 973f b44d cebe
00000090: ae3d a0bc 0928 2c3f 1fbe 95c0 0df2 6ebf
000000a0: c5a3 653e 53e5 4d40 968f afbf 0e49 aec0
000000b0: 0fb6 7840 2440 66c0 7b46 2dbf 34b7 ea3f
000000c0: e033 34c0 9f2f 0fbe 13a3 6e40 7fba 923f
000000d0: f479 ac3f 557c c3c0 adc4 1440 09fc 15c0
000000e0: 9c95 663f 1f23 a040 abe6 3b40 d7e4 de3f
000000f0: b43d 0a3f 5ce8 6e3d 49e0 04bd a200 c23e
1.728931 7.059328 -0.04185297 0.2807434 -0.5394281 -0.18682262 0.64369315 1.9647337
-1.6639947 -5.6374955 -2.962767 7.108307 1.3391576 1.6236376 0.79156697 4.9834514
-0.72682774 -0.6138055 -0.6854269 0.2926691 -3.2157562 -0.2408433 3.6025772 -1.4840925
-1.5062027 -0.114649996 -2.1575522 0.40802836 2.2807834 -3.2659924 -0.12606104 -0.21691482
4.6674857 -4.5035 1.1873444 -0.40293658 -0.019560661 0.6724859 -4.679458 -0.9333809
0.22425754 3.2171218 -1.3715694 -5.446418 3.886112 -3.5976648 -0.6768567 1.8337159
-2.8156662 -0.1398301 3.7287033 1.1463164 1.3474717 -6.1089272 2.3245041 -2.343508
0.90072036 5.0042872 2.9359539 1.7413586 0.540004 0.058327064 -0.032440457 0.37891108

gn3.bias f4 [64]
00000000: 3b08 2bbe 586f a9bc 2123 59be 582f 893d
00000010: 8bad 243d cb27 85bd 6dbb 79be c45a 71bd
00000020: c8de 783e 443e cf3c e6a3 cdbe ffed 823b
00000030: dd17 bf3e d621 23be c695 87bd 9a1b 083d
00000040: e5ad 74bf 05e5 4dbd e480 1cbe 7e07 21be
00000050: 996b 823e 01f9 96bd c4d6 2f3f 2ebc 043f
00000060: 9b3d 11be b7f0 d53d 4f59 adbe d29b aeb9
00000070: 8a69 973f a0a8 b33e f763 9f3e fe5e bdbe
00000080: ebc3 8abc 8852 43be 7c15 9b3d 35e7 9e3e
00000090: 5748 8dbd bc33 00be 63c0 11be 6d40 90bd
000000a0: eee8 523f c9c2 0abf 6e83 6ebe 7954 5d3e
000000b0: d220 e1bb b4d8 3abe 810b 023d c297 2e3e
000000c0: 7dbd 3c3d cf0b 81be 096f 253e aae9 02be
000000d0: 81ff c13d c35a 29bd 519c c43d 4995 39be
000000e0: ab43 5fbe 1c32 c83e 418b 223e de55 8f3d
000000f0: 93f9 4b3d c335 133f eb8d fdbd 20a8 03be
-0.16702358 -0.020682976 -0.21204807 0.06698483 0.040204566 -0.065017305 -0.24387904 -0.05892445
0.24303734 0.025298245 -0.40164107 0.0039956565 0.37322894 -0.15930876 -0.06620364 0.033229448
-0.9557784 -0.05026724 -0.15283543 -0.15725514 0.25472715 -0.073717125 0.6868708 0.5184964
-0.14183657 0.10446303 -0.338572 -0.0003330396 1.1829083 0.35089588 0.31130955 -0.36986536
-0.016939124 -0.19074452 0.07572457 0.31035772 -0.06898563 -0.12519735 -0.14233546 -0.07043538
0.8238667 -0.5420347 -0.23292324 0.21614255 -0.0068703676 -0.18246728 0.031749252 0.17050079
0.046079148 -0.25204322 0.16155638 -0.12784448 0.09472562 -0.041346323 0.096001275 -0.18123354
-0.21803157 0.3910073 0.15873434 0.069988 0.04979856 0.5750391 -0.12380584 -0.12857103

gn3.mean_scale f4 [64]
00000000: ec1a 4f40 98b5 8cbf d9bd 843f f45b a5bf
00000010: c8eb bb40 ebbc 4e40 9281 b640 7c0c 4740
00000020: c753 a3c0 085a b8c0 0c76 4740 c74f a33e
00000030: 0f23 c03f b056 a540 daef 3c3e 4a95 97c0
00000040: 1aec bdc0 2586 cfbf 7c73 033f 8f1c da3f
00000050: bbf4 e33f c0ab 283f 1ad8 a9be 5e52 29c0
00000060: 431a b5bf b06d 613f c084 b1bf 3a4d b640
00000070: 190e 2c40 2cb6 ac3f 9462 75c0 71c3 d9bf
00000080: 7dcd 39c0 94c1 0940 740a 903f 125e 7b3f
00000090: 69eb 823f 571d 2a3e 1ea0 93bf 50a6 8240
000000a0: 30b0 b4c0 1d38 0ac0 70db 8d40 b133 cbc0
000000b0: 84c3 85bf 4631 87bf f3ac 51c0 189b bfbf
000000c0: 9f84 0440 a603 0f40 f017 593f 9df0 d540
000000d0: 134e 7f3f 7fbd 6c40 0782 e13f 9396 7240
000000e0: 3d8c 0d40 facd 6140 5f26 fc3f e567 4340
000000f0: f52f cac0 989d 3d3f 98c8 a340 6ccb 9dc0
3.2360182 -1.0992918 1.0370437 -1.2918687 5.872532 3.2302806 5.7033167 3.110137
-5.1039767 -5.76099 3.11658 0.31896803 1.5010699 5.166832 0.18450871 -4.736974
-5.935071 -1.6212813 0.5134809 1.7039965 1.7809061 0.6588707 -0.33172685 -2.6456523
-1.414864 0.88057995 -1.3868637 5.696927 2.6883605 1.3493094 -3.8341417 -1.7012769
-2.903167 2.15244 1.125319 0.98190415 1.0228091 0.16612755 -1.1533239 4.082802
-5.6465073 -2.159675 4.433037 -6.35006 -1.0450292 -1.0561912 -3.276181 -1.4969206
2.0705945 2.2345977 0.8480215 6.6856217 0.99728507 3.699066 1.7617806 3.7904403
2.2116845 3.5281968 1.969921 3.0532162 -6.318354 0.74068594 5.1182365 -4.931082

bn0.weight f4 [68]
00000000: 753a 1bbf d248 8bbf 19c5 5140 bd1c 3340
00000010: 1201 0bc0 3593 1ebf adc9 34c0 ddbb 3540
00000020: e4aa 34c0 0825 ecbf e776 5d40 4b28 4ebf
00000030: 0505 2340 9364 8640 80c9 2bc0 70a5 1640
00000040: 2791 0cc0 b6ef 3dbf cee1 6f3d c0a7 3040
00000050: b996 813f 4555 8f3f dabc fbbf 37ae ecbf
00000060: 4d3f 6940 df45 173e 230d 4fc0 62d5 0840
00000070: 7ae5 c1bf b798 1040 0b97 20c0 b635 bb3c
00000080: 0e19 0440 c7b0 2b40 e2bc 1cc0 87f3 50bf
00000090: 5c21 9740 89b1 1b40 eaec 3d3f 51b4 2040
000000a0: 5dff e8bf 0667 4340 d8c1 bebf 250c 00c0
000000b0: 756c 30c0 6d75 073f c8bf 4c40 17f1 293f
000000c0: 8f90 72c0 8c7c a8c0 4436 ff3e 00c3 7abf
000000d0: 9b61 6d40 5073 babf 14b7 8fbf 5181 583f
000000e0: 7bd5 2240 7ec6 e83f e2e0 403f 16b7 ff3f
000000f0: 9fd3 0ac0 b9cf 5640 ac9b 4440 1753 c83e
00000100: 4fb4 6641 fbb5 2b41 a576 3c41 a734 8441
-0.60636073 -1.0881598 3.277655 2.798629 -2.1719403 -0.6194337 -2.8248093 2.8395913
-2.8229303 -1.8448801 3.4603822 -0.8053023 2.5471814 4.199777 -2.6841736 2.3538475
-2.1963594 -0.74193895 0.058564954 2.7602386 1.0124122 1.1197897 -1.9667008 -1.8490666
3.6444886 0.14772747 -3.2351768 2.1380239 -1.5148156 2.259321 -2.509219 0.02285276
2.0640292 2.6826646 -2.4490285 -0.81621593 4.722822 2.432711 0.7418963 2.5110056
-1.8202931 3.053163 -1.4902906 -2.0007412 -2.7566197 0.5291355 3.1992054 0.663835
-3.7900732 -5.2652035 0.4984609 -0.97953796 3.7090824 -1.456644 -1.1227746 0.8457232
2.5442798 1.8185575 0.75343144 1.9977748 -2.1691663 3.3564284 3.0720015 0.39125893
14.419021 10.731929 11.778966 16.52571

bn0.bias f4 [68]
00000000: 5fb9 4940 86b5 3440 07fa d0bf f5a7 4cc0
00000010: ada8 7cbf e77b ed3f b450 fbbf dfd3 203d
00000020: e348 96bf 8f11 d4be 25ef 21c0 42de 29c0
00000030: def0 ffbf de74 b13e 3256 723f f0ae 84bf
00000040: f3e3 7e40 eb0e 023f 7d6c 26c0 66e4 463f
00000050: f4d6 77bf dd75 993f 8e69 0dbf 3eb5 b740
00000060: 62e7 05c0 f814 333e 3b65 53bf 4e05 13c0
00000070: c87a 0040 fc4f 78c0 d816 5dc0 011e a8bf
00000080: 46a9 7a40 285a 003f 465c 2240 eea7 87c0
00000090: 917f 5a3d b454 4c40 8353 82bf 1d3d 3140
000000a0: 86b1 043e f102 563f 863e 8f40 275e 0c40
000000b0: 13a7 3bc0 05d9 1040 6a44 b640 8a50 143f
000000c0: 0071 1840 291f 2ac0 d42b 2c40 c707 1f40
000000d0: acdf 88bf 15e3 e13f a475 63c0 ab05 1ac0
000000e0: a839 6c3e a967 20c0 3dba d63e 585a 9540
000000f0: 0c87 8d40 9bff 6440 bf8d 88c0 ac60 6140
00000100: 023e 35c0 eedd 5ec0 584b 42c0 cfd3 fc3f
3.1519392 2.8235793 -1.6326302 -3.1977513 -0.9869488 1.8553437 -1.9634004 0.039264556
-1.1740993 -0.41419646 -2.5302212 -2.6541905 -1.9995382 0.34659475 0.94662774 -1.0365887
3.982663 0.50804013 -2.6003716 0.7769226 -0.9681237 1.1989094 -0.5523919 5.7408743
-2.0922475 0.17488468 -0.8257634 -2.2971988 2.007494 -3.8798819 -3.4545193 -1.3134156
3.9165816 0.5013757 2.536882 -4.239249 0.053344313 3.1926699 -1.0181736 2.769355
0.12958345 0.8359824 4.4763823 2.1932466 -2.9320724 2.2632458 5.6958513 0.5793539
2.381897 -2.6581519 2.690175 2.4848497 -1.0693259 1.7647425 -3.5540552 -2.406596
0.23068869 -2.506327 0.41938964 4.6672783 4.422735 3.578101 -4.267303 3.5215254
-2.8319097 -3.4822955 -3.0358486 1.9752139

bn0.running_mean f4 [68]
00000000: 55f6 8441 eb70 28c1 5fd2 0d41 634d 8bc0
00000010: d9bc 41bc bafc 6e40 7082 89c1 913e d8c0
00000020: dd27 f9c0 b3d4 fcbe a93a 6fc1 801a 56c1
00000030: c4fe 9f40 842c cbbe 08c2 3641 52ab b8c0
00000040: a393 9040 eefe 25c1 b830 5541 c5be 01c1
00000050: 86fa 60c1 be82 2cc1 a6a5 e3c0 5e7d 8d40
00000060: 16e7 13c1 f100 0a41 7a58 7640 766c c940
00000070: 28cd 1fc1 b6af 62c1 5110 9fc1 ab8b 0dbf
00000080: 6f09 ecc0 cc72 aa41 7c7f 5441 efaf 4bc1
00000090: 84eb 9e40 afef 9dc0 d5f8 7c41 77e6 07c1
000000a0: 16b2 01c1 b898 4140 e943 56c1 944c c7c0
000000b0: f8f6 9840 d228 64c1 109f 7d40 1f7a 05c0
000000c0: 42a7 16c1 e3e3 9e40 d8ec 0541 85b1 1a40
000000d0: c29d 1441 adaa 54be de6d ed40 db2f a03f
000000e0: ff5d b9c0 5835 cb40 de60 9540 aca7 82c0
000000f0: 6b54 88c0 79d3 13c1 adcd 0340 f64c 5f41
00000100: 7d0e 9140 284d 9a3f 8c19 9442 6e96 0d43
16.62028 -10.527568 8.86386 -4.3531966 -0.01182481 3.7341752 -17.18869 -6.7576375
-7.786116 -0.49381027 -14.951821 -13.38147 4.9998493 -0.396824 11.422371 -5.770913
4.518022 -10.374739 13.324394 -8.109075 -14.061163 -10.7819195 -7.1139708 4.4215536
-9.243917 8.62523 3.8491502 6.29449 -9.987587 -14.167898 -19.882967 -0.5529124
-7.3761516 21.306053 13.281124 -12.730453 4.9662495 -4.9355083 15.81075 -8.493766
-8.105978 3.0249462 -13.39158 -6.228098 4.7801476 -14.259966 3.9628334 -2.0855787
-9.415834 4.965318 8.370323 2.417085 9.288515 -0.20768233 7.4196615 1.2514604
-5.792724 6.3502617 4.6680746 -4.0829678 -4.260305 -9.239129 2.0594285 13.956289
4.5330186 1.2054796 74.0499 141.58762

bn0.running_var f4 [68]
00000000: c9ed e640 6f22 5640 578a eb3f 7d78 dd3f
00000010: 5efc 443f 7962 e841 79c1 3b40 c88d 0040
00000020: 66ce ce40 ce4e 4641 f716 4441 50ad 8841
00000030: 0ec0 2840 1552 8740 feea 4141 271b 2d41
00000040: 80b9 a340 06c7 3e41 0d08 0a41 dc23 fb40
00000050: 4cc2 1240 2d19 2841 3ca4 e33f 6394 ea3f
00000060: 2622 ee41 2c2c 4940 9054 1340 7ae7 ba40
00000070: 8467 fd3f e376 d13f c940 bf41 5ab0 8640
00000080: 4160 9941 a3b2 0941 f839 1740 d02a 7740
00000090: ec15 7f40 7f38 2f41 e47a 8b40 4518 d13f
000000a0: ca82 0c3f 000f 2d41 9a7c e141 e282 ca3e
000000b0: d029 2b41 e9c4 da40 e3f2 183e 7fc5 c73f
000000c0: 64cd a641 9521 6341 a679 ea40 b360 4d40
000000d0: 866b 1942 b37c 8b41 8ca3 8a3d 108d 5540
000000e0: 08a1 2042 a3fd 8141 74f4 8440 b8d8 8740
000000f0: 181d 893f 462f 8b3f 898e 0240 3b2c ee3f
00000100: 7263 4e40 0fa0 1b3f bb92 3a45 583a ce45
7.2165265 3.3458517 1.8401593 1.7302395 0.7694758 29.048082 2.9336836 2.0086536
6.462695 12.394239 12.255607 17.084625 2.636722 4.22877 12.119871 10.819129
5.116394 11.92359 8.6269655 7.8481274 2.293109 10.506146 1.7784495 1.8326534
29.766674 3.143321 2.3020363 5.8407564 1.9797215 1.6364406 23.906633 4.2090273
19.171999 8.6061125 2.3629131 3.861988 3.985713 10.951293 4.3587513 1.6335531
0.5488707 10.816162 28.18584 0.3955298 10.697708 6.836537 0.14936404 1.5607146
20.850288 14.195699 7.3273497 3.209027 38.355003 17.435888 0.06769475 3.3367348
40.157257 16.248846 4.1548405 4.245205 1.0712004 1.0873802 2.0399497 1.8607248
3.2248197 0.60791105 2985.1707 6599.293

bn1.weight f4 [64]
00000000: 85f0 b63f 6109 4a41 5296 edbe a9fe 253f
00000010: 2eb5 4340 54b3 bc3f aba9 b7bf 914b 4e3e
00000020: 0687 0741 1437 4ec0 4928 d940 5a22 0041
00000030: 05d9 db40 f61f 3240 49bf a1bf ed6b abbf
00000040: 8f64 eb40 8c39 61be 7cac 43bf a52a 7a40
00000050: 8ed7 1b41 954d bcbe 79fb 023f c8cf 2abf
00000060: e621 b8bf 771a 293e 69b4 623f 2413 853f
00000070: fc2f a940 7931 14bf f123 f740 b253 3840
00000080: 2844 973e 2361 8fc0 e443 b43f 9893 963f
00000090: afc1 f1be 2f1c 7ebf 39c3 dc40 a570 4740
000000a0: f0ed 4041 22ae f240 67d3 353f 43b4 3540
000000b0: 8aa9 f53d d27e 9940 e9ae d240 d695 3041
000000c0: 18dc 2040 1438 e440 5df3 dcbf 411c 8e3c
000000d0: 2780 6240 bcaf 0fc0 b851 bd3f 6a61 ef3f
000000e0: 9d6f 67c0 7add 99be ebe5 533e 4a45 f23f
000000f0: e04e bdbf 23ca 7540 3d1e 6d40 0620 9f40
1.4292151 12.62729 -0.46403748 0.64841706 3.0579333 1.4742227 -1.4348654 0.20146014
8.470465 -3.2221117 6.7861676 8.008387 6.8702416 2.7832007 -1.2636501 -1.3392311
7.356025 -0.21994609 -0.76435065 3.9088528 9.740126 -0.3677794 0.51164967 -0.667233
-1.4385345 0.16514002 0.88556534 1.0396466 5.2871075 -0.5788799 7.7231374 2.8801084
0.29544187 -4.4806075 1.4083219 1.1763792 -0.4721808 -0.99261755 6.898831 3.1162503
12.05809 7.5837564 0.710257 2.8391273 0.11995228 4.796731 6.5838513 11.036581
2.5134335 7.1318455 -1.7261769 0.017347457 3.5390718 -2.245101 1.4790564 1.8701603
-3.6161873 -0.30051786 0.20693175 1.8927395 -1.4789696 3.8404624 3.7049706 4.972659

bn1.bias f4 [64]
00000000: 8ce7 b13f e9ff f23e 30fb 9dc0 d703 143d
00000010: a3dc 4b3f 8213 403f be8d db3e bc57 40bf
00000020: e85c a03f 53c3 5e3f 51da 843f a7a6 673e
00000030: 2459 353f 442d 93bf b0ab eebd 4bfb e53c
00000040: 02c1 bdbd 8a4b 1bbf 3a40 7f3c 6b7c 24bf
00000050: bc0d 123f fbbf 7bbf a965 59be 4488 523e
00000060: e371 00c0 c894 003f 8697 a63f b66f 70be
00000070: e75c 9e3f 75d5 d3bc 6057 4040 a011 fe3f
00000080: f176 cd3f dde0 c5bf 3a5b ea3e ac32 2240
00000090: afc8 6ebf 2c27 3c3f 848c bcbf 7b6a 653d
000000a0: ed98 4d3f f0cd 2ec0 4609 033e cf3c a3c0
000000b0: f1f0 633e 6e39 31bf 1404 7f3f 6bd0 3640
000000c0: c027 a73e 86ac a3bf 85de 653f 1b68 1b40
000000d0: d156 403e 2841 8a3e 0c95 a63e 4062 883e
000000e0: 2cf1 eb3f 85b2 ba3f fe95 4440 2bae 423e
000000f0: 13ef 143f c015 6040 8c0c 943f ff8a e73f
1.3898787 0.4746087 -4.9369125 0.036136474 0.7963354 0.75029767 0.42881578 -0.7513387
1.2528353 0.8701679 1.0379125 0.22622167 0.7083914 -1.1498189 -0.116538405 0.028073927
-0.09265329 -0.6066214 0.015579278 -0.64252347 0.57052207 -0.98339814 -0.21230187 0.20559794
-2.006951 0.5022702 1.3014991 -0.23480114 1.2372102 -0.02585862 3.005333 1.9849129
1.6051923 -1.5459248 0.45772725 2.5343428 -0.9327497 0.7349727 -1.4730382 0.05600975
0.8031147 -2.7313194 0.12796506 -5.101173 0.2225988 -0.69228256 0.996156 2.8564708
0.32647514 -1.2787025 0.8979266 2.428229 0.18783118 0.27002835 0.3253559 0.2663746
1.8432975 1.458573 3.0716548 0.19011752 0.581773 3.5013275 1.1566329 1.8089293

bn1.running_mean f4 [64]
00000000: e8ab f540 260f d943 69e1 3841 0b5b e540
00000010: fc61 a208 a030 ef42 9c9b 7540 e6e9 bb40
00000020: d4cd a042 57cc fe43 ef74 a043 f7d8 0c44
00000030: 5432 4742 c1a9 c53e 5c14 303c 1c8b 8340
00000040: 6c78 ed42 a756 9a40 dc1e a541 b696 3137
00000050: 06bd 8743 efdd 4c3f a334 9c43 ba99 2940
00000060: 8dfc 6542 ee4c 3a42 66c7 3043 3eb7 f442
00000070: 4414 f643 7485 5343 6883 1441 4a21 cc3f
00000080: adc0 7b43 502c 5942 692b d443 1cde a641
00000090: 60ad 1842 b774 ec43 36a7 c20e ec4b 5c41
000000a0: 545c d841 105a f53d bd29 f642 5cce 5f38
000000b0: 7357 0a43 a3b7 013a 02ec 0742 758e e642
000000c0: f86b 413a f1b4 4b39 6752 8841 5a5a 1e42
000000d0: 8617 f340 0db0 1643 d9db 0e42 2d97 d543
000000e0: 3a17 2318 23d2 8043 f3cb b941 c6bf ce43
000000f0: 21ee dc43 57e8 3743 6b51 9743 1091 ee43
7.6772346 434.11835 11.555032 7.1673636 9.773056e-34 119.59497 3.8376226 5.872302
80.40201 509.5964 320.91354 563.3901 49.79915 0.38606074 0.010747042 4.110731
118.7352 4.8230777 20.640068 1.0585112e-05 271.47675 0.80026144 312.41122 2.6500077
57.49663 46.575127 176.7789 122.357895 492.15833 211.5213 9.282082 1.5947659
251.75264 54.293274 424.33914 20.858452 38.16931 472.91183 4.798571e-30 13.768536
27.045082 0.11980069 123.08152 5.335953e-05 138.3416 0.00049483235 33.980476 115.27824
0.00073784543 0.00019426995 17.040236 39.588234 7.5966215 150.6877 35.714695 427.18106
2.1078983e-24 257.6417 23.224585 413.49823 441.86038 183.90758 302.63608 477.1333

bn1.running_var f4 [64]
00000000: 7778 2645 f7bd da47 9544 a944 570e 7a44
00000010: 7e4a 830a 76a8 3146 8624 d243 61cf 9e44
00000020: ee3e 8b46 e923 4a47 54e3 a047 a7be d247
00000030: 775c 3046 8ebe b342 65a3 d13f 7bc8 4b44
00000040: 331d ce46 6f51 1d44 067b 5f45 7cf5 483a
00000050: 852c 9347 393b 6342 433b 4447 3ee4 8b43
00000060: c1bf 8846 6e0f 0546 87c3 9a46 0f81 8f46
00000070: 2b4d c147 10db a146 bd94 ce44 71df 5743
00000080: ab65 2a47 c6f7 2f46 572b 9c47 b1d0 da45
00000090: 8942 8d45 3e03 9647 f529 2811 0d17 1145
000000a0: f026 2545 db4e 8641 9dca 9946 7326 3a3b
000000b0: 8264 d546 f0de 703d 8769 ee45 c19a fb46
000000c0: 353b 193d cb2c e93c aec3 3345 f7ad f745
000000d0: 7f70 a244 2acf 6146 888f c745 3879 7d47
000000e0: 29fd 1c19 6e94 f046 6fab 4445 d009 ac47
000000f0: 2057 5747 8154 2447 038a 6a47 96e5 c247
2663.529 111995.93 1354.1432 1000.22406 1.2642862e-32 11370.115 420.28534 1270.4806
17823.465 51747.91 82374.66 107901.305 11287.116 89.87218 1.6377989 815.1325
26382.6 629.2724 3575.689 0.00076659746 75353.04 56.807835 50235.26 279.78314
17503.877 8515.857 19809.764 18368.53 98970.336 20717.531 1652.6481 215.87282
43621.668 11261.943 79958.68 7002.0864 4520.317 76806.484 1.3265792e-28 2321.4407
2642.4336 16.788504 19685.307 0.0028404265 27314.254 0.05880636 7629.191 32205.377
0.03740998 0.028463742 2876.23 7925.7456 1299.5155 14451.791 6385.9414 64889.22
8.116136e-24 30794.215 3146.7146 88083.625 55127.125 42068.504 60042.01 99787.17

bn2.weight f4 [64]
00000000: 4c70 fc3e e8b1 2ebe 8dbf e03f d928 82be
00000010: 83d8 2140 9721 9ebc 84e4 913d cadf 22bf
00000020: df16 b43e 656f 7fbd 257e ca3d 2ecf 36bf
00000030: 20e5 403f 88a2 cbbd 0fbf 5fbd 07b3 403e
00000040: 4f42 0340 dad2 d83e 504f 1cbe 5e65 3b3d
00000050: 9c34 5bbc a10f 083f 4276 113c 2b9e 383e
00000060: ecd3 2840 3859 95bd 2e89 11bf 9bd8 473e
00000070: e73d bd3e 6e86 93bd 93dc 3bbf 169e 8abd
00000080: 1fc2 43ba cdd2 19bd 4f61 0e3e cc5e efbd
00000090: 1dc9 5fbd 8234 413e 6b56 78be 01bf 84bf
000000a0: 0980 a8bd fbce bb3e a012 943e 5ba1 29bf
000000b0: af8f 80be 6341 493e 15dd ff3e a3f0 f0bd
000000c0: 2c4b 00bf d825 833e 52dc e93e cb69 e43d
000000d0: 8888 7ebe fcbd 883c eff2 5b3f 47ef f93d
000000e0: af76 7c3c 65e7 ff3e b365 89bd 44f6 1dbe
000000f0: 3feb 963e 3d20 98bd 0326 1940 e073 89be
0.49304426 -0.17060053 1.7558457 -0.2542179 2.5288398 -0.019303126 0.07123664 -0.63622725
0.351737 -0.062362093 0.098873414 -0.7140988 0.75349617 -0.0994311 -0.054625567 0.18818294
2.0509222 0.42348367 -0.1526463 0.04575097 -0.013379242 0.5314885 0.0088782925 0.18029086
2.6379347 -0.07292408 -0.56849945 0.19516222 0.3696129 -0.07203375 -0.73383445 -0.06768434
-0.0007467586 -0.03755455 0.13904308 -0.11688003 -0.054635156 0.18867686 -0.24251716 -1.037079
-0.08227546 0.3668135 0.2892046 -0.66261834 -0.25109622 0.1965385 0.4997336 -0.11764648
-0.50114703 0.2561481 0.45675904 0.11152991 -0.2485677 0.016692154 0.8591756 0.12203842
0.015409156 0.49981228 -0.06708851 -0.15425974 0.29476354 -0.07428024 2.392945 -0.26846218

bn2.bias f4 [64]
00000000: ab62 0b3e 93a9 103b 6e06 3b3f 827d 6c3d
00000010: b7d4 713f 23a1 36bc bb38 0dbd b588 ca3a
00000020: 3210 55bc b4c4 acbc 34ea 533d e559 fc3c
00000030: 3991 39be 0d0c 20bd 72fa b63a b7c6 d53d
00000040: b6e3 733f a420 84bd 989c 423d 9120 093d
00000050: 9a86 59bd f63d a7bb 9dee f3ba bd1b e23c
00000060: 35e0 a53f bf49 183d c6fa 5abc 0da2 37bc
00000070: b77b 203e 242d 0fbd 8c7e 64be 3163 1cbc
00000080: 9098 5fbd 57bd 91bc 4210 ab3c 6457 1abd
00000090: 3fc5 6439 43e9 71bb 816d 38bc f6d5 3abc
000000a0: 6b0f 3a3b 0085 863d e91e c33c b008 3a3b
000000b0: a57b 4c3b f8e7 df3d 3692 973d b199 e8b9
000000c0: ab50 e1ba 66d5 9c3d 3ec9 013e f889 ac3c
000000d0: 802d 4fbe 10f2 afbb e03a b53e 5b33 00be
000000e0: 3cf4 84bd fe37 c13d d3e9 f8bb b578 bebb
000000f0: 5bf7 9a3b d5f2 3abd 2868 823f 6450 3d3d
0.13611858 0.002207373 0.73056686 0.05773688 0.944652 -0.011146816 -0.03447793 0.0015452119
-0.01300435 -0.02108989 0.051737025 0.030804584 -0.18121804 -0.039073993 0.0013960137 0.104382925
0.95269334 -0.06451538 0.04751262 0.033478323 -0.05310688 -0.005103822 -0.0018610541 0.027601117
1.2959048 0.037179705 -0.013365453 -0.0112080695 0.15672193 -0.03495516 -0.22313899 -0.009545133
-0.054588854 -0.01779048 0.020881776 -0.037681 0.00021817254 -0.0036912716 -0.0112565765 -0.011403551
0.0028390537 0.065683365 0.02381845 0.0028386526 0.0031201628 0.109329164 0.074009344 -0.00044364997
-0.0017190179 0.0765789 0.12674424 0.021061882 -0.202322 -0.0053694323 0.3539648 -0.1251959
-0.064918965 0.09434508 -0.0075962334 -0.0058127292 0.004729194 -0.04564174 1.0188036 0.046219245

bn2.running_mean f4 [64]
00000000: 0038 ec40 c734 9141 87f7 1e43 382c e93e
00000010: 1e64 c142 d805 8a41 f288 5840 9e92 bd3b
00000020: a19c e23c 9e66 8141 722b 6e42 68ed b53d
00000030: 9459 f43d e014 5b3d a9e0 fc3e 01b6 b041
00000040: 50db 1443 26d1 543d decf 1b3d aceb 2842
00000050: 9287 b13c 9578 123a e957 7a3e ffa9 2d3e
00000060: f63b 7043 5d4b 613d 1e47 1641 d2d6 b03e
00000070: 4fde 4a40 1902 863f d71d ff41 63a9 853e
00000080: 1733 e740 a99a 583f 4983 6b3f 1981 f740
00000090: ffc4 753b a056 ac3e 7a81 033a e3d3 4840
000000a0: de9a 3c3c 1f15 0b41 ebbb 7140 c63f d23c
000000b0: ecd7 153f 78f7 e03f dfde 9c3f 99ff 6a3c
000000c0: aa41 5b3b 6f11 0e42 6320 8540 a3cf e33f
000000d0: 14db 4441 a87e 4341 6f29 1242 2483 c23e
000000e0: 2b71 613f b715 443f a0a0 df3b 97a6 e53c
000000f0: 369c 383e 5a30 bd40 25c6 3543 3e81 433d
7.381836 18.15077 158.9669 0.4554155 96.69554 17.252853 3.3833585 0.0057853004
0.027662577 16.175106 59.542427 0.08883172 0.11931148 0.053486705 0.49390152 22.08887
148.85669 0.051957272 0.038040034 42.23015 0.02167109 0.0005587426 0.24447598 0.1695938
240.23422 0.055003513 9.392363 0.34538895 3.1698186 1.046939 31.88957 0.26105794
7.2249866 0.8461099 0.919972 7.734509 0.0037501452 0.3365984 0.0005016547 3.1379325
0.011511533 8.6926565 3.7770946 0.025665175 0.58532596 1.7575521 1.2255515 0.014343166
0.0033455887 35.517025 4.1602035 1.7797741 12.303486 12.218422 36.540462 0.37990677
0.88063306 0.76595634 0.006824568 0.028033538 0.1802834 5.9121523 181.774 0.047730677

bn2.running_var f4 [64]
00000000: df48 8f45 c7c1 a845 df34 0e48 c0c0 2e44
00000010: f212 3647 3c32 8c45 7ce4 3345 72d6 1641
00000020: 11ad 8541 b703 6945 d710 fe46 e902 8842
00000030: 4be0 ee42 e407 0b42 ff6b a343 970e e245
00000040: a792 e047 ff95 0f42 2abd b241 3fb5 7c46
00000050: 7580 0641 1599 863e 5618 9643 ffe1 2443
00000060: 424a 6248 4d33 1742 c65d 8345 7965 ba43
00000070: 3b13 8244 a67b 0f43 f91e 2246 dfc6 ae43
00000080: 4db3 6544 17f6 0f45 443a ca44 699e b344
00000090: 8ac8 9040 fe82 8543 485e 293f 30f6 bf44
000000a0: 955d 4f40 086b ad45 b0e1 5844 f13e 4441
000000b0: 874c 9644 0459 b844 ca22 6845 f352 ac3f
000000c0: af28 6d40 f028 2946 ce1a 3f44 a8ee 8c43
000000d0: 1436 7445 7cab 6445 7454 6246 23f8 0044
000000e0: e06f 4544 82eb cf44 c08d 973e 0819 7741
000000f0: 79f8 0a43 d141 9c44 6c8e f347 ddb8 a441
4585.109 5400.222 145619.48 699.0117 46610.945 4486.2793 2878.2803 9.427355
16.709505 3728.2322 32520.42 68.005684 119.43807 34.757706 326.84372 7233.8237
114981.305 35.89648 22.342365 16173.312 8.406362 0.26288667 300.19012 164.8828
231721.03 37.8001 4203.7217 372.79276 1040.601 143.483 10375.743 349.55368
918.8016 2303.3806 1617.8208 1436.9503 4.52448 267.02338 0.66159487 1535.6934
3.2400868 5549.379 867.52637 12.265367 1202.3915 1474.7817 3714.1743 1.3462814
3.7056081 10826.234 764.4188 281.8645 3907.38 3658.7178 14485.113 515.87714
789.74805 1663.3596 0.29600334 15.443611 138.9706 1250.0568 124700.84 20.590265

conv1.mlp.0.weight f4 [64, 18]
00000000: 2dd1 2140 95e7 0840 fb78 ae3f 4f42 9f3e
00000010: ed02 d93e 3092 e7c0 2fb8 fb40 76b3 fec0
00000020: ed34 2ac1 95f2 0440 7f9d 113f b54f 28c0
00000030: 2cfd bb3f c8de 6bbf 0a18 0bc0 38f5 8c40
00000040: 6657 59c0 8af0 a8bf 05a5 d83f f190 9dbf
00000050: b5cb 55c0 4e50 8540 0a94 b5c0 402e 7ebf
00000060: af51 f0c0 8f74 783e 35c3 653f 3eba 90bf
00000070: b7be 0dbf d33b 0141 ea32 23c1 ad53 d4bf
00000080: 38ae 68bf 35f9 9bc0 3ea6 8240 cebb 0240
00000090: 9426 6fc0 6a13 0940 3f78 89bf e566 2c40
000000a0: 0333 36bf 401b eec0 03aa 64bf fb37 8a3f
000000b0: 519f 0540 9640 0a41 5c09 83bf 60cf b4bf
000000c0: 5483 cd3f 472c 3e40 f0da c540 180d d2c0
000000d0: d1bc 0241 c985 8e40 e95a 5ec1 3c7f 3bbe
000000e0: 3aaa af3f 19b0 403e b47b d9be 0379 f8be
000000f0: a806 cac0 c9b4 8140 4ed7 b840 4394 053f
00000100: d702 a73f 593b a03d 9e01 8a3f 1a51 0540
00000110: 1c0a 9fc0 4b7e 9b3f 9b5c 0cc1 b46d 50bf
00000120: 3d8a c8c0 e07d 5dc0 8780 4b3f 85a0 04bf
00000130: d085 3d40 2c9d 72c0 1ff6 67c1 0068 0340
00000140: b49c 4640 2470 b040 a6c4 a33f cbe9 1140
00000150: 5c2e 94bf 0b38 2240 d270 41bf a37b 7940
00000160: 62bf a23f 2ae3 babf c944 4e40 8bd2 4440
00000170: e752 28c0 6b83 ff3e e749 d53f 3c5b 743f
00000180: 12ac db40 e82f f8c0 e402 6540 086c 24bf
00000190: a791 4cbe fa71 0d40 cbf0 953f 1e43 7340
000001a0: d65e a740 b2a9 c83f e96f 5140 a464 34c1
000001b0: 9b60 053f 3740 843f 95e3 503f 97af 0bbf
000001c0: 2415 f03e ac83 31c1 d28f 7ac0 9c60 74c0
000001d0: fdb3 9bc0 5ebf 29c0 6bbd 4740 51e6 bcbf
000001e0: 4169 a33f c732 c03f af13 2a3e dd9d 0ec1
000001f0: be2a c540 1d82 a43f 53fc c2c0 74e0 85c0
00000200: 3cea 0d40 f13c 4dbf bd7f 763f 2609 79bf
00000210: b87b 81bf 8e5e d9bf 87db 0940 cf61 8ac0
00000220: aac5 0abf 8242 73c0 af69 6c41 b3bc e63e
00000230: 0ac2 4f40 4f33 3140 ae5d ce40 2ccf 3040
00000240: 4545 bdc0 72b9 52be c4d9 13c0 2679 4441
00000250: 385a d13e f7bc e1c0 2f88 5c3f 59cb bcc0
00000260: 6597 7e40 2803 a2bf a84e 5cc0 e628 8340
00000270: 8470 21c1 67bb 203f 8ca3 b63f 96ae 58c0
00000280: b99c 3140 9047 79bf 736d fac0 cce0 a9bf
00000290: fea0 fa3f ae07 1a40 eb53 b03f dd56 8dc0
000002a0: a0c1 0bbe ad4d 5ebe 0a65 15c0 8cb8 7fc0
000002b0: f86b 06c0 5a9d 283f 8e41 80c1 a511 9bc0
000002c0: e696 903f 5966 0740 bbcf 6140 5d0d a23d
000002d0: c5c6 3cbe f50d 213f 02f6 543f eb2a b240
000002e0: 1259 15bf 1cc3 3fc1 c491 edc0 2332 78c0
000002f0: 9df2 5fc0 ef13 37c0 e39a e640 59a3 a3c0
00000300: 92e3 bcc0 18e1 1240 7e76 9e40 c548 8c40
00000310: 7963 f53f a16d c73e d319 953d c1d6 87c0
00000320: 6437 3e3d ea5d 07bf f1ab 0a3f fd42 83c1
00000330: 44a5 3ec0 22de 3340 1b49 ce40 7a17 3b3f
00000340: 9d57 7a41 821b 9cc0 9f2b 7f3f 8fd0 ea3f
00000350: 7fc8 a5bf 32be a2c0 2dc8 cb3f 621a 6fbf
00000360: c40b 83c1 7e0d 0740 187c e0bf 4436 0b40
00000370: 7844 47c0 c891 7a40 4a78 b940 b166 7cc0
00000380: 7e1f 1f40 aaff 8c3f 4929 2b3f 79d6 21c0
00000390: 0d43 7c40 cda6 01c0 dea1 6e3d bd64 58c0
000003a0: bf96 9d3f 3003 a93e 7d9b 823f 7b27 5dbf
000003b0: 8681 df40 8d91 93bf 684d d13f 8873 54c1
000003c0: c2c0 9ec0 fa8e b8be 5f97 d73f 2778 ba3f
000003d0: eb90 0fbf 0bef 8fc1 8101 2d40 e7fb a93f
000003e0: 64fc 8f3f 7ff9 f2c0 d030 88bf b3db 7ac0
000003f0: 3d72 3bc1 63d8 cd40 5ffe 7ac0 fed4 69bf
2.528392 2.1391346 1.363067 0.31105277 0.42385045 -7.236595 7.8662333 -7.959407
-10.637921 2.077306 0.56880945 -2.629865 1.4686637 -0.9213681 -2.1733422 4.404934
-3.3959594 -1.3198407 1.692536 -1.2309858 -3.3405583 4.166053 -5.674321 -0.9928932
-7.509971 0.24263214 0.8975099 -1.1306837 -0.5536913 8.0771055 -10.19993 -1.6588036
-0.90890837 -4.874171 4.082793 2.0427127 -3.7367296 2.14181 -1.0739821 2.6937802
-0.7117159 -7.4408264 -0.8932192 1.0798334 2.087849 8.640768 -1.0237231 -1.4125786
1.6055703 2.9714525 6.182976 -6.5640984 8.171098 4.453831 -13.897195 -0.18310255
1.3723824 0.18817176 -0.4247719 -0.48529825 -6.3133125 4.0533185 5.7762823 0.52179354
1.3047742 0.0782382 1.0781744 2.083075 -4.969984 1.2147917 -8.772609 -0.81417394
-6.266875 -3.4608078 0.7949299 -0.51807433 2.9612923 -3.790843 -14.497588 2.0532227
3.1033144 5.513689 1.2794387 2.2798946 -1.1576648 2.5346706 -0.75562775 3.8981712
1.2714655 -1.4600575 3.2229483 3.0753505 -2.63006 0.4990495 1.6663178 0.9545171
6.8647547 -7.755848 3.5783014 -0.6422734 -0.19977437 2.2100816 1.1714109 3.8009715
5.2303267 1.5676787 3.2724555 -11.27457 0.52100533 1.0332097 0.8159726 -0.54564804
0.4689113 -11.094646 -3.915028 -3.8183966 -4.865721 -2.6523051 3.1209362 -1.4757787
1.2766496 1.5015496 0.16609071 -8.913541 6.1614676 1.2852207 -6.0933013 -4.183649
2.2174215 -0.80171114 0.96288663 -0.97279584 -1.0115881 -1.6981981 2.154024 -4.3244395
-0.5420786 -3.8009343 14.775802 0.4506584 3.2462182 2.7687566 6.4489355 2.7626448
-5.9147058 -0.20578554 -2.3101664 12.279577 0.40889144 -7.054317 0.861453 -5.8998227
3.9779904 -1.2657213 -3.4423008 4.0987425 -10.08997 0.62785953 1.426866 -3.3856559
2.7751906 -0.9737482 -7.8258605 -1.3271728 1.9580381 2.4067187 1.377561 -4.4168534
-0.13648081 -0.21709318 -2.334292 -3.9956388 -2.10034 0.658651 -16.03201 -4.845904
1.129605 2.1156218 3.5283039 0.07912705 -0.184352 0.6291192 0.8318788 5.567739
-0.58339036 -11.985134 -7.4240437 -3.87806 -3.499183 -2.8605917 7.206407 -5.11369
-5.9027796 2.2949886 4.9519644 4.383883 1.9170982 0.38950828 0.07280316 -4.244965
0.046439543 -0.52877676 0.5416861 -16.40771 -2.978837 2.810433 6.446424 0.730827
15.64639 -4.878358 0.99675936 1.8344897 -1.2951812 -5.085717 1.5920464 -0.9339963
-16.380745 2.1101985 -1.753787 2.175187 -3.113554 3.9151478 5.7959337 -3.9437678
2.4862971 1.1015522 0.6685987 -2.5287154 3.9415925 -2.0258057 0.058259837 -3.3811486
1.2311629 0.33010244 1.0203701 -0.8638837 6.984561 -1.1528794 1.6351748 -13.278206
-4.96103 -0.36046582 1.684307 1.4567918 -0.560805 -17.99172 2.7032168 1.328
1.1248899 -7.592956 -1.0639896 -3.9196594 -11.71539 6.4326644 -3.9217756 -0.91340625

conv1.mlp.0.bias f4 [64]
00000000: 0b09 07c1 6816 5fbd 65dc e73e a28b 8ebf
00000010: 9de6 4540 6317 c0c0 a606 97c0 7313 c540
00000020: df31 fdbf 8429 3e40 b0c3 96c0 d2ca 1740
00000030: 5cc6 22c0 1e91 a9be 5367 acc0 c7d1 91c0
00000040: 4da6 99c0 0ab4 17c0 23d6 20c1 3280 d9c0
00000050: 9346 0fc1 6d15 87c0 6a1b 31c1 cfad efc0
00000060: 51b3 94c0 565f cbc0 df03 2ebf 5430 1d40
00000070: f8b2 3ac0 458d c4bf 294b 04c0 67a9 51c0
00000080: 0b42 c4c0 a6c7 a340 33a5 18c1 07e9 35c0
00000090: f579 05c1 5404 63c0 9a89 b840 cb78 7f40
000000a0: 8fbd 19c0 6b34 ecc0 5b5e 2a40 1edc ea3c
000000b0: 8a87 5bc0 ac32 0fc1 4989 d9c0 831d 97c0
000000c0: 7133 1c40 fa7d 3ac0 7366 66c0 ea9b bebf
000000d0: 2960 1abf 541f 09c1 8657 da40 bed6 1bc1
000000e0: ace9 adc0 8e97 85be fced afc0 61c3 dfc0
000000f0: 9cec 09c0 a12f 18c1 7b64 65c0 e2d0 9fc0
-8.439708 -0.054464728 0.45285335 -1.1136363 3.0922005 -6.002855 -4.7195616 6.158624
-1.9780844 2.971284 -4.7113876 2.3717542 -2.543357 -0.33118528 -5.387613 -4.5568576
-4.8015504 -2.3703637 -10.052279 -6.796899 -8.95473 -4.2213655 -11.069193 -7.489967
-4.646889 -6.3553877 -0.67974657 2.4560747 -2.9171734 -1.5355612 -2.0670874 -3.2759645
-6.133062 5.118121 -9.540332 -2.8423479 -8.342275 -3.5471392 5.766797 3.9917476
-2.4021947 -7.3813987 2.662009 0.028669413 -3.4301476 -8.949871 -6.7980084 -4.7223525
2.4406397 -2.913939 -3.600003 -1.4891331 -0.6030298 -8.570148 6.823184 -9.739927
-5.4347744 -0.2609219 -5.497801 -6.9926 -2.1550665 -9.511628 -3.5842578 -4.9942484

conv1.mlp.2.weight f4 [64]
00000000: eb56 ecbf fc23 aac0 2e93 fd40 a9e1 a840
00000010: 76f9 9140 7621 8cc0 95e3 ef40 d3f5 2941
00000020: 3471 1741 dde4 4c41 1b74 d040 cca2 0b41
00000030: 4228 3540 fcd9 0041 4f41 7940 e336 9440
00000040: 3473 f440 e559 7740 e3ac b640 8c4f 5840
00000050: 3c72 a340 8d20 0141 de8e 7d40 8fbc 9a40
00000060: 1dcb 6a40 8145 1941 b0ec 3341 b448 f540
00000070: e8c6 2741 1789 e340 012d 3440 ba85 0541
00000080: 7dd9 a440 2abe d240 11ef e940 70ca 8c40
00000090: 2399 5240 cd2d 0e41 3acc 8940 073f be40
000000a0: 61ba c040 e5df b740 04b5 b740 95cb cf40
000000b0: 5db8 cc40 7bd4 1e40 7d23 6e40 e817 6bc0
000000c0: cff1 f9c0 2559 2f41 f58a fec0 7cc9 0b41
000000d0: 2e2e 88c0 5001 f140 bc3d a6c0 1688 adc0
000000e0: 288a ff40 558f ec40 4087 1240 b32b ec40
000000f0: c03f f4be 17d8 dfc0 9f08 4840 ab07 d540
-1.8464025 -5.3168926 7.9242163 5.2775464 4.561702 -4.3790846 7.496531 10.622516
9.4651375 12.805875 6.514173 8.727245 2.8305821 8.053219 3.8946111 4.6317
7.639063 3.8648617 5.7086043 3.3798552 5.1076946 8.070447 3.961845 4.8355174
3.668647 9.579469 11.245285 7.665125 10.486061 7.1104846 2.8152468 8.345148
5.151549 6.5857134 7.310433 4.3997116 3.2905967 8.886182 4.30618 5.945194
6.0227513 5.746081 5.7408466 6.4936013 6.3975053 2.4817188 3.720916 -3.6733341
-7.8107677 10.959264 -7.9544625 8.7366905 -4.255637 7.53141 -5.195036 -5.422862
7.985615 7.3924966 2.289505 7.3803344 -0.47704887 -6.995128 3.1255262 6.657186

conv1.mlp.2.bias f4 [64]
00000000: e7c9 ad40 a322 64c0 ee49 b53f 1211 27c0
00000010: 455a 893e c9ff d13f 578b 433f fcf9 8d40
00000020: 08c2 1040 1ce6 6240 9519 3d40 2461 2140
00000030: 3af8 fdbf 7692 4040 8884 bbbe e838 af3f
00000040: fa9a 1540 82a1 d3c0 4b3b d93d 8f7f 53be
00000050: ba2f e2be 9ad6 333e 09ed ec3f dac4 5540
00000060: 83be 4fbd 04b5 5bbf 2a83 4240 b98c 1840
00000070: e5d6 2940 1d4a 1640 ba5d f6c0 bf06 da3f
00000080: df6c 67be 82e9 8840 659a 2e40 4f80 bbbf
00000090: 4d96 ca3f e2d4 c73f 7aa8 fdbe fb48 65bf
000000a0: 50c0 e7be c3aa c83e e56b f23f ab2f a7be
000000b0: 6316 7440 3312 40c0 7b83 1fbf 3198 c2be
000000c0: d2a1 2ec0 702e e23f c2c5 59bf 7ac3 5940
000000d0: b559 0f3f 3b37 4a40 e13c 37c0 a55e d1bf
000000e0: 47ff 0040 82f5 8d3f 29bd d4c0 9915 1040
000000f0: 53e1 8d3f 9a83 5f3d 1b1d b7bf d981 4cbf
5.4308963 -3.564614 1.4163187 -2.610417 0.26826683 1.6406184 0.7638449 4.4367657
2.2618427 3.5452948 2.9546864 2.521554 -1.9841378 3.0089393 -0.3662455 1.3689241
2.337584 -6.6134653 0.10607012 -0.20654128 -0.44177037 0.17562333 1.8509837 3.3401399
-0.050718796 -0.8582308 3.0392556 2.383589 2.6537411 2.3482735 -7.698941 1.7033309
-0.22600125 4.2785044 2.7281735 -1.4648532 1.5827118 1.5611842 -0.495426 -0.89564484
-0.4526391 0.3919278 1.8939177 -0.32653555 3.8138664 -3.0011108 -0.6231 -0.38006738
-2.7286267 1.7670422 -0.8506738 3.402556 0.5599626 3.159621 -2.8630908 -1.6357008
2.015581 1.1090548 -6.648091 2.2513182 1.1084388 0.054568864 -1.4305757 -0.7988563

conv1.mlp.2.running_mean f4 [64]
00000000: 7d32 c83f b80e 7042 9b9f 0e42 5068 a141
00000010: cd3f 6e42 4a1d d141 1d44 8041 dcd7 8f41
00000020: d2c9 3d41 9343 c440 c9b4 4b41 1d31 7841
00000030: 865f 4f40 e988 bf41 2af8 6514 6a66 3041
00000040: 47d2 3742 b504 1342 5246 293c 76bf 8f06
00000050: 8dff bd41 4a5a 1542 16d3 1c07 409e 0842
00000060: fbee c941 f250 3341 1a04 0542 345a e841
00000070: fadb 4241 ffbf 3f42 329a 9641 1ad7 9442
00000080: dc25 e541 6e4d 7742 199f 8441 4e88 8d41
00000090: 05ef 4e3c 7b35 3142 6365 8241 b48c bd40
000000a0: 20f7 b240 9882 0241 ede9 a942 429c d43f
000000b0: 158f 7c42 5726 5f40 a8c1 9540 a979 ed3b
000000c0: 5abc ae41 3db7 9141 994d 7640 8de8 1142
000000d0: 152c f83e 0e02 f741 4561 8442 b802 3341
000000e0: e852 5f41 2f3b b240 4b2f a540 c6eb 9041
000000f0: 730f 7e41 98c9 1442 6aa7 5a41 9231 0242
1.5640408 60.014374 35.655865 20.175934 59.562305 26.139301 16.033258 17.9804
11.861773 6.133249 12.731637 15.511991 3.2402053 23.94185 1.1610487e-26 11.025003
45.95535 36.754597 0.010331707 5.407195e-35 23.74978 37.338173 1.1798168e-34 34.15454
25.24169 11.207262 33.254005 29.044044 12.178705 47.937496 18.82529 74.42012
28.643486 61.825615 16.577684 17.691555 0.012630229 44.302227 16.299505 5.9234257
5.5926666 8.156883 84.95689 1.6610186 63.13973 3.486715 4.6798897 0.007247169
21.841969 18.214472 3.8484862 36.4771 0.48471132 30.876003 66.18998 11.188164
13.957741 5.5697246 5.162023 18.115124 15.878772 37.19687 13.665873 32.54841

conv1.mlp.2.running_var f4 [64]
00000000: 8767 a042 e437 a945 47d9 9c45 16a8 9c44
00000010: 8c84 b945 7e56 ba44 3195 a044 2f6a 9544
00000020: d0ae 5f44 bdf9 9e43 ea5d 8c44 e186 4844
00000030: 7a96 6243 36fc e144 762a 0316 30ec 7e44
00000040: 41a1 e545 a720 8a45 66c4 ef3e 874d ed07
00000050: 5506 af44 a99b af45 79d4 cd08 2372 2b45
00000060: 949b 4045 08b5 7c44 9283 7f45 ce4a 6345
00000070: 1a41 6b44 af63 8545 879f 9644 a1ff c645
00000080: 9fcc 5445 5f52 bf45 dc61 8a44 4313 d444
00000090: 1690 833e f887 8c45 4d37 e044 43f7 d043
000000a0: 9df1 6243 769b 0e44 3852 b145 4cd5 c042
000000b0: 04ae d945 15f6 4643 adda 9143 b16c c43d
000000c0: 44ca e344 8c96 cd44 d093 8243 faf7 6045
000000d0: e685 8541 7ee6 1d45 1a1d be45 192e 5444
000000e0: 05d8 a944 fcf5 b943 9476 c743 2e4d ac44
000000f0: 05aa 9244 38ae 2e45 4438 b044 4cfb 5645
80.2022 5414.9863 5019.1597 1253.2527 5936.5684 1490.7029 1284.6622 1195.3182
894.73145 317.95108 1122.9348 802.1075 226.5878 1807.8816 1.0595494e-25 1019.6904
7348.1567 4420.0815 0.46829528 3.5705363e-34 1400.1979 5619.4575 1.2387941e-33 2743.1335
3081.7236 1010.8286 4088.2231 3636.6753 941.0172 4268.4604 1204.9852 6367.9536
3404.7888 6122.2964 1107.0581 1696.6019 0.25695866 4496.996 1793.7281 417.93173
226.9438 570.4291 5674.2773 96.416595 6965.752 198.96126 291.7084 0.09591044
1822.3208 1644.7046 261.1548 3599.4985 16.69038 2526.4058 6083.6377 848.7203
1358.7506 371.92175 398.9264 1378.4119 1173.3131 2794.8887 1409.7583 3439.706
