DenseNeuralNet/Skim3Mu/MHc-130_MA-90_vs_nonprompt/models/SNN-nNodes64_AdamW_initLR-0p002_CyclicLR.pt (torch, 84914 bytes, 16 tensors)

bn.weight f4 [47]
00000000: 0000 803f 0000 803f 0000 803f 0000 803f
00000010: 0000 803f 0000 803f 0000 803f 0000 803f
00000020: 0000 803f 0000 803f 0000 803f 0000 803f
00000030: 0000 803f 0000 803f 0000 803f 0000 803f
00000040: 0000 803f 0000 803f 0000 803f 0000 803f
00000050: 0000 803f 0000 803f 0000 803f 0000 803f
00000060: 0000 803f 0000 803f 0000 803f 0000 803f
00000070: 0000 803f 0000 803f 0000 803f 0000 803f
00000080: 0000 803f 0000 803f 0000 803f 0000 803f
00000090: 0000 803f 0000 803f 0000 803f 0000 803f
000000a0: 0000 803f 0000 803f 0000 803f 0000 803f
000000b0: 0000 803f 0000 803f 0000 803f
1.0 1.0 1.0 1.0 1.0 1.0 1.0 1.0
1.0 1.0 1.0 1.0 1.0 1.0 1.0 1.0
1.0 1.0 1.0 1.0 1.0 1.0 1.0 1.0
1.0 1.0 1.0 1.0 1.0 1.0 1.0 1.0
1.0 1.0 1.0 1.0 1.0 1.0 1.0 1.0
1.0 1.0 1.0 1.0 1.0 1.0 1.0

bn.bias f4 [47]
00000000: 0000 0000 0000 0000 0000 0000 0000 0000
00000010: 0000 0000 0000 0000 0000 0000 0000 0000
00000020: 0000 0000 0000 0000 0000 0000 0000 0000
00000030: 0000 0000 0000 0000 0000 0000 0000 0000
00000040: 0000 0000 0000 0000 0000 0000 0000 0000
00000050: 0000 0000 0000 0000 0000 0000 0000 0000
00000060: 0000 0000 0000 0000 0000 0000 0000 0000
00000070: 0000 0000 0000 0000 0000 0000 0000 0000
00000080: 0000 0000 0000 0000 0000 0000 0000 0000
00000090: 0000 0000 0000 0000 0000 0000 0000 0000
000000a0: 0000 0000 0000 0000 0000 0000 0000 0000
000000b0: 0000 0000 0000 0000 0000 0000
0.0 0.0 0.0 0.0 0.0 0.0 0.0 0.0
0.0 0.0 0.0 0.0 0.0 0.0 0.0 0.0
0.0 0.0 0.0 0.0 0.0 0.0 0.0 0.0
0.0 0.0 0.0 0.0 0.0 0.0 0.0 0.0
0.0 0.0 0.0 0.0 0.0 0.0 0.0 0.0
0.0 0.0 0.0 0.0 0.0 0.0 0.0

bn.running_mean f4 [47]
00000000: 0000 0000 0000 0000 0000 0000 0000 0000
00000010: 0000 0000 0000 0000 0000 0000 0000 0000
00000020: 0000 0000 0000 0000 0000 0000 0000 0000
00000030: 0000 0000 0000 0000 0000 0000 0000 0000
00000040: 0000 0000 0000 0000 0000 0000 0000 0000
00000050: 0000 0000 0000 0000 0000 0000 0000 0000
00000060: 0000 0000 0000 0000 0000 0000 0000 0000
00000070: 0000 0000 0000 0000 0000 0000 0000 0000
00000080: 0000 0000 0000 0000 0000 0000 0000 0000
00000090: 0000 0000 0000 0000 0000 0000 0000 0000
000000a0: 0000 0000 0000 0000 0000 0000 0000 0000
000000b0: 0000 0000 0000 0000 0000 0000
0.0 0.0 0.0 0.0 0.0 0.0 0.0 0.0
0.0 0.0 0.0 0.0 0.0 0.0 0.0 0.0
0.0 0.0 0.0 0.0 0.0 0.0 0.0 0.0
0.0 0.0 0.0 0.0 0.0 0.0 0.0 0.0
0.0 0.0 0.0 0.0 0.0 0.0 0.0 0.0
0.0 0.0 0.0 0.0 0.0 0.0 0.0

bn.running_var f4 [47]
00000000: 0000 803f 0000 803f 0000 803f 0000 803f
00000010: 0000 803f 0000 803f 0000 803f 0000 803f
00000020: 0000 803f 0000 803f 0000 803f 0000 803f
00000030: 0000 803f 0000 803f 0000 803f 0000 803f
00000040: 0000 803f 0000 803f 0000 803f 0000 803f
00000050: 0000 803f 0000 803f 0000 803f 0000 803f
00000060: 0000 803f 0000 803f 0000 803f 0000 803f
00000070: 0000 803f 0000 803f 0000 803f 0000 803f
00000080: 0000 803f 0000 803f 0000 803f 0000 803f
00000090: 0000 803f 0000 803f 0000 803f 0000 803f
000000a0: 0000 803f 0000 803f 0000 803f 0000 803f
000000b0: 0000 803f 0000 803f 0000 803f
1.0 1.0 1.0 1.0 1.0 1.0 1.0 1.0
1.0 1.0 1.0 1.0 1.0 1.0 1.0 1.0
1.0 1.0 1.0 1.0 1.0 1.0 1.0 1.0
1.0 1.0 1.0 1.0 1.0 1.0 1.0 1.0
1.0 1.0 1.0 1.0 1.0 1.0 1.0 1.0
1.0 1.0 1.0 1.0 1.0 1.0 1.0

dense1.weight f4 [64, 47]
00000000: fb20 efbc 5410 b33c 38d4 9f3b db65 a83c
00000010: 8805 cb3e ca7c 8d3c 3f64 23bd 1fac 24bd
00000020: 19d9 55bb 86d6 38be 1f0e e6bc f3f8 673b
00000030: 84dc 70bd dacc 503c bc43 40bf 01fc 183d
00000040: 13b4 c73e 5f7f fe3e 9fa6 8f3b dc84 d33f
00000050: 1992 f63f 6dd1 34bd bb6c fe3d e921 873e
00000060: 21b4 b73c c4be f33e 5ce4 63c0 d3ce 453f
00000070: 73a4 ae3f 73aa b23f 2070 6c3f c3d2 1e3f
00000080: 1cd7 483f 6ff3 fc3f a4d1 a33f a55f 883f
00000090: 939f ee3e 1c4e e9be 7904 e6bc b686 603d
000000a0: 1ee1 833c 0c42 90bd edc4 d3bc fbf4 ecbe
000000b0: 0b17 83c0 a580 323f 0ee9 28c0 24bc 2fbe
000000c0: 7621 5ebd d8ac 983c e0aa 173e 4395 da3e
000000d0: 9353 8dbc 83f5 6ebd 3aa6 883c 9519 9f3d
000000e0: 968a cc3e 279b 163e 00b1 e0bd 39eb f4bd
000000f0: 961e 453e 8d85 78bf cb88 17be 38bd 483d
00000100: 0f07 fb3e 4bf5 c6bd 364e 813f 924d de3f
00000110: 7bfd bdbe 4247 b0bc 89fc bebd e799 d9be
00000120: acc5 263f 9096 18c0 98a2 953f a69b c83f
00000130: b61e 9a3f 279f 6f3f 9f62 013f 8e36 423f
00000140: e0a9 993f f547 6c3f 8702 673f e4ad b63e
00000150: f6bc 91be 9ef0 033a ca37 053e 4a05 5fbd
00000160: cc1a 9dbc 7ccd 543d 3bfd efbd 8eb8 67c0
00000170: f856 b53e 2bbf 03c0 d658 f7bd a75e 7abd
00000180: 0a7a 4ebc 54e7 03bc c59e 023f e595 a2be
00000190: 6580 70bd b923 d7bb f7bd e43b af8c e1be
000001a0: ec4c 663d 0824 943d 7c8f aebe b91d 1dbd
000001b0: 4335 c2be e2ec dd3c 9bc5 093e 65c6 a1be
000001c0: 337a 02bd 3fc2 bf3d 20f0 c83f 0a83 c13d
000001d0: 56d2 02be df42 08be 154b 963c a52c 94be
000001e0: ed50 a33d 0926 333c c374 3f3f 3d17 803f
000001f0: 77d4 bb3d b78f 66be 6586 11bf e1ac 7b3f
00000200: 350b 9fbd 1f15 38bf d3b4 873d 0dd4 a23d
00000210: adb5 11bf 8447 e6bd f248 0d3e 0ec3 123e
00000220: 84c9 9e3e d23f aebf 272f a1c0 aab7 5b3f
00000230: 7233 43c0 15a7 803c 5bbe 52bd 4be9 63bd
00000240: 40c7 a83c 3119 7cbd d5d4 a93d 289f 73bd
00000250: 59cd b2bd 168a dbbb 8724 83be 02e5 dd3d
00000260: 1775 6cbe f65e 7dbe 794b 91bc 5514 913e
00000270: b560 61be 573b bbbc 357b 2bbd 1e6f 3a3e
00000280: 39a1 163e 9da4 eabf 014d b2bd a7f1 77bc
00000290: f952 32bc 2cf3 943d cbb1 c5be 345f 0040
000002a0: b752 3abf ec7e 22c0 ed48 f3bf 3689 ed3d
000002b0: b2a2 6d3e 4654 2cbe 1d6c 6ebf 66d3 fbbd
000002c0: fd5a c5bd 4636 afbe 75d9 753e dacc 813c
000002d0: 44de b1bd 406a abbd a088 c13c c8dc 8dbe
000002e0: de15 913f 00dc e440 e941 48bf 37f6 9a40
000002f0: 4f69 f0bd f1e8 bdbb d21f 82bd d64d 893b
00000300: 37b2 563f 2cf1 92bb 7441 803d 4ecd ce3a
00000310: 3211 fe3c ca90 7c3d 18c5 a73d ce33 963c
00000320: 76bf a53c 61c4 8abb bb9f e3be e898 41bd
00000330: 5d53 1fbf 8bf4 b4be 8679 15bd bef4 113f
00000340: cd94 f93f 26f3 1c3e c9ae e5bd 734b f1bc
00000350: 2626 143d 7611 e13e d6e1 62c0 f17a 1d3f
00000360: 0bba 943f d37c 623f 0ac0 623f 1864 4a3e
00000370: 8826 143f 7db8 ed3f 64db 3b3f f661 823e
00000380: 75b2 843e 3008 c7be 7004 ebbd 5b12 eb3d
00000390: 75fc c93c b307 af3c fe29 b1bd 6b1b 37bf
000003a0: b9a1 75c0 fabc 3c3f 6c7a 26c0 6df1 26be
000003b0: 2d81 1abc ef28 003e acb8 e03d f133 8ebe
000003c0: f321 febd a445 58bc df32 8fbe 89e4 99bc
000003d0: fb8c 4ebc 1b3e a3be 5ae3 163e 2712 5d3d
000003e0: 7ba6 c4bd 6432 373b 804c 6bbd b78f ad3e
000003f0: c61c e83d 75a9 debd 2bac bc3e 12f9 0cbe
-0.029190531 0.021858372 0.0048775934 0.020556381 0.39652658 0.017271418 -0.039890524 -0.04020321
-0.003263062 -0.18050584 -0.028082905 0.0035396188 -0.05880405 0.012744153 -0.75103354 0.037349705
0.39004573 0.4970655 0.0043838765 1.652492 1.9263335 -0.044145036 0.124230824 0.2639306
0.02242476 0.4760648 -3.560813 0.77268714 1.3643936 1.3958267 0.9235859 0.62040347
0.7845323 1.976179 1.2798352 1.0654188 0.4660612 -0.45567405 -0.028078305 0.05481597
0.016098555 -0.070438474 -0.025850737 -0.46280655 -4.096563 0.69727546 -2.6392245 -0.17161614
-0.05423113 0.018637106 0.14811277 0.42692003 -0.017251765 -0.058339607 0.016680826 0.07768551
0.39949483 0.14707623 -0.1097126 -0.11958928 0.19249949 -0.9707878 -0.14798276 0.049008578
0.49028823 -0.09714755 1.0101993 1.7367423 -0.37107453 -0.021518353 -0.09325511 -0.4250023
0.65145373 -2.3841896 1.1690245 1.56725 1.2040622 0.9360222 0.5054111 0.75864494
1.2004967 0.922973 0.9023823 0.35679543 -0.28464478 0.0005033108 0.13009563 -0.054448403
-0.019177817 0.051953778 -0.11718222 -3.6206393 0.35417914 -2.058543 -0.12077491 -0.061125424
-0.012602339 -0.008050758 0.51023513 -0.31754985 -0.058716197 -0.006565538 0.0069806534 -0.44052646
0.056225702 0.07233435 -0.34093845 -0.038358424 -0.3793126 0.027090494 0.13454287 -0.31596676
-0.03185482 0.093632214 1.569828 0.09448822 -0.1277555 -0.1330676 0.018346349 -0.2894031
0.0797442 0.010934361 0.7478754 1.0007092 0.09171384 -0.2251576 -0.56845695 0.9831067
-0.077658094 -0.7190723 0.06626286 0.07950602 -0.5691784 -0.11244109 0.13797358 0.1433222
0.3101312 -1.3613226 -5.037006 0.85827124 -3.050015 0.01570467 -0.05145107 -0.055642407
0.020602822 -0.061547462 0.082925476 -0.059477955 -0.08730573 -0.0066998107 -0.25613806 0.108346954
-0.23091541 -0.24743256 -0.017736183 0.28335825 -0.22009547 -0.022855444 -0.041865546 0.1820645
0.14709939 -1.8331486 -0.087060936 -0.015133298 -0.01088404 0.07272944 -0.38612208 2.0058107
-0.7278246 -2.5389967 -1.900663 0.115984365 0.23206595 -0.16829023 -0.9313372 -0.122961804
-0.09636495 -0.34221095 0.24008735 0.015844751 -0.08684972 -0.08369875 0.023624718 -0.27707505
1.1334798 7.1518555 -0.7822557 4.8425555 -0.11738836 -0.005795591 -0.063537255 0.004190187
0.83865684 -0.0044843163 0.06262484 0.0015777738 0.031014059 0.06166152 0.081918895 0.01833525
0.020232897 -0.004234836 -0.44457802 -0.047264963 -0.6223658 -0.3534282 -0.036492847 0.5701407
1.9498535 0.15327129 -0.11214978 -0.029454922 0.036169194 0.43958634 -3.545034 0.6151572
1.1619276 0.88471717 0.8857428 0.19764745 0.57871294 1.8571926 0.7338164 0.25465363
0.25917402 -0.38873434 -0.11475456 0.114781104 0.024656514 0.021365976 -0.086505875 -0.7152621
-3.8379958 0.73725855 -2.601222 -0.16303034 -0.009430212 0.12515615 0.10972723 -0.27774003
-0.12408819 -0.013200197 -0.279685 -0.018785732 -0.012606855 -0.3188332 0.14735165 0.05397239
-0.09602066 0.002795362 -0.057446003 0.33898708 0.11333613 -0.10872165 0.36850104 -0.13766888

dense1.bias f4 [64]
00000000: 85aa f23e b24d 243f 7845 523e 7b7d 193d
00000010: 6060 e23e 4076 5cbe f786 5a3d 73fa 3f3f
00000020: 2b15 f9ba ecb3 133e 7a2a 1fbf 5cda cebc
00000030: 2dd1 d0be f0e5 3fbd 9bd7 423e 6ac9 fcbe
00000040: e250 20be b5b4 06be a728 edbe d7be 393f
00000050: d787 d33e bcdb 9ebe 465e 6e3d b862 f4be
00000060: d30c 663f d578 ff3e 30f6 d1bd 3318 e63d
00000070: 52bd 2fbf c0a5 d83e 5c66 87be a5a0 d73d
00000080: c617 bb3c 8ba1 d5be b67b 333f 474f 39bf
00000090: dd26 17bf 1c77 243d 4874 2f3e 57f1 22bf
000000a0: b39f 6e3f d2d9 86bf beab c53e 9ec7 e1be
000000b0: 9a98 103f 338e df3e bfd3 58be c332 80be
000000c0: 8dd8 833e 54f2 223d 1ce4 b0be 6224 46bf
000000d0: b363 0dbf 127f 8f3e 9cc5 173f 9c47 2d3f
000000e0: 05f7 05bf 71da ae3e af2a 383f 2549 b43e
000000f0: ac8c 2b3f 4a22 9d3e 8165 ebb8 7cf3 b73e
0.4739572 0.64181054 0.20534313 0.037473183 0.44214153 -0.21529484 0.05335137 0.7499153
-0.0019003501 0.14424103 -0.6217419 -0.025250606 -0.40784588 -0.046850145 0.1902756 -0.49372417
-0.15655854 -0.13154872 -0.46320078 0.72556823 0.41314575 -0.3102702 0.058195375 -0.47731566
0.8986332 0.49896875 -0.10252035 0.112350844 -0.68648255 0.42313957 -0.26445282 0.105286874
0.022838484 -0.4172481 0.7011064 -0.7238659 -0.59043676 0.040152654 0.17134202 -0.63649505
0.9321243 -1.0535223 0.3860759 -0.44097608 0.5648285 0.43663177 -0.21174525 -0.25038728
0.25751153 0.039781883 -0.34549034 -0.77399266 -0.55230254 0.28026634 0.592859 0.6768739
-0.52330047 0.34151033 0.7194013 0.35212055 0.67011523 0.30690223 -0.0001122458 0.3592795

dense2.weight f4 [64, 64]
00000000: 1af0 abbd 9cf8 8e3d df96 bc3e a6f3 b7be
00000010: 590b 543b ca72 a3bd 4d81 e63e caed 3dbd
00000020: cf93 863c 73fa e8bd f80f 54be 96e3 a8be
00000030: c768 a0be 1336 b9bd febc 70bd e513 74be
00000040: f923 cabe d151 92be 36e9 dc3d c245 ad3e
00000050: 643d 8bbc d699 aabe 0c50 163d 128a ccbd
00000060: 0b93 11be b1d0 4bbd 1b23 ab3c 869d 3cbd
00000070: 00e7 54bf ef9e 0f3b 9caa eebe 64c2 f63c
00000080: 73f5 59bd 42e4 92be 16f8 7e3e 2824 30be
00000090: b03b 133e f3aa 20be 8cd0 bcbe d454 f2bd
000000a0: 19f1 023f e587 573e d2ea ac3e 6a9f fc3d
000000b0: 1aa4 7a3d f1a9 bcbe 93dd 5ebd 6fd3 d83c
000000c0: f2b0 edbc 6b76 223e 201c 643c 2bfc fabe
000000d0: 63f5 24bf aaf3 b03e 4128 a23c e067 0bba
000000e0: 894e b8bd ca96 e1bd 9aa4 823e d604 0fba
000000f0: 4c39 253d de0e 5f3e 09d0 59be 069d bb3d
00000100: 569c 99be 1ce3 62bd f2f2 d7bd 0a9c 093a
00000110: 3324 c3be 34be a5be 7a60 e7bc dfed aebc
00000120: d444 0ebf 9e96 543e c37a 103f 6a3c a23e
00000130: b698 933e fe26 02bf 8004 293e de6b c43e
00000140: a802 233d cd1c 4c3d 39c0 8dbd 67a3 98bd
00000150: 12e5 c43e 04b2 47bd aef3 523e 3411 0abd
00000160: f9fd 23be 30b6 f53e 094e 75bc 94d8 fdbd
00000170: 31da 203f a473 c6bd 6175 453f bc8d eabc
00000180: 0e98 be3e 871f 343e 6678 823d ff5b 0b3e
00000190: c374 bfbd 0898 d9be 13ff 80bd 2870 0e3f
000001a0: 5e55 02be 4a4b d7bd 98c7 593d 0652 06be
000001b0: aef1 193d d920 0abe 5a2e cfbe e6a9 56be
000001c0: d6ff 61bd d11e 96bc 42c1 f63e 8811 1a3f
000001d0: 4f8d 0e3f 810b 78be 71fe 3cbe 76b6 3cbe
000001e0: a4ff 96bc cd3a 823e e2e4 1a3d 509e a5bd
000001f0: e450 df3c 235f aa3c e0ee 543e 4968 7d3b
00000200: a82e 13bc ee07 f93d 689e cc3d e414 81bd
00000210: b4b6 823d eb77 e0be d410 903e e150 8f3e
00000220: 1b40 e6be f1de f5bd 016e 0d3d 072b 7ebd
00000230: 1f3b e4be 222d efbe bba7 f03d b03e 7ebb
00000240: 165d e6bd 7287 f5bc c90d ce3e 5985 fd3e
00000250: b024 cebd f0eb 0dbe 88b8 cbbd 8fcd 9a3e
00000260: 0f5e 8e3e 9448 03be 70f0 1abe 43f3 753c
00000270: 786e f1be a3c0 9e3e 3fba d6be 993e 9e3e
00000280: c1a2 4c3d 159c 9cbe 6aed 263e 5c5c 2abe
00000290: baa2 483e 2ab6 0cbf a33a 2bbc 29ed 56be
000002a0: 2b5a fb3e 06a4 b53e ddc5 203e f5ff 34bd
000002b0: e4c7 a33c 58ea 52be 65c8 dcbe 2c4c b4be
000002c0: b069 bf3d 686d cf3e e97e 2cbe 55aa e0be
000002d0: 0939 cbbe c674 68bc 3fe2 4a3d c08f 123e
000002e0: 5782 48be a26f 3fbe fbbe 54bc 2e55 5b3e
000002f0: d501 9c3d f8f2 54be 954a 51be f8d6 b33d
00000300: af2a a9be c51a 40be e054 c9be b853 4f3e
00000310: b9b4 9dbe c70d 1ebe 2a4b b0be 04ff ecbd
00000320: 405d 2dbe a270 893d be8d 2cbe 1443 17bc
00000330: 69f4 dd3e f115 cfbd 07f5 ebbc e467 65bd
00000340: 2b95 b33e d7a4 8f3d 58e8 aabb 8e9a 52be
00000350: 2cb1 fcbb a69f 2dbe 12f6 833d dd0e 533d
00000360: 8df0 38be fa4e ca3e ba3d aebd 0e72 833e
00000370: b09d 653f c073 28be f2c5 313f dfe3 e0bd
00000380: ac76 8f3e e133 7f3e 52cf 23be e317 ee3c
00000390: 3148 cebd 8d79 19bd dea8 303d dd58 543e
000003a0: 14d9 5ebe 1c5a acbe 388f adbd c804 dbbc
000003b0: a477 1bbd 517e 463d fe73 1bbe 4e53 27bd
000003c0: d85b 57bb 9361 a2bd 6bf3 3d3d 830b 1d3f
000003d0: 0a0c 0a3f df30 02be d259 4fbe 5044 4cbd
000003e0: d08e 903d 52af ed3e b54a a7be e6d6 0fbe
000003f0: 53a7 44be 299e adbc 427e 9f3e 3f08 a2be
-0.08395405 0.06981012 0.36833856 -0.35928077 0.0032355397 -0.07980879 0.45020524 -0.04636935
0.016427903 -0.113758944 -0.20709217 -0.32986134 -0.3132994 -0.09043517 -0.058773987 -0.23835714
-0.3948057 -0.28578046 0.10786669 0.33842283 -0.016997047 -0.33320493 0.036697432 -0.09987272
-0.14216249 -0.04975957 0.020890763 -0.046048664 -0.8316498 0.00219148 -0.4661454 0.03012199
-0.053212594 -0.28689772 0.24899325 -0.17201293 0.14378238 -0.15690212 -0.3687786 -0.11832586
0.51149136 0.21047933 0.33772904 0.12335093 0.061191656 -0.36848405 -0.05441053 0.026468007
-0.029015038 0.15865485 0.013922721 -0.49020514 -0.6443693 0.345609 0.019794585 -0.0005317908
-0.089993544 -0.11015089 0.25516206 -0.00054557377 0.040337846 0.21783015 -0.21270765 0.09160809
-0.30002087 -0.05539237 -0.10544385 0.0005249387 -0.38113555 -0.32371676 -0.028244246 -0.02135366
-0.55573773 0.20760581 0.5643732 0.31686717 0.28827447 -0.5084075 0.16505623 0.38363546
0.039797455 0.049832154 -0.06921429 -0.074530415 0.38456017 -0.048753753 0.20600769 -0.033707812
-0.16014852 0.4799056 -0.014972218 -0.123948246 0.62832934 -0.096900254 0.7713223 -0.028632037
0.37225384 0.17590152 0.063706204 0.13609312 -0.093484424 -0.42498803 -0.062986515 0.55639887
-0.12727877 -0.10512407 0.053168863 -0.13117227 0.037584 -0.13489093 -0.4046505 -0.20963249
-0.055175625 -0.018325241 0.4819432 0.60183 0.5568437 -0.24223138 -0.18456437 -0.18428978
-0.018432446 0.25435486 0.037815936 -0.08086836 0.027260251 0.020797318 0.20794249 0.0038666895
-0.008983292 0.121597156 0.09991151 -0.06302813 0.06382504 -0.4384149 0.2813784 0.27991393
-0.44970784 -0.12005413 0.034528736 -0.062052753 -0.44576356 -0.4671412 0.11750742 -0.003879469
-0.112482235 -0.029971812 0.40244892 0.495158 -0.10065591 -0.13859534 -0.09947306 0.30234954
0.27806136 -0.12820655 -0.15130782 0.015011611 -0.47154593 0.31006345 -0.4193897 0.30907133
0.0499599 -0.3058783 0.16301504 -0.16636795 0.19593325 -0.5496546 -0.010450992 -0.20988907
0.4909223 0.35476702 0.15700479 -0.044189412 0.019992776 -0.20597208 -0.4312164 -0.35214365
0.0934633 0.40513158 -0.16845287 -0.43879953 -0.39691952 -0.014187997 0.04953217 0.14312649
-0.1958097 -0.18694928 -0.012984986 0.21419212 0.07617537 -0.2079581 -0.20438607 0.087812364
-0.33040377 -0.18760212 -0.39322567 0.2024678 -0.30801943 -0.15434943 -0.34432346 -0.11572078
-0.16930103 0.06710936 -0.16850945 -0.009232301 0.43350533 -0.10111607 -0.028803362 -0.05600728
0.35074744 0.070138626 -0.005215686 -0.2056677 -0.00771155 -0.16955432 0.064434186 0.051527847
-0.18060513 0.3951338 -0.08507867 0.25672954 0.8969374 -0.16450405 0.69442666 -0.10980963
0.28020227 0.24922134 -0.15997055 0.029064124 -0.10072363 -0.037469435 0.043129794 0.20737024
-0.21762496 -0.33662498 -0.084745824 -0.026735678 -0.037955895 0.04846031 -0.15180966 -0.04085093
-0.003286114 -0.07928767 0.04637472 0.6134569 0.5392462 -0.12713955 -0.20249107 -0.049869835
0.07058489 0.4642282 -0.32674184 -0.14046821 -0.19204454 -0.02119358 0.31151015 -0.31646916

dense2.bias f4 [64]
00000000: 900d 6a3e 0d0e db3e 437e cd3e f813 3b3e
00000010: ec67 b13e 2ece 96bf 318c 85bf 84d7 653e
00000020: 5563 9d3e 4936 0d3f 678e 0fbe 6940 cc3e
00000030: 20e8 8ebf 067f 383e 8665 efbc 257d 87bd
00000040: 8139 30bf 6c07 84bf 9d8b 28bf c068 17bf
00000050: 4cb5 2f3d f48f b63e 1121 273d 00b7 8a3d
00000060: 6205 693e 3f50 87bf 5b4f 0a3e c1c6 3abf
00000070: affb d63e aa4a bc3d dd83 ef3d b1af 6ebf
00000080: f05f 5fbf 3fc7 54bf 9a86 c73e 7631 0e3f
00000090: a499 19bf a637 003f 6653 37bf 400f f6be
000000a0: 2e7d 29bd abee b93e 85a3 c6bd 2cbb 0a3e
000000b0: 8e98 2cbf 2ae9 d13d 87d2 c73e ac98 73bf
000000c0: 8246 84bf af0c 88bc 65d5 b4be e7a9 193e
000000d0: 33b1 093f b511 5d3c 487b dc3e b330 263e
000000e0: a403 c6be dbed 7fbf 0b6d 523d 6095 7cbf
000000f0: d0b6 6c3d d06e e53e e664 073e 5bb0 fe3e
0.22856736 0.42784157 0.40135393 0.18269336 0.346496 -1.1781671 -1.0433408 0.22445494
0.30739847 0.5516096 -0.14019166 0.3989289 -1.1164589 0.18017206 -0.029223215 -0.06615666
-0.68837744 -1.0314765 -0.6583803 -0.5914421 0.042897508 0.35656703 0.04080302 0.06773186
0.2275596 -1.0571364 0.13506834 -0.72959524 0.41988894 0.091939285 0.11695073 -0.93236834
-0.87255764 -0.83116525 0.3896988 0.5554422 -0.6000006 0.5008491 -0.7161163 -0.4805851
-0.041379146 0.36314902 -0.096991576 0.13547963 -0.6742028 0.10249551 0.39027807 -0.95154834
-1.0334017 -0.01660761 -0.35319057 0.15006219 0.5378601 0.013492991 0.43062806 0.16229515
-0.38674653 -0.99972314 0.051373523 -0.9866543 0.05779153 0.44811106 0.13222083 0.49743924

dense3.weight f4 [64, 64]
00000000: 5196 ccbe abbe 20bc b0d5 09be d89f 1f3d
00000010: 8720 123d 13f6 cc3e d308 b93e 1bfd 0fbe
00000020: 9646 b6be 1076 4ebe 8496 07bf c07f 97be
00000030: 2496 103f dd76 39be c31e a0bd f15a cfbe
00000040: 4ea1 bc3d 0595 1b3f c4ee a13e 1c2b d53d
00000050: dc81 07be 2461 b2be c0d1 c1bd 90de efbc
00000060: 38c1 bcbe 673d f03e a2fe 3a3e ac09 353e
00000070: b11b 53be adc3 6c3e ffdb f9bc 25f3 e23e
00000080: 2f84 af3e 8b75 d13e 724f 23be 6a7f b7be
00000090: ce77 183e 7659 0abe 173d 643e 54d9 143e
000000a0: 6924 0ebe 1cd3 8dbe c47a 2f3e 3071 0e3e
000000b0: 9024 9a3d d5b2 f43d 133a e0bd 0efb dd3e
000000c0: 3ec3 b83e f4aa 4cbc 3b9a c83d 0c6f 66be
000000d0: a315 babe 9c9a 9c3d ecc8 8ebe ffbb e13d
000000e0: 1ce0 08bd 9812 9a3e 6dfc 47bd 3c43 d53e
000000f0: d0da 1dbc a410 68be ff64 f13d 8e5a c2be
00000100: 185f 0abf 9e67 f03c dfad 7ebe ffe7 043e
00000110: 3d04 0a3e bf26 873e 3a2b 0d3f b700 22be
00000120: fe69 45bd 8470 babe 6053 8bbe 65bb efbe
00000130: a4f2 bb3d a063 7cbd 8fe6 423e 12f0 e4be
00000140: e9cf b03d 555b bd3e ee9f 0c3d 5774 713d
00000150: 550e a93d 43ad cdbe 6392 e1bd e330 983d
00000160: a037 98be 49c2 073f 4d96 113e fb63 86bd
00000170: 7d50 06be a3c1 2bbe ff9a 533e 743d c83e
00000180: 4486 813e a457 0b3f 94f0 a5be bd6c f7bd
00000190: d8f9 08be ec5c babe a294 3e3e d7e2 f53d
000001a0: b602 84be ec4c 7abe 2a57 363d 5bd7 103e
000001b0: 9427 063d 9170 f23c 9f5a 79bd aa2f a83c
000001c0: 8b1c 493e 15e4 dcbd 193f 29be e54c 97be
000001d0: 002c 28be 80cc a43e cb8a a13c 4ed6 393e
000001e0: 7c3e 20bd 1a18 153e b7b3 95be 9694 083e
000001f0: 7aba 0b3e 74c0 6c3d 1c0f ce3d 3a65 30be
00000200: e2e6 93be 32ab 37bb f050 81be 1d34 303e
00000210: 2f7d 2a3e a5d7 b93e 0c6c 333e 44a9 21be
00000220: dee2 2ebe 7216 aabe 391a bcbe 81bb 56be
00000230: 9983 0c3f 7138 93bd e7eb 623d a7af 0cbe
00000240: 35e4 973d 091a 023f 2131 2e3e deb8 dabd
00000250: 69b8 2abc 67aa adbe 985d c03d 9988 5c3d
00000260: 8041 05bd 6fbd be3e 7d8e 2fbe 055b 893e
00000270: 67ae 02bf ea1b 7bbd bfca 82be 9689 b03e
00000280: 3abb e83e fc9a 2b3e a99c 48be f35a e3bd
00000290: 6d90 823e 71a1 b8be 4d6e 9c3d 792e a43e
000002a0: 6240 efbc be1a 4abd 0be2 a8be a1bb 9abd
000002b0: 1bb9 7f3e c79b 1f3e 0b35 22be c4ab f73e
000002c0: 52db e93e 08a7 37be 2221 cf3d f032 d0be
000002d0: deba a3be 3dd3 b73d 886c 99be 6fd5 fdbc
000002e0: 7db4 943d 9789 b43e 3ac3 2f3d b3c1 ae3e
000002f0: 979d 7b3e c0ca 95bc 92b4 2dbe 20fd d2be
00000300: 320e b63d 011f 483e f945 e8bc 821e 68bd
00000310: f286 ac3d 0a0d 3d3e c37d 4d3e 48fc 77be
00000320: 7fd0 b7bd 3417 9bbe 3086 4abe 8353 0fbe
00000330: f3e1 a93e 44d2 19be b618 ccbe a4a4 98be
00000340: a1b1 8cbd 0851 833e 6c46 10be d0ce 8fbd
00000350: ca56 ce3d 58ea 54be c2a5 e63d 50a7 053e
00000360: ab6c 7d3d f336 3e3e 1d7d 24bd 7c15 bbbd
00000370: 4874 11be 5a57 17ba 2178 213d 6763 193d
00000380: c198 ae3e 3cbe c63e 26dd 20be 80a3 b5bd
00000390: 260f dd3e 9087 abbe 0855 6a3e f243 3b3e
000003a0: d92c 873d d302 43be 8742 063e ae1e a23e
000003b0: 53ca 6ebe 5889 c03d f8d0 923e 25c1 e73e
000003c0: 4ea4 273e 29f6 38be cb8b f8bd 7869 fcbe
000003d0: c479 61be 4a35 bebd a2d0 45be 7d7b 603d
000003e0: 3ef9 80be f356 74bd c666 98be 3b83 bd3e
000003f0: 1efe 5f3c be91 833e 7ed4 eebd 6632 b6be
-0.39958432 -0.009811084 -0.13460422 0.0389708 0.03567555 0.4003149 0.36139545 -0.14061396
-0.35600728 -0.20162225 -0.52964044 -0.29589653 0.56479096 -0.18111749 -0.07818367 -0.4049907
0.09210454 0.6077426 0.31627476 0.10408613 -0.13233131 -0.34839737 -0.09463835 -0.02928093
-0.36866164 0.46921846 0.18261197 0.17679471 -0.20616032 0.2312152 -0.03050041 0.4432613
0.34280536 0.4090999 -0.15948275 -0.35839397 0.14889452 -0.13510689 0.22288929 0.14536029
-0.13881077 -0.27700126 0.17136675 0.13910365 0.07526505 0.11948172 -0.10948577 0.43355602
0.36086458 -0.01249193 0.09795042 -0.22503299 -0.36344633 0.07646677 -0.27887666 0.110221855
-0.033416852 0.3009231 -0.048824716 0.41652858 -0.0096346885 -0.22662598 0.117868416 -0.37959713
-0.5405135 0.029346284 -0.24871014 0.12979124 0.1347818 0.26396748 0.55144083 -0.15820585
-0.048196785 -0.36413968 -0.27212048 -0.46822658 0.091771394 -0.061618447 0.19033264 -0.4471441
0.08633406 0.36983743 0.03433221 0.05894884 0.08254687 -0.4017125 -0.11014249 0.074311994
-0.29729939 0.5303083 0.14217491 -0.065620385 -0.13116641 -0.16773085 0.20664595 0.39109385
0.2529775 0.54430604 -0.3241011 -0.12081287 -0.13376558 -0.3639902 0.18611386 0.12006157
-0.25783318 -0.24443406 0.04451672 0.14144652 0.03275259 0.029594691 -0.06087744 0.02053054
0.19639795 -0.10785691 -0.16527976 -0.29550853 -0.16423035 0.3218727 0.019719502 0.18148157
-0.03912209 0.14559975 -0.29238674 0.13337931 0.13645354 0.057800725 0.10061476 -0.17226115
-0.28887087 -0.0028025624 -0.25257063 0.1720738 0.16649316 0.36297336 0.17521685 -0.15787226
-0.1707873 -0.3322025 -0.36738756 -0.20969965 0.548883 -0.071885 0.055400755 -0.13738881
0.07416574 0.50820976 0.17010929 -0.10679792 -0.010419943 -0.3391907 0.093928516 0.053841207
-0.03253317 0.372539 -0.17144199 0.26827255 -0.51047367 -0.061305918 -0.25545308 0.3447997
0.45455343 0.1675834 -0.19591011 -0.111013316 0.25500813 -0.3606067 0.07638226 0.32066706
-0.029205505 -0.04934191 -0.32984957 -0.075553186 0.24972956 0.15586768 -0.15840547 0.48373234
0.4567514 -0.17934811 0.101137415 -0.40663862 -0.31978506 0.089758374 -0.29965615 -0.030985562
0.07260988 0.35261223 0.042910792 0.34132156 0.24571835 -0.018285155 -0.16963413 -0.41208744
0.08889426 0.19543077 -0.028353678 -0.05666972 0.08424176 0.18462005 0.20067506 -0.24217331
-0.08975314 -0.3029114 -0.19777751 -0.13996701 0.33180198 -0.15021616 -0.39862603 -0.2981311
-0.068698175 0.2564776 -0.14089364 -0.07021868 0.100751474 -0.2079252 0.112620845 0.13052106
0.061871212 0.18575649 -0.04015838 -0.09134957 -0.14204514 -0.0005773209 0.039421204 0.037448313
0.34100917 0.38817012 -0.15709361 -0.08869076 0.4317562 -0.33501863 0.22884 0.18287638
0.06600351 -0.19044046 0.13111316 0.31664032 -0.23319368 0.09401196 0.28675056 0.45264545
0.16371271 -0.18062653 -0.121360384 -0.49299216 -0.22019106 -0.09287508 -0.19317868 0.054805268
-0.25190157 -0.059653234 -0.2976591 0.37014183 0.013671426 0.2569713 -0.116616234 -0.35585326

dense3.bias f4 [64]
00000000: eba6 1fbf c8e5 16bf 9595 3fbf cd63 9dbe
00000010: b885 67bf 9510 79bf 38eb b6bf 9157 debd
00000020: 0235 cbbe 00f3 4fbf 270b 82bf 9c02 6b3d
00000030: 81d6 84bf 3eef ce3d eeeb d9be 7b39 44bf
00000040: b618 84bd a724 1fbf d7ea 29bf f0dd 5abf
00000050: 1843 dbbe 5db4 85bf 0f64 49bf a509 0cbe
00000060: 6526 18bf 838b dfbc 18d8 6abd cb2f 6cbc
00000070: b73f 64bf 7a37 01bf d170 3ebf 3855 88bf
00000080: dcc0 43bf f81d b3be 2439 253d 9108 533e
00000090: 385a 0bbf ee6e 10bf 52b0 1ebf 48b8 64bd
000000a0: 3939 4fbf eb18 b7be e602 b6bd 4b22 44bd
000000b0: fe32 fcbe bd48 8f3d 0ed6 eabd ab4b 55bf
000000c0: c795 713d 7f44 18be 9fe9 2cbf 4059 25bf
000000d0: 935b 84bc 373f 0dbe 8d92 8cbf 114e c63c
000000e0: 4078 74bf 4318 71bf 07d2 89be 361d 8dbf
000000f0: 943f 61bf d47a 77bf fb85 8ebe 8f19 b0bb
-0.6236407 -0.5894437 -0.7483762 -0.30740204 -0.90438414 -0.9729093 -1.4290533 -0.10856546
-0.3968888 -0.81230164 -1.0159653 0.057375535 -1.0377961 0.101042256 -0.42562813 -0.7665021
-0.06450026 -0.621653 -0.6637396 -0.854949 -0.42824626 -1.0445668 -0.786683 -0.13675554
-0.59433585 -0.027288204 -0.05733499 -0.014415692 -0.8915972 -0.50475276 -0.74390894 -1.0651007
-0.76466155 -0.34983802 0.040337697 0.20608737 -0.5443454 -0.56419265 -0.61987793 -0.055839807
-0.8094669 -0.35761198 -0.088872716 -0.047884267 -0.49257654 0.069962956 -0.11466609 -0.83318585
0.05898073 -0.14869879 -0.6754398 -0.6458931 -0.016156947 -0.13793646 -1.0982224 0.024207147
-0.95495987 -0.94177645 -0.2691805 -1.102454 -0.8798764 -0.96671796 -0.27836594 -0.0053741406

dense4.weight f4 [64, 64]
00000000: 6e09 323e 2341 023e f262 c13d 15e4 ebbc
00000010: c807 8c3d 48ae ff3e 4dd7 473e 25b1 213d
00000020: 3504 c8bd d20c 813e 67d3 473e 8b7a b5bd
00000030: 8fbc 4d3e 5b56 b43c a95c 8e3d 728c 963c
00000040: 7dd6 6c3d e727 b93c d11d 8c3e d115 c23d
00000050: 64b4 e5bc d661 823e f606 773e 3c0e cdbb
00000060: 0813 d33d a076 6ebc 32a3 d13a 4173 59bd
00000070: cba0 133e fa08 533d 6059 de3d 4ef8 4a3e
00000080: 366d c43e 42aa e13d 2748 b7bd 1a5a 1cbd
00000090: acad 833e ac01 4a3e f96b 3f3c 16e8 0ebd
000000a0: 1e68 973e 59ef 47be 6299 79bd 0942 f13d
000000b0: b29c ba3d 088b 203d 83fa c9bc 8fc0 d13e
000000c0: 1924 09be 0ce1 e2bd 5801 d23e e482 c23c
000000d0: 8350 88bd b7cc 4c3e 5998 603e e941 cebd
000000e0: 6d31 e03e 4ea1 e33e ce4d 863e dc35 723e
000000f0: c85b c53e bdc9 d53d 6d56 003e a003 3fbe
00000100: c180 1f3e 4d59 123e 8f50 343e bda7 753e
00000110: 48fd 303e cd87 edbd 6b25 80bd 2e1d 853d
00000120: fe48 50be 2271 183d 5514 cbbc 3cbb 13bc
00000130: ef76 5bbd 3276 95be 54ab a73c 222c 0a3e
00000140: 4441 56be dd57 d33d a661 f2bd 4601 f23d
00000150: 7931 3d3e 4d3b 333d 45c6 f9bb 76a7 cabe
00000160: b831 06bd 5a50 4f3e b509 2fbc 801a 8ebe
00000170: 4087 043e d8b8 033d fce0 02bd 02c2 40ba
00000180: badf 71bb b603 d8be 368e 3e3e b9f9 42be
00000190: f648 6bbe b054 173e de6f a6bd dd6c 1b3e
000001a0: 6bee ea3a 0c08 a43e e70e 22be 4dee 96be
000001b0: 6300 473d a888 173e d55d 3a3e 1c46 ecbb
000001c0: e12c 8f3c c771 5a3e 7ca7 dbbc 7314 123d
000001d0: ceb2 693d d5f6 42be 9df8 9c3d 0649 353e
000001e0: bbda e7bc 1a4b f8bc 1b6a efbd d9c1 523c
000001f0: 7619 f5bd 2d4d 043d 8851 213d 6825 fa3d
00000200: 26c9 1b3c 1a08 503d d223 383e a973 7c3d
00000210: 6290 dc3d fd75 3d3f 8040 863e b71d c7bc
00000220: 5027 293d d0f2 a63e ddb6 3b3e 80d8 27be
00000230: 10c2 353e c3e1 81bd 9420 d43d bf5d 093c
00000240: 6512 33bc c951 b73d fdea dd3e 635c 8d3e
00000250: a272 e7bd eefa 233e 4c16 d53e e4db 08bd
00000260: c2ff eb3e 2732 20bc ac18 adbc ab03 b13d
00000270: 0a18 7f3d 474c d13d e98f 4e3e ec8d 953e
00000280: b2b2 1d3f 67e7 203e 2f55 11be e955 9e3d
00000290: 64af b63d f4e8 2fbe 362d 183e cd6d 86bd
000002a0: 9f12 ac3e 7167 03be 05b2 49bd 734f 78bb
000002b0: ccfd 4ebc dec4 88bd c3ac 35bc 8ce3 023f
000002c0: 0adc c7bd 274b 0bbe 3e64 4e3e 64df 8bbb
000002d0: e034 2fbd 80a1 983c 94cf 233e a34f 27be
000002e0: 7e83 5b3f 4831 1e3f 1a52 aebd 565e f73d
000002f0: 40e0 e53e ea3c 533e ac30 c53d b6db 3abe
00000300: 3439 bc3b f702 b5bc e44f 983c 5d18 ddbd
00000310: a2e3 953d 0719 e33e 3c07 943e 8302 4cbe
00000320: 39b9 9e3d a42e 503e ac37 783e d53a 4cbe
00000330: 416b 513e 8c12 203d 16bf a3bd 5473 63bc
00000340: ddfa 0abe f4cc 123e 01e7 923d 113a aa3d
00000350: d54c cc3c 9e3d 49bc 1239 db3e 82dd 863d
00000360: b47b 8b3e dba0 d2bd 743f 84bd e155 95bd
00000370: a83f 42bd 53a5 f4bd dc3c 9d3d 943e 9f3d
00000380: 88ee a43e 7482 db3c de79 b0bd 8e3d bebd
00000390: c7f4 883e d322 e8bc 750e c23e 6bdf 29bc
000003a0: 6480 ab3d a8f1 04be e4d9 5e3e 4a98 253e
000003b0: bbb2 313b 2fae 70bd ef65 32bd 4f79 923e
000003c0: 423b e6bc 206d 45be 7f6d 923e 7918 093e
000003d0: 675b 3abd 5d90 803e 3dd2 3c3e 61d0 5ebe
000003e0: 7d2c 043f c386 ad3e a92d e23d f693 cc3d
000003f0: 5e94 8d3e e65d 503e accd 973c 4b81 77be
0.1738641 0.1272016 0.094427004 -0.028795281 0.06837422 0.49937654 0.19515724 0.03947558
-0.097664274 0.25205094 0.19514237 -0.08861264 0.2009146 0.022013834 0.06951267 0.018377516
0.05782174 0.022602035 0.27366498 0.094768174 -0.028040119 0.25465268 0.24123749 -0.0062578004
0.10306364 -0.01455465 0.001599407 -0.05308843 0.14416806 0.051522233 0.10856891 0.19821283
0.3836457 0.11018802 -0.08949309 -0.038171865 0.2571844 0.197272 0.0116834575 -0.034889303
0.29571623 -0.19524898 -0.060937293 0.11780173 0.091119185 0.03919509 -0.024655586 0.40967223
-0.13392676 -0.110780805 0.4101665 0.023744054 -0.066559814 0.19999968 0.21933116 -0.10071165
0.4378771 0.44459003 0.26231235 0.23653358 0.38546586 0.10438869 0.12532969 -0.18653727
0.1557646 0.14291878 0.17608856 0.23989768 0.17284119 -0.115981676 -0.06257137 0.06499706
-0.20340344 0.037217267 -0.024789969 -0.009016808 -0.05358022 -0.29191738 0.020467438 0.13493398
-0.20923334 0.10319493 -0.11835031 0.11816649 0.18475904 0.043757726 -0.0076225125 -0.39580888
-0.03276226 0.20245495 -0.010683467 -0.27754593 0.12942219 0.032158703 -0.031952843 -0.0007353128
-0.0036907033 -0.4219033 0.18608937 -0.19040574 -0.22977051 0.147784 -0.08126806 0.15178247
0.0017923837 0.3203739 -0.15825997 -0.29478684 0.048584353 0.14798224 0.18199857 -0.007210506
0.017477455 0.21332465 -0.026813261 0.035664033 0.057055287 -0.19039471 0.07664607 0.17703637
-0.028302541 -0.030309249 -0.1169016 0.0128636 -0.11967747 0.032300163 0.039384395 0.12214166
0.009508407 0.050788976 0.17982414 0.06163374 0.10769726 0.7400816 0.26221085 -0.024306161
0.041297257 0.32607126 0.18331476 -0.16391182 0.1774981 -0.06341889 0.10357776 0.008384167
-0.010929679 0.08951146 0.43343344 0.27609548 -0.11301161 0.16013691 0.41618574 -0.03341283
0.46093565 -0.009777582 -0.021129929 0.08643278 0.062278785 0.10219627 0.20172085 0.2920984
0.6160079 0.15713273 -0.14192651 0.0773123 0.08920172 -0.17178708 0.14860997 -0.065639116
0.33607957 -0.12832429 -0.04924204 -0.0037889152 -0.012633752 -0.066781744 -0.011088553 0.5112846
-0.09758766 -0.13602887 0.20155427 -0.0042685736 -0.042775035 0.018631697 0.15997154 -0.16338973
0.85747516 0.6179395 -0.085117534 0.1207854 0.44897652 0.20628706 0.09628424 -0.18247876
0.005744124 -0.02209614 0.018592782 -0.107956626 0.07318808 0.44355032 0.2891177 -0.19922833
0.07750172 0.20330292 0.24239987 -0.19944318 0.2045107 0.039080188 -0.07995431 -0.013882477
-0.13572259 0.14335996 0.07172967 0.083118565 0.02493898 -0.012282757 0.4281698 0.06585218
0.27242815 -0.10284587 -0.06457415 -0.07291771 -0.04742399 -0.119455956 0.07677624 0.07775608
0.32213235 0.026795603 -0.08616994 -0.092890844 0.2674925 -0.028336918 0.37901655 -0.010368208
0.08374098 -0.1298281 0.21762806 0.16171375 0.0027114588 -0.058759864 -0.043554243 0.28608176
-0.028104428 -0.19279909 0.28599164 0.13388242 -0.045497324 0.2511014 0.18439575 -0.21759178
0.51630384 0.33891878 0.11043865 0.09989159 0.27652258 0.2034832 0.01853069 -0.24170415

dense4.bias f4 [64]
00000000: 1e36 81be ff4d b83c 5605 ccbe add2 a3bd
00000010: 4e46 bebe c1aa 4fbe 264c 6bbf d6e7 06bf
00000020: fb90 01be e706 453d b63b 4dbe bbb2 7abf
00000030: 7d23 63be 8e55 0ebe b187 8fbf 583c d9bd
00000040: 2ada 783d 3db6 bd3d 9894 b3bd 12a1 8fbf
00000050: 26d0 c2be 227a 65bf 5ff9 70bf 23ac 25bf
00000060: 530c 08bf 047d d2bd 2d06 1bbe 4cbc 71be
00000070: dcc1 5fbf 6a5e 54bf 6d28 6fbd ebc0 8fbd
00000080: ab51 1dbf d08a 05be 1e43 a93d 1767 1bbf
00000090: 9bd7 f4be b3c5 21be 9ad2 d0be d245 96bc
000000a0: 83bc d1bd a29e 41be b878 453d 42fc 22be
000000b0: ca1b 88be adf4 c4bd bc3a 24bc 1980 f1be
000000c0: 1b22 89bd 4b13 08bf 1d5c a6be 11d5 06be
000000d0: 6bb4 64bd fdc0 d7be 0d0f 83bf 36b2 61bf
000000e0: 92a9 0dbb 7344 6dbd d89b 49bf 1e2d 82be
000000f0: 0c59 2fbf 6890 993b 326f afbe 4209 96be
-0.252366 0.022498129 -0.3984782 -0.079991676 -0.37163013 -0.20279981 -0.9191307 -0.52697504
-0.12652962 0.048102286 -0.20042309 -0.9792897 -0.22181506 -0.13899824 -1.1213285 -0.10607213
0.060754932 0.09263275 -0.087685764 -1.122103 -0.3804943 -0.89639485 -0.9413051 -0.64715785
-0.53143805 -0.10277751 -0.15139075 -0.23606986 -0.8740518 -0.82956564 -0.058388162 -0.07019218
-0.6145274 -0.13041234 0.08264755 -0.6070418 -0.47820744 -0.15798073 -0.40785676 -0.01834384
-0.10241034 -0.1890817 0.04821083 -0.15916541 -0.265837 -0.09616981 -0.010023769 -0.47168043
-0.06695958 -0.5315444 -0.32492152 -0.13167216 -0.055836122 -0.42139426 -1.0238968 -0.88162553
-0.0021615964 -0.057926606 -0.78753424 -0.25425047 -0.6849525 0.004686404 -0.34264523 -0.29303938

dense5.weight f4 [64, 64]
00000000: dcbd 48be ab28 ffbd 43ba b83d e6d4 b4bc
00000010: a45a 0c3d 02ed 60be 16ce f23b e89c 813e
00000020: a841 85bd 4d00 c9bd 2129 e2bd e948 b53e
00000030: 6fdd bdbc 3a2d 55be 78cb d53d 7320 6b3d
00000040: 9bc4 31be c547 67be 9971 10bb 76c6 86bd
00000050: 284d ee3d bfb2 85bc b849 b33c 5059 093e
00000060: 9bb4 8c3d f834 15bd c8b2 c93d 01b0 18bd
00000070: d0e9 a43c 7c98 c23d 15da 9fbd a552 ffbd
00000080: 505b 0e3e 012e 203d 5bb5 ce3c 360a 213e
00000090: c45a 133d 4e0a 5cbe 5e86 413e 1507 a7bd
000000a0: d225 ebbd 1db9 61be c1ee 69be fbaf f03d
000000b0: ec8f 56bd 8ca3 bbbe 1d53 08be 9d81 4c3e
000000c0: a878 6abe 02f3 973d 168f 18bd 6217 ce3b
000000d0: 44a4 9a3d fd3c 46bd 030e 673e e40d 5f3d
000000e0: 2eda fa3d 6a15 c1bc 0a61 0b3d 24d8 12be
000000f0: e13c be3c 5dee 213e b3d9 243a b4b2 03bd
00000100: 1c01 aebd 61c2 2dbe ddb7 843c a99d 96bd
00000110: da6c a1bd 06cf cabc 274a b23a 1310 663e
00000120: 5b9c d5bb cef2 1d3e 11e0 7d3b 835d 5b3e
00000130: a155 1d3e b46e 38be 2dfb 933d afbc d7bd
00000140: 5d8b 71be 852b 223d 7f3c 903e d6ae 833d
00000150: 6774 04bd 8f2a b03d 1a14 7abd efea d43d
00000160: 771f 053e 1670 473d 419f 873d d5b5 d83d
00000170: d76e b03d a865 a7b9 a9c3 b5bd 5b51 60be
00000180: 5cf0 503d ad7d 54bd a980 4f3d 5777 47bd
00000190: 4367 2b3e 7cf1 18be 51f4 c23d 68e6 273d
000001a0: 5d46 a9bd 4ac4 66be 8136 5e3d 64d9 14bd
000001b0: da24 cf3c 9f2d e4bd eb95 8b3d a867 5f3e
000001c0: 2dca 9bbd edf8 363e 375e c5bd dc55 31be
000001d0: f812 9d3c 2ccf 123b 942a 493e a040 9e3c
000001e0: c141 583e 1a22 17bd 780f c73d a2ca e4bc
000001f0: 56a3 15bd 1836 1cbe 8e19 c5ba 23f0 29bd
00000200: ba50 5c3c 0ab0 153d 2bca d3bd 9eb1 a9bd
00000210: a3f1 0bbe 1cfe 323e 8c7e fc3d 0194 783d
00000220: 2c07 8cbd 6e98 43be 085c e8bd 4681 f23d
00000230: 0065 42bd dd55 043e 62a2 703e 40ee 9cbb
00000240: c4a3 8bbd 2b00 73be 490a 1bbc d37d 2b3e
00000250: 518f 7b3d f748 103e e4ac 6e3e 0538 0e3b
00000260: 7c19 9dbd 036d a2bd 44b9 0dbd 7973 be3a
00000270: 1e43 273e 5a47 07bd d756 cf3d 4f9c bf3d
00000280: 82bc 163d b6cd d2bd 8993 85bd 0cbc cc3d
00000290: 5425 d9bd 13bc 0b3d 890c d23d 719f 6e3d
000002a0: 910c 8fbd b179 6cbd d3da 56be 85cb 27be
000002b0: b8ed 8cbd b109 1f3c 17aa 86be d6df 2f3e
000002c0: ca90 64bd 96ad d03d 4c49 bfbd 5df4 673d
000002d0: abc8 a93d ee89 e03b 3207 b03d b05e 813e
000002e0: e819 16be 2b1e 41be 82c9 81bd 1c3e 0bbe
000002f0: a4f0 fd3d b772 b1bd d5a6 583e 78ba 0ebe
00000300: ed3c 21bd ada2 073e f665 9abd 6824 29be
00000310: 01ed 703e 1dc3 88be bcce 753e 8324 ecbc
00000320: 5f12 1d3e 5262 24be 604c a83b 8aac babc
00000330: dd49 d8bd 133c 603d f267 103e a7a4 083c
00000340: 4265 ab3c 1316 96be 9bb1 16be 3244 763e
00000350: 5835 893d 1ba2 743e e56e e23d f315 053e
00000360: bb39 9c3c fdc8 0b3c 7af0 91bc 0671 e93d
00000370: aa61 ce3e 9855 aa3d fb23 2c3e 730c 903c
00000380: b45f 003e 71a7 9f3d 81b7 04be 6677 793d
00000390: c845 f6bd 17a1 243d a393 b83d 5711 4fbe
000003a0: 11f4 49bd 2464 abbc 37b1 713d e244 08bc
000003b0: 6aea dfbc 945c cbbd a251 b1be ac1d 3bbd
000003c0: 88cf 4b3d ad54 4d3e 8a97 943d 61e2 9a3d
000003d0: 6233 eebd 60f2 13be dab4 933d fd3e 463e
000003e0: 515b 59bd 6f8b 70be d56e b33d 3895 d2bd
000003f0: ca91 8e3e 8c1d d1bd d754 37be 0119 a83c
-0.19603676 -0.12458929 0.090199016 -0.022074174 0.03426613 -0.21965411 0.0074098213 0.25315022
-0.065066636 -0.098145105 -0.11043001 0.3540719 -0.023176877 -0.20818034 0.10439199 0.057403993
-0.17360155 -0.22585972 -0.0022040366 -0.06580822 0.1163581 -0.016320584 0.021885738 0.13412976
0.06870385 -0.036427468 0.09848553 -0.037277225 0.020131022 0.0950174 -0.07805268 -0.12466935
0.1390202 0.039106373 0.025232961 0.15726551 0.035975233 -0.21488306 0.18898913 -0.08155648
-0.11481823 -0.22043271 -0.22844984 0.117523156 -0.05238335 -0.36648214 -0.13312955 0.19971319
-0.22897589 0.07419397 -0.037245832 0.0062894085 0.075508624 -0.048398007 0.22563939 0.054456607
0.12248646 -0.023569781 0.03402809 -0.14340264 0.023222389 0.15813585 0.0006288543 -0.032152846
-0.08496305 -0.16968681 0.016200954 -0.0735429 -0.0788209 -0.02475692 0.0013602421 0.2246707
-0.006518883 0.15424654 0.003873829 0.2142239 0.15364696 -0.1801098 0.07225642 -0.105340354
-0.23588319 0.039592285 0.28171155 0.06429832 -0.032337572 0.086018674 -0.061054327 0.103963725
0.13000284 0.048690878 0.06622172 0.10581557 0.08614891 -0.00031928462 -0.0887521 -0.21906035
0.051010475 -0.051877666 0.05065981 -0.048697796 0.1673861 -0.14935869 0.09519256 0.040991217
-0.08265374 -0.22535816 0.054251198 -0.036340132 0.025286127 -0.11141514 0.06815704 0.21816885
-0.07606921 0.17868395 -0.09637111 -0.17317909 0.019174084 0.0022401316 0.19645149 0.019317925
0.21118833 -0.036897756 0.09719747 -0.027928654 -0.036532722 -0.1525501 -0.0015037523 -0.041488778
0.013446981 0.036544837 -0.10341295 -0.08285831 -0.13666396 0.17479748 0.123288244 0.060688023
-0.068373054 -0.19101116 -0.113456786 0.11841063 -0.047459602 0.12923379 0.23499444 -0.004789144
-0.06818345 -0.23730533 -0.009462901 0.16747217 0.061415974 0.14090334 0.2330814 0.002170087
-0.076708764 -0.079309486 -0.03460051 0.0014530263 0.16334197 -0.03302703 0.10123985 0.093559854
0.03680087 -0.102931425 -0.06522281 0.099968046 -0.10602823 0.03411491 0.10256297 0.058257524
-0.06984819 -0.05773324 -0.20981912 -0.1638623 -0.06881279 0.0097069 -0.26301643 0.1717523
-0.055802144 0.10189359 -0.09340152 0.056629527 0.082902275 0.00685238 0.085951224 0.25267553
-0.1465832 -0.18859164 -0.06337263 -0.13597912 0.12399414 -0.08664458 0.21157391 -0.1393832
-0.039364744 0.1324565 -0.07538979 -0.16517794 0.2352791 -0.2671136 0.24004644 -0.028826004
0.1533904 -0.16053131 0.0051360577 -0.022787351 -0.10560963 0.05474479 0.14102152 0.008340037
0.020922307 -0.29313716 -0.14716189 0.24049452 0.06699628 0.23889963 0.11056308 0.12996654
0.019070497 0.008531806 -0.017814863 0.11398511 0.40308887 0.08317107 0.168106 0.017584061
0.12536508 0.07795609 -0.12960626 0.060904883 -0.120250285 0.04019269 0.090125345 -0.20221458
-0.049305025 -0.020921774 0.059006896 -0.008317204 -0.027333457 -0.09929767 -0.34632593 -0.045682594
0.049758464 0.20051832 0.07255466 0.075627096 -0.11630894 -0.14447927 0.07212229 0.19359966
-0.0530656 -0.2349069 0.08761374 -0.102823675 0.27845603 -0.10210714 -0.17903458 0.020519735

dense5.bias f4 [64]
00000000: 9fa1 213d 7206 94bd 6e69 92be d8a1 61be
00000010: ddf7 f23c 8d4f adbd 5b3d 29be 8128 98be
00000020: 703d 8abe 60bc b63c 2503 38be 49d2 07be
00000030: c1ff a5bd b3dd 6f3d 0a5f 38bf f71e 2e3c
00000040: 76fc e0be 750a 2abe 289c bbbe 938c 13be
00000050: 49bd acbd f5a4 51be b845 d5be 038b 86be
00000060: 68d0 60be 9cb3 863b 62f6 483c cb09 19be
00000070: 0463 13be e843 193d 47de 76bf 7a45 88be
00000080: 6229 c1be 064d 6cbe 8644 6dbe 3b90 a53b
00000090: ed81 d4be 695d e4be 7bf6 3bbe c264 21be
000000a0: ec5b f8be 7b97 12be 8b5f 8bbc 5c70 69bd
000000b0: 801f 47bd 836f d8be 70ba 13bd 159f 8bbe
000000c0: a2f6 fabd 965e 3bbe f542 b1be c598 3fbe
000000d0: 8c0e 0ebe f80b fdbd 74af 32be 6f4b 81be
000000e0: 9806 80be 84c1 77bd a4da 8bbe 75d8 cebd
000000f0: 7fc1 2fbe 7bb3 9bbe c56c 8fbc 0565 00bf
0.039460775 -0.07227792 -0.2859606 -0.22034395 0.029659206 -0.08462439 -0.16527312 -0.29718402
-0.26999998 0.022306621 -0.1796995 -0.13263811 -0.08105422 0.05856104 -0.7202002 0.0106275
-0.43942612 -0.16605552 -0.36642575 -0.14409094 -0.08434541 -0.20473082 -0.41654754 -0.26277933
-0.219545 0.0041107666 0.0122657735 -0.14945142 -0.1439324 0.037418276 -0.9643292 -0.26615506
-0.37726885 -0.23076257 -0.23170671 0.005052594 -0.41505376 -0.44602516 -0.18355744 -0.15761092
-0.4850763 -0.14315598 -0.017013332 -0.05699192 -0.048614025 -0.42272577 -0.036066473 -0.27269807
-0.12254073 -0.182978 -0.34621397 -0.1871062 -0.13872737 -0.123557985 -0.17449743 -0.25252864
-0.2500503 -0.060487285 -0.27315247 -0.1009988 -0.17163657 -0.3041037 -0.01750792 -0.50154144

dense6.weight f4 [2, 64]
00000000: 6b44 34bd 7539 35bc 3d14 913d 7fd5 3ebd
00000010: ac1f d4b9 ebfe b53d ade2 8ebd 2b5c ab3c
00000020: 8c04 283c b6a9 bcbb 8088 ce3c 6cec 5a3d
00000030: b5b3 133d ea4a 963b a62b 843d f3a8 8fbb
00000040: 40a9 e43c 1c03 00bd 7e7a 45bd 64ad babc
00000050: 02ca 853c 2995 1d3d 67bb 743d 1fa7 613d
00000060: 2ae8 45bc 960e a0bc 7972 b5ba 7c98 73bc
00000070: e074 963c 9641 663c 7bda 85bd 92a0 16bc
00000080: 7f9d a7bc eafa 5a3d 7df9 4fbd 2e14 973d
00000090: 2ed9 9f3c 246e a63c 16c3 c13c ee47 13bc
000000a0: 2994 82bc 52eb 313d 83aa 60bd b465 863d
000000b0: d675 45bd 5451 8a3d c740 07bd 6097 10bc
000000c0: 379f 523d 886f 173c d422 56bc e037 2c3c
000000d0: dd49 8a3d 2cc2 873c f70b 85bd 3b82 89bd
000000e0: 78d6 173d 9da8 02bd db05 3abb 9b0c 8b3c
000000f0: 4cf1 84bd 72b8 06bd 5824 013d f4c3 b6bd
00000100: f296 7bbd ebaf 17bd 7afd 9e3d 184a f6bc
00000110: a852 7aba 0a42 913d 3dcc b5bd 373a 3e3d
00000120: 91aa fe3c eff8 bfbc ab50 b03d 2a84 053d
00000130: 8565 073c 269f e5bc 62da 0f3d 7b82 b9bc
00000140: 8547 433d 9187 04bd 3132 e9bc 0cc0 4cbd
00000150: 7632 c2bb 19c2 943c ff05 273d 1323 ec3c
00000160: 3541 863b 3aea 6ebd 589d e9bc a996 18bd
00000170: 98a7 ebbc 3af3 7fbc 79ae 73bd 7aeb fdbc
00000180: 2fd0 88ba 1c96 ae3d d191 26bc e9bf 5e3c
00000190: 399a 7b3d a842 903d 0ba8 30bc b92f e73b
000001a0: e4ce e13b 7a8f 3e3b 4b47 f6bd 4243 2f3d
000001b0: 247b bfbd b21b b73d eff0 70bd 0a28 703c
000001c0: 20da 9e39 0168 513d 8743 88bd d62f 00bd
000001d0: 5aed 403d 3804 8b3b c140 41bc 3038 f7bc
000001e0: f9b8 83bc df9f aabd 51a4 b03c a472 c8bb
000001f0: 7650 9bbd 6164 553b cc1c faba 2f03 0fbd
-0.04401056 -0.011061062 0.07083938 -0.046590324 -0.00040459388 0.08886512 -0.06976829 0.020917973
0.01025499 -0.005757536 0.025211573 0.053448126 0.036060054 0.004586567 0.06453638 -0.004384154
0.027912736 -0.031252965 -0.04821252 -0.022787757 0.016331676 0.03847233 0.059749033 0.05509102
-0.012079278 -0.019538205 -0.001384332 -0.014867898 0.018366277 0.014053723 -0.065358125 -0.009193556
-0.020460842 0.053461947 -0.05077504 0.07376896 0.019512739 0.020316191 0.023652595 -0.008989317
-0.015939789 0.04343731 -0.054850113 0.06562367 -0.04820808 0.06753793 -0.03302076 -0.008825153
0.05142137 0.0092429 -0.013069827 0.0105113685 0.067523696 0.01657208 -0.06496423 -0.067142926
0.037069768 -0.031899083 -0.0028384838 0.016973784 -0.06491336 -0.032890745 0.0315288 -0.08924094
-0.06142325 -0.037033003 0.077631906 -0.030064628 -0.000954906 0.07092674 -0.08876846 0.046442237
0.031087192 -0.02343413 0.08609136 0.032596745 0.00826395 -0.02802999 0.035120375 -0.022645226
0.04767563 -0.03235585 -0.028466316 -0.049987838 -0.0059264256 0.01815896 0.040777203 0.028825318
0.0040971288 -0.058328845 -0.02851741 -0.037253056 -0.028766438 -0.015621955 -0.059492562 -0.030996073
-0.001043802 0.08524725 -0.010166601 0.01359556 0.061426375 0.07043964 -0.010782252 0.0070552495
0.0068911184 0.0029077218 -0.12025317 0.04278875 -0.09349659 0.08940829 -0.058823522 0.014657984
0.00030298624 0.051124576 -0.06653505 -0.03129562 0.047101356 0.0042424463 -0.011795224 -0.03017816
-0.016079413 -0.08331274 0.021562727 -0.006117182 -0.07583706 0.0032561051 -0.0019082068 -0.034915145

dense6.bias f4 [2]
00000000: da84 083e 5e24 1abe
0.13331929 -0.15052935
