DenseNeuralNet/Skim3Mu/MHc-130_MA-90_vs_nonprompt/models/SNN-nNodes64_AdamW_initLR-0p001_ExponentialLR.pt (torch, 84914 bytes, 16 tensors)

bn.weight f4 [47]
000000 00 00 80 3f 00 00 80 3f 00 00 80 3f 00 00 80 3f
       1.0 1.0 1.0 1.0
000010 00 00 80 3f 00 00 80 3f 00 00 80 3f 00 00 80 3f
       1.0 1.0 1.0 1.0
000020 00 00 80 3f 00 00 80 3f 00 00 80 3f 00 00 80 3f
       1.0 1.0 1.0 1.0
000030 00 00 80 3f 00 00 80 3f 00 00 80 3f 00 00 80 3f
       1.0 1.0 1.0 1.0
000040 00 00 80 3f 00 00 80 3f 00 00 80 3f 00 00 80 3f
       1.0 1.0 1.0 1.0
000050 00 00 80 3f 00 00 80 3f 00 00 80 3f 00 00 80 3f
       1.0 1.0 1.0 1.0
000060 00 00 80 3f 00 00 80 3f 00 00 80 3f 00 00 80 3f
       1.0 1.0 1.0 1.0
000070 00 00 80 3f 00 00 80 3f 00 00 80 3f 00 00 80 3f
       1.0 1.0 1.0 1.0
000080 00 00 80 3f 00 00 80 3f 00 00 80 3f 00 00 80 3f
       1.0 1.0 1.0 1.0
000090 00 00 80 3f 00 00 80 3f 00 00 80 3f 00 00 80 3f
       1.0 1.0 1.0 1.0
0000a0 00 00 80 3f 00 00 80 3f 00 00 80 3f 00 00 80 3f
       1.0 1.0 1.0 1.0
0000b0 00 00 80 3f 00 00 80 3f 00 00 80 3f
       1.0 1.0 1.0

bn.bias f4 [47]
000000 00 00 00 00 00 00 00 00 00 00 00 00 00 00 00 00
       0.0 0.0 0.0 0.0
000010 00 00 00 00 00 00 00 00 00 00 00 00 00 00 00 00
       0.0 0.0 0.0 0.0
000020 00 00 00 00 00 00 00 00 00 00 00 00 00 00 00 00
       0.0 0.0 0.0 0.0
000030 00 00 00 00 00 00 00 00 00 00 00 00 00 00 00 00
       0.0 0.0 0.0 0.0
000040 00 00 00 00 00 00 00 00 00 00 00 00 00 00 00 00
       0.0 0.0 0.0 0.0
000050 00 00 00 00 00 00 00 00 00 00 00 00 00 00 00 00
       0.0 0.0 0.0 0.0
000060 00 00 00 00 00 00 00 00 00 00 00 00 00 00 00 00
       0.0 0.0 0.0 0.0
000070 00 00 00 00 00 00 00 00 00 00 00 00 00 00 00 00
       0.0 0.0 0.0 0.0
000080 00 00 00 00 00 00 00 00 00 00 00 00 00 00 00 00
       0.0 0.0 0.0 0.0
000090 00 00 00 00 00 00 00 00 00 00 00 00 00 00 00 00
       0.0 0.0 0.0 0.0
0000a0 00 00 00 00 00 00 00 00 00 00 00 00 00 00 00 00
       0.0 0.0 0.0 0.0
0000b0 00 00 00 00 00 00 00 00 00 00 00 00
       0.0 0.0 0.0

bn.running_mean f4 [47]
000000 00 00 00 00 00 00 00 00 00 00 00 00 00 00 00 00
       0.0 0.0 0.0 0.0
000010 00 00 00 00 00 00 00 00 00 00 00 00 00 00 00 00
       0.0 0.0 0.0 0.0
000020 00 00 00 00 00 00 00 00 00 00 00 00 00 00 00 00
       0.0 0.0 0.0 0.0
000030 00 00 00 00 00 00 00 00 00 00 00 00 00 00 00 00
       0.0 0.0 0.0 0.0
000040 00 00 00 00 00 00 00 00 00 00 00 00 00 00 00 00
       0.0 0.0 0.0 0.0
000050 00 00 00 00 00 00 00 00 00 00 00 00 00 00 00 00
       0.0 0.0 0.0 0.0
000060 00 00 00 00 00 00 00 00 00 00 00 00 00 00 00 00
       0.0 0.0 0.0 0.0
000070 00 00 00 00 00 00 00 00 00 00 00 00 00 00 00 00
       0.0 0.0 0.0 0.0
000080 00 00 00 00 00 00 00 00 00 00 00 00 00 00 00 00
       0.0 0.0 0.0 0.0
000090 00 00 00 00 00 00 00 00 00 00 00 00 00 00 00 00
       0.0 0.0 0.0 0.0
0000a0 00 00 00 00 00 00 00 00 00 00 00 00 00 00 00 00
       0.0 0.0 0.0 0.0
0000b0 00 00 00 00 00 00 00 00 00 00 00 00
       0.0 0.0 0.0

bn.running_var f4 [47]
000000 00 00 80 3f 00 00 80 3f 00 00 80 3f 00 00 80 3f
       1.0 1.0 1.0 1.0
000010 00 00 80 3f 00 00 80 3f 00 00 80 3f 00 00 80 3f
       1.0 1.0 1.0 1.0
000020 00 00 80 3f 00 00 80 3f 00 00 80 3f 00 00 80 3f
       1.0 1.0 1.0 1.0
000030 00 00 80 3f 00 00 80 3f 00 00 80 3f 00 00 80 3f
       1.0 1.0 1.0 1.0
000040 00 00 80 3f 00 00 80 3f 00 00 80 3f 00 00 80 3f
       1.0 1.0 1.0 1.0
000050 00 00 80 3f 00 00 80 3f 00 00 80 3f 00 00 80 3f
       1.0 1.0 1.0 1.0
000060 00 00 80 3f 00 00 80 3f 00 00 80 3f 00 00 80 3f
       1.0 1.0 1.0 1.0
000070 00 00 80 3f 00 00 80 3f 00 00 80 3f 00 00 80 3f
       1.0 1.0 1.0 1.0
000080 00 00 80 3f 00 00 80 3f 00 00 80 3f 00 00 80 3f
       1.0 1.0 1.0 1.0
000090 00 00 80 3f 00 00 80 3f 00 00 80 3f 00 00 80 3f
       1.0 1.0 1.0 1.0
0000a0 00 00 80 3f 00 00 80 3f 00 00 80 3f 00 00 80 3f
       1.0 1.0 1.0 1.0
0000b0 00 00 80 3f 00 00 80 3f 00 00 80 3f
       1.0 1.0 1.0

dense1.weight f4 [64, 47]
000000 5f 39 02 bd 1c 4d 01 bb 05 25 c1 3c b1 49 58 bd
       -0.031792995 -0.0019729799 0.023577223 -0.052804653
000010 76 17 39 3e 80 37 12 be 61 7b 87 3c 4a 24 ab 3c
       0.18075356 -0.14278984 0.016538324 0.020891327
000020 0b 96 db bd 25 76 61 be 85 49 c0 bd 85 c7 ed bc
       -0.10721978 -0.22017725 -0.09389023 -0.029025802
000030 53 c4 1a 3e d2 c9 8a bd 73 fd 9b bd d4 70 92 3c
       0.15113954 -0.067767754 -0.07616701 0.017876066
000040 22 1e ca 3c cf de 01 3b 1f d4 1b bb 04 66 c5 bc
       0.024672572 0.0019816642 -0.0023777557 -0.024096496
000050 ad b9 e6 bc 7a 38 b3 3c 85 1a bb 3c de 22 44 bd
       -0.028164709 0.021877516 0.022839794 -0.047884814
000060 0c ed cc bb 7b 56 24 be 1a 09 d6 3e 0d 18 26 be
       -0.006253844 -0.16048615 0.4180382 -0.16220112
000070 f6 5a d7 be a2 76 fc be 4f bb 2f 3d ba fd 68 3e
       -0.42061585 -0.4930926 0.04290324 0.22753039
000080 0d c2 1a 3e c2 78 8d 3b a0 73 43 bd 74 af 10 bc
       0.15113087 0.004317374 -0.04771769 -0.008830894
000090 6d ea b0 be a4 29 cd 3d 66 df e0 3d 17 ee 06 be
       -0.34553853 0.10017708 0.1098011 -0.13176762
0000a0 bc a0 05 be 5a 97 d9 3b e5 52 e0 bd a7 98 10 3f
       -0.13049597 0.006640357 -0.10953311 0.5648293
0000b0 26 83 b2 3f 8f 5c 31 be 65 a8 52 3f 4e d5 e5 3c
       1.3946273 -0.17320465 0.822882 0.028055813
0000c0 c3 24 e1 bb e3 a3 0f 3c 86 0d 0f ba 36 b0 bb 3c
       -0.0068708374 0.008767101 -0.0005457032 0.022911172
0000d0 e9 3a 1a 3d 83 10 84 bc 04 b2 3f 3c 8e c0 fe bb
       0.037653837 -0.016121155 0.011700157 -0.007774419
0000e0 22 81 1c be 71 03 94 3c f6 de c0 bc 53 c9 be 3c
       -0.15283635 0.018068047 -0.023543816 0.023289358
0000f0 bb 48 98 bb 8d 6f bd 3c 58 ea 0a be ff 71 29 bb
       -0.004647342 0.02312448 -0.13565958 -0.00258553
000100 f1 20 5c 3b 1a d4 b5 bd 72 3c 34 be c4 b2 80 bd
       0.003358897 -0.08878346 -0.17601183 -0.06284097
000110 0a 18 a0 bc 85 a6 20 bc f7 f8 55 3c f5 50 ed bb
       -0.019542713 -0.009805326 0.013059846 -0.007242317
000120 f4 a0 da bc 58 b6 d6 3f eb de 4b be 45 32 13 bf
       -0.026688077 1.6774397 -0.19909255 -0.5749858
000130 f7 f1 ba be 5e 57 2a be 32 c6 b3 bd 75 39 fd bd
       -0.3651273 -0.1663489 -0.08778037 -0.12364475
000140 3f 7b 39 bf 15 e9 b6 be b5 3a 2a be e6 29 0f 3e
       -0.72453684 -0.35724702 -0.16623957 0.13980827
000150 88 4a a6 3d fe 22 8e 3d 45 68 90 bd e0 55 e9 bd
       0.081196845 0.06940268 -0.07051138 -0.113933325
000160 1d 9f 19 3d e2 eb fc 3d 0e 2f b8 3c 2d ab f1 3f
       0.037505258 0.123496786 0.022483375 1.8880364
000170 ee 78 98 be 78 3b de 3f a5 36 e9 bc 06 af 9f 3d
       -0.29779762 1.7361898 -0.02846844 0.07797055
000180 25 af d8 bc d3 b5 f2 bd 47 88 44 bd 02 f1 94 3b
       -0.026450703 -0.118510865 -0.047981527 0.004545332
000190 de b0 9f bb 53 b8 d3 3b dd f6 b2 bd 04 30 5c be
       -0.004873379 0.006461182 -0.08738492 -0.21502692
0001a0 04 e0 27 bd a4 bb b5 3d fe 14 47 3e c6 89 a5 bd
       -0.040985122 0.0887368 0.19441602 -0.08082919
0001b0 c1 b9 6c 3d 26 1c 47 bb 7d 8e 8b 3d 01 95 9a ba
       0.057794336 -0.0030381768 0.06814287 -0.0011793674
0001c0 b4 61 45 bd 3c 9a 3d be b1 55 10 3e 56 e8 c5 bc
       -0.04818888 -0.18515867 0.14095189 -0.024158638
0001d0 2d bc b7 3b 36 28 08 bd a5 5c 14 be be 7a 10 bd
       0.005607149 -0.033241473 -0.14488466 -0.035273306
0001e0 06 91 99 3f e9 3b 64 be 05 26 05 bf 4f 15 c6 be
       1.1997383 -0.22288479 -0.5201114 -0.38688132
0001f0 c1 0d 13 be 50 31 40 bd 04 f5 49 be 68 b6 f1 be
       -0.14360715 -0.046922028 -0.19722372 -0.47209477
000200 5f 60 4a bd a4 96 86 be 88 24 b4 bb 33 22 68 bc
       -0.049408313 -0.26286805 -0.005497519 -0.01416831
000210 e2 49 57 bc 1e 13 e9 bd 87 4b ef bd 28 74 bf 3d
       -0.013140174 -0.113805994 -0.116843276 0.09348327
000220 19 65 76 bd 2f 98 a0 3e 27 0c a0 3f 62 84 3d be
       -0.060155008 0.31366107 1.2503709 -0.18507531
000230 31 fd 6f 3f d7 78 6f bd 26 34 a9 3d a2 ea 95 bb
       0.93745714 -0.05846485 0.082619 -0.0045750896
000240 f3 d8 7d 3c e5 b4 1c 3e 55 e4 04 3d 53 62 5c 3c
       0.015493619 0.15303381 0.032444317 0.013451177
000250 14 55 7e 3c e7 8b 97 bc 66 cb dd 3d 6e 46 80 3c
       0.015523214 -0.018499328 0.10829811 0.015658583
000260 dd 79 c3 bc 77 d4 90 bc 63 c1 05 bd 9e b3 fa bd
       -0.02386182 -0.017679436 -0.03265513 -0.122412905
000270 62 e4 fb bc a5 36 71 be d8 90 0d bd c5 60 24 3c
       -0.03074855 -0.23556001 -0.034561962 0.010032837
000280 3c 41 78 3d d2 f1 04 be 15 a2 8c bd 47 00 4b be
       0.060609087 -0.12982872 -0.06866852 -0.19824325
000290 50 ce 02 3d 2d d4 78 3d 14 c1 bc bd 8f 49 98 bf
       0.031935036 0.06074922 -0.09216514 -1.1897448
0002a0 c4 db 4c 3e 3f 2c b5 3e d0 ef 98 3e b6 41 b7 3d
       0.20005709 0.3538532 0.29870462 0.0894808
0002b0 71 6b 93 3d 9d 5b 26 3e 62 57 03 3f 8f fe 1a 3e
       0.07198227 0.16245885 0.5130521 0.15136169
0002c0 e8 fd 7c 3e ff 35 ed 3c 17 cd 0b be 4e 19 a5 bd
       0.24706233 0.028956411 -0.13652454 -0.08061467
0002d0 89 8e 3f 3d 1a 55 8c 3b 2d a6 94 3d 2d cf 03 bd
       0.04676679 0.004282606 0.07258258 -0.03218
0002e0 35 70 45 3e 77 c8 a6 bf a7 e9 a2 3d ff 60 7d bf
       0.19281085 -1.3029927 0.07954722 -0.9897613
0002f0 03 ee 5f bd 1e 64 4e 3a 01 84 ab bc 4b 21 63 3d
       -0.054670345 0.0007873195 -0.020936968 0.055451673
000300 7e 44 62 3d e2 71 7c bd d2 8a 19 3a 01 0f 40 3d
       0.0552411 -0.061632045 0.00058571727 0.04688931
000310 20 70 bf 3c 35 8b 81 3d 13 b2 65 bd 69 43 63 ba
       0.023368895 0.0632538 -0.056078028 -0.00086694077
000320 e7 7c eb 3a bd aa 05 3e 0a cd 1a bb 00 79 81 3b
       0.0017966301 0.13053413 -0.0023620748 0.003951192
000330 c2 30 72 3d 2a 48 2c 3e c1 8a d0 3a 9e 7c 79 3e
       0.05912853 0.16824403 0.0015910493 0.24363944
000340 76 1d b3 3d 0f 2c fe bd e4 84 90 bc b5 e0 1a 3c
       0.087458536 -0.12410747 -0.017641492 0.009452988
000350 6f 9d 24 be ad b1 a6 3c b3 49 81 bf 70 80 ac 3e
       -0.16075681 0.020348394 -1.0100616 0.3369174
000360 14 60 f3 3e 05 22 da 3e cb 5b 9c 3e a2 06 90 3d
       0.4753424 0.4260408 0.30538782 0.07032515
000370 a4 39 a7 3e 66 c4 ec 3e 81 f7 31 3e 47 59 ca 3d
       0.32661164 0.4624359 0.17379571 0.098803096
000380 2e f9 12 3e 6b e0 de bd 8a e6 41 3d f8 4b 57 bd
       0.14352867 -0.10882648 0.047339 -0.052562684
000390 80 b4 78 3d 3d ca 9c bc a2 c1 53 3d d9 e3 b8 3c
       0.060719013 -0.019139403 0.051698335 0.022569584
0003a0 05 19 99 bf a4 dd 33 3e d1 da 5f bf 17 dd ba bc
       -1.196076 0.17565018 -0.8744326 -0.022810502
0003b0 ee 88 36 3c a6 de 6c 3c e3 b1 aa ba e2 50 76 bd
       0.011141045 0.01445738 -0.0013022985 -0.06013573
0003c0 5f 2b cc 3b 41 91 99 3c a6 13 14 3d 66 33 cd ba
       0.006230756 0.01874602 0.03615155 -0.0015655577
0003d0 13 39 77 bd c5 21 17 3d f2 7d 5a 3c ba 0c 31 3d
       -0.060357165 0.03689744 0.013335692 0.043225028
0003e0 39 5c a8 bc 5b c5 c0 bd f9 13 36 be 9e 7f 24 bc
       -0.020551788 -0.094126426 -0.17781056 -0.010040192
0003f0 8c 84 d5 3b 2e 38 04 be 7c 47 85 be 74 87 c6 3d
       0.006516045 -0.12912056 -0.260311 0.096938044

dense1.bias f4 [64]
000000 0c 03 ab bd cf 19 11 bd f5 c6 fa bd bb be 79 3e
       -0.083501905 -0.035425004 -0.12244979 0.24389164
000010 ce f5 5d 3e 43 13 9b be a0 83 a8 3e 8e 02 c4 3e
       0.21675798 -0.30288133 0.32912922 0.382832
000020 2c df e5 3d 30 e6 d5 3d 9d 61 ae 3d 1d e2 8e 3e
       0.11224207 0.104442954 0.08514712 0.27906886
000030 43 b4 45 3e bd 3f b4 bd a2 35 96 3d 6f 7a 92 3e
       0.19307046 -0.088012196 0.073344484 0.28609034
000040 ea 41 d1 3e a9 fe dc bc 97 34 d2 bd 17 74 09 be
       0.408706 -0.0269769 -0.10263937 -0.13423191
000050 f7 64 9f 3e 06 cf 37 be c1 27 de bd 0d 80 95 bd
       0.31131718 -0.17950067 -0.10847426 -0.072998144
000060 ae be d3 3d 6c 22 3e be d7 61 c6 3e e6 64 76 3d
       0.10339104 -0.18567818 0.3874652 0.060154818
000070 ba c3 18 3e 9f 87 04 be 5c 7c d0 be 1d 5e 8d 3c
       0.14918414 -0.1294236 -0.4071988 0.01725679
000080 c4 c8 e6 bd b1 c3 3d be ac fe 98 3d e4 92 9a 3c
       -0.11268762 -0.18531682 0.0747045 0.018868871
000090 f0 2f 2b 3d dc 4d a8 be b1 a0 d0 bd bd cf 53 bd
       0.041793764 -0.32871902 -0.101868995 -0.051711787
0000a0 65 91 3d 3e c0 d4 64 be 90 85 a1 3e fd b5 d7 bd
       0.18512495 -0.22346783 0.31547213 -0.105327584
0000b0 c0 7f 7e 3e 86 82 31 bd 9d 78 d0 be f6 b5 06 3e
       0.2485342 -0.043337367 -0.4071702 0.1315535
0000c0 99 c9 94 3d 1a e8 c3 bd 2f 34 0a be 2a 8c 77 be
       0.07265014 -0.09565754 -0.13496469 -0.24174562
0000d0 36 69 dc bd 0e cd 25 be f0 b8 92 3e 18 82 32 3e
       -0.10762255 -0.16191503 0.2865672 0.1743244
0000e0 08 ad 40 bd 2a 88 74 3e 20 1a e1 bc 4f b7 18 be
       -0.047040015 0.23880067 -0.027478278 -0.14913677
0000f0 b8 a1 a0 3d a6 e1 e8 3c e2 46 ae bd c0 2a 17 be
       0.078433454 0.02842791 -0.085096136 -0.14762402

dense2.weight f4 [64, 64]
000000 49 e4 f4 3c 00 6e 5a 3d 8f db 50 3d 1e 07 23 be
       0.029894011 0.05332756 0.050990637 -0.15920684
000010 1a 4c 1c be 1b af 55 3e 01 44 ab bb eb 5c dc bd
       -0.15263405 0.20867579 -0.0052266126 -0.1075991
000020 07 96 06 be 6f f6 ef 3a 61 9c 98 3d ac 54 61 3c
       -0.13143168 0.0018307696 0.07451702 0.0137530975
000030 3f 1b 97 bc ec f3 db 3d 72 f6 d7 3d a9 87 00 bd
       -0.01844561 0.10739884 0.105450526 -0.031379376
000040 65 a5 bc bc 7f b9 e2 bd ad 78 8d 3e c4 eb 73 3d
       -0.023028085 -0.11070537 0.2763113 0.059551015
000050 12 a8 c8 bd 6c 1a 54 3e ad fe 22 bc 2f 12 87 3d
       -0.09797682 0.20713204 -0.009948415 0.06595265
000060 ba f5 a9 bc 02 2b 61 3e b0 46 ac bd 67 8b f3 3a
       -0.020747054 0.21989062 -0.0841192 0.0018580974
000070 9b ce 9a 3c c6 e6 39 3e 69 00 3f 3d ca 13 b5 be
       0.018897345 0.1815444 0.04663125 -0.3536666
000080 f4 f6 04 3e fe 6e 30 be 72 56 8e bc 58 66 e5 bc
       0.1298483 -0.1722984 -0.017375205 -0.028002903
000090 d3 42 94 3d c5 75 87 3e a9 d5 97 bd 81 0a aa bc
       0.07239308 0.2645704 -0.07413799 -0.020756962
0000a0 08 cc 9d bc a7 e1 7e 3e 6e bd 55 3b 39 84 b5 3b
       -0.019262329 0.24890767 0.003261413 0.005539444
0000b0 73 f9 7f bd 03 a0 92 be 5c 3e a8 3d 08 a6 6c 3b
       -0.062493753 -0.28637704 0.08215019 0.0036109705
0000c0 93 b0 3b 3d 56 52 bc 3d c8 6a 84 3e 64 5c 1f 3e
       0.04582269 0.09195392 0.25862718 0.15562588
0000d0 38 14 ae bb ba 5c 10 3e f8 57 46 bd eb c0 0f 3d
       -0.005312469 0.14097872 -0.048423737 0.03509609
0000e0 19 a0 e8 3c f1 a7 eb 3c 71 eb 2b be 82 c7 25 3e
       0.028396653 0.028766604 -0.16789033 0.16189387
0000f0 da 0d ae bd 1a c7 61 be 05 ee 1e 3d 69 3a ef bc
       -0.08498736 -0.22048607 0.038801212 -0.029202657
000100 b4 05 91 3c 94 f6 4c 3d 33 61 9f 3d 82 03 ee 3b
       0.017702915 0.050039843 0.07782211 0.0072636018
000110 24 78 9d bb e9 8c 06 3e 77 8e 89 bd ad d7 66 be
       -0.0048055816 0.1313969 -0.06716626 -0.22543211
000120 c2 70 44 be eb 4b ff bd f6 e1 4e bd 90 50 40 be
       -0.19183639 -0.12465652 -0.050508462 -0.18780732
000130 31 25 0e be 8a 93 0a 3e 42 f8 ef 3c 4b c1 90 3d
       -0.13881375 0.13532844 0.029293183 0.07068118
000140 c1 26 ed bc f1 5f 96 3d 67 c5 7b 3e e4 70 fa 3c
       -0.028949143 0.07342518 0.24587022 0.030571409
000150 bb b7 ee bd 70 ea 0a 3e 11 d2 b2 3d ae e1 f9 3d
       -0.116561376 0.13565993 0.08731473 0.12201248
000160 99 df 01 bd f8 7b 8f 3e 66 d3 10 bd b1 ab d6 bd
       -0.03170738 0.28024268 -0.035357855 -0.10481966
000170 04 03 c8 bd 8f 1f 79 3d 67 ed 5c bd 37 e0 37 3e
       -0.097662 0.060821112 -0.053937342 0.17956625
000180 ca 92 e2 3d 10 c9 86 3e d6 cb 09 be bb d4 01 be
       0.11063154 0.26325274 -0.13456663 -0.12678806
000190 a3 fe 31 3e 6d 8f e2 3d de da d4 3d a3 91 5d bd
       0.17382292 0.110625125 0.10393308 -0.054093968
0001a0 e3 0a 49 bc a6 79 16 3e 95 75 0f be eb 6c 2c bd
       -0.012270662 0.14694843 -0.14009698 -0.04209606
0001b0 9f de 39 3d e6 35 2d 3e 91 87 94 3d 7e e3 0e be
       0.045378324 0.16915092 0.0725242 -0.13953969
0001c0 e3 ee da 3c a5 76 4c bd cd 1c 87 3e 7e 01 9a 3c
       0.026725238 -0.049917836 0.2638916 0.01879954
0001d0 c1 01 98 bd 01 4e 64 3d da f6 05 3d 5a fc 37 3d
       -0.074222095 0.055738453 0.03270612 0.044918396
0001e0 39 f1 9a bb 46 02 b0 bb a6 f7 da 3d 79 ef a0 3d
       -0.004728463 -0.0053713648 0.106917664 0.07858176
0001f0 e1 8b 02 be a3 ce 2c 3e 2b a3 39 3d 74 ff 04 bd
       -0.12748672 0.168757 0.045321625 -0.03247018
000200 d5 5c 19 3e 51 e1 0d 3e 88 97 7b bd be bf 89 bd
       0.14976819 0.13855483 -0.06142381 -0.06726025
000210 37 03 f6 bd d8 56 1a 3e 04 d3 9b 3c 4a a7 f9 bd
       -0.12012332 0.15072191 0.019021519 -0.12190111
000220 45 f0 1f bd eb c4 71 bd 05 87 4a 3d 48 58 b0 bd
       -0.0390475 -0.059025686 0.04944517 -0.08610588
000230 32 e0 12 bd bc 57 05 3e e4 c0 98 3a 26 24 e0 bd
       -0.03585834 0.1302175 0.0011654166 -0.10944395
000240 a6 8a 59 bd c2 49 38 be dc 8e ba 3e 1e 05 32 ba
       -0.05311074 -0.17996886 0.36437118 -0.00067909237
000250 b5 69 81 bd 5b 94 73 3e 2e f7 59 3e 14 8d 1f 3e
       -0.0631899 0.23787062 0.21285698 0.15581161
000260 c3 7e 08 bc 37 50 91 3e 45 ed dc 3c aa 0b b9 bd
       -0.008331004 0.28381512 0.026968608 -0.09035428
000270 9f e4 72 bc 9e 76 53 3e 30 99 32 3e 86 40 3d be
       -0.014825015 0.20650718 0.17441249 -0.18481645
000280 cd 6f 5b 3d 67 6d 44 be 4c cb 75 bd 8c 2d 7f bd
       0.05357342 -0.19182359 -0.060008332 -0.062299296
000290 df 13 e7 bd ba 52 67 3e 18 d5 df bd 2a 2a c7 bc
       -0.11283087 0.22590151 -0.10929316 -0.024312098
0002a0 fb a8 c9 bc bb e6 c5 3d 27 a4 b4 3b 96 83 ba 3d
       -0.024616709 0.09663149 0.0055127325 0.09107129
0002b0 a3 5a 74 bd d4 39 0a be d1 75 f2 3d b5 48 89 bd
       -0.05965675 -0.13498622 0.11838878 -0.06703321
0002c0 d4 9c ca 3d ad f6 cb bd 7e 44 94 3e 21 45 1c 3e
       0.09893194 -0.09959159 0.28958505 0.15260746
0002d0 c3 36 25 bd 46 85 3d 3e 02 20 e9 ba 7d f9 cd 3d
       -0.040335428 0.18507871 -0.0017786028 0.10057352
0002e0 ab f2 9e 3d 22 1a e8 bc 08 6b 3f be 38 39 e3 3d
       0.07761129 -0.028332774 -0.18693173 0.11094898
0002f0 21 8f 39 bd 68 30 38 be 4d f0 47 bd 3e f3 8a 3c
       -0.045302514 -0.17987216 -0.048813153 0.01696169
000300 e2 58 2a bd f8 80 45 3b 23 49 9e bc b2 d5 03 3e
       -0.04158867 0.0030136686 -0.019321984 0.12874487
000310 d7 53 cc 3c e9 ea 79 bd 80 4e 25 3e 55 49 60 3e
       0.024942322 -0.061015043 0.16143227 0.21902974
000320 60 60 f7 3d f1 de e1 bb 2b eb f3 bc 4f 36 e9 bc
       0.12078929 -0.0068930318 -0.029775223 -0.02846828
000330 c9 3c 0a 3d 91 54 f3 bc a9 9a 86 bd b8 e0 b4 3d
       0.033749375 -0.02970341 -0.06572468 0.08831924
000340 87 28 94 3d 6a f5 23 3e 38 76 9e be 45 d0 23 bb
       0.072342925 0.16011587 -0.3094957 -0.0024995964
000350 08 32 f6 3d c2 39 19 be 9f fa b2 bd 0c 4b 0e be
       0.120212615 -0.14963439 -0.087392084 -0.13895816
000360 7c 06 dc 3c 72 80 71 be 28 6d 0f bd a9 37 25 3d
       0.02685856 -0.23584154 -0.03501621 0.040336285
000370 f3 39 35 3d 5e 90 c0 bb da e1 28 bd e0 3d 7a 3e
       0.044244718 -0.005876585 -0.041231014 0.24437666
000380 1c 41 8f b9 5a 52 12 bd f4 a0 a5 bd 48 46 02 3e
       -0.00027323596 -0.035723068 -0.0808734 0.12722123
000390 b0 77 25 bd 5b 19 17 be 46 28 54 3e 1e c2 a4 3d
       -0.040397346 -0.14755766 0.20718488 0.080448374
0003a0 62 b0 08 bc ba 80 14 be 05 eb e4 3d 0c 70 91 bd
       -0.008342834 -0.1450223 0.11177639 -0.07101449
0003b0 98 7c be bb 8d 53 c0 3d ed ca 94 bd b9 7d 62 3d
       -0.0058131926 0.09390936 -0.072652675 0.05529568
0003c0 35 5a 8e bd 4d f9 32 bd 20 ac 20 be 92 17 21 3d
       -0.069507994 -0.043694783 -0.1569066 0.03932912
0003d0 72 9d 5b 3d be 4a 1b be e3 3f 0a 3e 23 ea 71 bd
       0.05361695 -0.1516523 0.13500933 -0.05906118
0003e0 20 56 94 bc 13 e7 66 3c a8 47 0e 3e 08 b0 12 be
       -0.018107474 0.014093178 0.13894522 -0.14324963
0003f0 cb a9 0d bd b8 ae de 3d ef bd 6c bd 5d a6 e1 bc
       -0.034585755 0.10873169 -0.057798322 -0.027545149

dense2.bias f4 [64]
000000 db 81 7e 3e c2 76 a1 be 20 9b 65 3e 2b 11 cb bd
       0.24854223 -0.31535918 0.22422457 -0.09915384
000010 98 18 c7 3d ed 2f 68 3e 00 8e ab 3e 27 7a bd 3e
       0.09721488 0.22674532 0.33506775 0.37007257
000020 71 fe 56 3d 93 c8 9a 3e 57 b1 1f be fe 74 80 be
       0.052488748 0.3023115 -0.15594994 -0.25089258
000030 00 8f 6b 3e 27 38 15 be 6a d0 6f 3d 61 da 00 3d
       0.23003769 -0.14572202 0.05854837 0.031458262
000040 4d f1 09 3e 4b f9 35 be a2 bd 96 3e cc 44 f2 bc
       0.13470955 -0.17770879 0.29441553 -0.02957382
000050 c9 1a 1a 3e fa 47 bf be 29 0e 51 3c 43 88 ed bd
       0.1504928 -0.373596 0.012759724 -0.115982555
000060 a4 d8 a8 be 3a 95 61 3e af e9 04 be 25 bf a6 3d
       -0.32977784 0.22029582 -0.12979768 0.08141927
000070 36 60 2c 3c 7d d1 6e 3e 51 41 6a bc 79 0d c6 3e
       0.010520985 0.23322101 -0.014297799 0.38682154
000080 48 3a b3 bd 68 c2 62 3d f0 b0 89 be 1a 65 16 3e
       -0.08751351 0.05536118 -0.26892805 0.14687005
000090 fc 36 97 be 0f 89 90 3e d5 9d d6 3c 06 0d e0 bd
       -0.29534137 0.28229567 0.026198307 -0.10939984
0000a0 9a 50 2a 3c dd 4c 83 bd 68 6a 81 be 7c 71 84 3c
       0.0103951935 -0.06411145 -0.25276494 0.016167395
0000b0 d0 65 9e 3d 2e 59 a3 3e 20 52 97 bd 5b 03 af be
       0.07734263 0.31903976 -0.07388711 -0.34182248
0000c0 0a 22 1b 3e 2e c8 9b 3c 0e 2d 67 be a5 e5 c3 be
       0.15149704 0.019016352 -0.22575781 -0.38261142
0000d0 95 82 cf 3e 18 1c 5b be 97 f6 88 bd 3b a4 46 be
       0.40529314 -0.21397436 -0.06687658 -0.19398586
0000e0 c0 b1 9f bd 0e 56 f5 be 5e 7f 01 3e 33 cc 26 3e
       -0.07797575 -0.47917217 0.12646243 0.16288833
0000f0 04 f2 46 3e 07 e5 37 3d 3f 9e b8 3c b5 86 a2 3d
       0.19428259 0.044896152 0.022536395 0.079358496

dense3.weight f4 [64, 64]
000000 a9 ec 80 bc 4b 0c 25 3d f1 44 d9 bc df 6e ba bd
       -0.015737848 0.040294927 -0.026522132 -0.09103178
000010 49 ca 84 3d b2 26 6f be 67 d6 7b bd f9 f6 29 be
       0.06483895 -0.23354605 -0.061483767 -0.16598119
000020 85 ac 92 3d 34 3a e5 bd 4f 47 7e bd a8 37 b5 3d
       0.07161812 -0.11192742 -0.062079724 0.08848506
000030 45 cd af bc 9e 16 ca 3d 15 4c 16 be 25 41 0b 3c
       -0.021460185 0.09867595 -0.1467746 0.008499418
000040 8c 3a b7 bc 36 f6 88 3d f6 6e 61 be 68 8b c1 3d
       -0.022366785 0.06687586 -0.22014984 0.09450418
000050 2d 77 87 3b 22 f4 8f 3e 54 e9 4c be 5d 94 d9 3d
       0.00413408 0.28115946 -0.20010883 0.10624001
000060 cd 6b 52 3e f3 d6 0a be ac f1 2e 3e fa 05 80 3d
       0.20548935 -0.13558559 0.17084378 0.0625114
000070 6d 28 13 3d 8f f0 be bc 8e 87 e6 bd d8 87 70 bd
       0.035927225 -0.023308067 -0.11256324 -0.0587233
000080 99 8f 51 3b eb 3c 0f be f8 0d 98 3e f1 3e c0 bc
       0.003197646 -0.13988082 0.29698157 -0.023467513
000090 d2 6a 09 3d 2b 06 ea bd 56 bf 1a 3e 79 eb 97 3d
       0.033549137 -0.11426958 0.15112051 0.0741796
0000a0 75 7c de bd d7 38 84 3d 37 ae d4 3d 7d 87 eb bb
       -0.10863582 0.06456154 0.10384791 -0.0071877823
0000b0 67 7b 16 be c3 3b 3f bd 4c 52 0c 3c 90 bb 6c 3e
       -0.14695512 -0.046687853 0.008564543 0.23118424
0000c0 0d b8 c4 bc ef 5c 0b be b6 99 06 3d e5 60 c4 3e
       -0.024013544 -0.1360967 0.032861434 0.38355175
0000d0 47 18 06 be 87 d7 98 3e 10 82 6d 3d 40 71 06 3e
       -0.13095199 0.29851934 0.057985365 0.13129139
0000e0 2c 81 26 be c9 2a 9b 3e a3 95 97 bc 2c 2b 8c 3c
       -0.16260213 0.3030608 -0.01850397 0.01711043
0000f0 a0 f6 e9 bd a3 44 61 be c9 74 b0 3d 4f c9 23 3a
       -0.11423993 -0.21998839 0.08616025 0.0006247954
000100 c2 98 29 be 24 c9 45 3d 43 94 31 be 41 53 13 bb
       -0.16562179 0.048287526 -0.17341714 -0.0022480043
000110 35 b8 29 be c9 90 6f 3d 69 c9 b5 bd c6 a5 2a 3d
       -0.16574176 0.058487687 -0.088763066 0.041662
000120 01 88 20 be 0f 7f 3b 3d cf 22 8d 3d f6 c4 7e bd
       -0.15676881 0.04577547 0.06891405 -0.062199555
000130 18 3a db bd 58 b1 62 3e 36 a8 53 3c 09 17 61 be
       -0.1070444 0.22137964 0.012918523 -0.21981443
000140 05 45 79 be 4a e4 88 bd 20 9c 78 3d 66 85 0c be
       -0.24342735 -0.06684168 0.060695767 -0.13722762
000150 fb f9 b9 bd 57 f5 46 3d 11 9b 95 3c 9c e3 c8 3e
       -0.09080883 0.048573818 0.018262418 0.39236152
000160 d1 90 a2 3d b9 08 13 3d 78 0e 2d be eb f7 01 be
       0.07937778 0.03589699 -0.1690005 -0.1269223
000170 56 52 15 be e5 99 07 be 98 25 cb 3d f4 e7 c9 bd
       -0.1458219 -0.132423 0.0991928 -0.09858695
000180 5b b2 13 be 4a 4b 7d 3d ff 5a 3a 3e 9e 79 5e be
       -0.14423506 0.06183938 0.18198775 -0.21726081
000190 7a a5 ee bd 34 22 c8 bd f2 f0 29 bd 5c 09 05 be
       -0.11652656 -0.09772149 -0.04148955 -0.12991852
0001a0 28 c8 51 3c c1 81 37 bc 95 f2 8a 3d ce 2b 91 3d
       0.012804069 -0.011200369 0.0678455 0.07088433
0001b0 c1 b3 5c 3c 1a b4 33 bd 2c 36 62 be f8 63 2b 3d
       0.013470591 -0.04387293 -0.22090977 0.041843385
0001c0 2a 7e 44 be 72 41 fd bd 39 5c 14 be 50 b9 9b 3e
       -0.19188753 -0.12365998 -0.14488305 0.3041482
0001d0 a8 a2 8e bd 1c 84 fd 3d f6 36 60 39 65 53 8b bc
       -0.06964618 0.123787135 0.00021382779 -0.017007539
0001e0 fb 71 df 3d c8 36 ef 3e f1 3d af bd 76 9f 03 be
       0.10910412 0.46721482 -0.08556736 -0.12853798
0001f0 3d 84 a4 bd 07 ac 62 bd 27 a6 2d be 6c ac 0a be
       -0.08033035 -0.05533984 -0.16957913 -0.13542336
000200 fc 85 02 be 40 84 91 3d 7b 35 0f be 02 5d bf 3d
       -0.12746423 0.07105303 -0.13985245 0.09343912
000210 84 e1 6c be 01 33 05 bd aa 73 b1 bc 50 b6 09 bd
       -0.23132902 -0.032519344 -0.021661598 -0.033621132
000220 3f 0b 20 be be be d1 bb 69 76 f3 bd 6c 9b b7 bd
       -0.1562929 -0.006400912 -0.11887819 -0.08965191
000230 6d a5 1b be 01 47 3b 3e c9 6a 7d 3d 34 37 6b be
       -0.15199824 0.18288805 0.061869416 -0.22970277
000240 ec 1a ff bd 95 e9 81 bd d2 9f 89 bd 78 6a 03 be
       -0.12456307 -0.0634338 -0.067199364 -0.12833583
000250 5a 1d 52 be 03 5e 27 3d 6e a9 09 3c d0 ee bf 3e
       -0.20519009 0.04086114 0.008402212 0.37486887
000260 c2 f8 3b 3e 4c 30 b7 ba 02 34 7a bd c7 5f fe bd
       0.18356612 -0.0013976186 -0.061084755 -0.12420612
000270 45 7f 00 be e4 b4 42 be dc 60 2e 3d 4e c2 67 bd
       -0.1254855 -0.19014317 0.04257284 -0.056581788
000280 3d 7f 05 be 72 60 b9 bc d6 56 68 3e e0 6f 42 be
       -0.13036819 -0.022628997 0.22689375 -0.1898799
000290 a4 db da bd 54 3e fc bb b8 eb 11 be ed 49 24 be
       -0.106864244 -0.00769786 -0.14250076 -0.16043825
0002a0 1d 46 40 3d eb ff bb bd b8 e1 41 3b 03 e5 47 3e
       0.046941865 -0.09179672 0.0029584002 0.19520955
0002b0 b6 81 64 bb c9 7f a7 bd 30 f4 8f bd 23 3c 98 3d
       -0.0034867353 -0.0817867 -0.07028997 0.07433345
0002c0 ba 11 0a be 73 f6 1f be 3d 3a 6e bd cc 24 4f 3e
       -0.13483325 -0.15621357 -0.05816101 0.2022888
0002d0 b0 3c 73 bd 3d 96 9b 3d 35 e9 f8 bd 95 14 21 3e
       -0.059384048 0.07597015 -0.12153856 0.15730508
0002e0 51 8f dc 3d a7 e9 d1 3e b7 4e 41 be df 81 8c be
       0.10769523 0.40998575 -0.18877684 -0.27442834
0002f0 e7 36 32 bd 41 02 3b bd c2 e7 31 be 2f 3f b3 bd
       -0.04350939 -0.045656446 -0.17373565 -0.08752286
000300 be 16 0b bc 8f a0 6e 3d 82 ac bb bd 7c 56 b8 3d
       -0.008489309 0.05825859 -0.09163763 0.090008706
000310 34 56 0e be c3 f2 9d bd 8c b6 ba 3d 17 d5 f1 bc
       -0.13900071 -0.07712319 0.09116849 -0.029520554
000320 b8 2c c9 bd aa 15 b0 3d 9c df bd bd df d2 23 be
       -0.098229825 0.08597882 -0.09271166 -0.1599841
000330 d2 84 5a bc a7 8f 56 3e 06 37 e2 3d 47 b2 5a be
       -0.013337331 0.20953237 0.11045651 -0.2135707
000340 a3 b2 27 be 73 51 f0 bd 62 60 4e 3d e6 eb 70 bb
       -0.16376738 -0.11734285 0.050384887 -0.00367617
000350 a7 81 91 bd 58 9a 80 bc 3e e3 0d 3e ce 51 57 3e
       -0.07104807 -0.015698597 0.13856217 0.210273
000360 f4 ca a0 3d 0d bd 8f 3d 32 5a 97 bc f1 63 1e be
       0.0785121 0.070184804 -0.018475626 -0.15467812
000370 fa d1 55 bd d8 92 12 bd 84 16 04 3c 78 9c a4 bc
       -0.052202202 -0.035784572 0.008062009 -0.020094141
000380 6c 6e e0 bd 94 fe e0 bc 83 b1 cd 3d ce 71 2b be
       -0.10958561 -0.027465142 0.10043623 -0.16742632
000390 73 0a e1 bd 6b c6 ab bd 62 f1 e7 bd d2 41 cc bd
       -0.10988321 -0.083874546 -0.11325337 -0.09973492
0003a0 88 f6 9c 3d 75 56 0a bd e9 ec 0a be 7e da 48 3e
       0.076642096 -0.033773858 -0.13566937 0.19614598
0003b0 01 20 cb 3b 87 77 fc 3c 4e b2 d2 bd 55 b8 d4 bd
       0.0061988835 0.030818714 -0.10287915 -0.10386721
0003c0 e4 e3 1d be e9 e9 0d be 82 52 0c bc 79 cf 22 3e
       -0.15418965 -0.13858761 -0.008564593 0.15899457
0003d0 5a f9 a5 bd de 9c c2 3c 08 18 f8 bd c2 4a 0c bd
       -0.08104201 0.02375644 -0.121139586 -0.034250982
0003e0 96 53 01 3e 4f 94 f0 3e d3 a1 8e 3c cf 6e 1d be
       0.12629542 0.4698815 0.017411148 -0.15374301
0003f0 65 fd de 3c 56 52 3d 3d e7 45 82 bd c5 1c c2 bd
       0.027220437 0.0462211 -0.06360989 -0.094781436

dense3.bias f4 [64]
000000 9d f3 d1 be 7f a8 b0 be 6f 3b 7a be 49 06 9d be
       -0.41006175 -0.34503552 -0.24436735 -0.30668858
000010 d0 b4 9f 3e 38 c7 dc 3e b6 c7 bc bb 43 42 83 bd
       0.31192636 0.43120742 -0.005761112 -0.06409123
000020 3b 49 97 3e da e8 88 be d2 f4 ec bb f5 61 f0 be
       0.29548058 -0.26740152 -0.0072313333 -0.46949735
000030 91 26 53 be b2 9e 3a 3e fe a0 1a bf 61 09 77 3e
       -0.2062018 0.182246 -0.60401905 0.24124672
000040 23 c2 b4 3e 60 74 99 be 94 71 cf be fa da 12 bf
       0.35304365 -0.299716 -0.4051634 -0.5736538
000050 a4 f8 cf 3c cc a4 1c 3e 26 fd f4 bd 43 91 b0 be
       0.025387116 0.1529724 -0.11962347 -0.34485826
000060 8c 2f 10 be 4b c3 69 3d d8 8e e3 3d 02 dd fd 3d
       -0.14080638 0.05707101 0.1111123 0.123956695
000070 3d c0 bc 3d fd bb b7 be 66 5a 83 be 15 4d 19 be
       0.09216354 -0.3588561 -0.25654906 -0.1497081
000080 76 82 81 bd e9 d6 17 be b4 a4 10 bd a9 79 f4 be
       -0.063237116 -0.14828075 -0.035313323 -0.4774907
000090 b4 14 3a be c5 18 7a 3d 64 63 0f 3e 32 43 96 be
       -0.1817196 0.06105878 0.14002758 -0.2934814
0000a0 3f 1f 88 be 29 8a 9f 3e f6 41 87 3e cb f3 5b 3e
       -0.2658634 0.31160095 0.26417512 0.21479718
0000b0 15 7d 14 bf 97 40 f6 be 69 b9 2b 3e ee 2d 25 3e
       -0.5800336 -0.48096153 0.16769947 0.16130802
0000c0 11 ca 11 3e eb ee ad 3c c9 2a 25 3e dd 5d b7 be
       0.14237238 0.021232089 0.16129602 -0.358138
0000d0 1c 43 08 bf 38 a7 4b 3b 8e b3 cf be e1 3c 89 3e
       -0.532274 0.0031075012 -0.40566677 0.2680426
0000e0 01 ee 0b 3d 63 51 2f 3e 51 9a 68 3d 5c a4 e5 be
       0.034162525 0.1712089 0.056787793 -0.4485196
0000f0 a0 b6 37 3d a0 7c da be 4a 91 6f 3e e0 55 62 be
       0.0448519 -0.42673206 0.23395267 -0.22103071

dense4.weight f4 [64, 64]
000000 f1 6f 96 3c 5e 51 13 bd f4 c9 0e be ed e5 eb bd
       0.018363925 -0.03596627 -0.13944227 -0.11518464
000010 d8 3f 48 3d 01 e1 3a bd 6b 8c e2 bd aa fc 27 3e
       0.04888901 -0.045624737 -0.11061939 0.16404977
000020 df 9a cf bd 70 90 da 3c b4 3d 3f 3d f7 65 c2 3c
       -0.10136961 0.026680201 0.046689704 0.023730261
000030 f9 04 11 3e 72 44 c1 bc 4c 37 12 3e 0b 32 4e 3d
       0.14162053 -0.023592208 0.14278907 0.050340693
000040 4e b9 50 3c 75 31 1d 3e d9 26 90 3c cb ce 32 3c
       0.012739493 0.15350898 0.017596649 0.010913561
000050 b5 88 07 3e cb aa b7 bd b2 2f 2f 3e 48 fa 45 3d
       0.13235743 -0.08968123 0.17108038 0.04833439
000060 92 e1 0f be 36 cb 86 3d ac 01 d5 3d 14 00 b4 bc
       -0.14050892 0.06581728 0.104007095 -0.021972694
000070 8e b2 ed 3d b8 ef 38 3e 68 59 f6 3d 95 bb 29 3e
       0.11606322 0.18060195 0.12028772 0.16575463
000080 7b fb 16 be 03 9e 9b bd 3d 03 0f 3e e1 8a 4f 3e
       -0.1474437 -0.07598498 0.13966079 0.20267822
000090 e4 98 a8 3d 73 7f 45 3d 42 7f 11 bd fd 2d 0c 3d
       0.082322866 0.04821725 -0.035521753 0.034223545
0000a0 c2 59 84 bd 7e d8 c8 bb a2 09 b7 bc b9 16 36 3d
       -0.064624324 -0.0061293235 -0.02234346 0.044455264
0000b0 4c 2e 27 3e 56 93 93 3c c3 9c ad bd 1a a1 13 3b
       0.16326255 0.018014591 -0.084771655 0.0022526444
0000c0 8b a5 7d ba 77 2d 80 3d d2 61 bf bd 01 dd a7 bd
       -0.0009675852 0.06258672 -0.093448296 -0.0819645
0000d0 f3 32 2d 3e 02 86 25 3e 25 70 c6 bc b9 e4 6f bd
       0.16913967 0.16164401 -0.024223397 -0.058567736
0000e0 1e c8 84 3d 00 0a e8 bd ee a6 d2 bc 56 46 b8 bd
       0.06483482 -0.11330032 -0.025714364 -0.089977905
0000f0 9f fd 49 bd 1a 74 4b be 1c c5 8e bc 67 e3 a4 3d
       -0.049314138 -0.19868508 -0.017427973 0.08051186
000100 f4 77 88 3e 96 50 cb 3d 73 bf 24 3d e4 d4 81 bd
       0.26654017 0.0992748 0.040221643 -0.06339434
000110 d3 f7 0b bd 83 19 5a 3a 55 25 c2 bd 78 7b ab 3d
       -0.03417189 0.00083198416 -0.09479777 0.08373159
000120 2e 5b 3d be a9 f9 8a 3d ad 79 15 bd be 07 0a 3e
       -0.18491814 0.067859 -0.036492992 0.13479516
000130 7d 5a 71 3d 8a e3 3e 3d f0 08 65 3e eb eb ce 3c
       0.058924187 0.046603717 0.2236669 0.025258979
000140 4a 8e 2d be fd 80 07 3e 05 3f 7e 3e aa 4d 94 3d
       -0.1694881 0.13232799 0.24828728 0.07241376
000150 ab a0 af bd 69 db 9d 3d 98 54 89 bd 61 49 95 3d
       -0.08575567 0.07707865 -0.06705588 0.072893865
000160 78 26 87 bc 43 c9 f5 3c 37 36 1f 3d 27 c9 c6 bc
       -0.016497836 0.030003196 0.038870063 -0.024265839
000170 cc 2b df 3d a9 af fe 3d c4 82 8b 3c de a3 fd 3d
       0.108970255 0.12435848 0.017030127 0.12384771
000180 39 49 3c 3d 3b 66 01 3e 39 a5 71 bd bd 26 c2 3d
       0.045968268 0.12636654 -0.05899546 0.09480045
000190 df f1 95 bc a6 34 1b be 17 dd c4 bd af 4b a3 3d
       -0.01830381 -0.15156803 -0.09612482 0.0797342
0001a0 a7 b3 c3 bd 66 27 07 be 67 5d 88 3d 25 c7 18 3c
       -0.0955575 -0.13198623 0.0665844 0.0093248235
0001b0 3f 7f 58 3e 6f 5f 9e 3e d4 b3 af bd cf 73 2d be
       0.2114229 0.30932185 -0.08579221 -0.16938709
0001c0 12 b2 b0 bd dd 0a af 3d 2a ab fe bd b9 3c 94 3d
       -0.08627714 0.08546994 -0.12434991 0.072381444
0001d0 ae 2e 34 3e a9 99 f7 38 f8 23 08 3e 66 29 0f be
       0.17595932 0.00011806499 0.13294971 -0.13980636
0001e0 02 d3 ef 3d 0c 57 9f 3c e6 d2 9a 3b 10 93 c8 3d
       0.117101684 0.019450687 0.004724848 0.09793675
0001f0 2c f2 49 3d a6 21 93 3d b0 28 63 bd b7 19 2c 3e
       0.04930322 0.07184152 -0.055458724 0.16806684
000200 18 f1 15 bc b5 8e 0e be 00 63 d5 bd 45 52 e4 bd
       -0.0091517195 -0.13921626 -0.104192734 -0.11148504
000210 1b 93 9f 3d 7b be 9d bd 47 68 05 bd 2c a5 19 3e
       0.0779173 -0.07702347 -0.03257015 0.15004414
000220 6a a1 01 be 3d 3d 26 bc ce d1 33 3e f6 fa 86 bd
       -0.12659231 -0.010146436 0.17560503 -0.06590836
000230 68 68 39 3e 38 db 0f 3e 7a c0 dd bb 57 4d 5d bc
       0.18106234 0.14048469 -0.0067673298 -0.013507209
000240 c1 7a 03 3d db a3 0d 3e 3e 62 cb 3d 2e 67 b5 bb
       0.03209949 0.13832037 0.099308476 -0.0055359816
000250 91 88 8e 3d 80 ed 85 bd 3b 20 50 3e fa 75 ce bd
       0.06959642 -0.0653944 0.20324795 -0.10081096
000260 17 bd 0e bd 17 83 3b 3e 4c da 00 3e c3 7b 8e 3d
       -0.0348483 0.18311726 0.12583274 0.069571994
000270 d2 ff c4 3c ac 36 39 3c a0 93 b6 3d 97 73 34 3e
       0.024047766 0.011304539 0.08914876 0.17622219
000280 5c 58 c6 bd be e4 19 3d 71 e8 13 3e 25 7a df 3d
       -0.09684822 0.03757166 0.14444138 0.10911969
000290 3d b3 6a 3e 28 09 c1 3b 23 54 90 bc b0 50 3e 3d
       0.22919936 0.005890984 -0.017618245 0.04646367
0002a0 7b 4e 02 3d 3c 1b 26 bd 07 81 9e 3d 68 45 ba bb
       0.031813126 -0.040553316 0.07739454 -0.0056845434
0002b0 7a 3e 95 3b f0 a4 2d bc f5 fb c9 3d b9 ba 82 bd
       0.004554567 -0.010598406 0.0986251 -0.06383271
0002c0 d1 95 35 3d 24 14 14 3e b0 4f 96 bd dd d9 50 bd
       0.04433233 0.14460808 -0.07339418 -0.05098902
0002d0 7e cb 65 3e 7c 96 76 bc 58 9a 3a be a7 f6 12 3c
       0.22440907 -0.015050527 -0.1822294 0.008969939
0002e0 5b 9c 68 3d cd d4 41 3d e1 e6 dc 3d ce b2 30 bc
       0.056789737 0.047322083 0.10786224 -0.010784818
0002f0 c6 a4 fa 3c c4 e7 2c be 79 d0 17 be 61 52 e5 3d
       0.030596148 -0.16885287 -0.1482562 0.11197353
000300 37 ed 10 3e 0d d6 e8 bd e3 b6 c6 bd 33 05 18 3d
       0.1415299 -0.11368952 -0.097028516 0.037114333
000310 e8 f2 05 bd db f1 44 3d d0 fe 2b be d8 6d 2f bb
       -0.032702357 0.048082214 -0.16796422 -0.0026768353
000320 a8 8c e0 bc 83 29 e7 bd 2d a1 66 3c 54 3f b9 bc
       -0.02741082 -0.112872146 0.014076513 -0.022613205
000330 3d 3c 95 3d be dc 26 bd 3d 06 33 3e 3c e0 2b bb
       0.0728688 -0.04073786 0.17482848 -0.0026226183
000340 0a 7e d7 bd 00 fd 33 3c 4c 7a a2 3d b4 2c 9b bd
       -0.10522087 0.010985613 0.079334825 -0.07576886
000350 82 38 bb 3d fd 6f b6 bd 61 53 00 3b 56 aa 7b bd
       0.091416374 -0.08908079 0.0019580948 -0.061441742
000360 31 ae e2 3c 91 9b 18 3c 2c ee d3 3d 7a c3 0b be
       0.027670952 0.009314434 0.10348162 -0.13648787
000370 0f 32 90 3d 94 4c 9b 3d cd cd 1a 3e 5f 40 0f 3e
       0.07040798 0.075829655 0.1511757 0.139894
000380 84 60 2e be 0a 0f eb bd e1 7b b1 bd f3 43 81 3e
       -0.17029005 -0.11477478 -0.08666206 0.25247154
000390 9b a2 dc 3d ad 84 86 bd 2f ad b2 bc 05 6d 1f 3e
       0.10773202 -0.06568275 -0.021811096 0.15568931
0003a0 a5 79 d9 3c 66 99 89 bc 6c 99 7d bd d0 ff c0 3d
       0.026547262 -0.016796779 -0.061913893 0.09423792
0003b0 26 6b 60 3e c9 5b 7f 3e 93 f6 87 3c 7b 6c ca bd
       0.21915874 0.24937357 0.016597068 -0.09883972
0003c0 59 95 35 bd b8 47 99 3d 33 f4 41 be a7 58 ba 3d
       -0.044331882 0.074843824 -0.18940811 0.0909894
0003d0 aa 2a 44 3e 3e 3b b6 3d 83 40 81 bd 4a 47 17 be
       0.191569 0.08898018 -0.06311133 -0.14773288
0003e0 66 76 42 3d 75 3d 40 bd 54 7c ca 3d ae 71 00 3d
       0.047476195 -0.04693361 0.09886995 0.031358413
0003f0 63 58 9a bd 44 56 a6 bd 41 3f f4 bd 61 43 f2 bc
       -0.0753639 -0.081219226 -0.11926127 -0.029573144

dense4.bias f4 [64]
000000 4a 33 93 3c 7d e3 43 be a8 3d 28 3d 50 1f d8 bd
       0.017968792 -0.19129749 0.041074425 -0.105528474
000010 23 3d 43 3e 55 7e 81 be a9 92 12 bd c3 d5 26 bc
       0.1906629 -0.25291696 -0.035784397 -0.010182801
000020 8c 2b af 3c 45 3b 31 be 91 d2 9c bd 1d 50 69 bc
       0.02138307 -0.17307766 -0.0765735 -0.014240292
000030 f4 22 b0 be 29 52 87 be 39 7d f6 bd 5b f7 90 be
       -0.34401667 -0.2642987 -0.12035603 -0.28313717
000040 18 e7 58 be e8 53 17 3e 90 69 69 3d 33 c1 84 be
       -0.21181905 0.14778101 0.056985438 -0.2592865
000050 99 3a 71 3e 73 e5 dd be 56 da fc 3b 5e af d5 be
       0.2355751 -0.43339118 0.0077164574 -0.41735357
000060 6a 3c 37 3d ea bb 9f be a9 91 49 be fa 71 76 be
       0.04473535 -0.31198055 -0.19684471 -0.24066916
000070 a6 53 63 be 1f ca 6f be 8f 1d 3b be fb ad c1 bd
       -0.22199878 -0.23416947 -0.18272994 -0.09457012
000080 3e 6e b6 be 34 ce ca 3d 9d 5e 43 3e ed 2f 78 be
       -0.35630983 0.099026114 0.19079061 -0.24237032
000090 6c 04 d5 3d cf cc 67 be aa 3c 68 be 14 17 97 bd
       0.10401234 -0.22636722 -0.22679392 -0.07377449
0000a0 00 db 28 bd 06 9d 3d be 63 5c 28 be 4a 1c 73 be
       -0.04122448 -0.18516931 -0.16441493 -0.2374126
0000b0 c3 94 8b be 2b ee 0f 3e 7f 46 a3 be f3 db a3 bd
       -0.27261934 0.14055698 -0.31889722 -0.08000936
0000c0 06 de 8c bd 42 c4 bb 3d 37 23 34 3d 78 d3 47 be
       -0.06878285 0.091682926 0.043978896 -0.19514263
0000d0 fa cd 61 be ed 4e 56 bd 3b 17 73 be 0e 7b fc bd
       -0.2205123 -0.052321363 -0.2373933 -0.12328158
0000e0 e2 06 1e be 40 b2 7a be dd cb f0 3d 97 56 8c be
       -0.15432313 -0.2448206 0.11757634 -0.27409813
0000f0 90 5f a1 be 95 9f 3e be fe 02 75 3d bd f6 d3 bb
       -0.3151822 -0.18615563 0.059817307 -0.0064686225

dense5.weight f4 [64, 64]
000000 9a ab c6 3d 96 8a 1b 3e 02 5f 11 3d 6b 90 1f 3d
       0.09700699 0.15189585 0.035490997 0.038956087
000010 8e 4a 2e 3d 32 00 e5 3c 67 62 88 bd 9a e6 e2 3b
       0.04255157 0.027954195 -0.06659394 0.0069244625
000020 22 b1 70 3d 54 4d f7 3d 08 b0 90 bd 13 80 cb bd
       0.058762677 0.12075296 -0.07064825 -0.099365376
000030 5d 99 a9 3d 52 eb 5c 3d 7e c9 ba bc 8b 5a e3 3d
       0.08281205 0.053935356 -0.022801157 0.11101254
000040 ac b5 c2 3c 5d 11 94 bd 11 f2 d5 3c 1d 53 2d bd
       0.023768269 -0.07229874 0.026116403 -0.04231559
000050 01 9c dc bd 69 66 5a 3e c4 ec 14 3b 7c ac 68 3e
       -0.10771943 0.21328129 0.002272413 0.22722048
000060 c9 99 12 bd bc c5 44 3e 86 ac 20 bd 41 3b 10 3e
       -0.035791192 0.19216055 -0.03922703 0.14085104
000070 02 4d 5c bd 69 6e 2b bd 9c dc 2f bd ab 60 57 3c
       -0.053784378 -0.041853342 -0.042935 0.013145606
000080 7d d9 06 3d 97 b5 8d bd af bc d1 3b ae 97 c2 3d
       0.032922257 -0.06919401 0.0064006667 0.09501587
000090 a1 fe a2 3d 81 16 c0 bd 27 2a 08 bc a0 e2 57 bc
       0.07958723 -0.09379292 -0.008310831 -0.01317659
0000a0 e8 2d bf bc 8a d8 82 3d e6 47 e7 bd 9a df a7 3d
       -0.02333732 0.06388958 -0.112930104 0.081969455
0000b0 fe 9c 47 3d 0c d4 92 bc 71 4f 1b 3c b7 3c 01 bc
       0.048733704 -0.017923377 0.0094793895 -0.007888011
0000c0 04 58 08 3e 5f 4a 7b 3d 77 f8 de bd 68 cf 51 3e
       0.13314825 0.061350223 -0.10887235 0.20489275
0000d0 0c 62 88 bc c2 3a d4 3d 11 ce 0c bd b7 ab 60 bd
       -0.016648315 0.1036277 -0.034376208 -0.05485126
0000e0 a7 e4 93 3d 28 99 38 3e 7a 78 d4 bd 35 5c 74 bd
       0.07221346 0.18027174 -0.103745416 -0.059658248
0000f0 72 9a 87 3d 20 97 49 3e 85 db 14 bd 97 f4 03 3e
       0.06621255 0.19686556 -0.036342163 0.12886272
000100 45 da be bd 63 45 f5 3b 16 74 af bd 7c 85 1c 3c
       -0.09318975 0.007485078 -0.085670635 0.0095533095
000110 ba 43 0a 3c c6 90 22 3e bb 61 e0 3d f5 59 91 3d
       0.008438999 0.15875539 0.109561406 0.07097236
000120 9f 36 16 be 65 9a 6c 3d 82 11 ea bd 3b dd 1c be
       -0.14669274 0.05776443 -0.114291206 -0.15318768
000130 d6 49 26 3e ce 65 c2 3e 1b b4 c0 3d ed 07 47 3e
       0.16239104 0.37968296 0.094093524 0.19436617
000140 1e ea 2c 3e f8 ce 16 3e f4 58 c5 3d 38 fb bf 3e
       0.16886184 0.1472739 0.09636107 0.37496352
000150 02 1d 53 3a 12 82 40 3e 3d 4d d6 3d 5a f0 e6 3d
       0.0008053334 0.18799618 0.10463951 0.11276312
000160 64 88 aa bb d1 c4 1d 3b 28 a9 fe 3d 77 68 14 3e
       -0.0052042473 0.002407361 0.12434608 0.14492975
000170 3e e4 96 3e f4 42 d8 3e c1 57 66 3b ec 22 ab bd
       0.2947101 0.4223858 0.003514752 -0.0835627
000180 71 a8 e6 3e 06 a0 86 bc a8 5d c5 bb 28 7f 48 3e
       0.45050386 -0.016433727 -0.0060231276 0.19579756
000190 a7 ab f3 bd 0a e7 de 3e 96 f4 da 3d 1c 0b f3 3d
       -0.118979745 0.43535644 0.10691182 0.11867353
0001a0 6d 5e 1e 3e ef bb 7f bc ed 28 28 3c da aa 6e 3d
       0.15465708 -0.015608772 0.010263664 0.058268405
0001b0 6a 63 d1 3e 02 46 05 be 5f 2b b4 3d 92 6d 81 3e
       0.4089616 -0.13014987 0.08797335 0.25278908
0001c0 9d ac 10 be 32 3f 43 3b 3a 2e cb 3d 84 c1 dc 3d
       -0.14128347 0.0029792306 0.099209264 0.10779098
0001d0 8c 01 8c 3e 97 04 48 39 9e e5 c7 3e 09 ad 8e 3e
       0.2734493 0.00019075196 0.39042372 0.2786639
0001e0 0f ef 90 bc db 40 a0 ba e0 90 4a be 8c 9d a0 3e
       -0.017692117 -0.001222636 -0.19781828 0.313702
0001f0 d2 92 da 3d 24 72 73 3d 4f 44 e5 3c ea 20 9e 3d
       0.10672535 0.059435025 0.027986674 0.077211216
000200 2f 7f 8c bd 26 3c e8 3d 4d da a3 3d df 15 b6 bc
       -0.06860196 0.113395974 0.08000622 -0.022227226
000210 52 6c 4e 3c b5 7a 79 3e 5f f9 65 3d 0d 5d cf bd
       0.012599068 0.24363215 0.056146022 -0.1012517
000220 2f 18 38 bd 4d 5b 38 3d 7c 94 51 3d 85 55 84 bd
       -0.04494494 0.045008946 0.051166996 -0.06461624
000230 14 3f c5 3d e1 59 c8 3d 97 3e f2 3c 5c 99 ef 3d
       0.09631172 0.09782768 0.02957086 0.11699173
000240 17 ed 80 3e cc 79 43 3c 45 ce 04 be 2e 6f 56 bd
       0.25180885 0.011930894 -0.1296931 -0.052352123
000250 5d 88 62 bd c9 76 a0 3d 45 41 5c bc 37 0e 12 3e
       -0.055305827 0.078351565 -0.013443296 0.14263235
000260 20 a7 09 bd 29 ce 67 3e f2 22 fb bb 5c 01 19 3e
       -0.03360665 0.22637238 -0.007664078 0.14941925
000270 a7 30 ca bc 61 27 f0 3c 10 ba 4e 3d 7c 81 9a 3c
       -0.024681402 0.029315652 0.05047041 0.018860571
000280 f2 a6 07 3d 40 a1 96 3d 2b 98 17 3c 18 de b3 3d
       0.033118196 0.07354975 0.009252588 0.087825954
000290 8b 22 48 3c a3 a2 c4 3d 0b 56 3a 3d 80 96 b7 bd
       0.012215267 0.09601333 0.045492213 -0.089642525
0002a0 e0 7c 02 be 90 7f 62 bc 17 98 95 3c e8 46 14 3d
       -0.12742949 -0.013824359 0.018260999 0.036200434
0002b0 78 29 56 bc 92 06 e0 3d 4d a7 2f 3e 7e 7f db 3c
       -0.01307141 0.10938753 0.17153664 0.026794191
0002c0 0d 9a 81 3c 89 a9 a5 3d 1f 15 b5 bd 41 bb 8a 3e
       0.015820527 0.08088977 -0.08841919 0.27095988
0002d0 37 d9 c5 bd 4b 19 c7 3d a7 da 54 3d 13 51 90 3d
       -0.09660571 0.09721621 0.051966336 0.07046714
0002e0 f9 1a f9 3c a1 6d 10 3e 72 d5 bd 3c 52 c7 a8 3c
       0.03040837 0.1410432 0.023173068 0.020602856
0002f0 3c 94 e2 3d 00 2a ed 3d 4f 82 24 bd c2 d8 8b 3d
       0.1106343 0.115802765 -0.040163334 0.06828453
000300 81 c8 49 bd 55 e9 55 bb a8 95 a1 3d 62 24 27 bc
       -0.04926348 -0.0032640297 0.07889873 -0.010201545
000310 2e ec ae bd bb c2 55 3e 2e 86 69 3d 67 5f 18 be
       -0.085411415 0.20875065 0.05701273 -0.14880143
000320 b7 fa b3 3d 13 4e 51 3b bf de f0 3d 05 ab 4e 3d
       0.087880544 0.0031937405 0.117612354 0.050456066
000330 49 a1 34 3d 07 e9 14 bd c8 53 f1 bb 37 7d 7d 3c
       0.044099126 -0.036355045 -0.007364724 0.015471748
000340 25 d1 51 3e f7 2f 14 bd 52 d0 02 be 78 90 05 bc
       0.20489939 -0.036178555 -0.1277478 -0.00815212
000350 79 d4 9e bd 86 9a 4d 3e 2f 73 ca bd b3 d6 47 3e
       -0.0775537 0.20078477 -0.09885251 0.19515495
000360 e8 35 1d 3d c8 6a 2f 3e 59 e0 70 bd 6a e4 90 3d
       0.038381487 0.17130578 -0.058807705 0.070748165
000370 5b 83 62 bd ec e3 12 3d c0 c2 af 3c aa 0e d4 3d
       -0.05530105 0.035861894 0.021455169 0.103543594
000380 73 94 d3 bd 59 c6 35 bd 6c ae b4 bc f1 55 25 3b
       -0.10331049 -0.044378612 -0.022055827 0.0025228227
000390 eb 59 dd bd 25 98 25 3d f9 57 74 3d 83 f0 ec bc
       -0.10808166 0.0404283 0.05965421 -0.028923279
0003a0 06 c8 b1 bd 22 e1 9d 3d 25 97 69 3d d1 c0 da bc
       -0.086807296 0.07708956 0.05702891 -0.02670327
0003b0 82 f8 d0 bd 0e 9d 09 3e ea bc 29 3d 36 89 81 bd
       -0.10203649 0.13438818 0.041439928 -0.06324999
0003c0 8c 7f da 3d f9 c0 35 bd ae 48 83 bd 2b 5d 03 3c
       0.10668859 -0.044373486 -0.06410347 0.008017818
0003d0 14 d5 74 3d 21 90 bc 3d 4b 37 50 3d 96 a7 aa 3d
       0.05977352 0.09207178 0.05083398 0.08332746
0003e0 09 8a 8c 3d 5a 40 e3 3d d4 2b 3c 3d da ce 4b bd
       0.068622656 0.110962585 0.045940235 -0.049757816
0003f0 b4 e7 7a 3d 72 c8 04 3e 71 cc 3e 3c e4 92 cc 3d
       0.061256126 0.12967089 0.011645422 0.09988955

dense5.bias f4 [64]
000000 9c c4 32 be a9 40 dc bd a4 05 34 be 50 62 6c be
       -0.17457813 -0.107545204 -0.17580277 -0.23084378
000010 d4 c0 dc bd f6 e0 8d be 21 0d 24 3c 70 ad ec 3c
       -0.107789665 -0.27710694 0.010012896 0.028891295
000020 cf 1b 03 be dd a1 37 be 11 83 8d bd 17 0c 48 be
       -0.12803577 -0.1793284 -0.069097646 -0.19535862
000030 80 d7 76 be 53 67 02 3a 43 b6 5f be 0d 92 ec 3c
       -0.24105644 0.0004974503 -0.21846871 0.028878236
000040 36 36 3f be 33 9a f9 3c 0d 6e 47 be 41 d7 5a bd
       -0.18673024 0.030469036 -0.19475575 -0.05342794
000050 af ce 69 bd b4 0d 6e 3d 53 4b 0a bd 6c f8 c0 3d
       -0.057081874 0.058118537 -0.03376324 0.09422383
000060 4f b1 c3 bd 30 64 b9 3c 52 4a 22 bd 16 48 7c bd
       -0.09555303 0.022630781 -0.03962166 -0.061592184
000070 25 b6 25 be 20 cf 25 be b9 df 0a 3c 5b 52 3a bd
       -0.16182764 -0.16192293 0.008476191 -0.045488697
000080 42 25 8b 3b 7c f0 e2 bc 84 00 db 3d aa 37 5b bc
       0.004246385 -0.027702563 0.10693458 -0.013379971
000090 78 31 ab bc 97 a6 a7 bb af d2 5b 3c fc 06 17 be
       -0.020897612 -0.0051162946 0.01341693 -0.14748758
0000a0 d5 f3 73 be c1 a8 c9 3d 3c ba 07 be e0 91 9e 3d
       -0.23823483 0.098466404 -0.13254637 0.07742667
0000b0 55 4d bd bd da c9 2a 3d ef 2a b7 bd 46 64 90 be
       -0.092432655 0.041696407 -0.08943736 -0.28201503
0000c0 48 35 c3 3c 84 a2 ce bd 89 b2 3d be 11 5a 02 bd
       0.023829117 -0.10089591 -0.18525137 -0.031824175
0000d0 8c b3 00 3e df 74 d4 3d ba d4 40 bd 95 63 89 be
       0.12568492 0.10373854 -0.04707787 -0.26833788
0000e0 78 b2 0b be 76 8e 6b bc 51 4a e8 bb 2e f5 28 3e
       -0.13642299 -0.014377227 -0.0070889373 0.16499779
0000f0 7f 94 02 be ac c5 a1 be 2e 6d 3e bc 5d 25 ce 3c
       -0.1275196 -0.31596124 -0.01162271 0.0251643
