GraphNeuralNet/Skim3Mu/MHc-160_MA-120_vs_ttZ/models/ParticleNet-nNodes32_AdamW_initLR-0p001_StepLR.pt (torch, 107698 bytes, 89 tensors)

gn0.weight f4 [9]
1.6838248 0.14428331 0.22591123 0.06647721 0.23187594 1.89849 1.4148235 0.9954957
1.5207168
00000000: 9287 d73f 01bf 133e 4655 673e 3425 883d
00000010: e370 6d3e b801 f33f f018 b53f ced8 7e3f
00000020: d9a6 c23f

gn0.bias f4 [9]
-0.014265139 -0.2663068 0.7593506 -0.86934036 0.8967225 0.49809965 -0.49948543 1.8512956
-0.13857798
00000000: 54b8 69bc 5d59 88be cd64 423f 178d 5ebf
00000010: 9b8f 653f eb06 ff3e 8ebc ffbe 41f7 ec3f
00000020: 63e7 0dbe

gn0.mean_scale f4 [9]
0.7833144 0.9606519 0.9661879 0.9456013 0.60758173 0.6036863 0.5485485 0.9954957
1.6792225
00000000: 4b87 483f 48ed 753f 1758 773f ed12 723f
00000010: 7a8a 1b3f 2f8b 1a3f ad6d 0c3f ced8 7e3f
00000020: c3f0 d63f

conv1.mlp.0.weight f4 [32, 18]
0.1829679 -0.0149472635 0.0793846 0.37124997 -0.101004496 0.20627038 0.36503917 -0.96937376
-0.5524458 0.16569637 -0.1164993 0.0969034 0.16882595 -0.10313618 0.02042994 0.4187554
-0.15797131 -0.035594214 0.3290108 -0.07031667 0.12773928 0.07981652 -0.082220376 0.102447785
-0.051388245 -0.52086425 0.21930747 0.20576869 0.14012147 0.060948685 0.06479467 -0.032222714
-0.06692316 -0.3023381 0.13073017 0.03784542 0.02222395 0.14144452 -0.06275151 0.13980518
-0.12713432 -0.11517359 0.32875827 -0.4674375 0.15170518 -0.32545888 0.11139173 0.12518984
0.1481651 -0.10184958 0.006404187 -0.4955728 -0.22631255 -0.10957399 0.36448723 0.17657678
-0.21783319 0.2955005 -0.2572443 0.7052731 0.02504088 -0.7507877 0.08462511 -0.015897112
0.042013597 -0.111773156 0.11966672 0.2275643 -0.0057079354 -0.028217042 -0.018014379 0.052243046
0.47029722 0.14810671 -0.2360162 0.0044894745 -0.06787898 0.10515934 -0.19346651 -0.6052683
0.27426347 0.2703315 -0.048331846 0.09401847 0.06137573 0.023689551 -0.03522539 -0.36060047
-0.06350719 0.11140395 0.21483953 -0.14175597 0.11368572 -0.05979851 0.11980222 0.31242734
0.32760343 -0.5597493 0.20532712 0.098824985 -0.055475242 -0.0967135 -0.15542851 0.064268626
0.03703037 -0.3005767 0.2274911 -0.11716778 -0.066610105 -0.05974302 -0.0030807978 -0.16459155
-0.24431802 0.40514663 0.0884803 0.005614991 0.08577101 -0.15951271 0.08022294 -0.036773775
-0.2213643 -0.090921514 0.010328339 -0.16830115 -0.10753469 0.24643485 -0.5920388 0.2491825
0.08398385 0.025766622 -0.082335636 -0.9667589 -0.14308536 -0.55807483 -0.14634605 0.14265181
-0.12060141 0.12175523 -0.06755632 -0.1899246 -0.00029171933 -0.18729152 0.13139583 -0.13940915
-0.06377327 0.09871572 -0.05639139 0.19662885 0.070272736 0.119502425 0.0739417 -1.0141753
1.1280166 0.2170148 -0.041009814 0.06645526 0.03872111 -0.0035234946 0.07835173 0.24609396
0.018396264 -0.13443407 0.0050909277 0.03306102 0.0015769161 0.019235775 -0.019930834 -1.7420564
-0.15734024 -0.87581164 -0.09138012 -0.0037155382 0.02414079 -0.0071727103 -0.0035505889 -0.024490938
0.00027559267 -0.049523298 0.2058837 -0.09354412 0.017096754 -0.013883609 0.12120465 0.094242424
0.014572137 0.1631864 0.3351744 -0.23458846 0.4941502 0.07858143 0.1976476 -0.24892366
0.1067481 0.020860435 -0.011104671 0.0077176504 -0.18878864 -0.01254732 -0.03331353 0.0072673648
-0.048312046 -0.062282853 -0.0767589 -0.007282529 0.4054996 -0.26355955 0.46865758 -0.006032108
-0.029397568 -0.0024370118 -0.05612916 -0.055896092 -0.009453527 0.007671649 -0.15883139 0.021199271
0.22970863 -0.062983595 -0.07552304 0.16139899 -0.017919863 -0.51153666 0.093418516 -0.3997569
0.32349768 -0.13160336 -0.14102902 0.08871825 -0.13726391 0.039441697 4.806927e-05 -0.42532268
-0.07343937 0.17994793 -0.7830457 0.19435842 -0.35647866 0.17705001 -0.26478043 -0.121526554
0.093449965 -1.2085695 1.0097919 0.1473568 0.050037883 -0.016284246 -0.066889785 -0.15561728
-0.2843062 0.47935697 -0.19567542 -0.0825149 0.05038318 -0.09073999 0.09983293 -0.146275
00000000: f05b 3b3e 5ee5 74bc 6594 a23d 7a14 be3e
00000010: 72db cebd 8b38 533e 6ae6 ba3e e128 78bf
00000020: 176d 0dbf 4fac 293e 2f97 eebd 4a75 c63d
00000030: b6e0 2c3e 1039 d3bd b15c a73c 1c67 d63e
00000040: 3bc3 21be 3dcb 11bd 1b74 a83e 3002 90bd
00000050: 16ce 023e d876 a33d 2863 a8bd 25d0 d13d
00000060: 7b7c 52bd 5c57 05bf 2392 603e 07b5 523e
00000070: 017c 0f3e 54a5 793d 11b3 843d f7fb 03bd
00000080: 020f 89bd 0fcc 9abe 21de 053e cd03 1b3d
00000090: 000f b63c d5d6 103e dd83 80bd 1729 0f3e
000000a0: 802f 02be 22e0 ebbd 0153 a83e f853 efbe
000000b0: 9a58 1b3e 8ca2 a6be 5921 e43d c431 003e
000000c0: 98b8 173e 8396 d0bd 37da d13b b8bb fdbe
000000d0: 7abe 67be 5468 e0bd 129e ba3e 8bd0 343e
000000e0: aa0f 5fbe d74b 973e 86b5 83be c78c 343f
000000f0: 8822 cd3c 9f33 40bf ee4f ad3d a93a 82bc
00000100: 7316 2c3d 53e9 e4bd d313 f53d 9e06 693e
00000110: a209 bbbb 6d27 e7bc e492 93bc cefc 553d
00000120: ccca f03e 49a9 173e 3bae 71be 711c 933b
00000130: 2204 8bbd c85d d73d 161c 46be ddf2 1abf
00000140: 436c 8c3e e468 8a3e 9df7 45bd c18c c03d
00000150: 1e65 7b3d 9710 c23c 8048 10bd a0a0 b8be
00000160: 0f10 82bd c127 e43d e5fe 5b3e 7a28 11be
00000170: 0fd4 e83d 48ef 74bd de5a f53d 7af6 9f3e
00000180: a3bb a73e bb4b 0fbf 4641 523e c164 ca3d
00000190: 023a 63bd ba11 c6bd a728 1fbe 459f 833d
000001a0: 28ad 173d 30e5 99be 6df3 683e a9f5 efbd
000001b0: e16a 88bd 19b5 74bd 36e7 49bb b08a 28be
000001c0: 812e 7abe 616f cf3e 2935 b53d f5fd b73b
000001d0: b6a8 af3d 4d57 23be ed4b a43d 19a0 16bd
000001e0: 53ad 62be 0f35 babd 3238 293c 2357 2cbe
000001f0: 263b dcbd 6b59 7c3e db8f 17bf b329 7f3e
00000200: baff ab3d 8614 d33c 969f a8bd 837d 77bf
00000210: f884 12be fedd 0ebf bddb 15be 5113 123e
00000220: dffd f6bd ce5a f93d f85a 8abd 987b 42be
00000230: e8f1 98b9 59c9 3fbe a18c 063e 46c1 0ebe
00000240: 8f9b 82bd 782b ca3d a8fa 66bd 1359 493e
00000250: 27eb 8f3d b0bd f43d bf6e 973d 7fd0 81bf
00000260: d962 903f 2139 5e3e e8f9 27bd b219 883d
00000270: 079a 1e3d 6eea 66bb df76 a03d 0e00 7c3e
00000280: c3b3 963c 16a9 09be ccd1 a63b fe6a 073d
00000290: 86b0 ce3a 5894 9d3c fd45 a3bc b4fb debf
000002a0: cd1d 21be 3135 60bf 8025 bbbd 6380 73bb
000002b0: e8c2 c53c 0e09 ebbb ffb0 68bb 38a1 c8bc
000002c0: 6c7d 9039 f1d8 4abd 2dd3 523e 0f94 bfbd
000002d0: 7e0e 8c3c 1478 63bc 253a f83d 2c02 c13d
000002e0: f9bf 6e3c 561a 273e fb9b ab3e f537 70be
000002f0: 4101 fd3e 4def a03d 2264 4a3e d8e5 7ebe
00000300: bf9e da3d 81e3 aa3c 5ef0 35bc 58e4 fc3b
00000310: cf51 41be 4693 4dbc c573 08bd 1323 ee3b
00000320: dae2 45bd 4e1c 7fbd c533 9dbd 48a2 eebb
00000330: a59d cf3e 47f1 86be e3f3 ef3e fda8 c5bb
00000340: 2bd3 f0bc 46b6 1fbb b1e7 65bd 4df3 64bd
00000350: f7e2 1abc 7562 fb3b b2a4 22be 18aa ad3c
00000360: bd38 6b3e 8bfd 80bd d3ab 9abd c745 253e
00000370: adcc 92bc 11f4 02bf 3552 bf3d f0ac ccbe
00000380: 7da1 a53e 08c3 06be e969 10be eab1 b53d
00000390: e98e 0cbe 9e8d 213d fc9d 4938 e5c3 d9be
000003a0: 6167 96bd 4544 383e af75 48bf e505 473e
000003b0: 5f84 b6be 994c 353e 4d91 87be eae2 f8bd
000003c0: b262 bf3d 68b2 9abf dc40 813f b3e4 163e
000003d0: 86f4 4c3d 8a66 85bc 83fd 88bd 235a 1fbe
000003e0: 9590 91be 476e f53e 235f 48be 92fd a8bd
000003f0: 985e 4e3d e3d5 b9bd 3575 cc3d 1dc9 15be

conv1.mlp.0.bias f4 [32]
-0.45872673 -0.4958019 -0.48517972 -0.3385764 -0.38701436 -0.4451818 0.1329396 -0.47372743
-0.4868184 -0.36337763 -0.01567798 0.008350089 -0.6316932 -1.033847 0.37084436 -1.042873
0.009311032 -0.23951991 -0.4995181 -0.3426066 -0.16301744 -0.6040564 -0.4790114 -0.3677163
-0.41611093 -0.18199398 -0.74624777 -0.6457041 0.1661468 -0.44020072 -0.30626193 -0.23703253
00000000: 3bde eabe bfd9 fdbe 7a69 f8be e359 adbe
00000010: bf26 c6be deee e3be 5221 083e 678c f2be
00000020: 4340 f9be a20c babe 1b6f 80bc d0ce 083c
00000030: a5b6 21bf 1955 84bf 50df bd3e dd7c 85bf
00000040: 4c8d 183c b544 75be d6c0 ffbe 226a afbe
00000050: 0bee 26be 71a3 1abf fb40 f5be 5045 bcbe
00000060: 7e0c d5be a15c 3abe 180a 3fbf dd4c 25bf
00000070: 6322 2a3e fd61 e1be 5dce 9cbe a8b8 72be

conv1.mlp.2.weight f4 [32]
0.9930926 1.0842222 0.9552076 1.2703345 1.0092807 1.2235852 0.96013355 0.9113422
0.89067143 1.37872 1.0330883 1.2411445 0.9805572 1.0708102 0.8710769 0.9618489
0.88883495 0.9923524 1.3733925 1.1885883 0.94535565 1.2565444 1.1625768 1.2554746
0.9547971 1.1217252 1.2726856 1.2029699 1.0279244 1.0406849 1.0177857 0.9470456
00000000: 513b 7e3f cbc7 8a3f 7c88 743f 529a a23f
00000010: 1c30 813f 719e 9c3f 50cb 753f b94d 693f
00000020: 0b03 643f e679 b03f 3d3c 843f d3dd 9e3f
00000030: cc05 7b3f 4f10 893f e5fe 5e3f bb3b 763f
00000040: b08a 633f cf0a 7e3f 53cb af3f a923 983f
00000050: d402 723f 72d6 a03f 51cf 943f 64b3 a03f
00000060: 956d 743f b194 8f3f 5de7 a23f ebfa 993f
00000070: 0793 833f 2a35 853f cd46 823f 9571 723f

conv1.mlp.2.bias f4 [32]
-0.2837517 -0.28124848 -0.5820181 -0.17383379 -0.43099356 -0.27630678 0.0822194 -0.11515936
-0.3819959 -0.54593885 0.0024404803 -0.37185386 -0.42148143 -0.17788692 -0.15821752 -0.57225364
-0.07820735 -0.36474693 -0.41871235 0.16186926 0.27062437 0.38012448 -0.042196672 -0.42402053
-0.38452733 0.0060330215 -0.047147162 -0.1297073 0.46039128 -0.06958946 0.08835802 -0.29422694
00000000: e747 91be cdff 8fbe 23ff 14bf 7c01 32be
00000010: 30ab dcbe 1578 8dbe a562 a83d acd8 ebbd
00000020: f794 c3be a6c2 0bbf 77f0 1f3b a163 bebe
00000030: 6acc d7be fd27 36be c603 22be 377f 12bf
00000040: 2d2b a0bd 1cc0 babe 7761 d6be 0ec1 253e
00000050: 478f 8a3e ad9f c23e 6bd6 2cbd 3819 d9be
00000060: c4e0 c4be a7b0 c53b 621d 41bd fed1 04be
00000070: 68b8 eb3e eb84 8ebd 0df5 b43d eaa4 96be

conv1.mlp.2.running_mean f4 [32]
-0.7724425 -0.7019121 -0.62895167 -0.49601337 -0.7461214 -0.5142909 0.39527315 -0.7744378
-0.8833527 -0.8897672 -0.45239043 -0.6301734 -0.6988876 -0.9464041 1.1668428 -0.8700156
1.3626628 -0.6838414 -0.79318434 -0.39981622 -0.36594746 -0.1496046 -0.4082603 -0.6245275
-0.71718115 -0.26528785 -0.8431899 -0.83039755 0.060211085 -0.37775514 -0.7275959 -0.8380135
00000000: cbbe 45bf 83b0 33bf fa02 21bf 77f5 fdbe
00000010: d001 3fbf 92a8 03bf 3e61 ca3e 8e41 46bf
00000020: 6723 62bf c9c7 63bf b89f e7be 0b53 21bf
00000030: 4cea 32bf 8a47 72bf 1b5b 953f 58b9 5ebf
00000040: bc6b ae3f 3b10 2fbf 210e 4bbf b6b4 ccbe
00000050: 775d bbbe f331 19be 7e07 d1be 09e1 1fbf
00000060: 2f99 37bf cfd3 87be 4bdb 57bf ef94 54bf
00000070: e69f 763d 1f69 c1be ba43 3abf 0e88 56bf

conv1.mlp.2.running_var f4 [32]
0.04501983 0.045028593 0.27926975 0.84390855 0.050123516 0.12490916 0.6763936 0.062700815
0.037762206 0.0048625725 0.114612535 0.007573923 0.1862447 0.020720972 0.2162559 0.016788771
0.18454862 0.246205 0.018035237 1.3459704 0.47306135 2.2662394 0.25605822 0.05361784
0.25477585 0.07263067 0.06861515 0.08207612 0.49748713 0.5535897 0.11637612 0.029597083
00000000: b766 383d e76f 383d 72fc 8e3e 640a 583f
00000010: 514e 4d3d 60d0 ff3d 2228 2d3f 4969 803d
00000020: 8bac 1a3d 3756 9f3b fab9 ea3d ac2e f83b
00000030: eeb6 3e3e 07bf a93c 3072 5d3e 9b88 893c
00000040: 50fa 3c3e 2a1d 7c3e a2be 933c c248 ac3f
00000050: 1935 f23e 110a 1140 101a 833e 619e 5b3d
00000060: fb71 823e 64bf 943d 1a86 8c3d 8617 a83d
00000070: a2b6 fe3e 0eb8 0d3f 9a56 ee3d 9575 f23c

conv1.mlp.4.weight f4 [32, 32]
-0.17946105 0.035748567 -0.010210018 -0.05750777 -0.001805764 -0.13894278 -0.081691295 0.06641528
-0.01901724 0.69496703 -0.032918744 -0.04655444 0.09409864 0.019880876 0.052431457 0.008150518
-0.028488902 0.08133243 0.5562178 -0.033948857 -0.06129678 -0.15076286 -0.15540862 0.54251647
0.03717569 -0.08394267 -0.018119477 0.0660194 0.0066446676 0.01886136 -0.08570719 0.13239507
0.21321176 0.06867773 0.06571515 -0.056960758 0.010272662 0.02988185 -0.2712144 -0.20482737
0.19505024 0.13659993 0.011631611 0.13969393 -0.032731093 0.1311959 -0.022957815 0.29767084
0.152026 -0.01923896 0.18956833 -0.12056047 0.14386916 -0.33195147 -0.045024194 -0.049228784
0.100416474 -0.16127086 -0.088067934 -0.1805022 0.015171441 0.13316283 -0.05044111 -0.19555944
-0.10274824 0.317179 0.2556805 -0.12017716 0.51001966 0.15709996 0.066412956 -0.070739076
-0.002267804 0.034220826 -0.15157789 -0.3563912 0.31825295 -0.09396116 -0.045466043 -0.035917863
-0.03017447 0.20763457 0.14530769 -0.103192694 -0.3121365 -0.08871271 0.11762342 0.09983162
0.30532038 -0.022056604 -0.11818128 -0.15229349 -0.05067508 -0.14680886 -0.09860649 -0.026667202
0.12911022 -0.003231454 0.029539315 -0.106123164 -0.019794123 -0.12336496 -0.14029211 0.052532185
-0.083761044 0.5567325 -0.21997096 -0.07964696 0.09002604 -0.00534979 0.14723164 0.060792193
0.00045459653 0.014814451 0.5695561 -0.09980445 -0.08701802 -0.07006511 -0.12854946 0.50547546
-0.022872578 -0.11866249 0.08199105 0.052195657 0.016009578 -0.073425226 -0.14561948 0.080665916
-0.16380107 0.27823022 0.08565446 0.37154177 0.22662194 0.33950964 0.14195737 0.03710331
0.07498352 -0.07348863 0.015818208 0.21226318 -0.04786574 -0.13574538 -0.19030334 -0.016084526
0.13493921 0.105363116 -0.09718533 0.2287355 0.08979615 0.18736017 0.05264634 -0.09827635
0.11403284 0.14098105 0.009224427 -0.21052371 -0.33536658 0.20217307 0.13724972 0.06648328
-0.11488021 0.29920095 0.22818276 0.114003785 0.2958545 0.14343835 -0.056842078 0.027842043
0.03887556 0.01612239 0.27176726 -0.07405406 0.12550552 -0.05298874 0.10454445 -0.056772444
-0.12076962 0.2873605 0.14917444 -0.07166813 -0.17427838 -0.0067237075 0.15239517 0.044311415
0.15075928 -0.2068662 -0.048312135 -0.14147262 -0.10441963 -0.0016827099 0.20366272 -0.011602258
-0.008497242 0.20442584 0.10308482 0.48602402 0.12730156 0.44217452 0.22688042 0.0731308
0.14731576 -0.088201754 0.21050677 0.11783383 -0.052136276 -0.18437311 -0.018593734 0.2387104
0.29682925 -0.008873387 -0.1363816 0.3215605 0.07586578 0.05891615 0.22951566 -0.14930786
-0.014744816 0.08218865 -0.024830984 -0.16791984 -0.48014766 0.24067128 0.013864746 -0.06892547
0.009970012 0.22080025 0.045606557 0.44010043 0.25897214 0.54024297 0.19465102 -0.003235377
0.16493846 -0.03767379 0.20941047 0.19462813 0.029200973 -0.14526626 -0.09956099 0.0012277488
0.11289608 0.05838867 -0.08473237 0.26876768 0.088110164 0.05491168 0.14687394 -0.012276191
-0.03472145 -0.040200267 0.016156659 -0.05838375 -0.43951738 0.27882603 0.082449526 0.015079899
00000000: a3c4 37be 176d 123d eb47 27bc 448d 6bbd
00000010: 63af ecba 0447 0ebe c44d a7bd bc04 883d
00000020: 0bca 9bbc 5ce9 313f ced5 06bd deaf 3ebd
00000030: cab6 c03d 38dd a23c 5ec2 563d c089 053c
00000040: 8f61 e9bc 9e91 a63d 4a64 0e3f f50d 0bbd
00000050: 5512 7bbd 9461 1abe 7023 1fbe 5ce2 0a3f
00000060: 8945 183d 22ea abbd 4c6f 94bc 2e35 873d
00000070: 83bb d93b 2483 9a3c 4087 afbd 9392 073e
00000080: 2f54 5a3e e9a6 8c3d aa95 863d af4f 69bd
00000090: ab4e 283c c8ca f43c 9ddc 8abe 44be 51be
000000a0: 40bb 473e dae0 0b3e 8392 3e3c ed0b 0f3e
000000b0: 0a11 06bd 3858 063e 0712 bcbc 5068 983e
000000c0: b4ac 1b3e 069b 9dbc 331e 423e 68e8 f6bd
000000d0: 7052 133e 8bf5 a9be 4a6b 38bd 1fa4 49bd
000000e0: 27a7 cd3d 3024 25be f65c b4bd 92d5 38be
000000f0: a391 783c d65b 083e 569b 4ebd bc40 48be
00000100: ab6d d2bd 4965 a23e 8ee8 823e 711f f6bd
00000110: a690 023f d0de 203e 8403 883d a6df 90bd
00000120: 709f 14bb 232b 0c3d 3c37 1bbe e878 b6be
00000130: 0df2 a23e b56e c0bd 9a3a 3abd 9c1e 13bd
00000140: 7330 f7bc 289e 543e 8acb 143e b156 d3bd
00000150: 5bd0 9fbe 02af b5bd 8ce4 f03d 8574 cc3d
00000160: f452 9c3e 0db0 b4bc 0709 f2bd d3f2 1bbe
00000170: ac90 4fbd 1055 16be 33f2 c9bd 2d75 dabc
00000180: 7835 043e cdc6 53bb 6ffc f13c 1a57 d9bd
00000190: 4927 a2bc c5a6 fcbd bca8 0fbe fd2b 573d
000001a0: e98a abbd 0586 0e3f 1140 61be f21d a3bd
000001b0: 935f b83d 4b4d afbb e4c3 163e 3c01 793d
000001c0: ea56 ee39 50b8 723c 6ece 113f 4766 ccbd
000001d0: 8136 b2bd 4c7e 8fbd 78a2 03be d766 013f
000001e0: 465f bbbc 5205 f3bd ecea a73d 1dcb 553d
000001f0: 8526 833c f75f 96bd 461d 15be 2c34 a53d
00000200: 78bb 27be 3174 8e3e 9b6b af3d b93a be3e
00000210: 950f 683e 35d4 ad3e 465d 113e a4f9 173d
00000220: f690 993d 3581 96bd 3095 813c 855b 593e
00000230: de0e 44bd d600 0bbe e1de 42be b2c3 83bc
00000240: 812d 0a3e 9ec8 d73d 1a09 c7bd a439 6a3e
00000250: 0be7 b73d 58db 3f3e b0a3 573d 1c45 c9bd
00000260: 0d8a e93d 565d 103e 0d22 173c 8793 57be
00000270: 2bb5 abbe 7506 4f3e 318b 0c3e 6328 883d
00000280: 5146 ebbd de30 993e bea8 693e d17a e93d
00000290: 3e7a 973e 81e1 123e 3dd3 68bd ff14 e43c
000002a0: fb3b 1f3d 1a13 843c 1425 8b3e a8a9 97bd
000002b0: 8584 003e b90a 59bd 671b d63d 398a 68bd
000002c0: 1056 f7bd ea20 933e 2fc1 183e bec6 92bd
000002d0: 0876 32be 8c52 dcbb 7b0d 1c3e e37f 353d
000002e0: a460 1a3e bcd4 53be f2e2 45bd 33de 10be
000002f0: f5d9 d5bd 608e dcba f68c 503e 6617 3ebc
00000300: 0438 0bbc 0255 513e 221e d33d 24d8 f83e
00000310: 575b 023e b364 e23e 5753 683e 9ac5 953d
00000320: f1d9 163e 1fa3 b4bd 168f 573e dd52 f13d
00000330: d98c 55bd 4ecc 3cbe e351 98bc 8070 743e
00000340: 01fa 973e af61 11bc 9ea7 0bbe 94a3 a43e
00000350: 855f 9b3d 1052 713d 2706 6b3e 29e4 18be
00000360: 3e94 71bc 8652 a83d 596a cbbc 2ef3 2bbe
00000370: ead5 f5be 8872 763e f628 633c cc28 8dbd
00000380: 4359 233c 7619 623e f1cd 3a3d d854 e13e
00000390: ff97 843e 5d4d 0a3f 9952 473e 9e08 54bb
000003a0: a1e5 283e d54f 1abd b36f 563e 994c 473e
000003b0: e136 ef3c aec0 14be a2e6 cbbd 6aec a03a
000003c0: 0f36 e73d f528 6f3d 2a88 adbd eb9b 893e
000003d0: 1a73 b43d 12eb 603d 1f66 163e 1422 49bc
000003e0: 1438 0ebd 09a9 24bd f85a 843c cd23 6fbd
000003f0: 6c08 e1be 49c2 8e3e 4cdb a83d ae11 773c

conv1.mlp.4.bias f4 [32]
-0.45245928 -0.93577427 -0.71019304 -0.4447969 -0.5819628 -0.22477205 -1.297135 -0.99282795
-0.16209581 -0.08610472 -0.7139689 -0.9587179 -0.15667409 -0.41103154 -0.44541857 -1.2331952
-0.21901242 -0.9188971 -0.36610904 -0.99203604 -0.77526265 -0.31898895 -1.1004423 -0.42465916
-0.6645062 -0.42426366 -0.4140747 -0.4699494 -0.3644911 -0.991742 -0.49635106 -0.40895867
00000000: bea8 e7be e78e 6fbf 36cf 35bf 6bbc e3be
00000010: 84fb 14bf a52a 66be 8508 a6bf f929 7ebf
00000020: 72fc 25be ac57 b0bd aac6 36bf 896e 75bf
00000030: 2c6f 20be ba72 d2be e70d e4be 57d9 9dbf
00000040: cb44 60be d73c 6bbf a572 bbbe 13f6 7dbf
00000050: 9d77 46bf 8552 a3be 4bdb 8cbf ed6c d9be
00000060: 141d 2abf 1639 d9be 9901 d4be 359d f0be
00000070: 949e babe cee2 7dbf ba21 febe 0863 d1be

conv1.mlp.6.weight f4 [32]
1.0695404 0.9975479 1.0402968 1.1087729 1.0338864 1.0564791 1.2389557 1.1408527
0.840612 0.91086435 1.1103064 1.1727313 0.8883642 1.0035093 0.85735255 1.1598412
0.9686991 0.9947078 1.0062355 1.1043775 1.1557974 0.9607142 1.0839863 1.045364
1.0526106 1.0678385 0.91770136 1.0669413 1.1166319 1.1521987 0.9718088 1.0068227
00000000: b3e6 883f 4d5f 7f3f 7228 853f 45ec 8d3f
00000010: 6456 843f b53a 873f 1a96 9e3f 7607 923f
00000020: 5932 573f 682e 693f 851e 8e3f 0f1c 963f
00000030: d66b 633f fe72 803f 757b 5b3f ad75 943f
00000040: aafc 773f 2ca5 7e3f 53cc 803f 3e5c 8d3f
00000050: 2bf1 933f 5ef1 753f 10c0 8a3f 7dce 853f
00000060: f2bb 863f efae 883f 7aee 6a3f 8891 883f
00000070: cbed 8e3f 3f7b 933f 76c8 783f 91df 803f

conv1.mlp.6.bias f4 [32]
0.09137959 -0.17804475 0.18002184 0.18292257 0.3863216 0.26885715 0.33474994 0.33484772
-0.2840665 0.17576317 0.0981405 0.0013600014 -0.14541656 0.067636386 -0.21469681 -0.011729119
0.10908549 -0.24123059 0.24345271 0.38094226 0.1066143 -0.21637286 0.047932576 0.3048242
0.27962252 0.068118446 -0.26167724 0.16421445 0.17610793 0.031483267 -0.079305165 0.14360635
00000000: 3925 bb3d 5d51 36be a557 383e 0e50 3b3e
00000010: f2cb c53e a5a7 893e 5864 ab3e 2971 ab3e
00000020: 2a71 91be 43fb 333e e3fd c83d 1342 b23a
00000030: 14e8 14be f284 8a3d 7bd9 5bbe 7e2b 40bc
00000040: 3768 df3d 2705 77be ab4b 793e dd0a c33e
00000050: 9958 da3d d990 5dbe f354 443d eb11 9c3e
00000060: af2a 8f3e af81 8b3d 8ffa 85be d527 283e
00000070: a355 343e 99f4 003d bf6a a2bd 8b0d 133e

conv1.mlp.6.running_mean f4 [32]
0.048911747 -0.59177804 -0.25709063 0.15006447 0.14750727 -0.21432908 0.056377348 0.005800741
-0.06334486 0.33569953 -0.35402933 -0.31380653 -0.018023815 -0.2418204 0.112081155 -0.6407765
-0.004818929 -0.4387868 0.6770146 0.06949132 -0.1441791 0.027210448 -0.42539865 0.6085032
0.19299392 0.578506 0.22394383 0.3181347 0.34286934 -0.27938536 -0.11931387 -0.21438916
00000000: af57 483d c47e 17bf 62a1 83be 80aa 193e
00000010: 250c 173e 1579 5bbe efeb 663d 2414 be3b
00000020: f3ba 81bd cfe0 ab3e 5543 b5be 40ab a0be
00000030: aea6 93bc c49f 77be ce8a e53d ee09 24bf
00000040: 1be8 9dbb aaa8 e0be d450 2d3f 7751 8e3d
00000050: b0a3 13be 72e8 de3c dacd d9be dec6 1b3f
00000060: 33a0 453e f818 143f 8851 653e 8de2 a23e
00000070: 928c af3e 990b 8fbe d55a f4bd d588 5bbe

conv1.mlp.6.running_var f4 [32]
1.8308377 0.34244102 1.7633827 2.0549169 4.5854626 1.2121532 5.866337 5.0444927
0.5241723 0.8556789 1.7008313 2.0169194 0.6315241 0.5135652 0.8351017 0.6567699
0.92028236 0.32640508 1.0858054 5.4811296 1.5047313 0.7554877 1.4833369 4.7479095
0.86258376 2.5705607 0.75716037 2.903274 2.88538 1.4381205 0.68312067 1.214327
00000000: e458 ea3f 6e54 af3e 86b6 e13f c283 0340
00000010: 1cbc 9240 d627 9b3f 08b9 bb40 7c6c a140
00000020: 2830 063f c60d 5b3f d7b4 d93f 3515 0140
00000030: 90ab 213f 0279 033f 3ac9 553f 1222 283f
00000040: a097 6b3f 911e a73e acfb 8a3f 6a65 af40
00000050: 099b c03f a467 413f fcdd bd3f e0ee 9740
00000060: 4ad2 5c3f 1184 2440 43d5 413f 3ecf 3940
00000070: 11aa 3840 5514 b83f ffe0 2e3f 116f 9b3f

conv1.mlp.8.weight f4 [32, 32]
0.08028218 0.21005632 -0.31100512 0.29459238 -0.13575464 -0.22686931 -0.115582295 -0.072192654
0.06550915 0.068847865 -0.21371517 -0.16198044 -0.0936198 -0.18088618 -0.110516 0.26471478
0.117134035 0.14669861 0.06554956 -0.08842557 0.25157717 -0.1076524 -0.16916874 -0.055908717
-0.19132546 -0.31762078 -0.04427913 0.18662877 0.21804716 -0.2125838 -0.13754807 -0.20314568
0.10319994 -0.10379357 -0.043606065 0.072771564 -0.031129448 0.09059395 -0.18143421 0.0429523
0.07112372 -0.067029245 -0.027112454 0.05508193 -0.061081134 -0.15358578 -0.07880919 -0.36787775
-0.06507188 -0.30764627 -0.10733788 -0.20122445 0.30791777 -0.08991313 0.042484194 0.081825495
0.0020279612 -0.16939615 0.074206576 -0.012698773 0.1057389 0.031373497 0.023426043 -0.11459893
0.20535384 -0.05263717 0.004147639 0.15665333 0.057649594 0.073211156 0.12042095 0.18608354
0.06737204 0.035836846 0.20477687 0.15358546 -0.0502409 0.09404283 0.04652988 -0.08300271
-0.024959508 -0.23885271 -0.23700356 0.036163285 0.11550744 -0.032922715 0.012672978 0.04249451
-0.18345077 -0.0476706 -0.18537796 0.042750616 0.1804301 -0.06341741 -0.022137789 0.082882844
-0.07530163 0.20707466 -0.21299738 0.0137748225 -0.17605346 -0.12967779 0.104333475 0.061912343
-0.033138137 -0.23708652 -0.12382734 -0.040108625 -0.0697355 0.026796281 0.22371349 0.21275353
0.1968419 0.31082293 -0.11323596 -0.055588275 0.057923865 0.01686193 -0.07873166 -0.20427719
-0.17838189 0.075738125 -0.22960547 0.047440086 -0.008187315 -0.1468453 0.050769184 -0.18607435
-0.15832382 0.102177255 0.03282189 -0.2875732 -0.12698878 -0.14015372 -0.29743817 -0.19701481
0.12488446 -0.0013341317 0.09283346 0.005630913 0.15277216 0.13198736 0.0868011 -0.14480503
-0.15728718 0.05731241 -0.07353381 -0.2869286 -0.092196055 -0.010892689 0.053620886 -0.24812819
-0.19313204 0.07103574 -0.04105094 -0.21473046 -0.2081521 -0.04360868 0.04841412 0.12335549
0.12329239 0.15120456 -0.075336955 0.14434797 0.09788209 0.031776212 0.045621917 0.16832712
0.10465239 0.1770576 0.06118562 -0.065031536 -0.1494369 0.013054436 -0.12353844 0.08328094
-0.0603916 -0.03657914 -0.09135372 0.2188347 0.2407615 -0.26870733 0.14170976 -0.077335104
-0.030327309 -0.08502409 -0.11515778 0.155405 0.20055552 -0.0742381 -0.20703562 0.06375455
0.016376046 0.023696786 0.1035751 -0.0667426 0.018573076 -0.058416773 -0.015006469 0.14495105
-0.20394056 0.00668064 0.13367935 0.20947362 0.124011114 0.25238734 0.024638487 -0.025621999
-0.2116099 0.014657009 -0.31283578 0.15676397 0.1163754 0.123278 0.19247562 -0.14458385
-0.18657753 -0.021142505 -0.33258897 -0.02144951 0.17590874 0.20490536 0.0059563825 0.1817162
0.048914924 0.020620963 0.18474685 -0.046382193 0.12911226 0.100780964 0.15476254 -0.014708516
0.05473256 -0.025808847 0.25548336 0.122616485 0.016246075 0.21645257 -0.10201722 -0.13681017
-0.039931957 -0.020816503 -0.29882458 0.15685171 0.06644249 0.06095901 0.19127813 -0.14021713
-0.0758285 -0.026651666 -0.18329197 -0.18743363 0.03933171 0.15978177 -0.11345187 0.19030228
00000000: fc6a a43d 0119 573e 103c 9fbe d0d4 963e
00000010: 4403 0bbe 6e50 68be 69b6 ecbd bed9 93bd
00000020: a929 863d 1c00 8d3d 26d8 5abe 33de 25be
00000030: bdbb bfbd 3a3a 39be 3656 e2bd b288 873e
00000040: f8e3 ef3d 2938 163e d93e 863d 7718 b5bd
00000050: b9ce 803e dd78 dcbd 923a 2dbe 8a00 65bd
00000060: d2ea 43be 319f a2be 085e 35bd 9d1b 3f3e
00000070: c147 5f3e 91af 59be 67d9 0cbe 6c05 50be
00000080: 7d5a d33d b991 d4bd 469c 32bd 4209 953d
00000090: 2f03 ffbc 5289 b93d e4c9 39be c0ee 2f3d
000000a0: 50a9 913d a146 89bd f01a debc 979d 613d
000000b0: 3630 7abd 9745 1dbe b666 a1bd 795a bcbe
000000c0: 6844 85bd d083 9dbe f6d3 dbbd c80d 4ebe
000000d0: 66a7 9d3e 6024 b8bd e803 2e3d 2094 a73d
000000e0: 8be7 043b 2f76 2dbe 9ef9 973d 840e 50bc
000000f0: a38d d83d 7f81 003d f9e7 bf3c d8b2 eabd
00000100: 4748 523e 139a 57bd ebe8 873b bb69 203e
00000110: fb21 6c3d bbef 953d 429f f63d af8c 3e3e
00000120: 5afa 893d a8c9 123d 07b1 513e 8245 1d3e
00000130: 67c9 4dbd 8799 c03d 1e96 3e3d 53fd a9bd
00000140: e277 ccbc ce95 74be 10b1 72be f41f 143d
00000150: 2a8f ec3d f8d9 06bd 53a2 4f3c b90e 2e3d
00000160: 85da 3bbe 3f42 43bd b8d3 3dbe 451b 2f3d
00000170: abc2 383e fde0 81bd 4f5a b5bc 7bbe a93d
00000180: be37 9abd 610b 543e fc1b 5abe cbaf 613c
00000190: 5c47 34be 41ca 04be caac d53d cc97 7d3d
000001a0: dbbb 07bd cfc6 72be 3099 fdbd f148 24bd
000001b0: 7cd1 8ebd e083 db3c 2615 653e 10dc 593e
000001c0: ec90 493e 2f24 9f3e 41e8 e7bd 88b0 63bd
000001d0: 9341 6d3d 0822 8a3c 113e a1bd 0a2e 51be
000001e0: bea9 36be 971c 9b3d b21d 6bbe 8950 423d
000001f0: 1724 06bc 9d5e 16be 59f3 4f3d 468a 3ebe
00000200: a41f 22be 4f42 d13d 3f70 063d cb3c 93be
00000210: 5909 02be 7584 0fbe d149 98be 40be 49be
00000220: 6cc3 ff3d 08de aeba 781f be3d 8683 b83b
00000230: 4e70 1c3e b227 073e c6c4 b13d c547 14be
00000240: e40f 21be 6bc0 6a3d e598 96bd 4ee8 92be
00000250: 49d1 bcbd 4077 32bc 93a1 5b3d 5115 7ebe
00000260: 68c4 45be 307b 913d 0825 28bd 4de2 5bbe
00000270: d325 55be 049f 32bd e24d 463d cea1 fc3d
00000280: b880 fc3d 5ed5 1a3e 434a 9abd f4cf 133e
00000290: 6876 c83d c627 023d 0cde 3a3d f25d 2c3e
000002a0: fe53 d63d 964e 353e c69d 7a3d 412f 85bd
000002b0: fd05 19be 46e2 553c b901 fdbd 338f aa3d
000002c0: 2f5d 77bd 02d4 15bd a917 bbbd 3416 603e
000002d0: 2f8a 763e 0294 89be 5d1c 113e de61 9ebd
000002e0: fa70 f8bc 1c21 aebd d8d7 ebbd 7d22 1f3e
000002f0: 6d5e 4d3e 250a 98bd 2501 54be bf91 823d
00000300: 0f27 863c c31f c23c 2f1f d43d 58b0 88bd
00000310: 9026 983c 6d46 6fbd b1dd 75bc 0c6e 143e
00000320: cbd5 50be 45e9 da3b 3de3 083e 4180 563e
00000330: 8af9 fd3d ea38 813e a7d6 c93c 3ae5 d1bc
00000340: 44b0 58be f423 703c 032c a0be bc86 203e
00000350: 3a56 ee3d 2d79 fc3d 5418 453e ca0d 14be
00000360: 2e0e 3fbe 0c33 adbc 1a49 aabe e2b6 afbc
00000370: 6c21 343e b6d2 513e c22d c33b d013 3a3e
00000380: 045b 483d 4bed a83c 472e 3d3e 41fb 3dbd
00000390: 0136 043e 4066 ce3d 127a 1e3e fdfb 70bc
000003a0: 402f 603d 136d d3bc b7ce 823e 5a1e fb3d
000003b0: 7d16 853c bea5 5d3e 67ee d0bd f717 0cbe
000003c0: b18f 23bd 5f87 aabc 89ff 98be bc9d 203e
000003d0: 0013 883d 28b0 793d 6ade 433e 1495 0fbe
000003e0: f94b 9bbd 9854 dabc e4b0 3bbe 9aee 3fbe
000003f0: 4a1a 213d d59d 233e 7459 e8bd 9ade 423e

conv1.mlp.8.bias f4 [32]
-0.5651781 -0.006095444 0.1140266 -0.6492894 -0.21387236 -0.016464705 -0.11198634 -0.104705684
-0.08404623 -0.3840975 -0.22438087 -0.04869971 -0.05889241 -0.25273323 -0.43890032 0.09041487
0.08445548 -0.2503947 -0.30239308 0.13652672 -0.24706852 -0.32283095 -0.18147105 -0.30879393
-0.7070266 -0.42764956 0.15317874 -0.21541269 -0.22596353 -0.59918374 -0.3415243 0.33172336
00000000: 83af 10bf 4abc c7bb c786 e93d d537 26bf
00000010: 5b01 5bbe fde0 86bc 1859 e5bd ef6f d6bd
00000020: 6e20 acbd 6da8 c4be 19c4 65be 5979 47bd
00000030: 2b39 71bd 4066 81be 8bb7 e0be 6e2b b93d
00000040: fff6 ac3d bc33 80be 44d3 9abe a9cd 0b3e
00000050: 88ff 7cbe 194a a5be 8cd3 39be 3d1a 9ebe
00000060: b2ff 34bf e2f4 dabe e3da 1c3e 2595 5cbe
00000070: fc62 67be 1b64 19bf 46dc aebe a5d7 a93e

conv1.mlp.10.weight f4 [32]
1.2430238 1.2503158 1.4981807 1.2861863 1.1872244 1.205648 1.4078159 1.1918877
1.2296935 1.1000531 1.2278869 1.4622984 1.098622 1.318822 1.2256603 1.4427311
1.1830192 1.350786 1.0921328 1.5046941 0.88581854 1.3732259 1.2171116 1.3800595
1.4379296 1.1066571 1.1368078 1.3733613 1.2771163 1.1918703 1.2068411 1.0947926
00000000: 671b 9f3f 590a a03f 63c4 bf3f c1a1 a43f
00000010: f8f6 973f ac52 9a3f 5033 b43f c78f 983f
00000020: 9966 9d3f 8ace 8c3f 662b 9d3f 982c bb3f
00000030: a59f 8c3f 29cf a83f 70e2 9c3f 6aab b83f
00000040: 2c6d 973f 8ee6 ac3f 02cb 8b3f d199 c03f
00000050: 01c5 623f dec5 af3f 50ca 9b3f caa5 b03f
00000060: 140e b83f f1a6 8d3f eb82 913f 4eca af3f
00000070: 8c78 a33f 358f 983f c579 9a3f 2a22 8c3f

conv1.mlp.10.bias f4 [32]
0.50358146 -0.119258165 0.20476653 0.17910942 -0.3073816 0.23441897 -0.13123843 -0.33632746
-0.23730773 -0.29274532 0.48268485 -0.14298117 0.019964924 0.046356063 0.34222296 0.24622019
-0.4250659 -0.071982846 0.36922172 0.16914666 -0.3452281 0.16317944 0.40166125 0.08087435
0.07792857 0.029416297 0.22883487 -0.3071708 0.17747346 0.41333067 0.30166522 -0.27814317
00000000: b7ea 003f a03d f4bd 51ae 513e 7668 373e
00000010: 1f61 9dbe 870b 703e 5e63 06be 1d33 acbe
00000020: cc00 73be b7e2 95be 7822 f73e a869 12be
00000030: 7b8d a33c dbdf 3d3d d937 af3e 2521 7c3e
00000040: 3da2 d9be be6b 93bd a10a bd3e c834 2d3e
00000050: bdc1 b0be 8318 273e 8ba6 cd3e 74a1 a53d
00000060: 0499 9f3d 72fa f03c b053 6a3e 7e45 9dbe
00000070: 9abb 353e 14a0 d33e dd73 9a3e c868 8ebe

conv1.mlp.10.running_mean f4 [32]
0.1163829 0.24154615 0.5519437 -0.33398157 -0.1923022 0.57078975 0.28768748 0.3276688
0.21570042 -0.2891197 0.33992565 -0.07516778 0.3290265 -0.2223852 0.08809832 0.35097829
-0.036600668 0.14851193 0.17457415 0.3894248 -0.20504183 0.17819929 -0.037584625 0.19210877
-0.3999583 -0.10483369 0.6966979 -0.16413105 -0.20149821 -0.037547473 0.12462875 0.4563249
00000000: 285a ee3d e057 773e 2f4c 0d3f a2ff aabe
00000010: deea 44be 471f 123f c64b 933e 34c4 a73e
00000020: 92e0 5c3e 7f07 94be bc0a ae3e 91f1 99bd
00000030: 2976 a83e f2b8 63be e46c b43d 6db3 b33e
00000040: 95ea 15bd 8313 183e 91c3 323e b062 c73e
00000050: 7cf6 51be e079 363e 56f2 19bd 29b8 443e
00000060: 56c7 ccbe 0cb3 d6bd cb5a 323f f811 28be
00000070: 8c55 4ebe 61cb 19bd 5c3d ff3d 6ba3 e93e

conv1.mlp.10.running_var f4 [32]
2.6033273 0.886345 1.6034693 0.9576991 0.6469019 1.8334473 2.2352202 2.5475953
1.7117497 0.6960094 1.5339669 1.0035298 0.6474464 0.72239107 1.9438204 0.678533
0.6007284 2.0407047 0.93201566 0.8714763 0.6872545 2.4527395 0.6457381 1.676296
0.48904973 0.7309824 1.5526642 0.58547914 0.6935503 1.3191439 1.0661982 1.3360925
00000000: ea9c 2640 82e7 623f 7b3e cd3f c52b 753f
00000010: 5d9b 253f 67ae ea3f d90d 0f40 cd0b 2340
00000020: 9d1a db3f ac2d 323f 0759 c43f aa73 803f
00000030: 0cbf 253f 9fee 383f 1bcf f83f 57b4 2d3f
00000040: 56c9 193f e89a 0240 9498 6e3f 1219 5f3f
00000050: e9ef 2f3f aff9 1c40 184f 253f de90 d63f
00000060: ba64 fa3e aa21 3b3f b3bd c63f f6e1 153f
00000070: 838c 313f b5d9 a83f 2f79 883f 1405 ab3f

conv1.shortcut.0.weight f4 [32, 9]
-0.009795382 0.049275417 0.0068965573 0.07862162 -0.0013905162 0.01935609 -0.27357525 0.22377585
-0.35324648 0.22015606 0.18383397 -0.06593958 0.057102475 0.052001987 -0.17550653 -0.15656638
0.10809446 -0.247018 -0.21385793 0.18547954 0.07160205 0.017415896 -0.10359544 -0.105185606
0.25928146 -0.14467834 -0.05090206 -0.35207045 -0.08631342 0.10704223 0.34495205 0.11157309
0.11934056 0.031054458 0.12094907 -0.16417265 -0.00946955 0.02607841 0.003728322 0.03115503
0.01987728 -0.023373475 0.28339744 0.2680309 0.33268687 -0.076533146 -0.19871406 0.027985483
0.227573 -0.13335498 0.25769737 0.35856187 -0.3050535 -0.14932083 -0.0067765103 -0.07153566
-0.00042904742 0.013167084 0.108168684 0.017339509 0.2999494 0.19296303 0.23113723 0.115929835
-0.16412331 -0.097286746 0.08309197 -0.11317874 -0.15911594 0.35510287 -0.017796652 0.41964343
0.19439085 -0.120837964 -0.08411616 0.07752739 -0.14039548 -0.24717315 0.18059535 0.30132577
0.16638103 0.022962965 0.054024354 0.065000765 0.06620324 0.025085505 -0.037506033 0.3450181
0.30528137 0.37648135 -0.018390948 0.018229637 -0.043320686 0.010120552 -0.0076981997 0.07132276
-0.2816388 0.1381999 -0.36141434 -0.094777554 -0.18305221 -0.15305534 0.14993437 -0.013432451
0.057748668 0.26155514 0.2980528 0.39599332 0.4043531 -0.17385045 -0.17670615 0.0013386989
0.12961484 -0.07137578 0.034678835 -0.11812796 0.13250111 -0.5746074 0.114146434 0.053554002
0.11023073 0.20664495 -0.0862694 -0.15124597 0.10135654 0.050960336 -0.011260393 0.008417104
-0.05709441 -0.034553964 0.012160963 0.030899879 -0.27752307 -0.2306684 -0.34062588 -0.40649477
-0.15264694 -0.21559097 -0.06566334 0.1998314 -0.13008979 -0.07144839 -0.19733255 0.30476862
-0.0020301684 0.011256268 -0.105345905 -0.10174733 0.09346855 -0.14058542 0.3626074 -0.035651326
0.49736091 0.19245148 -0.068243705 -0.0005451159 -0.18455514 0.01909537 0.12058398 0.37311077
-0.32870418 -0.0741143 -0.082629666 -0.09409536 -0.06789755 -0.043095764 -0.04282676 0.27613524
-0.18248588 -0.06644652 -0.34838656 -0.28337818 0.017772008 -0.20449515 -0.17360985 0.04353469
-0.043451317 -0.32085386 -0.20011598 -0.1367577 -0.0063338936 -0.02125725 -0.042921577 -0.020415895
0.011468499 -0.041052274 0.2907801 -0.05018759 0.327016 -0.16154696 0.20964323 0.00605626
0.13523324 -0.17189649 0.064415336 -0.299109 0.022777814 -0.41213003 -0.3832763 -0.21436244
-0.15958965 0.23882157 0.05587649 -0.021881316 -0.4283064 -0.1512565 -0.16868585 -0.38209787
0.19872591 -0.14261547 0.26808906 -0.16284208 -0.09603438 -0.14369641 0.3281984 -0.38721308
-0.3810167 0.12177806 0.15386319 0.2062965 0.03577793 -0.03273569 -0.20743588 0.20758297
0.115391865 0.30202243 -0.056741823 -0.09587015 0.23524873 0.07409288 0.077757776 0.43447748
-0.034891672 -0.1273459 0.16351767 -0.21633847 0.06837149 0.27920723 -0.18587656 0.12155308
0.25907913 -0.2147734 -0.19624278 0.09172317 -0.118044905 -0.08327754 0.18352334 0.03346862
0.06288864 0.0673871 -0.22521335 0.3593144 -0.30161998 -0.06787666 -0.10887084 0.06387337
00000000: cf7c 20bc 05d5 493d 84fc e13b 5f04 a13d
00000010: fb41 b6ba aa90 9e3c 0e12 8cbe 7f25 653e
00000020: b9dc b4be 9770 613e f93e 3c3e 550b 87bd
00000030: 49e4 693d 0900 553d fcb7 33be f052 20be
00000040: a160 dd3d 49f2 7cbe 93fd 5abe 59ee 3d3e
00000050: 18a4 923d c8ab 8e3c d929 d4bd 8d6b d7bd
00000060: 8ac0 843e 8f26 14be ae7e 50bd 9442 b4be
00000070: 17c5 b0bd f538 db3d 8e9d b03e 6f80 e43d
00000080: d368 f43d eb65 fe3c 25b4 f73d e01c 28be
00000090: 2c26 1bbc 64a2 d53c dd56 743b d538 ff3c
000000a0: add5 a23c bb79 bfbc 7819 913e 593b 893e
000000b0: ef55 aa3e 69bd 9cbd b37b 4bbe d041 e53c
000000c0: e608 693e 358e 08be e9f0 833e 6c95 b73e
000000d0: f92f 9cbe 8fe7 18be 7d0d debb 4a81 92bd
000000e0: c5f1 e0b9 c1ba 573c 8b87 dd3d 960b 8e3c
000000f0: f892 993e 1a98 453e 3daf 6c3e 9f6c ed3d
00000100: f10f 28be 463e c7bd 1f2c aa3d 41ca e7bd
00000110: 4aef 22be 0bd0 b53e 49ca 91bc 81db d63e
00000120: 650e 473e e579 f7bd 1845 acbd aec6 9e3d
00000130: d5c3 0fbe f51a 7dbe fded 383e 5f47 9a3e
00000140: ca5f 2a3e d41c bc3c a448 5d3d 1f1f 853d
00000150: 9095 873d 1e80 cd3c ed9f 19bd 36a6 b03e
00000160: d74d 9c3e 2ac2 c03e 9da8 96bc 5256 953c
00000170: 0871 31bd acd0 253c 2e41 fcbb ab11 923d
00000180: f632 90be 4684 0d3e 4d0b b9be bc1a c2bd
00000190: 0a72 3bbe 8aba 1cbe 6588 193e c813 5cbc
000001a0: de89 6c3d 8eea 853e 609a 983e a3bf ca3e
000001b0: 5f07 cf3e da05 32be 75f2 34be 4877 af3a
000001c0: c1b9 043e 772d 92bd 650b 0e3d 12ed f1bd
000001d0: 5fae 073e 7819 13bf 9bc5 e93d 715b 5b3d
000001e0: a6c0 e13d bc9a 533e 03ae b0bd 39e0 1abe
000001f0: 0594 cf3d c9bb 503d 837d 38bc e5e7 093c
00000200: d4db 69bd 7588 0dbd c73e 473c be21 fd3c
00000210: 8117 8ebe 5634 6cbe 8466 aebe 1520 d0be
00000220: 7b4f 1cbe e1c3 5cbe 807a 86bd 9aa0 4c3e
00000230: 4236 05be 8953 92bd 8b11 4abe a20a 9c3e
00000240: 930c 05bb 366c 383c 98bf d7bd e760 d0bd
00000250: 706c bf3d a0f5 0fbe ada7 b93e 2007 12bd
00000260: 17a6 fe3e 0012 453e 5bc3 8bbd 1ce6 0eba
00000270: 06fc 3cbe e56d 9c3c bcf4 f63d 6008 bf3e
00000280: ea4b a8be 3dc9 97bd be39 a9bd 11b5 c0bd
00000290: df0d 8bbd 2f85 30bd 1d6b 2fbd 9961 8d3e
000002a0: 94dd 3abe 1d15 88bd b95f b2be f216 91be
000002b0: 9a96 913c 2d67 51be c8c6 31be 6e51 323d
000002c0: 02fa 31bd f546 a4be 34eb 4cbe 360a 0cbe
000002d0: 8d8c cfbb af23 aebc 89ce 2fbd 3c3f a7bc
000002e0: 5fe6 3b3c 6e26 28bd 21e1 943e 8191 4dbd
000002f0: a46e a73e 916c 25be b7ac 563e 9773 c63b
00000300: 957a 0a3e a205 30be 30ec 833d d124 99be
00000310: 8a98 ba3c b502 d3be cb3c c4be d481 5bbe
00000320: 786b 23be a48d 743e bfde 643d 7240 b3bc
00000330: fa4a dbbe fce2 1abe fcbb 2cbe 55a2 c3be
00000340: ce7e 4b3e ca09 12be f842 893e 13c0 26be
00000350: acad c4bd 2725 13be 9f09 a83e cb40 c6be
00000360: 9f14 c3be c766 f93d 508e 1d3e 643f 533e
00000370: e18b 123d dc15 06bd 126a 54be a190 543e
00000380: 9252 ec3d afa2 9a3e 1d6a 68bd 9257 c4bd
00000390: 0be5 703e 02be 973d 783f 9f3d d573 de3e
000003a0: 92ea 0ebd f766 02be 2d71 273e d587 5dbe
000003b0: 5a06 8c3d 40f4 8e3e 6d56 3ebe d2f0 f83d
000003c0: 05a6 843e 8fed 5bbe def3 48be 5bd9 bb3d
000003d0: 87c1 f1bd 6a8d aabd 8bed 3b3e 6416 093d
000003e0: c2cb 803d 3f02 8a3d 549e 66be 0ff8 b73e
000003f0: ef6d 9abe eb02 8bbd adf7 debd 0bd0 823d

conv1.shortcut.0.bias f4 [32]
-0.22696537 0.036089785 -0.0381179 0.28000394 0.08890519 -0.19497292 0.19473249 0.14781368
0.0712978 -0.109104134 -0.20063826 -0.07932783 0.2803111 -0.31087384 -0.071170576 0.085813046
0.17818396 -0.168538 0.20608875 0.038035914 -0.06783079 0.0008543889 -0.008255633 -0.32274038
0.047008827 -0.053131294 0.15022433 -0.117823966 0.22563735 0.13907745 0.16624826 0.25851527
00000000: 9c69 68be e2d2 133d 8421 1cbd ad5c 8f3e
00000010: ed13 b63d fba6 47be f467 473e 785c 173e
00000020: 9504 923d fd71 dfbd 1e74 4dbe a176 a2bd
00000030: f084 8f3e db2a 9fbe e1c1 91bd c0be af3d
00000040: db75 363e 3a95 2cbe ee08 533e 8ccb 1b3d
00000050: dfea 8abd 12f9 5f3a a242 07bc 3a3e a5be
00000060: 548c 403d 33a0 59bd 68d4 193e b14d f1bd
00000070: 7a0d 673e 526a 0e3e fc3c 2a3e 1d5c 843e

conv1.shortcut.1.weight f4 [32]
1.0362983 0.7227099 0.6227891 0.79304487 0.9716578 0.67737824 0.8914425 0.8520234
0.85291845 0.9588202 0.76950353 0.50236523 0.9183469 0.8269452 0.92868984 0.66383374
0.7481295 0.8496669 0.9677223 0.64436656 1.1111182 0.8337872 0.71878797 0.7244343
0.8532825 0.7926829 0.7304664 0.6137532 0.7609742 0.96559757 0.94260085 0.9768613
00000000: 6ca5 843f 8403 393f 1b6f 1f3f fd04 4b3f
00000010: 91be 783f a968 2d3f 9335 643f 351e 5a3f
00000020: dd58 5a3f 3e75 753f 2ffe 443f 029b 003f
00000030: c818 6b3f aeb2 533f 9ebe 6d3f 02f1 293f
00000040: 6a85 3f3f c583 593f a6bc 773f 35f5 243f
00000050: 1f39 8e3f 1473 553f 7d02 383f 8774 393f
00000060: b970 5a3f 44ed 4a3f d9ff 3a3f ee1e 1d3f
00000070: 35cf 423f 6731 773f 4a4e 713f 9513 7a3f

conv1.shortcut.1.bias f4 [32]
0.44656566 0.009387861 0.11145667 0.047651656 -0.35494843 0.16361067 -0.17292358 -0.21901838
-0.08749055 -0.33489272 0.41338897 -0.13879158 0.20835407 -0.21379916 0.35072702 0.124494545
-0.28772554 -0.038537838 0.22239599 0.09208915 -0.48490307 0.07210221 0.2710616 -0.05731722
-0.30829927 0.37964854 0.28729525 0.004357679 -0.11250599 0.43512756 0.2933749 -0.16533978
00000000: 41a4 e43e 8bcf 193c 6543 e43d 622e 433d
00000010: cdbb b5be 8e89 273e e112 31be 5b46 60be
00000020: 3f2e b3bd 0f77 abbe b8a7 d33e 611f 0ebe
00000030: c55a 553e 2bee 5abe 7e92 b33e fff6 fe3d
00000040: c350 93be dad9 1dbd c6bb 633e 3c99 bc3d
00000050: 3745 f8be 53aa 933d 96c8 8a3e 76c5 6abd
00000060: 67d9 9dbe 4b61 c23e 5d18 933e dcca 8e3b
00000070: 8a69 e6bd 0ac9 de3e 3c35 963e d54e 29be

conv1.shortcut.1.running_mean f4 [32]
0.5049328 0.3582463 -0.5738808 0.49977398 0.18446355 -0.6795211 0.4088962 -0.62808746
0.10076322 0.020542242 0.447059 -0.16355547 0.090531476 -0.43830353 -0.10855219 -0.802145
-0.46526924 -0.32175946 0.6305951 -0.3235082 -0.5577352 0.14235784 -0.5247162 -0.12539007
0.037585173 0.017347418 -0.16762201 -0.97212464 0.44250947 1.0730612 0.08816266 -0.33760327
00000000: 4743 013f 0f6c b73e dae9 12bf 60e2 ff3e
00000010: 03e4 3c3e 18f5 2dbf d85a d13e 57ca 20bf
00000020: f25c ce3d 3448 a83c ebe4 e43e 167b 27be
00000030: 9168 b93d 5269 e0be 9c50 debd 6059 4dbf
00000040: c537 eebe a8bd a4be ae6e 213f dea2 a5be
00000050: bcc7 0ebf 41c6 113e cd53 06bf 4166 00be
00000060: e9f2 193d 2c1c 8e3c 1ba5 2bbe 29dd 78bf
00000070: 9a90 e23e 125a 893f a08e b43d 56da acbe

conv1.shortcut.1.running_var f4 [32]
0.07472243 0.27815178 0.37446222 0.3448277 0.06866314 0.35878798 0.06714696 0.19821125
0.30941087 0.10004788 0.08099607 0.14309332 0.4258851 0.95992947 0.07074091 0.6220103
0.15959103 0.40604877 0.23286144 0.34367147 0.07048462 0.17623472 0.62500423 0.6333965
0.5471728 0.73028946 0.34129885 0.22669631 0.34635517 0.06326117 0.07512637 0.12690133
00000000: 1308 993d e969 8e3e 83b9 bf3e 428d b03e
00000010: 439f 8c3d 0fb3 b73e 5884 893d e4f7 4a3e
00000020: 1a6b 9e3e e7e5 cc3d 44e1 a53d 0e87 123e
00000030: 9d0d da3e f0bd 753f 9ce0 903d 113c 1f3f
00000040: d56b 233e a0e5 cf3e 3b73 6e3e b5f5 af3e
00000050: 3e5a 903d e076 343e 4700 203f 4626 223f
00000060: 8413 0c3f 40f4 3a3f b9be ae3e 1423 683e
00000070: 7755 b13e 138f 813d dbdb 993d 6cf2 013e

conv2.mlp.0.weight f4 [32, 64]
-0.36541188 0.09074424 -0.0054987534 -0.16467927 0.021911604 -0.11417746 0.004312455 -0.040698625
0.057954807 0.022059865 -0.13996647 -0.09737134 0.07046452 -0.06179347 -0.30764556 0.009412658
-0.04469241 0.004962156 -0.07091007 -0.10835182 0.098046005 0.045243625 -0.21223775 -0.118145525
0.072234206 -0.016781721 0.017415017 -0.030182054 0.032155134 -0.240175 -0.24238697 0.090343714
-0.02673172 -0.045628753 -0.16020408 0.1081618 -0.029564837 -0.052966867 -0.110200204 -0.15474856
0.00058081397 0.017981304 -0.044224832 0.03893888 -0.017229898 0.020109577 -0.03671863 0.12717414
0.090124875 -0.117554344 -0.020023616 0.023949571 0.0908335 -0.070745416 -0.010815008 -0.17306142
-0.025110686 -0.008095906 -0.15714534 0.040555213 0.056202985 0.00974827 0.06638682 0.011491729
-0.28241837 -0.17415571 -0.17316629 -0.041777074 0.12234837 -0.09150985 -0.077621855 -0.072500885
-0.14532815 0.16297494 -0.14409 0.030733809 -0.029179508 -0.082443416 -0.23704311 0.11149967
0.062316414 -0.0044666864 -0.10413873 0.12054096 0.06396915 -0.23530136 0.053895082 -0.32113436
0.06330122 -0.020118041 -0.06426224 0.23771684 0.013785218 -0.22971912 -0.018059414 0.034088895
-0.09232478 0.012844141 0.0041566575 0.08767849 0.0030045535 -0.093506925 -0.07820056 -0.1262145
-0.03989414 0.05149128 -0.25631276 0.11437934 -0.12974359 -0.007269402 0.06065913 0.0027706802
0.08930877 -0.052891437 -0.037289 -0.06004148 0.0637984 -0.040149402 0.015602429 -0.10591627
0.10052257 -0.021939445 0.01972989 -0.040779535 0.037084844 -0.07515539 -0.003696043 -0.09998569
-0.10925418 0.03173792 0.024998803 0.050182566 0.0076230858 0.121441126 0.17183295 -0.0122185955
-0.045295853 0.086008966 0.0028971385 -0.013338302 -0.20590992 0.05587664 0.037269775 -0.11675261
-0.017281508 0.20673053 0.008436191 -0.064211555 -0.039283123 0.12278411 -0.2707685 0.043991663
-0.067996055 0.07444983 -0.07019226 -0.004537657 -0.044407733 -0.059712887 -0.015130773 -0.08036475
-0.07215749 -0.06537124 0.07234627 -0.014979829 0.13190614 0.04444207 0.23948385 0.07104301
0.1011996 0.1278368 0.12357725 0.04432094 0.09620322 -0.100532025 -0.037886377 -0.18892941
-0.02826276 0.23398457 0.05841772 -0.07408315 0.07137218 0.12294652 -0.1582992 -0.16074578
-0.10973252 0.13719289 0.37623307 0.029960241 0.0181842 -0.14978267 -0.11521302 0.025899153
-0.23413393 0.22319269 0.03340083 -0.14858143 0.054232072 0.027174883 0.115602456 0.011234869
0.07399909 -0.11276098 -0.091142565 -0.043705083 -0.059678745 0.025447141 -0.08327802 -0.099585
0.0051862863 -0.0338475 -0.08183164 -0.18308574 -0.06715829 0.201557 -0.1975749 0.1357841
-0.038451046 -0.0935782 -0.084773086 -0.062204614 -0.14040807 -0.3656117 -0.11583393 0.054088335
-0.06273803 -0.0104130255 -0.102375515 0.13906787 0.15438952 -0.015939143 0.035714597 0.027580421
-0.089151375 -0.0255672 0.22689594 -0.0652287 0.042305794 0.14260228 0.07124215 0.14518516
-0.09603649 -0.007933849 0.1849529 -0.02603169 -0.04292484 -0.108506665 0.018652737 0.041683253
-0.046825096 -0.0023262624 -0.01636493 0.026576838 0.106454566 0.12610023 0.07163217 0.05419545
00000000: 4417 bbbe 1ed8 b93d e32e b4bb afa1 28be
00000010: f77f b33c dfd5 e9bd 7f4f 8d3b 9ab3 26bd
00000020: 0562 6d3d e4b6 b43c 5f53 0fbe a06a c7bd
00000030: b44f 903d 261b 7dbd b883 9dbe 8d37 1a3c
00000040: 630f 37bd 9599 a23b 4c39 91bd 8fe7 ddbd
00000050: 58cc c83d 6151 393d da54 59be 48f6 f1bd
00000060: 87ef 933d d279 89bc f0a9 8e3c 5b40 f7bc
00000070: 1ab5 033d 6ff0 75be 4a34 78be 2006 b93d
00000080: 7bfc dabc 37e5 3abd 8a0c 24be ef83 dd3d
00000090: f531 f2bc c9f3 58bd a5b0 e1bd 6876 1ebe
000000a0: c441 183a 874d 933c 1925 35bd 607e 1f3d
000000b0: b725 8dbc d7bc a43c 4666 16bd f039 023e
000000c0: 6493 b83d 55c0 f0bd 9108 a4bc e431 c43c
000000d0: ea06 ba3d f9e2 90bd 6e31 31bc 0337 31be
000000e0: edb4 cdbc b1a4 04bc b5ea 20be 391d 263d
000000f0: 1a35 663d 35b7 1f3c d0f5 873d ce47 3c3c
00000100: 2499 90be e055 32be 8152 31be 701e 2bbd
00000110: c891 fa3d 8469 bbbd 35f8 9ebd 587b 94bd
00000120: e7d0 14be e7e2 263e 548c 13be 78c5 fb3c
00000130: dd09 efbc 18d8 a8bd 6ebb 72be f059 e43d
00000140: 7f3f 7f3d 485d 92bb b046 d5bd 2ede f63d
00000150: 4202 833d d7f2 70be 17c1 5c3d b96b a4be
00000160: 12a4 813d 97ce a4bc ec9b 83bd 0b6c 733e
00000170: 65db 613c 7d3b 6bbe 56f1 93bc cca0 0b3d
00000180: c614 bdbd 3b70 523c 9234 883b c890 b33d
00000190: 0be8 443b 8f80 bfbd 9d27 a0bd 603e 01be
000001a0: 0a68 23bd 85e8 523d 6d3b 83be b73f ea3d
000001b0: 81db 04be 2a34 eebb b575 783d 4d94 353b
000001c0: 84e7 b63d b1a4 58bd 5abc 18bd 0eee 75bd
000001d0: bca8 823d b373 24bd 55a1 7f3c a1ea d8bd
000001e0: c7de cd3d 5aba b3bc 94a0 a13c 7108 27bd
000001f0: 47e6 173d 12eb 99bd 5039 72bb 4cc5 ccbd
00000200: a8c0 dfbd 9fff 013d 4aca cc3c 3c8c 4d3d
00000210: 14cb f93b 20b6 f83d faf4 2f3e 8130 48bc
00000220: 2588 39bd 7825 b03d ebdd 3d3b e588 5abc
00000230: 0dda 52be e7de 643d 31a8 183d fe1b efbd
00000240: f391 8dbc 2bb1 533e f337 0a3c 5981 83bd
00000250: 57e7 20bd 3c76 fb3d 2ba2 8abe 9a30 343d
00000260: 8441 8bbd 2779 983d f6c0 8fbd a0b0 94bb
00000270: e2e4 35bd 8095 74bd 10e7 77bc 4696 a4bd
00000280: 4ec7 93bd 5be1 85bd 482a 943d f56d 75bc
00000290: 6712 073e e308 363d 413b 753e ff7e 913d
000002a0: bc41 cf3d a6e7 023e 1216 fd3d e089 353d
000002b0: 3206 c53d bce3 cdbd bf2e 1bbd b676 41be
000002c0: 4e87 e7bc a799 6f3e 6b47 6f3d e8b8 97bd
000002d0: 942b 923d 63cb fb3d 2f19 22be 8b9a 24be
000002e0: 72bb e0bd 4b7c 0c3e 9fa1 c03e 2e6f f53c
000002f0: 08f7 943c a160 19be cef4 ebbd 762a d43c
00000300: cec0 6fbe a08c 643e 4fcf 083d bb25 18be
00000310: 7322 5e3d dc9d de3c fbc0 ec3d 7512 383c
00000320: d68c 973d 3bef e6bd f4a8 babd 1a04 33bd
00000330: b371 74bd 8676 d03c ab8d aabd 38f3 cbbd
00000340: b9f1 a93b ada3 0abd 5997 a7bd d47a 3bbe
00000350: 498a 89bd f564 4e3e 1351 4abe fd0a 0b3e
00000360: d87e 1dbd eda5 bfbd 839d adbd 44ca 7ebd
00000370: 22c7 0fbe 7531 bbbe 573a edbd bb8b 5d3d
00000380: cc7c 80bd 659b 2abc 41aa d1bd cf67 0e3e
00000390: 4918 1e3e ce92 82bc 7849 123d 56f0 e13c
000003a0: ff94 b6bd 4e72 d1bc 6957 683e a096 85bd
000003b0: d748 2d3d 5506 123e 68e7 913d 6bab 143e
000003c0: c7ae c4bd f9fc 01bc 4b64 3d3e 6940 d5bc
000003d0: f5d1 2fbd be38 debd a0cd 983c 0fbc 2a3d
000003e0: accb 3fbd 3574 18bb bf0f 86bc abb7 d93c
000003f0: da04 da3d 6b20 013e e3b3 923d 0cfc 5d3d

conv2.mlp.0.bias f4 [32]
-0.2569393 -0.012580062 -0.8902696 -0.8078299 -0.5389691 -0.42066038 -0.45670494 -0.38803533
-0.37116152 -0.8297756 -0.18661913 -0.26252952 -0.6429423 -0.47848108 -1.0785629 -0.64610136
-0.22417206 -0.11624044 -0.65032756 -0.33663854 -0.22933936 -0.24382834 -0.45820498 -0.05627422
-0.13386215 -0.17866495 -0.5679165 -0.53975916 -0.7561914 -0.212207 -0.2240806 -0.77393943
00000000: 8c8d 83be 9b1c 4ebc b5e8 63bf f1cd 4ebf
00000010: e1f9 09bf cc60 d7be 3bd5 e9be 91ac c6be
00000020: e208 bebe 2c6c 54bf 1619 3fbe 456a 86be
00000030: de97 24bf 79fb f4be 590e 8abf e666 25bf
00000040: 5c8d 65be 780f eebd de7b 26bf e35b acbe
00000050: f0d7 6abe 23ae 79be d899 eabe cc7f 66bd
00000060: 2913 09be f2f3 36be fa62 11bf a82d 0abf
00000070: c295 41bf cb4c 59be 6375 65be e520 46bf

conv2.mlp.2.weight f4 [32]
0.96376413 1.0676861 1.0002503 0.99439317 0.88925517 0.97980917 1.0926822 1.0709244
1.0711685 0.99503136 0.88760966 1.0077574 1.1980861 0.9551891 1.1706885 0.97783786
0.9583597 1.0145826 0.974263 1.0407566 1.1347464 1.0173022 0.9456745 1.071421
1.0106308 1.0196974 1.0311064 1.0173131 1.0127114 0.94186 0.986814 1.0676018
00000000: 3fb9 763f f0a9 883f 3408 803f 8d90 7e3f
00000010: 3aa6 633f c6d4 7a3f 03dd 8b3f 0d14 893f
00000020: 0d1c 893f 60ba 7e3f 633a 633f 32fe 803f
00000030: e35a 993f 4687 743f 1fd9 953f 9553 7a3f
00000040: 1057 753f d8dd 813f 4d69 793f 8337 853f
00000050: 5f3f 913f f536 823f b917 723f 5324 893f
00000060: 5a5c 813f 7285 823f 4bfb 833f 5137 823f
00000070: 87a0 813f bd1d 713f d89f 7c3f 2da7 883f

conv2.mlp.2.bias f4 [32]
0.034542277 0.13899906 -0.33034942 -0.18908769 -0.086298205 0.015273035 0.013407589 -0.07879733
-0.08786379 -0.1290295 -0.2125485 -0.018637322 0.14734437 -0.1890222 0.21603164 -0.2983956
-0.14726463 -0.03036554 -0.13714078 0.053681396 0.029384788 -0.055506226 -0.21727513 -0.0077744005
-0.0001730488 0.02943193 -0.20213063 0.10136135 -0.062555306 -0.23060921 0.04775254 -0.024808757
00000000: 347c 0d3d c555 0e3e 8f23 a9be 34a0 41be
00000010: 1dbd b0bd c03b 7a3c 81ab 5b3c 7f60 a1bd
00000020: eef1 b3bd 4f20 04be 50a6 59be 4cad 98bc
00000030: 71e1 163e 098f 41be 6637 5d3e 4fc7 98be
00000040: 8acc 16be 27c1 f8bc a26e 0cbe 06e1 5b3d
00000050: 5eb8 f03c 7f5a 63bd 5f7d 5ebe 66c0 febb
00000060: 6f74 35b9 3b1b f13c 55fb 4ebe 8a96 cf3d
00000070: ff1c 80bd d224 6cbe 2b98 433d bc3b cbbc

conv2.mlp.2.running_mean f4 [32]
0.032578547 0.1761918 0.008382045 -0.25139663 1.2139175 0.107832015 0.2540284 0.16916913
0.7994396 0.5055832 0.64412594 0.04286867 0.5328213 0.72491723 0.3829741 0.581043
0.93313557 -0.024653563 0.46245134 -0.019459892 -0.050362833 -0.18331288 0.85710806 0.024069782
-0.046014726 1.0250716 1.0795958 0.10234932 -0.18489754 1.0173477 0.57734394 0.03439887
00000000: 1571 053d a06b 343e d854 093c 0fb7 80be
00000010: a661 9b3f 08d7 dc3d 0310 823e ac3a 2d3e
00000020: 13a8 4c3f e76d 013f 70e5 243f 0f97 2f3d
00000030: fa66 083f 2d94 393f 2e15 c43e 3cbf 143f
00000040: f9e1 6e3f 45f6 c9bc 6cc6 ec3e 5a6a 9fbc
00000050: 4249 4ebd 5fb6 3bbe 6f6b 5b3f fe2d c53c
00000060: f079 3cbd 8c35 833f 3230 8a3f 859c d13d
00000070: c855 3dbe 7338 823f d0cc 133f d4e5 0c3d
