GraphNeuralNet/Skim3Mu/MHc-160_MA-85_vs_diboson/models/ParticleNet-nNodes64_RMSprop_initLR-0p0005_CyclicLR.pt (torch, 287475 bytes, 89 tensors)

gn0.weight f4 [9]
000000 ce 6a 5e 3f 98 da 8c 3f 7e 36 97 3f a9 ab 84 3b
       0.8688172 1.100421 1.1813505 0.004048784
000010 ad e8 c7 3d 7d c8 0f 40 47 18 3e 3f 00 00 80 3f
       0.09761176 2.2466118 0.74255794 1.0
000020 48 8b 70 3f
       0.93962526

gn0.bias f4 [9]
000000 32 d9 06 3e d3 74 dc bd 13 1a 54 bd 20 94 c8 bc
       0.13168791 -0.1076447 -0.05178268 -0.024484694
000010 55 36 73 3a 7b 03 8e 3e 42 1c 0f 3f 88 28 00 bf
       0.00092778105 0.2773703 0.55902493 -0.50061846
000020 7a 56 cb be
       -0.39714414

gn0.mean_scale f4 [9]
000000 fb a6 e0 3d 88 3b 0c 3f 8b 0d 0e 3f 67 df 66 3f
       0.10969349 0.5477834 0.55489415 0.90184635
000010 88 b4 ad be 3f 80 32 3e 84 ca f3 3f 00 00 80 3f
       -0.33926797 0.17431735 1.9046178 1.0
000020 65 c0 0e 3e
       0.1394058

conv1.mlp.0.weight f4 [64, 18]
000000 af fd b2 be 29 a5 7b 3e ea ea e7 bc 88 7b 60 bd
       -0.3495917 0.24574722 -0.028310258 -0.05480531
000010 d8 29 29 be c4 9f df 3e 16 25 06 3e 24 0d 78 bf
       -0.16519868 0.4367658 0.13100085 -0.9689505
000020 62 74 e2 be da 34 24 bd be 4c 32 be 6e 24 78 bc
       -0.44229418 -0.040089466 -0.17412087 -0.015145404
000030 6c 36 20 3e 38 d5 7a bc 46 7e 66 3e 6a 9b d7 3d
       0.1564576 -0.015309624 0.22509107 0.1052769
000040 b0 d8 40 3e 60 ff da 3e 72 a2 26 3f 37 aa 47 3e
       0.1883266 0.4277296 0.6509162 0.19498526
000050 a0 fc 84 bd 20 fd 54 bc be f8 61 bd 91 ae 69 3f
       -0.06493497 -0.012999803 -0.05516886 0.9128199
000060 48 9f 06 be 33 0f 48 3e 5d d4 65 3e 4f 13 66 be
       -0.13146698 0.19537048 0.22444291 -0.22468303
000070 2f 4b 27 3e bb 8c be 3d 57 f7 d4 be 5e 84 34 3e
       0.16337274 0.09304186 -0.41594955 0.17628619
000080 9c da 36 3d 19 67 66 be 4e 4b cf 3d ed 10 c9 3e
       0.044642076 -0.22500266 0.10121785 0.39270726
000090 24 9a 50 bd 41 dc c5 3b a9 f4 53 3d 17 12 1d 3e
       -0.05092825 0.006038219 0.051746998 0.15338932
0000a0 c7 ec a4 bd 88 f2 c9 bf 0f 38 8e bc 90 3f 9c 3e
       -0.08052974 -1.577714 -0.017360715 0.30517244
0000b0 71 06 33 3e 6c c1 b5 bb 6c 12 01 3d 1b b2 bf 3b
       0.17482926 -0.0055467393 0.03151171 0.0058500892
0000c0 f1 8f aa 3d 03 c8 7b bd 67 e0 57 bd 7e d1 48 bd
       0.08328236 -0.061470043 -0.05270424 -0.049027912
0000d0 82 5d 4a be 6f 57 b2 bc 86 24 84 3d 8d 13 e6 bc
       -0.19762233 -0.021770207 0.06452279 -0.028085494
0000e0 b1 60 4b bc 69 fa 8f bd 41 ee ad 3d a9 51 1d c0
       -0.01241319 -0.07030184 0.08492709 -2.4581091
0000f0 f5 f4 2e be e0 dd 1c be 5e fb f2 3e f8 cc 12 3b
       -0.17085631 -0.15319014 0.47457403 0.0022400003
000100 cc 6b 35 bd 56 65 df 3a f2 98 a6 bd 5c 35 f9 bd
       -0.044292256 0.001704375 -0.08134641 -0.121683806
000110 88 0f e3 bc c5 51 4b 3d 5b ab 50 be 42 cc 80 3d
       -0.027717367 0.04963853 -0.20377867 0.06288959
000120 61 01 28 3f 00 be a3 3d 3f 5a 6e 3e 3a 2b 0c 3e
       0.65627104 0.07995224 0.23276614 0.13688365
000130 aa 66 9d be c7 4d 43 3e 8b c8 b4 bd ca e4 28 3f
       -0.3074239 0.19072638 -0.08827313 0.65974104
000140 9a e4 89 3c c0 5f cc be e9 d9 01 3e 27 75 16 3c
       0.016832639 -0.399168 0.12680782 0.009183205
000150 f4 ee 96 3e 32 4e dd 3e 33 b9 87 be 1e 73 de 3d
       0.29479182 0.4322372 -0.26508483 0.108618006
000160 a5 36 14 3c 3b 88 e8 3e c7 55 05 bf 1c ce 9b 3c
       0.009046231 0.45416436 -0.5208401 0.019019179
000170 d6 3e bb 3f c8 a9 bb bd 5c a4 a7 3e 9a d2 15 bd
       1.4628551 -0.091632426 0.32742584 -0.0365778
000180 b0 99 0f 3e 36 d5 06 3f 76 81 18 3e 6e f7 3a be
       0.14023471 0.52669084 0.14893135 -0.1825845
000190 b0 06 45 3d 47 56 96 3e a4 59 13 be 3b 13 e9 bc
       0.04810208 0.293627 -0.14389664 -0.028451553
0001a0 b8 56 e1 bd 9a d6 1b 3b 25 40 a9 bc 98 f5 79 be
       -0.110028684 0.0023779036 -0.02066047 -0.24410093
0001b0 7c 0a 4c 3e d7 9b 74 bd 43 f7 9a be e4 39 dd bd
       0.19925874 -0.059718933 -0.3026677 -0.108020574
0001c0 ac 1a 9a be 6a b9 8b 3f 17 bf e4 be 59 2b 72 be
       -0.30098474 1.0915959 -0.4467704 -0.23649348
0001d0 7d 3d 8a 3e 65 06 61 be 6b 02 08 3d e8 0a df 3c
       0.27000037 -0.21975096 0.03320543 0.02722688
0001e0 1d c5 b3 3e d9 13 86 3e 1e dc 54 3d 18 62 97 bd
       0.35111323 0.26187018 0.051967733 -0.07391757
0001f0 7a 41 09 3e a3 c1 00 3f db 4d f5 bd ae 44 6f bf
       0.13403884 0.50295466 -0.119777404 -0.9346417
000200 bf 97 2c 3f ee 6f 03 3f f7 87 ab 3c 53 20 30 be
       0.67419046 0.51342666 0.020938857 -0.1719983
000210 c8 c2 16 be ed 27 63 3f 38 7a cf 3d b6 c2 1d be
       -0.1472274 0.88732797 0.10130733 -0.15406308
000220 ce 9f cd 3c 52 96 8a 3d 14 f7 54 bd 95 1c 0b bf
       0.025100615 0.067669526 -0.051993445 -0.5434049
000230 db 01 bf be 58 28 e4 3d 18 c2 07 3e d9 f7 5e 3e
       -0.37306103 0.111405075 0.13257635 0.21774234
000240 b0 26 68 be d6 ed 7c 3f 24 7a 3e be 3e 8c 14 be
       -0.22671008 0.9880041 -0.1860128 -0.14506623
000250 d8 be c4 be 15 08 99 3e b5 11 13 3f 68 51 c8 be
       -0.38426852 0.2988898 0.57448894 -0.39124608
000260 e5 c1 3c bf 61 5a ec 3b 78 88 6f 3d 8f 21 04 3d
       -0.7373336 0.0072129224 0.058479756 0.032258566
000270 86 06 c8 bc 38 1b 72 3e 40 76 29 3e 0a 63 b7 3e
       -0.024417173 0.23643196 0.16549015 0.35817748
000280 a1 ef b8 bd 17 81 9e 3d 02 3e 59 bf 88 ed c7 3f
       -0.090300806 0.07739466 -0.8486024 1.5619364
000290 40 46 0d 3d d2 48 14 3e 83 45 d1 3e 2d 2b d8 bd
       0.034490824 0.14480904 0.40873346 -0.1055511
0002a0 af 49 dd 3d 43 dd 03 3f dc e5 07 bd 22 07 87 3d
       0.1080507 0.51509494 -0.033178195 0.06593157
0002b0 fa 66 fc 3d 5d 5b 0f 3d 2c 32 32 be 30 f4 b4 be
       0.12324329 0.03499924 -0.17401952 -0.3534255
0002c0 7e e7 18 be e1 82 1f 3e 85 10 11 be ee 9a 5a be
       -0.14932057 0.1557727 -0.14166458 -0.21348163
0002d0 ac 7e 25 bf e0 76 0b bf ba b4 9a bf 17 7c b8 3e
       -0.6464641 -0.54478264 -1.2086403 0.36032173
0002e0 c1 5f d6 bc cb 02 6a 3d 2e be 94 3c c1 44 57 3f
       -0.026168706 0.05713157 0.018157091 0.84089285
0002f0 4f 53 5c be 0f d4 ad be ae 13 4e be 41 30 30 be
       -0.21516155 -0.3395085 -0.20124695 -0.17205907
000300 bd 9d e9 be 91 75 46 be 21 00 bd 3b 5c 7b 80 3e
       -0.45628157 -0.19380786 0.0057678376 0.25094116
000310 9d b1 49 bd 44 09 ac be af 38 8e be de 40 c6 3e
       -0.04924165 -0.3360082 -0.2777762 0.38721365
000320 28 fe 31 bf a4 7f c8 3e 00 4b b1 be 89 34 a5 3c
       -0.69528437 0.39159882 -0.34627533 0.020166652
000330 8e 8a 07 3f a9 ac 15 3f dd ff 6b be 30 68 8b 3e
       0.5294579 0.58466583 -0.23046823 0.27227926
000340 71 6a bf bd e8 67 d2 3d 22 cc 44 3e 62 a9 e4 3e
       -0.09346474 0.10273725 0.19218495 0.4466048
000350 d6 2c 30 be cc 3f 9a be c2 3d 44 be 78 11 f6 bd
       -0.17204604 -0.30126798 -0.19164184 -0.12015051
000360 7c 56 c1 be cd e8 fe bf 20 c3 17 bc ae 80 f8 3d
       -0.37761295 -1.9914795 -0.00926283 0.12133919
000370 78 c8 ba bc 8b 3c 6c bc 2c 9f 8d 3d 1e 56 16 3e
       -0.02280067 -0.014418731 0.06915125 0.14681289
000380 4a 39 4b be 72 71 b4 3c e9 72 0a 3d 8e 75 c4 bc
       -0.19846073 0.022026751 0.033800993 -0.023981836
000390 01 95 65 be 25 0e f2 be 0b da 12 3d f5 51 f3 3d
       -0.22420122 -0.47276416 0.035852473 0.118808664
0003a0 2f 88 46 be b2 4c 96 3c 4d eb 13 bc 6b 0f 3d 3c
       -0.19387887 0.018347118 -0.009028268 0.01153932
0003b0 ef 66 50 3d e5 a4 bd bd 8e 10 ca bc 49 6c 80 bf
       0.050879415 -0.09259967 -0.024666097 -1.0033046
0003c0 a4 f4 44 bd 92 21 1b 3f f4 95 60 3d 40 ca ce 3c
       -0.04808487 0.605981 0.054830506 0.025242925
0003d0 db 2c d7 bb 8e 82 8c 3d fe 5b 7e bd c3 81 63 3b
       -0.0065666265 0.06860839 -0.06209945 0.0034714795
0003e0 a3 9f 01 3d 53 e4 3a bd 39 ca 18 3e 39 0d 01 be
       0.031646382 -0.045627903 0.14920892 -0.126027
0003f0 8c a7 92 be 20 c1 19 bf 73 3a e6 3f 89 87 ca be
       -0.28643453 -0.6006031 1.7986587 -0.3955653

conv1.mlp.0.bias f4 [64]
000000 64 7c 19 3f 3b b4 97 bd 9b 3c 33 be 5f e3 ad 3c
       0.5995543 -0.07407423 -0.17503588 0.021226583
000010 45 1b 37 bf 5f 6c 24 bf 57 65 1f bb 03 a9 67 bf
       -0.71525985 -0.6422786 -0.0024321878 -0.90492266
000020 d2 74 80 3e 35 47 ad be 71 79 f8 be 12 ec f0 be
       0.25089127 -0.3384339 -0.48530152 -0.47055107
000030 bc 1c c8 be c5 68 eb be fe 55 6b bd 9e cd ae bd
       -0.39084423 -0.4597837 -0.057455055 -0.08535312
000040 c9 4b b1 be 56 63 69 be b1 be ec 3e 26 38 e9 bd
       -0.34628132 -0.227918 0.46239236 -0.113876626
000050 7a cf 2c bd b2 3e 6a bf 40 15 e1 be 85 48 78 bf
       -0.042190053 -0.91501915 -0.43961525 -0.96985656
000060 9c 63 67 bf 69 9d 74 bd 37 1c a3 3c 0e 7f a2 be
       -0.90386367 -0.05972043 0.019910915 -0.3173756
000070 7b 96 0b bf fe 8c 6e 3d 32 db 66 be 8f 1e 53 3e
       -0.5452649 0.05823993 -0.22544554 0.20617126
000080 85 ba 30 bd 5f fc 92 be 75 1f 5e 3c 9d 9f de be
       -0.04314663 -0.2870817 0.013557305 -0.4348115
000090 71 59 1e 3e fc ba 29 3f 19 c8 07 3e 7d ed 0c be
       0.15463807 0.6630094 0.13259925 -0.1376247
0000a0 73 a0 3b be e9 ed bc be 7d c4 ca be 16 e2 f8 3c
       -0.18322925 -0.3690026 -0.39603034 0.030381244
0000b0 f0 ba 19 3e 76 52 45 3e 7b ee 12 bf 67 65 5d be
       0.15012717 0.19269738 -0.5739514 -0.21620713
0000c0 a1 9e 8a be 05 e7 15 bf f8 9e 60 3e 1d 5b b3 be
       -0.2707415 -0.5855563 0.21935642 -0.3503045
0000d0 3d ea a4 3c ba f0 c0 3e c4 49 80 be 35 c5 0d 3f
       0.020131225 0.3768366 -0.2505628 0.5537904
0000e0 1f d8 22 bf 32 91 21 bf 32 b2 3c bd cf 57 d4 be
       -0.63611025 -0.63112175 -0.046068378 -0.41473243
0000f0 0d e6 79 3d 82 65 8a be c6 8c e6 be 1a ea 9d b8
       0.06101041 -0.2703057 -0.45029277 -7.529948e-05

conv1.mlp.2.weight f4 [64]
000000 e0 d3 29 3f 34 4a 59 3f 17 44 94 3f 3a 26 9a 3f
       0.6633892 0.8487885 1.1583279 1.2042916
000010 f5 f0 2a 3f d8 fd 6f 3f 88 f4 7e 3f 54 e9 6e 3f
       0.6677392 0.9374671 0.99591875 0.9332478
000020 bb e4 4c 3f 99 a1 94 3f be fb 87 3f c1 7a 2f 3f
       0.80036515 1.1611816 1.0623701 0.6854668
000030 6b cb 99 3f 7d 22 96 3f 02 ab 60 3f 44 df 81 3f
       1.2015203 1.1729275 0.8776094 1.014626
000040 5d 40 7f 3f 75 5f 84 3f 55 bb 34 3f 85 fd 92 3f
       0.99707586 1.0341631 0.70598346 1.1483618
000050 5f 5d a0 3f 87 94 7e 3f 7f 0f 87 3f 31 59 4d 3f
       1.2528495 0.99445385 1.0551604 0.8021422
000060 5a aa 22 3f bd f7 93 3f 8b 64 45 3f ec fa 98 3f
       0.63541186 1.1559979 0.7710654 1.1951575
000070 62 4c 79 3f 6e 54 97 3f 49 bb 8b 3f 2e 2e 95 3f
       0.97382176 1.1822641 1.091653 1.1654718
000080 13 fb 6c 3f cc bc 9b 3f 70 ca 9d 3f 6a 07 63 3f
       0.9257061 1.2166991 1.2327404 0.8868319
000090 2d e1 5a 3f 64 a2 5b 3f 2b 53 9e 3f ea c2 a4 3f
       0.8549984 0.85794663 1.2369131 1.2871983
0000a0 ca 28 8c 3f c8 81 9a 3f 66 ec 1f 3f 3f a6 a2 3f
       1.0949948 1.2070856 0.6247009 1.2706984
0000b0 28 fe 57 3f 69 83 5b 3f 56 00 4b 3f 21 66 47 3f
       0.84372187 0.8574739 0.7929739 0.7789021
0000c0 4c 90 8f 3f 3c 73 74 3f 9b af 66 3f b1 55 0e 3f
       1.1215911 0.95488334 0.901117 0.55599505
0000d0 2b ee 86 3f 47 53 ee 3e 81 4c 81 3f f4 e7 8d 3f
       1.0541433 0.4654791 1.0101472 1.1086411
0000e0 2e dd 79 3f a0 11 8e 3f 65 b6 9a 3f 87 fe 65 3f
       0.9760312 1.1099129 1.2086912 0.898415
0000f0 48 e4 83 3f 18 62 96 3f 82 57 9c 3f f1 ce 9c 3f
       1.0304041 1.1748686 1.2214205 1.2250654

conv1.mlp.2.bias f4 [64]
000000 66 b7 87 3e fb b2 f1 3d 3f 5a fa bd 1f 99 68 be
       0.2650711 0.11801716 -0.12224244 -0.22714661
000010 2a b6 1d 3e c8 7d 5b 3d 23 88 b3 3e 04 91 85 bd
       0.15401521 0.05358675 0.35064802 -0.065218
000020 bc 4f c5 3e 8d 24 c4 3d 3d b7 4c 3e 34 03 26 3e
       0.38537395 0.09577284 0.19991775 0.1621216
000030 10 1b 1b 3e b7 b1 46 bc ab 16 54 3e 4d 7c aa 3e
       0.15147042 -0.012127331 0.20711772 0.3329796
000040 47 5e b0 3e 0b 51 ac 3e 44 ab d2 3e 49 43 c4 3e
       0.34446928 0.3365558 0.4114629 0.38332585
000050 d3 b6 89 3e 76 62 cd bd f2 4c 43 3d e4 9d 35 3e
       0.26897296 -0.100285456 0.047680803 0.17736012
000060 a5 6c 9e be 4f c5 8d 3e f4 b7 84 3e e2 56 05 3d
       -0.30942264 0.27689597 0.25921595 0.03255356
000070 42 2b e8 3d 98 a3 bf be 10 51 dd 3e 8e c1 ac 3e
       0.11336376 -0.374295 0.43225908 0.3374142
000080 87 05 03 3e 69 2f ac 3e aa d7 57 3e ef 74 0a be
       0.12795077 0.3362992 0.21078363 -0.13521169
000090 18 d8 08 3f b8 8f 02 3e e3 2a d0 3e b0 29 83 3e
       0.5345473 0.12750137 0.4065772 0.25617743
0000a0 c8 91 53 3e 7d 96 97 be 56 6f f8 3d 41 94 dc 3e
       0.2066108 -0.29607 0.12130611 0.4308186
0000b0 2d ac 06 be 32 1d 21 bf 12 9e 62 3e 48 be 26 3d
       -0.13151617 -0.62935174 0.22130612 0.04070881
0000c0 d9 f9 36 be d6 5c 2d be e9 60 d2 3e b6 fa b3 3d
       -0.17868747 -0.16929945 0.41089562 0.08788054
0000d0 17 0e b5 be 38 84 0b be f0 ac 88 3e 6c 19 07 3f
       -0.35362312 -0.13624656 0.2669444 0.52773166
0000e0 37 4b c6 3c 3b cb bf bd 5f c5 d1 3e 1e 0e 01 3d
       0.024205787 -0.09364935 0.40970895 0.031507604
0000f0 3a a0 88 3e 04 6b 1d bd c1 36 64 3e db fe 04 3f
       0.26684743 -0.038432136 0.22286512 0.5195138

conv1.mlp.2.running_mean f4 [64]
000000 d3 85 a0 3f 07 7b d2 3f 04 00 00 00 c4 6b 42 3c
       1.254084 1.6443795 6e-45 0.011866514
000010 02 64 c7 3e 40 1b 01 3e f7 00 e5 3f c5 78 b5 3d
       0.38943487 0.12608051 1.789092 0.088609256
000020 ea 2e 3b 3f 77 11 e8 3d ac 45 ff 3d d9 67 06 3e
       0.7311846 0.11331456 0.12464461 0.13125552
000030 fb 16 10 3f 04 00 00 00 15 2a fc 3e 49 9b 17 3f
       0.56285065 6e-45 0.49250856 0.5922132
000040 07 1c 06 3f 3b d8 a7 3e a6 8e 9f 3f aa b5 08 3f
       0.52386516 0.32782158 1.2465408 0.534022
000050 c4 3a 4f 3f e0 82 4d 2e 5f f6 0f 3e 43 79 a9 3b
       0.80949044 4.6727844e-11 0.14058827 0.005171926
000060 b9 48 c1 3c 7f 27 e9 3e 01 04 13 3f 6f bf 51 3b
       0.023594247 0.45537946 0.57427984 0.0032004972
000070 54 ff bd 3c b0 0a 4d 3c f0 7f 11 3f 04 ce 47 3f
       0.023193039 0.012514755 0.5683584 0.7804873
000080 3b d1 2e 3f 93 f4 17 3f f3 71 10 3f 04 00 00 00
       0.6828801 0.59357566 0.5642387 6e-45
000090 04 96 9b 3e ac 7b 67 3f ab e8 c9 3f ac 21 f8 3e
       0.3038789 0.90423083 1.577413 0.4846319
0000a0 6f 10 87 3e 04 00 00 00 d5 9b 36 3f d2 db 2d 3f
       0.26379725 6e-45 0.7133153 0.67913544
0000b0 7e f7 d5 3e ae 7d d6 3d 28 45 a8 3e 98 e2 04 3d
       0.41790384 0.1047319 0.32865262 0.03244266
0000c0 04 00 00 00 04 00 00 00 a4 4f 39 3f 6b 3f 59 3f
       6e-45 6e-45 0.72387147 0.84862393
0000d0 93 1d 87 3c 24 3b e2 3f b7 00 e7 3d ae 1d 5d 40
       0.016493594 1.7674298 0.11279433 3.4549365
0000e0 6d 6f e2 3d dd 22 0f 3e e9 f7 22 3f 6b ca 94 3e
       0.11056409 0.13978143 0.6365953 0.29060683
0000f0 0b af eb 3e b1 98 86 3e 0d c4 92 3e f8 2a 0c 3f
       0.46031985 0.2628837 0.286652 0.54753065

conv1.mlp.2.running_var f4 [64]
000000 37 53 4d 3f 76 25 46 40 04 00 00 00 9b 7b 40 3b
       0.802051 3.0960364 6e-45 0.002937055
000010 7c fa 10 3f 18 09 fc 3d f8 b2 91 40 65 a1 df 3d
       0.5663221 0.12306422 4.553097 0.109194554
000020 95 7d 3f 3f a4 6c dc 3d 60 a4 01 3e 08 c4 e7 3d
       0.74801 0.10762909 0.1266036 0.11316687
000030 be f8 77 3f 04 00 00 00 99 d2 5a 3f 1c 13 7f 3f
       0.96863925 6e-45 0.85477597 0.99638534
000040 99 37 56 3f d4 88 f8 3e ea 55 b9 3f af 0e 53 3f
       0.83678585 0.48541892 1.4479344 0.8244428
000050 e9 88 dc 3f cb 4b 00 2c f9 85 17 3e b7 6d 32 3b
       1.7229282 1.8231968e-12 0.147972 0.002722604
000060 33 3f a1 3c c4 bc 38 3f 00 61 50 3f 1a 45 22 3a
       0.019683456 0.72163033 0.8139801 0.00061901065
000070 d2 c1 62 3c c1 bf 24 3b e7 cc 49 3f 4c 14 d0 3f
       0.013840156 0.0025138708 0.7882828 1.6256194
000080 6a ab 98 3f 59 51 8a 3f 9d f9 7c 3f 04 00 00 00
       1.1927311 1.0806075 0.9881838 6e-45
000090 9e b3 48 3e f4 1b 2e 3f e5 a9 aa 40 ca 75 47 3f
       0.19599769 0.68011403 5.333239 0.77914107
0000a0 f3 e8 b5 3e 04 00 00 00 f0 8f 85 3f 9f 7d af 3f
       0.3552929 6e-45 1.0434551 1.3710212
0000b0 df 60 c5 3e 56 de 70 3d 5d 65 f1 3e 36 62 b2 3c
       0.3855047 0.058805786 0.47147647 0.021775346
0000c0 04 00 00 00 04 00 00 00 48 40 87 3f 07 0a b1 3f
       6e-45 6e-45 1.0566492 1.3831185
0000d0 3d 1e 95 3b c8 d5 25 40 be f9 81 3d b9 8b 88 41
       0.004550724 2.5911732 0.06346463 17.068224
0000e0 9b d0 cf 3d 37 64 20 3e ae 67 9c 3f c2 fe e0 3e
       0.1014721 0.15663229 1.221914 0.43944365
0000f0 19 db 28 3f 5a 42 a1 3e 38 4c b5 3e ce a3 29 3f
       0.65959316 0.31495935 0.35409713 0.6626557

conv1.mlp.4.weight f4 [64, 64]
000000 00 ed 09 3e cd 02 68 bf 0c 28 0c 3e 32 82 1f bf
       0.13469315 -0.90629274 0.13687152 -0.6230804
000010 7c ec 84 bf 54 73 e4 bb d5 f7 57 bf a8 0d 31 be
       -1.0384669 -0.006971756 -0.84362537 -0.17290366
000020 74 95 34 bc 8b c9 b7 3e 9e a2 a2 3d 5f 99 34 3e
       -0.0110219605 0.35895953 0.07941173 0.17636631
000030 16 97 29 3e 9d 19 69 be be 02 4a bd dc a4 a8 3d
       0.16561541 -0.22763677 -0.04931902 0.082345694
000040 59 80 09 3d 26 40 8e bd b3 ca b2 3e 6e da 7d 3e
       0.033569667 -0.06945829 0.34920272 0.24790356
000050 ca e6 8a bd 3f 7c d5 3e eb d5 ab 3e 2a c5 ae 3e
       -0.06782301 0.41696355 0.33561644 0.341348
000060 de d7 1a bf c6 61 5b 3d c6 11 a9 bb e8 41 3c be
       -0.6048564 0.05356004 -0.0051595895 -0.18384516
000070 68 92 de be 78 5f 39 bf 31 88 47 be ec 37 0c 3e
       -0.43471074 -0.724113 -0.19485547 0.13693208
000080 dd 45 32 be 45 af 62 bc d6 1a 59 3e 07 46 8a be
       -0.17409463 -0.013835733 0.21201643 -0.27006552
000090 58 9f 00 3f bd 46 4b bd 9a 73 63 bf b7 6f ad bb
       0.5024314 -0.04962801 -0.8884827 -0.0052928585
0000a0 f9 a4 1a 3e 49 ef ac 3b fd 7b 3f bf 37 63 9f bb
       0.15101995 0.0052775485 -0.74798566 -0.0048641223
0000b0 09 af 81 3d 9c f7 ef be 6f d8 a9 be 83 af d5 bd
       0.063322134 -0.46868598 -0.33172938 -0.10433867
0000c0 dd a7 04 be f0 5c 3a be f9 de 3c 3e a3 88 7a bf
       -0.1295466 -0.18199515 0.18444432 -0.9786474
0000d0 86 60 1f bf 09 4c c3 be fd 4b 2b be 97 16 09 bf
       -0.6225666 -0.38143948 -0.16728206 -0.53550094
0000e0 b8 84 41 bd 23 16 6f 3d 12 c8 34 bd 39 c1 a8 3e
       -0.04724571 0.05837072 -0.044136114 0.32959917
0000f0 04 fa 15 3e de b5 4d 3e 99 1d a8 3e 19 2a af 3c
       0.14646155 0.20088908 0.3283508 0.021382378
000100 6b c6 a7 bd 9d 9c b9 3e ee bf 00 3f c0 46 dc bd
       -0.08192142 0.362523 0.5029286 -0.10755682
000110 8d 9d ef 3e 8f 36 96 be 5b 5c 0d 3f 7d 99 0f bd
       0.4679989 -0.293385 0.5521905 -0.035058487
000120 66 06 07 3e 98 ac 91 be 44 bf a6 be a4 ac 22 3d
       0.13186035 -0.2845199 -0.325678 0.039715424
000130 25 f5 c5 be 15 2b f1 3d 77 9d 2e be ba 63 be bd
       -0.38663593 0.11775795 -0.17052256 -0.09296365
000140 f9 66 7c be c6 a3 2a be 9d ae e9 3d 01 a1 97 be
       -0.24648656 -0.16664037 0.11410258 -0.29615024
000150 15 73 94 be e8 53 b1 3e 46 b8 a2 be 74 f2 14 3f
       -0.2899405 0.34634328 -0.31781214 0.58182454
000160 53 02 07 3d 7d ae e2 be f9 6f ab be 71 b9 6e be
       0.0329612 -0.4427375 -0.33483866 -0.23312928
000170 e1 4b f1 3a 17 87 ac be 0c c9 c6 bc c8 89 05 bf
       0.0018409454 -0.33696815 -0.024265788 -0.5216336
000180 4b 6a f2 be 55 55 e8 be d5 4c dc be 38 e9 83 bd
       -0.4734672 -0.45377603 -0.43027368 -0.06440967
000190 cf 22 c9 3d 9d db 3d be 9f 57 3e 3e 38 89 c9 be
       0.09821092 -0.18540807 0.18588112 -0.39362502
0001a0 3f b2 9d be f0 3e 86 be d5 c6 99 3e d7 a8 b1 be
       -0.30800053 -0.26219893 0.3003451 -0.34699127
0001b0 2a ee 8c bd e3 2d 0b bf 1b b8 db 3e f7 81 93 3e
       -0.06881364 -0.5436689 0.429139 0.28810093
0001c0 68 7b 98 be 4b 6e 96 3d 24 ca 14 be 76 4a 77 3e
       -0.29781651 0.073452555 -0.14530236 0.24149498
0001d0 63 d2 47 be 1b 33 0c 3f 33 72 81 3e 20 a2 59 3e
       -0.1951385 0.5476548 0.2528244 0.21253252
0001e0 8c 4f 10 bf 51 e0 b5 be fe 46 e3 be 45 3c 38 be
       -0.5637138 -0.35522702 -0.443901 -0.17991741
0001f0 ab 57 51 be 7b 11 ec be a6 c1 fc be 80 79 9d 3e
       -0.20443599 -0.46107087 -0.49366492 0.3075676
000200 e9 19 1d bf 77 d9 de bd bd 2d 37 3e 33 55 b5 3e
       -0.6136766 -0.10881322 0.17888542 0.35416564
000210 19 20 18 be 8d 7d 9d bd 9d bc 94 be 74 49 93 3e
       -0.14855994 -0.076899625 -0.2905015 0.28766978
000220 ce 10 5a bf bb 6c c2 be 2a 5a 97 be 16 28 5c be
       -0.8518189 -0.3797358 -0.29560977 -0.21499667
000230 76 5a 78 3e c0 ec 1d 3e 44 8d 3a 3d af 5e 53 bd
       0.24253258 0.15422344 0.045544878 -0.05160397
000240 af d4 0a be a0 58 70 be c6 be 7d 3d 2a b7 cb 3e
       -0.13557695 -0.23471308 0.061949514 0.3978818
000250 6c ae 28 3e c8 05 68 be c6 15 6a 3d 8a 6c 70 3c
       0.16472787 -0.22658455 0.05714967 0.014674315
000260 63 59 62 be 7c ac 25 be 4e 0a cb be e4 e1 e0 3e
       -0.22104411 -0.16179079 -0.396563 0.4392234
000270 c3 c7 72 be cd 84 07 3f 14 ae 1f bf b9 85 6e 3c
       -0.23709016 0.5293701 -0.62375 0.014558249
000280 75 da 91 be 5a ff 54 be 47 8a 43 3e 8f 77 e2 bd
       -0.28486982 -0.20800534 0.19095717 -0.1105796
000290 0b de 02 be 74 cc 59 bf 30 71 e1 bd bc 11 d7 be
       -0.12780015 -0.85077596 -0.11007917 -0.42005718
0002a0 59 b2 a1 bd 95 4c 9b 3d ab 00 a4 be fe ad 24 be
       -0.07895345 0.07582966 -0.3203176 -0.16081998
0002b0 50 3b bc 3e 73 36 87 3e 20 51 5c be 06 08 3d 3e
       0.36764002 0.2640873 -0.21515322 0.18460092
0002c0 6e 66 7a 3e b8 07 0a bf d4 fa 35 be 0d f9 d5 bd
       0.24453136 -0.5391803 -0.17771465 -0.10447893
0002d0 f4 1c f6 3e af 27 1c 3e fc 3a 77 bd 77 1c 91 bd
       0.48068964 0.15249513 -0.060358986 -0.07085507
0002e0 6f ac af 3e a3 1b 08 be 3c 16 f2 be ec ad e2 be
       0.34311244 -0.13291793 -0.47282588 -0.44273317
0002f0 d1 ed 38 bf d9 22 1a 3e b3 46 75 be cc 0b a8 be
       -0.7223788 0.15052356 -0.23952751 -0.328215
000300 1c 45 b5 bd 73 48 3f be c0 29 fe be 11 34 f9 be
       -0.08851072 -0.18679981 -0.49641228 -0.48672536
000310 d4 93 e2 be 8b 44 95 3e d0 e3 cb bd a9 10 b4 bd
       -0.4425341 0.29153857 -0.09955561 -0.0879224
000320 bf 91 c2 3e 8f 4f b9 3c aa 61 e4 3e 06 dc d5 3e
       0.3800182 0.022620944 0.44605762 0.41769427
000330 df dc 9d be 41 ce 13 bf 25 9f ee bd 69 1d 1c bc
       -0.30832574 -0.57736593 -0.11651448 -0.009528496
000340 4b a1 8b 3e b0 ae 2f 3d 60 cf e9 bc 5a a9 ae 3e
       0.27271494 0.042891204 -0.028541267 0.3411358
000350 f6 61 95 3e f4 3a 1e be 3c 98 84 3e 93 f3 68 bd
       0.291763 -0.15452176 0.25897396 -0.056872915
000360 eb 8c 18 be a1 8d 3b 3f 82 3f 01 bf 77 d3 95 be
       -0.14897506 0.73262984 -0.5048753 -0.29262897
000370 fa 3f 32 be 15 aa f6 be d4 f1 43 bf 82 37 5b 3e
       -0.17407218 -0.48176637 -0.76540875 0.21407893
000380 78 ad 80 be f6 ac cd 3e 6e 81 1e be e0 23 c2 3e
       -0.25132346 0.4017102 -0.15479061 0.37917995
000390 bd 18 6a be e9 ef ca 3c 95 dc 32 bd f0 24 93 bc
       -0.22861 0.024772601 -0.043667395 -0.01796195
0003a0 1a d0 a3 3e c5 98 55 3e b6 96 75 be 50 79 f8 3e
       0.31994706 0.20859058 -0.23983273 0.48530054
0003b0 70 41 44 3e 67 84 7b bc 62 4e 8c 3d df 42 a7 3c
       0.19165587 -0.015351391 0.06850888 0.020417629
0003c0 bb c1 2e be 7e c1 c3 bd d3 37 ca be cc 9e 45 be
       -0.1706609 -0.0955839 -0.39495715 -0.19298857
0003d0 c5 db 6f bf 46 b6 b9 3d d3 e5 0c 3e 85 0e 54 bd
       -0.93694717 0.09067969 0.13759546 -0.05177166
0003e0 55 d7 0c 3f 52 ed 22 3e b1 80 f2 3e 27 a6 c3 bc
       0.5501607 0.15910843 0.4736381 -0.023882939
0003f0 5c 24 41 3e c5 84 ba 3e a7 53 2c 3e 09 b8 ac 3e
       0.18861526 0.3642942 0.16828786 0.33734158

conv1.mlp.4.bias f4 [64]
000000 37 08 5b 3e a8 95 a4 3d e1 ce 48 be 25 ce bf 3e
       0.21389852 0.08036357 -0.19610168 0.37461963
000010 55 de 91 be e1 aa 51 3e d5 e1 a3 3e 87 22 97 be
       -0.28489938 0.20475341 0.32008234 -0.2951853
000020 f4 c2 c1 be 54 a5 16 bf 9b 0a f9 bd 05 d1 e6 be
       -0.3784405 -0.5884602 -0.12160226 -0.45081344
000030 19 42 b6 bd 27 06 fd 3d 13 36 2c be d1 00 a1 be
       -0.08899326 0.12354689 -0.16817503 -0.31445935
000040 66 23 06 3f 21 eb 5b be 5b 6c e3 bc dd b2 6f bf
       0.52397764 -0.21476413 -0.027761629 -0.936323
000050 5b 55 5e bf 83 ab a6 be 09 c8 33 3e bc 2f 18 3f
       -0.8684899 -0.32552728 0.17556776 0.59447837
000060 64 b9 56 bf f6 86 f3 be f2 de 46 3d 07 63 01 bf
       -0.83876634 -0.47563905 0.04855246 -0.5054173
000070 80 8b 0f bd 01 b2 ed bd 2e 6e aa be 61 f6 ac be
       -0.035045147 -0.11606217 -0.33287185 -0.33781722
000080 4b c9 71 be 17 47 4e bf d8 c5 7a bd f7 d0 65 bf
       -0.23611943 -0.80577224 -0.061223835 -0.8977198
000090 5b b0 fa bd a9 cb 26 3f 77 2d 54 be 64 20 b7 3d
       -0.122406684 0.6515451 -0.20720468 0.08941725
0000a0 cc 75 d0 3e 9e 13 1d be a8 ca 13 3e e4 b9 3e bf
       0.40714872 -0.15339515 0.14432776 -0.74502397
0000b0 3c 5b 3b be 16 b7 ba 3e da de b0 be f6 04 2c bf
       -0.18296522 0.36467808 -0.34545022 -0.6719507
0000c0 09 43 3a bf 04 85 0e 3f 43 b2 38 be 50 7f 4d be
       -0.7275854 0.55671716 -0.18036751 -0.20068097
0000d0 13 0a c7 be d2 12 05 3e 81 2e 53 3e 43 34 df 3e
       -0.38874874 0.1299546 0.20623209 0.4359456
0000e0 a4 25 45 be 7d f2 0f bf 3d 5f fc bc 08 b1 29 3e
       -0.1925264 -0.5622938 -0.030807132 0.16571438
0000f0 1d f2 15 3f f4 e2 17 3e b6 9f 08 bf 6d 84 d6 3d
       0.5857256 0.1483267 -0.533687 0.10474477

conv1.mlp.6.weight f4 [64]
000000 68 8c 93 3f 81 b0 8f 3f 4e 0b 85 3f f9 77 8b 3f
       1.1527224 1.122574 1.0394075 1.0895988
000010 4b f5 88 3f ac 10 a2 3f ee a9 42 3f 08 2e 91 3f
       1.0699857 1.2661338 0.7604054 1.1342173
000020 2f 7c 95 3f c8 60 8c 3f a4 ee 94 3f 8c cc 7f 3f
       1.1678523 1.0967035 1.1635327 0.9992149
000030 76 2c 5c 3f 69 73 8b 3f 99 d2 7c 3f 84 4a 20 3f
       0.8600534 1.0894595 0.98758847 0.626137
000040 b8 57 87 3f 56 6c 9c 3f 1f bc a7 3f 93 5d 9f 3f
       1.0573645 1.2220562 1.3104285 1.2450432
000050 88 28 95 3f 0f 08 91 3f 7e 5e 7b 3f 30 f0 88 3f
       1.1652994 1.1330584 0.9819106 1.06983
000060 4a aa 77 3f 8e 19 74 3f 54 c0 48 3f 83 4d a4 3f
       0.96744215 0.95351493 0.7841847 1.2836155
000070 19 56 98 3f a4 4c 89 3f 42 71 9c 3f 80 db 7b 3f
       1.1901275 1.0726514 1.2222064 0.98381805
000080 22 ce 84 3f 5f bd 84 3f 52 c5 49 3f b5 51 54 3f
       1.0375407 1.0370291 0.7881671 0.82937175
000090 aa 3d 6f 3f e2 c5 9e 3f 57 c1 8a 3f dd 4f 66 3f
       0.93453467 1.2404139 1.0840253 0.8996561
0000a0 4a 53 8a 3f 45 cd 9e 3f be f0 68 3f ca 8b 94 3f
       1.0806668 1.2406393 0.90992343 1.160516
0000b0 df 45 8b 3f d0 ce 60 3f 0f 14 8a 3f f4 29 8f 3f
       1.0880698 0.8781557 1.0787371 1.1184678
0000c0 4d 51 8a 3f af 0d 9e 3f c9 31 80 3f a3 d6 7f 3f
       1.0806061 1.2347926 1.0015193 0.99936885
0000d0 6c eb 8f 3f 6d be 7e 3f 96 ee 8a 3f 76 56 85 3f
       1.124372 0.99509317 1.0854061 1.0417011
0000e0 bf 85 b8 3f e6 97 88 3f 30 eb 6a 3f f4 14 66 3f
       1.4415816 1.0671356 0.9176512 0.8987572
0000f0 2c 2e 8f 3f da 3c 82 3f 81 61 79 3f 7c 40 57 3f
       1.1185966 1.017482 0.97414404 0.8408277

conv1.mlp.6.bias f4 [64]
000000 94 0e 19 3e 03 f1 e7 be 43 f1 d3 3d 37 54 11 3e
       0.14946967 -0.45301065 0.103487514 0.14192282
000010 17 70 d9 3e 8d 7d 42 3e 9c 98 49 3e f1 39 89 3e
       0.4246833 0.18993206 0.19687122 0.26802018
000020 f6 97 f2 bd 7a 0f 5d bf f7 19 8e bc 26 27 94 3d
       -0.118453905 -0.8635174 -0.017346365 0.072340295
000030 98 b6 18 bf 9e 0b 25 3e 00 fa e2 3d fc f6 09 be
       -0.59653616 0.16117713 0.1108284 -0.13473123
000040 b6 fd a6 3e b5 55 28 bf ac 3f 4f be 38 fb fc 3d
       0.3261544 -0.6575578 -0.20239133 0.12352604
000050 09 e4 e9 be 83 1b cc be 9f 6a 10 bf 55 c7 43 be
       -0.4568179 -0.3986474 -0.5641269 -0.19119008
000060 7a e2 af 3d ab cb 72 3e 18 ec c2 3e 53 06 6f 3e
       0.08588119 0.23710506 0.3807075 0.23342256
000070 b9 de a3 3e 4a fe 8a 3e 24 eb d4 be 92 ec 11 3d
       0.3200586 0.27147132 -0.41585648 0.035626
000080 01 bf 79 3e 24 99 0c bd 12 c0 92 3e ad fa e6 3c
       0.24389268 -0.034325734 0.28662163 0.028195703
000090 2f f4 d7 bc 81 c7 88 3e 53 b8 de 3d c5 3f 0c 3e
       -0.026361553 0.2671471 0.10875001 0.13696201
0000a0 a4 f1 89 be 52 47 13 be 9c 44 9d be 9d f1 81 bf
       -0.2694217 -0.14382675 -0.30716407 -1.015186
0000b0 f4 a2 6d bc c4 fb 8e 3e e3 5a f6 3d 1a c9 09 bf
       -0.014504183 0.27926457 0.12029054 -0.5382248
0000c0 5d dd f4 bd 1c 8e 88 3d e4 63 92 3e e7 78 af 3e
       -0.11956284 0.0666773 0.28591835 0.3427193
0000d0 be f1 a6 bd 8f 02 39 be c9 88 17 bf 48 b7 a4 3e
       -0.081515774 -0.18067382 -0.5919309 0.32171082
0000e0 ea 01 bd 3d 6b 09 63 bd 31 0c 9a 3e b0 95 3e 3e
       0.09228881 -0.055428904 0.30087426 0.18611789
0000f0 d9 59 03 3f 96 08 b5 3d 9c 91 7b be 9a 1e 04 3e
       0.5130897 0.08839528 -0.24567264 0.12902299

conv1.mlp.6.running_mean f4 [64]
000000 18 ea 2e 40 1f 50 d9 3f 0b 34 2c 3f 3e 39 1e 40
       2.733038 1.6977576 0.6726691 2.4722438
000010 6f f1 e3 3f 30 51 9f 3f 62 ae 1b 40 54 89 28 40
       1.7808055 1.2446651 2.4325185 2.6333818
000020 da 66 10 3f 27 d1 0a 3f 8c 73 fb 3e 4c 3e a1 3f
       0.5640694 0.5422539 0.49111593 1.2597136
000030 64 6d 9b 3f 10 c9 2a 40 b7 ce f2 3f 29 b3 17 40
       1.2142758 2.668522 1.8969334 2.37031
000040 38 33 9f 3f aa 88 3e 3f 33 70 2d 3f 4c 50 82 3f
       1.2437506 0.7442728 0.6774933 1.0180755
000050 4e ae e9 3f 67 19 c0 3e 46 6b b5 3f 74 1f 9b 3f
       1.8256319 0.3751938 1.4173362 1.2118974
000060 ce c6 f8 3f c3 9a 72 3f 9f 4e 18 40 2c ca ea 3f
       1.943567 0.947674 2.3797987 1.8342948
000070 32 9b 1f 3f 7c f0 20 40 e6 0f d7 3e c8 da 21 40
       0.62346184 2.514678 0.42004317 2.5289783
000080 0e 88 6d 3f 0b 17 92 3f 37 7b 0f 40 5c a0 42 3f
       0.9278573 1.1413282 2.2418954 0.7602594
000090 88 09 1c 40 9a c5 43 40 e0 a4 db 3e 9e 18 39 40
       2.4380817 3.0589356 0.42899227 2.8921275
0000a0 a9 47 e2 3f e4 15 68 40 e7 96 6b 40 98 9d d9 3e
       1.7678119 3.626336 3.6810853 0.42503047
0000b0 10 e1 07 40 33 a3 19 40 3a 63 e8 3f 8e f6 59 3e
       2.1231117 2.400586 1.8155282 0.2128546
0000c0 80 06 d7 3f a0 73 cd 3f 87 d6 10 40 ef 84 1b 40
       1.6798859 1.6050911 2.2630937 2.4299886
0000d0 6a b5 0a 3f 72 3d 0b 3f 3e 15 ae 3f 4a c7 e3 3f
       0.54183066 0.54390633 1.3600233 1.7795193
0000e0 6a 6c 38 3f 21 20 07 40 7d 1c 33 40 0a f6 3b 40
       0.72040427 2.111336 2.7986138 2.936892
0000f0 b6 77 5e 40 04 9f 2c 40 fc 8d d5 3f fb 3b 0e 40
       3.4760566 2.6972055 1.6683955 2.222411

conv1.mlp.6.running_var f4 [64]
000000 c3 c0 e3 40 05 f8 b3 40 03 55 82 40 52 90 31 41
       7.1172805 5.624026 4.0728774 11.097734
000010 69 22 d3 40 32 54 6c 40 c8 dd 2a 41 10 7d 87 41
       6.5979505 3.6926389 10.679146 16.936066
000020 3a a5 1a 40 81 2e 94 3f 7f 43 23 40 86 34 8d 40
       2.4163346 1.1576692 2.5509946 4.4126616
000030 e5 d0 2d 40 05 21 43 41 c6 df 2e 41 0c 59 8b 41
       2.715875 12.195561 10.929632 17.41848
000040 bd 53 9f 40 57 8d dd 3f d7 fd 8d 40 10 f9 d0 40
       4.978972 1.7308758 4.4372363 6.530403
000050 49 71 49 41 fa 48 c6 3f e4 90 84 40 2c be d8 40
       12.5901575 1.5491021 4.142687 6.7732143
000060 d9 53 07 41 c0 11 01 41 77 77 47 41 ed 66 ef 40
       8.457971 8.0668335 12.466666 7.481314
000070 80 23 76 40 e9 88 1b 41 01 58 91 3f 90 c1 7c 41
       3.8459167 9.720925 1.1354982 15.797256
000080 2a 9f 69 40 a9 a0 ec 40 51 30 60 41 df 74 b6 40
       3.6503396 7.394612 14.011796 5.7017665
000090 05 1b 5d 41 a2 93 26 41 d4 e4 27 40 4d 71 52 41
       13.819097 10.411043 2.6233416 13.152661
0000a0 53 65 a5 40 7a ba b7 41 d9 0d be 41 fc 18 6e 3f
       5.1686187 22.966053 23.756762 0.93006873
0000b0 40 c5 90 41 19 17 04 41 9d a6 67 41 84 36 10 3f
       18.096313 8.255639 14.478177 0.56333184
0000c0 3e b3 34 41 53 22 9d 40 71 49 32 41 28 96 80 41
       11.29376 4.91044 11.14293 16.073318
0000d0 69 80 0f 40 88 da 7f 40 5b 9f 5a 40 33 46 9d 40
       2.2422125 3.997713 3.4159763 4.9148192
0000e0 f5 a3 ac 40 33 22 5a 41 bd 87 c2 41 95 15 9a 41
       5.3950143 13.633349 24.316278 19.260538
0000f0 4d 45 38 41 ef a0 1e 41 81 cc 46 41 4d 30 16 41
       11.516919 9.91429 12.424928 9.386792

conv1.mlp.8.weight f4 [64, 64]
000000 57 35 89 be 9b 9e ec be 52 17 02 3f 52 82 71 be
       -0.26798508 -0.46214756 0.50816834 -0.2358487
000010 ca b0 5e bf ad 0b cf 3d 79 d4 05 bf b9 90 dc bd
       -0.8698851 0.10109649 -0.5227733 -0.10769791
000020 11 74 db 3e 96 66 97 3e a8 8f ab 3e eb e6 a2 3e
       0.4286199 0.29570454 0.3350804 0.318168
000030 9b 2d c1 be 13 47 2c bf c5 4c ac be ed c0 22 3e
       -0.37730107 -0.6729595 -0.3365232 0.15893908
000040 5e 67 bf 3e 9b de 0a 3e 8f 69 29 3f 43 92 bb bd
       0.3738355 0.1356148 0.66176695 -0.091587566
000050 85 42 f5 3d 97 ca 2c 3f 61 69 33 be 8b b3 73 3e
       0.11975578 0.6749663 -0.17520668 0.23798959
000060 6d ef f1 3d cf 67 79 3d 45 67 23 be 56 85 7b 3e
       0.11813245 0.060890015 -0.15957363 0.24562582
000070 36 3b 91 3e f6 45 e8 be 96 d4 bc 3d ee d8 c2 be
       0.28365487 -0.45365876 0.09220235 -0.3805613
000080 1f bc f2 3d e7 74 77 be 6a 39 c9 be af cd b3 3e
       0.118522875 -0.24165688 -0.39301616 0.35117862
000090 59 bd b6 be 03 41 92 3e 89 85 d1 3c 34 e7 cd be
       -0.35691336 0.28565225 0.02557637 -0.40215456
0000a0 8b fb 99 be 37 c4 45 be 20 48 01 be 1e e4 d8 3e
       -0.30074725 -0.19313131 -0.1262517 0.4236154
0000b0 bd 35 4a bd 1b 99 96 3e 63 86 a1 bd 60 26 1a bd
       -0.049367655 0.29413685 -0.0788696 -0.037634254
0000c0 10 af 14 3e 33 6e 25 3e df 3a ad b5 fd 56 1d 3d
       0.14519906 0.16155319 -1.2906638e-06 0.038413037
0000d0 9c 56 c4 3e b1 16 98 3e 49 a4 7d be 41 fb d3 bd
       0.38347328 0.29704812 -0.24769701 -0.10350657
0000e0 c1 8e 14 3f 0e 1e 00 be ae c9 6b be 87 19 be be
       0.58030325 -0.12511465 -0.23026153 -0.3712885
0000f0 7c 1c d3 be 0c 02 96 bd fc d4 82 3d 51 b4 af be
       -0.4123267 -0.07324609 0.0638828 -0.34317258
000100 ba c5 fe 3c 54 c8 06 3e 95 99 32 3e 98 d3 9e be
       0.031100143 0.13162357 0.174414 -0.31020808
000110 2f 99 12 bf 75 c7 2b 3f 2e dd cf 3d 80 a8 79 3e
       -0.5726499 0.6710122 0.101496086 0.24380684
000120 9c 1d db 3d 49 93 80 3e 43 e2 90 3e 6b 23 d3 be
       0.10699007 0.2511237 0.28297624 -0.4123796
000130 7f 30 6b 3e 3c 35 d4 3d 44 ed c1 bd 81 a0 af 3e
       0.22967719 0.10361716 -0.09469083 0.34302142
000140 e5 68 06 3f cf 59 92 3d 4c 88 ca 3e 39 ad 33 3e
       0.52503806 0.07146036 0.3955711 0.17546548
000150 01 d6 03 3f 98 51 16 3f e6 6b 79 3e 31 e7 07 3f
       0.5149842 0.5871825 0.24357566 0.53087145
000160 c9 a6 2f 3e f9 19 d9 bc 9f 9c 0d 3e 0c ea 13 3e
       0.17153467 -0.026501643 0.13829277 0.1444475
000170 12 d3 e1 3e fe 75 12 3e fa 57 ee 3e 0f 59 69 3e
       0.44106346 0.14302823 0.46551496 0.2278788
000180 e7 54 4d be 5f ea 88 be 3e fa ae bc 71 09 53 bd
       -0.20051919 -0.2674131 -0.02135956 -0.051522676
000190 5e 74 b2 3e 5a 0b b4 be 72 1c 58 3e f5 04 05 be
       0.34854406 -0.3516491 0.21104601 -0.12990172
0001a0 ce 67 48 bd 8f e8 60 3e c6 a6 0e 3d 99 bb 8f 3e
       -0.04892712 0.21963714 0.034827016 0.28072813
0001b0 dc d2 e0 3d 4f 57 3d 3e e6 87 89 be 5e 97 fe 3e
       0.10977718 0.18490337 -0.26861495 0.4972486
0001c0 14 9b ad 3e 4c cc db 3e 7e 16 6f 3e 5c 61 a4 be
       0.33907378 0.42929304 0.23348424 -0.3210553
0001d0 7d 5c 0d 3f 61 8f b4 3e e9 d4 97 3e 09 87 f3 3d
       0.5521925 0.3526564 0.29654625 0.1189099
0001e0 d9 8b 77 3e a4 6e b6 3e a1 f6 a2 bc 0b ba 0c 3f
       0.24174441 0.35631287 -0.019892992 0.5497138
0001f0 9e f0 06 be fd ec 24 3e 73 ab ab 3e 24 b4 ae 3d
       -0.13177726 0.16106029 0.33529243 0.08530453
000200 7c aa 44 3b 19 6c 78 3d df 14 19 bc 0c 3f 58 be
       0.0030008843 0.060649965 -0.009343355 -0.211178
000210 be a6 cb bd ed a7 42 be f6 f2 29 3d 0e 18 f3 3d
       -0.09943913 -0.19009371 0.04149147 0.118698224
000220 48 6b 91 be 9a ff c0 bd 45 3d 14 be c3 71 81 be
       -0.28402162 -0.09423752 -0.14476497 -0.25282106
000230 d6 6e 8b 3e 27 24 80 be e6 16 3b 3d 97 8f a2 3d
       0.27233 -0.25027582 0.045676135 0.07937544
000240 e2 5a 3a 3e 2f 1e 90 3c 2a 7d 41 3e 5b 37 c6 3e
       0.18198732 0.017592518 0.18895403 0.38714108
000250 be 1d 52 3f 44 17 82 be 9a 30 93 3d d3 1a 9a 3e
       0.8207663 -0.25408375 0.071870044 0.3009859
000260 d5 b7 a1 3e 92 2a 1d 3e 0c 43 23 3f 7e c6 3a 3e
       0.31585565 0.1534827 0.6377418 0.18239781
000270 2a 92 3a be 07 83 18 3e 04 f6 0a 3d 0b 40 32 3f
       -0.1821982 0.14893733 0.033926025 0.6962897
000280 6f 0b 59 bd 65 bd 35 3f 0d 51 02 3f df f0 da 3c
       -0.05298942 0.7099212 0.50904924 0.026726184
000290 e4 54 9d 3e c4 7a 43 be 15 03 07 3e 63 46 c5 3e
       0.3072883 -0.190898 0.1318477 0.38530263
0002a0 d3 2a 2b 3e 10 89 00 3f e2 29 d3 3d fb 26 8e 3e
       0.16715555 0.5020914 0.10310723 0.27764115
0002b0 c3 49 11 be fa 01 f4 3d ff 05 27 3e 0b a4 66 be
       -0.14188294 0.119144395 0.16310881 -0.22523515
0002c0 ff 4c 81 3e a2 d1 e5 3d 35 6d 04 3d 06 28 6a be
       0.25254056 0.11221625 0.03233071 -0.2286683
0002d0 33 b7 f2 be ea 77 81 3e b4 2f c6 3d 4f f9 eb bd
       -0.47405395 0.252868 0.096770674 -0.11522161
0002e0 9e 0a 03 3e 48 dc 64 3e 38 b2 c8 3e 1c e5 b2 3e
       0.12797019 0.22349656 0.3919847 0.34940422
0002f0 fb fb 84 be f7 55 7b 3e 1a 2c 5d 3f 3c f6 05 bf
       -0.25973496 0.24544512 0.8639542 -0.5232885
000300 b4 c5 cd be 4a 8b db 3e 68 de 05 bf 67 0e c1 bc
       -0.40189898 0.42879707 -0.5229249 -0.023566438
000310 0d 6f 5b be 8e 6e 87 be 0a dd 21 bf cd 22 17 3c
       -0.21429081 -0.26451534 -0.63227904 0.009224606
000320 94 10 d0 3c 8d c1 9f 3e ea 3b fc be c4 15 4a be
       0.02539853 0.31202355 -0.4926446 -0.19734865
000330 30 b9 d4 3e e3 c5 bb be b0 d9 8a 3e d2 62 14 be
       0.41547537 -0.36674413 0.27119207 -0.14490822
000340 5b c8 02 bf 02 39 c1 3e cc 94 c7 bd ab b0 87 bc
       -0.5108697 0.37738806 -0.097451776 -0.016563734
000350 84 9c 3d be ea 47 9a be 06 ee 27 3e 84 01 49 3e
       -0.18516737 -0.3013299 0.16399392 0.19629484
000360 e3 21 1d 3d f7 5f 3c 3e 32 0d 48 3e ad d3 74 3e
       0.038362395 0.18395983 0.19536284 0.23908873
000370 31 01 3a bf 5e bb 67 3b 69 15 98 3e 4b 8f 55 3d
       -0.7265807 0.0035359482 0.29703835 0.052138608
000380 9c 89 09 be 88 bc fd 3d f5 a7 84 3c 70 05 09 3e
       -0.134314 0.12389475 0.01619337 0.1338098
000390 c7 92 8b be 8c 7f 4c be 76 bf c9 3d ed b5 2e be
       -0.2726042 -0.1997053 0.098509714 -0.17061587
0003a0 a1 e8 e0 3e 46 55 d7 be c4 54 4e 3e 84 ed 9a 3e
       0.43927482 -0.42057246 0.20149523 0.30259335
0003b0 12 d8 00 bf 5f bd 74 be be af 0f bf fb ff bc bc
       -0.503297 -0.23900364 -0.56127536 -0.02307128
0003c0 0a 74 be bc ec ce 3a bf 9c 74 f2 3d ef 37 28 bf
       -0.023248691 -0.7297199 0.11838648 -0.6571035
0003d0 e2 89 d6 be 76 93 b4 be 54 f6 77 3e dc e0 0f bf
       -0.4190207 -0.35268754 0.2421506 -0.56202483
0003e0 a3 54 f6 be 2a b9 23 be c5 eb 9a be 7e 06 08 bf
       -0.48111448 -0.15988603 -0.30258003 -0.53134906
0003f0 dc 2a c4 be a8 26 5f be 1d 7f 94 be e7 7b 5a be
       -0.3831395 -0.2179209 -0.2900323 -0.21336327

conv1.mlp.8.bias f4 [64]
000000 58 dd 06 bf 34 6c 24 bf 64 33 9e be 93 c0 db bd
       -0.52681494 -0.64227605 -0.30898583 -0.1073009
000010 e6 71 b4 3e 2d f4 a6 bd 1f 8f 95 be 1d 58 a6 be
       0.35243148 -0.081520416 -0.29210755 -0.324891
000020 57 fb 97 bd 95 9a 8c bd ff 06 da bc 48 5d 7e 3e
       -0.07420986 -0.06865422 -0.026614664 0.24840271
000030 75 bc 28 be 83 ff 91 be 8f d7 d1 be 73 af b7 3e
       -0.1647814 -0.28515252 -0.4098477 0.35876045
000040 da eb 0c bf 32 62 28 be 88 87 28 bf d8 af 11 3b
       -0.5504738 -0.16443709 -0.65831804 0.0022230055
000050 cc 20 b1 bd bb 8f 38 bf d7 f0 87 bc ac 43 e7 be
       -0.08648834 -0.72094315 -0.016594334 -0.45168817
000060 64 92 b0 3e e3 c9 78 3d 95 1d e5 be b5 f9 03 3e
       0.34486687 0.06073941 -0.44749132 0.12888224
000070 19 6f f8 bd 10 9c a9 be 5d 9a fa bd be ba 6c 3d
       -0.12130565 -0.3312688 -0.12236474 0.05779528
000080 b5 9b aa be 79 49 81 3d 72 d6 ef bd 4d 9f 48 be
       -0.3332192 0.06312842 -0.11710824 -0.19592018
000090 cb 41 46 bc 47 d1 c9 3e 87 59 02 bf a0 8a 71 be
       -0.012100647 0.39417478 -0.5091786 -0.23588037
0000a0 33 f8 00 3f 7e bd 64 3d 8f 3d 78 3f 72 a7 eb 3e
       0.5037872 0.055844776 0.9696893 0.46026188
0000b0 f4 a5 bc bd 50 1f 69 bd 58 02 d6 bd f0 b0 0a 3f
       -0.092113405 -0.056914628 -0.10449666 0.54176235
0000c0 ab 58 6a bd 47 e7 83 be fe 3b 6d bf e5 b5 93 3e
       -0.057213467 -0.25762388 -0.92669666 0.28849712
0000d0 7d f4 82 3d 2d 2a c5 be 66 ad 21 3f 99 6d 0c 3e
       0.06394289 -0.3850874 0.6315521 0.13713683
0000e0 63 e6 03 bf e3 91 4b bf 7e b2 33 be e7 61 74 be
       -0.5152342 -0.7951948 -0.17548558 -0.23865472
0000f0 d2 fe 00 bf d5 07 74 be d2 02 ae be dc c4 d3 bd
       -0.50388825 -0.23831113 -0.33986527 -0.10340282

conv1.mlp.10.weight f4 [64]
000000 ce 25 28 3f 49 15 44 3f d0 79 e0 3e c9 48 6b 3f
       0.65682685 0.7659498 0.43842936 0.91907936
000010 ec a6 5f 3f cb 01 8b 3f 50 34 55 3f 61 e2 0c 3f
       0.8736408 1.0859922 0.8328295 0.55032927
000020 fe d8 64 3f ed 73 22 3f 2c 61 98 3f ff de 39 3f
       0.89393604 0.6345814 1.1904655 0.7260589
000030 21 26 8b 3f 73 a3 4e 3f 86 4f 85 3f 1d 4e 4a 3f
       1.0871011 0.80718154 1.0414894 0.7902544
000040 4f 0a 6b 3f 0e 4f 59 3f 07 cd ce 3e fc 2e 64 3f
       0.91812605 0.8488625 0.40390798 0.8913419
000050 63 16 4f 3f 08 b1 e4 3e c2 d4 bd 3e e1 ae da 3e
       0.80893534 0.44666314 0.37076384 0.42711547
000060 3d b9 26 3f 0b 84 a1 3f ec 34 94 3f 24 ed 1c 3f
       0.651264 1.2618421 1.157865 0.6129935
000070 38 0d 4b 3f d1 e9 3f 3f 4d d0 a6 3f e6 7c 65 3f
       0.79317045 0.7496615 1.3032318 0.89643705
000080 66 39 23 3f 40 ce 83 3f 90 9d 5c 3f a7 3e 0a 3f
       0.6375946 1.0297318 0.8617792 0.5400185
000090 c4 f5 0e 3f a0 ff 8a 3f 93 73 76 3f 15 c0 25 3f
       0.5584376 1.085926 0.962701 0.6474622
0000a0 ff 67 9e 3f e9 db 5e 3f 48 6e ac 3e 5e df 29 3f
       1.2375487 0.87054306 0.33677888 0.66356456
0000b0 63 16 31 3f 76 2e 08 3f 13 95 03 3f ad 26 02 3f
       0.69174784 0.53195894 0.51399344 0.50840265
0000c0 ce 7d 85 3f b3 ba 1f 3f c7 35 a6 3e 9e 31 44 3f
       1.0429018 0.62394255 0.32462904 0.7663821
0000d0 ed 5a 42 3f 3d de 81 3f f4 35 f1 3e 74 84 1f 3f
       0.7591999 1.0145947 0.47111475 0.6231148
0000e0 8c be ef 3e 86 46 d5 3e 4b 16 20 3f 02 d0 5b 3f
       0.46825063 0.41655368 0.62534016 0.8586427
0000f0 6a 89 cd 3e 02 ae 5e 3f d1 c7 34 3f 9b a7 7e 3f
       0.401439 0.86984265 0.70617396 0.99474496

conv1.mlp.10.bias f4 [64]
000000 21 de 73 3e 63 ea d3 be 64 04 16 be 2a 1e 36 3e
       0.23815204 -0.4138976 -0.14650112 0.17784944
000010 c3 39 82 3e e5 f7 12 3f 6b da 15 3f 1b 8c 25 bf
       0.25434694 0.5740951 0.58536404 -0.6466691
000020 fd d9 37 3d 61 a9 60 3e 0a 84 2a bf ac 59 bc bd
       0.044885624 0.21939613 -0.66607726 -0.09196791
000030 d7 b5 41 3e 5f d7 45 bd fe 78 4a be c3 a1 48 3e
       0.18917023 -0.048301097 -0.19772717 0.19592957
000040 56 1f 1e bd 2f 45 4d 3e 42 14 14 3e 98 32 f5 3c
       -0.038604103 0.20045923 0.14460853 0.029931352
000050 3f c7 03 bf f1 af 9a 3d c0 78 90 3e ec 83 5e bd
       -0.514759 0.075530894 0.28217125 -0.05432503
000060 9c 87 bf be 0e 35 af 3e 9a 94 ec 3e 5c c8 3a 3e
       -0.3740815 0.34220165 0.46207124 0.18240494
000070 3f ff 83 bd fa 18 10 bd ed a4 68 3e 1c ef 25 3e
       -0.06445169 -0.03518007 0.22719164 0.16204494
000080 f3 a1 38 3e 23 65 14 3e 83 f2 22 3e d3 4e 49 bc
       0.18030529 0.14491706 0.15912823 -0.01228686
000090 39 2f c2 bd 22 ab 40 bd 91 df 9f 3d 51 05 e3 be
       -0.09481663 -0.047038205 0.07806314 -0.44339994
0000a0 e5 07 68 3d b5 bc 35 bf 6b b6 cc 3a 09 66 ed 3c
       0.056648154 -0.7099107 0.001561833 0.028979318
0000b0 9f be 32 3e 63 98 8c 3e 27 3e a2 bd 9f 43 35 be
       0.17455529 0.27460012 -0.07922011 -0.17701577
0000c0 7d 2e 83 3e 24 71 d5 3d 78 4a cb bc c1 e1 a3 3c
       0.25621405 0.104219705 -0.024815783 0.020005109
0000d0 e6 6b a5 be 43 20 7d 3e 58 e7 16 3e ca d8 70 3e
       -0.32308882 0.24719338 0.14736688 0.23520198
0000e0 58 28 b6 3c ef 84 fa 3c 00 58 2e be 80 ad 97 bc
       0.022236034 0.030580966 -0.17025757 -0.018515348
0000f0 ad 83 34 3c 5c b6 48 3e 7c 5f 02 be bf a1 24 3e
       0.011017722 0.19600815 -0.12731737 0.16077326

conv1.mlp.10.running_mean f4 [64]
000000 cd a6 d8 3f 55 0b b6 3f 41 52 f6 3f c2 5e ae 3f
       1.6925904 1.4222208 1.9243852 1.3622668
000010 bb e8 0b 40 01 9e c7 3f 53 32 97 3f c6 42 49 40
       2.1860797 1.5595094 1.1812233 3.1447005
000020 90 71 f6 3f 1b 3c 15 40 19 e3 35 40 e0 13 71 40
       1.9253407 2.3317935 2.841986 3.766838
000030 f3 ab fd 3f b4 d5 15 40 2a 20 ac 3f c8 f8 0c 40
       1.98181 2.3411684 1.3447316 2.2026844
000040 a8 b4 ae 3f 1a 6d 14 40 9e a2 95 3f 84 d2 24 40
       1.3648882 2.319159 1.1690252 2.5753489
000050 bc 70 3b 40 cf cf 88 3f d6 94 f9 3f a7 e2 9e 3f
       2.9287558 1.0688418 1.9498546 1.2412919
000060 93 88 49 40 44 6f e7 3f 09 69 a1 3f ed ff c1 3f
       3.1489608 1.808083 1.2610179 1.5156227
000070 2b 20 a8 3f 8f d4 cd 3f 73 9c e2 3f fe 43 cf 3f
       1.3134817 1.6080493 1.7703995 1.6192625
000080 55 3d c7 3f e3 e8 dc 3f 05 bd dc 3f 90 7c 53 40
       1.5565592 1.7258571 1.7245184 3.3044777
000090 5f 75 0f 40 11 a9 1c 40 9f 2c e9 3f c7 d3 3a 40
       2.2415388 2.447819 1.8216742 2.9191759
0000a0 54 dd 42 40 c1 76 87 40 21 a2 86 40 af 18 47 40
       3.0447588 4.2332463 4.207291 3.1108816
0000b0 7a e7 11 40 d7 85 b3 3f 37 7b 23 40 46 5c b3 40
       2.2797532 1.402522 2.5543954 5.605014
0000c0 23 6f 57 40 57 4f f2 3f bd 2f ca 3f bc 93 3b 40
       3.3661582 1.8930463 1.5795819 2.930892
0000d0 04 13 4b 40 63 56 03 40 b4 dd 90 40 81 41 ef 3f
       3.1730356 2.0521476 4.5270634 1.8691865
0000e0 67 34 e6 3f e0 ad a0 3f 43 55 a8 3f c7 98 d8 3f
       1.7984742 1.2553062 1.315102 1.6921624
0000f0 98 a1 6a 3f 47 6b 0b 40 ce 5b b9 3f c2 d8 9a 3f
       0.9165282 2.1784227 1.4481142 1.2097399

conv1.mlp.10.running_var f4 [64]
000000 ac 6c 0d 42 b2 8f ee 41 84 7c c2 41 0b 6c 01 41
       35.356125 29.820164 24.310799 8.088878
000010 d2 81 56 41 27 46 19 41 0b a4 c7 40 d3 66 e2 41
       13.406694 9.579627 6.238775 28.300207
000020 36 d6 18 42 69 1c 05 42 9b 8e fd 41 b5 58 c8 41
       38.20919 33.277744 31.694632 25.043314
000030 dc 15 33 42 76 81 c4 41 44 af 69 41 18 b5 b1 41
       44.771347 24.563213 14.605289 22.213425
000040 51 2f e5 41 35 af 62 42 a0 0a d2 40 57 31 47 41
       28.648104 56.6711 6.563797 12.449546
000050 39 14 ba 41 91 89 ef 40 c9 08 a3 41 66 1e 3d 41
       23.259874 7.485543 20.37929 11.8199215
000060 2a 09 6a 41 c4 b9 1d 41 6d 99 ad 40 7c 1c 4a 41
       14.627237 9.857853 5.4249787 12.631954
000070 9a 77 e1 40 41 13 0d 41 e9 63 2b 41 89 f5 41 41
       7.04585 8.817201 10.711892 12.122445
000080 65 58 0d 42 26 60 1c 41 2f c7 27 41 5c 5b af 41
       35.336323 9.773474 10.486129 21.91961
000090 c9 71 42 41 da f3 3e 41 c5 a6 e0 41 f5 8e 97 41
       12.15278 11.934534 28.08143 18.944803
0000a0 5d dd 63 41 67 40 03 42 24 41 45 41 eb 08 09 41
       14.241544 32.812893 12.328403 8.564677
0000b0 77 b3 74 42 d5 0d 25 41 b4 5d b4 41 97 51 4d 42
       61.17526 10.315877 22.545753 51.329678
0000c0 5d 84 0e 41 47 e0 1b 42 8f ed 67 41 c0 ad f8 41
       8.907315 38.96902 14.495498 31.084839
0000d0 5e ed fa 41 bb 36 59 42 45 62 29 41 81 b1 43 42
       31.365902 54.303448 10.586492 48.923344
0000e0 51 fd 75 41 cf eb 1a 41 45 cb 5e 40 4a 5d 06 42
       15.374345 9.68257 3.4811566 33.591103
0000f0 ad 5d 8b 40 2e fb fa 41 40 a9 83 41 d1 51 cd 40
       4.355185 31.372646 16.457642 6.4162374
