GraphNeuralNet/Combined/epoch120/MHc-100_MA-95_vs_diboson/models/ParticleNet-nNodes64_Adam_initLR-0p0001_CyclicLR.pt (torch, 302566 bytes, 102 tensors)

gn0.weight f4 [9]
0.83611315 1.3084716 1.269068 0.6980305 0.72579956 1.0990424 0.83426166 0.9082242
0.9110129
00000000: 830b 563f ff7b a73f d270 a23f 20b2 323f
00000010: 00ce 393f 6cad 8c3f 2c92 553f 6281 683f
00000020: 2438 693f

gn0.bias f4 [9]
0.15313357 0.03177023 -0.013580415 -0.018911354 0.07905133 0.06417995 -0.07047003 -0.12120604
-0.076044455
00000000: 0ccf 1c3e 8021 023d 6480 5ebc fceb 9abc
00000010: aae5 a13d c770 833d 9752 90bd df3a f8bd
00000020: 32bd 9bbd

gn0.mean_scale f4 [9]
1.0529859 0.9428557 0.9599656 0.9251872 0.7870002 0.39554805 0.9873653 0.91902286
1.0423268
00000000: 3ec8 863f fe5e 713f 4ec0 753f 11d9 6c3f
00000010: d878 493f 4685 ca3e f9c3 7c3f 1545 6b3f
00000020: f76a 853f

gn1.weight f4 [64]
0.99225104 0.99606323 1.0071343 0.9626592 0.94033545 0.98388505 0.93366003 0.9787344
0.9441803 0.95298487 1.0391817 0.93893486 0.9402934 0.90259886 0.9332528 0.9716829
0.94467306 0.98017746 1.0160426 1.0080259 0.98654217 0.9946648 0.9587429 0.940564
0.96259904 0.974347 0.9390669 0.93235457 0.9491929 0.9592617 0.94252175 0.9652693
0.94733715 0.9552727 0.9570374 1.0514883 0.97399026 0.98738754 0.9832226 0.9965461
0.9567944 1.020619 0.9027955 0.9457505 0.9845888 1.0106834 1.0056716 0.9993678
1.00262 0.9738209 0.99437255 1.0207176 0.9009033 0.9807705 0.98375845 0.8787145
0.95400923 0.9816595 0.9075 0.966829 1.0310584 1.0091463 0.9769578 0.9113576
00000000: 2a04 7e3f 00fe 7e3f c7e9 803f d570 763f
00000010: d3b9 703f e4df 7b3f 5804 6f3f 568e 7a3f
00000020: cdb5 713f d1f6 733f e803 853f 095e 703f
00000030: 11b7 703f b810 673f a8e9 6e3f 36c0 783f
00000040: 18d6 713f e9ec 7a3f af0d 823f fe06 813f
00000050: 078e 7c3f 5aa2 7e3f 2d70 753f cdc8 703f
00000060: e46c 763f ce6e 793f b066 703f caae 6e3f
00000070: 4efe 723f 2d92 753f 1b49 713f e41b 773f
00000080: b084 723f c08c 743f 6700 753f 2b97 863f
00000090: 6d57 793f 6ec5 7c3f 7ab4 7b3f a51d 7f3f
000000a0: 7af0 743f a5a3 823f 9b1d 673f b41c 723f
000000b0: 030e 7c3f 135e 813f d9b9 803f 91d6 7f3f
000000c0: da55 803f 544c 793f 338f 7e3f e0a6 823f
000000d0: 99a1 663f c713 7b3f 98d7 7b3f 6ff3 603f
000000e0: f339 743f 094e 7b3f ec51 683f 1b82 773f
000000f0: b9f9 833f b52b 813f e819 7a3f bb4e 693f

gn1.bias f4 [64]
-0.020238943 -0.12549675 0.11019598 0.084924884 -0.015735008 0.07908452 0.04309354 0.01019985
-0.025767824 0.09557808 0.07622596 0.10776597 0.044562515 -0.046925332 0.049761448 0.0026991365
-0.058921702 -0.07348978 0.06173499 0.017766273 -0.08626484 0.030513225 -0.016272798 0.1284045
0.094662346 -0.020889971 -0.07896268 0.081556164 -0.062746026 -0.070211485 0.06898918 -0.032232415
0.057137866 0.1103486 0.06870117 0.13381587 -0.12363178 -0.0438579 -0.022299346 0.052131474
0.056943305 -0.12605476 0.029723156 -0.026306532 -0.11958215 0.09544185 0.069276355 -0.017385773
-0.006179027 0.09821704 -0.059127677 0.1339101 0.018498305 0.044811685 0.05993433 0.1050103
-0.08569658 -0.0135522885 0.0578788 0.089240626 0.05170903 0.023776935 0.015526955 0.036646854
00000000: 24cc a5bc 3882 00be 6eae e13d 19ed ad3d
00000010: b4e6 80bc 11f7 a13d da82 303d 461d 273c
00000020: 0b17 d3bc 71be c33d 5b1c 9c3d 68b4 dc3d
00000030: 2f87 363d c734 40bd a9d2 4b3d ffe3 303b
00000040: e257 71bd cf81 96bd d4dd 7c3d 938a 913c
00000050: 9fab b0bd dff6 f93c 884e 85bc 787c 033e
00000060: 55de c13d 7221 abbc 30b7 a1bd eb06 a73d
00000070: fd80 80bd 0acb 8fbd 334a 8d3d 2306 04bd
00000080: 6509 6a3d 72fe e13d 33b3 8c3d 0707 093e
00000090: a932 fdbd 57a4 33bd 1ead b6bc d087 553d
000000a0: 623d 693d 8014 01be fa7d f33c cc80 d7bc
000000b0: 7ce7 f4bd 0477 c33d c3e0 8d3d 9c6c 8ebc
000000c0: 6f79 cabb 0426 c93d dd2f 72bd bb1f 093e
000000d0: c289 973c 758c 373d b37d 753d a40f d73d
000000e0: b081 afbd 6b0a 5ebc 5212 6d3d cac3 b63d
000000f0: d9cc 533d d9c7 c23c c564 7e3c 031b 163d

gn1.mean_scale f4 [64]
0.9894831 0.9985411 0.9878976 1.0063615 1.0069746 1.0072392 1.0048906 0.99263847
0.9955164 0.9968955 1.0183551 1.0004903 0.9985606 1.006282 1.0000546 1.0006181
1.000943 1.0073905 1.0059726 1.0173972 0.99840677 0.99669987 0.9947149 1.0024627
0.9998582 1.0058799 0.9968915 1.0012918 1.0050766 1.0023932 0.9985967 1.001051
0.9905645 0.998773 1.0069522 0.99283135 1.002964 1.0007637 1.0062753 0.9940011
0.99514616 0.99560785 1.0011102 0.99967706 0.9977751 1.0113462 1.0109749 1.0029763
1.0019045 1.0050422 0.99505293 0.9946358 0.99926984 1.0053498 0.99461716 1.0000182
1.0077953 0.9986918 0.99330395 0.9970647 0.9942108 1.0053322 1.0054477 0.9929947
00000000: c44e 7d3f 64a0 7f3f dbe6 7c3f 74d0 803f
00000010: 8be4 803f 37ed 803f 41a0 803f 8e1d 7e3f
00000020: 2ada 7e3f 8b34 7f3f 7659 823f 1110 803f
00000030: aba1 7f3f d9cd 803f ca01 803f 4114 803f
00000040: e61e 803f 2cf2 803f b6c3 803f 123a 823f
00000050: 9697 7f3f b927 7f3f a3a5 7e3f b350 803f
00000060: b5f6 7f3f acc0 803f 4834 7f3f 542a 803f
00000070: 5aa6 803f 6c4e 803f 09a4 7f3f 7022 803f
00000080: a395 7d3f 96af 7f3f cfe3 803f 322a 7e3f
00000090: 2061 803f 0619 803f a1cd 803f db76 7e3f
000000a0: e6c1 7e3f 28e0 7e3f 6124 803f d6ea 7f3f
000000b0: 306e 7f3f cb73 813f a067 813f 8761 803f
000000c0: 683e 803f 39a5 803f cabb 7e3f 74a0 7e3f
000000d0: 26d0 7f3f 4daf 803f 3b9f 7e3f 9900 803f
000000e0: 70ff 803f 44aa 7f3f 2b49 7e3f a23f 7f3f
000000f0: 9984 7e3f baae 803f 83b2 803f e734 7e3f

gn2.weight f4 [64]
0.94829845 0.8849163 0.96793354 0.9490294 0.99502826 0.9114181 0.9414492 0.94254094
0.9644709 0.96172684 0.9839959 0.98840225 0.9189233 0.94620836 0.94707423 0.9633947
0.9058824 0.94880027 0.93179923 1.002755 0.98106027 0.9671278 0.9337476 0.9361518
0.9377005 0.93206155 0.941862 0.9437169 0.9637122 0.92180645 0.8845759 0.97865087
0.9590855 0.9214014 0.9292721 0.96116704 0.9252964 0.95005476 0.9630866 0.93684083
0.9235813 0.93524116 0.92494303 0.9614673 0.94085664 0.9734132 0.93849707 0.94727373
0.9483817 0.9432998 0.9544239 0.9524707 0.94605446 0.9366376 0.9495302 0.9367518
0.97632146 0.96902597 0.95313036 0.94260967 0.9556119 0.8853349 0.92141247 0.940767
00000000: b0c3 723f e089 623f 7eca 773f 97f3 723f
00000010: 2cba 7e3f b252 693f d102 713f 5d4a 713f
00000020: 91e7 763f bb33 763f 28e7 7b3f ee07 7d3f
00000030: 8f3e 6b3f b63a 723f 7573 723f 09a1 763f
00000040: e9e7 673f 93e4 723f 658a 6e3f 475a 803f
00000050: c426 7b3f b095 773f 150a 6f3f a5a7 6f3f
00000060: 240d 703f 969b 6e3f de1d 713f 6e97 713f
00000070: d8b5 763f 82fb 6b3f 9173 623f dd88 7a3f
00000080: a186 753f f6e0 6b3f c7e4 6d3f 0b0f 763f
00000090: 3ae0 6c3f ca36 733f d88c 763f cdd4 6f3f
000000a0: d36f 6c3f f76b 6f3f 11c9 6c3f b922 763f
000000b0: fbdb 703f 9c31 793f 5841 703f 8880 723f
000000c0: 25c9 723f 187c 713f 2055 743f 1fd5 733f
000000d0: a030 723f 7bc7 6f3f 6914 733f f7ce 6f3f
000000e0: 34f0 793f 1612 783f 5a00 743f de4e 713f
000000f0: fba2 743f 4fa5 623f b0e1 6b3f 1bd6 703f

gn2.bias f4 [64]
0.013579334 0.026646458 0.0145142805 -0.060022406 0.01139537 0.009862394 0.023612011 -0.03833657
-0.0021437414 0.050230805 -0.059497934 -0.0028083608 -0.0032269342 0.041191716 0.018912174 0.017498037
0.048154335 -0.044261195 0.0030175727 0.037963323 0.014595807 -0.0060072443 -0.0013987676 -0.03781134
0.01742712 0.04035971 -0.062617116 0.055534653 0.022990655 0.009653002 -0.010150425 0.030489216
0.04863281 -0.08298886 -0.0077301166 -0.022686958 -0.039745655 0.020388603 -0.011149438 0.018106068
-0.0163194 0.001626143 0.02883024 0.010070265 -0.014346258 0.0072316024 0.046717905 -0.009316056
-0.006452698 -0.0560498 -0.02287437 -0.0061877905 -0.03281121 -0.011769569 -0.030736696 -0.0014297705
0.022791455 -0.026055746 0.051399726 0.0012731359 0.016744481 0.036643546 -0.022464685 -0.0294953
00000000: db7b 5e3c ac49 da3c 4ecd 6d3c 0eda 75bd
00000010: a5b3 3a3c e195 213c fa6d c13c cf06 1dbd
00000020: 037e 0cbb d1be 4d3d 1bb4 73bd 7a0c 38bb
00000030: f97a 53bb a5b8 283d b4ed 9a3c 0b58 8f3c
00000040: 7b3d 453d 3a4b 35bd 78c2 453b 6e7f 1b3d
00000050: 4023 6f3c 6bd8 c4bb da56 b7ba 10e0 1abd
00000060: 52c3 8e3c 3950 253d 673d 80bd 4e78 633d
00000070: e656 bc3c a027 1e3c f84d 26bc 85c4 f93c
00000080: 3333 473d 10f6 a9bd eb4c fdbb 00da b9bc
00000090: 57cc 22bd 0006 a73c 22ac 36bc 2d53 943c
000000a0: 43b0 85bc 4e24 d53a 652d ec3c c1fd 243c
000000b0: 910c 6bbc 14f7 ec3b 465b 3f3d 5fa2 18bc
000000c0: 2771 d3bb 7a94 65bd 0863 bbbc f3c2 cabb
000000d0: 0c65 06bd 26d5 40bc 86cb fbbc 2367 bbba
000000e0: 25b5 ba3c dc72 d5bc 8588 523d 5adf a63a
000000f0: b92b 893c 8b17 163d dc07 b8bc 21a0 f1bc

gn2.mean_scale f4 [64]
1.0079231 1.0004109 1.0119627 1.0053611 0.98859054 0.99713016 0.995805 1.0063875
0.9934719 1.018332 0.98664457 0.99854875 1.0054617 1.0000192 0.994353 1.0003976
1.0020593 0.9963043 0.99984586 0.996631 0.9976163 0.99012816 1.0075791 0.99871314
0.99728227 0.9963566 0.9977624 0.99671715 1.013544 0.9977116 0.99628633 0.9941673
1.0043044 0.9968075 0.99841064 0.99677163 0.9959885 1.0076799 0.9977004 0.99836606
0.998606 1.003602 0.99505335 0.9928103 1.0013685 1.0094754 1.0067494 0.9959536
0.99779236 1.0064944 1.0085015 1.0000978 0.9974346 0.9982686 0.9907767 0.9939132
0.9950162 1.000391 0.9991254 0.9957547 0.9948456 1.0010169 1.0004027 1.0014375
00000000: a003 813f 770d 803f fe87 813f acaf 803f
00000010: 4514 7d3f ec43 7f3f 14ed 7e3f 4ed1 803f
00000020: 2d54 7e3f b458 823f bd94 7c3f e4a0 7f3f
00000030: f8b2 803f a100 803f eb8d 7e3f 070d 803f
00000040: 7b43 803f cc0d 7f3f e6f5 7f3f 3623 7f3f
00000050: c863 7f3f 0a79 7d3f 5af8 803f aaab 7f3f
00000060: e44d 7f3f 3a11 7f3f 5b6d 7f3f db28 7f3f
00000070: cfbb 813f 076a 7f3f 9f0c 7f3f c081 7e3f
00000080: 0c8d 803f c72e 7f3f d797 7f3f 6d2c 7f3f
00000090: 1af9 7e3f a8fb 803f 4b69 7f3f eb94 7f3f
000000a0: a5a4 7f3f 0876 803f d1bb 7e3f d128 7e3f
000000b0: d82c 803f 7d36 813f 2add 803f d1f6 7e3f
000000c0: 526f 7f3f cfd4 803f 9416 813f 3403 803f
000000d0: e057 7f3f 888e 7f3f 8ba3 7d3f 1871 7e3f
000000e0: 62b9 7e3f d00c 803f afc6 7f3f c8e9 7e3f
000000f0: 34ae 7e3f 5221 803f 320d 803f 1b2f 803f

gn3.weight f4 [64]
0.85403734 0.86321104 0.87847614 0.87482715 0.8477616 0.8485622 0.8502366 0.8412258
0.9127462 0.8690214 0.9261656 0.85162926 0.90423185 0.85964394 0.8835458 0.9000775
0.8747341 0.840618 0.867227 0.8945114 0.8556219 0.8755458 0.8467905 0.8823302
0.86404335 0.8765727 0.88689256 0.859213 0.9204397 0.87339526 0.87127966 0.851701
0.83449185 0.86923546 0.8449784 0.883099 0.87255913 0.8357405 0.8342277 0.8753514
0.8332799 0.88753825 0.89441144 0.90705794 0.87623805 0.8733302 0.8656753 0.8644184
0.8844044 0.8585171 0.89856243 0.8445195 0.8780793 0.83351886 0.8444732 0.8897571
0.88190323 0.86929226 0.88244677 0.87209696 0.8627355 0.8659588 0.85449237 0.88158774
00000000: 31a2 5a3f 66fb 5c3f d0e3 603f acf4 5f3f
00000010: e706 593f 5f3b 593f 1ba9 593f 935a 573f
00000020: bca9 693f 3078 5e3f 3019 6d3f 6004 5a3f
00000030: bd7b 673f a011 5c3f 0f30 623f 7b6b 663f
00000040: 93ee 5f3f be32 573f 9702 5e3f b3fe 643f
00000050: 090a 5b3f c523 603f 43c7 583f 64e0 613f
00000060: f231 5d3f 1267 603f 640b 633f 62f5 5b3f
00000070: f0a1 6b3f d596 5f3f 2f0c 5f3f 1409 5a3f
00000080: 42a1 553f 3786 5e3f 8150 583f c712 623f
00000090: 0960 5f3f 17f3 553f f28f 553f 0817 603f
000000a0: d551 553f b535 633f 26f8 643f f334 683f
000000b0: 2351 603f 9192 5f3f e59c 5d3f 864a 5d3f
000000c0: 5468 623f c7c7 5b3f 3008 663f 6e32 583f
000000d0: cec9 603f 7e61 553f 652f 583f 1fc7 633f
000000e0: 69c4 613f f089 5e3f 08e8 613f bf41 5f3f
000000f0: 3cdc 5c3f 7aaf 5d3f 03c0 5a3f bcaf 613f

gn3.bias f4 [64]
0.009991618 0.022181729 -0.039639898 -0.009012609 -0.003290766 -0.021246534 -0.028457254 0.00025341043
0.0035702013 -0.0014741961 -0.003424131 -0.042107098 -0.008823339 0.014894253 0.007870067 -0.009787519
0.009044667 0.035801902 -0.0016259142 0.014969355 0.011535863 -0.008120692 -0.004260516 -0.025076618
-0.020245356 0.016099982 0.03229623 -0.03556225 -0.016428363 0.033082217 -0.004932218 0.0028127409
-0.026809895 -0.003488509 -0.013643556 -0.010146156 0.03798938 0.014628961 0.0067799017 -0.011969802
-0.01589873 0.058442168 -0.0116346665 -0.0109059755 0.02338605 -0.013007725 -0.03776557 0.012858686
0.0028420887 8.103154e-05 0.01357748 -0.052009765 0.008820135 -0.01681352 -0.013381286 -0.03637332
0.0043839454 0.0047638146 -0.035467543 -0.012488883 -0.0030509855 0.0031773935 0.01009716 0.012755439
00000000: e2b3 233c 75b6 b53c 725d 22bd 9fa9 13bc
00000010: e4a9 57bb 360d aebc 301f e9bc 2cdc 8439
00000020: 0afa 693b d039 c1ba 6367 60bb 7e78 2cbd
00000030: c48f 10bc 0607 743c 74f1 003c d55b 20bc
00000040: 1530 143c 04a5 123d a11c d5ba 0742 753c
00000050: eb00 3d3c a70c 05bc cc9b 8bbb 7b6d cdbc
00000060: 97d9 a5bc 1ce4 833c 0d49 043d b9a9 11bd
00000070: c694 86bc 3881 073d 729e a1bb f655 383b
00000080: 6da0 dbbc 789f 64bb 3989 5fbc 103c 26bc
00000090: c19a 1b3d 4fae 6f3c f029 de3b fd1c 44bc
000000a0: 0e3e 82bc 0e61 6f3d 549f 3ebc faae 32bc
000000b0: 1a94 bf3c 5a1e 55bc 12b0 1abd 3dad 523c
000000c0: 5642 3a3b 7aef a938 1474 5e3c 3108 55bd
000000d0: 5482 103c 82bc 89bc 2e3d 5bbc 31fc 14bd
000000e0: 33a7 8f3b c619 9c3b 6a46 11bd 2c9e 4cbc
000000f0: 0bf3 47bb d13b 503b 8f6e 253c 30fc 503c

gn3.mean_scale f4 [64]
1.0019711 0.9998632 1.0025753 0.9930033 1.0011234 0.99963135 0.994838 0.9998484
0.99654967 0.99561065 0.9889375 0.99805415 1.0053641 0.9950588 1.0022212 0.9970653
0.9974383 1.0024056 0.99505043 1.0068955 1.0038303 1.004526 1.0017252 1.001615
0.99554586 0.9959407 1.0057033 1.0019975 1.004195 1.0004792 1.0004965 1.0004735
1.0002714 0.9986036 0.99947214 1.001592 0.99633205 0.9986809 1.0003688 1.0067599
0.99775255 1.0025995 1.0017995 1.0081584 1.0025201 0.9970271 1.0050653 0.9966975
0.992594 1.002899 1.0036559 1.0010548 1.0011867 1.0006295 0.9971529 0.9975906
1.0005671 1.0001521 0.9956914 1.0030817 0.99625397 1.002605 1.0026165 1.0046422
00000000: 9740 803f 09f7 7f3f 6354 803f 7735 7e3f
00000010: d024 803f d7e7 7f3f b4ad 7e3f 11f6 7f3f
00000020: e11d 7f3f 57e0 7e3f 022b 7d3f 7a80 7f3f
00000030: c5af 803f 2cbc 7e3f c948 803f ac3f 7f3f
00000040: 1e58 7f3f d44e 803f a0bb 7e3f f4e1 803f
00000050: 837d 803f 4f94 803f 8838 803f ec34 803f
00000060: 18dc 7e3f f8f5 7e3f e3ba 803f 7441 803f
00000070: 7689 803f b40f 803f 4510 803f 840f 803f
00000080: e508 803f 7ca4 7f3f 68dd 7f3f 2b34 803f
00000090: 9e0f 7f3f 8da9 7f3f 160c 803f 82dd 803f
000000a0: b66c 7f3f 2e55 803f f73a 803f 560b 813f
000000b0: 9452 803f 2b3d 7f3f fba5 803f 9127 7f3f
000000c0: a41a 7e3f ff5e 803f cc77 803f 9022 803f
000000d0: e326 803f a114 803f 6a45 7f3f 1962 7f3f
000000e0: 9512 803f fc04 803f a2e5 7e3f fb64 803f
000000f0: 800a 7f3f 5c55 803f bd55 803f 1e98 803f

bn0.weight f4 [70]
0.8463919 0.7570833 0.8840725 0.83511305 0.85986453 0.79856026 0.8432489 0.86127937
0.8196633 0.8462866 0.93833375 0.74201256 0.7992189 0.8090268 0.8241256 0.7730575
0.77469987 0.8053135 0.8288258 0.82986134 0.79069424 0.8171428 0.8460399 0.77132285
0.789146 0.82614446 0.77555466 0.7375416 0.84574485 0.7723302 0.77279556 0.78295255
0.8268893 0.78858876 0.80510736 0.8571614 0.7731949 0.8123658 0.83116174 0.81660724
0.79483277 0.8013875 0.8038913 0.8213251 0.8261666 0.8966024 0.8383717 0.83119714
0.78635836 0.7678274 0.86615664 0.76096535 0.77008635 0.80045044 0.8362671 0.7932273
0.87256545 0.7882113 0.83075273 0.81486756 0.83902407 0.8347155 0.7820999 0.7991673
1.1130644 1.192896 1.1665182 1.0971233 1.1094334 1.0556709
00000000: 24ad 583f 36d0 413f 9352 623f f8c9 553f
00000010: 1520 5c3f 726e 4c3f 29df 573f ce7c 5c3f
00000020: 74d5 513f 3da6 583f a436 703f 89f4 3d3f
00000030: 9c99 4c3f 611c 4f3f e5f9 523f 19e7 453f
00000040: bb52 463f 0729 4e3f ed2d 543f cb71 543f
00000050: f06a 4a3f 4530 513f 1296 583f 6a75 453f
00000060: 7905 4a3f 347e 533f c08a 463f 87cf 3c3f
00000070: bc82 583f 6fb7 453f eed5 453f 946f 483f
00000080: 04af 533f f4e0 493f 841b 4e3f ee6e 5b3f
00000090: 1af0 453f 34f7 4f3f 04c7 543f 2c0d 513f
000000a0: 297a 4b3f bb27 4d3f d2cb 4d3f 5d42 523f
000000b0: a87f 533f bc87 653f 879f 563f 56c9 543f
000000c0: c84e 493f 5690 443f 71bc 5d3f a0ce 423f
000000d0: 6124 453f 52ea 4c3f 9a15 563f f210 4b3f
000000e0: 7360 5f3f 37c8 493f 36ac 543f 299b 503f
000000f0: 48ca 563f eaaf 553f b337 483f 3a96 4c3f
00000100: e578 8e3f d1b0 983f 7850 953f 896e 8c3f
00000110: ea01 8e3f 3920 873f

bn0.bias f4 [70]
-0.12872137 -0.055766437 -0.02563152 -0.024272457 -0.0733655 0.0140237585 0.021353476 -0.0014552925
0.011784877 0.06380489 -0.034013882 -0.14296395 0.047533248 -0.09892192 0.0013472302 -0.021667391
0.023564039 0.027422193 -0.02429434 0.07765102 0.010882034 -0.028257031 -0.01502927 -0.008871905
0.00745288 -0.00852712 0.0622307 -0.091594286 0.08233947 0.065247275 0.106287435 0.07608806
0.066036224 -0.08547479 0.032615412 0.00036405938 0.012646335 0.036016908 -0.007661862 0.01341667
0.11259814 0.046799432 -0.0022185978 -0.01108779 -0.027115049 0.05143004 -0.045853943 -0.021385802
-0.092345335 0.065894514 -0.020746091 -0.026763838 0.110506736 -0.095661364 -0.026102433 -0.0050207917
-0.089087814 -0.10602189 -0.06495659 0.0474005 -0.019940624 0.010818328 0.07733736 -0.01693874
0.008802846 0.01639572 0.040888496 -0.09733634 -0.023043808 0.04237736
00000000: 89cf 03be 596b 64bd 32f9 d1bc 08d7 c6bc
00000010: a740 96bd e8c3 653c 7ced ae3c 83bf beba
00000020: 5b15 413c 23ac 823d 2452 0bbd 2465 12be
00000030: 39b2 423d 9397 cabd 8b95 b03a d07f b1bc
00000040: 5f09 c13c 82a4 e03c ec04 c7bc 7f07 9f3d
00000050: 8f4a 323c 4a7b e7bc 543d 76bc 775b 11bc
00000060: 4a37 f43b 55b5 0bbc 9ee5 7e3d c995 bbbd
00000070: 99a1 a83d 5da0 853d 3aad d93d 0fd4 9b3d
00000080: 003e 873d 680d afbd bd97 053d 39df be39
00000090: 9332 4f3c 7786 133d 5b10 fbbb 98d1 5b3c
000000a0: db99 e63d c3b0 3f3d e565 11bb 90a9 35bc
000000b0: 6120 debc 4ea8 523d 58d1 3bbd 4731 afbc
000000c0: 8d1f bdbd b4f3 863d b5f3 a9bc d63f dbbc
000000d0: 5b51 e23d 1bea c3bd c5d4 d5bc 7485 a4bb
000000e0: ac73 b6bd 0122 d9bd f607 85bd 0727 423d
000000f0: 855a a3bc 5b3f 313c 0d63 9e3d 1dc3 8abc
00000100: d039 103c 5150 863c b27a 273d 4658 c7bd
00000110: 5ec6 bcbc e293 2d3d

bn0.running_mean f4 [70]
0.0043220106 -0.07679194 0.08530588 0.0153683275 -0.009052652 0.067296214 0.03804056 -0.027543642
-0.025499145 0.14996417 0.019956363 0.062493004 0.033176843 0.008916955 0.0768993 0.010209513
-0.0016963221 -0.08198675 0.06381001 0.075071596 -0.06110086 0.014883763 -0.021972377 0.06521184
0.09128034 0.036150854 -0.110082634 0.10105706 -0.052788828 -0.027991565 0.053826142 0.0006740406
0.077697106 0.023795404 0.047398783 0.101458944 -0.1252186 -0.0081277685 -0.024865057 0.057547193
0.024320614 -0.06719157 0.047379274 -0.028391672 -0.10998708 0.09264266 0.08295217 -0.014558867
-0.009339255 0.041684136 -0.066366225 0.075142235 -0.005332116 0.016796093 0.013532189 0.06593305
-0.06002549 -0.034913834 0.07294174 0.0777774 0.0645322 0.06425675 0.0031282688 0.021019762
3.2229366 0.78669965 58.870613 78.45191 80.67687 53.423523
00000000: a79f 8d3b 1845 9dbd d9b4 ae3d 70cb 7b3c
00000010: 9351 14bc 99d2 893d 6bd0 1b3d 34a3 e1bc
00000020: 95e3 d0bc 3590 193e 877b a33c aaf8 7f3d
00000030: 71e4 073d 6c18 123c 617d 9d3d cd45 273c
00000040: 2057 deba abe8 a7bd d3ae 823d 23bf 993d
00000050: e544 7abd 07db 733c 6aff b3bc c98d 853d
00000060: 30f1 ba3d eb12 143d 0173 e1bd 01f7 ce3d
00000070: 1939 58bd 914e e5bc cd78 5c3d 19b2 303a
00000080: a91f 9f3d 94ee c23c 3a25 423d b5c9 cf3d
00000090: 4e39 00be 552a 05bc ceb1 cbbc 9bb6 6b3d
000000a0: 063c c73c bc9b 89bd c510 423d a795 e8bc
000000b0: e840 e1bd 6fbb bd3d d4e2 a93d 5088 6ebc
000000c0: ad03 19bc fcbc 2a3d 04eb 87bd 2ce4 993d
000000d0: 08b9 aebb f697 893c 1db6 5d3c e807 873d
000000e0: 4add 75bd cf01 0fbd 7b62 953d c249 9f3d
000000f0: 7529 843d 0b99 833d a403 4d3b a331 ac3c
00000100: 9844 4e40 2665 493f 827b 6b42 61e7 9c42
00000110: 8f5a a142 b0b1 5542

bn0.running_var f4 [70]
2.8745339e-05 1.7687796e-07 5.8663663e-05 1.2901797e-05 2.692811e-05 3.7971733e-06 6.017336e-06 1.105967e-05
9.767783e-06 0.00011737281 0.00036782087 2.736667e-07 8.686065e-06 3.1753257e-06 3.5200396e-06 6.8973276e-07
8.80382e-07 5.5445576e-06 3.3513159e-06 6.598022e-05 1.4936771e-06 2.1692482e-05 9.417039e-06 8.108564e-07
1.3288629e-06 4.946346e-06 3.1088484e-06 1.2955406e-06 3.0222784e-05 9.410834e-07 9.151288e-07 4.2414636e-06
1.5482452e-05 9.957869e-07 5.868594e-06 5.94515e-06 3.0177516e-06 1.1565725e-05 7.150201e-06 9.033053e-06
2.9876658e-06 4.3296063e-06 2.2559902e-06 1.2562821e-05 9.963196e-07 3.878903e-05 2.9608034e-05 5.645097e-06
4.544563e-06 5.43187e-06 2.6210484e-05 2.0766113e-06 3.8715734e-07 2.6000607e-06 1.5018156e-05 2.9101755e-06
9.125802e-06 1.4337607e-07 4.8151574e-06 3.942488e-06 1.060176e-05 2.5283196e-06 2.2251663e-06 7.5724024e-06
1.8974771 0.74702513 2083.455 3769.3464 4110.926 1766.7218
00000000: 2522 f137 d8eb 3d34 a10d 7638 cc74 5837
00000010: ade3 e137 f1d2 7e36 86e8 c936 ec8c 3937
00000020: 4fe0 2337 0c26 f638 15d8 c039 77ec 9234
00000030: 5dba 1137 ae17 5536 d239 6c36 1326 3935
00000040: 6453 6c35 630b ba36 2be7 6036 dc5e 8a38
00000050: 5b7a c835 40f8 b537 e0fd 1d37 a1a9 5935
00000060: 625b b235 caf8 a536 9ca1 5036 70e2 ad35
00000070: ef86 fd37 c29e 7c35 2ca7 7535 e551 8e36
00000080: 50e0 8137 faa6 8535 d7ea c436 737c c736
00000090: 9484 4a36 690a 4237 c2eb ef36 ab8c 1737
000000a0: b57f 4836 0947 9136 9e65 1736 e8c4 5237
000000b0: 48b9 8535 67b1 2238 c55e f837 046b bd36
000000c0: 807d 9836 6843 b636 96de db37 e95b 0b36
000000d0: 80da cf34 b47c 2e36 7df6 7b37 6f4c 4336
000000e0: 051b 1937 eaf2 1934 e391 a136 b749 8436
000000f0: 36de 3137 33ac 2936 1154 1536 7116 fe36
00000100: 88e0 f23f 0a3d 3f3f 4837 0245 8b95 6b45
00000110: 6877 8045 19d7 dc44

bn1.weight f4 [64]
0.97480303 0.99416214 0.97572166 1.0017637 0.96258384 0.9763158 0.9958473 0.9922396
0.95748276 1.0634326 0.9966046 0.98891735 0.97480476 1.0173148 0.94873816 0.987004
0.9359658 0.9772783 0.9596791 1.0701171 0.98837066 1.0438862 0.9638075 1.0230708
1.0155406 0.93908215 1.0171286 0.9744329 0.9833728 0.97152615 1.0415595 0.9947578
0.93204606 0.98500997 0.97246414 0.9729757 1.0036592 0.9732159 0.93589085 1.0157402
0.9932414 0.9285311 0.9926303 0.99061286 1.0648069 0.9606782 1.0271001 0.9936169
1.0385823 1.0467216 0.9503859 1.0380098 0.9692693 0.9522574 0.9780047 1.0781363
0.9884329 0.9817265 0.9807133 1.0083138 0.997641 0.9534357 1.0062765 1.0215658
00000000: b18c 793f 6981 7e3f e5c8 793f cb39 803f
00000010: e56b 763f d5ef 793f d9ef 7e3f 6a03 7e3f
00000020: 971d 753f 8f1e 883f 7b21 7f3f b029 7d3f
00000030: ce8c 793f 5f37 823f 81e0 723f 4bac 7c3f
00000040: 749b 6f3f e92e 7a3f 88ad 753f 99f9 883f
00000050: dc05 7d3f 109e 853f 17bc 763f fcf3 823f
00000060: 3cfd 813f b067 703f 4531 823f 6f74 793f
00000070: 52be 7b3f f0b5 783f d251 853f 72a8 7e3f
00000080: 929a 6e3f 9d29 7c3f 69f3 783f ef14 793f
00000090: e877 803f ad24 793f 8b96 6f3f c603 823f
000000a0: 1245 7e3f 37b4 6d3f 051d 7e3f ce98 7d3f
000000b0: 984b 883f 02ef 753f 0478 833f ad5d 7e3f
000000c0: 44f0 843f f9fa 853f 7e4c 733f 81dd 843f
000000d0: 0822 783f 24c7 733f 845e 7a3f 5f00 8a3f
000000e0: f009 7d3f 6e52 7b3f 0710 7b3f 6d10 813f
000000f0: 6765 7f3f 5d14 743f abcd 803f abc2 823f

bn1.bias f4 [64]
-0.024266658 0.04848414 0.007461775 -0.044177223 0.09854872 -0.013598752 -0.07305634 -0.024875354
-0.0028713078 -0.04716678 0.0626512 -0.058029074 0.05078391 -0.054834634 0.016762955 0.07254806
-0.0017272625 0.022091042 0.00044151756 -0.033429388 -0.09678168 0.002703369 -0.072829254 0.007851326
-0.042612728 0.03038408 -0.07884706 -0.10363626 0.046895996 -0.046115965 0.047382534 0.024374144
-0.01693785 0.06555573 0.051032763 0.042637736 -0.042267505 -0.041300837 -0.07558819 -0.012441024
0.030771628 0.024093052 0.018874492 0.039673198 -0.08627247 -0.043223836 -0.060857005 -0.044667073
-0.02304091 -0.008483922 -0.059471365 -0.057537716 0.05448008 0.05229413 0.030039363 -0.05272239
-0.07304466 -0.016175684 -0.026473304 -0.0026199932 0.020374434 -0.056577135 -0.050399028 0.0197391
00000000: dfca c6bc 4e97 463d e881 f43b 2df3 34bd
00000010: e9d3 c93d 4dcd 5ebc 909e 95bd 66c7 cbbc
00000020: 8d2c 3cbb f431 41bd 464f 803d e5af 6dbd
00000030: ca02 503d 489a 60bd 7752 893c 1494 943d
00000040: 5065 e2ba 46f8 b43c 7c7b e739 41ed 08bd
00000050: 7935 c6bd 012b 313b 8127 95bd d9a2 003c
00000060: af8a 2ebd 09e8 f83c 917a a1bd 3f3f d4bd
00000070: 0416 403d 18e4 3cbd 3014 423d 49ac c73c
00000080: 3fc1 8abc 1542 863d bb07 513d e8a4 2e3d
00000090: b120 2dbd 112b 29bd fbcd 9abd 70d5 4bbc
000000a0: c814 fc3c cb5e c53c ae9e 9a3c 5d80 223d
000000b0: 9faf b0bd 7a0b 31bd 3245 79bd d2f4 36bd
000000c0: 4ac0 bcbc 2600 0bbc 3f98 73bd abac 6bbd
000000d0: 8126 5f3d 5f32 563d 1c15 f63c 6ff3 57bd
000000e0: 7098 95bd de82 84bc 8bde d8bc 31b4 2bbb
000000f0: 49e8 a63c 6dbd 67bd 366f 4ebd e5b3 a13c

bn1.running_mean f4 [64]
0.1418462 0.17768942 0.13079044 0.17384654 0.18470609 0.12868091 0.21891037 0.2031426
0.109378435 0.3634696 0.115750894 0.16699755 0.20938095 0.22674216 0.24204266 0.2718844
0.11212662 0.25899556 0.07158513 0.20122284 0.12744358 0.19116819 0.1650117 0.21525893
0.2535016 0.07451804 0.11396936 0.36913383 0.2082067 0.2777593 0.1421999 0.2590422
0.20567158 0.20121527 0.28692088 0.21825475 0.322704 0.17138067 0.12646541 0.32859856
0.26964378 0.09496169 0.22980271 0.27293697 0.06368519 0.1598601 0.21520709 0.07885937
0.24550065 0.29957563 0.07199765 0.2706591 0.25999802 0.17611676 0.108847454 0.22854465
0.17095864 0.29166198 0.1570558 0.15866809 0.35944667 0.18868789 0.11948169 0.23140815
00000000: 2140 113e 37f4 353e eeed 053e d404 323e
00000010: 9823 3d3e eec4 033e 0a2a 603e 9d04 503e
00000020: cd01 e03d b018 ba3e ce0e ed3d 6801 2b3e
00000030: f667 563e 192f 683e 08da 773e 6f34 8b3e
00000040: a4a2 e53d 119b 843e 3a9b 923d 5c0d 4e3e
00000050: 9280 023e 98c1 433e d4f8 283e d66c 5c3e
00000060: f6ca 813e ea9c 983d c568 e93d 1cff bc3e
00000070: 2334 553e 7836 8e3e da9c 113e 2ea1 843e
00000080: 929b 523e 600b 4e3e 4be7 923e 2c7e 5f3e
00000090: 7539 a53e 6a7e 2f3e 2680 013e 123e a83e
000000a0: c00e 8a3e 467b c23d 6751 6b3e 65be 8b3e
000000b0: 626d 823d 5eb2 233e 3f5f 5c3e 0581 a13d
000000c0: 8664 7b3e fa61 993e 8173 933d d493 8a3e
000000d0: 761e 853e f457 343e 6aeb de3d 9c07 6a3e
000000e0: c80f 2f3e b854 953e 3cd3 203e e379 223e
000000f0: 6509 b83e 6637 413e d1b2 f43d 42f6 6c3e

bn1.running_var f4 [64]
0.0389292 0.060727954 0.05085534 0.041872013 0.049977433 0.051335625 0.08619052 0.06890313
0.025570208 0.15190598 0.026532693 0.04162444 0.10392664 0.06591606 0.097976774 0.090779535
0.034593977 0.11859474 0.03148548 0.07502462 0.05074165 0.08306242 0.059404816 0.06819037
0.12147551 0.02744621 0.025233826 0.30484998 0.07389279 0.11305737 0.042549178 0.09770164
0.07258431 0.08932951 0.096226044 0.07301877 0.17336239 0.049863614 0.024427293 0.06454104
0.14217465 0.028582625 0.06961957 0.1029045 0.011298973 0.04846856 0.08126104 0.032769088
0.08568514 0.13550867 0.035529237 0.0761689 0.07356432 0.06949196 0.029294088 0.051094726
0.044979736 0.15043913 0.045903884 0.041829202 0.11721188 0.06747323 0.027944285 0.09638853
00000000: 3a74 1f3d e0bd 783d b04d 503d fd81 2b3d
00000010: 23b5 4c3d 4e45 523d a884 b03d 161d 8d3d
00000020: 9d78 d13c 3e8d 1b3e 175b d93c 647e 2a3d
00000030: 7dd7 d43d 00ff 863d 0ca8 c83d 9fea b93d
00000040: 6ab2 0d3d cde1 f23d ebf6 003d 82a6 993d
00000050: 7ad6 4f3d a11c aa3d 7752 733d 65a7 8b3d
00000060: 27c8 f83d e0d6 e03c 2bb7 ce3c 4c15 9c3e
00000070: 1a55 973d 9f8a e73d 0c48 2e3d cc17 c83d
00000080: 15a7 943d 64f2 b63d 2912 c53d dd8a 953d
00000090: e985 313e ca3d 4c3d bf1b c83c 182e 843d
000000a0: 3b96 113e 1c26 ea3c b594 8e3d 98bf d23d
000000b0: 541f 393c f886 463d 306c a63d e138 063d
000000c0: b17b af3d c9c2 0a3e 1b87 113d 71fe 9b3d
000000d0: e4a8 963d cd51 8e3d 28fa ef3c b448 513d
000000e0: ac3c 383d b70c 1a3e b605 3c3d 1955 2b3d
000000f0: c80c f03d 682f 8a3d 6aeb e43c 5a67 c53d

bn2.weight f4 [64]
1.0858986 1.0087636 0.99868745 1.0724564 1.084418 1.0041164 1.0442073 0.9774895
1.0512769 0.99658597 1.0408894 1.0477445 1.0797428 1.1319214 1.0234648 1.0177875
1.0355879 1.0945641 1.066898 1.024358 1.1113106 1.0649365 1.0696063 1.0665396
1.0372473 0.9947151 1.067159 1.0485947 1.0668671 1.1702056 1.0323731 1.0045587
1.144526 1.0692767 1.0380398 1.0600463 1.0780764 1.0381325 1.0558724 1.1923723
1.056853 1.0364041 1.0944723 1.0675114 1.0286915 1.1592207 1.1019365 1.0132412
1.0879922 1.090205 1.0419409 1.0749514 1.0287482 1.0071603 1.0437666 1.0720546
1.042601 1.0520073 1.0310186 1.1122569 1.0802989 1.0727528 1.0411698 1.0939267
00000000: bafe 8a3f 2a1f 813f fba9 7f3f 4046 893f
00000010: 36ce 8a3f e386 803f 96a8 853f c03c 7a3f
00000020: 3e90 863f 4220 7f3f dd3b 853f 7e1c 863f
00000030: 0335 8a3f cde2 903f e500 833f dc46 823f
00000040: 258e 843f ad1a 8c3f 1d90 883f 2a1e 833f
00000050: 6d3f 8e3f d74f 883f dce8 883f 5f84 883f
00000060: 85c4 843f a6a5 7e3f ab98 883f 5a38 863f
00000070: 1a8f 883f 4cc9 953f cd24 843f 6195 803f
00000080: d47f 923f 0fde 883f 7dde 843f 99af 873f
00000090: 68fe 893f 87e1 843f d426 873f a89f 983f
000000a0: f646 873f e4a8 843f ab17 8c3f 37a4 883f
000000b0: 2aac 833f 5861 943f 410c 8d3f e3b1 813f
000000c0: 5443 8b3f d68b 8b3f 525e 853f 0298 893f
000000d0: 05ae 833f a1ea 803f 259a 853f 1639 893f
000000e0: f373 853f 2da8 863f 6bf8 833f 6f5e 8e3f
000000f0: 3c47 8a3f f74f 893f 0d45 853f ca05 8c3f

bn2.bias f4 [64]
0.024991803 0.024695352 0.015352153 -0.013574755 0.015495046 0.016138354 -0.013223103 0.024391802
0.016310895 0.02475176 -0.010104974 0.015795782 0.017787872 0.016279342 0.013031222 -0.008698416
-0.012810806 0.023655117 -0.0136136245 -0.011886445 0.022108722 0.015795676 0.016330624 0.01754654
0.014544535 0.016525334 0.017244421 -0.012813709 0.022896724 0.027659545 0.016009003 0.015689103
-0.031856738 -0.018306127 -0.0130050955 -0.0139428 0.028238637 0.014275562 -0.013605075 0.03461429
-0.01403102 0.014682004 0.026086455 0.015248207 -0.009771436 -0.030653222 -0.015746232 0.015086702
0.01269043 -0.01330445 -0.0129078245 -0.0121215265 0.01515569 0.013263591 0.015073189 -0.011961332
0.014598375 0.015734574 0.014175582 -0.01852059 -0.014218845 -0.013724652 0.011728974 -0.018240366
00000000: 9cbb cc3c e84d ca3c 9987 7b3c a668 5ebc
00000010: efde 7d3c 9534 843c b7a5 58bc 51d1 c73c
00000020: 6d9e 853c 34c4 ca3c 558f 25bc 2866 813c
00000030: dfb7 913c 415c 853c e880 553c cd83 0ebc
00000040: 6ae4 51bc 60c8 c13c ae0b 5fbc 5dbf 42bc
00000050: 5a1d b53c ef65 813c cdc7 853c c3bd 8f3c
00000060: 344c 6e3c 2360 873c 2c44 8d3c 97f0 51bc
00000070: e991 bb3c 4596 e23c 5025 833c 6f86 803c
00000080: 367c 02bd bbf6 95bc 5313 55bc 5870 64bc
00000090: b754 e73c 0ce4 693c d2e7 5ebc b7c7 0d3d
000000a0: 5de2 65bc ca8c 703c 43b3 d53c 9ed3 793c
000000b0: 6018 20bc 771c fbbc 3efe 80bc 372e 773c
000000c0: 85eb 4f3c e8fa 59bc 577b 53bc 5e99 46bc
000000d0: 924f 783c 884f 593c 89f5 763c 76f9 43bc
000000e0: 062e 6f3c cbe5 803c b340 683c 7eb8 97bc
000000f0: 29f6 68bc 5ddd 60bc e22a 403c d26c 95bc

bn2.running_mean f4 [64]
0.37846175 0.3330365 0.33560488 0.35170767 0.40025347 0.30554816 0.37765157 0.3544078
0.40703872 0.35505632 0.36501297 0.34429437 0.2524024 0.22470576 0.24344066 0.25866044
0.24254303 0.3939074 0.36463434 0.38703364 0.21405876 0.38515383 0.26926264 0.32099634
0.17477511 0.26454073 0.33070904 0.3637084 0.37706605 0.2264611 0.19718452 0.3502805
0.47068223 0.42939338 0.3777329 0.46162453 0.46601832 0.17578697 0.3207553 0.4827604
0.39410096 0.33313188 0.41579562 0.51457524 0.4351826 0.5471049 0.29644766 0.14902015
0.4350506 0.30467418 0.6534743 0.36111853 0.20947386 0.33563787 0.17851709 0.43195304
0.18352604 0.46304584 0.29776457 0.3791187 0.35473633 0.37791494 0.19320184 0.4830814
00000000: bdc5 c13e c383 aa3e 67d4 ab3e 0713 b43e
00000010: 06ee cc3e cf70 9c3e 8c5b c13e f074 b53e
00000020: 6167 d03e f1c9 b53e fbe2 ba3e 5a47 b03e
00000030: e33a 813e 4419 663e 8248 793e 246f 843e
00000040: 335d 783e 3bae c93e 5ab1 ba3e 4629 c63e
00000050: 3832 5b3e e232 c53e cbdc 893e a259 a43e
00000060: 3ff8 323e e271 873e b252 a93e fd37 ba3e
00000070: cd0e c13e 6be5 673e bdea 493e f757 b33e
00000080: 43fd f03e 73d9 db3e 3566 c13e 0d5a ec3e
00000090: f499 ee3e 8001 343e 0a3a a43e 5f2c f73e
000000a0: 9ac7 c93e 4390 aa3e 2ae3 d43e 34bb 033f
000000b0: 41d0 de3e 110f 0c3f fdc7 973e bd98 183e
000000c0: f4be de3e 41fe 9b3e 174a 273f 87e4 b83e
000000d0: 5180 563e bad8 ab3e 2fcd 363e f328 dd3e
000000e0: 40ee 3b3e 5814 ed3e 9974 983e d91b c23e
000000f0: 00a0 b53e 117e c13e b4d6 453e 7256 f73e

bn2.running_var f4 [64]
0.45344242 0.2874437 0.26730832 0.38880777 0.2699614 0.2434275 0.42320374 0.31639534
0.42495272 0.2810683 0.24974672 0.37344792 0.21035089 0.22822471 0.19968677 0.15831418
0.20472063 0.29381022 0.36650974 0.30390793 0.17189336 0.41031516 0.2789116 0.24498363
0.14165655 0.27014694 0.32122448 0.34991065 0.34639192 0.23986924 0.1714632 0.34565786
0.4866574 0.34962723 0.43736008 0.34047338 0.49099544 0.12708548 0.27827147 0.38583893
0.35171747 0.26366705 0.34931183 0.42160735 0.30043906 0.54874897 0.2178684 0.107331395
0.39748514 0.20070754 0.77041984 0.2865037 0.13717602 0.37000442 0.09237147 0.32791206
0.14063494 0.432977 0.27266917 0.253259 0.278349 0.3299283 0.100447595 0.451783
00000000: 9b29 e83e d22b 933e a3dc 883e d011 c73e
00000010: 6138 8a3e 0f45 793e 29ae d83e 92fe a13e
00000020: 6793 d93e 2fe8 8f3e 9bbd 7f3e 9134 bf3e
00000030: 3966 573e bdb3 693e b07a 4c3e 1d1d 223e
00000040: 49a2 513e 4b6e 963e 2aa7 bb3e d299 9b3e
00000050: d004 303e d414 d23e 80cd 8e3e fddc 7a3e
00000060: 6a0e 113e b350 8a3e 8977 a43e 7d27 b33e
00000070: 485a b13e 48a0 753e 0d94 2f3e 11fa b03e
00000080: 292b f93e 5702 b33e a9ed df3e 8752 ae3e
00000090: c163 fb3e b222 023e 9979 8e3e ae8c c53e
000000a0: 5014 b43e 5eff 863e 00d9 b23e ebdc d73e
000000b0: 26d3 993e d07a 0c3f e518 5f3e 90d0 db3d
000000c0: 2c83 cb3e 4786 4d3e 3c3a 453f 9db0 923e
000000d0: df77 0c3e 3871 bd3e 412d bd3d 17e4 a73e
000000e0: 9b02 103e 29af dd3e 4b9b 8b3e 2aab 813e
000000f0: c383 8e3e 5dec a83e 78b7 cd3d 1a50 e73e

conv1.mlp.0.weight f4 [64, 18]
0.006986007 0.28798062 0.22469696 -0.028193284 -0.031214468 0.14353247 -0.12469973 0.19426581
0.25517675 -0.052258957 -0.026508627 0.061117567 0.13577278 0.11175722 -0.08311285 -0.119825006
-0.037773643 0.15622544 -0.050279852 -0.08965714 -0.1563932 0.06491328 0.16926448 0.0743009
0.23704085 -0.04298078 0.08320282 0.03215036 -0.20032404 -0.107015066 -0.102143176 -0.14124599
0.16982144 -0.11695213 0.12675726 -0.05558473 -0.2701485 -0.121924855 -0.2832969 -0.026443437
0.09329876 -0.021460874 -0.29710415 -0.16442908 -0.111347415 0.17647572 0.12731048 0.085481144
-0.004212385 0.044329103 0.05621323 0.1858299 0.04336283 0.09030885 0.22817117 -0.037251204
-0.13421048 -0.15644036 0.009322881 0.16400231 0.051755857 0.019526977 -0.013476986 0.03846897
0.051137943 0.08395862 0.017575769 0.15850133 0.06053092 -0.19782262 -0.129684 -0.19061904
0.19130081 -0.3323601 0.20745428 0.14361385 0.07692979 -0.09194459 0.19909844 0.07810618
0.105079256 -0.07184305 -0.039884295 -0.0938873 -0.24508773 0.098380044 -0.18466099 0.020806007
-0.1578761 -0.09517808 -0.2655602 -0.02337682 0.036022253 0.24198896 -0.2350472 0.015885135
-0.042953398 -0.05913117 -0.1892946 0.10264806 0.091460645 0.058752835 -0.116620325 0.11915474
0.096344896 0.19639625 0.17451714 -0.13449143 0.20943934 0.017424649 0.26402953 -0.19817117
0.023942132 0.16764028 0.19261986 0.22123311 -0.11023121 0.03476369 0.19219045 0.041871972
0.12159173 0.010359805 -0.14836243 0.017861955 -0.029560184 0.103960656 0.08355267 0.024850626
-0.28973502 0.24660778 0.17838566 0.059835065 -0.1881204 -0.05418895 0.1444546 0.029823422
0.14010678 0.04710429 0.001963841 -0.1520504 -0.07471127 -0.08481562 -0.10805375 -0.13026915
0.095914595 -0.19504309 0.22390945 -0.016857104 0.1731624 0.11921491 0.07079644 -0.1869827
0.1554017 -0.06870801 0.04360761 0.08187602 0.05468543 0.10156097 -0.11007537 0.10604911
0.043652393 -0.14179318 0.14000687 -0.096365124 -0.37475115 0.119080454 -0.1292381 0.015776943
-0.17916226 0.026399462 0.060691666 -0.0457846 0.0138900615 0.025751315 -0.117239445 0.024209145
-0.05457749 0.038454603 0.16293585 0.19143437 -0.10432268 0.3571896 -0.31525883 -0.13456334
-0.1101182 0.19948025 -0.10831844 -0.08133555 -0.022677422 -0.11804546 -0.04149997 -0.029628357
0.040123533 0.09892473 0.07780527 0.08136527 0.12181125 -0.05448372 0.10123024 -0.17108746
-0.37547395 -0.12647681 0.18820237 0.07999091 0.033940863 0.1224449 0.006593391 -0.115617074
0.022678042 0.11661023 -0.005100085 -0.052776214 -0.14821944 0.031260554 0.07481365 0.042945698
0.018789249 0.011855844 -0.45992726 0.048226826 -0.09594497 0.109498724 0.25724164 0.2319441
0.11114908 0.08199847 0.079536185 -0.0043778406 0.025908746 -0.11692401 -0.14000215 -0.034020763
-0.044778913 -0.06702663 0.162288 -0.24436612 -0.4223211 0.15966931 -0.1596011 0.06770522
0.04951949 -0.014134857 -0.100626916 -0.10624739 0.11921687 0.13048838 0.004382555 0.20325911
-0.08573348 -0.012801309 0.19293228 -0.054307114 0.2103967 -0.03148446 -0.013334296 -0.044651125
00000000: e0ea e43b 3272 933e f616 663e 9af5 e6bc
00000010: 7cb5 ffbc 2dfa 123e 9262 ffbd 9eed 463e
00000020: 87a6 823e 7d0d 56bd 9f28 d9bc 6a56 7a3d
00000030: 0508 0b3e f8e0 e43d 1237 aabd d066 f5bd
00000040: 89b8 1abd 90f9 1f3e 3ff2 4dbd 2a9e b7bd
00000050: 8a25 20be 41f1 843d ab53 2d3e 122b 983d
00000060: d6ba 723e 9d0c 30bd 3d66 aa3d 19b0 033d
00000070: bf21 4dbe b72a dbbd 7130 d1bd caa2 10be
00000080: ace5 2d3e 9984 efbd a8cc 013e d0ac 63bd
00000090: e750 8abe bdb3 f9bd 4b0c 91be e89f d8bc
000000a0: 6c13 bf3d b7ce afbc 091e 98be 1960 28be
000000b0: 1d0a e4bd 0db6 343e ae5d 023e bd10 af3d
000000c0: 0c08 8abb 6f92 353d d83f 663d 314a 3e3e
000000d0: 399d 313d d9f3 b83d b4a5 693e b894 18bd
000000e0: 796e 09be e731 20be ffbe 183c 39f0 273e
000000f0: f3fd 533d 0af7 9f3c 94ce 5cbc a491 1d3d
00000100: 0576 513d 7ff2 ab3d 0ffb 8f3c 2c4e 223e
00000110: 45ef 773d 0392 4abe e2cb 04be a331 43be
00000120: 5ce4 433e 1a2b aabe e56e 543e 820f 133e
00000130: 5e8d 9d3d 724d bcbd 76e0 4b3e 22f6 9f3d
00000140: cb33 d73d 7322 93bd b75d 23bd fc47 c0bd
00000150: 47f8 7abe 7a7b c93d c517 3dbe 5c71 aa3c
00000160: 46aa 21be baec c2bd 82f7 87be bf80 bfbc
00000170: 128c 133d f4cb 773e 37b0 70be 8b21 823c
00000180: e7ef 2fbd 8733 72bd 72d6 41be 2539 d23d
00000190: b84f bb3d d0a6 703d a3d6 eebd 6607 f43d
000001a0: 7950 c53d 191c 493e 9fb4 323e 1fb8 09be
000001b0: 4477 563e 23be 8e3c e12e 873e 62ed 4abe
000001c0: 4a22 c43c e5a9 2b3e 243e 453e ef8a 623e
000001d0: e7c0 e1bd 5f64 0e3d 93cd 443e f281 2b3d
000001e0: 1605 f93d 2cbc 293c 52ec 17be 3c53 923c
000001f0: 3328 f2bc 53e9 d43d aa1d ab3d 8a93 cb3c
00000200: 2658 94be c086 7c3e bbaa 363e 9d15 753d
00000210: a2a2 40be 3cf5 5dbd e8eb 133e 4050 f43c
00000220: 2778 0f3e 6ef0 403d c9b3 003b 1ab3 1bbe
00000230: 3902 99bd d0b3 adbd 494b ddbd 4765 05be
00000240: df6e c43d 60b9 47be 8548 653e e917 8abc
00000250: 7c51 313e f226 f43d b9fd 903d 6578 3fbe
00000260: a021 1f3e c9b6 8cbd e59d 323d 9dae a73d
00000270: d4fd 5f3d 33ff cf3d 326f e1bd 4730 d93d
00000280: dacc 323d 3b32 11be f65d 0f3e 145b c5bd
00000290: 62df bfbe 74e0 f33d fe56 04be a63e 813c
000002a0: 5076 37be af43 d83c d397 783d a288 3bbd
000002b0: 2493 633c 6cf4 d23c 3c1b f0bd 4252 c63c
000002c0: a58c 5fbd 9382 1d3d a8d8 263e 5f07 443e
000002d0: 21a7 d5bd 8ee1 b63e 9b69 a1be f9ca 09be
000002e0: a785 e1bd 8d44 4c3e 0fd6 ddbd 4193 a6bd
000002f0: 00c6 b9bc d1c1 f1bd dffb 29bd 2bb7 f2bc
00000300: 9358 243d 0d99 ca3d 5f58 9f3d d6a2 a63d
00000310: 2d78 f93d 522a 5fbd cd51 cf3d 8d31 2fbe
00000320: 1f3e c0be 2383 01be 1fb8 403e 46d2 a33d
00000330: 9305 0b3d 64c4 fa3d 5f0d d83b a5c8 ecbd
00000340: 4dc7 b93c 58d1 ee3d 9d1e a7bb df2b 58bd
00000350: d6c6 17be 110b 003d e637 993d d4e7 2f3d
00000360: e9eb 993c 043f 423c 967b ebbe 7e89 453d
00000370: cc7e c4bd de40 e03d 2db5 833e c182 6d3e
00000380: 21a2 e33d d0ee a73d dee3 a23d fd73 8fbb
00000390: 943e d43c db75 efbd b95c 0fbe 5b59 0bbd
000003a0: 186a 37bd 4245 89bd d32e 263e 1d3b 7abe
000003b0: 793a d8be 5a80 233e 796e 23be 09a9 8a3d
000003c0: f3d4 4a3d e395 67bc 7c15 cebd 3b98 d9bd
000003d0: f927 f43d bf9e 053e 899b 8f3b 2823 503e
000003e0: 0995 afbd 95bc 51bc 0a90 453e 2371 5ebd
000003f0: 3c72 573e d9f5 00bd 1778 5abc 19e4 36bd

conv1.mlp.0.bias f4 [64]
0.1171773 0.19682166 -0.0026850135 -0.0074552065 0.069706045 -0.16622315 0.19885546 0.09850414
-0.020178875 0.19158699 -0.26397488 -0.19801101 0.05984172 0.114819884 -0.051661637 0.11197136
0.024527146 -0.16230094 0.13463458 0.20705444 -0.22707766 0.044412788 -0.12791856 -0.09231257
0.060255498 -0.059944775 -0.2646135 0.0070787193 -0.09250315 -0.09122933 -0.20615886 0.11250649
0.03385494 -0.16395932 0.042892843 0.12363769 -0.13795851 -0.00010660488 -0.19215724 -0.26060244
0.04554105 0.12920843 0.121601485 0.07717155 0.3086004 0.12080492 -0.10197167 0.08459516
-0.19047883 0.17058322 -0.01571211 -0.0019972315 0.044779733 0.051999435 -0.23658197 0.14034738
-0.18698035 0.15652317 -0.25006434 0.03584854 -0.058337763 0.0725324 -0.19239394 0.111462645
00000000: a7fa ef3d 9e8b 493e 0df7 2fbb ce4a f4bb
00000010: 0bc2 8e3d 6736 2abe c4a0 4b3e 8abc c93d
00000020: 2b4e a5bc 612f 443e b727 87be 66c3 4abe
00000030: 971c 753d b026 eb3d 279b 53bd 3e51 e53d
00000040: 27ed c83c 3832 26be a6dd 093e 1406 543e
00000050: 0c87 68be 2fea 353d 15fd 02be 5f0e bdbd
00000060: 78ce 763d a788 75bd 6c7b 87be 9af4 e73b
00000070: 4b72 bdbd 71d6 babd 4f1b 53be cd69 e63d
00000080: 7aab 0a3d f4e4 27be 68b0 2f3d c235 fd3d
00000090: ff44 0dbe 0f91 dfb8 dec4 44be af6d 85be
000000a0: 4189 3a3d 374f 043e 330a f93d 1e0c 9e3d
000000b0: df00 9e3e 9268 f73d 86d6 d0bd 3a40 ad3d
000000c0: e20c 43be 5ead 2e3e afb6 80bc fce3 02bb
000000d0: f46a 373d 5cfd 543d 8b42 72be 39b7 0f3e
000000e0: c777 3fbe 9c47 203e 6f08 80be ebd5 123d
000000f0: 94f3 6ebd de8b 943d eb02 45be 8746 e43d

conv1.mlp.2.weight f4 [64]
1.0045824 0.9853113 0.980642 1.0054322 0.9952894 0.96527743 0.96062726 0.93717545
0.964159 1.039026 1.0481744 0.99862665 1.0119737 0.9701077 0.9820581 1.0214884
1.0219924 1.0268469 0.9685924 0.9601696 1.0763221 0.9864864 0.9254001 0.98554987
0.9288288 0.9566073 0.9457412 0.911949 0.9426659 1.0051558 0.96743715 0.9577915
0.9647341 0.9777457 1.0647019 0.9875771 1.0081538 0.993345 0.9644262 1.0129112
1.0040265 0.9442229 1.0141586 0.9640397 0.95232046 1.0868348 1.0044749 0.93775636
0.9707059 0.980268 1.0152321 0.9490024 1.1256374 1.0410093 1.0811481 1.0228413
0.98811966 1.0167587 1.0802197 1.004788 1.0447006 0.9154619 0.95404077 1.0149248
00000000: 2896 803f 5d3d 7c3f 5b0b 7b3f 01b2 803f
00000010: 49cb 7e3f 6c1c 773f abeb 753f bbea 6f3f
00000020: 20d3 763f cefe 843f 942a 863f ffa5 7f3f
00000030: 5b88 813f fa58 783f 2968 7b3f 22c0 823f
00000040: a6d0 823f b86f 833f acf5 773f adcd 753f
00000050: ecc4 893f 5f8a 7c3f 05e7 6c3f ff4c 7c3f
00000060: b9c7 6d3f 37e4 743f 181c 723f 7d75 693f
00000070: 8d52 713f f2a8 803f f6a9 773f d331 753f
00000080: d0f8 763f 8b4d 7a3f 2748 883f dad1 7c3f
00000090: 2f0b 813f dc4b 7e3f a3e4 763f 13a7 813f
000000a0: f183 803f 98b8 713f f3cf 813f 4ecb 763f
000000b0: 46cb 733f 671d 8b3f a292 803f cd10 703f
000000c0: 2f80 783f d8f2 7a3f 20f3 813f d2f1 723f
000000d0: e314 903f cb3f 853f 1063 8a3f 77ec 823f
000000e0: 69f5 7c3f 2625 823f a444 8a3f e59c 803f
000000f0: c0b8 853f b65b 6a3f 043c 743f 0ee9 813f

conv1.mlp.2.bias f4 [64]
-0.039932642 0.043192953 -0.07837329 -0.019915665 -0.016683703 -0.02108695 0.08879117 -0.062110394
-0.009900322 -0.04417537 -0.07979672 -0.022029467 0.036288727 -0.056018796 0.021232832 -0.03428642
-0.13903181 0.008233489 0.05967753 0.043370727 -0.081339344 0.05587192 0.115538225 -0.06949443
-0.013297345 0.06767197 0.008594897 0.015873918 0.049985144 -0.05222341 -0.025252638 0.022241874
0.11531086 0.01110568 0.0779818 -0.0038536708 0.07803752 -0.08357866 0.08730236 -0.015722822
-0.01643725 0.0365744 -0.020697877 0.024346069 -0.034662493 0.020926697 -0.07784855 -0.11105964
-0.029525233 0.03544023 0.08564316 0.039171536 -0.061543953 0.018325465 -0.010453547 -0.009844998
0.029765187 -0.034023266 0.030767865 -0.046337947 -0.024264483 0.06973317 0.01309968 0.063182265
00000000: 6990 23bd 18eb 303d 2d82 a0bd 2d26 a3bc
00000010: 43ac 88bc 8abe acbc 25d8 b53d 7867 7ebd
00000020: f634 22bc 3cf1 34bd 766c a3bd 2477 b4bc
00000030: 7da3 143d f773 65bd 7af0 ad3c eb6f 0cbd
00000040: 5b5e 0ebe c1e5 063c 6d70 743d 81a5 313d
00000050: 3e95 a6bd f4d9 643d 4e9f ec3d 1953 8ebd
00000060: 1bdd 59bc 9a97 8a3d 9cd1 0c3c 050a 823c
00000070: 39bd 4c3d 37e8 55bd 9fde cebc 9734 b63c
00000080: 1a28 ec3d 99f4 353c ecb4 9f3d de8d 7cbb
00000090: 23d2 9f3d 4a2b abbd 94cb b23d 26cd 80bc
000000a0: 69a7 86bc 0acf 153d 988e a9bc 6871 c73c
000000b0: 42fa 0dbd 776e ab3c 106f 9fbd 3d73 e3bd
000000c0: e7de f1bc c629 113d ae65 af3d 5572 203d
000000d0: 8315 7cbd 491f 963c 5b45 2bbc ea4c 21bc
000000e0: 1fd6 f33c fb5b 0bbd e40c fc3c dccc 3dbd
000000f0: 4fc6 c6bc 44d0 8e3d 0aa0 563c b465 813d

conv1.mlp.2.running_mean f4 [64]
0.33534637 0.35843036 0.30108675 0.241193 0.31841427 0.16471978 0.40655345 0.39217263
0.3565083 0.34636572 0.21741036 0.24315713 0.3083176 0.46563447 0.361246 0.31271392
0.3507064 0.26743555 0.37494949 0.37581238 0.09165082 0.31994355 0.2711668 0.19520447
0.32130024 0.21474671 0.11993017 0.29176772 0.23717594 0.23267896 0.1788715 0.3491187
0.3334154 0.24351798 0.20940924 0.29866016 0.46739027 0.30171958 0.1826347 0.2350572
0.30686483 0.44356266 0.4194771 0.2888542 0.4857032 0.29300174 0.20320253 0.21159163
0.2083249 0.21251826 0.14483677 0.26034915 0.08032571 0.20648992 0.15179218 0.28798938
0.2700495 0.18813126 0.16670212 0.31668058 0.34339514 0.3899429 0.1009023 0.2844426
00000000: 85b2 ab3e 2f84 b73e 0b28 9a3e 4cfb 763e
00000010: 3207 a33e 4dac 283e c627 d03e daca c83e
00000020: 4288 b63e d956 b13e d2a0 5e3e 2ffe 783e
00000030: cedb 9d3e a467 ee3e 3cf5 b83e 0a1c a03e
00000040: ca8f b33e 50ed 883e 61f9 bf3e 7b6a c03e
00000050: 6db3 bb3d a4cf a33e 60d6 8a3e aee3 473e
00000060: 7781 a43e 90e6 5b3e f39d f53d 9462 953e
00000070: 40de 723e 6543 6e3e 172a 373e b0bf b23e
00000080: 6cb5 aa3e c75c 793e 606f 563e fce9 983e
00000090: c74d ef3e fd7a 9a3e 9704 3b3e d6b2 703e
000000a0: 631d 9d3e a51a e33e b4c5 d63e b3e4 933e
000000b0: 17ae f83e 5304 963e 5314 503e 7aab 583e
000000c0: 1f53 553e 639e 593e 1750 143e 7c4c 853e
000000d0: ce81 a43d 1872 533e 696f 1b3e 5873 933e
000000e0: ee43 8a3e 7ba5 403e f6b3 2a3e f523 a23e
000000f0: 7dd1 af3e 99a6 c73e dda5 ce3d 76a2 913e

conv1.mlp.2.running_var f4 [64]
0.17743392 0.1876886 0.16355014 0.105330214 0.2405273 0.07709962 0.22345717 0.22135471
0.22942568 0.19992082 0.13613412 0.19177023 0.16190358 0.45212308 0.25333005 0.15612891
0.21277918 0.18345131 0.27288193 0.16250864 0.039180305 0.22061339 0.21537763 0.10627669
0.20366314 0.095319755 0.052060433 0.17295697 0.1477663 0.15442368 0.095302835 0.20602402
0.2778154 0.17007537 0.082093 0.12218127 0.51001376 0.16791457 0.11345545 0.18212567
0.17110668 0.3249232 0.26390117 0.19657907 0.19114189 0.11229826 0.07927097 0.11742311
0.13620149 0.08369988 0.049039003 0.0732615 0.008802015 0.086989924 0.08585823 0.14636338
0.22359724 0.056357253 0.08707844 0.19865566 0.25326973 0.31690252 0.040880512 0.14429864
00000000: 3db1 353e 7131 403e b079 273e 5eb7 d73d
00000010: ca4c 763e 68e6 9d3d f5d1 643e cfaa 623e
00000020: 91ee 6a3e 0bb8 4c3e be66 0b3e 6a5f 443e
00000030: 0dca 253e ad7c e73e 7ab4 813e 42e0 1f3e
00000040: c9e2 593e a9da 3b3e 2eb7 8b3e aa68 263e
00000050: 877b 203d 7ae8 613e f48b 5c3e 98a7 d93d
00000060: 128d 503e 0137 c33d 523d 553d a21b 313e
00000070: 0d50 173e 3e21 1e3e 222e c33d f6f7 523e
00000080: d23d 8e3e 3d28 2e3e 6020 a83d 2c3a fa3d
00000090: 4390 023f ccf1 2b3e 555b e83d 277f 3a3e
000000a0: 9736 2f3e 555c a63e 0e1e 873e 064c 493e
000000b0: b3ba 433e a1fc e53d d158 a23d 877b f03d
000000c0: 6778 0b3e d86a ab3d 1fdd 483d 200a 963d
000000d0: 5436 103c c627 b23d 71d6 af3d 48e0 153e
000000e0: adf6 643e ddd6 663d 2e56 b23d 646c 4b3e
000000f0: 92ac 813e 0c41 a23e 5372 273d 06c3 133e
