DenseNeuralNet/Skim3Mu/MHc-100_MA-95_vs_nonprompt/models/SNN-nNodes64_Adadelta_initLR-0p01_CyclicLR.pt (torch, 84914 bytes, 16 tensors)

bn.weight f4 [47]
0	0x3f800000	1.0
1	0x3f800000	1.0
2	0x3f800000	1.0
3	0x3f800000	1.0
4	0x3f800000	1.0
5	0x3f800000	1.0
6	0x3f800000	1.0
7	0x3f800000	1.0
8	0x3f800000	1.0
9	0x3f800000	1.0
10	0x3f800000	1.0
11	0x3f800000	1.0
12	0x3f800000	1.0
13	0x3f800000	1.0
14	0x3f800000	1.0
15	0x3f800000	1.0
16	0x3f800000	1.0
17	0x3f800000	1.0
18	0x3f800000	1.0
19	0x3f800000	1.0
20	0x3f800000	1.0
21	0x3f800000	1.0
22	0x3f800000	1.0
23	0x3f800000	1.0
24	0x3f800000	1.0
25	0x3f800000	1.0
26	0x3f800000	1.0
27	0x3f800000	1.0
28	0x3f800000	1.0
29	0x3f800000	1.0
30	0x3f800000	1.0
31	0x3f800000	1.0
32	0x3f800000	1.0
33	0x3f800000	1.0
34	0x3f800000	1.0
35	0x3f800000	1.0
36	0x3f800000	1.0
37	0x3f800000	1.0
38	0x3f800000	1.0
39	0x3f800000	1.0
40	0x3f800000	1.0
41	0x3f800000	1.0
42	0x3f800000	1.0
43	0x3f800000	1.0
44	0x3f800000	1.0
45	0x3f800000	1.0
46	0x3f800000	1.0

bn.bias f4 [47]
0	0x00000000	0.0
1	0x00000000	0.0
2	0x00000000	0.0
3	0x00000000	0.0
4	0x00000000	0.0
5	0x00000000	0.0
6	0x00000000	0.0
7	0x00000000	0.0
8	0x00000000	0.0
9	0x00000000	0.0
10	0x00000000	0.0
11	0x00000000	0.0
12	0x00000000	0.0
13	0x00000000	0.0
14	0x00000000	0.0
15	0x00000000	0.0
16	0x00000000	0.0
17	0x00000000	0.0
18	0x00000000	0.0
19	0x00000000	0.0
20	0x00000000	0.0
21	0x00000000	0.0
22	0x00000000	0.0
23	0x00000000	0.0
24	0x00000000	0.0
25	0x00000000	0.0
26	0x00000000	0.0
27	0x00000000	0.0
28	0x00000000	0.0
29	0x00000000	0.0
30	0x00000000	0.0
31	0x00000000	0.0
32	0x00000000	0.0
33	0x00000000	0.0
34	0x00000000	0.0
35	0x00000000	0.0
36	0x00000000	0.0
37	0x00000000	0.0
38	0x00000000	0.0
39	0x00000000	0.0
40	0x00000000	0.0
41	0x00000000	0.0
42	0x00000000	0.0
43	0x00000000	0.0
44	0x00000000	0.0
45	0x00000000	0.0
46	0x00000000	0.0

bn.running_mean f4 [47]
0	0x00000000	0.0
1	0x00000000	0.0
2	0x00000000	0.0
3	0x00000000	0.0
4	0x00000000	0.0
5	0x00000000	0.0
6	0x00000000	0.0
7	0x00000000	0.0
8	0x00000000	0.0
9	0x00000000	0.0
10	0x00000000	0.0
11	0x00000000	0.0
12	0x00000000	0.0
13	0x00000000	0.0
14	0x00000000	0.0
15	0x00000000	0.0
16	0x00000000	0.0
17	0x00000000	0.0
18	0x00000000	0.0
19	0x00000000	0.0
20	0x00000000	0.0
21	0x00000000	0.0
22	0x00000000	0.0
23	0x00000000	0.0
24	0x00000000	0.0
25	0x00000000	0.0
26	0x00000000	0.0
27	0x00000000	0.0
28	0x00000000	0.0
29	0x00000000	0.0
30	0x00000000	0.0
31	0x00000000	0.0
32	0x00000000	0.0
33	0x00000000	0.0
34	0x00000000	0.0
35	0x00000000	0.0
36	0x00000000	0.0
37	0x00000000	0.0
38	0x00000000	0.0
39	0x00000000	0.0
40	0x00000000	0.0
41	0x00000000	0.0
42	0x00000000	0.0
43	0x00000000	0.0
44	0x00000000	0.0
45	0x00000000	0.0
46	0x00000000	0.0

bn.running_var f4 [47]
0	0x3f800000	1.0
1	0x3f800000	1.0
2	0x3f800000	1.0
3	0x3f800000	1.0
4	0x3f800000	1.0
5	0x3f800000	1.0
6	0x3f800000	1.0
7	0x3f800000	1.0
8	0x3f800000	1.0
9	0x3f800000	1.0
10	0x3f800000	1.0
11	0x3f800000	1.0
12	0x3f800000	1.0
13	0x3f800000	1.0
14	0x3f800000	1.0
15	0x3f800000	1.0
16	0x3f800000	1.0
17	0x3f800000	1.0
18	0x3f800000	1.0
19	0x3f800000	1.0
20	0x3f800000	1.0
21	0x3f800000	1.0
22	0x3f800000	1.0
23	0x3f800000	1.0
24	0x3f800000	1.0
25	0x3f800000	1.0
26	0x3f800000	1.0
27	0x3f800000	1.0
28	0x3f800000	1.0
29	0x3f800000	1.0
30	0x3f800000	1.0
31	0x3f800000	1.0
32	0x3f800000	1.0
33	0x3f800000	1.0
34	0x3f800000	1.0
35	0x3f800000	1.0
36	0x3f800000	1.0
37	0x3f800000	1.0
38	0x3f800000	1.0
39	0x3f800000	1.0
40	0x3f800000	1.0
41	0x3f800000	1.0
42	0x3f800000	1.0
43	0x3f800000	1.0
44	0x3f800000	1.0
45	0x3f800000	1.0
46	0x3f800000	1.0

dense1.weight f4 [64, 47]
0	0xbe046e79	-0.12932767
1	0x3bc15293	0.005899736
2	0xbc92b7ff	-0.017910002
3	0x3e0d1020	0.13775682
4	0x3dc324a3	0.09528472
5	0xbddbebd9	-0.10738344
6	0x3d94bcda	0.07262583
7	0xbdeddfc5	-0.11614946
8	0xbd503c20	-0.05083859
9	0xbdbf8db7	-0.09353202
10	0x3e041c49	0.12901415
11	0x3db1cf6a	0.08682139
12	0x3dc0ee56	0.09420459
13	0xbcc3eea1	-0.023917498
14	0xbd1137e2	-0.035453685
15	0x3dcc1802	0.099655166
16	0x3ccd893b	0.02508985
17	0xbe0af2a9	-0.1356913
18	0x3d9dc618	0.07703799
19	0xbd544d4c	-0.05183153
20	0xbd736967	-0.05942669
21	0xbd8e0a07	-0.06935506
22	0xbe0dc69d	-0.13845296
23	0xbe05e64b	-0.13076131
24	0xbdd0ec91	-0.102013715
25	0x3de60f8e	0.112334356
26	0xbd89a7ec	-0.06721482
27	0xbddde6d1	-0.1083504
28	0x3dd9f139	0.10641713
29	0xbd36eaa7	-0.044657376
30	0x3cf353f8	0.029703125
31	0x3da89e5d	0.082333304
32	0x3d60220b	0.054719966
33	0xbd1505c8	-0.036382467
34	0xbdd079ef	-0.10179507
35	0x3dc7b3fd	0.09751127
36	0x3e03c488	0.1286794
37	0x3cb36601	0.021899225
38	0xbe09f44d	-0.134721
39	0x3dc6693b	0.0968804
40	0x3c8df31e	0.017327841
41	0x3db49782	0.0881796
42	0xbd26e147	-0.040742185
43	0xbdcfaadd	-0.101400115
44	0xbc9de6d5	-0.019275108
45	0x3d32fae7	0.04369631
46	0xbc4c8598	-0.012483023
47	0xbd3052f4	-0.04304786
48	0x3d09de9c	0.033659562
49	0xbe024512	-0.1272166
50	0x3da7d388	0.08194643
51	0x3e00dacf	0.12583469
52	0x3d953afa	0.072866395
53	0xbde2fac4	-0.11082986
54	0xba101787	-0.000549667
55	0xbd246463	-0.0401348
56	0xbcebf5f0	-0.028803796
57	0xbdfa323f	-0.12216615
58	0x3d778e47	0.06043842
59	0x3c367a97	0.011137626
60	0x3dbbcabf	0.0916953
61	0xbd6b3245	-0.057420988
62	0xbd9817f4	-0.07426444
63	0xbd3db8fe	-0.046319
64	0xbd972142	-0.0737939
65	0xbd1edf4a	-0.038787164
66	0x3df6171c	0.120161265
67	0x3e051e17	0.1299976
68	0x3dea1ac9	0.1143089
69	0xbdf076bf	-0.11741399
70	0x3cd83e9f	0.026397048
71	0xbdc81de0	-0.09771323
72	0xbda94e12	-0.08266844
73	0x3de99680	0.11405659
74	0x3de71e55	0.11285082
75	0xbdc96474	-0.09833613
76	0xbc235fd5	-0.009971579
77	0xbda8231f	-0.08209824
78	0xbdf1991a	-0.1179678
79	0xbddd499b	-0.10805055
80	0x3d7e8f28	0.062148243
81	0xbd813398	-0.06308669
82	0x3de5c114	0.11218467
83	0x3dfbc93d	0.122942425
84	0xbdc83ae0	-0.097768545
85	0x3db9bd47	0.09069305
86	0xbc2f1054	-0.010685045
87	0x3e0335f3	0.12813549
88	0xbdaf37b2	-0.08555545
89	0xbc75110f	-0.01495768
90	0xbe08b6d1	-0.13350989
91	0x3d82a303	0.06378748
92	0xbdec1961	-0.11528278
93	0x3c8c50b0	0.017128319
94	0x3db80dcf	0.08987009
95	0x3db990ad	0.09060798
96	0x3decc21c	0.11560461
97	0xbd71c377	-0.0590243
98	0xbe126260	-0.1429534
99	0x3d9808b9	0.07423539
100	0x3d3e15f1	0.046407644
101	0xbd8c61a8	-0.06854564
102	0xbcd9fb60	-0.026609123
103	0xbd62722e	-0.05528467
104	0xbe081fbf	-0.1329336
105	0x3e0aa29c	0.13538593
106	0x3da39735	0.07987825
107	0x3db115e6	0.08646755
108	0x3d6ed726	0.05831065
109	0x3d803cce	0.062615976
110	0xbcee47d7	-0.02908699
111	0x3ce9488a	0.028476972
112	0xbe140862	-0.14456323
113	0xbd74129e	-0.059588067
114	0xbce8836a	-0.028382976
115	0xbd821de8	-0.063533604
116	0x3c5b2a72	0.013376819
117	0x3d078df0	0.033094347
118	0xbe14830d	-0.14503117
119	0x3ddc9a6d	0.10771642
120	0xbd52a3d7	-0.05142578
121	0x3d148f4e	0.03626948
122	0xbdc958f7	-0.09831422
123	0x3e08cea2	0.13360074
124	0xbc967828	-0.018367842
125	0x3da119d3	0.07866254
126	0x3e0851b1	0.13312413
127	0x3db6f735	0.0893387
128	0x3d486ac7	0.048929956
129	0xbd17172b	-0.03688733
130	0xbc973b1b	-0.0184608
131	0xbdf98ebf	-0.1218543
132	0x3ddb4832	0.107071295
133	0xbd827fa2	-0.06372
134	0xbe068b9d	-0.13139196
135	0xbe0cd518	-0.13753164
136	0x3d736ced	0.05943005
137	0x3aa9f809	0.0012967597
138	0x3dbb8f8c	0.09158239
139	0x3e139100	0.14410782
140	0x3d82a02a	0.06378205
141	0xbdce7a61	-0.10081936
142	0xbad819f4	-0.0016487227
143	0xbde52f94	-0.111907154
144	0xbd9c7497	-0.07639425
145	0xbd68b346	-0.056811593
146	0xbde1ab3d	-0.11018989
147	0xbc42fc37	-0.011900953
148	0xbce98697	-0.02850656
149	0xbc661a8e	-0.014044417
150	0xbdc597ae	-0.09648071
151	0xbda9dcf8	-0.082940996
152	0x3dbc1f66	0.09185676
153	0xbda556be	-0.080731854
154	0x3cc99b6a	0.02461024
155	0xbdbb6a19	-0.09151096
156	0x3ae0cf84	0.0017151688
157	0x3bdcd468	0.006739188
158	0x3d8c3f97	0.06848066
159	0x3ded8ae3	0.11598756
160	0xbd16a741	-0.0367806
161	0x3e151726	0.14559612
162	0x3e079e67	0.1324402
163	0xbe0329db	-0.12808935
164	0x3dba1803	0.09086611
165	0x3e09819f	0.13428353
166	0xbd90111f	-0.070345156
167	0x3c6da484	0.014504556
168	0x3dfef2ce	0.12448655
169	0x3df7e7b7	0.12104743
170	0xbd91a9cf	-0.071124665
171	0x3d81305a	0.063080505
172	0xbcfdea7c	-0.0309956
173	0x3db2a908	0.087236464
174	0xba7ffbf2	-0.0009765021
175	0x3e10b9a8	0.14133322
176	0xbd859d42	-0.06524135
177	0x3e0afff0	0.13574195
178	0xbd59e12e	-0.053193264
179	0x3d84c415	0.06482712
180	0xbb92242b	-0.004459878
181	0x3d908661	0.07056881
182	0x3c543c68	0.012953855
183	0xba12ace0	-0.00055952184
184	0xbdc54616	-0.096325085
185	0x3d998039	0.0749516
186	0x3d6e803a	0.058227755
187	0xbd6f5b01	-0.058436397
188	0xbdcc77b0	-0.09983766
189	0x3c8a2c5c	0.016866855
190	0xbcf91f3e	-0.030410405
191	0xbd99e5cd	-0.07514534
192	0x3d001b9f	0.03127634
193	0x3dd19027	0.10232573
194	0xbdc08f44	-0.09402326
195	0xbcedc2a8	-0.029023483
196	0xbdd74081	-0.1051035
197	0xbe155a28	-0.14585173
198	0xbcd342e9	-0.025788741
199	0x3d79ee6b	0.06101839
200	0x3d90c9bb	0.07069727
201	0x3e0aff90	0.13574052
202	0xbde88cc7	-0.11354976
203	0x3d874bd3	0.06606259
204	0xbe045b58	-0.1292547
205	0xbdc86b45	-0.09786085
206	0xbcbbe9a0	-0.02293855
207	0x3e00b5ce	0.12569353
208	0xbde8cbba	-0.11366983
209	0xbda49cc0	-0.0803771
210	0xbe0b2d8c	-0.13591594
211	0xbcea4844	-0.028598912
212	0xbddafd57	-0.10692852
213	0x3dd40e9f	0.10354351
214	0xbdb04366	-0.08606605
215	0xbe063b2b	-0.13108508
216	0xbdf221f5	-0.11822883
217	0xbdac6c19	-0.084190555
218	0xbd85c184	-0.06531051
219	0x3e123bad	0.14280577
220	0xbda403af	-0.08008515
221	0xbdd44f7b	-0.10366722
222	0xbd023034	-0.03178425
223	0x3de3597c	0.11101052
224	0xbdc54b14	-0.09633461
225	0x3c56d4f0	0.013112292
226	0x3dec787f	0.1154642
227	0xbd20821f	-0.039186593
228	0x3d756911	0.059914652
229	0x3d1e8ac9	0.038706575
230	0xbe0e2c23	-0.13884024
231	0xbd8c6651	-0.06855453
232	0x3da9749e	0.08274196
233	0xbc350284	-0.011047963
234	0x3df766f3	0.12080183
235	0xbce26b79	-0.027639138
236	0x3a158f69	0.00057052687
237	0x3d94fba4	0.07274559
238	0x3d9d2dad	0.076747276
239	0xbd9d50f6	-0.07681458
240	0xbd96df6f	-0.07366835
241	0x3dee2e34	0.11629906
242	0xbdac6df8	-0.084194124
243	0x3d919408	0.07108313
244	0xbd927bbd	-0.071525075
245	0x3dfaf7a5	0.12254266
246	0x3d6fefcf	0.05857831
247	0xbd1aac00	-0.03776169
248	0xbc9e2aab	-0.019307455
249	0x3d820203	0.0634804
250	0xbd898753	-0.06715264
251	0xbc35be0b	-0.011092673
252	0xbd92c620	-0.071666956
253	0x3d3fd500	0.046833992
254	0x3cc822d5	0.024430672
255	0x3db3aece	0.08773576

dense1.bias f4 [64]
0	0x3db51f19	0.08843822
1	0xbe0ffcfe	-0.14061353
2	0xbca8da91	-0.020612033
3	0xbe151048	-0.14556992
4	0x3de70228	0.11279708
5	0xbdc3a60d	-0.09553156
6	0xbd303e57	-0.043028202
7	0x3bed91db	0.0072500533
8	0xbd89e5ce	-0.06733285
9	0xbcb7e1ee	-0.022446599
10	0x3d9906f4	0.07472029
11	0x3e0dbc2e	0.13841316
12	0x3dedd4a1	0.11612821
13	0xbd998416	-0.074958965
14	0xbd01704a	-0.031601228
15	0xbdddb638	-0.10825771
16	0x3ab22007	0.0013589867
17	0xbd2c2570	-0.04202789
18	0xbd814c80	-0.06313419
19	0xbdb67b21	-0.08910204
20	0x3cfb6349	0.030686991
21	0xbd38adc8	-0.045087606
22	0x3d8b56f3	0.068036936
23	0xbcb6da33	-0.022320842
24	0x3d8565ce	0.06513558
25	0xbde78fed	-0.113067485
26	0xbd89fcfe	-0.067377076
27	0x3c8db327	0.01729734
28	0xbda527d1	-0.08064235
29	0xbbc26f5f	-0.0059336866
30	0x3cf7dc20	0.030256331
31	0x3db4fb2c	0.0883697
32	0x3d84f1bf	0.06491422
33	0xbca1e0d5	-0.019760529
34	0xbbcd2e7a	-0.006261644
35	0xbdaf2b96	-0.08553235
36	0xbdbe8681	-0.09302998
37	0x3d5402fa	0.05176065
38	0xbd1b3b49	-0.037898336
39	0xbd90c6ae	-0.07069145
40	0x3d85caac	0.06532797
41	0xbdb608ff	-0.088884346
42	0x3d5e0f52	0.05421383
43	0x3d6cc686	0.057806514
44	0x3e00ac71	0.12565781
45	0xbe02d0ff	-0.12775038
46	0xbd7cfbdf	-0.06176364
47	0xbdc84052	-0.09777893
48	0xbc2d1156	-0.010563215
49	0xbd919c02	-0.07109834
50	0x3cd3fd41	0.025877597
51	0x3c4da854	0.01255234
52	0xbdb94bbb	-0.090476476
53	0x3ddbd20c	0.10733423
54	0x3b3e913f	0.0029078273
55	0xbd7b3b22	-0.06133569
56	0x3d90b704	0.070661575
57	0x3d9690d3	0.07351842
58	0xbd9e1e1e	-0.07720588
59	0xbdc3edbf	-0.09566831
60	0xbd794cff	-0.060864445
61	0x3b84b79a	0.0040502073
62	0x3d055bfd	0.03255843
63	0xbb860ac3	-0.0040906384

dense2.weight f4 [64, 64]
0	0xbdc9275b	-0.098219596
1	0x3d72b53c	0.05925487
2	0x3d0d6158	0.034516662
3	0x3d2ae256	0.041719757
4	0x3d24367e	0.04009103
5	0x3db0a211	0.08624662
6	0xbd82b537	-0.0638222
7	0xbcd33f4b	-0.025787016
8	0xbd8e145f	-0.06937479
9	0xbdbaa386	-0.09113221
10	0xbdd53cbf	-0.10411977
11	0xbdef7040	-0.11691332
12	0x3d9b60fb	0.07586857
13	0xbd33d71e	-0.043906324
14	0x3ce2c300	0.027680874
15	0x3d949ea7	0.07256823
16	0xbc257e5f	-0.01010093
17	0xbdd6ff6d	-0.10497937
18	0x3dd8182b	0.10551485
19	0xbdb7c398	-0.089728534
20	0x3d0fd67b	0.035116654
21	0xbd73a06b	-0.05947916
22	0xbdd9a098	-0.10626334
23	0xbdae4346	-0.08508925
24	0xbbba2fe8	-0.0056819804
25	0x3d1882b6	0.03723403
26	0xbd51c3b0	-0.051212013
27	0xbdad24d2	-0.084542885
28	0x3ded7e45	0.115963496
29	0xbd00d43b	-0.0314524
30	0xbd510a45	-0.051035184
31	0xbd880ef0	-0.06643474
32	0x39ad5aac	0.00033064687
33	0xbd8c0e95	-0.06838719
34	0xbd34bab8	-0.04412338
35	0x3d8cab2a	0.068685845
36	0xbd94e7b1	-0.07270754
37	0xbc174236	-0.0092320945
38	0xbd1e23a5	-0.038608212
39	0x3c9e87c2	0.019351844
40	0xbdda63ad	-0.10663543
41	0xbd2fc7cb	-0.042915147
42	0x3d8f5a5f	0.06999659
43	0xbad981af	-0.0016594435
44	0xbdba88af	-0.091081016
45	0x3d3e224f	0.046419438
46	0x3de9e730	0.11421049
47	0x3d881806	0.06645207
48	0x3dbad0f8	0.09121889
49	0xbd729e81	-0.059233192
50	0xbdde883b	-0.10865828
51	0x3d91cc42	0.07119037
52	0x3d00bb46	0.031428598
53	0x3dc401fb	0.0957069
54	0xbdf98c5b	-0.12184974
55	0x3aac9263	0.0013166185
56	0x3dcbc792	0.099501744
57	0x3d571a3b	0.05251525
58	0xbc453b44	-0.012038056
59	0xbc6f5b9b	-0.014609243
60	0x3db6894c	0.08912906
61	0x3dae41d5	0.0850865
62	0x3de9af1d	0.11410353
63	0x3cd82c87	0.02638842
64	0x3d5e362a	0.054250874
65	0x3d7b3179	0.061326478
66	0x3dffb64a	0.12485941
67	0x3db285ef	0.08716952
68	0x3cb85d60	0.022505462
69	0x3de884ba	0.113534406
70	0x3dc94af4	0.09828749
71	0x3d690232	0.05688686
72	0x3dea9727	0.11454611
73	0x3dd3f310	0.10349095
74	0xbd90c184	-0.0706816
75	0x3dc7e6b1	0.09760798
76	0x3ddae58c	0.10688314
77	0x3d819e48	0.06329018
78	0x3d5ace58	0.05341944
79	0x3d3e478e	0.04645496
80	0x3d2a7ce7	0.041623022
81	0x3db10db7	0.08645194
82	0x3d880e47	0.06643348
83	0x3de3132c	0.11087641
84	0xbd264dc1	-0.040601496
85	0xbdd79f0c	-0.10528383
86	0xbd94f218	-0.07272738
87	0x3dc484db	0.09595653
88	0xbd9e66b5	-0.077344336
89	0x3d8274ae	0.06369911
90	0xbda8a569	-0.082346745
91	0xbdf11d16	-0.11773126
92	0x3aed6474	0.0018111602
93	0xbdbc5c3b	-0.09197279
94	0xbd1663c4	-0.036716238
95	0x3d8a80d0	0.0676285
96	0x3d10894c	0.035287187
97	0x3d69ae24	0.05705084
98	0x3b85a193	0.004078099
99	0x3da12670	0.078686595
100	0xbbd139a6	-0.006385046
101	0xbbdcf89b	-0.0067435033
102	0xbc0716da	-0.008245194
103	0x3c009907	0.007848985
104	0xbce0010c	-0.02734425
105	0x3cda21b9	0.026627408
106	0x3c8bf620	0.017085135
107	0xbda946d6	-0.08265464
108	0xbb002f5f	-0.0019559485
109	0xbdfb26d4	-0.12263265
110	0x3d8bd05e	0.06826852
111	0x3dd3053c	0.10303733
112	0xbd0f5672	-0.03499455
113	0x3dc0a9d5	0.09407393
114	0x3dc45986	0.09587388
115	0xbd2d6046	-0.04232814
116	0xbd8a780b	-0.06761178
117	0x3d818026	0.063232705
118	0xbb60f74c	-0.0034327088
119	0x3c95f22a	0.01830395
120	0xbc9f8cd3	-0.01947633
121	0xbc86b306	-0.016442787
122	0xbdefa9e7	-0.11702328
123	0x3dac7cfa	0.08422275
124	0x3c257ed3	0.010101038
125	0xbd4a273b	-0.04935382
126	0xbd8fc1b3	-0.07019367
127	0x3daf0069	0.08545
128	0xbdf80004	-0.12109378
129	0x3dddd422	0.10831477
130	0xbdcdd356	-0.10050075
131	0xbc4be919	-0.0124457115
132	0xbdab0ea1	-0.083523996
133	0xbd74de38	-0.059782237
134	0x3d1f4104	0.038880363
135	0xbd568e4e	-0.052381806
136	0xbd095943	-0.033532392
137	0x3da129bc	0.07869288
138	0x3dcd9fd9	0.10040254
139	0xbdc19994	-0.09453121
140	0x3d39246b	0.045200747
141	0xbd07b38c	-0.033130214
142	0x3d245cef	0.04012769
143	0xbd9f8c97	-0.07790487
144	0xbd47f28c	-0.048815295
145	0x3df4b920	0.11949372
146	0xbd0672a0	-0.03282416
147	0xbddcc5b6	-0.10779898
148	0x3c72ee53	0.014827329
149	0x3d634dbb	0.05549405
150	0xbdf546eb	-0.11976417
151	0xbd640c88	-0.055676013
152	0xbd4b6d32	-0.049664684
153	0xbd17da04	-0.03707315
154	0xbb3438b4	-0.0027499618
155	0x3da5d84f	0.08097898
156	0xbd499aae	-0.04921978
157	0xbda4b5e0	-0.080425024
158	0xbd9c0823	-0.076187395
159	0x3dbf9815	0.09355179
160	0x3d40ff96	0.047118746
161	0xbda65046	-0.0812078
162	0x3d6bc5fc	0.05756186
163	0xbd623bac	-0.05523269
164	0x3dbece6b	0.09316715
165	0x3dcef801	0.10105897
166	0xbdfd494c	-0.12367496
167	0x3dbe1200	0.09280777
168	0x3cd755c5	0.026286015
169	0x3cd83d71	0.026396485
170	0xbda8ea8e	-0.08247863
171	0x3c42fcee	0.011901123
172	0x3dec7ea7	0.115475945
173	0xbdafbe1f	-0.085811846
174	0xbda2af60	-0.079436064
175	0x3dff78f8	0.12474245
176	0xbd3241c9	-0.04351977
177	0x3d466606	0.04843714
178	0xbd23005e	-0.039795272
179	0x3cbe843c	0.023256414
180	0x3d9a8bf5	0.07546226
181	0x3dcd9d9a	0.10039826
182	0xbd31eb54	-0.043437317
183	0x3b271c1e	0.0025498937
184	0xbdfd0a05	-0.12355427
185	0x3c08782c	0.008329432
186	0xbc5d0408	-0.013489731
187	0x3dbf3413	0.09336104
188	0x3db25b7b	0.08708855
189	0x3dce6046	0.100769565
190	0xbd75b30f	-0.059985217
191	0xbdd74979	-0.10512061
192	0xbde8d6df	-0.113691084
193	0x3dfd6f54	0.1237475
194	0xbbbc1ad4	-0.005740503
195	0x3d2c964d	0.042135525
196	0x3d2f95d8	0.04286751
197	0x3b2ebe9d	0.0026663907
198	0x3cd834e0	0.0263924
199	0x3d0ef2d2	0.03489954
200	0xbddb1fc3	-0.106994174
201	0x3d9cbf05	0.076536216
202	0xbcfedfc9	-0.031112568
203	0xbc51d5f1	-0.012807355
204	0x3d4ab168	0.049485594
205	0x3bf875d7	0.007582407
206	0xbcd64572	-0.026156161
207	0x3cc2abf3	0.023763632
208	0xbd98e9ed	-0.07466493
209	0xbcf7c595	-0.030245582
210	0xbd07ce64	-0.033155814
211	0x3bf4f2e1	0.0074752425
212	0x3d062c5e	0.032757156
213	0xbd916f97	-0.07101362
214	0x3cdd1c8b	0.02699115
215	0xbd9d4781	-0.07679654
216	0x3daa710d	0.08322344
217	0x3d204bec	0.039134905
218	0xbd194a14	-0.037424162
219	0xbddce24c	-0.1078535
220	0x3d430da5	0.047620434
221	0x3d957354	0.07297388
222	0xbcda16d9	-0.026622223
223	0xbdd4f503	-0.10398295
224	0xbc454d8c	-0.012042414
225	0x3da5db1d	0.08098433
226	0x3db07f87	0.08618074
227	0xbd9fda64	-0.078053266
228	0xbd2659c1	-0.04061294
229	0xbca00a3b	-0.019536128
230	0x3ac50e89	0.0015034239
231	0x3dee68f5	0.11641113
232	0xbdca3681	-0.09873677
233	0x3dbbf2f4	0.09177199
234	0xbdfad92a	-0.12248452
235	0x3ba2e7db	0.004971487
236	0xbd9f3e91	-0.077756055
237	0x3d86d8da	0.0658433
238	0x3d8aa5b7	0.06769889
239	0x3d9af60a	0.075664595
240	0x3d1d2c1b	0.03837214
241	0x3d3f3af7	0.046687093
242	0xbdde8005	-0.108642615
243	0xbdd4b8ed	-0.10386834
244	0x3da11d28	0.07866889
245	0xbdf9fb3f	-0.122061245
246	0x3d5fd920	0.054650426
247	0xbd7b932c	-0.06141965
248	0x3c1f64ee	0.009728653
249	0x3de99559	0.11405439
250	0xbd4dd93e	-0.050256006
251	0x3d155209	0.036455188
252	0xbd19c221	-0.03753865
253	0x3c207347	0.009793109
254	0x3d6c920f	0.05775648
255	0x3d4076c9	0.046988282

dense2.bias f4 [64]
0	0x3de55459	0.11197729
1	0x3bff5bb9	0.0077929166
2	0xbdfbab04	-0.12288478
3	0xbbd83caf	-0.006599031
4	0x3d8909a4	0.06691292
5	0x3de7eaba	0.113240674
6	0x3ca81d21	0.020521702
7	0x3d89978b	0.06718358
8	0xbde7a7f7	-0.113113336
9	0xbdf6ab73	-0.1204442
10	0xbdcb38ce	-0.09922944
11	0x3df16590	0.1178695
12	0xbc0f2a6e	-0.008738143
13	0x3d625e8c	0.05526595
14	0xbcf336cf	-0.02968922
15	0xbdbf0e99	-0.09328956
16	0x3d312c01	0.043254856
17	0x3ca77c25	0.020444939
18	0xbd8845a7	-0.0665391
19	0xbd04e2e7	-0.032442953
20	0xbdc185fe	-0.09449385
21	0xbd631bd7	-0.055446472
22	0xbd3cd0cc	-0.04609756
23	0x3d98a852	0.074539796
24	0x3d116371	0.035495225
25	0xbdbbe21f	-0.091739886
26	0x3d6badfc	0.05753897
27	0x3de6cff4	0.11270133
28	0x3c848a15	0.016179124
29	0x3dc5e92e	0.09663616
30	0x3dc4f0fd	0.09616277
31	0x3d94f1ac	0.07272658
32	0x3c7e0342	0.015503706
33	0xb9f6a64e	-0.00047044683
34	0xbcabdbef	-0.020978896
35	0xbdf748d9	-0.120744415
36	0x3a6202ac	0.0008621614
37	0x3de322bb	0.11090609
38	0xbd8c37b9	-0.06846566
39	0xbdfbbea2	-0.1229222
40	0x3d388d3f	0.045056578
41	0x3d12992b	0.035790604
42	0xbd6accb5	-0.05732413
43	0x3d8e3795	0.06944195
44	0xbdca3395	-0.0987312
45	0x3dc3fd68	0.09569818
46	0x3dec3eb6	0.11535399
47	0xbd053eec	-0.03253071
48	0x3de53c24	0.111931115
49	0xbdb7afe5	-0.08969096
50	0x3d1706d9	0.036871765
51	0x3d92993d	0.07158134
52	0xbda6dff5	-0.08148185
53	0x3dcb7bd7	0.0993573
54	0xbdaccb57	-0.084372215
55	0x3d089160	0.033341765
56	0x3dbfe184	0.093691856
57	0x3d61c56b	0.055119913
58	0xbd2614bd	-0.04054712
59	0x3ce8e8fa	0.028431404
60	0xbdc57e15	-0.09643189
61	0x3d1dbf69	0.03851262
62	0x3d4b9887	0.04970601
63	0x3d6b944e	0.05751448

dense3.weight f4 [64, 64]
0	0xbcd947da	-0.02652352
1	0x3cc60834	0.024173833
2	0xbdd3d1b0	-0.10342729
3	0xbd8364cc	-0.0641571
4	0xbd2f7148	-0.042832643
5	0xbd61d1b1	-0.055131618
6	0xbcf9b6ec	-0.030482732
7	0xbdf0557e	-0.11735056
8	0x3dae8f0b	0.08523377
9	0xbdbb4cbc	-0.09145495
10	0xbcba9a44	-0.022778638
11	0xbd8df705	-0.06931881
12	0x3db2ee9e	0.08736919
13	0x3b012347	0.0019704865
14	0xbdfa6d02	-0.12227823
15	0x3d855175	0.06509677
16	0x3d221e5b	0.03957973
17	0x3d3f4bbf	0.046703096
18	0x3ddc69af	0.10762345
19	0xbdd66b3a	-0.104696706
20	0x3d3dc837	0.046333518
21	0xbc8bf532	-0.017084692
22	0x3cf416c3	0.02979601
23	0x3d53f582	0.051747806
24	0xbdd56e1a	-0.10421391
25	0xbd3632c2	-0.044482
26	0xbce8eba5	-0.028432677
27	0x3dd5c936	0.104387686
28	0x3bda268c	0.006657427
29	0x3de60fea	0.11233504
30	0x3dabcb91	0.083884366
31	0x3d711ca4	0.058865204
32	0x3d990a4f	0.07472669
33	0xbd0e70d5	-0.034775574
34	0xbdfffbb0	-0.124991775
35	0xbcb7776a	-0.022395808
36	0xbdcff8a4	-0.10154846
37	0x3dda7a25	0.106678285
38	0xbcdce1b4	-0.026963092
39	0x3d0a50a8	0.033768326
40	0xbd7fc46a	-0.062443174
41	0x3dacef50	0.08444083
42	0x3c873799	0.016506003
43	0x3c6bc10f	0.0143892905
44	0x3dc2951a	0.09501095
45	0x3ba11c2e	0.0049166894
46	0x3de5cb75	0.11220447
47	0xbd8708ff	-0.06593513
48	0xbdaf1979	-0.085497804
49	0xbdfbbab4	-0.1229147
50	0xbdc36b9a	-0.09542008
51	0x3d22cd42	0.03974653
52	0x3de37ae2	0.111074224
53	0xbda18b4b	-0.07887896
54	0x3a70ba3a	0.00091830234
55	0xbddafbdc	-0.106925696
56	0xbde59d68	-0.112116635
57	0x3b52da77	0.0032173672
58	0xbd4d4ebc	-0.050123915
59	0x3d3ec1a8	0.046571404
60	0x3b86d825	0.004115122
61	0x3def8fe5	0.116973676
62	0xbd2c1c93	-0.042019438
63	0x3db1df6b	0.08685192
64	0x3de5d1c4	0.1122165
65	0xbda2ba7d	-0.07945726
66	0xbc897862	-0.016781036
67	0xbd98ff09	-0.07470519
68	0x3cbde8b3	0.023182249
69	0xbd753c6b	-0.059872072
70	0x3d9d9b16	0.07695596
71	0xbd8b0e06	-0.06789784
72	0xbd4f23c7	-0.05057123
73	0xbde09d4b	-0.10967501
74	0x3d616ecb	0.0550373
75	0xbdd61177	-0.1045255
76	0xbdd0e274	-0.101994425
77	0xbdb567b6	-0.08857672
78	0xbd9aa305	-0.07550625
79	0xbc451e07	-0.012031085
80	0xbd84235d	-0.064520575
81	0xbd8938a7	-0.06700259
82	0xbdbcc4d5	-0.0921723
83	0xbd92357f	-0.0713911
84	0x3d9f86ef	0.077894084
85	0xbdf6ebdf	-0.120567076
86	0xbd00c374	-0.0314364
87	0xbddaa26d	-0.106755115
88	0x3d2a4827	0.041572716
89	0xbdfc1632	-0.12308921
90	0x3de2d0f4	0.11075011
91	0x3bcbc90a	0.006219034
92	0x3dcf7b04	0.10130885
93	0x3d560ef7	0.052260365
94	0xbdcbd307	-0.0995236
95	0x3b421bdf	0.0029618663
96	0x3d24a3f3	0.040195417
97	0xbba8cc02	-0.0051512728
98	0x3d67a8c5	0.056557436
99	0xbd9cc660	-0.076550245
100	0x3db89f17	0.09014719
101	0x3dd001c5	0.101565875
102	0xbdd67101	-0.104707725
103	0xbdd63d4d	-0.10460911
104	0xbd4af49a	-0.049549676
105	0xbbb1f0ae	-0.0054303026
106	0x3de4e0c9	0.11175687
107	0xb9114713	-0.00013854755
108	0xbde14ebe	-0.11001347
109	0xbdefdc31	-0.1171192
110	0x3d778081	0.060425285
111	0xbdfb2c43	-0.12264302
112	0x3d7e5ca8	0.062100083
113	0xbdf995d1	-0.12186778
114	0xbcf906bf	-0.030398725
115	0xbc060a61	-0.008181185
116	0x3a17520b	0.0005772418
117	0x3df9e1a8	0.12201244
118	0xbd090b74	-0.03345819
119	0xbcdb6b7e	-0.026784655
120	0x3d85ff4c	0.06542835
121	0xbd1bd53d	-0.038045157
122	0xbcfa306e	-0.030540671
123	0xbd36cfa8	-0.04463163
124	0x3d34f8e7	0.044182684
125	0x3cda027a	0.026612509
126	0x3d0249fd	0.031808842
127	0xbd952218	-0.072818935
128	0x3d862da6	0.065516755
129	0xbd89a9db	-0.067218505
130	0xbcd1012d	-0.025513256
131	0xbd5930b1	-0.05302495
132	0xbdd43f70	-0.10363662
133	0xbd1d6892	-0.038429804
134	0xbd805866	-0.06266861
135	0x3db2cf11	0.08730901
136	0xbc2bb01e	-0.010479001
137	0xbdecfd04	-0.115716964
138	0x3c82eefc	0.015983097
139	0x3df95bac	0.12175688
140	0x3d673bd8	0.056453556
141	0xbdbbfe20	-0.0917933
142	0x3cbe151b	0.023203423
143	0xbd453692	-0.048147745
144	0x3dd26cfd	0.10274694
145	0xbdc38192	-0.09546198
146	0xbd8f18ae	-0.06987129
147	0x3c69f905	0.014280562
148	0x3d870070	0.0659188
149	0x3d8d27be	0.06892346
150	0xbdf4fb6d	-0.11962018
151	0xbd32afcb	-0.04362468
152	0x3d5a8653	0.053350758
153	0xbd7bf6f0	-0.061514795
154	0x3dae689e	0.08516048
155	0x3d9edc80	0.07756901
156	0xbd8fa410	-0.07013714
157	0x3ba9f3d6	0.005186538
158	0x3d0e50f3	0.034745168
159	0xbd51a3f1	-0.051181737
160	0x3dc80229	0.09766037
161	0xbd41e6ce	-0.047339253
162	0x3df65a0c	0.12028894
163	0xbdca8d8c	-0.09890279
164	0x3cbd475c	0.023105316
165	0xbd80e68e	-0.06293975
166	0x3dc675dc	0.09690449
167	0xbd87867d	-0.066174485
168	0xbdab7e52	-0.08373703
169	0x3dd9eccf	0.10640871
170	0xbc49761d	-0.012296227
171	0xbd347b87	-0.044063117
172	0x3c1bd06b	0.00951014
173	0xbdc81100	-0.097688675
174	0xbdd50600	-0.10401535
175	0xbcb88145	-0.022522578
176	0x3d88ba62	0.06676175
177	0x3d0f5771	0.0349955
178	0xbc584951	-0.013201074
179	0x3a2199bd	0.00061645714
180	0x3d5d10ff	0.053971287
181	0xbdcdb8bd	-0.10045002
182	0xbccd9b9c	-0.025098614
183	0xbd28551c	-0.04109679
184	0xbcaf9c06	-0.021436702
185	0xbd9fc25d	-0.07800744
186	0xbcc680ae	-0.024231281
187	0xbd0e79a9	-0.034783993
188	0x3cb68677	0.022280915
189	0x3dd35b08	0.10320097
190	0x3d4896c0	0.04897189
191	0x3d2ae1fe	0.04171943
192	0x3cf9b2af	0.03048071
193	0x3c868e51	0.016425284
194	0x3d4a438a	0.049380817
195	0xbdff08d5	-0.124528565
196	0x3d183db1	0.03716821
197	0xbd576ed1	-0.052595917
198	0x3d572fe9	0.052535925
199	0xbdcc930a	-0.09988983
200	0xbd889dbf	-0.06670713
201	0x3dce789a	0.10081597
202	0xbcf33f49	-0.029693263
203	0x3de3fac7	0.11131816
204	0xbd92f833	-0.071762465
205	0xbd3089da	-0.043100215
206	0x3bf18af0	0.007371299
207	0x3b051295	0.0020305265
208	0xbd057bb1	-0.032588664
209	0xbd088779	-0.03333232
210	0xbdd8be03	-0.10583117
211	0x3c7a5e6c	0.015281301
212	0x3cbfca4b	0.02341189
213	0xbd107101	-0.03526402
214	0xbdcac688	-0.09901148
215	0xbcb1af95	-0.02169017
216	0xbd947dc6	-0.07250552
217	0xbcb94d0b	-0.022619745
218	0xbd8ff94e	-0.07029973
219	0xbd466ae8	-0.048441797
220	0xbd56fd97	-0.052487936
221	0x3dbe5999	0.09294433
222	0x3d08c83d	0.033394087
223	0xbd406186	-0.046968006
224	0x3dd6ed87	0.104945235
225	0x3d99569d	0.07487223
226	0xbdd8842f	-0.10572087
227	0x3bc21021	0.005922333
228	0xbdf3a561	-0.11896778
229	0x3b0c5f61	0.0021419155
230	0x3d9ad27f	0.0755968
231	0xbc86e789	-0.016467826
232	0xbd6915a0	-0.05690539
233	0xbd4c1ae5	-0.049830336
234	0xbcfb3659	-0.030665563
235	0xbd9b42fa	-0.07581134
236	0x3cbd273f	0.023090003
237	0xbde8a509	-0.11359603
238	0xbdd0ee05	-0.102016486
239	0xbcdec17b	-0.027191868
240	0x3dc418f7	0.09575074
241	0x3d9b837b	0.07593437
242	0xbd6810ae	-0.056656532
243	0xbdf9b291	-0.12192262
244	0xbdafe964	-0.085894376
245	0x3df3975e	0.118941054
246	0x3dac08f0	0.08400142
247	0xbbc9a84f	-0.006154097
248	0x3df92d8d	0.12166891
249	0xbd0a03a6	-0.033694886
250	0x3cb5235c	0.022111587
251	0x3c036950	0.008020714
252	0xbd23dca0	-0.040005326
253	0x3c9f4fe6	0.019447278
254	0xbd9f1358	-0.077673614
255	0xbd2d8bb8	-0.042369574

dense3.bias f4 [64]
0	0xbd9d4e8c	-0.07680997
1	0x3d2cf862	0.042229064
2	0xbdafacf8	-0.08577913
3	0xbd53e4a8	-0.051731735
4	0x3de225d6	0.11042373
5	0xbdfe0491	-0.12403215
6	0xb8b787aa	-8.7513894e-05
7	0x3df9445a	0.1217124
8	0x3dd1e45a	0.10248633
9	0xbd1aad5b	-0.03776298
10	0x3cc6deaa	0.024276096
11	0x3cceed65	0.025259683
12	0x3a07f0ff	0.00051857525
13	0x3deeb9c0	0.11656523
14	0x3d3df139	0.046372626
15	0x3d753a0b	0.059869807
16	0x3d8dbaad	0.06920371
17	0x3dbba378	0.091620386
18	0xbd1f6595	-0.038915236
19	0xbd9765c6	-0.073924586
20	0xbbc37dd2	-0.0059659267
21	0xbd1f2508	-0.038853675
22	0xbd890161	-0.06689716
23	0x3dfa3161	0.122164495
24	0xbc7c0e35	-0.015384247
25	0xbdb7e001	-0.08978272
26	0xbd0308bb	-0.031990748
27	0x3dabd975	0.08391086
28	0x3c9f8004	0.019470222
29	0xbdfb7fb9	-0.122802205
30	0xbddefa2e	-0.10887562
31	0xbd4004dd	-0.046879638
32	0x3dfe41af	0.12414872
33	0x3d301999	0.04299316
34	0x3dc25a25	0.0948985
35	0xbde2239d	-0.11041949
36	0xbdefe287	-0.117131285
37	0xbd53b3f6	-0.051685296
38	0xbdb5c51c	-0.08875486
39	0xbddda39b	-0.10822221
40	0x3d29585a	0.041344024
41	0x3d6b70c7	0.0574806
42	0xbdf0e8c9	-0.1176315
43	0xbdcc22de	-0.09967588
44	0x3d595cc2	0.053066976
45	0xbc9dc511	-0.019259008
46	0xbd84ea52	-0.064900056
47	0xbc895941	-0.016766192
48	0xbc806dd7	-0.015677376
49	0x3d054a6f	0.03254169
50	0xbdc0a04e	-0.09405576
51	0xbd124847	-0.03571346
52	0x3d9360cb	0.07196196
53	0x3d02138b	0.03175692
54	0xbce8a59d	-0.028399283
55	0x3dce25c5	0.10065798
56	0x3d55908c	0.052139804
57	0x3dd08e92	0.10183443
58	0x3de90d07	0.11379438
59	0x3d1a1a1e	0.037622564
60	0xbc8514f1	-0.016245337
61	0x3df93c22	0.121696725
62	0xbda78444	-0.081795245
63	0x3d56803f	0.0523684

dense4.weight f4 [64, 64]
0	0x3d677c0d	0.05651479
1	0x3c9c9e36	0.01911841
2	0xbd7a829b	-0.06115971
3	0x3d4c891e	0.049935453
4	0x3d9612e4	0.07327822
5	0xbd243d6b	-0.040097635
6	0xbd2f332f	-0.04277342
7	0xbc96e7ff	-0.018421171
8	0xbcee476f	-0.029086797
9	0x3cf47c38	0.029844388
10	0xbdcffa83	-0.10155203
11	0x3deac29d	0.11462901
12	0x3d708143	0.058717024
13	0x3d14f4da	0.03636632
14	0x3d9b9c7c	0.075982064
15	0xbccb0b8b	-0.024785778
16	0x3d660cee	0.056164674
17	0x3d38b705	0.045096416
18	0xbd9ec65e	-0.07752679
19	0x3dd917ca	0.106002405
20	0xbddb6be3	-0.10713937
21	0xbcd9a572	-0.026568148
22	0x3d6b20ce	0.057404332
23	0x3d5b3323	0.053515565
24	0x3ddd9d3e	0.10821007
25	0xbdbb0757	-0.09132259
26	0x3cbbf0c3	0.022941953
27	0x3c722424	0.014779124
28	0x3d7ff0bc	0.06248544
29	0x3dc27d4e	0.09496556
30	0x3c9c263d	0.019061202
31	0x3df4ff3a	0.11962743
32	0xbdf708a6	-0.120621964
33	0x3ddde62a	0.10834916
34	0xbc466fd9	-0.0121116275
35	0xbdf06079	-0.11737151
36	0x3d8bff9b	0.06835862
37	0x3db207a1	0.08692861
38	0x3d2f3e3e	0.04278397
39	0xbd3b604f	-0.045746144
40	0xbdf161f8	-0.11786264
41	0xbdf1dc5f	-0.118096106
42	0x3b9d3d9c	0.004798604
43	0xbdd08541	-0.10181666
44	0xbde7a6ca	-0.11311109
45	0x3db604f9	0.08887667
46	0xbdaade9d	-0.08343241
47	0x3dace3bd	0.08441875
48	0x3c015ccf	0.007895662
49	0xbda5242b	-0.08063539
50	0x3d9a8b63	0.07546117
51	0xbbe6e9b8	-0.0070469044
52	0xbdf6f349	-0.12058122
53	0xbdb31b41	-0.08745433
54	0xbd31de5c	-0.04342495
55	0xbc7d0d05	-0.015444999
56	0x3ca76c21	0.020437302
57	0x3df7c174	0.12097445
58	0xbdb815f3	-0.089885615
59	0xbdbf6ba3	-0.09346702
60	0x3d13f123	0.036118638
61	0x3dfed34c	0.124426454
62	0xbda7fc54	-0.08202425
63	0x3dbbfacb	0.09178694
64	0x3d43a85a	0.047767974
65	0x3d854439	0.06507153
66	0x3b191155	0.0023356278
67	0x3d58db3f	0.052943464
68	0xbd900bbd	-0.07033489
69	0xbd9a21d0	-0.075259805
70	0xbcb0155a	-0.021494556
71	0x3c49b94a	0.012312243
72	0x3df50347	0.11963516
73	0xbad3667a	-0.0016128563
74	0xbb48fe7a	-0.0030669258
75	0xbc8b511d	-0.017006451
76	0xbdc0f2c9	-0.094213076
77	0xbd647f62	-0.055785544
78	0xbdb9b9bc	-0.09068629
79	0x3d58d101	0.052933697
80	0xbdea4c0e	-0.114402875
81	0xbde022b0	-0.10944116
82	0xbdfbe3a6	-0.1229928
83	0xbdf8652d	-0.12128673
84	0xbd251cc6	-0.040310644
85	0x3ca3905e	0.0199663
86	0x3d84516d	0.06460843
87	0x3da87def	0.08227145
88	0x3d47e283	0.048800003
89	0x3ddcd211	0.107822545
90	0xbd79d2be	-0.060991995
91	0x3df6a782	0.12043668
92	0x3dc42d86	0.095789954
93	0x3d427801	0.047477726
94	0xbd5e105c	-0.05421482
95	0xbdeb8ca7	-0.11501437
96	0x3dff1f45	0.12457136
97	0x3c977ae3	0.018491214
98	0x3dd16059	0.10223455
99	0xbd2c74cb	-0.04210357
100	0xbd779502	-0.06044484
101	0xbdd3b1de	-0.1033666
102	0x3de2a4f7	0.11066621
103	0x3d4b8c6f	0.049694475
104	0x3d5e33d0	0.05424863
105	0xbd1596cc	-0.036520764
106	0xbd263c9d	-0.04058515
107	0x3ddf6634	0.109081656
108	0x3d9cc25a	0.07654257
109	0x3db4ec3c	0.08834121
110	0xbd9e6324	-0.07733753
111	0xbdb55e36	-0.0885586
112	0x3c6927a3	0.014230642
113	0x3df49ab5	0.119435705
114	0xbd4c45d0	-0.049871266
115	0x3de37b13	0.11107459
116	0xb91a0f30	-0.00014692242
117	0x3c37ad8b	0.011210809
118	0x3dae6b5c	0.08516571
119	0x3d9548d4	0.072892815
120	0x3d973ee4	0.07385042
121	0x3df1ad51	0.118006356
122	0xbd0cdf13	-0.034392428
123	0xbda67db9	-0.081294484
124	0x3d70c626	0.05878272
125	0x3deef2d0	0.116674066
126	0x3cfedda1	0.03111154
127	0xbdca5e46	-0.098812625
128	0x3d890459	0.066902824
129	0xbd804401	-0.06262971
130	0xbd6e0717	-0.05811223
131	0xbd967330	-0.07346189
132	0xbd9c9671	-0.07645882
133	0x3c6d639f	0.014489084
134	0x3d2b81f3	0.041871976
135	0x3da294fa	0.07938571
136	0xbbcbf80b	-0.0062246374
137	0xbcd6c90e	-0.026218917
138	0x3d887ef3	0.06664839
139	0xbd3f28fc	-0.046669945
140	0xbd2a16e7	-0.041525748
141	0xbcfef35a	-0.031121898
142	0x3d2e9c84	0.042629734
143	0x3dd0ad9f	0.101893656
144	0xbc8da3d7	-0.017290039
145	0xbd979493	-0.07401385
146	0x3def888f	0.11695968
147	0x3d903b2f	0.070425384
148	0xbd9c0c10	-0.07619488
149	0x3a3341b8	0.0006838101
150	0x3dc6a1f4	0.09698859
151	0x3d030fdd	0.03199755
152	0xbcc356a8	-0.023845032
153	0xbc65d87f	-0.0140286675
154	0xbc839a19	-0.01606469
155	0x3c9911c1	0.018685224
156	0x3d5d7185	0.05406334
157	0x3cc99ac9	0.02460994
158	0x3c87503f	0.016517757
159	0x3b19a09e	0.0023441683
160	0x3d37f51e	0.044911496
161	0xbcd40223	-0.025879925
162	0xbd8fc128	-0.070192635
163	0x3dd40ab6	0.103536054
164	0xbdb664c8	-0.08905941
165	0xbcdce503	-0.02696467
166	0xbd27934c	-0.040911958
167	0xbdae178d	-0.08500586
168	0x3c93c1ac	0.018036686
169	0xbde90d04	-0.11379436
170	0xbd346090	-0.0440374
171	0x3df9454c	0.121714205
172	0x3c78b353	0.015179473
173	0x3da9cec3	0.0829139
174	0xbdbdb1c3	-0.09262421
175	0x3df72cad	0.12069068
176	0xbd449ef6	-0.04800316
177	0x3c00e0ca	0.007866094
178	0xbb09f990	-0.0021053292
179	0x3d107fc2	0.03527809
180	0x3c354117	0.011062882
181	0x3b886957	0.004162948
182	0xbdbad675	-0.09122936
183	0xbd4ed8db	-0.05049978
184	0x3d0c70cb	0.034287255
185	0x3d68ef92	0.056869097
186	0xbd007e25	-0.0313703
187	0x3d848f19	0.06472606
188	0x3d7e985c	0.06215702
189	0x3a5b9e66	0.000837779
190	0xbd06c93d	-0.03290676
191	0x3c966bf4	0.018362023
192	0x3df16f43	0.117887996
193	0xba889055	-0.0010418991
194	0xbce36d89	-0.027762191
195	0x3dcb66d9	0.09931726
196	0xbd2070e6	-0.03917017
197	0xbca350f4	-0.019936062
198	0x3d5fc91c	0.054635152
199	0xbd898b03	-0.067159675
200	0x3c1aa2bd	0.009438214
201	0xbc51a4ed	-0.012795669
202	0x3d8512f2	0.06497754
203	0xbbbc8545	-0.0057531917
204	0xbdbe2d11	-0.092859395
205	0xbd9201be	-0.071292385
206	0xbd9dd595	-0.07706753
207	0x3dd8288c	0.10554609
208	0xbd84caf4	-0.06484023
209	0x3d6cabef	0.057781156
210	0xbd8a9370	-0.06766403
211	0x3db26240	0.08710146
212	0x3dcb9b98	0.099417865
213	0xbd973ee0	-0.07385039
214	0x3dcbcef5	0.09951583
215	0xbd0ba266	-0.034090422
216	0x3da0c3a1	0.07849813
217	0xbd9e4f35	-0.07729951
218	0xbd08a56f	-0.033360895
219	0xbdecae8f	-0.11556732
220	0x3d4bb3b7	0.049731936
221	0xbd53b46e	-0.051685743
222	0xbd6e039a	-0.058108903
223	0x3adc7c82	0.0016821774
224	0xbc83c243	-0.016083842
225	0xbd1d4c32	-0.038402744
226	0x3db18b86	0.0866919
227	0x3d70dfbb	0.058807116
228	0xbd09deaa	-0.033659615
229	0xbd736712	-0.059424467
230	0x3dbdce79	0.09267897
231	0xbd4f60bb	-0.05062936
232	0xbd96ae21	-0.07357431
233	0xbd231563	-0.039815318
234	0x3d9a01bc	0.07519862
235	0xbdb27110	-0.08712971
236	0xbdbe170c	-0.092817396
237	0xbc965bc4	-0.018354304
238	0x3dfb7027	0.12277251
239	0xbb86b8d7	-0.00411139
240	0x3de34901	0.11097909
241	0xbd0f2c69	-0.034954462
242	0x3d3eb118	0.04655561
243	0x3dad991d	0.0847647
244	0xbd885384	-0.06656554
245	0xbdb6bea7	-0.08923083
246	0x3dd45688	0.10368067
247	0x3dc82d9e	0.09774326
248	0xbd30a6e3	-0.043127906
249	0xbdf5886a	-0.119889095
250	0x3b41aa87	0.0029551105
251	0x3d7a9393	0.061175894
252	0x3dc7a75c	0.09748718
253	0x3d7f2239	0.062288497
254	0xbb787640	-0.003791228
255	0x3cc2231c	0.023698382

dense4.bias f4 [64]
0	0xbd97bc10	-0.07408917
1	0xbdf2d9c3	-0.11857941
2	0xbca38ea6	-0.019965481
3	0xbd9f258a	-0.07770832
4	0x3dce6067	0.10076981
5	0x3c0b725b	0.008511151
6	0xbdaa09f2	-0.08302678
7	0x3dad3fee	0.08459459
8	0xbc287569	-0.010281899
9	0xbc81b3ce	-0.015832808
10	0x3d635a08	0.055505782
11	0x3dabac9a	0.083825305
12	0x3cffacb0	0.031210274
13	0x39850b20	0.00025376026
14	0x3dafb495	0.08579365
15	0xbd970aea	-0.073751286
16	0x3d3cf0db	0.046128135
17	0x3de6ec52	0.11275543
18	0x3dd87fb9	0.10571236
19	0xbda70e41	-0.081570156
20	0x3dc80e00	0.09768295
21	0xbd48a723	-0.04898752
22	0x3db63907	0.08897596
23	0x3d5c6c39	0.053814147
24	0x3daba862	0.08381726
25	0x3d59fdf7	0.053220715
26	0xbdc3a030	-0.09552038
27	0x3ca6e8b3	0.020374632
28	0xbcdc8657	-0.026919527
29	0x3daf03e1	0.08545662
30	0xbcc28271	-0.02374384
31	0x3d52a987	0.051431205
32	0x3e0101fa	0.1259841
33	0xbd092fb2	-0.03349275
34	0x3c55c7f2	0.013048159
35	0xbd76e2ff	-0.060275074
36	0x3dbb854b	0.09156283
37	0x3d9d05c5	0.07667116
38	0xbd455d18	-0.048184484
39	0xbc8d5696	-0.017253201
40	0xbda85b1e	-0.08220504
41	0x3d989ee6	0.074521825
42	0x3cbd3e4c	0.023100995
43	0x3d90c915	0.07069603
44	0x3df9928e	0.12186156
45	0xbdad281c	-0.08454916
46	0xbdcff2be	-0.10153721
47	0xbdd6de93	-0.104916714
48	0x3d00effa	0.03147886
49	0x3ca12d43	0.019674903
50	0xbbfa8b15	-0.0076459744
51	0x3def0de1	0.11672569
52	0x3dfff215	0.12497345
53	0x3c38bb1d	0.01127508
54	0xbd99155b	-0.07474776
55	0xbba15379	-0.004923281
56	0xbdfa8599	-0.12232513
57	0xbd502a6a	-0.0508217
58	0x3cfc6c6e	0.030813422
59	0x3dcbe224	0.09955242
60	0x3d8a78de	0.06761335
61	0x3dcf1ff5	0.10113517
62	0x3dacf94d	0.08445988
63	0x3d9f35cb	0.07773932

dense5.weight f4 [64, 64]
0	0x3de7b823	0.11314418
1	0xbd747060	-0.05967748
2	0xbc26580d	-0.010152829
3	0xbc06300b	-0.008190165
4	0xbd86ea4d	-0.06587658
5	0xbc891ecd	-0.01673832
6	0xbdea3b90	-0.11437142
7	0xbdd27d72	-0.10277833
8	0xbd6c4a8e	-0.05768829
9	0x3db36a54	0.08760515
10	0x3dbea80a	0.09309395
11	0x3d1639aa	0.036676086
12	0x3d2d650c	0.042332694
13	0xbd3ff743	-0.046866667
14	0x3df7dad8	0.12102288
15	0xbc8c4803	-0.017124182
16	0xbda7113f	-0.08157586
17	0x3ae04c15	0.0017112518
18	0xbdd7d20f	-0.10538112
19	0xbca2891f	-0.019840775
20	0x3d11c4ab	0.035587948
21	0x3d164274	0.03668447
22	0xbab0de5b	-0.0013494001
23	0xbd1d1418	-0.03834924
24	0x3d210c21	0.039318208
25	0x3daa1aa5	0.08305863
26	0xbd185aba	-0.0371959
27	0xbd6a8bda	-0.05726228
28	0xbd6d5b10	-0.057948172
29	0xbb885e8a	-0.0041616606
30	0xbd08ab81	-0.033366684
31	0x3d87690f	0.06611835
32	0xbd8ac639	-0.06776089
33	0xba5a3b20	-0.00083248504
34	0xbcf9c57a	-0.030489672
35	0xbd3e56c7	-0.046469476
36	0xbcb7011c	-0.022339396
37	0x3c7a37a4	0.015272055
38	0x3c842339	0.016130077
39	0xbd6d654f	-0.057957944
40	0x3cd3058b	0.025759479
41	0xbd9465f3	-0.07246008
42	0xbd94f417	-0.07273119
43	0x3da976b6	0.082745954
44	0x3b1de600	0.002409339
45	0x3d543b0d	0.051814128
46	0x3d6390d8	0.055558056
47	0x3d98e288	0.074650824
48	0x3d00a3e3	0.031406295
49	0x3d2bedba	0.04197476
50	0x3d33b56d	0.043874193
51	0xbdb5eeb4	-0.0888342
52	0x3d837da3	0.06420448
53	0xbbe89689	-0.0070980233
54	0x3d01fb9b	0.03173409
55	0x3a1fa13d	0.0006089395
56	0x3bb2ca64	0.0054562557
57	0xbc1ad433	-0.009450006
58	0xbdd037c3	-0.10166886
59	0xbd119d21	-0.03555024
60	0xbd25e14d	-0.040498067
61	0xbd83e021	-0.064392336
62	0x3daa24fa	0.08307834
63	0xbd7b6214	-0.06137283
64	0xbd34a8b3	-0.044106197
65	0x3da7aaaa	0.081868485
66	0x3df57b6a	0.1198643
67	0xbd252e75	-0.040327508
68	0x3dacf5df	0.08445334
69	0xbc88f497	-0.016718192
70	0x3cb58242	0.022156838
71	0xbd9b6b4c	-0.07588825
72	0xbd085a14	-0.03328903
73	0xbcee76d9	-0.029109405
74	0x3d8cbc9f	0.06871914
75	0xbddd5e2c	-0.108089775
76	0x3dc4d1cb	0.09610327
77	0xbdd134ff	-0.10215186
78	0xbdadcbf2	-0.08486165
79	0xbde43ac0	-0.11144018
80	0x3de56f57	0.11202877
81	0xbdec2963	-0.115313314
82	0xbd64ba2c	-0.05584161
83	0xbc7637e9	-0.015027978
84	0xbcf8274f	-0.030292181
85	0xbad46185	-0.001620338
86	0xbdcce225	-0.10004071
87	0x3daf346c	0.085549206
88	0xbd2d3425	-0.042286057
89	0xbd60f45e	-0.054920547
90	0x3d78a494	0.06070383
91	0xbd912436	-0.07086985
92	0xbd8a69cc	-0.067584604
93	0x3de47514	0.111551434
94	0x3c384847	0.011247701
95	0x3dc8187d	0.09770296
96	0x3d97c9c7	0.07411533
97	0xbc293420	-0.010327369
98	0xbdf22924	-0.11824253
99	0xbd2fba64	-0.042902365
100	0xbc66cd52	-0.014087038
101	0x3d9e3038	0.07724041
102	0xbde3c700	-0.111219406
103	0xbdb316df	-0.08744597
104	0x3cf162cc	0.029466055
105	0x3c420a97	0.011843345
106	0x3c9fce54	0.019507565
107	0x3de5d9b6	0.11223166
108	0x3ce465be	0.027880546
109	0xbcc28d9d	-0.023749167
110	0xbde1bbdf	-0.11022162
111	0x3de11e34	0.10992089
112	0x3d586083	0.052826416
113	0xbdacf6a2	-0.08445479
114	0x3da4a31c	0.08038923
115	0xbdbd53af	-0.09244477
116	0xbdd0b14e	-0.10190068
117	0x3d2a108e	0.041519694
118	0xbd8b05c9	-0.06788213
119	0x3d008b14	0.031382635
120	0x3c79e835	0.015253116
121	0xbdc9c8f5	-0.09852783
122	0xbdf4e709	-0.11958129
123	0xbd947990	-0.07249749
124	0x3cc63bc9	0.02419843
125	0x3da8ade9	0.08236296
126	0x3d2835fb	0.041067105
127	0xbd5014f3	-0.05080123
128	0x3baa3ddb	0.005195362
129	0xbd6f9acf	-0.058497246
130	0xbd86f134	-0.065889746
131	0xbcbe9ff9	-0.02326964
132	0xbd8a20ee	-0.06744562
133	0xbdb68b41	-0.08913279
134	0xbdf9a639	-0.121899076
135	0xbd82e5ca	-0.06391485
136	0x3da7081f	0.08155846
137	0x3db81ece	0.089902505
138	0x3df7526c	0.120762676
139	0xbcbc4114	-0.02298025
140	0x3d4e9eb2	0.050444312
141	0xbde2a508	-0.110666335
142	0x3d56cbf9	0.052440617
143	0x3d70b25f	0.058763858
144	0xbd9c7b07	-0.07640653
145	0xbdd8f6a0	-0.10593915
146	0x3d9dfb89	0.07713992
147	0x3d9da7e9	0.07698042
148	0x3de24941	0.11049128
149	0x3de1beeb	0.11022743
150	0xbd918559	-0.07105512
151	0xbda0917f	-0.07840251
152	0xbca92d17	-0.020651383
153	0xbde6795f	-0.112536184
154	0x3c99dd64	0.018782325
155	0xbd5e3587	-0.054250266
156	0xbd61f1d8	-0.05516228
157	0x3dc4d605	0.096111335
158	0xbdfea98a	-0.12434681
159	0x3d01d70f	0.031699236
160	0x3d24777f	0.040153023
161	0x3d394358	0.04523024
162	0xbd5cb3f7	-0.053882565
163	0x3d07faba	0.033198096
164	0x3dd7843d	0.10523269
165	0x3cd711c2	0.026253585
166	0x3dfb233f	0.12262582
167	0x3dcc4f35	0.09976045
168	0x3d941a74	0.07231608
169	0x3c06c30c	0.008225214
170	0x3d4d3734	0.050101474
171	0x3d62ca44	0.055368677
172	0x3dd25650	0.10270369
173	0x3d87d987	0.06633287
174	0x3cf2440d	0.029573465
175	0xbc2c0968	-0.0105002895
176	0xbdc3ea2b	-0.09566148
177	0xbbe8e9ea	-0.007107963
178	0x3cfa04c7	0.030519856
179	0xbda89f43	-0.08233502
180	0x3d18867d	0.037237633
181	0xbd839081	-0.06424046
182	0x3cfa5ae8	0.030560926
183	0xbdac1a9f	-0.08403515
184	0xbd186d13	-0.037213396
185	0xbdfb0943	-0.12257626
186	0xbdc79639	-0.097454496
187	0x3d7c0728	0.061530262
188	0x3c04c2ad	0.008103055
189	0xbdd43887	-0.10362344
190	0x3d7cdb60	0.06173265
191	0xbde2f5a3	-0.11082008
192	0xbde7f855	-0.113266625
193	0xbdd30737	-0.103041105
194	0xbd426b2a	-0.04746548
195	0xbd314544	-0.043278947
196	0x3de234f9	0.1104526
197	0xbde51f15	-0.11187569
198	0x3d028678	0.03186652
199	0xbcc0e38e	-0.023546007
200	0xbdb4f4bf	-0.08835744
201	0x3de913fe	0.11380766
202	0xbcdc3ca8	-0.026884392
203	0x3c97c8e9	0.018528419
204	0x3d1ddce1	0.038540725
205	0xbdfa9beb	-0.1223677
206	0xbdbfff18	-0.09374827
207	0xbbd121b5	-0.006382192
208	0x3d84897e	0.06471537
209	0x3de1e1af	0.11029374
210	0x3de2fc61	0.11083294
211	0x3d5be7fc	0.053688034
212	0xbdecd975	-0.11564914
213	0xbc923ebd	-0.017852182
214	0xbdff4d7a	-0.12465949
215	0xbca23409	-0.019800203
216	0xbdc5a959	-0.09651441
217	0x3dcaff91	0.09912027
218	0x3d15816d	0.036500383
219	0xbdca1a5f	-0.09868311
220	0xbce21b66	-0.027600955
221	0x3dbf6d6f	0.09347045
222	0x3d62c856	0.055366836
223	0x3d09d7c4	0.033653036
224	0xbd0cec7b	-0.034405213
225	0xbbac7010	-0.0052623823
226	0xbdbf1c2a	-0.09331544
227	0x3dccfc87	0.10009103
228	0xbc7ed2c3	-0.015553179
229	0xbde3933d	-0.11112068
230	0x3d3d1c28	0.04616943
231	0x3c493685	0.012281065
232	0xbd062287	-0.03274777
233	0xbda899ff	-0.082324974
234	0x3d1e642a	0.038669743
235	0xbdcde594	-0.10053554
236	0xbdc90982	-0.098162666
237	0xbc700c29	-0.014651337
238	0xbd866523	-0.06562259
239	0xbdf8e63a	-0.12153287
240	0x3d93de2c	0.0722011
241	0x3dd9433b	0.10608526
242	0xbd0bc9b6	-0.034127913
243	0x3da00bdb	0.07814761
244	0x3df0bb0d	0.11754427
245	0xbdc294da	-0.095010474
246	0xbced4f45	-0.028968463
247	0xbcc1476d	-0.023593629
248	0xbb5d4238	-0.0033761393
249	0x3dc616f7	0.09672349
250	0x3d0184b5	0.0316207
251	0xbc895a83	-0.016766792
252	0x3d81ed7b	0.06344124
253	0xbcc03495	-0.023462573
254	0xbbc7018f	-0.006073184
255	0x3d14fcee	0.036374025

dense5.bias f4 [64]
0	0x3d3678db	0.04454885
1	0x3d8c2c19	0.068443485
2	0x3c3dc20e	0.011581911
3	0xbd45c166	-0.048280142
4	0x3d62b98f	0.055352744
5	0x3d571966	0.052514456
6	0x3da51251	0.08060134
7	0xbd1ddd30	-0.03854102
8	0xbd9d588e	-0.07682906
9	0x3de45354	0.11148706
10	0xbcd4e177	-0.025986416
11	0x3db56754	0.08857599
12	0x3d0d0ada	0.034434177
13	0x3c295158	0.010334335
14	0x3cfbf977	0.030758603
15	0x3d440f80	0.047866344
16	0xbd1d45ae	-0.03839653
17	0x3ddbad08	0.107263625
18	0xbd3c4db3	-0.045972537
19	0x3d3f31e9	0.046678457
20	0x3ddbaf50	0.107267976
21	0x3d8d52be	0.069005474
22	0xbde2294c	-0.11043033
23	0x3dc2e2e7	0.095159344
24	0x3d19f69f	0.03758871
25	0xbdbc0019	-0.09179706
26	0xbdf527a2	-0.1197045
27	0x3d88e5a6	0.06684427
28	0xbda16dec	-0.07882294
29	0x3daabcdd	0.08336804
30	0x3d024af0	0.031809747
31	0x3d7b03b0	0.061282814
32	0xbcb21f3d	-0.021743411
33	0xbda6345b	-0.08115455
34	0x3d6431a2	0.055711396
35	0x3de66437	0.11249583
36	0x3db3f888	0.08787638
37	0x3d45d1a8	0.048295647
38	0xbc6f888e	-0.0146199595
39	0xbc92134c	-0.017831467
40	0x3d63a402	0.055576332
41	0x3cb7f068	0.022453502
42	0xbc525efa	-0.012840027
43	0x3dd2d407	0.10294347
44	0x3dbe9637	0.09305995
45	0xbc6ac227	-0.014328516
46	0xbd949be3	-0.072562955
47	0xbcb8e369	-0.022569375
48	0x3d84c8b6	0.06483595
49	0x3ddaed9b	0.10689851
50	0x3dd2a469	0.10285265
51	0x3debbbad	0.11510406
52	0x3ddde359	0.10834379
53	0xbdb5d929	-0.08879311
54	0xbd20b84b	-0.039238255
55	0xbd871809	-0.06596381
56	0x3ca0b2fd	0.019616598
57	0x3dc74902	0.09730722
58	0x3d94f325	0.07272939
59	0x3dbc1b31	0.09184874
60	0x3dde98a3	0.10868957
61	0x3df6c363	0.12048986
62	0x3df56f6a	0.11984141
63	0x3debfec1	0.115232

dense6.weight f4 [2, 64]
0	0x3cbf3f5b	0.02334564
1	0x3bf1f5a3	0.0073840185
2	0xbdc34839	-0.0953526
3	0xbd885abd	-0.06657932
4	0xbda189a8	-0.07887584
5	0xbd493283	-0.049120437
6	0xbd9aa812	-0.07551588
7	0xbdccfee2	-0.100095525
8	0xbd3ba2c8	-0.045809537
9	0x3dab07be	0.08351086
10	0xbd65c97c	-0.056100354
11	0xbd11e907	-0.035622623
12	0xbcaba8bf	-0.020954488
13	0xbcbe9109	-0.023262518
14	0xbdb6fd45	-0.08935026
15	0xbd88d6b6	-0.06681578
16	0xbc4483ab	-0.011994283
17	0xbdc49593	-0.095988415
18	0xbdf39b45	-0.1189485
19	0xbbeebd84	-0.0072857756
20	0xbdb99538	-0.09061664
21	0x3cf7de9f	0.030257521
22	0xbd23800f	-0.039917048
23	0xbdc8afa7	-0.09799128
24	0x3bb697d1	0.005572297
25	0x3d4b294f	0.04959994
26	0xbc1b9c73	-0.00949775
27	0xbc57e9cb	-0.013178299
28	0x3dd82d8b	0.10555562
29	0xbd900f5f	-0.07034182
30	0xbc8ab73a	-0.016933072
31	0xbda7cfd1	-0.08193935
32	0xbb96eec6	-0.0046061007
33	0x3daab8f0	0.08336055
34	0xbdbfadd4	-0.09359327
35	0xbd8ae226	-0.06781416
36	0xbcaec120	-0.021332324
37	0x3cd0f4c8	0.025507346
38	0x3cadad4a	0.021200795
39	0xbd0b16d2	-0.03395731
40	0xbc972070	-0.018448085
41	0xbd2ae066	-0.04171791
42	0x3bfaf665	0.007658767
43	0xbd278bde	-0.040904872
44	0xbdde3771	-0.10850418
45	0xbda04183	-0.07824995
46	0xbd97897a	-0.073992684
47	0x3b40a572	0.0029395488
48	0xbdb28b29	-0.08717949
49	0xbcdfd225	-0.027321884
50	0xbdaa9a4f	-0.08330213
51	0x3bfc46fd	0.007698892
52	0xbd48d26a	-0.04902879
53	0x3cd553b9	0.026040899
54	0x3ded242b	0.11579164
55	0xbd1ff12a	-0.03904835
56	0xb9bc8b62	-0.00035962003
57	0x3d809028	0.062774956
58	0xbbd76bf6	-0.0065741492
59	0x3df1b046	0.118011996
60	0xbdcbb298	-0.099461734
61	0x3c0e71c4	0.008694116
62	0xbd2cf6d8	-0.042227596
63	0xbdab3221	-0.08359171
64	0x3d587e0c	0.052854583
65	0x3bde2d45	0.006780299
66	0xbde2d3b2	-0.11075534
67	0xbcfdb685	-0.030970821
68	0xbd06357c	-0.03276585
69	0x3d0580af	0.032593425
70	0x3d4847b9	0.048896525
71	0x3dcf6ee8	0.101285756
72	0xbd0117c5	-0.03151681
73	0xbd9d635a	-0.076849654
74	0x3d165151	0.036698643
75	0xbda6a2cb	-0.08136519
76	0x3d96cd61	0.07363392
77	0xbd80c095	-0.06286732
78	0x3d4cc548	0.04999283
79	0x3d3fc735	0.046820838
80	0xbd254524	-0.04034914
81	0x3d2012c8	0.03908041
82	0xbd6f58fa	-0.058434464
83	0x3c95eea4	0.01830227
84	0x3dc19f04	0.09454158
85	0x3d9a3b48	0.07530838
86	0xbdc8e0d0	-0.098085046
87	0xbdaf3ae7	-0.085561566
88	0x3dd193d2	0.102332726
89	0xbd931e24	-0.07183483
90	0xbdc1bd3d	-0.094599225
91	0xbd04be8a	-0.032408275
92	0xbdd34a9c	-0.10316965
93	0xbd4b2310	-0.049593985
94	0x3d4c62f8	0.04989907
95	0x3d456537	0.04819223
96	0xbde5600e	-0.111999616
97	0xbd988537	-0.07447284
98	0x3dcaba05	0.09898762
99	0x3a67e96d	0.0008846734
100	0x3dd76f84	0.10519317
101	0x3db273f4	0.087135226
102	0xbdc6d089	-0.09707744
103	0xbddb2136	-0.10699694
104	0xbdeca3de	-0.11554693
105	0xbd3b9c9f	-0.045803662
106	0xbdbaf8c4	-0.091294795
107	0x3dce821b	0.100834094
108	0xbd2cd272	-0.042192884
109	0xbdd38069	-0.10327227
110	0xbd2cb6cc	-0.042166516
111	0x3da5b537	0.080912046
112	0xbdc112dc	-0.09427425
113	0x3d96b143	0.07358029
114	0x3d66c5b2	0.05634088
115	0x3dc62867	0.09675675
116	0x3b94c8b0	0.0045405254
117	0x3daaf6a7	0.083478265
118	0x3df93003	0.12167361
119	0xbdd963e0	-0.10614753
120	0x3d898f89	0.0671683
121	0x3d9eda9f	0.077565424
122	0xbddd5528	-0.10807258
123	0x3d770943	0.060311567
124	0x3dd50244	0.10400823
125	0xbd2aa6f0	-0.04166311
126	0xbd761da6	-0.06008687
127	0xbd0837ed	-0.03325646

dense6.bias f4 [2]
0	0xbc3a8950	-0.011385277
1	0xbd96735d	-0.073462225
