DenseNeuralNet/Skim3Mu/MHc-100_MA-95_vs_nonprompt/models/SNN-nNodes64_Adam_initLR-0p001_StepLR.pt (torch, 84914 bytes, 16 tensors)

bn.weight f4 [47]
0	0x3f800000	1.0
1	0x3f800000	1.0
2	0x3f800000	1.0
3	0x3f800000	1.0
4	0x3f800000	1.0
5	0x3f800000	1.0
6	0x3f800000	1.0
7	0x3f800000	1.0
8	0x3f800000	1.0
9	0x3f800000	1.0
10	0x3f800000	1.0
11	0x3f800000	1.0
12	0x3f800000	1.0
13	0x3f800000	1.0
14	0x3f800000	1.0
15	0x3f800000	1.0
16	0x3f800000	1.0
17	0x3f800000	1.0
18	0x3f800000	1.0
19	0x3f800000	1.0
20	0x3f800000	1.0
21	0x3f800000	1.0
22	0x3f800000	1.0
23	0x3f800000	1.0
24	0x3f800000	1.0
25	0x3f800000	1.0
26	0x3f800000	1.0
27	0x3f800000	1.0
28	0x3f800000	1.0
29	0x3f800000	1.0
30	0x3f800000	1.0
31	0x3f800000	1.0
32	0x3f800000	1.0
33	0x3f800000	1.0
34	0x3f800000	1.0
35	0x3f800000	1.0
36	0x3f800000	1.0
37	0x3f800000	1.0
38	0x3f800000	1.0
39	0x3f800000	1.0
40	0x3f800000	1.0
41	0x3f800000	1.0
42	0x3f800000	1.0
43	0x3f800000	1.0
44	0x3f800000	1.0
45	0x3f800000	1.0
46	0x3f800000	1.0

bn.bias f4 [47]
0	0x00000000	0.0
1	0x00000000	0.0
2	0x00000000	0.0
3	0x00000000	0.0
4	0x00000000	0.0
5	0x00000000	0.0
6	0x00000000	0.0
7	0x00000000	0.0
8	0x00000000	0.0
9	0x00000000	0.0
10	0x00000000	0.0
11	0x00000000	0.0
12	0x00000000	0.0
13	0x00000000	0.0
14	0x00000000	0.0
15	0x00000000	0.0
16	0x00000000	0.0
17	0x00000000	0.0
18	0x00000000	0.0
19	0x00000000	0.0
20	0x00000000	0.0
21	0x00000000	0.0
22	0x00000000	0.0
23	0x00000000	0.0
24	0x00000000	0.0
25	0x00000000	0.0
26	0x00000000	0.0
27	0x00000000	0.0
28	0x00000000	0.0
29	0x00000000	0.0
30	0x00000000	0.0
31	0x00000000	0.0
32	0x00000000	0.0
33	0x00000000	0.0
34	0x00000000	0.0
35	0x00000000	0.0
36	0x00000000	0.0
37	0x00000000	0.0
38	0x00000000	0.0
39	0x00000000	0.0
40	0x00000000	0.0
41	0x00000000	0.0
42	0x00000000	0.0
43	0x00000000	0.0
44	0x00000000	0.0
45	0x00000000	0.0
46	0x00000000	0.0

bn.running_mean f4 [47]
0	0x00000000	0.0
1	0x00000000	0.0
2	0x00000000	0.0
3	0x00000000	0.0
4	0x00000000	0.0
5	0x00000000	0.0
6	0x00000000	0.0
7	0x00000000	0.0
8	0x00000000	0.0
9	0x00000000	0.0
10	0x00000000	0.0
11	0x00000000	0.0
12	0x00000000	0.0
13	0x00000000	0.0
14	0x00000000	0.0
15	0x00000000	0.0
16	0x00000000	0.0
17	0x00000000	0.0
18	0x00000000	0.0
19	0x00000000	0.0
20	0x00000000	0.0
21	0x00000000	0.0
22	0x00000000	0.0
23	0x00000000	0.0
24	0x00000000	0.0
25	0x00000000	0.0
26	0x00000000	0.0
27	0x00000000	0.0
28	0x00000000	0.0
29	0x00000000	0.0
30	0x00000000	0.0
31	0x00000000	0.0
32	0x00000000	0.0
33	0x00000000	0.0
34	0x00000000	0.0
35	0x00000000	0.0
36	0x00000000	0.0
37	0x00000000	0.0
38	0x00000000	0.0
39	0x00000000	0.0
40	0x00000000	0.0
41	0x00000000	0.0
42	0x00000000	0.0
43	0x00000000	0.0
44	0x00000000	0.0
45	0x00000000	0.0
46	0x00000000	0.0

bn.running_var f4 [47]
0	0x3f800000	1.0
1	0x3f800000	1.0
2	0x3f800000	1.0
3	0x3f800000	1.0
4	0x3f800000	1.0
5	0x3f800000	1.0
6	0x3f800000	1.0
7	0x3f800000	1.0
8	0x3f800000	1.0
9	0x3f800000	1.0
10	0x3f800000	1.0
11	0x3f800000	1.0
12	0x3f800000	1.0
13	0x3f800000	1.0
14	0x3f800000	1.0
15	0x3f800000	1.0
16	0x3f800000	1.0
17	0x3f800000	1.0
18	0x3f800000	1.0
19	0x3f800000	1.0
20	0x3f800000	1.0
21	0x3f800000	1.0
22	0x3f800000	1.0
23	0x3f800000	1.0
24	0x3f800000	1.0
25	0x3f800000	1.0
26	0x3f800000	1.0
27	0x3f800000	1.0
28	0x3f800000	1.0
29	0x3f800000	1.0
30	0x3f800000	1.0
31	0x3f800000	1.0
32	0x3f800000	1.0
33	0x3f800000	1.0
34	0x3f800000	1.0
35	0x3f800000	1.0
36	0x3f800000	1.0
37	0x3f800000	1.0
38	0x3f800000	1.0
39	0x3f800000	1.0
40	0x3f800000	1.0
41	0x3f800000	1.0
42	0x3f800000	1.0
43	0x3f800000	1.0
44	0x3f800000	1.0
45	0x3f800000	1.0
46	0x3f800000	1.0

dense1.weight f4 [64, 47]
0	0xbdf8d11c	-0.121492594
1	0xbd46ef93	-0.04856832
2	0x3e062e4a	0.13103595
3	0xbd854e52	-0.06509079
4	0x3e00c860	0.12576437
5	0x3b971ca7	0.00461157
6	0xbe58f77b	-0.21188156
7	0x3e55b7fa	0.20870963
8	0x3b764185	0.0037575674
9	0xbc3d9d6c	-0.011573177
10	0x3d75aa26	0.05997672
11	0x3c83bfb3	0.01608262
12	0x3dfdb909	0.12388808
13	0x3d78bbe8	0.060726076
14	0xbe780397	-0.2422012
15	0xbd3ccdf6	-0.046094857
16	0xbd035c8d	-0.032070685
17	0x3d27ff4e	0.041014962
18	0x3d80738c	0.06272039
19	0xbe2ff59e	-0.1718354
20	0x3e9ec910	0.31012774
21	0xbe03a5c8	-0.1285621
22	0x3d9ff570	0.07810485
23	0xbe1d93f7	-0.15388475
24	0xbc4101cc	-0.011780214
25	0x3ddd5968	0.108080685
26	0x3f5e6cf4	0.86885
27	0xbc8c256e	-0.017107692
28	0xbe2267c6	-0.15859899
29	0xbe494995	-0.19656976
30	0xbdf91ebc	-0.12164065
31	0xbeb23427	-0.34805414
32	0xbe93552f	-0.28775927
33	0xbdd016a9	-0.10160572
34	0xbe52a8a8	-0.2057215
35	0xbe4727c1	-0.19448759
36	0xbbbfcc43	-0.0058532073
37	0xbcdf56b2	-0.02726302
38	0x3e035776	0.12826332
39	0xbc8f8bcb	-0.017522713
40	0xbdb50980	-0.088397026
41	0xbdb015f8	-0.0859794
42	0x3e04da46	0.1297389
43	0x3dbc42b2	0.091924086
44	0x3fa2d13a	1.2720101
45	0xbd8e59f8	-0.06950754
46	0x3f76de9c	0.96433425
47	0xbe32f02d	-0.17474432
48	0x3cd2b1b2	0.025719497
49	0xbe197673	-0.14986591
50	0xbe115da0	-0.14195871
51	0xbda4bd47	-0.08043914
52	0xbdc4fdc0	-0.096187115
53	0x3d80e22d	0.062931396
54	0xbd4e976c	-0.050437376
55	0xbddbb0ae	-0.10727058
56	0x3e28634e	0.16444132
57	0xbce10c36	-0.027471643
58	0x3dcd01c3	0.10010102
59	0xbd46c5ad	-0.048528362
60	0xbe2ca972	-0.16861513
61	0xbe4de8c9	-0.20108332
62	0x3a8e4bc0	0.0010856315
63	0xbd2a5b6e	-0.0415911
64	0x3e44d300	0.19221115
65	0xbc3d008f	-0.011535778
66	0x3e13c41e	0.14430282
67	0xbee333da	-0.44375497
68	0x3bfc5b00	0.0077012777
69	0x3d1b290d	0.037880946
70	0x3df6c4d8	0.12049264
71	0x3cade59e	0.021227654
72	0xbdea4893	-0.11439624
73	0xbf83b485	-1.0289465
74	0xbd2e02ee	-0.042483263
75	0x3e0cd555	0.13753255
76	0x3e233d8c	0.15941447
77	0x3f0bc2ad	0.54593927
78	0x3eaaf186	0.33387393
79	0x3da9b92e	0.08287273
80	0x3ed0a6bc	0.40752208
81	0x3e98b71b	0.29827198
82	0x3e33db90	0.17564225
83	0x3d525e0f	0.051359233
84	0xbc5596c3	-0.013036433
85	0xbe7c1349	-0.24616732
86	0x3d4d829f	0.050173398
87	0xbd39034a	-0.045169152
88	0x3c2b9901	0.010473491
89	0x3e129b71	0.14317109
90	0xbd1c160d	-0.038106967
91	0xbfd3365a	-1.6500962
92	0x3e83fec0	0.25780296
93	0xbf8158e8	-1.0105257
94	0xbe1dfec8	-0.15429223
95	0xbe1c37b4	-0.15255624
96	0xbc0991e6	-0.008396601
97	0x3c3cd00b	0.011524211
98	0xbdebb923	-0.115099214
99	0xbe0aea25	-0.13565882
100	0xbd71d6ad	-0.05904262
101	0x3d5b6ba1	0.05356944
102	0x3d85793e	0.06517266
103	0xbec98bf4	-0.39364588
104	0x3d03c5ef	0.032171186
105	0xbd9659bb	-0.073413335
106	0xbd5bca55	-0.053659756
107	0x3cfcacf8	0.030844197
108	0x3e094280	0.13404274
109	0x3b4f4dcc	0.0031632064
110	0x3e8a8468	0.27054143
111	0xbd771073	-0.06031842
112	0x3b63ee8d	0.0034779639
113	0xbe78c63b	-0.24294369
114	0xbf2bdbce	-0.6713227
115	0x3d24835a	0.04016433
116	0x3d9b885c	0.07594368
117	0x3acdbd93	0.0015696756
118	0xbc64da02	-0.013967993
119	0xbca63977	-0.020291073
120	0xbf9296bc	-1.145225
121	0x3d8eb1df	0.0696752
122	0x3e350e69	0.17681278
123	0x3e04e6db	0.1297869
124	0x3eb81ea4	0.35960877
125	0x3e7e67ca	0.2484428
126	0x3d99e31e	0.07514022
127	0x3e986bfe	0.29769892
128	0x3ecb555c	0.39713562
129	0x3d9d5f72	0.076842204
130	0x3e3c88d7	0.18411575
131	0xbd671d9d	-0.056424726
132	0xbe349ea0	-0.17638636
133	0xbc86a568	-0.016436294
134	0xb8012bd7	-3.0796826e-05
135	0x3dac1cdf	0.08403944
136	0x3db5b28b	0.08871945
137	0x3de94809	0.11390693
138	0xbfe38f44	-1.7778096
139	0x3eadaaf1	0.3391948
140	0xbfbe9f4c	-1.4892364
141	0xbe018e40	-0.1265192
142	0x3d130f99	0.035903547
143	0x3cd02d4e	0.025412228
144	0x3d7d5ab3	0.061854076
145	0x3d3851dd	0.044999946
146	0xbbb65660	-0.005564496
147	0xbdb418d1	-0.08793796
148	0xbdbbfd35	-0.09179155
149	0x3cc47525	0.02398164
150	0xbd91691b	-0.071001254
151	0xbdfe8dc1	-0.12429381
152	0x3c8d8c56	0.017278831
153	0xbd0ed50d	-0.03487115
154	0x3e4d6456	0.20057806
155	0xbe05838c	-0.13038462
156	0x39ab6534	0.00032691064
157	0xbe5c4171	-0.21509339
158	0xbe36c16b	-0.1784722
159	0xbb9ebe6a	-0.0048444765
160	0x3e9e19fa	0.30879194
161	0xbedb8ede	-0.42882437
162	0xbd17f188	-0.037095577
163	0xbe221e69	-0.15831913
164	0xbe07dfb9	-0.13268937
165	0x3b543d08	0.003238501
166	0x3e6ce830	0.23135448
167	0xbfcbd211	-1.5923482
168	0x3eca7ad5	0.39546838
169	0x3ebfba83	0.37446985
170	0x3e1d6116	0.15369067
171	0x3ea43557	0.32071945
172	0x3ecfe2be	0.40602678
173	0x3eadc522	0.33939463
174	0x3e533d4f	0.20628856
175	0x3e4fccd1	0.20292975
176	0x3e085f5a	0.13317624
177	0x3e0aef2a	0.13567796
178	0xbd631c8c	-0.055447146
179	0xbdbceb89	-0.09224612
180	0x3ddc491d	0.10756133
181	0x3d6cdeda	0.057829715
182	0xbe19821e	-0.14991042
183	0xbc39403e	-0.01130682
184	0x3def84d1	0.116952546
185	0xbfce57da	-1.612056
186	0x3eaae9ca	0.33381492
187	0xbfa9c38b	-1.32628
188	0xbd641411	-0.0556832
189	0xbd3d29c6	-0.046182416
190	0x3da31d7f	0.0796461
191	0xbc46fc26	-0.012145078
192	0xbe9078c0	-0.28217125
193	0xbd081a70	-0.033228338
194	0x3db442e5	0.088018216
195	0xbd4da46b	-0.05020563
196	0x3c23ab51	0.0099895755
197	0x3e86a74d	0.26299515
198	0x3e32b7c8	0.1745292
199	0xbb04513d	-0.0020190023
200	0xbd55f927	-0.052239563
201	0x3b8b7d1e	0.0042568585
202	0x3bb0c64d	0.005394733
203	0xbcaf4a64	-0.021397777
204	0xbdda99ca	-0.10673864
205	0x3d87081c	0.065933436
206	0x3b6a678b	0.0035767283
207	0x3dff181a	0.12455769
208	0x3ed31b40	0.41231728
209	0xbd48d5fa	-0.04903219
210	0xba880cf9	-0.0010379843
211	0x3c9bc42f	0.019014446
212	0xbc1a2ddb	-0.009410347
213	0xbb4e1eb7	-0.0031451413
214	0xbfc1b406	-1.5133064
215	0x3f52620f	0.82180876
216	0x3f09461f	0.5362262
217	0x3ea27b63	0.31734762
218	0x3ee97987	0.4560053
219	0x3ed71561	0.42008498
220	0x3ebae064	0.3649932
221	0x3eb607be	0.35552782
222	0x3edd7057	0.4324977
223	0x3e5a6c8e	0.21330473
224	0x3e2e1f7b	0.17004196
225	0xbe4ec755	-0.20193227
226	0xbcd7d2b7	-0.026345594
227	0x3d26cd0c	0.04072289
228	0x3c5920e9	0.013252475
229	0x3c8d8c9b	0.01727896
230	0xbaa5b43a	-0.0012642213
231	0x3e9f49ac	0.31110895
232	0xbf743550	-0.9539385
233	0x3e4eec1d	0.20207258
234	0xbf33eecf	-0.7028627
235	0xbe50b224	-0.20380455
236	0x3d290008	0.041259795
237	0xbd115ff5	-0.035491902
238	0x39ea2557	0.00044659778
239	0x3dc4305c	0.09579536
240	0xbe8a815e	-0.27051824
241	0x3d44d0cb	0.048050683
242	0xbd2a16d7	-0.041525688
243	0xbb68bcae	-0.0035512852
244	0xbe29359e	-0.1652436
245	0xbe259ecf	-0.16173862
246	0x3c93673d	0.017993564
247	0xbd2c68a2	-0.042091973
248	0xbca05f7a	-0.019576777
249	0xbeaf0c8e	-0.34189266
250	0x3cc46047	0.02397169
251	0xbe0087a7	-0.12551747
252	0x3d87c78f	0.0662986
253	0xbc494a0f	-0.012285723
254	0xbe744ed0	-0.2385819
255	0xbf284c00	-0.65740967

dense1.bias f4 [64]
0	0xbdddf8c0	-0.10838461
1	0x3e961716	0.29314488
2	0x3e7d67a7	0.24746571
3	0x3eb6fb7b	0.3573874
4	0x3f1c8906	0.6114658
5	0x3e917e3b	0.2841662
6	0xbe0730ae	-0.13202164
7	0xbf5125af	-0.81698126
8	0xbf4e79b8	-0.8065448
9	0x3f0dc011	0.55371195
10	0x3f483efa	0.78221095
11	0x3ebfe367	0.37478182
12	0x3ef91391	0.4864774
13	0xbdb0792e	-0.08616863
14	0xbe47ff93	-0.19531088
15	0x3f01b023	0.5065939
16	0xbf13f3dd	-0.5779398
17	0x3f33232f	0.6997556
18	0xbf84c70e	-1.0373247
19	0xbf1e259c	-0.6177614
20	0xbf5faa3a	-0.8736912
21	0xbf6d5ac8	-0.92716646
22	0x3f1eafb6	0.61986864
23	0xbf7bcca5	-0.9835914
24	0x3f349260	0.7053585
25	0x3f052673	0.52011794
26	0xbf20203b	-0.6254918
27	0x3f2e14b6	0.6800035
28	0xbf77d9d3	-0.9681675
29	0xbdbf64f1	-0.09345425
30	0xbf349dbb	-0.7055318
31	0xbf8f4be1	-1.1195031
32	0xbd9a36d2	-0.075299874
33	0xbf462878	-0.774055
34	0xbf445522	-0.766924
35	0x3ef5fd6b	0.48044905
36	0x3f196419	0.5991836
37	0x3f00f3b3	0.50371855
38	0xbe3d53a0	-0.18488932
39	0x3d89b311	0.06723607
40	0xbf6c9850	-0.9241991
41	0xbdb5fffe	-0.08886717
42	0x3e3b1867	0.18271028
43	0x3ec10b0e	0.37703747
44	0xbf457640	-0.7713356
45	0x3eead9fa	0.45869428
46	0xbf607866	-0.87683713
47	0x3e16de79	0.14733304
48	0xbe68d666	-0.22738037
49	0xbcb762c5	-0.022385964
50	0x3eb78308	0.35842156
51	0x3ebea8b9	0.372381
52	0xbf657701	-0.8963471
53	0xbf43bee0	-0.7646313
54	0xbd1e6386	-0.03866913
55	0x3f0347a0	0.51281166
56	0xbdcb9a48	-0.09941536
57	0xbef78ddc	-0.48350418
58	0xbe0253b4	-0.12727243
59	0xbe2acdb9	-0.1668004
60	0x3f2de148	0.67921877
61	0xbd890d08	-0.06691939
62	0x3dd2dc3c	0.102959126
63	0xbf6cfb08	-0.92570543

dense2.weight f4 [64, 64]
0	0x3c09f8df	0.008421152
1	0xbd3da990	-0.046304286
2	0x3b706452	0.003668089
3	0xbdda6014	-0.10662857
4	0xbe3ada98	-0.1824745
5	0xbca6729b	-0.02031832
6	0x3c9518bc	0.01820027
7	0x3eaf24c2	0.3420773
8	0x3e022631	0.12709881
9	0xbe35588a	-0.17709556
10	0xbe7056b1	-0.2347057
11	0xbe540789	-0.20706
12	0xbe0b4867	-0.13601838
13	0x3de35b55	0.111014046
14	0xbd2291e6	-0.03968992
15	0xbdf9b67f	-0.121930115
16	0x3e8cf27f	0.2752876
17	0xbdb67221	-0.08908487
18	0x3eb5a74f	0.3547921
19	0x3e092d12	0.13396099
20	0x3e4eb08d	0.20184536
21	0xbe0fd655	-0.14046605
22	0xbe5ac1a3	-0.21362929
23	0x3def2f2f	0.116789214
24	0xbbce25aa	-0.006291111
25	0xbe86b3ec	-0.26309144
26	0xbcd43dae	-0.025908317
27	0xbdd2750a	-0.1027623
28	0x3d393ef5	0.045226056
29	0x3e1e3bda	0.15452519
30	0x3e196d23	0.14983039
31	0x3dce58a6	0.10075502
32	0x3e2d0627	0.16896878
33	0x3c899cf8	0.016798481
34	0x3e0cad6e	0.13738033
35	0xbe157d90	-0.1459868
36	0xbe01f8b7	-0.12692533
37	0xbda580c6	-0.08081202
38	0x3aedd588	0.0018145302
39	0x3c83551e	0.016031798
40	0x3e0e12e8	0.138744
41	0x3c4b1444	0.012394968
42	0xbdd99071	-0.10623253
43	0xbbc70cd9	-0.0060745296
44	0x3e251bc6	0.16123876
45	0xbdb7477f	-0.08949184
46	0x3e401b05	0.18760307
47	0xbdc2a610	-0.0950433
48	0x3df578fa	0.11985965
49	0x3e4f62b2	0.20252493
50	0xbd32dd5c	-0.043668136
51	0xbe0180f9	-0.12646855
52	0xbd6cb457	-0.057789173
53	0x3eea88d2	0.4580751
54	0x3e04fb2c	0.1298644
55	0x3b0a8f45	0.0021142524
56	0x3dffb176	0.1248502
57	0x3d8a34a2	0.0674832
58	0x3e1f79d4	0.15573817
59	0x3e0a09d6	0.13480315
60	0xbe4587e9	-0.19290127
61	0x3d84ec29	0.064903565
62	0xbd8c0ff0	-0.06838977
63	0x3da2ebfd	0.079551674
64	0xbc878a8f	-0.016545562
65	0xbdf52a37	-0.119709425
66	0x3e66c459	0.22535838
67	0xbc47dec1	-0.012199105
68	0x3dbaef3b	0.09127661
69	0x3dbd1749	0.09232957
70	0xbace88a9	-0.0015757281
71	0xbdb0e61d	-0.086376406
72	0xbdcc37ef	-0.09971606
73	0x3e5b2488	0.21400654
74	0x3ec585da	0.38578683
75	0x3dd4d921	0.103929766
76	0x3e3141c1	0.1731024
77	0xbe2165cb	-0.15761487
78	0xbd1fbe53	-0.038999867
79	0x3e456d78	0.1928004
80	0xbd7db171	-0.0619368
81	0x3dfc7524	0.1232703
82	0xbe812daa	-0.2523015
83	0x3d098dfa	0.033582665
84	0xbe1a4858	-0.1506666
85	0x3cb9eaf1	0.022695037
86	0x3ed9aa78	0.4251287
87	0x3d1b39a4	0.037896767
88	0x3da55aff	0.08073997
89	0x3d6f5d12	0.05843837
90	0x3d84691e	0.06465362
91	0x3e8dbeb6	0.27684563
92	0x3d2d8880	0.042366505
93	0xbdecf97e	-0.11571024
94	0xbde9e02a	-0.11419709
95	0xbc54131e	-0.012944011
96	0xbe307f5b	-0.17236082
97	0xbba1dd1e	-0.0049396893
98	0x3d91e0f2	0.07122983
99	0x3e2cb781	0.16866876
100	0x3e1d4175	0.15357001
101	0x3c92f25b	0.01793783
102	0xbd8c7020	-0.06857324
103	0x3d5b98d2	0.053612538
104	0xbc2789eb	-0.010225753
105	0xbe2e5516	-0.17024645
106	0x3e261de9	0.16222347
107	0x3d82be62	0.06383969
108	0x3d2f89ef	0.042856153
109	0x3d3169b8	0.043313712
110	0x3c5ab6d9	0.013349258
111	0x3df97d73	0.12182131
112	0xbe2cf428	-0.16890013
113	0xbe13dc5c	-0.14439529
114	0xbda713fe	-0.0815811
115	0x3e59bd20	0.21263552
116	0xbb126cdd	-0.002234272
117	0xbea00cc1	-0.3125973
118	0x3cf1a489	0.029497402
119	0xbc48a053	-0.0122452555
120	0x3c7cb207	0.015423304
121	0x3b2174de	0.0024636309
122	0xbc970fd6	-0.018440168
123	0xbe0822a7	-0.13294469
124	0x3e9fc89c	0.3120774
125	0xbd5ec2d7	-0.054385033
126	0x3db14f7f	0.08657741
127	0xbc03908b	-0.008030067
128	0x3c8445a4	0.016146488
129	0xbc646d6b	-0.013942103
130	0x3b5b1f0b	0.003343525
131	0xbd58f3ab	-0.052966755
132	0xbd1afbb8	-0.037837714
133	0x3d0a6443	0.033787023
134	0x3db41f4f	0.08795034
135	0x3dd28db8	0.10280937
136	0x3e3eef8f	0.18646072
137	0xbda8ecdc	-0.08248302
138	0xbe640a18	-0.22269475
139	0xbd9f6d55	-0.07784525
140	0xbc3ae400	-0.0114068985
141	0x3ddb4a67	0.107075505
142	0x3e10eb2a	0.14152208
143	0xbd161fe8	-0.036651522
144	0x3eac89e9	0.33698967
145	0x3d78e282	0.06076289
146	0x3ecaabf6	0.3958432
147	0xbd2d4baf	-0.042308506
148	0x3e7a4a80	0.24442482
149	0xbd789f7d	-0.060698975
150	0xbe8966b7	-0.26836178
151	0xbddb32a4	-0.10703018
152	0xbd2ed025	-0.04267897
153	0xbd5292f9	-0.051409695
154	0x3df8c8a4	0.12147644
155	0xbd763145	-0.06010558
156	0xbdeff2ac	-0.11716208
157	0x3d7d42c6	0.06183126
158	0x3e589551	0.2115071
159	0xbe3a93d8	-0.1822046
160	0x3daa9bc5	0.08330492
161	0x3c0ebc49	0.008711883
162	0x3e112128	0.14172804
163	0xbd28f5a0	-0.04124987
164	0xbe360a1c	-0.17777294
165	0xbc8b6fef	-0.017021148
166	0x3e016cbb	0.12639134
167	0x3de4e372	0.11176194
168	0xbdf0f3fe	-0.11765288
169	0x3d3c1a9b	0.04592381
170	0x3b5beee0	0.0033559129
171	0x3d0f3400	0.0349617
172	0xbcec5647	-0.028849734
173	0xbd8c9ad5	-0.06865469
174	0x3e7ca8f3	0.24673824
175	0xbd4f65d0	-0.050634205
176	0x3d91937c	0.071082085
177	0x3e36fdbc	0.1787023
178	0xbd7030dc	-0.058640346
179	0xbdf43c24	-0.119255334
180	0xbdc3da50	-0.09563124
181	0x3eddcb8a	0.4331935
182	0xbd216a39	-0.039407942
183	0xbcfceebc	-0.030875556
184	0x3d4554af	0.048176464
185	0x3dc9a57d	0.098460175
186	0x3c3815df	0.011235683
187	0x3daeab5b	0.08528777
188	0xbe1697f7	-0.14706407
189	0x3d8b9861	0.06816173
190	0xbc99adc1	-0.01875961
191	0x3e1fa655	0.15590794
192	0xbc36578f	-0.011129274
193	0xbdebffbe	-0.11523388
194	0xbcece844	-0.028919347
195	0xbd048305	-0.032351512
196	0x3d073191	0.033006255
197	0xbd80f1de	-0.062961325
198	0x3bbcaf4a	0.005758201
199	0x3e990755	0.29888406
200	0x3e92650a	0.28592712
201	0xbde05c16	-0.10955064
202	0xbe43986a	-0.1910111
203	0xbd91a476	-0.071114466
204	0xbe2484c5	-0.16066273
205	0xbe344cbb	-0.17607395
206	0x3c26b90d	0.0101759555
207	0xbdb36d9e	-0.08761142
208	0x3e1675c3	0.1469336
209	0xbdb83320	-0.08994126
210	0x3e53cd65	0.2068382
211	0x3e803bd0	0.25045633
212	0x3e40aa4e	0.18814966
213	0x3e8e53fc	0.2779845
214	0xbe09b81c	-0.13449138
215	0x3dd09068	0.10183793
216	0xbd1a4524	-0.037663594
217	0xbd879874	-0.06620875
218	0x3c87c952	0.01657549
219	0xbc9bed73	-0.019034123
220	0x3da9cc87	0.082909636
221	0x3d160783	0.036628257
222	0x3e6d378a	0.23165718
223	0x3dc3105d	0.095246054
224	0xbda2495a	-0.07924147
225	0x3e1f0a48	0.15531266
226	0x3e8eaa65	0.27864376
227	0xbc84693d	-0.016163463
228	0xbe77e70f	-0.24209236
229	0xbde0139d	-0.10941241
230	0x3d1e6ca7	0.038677838
231	0xbdbf5ecf	-0.09344255
232	0xbb7b96e7	-0.0038389505
233	0x3b3fad08	0.0029247422
234	0xbca40b1d	-0.02002483
235	0xbdb07841	-0.086166866
236	0x3e27ea73	0.16398029
237	0xbdee1c3e	-0.116264805
238	0x3e3c9b84	0.184187
239	0xbd9a1f00	-0.07525444
240	0x3cc1062f	0.023562519
241	0xbe449e47	-0.19201003
242	0xbddc018d	-0.10742483
243	0xbcd509f3	-0.02600572
244	0x3dc0993e	0.09404229
245	0x3e840142	0.2578221
246	0x3b8b34d7	0.0042482424
247	0xbdaddac5	-0.084889926
248	0xbd732f37	-0.0593712
249	0xbd54ab54	-0.051921204
250	0xbcbacb33	-0.022801971
251	0xbc27c1f5	-0.010239114
252	0xbdbb7fe3	-0.09155252
253	0x3cdcf5e0	0.026972711
254	0xbe5230c3	-0.20526414
255	0x3e3ca168	0.18420947

dense2.bias f4 [64]
0	0xbd75484a	-0.059883393
1	0x3dcdd6e5	0.100507535
2	0xbdfe9590	-0.124308705
3	0xbd1f6fc7	-0.03892496
4	0xbe51ba3f	-0.20481203
5	0xbd0222ab	-0.031771343
6	0xbe881b37	-0.26583263
7	0xbd4f61bc	-0.050630316
8	0xbea4ad7c	-0.32163608
9	0xbe8e9054	-0.2784449
10	0x3d9aa43b	0.07550856
11	0x3e15ee08	0.14641583
12	0xbdc5c36b	-0.09656414
13	0x3df59311	0.11990941
14	0xbe03847f	-0.12843512
15	0x3dbb69e3	0.09151056
16	0xbe50c0ac	-0.20385998
17	0xbbc28c95	-0.005937169
18	0xbdaef5f3	-0.08543005
19	0xbdc03622	-0.09385325
20	0xbe6422fe	-0.22278973
21	0xbddef169	-0.10885889
22	0xbe4f69ef	-0.20255254
23	0xbec2d5b1	-0.3805366
24	0x3d9c4a3c	0.076313466
25	0xbe73ce5b	-0.23809187
26	0xbd72d44f	-0.059284505
27	0xbe12e9d4	-0.14347011
28	0xbe428f87	-0.19000064
29	0xbe1a0093	-0.15039282
30	0xbea01ec6	-0.31273478
31	0x3cb63d22	0.022245947
32	0xbe577731	-0.21041562
33	0x3d9e1174	0.07718173
34	0xbdc98c12	-0.098411694
35	0x3e76c7ce	0.24099657
36	0xbd8e6c22	-0.069542184
37	0xbea1d70b	-0.31609377
38	0xbb8b0abc	-0.004243223
39	0x3cf3867e	0.029727217
40	0xbe91e07b	-0.28491578
41	0xbe87701e	-0.26452726
42	0xbcb7fc8e	-0.022459295
43	0xbdb0e3a2	-0.086371675
44	0x3d5cd100	0.053910255
45	0x3d31669e	0.043310754
46	0x3db350cc	0.08755645
47	0xbd9ee806	-0.07759099
48	0xbe38627f	-0.18006323
49	0x3d64c6de	0.055853717
50	0xbed4587d	-0.4147376
51	0xbd2873ed	-0.04112618
52	0xbeb7ede7	-0.35923693
53	0x3dab3950	0.08360541
54	0xbe98318c	-0.297253
55	0xbea13455	-0.3148524
56	0xbe02254c	-0.1270954
57	0xbd838cb7	-0.064233236
58	0xbd11823f	-0.035524603
59	0xbd428b8a	-0.047496356
60	0xbdc3d69c	-0.09562418
61	0xbce4e12e	-0.027939405
62	0x3c3ee565	0.011651372
63	0xbe418b32	-0.18900755

dense3.weight f4 [64, 64]
0	0xbe05e326	-0.13074932
1	0x3e1946dd	0.14968438
2	0xbd4b9a77	-0.049707856
3	0xbdb83652	-0.08994736
4	0x3d4e2913	0.05033214
5	0xbd880e1b	-0.066433154
6	0xbe056890	-0.13028169
7	0x3eb4e5df	0.35331628
8	0xbd7cab90	-0.061687052
9	0xbe1d3ae8	-0.15354502
10	0x3d645f24	0.055754796
11	0xbd4ab854	-0.049492195
12	0xbe23ee64	-0.16008908
13	0xbe4b6794	-0.1986373
14	0x3eef5b98	0.46749568
15	0x3d8ee6b7	0.06977599
16	0x3eb5f686	0.35539645
17	0xbd3f400e	-0.046691947
18	0xbe3aca8a	-0.18241325
19	0xbd5ab409	-0.05339435
20	0xbdd3cfdc	-0.103423804
21	0x3e84e36b	0.25954756
22	0xbd60876d	-0.054816652
23	0x3dc4c6e1	0.09608246
24	0xbd94a424	-0.0725787
25	0x3e0f8b13	0.14017896
26	0xbddecf4b	-0.10879382
27	0xbc0fbc71	-0.008772955
28	0xbd98eda1	-0.07467199
29	0xbdbf5d1a	-0.093439296
30	0xbd1eaa5b	-0.038736682
31	0xbdaa936c	-0.083289
32	0xbdec410c	-0.11535844
33	0xbd473fba	-0.04864476
34	0xbe162fbe	-0.1466665
35	0xbd128717	-0.035773363
36	0x3d74bdd2	0.05975134
37	0xbd962258	-0.07330769
38	0xbd804e25	-0.06264905
39	0xbcf3302a	-0.029686052
40	0xbdbe5437	-0.092934065
41	0xbe18bd4a	-0.14915958
42	0xbe39c784	-0.18142515
43	0xbe1b001c	-0.1513676
44	0x3d2939ec	0.041315004
45	0xbdd56486	-0.10419564
46	0x3d2065d0	0.039159596
47	0x3e478e11	0.19487788
48	0x3e4389df	0.19095562
49	0xbe43bb7f	-0.19114493
50	0x3d0d303f	0.03446984
51	0xbde3f2c7	-0.111302905
52	0x3bcc782d	0.006239912
53	0x3de4ff5c	0.111815184
54	0xbdc69ef8	-0.0969829
55	0xbe227da1	-0.15868236
56	0xbdb454b0	-0.08805215
57	0xbe33a311	-0.17542674
58	0xbe06ea56	-0.1317533
59	0xbd85abb8	-0.065268934
60	0xbdd27c0f	-0.102775685
61	0xbd37ee4f	-0.044905003
62	0xbde4d183	-0.11172774
63	0xbe1deab7	-0.15421568
64	0x3dfb284d	0.12263546
65	0xbda57a85	-0.08080009
66	0x3e581dae	0.21105072
67	0xbc7eded0	-0.015556052
68	0xbdbdcd78	-0.09267706
69	0x3da78256	0.081791565
70	0x3b5a0b6f	0.0033270975
71	0xbdf169a1	-0.11787725
72	0x3e8bd56d	0.27311268
73	0x3dd751aa	0.10513623
74	0xbd85f6a3	-0.06541183
75	0x3d902f6d	0.07040296
76	0x3be96f57	0.0071238684
77	0x3d5c41a3	0.053773534
78	0xbe5d2613	-0.21596555
79	0xbdfecaa4	-0.124409944
80	0xbdfa821d	-0.122318484
81	0x3cfb5c29	0.030683594
82	0x3d4476eb	0.04796497
83	0x3d36343f	0.04448342
84	0x3dbb03ae	0.09131561
85	0xbe88495a	-0.26618463
86	0x3d9b693e	0.07588433
87	0x3d9af4f1	0.0756625
88	0xbde7dde8	-0.11321622
89	0x3df41fc8	0.11920124
90	0x3e186d79	0.1488551
91	0x3e628fe8	0.22125208
92	0x3e2447c3	0.16043
93	0xbd8869b8	-0.06660789
94	0x3df73df7	0.12072366
95	0x3d7ec43f	0.062198874
96	0x3e5cf0e0	0.21576262
97	0x3cea3a66	0.0285923
98	0x3d9c483d	0.07630966
99	0xbddc8b8f	-0.10768806
100	0x3cf63f7f	0.030059574
101	0x3de5ae58	0.11214894
102	0x3aa85bf1	0.0012844783
103	0x3c874a93	0.016515052
104	0x3e62eea5	0.22161348
105	0x3e2b3aa6	0.16721591
106	0x3d9679b6	0.07347433
107	0xbc8e0188	-0.017334715
108	0xbe507a74	-0.20359212
109	0xbaef1420	-0.0018240251
110	0xbe4a684a	-0.19766346
111	0x3d9fa02b	0.077942215
112	0xbe1db624	-0.15401512
113	0x3d5cb3d5	0.05388244
114	0x3e1dbe24	0.15404564
115	0x3dee840b	0.11646279
116	0x3e5dd2e8	0.21662486
117	0xbe1892e9	-0.14899792
118	0x3d140f20	0.036147237
119	0x3c88f190	0.016716748
120	0x3dc1e17c	0.09466836
121	0x3dc584ad	0.096444465
122	0x3daed704	0.08537105
123	0xbcff7fa9	-0.031188803
124	0x3e4d320d	0.20038624
125	0x3cefaebb	0.029258123
126	0xbd640b72	-0.055674978
127	0x3e292c93	0.1652091
128	0xbdce7cf3	-0.10082426
129	0xbb96213d	-0.004581599
130	0xbe5a745a	-0.21333447
131	0x3d0ecf75	0.034865815
132	0x3cbcf942	0.023068074
133	0xbcfab9c5	-0.03060616
134	0xbd8d21d3	-0.06891217
135	0x3efcaabf	0.4934902
136	0xbd22259f	-0.03958666
137	0xbda8034f	-0.08203756
138	0x3d97b688	0.07407862
139	0xbd18c3db	-0.037296157
140	0x3ca9abf3	0.020711875
141	0xbdb3c9c2	-0.087787166
142	0x3ee3170f	0.4435353
143	0x3e2637a2	0.1623216
144	0x3ec5b458	0.38614154
145	0xbdeba90c	-0.115068525
146	0x3caace87	0.020850433
147	0xbdee850b	-0.1164647
148	0xbe104493	-0.14088659
149	0x3e3379e3	0.17526965
150	0xbc402b25	-0.011729036
151	0xbb788846	-0.0037923022
152	0xbdb511a6	-0.08841257
153	0x3aacd872	0.0013187064
154	0xbd0a7fff	-0.033813473
155	0xbd62dcab	-0.055386227
156	0xbdf449a0	-0.11928105
157	0xbdd79499	-0.1052639
158	0xbdf76ca5	-0.12081269
159	0xbd5ff497	-0.05467662
160	0xbdd1ab20	-0.10237718
161	0xbc234874	-0.009966005
162	0xbccf3355	-0.025293032
163	0x3d4ad750	0.049521744
164	0x3e05f328	0.13081038
165	0xbe2032af	-0.15644334
166	0xbd9f9d4d	-0.077936746
167	0x3934d76b	0.00017246387
168	0xbd4faf0f	-0.05070406
169	0xbd04186e	-0.03224986
170	0xbe2b3144	-0.16718012
171	0xbdf0975d	-0.1174762
172	0x3ded08e5	0.11573962
173	0xbdacad6b	-0.08431514
174	0x3e9bc182	0.30421072
175	0x3e1b5cf1	0.15172173
176	0x3e38e0fd	0.18054576
177	0xbe02ae65	-0.12761839
178	0x3c18fd29	0.009337702
179	0xbd56018c	-0.05224757
180	0xbd8a0527	-0.06739264
181	0x3da7033f	0.08154916
182	0xbe1189b4	-0.14212686
183	0xbe1a5422	-0.15071157
184	0xbbaabec4	-0.0052107293
185	0xbddad93e	-0.10685967
186	0xbe127868	-0.14303744
187	0xbd137cd2	-0.03600771
188	0xbd5139cf	-0.05108052
189	0x3be60a84	0.0070202965
190	0xbd956447	-0.07294517
191	0xbe1de32a	-0.15418687
192	0x3e21b0c9	0.15790094
193	0xbd865fbb	-0.06561228
194	0x3e027148	0.12738526
195	0xbc3e65c6	-0.011620944
196	0x3e48cd2e	0.1960952
197	0x3d816d20	0.06319642
198	0x3dde07d2	0.10841335
199	0xbe8952fe	-0.2682113
200	0x3d9ded4a	0.07711275
201	0x3ddc4f63	0.10757329
202	0xbce17f09	-0.027526395
203	0xbd7b30f4	-0.061325982
204	0xbbbab03f	-0.0056972797
205	0x3e85298f	0.2600827
206	0xbe811c38	-0.25216842
207	0x3d12a8c1	0.035805468
208	0xbe889dbe	-0.26682848
209	0x3dcb661d	0.09931586
210	0x3e2efbad	0.17088194
211	0x3d5ecb5a	0.05439315
212	0x3d8168a2	0.06318785
213	0xbc197773	-0.009366858
214	0x3dde6cca	0.108605936
215	0x3d6d1f43	0.05789114
216	0x3e0838e0	0.13302946
217	0xbd267a02	-0.0406437
218	0x3e4a3aa7	0.19748937
219	0x3e1a04f3	0.1504095
220	0x3e3bb587	0.18330966
221	0x3dfd1028	0.12356597
222	0x3d231565	0.039815325
223	0xbc20fa3a	-0.009825284
224	0x3ddbea4a	0.107380465
225	0xbdc0f3ef	-0.09421527
226	0x3d5ea9da	0.0543612
227	0x3ca79983	0.020458942
228	0x3d11bf37	0.035582747
229	0x3e106a1e	0.1410298
230	0x3ce3aee0	0.027793348
231	0x3d9c4c82	0.0763178
232	0x3d3ff8d3	0.046868157
233	0x3e4117fe	0.18856809
234	0x3e0678bb	0.13131993
235	0x3d41d5d7	0.047323074
236	0xbc5f9e31	-0.013648556
237	0x3d1ddba3	0.03853954
238	0xbd747aa7	-0.059687283
239	0xbd02dafd	-0.031947125
240	0xbd730321	-0.059329156
241	0x3d87996f	0.06621062
242	0xbc9d9d5f	-0.01924008
243	0x3d33b708	0.043875724
244	0x3d9d01e5	0.07666377
245	0xbdb1f400	-0.086891174
246	0xbb07f39d	-0.002074457
247	0x3e2fe170	0.17175841
248	0xbd40b045	-0.047043104
249	0x3e04070c	0.12893313
250	0x3de28af7	0.11061662
251	0x3def8137	0.11694568
252	0x3c8532e6	0.016259622
253	0x3e086974	0.13321477
254	0x3cf89d1a	0.03034835
255	0xbbd58618	-0.0065162294

dense3.bias f4 [64]
0	0xbe7b1db8	-0.24523056
1	0x3d891d8b	0.06695088
2	0xbd9a144c	-0.075234026
3	0x3e85b5e8	0.26115346
4	0xbeb43686	-0.35197848
5	0xbf0abbdb	-0.54192895
6	0xbeb9b638	-0.36271834
7	0xbe7c8428	-0.24659789
8	0xbf0192cb	-0.50614613
9	0x3e60bba7	0.21946584
10	0x3d23b156	0.039964043
11	0x3e53f589	0.20699133
12	0xbe8a1226	-0.2696697
13	0x3e03a458	0.12855661
14	0x3e4f9fb5	0.20275767
15	0xbe3ed8d3	-0.186374
16	0xbe2768d3	-0.16348581
17	0x3e51dfe4	0.20495564
18	0xbe18fd36	-0.14940342
19	0xbe8024c6	-0.25028056
20	0xbeb98dcd	-0.36240998
21	0x3db24acb	0.08705672
22	0xbe9b1cb9	-0.3029535
23	0xbe005e40	-0.12535954
24	0xbf324d91	-0.69649607
25	0xbf0aabee	-0.54168594
26	0xbdbeb450	-0.09311736
27	0xbf1400be	-0.5781363
28	0xbe5b06b4	-0.21389276
29	0x3d249a37	0.040186133
30	0x3e8e8185	0.2783319
31	0x3e8c4496	0.27396077
32	0xbe915079	-0.28381708
33	0xbe8d8ad2	-0.27644974
34	0xbd808535	-0.06275407
35	0x3e4dace5	0.20085485
36	0x3e18d44d	0.14924736
37	0x3e97601e	0.2956552
38	0xbe8560c0	-0.26050377
39	0xbd670e75	-0.05641027
40	0x3eb9f17b	0.36317047
41	0x3e44f30e	0.19233343
42	0xbe822507	-0.25418875
43	0x3ea86611	0.3289037
44	0x3e61c472	0.22047594
45	0xbf0d09a5	-0.5509284
46	0xbf09ad71	-0.53780276
47	0xbd81ebd8	-0.06343812
48	0xbddce8d8	-0.10786599
49	0xbf147dc8	-0.58004427
50	0x3d7380de	0.05944907
51	0x3e2d6e20	0.1693654
52	0xbec44793	-0.38335857
53	0x3a60d617	0.0008576824
54	0x3e2eeafd	0.17081828
55	0xbe4990f7	-0.19684206
56	0x3e1e5d6c	0.15465325
57	0x3e503246	0.20331678
58	0xbe2dad8c	-0.16960734
59	0xbdee7fa0	-0.11645436
60	0xbe533826	-0.20626888
61	0x3e960c7b	0.29306397
62	0xbeadccfe	-0.3394546
63	0xbf0d5c66	-0.55219114

dense4.weight f4 [64, 64]
0	0x3a773c79	0.00094313134
1	0xbcd2c759	-0.025729822
2	0x3d016abf	0.03159594
3	0xbe537257	-0.20649086
4	0x3e320ab3	0.17386894
5	0x3e9ec097	0.3100631
6	0x3dfc132b	0.123083435
7	0x3e8c4be6	0.27401656
8	0x3e5bb9ef	0.21457647
9	0xbce90b14	-0.028447665
10	0x3bd97dc4	0.006637307
11	0xbe6047f7	-0.21902452
12	0xbd3af82f	-0.045646843
13	0xbe2bb349	-0.1676761
14	0xbe0973b6	-0.13423046
15	0x3de2168b	0.11039456
16	0x3dbedc41	0.09319354
17	0xbe097dd0	-0.134269
18	0xbc6f3a89	-0.014601358
19	0x3dea3b27	0.11437064
20	0x3e9006a7	0.28130075
21	0xbe058799	-0.13040008
22	0x3e260664	0.16213375
23	0x3d7e56d1	0.062094513
24	0x3ed5177b	0.41619477
25	0x3ed870ce	0.42273563
26	0x3dbdee8b	0.09274014
27	0x3e87c333	0.26516113
28	0x3d44cc96	0.04804667
29	0xbda67a4d	-0.08128796
30	0xbe96cc7d	-0.29452887
31	0xbe25ef4e	-0.16204569
32	0x3d6f37ad	0.058402706
33	0x3e237386	0.15962037
34	0xbd8fdb9c	-0.07024309
35	0xbe09577d	-0.1341228
36	0xbd8a92a9	-0.067662545
37	0xbcbf14c8	-0.023325339
38	0x3e46ec50	0.19426084
39	0x3cc8894e	0.024479534
40	0xbe344c32	-0.17607191
41	0xbdd43f47	-0.10363632
42	0x3db30064	0.08740309
43	0xbe95ef41	-0.292841
44	0xbe355c5c	-0.17711014
45	0x3e97f5ce	0.29679722
46	0x3e3c719b	0.18402712
47	0xbcce2604	-0.025164612
48	0x3b0995b9	0.0020993783
49	0x3ea2701c	0.31726158
50	0xbdf61188	-0.120150626
51	0xbd6d82aa	-0.05798594
52	0x3e5707dc	0.20999092
53	0x3d15d223	0.036577355
54	0xbe86b340	-0.26308632
55	0xbc28efe5	-0.010311102
56	0xbcf0b478	-0.02938293
57	0xbe110dcb	-0.14165418
58	0xbcda8d32	-0.026678655
59	0xbcf091ad	-0.029366339
60	0x3d880b28	0.06642753
61	0xbe936e3d	-0.28795043
62	0x3e2ad462	0.1668258
63	0x3ea03afa	0.31294996
64	0xbd8e84fe	-0.0695896
65	0x3e560854	0.20901614
66	0x3c066bda	0.008204425
67	0x3dfb0fd1	0.12258876
68	0xbd20efbf	-0.03929114
69	0xbe1f4c19	-0.15556373
70	0xbc8f7e6f	-0.017516343
71	0x3ceae2d4	0.028672613
72	0xbe091813	-0.1338809
73	0x3e773540	0.24141407
74	0xbd8fbf2a	-0.070188835
75	0x3e0d8b57	0.13822685
76	0xbbd8b60c	-0.0066134986
77	0x3e20f183	0.1571713
78	0x3d248ade	0.040171497
79	0x3d65ea41	0.056131605
80	0xbd096f4e	-0.033553414
81	0x3e211020	0.15728807
82	0xbcf7d4a7	-0.030252768
83	0x3da09c39	0.07842297
84	0xbdc0c096	-0.09411733
85	0x3d7a6650	0.06113273
86	0x3d0ff9ab	0.03515021
87	0x3df9d48f	0.121987455
88	0xbe432c36	-0.19059834
89	0x3c682f9f	0.01417151
90	0x3e5480b0	0.20752215
91	0xbe3a0bf9	-0.1816863
92	0x3d9bd079	0.076081224
93	0x3e43f668	0.19136965
94	0x3d98083c	0.074234456
95	0x3db6ac91	0.08919633
96	0xbc2e53cf	-0.010640099
97	0x3e0dc1a3	0.13843398
98	0x3dc1d400	0.09464264
99	0x3decfc28	0.115715325
100	0x3e8484d1	0.2588258
101	0x3d3876da	0.04503522
102	0x3cf22840	0.029560208
103	0x3df2e781	0.11860562
104	0x3d8ff4d9	0.07029123
105	0x3be81b54	0.007083336
106	0xbd44076e	-0.047858648
107	0x3d14d6d5	0.036337692
108	0x3e34a9f9	0.17642964
109	0xbda5ec9b	-0.081017695
110	0xbd941bdd	-0.07231877
111	0x3ce1c43c	0.027559392
112	0x3d034f6d	0.03205817
113	0xbe30fe0e	-0.17284414
114	0x3e02b268	0.12763369
115	0x3da4f354	0.08054224
116	0xbd5aa42b	-0.05337922
117	0xbd727328	-0.059191853
118	0x3dfdda64	0.1239517
119	0xbcf5a80c	-0.029987358
120	0x3e5d7df3	0.21630077
121	0x3d91f75d	0.07127259
122	0xbded9bbe	-0.11601971
123	0x3e5764cc	0.21034545
124	0x3d2f0400	0.042728424
125	0x3da97957	0.08275097
126	0xbda33746	-0.07969527
127	0x3c73f3d1	0.014889673
128	0x3d9108fc	0.07081792
129	0xbdc0bd86	-0.09411149
130	0x3d2038a8	0.03911653
131	0xbe842e9d	-0.25816813
132	0x3e15cc3c	0.1462869
133	0x3e7467f5	0.23867781
134	0x3e5006db	0.20315115
135	0x3e8b5120	0.2721033
136	0x3e4bd36d	0.19904871
137	0xbd0855ea	-0.03328506
138	0xbb04d8e3	-0.0020270876
139	0xbe568f78	-0.20953166
140	0x3e3e946e	0.18611309
141	0xbe4bb773	-0.19894199
142	0xbe621a85	-0.22080429
143	0x3d98b476	0.07456295
144	0xbba0cc91	-0.0049071987
145	0xbe990308	-0.29885125
146	0xbd7162c8	-0.058932096
147	0x3cf27a25	0.029599259
148	0x3e938209	0.28810146
149	0xbd35564c	-0.044271752
150	0x3e873551	0.26407865
151	0xbda06b24	-0.078329355
152	0x3ed3d896	0.4137618
153	0x3eb05e76	0.34447068
154	0x3d81533f	0.06314706
155	0x3eb3fed9	0.3515537
156	0x3dbb94b9	0.09159226
157	0xbd7c5261	-0.061602
158	0xbe98d29a	-0.29848176
159	0xbe3741f7	-0.17896257
160	0x3c1ec568	0.00969062
161	0x3d9e9ede	0.07745145
162	0x3d55a740	0.052161455
163	0xbd5365b8	-0.05161068
164	0xbe05847e	-0.13038823
165	0xbe61df0e	-0.22057745
166	0x3e1d443f	0.15358065
167	0xbc9af68b	-0.018916389
168	0xbe70a622	-0.23500875
169	0xbe385f1b	-0.1800503
170	0x3e0b0245	0.13575085
171	0xbe8cd8f5	-0.27509275
172	0xbd740175	-0.059571702
173	0x3e9ee22c	0.3103193
174	0x3e9beecc	0.30455625
175	0xbca43cfe	-0.020048615
176	0x3cb4c226	0.022065233
177	0x3eace3e2	0.3376761
178	0xbdbc334b	-0.09189471
179	0xbe5328aa	-0.20620981
180	0x3e19ecbf	0.15031718
181	0x3db59d94	0.08867946
182	0xbe383322	-0.17988256
183	0x3e2d85df	0.16945599
184	0xbd8f3b0d	-0.06993685
185	0xbcefed46	-0.029287945
186	0x3dc6ec0b	0.097129904
187	0xbd83c2ce	-0.064336404
188	0x3d41d0a4	0.047318116
189	0xbe6e75ae	-0.23287079
190	0x3e22bcd2	0.15892342
191	0x3ed61650	0.41813898
192	0xbdc1af30	-0.094572425
193	0xbd9abe62	-0.07555844
194	0xbdaf3b34	-0.08556214
195	0x3b63bbbf	0.0034749357
196	0xbd154d22	-0.036450513
197	0x3d9193c5	0.07108263
198	0xbd8a8b62	-0.067648664
199	0x3e85811c	0.26075065
200	0x3bde52ce	0.0067847734
201	0x3cac3436	0.02102099
202	0xbe087112	-0.13324383
203	0xbe0adc80	-0.13560677
204	0x3e4bfe69	0.19921269
205	0xbdb66424	-0.08905819
206	0x3d961ea1	0.07330061
207	0x3e66e45f	0.22548054
208	0x3cc72828	0.02431114
209	0x3c510e6d	0.012759787
210	0x3e0a346a	0.13496557
211	0x3d37f680	0.044912815
212	0xbd91a30c	-0.07111177
213	0x3e0f1aab	0.13975017
214	0x3e4589a6	0.1929079
215	0x3c715fc9	0.01473231
216	0x3e085ec2	0.13317397
217	0xbd8ceecf	-0.068814866
218	0x3e8f01e1	0.2793112
219	0x3d7377b0	0.059440315
220	0x3d88cc7b	0.066796266
221	0xbd09dc63	-0.033657443
222	0x3d45b727	0.04827037
223	0xbdda0864	-0.10646132
224	0x3bf5fcbc	0.007506935
225	0x3e40e6bd	0.1883802
226	0x3e44b957	0.19211327
227	0x3a02867f	0.0004979148
228	0x3dcd808d	0.10034285
229	0xbdc38748	-0.09547287
230	0x3e359aa9	0.1773478
231	0x3d9b4d64	0.075831205
232	0x3d9d925c	0.076939315
233	0x3da04345	0.07825331
234	0x3e40def4	0.1883505
235	0xbd3d21e6	-0.046174906
236	0xbd5147e3	-0.051093947
237	0xbd4bc535	-0.04974862
238	0x3e821fcc	0.25414884
239	0x3e88cee9	0.2672036
240	0xbe271232	-0.16315535
241	0x3e5dd00f	0.216614
242	0xbc81ccf1	-0.015844794
243	0xbb418105	-0.0029526365
244	0x3e7c9336	0.24665532
245	0xbe4e354e	-0.20137522
246	0x3dcb9501	0.099405296
247	0x3df5d259	0.12003011
248	0x3d8e08b1	0.069352515
249	0x3d3d2b0a	0.046183623
250	0x3e845cc6	0.2585203
251	0xbd86eeed	-0.0658854
252	0xbdd1fc58	-0.10253209
253	0x3d9258da	0.07145853
254	0x3dd74d47	0.10512786
255	0x3e06873f	0.1313753

dense4.bias f4 [64]
0	0xbe65603c	-0.22399992
1	0x3eaa43c4	0.33254826
2	0xbe7ccc51	-0.24687316
3	0xbd6ec176	-0.058289967
4	0xbe2a25a0	-0.16615915
5	0xbe53dea4	-0.206904
6	0xbd705b57	-0.05868086
7	0xbd9e0368	-0.077154934
8	0xbe13a795	-0.14419396
9	0x3e5035f1	0.20333077
10	0xbe9e7c2e	-0.30954117
11	0xbe09fbf0	-0.13475013
12	0xbd61bd09	-0.05511192
13	0xbe62ddb0	-0.2215488
14	0xbe8bf2b2	-0.273336
15	0xbd67b4f2	-0.056569047
16	0x3d4c70b9	0.04991219
17	0xbdf22f28	-0.118254006
18	0xbdc25b8b	-0.09490117
19	0xbe4c6648	-0.19960892
20	0xbe1f4d95	-0.15556939
21	0xbe31895b	-0.17337553
22	0xbe229e82	-0.15880778
23	0xbe3820dd	-0.17981286
24	0xbe442f58	-0.19158685
25	0xbd4c1041	-0.04982019
26	0xbe9a3efe	-0.30126184
27	0xbe93bed3	-0.28856525
28	0xbeaae2b6	-0.33376092
29	0x3db13e3d	0.08654449
30	0xbd8f6fa5	-0.070037164
31	0xbea9ab4a	-0.33138496
32	0xbe6e6670	-0.23281264
33	0xbd54e72b	-0.05197827
34	0xbe43058e	-0.19045088
35	0xbe083a74	-0.13303548
36	0xbd3142ee	-0.04327672
37	0x3e0bc190	0.13648057
38	0x3def4e03	0.116848014
39	0xbea72211	-0.32643178
40	0xbd1ea39d	-0.038730253
41	0xbe95964a	-0.29216224
42	0xbeaab2f2	-0.3333965
43	0xbae3d44d	-0.0017381996
44	0xbdb6515d	-0.089022376
45	0xbe979047	-0.29602262
46	0xbe09e639	-0.13466729
47	0x3db42070	0.087952495
48	0xbe8cb941	-0.27485088
49	0xbe3e33d9	-0.18574466
50	0xbd98716f	-0.07443511
51	0xbe10ab7d	-0.14127918
52	0xbea57b5c	-0.32320678
53	0xbe132034	-0.14367753
54	0xbe37cf03	-0.17950062
55	0xbde6d3c4	-0.1127086
56	0xbde0fb14	-0.10985389
57	0xbe731054	-0.23736697
58	0xbdea393e	-0.11436699
59	0xbead25e6	-0.33817977
60	0xbe16bc08	-0.14720166
61	0xbe17f54c	-0.14839667
62	0x3e1650bb	0.14679234
63	0xbea8c889	-0.32965496

dense5.weight f4 [64, 64]
0	0x3d9c2d7c	0.07625863
1	0x3bbc8a45	0.0057537877
2	0xbc346559	-0.011010491
3	0x3e2469ca	0.1605598
4	0x3d3a3445	0.045460004
5	0x3d4d3e85	0.05010845
6	0x3d1b26e4	0.037878886
7	0x3db30dd6	0.08742873
8	0xbdb1cded	-0.08681855
9	0x3d6b723b	0.057481986
10	0x3d2fede6	0.042951487
11	0xbdce632a	-0.10077508
12	0x3da440c0	0.080201626
13	0x3e898efb	0.26866898
14	0x3e3b2e99	0.18279494
15	0xbdaca5f4	-0.084300905
16	0xbc5a806b	-0.013336281
17	0xbd39e5e0	-0.04538524
18	0x3e21a1c2	0.15784362
19	0x3e02ffd0	0.12792897
20	0x3e06ab87	0.1315137
21	0x3e808308	0.2509997
22	0x3d09592a	0.0335323
23	0x3c9de459	0.019273924
24	0x3e7b3997	0.24533688
25	0xbdf8211e	-0.121156916
26	0x3e8a3a8b	0.2699779
27	0x3e2cafbf	0.16863917
28	0x3db3f568	0.08787042
29	0x3bd80ccf	0.006593324
30	0x3d2cb5ad	0.042165447
31	0x3dbb6844	0.091507465
32	0x3d694c4e	0.056957535
33	0xbc51384d	-0.012769771
34	0x3d39f612	0.045400687
35	0xbd4a1c41	-0.04934335
36	0xbd97fa53	-0.074207924
37	0xbd899ff8	-0.06719965
38	0xbcff4a07	-0.031163229
39	0xbb11cb8b	-0.0022246565
40	0xbc81c0a3	-0.015838927
41	0xbb9dd0ff	-0.004816174
42	0x3cac555d	0.021036798
43	0x3b3b96d2	0.0028623831
44	0xbe11d988	-0.14243138
45	0x3e706f7c	0.23480028
46	0x3d85d76c	0.06535229
47	0xbd0fb850	-0.035087883
48	0x3ccc8558	0.024965927
49	0x3d7ab12c	0.06120412
50	0x3a6fc360	0.00091462396
51	0x3e18ec22	0.14933828
52	0x3e7e232d	0.24818106
53	0x3d38ef84	0.045150295
54	0x3d0b314d	0.033982564
55	0xbda541d3	-0.080691956
56	0x3d75cc15	0.06000908
57	0x3e3eb696	0.18624339
58	0xbd4e1e98	-0.050322145
59	0x3e1b85b5	0.15187724
60	0xbdb1996b	-0.0867184
61	0x3d74e529	0.059788857
62	0xbd4fdce2	-0.05074776
63	0x3dcf77dc	0.10130283
64	0x3f086a31	0.53287035
65	0xbe19f521	-0.15034916
66	0x3f027d9b	0.5097291
67	0x3d9b4f5a	0.075834945
68	0x3d1220cd	0.035675813
69	0x3e5701b0	0.20996737
70	0xbd85bd28	-0.06530219
71	0x3e68c6de	0.22732112
72	0x3e028ec4	0.12749773
73	0xbe79484f	-0.2434399
74	0x3ec23544	0.37931263
75	0x3d7d476b	0.061835688
76	0x3dcd6349	0.10028703
77	0x3e02d7ca	0.1277763
78	0x3e3600b4	0.17773706
79	0xbdec2541	-0.11530543
80	0xbe025884	-0.12729079
81	0x3bb49920	0.005511418
82	0xbc22b225	-0.009930168
83	0x3e3fd331	0.18732907
84	0x3e671b2e	0.22568962
85	0x3e045be3	0.12925677
86	0xbcf516c1	-0.029918076
87	0x3eda7c74	0.42673075
88	0x3e03acce	0.12858889
89	0x3d3652eb	0.04451267
90	0x3e36d895	0.17856057
91	0x3db92c9f	0.09041714
92	0x3ea98057	0.33105728
93	0xbb94acd3	-0.004537204
94	0xbcc67b8c	-0.024228834
95	0x3eb67223	0.35633954
96	0xbb9b34bc	-0.004736511
97	0xbce5260a	-0.02797224
98	0xbcf0190a	-0.029308815
99	0x3dc657ac	0.09684691
100	0xbbd298de	-0.0064269146
101	0xbe02552a	-0.127278
102	0xbe9b7440	-0.3036213
103	0x3ed9c4ab	0.42532858
104	0x3d90e46c	0.07074818
105	0x3e5eefb3	0.21771125
106	0x3eb91d76	0.3615529
107	0xbdbcf58c	-0.09226522
108	0x3c2351ee	0.009968264
109	0x3cc21994	0.023693837
110	0x3ee01c60	0.43771648
111	0xbddcd9b8	-0.10783714
112	0x3e432f0f	0.1906092
113	0x3e3b937a	0.18317977
114	0x3d740a88	0.059580356
115	0x3d486abc	0.048929915
116	0x3e6604d7	0.22462784
117	0x3e0e93b0	0.13923526
118	0x3ede7314	0.43447173
119	0x3d9072ad	0.07053123
120	0x3ddaad5d	0.10677598
121	0x3d8736c9	0.06602246
122	0x3ea2a14f	0.31763694
123	0x3f0a1d0f	0.5395059
124	0x3c1506f7	0.009095899
125	0xbb9f9f79	-0.0048713055
126	0xbe2aa9ca	-0.16666332
127	0x3e82c95d	0.25544253
128	0x3e16f56b	0.14742057
129	0xbc972ea7	-0.018454863
130	0x3e3e2573	0.18568973
131	0x3ce4fb1e	0.027951773
132	0xbdcc656c	-0.09980282
133	0x3de3296f	0.11091887
134	0xbe088414	-0.13331634
135	0x3de3197c	0.11088845
136	0x3dcf8588	0.10132891
137	0xbe06fbcd	-0.13181992
138	0x3e68da80	0.22739601
139	0x3e22cc85	0.1589833
140	0xbdb90296	-0.09033696
141	0xbd1d44ac	-0.03839557
142	0x3d8ac1b5	0.06775228
143	0xbdc1b615	-0.094585575
144	0xbd1ceaad	-0.03830974
145	0xbc03e7be	-0.008050857
146	0x3b7c421f	0.003849156
147	0x3d2daebd	0.04240297
148	0x3d98032e	0.074224815
149	0xbd91397b	-0.07091042
150	0xbe2e2529	-0.17006363
151	0x3ba7971c	0.005114449
152	0xbd9b19d1	-0.075732835
153	0x3d5f7525	0.054555077
154	0xbd87c2f2	-0.0662898
155	0x3d3c6b0c	0.046000525
156	0x3e680d03	0.22661214
157	0xb982cd4f	-0.000249485
158	0xbc1e088b	-0.0096455915
159	0x3e3c215a	0.18372098
160	0x3d2c490a	0.042061843
161	0x3dcf6d7b	0.101283036
162	0xbb4c6c22	-0.0031192382
163	0x3c69d062	0.014270874
164	0xbd23814d	-0.039918233
165	0xbe44ef3e	-0.19231889
166	0xbcf988dc	-0.030460767
167	0x3dac1064	0.08401564
168	0x3dd93459	0.10605688
169	0x3b8d076f	0.0043038647
170	0x3e817b12	0.25289208
171	0xbd57b79c	-0.052665338
172	0x3d143699	0.03618488
173	0xbc88491a	-0.01663642
174	0x3e175a15	0.14780457
175	0xbe484737	-0.19558416
176	0x3dc4efe0	0.09616065
177	0xbd503b67	-0.0508379
178	0xbe33eb42	-0.17570212
179	0xbdb1a6d0	-0.08674395
180	0xbb9ac247	-0.0047228667
181	0x3cbcee48	0.02306284
182	0x3d6e2295	0.05813845
183	0x3d1549cf	0.036447342
184	0xbdeb04cf	-0.114755265
185	0xbd8b1ecd	-0.06792984
186	0x3e44cf25	0.19219644
187	0x3e53d31f	0.20686005
188	0xba3a0fbd	-0.0007097682
189	0xbdd1b5fa	-0.102397874
190	0xbde079f5	-0.109607615
191	0x3da760b5	0.08172742
192	0x373b6e5c	1.1171764e-05
193	0x3dc81ddc	0.0977132
194	0xbddbb7ae	-0.107283935
195	0x3cbc6858	0.022998974
196	0x3dfa760d	0.12229548
197	0xbdfacf30	-0.12246549
198	0xbdb686de	-0.089124426
199	0xbdb55ce1	-0.08855606
200	0xbd3fac20	-0.04679501
201	0x3dd69929	0.10478432
202	0xbd85bc9e	-0.065301165
203	0xbdc1cc28	-0.09462768
204	0x3e1ff2bf	0.15619944
205	0x3e88f44b	0.2674888
206	0x3e23de05	0.16002662
207	0xbc7e1134	-0.015507031
208	0xbdcf573c	-0.101240605
209	0xbe1a0ac2	-0.15043166
210	0x3d965b13	0.0734159
211	0x3db19478	0.08670896
212	0x3dd9e1e6	0.1063879
213	0x3de72bd6	0.11287658
214	0xbe0e6889	-0.13907064
215	0x3d1afba7	0.03783765
216	0x3de68db6	0.11257498
217	0xbdd327d4	-0.10310331
218	0x3e7ef1d9	0.24896945
219	0x3e6bfb8a	0.23045173
220	0xbd3d60be	-0.04623484
221	0x3d3e4805	0.046455402
222	0xbd63ae9a	-0.055586435
223	0x3d822cb5	0.063561834
224	0xbd7f4480	-0.062321186
225	0x3beb29af	0.0071766
226	0x3e3fb987	0.18723117
227	0xbd8eed0f	-0.06978809
228	0x3bfb0b18	0.0076612346
229	0xbc9e4531	-0.019320102
230	0xbe0456f7	-0.129238
231	0x3c86be03	0.016448027
232	0x3a8fc742	0.0010969418
233	0xbcac4713	-0.021029985
234	0xbdc6ef00	-0.097135544
235	0x3e289463	0.16462855
236	0xbe577f2f	-0.2104461
237	0x3d72304e	0.0591281
238	0xbcf17de7	-0.02947898
239	0xbcdd52c1	-0.027017
240	0xbd823ead	-0.06359611
241	0x3d461289	0.04835752
242	0x3d3a138c	0.045428798
243	0x3e5f7426	0.21821651
244	0x3de263e5	0.110542096
245	0x3c1cdc71	0.009574042
246	0xbd212dad	-0.0393502
247	0xbe2b74fd	-0.16743846
248	0x3e26e557	0.16298424
249	0x3e1fa81f	0.15591477
250	0x3d6bd53f	0.057576414
251	0x3d4641df	0.048402663
252	0xbd93f7c2	-0.072249904
253	0x3d5735fb	0.052541714
254	0xbdc00836	-0.09376566
255	0xbd6606c2	-0.05615879

dense5.bias f4 [64]
0	0xbd8d950a	-0.069131926
1	0xbe5a275d	-0.21304078
2	0x3b8a84b2	0.0042272443
3	0xbe2abdd7	-0.1667398
4	0x39e7b48f	0.0004419428
5	0xbd43d494	-0.047810152
6	0xbd4330e7	-0.04765406
7	0xbd3f5e6b	-0.046720903
8	0xbe99fc0a	-0.30075103
9	0x3da213fb	0.07913967
10	0x3d8adf2f	0.0678085
11	0x3ce97801	0.028499605
12	0xbe83d8d8	-0.25751376
13	0x3dde7d35	0.10863725
14	0xbe44ad55	-0.19206746
15	0xbe3c741c	-0.18403667
16	0xbea0e420	-0.31424046
17	0xbdb09008	-0.08621222
18	0xbd20ff12	-0.039305754
19	0x3d3642fd	0.04449748
20	0xbe0317c0	-0.12802029
21	0x3cc8aa3d	0.024495238
22	0xbdcb2c72	-0.09920587
23	0xbe0066a5	-0.12539156
24	0xbc05b6cf	-0.008161261
25	0x3c073901	0.008253337
26	0xbe0333f7	-0.12812792
27	0xbe55b9b4	-0.20871621
28	0xbe89c00d	-0.26904336
29	0x3daa7db0	0.08324754
30	0xbca7ea1f	-0.02049738
31	0xbdb279d2	-0.08714642
32	0xbce1c3f9	-0.027559267
33	0xbdb71d1d	-0.089411
34	0xbc9521af	-0.018204538
35	0x3de263d7	0.11054199
36	0x3c2f5ea9	0.010703721
37	0xbda39721	-0.0798781
38	0x3de3deda	0.1112649
39	0xbd85f029	-0.065399475
40	0xbde69934	-0.1125969
41	0xbe5bc98a	-0.214636
42	0xbc997870	-0.018734187
43	0xbd9fd61d	-0.07804511
44	0x3c2608d6	0.010133943
45	0xbdf8fd0f	-0.12157642
46	0xbb3dc116	-0.00289542
47	0xbdb65369	-0.08902628
48	0xbe7bfb35	-0.24607547
49	0xbdd92b46	-0.10603957
50	0xbc966823	-0.018360203
51	0x3c5339bf	0.012892186
52	0xbe005a7b	-0.12534516
53	0xbd064cf9	-0.03278825
54	0xbd679972	-0.05654282
55	0x3df8bb43	0.12145092
56	0xbe331f56	-0.17492422
57	0xbc5709cc	-0.013124894
58	0xbdcf0a6f	-0.10109412
59	0xbd5359c9	-0.051599298
60	0x3c2fffa8	0.010742106
61	0xbdf3406c	-0.11877522
62	0xbd7c75c5	-0.06163575
63	0xbd95c8f4	-0.073137194

dense6.weight f4 [2, 64]
0	0xbd430bc4	-0.047618642
1	0x3e14eaf2	0.1454275
2	0x3c4df45e	0.012570469
3	0x3d8c3e4a	0.06847818
4	0xbcf2d8e6	-0.02964444
5	0x3d9114aa	0.070840195
6	0xbd1ca113	-0.03823955
7	0x3a297f84	0.00064658397
8	0xbdd9bb2e	-0.10631405
9	0xbd2070f3	-0.039170217
10	0xbc45375d	-0.012037125
11	0x3a1b47c0	0.00059234723
12	0xbc9dae46	-0.01924814
13	0x3d321abb	0.043482523
14	0xbc32a3f7	-0.01090335
15	0xbdead9ae	-0.114673
16	0xbd699b85	-0.05703308
17	0xbd94935c	-0.07254669
18	0x3e02b163	0.1276298
19	0xbbd0efa9	-0.006376226
20	0x3d44e98f	0.0480743
21	0xbde1bf36	-0.11022799
22	0x3d01c650	0.031683266
23	0x3d4c37e8	0.049858004
24	0x3d62e702	0.055396087
25	0x3d8ce7f0	0.06880176
26	0x3d352245	0.044222135
27	0x3bdcde49	0.0067403656
28	0xbdc87839	-0.09788556
29	0x3df066fb	0.11738392
30	0x3d3d5a76	0.04622885
31	0xbd8fbd1b	-0.07018491
32	0x3c9462b2	0.018113468
33	0xbd98e3c4	-0.07465318
34	0xbc813196	-0.015770715
35	0xbd265e3b	-0.04061721
36	0x3e3183bc	0.17335409
37	0x3dd94e50	0.1061064
38	0xbcea65df	-0.028613029
39	0xbd04e328	-0.032443196
40	0x3ca1856d	0.019716943
41	0x3c4e1a1e	0.012579469
42	0xbc930805	-0.01794816
43	0x3ca7421a	0.020417262
44	0xbd68af8f	-0.05680805
45	0xbd59f949	-0.053216252
46	0xbde9f504	-0.11423686
47	0xbdbc73a8	-0.09201747
48	0x3d3ba86e	0.045814924
49	0x3c19414b	0.009353946
50	0x3d52ea03	0.051492702
51	0xbc626c1b	-0.01381972
52	0xbc955be9	-0.018232303
53	0x3c16c1d8	0.009201489
54	0x3e069877	0.13144098
55	0x3d1a8e76	0.037733518
56	0x3d8cd6c1	0.068768986
57	0xbcaf6c30	-0.021413893
58	0xbe0cc87d	-0.13748355
59	0x3d0d364f	0.03447562
60	0xbd904e1b	-0.070461474
61	0x3c77023e	0.015076218
62	0xba6225a3	-0.0008626824
63	0xbdd5c5dc	-0.10438129
64	0x3db22efc	0.08700368
65	0xbd702e1c	-0.058637723
66	0xbb52e986	-0.0032182648
67	0x3e035802	0.12826541
68	0xbd8714a4	-0.06595734
69	0x3df94421	0.12171198
70	0xbda75ff5	-0.08172599
71	0x3cebe42b	0.028795322
72	0x3d3a9e79	0.045561288
73	0xbe20dce7	-0.15709268
74	0xbe0f3705	-0.13985832
75	0x3d0327ad	0.03202026
76	0x3d7bb4f5	0.06145187
77	0xbaeaddee	-0.0017918923
78	0x3d98c3bc	0.07459208
79	0xbda2303d	-0.07919357
80	0x3dac8e30	0.084255576
81	0xbd20091e	-0.039071195
82	0x3d1ab97d	0.03777455
83	0xbd8ca940	-0.068682194
84	0xbe0d1d94	-0.13780814
85	0xbd8be0a4	-0.06829956
86	0x3e00a28d	0.12562008
87	0x3dbb785f	0.09153818
88	0xbd866528	-0.06562263
89	0x3db7e67c	0.08979508
90	0xbd6e2b97	-0.05814704
91	0x3d8dc3b1	0.06922091
92	0x3d92e0f8	0.07171816
93	0x3d94bc62	0.07262494
94	0x3c098ff8	0.008396141
95	0xbde69759	-0.11259336
96	0xbce7af9f	-0.028281985
97	0xbd2e13a7	-0.04249921
98	0xbd6528c0	-0.055947065
99	0xbdb2d359	-0.087317176
100	0xbcaaafbc	-0.02083575
101	0x3d283f47	0.04107597
102	0xbd5966c1	-0.05307651
103	0x3badc1f4	0.005302662
104	0xbdf69981	-0.12040997
105	0x3d572865	0.052528758
106	0xbd721ec8	-0.059111387
107	0x3e098ace	0.13431856
108	0xbd0f8c46	-0.035045885
109	0xbba8b6ab	-0.005148729
110	0xbdbf15ac	-0.093303055
111	0xbd545563	-0.051839244
112	0x3d7f3810	0.062309325
113	0xbc8b97de	-0.01704019
114	0x3dcfe5dd	0.10151265
115	0x3cd6bab2	0.02621207
116	0x3cb958f8	0.022625431
117	0x3d406056	0.046966873
118	0x3dc013e3	0.09378793
119	0xbc189b72	-0.009314405
120	0x3dde6d47	0.10860687
121	0xbd38460d	-0.04498868
122	0xbd16297b	-0.036660653
123	0x3d947c12	0.07250227
124	0xbdcb4aa6	-0.099263474
125	0x3d40cef9	0.047072385
126	0xbe35ce89	-0.17754568
127	0xbd866276	-0.06561749

dense6.bias f4 [2]
0	0x3e057c98	0.1303581
1	0xbdfd5a58	-0.12370747
