GraphNeuralNet/Skim1E2Mu/MHc-70_MA-65_vs_ttZ/models/ParticleNet-nNodes32_RMSprop_initLR-0p0001_StepLR.pt (torch, 108013 bytes, 89 tensors)

gn0.weight f4 [9]
00000000: 9a7d 9f3f 5a95 223f dd4e 263f c1ce 463f
00000010: 6364 9d3d 3e30 a03f adbd 853f c2bf 463f
00000020: e0a8 a43f
1.2460206 0.6350914 0.64964086 0.7765923 0.07685163 1.2514722 1.044851 0.7763635
1.2864037

gn0.bias f4 [9]
00000000: 15cf ee3d 5a30 79bd a86e d73b 285c 9dbc
00000010: 98b6 1bbe c9d9 c33b 7e8a f93c 639f b4bd
00000020: ffc4 6abe
0.116605915 -0.060837127 0.0065744705 -0.019208983 -0.15206373 0.0059768897 0.030461546 -0.08819463
-0.2292671

gn0.mean_scale f4 [9]
00000000: fd00 e53e b327 ab3e d1ff d63e 5594 0940
00000010: 461d 6b3f d339 0fbe 841d ad3f c4d6 353f
00000020: 33a6 ec3f
0.44727316 0.33428726 0.41992047 2.1496785 0.9184154 -0.13986902 1.3524632 0.7103083
1.848822

conv1.mlp.0.weight f4 [32, 18]
00000000: cd19 583d 558c 9abd cd53 5ebd d9c7 b73e
00000010: 412b a63d cf0e 693e 6b67 c4ba 0124 013e
00000020: c666 4a3d 49a4 f1bd 3e0e 1cbd c4d7 86b9
00000030: 6414 80be dc43 a23d 3f86 4d3c 6057 25be
00000040: 2df7 74be e322 b9bd ede9 31bd adbe 29be
00000050: 1a2d 16bf 0bed b9bc 058c 763d 5c60 043e
00000060: a8da 17bd e688 90be ac5a 30bc a8b9 8c3c
00000070: c813 783b 8776 de3d 9133 1fbd 0fff aa3c
00000080: 48e9 07bd f696 46bc eca3 efbc d659 fcbb
00000090: 9e5f 9c3e 84cc 6bbd 957a e13c 5664 c23d
000000a0: eecb 7cbd c23e 03be f20f 8abe 30b0 d4be
000000b0: 09ea 993e 2efd b43d 8042 adbd cf91 133b
000000c0: d456 de3a 76a3 813d 7dc8 483c dd1c 183e
000000d0: 1ac6 6abe dc01 d7bd f6c1 fdbd e0f8 5c3d
000000e0: 73b9 383f 904b 243c 3089 0a3e 6e5c 61bc
000000f0: 1201 f4bd 745e fd3d c3fe 08bd 7c6c a43c
00000100: eb79 c83c 72b7 70be 55f5 daba 8c76 503d
00000110: f412 8bbe 6844 853b 7c30 eb3c b39e 9b3d
00000120: 850a b53b de79 13bb f8f2 d13e 60c4 23bc
00000130: e2e6 163e e63e 3fbf a8ac b93d 5719 623e
00000140: 06cd d9bc d1a0 643a 0e4b 9a3b a5e1 20bb
00000150: afc7 673c 3a2e 9c3c c921 333e f44c a7bc
00000160: 2e8f d0bc 0a2f 7cbe 95bf c9bd 1258 79ba
00000170: 4da4 c9bc cc9d b73a d610 a1bd 1f11 08be
00000180: 0eb8 673e 39ff f63c c27c 123e d7fe 68be
00000190: f605 b7bc 43bf 193c 53bb 543c 983b 69bd
000001a0: de78 78be be22 ee3d d6ba d4bd 549d 0dbe
000001b0: 3c72 a3bf 780e 89ba d5eb 08bd da4c 81bc
000001c0: b524 433d d5b5 903d 7ba9 e03d 8df9 b83d
000001d0: 25a0 39bc 4ab1 4a3c 6903 79ba ab7a 4fbc
000001e0: f1ff 36bc 659b 573d fdbe 853c 0142 a5bc
000001f0: b37f 3dbc 905e b7bc f680 33be 75be a3bc
00000200: 8d0f 473c f7a0 96be 219d 973d 098b 10be
00000210: 1316 76bc 134a 16be 05a2 9a3e b66a aebd
00000220: 3b7f e03c 0fd1 4bbc b3fd 213e b071 00bd
00000230: 613b c13c 77d8 933d 7113 06be 5a32 ef3c
00000240: c9e9 70be 26d2 bdbd 09ef 93bc 44ed 393e
00000250: 902b 22bd 428e 243e f317 9bbe aae3 203e
00000260: eb49 313f 09e7 d8bd 41a7 abbc 6890 88bc
00000270: 762d 2dbe 7564 583d 06ca a33d 3c80 e63d
00000280: a8cb d83d d820 053e b92c 40bd d38a 48bc
00000290: 59dc 21bf 6913 b53c d8c7 03bd 3cb1 133d
000002a0: 6783 23be 321a 723d 89ba d9bd 5d59 ec3d
000002b0: 5819 263c 04da 473d a19d 143d 5291 493c
000002c0: 7a12 3bbe 6704 013d ebed 9f3b dfa8 e93d
000002d0: 4d77 babd f15a 1abc a874 023d 1851 0fbf
000002e0: f837 40be b299 61be 43fe b53d 3f7d 9fbc
000002f0: 4121 223e 2775 6c3a 884a 92bc f0ab d53b
00000300: 9ddf 2f3d 80a5 35bd 5809 043d 95ed 93bd
00000310: c06f 0c3d 7917 a0bd d655 c53d f1d4 aabb
00000320: 1da0 ffb9 7491 e43c 23cb be3d a4ad 1f3e
00000330: 6b07 9fbd aad4 8f3e 425f bc3e ad38 45bd
00000340: cd05 0e3d 5b4e 02bd 1d34 bc3d d78e a53d
00000350: f8bd 023d f5e7 abbd ff9a 65be 52d2 38be
00000360: 964f 78bf 74b0 9abc d5c9 ebbb 0d4f ce3c
00000370: f016 87be bd02 203e 7d44 dc3d a21d a63d
00000380: bbab 63be d5b3 f23c 4d44 023d d1f6 1fbc
00000390: 53c3 913b 3f9a b83d a38e 87bc 5698 9d3d
000003a0: 897b 583d afde 8e3d 04be 8a3d 39c6 573c
000003b0: c1bc 77bd abd9 62be 67f9 e0bd 4a59 9dbe
000003c0: 372b 1f3e f9a9 91be 9fbb 20be c09f 093e
000003d0: add7 9bbb ab90 993d 2bcf da3c 3891 1bbe
000003e0: 9d0a eabb 5543 0ebe b97a 863e 201e 3d3e
000003f0: c2a0 dabe 1dba 4dbb 06e5 67bc ee81 49bb
0.05275898 -0.075462975 -0.054279137 0.3589466 0.08113719 0.22759555 -0.0014984434 0.1261139
0.04941442 -0.11798913 -0.03809952 -0.0002571923 -0.25015557 0.079230994 0.012544214 -0.16146612
-0.23922415 -0.09039857 -0.04343598 -0.16576643 -0.5866257 -0.022696039 0.060192127 0.12927383
-0.03707376 -0.28229445 -0.010763805 0.017178372 0.0037853587 0.10862451 -0.038867537 0.020873575
-0.03318146 -0.012120953 -0.029252969 -0.007701139 0.305417 -0.05756809 0.027524272 0.09491794
-0.06171792 -0.12816909 -0.2696529 -0.4154067 0.30061367 0.08837353 -0.084599495 0.0022517329
0.0016963133 0.06330006 0.012254831 0.1485476 -0.22927132 -0.104984015 -0.12390511 0.053948283
0.72157973 0.010027781 0.13528895 -0.013754947 -0.11914267 0.12371531 -0.033446085 0.02007126
0.024472198 -0.23507479 -0.0016705195 0.050894305 -0.27162898 0.0040669926 0.028709643 0.07598629
0.0055249357 -0.0022503058 0.41005683 -0.00999555 0.14736512 -0.7470535 0.09066135 0.22079979
-0.02658702 0.0008721473 0.0047086542 -0.0024548557 0.014146729 0.019065011 0.17493357 -0.020422436
-0.025458898 -0.24627319 -0.098509945 -0.00095117197 -0.024614478 0.0014008819 -0.07864539 -0.13287781
0.22628805 0.030150997 0.14305404 -0.22753464 -0.02234171 0.009383979 0.012984115 -0.0569416
-0.24264857 0.1162772 -0.103871986 -0.13829547 -1.2769237 -0.0010456583 -0.033428032 -0.015783716
0.04764243 0.07065932 0.10969826 0.09031973 -0.011329685 0.012371371 -0.00094991043 -0.012663524
-0.01116942 0.05263843 0.016326422 -0.020173075 -0.01156609 -0.022383958 -0.17529663 -0.019988278
0.012149704 -0.2941968 0.07403017 -0.14115538 -0.015019911 -0.14676695 0.30201736 -0.08516447
0.027404418 -0.01243998 0.15819435 -0.03135842 0.023587884 0.07219022 -0.13093354 0.029198814
-0.23526682 -0.09268598 -0.018058317 0.18156916 -0.039592326 0.16069892 -0.3029171 0.15711847
0.69253415 -0.105909415 -0.020953776 -0.01667042 -0.16911873 0.05283018 0.07997517 0.112549275
0.10585719 0.1300081 -0.04691765 -0.0122401295 -0.6322685 0.022103982 -0.032173008 0.036057696
-0.15968095 0.059107013 -0.10631282 0.11540482 0.010137878 0.0487919 0.03628314 0.0123027135
-0.18268767 0.03149834 0.004880657 0.11409163 -0.09104786 -0.009421096 0.031849533 -0.55983114
-0.1877135 -0.22031286 0.08886387 -0.019468902 0.15832998 0.00090201426 -0.017857805 0.0065207407
0.042937864 -0.044347286 0.032235473 -0.072230496 0.03428626 -0.07816977 0.096355125 -0.005213373
-0.00048756684 0.027901389 0.09316089 0.15593582 -0.07765087 0.28091937 0.36791426 -0.048149753
0.0346735 -0.031813007 0.09189627 0.08083885 0.03191945 -0.08393852 -0.22422408 -0.18048981
-0.9699644 -0.018882968 -0.007195691 0.025184179 -0.26384687 0.15626045 0.107552506 0.08111121
-0.22233479 0.029626766 0.031803418 -0.009763435 0.0044483333 0.09013795 -0.016547507 0.076950714
0.052852187 0.06976067 0.06774524 0.013169819 -0.060482744 -0.22153346 -0.1098507 -0.30732185
0.15543829 -0.2844999 -0.15696572 0.13439846 -0.004755935 0.07498296 0.026710114 -0.15192115
-0.0071423785 -0.13892873 0.26265505 0.18468523 -0.42700773 -0.003139145 -0.014153725 -0.003074761

conv1.mlp.0.bias f4 [32]
00000000: 7043 74be 076e b9be d49c 2b3e 3a45 01be
00000010: 271e 7abe c5e7 19bf a88e f1bd 4df8 81be
00000020: 213a 49bc 0c1f 49bd 8cfd a3be f38a cabe
00000030: 43ec 41be 4fd8 72bd bdb7 01be 76a2 b1be
00000040: 0125 30bd 1c75 4f3e 5df1 57be b0d3 72bd
00000050: 5ee7 a53e ce88 24be 87d0 8ebe 0aeb 2f3d
00000060: 1448 32be dcf2 8fbe 2264 a53e f981 b63d
00000070: 6ff9 ddbd 7476 75be 59a6 87be 68c7 cabe
-0.2385385 -0.36216757 0.16759044 -0.12624064 -0.24425565 -0.6011928 -0.11794788 -0.2538475
-0.012281925 -0.049101874 -0.32029378 -0.39559135 -0.18937783 -0.05928832 -0.12667747 -0.3469426
-0.04300404 0.20259517 -0.21088167 -0.059283912 0.32403082 -0.16067812 -0.2789347 0.04294876
-0.17410308 -0.28114974 0.32302958 0.08911509 -0.10838591 -0.23970968 -0.264941 -0.3960526

conv1.mlp.2.weight f4 [32]
00000000: 01d0 613f 4d2f 8c3f 7792 733f 7c92 893f
00000010: 08b6 7e3f b70f 863f 8769 863f c202 653f
00000020: f90a 663f e017 7f3f dd6e 773f 0958 793f
00000030: 6662 813f a971 603f b182 6e3f b360 7b3f
00000040: 5d1d 5c3f ae03 6d3f 8a66 5b3f a6fa 893f
00000050: 2d99 6a3f f294 7d3f f96a 713f dc16 803f
00000060: 08dc 7e3f e828 7c3f 2399 5a3f 47dd 9e3f
00000070: 6c88 933f 0584 6e3f e04f 603f bb73 673f
0.88208014 1.0951935 0.9514536 1.0747828 0.9949651 1.0473546 1.0500954 0.89457333
0.8986049 0.99645805 0.9665354 0.97399956 1.0108154 0.8767343 0.9316817 0.98194426
0.85982305 0.9258374 0.8570334 1.0779617 0.9163998 0.990554 0.9430385 1.0006976
0.9955449 0.9849992 0.8538992 1.2411278 1.1526008 0.93170196 0.8762188 0.90410966

conv1.mlp.2.bias f4 [32]
00000000: c7b2 563e ec56 8d3e 5a68 183e 9d81 743e
00000010: 9570 2d3e f62b 0dbd df95 0c3e c8d8 0a3d
00000020: 776b babd bb89 963e 0fa4 3a3c 0981 3d3c
00000030: 4444 9d3e 56f6 073d 34a1 963d c5fc 62bd
00000040: 8a43 4b3c 6d58 e33d a88b 0fbd c21c 623e
00000050: 15b3 213e 29a7 663e 10c6 953d 7a17 333e
00000060: d693 2cbe 9e2c 90bb c3fb 833d d773 5c3e
00000070: 851f 643e 0a63 5a3e e08d 253e 48b0 a4bc
0.20966636 0.2760538 0.14883557 0.23877569 0.16937478 -0.034465753 0.13729046 0.033898145
-0.091025285 0.29401955 0.011391654 0.011566409 0.30716145 0.03319391 0.07354966 -0.05541684
0.012406239 0.1110085 -0.035045296 0.22081283 0.1579097 0.22524704 0.07313168 0.17489424
-0.1685327 -0.00439985 0.06444504 0.21528564 0.22277649 0.21326843 0.16167402 -0.020103589

conv1.mlp.2.running_mean f4 [32]
00000000: ce99 5f3e c934 ab3d 047e d63e 30bc 303e
00000010: 107d 0f3d 5646 fd3b 581c 8a3c a5e5 fc3b
00000020: 690e 973d bccf 753e 7347 ca3c b478 413d
00000030: a2b3 943d eb2b b33e 460f 663b 4226 3f3d
00000040: 35ab ba3d b700 4b3e f4dd 823c 7c01 5c3d
00000050: fa49 6b3e 03c7 1a3e 9a8f 023d aa8b 6d3e
00000060: eb6a 3b3d 99a1 cd3b 7fce f63e d368 013d
00000070: 0ed1 4d3d a7b6 8d3e f057 123d 5d65 183c
0.21836016 0.08359677 0.41893017 0.17259288 0.03503138 0.007729332 0.016859218 0.0077178054
0.073757954 0.24005026 0.024692273 0.047234252 0.07260825 0.34994444 0.0035104319 0.046667345
0.091146864 0.19824491 0.015974976 0.053712353 0.22977439 0.1511498 0.03187523 0.23197809
0.04575626 0.0062753675 0.4820442 0.03159411 0.0502482 0.27678415 0.035728395 0.009301511

conv1.mlp.2.running_var f4 [32]
00000000: 3bd0 183e a3a7 253d e460 5b3e ae87 d63d
00000010: 01ee 303c 6dc5 0c3b 6ab1 873b b5f6 f13a
00000020: 4128 ff3c 67c3 d43d a46e f43b 38b4 8d3c
00000030: 2a7a e03c b1a7 953e 5120 9639 1153 b63c
00000040: 3847 263d d4ec 763d 6ce2 a13b 9f5a c13c
00000050: 8698 b33d 649c 843d d76e 263c b7e3 d83d
00000060: ee33 a23c f3a5 c93a 0b2a 893e f543 d33b
00000070: fa02 933c f90e 093e 6427 623c 731d 143b
0.14923184 0.040443074 0.2142368 0.104750976 0.010798932 0.002147998 0.0041410225 0.0018460365
0.031147124 0.103888325 0.0074594785 0.017297849 0.027402002 0.292295 0.00028634307 0.022256406
0.040595263 0.06028445 0.0049403217 0.023602782 0.08769326 0.06475142 0.010158262 0.10590308
0.019800153 0.001538454 0.2678989 0.00644731 0.017945755 0.13384618 0.013803337 0.002260056

conv1.mlp.4.weight f4 [32, 32]
00000000: 4b02 b6bc e38d d6bd 42ee e5bd 5bab 7c3e
00000010: 6d0b b5bd c678 253e bccd 15bd ea44 8ebd
00000020: e34f 3d3d c33a ca3c f3dc 9abd f086 08bd
00000030: b021 21be db04 b13d 8487 20bd ad49 663e
00000040: 9d11 e13d 7bd1 1abd cb13 21bd 75f3 733e
00000050: e69c 0abe 8e7d d83c 2f8f 983d c9b6 00ba
00000060: 5ccc b43d 1d3c bbbc d5df 7f3c 284b 04bb
00000070: 6be4 233e c56c 8fbc 3437 7fbe 897e 713d
00000080: 1049 2b3d 87e6 d7be e56b 613c 3bc9 8239
00000090: 2013 2bbe c647 70bb 9987 75be e07d fe3d
000000a0: ed2e ea3d db02 36be fd84 bd3d 302a fa3c
000000b0: 73d9 60be 7693 7c3c ad08 f1bd f2a2 bf3d
000000c0: fc7c e1bb 7d60 2d3d 0222 e9bd 004d 3bbe
000000d0: 2734 c63d dcfc 8ebd a2ee c73d 0be0 913c
000000e0: 1595 b4bc 0f61 b73d c95c b73d 8da8 b6be
000000f0: 686c 1abe f8bd 23be 04da b63c e284 cd3c
00000100: 6fb8 d13c 50d8 233d 1dcf f6bb 6100 033e
00000110: 7bb6 193c 1ce8 3f3e 996e 30be 239d 88be
00000120: d6a1 833e 40f2 053e 429e d5bd 4761 523e
00000130: c311 58bd eb36 23be 6c06 2dbd 000d 4b3e
00000140: eb0d 233c b22a 9d3d fc9a 383d 138d 863d
00000150: 395a 553d 9b2d f83d deee a5bd 618d 2abe
00000160: 2eb3 473e fad3 943e b40f 06bd b3fd 36be
00000170: b1a5 c43d 9f85 edbd 352f c13d 9af9 243e
00000180: b49a 793e 78ec 30bd dddb 5dbe 9698 4b3d
00000190: d1dc 09bd 1c02 043a 9b72 343e 2029 f53c
000001a0: afca f63d d3aa dd3c aa32 3d3d 7532 a5bd
000001b0: 0e78 0f3e 0bda 72bb be37 803e 9d25 1f3d
000001c0: 8919 68bd b0f2 723e 3479 4ebe 90fb b5bd
000001d0: 1bbb d23c 2887 91bd fd94 87bc ad07 e3bc
000001e0: 5682 39be ba04 1bbe ce0e 1abe efc3 46be
000001f0: 3651 42bd df1c 4d3b 9fa4 37be 1416 cb3d
00000200: cee8 aebc 8a10 45be a77b 9cbd 06e6 febd
00000210: b001 a0bd 028b a23d 7238 803d 3064 acbd
00000220: 337b 273e 4d2c 9dbe 37c8 03be 3fcd 7abe
00000230: f0da 7d3d 8e04 433d 62a9 263d 08ef 4cbd
00000240: 5cde 83bd 8ae7 2fbe d928 213d a9a0 6ebe
00000250: 5052 93be 2dcd cdbc d715 3bbe 1a06 a2be
00000260: b3a2 0fbd fbd9 3bbc b4a1 69be 12ed e6bd
00000270: 2ea7 cbbe 7458 f7bc d61e 2fbe 343d 103d
00000280: 9897 11bd add9 553b 0952 0bbe fc42 053c
00000290: 7284 10bb a653 6e3e e04f 5dbe 1a70 413e
000002a0: c939 063e 784e 0fbd d076 7cbd 6e92 87bd
000002b0: 507e 02be 98ef ac3d d260 43be cb30 f2bd
000002c0: 3482 f5bd 2478 3c3e a083 06bd 7218 7cbe
000002d0: 11f4 d03d 1ee9 623e eb4d 24be 5ea4 d4bd
000002e0: 0986 193e 4ba2 48bc cc48 8bbd 97a3 9abd
000002f0: 3822 eebd 8f45 653d 4e11 90bd 3e4d 07bd
00000300: ef9f f6bd 8f6f 503c 4f54 f63d 6c1e 3e3c
00000310: 8957 893d e6ba 93bd 929c 793e dc79 a7bc
00000320: d71b ebbd 3f82 183c ca24 4a3d 39f5 02be
00000330: 68ed 0a3e 2214 82bc fae8 88be 82a5 70bd
00000340: a55a 54be a6f3 d0bd 2bd6 ac3c 1674 13bd
00000350: 178c 063d 0891 ccbc db49 9ebd 91ee 043d
00000360: e98e 2bbd 22bc 143d 9fc3 023e da4d a13e
00000370: 5663 703c 908d 86be e208 12bd b403 bcbd
00000380: 8d4c b7be eeba 33be 39a7 31bd 0e4c 8bbe
00000390: e3ca a1bd 8700 dc3d fade c43c 5e02 98bc
000003a0: a316 f4bd a701 5abe 0bc5 4dbe e672 143e
000003b0: e372 003d b26d bebc 5d05 dcbc 5daf 9bbd
000003c0: 09d9 853d 81a3 14be 4f1f 203d 7468 a3bd
000003d0: 729c f5bd 216f 963c 3a76 0ebe 9c9e 83be
000003e0: e492 56bd eaa0 333d f354 ebbd 56b8 efbd
000003f0: ea69 76be f585 0ebe 7b13 0fbe c8ef 19bc
-0.02221789 -0.104762815 -0.11227085 0.24674742 -0.0884007 0.16159353 -0.036573157 -0.06946738
0.046218764 0.024686223 -0.07561674 -0.03333181 -0.15735507 0.08643504 -0.039191738 0.22489043
0.109896876 -0.037797432 -0.039325517 0.2382334 -0.13536415 0.026427057 0.07449185 -0.00049100496
0.08828041 -0.022855813 0.015617331 -0.0020186398 0.16005103 -0.01750792 -0.24923402 0.058958564
0.041817725 -0.42168066 0.013758634 0.0002494546 -0.16706514 -0.0036663874 -0.23977508 0.124263525
0.11434732 -0.17774527 0.09253881 0.030537695 -0.2195795 0.015416017 -0.11769233 0.09357251
-0.0068813544 0.042328347 -0.113834396 -0.18291092 0.09677916 -0.06981823 0.097623125 0.017807027
-0.022043744 0.08954059 0.08953244 -0.3567547 -0.15080416 -0.15990436 0.022320755 0.025087778
0.02560064 0.040001214 -0.007532014 0.12793113 0.009381886 0.18740886 -0.1722969 -0.26682386
0.2570941 0.13080692 -0.10430576 0.20544921 -0.052751314 -0.15938918 -0.042242453 0.19829178
0.009952049 0.07674159 0.04506968 0.065698765 0.052087996 0.121180736 -0.08102201 -0.16655494
0.19501945 0.29067975 -0.03272982 -0.17870216 0.09601916 -0.11597752 0.09432832 0.1611084
0.24375421 -0.043194264 -0.21665902 0.049706064 -0.033657853 0.0005035715 0.17621844 0.029926836
0.120503776 0.027058994 0.046190895 -0.080662645 0.14010641 -0.0037056233 0.25042528 0.03885423
-0.056664977 0.2372539 -0.20163423 -0.08885872 0.025723984 -0.07105857 -0.016550535 -0.027713621
-0.18116125 -0.15138522 -0.1504471 -0.1941068 -0.04744073 0.0031297726 -0.17933892 0.099163204
-0.021351244 -0.1924459 -0.07640772 -0.12446217 -0.07812822 0.0793667 0.06260766 -0.08417547
0.1635559 -0.3069786 -0.12869345 -0.24492358 0.061976373 0.047611766 0.04068888 -0.050032645
-0.06438896 -0.17178169 0.039345596 -0.23303474 -0.28773737 -0.02512225 -0.1827005 -0.3164528
-0.03506727 -0.011465545 -0.22815591 -0.11275686 -0.39775985 -0.030193545 -0.17101607 0.035214618
-0.03554496 0.0032630966 -0.13605513 0.008133646 -0.00220516 0.23274097 -0.21612501 0.1889042
0.13107981 -0.034986943 -0.061636746 -0.06619726 -0.12743497 0.084441364 -0.19079903 -0.11825713
-0.11987725 0.18405205 -0.03284037 -0.246187 0.10202802 0.2215924 -0.16045348 -0.10382913
0.14992537 -0.012245725 -0.06800994 -0.075507335 -0.116276205 0.05597454 -0.070345506 -0.03303265
-0.12042224 0.01272191 0.12027799 0.011603933 0.06706149 -0.072133824 0.24376133 -0.02044385
-0.114799194 0.009308397 0.04935149 -0.12788858 0.13567126 -0.01587874 -0.26740247 -0.05875159
-0.20737703 -0.10202722 0.021098217 -0.03599938 0.032848444 -0.0249715 -0.077289306 0.032454077
-0.041884337 0.03631223 0.12769936 0.3150471 0.014672121 -0.2627988 -0.035653003 -0.09180394
-0.3580059 -0.17551777 -0.043372367 -0.27206463 -0.07900026 0.10742288 0.024032105 -0.018555816
-0.1191838 -0.21289693 -0.20094697 0.14496955 0.031359565 -0.023245666 -0.026858026 -0.07601807
0.06535537 -0.14515497 0.03909236 -0.07978907 -0.1199273 0.018363537 -0.13912287 -0.25706947
-0.05238618 0.04385463 -0.11490812 -0.11705081 -0.2406384 -0.13918288 -0.13972275 -0.009395547

conv1.mlp.4.bias f4 [32]
00000000: a541 aebe 4b30 473e 4a84 99bd 90f9 cfbe
00000010: 6cf6 9bbe 7752 863a 0dc7 04be b3f4 9bbe
00000020: f55b b03d 164d 14bd df5c 54bd bba7 953d
00000030: d1db 6bbe 1b61 10bc 700e 5abe 6785 d93d
00000040: 7f51 483e 46a8 a93c ba2c 6bbe 2ba3 06bd
00000050: d63a 8b3d 9d43 23bd c420 0cbd 11d5 13bd
00000060: 96c0 edbe 4419 cfbe 715a 63be 8bf1 9b3c
00000070: 2260 0a3e 0b14 56be ce75 123a ac8e d4be
-0.34034458 0.19452016 -0.07495935 -0.4062009 -0.30461442 0.0010247965 -0.12966557 -0.30460128
0.086112894 -0.036206327 -0.05184638 0.07307383 -0.23033072 -0.008812214 -0.2129457 0.106211476
0.19562338 0.020710122 -0.2296628 -0.032870453 0.067983314 -0.039859403 -0.034210935 -0.036091868
-0.46435994 -0.40448964 -0.2220247 0.019036075 0.13513234 -0.20906083 0.0005587012 -0.415151

conv1.mlp.6.weight f4 [32]
00000000: a3fb 803f ca1b 833f 4c1b 703f 3e71 663f
00000010: 9c47 6e3f 1c73 693f 75a4 703f ad37 8b3f
00000020: 67cc 7d3f 6fee 7f3f f8eb 623f d5f6 803f
00000030: b905 883f 2b4f 703f f6fa 833f e30e 833f
00000040: 109c 7d3f 33c6 743f 5eb4 873f b603 773f
00000050: 7e35 7d3f 6d6c 883f 655a 903f 1d3d 803f
00000060: 1d08 7a3f db19 653f 22e2 803f a447 853f
00000070: 2ed6 703f 2412 8a3f de0f 763f e992 8b3f
1.0076793 1.0242856 0.9379165 0.90016544 0.9307802 0.9119127 0.9400094 1.0876366
0.9914002 0.99973196 0.8864131 1.0075327 1.0626746 0.938708 1.0310962 1.0238918
0.9906626 0.9561493 1.0601919 0.9649004 0.9890975 1.0658089 1.1277586 1.001865
0.9766863 0.8949258 1.006901 1.0412488 0.9407681 1.0786786 0.9611796 1.0904208

conv1.mlp.6.bias f4 [32]
00000000: d1f8 44be 68cc fd3d fc9c 493e 4d99 883d
00000010: 2c01 2abd 1355 cc3d c419 5dbc df0c b0bd
00000020: b05a d03d e646 03be fac1 5f3e 2f1a 99bd
00000030: 6851 423e f2d1 5b3e 352b 043e 7c80 4c3d
00000040: 9633 f33d 381c 153e e744 2d3e d038 28be
00000050: b2ac 183c b4b9 5b3e 99b5 f73d b34b 9b3d
00000060: 868a 113c e470 5c3d a3c1 c43d 37f1 713e
00000070: 1a73 803e ac84 153d ff97 003e e292 f53d
-0.19235541 0.12392503 0.19688791 0.06669865 -0.041505024 0.09977164 -0.013494913 -0.08596205
0.10173547 -0.12820014 0.2185134 -0.07475697 0.18976367 0.21466807 0.12907107 0.04992722
0.118750736 0.14561546 0.16920815 -0.16427922 0.0093185175 0.21457559 0.12095184 0.07582798
0.008883124 0.0538186 0.09607246 0.23627172 0.25087816 0.03650348 0.12557982 0.11990906

conv1.mlp.6.running_mean f4 [32]
00000000: c9a7 413e 69e4 ab3e 1d61 bf3e 571b 363e
00000010: 532c 283e f6f5 643e f45a a63e f7f8 c53d
00000020: b3cc a03e 212a b83e 6429 613e db78 073f
00000030: 5070 4c3e d50a ee3e 4f84 5d3e d8a8 8e3e
00000040: 9b3c a23e 1f22 8f3e 8d7f 873e aca1 bd3e
00000050: 0aa5 773e 0577 7f3e bed9 eb3e 669b a43e
00000060: 3b59 1a3e f19a 2f3e e8be 5d3e da46 863e
00000070: 098a d53e d552 ad3e 74ae 7a3e f996 643e
0.18911661 0.335727 0.3737878 0.17783867 0.16423158 0.22359452 0.32491267 0.09666627
0.31406173 0.35969642 0.21988446 0.52918786 0.19964719 0.4649264 0.21632503 0.27863193
0.31686863 0.2795572 0.264645 0.37037408 0.24184051 0.24947746 0.46064562 0.3214981
0.15073101 0.17148949 0.21654856 0.2622593 0.41706875 0.33852258 0.24480611 0.22323216

conv1.mlp.6.running_var f4 [32]
00000000: 4031 843e 8f8a 783e 696f 5a3f e709 4b3e
00000010: e554 083e bb47 3b3e ff44 ce3e ba5b 733d
00000020: 281e 6e3e 323b b93e 2921 443e 74a1 053f
00000030: 1736 8d3e bc1a 8d3f d7d6 bf3e e063 303e
00000040: 4d14 683e 566a 963e ae3a f83e de66 893e
00000050: eb75 0d3e 93c7 2b3e 8bfc 0f3f a046 0b3f
00000060: c646 3e3e 9f16 613e 79a2 8e3e 04c9 503e
00000070: 8ab8 b63e 0276 b53e 5d0d 0a3e 0493 343e
0.25818825 0.24271606 0.8532625 0.19827996 0.13313635 0.18289082 0.40287015 0.05941365
0.23253691 0.36177975 0.19153275 0.5219948 0.2758033 1.1023784 0.37468597 0.172256
0.22663994 0.29378003 0.4848227 0.26836294 0.13814513 0.1677535 0.56244725 0.5440464
0.18581685 0.21981286 0.27858332 0.20389181 0.35687667 0.35441595 0.1348166 0.17634207

conv1.mlp.8.weight f4 [32, 32]
00000000: 4141 f73d 4be7 d03c f6f5 a9bd e2ba 45bd
00000010: 3503 c9bd 77ae 613e 9e1a e9bd e38f 81bd
00000020: f2b8 9b3d b9c3 c63d 5780 d93d 94f1 f93d
00000030: be54 803e c355 18be 1fe0 bd3d 57ad 6e3d
00000040: cc3c 3cbe 1549 d2bd b87f 653e 59ee 35be
00000050: 6d9c 743d 0674 97bd 55d3 a63d 769b 593e
00000060: f25a 833d 6954 37bd 4f83 593c 729a 603d
00000070: c5c3 4c3d a157 3d3d 72e0 3cbd 6d54 4d3d
00000080: 4d54 733e 4f2d 5f3e ebec 6a3e 270f bcbd
00000090: afb7 27be efb8 3ebe 8478 23be f2ac 3cbe
000000a0: 0e8f 7d3d ddf0 ac3d 551b 95bd b97d ca3d
000000b0: 26ec d33d 5307 133e 028f 9c3d f2c9 e03c
000000c0: 1f2b 223e f38a b5bc 741a 0b3d 491a 4cbd
000000d0: f101 0d3e 78c6 ed3c 9c31 f83d 074f 1e3e
000000e0: d211 8b3c 1dbd f33d dbda 9bbd 6ea2 183d
000000f0: 6b6e 353d 6aa4 73be 817b 993c 2557 133e
00000100: 7011 d2bd 070d febd 0c8a 14be 11b6 b93d
00000110: cd74 913d 1f9c 20be edc7 073e 5788 1fbe
00000120: 602b d7bd dd31 2ebd 77d7 60bd a5c3 5a3d
00000130: a982 39be c060 81be ce11 3ebe 6d1c a8bd
00000140: 2d1a 39be d2a8 b4bc cfda 2dbe 94f5 083e
00000150: 2f8f 28bd 56f3 70be d111 41be d13e 38be
00000160: a63f 18be fa80 87bd 697f 5cbe bb8d 943d
00000170: 4aa3 52be d132 debd 183c 833b c5f2 06be
00000180: 37fc 0ebd b252 b23d 33a1 643d 39cd c6bd
00000190: 0cd1 96bc 3f50 dc3d 7f24 0abe 2adf b53c
000001a0: 9c20 273e 271a bbbd a6f6 033e 94bc 4ebe
000001b0: 5207 3f3e 7fe6 8bbc fd1f 18bd 5d54 093e
000001c0: 0059 d33d 41fc 0d3e 29cf 1f3e 10e3 c2bd
000001d0: 5bf5 c63d c982 b53d 426f bdbd 04ee 033e
000001e0: 2a5e 2b3d adf4 09bd 69e1 523d e47f 2b3e
000001f0: 30c4 01bd 1324 11be a553 123e 100f 26be
00000200: 13cd 03bc e337 83be 33b9 013d a83c 293e
00000210: a953 80bd 7910 3ebe e97f 963d 4126 8bbe
00000220: ba19 94bd c1a2 11be 3afb 84bd 1898 7b3d
00000230: 34c0 afbd a611 d9bc 8276 6bbe 8878 6fbe
00000240: 8469 dabd 3a17 0ebe 74c8 1f3d 0401 a93d
00000250: 5ada bfbd 5c38 28be 06d5 6bbd a550 9ebd
00000260: 265b 1cbe 8251 7cbc 23f0 44be e047 9cbe
00000270: 6b85 febd fcb1 3abd 2d90 13be dc82 bcbd
00000280: 3d5d 18be c041 ec3d 050e fa3b 7760 15be
00000290: 5464 633d b9ec 74bc f837 72be 9bd1 6f3c
000002a0: 85f6 273e 2963 34be 077a c73d d07a 5fbe
000002b0: af21 f73d 2cdd cb3d a756 223e 3d11 663e
000002c0: 8124 533d e916 3c3d 1e09 b93d c55c d63c
000002d0: c8b5 c83c e728 fb3d c10b 82bd 8601 73bd
000002e0: 380e cdbd 946c 043d b2ff 9dbb 2a60 8a3d
000002f0: b2cf 26bd bf3f febd d0c2 073e 0c4e 88be
00000300: 59e9 473e b797 d23d 6425 e73c 008c 49bd
00000310: 3923 053d 0d18 543d 981a d6bd 2f16 fdbd
00000320: aa0b fc3d 6c4f b83e e5ab 733d efa9 99bc
00000330: 8bbc dbbd da84 12be c0de b73d f07f 0b3d
00000340: 74ef 90bc 3b11 123e 02b6 043e f2cc cdbd
00000350: 8bf0 09be 4899 11be ab1b 20be 5fba 5b3e
00000360: 20d0 b33e 7da7 393d 1736 823d eb66 d33d
00000370: a979 e13b ad89 4ebd 898d 883d 7cd1 7abc
00000380: ddc7 383e 48e8 de3d 7bf7 73bd e86e 8bbe
00000390: d8dc 04bc 8037 65be ac89 50bd 9ee5 acbd
000003a0: 4878 c23d 6954 82bd 33a8 0b3e 6f19 98bc
000003b0: 35e9 533e eca5 a33d 20d1 2c3e ecc1 d13d
000003c0: 2693 1e3d c938 f83d 36c5 5b3d ee1a 653d
000003d0: db21 6dbd 8f7b ac3d 4fa9 403e a347 6cbc
000003e0: b669 d8bd 0911 2a3e 1d68 eabd 658c c43d
000003f0: 3327 383e 8df8 623e 9e23 1e3e 852e 553e
0.12072993 0.025500914 -0.082988665 -0.04827393 -0.09815065 0.2203921 -0.1138203 -0.06326272
0.07603635 0.097053 0.10620182 0.122042805 0.25064653 -0.14876465 0.09271263 0.05827078
-0.18382567 -0.102678455 0.22412002 -0.17766704 0.05971949 -0.073951766 0.08145777 0.2125071
0.06413831 -0.044758234 0.013275935 0.05483479 0.049991388 0.046226148 -0.046112485 0.050129343
0.23762627 0.21794628 0.2294194 -0.091825776 -0.16378663 -0.18625234 -0.15963942 -0.18425348
0.061904006 0.084443785 -0.07280604 0.09887261 0.10347776 0.14358263 0.07644464 0.027440045
0.15836762 -0.022160983 0.033960775 -0.049829755 0.13770272 0.029025301 0.12118837 0.15459834
0.01697627 0.11901305 -0.07610103 0.03726428 0.044294756 -0.23793188 0.018735649 0.14388712
-0.10257232 -0.124048285 -0.14505786 0.090679295 0.07102356 -0.15684555 0.1325986 -0.15579353
-0.1050632 -0.042528022 -0.054892983 0.053409237 -0.18116249 -0.25269127 -0.1856148 -0.08208547
-0.18076392 -0.022053156 -0.16978 0.1337493 -0.041152176 -0.23530325 -0.18854453 -0.17992713
-0.1486803 -0.06616397 -0.21532978 0.072535954 -0.20570102 -0.10849536 0.0040049665 -0.13178547
-0.0349085 0.08707179 0.055817794 -0.09707112 -0.018410228 0.10757493 -0.13490485 0.02220114
0.16321033 -0.091358475 0.12887058 -0.20189124 0.18655136 -0.017077683 -0.03713988 0.13411088
0.1031971 0.13865758 0.15606369 -0.09515965 0.097147666 0.08862836 -0.09249736 0.12883765
0.04183785 -0.033680607 0.0514845 0.16748005 -0.03168124 -0.14173917 0.1428972 -0.16216683
-0.008044499 -0.25628576 0.03167076 0.16527045 -0.06265957 -0.18560971 0.07348616 -0.27177623
-0.072314695 -0.14222242 -0.0649323 0.061424345 -0.08581582 -0.026497673 -0.22994426 -0.23385823
-0.10664657 -0.13876048 0.039009526 0.08252147 -0.09367819 -0.1642775 -0.0575762 -0.077302255
-0.15269145 -0.015400292 -0.1923223 -0.30523586 -0.12427791 -0.045579895 -0.14410467 -0.09204647
-0.14879318 0.11535978 0.007631066 -0.1458758 0.055515602 -0.014949017 -0.23654163 0.014637376
0.16402633 -0.17615952 0.09740072 -0.21824193 0.120669715 0.099542946 0.15853368 0.22467513
0.051548485 0.045920286 0.09034942 0.026167283 0.024500743 0.12263661 -0.06349898 -0.059327625
-0.10012478 0.03233011 -0.004821741 0.06756623 -0.040725417 -0.12414502 0.13257909 -0.26622045
0.19522609 0.102828436 0.028216071 -0.04920578 0.032504294 0.05178075 -0.10454291 -0.12357747
0.12306912 0.35998094 0.059490103 -0.018757788 -0.10729321 -0.14308491 0.08978033 0.034057558
-0.017692305 0.14264385 0.12960055 -0.10048856 -0.13470666 -0.14218628 -0.15635554 0.21457814
0.35119724 0.045325745 0.06357973 0.103223644 0.006880958 -0.050424267 0.06667621 -0.015308734
0.18044992 0.10884148 -0.059562188 -0.27233052 -0.008109294 -0.22384453 -0.050912544 -0.084422335
0.09495598 -0.06363756 0.13638382 -0.018566815 0.2069443 0.079906315 0.1687665 0.10242066
0.03871455 0.12120206 0.053654872 0.055933885 -0.057893615 0.084220044 0.18814586 -0.014421376
-0.10567038 0.16608061 -0.11445639 0.09597091 0.17983703 0.22165127 0.15443274 0.20818527

conv1.mlp.8.bias f4 [32]
00000000: 956d 01be 8bdd e03c 7a1d a7bd cd3b 183f
00000010: b16a 6f3e 71ca d23e 22d2 c0bd 9b19 7c3e
00000020: d425 293e 1dca 01be 79b2 db3e 3035 883e
00000030: 2434 91bc b850 4d3e f74e c03d f08c 083d
00000040: b842 f23d a097 ebbd 2471 f23d 19d3 183e
00000050: 2bdc 41bd 1bc0 983d 5a7f 963d e08a bc3c
00000060: 8481 00bc 39d3 de3d 0b71 d6bc 24ad af3e
00000070: e826 3d3e f68e aebd 9124 4a3d 68eb 313e
-0.12639458 0.02744939 -0.08159919 0.5946625 0.23380543 0.41170076 -0.0941508 0.24619143
0.16518337 -0.12674756 0.429096 0.2660308 -0.017725058 0.20050323 0.09390061 0.033337533
0.11829132 -0.115035295 0.11837986 0.14924277 -0.04732911 0.07458516 0.07348509 0.02301544
-0.007843379 0.10880131 -0.02617695 0.34311783 0.18471873 -0.085233614 0.04935128 0.17374957

conv1.mlp.10.weight f4 [32]
00000000: f6bc 913f 35ff 973f a491 8d3f 01b6 9c3f
00000010: e6b6 943f 50f6 a03f cce6 6e3f 6ed3 993f
00000020: 6f28 a13f 5220 963f aabd 873f b2e0 923f
00000030: e6c2 c33f 03f6 a03f dd2b ab3f 7d02 b13f
00000040: e5f6 af3f 58d8 a13f 9317 a13f a2e7 973f
00000050: 18ba c83f 9a5f 9e3f 8212 853f bb6f 9a3f
00000060: 31a1 943f dea5 a03f b06c 873f 6dd5 c63f
00000070: 56f0 8e3f b448 a23f cb67 983f ac2d a23f
1.1385791 1.1874758 1.1060071 1.2243043 1.1618316 1.2575169 0.9332092 1.2017648
1.2590464 1.1728613 1.0604756 1.1474822 1.5293853 1.2575077 1.3372761 1.3828884
1.3747221 1.2644148 1.2585319 1.1867564 1.5681791 1.2372925 1.0396273 1.2065347
1.1611692 1.2550619 1.0580044 1.5533882 1.1167095 1.2678437 1.1906675 1.2670188

conv1.mlp.10.bias f4 [32]
00000000: 1724 933d 1861 cbbd db12 583e b422 1bbe
00000010: 27b3 4d3e 269f 3ebe 6260 98be 01be 23be
00000020: b344 dfbd c136 15be 2a9c 03be a443 9d3d
00000030: 4739 f3bd c709 d8bd 654b 83be fd44 6e3e
00000040: 5108 51bc eb56 793e 778d c73d 08a2 e5bd
00000050: 83f1 be3d 2916 c93c 4314 c8bd 6a2f 83bd
00000060: cd82 62be 3c0d d0bd 40eb bfbc fbac 35be
00000070: 131e efbc 2ba4 bf3d e4db fdbd 1acc 74bd
0.07184618 -0.099306285 0.21100943 -0.15149957 0.20087872 -0.18615398 -0.29761034 -0.1599045
-0.10901775 -0.14571668 -0.1285254 0.07678917 -0.11876159 -0.1054874 -0.2564346 0.23268504
-0.01275833 0.24349563 0.09743779 -0.11212546 0.093234085 0.0245467 -0.097694896 -0.06405528
-0.22120209 -0.10158774 -0.023427606 -0.17741768 -0.029189145 0.093574844 -0.123954564 -0.05976496

conv1.mlp.10.running_mean f4 [32]
00000000: 0fed 9d3e 9968 0b3f 1142 ae3e 9cfe 873f
00000010: 4431 133f bd03 6f3f d004 af3e bf74 303f
00000020: 7741 113f 46a6 9e3e c790 453f ff37 093f
00000030: 64d8 093f 32ff 383f 3b24 f83e 77ca 003f
00000040: fe73 153f 9baf b23e 16fd f63e b854 133f
00000050: 2cf9 a63e e18a 173f c745 193f 71fb b53e
00000060: 30d3 013f 18c1 093f 83ce fd3e c79b 393f
00000070: 5f6f fa3e 45c1 aa3e db79 e13e 0b11 303f
0.30844924 0.5445648 0.3403478 1.0624576 0.5749705 0.9336508 0.3418336 0.6892814
0.56740516 0.30986232 0.7717404 0.5360107 0.5384581 0.722644 0.48465142 0.50308937
0.58380115 0.348996 0.48239964 0.57551146 0.32611978 0.5919629 0.59872097 0.35543397
0.5071287 0.5381026 0.49571618 0.7250332 0.48913094 0.33350578 0.4403828 0.68776006

conv1.mlp.10.running_var f4 [32]
00000000: ff85 183f f244 a23f cd43 893e 5100 ca3f
00000010: 2131 f43e 712e 903f 3631 583f dce7 a33f
00000020: 24ae 813f 8100 203f 03db bf3f 715b 023f
00000030: d513 8d3f cc28 0640 527d 953f 0c97 103f
00000040: a5a8 1c3f 3d5f b73e 1aea f33e f00f 913f
00000050: 899c 673e 7766 a93f eec6 963f b5d8 9a3e
00000060: c2e0 9a3f 6ea1 083f c840 e43e 1cfa 603f
00000070: d669 e93e 60ab 893e f20f 353f 737b bf3f
0.5957946 1.267729 0.2680954 1.5781347 0.47693732 1.1264173 0.8445009 1.2805133
1.0131269 0.6250077 1.4988712 0.5092078 1.1021677 2.09624 1.167887 0.5648048
0.6119483 0.3581485 0.47639543 1.1332989 0.22618307 1.3234395 1.1779459 0.3024346
1.2099841 0.5337132 0.44580674 0.87881637 0.4558856 0.2688856 0.70727456 1.4959549

conv1.shortcut.0.weight f4 [32, 9]
00000000: 4dea 5fbe 5fa8 8bbd 9507 303d e520 ccbe
00000010: 92b2 c53d ea73 a73d 7a8a b4bd 36aa f9bc
00000020: a48e 593e 7b81 373e b491 9d3d 3abe 333a
00000030: 0fbf fcbd d4d3 bb3d 42cc 1c3e a30e 18bf
00000040: 516c 8c3e 3a75 8e3e 505e c8bd 04c4 1fbc
00000050: 305f c8bc 2382 de38 f72c 85bc 2898 c5bd
00000060: 8518 083f 0a8e 81be 73cd 8cbe 77a8 4d3e
00000070: d77f a9bd db0c 90bc a766 60bd 37dd 7abe
00000080: cd8b a03c bfe9 c8be e179 a33e 4b6f b93e
00000090: 4fca 6bbe 6875 98bd bcde f43d ccaf b93d
000000a0: f6c2 a4bc eacc a6bb b9e2 0e3f 6c1e afbc
000000b0: b986 cebd e087 ab3e 9031 f0bc 4e97 9dba
000000c0: 6ea4 f83d 8e95 9abd 2f85 99bc e266 dabe
000000d0: aab8 26bc 62bd 4d3e a8d1 833e 6eef 323e
000000e0: e076 913d adbc 15be a99c 173e 6281 403e
000000f0: 375f 93be 1f42 903e 5d61 5b3e 67b4 c93d
00000100: 5a07 09be 6049 0abd 3fdf 63be 3135 5d3d
00000110: 1451 883e 754e a8be 13e8 863e 993d aa3d
00000120: 77bc 533e 5ed4 96bd c396 6f3e 2d3c 82bd
00000130: 59ae c0bd 8172 aab9 72b4 d63e 7a23 a33c
00000140: 0a9e 0abf f4d6 673e e1ed 6c3d 9dee 733d
00000150: 3433 52be 7cbb 633d acee 9a3e e514 dfbe
00000160: cd3f 8f3d 0ca1 9fbd 9308 c23e ccd1 843d
00000170: 0863 6cbc afe2 9dbd d460 fbbd 01c8 5d3e
00000180: 231e 73be 02e2 743e 8615 513e ac9d a8be
00000190: 8d33 f33d 1ad7 d4bc 6075 52be dda4 cc3d
000001a0: 9944 1d3e 8893 a23e f4e1 1c3e 4ffe 9f3e
000001b0: beaf 8b3d f9cd 18bd 80e9 ff3c 3e28 783e
000001c0: 2805 d43c d512 d13d 40b0 663e 2b9e cd3d
000001d0: cffe 10be 2667 c43e 89bc bbbd 1e98 383d
000001e0: ea45 dabc 429b 97bd 538a c8b9 f82c bfbc
000001f0: 6e1b 7a3e 95db 543e c40d af3e 6b1d 07be
00000200: d3cd 5e3b 7446 e7bd 1d93 fa3d 3d2f 85bd
00000210: 8384 e8bc bb7c 9a3e c57a a53e 4046 15bb
00000220: e3f8 98bd b4b9 6a3c dd24 103d e5ef dcbc
00000230: d53c 83bd 3268 6cbe 050c ae3e 3a59 91be
00000240: 653f 5c3e 5a59 1d3a cca0 36be 622c 683e
00000250: af71 303d 45af ad3e 31c4 503e 2c20 debd
00000260: 6a9e 5bbe d058 41be 316b 8cbc 068b 04bd
00000270: 582a b6bd 9751 62be 4ab8 bebc 730a ed3e
00000280: 4f64 9dbe 0325 a7be bfde a23c e609 153d
00000290: 2312 5e3d 2e07 583d 524d a43d fad1 b5bc
000002a0: e1d9 9fbe fc80 8ebe d3d7 bbbe cefd 583e
000002b0: 94e1 463d 88c4 ea3c e2e2 a9bd 7640 7e3d
000002c0: 740e d53d 8b00 15bf 6976 a03b e714 c4bd
000002d0: ab0a 993e 58bc ad3d f6e7 4a3e 1fec 223e
000002e0: f32d 983d cdbf bdbe 1dde 95be da2c 13be
000002f0: 458a 90be a1aa f73d 382f 963d 3c5d c3bd
00000300: e6d1 0bbe ad86 dd3d 2f73 a93e 9f8b 6c3e
00000310: 5b15 a83e 4c49 d13e 3852 09bd 4806 9ebd
00000320: 9d33 80bd 08ce c83b d9ec d4bc 0c9c f63d
00000330: 9e3a 6bbe 1d89 443e 3c42 003f bae0 a73d
00000340: 4e83 14bb 2d37 7d3d f522 88be 7b44 733d
00000350: 433d c0be 841c 403e 1562 673e 4271 a43d
00000360: 56c8 4b3c aede 3dbe c471 70bd 8fdb ba3c
00000370: 2c94 60be 7633 a23d b0df 08bf cb68 7e3e
00000380: 5eec b93e c70b 90be 5cac 3ebe eddd 20be
00000390: e060 cfbe a44a b3bc abbc 8d3e eb65 913e
000003a0: 14ea 1cbd b841 27be b56a acbe bc0c d53c
000003b0: 895f b83d 9d51 b8bd b0cd f03d 0754 efbe
000003c0: d370 083e 8de4 8abd 77b7 9f3e 4f06 b33e
000003d0: e706 6f3d 7e52 3dbe a42a 1d3e 6ce4 4dbd
000003e0: 7e95 623e 221c 5b3e e02f 5c3e aeb3 6b3e
000003f0: bd1b 44be 4983 bb3b 7808 f53c 0b74 753e
-0.21866722 -0.068192236 0.04297598 -0.39868847 0.096532 0.08176406 -0.08815475 -0.03047667
0.2124582 0.17920487 0.07693806 0.0006856654 -0.12341129 0.091712624 0.15312293 -0.59397334
0.2742639 0.27823812 -0.09783614 -0.009751324 -0.024459451 0.00010610025 -0.016256792 -0.09648162
0.53162414 -0.2530368 -0.27500495 0.20083795 -0.08276337 -0.017584255 -0.054785397 -0.2449845
0.019597912 -0.39240834 0.31928924 0.36217722 -0.23026393 -0.074442685 0.11956546 0.09066734
-0.020112496 -0.0050903456 0.558147 -0.021376811 -0.1008429 0.33502102 -0.029320508 -0.0012023242
0.121407375 -0.075480565 -0.018740265 -0.42656618 -0.010175863 0.20091775 0.25745893 0.17474148
0.07102752 -0.14622755 0.14805855 0.18799356 -0.2878358 0.28175446 0.2142386 0.09848862
-0.1338171 -0.033761382 -0.2225313 0.054005805 0.26624358 -0.32872358 0.26348934 0.0831253
0.20677362 -0.073647246 0.23397355 -0.06359134 -0.09408254 -0.0003251024 0.41934544 0.019914377
-0.541474 0.22640592 0.057844047 0.05955373 -0.20527345 0.05559872 0.30260217 -0.4357063
0.06994591 -0.07794389 0.37897167 0.06485328 -0.014427908 -0.07709252 -0.12274328 0.21658327
-0.23741965 0.2391434 0.20418367 -0.32932794 0.11875067 -0.025981475 -0.20552588 0.09992383
0.15358199 0.31753182 0.1532057 0.3124871 0.068206295 -0.037305806 0.031239271 0.24234101
0.025881365 0.1020867 0.22528172 0.10039934 -0.14159702 0.38359946 -0.091668196 0.045066945
-0.026644666 -0.0740266 -0.00038250032 -0.023336872 0.24424526 0.20786889 0.3419019 -0.13194816
0.0033997193 -0.11292735 0.12235091 -0.065031506 -0.028383499 0.30173287 0.32320228 -0.0022777468
-0.074693464 0.014326502 0.035191406 -0.02696986 -0.06408087 -0.23086622 0.33993545 -0.28388387
0.21508558 0.0006002389 -0.17834777 0.2267318 0.043077167 0.33922783 0.20387341 -0.1084598
-0.21447149 -0.18881536 -0.017140957 -0.032359146 -0.08894795 -0.22101437 -0.023281235 0.46297035
-0.30740592 -0.32645425 0.019881604 0.036386393 0.054216515 0.052741222 0.0802256 -0.022194851
-0.31220916 -0.27832782 -0.36688098 0.21190569 0.04855497 0.028658167 -0.082952276 0.062073193
0.10403147 -0.58203954 0.004896928 -0.09574299 0.29890952 0.08483189 0.19815049 0.15910386
0.07430639 -0.37060395 -0.2927102 -0.14372578 -0.2823049 0.12093092 0.07333225 -0.095392674
-0.13654289 0.10816703 0.3309569 0.23100136 0.32828793 0.40876234 -0.033525676 -0.07716042
-0.062598445 0.0061280765 -0.025991844 0.12041482 -0.2297158 0.1919293 0.50101066 0.0819716
-0.0022661272 0.061820198 -0.2658917 0.05939148 -0.3754674 0.18760878 0.22596009 0.08029415
0.0124379005 -0.18541977 -0.058702245 0.022809772 -0.21931523 0.07919972 -0.5346632 0.24844663
0.36313146 -0.28133985 -0.18620437 -0.15709658 -0.40503597 -0.021886177 0.27683005 0.2839807
-0.03830917 -0.16333663 -0.3367516 0.026007049 0.09002597 -0.089999415 0.11757982 -0.46743795
0.13324289 -0.06781874 0.3119466 0.3496575 0.058356192 -0.184885 0.15348297 -0.05026667
0.22127339 0.2139745 0.21502638 0.23017761 -0.19151206 0.0057224375 0.029911265 0.23970048

conv1.shortcut.0.bias f4 [32]
00000000: 476f ac3d 9d14 2a3d dad6 cbbd 9e48 563e
00000010: a2ff 11be 0f6d 5bbe 80f0 aebd 9350 843e
00000020: 0198 03be bf3e 0dbe ecbd 813e 15e8 62be
00000030: 4b0a 33be 6d66 743e e392 6abe d7c4 a5be
00000040: abb9 f83d 8b22 c23c f963 85bc 98a2 9e3d
00000050: 1177 263e 1679 873d 952e a83e 0491 a4be
00000060: 4539 1dbe cd71 943d 8db3 8a3e 7fea a1be
00000070: a15e b33d b4e2 8e3c 92ca 84be cabe 7ebe
0.08419662 0.041523565 -0.09953089 0.20926139 -0.14257672 -0.21428321 -0.085419655 0.25842723
-0.12850954 -0.13793467 0.2534021 -0.22158845 -0.17484395 0.23867197 -0.22907595 -0.3237674
0.12144788 0.023698112 -0.016283022 0.07745856 0.16256358 0.06614892 0.3284804 -0.32141888
-0.15353878 0.07248268 0.2709011 -0.3162422 0.087582834 0.017442085 -0.259358 -0.24877468

conv1.shortcut.1.weight f4 [32]
00000000: 769e 593f f98e 653f 3d8b 593f 82b3 403f
00000010: ca95 493f e58f 3e3f bfda 743f fbd6 473f
00000020: 8dd9 6e3f 7dd4 6b3f cb76 5a3f 6092 5a3f
00000030: d64e 143f 1d2b 583f 2a61 463f 2411 233f
00000040: db15 343f 49d8 453f 3f77 6f3f e47a 653f
00000050: 4151 093f 3a57 503f 896c 603f b7b6 433f
00000060: a645 673f f52a 3a3f 6ca3 593f 49b0 263f
00000070: 3417 843f 9af1 4b3f 300d 4b3f 7e27 483f
0.8500742 0.89671284 0.84978086 0.7527391 0.78744185 0.74438316 0.9564628 0.7806241
0.93300706 0.92121106 0.85337514 0.853796 0.57932794 0.84440786 0.7749201 0.6369803
0.7034585 0.7728315 0.9354133 0.8964064 0.5363961 0.813831 0.8766561 0.76450676
0.9034065 0.727218 0.85014987 0.6511274 1.0319581 0.7966553 0.79317 0.7818526

conv1.shortcut.1.bias f4 [32]
00000000: ed43 0fbe 0a57 b0be 325a c13e 22d7 87be
00000010: ee4c 8e3e 0a5e 3cbe 279e 91be 7705 72be
00000020: 9fd2 9ebc d180 39be bb5f 09be 0bc5 e7bd
00000030: 6549 083d 9461 8bbd bb27 64bd 81f8 6c3e
00000040: 91dc e33a 0ff2 8e3e d401 8a3e 28f1 8abe
00000050: 97ca d73d b0b9 2ebe 617b b8be 6dc4 92bb
00000060: 8e6f b0be f973 6abe ca36 e8bd e045 5d3c
00000070: fcb8 2abe 698d 1abd 6b4a 65bd d2ee 32be
-0.13990755 -0.34441406 0.37764126 -0.2653132 0.27793068 -0.18395248 -0.28440973 -0.23634897
-0.019387541 -0.18115546 -0.13415425 -0.1131688 0.03327312 -0.06805721 -0.055701952 0.23141672
0.001738446 0.2791905 0.2695452 -0.27137113 0.10536688 -0.17063022 -0.3603163 -0.004478982
-0.3446011 -0.22895803 -0.11338575 0.013505429 -0.16672128 -0.037732515 -0.055979174 -0.17473915

conv1.shortcut.1.running_mean f4 [32]
00000000: 852c 8ebe 4540 a53d 089f 17bd 9ffd e73d
00000010: 9163 a8be e07f 85bd b29f 523d a27d f93e
00000020: 7b56 183f eab3 d33e 46d0 103f ad2e 54bf
00000030: 512e 813d 9c04 bf3e bcf0 a6be 63e7 75bc
00000040: 9db9 393f 550e 1c3e e968 da3e 407a 073f
00000050: 79fc 063f 78fa edbd 2309 01be 28d8 1fbf
00000060: ca6f b5be 0fff 1b3e 3d94 37bf b126 16be
00000070: 8899 03bf dabc 2dbf ef16 243e d627 efbd
-0.2776834 0.08068899 -0.0370169 0.11327671 -0.32888463 -0.06518531 0.05142183 0.48728663
0.5950696 0.413482 0.565678 -0.8288372 0.06307662 0.37308204 -0.3260554 -0.01500878
0.7254885 0.15239842 0.42658165 0.52920914 0.5272899 -0.11620039 -0.12601142 -0.62439203
-0.3543685 0.15234016 -0.7171057 -0.14663197 -0.51406145 -0.6786629 0.16024373 -0.1167752

conv1.shortcut.1.running_var f4 [32]
00000000: 9d7e 743e 093d 5a3f c055 263f 53ca 093f
00000010: 4ce9 ed3e 9885 dc3e ae78 e33e feff cc3e
00000020: e190 463f 129e dc3e 6ca4 ed3e 43b5 453e
00000030: f6a0 0a3e 135e 513e f8a9 663e 24f4 683e
00000040: cab0 883e 56a5 173f dec6 7f3d 5cd1 c53e
00000050: 9057 953e 7656 9b3e ab1f fc3e 2b8b 8c3e
00000060: 5a40 3f3f b85b a53e 05b5 b43e e564 8c3e
00000070: d1ee cc3d 6115 113f fe0c 4e3e e27f c13e
0.23876424 0.8524938 0.64974594 0.5382435 0.46467054 0.43070674 0.4442801 0.40039057
0.7756482 0.43089348 0.46414506 0.19307427 0.13537964 0.20446043 0.22525775 0.22749382
0.2669738 0.5923666 0.062445514 0.3863629 0.29168367 0.30339402 0.4924291 0.27449927
0.7470757 0.32296538 0.35294357 0.27420726 0.10006488 0.56673247 0.20122144 0.3779288

conv2.mlp.0.weight f4 [32, 64]
00000000: 81f0 acbd a6cb f1bd 6ebb a4bd a5b4 ab3d
00000010: 509e b0bd 1ed0 7c3e 242c b03d a8a4 213d
00000020: 3442 9cbd c76c ba3c 9de9 a1bc 3315 8d3d
00000030: 3752 513d ae4d cf3d 8b1b 8d3d da1a b7be
00000040: 2b8d 8f3d 3595 3ebe d7da 96bd a88c 113e
00000050: 63ae 2bbd 0e37 54bd a4e0 393e 700f a6bd
00000060: b88a 853e 4760 26be ff2d 5ebd 0983 9f3c
00000070: 6f2e 703e 1769 a8bd d451 27bd 42a1 0d3e
00000080: 7ad8 0fbe 8bc1 b33d 7a8a 873d 126c 91bd
00000090: 78a3 4dbd 9d87 5b3b 5ab4 8c3c 2537 983c
000000a0: c0a1 1e3e ab71 a13c 02ec b03c b291 8a3d
000000b0: f0ee bdbd 271b 91bc c67f 0fbe 5097 5c3d
000000c0: 6bd1 673d 40ff a8bb 81ab 5abc 9ff5 aa3c
000000d0: 31cb 1fbe a44e babd 2e5a 48bd 5030 943d
000000e0: c21a 63be b9f0 bc3d 145b 8c3c d846 74bd
000000f0: 3828 29be 05aa 71bd e902 dbbc c42e 88bd
00000100: 05c3 f5bc fc78 b73d 90ee 78be ceee 253b
00000110: b540 cbbd 3074 713e 60f2 a43d 0f25 403d
00000120: 2a93 45be 91af 1fbe 33df 4abd 1c99 98bc
00000130: d317 37be 224e b1bc a753 aabd a1dd 28bd
00000140: ea42 3ebe 787b c8be 8cdd 95be 68ba 3b3d
00000150: de81 1fbc 4591 d93d ca34 2a3e 5bc8 6bbe
00000160: 5f24 a43d 1f74 abbb 43cf d4bd 0981 d4bd
00000170: cf33 773d 188f a73d 9886 0bbe 9b32 033e
00000180: f4d8 d8bb 00cc bbbd 6caf 30bd a325 cc3d
00000190: 154a 85bd b778 363d 3312 12be 7342 40bc
000001a0: a3ae 5abd f2ab d2bc dabf 5abd a914 0cbd
000001b0: d718 2e3c ca59 2abd 546b 7cbc e4d6 0cbd
000001c0: aab2 b2bd e80f 66bd fffe c13c 7d92 ad3d
000001d0: 75fc 69bd bcd6 6b3c cd98 b2bc d62d 9cbd
000001e0: cdca da3d 1254 b4bd 7d8a 47bc 3669 42bd
000001f0: 7b71 37be a457 65bc a3e9 23bd 3b30 9c3d
00000200: 9330 7cbc 12d9 d83c 9299 7c3d 834f bd3a
00000210: e422 c73d 8ba4 1dbc 8c0c 87bd 9c2c 06bd
00000220: 122a 013e c4c5 97bd 479f e3bd 1fae 3c3e
00000230: 74f2 d13d eb86 81bd 9469 dfbd 0eeb 7cbe
00000240: eeb4 df3d 13ca d13d a4a3 cebd a49d 19bd
00000250: 2098 31be ca1c 4cbd fc35 78bd db5d 1c3d
00000260: 276e e53c 1bc0 793e 1543 3e3e bac6 023e
00000270: 28ad 8e3e 67e3 ee3d aff9 903d 4fe1 93bd
00000280: b455 7dbd f503 103c 5996 a43a be15 943d
00000290: 503c 93bd 4f3a 833c cb60 e9bd aa16 953d
000002a0: 8083 2f3e 985d e1bd 3238 74bd b904 73bb
000002b0: ff54 05bc 7189 8f3d 7083 2ebc eb6b 01bd
000002c0: 42b7 083e e789 503d 2abd f13d 77f8 673d
000002d0: 4aee c3bc 7cc1 273d 5a35 b4bc 6adc 383d
000002e0: f4bb d93d 26e4 4c3d f6cd 6fbc b7d9 8f3d
000002f0: e598 5ebc b8a9 7abd aaab ad3c bed5 23bd
00000300: 5ac0 983d 9275 84bd e695 73bd 7bf3 ca3d
00000310: 2340 82be 2853 4a3e 4a75 b73d d513 963d
00000320: 639b d03b 3a28 f2bd 9aa1 e6bd 9b08 a93c
00000330: fe3f cfbd ab85 003d 3e8c 173d 0763 0ebe
00000340: 55e1 afbd ff84 78be c9dc 73be 05ad 353d
00000350: d0db 793d 7c39 553e ec96 273e 49c7 e9bd
00000360: a722 903d 6027 d03d f118 813d 6ea8 84bd
00000370: d990 e23c 590e f7bd f198 ccbc 8797 0dbc
00000380: 7ba8 90be 190a 44bb 4da3 eebc 5900 15be
00000390: da09 093e e353 93bd 0af9 6abc 5fba 983d
000003a0: 1b31 a33d a118 1abd 1da7 103e ed15 aabd
000003b0: 1f5f bbbb 2662 8f3d b5c1 8d3d 8d89 583d
000003c0: 679d 4e3e 6620 9cbd cfb1 893d 541d 2c3e
000003d0: 5376 e33c f91e ae3d d145 003d ecc5 353d
000003e0: 7dbf 99bb 92fa eb3d 0795 96bd 2964 e13c
000003f0: 3060 ab3d 7cf4 ebbd fdd8 6c3e 9727 a73c
-0.0844431 -0.11806421 -0.08043562 0.083840646 -0.08623946 0.24688765 0.08602169 0.03946367
-0.07629815 0.022756947 -0.019764716 0.06888809 0.051103797 0.10122238 0.06890019 -0.35762674
0.070093475 -0.18611605 -0.07365959 0.14213812 -0.041914355 -0.051810317 0.181521 -0.08108413
0.26082397 -0.16247664 -0.054243084 0.019471662 0.23455213 -0.08223169 -0.04084952 0.13831046
-0.14047423 0.0877715 0.06618209 -0.07100691 -0.050204724 0.003349758 0.017175842 0.018580982
0.1549139 0.019707521 0.021596912 0.067660704 -0.09274089 -0.017713143 -0.14013585 0.05385524
0.0565962 -0.0051573813 -0.013346554 0.020869074 -0.15604855 -0.09097031 -0.048914127 0.072357774
-0.22178176 0.09225602 0.017133273 -0.059637874 -0.16519248 -0.059000034 -0.026734786 -0.06649545
-0.03000022 0.08958623 -0.24309754 0.002531934 -0.09924451 0.23579478 0.08054042 0.04691034
-0.1929442 -0.15594317 -0.049529266 -0.018627696 -0.17880182 -0.021643702 -0.08316737 -0.041226987
-0.18580213 -0.391567 -0.2927059 0.045832068 -0.009735553 0.10623411 0.166217 -0.23025648
0.0801475 -0.0052323486 -0.103910945 -0.10376174 0.060352143 0.0818159 -0.13625562 0.12812273
-0.0066176597 -0.09169769 -0.043136045 0.09968116 -0.06508271 0.044548716 -0.14264755 -0.011734593
-0.053389203 -0.025716756 -0.05340562 -0.03419939 0.0106260395 -0.041589536 -0.015406448 -0.034384623
-0.08725484 -0.056167513 0.023681162 0.08475206 -0.057125527 0.014394458 -0.021801377 -0.0762593
0.106832124 -0.08805098 -0.012179014 -0.04746362 -0.17914383 -0.013997946 -0.040017735 0.07626387
-0.01539244 0.026470695 0.061669894 0.0014443252 0.09723452 -0.00962175 -0.0659419 -0.032757387
0.12613705 -0.07410768 -0.11114364 0.18425797 0.102513224 -0.06324562 -0.10908809 -0.24699041
0.109231815 0.10243621 -0.10089806 -0.037503853 -0.17343187 -0.049832143 -0.06059836 0.038175445
0.028006626 0.24389689 0.18580277 0.1277112 0.27866483 0.11664467 0.07078873 -0.072207086
-0.06184931 0.008790006 0.0012557014 0.072307095 -0.07189238 0.016019015 -0.11395415 0.072797135
0.17140007 -0.1100418 -0.059623905 -0.0037081672 -0.00813794 0.07008637 -0.010651454 -0.03159706
0.13351157 0.050912764 0.11803658 0.05663344 -0.023917336 0.040956005 -0.021998096 0.04513208
0.10631552 0.050022267 -0.014636507 0.07023948 -0.013586258 -0.061197013 0.02120002 -0.039998762
0.07458563 -0.06467737 -0.059469126 0.099097215 -0.25439557 0.19758284 0.08957918 0.073280014
0.00636618 -0.11824079 -0.11261292 0.020633986 -0.101196274 0.031377476 0.03699898 -0.13904963
-0.085879005 -0.24269484 -0.23814692 0.044354457 0.061000645 0.2082271 0.16366166 -0.11414964
0.070378594 0.1016376 0.06303585 -0.06477438 0.02765696 -0.120632835 -0.024975272 -0.008642084
-0.2825354 -0.0029913245 -0.029130602 -0.14550914 0.13382664 -0.071937345 -0.014341602 0.074574225
0.079683505 -0.037621144 0.14126249 -0.08304963 -0.0057181264 0.07001142 0.06921712 0.052865554
0.20177232 -0.07623367 0.067233674 0.16808063 0.027766382 0.08502001 0.031316582 0.044378206
-0.0046920166 0.11522402 -0.073526435 0.02751358 0.08367956 -0.11521241 0.2312965 0.02040462

conv2.mlp.0.bias f4 [32]
00000000: 667d c7bb 49c0 813e 2366 1ebf 69ea f4bb
00000010: d1a6 313d af94 18bd 7167 87bd fb5b a9be
00000020: 81c9 acbe efa8 47be 44af 9bbd adc1 d4be
00000030: b19f 74be fbf5 5fbe a72b 7dbe dd12 7b3e
00000040: ad2f 8abc cc63 b7bd 7828 28bd 91b1 01be
00000050: ff02 96be c3a8 3e3d 977c d2bd e762 c9bd
00000060: bb45 bcbe 4a1e 68bd f706 4cbe 3df5 ac3d
00000070: 8516 fcbd ae4a 73bc 973b c0be d0d9 97be
-0.0060879467 0.25342014 -0.618746 -0.007474233 0.04337198 -0.03725117 -0.06611527 -0.33077988
-0.33747485 -0.19498037 -0.07601789 -0.41554013 -0.23889042 -0.21871178 -0.24723683 0.24518915
-0.016868437 -0.089545816 -0.04105422 -0.12665392 -0.2929916 0.046547662 -0.1027767 -0.09833317
-0.3677195 -0.05666951 -0.19924532 0.08445213 -0.12308983 -0.014849348 -0.37545463 -0.29658365

conv2.mlp.2.weight f4 [32]
00000000: f841 813f 627e 873f 4f18 833f a8b5 6f3f
00000010: f675 7d3f 761b 8c3f 4873 6a3f 8f95 8b3f
00000020: 9ebb 773f fb79 693f 0c59 923f 801f 763f
00000030: 2bd8 833f 2123 763f 3ddb 6c3f c6e8 813f
00000040: 4b85 6b3f 77f9 833f a11c 843f 284d 733f
00000050: 5f79 823f cfe1 803f 4c63 763f afe8 803f
00000060: 0358 803f d14d 523f aa46 853f 2c0a 7b3f
00000070: 8182 603f 4e26 7c3f 2ca6 873f 0623 7e3f
1.0098257 1.0585444 1.0241793 0.9363656 0.9900812 1.094588 0.91582155 1.0905017
0.96770656 0.9120175 1.1433425 0.96141815 1.0300344 0.9614735 0.9252203 1.0149162
0.92000264 1.0310506 1.0321237 0.95039606 1.019329 1.0068911 0.96245265 1.0071009
1.0026859 0.8214999 1.041219 0.98062396 0.87699133 0.9849595 1.0597587 0.9927219

conv2.mlp.2.bias f4 [32]
00000000: f542 6e3c f71a 8f3d 7ecc d9be 01ba ed3d
00000010: 871a 1e3e b083 693e 5000 973d 890f afbd
00000020: 4087 41be 6491 0d3d afcf 053e 3e8a 8bbe
00000030: 13b5 a23b 2631 673d 0755 b6be 92d9 653d
00000040: 346a 1abd 9890 533d 27a2 a53d 7bfd 2abd
00000050: 53bd 85bd 40e6 6bbb eaa4 a83d 03b0 eb3c
00000060: 834d 1e3e 00d9 fa3d 7e15 8ebc 6eaa 713d
00000070: b9b8 2ebe b077 353e 7572 ee3c 3a4b a53d
0.014542331 0.06987565 -0.42538828 0.11607743 0.15439807 0.22804141 0.073731065 -0.08547885
-0.1889925 0.034562483 0.13067506 -0.27253908 0.0049654334 0.056443356 -0.35611746 0.056115694
-0.03769894 0.051651567 0.08087569 -0.041745644 -0.06530251 -0.0035995394 0.0823458 0.028770452
0.15459256 0.12248421 -0.017344233 0.059000425 -0.17062654 0.17721438 0.029107312 0.08070989

conv2.mlp.2.running_mean f4 [32]
00000000: 4aac 683f fe6a 403f 9ed9 093f 0f7d 0f3f
00000010: e4bf 453f ecb9 883f bd0f 1b3f 6b9d 323f
00000020: 22a0 223f 5a30 253f 42df 4a3f 39d6 4e3f
00000030: 21e4 9a3f a1fb 093f e60d cf3f e027 073f
00000040: 6c57 ed3e b599 3b3f 75d4 483f d845 ae3f
00000050: 59fe 423f 79c5 073f 5ad3 803f 5eaa 903f
00000060: a115 943e c177 3a3f a14a 963f 1102 803f
00000070: 9b69 8c3f 0992 553f 5872 d73e 5912 dd3e
0.9088789 0.7516326 0.5384768 0.560502 0.77245927 1.0681739 0.6057089 0.6977145
0.63525593 0.64526904 0.79246914 0.8079563 1.210087 0.5389958 1.6176116 0.5279522
0.4635576 0.73281413 0.78449184 1.3615065 0.76169354 0.53035694 1.0064499 1.1301992
0.28922752 0.7283898 1.1741525 1.0000631 1.0969728 0.83425957 0.42079425 0.4317806
