DenseNeuralNet/Skim3Mu/MHc-70_MA-65_vs_ttZ/models/SNN-nNodes64_RMSprop_initLR-0p005_ExponentialLR.pt (torch, 84914 bytes, 16 tensors)

bn.weight f4 [47]
0	0x3f800000	1.0
1	0x3f800000	1.0
2	0x3f800000	1.0
3	0x3f800000	1.0
4	0x3f800000	1.0
5	0x3f800000	1.0
6	0x3f800000	1.0
7	0x3f800000	1.0
8	0x3f800000	1.0
9	0x3f800000	1.0
10	0x3f800000	1.0
11	0x3f800000	1.0
12	0x3f800000	1.0
13	0x3f800000	1.0
14	0x3f800000	1.0
15	0x3f800000	1.0
16	0x3f800000	1.0
17	0x3f800000	1.0
18	0x3f800000	1.0
19	0x3f800000	1.0
20	0x3f800000	1.0
21	0x3f800000	1.0
22	0x3f800000	1.0
23	0x3f800000	1.0
24	0x3f800000	1.0
25	0x3f800000	1.0
26	0x3f800000	1.0
27	0x3f800000	1.0
28	0x3f800000	1.0
29	0x3f800000	1.0
30	0x3f800000	1.0
31	0x3f800000	1.0
32	0x3f800000	1.0
33	0x3f800000	1.0
34	0x3f800000	1.0
35	0x3f800000	1.0
36	0x3f800000	1.0
37	0x3f800000	1.0
38	0x3f800000	1.0
39	0x3f800000	1.0
40	0x3f800000	1.0
41	0x3f800000	1.0
42	0x3f800000	1.0
43	0x3f800000	1.0
44	0x3f800000	1.0
45	0x3f800000	1.0
46	0x3f800000	1.0

bn.bias f4 [47]
0	0x00000000	0.0
1	0x00000000	0.0
2	0x00000000	0.0
3	0x00000000	0.0
4	0x00000000	0.0
5	0x00000000	0.0
6	0x00000000	0.0
7	0x00000000	0.0
8	0x00000000	0.0
9	0x00000000	0.0
10	0x00000000	0.0
11	0x00000000	0.0
12	0x00000000	0.0
13	0x00000000	0.0
14	0x00000000	0.0
15	0x00000000	0.0
16	0x00000000	0.0
17	0x00000000	0.0
18	0x00000000	0.0
19	0x00000000	0.0
20	0x00000000	0.0
21	0x00000000	0.0
22	0x00000000	0.0
23	0x00000000	0.0
24	0x00000000	0.0
25	0x00000000	0.0
26	0x00000000	0.0
27	0x00000000	0.0
28	0x00000000	0.0
29	0x00000000	0.0
30	0x00000000	0.0
31	0x00000000	0.0
32	0x00000000	0.0
33	0x00000000	0.0
34	0x00000000	0.0
35	0x00000000	0.0
36	0x00000000	0.0
37	0x00000000	0.0
38	0x00000000	0.0
39	0x00000000	0.0
40	0x00000000	0.0
41	0x00000000	0.0
42	0x00000000	0.0
43	0x00000000	0.0
44	0x00000000	0.0
45	0x00000000	0.0
46	0x00000000	0.0

bn.running_mean f4 [47]
0	0x00000000	0.0
1	0x00000000	0.0
2	0x00000000	0.0
3	0x00000000	0.0
4	0x00000000	0.0
5	0x00000000	0.0
6	0x00000000	0.0
7	0x00000000	0.0
8	0x00000000	0.0
9	0x00000000	0.0
10	0x00000000	0.0
11	0x00000000	0.0
12	0x00000000	0.0
13	0x00000000	0.0
14	0x00000000	0.0
15	0x00000000	0.0
16	0x00000000	0.0
17	0x00000000	0.0
18	0x00000000	0.0
19	0x00000000	0.0
20	0x00000000	0.0
21	0x00000000	0.0
22	0x00000000	0.0
23	0x00000000	0.0
24	0x00000000	0.0
25	0x00000000	0.0
26	0x00000000	0.0
27	0x00000000	0.0
28	0x00000000	0.0
29	0x00000000	0.0
30	0x00000000	0.0
31	0x00000000	0.0
32	0x00000000	0.0
33	0x00000000	0.0
34	0x00000000	0.0
35	0x00000000	0.0
36	0x00000000	0.0
37	0x00000000	0.0
38	0x00000000	0.0
39	0x00000000	0.0
40	0x00000000	0.0
41	0x00000000	0.0
42	0x00000000	0.0
43	0x00000000	0.0
44	0x00000000	0.0
45	0x00000000	0.0
46	0x00000000	0.0

bn.running_var f4 [47]
0	0x3f800000	1.0
1	0x3f800000	1.0
2	0x3f800000	1.0
3	0x3f800000	1.0
4	0x3f800000	1.0
5	0x3f800000	1.0
6	0x3f800000	1.0
7	0x3f800000	1.0
8	0x3f800000	1.0
9	0x3f800000	1.0
10	0x3f800000	1.0
11	0x3f800000	1.0
12	0x3f800000	1.0
13	0x3f800000	1.0
14	0x3f800000	1.0
15	0x3f800000	1.0
16	0x3f800000	1.0
17	0x3f800000	1.0
18	0x3f800000	1.0
19	0x3f800000	1.0
20	0x3f800000	1.0
21	0x3f800000	1.0
22	0x3f800000	1.0
23	0x3f800000	1.0
24	0x3f800000	1.0
25	0x3f800000	1.0
26	0x3f800000	1.0
27	0x3f800000	1.0
28	0x3f800000	1.0
29	0x3f800000	1.0
30	0x3f800000	1.0
31	0x3f800000	1.0
32	0x3f800000	1.0
33	0x3f800000	1.0
34	0x3f800000	1.0
35	0x3f800000	1.0
36	0x3f800000	1.0
37	0x3f800000	1.0
38	0x3f800000	1.0
39	0x3f800000	1.0
40	0x3f800000	1.0
41	0x3f800000	1.0
42	0x3f800000	1.0
43	0x3f800000	1.0
44	0x3f800000	1.0
45	0x3f800000	1.0
46	0x3f800000	1.0

dense1.weight f4 [64, 47]
0	0xbf06fdcc	-0.52731013
1	0xbf3ab961	-0.72939116
2	0xbec41609	-0.3829806
3	0x3d8eb825	0.069687165
4	0xbf1a1ec4	-0.60203195
5	0xbf08fb38	-0.5350833
6	0xbf51bf2a	-0.8193232
7	0xbebc8c65	-0.36825863
8	0xbeded4ee	-0.43521827
9	0xbe14bcc4	-0.14525133
10	0xbf072c73	-0.528022
11	0xbe9c4c26	-0.30526847
12	0x3f9a99d4	1.2078195
13	0x3ed46197	0.41480705
14	0xbe2643cf	-0.16236804
15	0xbeffe8af	-0.4998221
16	0xbec985bc	-0.39359844
17	0x3fc58e82	1.5434115
18	0x3f2fde03	0.6869814
19	0x3f15e675	0.58554775
20	0x3e62f368	0.22163165
21	0xbefde5be	-0.49589342
22	0xbe813a0b	-0.25239596
23	0x3f106023	0.56396693
24	0xbf047718	-0.5174422
25	0xbed1149c	-0.40836036
26	0xbf1c8d49	-0.61153084
27	0xbce780b6	-0.028259616
28	0xbf9f0a53	-1.2425026
29	0xbede7b69	-0.4345353
30	0xbed4f6ab	-0.41594443
31	0xbe7446a2	-0.2385507
32	0xbee6a20a	-0.450455
33	0xbeab4e5a	-0.33458215
34	0xbefa2ce8	-0.48862386
35	0xbeeccf4a	-0.462519
36	0xbe89e012	-0.26928765
37	0xbefa5f25	-0.48900715
38	0xbeed9d39	-0.46409014
39	0xbeb2c129	-0.34912995
40	0xbecc166b	-0.39860854
41	0xbf1686de	-0.5879954
42	0xbf1c1427	-0.6096825
43	0xbf093f56	-0.5361227
44	0xbe939bf9	-0.28829935
45	0xbee70e13	-0.45127925
46	0xbde54e10	-0.1119653
47	0x3d9db397	0.0770027
48	0xbf36ceaf	-0.71409124
49	0x3fe9fd6c	1.8280463
50	0x3ebe3cc3	0.37155733
51	0x3f3003df	0.68755907
52	0x3f57862b	0.841891
53	0xbf3a2b1f	-0.7272205
54	0xbfe73b50	-1.8064976
55	0xbf4475d2	-0.7674228
56	0x3da69c37	0.08135264
57	0xb8e5ed74	-0.000109638
58	0x3fa67b65	1.3006407
59	0x3d13591c	0.035973653
60	0xbe24dc6a	-0.16099706
61	0x3da30a62	0.07960965
62	0x3f5bbd46	0.85835683
63	0x3fd4ded5	1.6630503
64	0xbfcb61d7	-1.5889233
65	0xbf7392b7	-0.95145744
66	0xbfce5ca0	-1.6122017
67	0x3df10832	0.11769141
68	0x3fe2d087	1.7719887
69	0x3e012420	0.12611437
70	0x3f58c67f	0.8467788
71	0xbf211503	-0.62922686
72	0x3f2b4427	0.6690087
73	0x3f0107e2	0.50402653
74	0x3f6639d6	0.89932
75	0xbf793c47	-0.973576
76	0xbf0fa696	-0.56113565
77	0x3b7bdee8	0.0038432423
78	0xbeffbe15	-0.4994971
79	0x3f4a3719	0.7899032
80	0xbdbd5090	-0.09243882
81	0x3f5b5f00	0.85691833
82	0x3f1cd0d4	0.61256146
83	0x3f56c959	0.8390098
84	0x3f8405d3	1.0314277
85	0x3d1d2ecd	0.03837471
86	0x3f29e85b	0.6637017
87	0x3ec73d1c	0.3891381
88	0x3e83f9e4	0.2577659
89	0x3cf4759c	0.029841237
90	0x3db4e8cb	0.08833464
91	0x3d0a0a04	0.033700958
92	0x3f88ce6e	1.0687997
93	0x3da4655d	0.08027146
94	0x3c311161	0.010807366
95	0xbea9bd17	-0.33152077
96	0x3f8d1bf2	1.1024153
97	0x3f504c66	0.81366575
98	0x3f33e730	0.7027464
99	0x3c597635	0.013272812
100	0xbf90360f	-1.1266497
101	0x3f939205	1.1528937
102	0x3f383b5c	0.71965575
103	0xbfb18aa4	-1.3870435
104	0xbd6cfe7b	-0.05785988
105	0xbedc31b7	-0.4300668
106	0xbf266fe1	-0.65014464
107	0x3f2e6fd9	0.68139416
108	0x3e865ad6	0.26241177
109	0x3eee8eb6	0.46593255
110	0x3fd5f467	1.6715211
111	0xbf702510	-0.9380655
112	0xbdeb8fa6	-0.11502008
113	0x3fdc6f58	1.722148
114	0x3c7a9f2f	0.015296741
115	0x3e6dfe53	0.23241548
116	0x3eca0cdf	0.39462945
117	0xbf946044	-1.1591878
118	0xbfc06d0f	-1.5033282
119	0xbf131cb3	-0.57465667
120	0xbfb93689	-1.4469768
121	0xbeaf0582	-0.3418389
122	0xbd64c915	-0.05585583
123	0xbe53523b	-0.20636837
124	0xbe429276	-0.19001183
125	0x3d90f81d	0.07078574
126	0xbe0b593f	-0.13608263
127	0xbd85f682	-0.06541158
128	0xbf8b4fff	-1.0883788
129	0xbf9878df	-1.1911887
130	0x3e0d514e	0.13800547
131	0x3eff1e96	0.49828023
132	0xbbed0629	-0.0072334004
133	0xbd8f24d0	-0.06989443
134	0xbe55536e	-0.20832607
135	0xbf8ce02b	-1.1005911
136	0xbeb2dc25	-0.34933582
137	0x3e6b4c13	0.22978239
138	0xbe2fac9d	-0.1715569
139	0xbe113616	-0.14180788
140	0xbe49d178	-0.19708812
141	0xbf0498d5	-0.51795703
142	0xbf14d76f	-0.58141226
143	0x3ec2db20	0.38057804
144	0x3f001ccb	0.50043935
145	0xbf091005	-0.5354007
146	0x3ec9b425	0.39395252
147	0x3ef2ad0b	0.47397646
148	0x3ecd359b	0.4007996
149	0xbf0d9588	-0.5530629
150	0xbebbdf2d	-0.36693707
151	0x3f2440ba	0.64161265
152	0xbf177fa6	-0.5917915
153	0x3f0408e6	0.5157608
154	0x3f18f764	0.5975249
155	0x3e88da9e	0.26729292
156	0xbf19be1c	-0.6005571
157	0x3eed1687	0.4630625
158	0xbefa95e4	-0.48942482
159	0xbf08fc58	-0.53510046
160	0xbec659bf	-0.38740346
161	0x3dd419e9	0.103565045
162	0xbee3b58e	-0.44474453
163	0xbec2a38c	-0.380154
164	0x3f03fd9c	0.5155885
165	0x3ef362d6	0.47536343
166	0x3e99429f	0.2993364
167	0xbe9cd0ef	-0.30628154
168	0x3ed4c330	0.41555166
169	0x3e8c5481	0.2740822
170	0xbe8ea05f	-0.27856728
171	0x3ee32128	0.44361234
172	0xbef58994	-0.47956526
173	0x3ec0e05b	0.3767117
174	0x3f03942e	0.5139798
175	0x3e865b0d	0.2624134
176	0x3f068615	0.5254834
177	0xbf122c19	-0.5709854
178	0xbeeb89c3	-0.4600354
179	0xbf03b4d2	-0.51447785
180	0xbf1b7c8d	-0.60736924
181	0xbf037377	-0.5134806
182	0xbf1266f7	-0.5718836
183	0xbf03c050	-0.5146532
184	0xbeeacc9a	-0.45859224
185	0xbf01ce7e	-0.5070571
186	0xbd324a13	-0.043527674
187	0x3e21c36c	0.15797204
188	0xbef4dc56	-0.47824353
189	0xbec3f2d8	-0.38271213
190	0xbf24361c	-0.64145064
191	0x3eed22b7	0.46315548
192	0x3f1b6e7b	0.60715455
193	0xbeba1175	-0.36341444
194	0x3f1acb79	0.60466725
195	0x3f022b96	0.50847757
196	0x3ef81866	0.48456115
197	0x3ec54238	0.38527083
198	0xbf02bd4e	-0.51070106
199	0x3f20c610	0.6280222
200	0xbecda0d5	-0.40161768
201	0x3efccf75	0.49377027
202	0xbe5a33e8	-0.21308863
203	0xbf150899	-0.58216244
204	0xbefda355	-0.49538675
205	0xbecaacdc	-0.39585006
206	0xbeda86f2	-0.4268108
207	0x3f0473ab	0.51738995
208	0xbf0b3c41	-0.54388815
209	0xbf05afb9	-0.52221256
210	0x3ec01688	0.3751719
211	0x3ec07f8e	0.37597317
212	0x3ed10492	0.408238
213	0x3f0698ee	0.525771
214	0xbf111e04	-0.56686425
215	0xbed5394c	-0.41645277
216	0xbebca765	-0.36846462
217	0xbf162950	-0.5865679
218	0xbf129228	-0.57254267
219	0xbf0f819b	-0.5605714
220	0xbf218c0f	-0.6310434
221	0xbf0e27ba	-0.5552937
222	0xbf15dfe8	-0.5854478
223	0xbf05cdf5	-0.5226739
224	0xbecd37ad	-0.4008154
225	0xbef29e33	-0.4738632
226	0xbeeb2c80	-0.45932388
227	0xbf11757f	-0.5681991
228	0xbef8e105	-0.48609176
229	0xbf1584d0	-0.5840578
230	0xbef74bc1	-0.48299983
231	0xbf1027dc	-0.5631082
232	0xbec90e4f	-0.3926873
233	0xbf15849e	-0.5840548
234	0xbf0f62f6	-0.5601038
235	0x3f4b0732	0.79307854
236	0x3cf8c9ad	0.030369604
237	0x3fba7d5a	1.4569504
238	0x3fe0a9d3	1.7551826
239	0xbc983f46	-0.018584859
240	0x3f7cce63	0.9875242
241	0xbec9df71	-0.39428285
242	0xbd7d452c	-0.061833546
243	0xbcad178b	-0.02112939
244	0x3f27f432	0.6560699
245	0x3f7bafc5	0.9831508
246	0x3e8e548f	0.27798888
247	0x3f069bed	0.52581674
248	0x3fba6764	1.4562802
249	0xbe8688a1	-0.26276115
250	0x3e44cfee	0.19219944
251	0xbd97a056	-0.074036285
252	0x3d48f6ee	0.049063616
253	0x3fa09b30	1.254736
254	0xbd743ca8	-0.05962816
255	0x3f54352c	0.82893634

dense1.bias f4 [64]
0	0xbedab959	-0.42719534
1	0x3f6aee24	0.91769624
2	0xb9da4099	-0.0004162833
3	0xbe601e61	-0.21886589
4	0xbf161367	-0.58623356
5	0x3f5d32f7	0.8640589
6	0x3e8b470d	0.27202645
7	0xbf225589	-0.63411766
8	0xbf1b8443	-0.6074869
9	0x3f3e9646	0.7444805
10	0xbf3b3174	-0.73122334
11	0xbf62e06b	-0.88623685
12	0xbf9d02bb	-1.2266458
13	0xbf475aa3	-0.77872676
14	0x3ed33fe8	0.41259694
15	0x3ef4c690	0.4780774
16	0xbf0647c3	-0.5245325
17	0x3f2223bf	0.63335794
18	0x3e2e0f01	0.16997911
19	0x3db2bb22	0.08727099
20	0xbaf21630	-0.0018469747
21	0xbf4b9c50	-0.7953539
22	0x3ef0aa67	0.47005007
23	0xbf1a0abf	-0.6017265
24	0xbedd0ef2	-0.43175465
25	0x3f3e71fc	0.74392676
26	0x3f0a4ea6	0.5402626
27	0xbd48f950	-0.049065888
28	0x3e856189	0.26050976
29	0xbe2bde63	-0.16784053
30	0xbdee6bef	-0.116416804
31	0xbf15ad7d	-0.5846785
32	0xbf3afdfa	-0.7304379
33	0xbf171e35	-0.5903047
34	0xbf6e3c7b	-0.93061036
35	0x3f773ccd	0.9657715
36	0x3d5e4f2d	0.054274727
37	0xbeddc988	-0.4331782
38	0xbee439e0	-0.44575405
39	0xbfa23b6c	-1.2674384
40	0x3cd651e2	0.026162092
41	0x3eb35a7a	0.35029966
42	0x3f3e30e9	0.7429338
43	0xbecdda41	-0.40205577
44	0xbee683b1	-0.45022348
45	0xbf04627f	-0.51712793
46	0x3f2ec16e	0.682639
47	0xbf1ce46a	-0.6128603
48	0xbeddddac	-0.43333185
49	0xbfa6bf35	-1.3027102
50	0x3fce54d1	1.6119634
51	0xbf70f1bf	-0.94118875
52	0xbf5e0ba1	-0.86736494
53	0x3ebdbc49	0.37057713
54	0x3f4bb0bf	0.7956657
55	0x3ed3364c	0.41252363
56	0xbf29f652	-0.6639148
57	0xbf510525	-0.81648475
58	0xbf0bbbfa	-0.54583704
59	0xbeb7bf7b	-0.35888276
60	0xbf0075d6	-0.50179803
61	0xbda59192	-0.08084406
62	0xbd9fc174	-0.0780057
63	0xbfbc137f	-1.469345

dense2.weight f4 [64, 64]
0	0x3fa97c9a	1.324115
1	0x3ec49eda	0.38402444
2	0xbebf9120	-0.3741541
3	0xbdae10b5	-0.0849928
4	0x3e6683be	0.22511193
5	0x3f2f39ef	0.68447775
6	0xbf0b9f33	-0.54539794
7	0xbf0e214d	-0.5551956
8	0x3f849fe5	1.0361296
9	0x3f07c425	0.5303367
10	0xbf1634cb	-0.58674306
11	0x3f2f8b9b	0.68572396
12	0x3eb625ea	0.355758
13	0xbde969cb	-0.113971315
14	0xbec67516	-0.38761204
15	0x3f207d39	0.62691075
16	0xbf2de5ca	-0.67928755
17	0xbd1449ef	-0.03620332
18	0x3f818f7b	1.0121912
19	0xbf749a7e	-0.95548236
20	0x3f2f95b5	0.6858781
21	0xbf812094	-1.0088067
22	0x3e10b7d1	0.1413262
23	0xbe9a0dfe	-0.300888
24	0xbf0bcbfd	-0.54608136
25	0x3f84e4f4	1.0382371
26	0x3ee1e973	0.4412342
27	0x3f4cae1d	0.79953176
28	0xbf652021	-0.8950215
29	0x3f5b08d3	0.8556034
30	0x3edc89f6	0.43074006
31	0x3ea85572	0.3287769
32	0xbf4c80fe	-0.79884326
33	0xbf76dc0e	-0.96429527
34	0xbf7d5ade	-0.9896678
35	0x3ded6466	0.11591415
36	0xbe0caa72	-0.13736895
37	0x3d37582d	0.044761825
38	0x3d20f3ee	0.03929513
39	0x3f30b284	0.69022393
40	0xbef2cb02	-0.47420508
41	0x3ede9e14	0.4347998
42	0x3f7240c7	0.9463009
43	0xbf482803	-0.78186053
44	0x3ec030fe	0.37537378
45	0x3f44e5a7	0.7691292
46	0xbea5627c	-0.323017
47	0xbf4eea36	-0.8082613
48	0x3e951cdf	0.2912359
49	0xbf81c2e4	-1.0137601
50	0x3e0c3cb8	0.13695037
51	0x3e8c3041	0.27380565
52	0x3ea75ff9	0.3269041
53	0xbe8c42d7	-0.27394745
54	0xbf82211f	-1.0166358
55	0x3f587443	0.845524
56	0x3ee485fa	0.44633466
57	0x3f101c32	0.5629302
58	0x3e094fed	0.13409396
59	0xbe50ece8	-0.20402873
60	0x3eaf9f63	0.3430129
61	0x3f1206c6	0.57041585
62	0x3ee1d5dd	0.44108477
63	0x3f50899a	0.81459963
64	0xbd31d57d	-0.04341649
65	0xbf546d3f	-0.82979196
66	0x3ef3e1d4	0.4763323
67	0x3f6998cb	0.9124877
68	0x3efc8430	0.493196
69	0xbf1ca25b	-0.61185235
70	0xbc9755f2	-0.0184736
71	0xbed879a5	-0.42280307
72	0xbf4c13a5	-0.79717475
73	0xbf2c0b18	-0.6720443
74	0xbf903f38	-1.1269293
75	0xbf157f3b	-0.58397263
76	0x3e1829f2	0.14859751
77	0x3f12ebbc	0.5739095
78	0xbf2a4caa	-0.6652323
79	0xbf6dd644	-0.9290507
80	0xbec826d5	-0.39092126
81	0xbecdbfbb	-0.4018534
82	0x3e50d383	0.20393185
83	0xbf4be8e7	-0.79652256
84	0x3dbae83a	0.09126325
85	0xbf0ca815	-0.5494397
86	0xbcf8c53c	-0.030367486
87	0xbea67e8e	-0.3251843
88	0xbf1085db	-0.5645425
89	0xbf44c52b	-0.76863354
90	0xbf026964	-0.50942063
91	0xbf8ce280	-1.1006622
92	0x3f25f738	0.6483035
93	0xbf573c9f	-0.84076875
94	0x3ec97c49	0.39352635
95	0xbee9ca9d	-0.45662394
96	0xbf463ad3	-0.7743351
97	0xbee435da	-0.44572335
98	0x3ed722bd	0.4201869
99	0xbf96561d	-1.174503
100	0x3f31dc5a	0.69476855
101	0x3f5c39a1	0.86025435
102	0x3f120291	0.57035166
103	0x3f281efc	0.6567228
104	0x3f1810ba	0.5940052
105	0x3f146560	0.57967186
106	0xbf6c331e	-0.922655
107	0xbedcdee5	-0.43138805
108	0x3ee89fea	0.45434505
109	0x3ec1311a	0.37732774
110	0xbf834380	-1.0254974
111	0xbec9c55d	-0.3940839
112	0x3f0dd466	0.5540222
113	0xbf8a77ee	-1.081785
114	0x3f652f79	0.8952556
115	0x3dc3f593	0.09568324
116	0x3ddddd9a	0.10833283
117	0xbf1dae84	-0.61594415
118	0x3dee18a9	0.11625797
119	0xbde5808c	-0.11206159
120	0x3e9d9246	0.3077566
121	0x3ed95259	0.4244564
122	0x3c35f196	0.011104962
123	0x3f57ff19	0.84373623
124	0xbeb99bcb	-0.36251673
125	0x3ef20714	0.47271025
126	0x3f0af2aa	0.54276526
127	0xbf06bb64	-0.52629685
128	0x3eceae0d	0.40367165
129	0x3f8aa4de	1.0831563
130	0xbe454ec6	-0.19268331
131	0x3f38b37c	0.7214887
132	0xbf18b98d	-0.5965813
133	0xbe5e0e71	-0.21685196
134	0xbe8976c8	-0.26848435
135	0xbf0da1f8	-0.5532527
136	0xbf4634ce	-0.77424324
137	0x3f6cdbf8	0.92523146
138	0x3f278625	0.65439063
139	0xbed01158	-0.40638232
140	0x3eec7d52	0.46189362
141	0xbf121ece	-0.57078254
142	0xbebe0f9a	-0.37121278
143	0x3e6c1e01	0.2305832
144	0xbf03dda3	-0.51510066
145	0xbe46a948	-0.19400513
146	0x3f8b72af	1.0894374
147	0xbe9e946f	-0.3097262
148	0x3e9e7084	0.30945218
149	0xbf1d638d	-0.6148003
150	0x3fcc9c03	1.5985111
151	0xbefba462	-0.49148852
152	0x3f3bb4d1	0.7332278
153	0xbfa0a824	-1.2551312
154	0xbd50cb5f	-0.0509752
155	0xbf22825b	-0.63480157
156	0xbf04544a	-0.51691115
157	0xbef1de5a	-0.47239953
158	0xbea6a87a	-0.32550412
159	0xbf093fb9	-0.5361286
160	0xbf14d1b1	-0.58132464
161	0xbf051ae9	-0.51994187
162	0x3dec9460	0.11551738
163	0xbe233fcc	-0.15942305
164	0x3f10f028	0.5661645
165	0xbea81b40	-0.3283329
166	0x3edefbef	0.43551585
167	0x3ebd32f0	0.36952925
168	0x3f446a04	0.76724267
169	0x3e990ece	0.29894108
170	0x3f75530c	0.95829844
171	0x3edc0edb	0.42980084
172	0xbe22678b	-0.15859811
173	0x3fd47ee4	1.6601224
174	0x3efb1ee3	0.49047002
175	0x3f5f27a8	0.87169886
176	0x3ed81202	0.4220124
177	0x3f6c7303	0.92362994
178	0xbd1fb3fb	-0.038990002
179	0x39e51d7e	0.00043700257
180	0x3f4b48c3	0.794079
181	0x3f2ae61a	0.6675736
182	0x3fa547b8	1.2912512
183	0xbf0fb4d0	-0.5613527
184	0x3e90ace2	0.282569
185	0x3e31505d	0.17315812
186	0xbee00fcb	-0.4376205
187	0xbeec1003	-0.46105966
188	0xbf0358ac	-0.5130718
189	0x3f1a91c5	0.60378677
190	0x3ed4da08	0.41572595
191	0xbef25db4	-0.47337115
192	0xbf802795	-1.001208
193	0xbef590f1	-0.47962144
194	0xbf30a6ec	-0.690047
195	0xbe67eabb	-0.22648136
196	0xbee23632	-0.44181973
197	0xbf4d96a7	-0.80308
198	0xbf14c44b	-0.5811202
199	0xbf0393e0	-0.51397514
200	0xbf0d6190	-0.55226994
201	0xbf0ad3ce	-0.5422944
202	0xbf7377ba	-0.95104563
203	0xbee74f94	-0.451779
204	0xbe8a1411	-0.26968434
205	0xbed31a69	-0.41231087
206	0x3e547157	0.2074636
207	0x3da4558a	0.08024128
208	0xbeca6838	-0.39532638
209	0xbf4be47c	-0.79645514
210	0xbf5dd48b	-0.8665244
211	0xbed80981	-0.4219475
212	0xbf1c188e	-0.6097497
213	0xbf12e20f	-0.5737619
214	0xbf65b482	-0.8972856
215	0x3f1425f9	0.5787044
216	0xbefce095	-0.49390092
217	0x3f55387a	0.832893
218	0xbf07517a	-0.528587
219	0xbf743646	-0.95395315
220	0xbed4b31c	-0.415429
221	0x3d09f4f4	0.03368087
222	0xbd919064	-0.071076185
223	0x3ef9801d	0.48730555
224	0xbebed5cd	-0.37272492
225	0xbe159e67	-0.14611207
226	0x3ef24ef4	0.4732586
227	0xbf1e9d8c	-0.6195915
228	0xbe0762b1	-0.13221242
229	0x3f25a0c7	0.6469845
230	0xbed18520	-0.4092188
231	0x3e0b52a0	0.13605738
232	0xbf0e9297	-0.5569243
233	0xbec1e4d0	-0.37869883
234	0xbf53769e	-0.8260287
235	0xbf1e811b	-0.6191575
236	0x3edf438f	0.4360623
237	0xbf2cacc2	-0.6745111
238	0x3e454dd1	0.19267966
239	0xbef7adcc	-0.48374784
240	0xbefffb35	-0.49996343
241	0x3df103d8	0.11768311
242	0xbf5629bb	-0.83657426
243	0xbd18798b	-0.037225287
244	0xbdf63114	-0.1202108
245	0xbecdc909	-0.4019244
246	0xbedb4141	-0.42823222
247	0xbf05c217	-0.5224928
248	0xbf6e4e47	-0.9308819
249	0xbf027ff5	-0.50976497
250	0xbeb12c78	-0.3460424
251	0xbe819102	-0.25305945
252	0xbeeea0e6	-0.4660713
253	0xbf21b537	-0.63167137
254	0xbed2e52b	-0.41190466
255	0x3ec72bb8	0.38900542

dense2.bias f4 [64]
0	0x3de557b1	0.111983664
1	0xbf2f381a	-0.6844498
2	0xbf28eea3	-0.6598913
3	0x3dbb6643	0.09150364
4	0x3ea976d1	0.33098462
5	0x3ea810b5	0.32825246
6	0x3e2233aa	0.15840021
7	0x3f2ca522	0.6743947
8	0x3ee2e4b3	0.4431511
9	0x3de8abf8	0.113609254
10	0xbdc74f8b	-0.097319685
11	0x3f7be844	0.98401284
12	0xbe6f4a31	-0.23368146
13	0x3e9084be	0.28226274
14	0x3fb32997	1.3997067
15	0xbf9e6558	-1.2374678
16	0xbf3806e7	-0.7188553
17	0xbf9b5350	-1.21348
18	0xbc04d2c8	-0.008106895
19	0x3d8646d3	0.065564774
20	0xbf1f1aae	-0.62150085
21	0x3f4222c3	0.7583429
22	0xbf1e4251	-0.6181994
23	0x3e612f34	0.21990663
24	0xbf3a0dd6	-0.7267736
25	0xbebe9c51	-0.37228635
26	0xbfa0078c	-1.2502303
27	0x3e4b1bba	0.19834796
28	0xbecea9bd	-0.40363875
29	0xba988ae4	-0.0011638072
30	0xbef8cf41	-0.48595622
31	0xbfd278f3	-1.6443161
32	0x3f9b50f1	1.2134076
33	0xbc53603c	-0.012901362
34	0xbb195e40	-0.0023402125
35	0xbf4af4f4	-0.7928002
36	0x3e98083a	0.29693776
37	0x3fc30c5a	1.5238144
38	0xbf287504	-0.6580355
39	0x3e21c7a3	0.15798812
40	0xbd65a4a7	-0.056065228
41	0xbfa712b0	-1.3052578
42	0x3fd6eb74	1.6790605
43	0xbf24dcf5	-0.64399654
44	0xbf1fe79b	-0.62462777
45	0xbf092b2b	-0.53581494
46	0x3e994e68	0.29942632
47	0x3ef955ea	0.4869836
48	0xbf4d90c6	-0.8029903
49	0xbef7bfe6	-0.48388594
50	0x3f4f0a59	0.80875164
51	0x3de846af	0.11341607
52	0xbf6feffb	-0.93725556
53	0x3e01c7b7	0.12673841
54	0xbf5c3646	-0.86020315
55	0x3dbfab07	0.09358793
56	0x3dbb657f	0.09150218
57	0x3f199e98	0.6000762
58	0xbf1255aa	-0.57161963
59	0x3d9d8693	0.076916836
60	0xbd1885be	-0.03723692
61	0x3f419589	0.756188
62	0xbef61f38	-0.48070693
63	0x3f33a2ce	0.70170295

dense3.weight f4 [64, 64]
0	0x3f1d5ce6	0.61469877
1	0xbfd03612	-1.6266501
2	0x3fbaf057	1.4604596
3	0xbf4dcc74	-0.80390096
4	0x3f2347d6	0.6378149
5	0x3f529ca1	0.82270247
6	0x3f0aae72	0.5417243
7	0x3f4a5645	0.79037887
8	0x3f945cde	1.1590841
9	0xbf052484	-0.52008843
10	0xbfde4d80	-1.7367401
11	0x3fa46b72	1.284529
12	0x3f892558	1.0714521
13	0x3f02c0da	0.5107552
14	0xbf746db6	-0.95479906
15	0xbf8af0cb	-1.0854734
16	0x3d443af5	0.04790779
17	0xbfbc67bf	-1.4719161
18	0xbfb079f9	-1.3787223
19	0xbe0fda97	-0.14048229
20	0xbf0de812	-0.55432236
21	0x3fe7ff97	1.8124875
22	0xbf48554f	-0.7825517
23	0xbeb33574	-0.3500172
24	0xbf5741f9	-0.8408504
25	0xbf02fb9c	-0.51165175
26	0xbe643d32	-0.22288969
27	0xbf007a8e	-0.50187004
28	0xbf810a9d	-1.0081364
29	0xbbe39113	-0.0069447844
30	0xbebea9bf	-0.3723888
31	0x3e40e7df	0.18838452
32	0xbf614027	-0.87988514
33	0xbdbec50b	-0.09314927
34	0x3f4f3ee8	0.8095536
35	0xbf8e7a05	-1.1130987
36	0x3ebf6b90	0.3738675
37	0xbfeff624	-1.8746991
38	0x3fd8d511	1.6940023
39	0xbed874bb	-0.42276558
40	0x3f77f296	0.9685453
41	0xbf909a70	-1.129713
42	0x3f0e2541	0.55525595
43	0xbfbb5ce1	-1.4637719
44	0xbfc5c26c	-1.5449958
45	0x3fd0ba62	1.630688
46	0x3f8c6d7b	1.0970911
47	0xbd605066	-0.054764174
48	0xbfa5c19e	-1.2949712
49	0xbe6b9d13	-0.23009138
50	0x3ee4c5a2	0.44682032
51	0x3f943183	1.157761
52	0x3f971e47	1.1806115
53	0x3ebd91d4	0.3702532
54	0xbf990fdf	-1.1957968
55	0xbcf456fa	-0.02982663
56	0x3e5fe3b3	0.21864204
57	0xbf11c980	-0.5694809
58	0x3f8b1e55	1.0868632
59	0xbf88c452	-1.0684912
60	0x3ee59d9e	0.44846815
61	0x3fcf16ff	1.6178893
62	0xbfdbbfde	-1.7167928
63	0xbfb283a6	-1.3946426
64	0x3fafc787	1.3732766
65	0x3f34dcd7	0.70649475
66	0xbe51bc2e	-0.20481941
67	0xbf599eb8	-0.8500781
68	0x3f62e78c	0.8863456
69	0xbf5b258d	-0.8560417
70	0x3f734266	0.9502319
71	0xbdbe6cc9	-0.09298093
72	0x3deef9bf	0.11668729
73	0xbf6ad2c3	-0.91727847
74	0x3edf39d4	0.43598807
75	0x3ebaba63	0.36470327
76	0x3e19a4b7	0.1500424
77	0x3f22cf1b	0.6359727
78	0x3f00aca8	0.5026345
79	0xbe80feae	-0.25194305
80	0x3e6485a9	0.22316612
81	0x3ec06e27	0.3758404
82	0xbe877916	-0.2645957
83	0xbf25dd08	-0.6479039
84	0xbe65fda1	-0.22460033
85	0x3fc8563a	1.5651314
86	0xbf01911e	-0.50612056
87	0xbf4cbf01	-0.7997895
88	0x3f928573	1.1446975
89	0xbef9f9f6	-0.48823518
90	0x3dbd5b0d	0.09245882
91	0x3f8a836a	1.0821354
92	0x3f2708dd	0.652479
93	0xbea81f16	-0.32836217
94	0x3eed37e9	0.4633172
95	0x3e0fcd02	0.14043048
96	0xbfc43753	-1.5329384
97	0xbf116b7b	-0.5680463
98	0x3e0ad8be	0.13559243
99	0x3baf9ccb	0.0053592674
100	0xbf7a2aa4	-0.97721314
101	0x3f94ee65	1.1635252
102	0xbf80c7d7	-1.0060986
103	0xbee70673	-0.45122108
104	0x3f820203	1.0156864
105	0xbff74e23	-1.932072
106	0x3f1bda1f	0.608797
107	0xbcd1a94d	-0.025593424
108	0xbea18ac2	-0.31551176
109	0xbebcfc05	-0.36911026
110	0xbf23d50d	-0.63996965
111	0x3ea0544c	0.31314313
112	0x3f0bdca6	0.5463356
113	0xbed1b593	-0.40958843
114	0x3c2ed311	0.010670439
115	0x3f9a8b33	1.207373
116	0x3e7029f9	0.23453511
117	0x3ec4bc38	0.3842485
118	0x3f479b1b	0.7797105
119	0xbeaad2f2	-0.33364064
120	0x3e747d88	0.23876011
121	0xbf89af7d	-1.075668
122	0x3d6b02f0	0.05737585
123	0x3f7aa85c	0.97913146
124	0x3ea0f79c	0.3143891
125	0x3da48bab	0.08034452
126	0x3f525685	0.8216327
127	0xbf1d2125	-0.613787
128	0xbf0de270	-0.5542364
129	0x3eea3037	0.4573991
130	0x3f537219	0.82595974
131	0xbf2bb4ab	-0.6707255
132	0xbf691330	-0.910449
133	0xbe8758a8	-0.26434827
134	0x3f9f7800	1.2458496
135	0xbe6e40d5	-0.23266919
136	0x3f308444	0.6895182
137	0x3fb5e78d	1.4211289
138	0xbd0fdc88	-0.035122424
139	0xbfc7d62d	-1.5612236
140	0xbf522fec	-0.8210437
141	0xbf0bfb62	-0.54680455
142	0xbf776569	-0.96639115
143	0xbe924cbd	-0.28574172
144	0xbf4fb412	-0.8113414
145	0x3eeb1e12	0.4592138
146	0xbf2dd073	-0.67896193
147	0xbf2f44b7	-0.68464226
148	0xbeb33d62	-0.3500777
149	0xbec29387	-0.3800318
150	0xbf04d4f9	-0.5188747
151	0x3f4db070	0.8034735
152	0x3f02fa0b	0.51162785
153	0xbf82e8e5	-1.0227324
154	0xbe62ce7f	-0.22149085
155	0xbf5e1849	-0.86755806
156	0xbf8f1274	-1.1177506
157	0xbf69a2dd	-0.91264135
158	0xbec37d7d	-0.38181677
159	0xbe3fb992	-0.18723133
160	0xbf2c54b2	-0.67316735
161	0xbe9e2097	-0.3088424
162	0x3d84c483	0.06482794
163	0xbf0ba14b	-0.5454299
164	0xbe81e95d	-0.25373355
165	0xbf846f2b	-1.0346426
166	0x3f5deb3f	0.8668708
167	0xbdd6a4e6	-0.10480671
168	0x3f022592	0.5083858
169	0xbf5fb2ca	-0.87382185
170	0x3eb07664	0.34465325
171	0xbf92e7a1	-1.1476938
172	0xbd8f984b	-0.070114695
173	0x3ef510ec	0.47864473
174	0xbca39b3c	-0.019971482
175	0x3e3c7fdf	0.18408154
176	0x3e06255a	0.13100186
177	0xbf590179	-0.8476787
178	0xbf6075c7	-0.87679714
179	0xbcd06491	-0.025438579
180	0xbf98a103	-1.1924137
181	0x3e42a72f	0.19009088
182	0xbf77af99	-0.96752316
183	0xbd4f06b4	-0.050543502
184	0xbd5ff3f0	-0.054675996
185	0xbeffdb4e	-0.49972004
186	0x3f6e0c25	0.9298728
187	0xbf4856ef	-0.7825765
188	0xbf07603b	-0.5288121
189	0x3ec797d5	0.38983026
190	0xbf84265b	-1.0324205
191	0x3f7f2eea	0.9968096
192	0x3fb5faef	1.4217204
193	0xbeb17941	-0.34662822
194	0x3edde5f2	0.43339497
195	0x3f023405	0.50860626
196	0xbedc5c29	-0.43039063
197	0x3eb0b89e	0.34515852
198	0x3f1f4856	0.6221975
199	0x3d961cc8	0.07329708
200	0xbf3d8536	-0.7403139
201	0x3e9a896a	0.30182964
202	0x3da71d2e	0.081598625
203	0xbf9c658f	-1.2218493
204	0x3e407094	0.18792945
205	0xbd59bded	-0.053159643
206	0x3e167526	0.14693126
207	0x3f39e764	0.726187
208	0x3e9c0036	0.3046891
209	0xbf30ac95	-0.6901334
210	0x3f427181	0.75954443
211	0x3f220515	0.63289005
212	0x3e3f5259	0.18683757
213	0x3f9f9d54	1.2469888
214	0x3ef5d53a	0.4801424
215	0x3f8645f9	1.0490104
216	0x3f3a05e3	0.7266523
217	0x3f0abc32	0.54193413
218	0x3e74fbd9	0.23924197
219	0x3f13efe1	0.577879
220	0xbdd8970c	-0.10575685
221	0x3e518425	0.20460565
222	0xbf420d94	-0.7580197
223	0x3f074ce0	0.52851677
224	0x3f46c2ad	0.776408
225	0xbe768cd0	-0.24077153
226	0x3e5a05b4	0.21291238
227	0x3de79bc6	0.11309008
228	0x3fbe500f	1.4868182
229	0x3f526444	0.82184243
230	0xbf6fbbe1	-0.93646055
231	0xbe91af4e	-0.2845406
232	0xbf55bfc6	-0.8349575
233	0x3fa6cd51	1.3031408
234	0xbf08929b	-0.533487
235	0x3e949445	0.2901937
236	0x3e0cfaed	0.13767596
237	0xbf3de461	-0.74176604
238	0x3faad452	1.3346045
239	0x3f33ad19	0.70186
240	0x3dfeab68	0.12435037
241	0x3f074b4d	0.52849275
242	0x3fac0834	1.3440003
243	0x3f2a4c93	0.66523093
244	0x3f0d1642	0.5511209
245	0x3f45f176	0.77321565
246	0x3edfc251	0.4370294
247	0xbf516cbc	-0.8180654
248	0x3f859e3b	1.0438913
249	0x3f0b61c4	0.54446054
250	0xbff3961b	-1.9030184
251	0x3e2c3a79	0.1681918
252	0x3fda417b	1.7051233
253	0x3f66ea6d	0.90201455
254	0xbd1fb8d4	-0.038994625
255	0x3f0deb7b	0.5543744

dense3.bias f4 [64]
0	0x3fb1970f	1.3874224
1	0x3da69595	0.08133999
2	0x3fad7770	1.3552074
3	0x3e4042b6	0.18775448
4	0x3e14c680	0.14528847
5	0xbd84085a	-0.064469054
6	0xbeaf6fe8	-0.34265065
7	0x3ed4bc38	0.4154985
8	0x3eec7359	0.46181753
9	0xbf7cbede	-0.9872874
10	0x3f8d05ad	1.1017357
11	0xbb8cde7a	-0.004298982
12	0xbeacfee7	-0.33788225
13	0x3ec5446e	0.3852877
14	0xbf79024e	-0.9726914
15	0x3edb5548	0.42838502
16	0xbe9230d3	-0.28552875
17	0xbf8ae1d4	-1.0850167
18	0x3e71d133	0.2361496
19	0xbed78157	-0.42090866
20	0xbf5ac40a	-0.8545538
21	0xbf7df9e2	-0.99209416
22	0xbc9c2729	-0.019061642
23	0x3e3833ee	0.1798856
24	0x3eb6b7dd	0.35687152
25	0xbf29afad	-0.66283685
26	0xbf34424c	-0.7041366
27	0xbd374ab7	-0.044748988
28	0x3ee5ee0f	0.44908187
29	0xbed97481	-0.42471698
30	0x3d1c7e7a	0.038206555
31	0x3da2de7b	0.07952591
32	0x3e0fb38c	0.14033335
33	0xbf32d96b	-0.69863003
34	0xbf145de8	-0.5795579
35	0xbf8e61b7	-1.112357
36	0xbfc0eb55	-1.5071818
37	0xbf0ee30b	-0.5581519
38	0x3dc60f86	0.096709296
39	0x3ed5c9ed	0.4175562
40	0x3e9aa307	0.30202505
41	0x3f8cdb90	1.1004505
42	0xbe0dbfbd	-0.13842674
43	0x3ebd9158	0.3702495
44	0x3e6d5a24	0.23178917
45	0x3f64beb7	0.8935351
46	0xbefd0609	-0.49418667
47	0xbf1272cf	-0.57206434
48	0xbf359b8e	-0.7094048
49	0x3e42b5bf	0.19014643
50	0xbe045e2b	-0.12926547
51	0xbf45e01c	-0.7729509
52	0x3f541b6f	0.8285436
53	0x3e8aa7b2	0.27081066
54	0xbf3d4531	-0.739337
55	0xbf4cb72a	-0.79966986
56	0xbf69e021	-0.9135762
57	0x3e940d89	0.28916577
58	0x3f29fae4	0.66398454
59	0xbf31f849	-0.6951948
60	0x3dcdb16f	0.100436084
61	0xbd19788e	-0.037468486
62	0xbf8a4d4f	-1.0804843
63	0xbf56e8c2	-0.8394891

dense4.weight f4 [64, 64]
0	0xbe4e63ce	-0.2015526
1	0xbe5a29dd	-0.21305032
2	0xbf10b328	-0.5652337
3	0xbea731c3	-0.32655153
4	0xbf0416f1	-0.51597506
5	0xbefbd6bc	-0.49187267
6	0x3fcf0e19	1.6176177
7	0xbef1811d	-0.47168818
8	0xbef11a12	-0.47090203
9	0xbf03d138	-0.5149112
10	0x3d9dc6f8	0.07703966
11	0xbef51fab	-0.47875723
12	0x3dce55d1	0.10074962
13	0xbd719134	-0.058976367
14	0xbf0f7177	-0.5603251
15	0x3ed60273	0.41798744
16	0xbebfc070	-0.37451506
17	0xbee5930d	-0.44838753
18	0xbdb469fd	-0.08809278
19	0xbf301f98	-0.6879821
20	0x3dfc92f5	0.12332717
21	0xbef98d64	-0.48740685
22	0xbf283769	-0.6570955
23	0x3e411201	0.18854524
24	0x3f193f45	0.59862167
25	0xbdc6e506	-0.097116515
26	0xbf84b9a9	-1.0369159
27	0xbf914ffd	-1.1352535
28	0xbee0c27a	-0.43898374
29	0x3f6e072a	0.9297968
30	0x3eaa5dfb	0.33274826
31	0xbf2cbce8	-0.6747575
32	0x3d3cb88a	0.046074428
33	0x3efdbe1c	0.49559104
34	0xbf039487	-0.5139851
35	0xbe1a0c3f	-0.15043734
36	0x3fa4d183	1.2876438
37	0xbf4d7f68	-0.8027253
38	0xbf6940d1	-0.91114527
39	0xbed9e890	-0.42560244
40	0xbf0e6c75	-0.5563424
41	0xbeed4235	-0.46339574
42	0x3deb0d4c	0.114771456
43	0xbf24a860	-0.6431942
44	0x3f8e8519	1.1134368
45	0xbf0110df	-0.5041637
46	0xbedae42e	-0.42752212
47	0xbe932c28	-0.28744626
48	0xbf41f450	-0.75763416
49	0xbd9d8ce6	-0.0769289
50	0xbebbc5b6	-0.3667428
51	0xbf3cebfa	-0.7379757
52	0x3f9faa7c	1.2473903
53	0xbedee065	-0.43530574
54	0xbecc9d4d	-0.3996376
55	0x3e9374d7	0.2880008
56	0xbdd31e35	-0.10308496
57	0xbf07c0f0	-0.53028774
58	0x3e91fbe3	0.28512487
59	0x3efa7c1b	0.4892281
60	0xbf0aeb46	-0.5426525
61	0x3b81d885	0.0039625787
62	0xbeddd1eb	-0.43324217
63	0x3eeb5a8c	0.4596752
64	0x3d0085ec	0.031377718
65	0x3ef612d2	0.48061234
66	0x3dec67a0	0.115432024
67	0x3e3ee58a	0.1864225
68	0xbf2da28f	-0.6782617
69	0xbf6bda5c	-0.92130065
70	0x3e9437bf	0.2894878
71	0x3ddf6ae3	0.10909059
72	0x3e13aa13	0.14420347
73	0xbf677a77	-0.9042124
74	0x3e3637d7	0.17794739
75	0xbde5b865	-0.11216811
76	0x3e7a04a4	0.24415833
77	0xbd91d296	-0.07120244
78	0xbdacaed4	-0.08431783
79	0xbe870036	-0.26367348
80	0x3ebf1442	0.37320143
81	0xbf75045c	-0.95709777
82	0xbe838fa2	-0.2569552
83	0xbef8d1bc	-0.48597515
84	0xbf909c01	-1.1297609
85	0xbf064e56	-0.5246328
86	0x3d9e796e	0.077380046
87	0xbee36baa	-0.4441808
88	0xbd17297e	-0.036904804
89	0x3f8fe4c5	1.124169
90	0x3dec85dd	0.1154897
91	0x3edbfbe4	0.42965615
92	0xbf810303	-1.0079044
93	0x3f305ab5	0.6888841
94	0xbe6a0f5e	-0.22857425
95	0xbe51bb28	-0.2048155
96	0x3e6f1197	0.23346554
97	0xbf32cf39	-0.69847447
98	0x3d29b5ca	0.041433133
99	0xbf141d09	-0.57856804
100	0xbd099a06	-0.033594154
101	0xbdee6ff9	-0.11642451
102	0x3f8972af	1.0738124
103	0xbf747fd0	-0.95507526
104	0xbeaec658	-0.341357
105	0x3ff45a35	1.9090029
106	0xbf80f419	-1.0074493
107	0xbea942f7	-0.33058903
108	0x3c8eaf03	0.017417436
109	0x3ee1f2ed	0.4413065
110	0x3f586230	0.8452482
111	0x3f70d117	0.94069046
112	0x3e7db947	0.24777709
113	0xbf9c36fe	-1.2204282
114	0xbf8cf5b5	-1.1012484
115	0x3f8216d4	1.0163217
116	0xbdf1f663	-0.11814573
117	0xbe92fa29	-0.28706482
118	0xbf4d39d6	-0.80166376
119	0x3ed8a0f2	0.42310292
120	0x3fce61f2	1.612364
121	0x3f60b92d	0.87782556
122	0xbf894845	-1.072518
123	0xbf497880	-0.78699493
124	0x3f1b4d1c	0.60664535
125	0x3f362278	0.71146345
126	0x3e056f07	0.13030635
127	0x3dc7b8a6	0.09752016
128	0xbea6e056	-0.3259303
129	0x3d84e98f	0.0648986
130	0x3f281aaf	0.65665716
131	0xbf83769f	-1.0270575
132	0xbefb652d	-0.49100628
133	0xbeff2477	-0.49832508
134	0x3d528ca4	0.051403657
135	0x3f3c23c2	0.7349206
136	0xbee085e3	-0.43852147
137	0x3f68bc04	0.9091189
138	0xbef0f6db	-0.47063336
139	0x3d621c68	0.05520287
140	0xbfb741df	-1.4316977
141	0xbf08fc92	-0.5351039
142	0x3f65c0e5	0.8974746
143	0xbe856b5a	-0.26058465
144	0xbf1aa820	-0.6041279
145	0xbf2b4007	-0.6689457
146	0xbec4fa08	-0.3847201
147	0x3fd16375	1.6358477
148	0xbf196a88	-0.5992818
149	0xbecee78b	-0.40411028
150	0x3e1138e1	0.14181854
151	0x3f44c3f0	0.76861477
152	0x3f6412a1	0.89090925
153	0xbf8d277a	-1.1027672
154	0xbf2864a8	-0.6577859
155	0x3ec07321	0.37587836
156	0x3f71aafc	0.94401526
157	0x3eef316d	0.46717396
158	0xbf3ad747	-0.7298474
159	0xbf816ab0	-1.0110683
160	0x3f363f9b	0.71190804
161	0xbf471e79	-0.7778087
162	0xbd5dcb72	-0.0541491
163	0xbf75ed09	-0.9606481
164	0x3f7b0d04	0.98066735
165	0x3dc5025d	0.096195914
166	0x3deb0b66	0.114767835
167	0xbef2831c	-0.47365654
168	0xbf5e8444	-0.8692057
169	0xbe2aaec5	-0.16668232
170	0x3f6c0bcc	0.922055
171	0xbf354293	-0.7080471
172	0x3f900946	1.125283
173	0x3ea238bc	0.3168391
174	0xbf722b43	-0.9459726
175	0x3eb67d65	0.35642543
176	0xbfaa9b62	-1.3328669
177	0x3f045190	0.51686954
178	0xbd23b079	-0.03996322
179	0x3e032f3c	0.12810987
180	0x3f248d58	0.64278173
181	0xbd4b89f3	-0.049692106
182	0xbf0d9d85	-0.5531848
183	0x3ece28af	0.40265414
184	0xbebc6196	-0.36793202
185	0xbec92885	-0.39288726
186	0x3f6ca51a	0.92439425
187	0xbe4717d5	-0.19442685
188	0x3f405576	0.75130403
189	0xbf13dead	-0.5776165
190	0xbf179d32	-0.59224236
191	0x3f8bda06	1.092591
192	0x3f87af91	1.0600454
193	0xbe9ce6a7	-0.30644724
194	0xbf551421	-0.8323384
195	0x3f2857a2	0.6575872
196	0x3f8a085c	1.0783801
197	0xbf4b20aa	-0.79346716
198	0xbda92288	-0.082585394
199	0x3f19b3af	0.600398
200	0xbe803429	-0.25039795
201	0x3ea18769	0.31548622
202	0xbe9719ce	-0.29511875
203	0x3e190276	0.14942345
204	0x3e4b537c	0.19856066
205	0x3b35aecc	0.0027722595
206	0xbf61fe49	-0.88278633
207	0xbec9cc25	-0.39413562
208	0xbe8f2eca	-0.27965385
209	0xbee23e21	-0.44188026
210	0x3f7d13b3	0.98858184
211	0xbf95cebd	-1.1703717
212	0x3fb00780	1.3752289
213	0xbf279af5	-0.6547082
214	0xbf7bcbb3	-0.98357695
215	0x3e1f1e7d	0.15538974
216	0x3f2a4c4e	0.6652268
217	0xbf2bffb4	-0.67187047
218	0x3eb2e51b	0.3494042
219	0xbf05ec1b	-0.52313393
220	0xbee69863	-0.45038137
221	0x3ebf3225	0.37342945
222	0xbf8d50f7	-1.1040334
223	0xbf8ab190	-1.0835438
224	0x3c97ebd8	0.018545076
225	0x3f28b622	0.6590291
226	0x3f1718d1	0.5902224
227	0xbf52eb7e	-0.8239058
228	0x3f5bda2b	0.8587977
229	0xbf9d5ddf	-1.2294272
230	0xbeb0eaf5	-0.34554258
231	0x3f1a5cdf	0.6029796
232	0x3ea1f2d1	0.31630567
233	0x3f63fc8f	0.8905725
234	0x3f2ab756	0.66686
235	0xbe18d25a	-0.14923993
236	0x3f8bb1b9	1.0913612
237	0xbf13b91b	-0.57704324
238	0xbe8ef642	-0.27922255
239	0x3f845e94	1.0341363
240	0xbf26eba1	-0.6520329
241	0x3e1dc568	0.15407336
242	0xbce66116	-0.028122466
243	0xbd2e6b2c	-0.042582676
244	0x3f325bce	0.6967133
245	0xbf04e3f7	-0.51910347
246	0x3edcae85	0.43101898
247	0x3e46ffee	0.19433567
248	0xbfc8650d	-1.5655838
249	0xbeef43a7	-0.46731302
250	0x3f224c47	0.6339764
251	0xbebde040	-0.37085152
252	0x3bfcb9b1	0.007712566
253	0xbe7b7fba	-0.24560443
254	0x3eb3f0c8	0.3514464
255	0x3f7f9f51	0.9985247

dense4.bias f4 [64]
0	0x3ea5434b	0.32277903
1	0x3f7c41e0	0.9853802
2	0x3dffa524	0.1248267
3	0xbf490248	-0.78519106
4	0xbf508446	-0.81451833
5	0x3e88758d	0.26652184
6	0xbef95d77	-0.4870412
7	0xbd89bc4e	-0.067253694
8	0x3de2ad6b	0.11068233
9	0xbe58967f	-0.2115116
10	0xbec791f8	-0.38978553
11	0xbe617e2e	-0.2202079
12	0xbe29f974	-0.16599065
13	0xbdb6eb8b	-0.08931645
14	0xbe3b9f59	-0.18322505
15	0xbee8fbf8	-0.45504737
16	0x3eb8b9dd	0.36079302
17	0xbddeda91	-0.10881532
18	0x3ed67e89	0.41893414
19	0xbcaf7c30	-0.021421522
20	0x3dfb917f	0.122836106
21	0xbf4702f4	-0.7773888
22	0xbf12c3e2	-0.57330143
23	0x3c9486ff	0.018130777
24	0xbe42c90a	-0.19022003
25	0x3f0b73ab	0.5447337
26	0xbf47e596	-0.78084695
27	0x3da74f26	0.08169393
28	0xbf1889cb	-0.59585255
29	0x3efe943f	0.49722478
30	0xbf984ce5	-1.1898466
31	0xbe55e335	-0.20887454
32	0xbf669201	-0.90066534
33	0xbf6dd96d	-0.9290989
34	0x3e400133	0.18750457
35	0x3f595a4b	0.849034
36	0x3d3a64cc	0.045506284
37	0x3f350f85	0.70726806
38	0xbf8307f8	-1.0236807
39	0x3d4ab830	0.04949206
40	0xbebfef10	-0.37487078
41	0x3f6f6ecd	0.93528444
42	0x3f86ac5d	1.0521351
43	0xbf83e29e	-1.0303533
44	0x3eb16dcf	0.3465409
45	0x3d961f5e	0.073302016
46	0x3ea81aac	0.3283285
47	0x3d1888bc	0.037239775
48	0xbf1670d3	-0.58765906
49	0x3e87b533	0.26505432
50	0x3f63dc59	0.890081
51	0xbc450c1b	-0.012026812
52	0x3db3129d	0.087437846
53	0xbdc70b57	-0.0971896
54	0x3edd0344	0.43166554
55	0x3e2550ce	0.16144106
56	0xbeccb888	-0.39984536
57	0xbe7115eb	-0.23543517
58	0xbd22bd44	-0.03973128
59	0x3e8be449	0.27322605
60	0xbe113115	-0.1417888
61	0xbdd1fb96	-0.10253064
62	0x3f061b24	0.52385163
63	0xbf59947a	-0.8499218

dense5.weight f4 [64, 64]
0	0xbf0056ec	-0.5013263
1	0x3efbef21	0.49205878
2	0xbdca9fda	-0.098937705
3	0xbf126e21	-0.57199293
4	0x3f792d7f	0.97335047
5	0x3ea33a2f	0.31880328
6	0x3c60c0f8	0.013717882
7	0x3fcc0848	1.5940027
8	0x3e9bf5ae	0.30460876
9	0x3fa2a850	1.2707615
10	0xbf573ce8	-0.8407731
11	0x3fa09d39	1.254798
12	0xbe96df29	-0.29467133
13	0xbb868a42	-0.004105837
14	0x3fe40c2b	1.7816213
15	0x3f36b986	0.71376836
16	0xbf1c0a99	-0.6095367
17	0xbe9bff91	-0.3046842
18	0x3f59a4e8	0.8501725
19	0x3f148226	0.5801109
20	0xbf32292d	-0.6959408
21	0x3f20c39b	0.6279847
22	0x3fcf0e86	1.6176307
23	0x3e92762f	0.28605792
24	0xbd959c60	-0.07305217
25	0x3ef0f90e	0.47065014
26	0x3ebee4c1	0.372839
27	0xbdc0abb0	-0.09407747
28	0x3fb59e4c	1.4188933
29	0x3fb0092e	1.3752801
30	0x3dd13148	0.10214478
31	0xbfcff4ea	-1.6246617
32	0x3fb739d8	1.4314528
33	0x3f88d7af	1.0690821
34	0x3fd22bc8	1.6419611
35	0xbe93ca2a	-0.28865176
36	0x3da32aa6	0.07967119
37	0x3ed95a7a	0.4245184
38	0xbdb2f00e	-0.08737193
39	0xbea0b773	-0.3138996
40	0x3fb9bccb	1.451074
41	0x3fc509ab	1.5393575
42	0x3f5e21f4	0.8677056
43	0xbee5d5de	-0.4488973
44	0xbf669e34	-0.9008515
45	0x3f8290f9	1.0200492
46	0x3e0cb133	0.13739471
47	0xbe572406	-0.21009836
48	0x3f818a10	1.0120258
49	0x3fca871f	1.5822486
50	0x3ec1465d	0.37748995
51	0x3fbd1d0f	1.4774493
52	0xbdbec04d	-0.09314022
53	0x3f730a2d	0.949374
54	0xbdaaf9ff	-0.08348464
55	0xba349c28	-0.0006889724
56	0x3fc12d40	1.5091934
57	0x3ec95cb5	0.39328542
58	0x3e93e89b	0.288884
59	0x3eee2440	0.46512032
60	0x3e424197	0.18970333
61	0x3ef62b09	0.48079708
62	0x3f8af935	1.0857302
63	0xbcb80b9e	-0.022466477
64	0x3f3db2a5	0.74100715
65	0xbf64fa16	-0.894441
66	0x3f65d853	0.8978321
67	0x3f649701	0.89292914
68	0xbf768329	-0.96293885
69	0x3f884c8f	1.0648364
70	0x3f58efc3	0.8474085
71	0xbf08d84c	-0.5345504
72	0x3f89ad79	1.0756065
73	0xbf86d661	-1.0534173
74	0xbfad4c7d	-1.3538967
75	0x3f8acbdd	1.0843464
76	0x3f8231cc	1.0171447
77	0x3dbafbc6	0.09130053
78	0x3f8c29be	1.0950239
79	0xbe8bafe5	-0.27282634
80	0xbcb22267	-0.02174492
81	0x3d82cef9	0.06387133
82	0xbd8bc32e	-0.06824337
83	0xbd89a066	-0.06720047
84	0x3dd3ae97	0.10336035
85	0x3f15ec01	0.5856324
86	0xbd303f29	-0.043028984
87	0x3dc0edc5	0.09420351
88	0xbf6f4786	-0.9346851
89	0x3f382ade	0.7194041
90	0xbdd7d3bb	-0.10538431
91	0x3f12f2b9	0.57401615
92	0xbda01dfe	-0.078182206
93	0xbd8d876e	-0.06910597
94	0x3f784c9e	0.9699191
95	0xbf1ce66b	-0.6128909
96	0x3f98476b	1.1896795
97	0xbf866237	-1.0498723
98	0x3f89d433	1.0767883
99	0x3f9140c9	1.1347896
100	0xbe7d3866	-0.24728546
101	0xbc39123f	-0.011295854
102	0x3f213ce3	0.6298353
103	0x3d1d0adb	0.03834043
104	0xbf88e613	-1.0695213
105	0xbf898ce8	-1.0746126
106	0x3f7c5b0d	0.9857643
107	0x3f5e7d48	0.86909914
108	0xbd7dfd32	-0.062009044
109	0x3f881051	1.0629979
110	0x3d509392	0.050921984
111	0xbbd8b104	-0.006612899
112	0xbf88b530	-1.0680294
113	0xbf7d113c	-0.9885442
114	0xbf6fd077	-0.9367747
115	0xbf610b53	-0.87907904
116	0x3d03a952	0.0321439
117	0xbf920d9f	-1.1410407
118	0x3d94a3ac	0.072577804
119	0x3f5f37a2	0.87194264
120	0xbd99ff73	-0.07519426
121	0x3f8be077	1.0927876
122	0x3f6c0181	0.92189795
123	0xbbb4ca15	-0.005517254
124	0xbf335643	-0.700535
125	0xbf876a31	-1.0579282
126	0xbdd20568	-0.102549374
127	0x3f0c8067	0.54883426
128	0x3f709550	0.9397783
129	0xbf4ecdb5	-0.80782634
130	0x3fa8dedd	1.3193012
131	0x3f53d4c6	0.8274654
132	0xbdd5228e	-0.104069814
133	0x3f622f20	0.8835316
134	0x3f56f762	0.83971226
135	0xbeadb4c1	-0.33926967
136	0xbdf9c2ff	-0.12195396
137	0x3ecf50c8	0.4049132
138	0x3f2c74e9	0.6736589
139	0xbc0e8f9b	-0.00870123
140	0x3f6eb0a9	0.9323831
141	0x3e4a5122	0.19757512
142	0x3ed964ed	0.42459813
143	0x3e81075c	0.25200927
144	0x3f8a1838	1.0788641
145	0x3ebc5daa	0.3679021
146	0xbe502cbe	-0.20329568
147	0x3df46a8d	0.119343854
148	0x3c198287	0.009369499
149	0x3f867371	1.050398
150	0x3dee31af	0.1163057
151	0x3e3aa481	0.18226816
152	0xbf70bd8a	-0.94039214
153	0x3fe65284	1.7993932
154	0xbb54cf47	-0.003247218
155	0x3f8c1d5e	1.0946462
156	0x3dde3d7f	0.10851573
157	0xbdf2bc47	-0.11852317
158	0x3fa6bc92	1.3026297
159	0x3f1774b7	0.5916247
160	0x3d9dad1c	0.076990336
161	0x3ed98aa8	0.424886
162	0x3f9753fd	1.1822506
163	0x3eb9a88b	0.362614
164	0xbf5ae173	-0.8550026
165	0x3f5754bb	0.84113663
166	0x3f79b7d4	0.97546124
167	0x3e7340b9	0.23755158
168	0x3ea78801	0.3272095
169	0xbf503f1f	-0.81346315
170	0x3f6d0291	0.9258204
171	0x3f7ec41f	0.9951801
172	0x3e549e7c	0.20763582
173	0xbcac3b3c	-0.021024339
174	0x3ba1b366	0.004934716
175	0xbcaf1183	-0.021370655
176	0xbf6351d2	-0.8879672
177	0xbef7b035	-0.48376623
178	0xbf9a17b6	-1.2038486
179	0x3f29a9bd	0.66274625
180	0x3e567cb1	0.20946003
181	0xbf7edc89	-0.9955526
182	0x3f7e01ae	0.99221313
183	0x3f557ef5	0.83396846
184	0x3ee32e7b	0.443714
185	0x3f6892bc	0.908489
186	0x3f885395	1.0650507
187	0xbe117abd	-0.14206977
188	0xbc1aefb0	-0.00945656
189	0xbdd41c12	-0.103569165
190	0xbd9fc8a8	-0.07801944
191	0x3db579df	0.08861136
192	0xbe579ff6	-0.21057114
193	0x3d71a01b	0.05899058
194	0x3d9bb3eb	0.07602676
195	0xbf16d9d5	-0.58926135
196	0xbf7dbe6b	-0.9911868
197	0xbd9e9b3a	-0.07744451
198	0xbec83357	-0.3910167
199	0x3f3c43c9	0.7354093
200	0xbd6a6dd4	-0.057233647
201	0x3d5f50a4	0.054520264
202	0x3e89cc34	0.26913607
203	0x3f26af33	0.6511108
204	0xbe223599	-0.15840758
205	0xbf23c158	-0.63966894
206	0xbf31e987	-0.6949696
207	0x3f1d9300	0.6155243
208	0x3fb3465c	1.4005847
209	0xbf3f7585	-0.74788696
210	0x3f282021	0.65674025
211	0xbe7949f3	-0.24344616
212	0xbef4c87e	-0.47809213
213	0x3d03b79d	0.03215753
214	0xbf565cd9	-0.83735424
215	0xbe3ee512	-0.18642071
216	0xbf13130a	-0.57450926
217	0x3fb56a84	1.4173131
218	0xbf1af1de	-0.6052531
219	0xbfa4807d	-1.2851712
220	0xbf328055	-0.6972707
221	0x3eb1c321	0.34719184
222	0xbeab57b3	-0.33465347
223	0xbf08bb7e	-0.5341109
224	0x3e199ab8	0.15000427
225	0xbe0288df	-0.12747525
226	0x3f4c3ad3	0.7977726
227	0xbfbed6e4	-1.490933
228	0xbfed0984	-1.8518529
229	0x3f11cda4	0.5695441
230	0xbed972c4	-0.42470372
231	0xbf1868a1	-0.5953465
232	0xbc6e56ab	-0.01454703
233	0xbd0279a1	-0.031854276
234	0x3f492fb1	0.78588396
235	0xbe7a4b9d	-0.24442907
236	0xbfc58356	-1.5430706
237	0x3f95e452	1.1710303
238	0xbfb53a1b	-1.4158357
239	0x3e6c63e1	0.23084976
240	0xbf002f18	-0.5007186
241	0x3f5b59a3	0.8568365
242	0x3ec51404	0.38491833
243	0x3ecdf2b3	0.40224227
244	0xbf5c4752	-0.86046326
245	0x3fad3f96	1.353503
246	0xbe1ba8c8	-0.15201104
247	0xbe163b4a	-0.14671054
248	0x3f55573f	0.8333625
249	0xbe963b93	-0.29342327
250	0x3b95a3fe	0.0045666685
251	0xbefaa509	-0.48954037
252	0xbf015e2c	-0.5053432
253	0xbf114fdd	-0.56762487
254	0x3ea48101	0.32129672
255	0xbebe7644	-0.37199605

dense5.bias f4 [64]
0	0xbf192091	-0.5981532
1	0xbf8ea82e	-1.1145074
2	0xbde4e0f1	-0.11175717
3	0xbf85cdb1	-1.0453397
4	0x3f902899	1.126239
5	0xbf9cb1ac	-1.2241721
6	0xbd22d01e	-0.039749257
7	0xbe182452	-0.14857605
8	0xbd3df77d	-0.0463786
9	0x3f77b989	0.9676748
10	0x3e1311d5	0.14362271
11	0x3f6db5ad	0.9285534
12	0xbf7c7c30	-0.98626995
13	0xbe09abb2	-0.13444403
14	0xbfa5d618	-1.2955961
15	0x3e002a08	0.12516034
16	0xbe0c3afd	-0.13694377
17	0xbc960db1	-0.018317075
18	0xbf7de1b2	-0.9917251
19	0x3dac5fa6	0.08416681
20	0xbf890fb8	-1.0707922
21	0xbef80a5d	-0.48445407
22	0x3f98ff20	1.1952858
23	0x3dfffa74	0.12498942
24	0xbf983377	-1.1890706
25	0xbd9f856b	-0.07789119
26	0x39f15dd4	0.0004603701
27	0xbf8b4b6f	-1.0882396
28	0x3f8da9dc	1.1067462
29	0xbee232eb	-0.44179472
30	0x3d74e4e8	0.059788615
31	0xbf54829f	-0.8301181
32	0xbd7db4b8	-0.061939925
33	0x3e1df68a	0.15426078
34	0xbf9f10c6	-1.2426994
35	0xbfc74aff	-1.5569762
36	0xbf740be4	-0.95330644
37	0xbeae5175	-0.34046522
38	0xbfb8b686	-1.4430702
39	0xbf66db85	-0.9017871
40	0xbfbb7859	-1.4646102
41	0xbe3b3b8c	-0.18284434
42	0xbecd2e1b	-0.40074238
43	0x3b9d612a	0.0048028426
44	0xbc4c0608	-0.01245261
45	0xbf1fe48a	-0.624581
46	0xbf3b503c	-0.731693
47	0x3f854991	1.0413076
48	0xbfbf28f7	-1.4934376
49	0x3f84b003	1.0366215
50	0xbf917404	-1.136353
51	0xbf9f7403	-1.2457279
52	0xbf8d5e24	-1.1044354
53	0xbf7cdb29	-0.9877191
54	0x3faf4170	1.3691845
55	0xbdeb0158	-0.11474866
56	0xbd8d9cca	-0.06914671
57	0xbee1de57	-0.44114944
58	0xbf800abb	-1.0003275
59	0x3f99113c	1.1958385
60	0xbf675964	-0.90370774
61	0x3e677f06	0.2260705
62	0x3d46bd1c	0.048520193
63	0x3f6ba768	0.92052317

dense6.weight f4 [2, 64]
0	0x3fe7bb29	1.8103992
1	0x3e7f4db3	0.24931984
2	0x3e6d033d	0.23145767
3	0x3ea03967	0.31293795
4	0xbeec16ef	-0.46111247
5	0x3f105b33	0.5638916
6	0x3f671892	0.90271866
7	0x3e22f753	0.15914659
8	0x3e616be1	0.22013809
9	0x3d459268	0.048235327
10	0x3e3bad49	0.18327822
11	0x3eed5a7b	0.46358094
12	0xbf49e49b	-0.7886445
13	0x3fafa7c2	1.3723071
14	0x3f8ee9da	1.1165116
15	0xbe30da33	-0.17270736
16	0xbe9f9f38	-0.31176162
17	0x3df6d808	0.120529234
18	0x3de16a4c	0.11006603
19	0xbeeeeff6	-0.4666745
20	0x3f2a4a76	0.6651987
21	0x3fa127a8	1.2590227
22	0x3f4f61dd	0.810087
23	0xbf44fda7	-0.7694954
24	0xbee2d9ca	-0.44306785
25	0x3f9e82d9	1.2383682
26	0xbf40a4c8	-0.75251436
27	0x3f93abb5	1.1536776
28	0xbf4b417b	-0.7939679
29	0xbd9d779d	-0.0768883
30	0xbe3af9a4	-0.18259293
31	0xbf05d1a1	-0.52272993
32	0x3fc11974	1.5085893
33	0xbe83b759	-0.2572582
34	0x3f0f8462	0.56061375
35	0x3e9f8f40	0.3116398
36	0x3ec7e9b0	0.39045477
37	0x3f4bfc0b	0.7968146
38	0x3efaf9af	0.49018618
39	0xbf58c409	-0.84674126
40	0x3f75c158	0.95998144
41	0x3f7d7ba9	0.99016815
42	0x3f87b4be	1.0602033
43	0xbed56b71	-0.41683534
44	0xbd5f7236	-0.05455228
45	0x3fab7b36	1.3396976
46	0x3f7e9a18	0.9945388
47	0xbf5f3a3b	-0.8719823
48	0x3ed22ddf	0.41050622
49	0xbf3ae5dd	-0.73006994
50	0xbed4b259	-0.41542318
51	0x3f84a385	1.0362402
52	0x3ee6ef7b	0.45104584
53	0x3da98f4f	0.08279287
54	0xbf2b86df	-0.6700267
55	0x3f608a24	0.87710786
56	0x3f34bfb4	0.70605016
57	0xbf4903df	-0.7852153
58	0xbc0d5c77	-0.008628002
59	0xbe16b23b	-0.14716427
60	0x3f747612	0.9549266
61	0xbe102a42	-0.1407862
62	0x3ed23145	0.41053215
63	0x3e034ffe	0.12823483
64	0xbfda2853	-1.7043556
65	0xbe4edb94	-0.2020095
66	0xbd88ced9	-0.06680078
67	0xbe5e67b9	-0.21719255
68	0x3ebcbf4f	0.36864707
69	0xbebd72e2	-0.3700171
70	0xbf8f8bac	-1.12145
71	0xbe3471c4	-0.17621523
72	0xbe6da0f4	-0.2320593
73	0xbd0ab0a5	-0.033859868
74	0xbea0233e	-0.31276888
75	0xbf09f6d6	-0.53892267
76	0x3f47d410	0.78057957
77	0xbfaf922d	-1.3716484
78	0xbfa76a4e	-1.3079317
79	0x3e991ad9	0.29903296
80	0x3e1495b3	0.1451023
81	0x3d1df9bc	0.038568243
82	0xbe233bf4	-0.15940839
83	0x3f1c550d	0.6106728
84	0xbf48589f	-0.78260225
85	0xbf9e28ab	-1.2356161
86	0xbf1e799f	-0.6190433
87	0x3f3abee8	0.7294755
88	0x3ed4b26b	0.41542372
89	0xbf99a173	-1.2002395
90	0x3f4e6d39	0.8063541
91	0xbf94f687	-1.1637734
92	0x3f2bb05f	0.67065996
93	0xbe04194c	-0.12900275
94	0x3e18d396	0.14924464
95	0x3f0dd40e	0.55401695
96	0xbfaf40e7	-1.3691682
97	0x3e9b66ad	0.30351773
98	0xbed0c9b0	-0.40778875
99	0xbea68a2f	-0.325273
100	0xbecf41e0	-0.40479946
101	0xbf4cfb36	-0.8007082
102	0xbf099f92	-0.5375911
103	0x3f520c50	0.8205004
104	0xbf84e8f2	-1.0383589
105	0xbf7640e2	-0.96192753
106	0xbf938b69	-1.152692
107	0x3e92ecdf	0.28696343
108	0x3e22540c	0.15852374
109	0xbfb41a85	-1.4070593
110	0xbf823544	-1.0172505
111	0x3f44e534	0.76912236
112	0xbebc6ad6	-0.3680026
113	0x3f62dddb	0.88619775
114	0x3ef3a94e	0.47590107
115	0xbf687bc6	-0.90813863
116	0xbedc239a	-0.42995912
117	0xbd724ea3	-0.059157025
118	0x3f062cc3	0.5241205
119	0xbf460d91	-0.7736445
120	0xbf35b679	-0.70981556
121	0x3f3bec62	0.73407567
122	0x3e32d87b	0.17465393
123	0x3e7f9ed7	0.24962936
124	0xbf5d8b74	-0.86540914
125	0x3e145a37	0.14487539
126	0xbefe2b46	-0.4964239
127	0xbd46d804	-0.048545852

dense6.bias f4 [2]
0	0xbe02b09f	-0.12762688
1	0x3a9be219	0.0011892944
