GraphNeuralNet/Skim1E2Mu/MHc-160_MA-85_vs_ttZ/models/ParticleNet-nNodes64_RMSprop_initLR-0p01_CyclicLR.pt (torch, 292717 bytes, 89 tensors)

gn0.weight f4 [9]
00000000: 80c1 c140 2388 1ebe 5ccb 00bc 288c 9fbd
00000010: d886 24be aa62 bf40 a7e0 ba40 9214 9e3f
00000020: 084f cb3f
6.0548706 -0.1548162 -0.007860985 -0.077904046 -0.16067064 5.980794 5.8399234 1.2350028
1.5883493

gn0.bias f4 [9]
00000000: 153f dc3e ccce 153f c0b8 ccbe 3dd5 3c40
00000010: d7dd 1bbf db56 7b40 fb70 333f 773d 2940
00000020: 61c8 d8c0
0.43016878 0.5851867 -0.39984703 2.950515 -0.60885376 3.9271762 0.7009427 2.6443765
-6.7744603

gn0.mean_scale f4 [9]
00000000: 82b4 c13e 6541 2f3f e804 613e 8d91 8d40
00000010: f42e c540 0fbf 5040 f4b2 f23f 0824 a640
00000020: 76ef 803f
0.3783303 0.6845916 0.21974528 4.4240174 6.1619816 3.2616613 1.8960862 5.1918983
1.0073078

conv1.mlp.0.weight f4 [64, 18]
00000000: 75c3 6a40 fd96 18c0 d5b7 8dbe de0e 4cc0
00000010: 5188 a93f da0e 7a3f f358 db40 6ad1 b4bf
00000020: 0359 8f40 5a07 0a40 9a26 f6bf 2de4 eebe
00000030: dadb 36c0 98bf 953f bde1 0040 ad6a 3b40
00000040: 3ca7 8ec0 ca86 84be 8d25 b040 e4b6 a9bf
00000050: 191d ae3f 936c 61c0 5f2b ccbe 395a 1240
00000060: 0fb3 e8bf 4522 dfc0 1809 9b40 6fd1 2840
00000070: 82fc 2740 e395 8dbf 4cfd 60bf cfbe 0240
00000080: f756 873f 4db0 95c0 efa2 acbf 683a c73f
00000090: d736 97bf 55d7 e9bf 74ac bdbf d247 003e
000000a0: 654e 1b3f ff1b 683f 6e1d c4bf bb99 2abc
000000b0: eac0 78be 8e15 1640 7da5 2d40 1698 5e40
000000c0: 5949 46c0 9633 b53f b4f0 1140 388b 46c1
000000d0: 90e7 f93e 06c4 263f 9b20 983f 232c a93f
000000e0: 8118 5c40 f1b9 66bf 4442 503f 39e9 09c1
000000f0: 057b 49c0 b48d 46c0 6088 6840 74aa 2a3e
00000100: d1b5 cabf 5649 6c3f b4e4 2940 5668 fbbd
00000110: 4ab1 ed3f fd0d 3e40 2fb4 3b40 a577 71c0
00000120: 0313 673e 94ca d4bf b418 413e b594 a1bf
00000130: c1c8 193f b8e7 0141 6c68 2bc1 938d b3bf
00000140: c87f a43f 8dee 953e eb2b 15bf b562 d9bf
00000150: 584f d8bf 5d9b 86bf 5ec7 953d dbc0 663f
00000160: d9ab 04bf c55c b83e 5892 a33f cc0a bb3f
00000170: b560 3040 4ef3 d13e 76fe a53f 64a5 1d41
00000180: 37e2 b4bf 3a06 a7bf 502d 3b40 54ec 12bf
00000190: 83ad 29bf fefa d1bf eeb4 16c0 5a5c 05c0
000001a0: 5200 25be b8ae 2dc0 a8d5 713f 6972 acc0
000001b0: 7b14 b640 ed4d 163f bfe2 c63f dbd6 82bf
000001c0: 3bdc c33f 7bba 0b41 fb58 81bf 88d1 1ec0
000001d0: 3aa0 ab40 eb66 0cbf b184 223f 117c a140
000001e0: 4fde 22c0 0181 b9bf db42 623f 48f8 51bf
000001f0: feb7 7fbe 7576 00c0 f9bd 3ec1 5d8d 4cbe
00000200: 8a8a fcbe 061a 0ebe d418 cabf 46d8 14c1
00000210: c244 e63f 8003 1d40 1227 8040 3feb 153f
00000220: 8bd6 b63f e335 db3f a719 803f 3844 013f
00000230: 3bcc 813f e050 48be abd5 89c0 96a3 50c0
00000240: 6598 3b3f 2f88 443f 7ad5 cbbe ae6e 30c0
00000250: d7ee 5ebf f902 c9bf c47f 4ec0 4ebd 76be
00000260: a6f2 81c0 75c9 c53f ea04 f4be e93a 04c0
00000270: eab2 3940 c8c4 0b40 7b32 a5be b2f2 c3c0
00000280: 4293 cf3f a5d1 4740 d5ac a1c0 f704 aebe
00000290: 97ba f83e f01c e4bf 3384 13c0 8d7c 7a40
000002a0: 3a6b 973f d2b2 06bf 719b ea3c df34 12c1
000002b0: de6d d23f 8fc7 90bf 51a4 01bf 08cb 1740
000002c0: 509d b03e 6ff8 dd3f e567 a140 6b1c 4940
000002d0: facc 1d40 ab2a 343f 0ad6 0840 e557 363f
000002e0: e537 be3f b609 8640 eff3 5cbf f44e 34c0
000002f0: a18e 5f40 d286 e93f 5346 39c0 4d89 2abd
00000300: b2ba 49bf c725 0e40 da59 333f 34d1 efc0
00000310: 0dbd 5cc0 12c7 883d 87b9 9cc1 a322 ec3f
00000320: 1e47 bf3e d5a4 81bf 3459 35c0 1fba 7d3f
00000330: 58b8 c03f f8c4 5b40 161b 6040 3786 30be
00000340: 77d0 4ebf b721 4640 9e19 e8bf c68d 1cbf
00000350: cd59 97bf 7eab 2abf 904d 96c0 a767 5e3e
00000360: 20a3 6e3f 3f49 493f 4aa0 ab3f a609 47be
00000370: 846b 453f e1d0 1841 af39 0cc1 594e cf3f
00000380: af64 d73f 6dd2 833e 0866 10bf f151 86bf
00000390: 7f68 a23f 8bd7 20be 4abc cf3d eb4c 423f
000003a0: dafa 64be acb4 8f3f 18c5 d23c 7542 3a3f
000003b0: 06ab 4abf 5b61 6c3f a674 12bf 0086 0441
000003c0: 533a 0cc1 03a6 be3f 1b30 e13f f741 f73e
000003d0: 5f92 99bb d7d1 3840 d7f4 143e 0848 50c0
000003e0: 3352 34bf da83 073f 8eb2 a0be 2c31 c6be
000003f0: d33e cabf 8c5e fa3f faf2 943f a307 45c0
3.6681798 -2.3842156 -0.27679315 -3.1884074 1.3244725 0.9767891 6.854608 -1.4126408
4.4796157 2.1566987 -1.923053 -0.4665846 -2.8571687 1.1699095 2.013778 2.928386
-4.4579144 -0.25884086 5.504584 -1.3258939 1.360263 -3.5222518 -0.3987684 2.2867568
-1.8179644 -6.9729333 4.84486 2.6377828 2.6247869 -1.1061367 -0.878865 2.042896
1.0573415 -4.677771 -1.3487223 1.5564699 -1.1813611 -1.8268839 -1.4818254 0.12527397
0.60666496 0.9066772 -1.5321481 -0.010412629 -0.24292341 2.3450656 2.7132256 3.4780326
-3.0982268 1.4156368 2.2803164 -12.408989 0.4880948 0.6514286 1.188495 1.3216594
3.4389956 -0.90127474 0.81351113 -8.619439 -3.1481335 -3.1023989 3.6333237 0.16666585
-1.5836736 0.922994 2.654584 -0.1227576 1.8569729 2.9696038 2.9328725 -3.7729275
0.22565846 -1.6624322 0.1885708 -1.2623507 0.6007195 8.119072 -10.712994 -1.402758
1.2851496 0.29283562 -0.5827014 -1.6983248 -1.6899214 -1.0516163 0.07313417 0.90138024
-0.5182472 0.36008278 1.2779036 1.461267 2.7559025 0.4100594 1.296828 9.852879
-1.4131535 -1.3048775 2.9246407 -0.5739186 -0.6628038 -1.6404722 -2.354793 -2.0837617
-0.16113403 -2.713789 0.9446664 -5.388966 5.69 0.58712655 1.5537947 -1.0221819
1.5301584 8.733027 -1.010528 -2.4815388 5.363309 -0.5484454 0.6348372 5.046395
-2.5448186 -1.4492494 0.88383263 -0.8201947 -0.24972531 -2.00723 -11.92138 -0.19975801
-0.49324447 -0.13877115 -1.5788827 -9.302801 1.7989733 2.4533386 4.0047693 0.5856208
1.4284223 1.712582 1.0007828 0.5049472 1.0140451 -0.19562101 -4.3073325 -3.2599845
0.7327941 0.767703 -0.39811307 -2.7567554 -0.8708319 -1.5704032 -3.2265482 -0.24095652
-4.06087 1.5452105 -0.4766 -2.0660956 2.901545 2.1838856 -0.32265076 -6.123376
1.6216815 3.1221707 -5.0523477 -0.33988163 0.48579857 -1.7821331 -2.3049438 3.913852
1.1829598 -0.5261661 0.028638573 -9.137908 1.6439779 -1.13109 -0.5064135 2.371767
0.3449502 1.7341441 5.0439324 3.1423595 2.4656358 0.70377606 2.138064 0.71227866
1.4860808 4.1886854 -0.86309713 -2.817319 3.4930804 1.8244269 -2.8949172 -0.041634846
-0.788005 2.2210557 0.7005898 -7.4942875 -3.4490387 0.06678595 -19.59059 1.844807
0.37358946 -1.0128428 -2.8335695 0.99112123 1.5056257 3.433897 3.5016532 -0.17238699
-0.8078684 3.0958078 -1.8132818 -0.6115383 -1.182428 -0.66667926 -4.696968 0.21719228
0.9321766 0.7862739 1.3408291 -0.19437274 0.7711718 9.550996 -8.764083 1.6195785
1.6827601 0.2574648 -0.5640569 -1.0493757 1.268814 -0.15707223 0.10143335 0.7589862
-0.22361317 1.1227012 0.025728747 0.72757655 -0.7916721 0.9233605 -0.5720924 8.282715
-8.764239 1.4894413 1.7592806 0.48292515 -0.0046866382 2.8878076 0.14546524 -3.2543964
-0.70437926 0.52935565 -0.31386226 -0.3870939 -1.5800422 1.9560103 1.163665 -3.078591

conv1.mlp.0.bias f4 [64]
00000000: 45db d7c0 c48d 64c0 f3eb 1cbf 9ee2 2c40
00000010: 89c9 32c0 6f67 c9bf ab16 73c0 8088 d2bd
00000020: cc14 043f 103a e4bf e486 3fbd 37dc 81bf
00000030: 5953 12c0 aaa0 c8bf ec34 45bf 6c35 6cc0
00000040: 4d19 d8c0 651e a43f 9c28 b0c0 78cf f13f
00000050: 291f bbbf aba8 4d3f eda2 47c0 203d bcc0
00000060: e4d1 dcc0 073c abbe 7555 88c0 054e 1ac0
00000070: c545 20c0 2fb2 1e3f 987a aabf 823e 84bf
00000080: 958a 9fc0 3fb2 99bf 334f 45c0 12de 6bc0
00000090: a817 9cc0 f5de c640 d84b 97c0 2242 b4c0
000000a0: d506 4dc0 dfc9 87c0 e071 9fbf fd9b f1c0
000000b0: 01d4 b5c0 530e 783e 0ad9 8ec0 8299 b6bf
000000c0: f9c2 4040 20b7 8640 0913 1840 3f2d 9ec0
000000d0: 0a2b abc0 21b3 95c0 1675 c9c0 a74c c1bf
000000e0: 1846 9bc0 a948 aebf 68ff dfc0 ee50 4740
000000f0: 362e 99bf c5ac 48c0 fe58 9340 e081 95bf
-6.7455163 -3.5711527 -0.6129753 2.7013316 -2.7935507 -1.573469 -3.7982585 -0.102799416
0.51594234 -1.7830219 -0.0467595 -1.0145329 -2.2863371 -1.5674031 -0.7703388 -3.6907606
-6.7530885 1.2821776 -5.504957 1.889144 -1.4618884 0.8033549 -3.1193192 -5.8824615
-6.9006214 -0.33444235 -4.260432 -2.411012 -2.5042584 0.61990637 -1.3318663 -1.0331576
-4.9856668 -1.2007521 -3.082959 -3.685429 -4.8778877 6.2147164 -4.7280083 -5.633073
-3.203542 -4.2433925 -1.2456627 -7.5502915 -5.6821294 0.24224214 -4.463994 -1.4265597
3.0119002 4.209854 2.3761618 -4.943023 -5.349004 -4.6781163 -6.2955427 -1.5101517
-4.8523064 -1.3615924 -6.9999275 3.1143146 -1.1967227 -3.135545 4.6046133 -1.168026

conv1.mlp.2.weight f4 [64]
00000000: bc5d 7640 9b3e c040 f99b 9b40 4d4e 8740
00000010: c60e ee40 a6d9 8040 a3fb f340 662a 9940
00000020: 098b 4b40 f847 1241 32a4 ae40 e7ae c840
00000030: 19c2 0d41 2112 e240 04a8 cc3f ba8f be40
00000040: c9b4 a240 a3eb 8740 4219 a040 57a5 ab40
00000050: ff6a d840 a36b 4b40 ac71 c740 014b cd40
00000060: 3065 9240 7694 cf40 e89d 4140 b0d2 6040
00000070: e126 8b40 111b 4b40 6c1b 4c40 846d b040
00000080: ede1 d040 a588 9b40 6916 0c41 f7ab d43f
00000090: 3969 a040 f1e3 6d40 851b 3240 d1a1 8140
000000a0: 37cd 7440 80b6 2a40 0c6b c540 62c1 8f40
000000b0: aafb b440 5ccd 8d40 22df d940 4089 b840
000000c0: 7f83 83c0 7375 643f 4f8e 4640 e5f8 8440
000000d0: 8424 a940 1bd0 8d40 24ee 6b40 500f 1d40
000000e0: e5a5 4940 668f 9d40 58e3 9740 a404 b040
000000f0: e56f b740 8f18 8b3f 142b e13f fb8f 8d40
3.849471 6.0076423 4.8627896 4.228308 7.4393034 4.0265684 7.6244674 4.7864256
3.180361 9.1425705 5.4575434 6.2713504 8.859887 7.064713 1.5988774 5.9550447
5.0845685 4.2475142 5.003083 5.363933 6.763061 3.1784446 6.232626 6.4154058
4.574852 6.4868727 3.0252628 3.5128593 4.348496 3.173527 3.1891737 5.5133686
6.527579 4.8604302 8.755471 1.661498 5.0128446 3.7170374 2.7829297 4.051003
3.8250253 2.667389 6.1693172 4.4923563 5.6557207 4.4313183 6.808488 5.766754
-4.109802 0.89241713 3.1024358 4.1553826 5.2857075 4.4316535 3.68641 2.4540596
3.1507504 4.9237547 4.746502 5.5005665 5.732409 1.086687 1.7591271 4.4238257

conv1.mlp.2.bias f4 [64]
00000000: 1019 aebf 6907 91be 13ae 7e3e 59e9 fc3f
00000010: cb64 e23d 3284 d9bf 483d 2bbe e68a b5bd
00000020: 4dac c33f f682 2d40 c5d5 ca3e df6d bc3f
00000030: f534 f13f ba75 903f 8e78 173f b498 943f
00000040: cb2b 913e 8ff4 463f 8c2d c2be 38dd 91bf
00000050: 090e b23e 4add 4f3c 64fd 5e3f 0e13 a23e
00000060: 18e3 3ec0 4af2 773f e391 93bf 5736 d1bf
00000070: 36ba d5be edcc 2ac0 020e 1bbf 82c1 bebf
00000080: af99 743e e91b a63f e548 f03f 6e18 c83f
00000090: ae5b 303f b22a aabe 6da3 f93f 141d 4abf
000000a0: 0aed 17c0 44fb 4fbe 59b8 213f 9588 f4be
000000b0: 74c8 603e b9f2 e53f 0f29 003f f77e c33f
000000c0: 5b84 e4be 40b1 d33e 2dd3 1940 7bda 84bf
000000d0: 7150 1dc0 3631 643f da72 13bf 0a09 96bf
000000e0: 2ba5 0a3f 9dc9 9b3f f528 7cbf b082 5340
000000f0: 73cd f1be c9b4 ccbf 6aa7 e33f 8444 fa3f
-1.3601398 -0.28325966 0.24871092 1.9758712 0.11054381 -1.6993468 -0.16722596 -0.088643834
1.5286957 2.7111182 0.39616218 1.472103 1.8844286 1.1285927 0.59168327 1.1609101
0.28353724 0.77716917 -0.37925375 -1.1395636 0.34776333 0.012687037 0.87105393 0.31655163
-2.9826107 0.9685408 -1.1528896 -1.6344708 -0.4174363 -2.6687577 -0.6056825 -1.4902804
0.2388675 1.2977268 1.8772246 1.5632455 0.6888989 -0.332357 1.9502999 -0.7895062
-2.3738427 -0.20310694 0.6317192 -0.47760454 0.21951467 1.7964698 0.5006265 1.5273122
-0.4463223 0.4134617 2.4035141 -1.0379175 -2.4580348 0.8913759 -0.57597125 -1.1721509
0.54158276 1.2170902 -0.98499995 3.3048515 -0.47227058 -1.5992671 1.7785466 1.9552159

conv1.mlp.2.running_mean f4 [64]
00000000: c5a4 e8bd b9c7 2440 d943 0142 3076 5041
00000010: 66d3 d741 11a9 3f41 a91b 3f41 ffae 813b
00000020: a4a8 1742 ef7f a940 74d6 4641 ae67 70bf
00000030: f19a de41 ee17 e841 9a4d bc41 9976 7c41
00000040: 3564 16bf 8109 3a42 85df cb41 11bb a93f
00000050: cb7c 6a41 ccbf 5e41 7139 0541 b1e4 c941
00000060: fcff 7fbf 4e1e f73d 06f0 d83f a804 e740
00000070: fcff 7fbf 18ec 3d42 cf48 3240 4d66 6fbf
00000080: 735e 533f 0364 8741 41d0 ed41 ce87 2740
00000090: 01b7 f33f 8030 2542 fcff 7fbf 1b9f 7e40
000000a0: a058 ff41 e246 9e41 09ee de3d a2e2 72bf
000000b0: 8a14 2fbf 1dc1 0742 6536 aa41 6709 b841
000000c0: 936c 9c42 f08e 8442 7edd e241 39de f641
000000d0: eabf 7fbf e27f 7c41 338e 8cbe 5f3f 8041
000000e0: 3403 0140 e39c 9c41 be2b d0be 874a ea41
000000f0: e295 3f41 9ce1 5941 adee 4c42 c0a8 3842
-0.11359552 2.57469 32.316257 13.028854 26.978222 11.978776 11.944253 0.0039576287
37.91469 5.296867 12.427357 -0.939082 27.825655 29.011684 23.537891 15.7789545
-0.58746654 46.50928 25.48414 1.3260213 14.655467 13.921825 8.326524 25.236666
-0.99999976 0.12066327 1.6948249 7.2193184 -0.99999976 47.48056 2.785694 -0.93515474
0.82565993 16.923834 29.726686 2.6176639 1.9040223 41.297363 -0.99999976 3.978461
31.918274 19.78461 0.10885245 -0.94877064 -0.68390715 33.938587 21.27656 23.004591
78.21206 66.279175 28.35815 30.858507 -0.9990221 15.781221 -0.2745224 16.030943
2.0158205 19.576605 -0.40658373 29.28639 11.9740925 13.61758 51.23308 46.164795

conv1.mlp.2.running_var f4 [64]
00000000: 7777 aa41 4b6d 9942 29b5 3945 8cf3 c343
00000010: bf44 9a44 59e1 7c44 5486 5644 2f46 6341
00000020: 4ee9 8044 9651 6243 9584 0144 d48c 213f
00000030: 9053 c544 a6f0 bc44 ad78 5a44 2209 9944
00000040: 00a9 0941 ace7 d644 53d6 3a44 1523 1b42
00000050: ed08 4244 ade7 0244 5d19 1944 9bbd 7d44
00000060: c8f5 a525 e392 8d41 8fc2 8542 a282 6443
00000070: a600 812c 3aa4 ea44 65aa b542 c8cb 103f
00000080: 8f51 6f42 8385 3044 ad1a c944 b87c f342
00000090: 3d89 0343 0bb5 b744 5fa5 a425 bfa7 1243
000000a0: 262f 6544 1353 7b44 7a7a cf41 e912 513f
000000b0: d2ac ab40 d5c6 9744 a226 6f44 edaf 0945
000000c0: 7403 9f44 43e0 9b44 9710 5544 fbfa 7944
000000d0: 3696 193b d5dd b343 dbfa 9941 a729 f743
000000e0: 6e3c 5b42 257d 6444 3d56 5341 82de 3344
000000f0: c04f 7e44 0b4c 2444 3040 8444 5b3f 1045
21.308332 76.71346 2971.3225 391.9027 1234.1483 1011.52106 858.0989 14.204635
1031.2908 226.3187 518.0716 0.6310551 1578.6113 1511.5203 873.88556 1224.2854
8.60376 1719.2397 747.3488 38.78426 776.13947 523.61993 612.3963 1014.9626
2.8789485e-16 17.696722 66.88 228.51028 3.6664725e-12 1877.1321 90.8328 0.56560946
59.829647 706.0861 1608.8336 121.74359 131.53609 1469.6576 2.8561525e-16 146.65526
916.7367 1005.29803 25.934803 0.8166948 5.364846 1214.2135 956.60364 2202.9954
1272.1079 1247.0082 852.2592 999.9216 0.002343548 359.73306 19.247488 494.3254
54.809013 913.9554 13.208554 719.4767 1017.2461 657.1882 1058.0059 2307.9597

conv1.mlp.4.weight f4 [64, 64]
00000000: e826 bcbf a3d7 aa40 106b ed3f 5bc6 7540
00000010: e8aa 2e40 5855 f93e 2aa8 5fbf cc90 74c0
00000020: b82c 98c0 18ac cdc0 dd76 fc3f b456 35c0
00000030: d84f d33f aeec 3340 8853 6d3f dfb8 47c0
00000040: 1e54 a4bf 9cc8 ccc0 e927 0c40 69a4 cec0
00000050: 3b49 99bf 5605 333f 5b53 3f3f 5901 8b3e
00000060: 01d8 a9bf fb67 bebf 28cf 4f40 d211 743f
00000070: 27e0 13c0 c26b b240 0e43 1940 448f bbbf
00000080: ed7b b640 5539 0abe dcde a8be eb01 debf
00000090: 2bf9 933f c5a8 6640 c68d a5bf 3981 05c0
000000a0: 5072 1041 cebd 3b40 942a 4dc0 2bb7 eebf
000000b0: d6e9 96c0 2aae 7c40 c08f 96bf 314e ef3f
000000c0: 0070 933f d131 2cc0 bed8 2640 11ce e240
000000d0: d42d 723f 225f fac0 3378 8cbe 6d40 1540
000000e0: fa2a a6c0 6c57 49c0 e831 2040 10b8 8bbf
000000f0: 3cfd 6fbf dcad 9140 086e b6be b268 c8c0
00000100: 8ef0 8ac0 9b8c bac0 ba6a 18c0 5a8d ea3f
00000110: 408b 72bf 1ae7 a53f 23cd 25c0 829a 9fc0
00000120: 9300 3640 b757 20be 3822 9fc0 57ad bebf
00000130: d043 bfbf e49d d8bf 140d 923d 1f51 02c0
00000140: c397 00c1 10da 663c 5863 4bbf 2e98 bec0
00000150: 90ad 1fc0 0e0f 6f3f 3f9f 4bc0 b0f6 36c0
00000160: de8f 29c0 f9fe 3240 df83 90c0 1b6d 8bc0
00000170: eed4 6bc0 c026 d63f 4b67 8fc0 5ca0 46c0
00000180: 9e99 86c0 35c8 c3c0 f8d0 363f 5c38 82c0
00000190: ed1e 2bc0 e619 5940 94de e3bd 681e 53c0
000001a0: 1496 d6bf bc89 9ebf a992 c7bd 466d 54c0
000001b0: 686e d7c0 ce5f 68c0 0a55 a5bf dc0c e4c0
000001c0: 1b47 87c0 8335 4f3f dfb7 a63f 5784 e9bf
000001d0: b505 32c0 648a ecbf 322e 88c0 6e61 0940
000001e0: 41a7 0340 1e89 91c0 45e2 2cc0 e577 3940
000001f0: 3ca3 2bc0 2e9e 4dbe 9026 4e40 5e76 38c0
00000200: c52d 10c0 7ac6 b440 f062 a540 07aa f2bf
00000210: 1701 b0c0 6b83 1d40 e033 efbe b52d d93d
00000220: 0669 c240 4edc 88c0 b224 ae40 15b5 83bf
00000230: b04d e83f 52dd a53e dec9 b0be 955d 1abe
00000240: 43ea 3140 4027 b040 6664 73c0 4385 193e
00000250: 0f5d 5540 6312 38bd 7591 1040 1809 38bf
00000260: 4a2b 92be 839c 06c0 a44d 4fc0 b942 b140
00000270: 724f 63bf 3f05 86bf 77d8 8dbd f182 c0bf
00000280: c733 693f de06 de40 ec8b 5440 8d17 993f
00000290: 1f71 593f 1060 303f ff55 a7c0 c07c 25c0
000002a0: 528c abbd a832 20bf 9ced 23c0 590c 0abf
000002b0: 79f7 9b40 753a b640 e1a2 38c0 3789 0b40
000002c0: a3a0 963f e744 39c0 e255 0dc0 6619 04c0
000002d0: 1e73 0ec0 c346 803f d423 58c0 18f7 15c0
000002e0: 1a04 a640 2703 9e40 a9f2 83c0 f51e 61bf
000002f0: c72c 4640 3f48 5b40 9244 29c0 6535 5840
00000300: 8845 c8bf 30fd a340 9e24 8a40 fe91 5dbf
00000310: 9a28 39bf 2637 a9bf 6ff4 c8be cb78 c8bf
00000320: 79a1 cc40 5e44 e5c0 8cb3 a240 cd6f 88c0
00000330: 4827 853d 2afc 80c0 942e bdc0 bd07 92c0
00000340: a9cb db3f df66 e340 9322 78c0 9f2f 8ebf
00000350: aa17 9fbe 3cb4 afc0 0f13 8cc0 01a0 3bc0
00000360: 521b 36be 249c 213f 18df e0bf 59a1 fbbe
00000370: e45c 4dc0 35ab 02c0 3a69 3cc0 8a56 aebf
00000380: 1593 a23d 01e2 9840 dfdf bebf d99f 9b40
00000390: 895f 89c0 aa87 21bf 2eb0 c53f f0a5 2dc0
000003a0: 71db 693f 642d 88bf 8607 3dc0 e48e a8bf
000003b0: fa1c 5240 ef9a ac40 0069 d8bf 5dbd f53f
000003c0: 48f2 3f3f 3833 ff3d 4cda 4ec0 ea89 0ec0
000003d0: 0ae5 c1bf 0611 903f 419b 1bc0 805d 07c0
000003e0: bcb4 7640 a921 6640 36bd 61bf 7184 d5bf
000003f0: 42f1 8abf 0462 513f 9a0b 64c0 05d9 3f40
-1.4699373 5.338823 1.8548298 3.8402317 2.7291813 0.48697925 -0.87365973 -3.8213377
-4.755459 -6.4272575 1.9723774 -2.833417 1.6508741 2.8113208 0.92705584 -3.1206586
-1.283817 -6.3994884 2.189936 -6.4575696 -1.1975473 0.69930017 0.74736565 0.27149466
-1.3269044 -1.4875482 3.2470188 0.9533969 -2.3105562 5.575654 2.3947177 -1.4653096
5.7026277 -0.13498433 -0.32982528 -1.7344335 1.1560415 3.6040509 -1.2933891 -2.0860121
9.027908 2.9334598 -3.2057238 -1.8649648 -4.7160444 3.9481301 -1.1762619 1.8695737
1.1518555 -2.6905406 2.606979 7.0876546 0.9460118 -7.824113 -0.27435455 2.3320572
-5.192746 -3.1459608 2.503046 -1.0915546 -0.9374578 4.552473 -0.35630822 -6.26278
-4.3418646 -5.8296638 -2.381514 1.8324387 -0.9474373 1.2961152 -2.5906456 -4.987611
2.843785 -0.1565846 -4.972927 -1.4896649 -1.494257 -1.6923184 0.07131401 -2.0362012
-8.037051 0.014090076 -0.7944846 -5.9560766 -2.4949684 0.93382347 -3.1815946 -2.8588066
-2.649406 2.7968123 -4.5160975 -4.3570685 -3.6848712 1.6730576 -4.481359 -3.1035376
-4.206252 -6.1181893 0.7141261 -4.06938 -2.6737626 3.3922057 -0.11126438 -3.2987309
-1.676455 -1.2385783 -0.0974477 -3.3191695 -6.7322273 -3.6308475 -1.2916577 -7.1265697
-4.22743 0.8094103 1.3024863 -1.8243512 -2.7815983 -1.8479733 -4.255639 2.1465716
2.0570834 -4.547988 -2.7013104 2.8979428 -2.681838 -0.20079872 3.2211037 -2.8822246
-2.2527936 5.649228 5.1683273 -1.8958138 -5.500133 2.461146 -0.46719265 0.10604421
6.0753202 -4.2768927 5.4419794 -1.0289637 1.8148708 0.32395416 -0.34529012 -0.15074761
2.7799232 5.5047913 -3.8030028 0.14992242 3.3338048 -0.04493941 2.258878 -0.71888876
-0.28548652 -2.1033027 -3.2391138 5.539395 -0.887931 -1.0470351 -0.06926053 -1.503996
0.9109463 6.9383383 3.3210402 1.1960312 0.84938234 0.6889658 -5.2292476 -2.5857391
-0.08376373 -0.62577295 -2.5613775 -0.5392509 4.873959 5.694636 -2.8849413 2.18025
1.1767772 -2.8948305 -2.2083669 -2.0640502 -2.2257762 1.0021595 -3.3771868 -2.3432064
5.1880007 4.937885 -4.1233716 -0.8793786 3.096483 3.4262846 -2.6448102 3.378259
-1.5646219 5.1246567 4.31697 -0.8655089 -0.7232758 -1.3219955 -0.39248988 -1.5661863
6.394711 -7.1645956 5.0844173 -4.2636476 0.06501633 -4.0307817 -5.911936 -4.5634446
1.7171527 7.1063075 -3.8771102 -1.1108283 -0.31072742 -5.4907513 -4.3773265 -2.9316409
-0.1778386 0.63128877 -1.7568083 -0.49146536 -3.2087946 -2.0416996 -2.9439225 -1.362016
0.0793821 4.7775884 -1.491207 4.8632627 -4.292912 -0.6309763 1.5444391 -2.713253
0.91350466 -1.0638852 -2.9535842 -1.3168607 3.2830186 5.393913 -1.6907043 1.9198414
0.74979067 0.12460941 -3.2320738 -2.2271676 -1.5148022 1.1255195 -2.431351 -2.1150818
3.8547812 3.5958045 -0.8817934 -1.6681043 -1.0854876 0.81790185 -3.563208 2.9976208

conv1.mlp.4.bias f4 [64]
00000000: 1c17 5cc0 499a 1a40 b38f 6bc0 d002 6cc0
00000010: b75d afc0 8e19 d440 0f1b 36c1 7a46 c5c0
00000020: 0955 a2c0 dce8 2dc1 4d6b a9bf 1002 743f
00000030: 0c81 dd3e e2d6 68c0 c824 ffc0 0fa6 febf
00000040: fc94 c440 8ef8 23c1 d33f 0040 b9bc d83d
00000050: 1897 7bc0 586a 1bbf fb3c c23f db3d a1bf
00000060: 2ea9 03c0 af9f 11c0 7fa5 27c0 b9c1 2ec0
00000070: c508 4ec0 ef3a bdc0 5520 02c0 e597 1a3f
00000080: d905 85c0 58dd 6ac0 2740 b93f 1f1a 4840
00000090: 6f81 cac0 424d 80c0 92e2 f0c0 ea71 b83f
000000a0: 097f bec0 8ae4 11c0 5997 20c1 f34e 9a3f
000000b0: 1c97 35c0 6ea2 b6bf c73e 6dc0 4d5a 0941
000000c0: a0a6 d0c0 037b 8240 325e fa3f f666 8a3e
000000d0: d1bc 49bf b7de 5140 fb01 22c0 a33e a33f
000000e0: b60b 2740 2929 30c0 e3e3 16c0 02c6 91c0
000000f0: 7a81 90c0 ceae 41c0 5167 0e3f bb57 2840
-3.4389105 2.4156668 -3.6806457 -3.6876717 -5.48019 6.6281195 -11.381606 -6.164853
-5.0728803 -10.86935 -1.3235871 0.9531565 0.43262517 -3.6381154 -7.97324 -1.9894427
6.1431866 -10.248182 2.0038955 0.10582871 -3.931097 -0.6070914 1.517486 -1.2597002
-2.057201 -2.2753713 -2.619476 -2.730574 -3.2192852 -5.913444 -2.0332234 0.6038802
-4.156964 -3.6697598 1.4472703 3.1265943 -6.3283 -4.009431 -7.5276575 1.4409764
-5.953007 -2.279574 -10.03695 1.2055343 -2.837348 -1.426832 -3.7069566 8.584546
-6.52034 4.077516 1.9559996 0.27031678 -0.78803736 3.2792184 -2.5313709 1.275349
2.6100898 -2.7525122 -2.357659 -4.555421 -4.5158052 -3.0262942 0.556264 2.6303546

conv1.mlp.6.weight f4 [64]
00000000: 99bd 9040 1c72 a540 2dc3 9e40 cb04 8040
00000010: a5bf 6f40 eaa4 8040 8c4d a440 cfac e140
00000020: 63c5 8dc0 13c6 0141 760b 7840 05c3 7f40
00000030: c79b b940 1db2 6740 17fc b440 f07c 8240
00000040: ebec 9240 fb77 0241 faab 6740 65fd ac40
00000050: f83e 7140 a16e 7240 b797 2c40 d36a 9240
00000060: 1f95 bb40 882e 9e40 5660 2c40 12ec a440
00000070: 9e45 1f40 4b72 a140 f607 b440 b0a8 9140
00000080: 1e6f 4d40 d4af b140 7376 bf40 4e22 a040
00000090: a84c d240 915d cb40 55dc 8a40 2ce6 aa40
000000a0: 8a3f ca40 6505 bb40 3b3b ef40 3536 5640
000000b0: 4c09 8b40 fc8c e240 2bb2 9a40 1050 9340
000000c0: 71dc 5040 8bee 6b40 5033 6c40 4792 7f40
000000d0: 481b b740 488c c540 9886 8f40 222a b540
000000e0: 4353 9640 5700 5e40 7103 0840 55d8 8040
000000f0: b5b1 ad40 f8c6 9540 0703 c440 cae5 6e40
4.5231442 5.1701794 4.961325 4.000585 3.746072 4.020131 5.134466 7.052345
-4.430345 8.110858 3.8756995 3.996278 5.800266 3.6202462 5.6557727 4.077751
4.5914207 8.154292 3.6198716 5.405932 3.7694683 3.7880023 2.69676 4.57554
5.8619533 4.94318 2.6933799 5.153817 2.488624 5.045202 5.625972 4.5518417
3.209907 5.5527134 5.983209 5.0041876 6.5718575 6.3551717 4.339396 5.340597
6.320256 5.8444085 7.4759803 3.3470585 4.344885 7.07971 4.834249 4.6035233
3.2634547 3.6864345 3.6906319 3.993303 5.72208 6.173374 4.48518 5.661393
4.697664 3.4687707 2.12521 4.0264077 5.4279428 4.680538 6.1253695 3.7327752

conv1.mlp.6.bias f4 [64]
00000000: 8a54 35bf b834 3140 c413 f43e b5f4 0abe
00000010: 7445 f13f eb93 0a40 d6bb 96be 1296 15bd
00000020: ef20 a93f bdb8 e83f 23fc dcbf f801 63bf
00000030: 5a31 323f b636 12c0 9598 b03f 88b1 87bf
00000040: 2256 c63e 0333 b13f 5db5 47c0 2d42 1b3f
00000050: 6d8a 69bf 71e5 41bf bf35 8c3e d74c eebe
00000060: b7c3 9c3e 7963 5c3f a0c7 d3bf f212 9bbd
00000070: af9b 25c0 5578 8fbe bc53 c13f 3c4a b43f
00000080: 7948 c1bf 7ff4 cb3f 03eb 233f 03e8 da3f
00000090: c64c d33f 21c0 873f ccc2 4ec0 0746 693f
000000a0: ea28 b73f e49e 283f 1125 d43f 6210 d73f
000000b0: a444 9b3f 93a1 61bf ce26 fabe 2e52 1e40
000000c0: c90a 46c0 1efa 793f f7ab 0fc0 2e1f 703e
000000d0: 540c d23e 9f3a 9f3f 7a32 29c0 5275 603e
000000e0: d433 613e 950c 04bf b867 0fc0 61c2 01c0
000000f0: 7c0e 31bf 0a22 14c0 7b1a 703f f2b9 74bf
-0.7083212 2.7688427 0.4767133 -0.13569911 1.884932 2.1652782 -0.29440182 -0.03652007
1.3213176 1.8181378 -1.7264446 -0.8867488 0.69606555 -2.2845893 1.3796564 -1.0601053
0.3873759 1.3843693 -3.1204445 0.6064785 -0.91226846 -0.75740725 0.27384755 -0.46543
0.3061807 0.86089283 -1.6545296 -0.07571973 -2.5876272 -0.28021494 1.5103679 1.4085155
-1.5100242 1.5933989 0.64030474 1.7102054 1.6507804 1.0605508 -3.2306395 0.9112248
1.4309361 0.6586745 1.6573812 1.6801875 1.2130322 -0.8813717 -0.4885773 2.4737659
-3.0944083 0.97647274 -2.244871 0.23449394 0.4102503 1.2439765 -2.6437058 0.21919754
0.21992427 -0.515817 -2.2407055 -2.027489 -0.69162726 -2.3145776 0.93790406 -0.9559623

conv1.mlp.6.running_mean f4 [64]
00000000: 7341 3e42 a61e 1543 4dc3 f842 8142 f242
00000010: c7ca bd42 d033 2a43 9f28 9442 472c 9742
00000020: 9d0e 1142 6c94 7942 cc6f 1e42 2911 8c41
00000030: 7a4e 0043 8777 a042 c979 d942 e4a4 d141
00000040: ca6c fe42 1027 b742 ba4e da42 0fea 0043
00000050: 1a09 bb41 a2cc 9a42 630e c242 5ae6 3e42
00000060: cb86 3242 38c4 4c42 ebe6 b442 7fed fb42
00000070: d380 7b42 d506 c841 a6d5 ff42 b61b 1b43
00000080: 740c 9b42 a4ee 0043 9b5d 3e43 8be4 0143
00000090: f671 cb42 6a7a b742 ae3c 1942 3796 de42
000000a0: 4853 ad42 3f67 9542 66ce 2642 d638 e542
000000b0: d240 a842 7c83 e642 d7e4 cd41 e9e2 fb42
000000c0: a067 8642 7f36 e242 a6a3 0343 0ae9 0643
000000d0: a8d5 f042 a12b 1543 9291 5f42 1118 0543
000000e0: d98b 2e43 9259 6942 9531 8142 7fe3 5842
000000f0: 6cd2 1442 56b7 a042 2d93 f342 8e33 ff42
47.563915 149.11972 124.38145 121.12989 94.89605 170.2024 74.07934 75.58648
36.26427 62.394943 39.609177 17.508379 128.30655 80.23345 108.73786 26.205513
127.21248 91.576294 109.15376 128.91429 23.379444 77.39967 97.0281 47.724953
44.631634 51.19162 90.45101 125.96386 62.875805 25.003336 127.91728 155.10825
77.52432 128.93219 190.36565 129.89275 101.72258 91.73909 38.309258 111.29339
86.66266 74.70165 41.70156 114.61101 84.1266 115.256805 25.736738 125.943184
67.20239 113.10644 131.63925 134.91031 120.4173 149.17043 55.89216 133.09401
174.54628 58.33747 64.59684 54.222164 37.20549 80.35808 121.78745 127.60069

conv1.mlp.6.running_var f4 [64]
00000000: acdc 1846 c4b1 8946 9bc7 4c47 4dd7 3147
00000010: 3d37 3847 753c b646 8d9f fd46 af97 1747
00000020: d30f 2f46 ec92 e946 85ad 4246 6859 e145
00000030: 1abb 9046 82f1 5b46 f449 6147 da78 2f46
00000040: be28 7c46 9118 7947 30c2 5a46 b335 8f46
00000050: e57b 0346 42fa f945 dc29 6b46 7c82 4646
00000060: 91ce a846 13e9 2f46 cb76 3f46 0146 af46
00000070: 26ed 3446 ab8f 0946 f1c9 6947 ab1b 8246
00000080: 083a 5646 89d0 c146 882a d846 ff2a 4b46
00000090: b720 2647 3904 3347 e23d e445 da14 d846
000000a0: acce 3e47 0dd7 6f46 cf08 5f46 9760 3e46
000000b0: 4cb1 c746 f95d 1a47 7a12 c845 41a0 8c46
000000c0: 95c6 d645 c0cd 8946 acc1 8946 15b5 7146
000000d0: 1c0f 0147 3659 fc46 6afb 0b46 5116 9c46
000000e0: 3c7e b246 1ebe 1f46 d6ee 2d46 7f80 4746
000000f0: 729f c046 c385 0046 2169 a446 f6d2 8a46
9783.168 17624.883 52423.605 45527.3 47159.24 23326.229 32463.775 38807.684
11203.956 29897.46 12459.38 7211.176 18525.55 14076.377 57673.953 11230.213
16138.186 63768.566 14000.547 18330.85 8414.974 7999.282 15050.465 12704.621
21607.283 11258.269 12253.698 22435.002 11579.287 8803.917 59849.94 16653.834
13710.508 24808.268 27669.266 13002.749 42528.715 45828.223 7303.7354 27658.426
48846.67 15349.763 14274.202 12184.147 25560.648 39517.973 6402.3096 18000.127
6872.8228 17638.875 17632.836 15469.2705 33039.11 32300.605 8958.854 19979.158
22847.117 10223.529 11131.709 12768.124 24655.723 8225.44 21044.564 17769.48

conv1.mlp.8.weight f4 [64, 64]
00000000: 3dc3 25c0 4efc 09c0 7e9e 07c1 8894 fcbf
00000010: 791b d73f 5656 473f 38c3 0bc0 826f eabe
00000020: 0d1d 793e edc6 cebf 8c33 8f40 8680 713f
00000030: 7688 c33e b003 ddc0 50b6 0240 467e ed40
00000040: bb86 39c0 e868 1a3e 3280 16c0 bcde 8d3f
00000050: 5329 a940 62b5 813d 2906 0f3f 9728 1240
00000060: 007b 8b40 ea96 8c40 1db8 69bf 5799 973f
00000070: ce15 90bf 20b3 8d40 c62b 08c1 3fa6 a5c0
00000080: 56c3 a5bf 0f18 0ec0 a856 3dbe dcc3 cfbf
00000090: 9e62 45c0 fbc7 c5bf 51b5 00c0 ea76 8ec0
000000a0: aa1f 6cc0 1aa3 933f e938 58c0 dd0a 0f3e
000000b0: 5290 54c0 ea9b 81c0 e997 48be 914b 2140
000000c0: ece7 f23d 828c 053f b3ef c8bf 3b0d cabe
000000d0: 2837 c9c0 c240 223e ab1e e3bf d37d 8ebf
000000e0: 7803 ebbf 4064 32c0 47b3 aebf b637 29c0
000000f0: aaa6 b740 749d 09c0 e998 0f3f f4a6 82bf
00000100: 306d 69c0 86f6 8ec0 a542 5740 32b6 4d3e
00000110: f225 1bbf 34e3 08c0 0b74 edbe 288f 93c0
00000120: 8221 dd3e a287 27c0 2b9c 83c0 4827 3abf
00000130: 2485 0b40 4ed4 6fc0 a0a0 41c0 7656 a0c0
00000140: d335 05c0 d1c9 26c0 8be1 b3c0 95e0 b73f
00000150: 1372 b7c0 4baa d63f a3a7 943c c28e b2c0
00000160: 38bf b83f 47cd bbc0 97c3 e9bf 7d4e a8bf
00000170: 0e5a 323f 878d d5bf 40b7 203f 2c22 30c0
00000180: 55ea 9fc0 bdfa 3040 77bc a03f eee4 36c0
00000190: 356c 7cbe 0132 65c0 8a0e 203f e82d 0940
000001a0: 4513 a2c0 1050 fec0 fc0c b3c0 984b aa3f
000001b0: 4117 a63f e44f 0240 e64c 0440 2a0f 3c3f
000001c0: 8224 1440 26dd 1140 b87e 80c0 8ac2 b3c0
000001d0: 4ff9 7d40 7215 3c40 c36c 9dc0 bcc9 843f
000001e0: 2ba3 0940 6a99 693f 4c25 bebf 5541 a1c0
000001f0: 68b4 71bf fa60 0640 c2ee 12bf 06f1 573f
00000200: 8e06 52c0 3233 fcc0 c757 2e40 8f61 22c0
00000210: 5aaf a9c0 3597 44c0 749f 5bc0 e0aa 1bc0
00000220: 0243 a93f 83fd 8dc0 07c4 efbe b622 bfbf
00000230: 40a2 1ec0 664a cc3d 7614 f7c0 97ed 07c0
00000240: 5cec 33c0 70e8 2bc0 d862 e2c0 fc4b e9bf
00000250: eab5 58c0 2a22 59bf 45ea b8bf 7c02 433e
00000260: d65b 23c0 cc46 19bf 8822 2fc0 cfdf 82c0
00000270: 067e 723f a688 29c0 b7f8 b2bf faa3 a6be
00000280: e0cc 23c0 dca9 17bf a95a 65bf 9fb0 fbc0
00000290: a8cb 89c0 f059 a2bf f138 3840 6132 42be
000002a0: ef54 83c0 9d09 6fc0 5cba b8c0 8d38 40c0
000002b0: 8b78 0abf c583 3b40 dbda bf3e 6c04 9ac0
000002c0: 67e2 f53e 1519 f3bf e2dc 60c0 f41b c6c0
000002d0: 629b bfbf 565c c5bf 53a5 0640 244c 053f
000002e0: 3766 943f a1f5 96bf e619 01c0 26fc b2c0
000002f0: ae33 83c0 fedf 6240 21c6 24be e067 4ac0
00000300: 0d2b 2240 1ea5 9ec0 1223 fa3f 9401 943f
00000310: 25e3 0ec1 af99 41c0 abcd b1c0 c607 a13f
00000320: ccd4 0a3f 7dea bfbf 7e3a 993f f196 0d40
00000330: 9b0c b6c0 948b bcbd d36c 10c1 c6ec 12c0
00000340: 82ac 86c0 71b1 12c0 769d 3bbf 9ef3 0ac0
00000350: 07e0 5d3e af78 8840 e78d 1a3f 7a3a 65bf
00000360: 7e12 62be e67b 61c0 a3f3 1540 1726 8ac0
00000370: c1a8 603f b168 bbbf f2b4 31bf 897b e63f
00000380: 48af 30c0 61cf 38c0 7deb 09c0 3a5c b0c0
00000390: 2b51 4dc0 733c 3840 4737 f840 cb38 ae3e
000003a0: 7a90 22be dfdc 10c0 d886 39c0 7011 63c0
000003b0: d9ab 22c0 34ec 1d40 64b4 efbe bebf abc0
000003c0: 2499 8a40 7af4 313f 9cc9 80c0 6dd9 76c0
000003d0: 2842 1ebf f0d7 1d3f 1ee8 5040 e413 4cbf
000003e0: 60dc 2840 8f3b f23f a40b 9e3f ea72 a2bf
000003f0: d45f 893c 3b53 ae40 b77b dfbf db19 85c0
-2.5900414 -2.1560245 -8.476194 -1.9732828 1.6805259 0.77866113 -2.1837902 -0.457882
0.24327488 -1.6154457 4.4750423 0.94336736 0.3819005 -6.9067 2.0423775 7.421664
-2.8988483 0.15079081 -2.3515744 1.1083598 5.2862945 0.06333424 0.55868775 2.2837274
4.3587646 4.393422 -0.9129656 1.1843671 -1.1256654 4.428116 -8.510687 -5.1765437
-1.2950237 -2.2202184 -0.18490088 -1.6231647 -3.084144 -1.5451654 -2.0110667 -4.452016
-3.6894326 1.153415 -3.3784735 0.13968988 -3.3213086 -4.0502825 -0.19589199 2.5202372
0.11860642 0.5216752 -1.569815 -0.3946322 -6.287983 0.15845016 -1.7743734 -1.1132149
-1.8360434 -2.7873688 -1.3648461 -2.6440253 5.7390947 -2.1502352 0.560927 -1.02072
-3.6472893 -4.467593 3.3634427 0.20089033 -0.60604775 -2.1388674 -0.46377596 -4.611225
0.43189627 -2.6176534 -4.1128135 -0.7271619 2.1800013 -3.747333 -3.0254288 -5.0105543
-2.0814102 -2.606068 -5.621282 1.4365412 -5.732675 1.6770719 0.018146342 -5.5799265
1.4433355 -5.8688083 -1.8262814 -1.3148953 0.6966866 -1.6683816 0.6277962 -2.7520857
-4.997355 2.7653039 1.2557515 -2.8577228 -0.24650653 -3.581177 0.62522185 2.143427
-5.064852 -7.9472733 -5.595335 1.3304319 1.2975847 2.0361261 2.0671935 0.7346064
2.3147283 2.2791228 -4.0154686 -5.6174974 3.9683416 2.938809 -4.9195266 1.0374064
2.150584 0.91249716 -1.4855132 -5.039225 -0.94415903 2.099669 -0.57395566 0.8435215
-3.28165 -7.8812494 2.7241075 -2.5372045 -5.302655 -3.071729 -3.4316072 -2.4323044
1.3223574 -4.4371963 -0.46829244 -1.4932468 -2.478653 0.09975128 -7.7212477 -2.1238763
-2.8113012 -2.6860619 -7.074566 -1.8226314 -3.3861032 -0.84817755 -1.4446493 0.19043916
-2.5524802 -0.5987365 -2.7364826 -4.0898204 0.94723547 -2.6489654 -1.3982152 -0.3254698
-2.5593796 -0.5924356 -0.8959146 -7.86531 -4.3061104 -1.2683697 2.8784754 -0.1896453
-4.104118 -3.7349617 -5.772749 -3.0034516 -0.54090184 2.9299176 0.3747166 -4.81304
0.48024294 -1.899203 -3.5134816 -6.1909122 -1.4969294 -1.5418804 2.1038406 0.52069306
1.1593693 -1.179371 -2.0172057 -5.59328 -4.1000586 3.5449214 -0.16091205 -3.16259
2.5338776 -4.957656 1.9541953 1.1562982 -8.930455 -3.025005 -5.556356 1.2580497
0.5423095 -1.4993435 1.1970975 2.2123377 -5.6890388 -0.0920631 -9.026568 -2.2957015
-4.208558 -2.2920802 -0.7328714 -2.1711192 0.21667491 4.264732 0.60372776 -0.89542353
-0.22077367 -3.5231872 2.3429954 -4.3171496 0.877575 -1.4641324 -0.69416726 1.800645
-2.7606983 -2.8876574 -2.154998 -5.511258 -3.208079 2.8786895 7.7567477 0.34027705
-0.15875426 -2.263481 -2.8988552 -3.5479393 -2.5417387 2.4675417 -0.46817315 -5.367156
4.331194 0.69513667 -4.0246105 -3.8570206 -0.61819696 0.6165762 3.2641673 -0.7971785
2.6384506 1.8924426 1.2347302 -1.2691319 0.016769327 5.44766 -1.745963 -4.159406

conv1.mlp.8.bias f4 [64]
00000000: 7722 a640 dd18 5c3f 248b 79be 4bd8 70c0
00000010: 0ea2 863f b8c3 95c0 2f27 96be 422e 4c40
00000020: f0d2 ed3f ecc8 5bc0 63af 3940 f983 f43c
00000030: 1eb9 b73f 0857 5240 1729 0441 d4ad 8840
00000040: 6b63 86bf 51a0 35c0 9323 1641 ee62 01c0
00000050: 149c 0841 d7b6 6ebf d895 b3c0 63a4 aa3e
00000060: 944d 1241 2bf5 45c0 d679 a5c0 e45f 10c0
00000070: f291 de3e c75d c340 2ee3 c43f 8e53 9dc0
00000080: 9a9e dbc0 ae97 1841 8690 54c0 d8e9 2040
00000090: add8 01bf 8112 66c0 ebad 3fbf f482 7640
000000a0: 78e1 b340 2c04 d340 e1ed 18c0 4faa c73f
000000b0: b6a4 3abf 493f 423f 56ec 1ac0 7ad6 0440
000000c0: 602f b1bf 2719 123f 4c95 f4c0 0e6c c0bf
000000d0: 5ba5 593f 0b47 adbf 0504 d83f f8da 1140
000000e0: 163a 93bf a003 a9c0 8b1b 82be a1e9 25bd
000000f0: c862 86bf a292 b5c0 04ae 27c0 86a6 a740
5.191707 0.8597544 -0.24369484 -3.7632015 1.0518205 -4.6801414 -0.2932677 3.1903234
1.8579998 -3.4341383 2.9013298 0.029848086 1.4353368 3.286562 8.260032 4.2712193
-1.049909 -2.83791 9.383685 -2.0216632 8.538105 -0.9324774 -5.6120415 0.33328542
9.14394 -3.0930889 -5.1711226 -2.2558527 0.43470722 6.1051974 1.538183 -4.9164495
-6.8631105 9.537031 -3.321321 2.5142727 -0.50721246 -3.5948794 -0.7487475 3.8517427
5.621273 6.5942593 -2.389519 1.5598849 -0.7290758 0.75877815 -2.4206748 2.0755906
-1.3842583 0.5706963 -7.6432247 -1.5032976 0.8501794 -1.3537306 1.6876227 2.2789898
-1.1502101 -5.2816925 -0.2541164 -0.04050601 -1.0498896 -5.6741495 -2.619996 5.2390776

conv1.mlp.10.weight f4 [64]
00000000: 3354 0d41 97c7 5a40 2fc1 d240 8363 de40
00000010: 2298 2741 3a09 c440 a20a d240 5e35 e340
00000020: b9bd 2641 1f44 a8c0 20d8 0641 8f08 d140
00000030: 3959 c440 053b a840 19ca 0a41 37cf 1641
00000040: 0278 e640 3c62 0041 585a 3041 7d25 cb40
00000050: f89a d040 cc56 a440 a94e e340 47ec ba40
00000060: 9d60 2841 a04b 6340 7237 1841 2761 f940
00000070: 0d65 e840 93bd 0b41 c53d 94c0 cd04 1d41
00000080: cef2 0941 8b78 f240 1080 e840 d631 1641
00000090: 8d33 fc40 01a7 1841 e9b5 2341 e865 0641
000000a0: 5ef9 0441 f5fe 1341 9e5f e140 915c bd40
000000b0: 6a81 e6c0 518b 1741 7032 b73f c34d 7440
000000c0: 246f 0741 43dd 9540 5fba 0b41 b7bc 0c41
000000d0: 1446 c340 cdf6 f440 15fd fb40 d737 c640
000000e0: 949e 2941 d92b 9d40 e13b cc40 4d2c 0641
000000f0: b807 a340 3987 0941 abb9 f540 4033 0141
8.833056 3.418432 6.586082 6.9496474 10.474642 6.1261263 6.563798 7.1002645
10.421319 -5.2583156 8.427765 6.5322948 6.1358914 5.2572045 8.67434 9.42559
7.2021494 8.023983 11.022057 6.348326 6.518917 5.1355953 7.103352 5.8413424
10.523587 3.5514908 9.513536 7.7931094 7.2623353 8.733783 -4.63254 9.813672
8.6217785 7.5772147 7.2656326 9.387167 7.881293 9.540772 10.231912 8.399879
8.310881 9.249745 7.042922 5.9175496 -7.2032976 9.471513 1.4312267 3.8172462
8.464634 4.6832595 8.733001 8.796073 6.1023045 7.655127 7.874644 6.1943164
10.601215 4.9116025 6.3823094 8.385816 5.094692 8.595513 7.6789145 8.075012

conv1.mlp.10.bias f4 [64]
00000000: 30ae 0db6 5043 fbbf 6eef 64c0 26ea b0be
00000010: 9d8a 0bbe bc87 b8be 8bcc 2f40 ae42 0540
00000020: 969c 5e3f 639e a640 92c6 733f 4c27 52c0
00000030: f01b 503f 04cd 8fbf 2198 853f 05d4 7640
00000040: 7edb 20bf 3853 0abd 4762 b23c 5a0b 903d
00000050: 6946 bcbe 8ebd 18c0 df20 7ec0 97b9 c6bf
00000060: debe aa3f 177d dfbf 47b2 03bf e070 df3f
00000070: 74d2 553d 9559 06c0 088d 0a40 afbc 08bd
00000080: 92b4 37bf 7787 3e3f ffb5 63bf 9e7e af3f
00000090: 4e78 20c0 29c7 b33e cab0 953f 2af4 febf
000000a0: 2ee2 e33f 7970 a2bf f49e 113f 2d55 403f
000000b0: 6a75 2140 d3c1 d3bd d2b8 3cbf d159 763f
000000c0: 779c ec3f 4c3a 9abf 50ed 473f b0e8 ee3c
000000d0: ccee 16c0 b750 c1bf 56d7 05bf 1a9a 44bf
000000e0: e17c e03e a5cf eabf 4c8a bd3f f16c 6fbf
000000f0: bbe2 5d3f 5995 483e a600 2440 27ea 933f
-2.1112028e-06 -1.9629917 -3.5771136 -0.3455364 -0.13627096 -0.36041057 2.7468593 2.0821948
0.8695768 5.2068343 0.9522487 -3.2836485 0.8129263 -1.1234441 1.0437051 3.8566906
-0.6283492 -0.03377077 0.021775378 0.07033415 -0.3677247 -2.3865695 -3.9707563 -1.5525388
1.3339498 -1.7460049 -0.51443905 1.7456322 0.052202657 -2.0992177 2.1648579 -0.033383068
-0.71759903 0.7442545 -0.8894958 1.3710515 -2.5073428 0.35112885 1.1694577 -1.9918263
1.78034 -1.2690574 0.5688317 0.7512997 2.5227914 -0.103397034 -0.73719513 0.962308
1.8485249 -1.2049041 0.78096485 0.029163688 -2.358325 -1.5102757 -0.522817 -0.7679764
0.43845275 -1.8344618 1.480783 -0.93525606 0.8667409 0.19588222 2.5625396 1.1555833

conv1.mlp.10.running_mean f4 [64]
00000000: 7488 bf42 ecca 1343 817a 8442 b595 0342
00000010: bd72 8e42 aff9 4942 dd76 ca42 4309 d742
00000020: e29a 2042 9ad9 6442 d390 b142 0ed7 0043
00000030: 8dea 9f42 9c81 c242 35ba dd42 be56 fe42
00000040: 00bc b942 e603 e042 bdf4 e842 9d2e 9542
00000050: 9047 1243 2fc2 be42 142d 8142 f6ce a842
00000060: 9899 3243 a1da 5542 c2fe ea42 dcc2 e542
00000070: fb3e a442 0313 0043 a1e0 8842 1131 2642
00000080: 5f4f 8d41 5a27 1f43 b37b 9642 559a b342
00000090: e568 b342 642d 8542 7059 b242 69d3 c742
000000a0: 55b0 e142 c0a1 a342 9263 9542 23a5 ef42
000000b0: c112 1342 4a01 7c42 68ce 6c42 1cd5 9442
000000c0: 43d1 ad42 3beb bb42 30bc 3842 c3d6 8242
000000d0: dd58 c842 6bad c442 bef1 ad42 63c5 c142
000000e0: 5486 ed42 caa3 8d41 5b87 ef42 d931 cc42
000000f0: 292d 1b42 0624 4342 06ae ee42 8749 e142
95.76651 147.79266 66.239265 32.8962 71.2241 50.49383 101.232155 107.51809
40.151253 57.2125 88.78286 128.84006 79.95811 97.25314 110.863686 127.16942
92.86719 112.007614 116.478004 74.59104 146.27954 95.379265 64.58804 84.40422
178.59998 53.463505 117.497574 114.880585 82.12301 128.07426 68.43873 41.547916
17.663755 159.15372 75.2416 89.80143 89.70487 66.58865 89.17468 99.91291
112.8444 81.81592 74.69447 119.82253 36.768314 63.00126 59.20157 74.41623
86.908714 93.959435 46.183777 65.41946 100.17356 98.33871 86.97215 96.88552
118.76236 17.704975 119.764366 102.09736 38.7941 48.78518 119.33989 112.64361

conv1.mlp.10.running_var f4 [64]
00000000: 7f87 2347 e501 2047 bcd7 5946 9a7a 0c46
00000010: 0acc 8e46 51dc 8746 f0e5 3a47 ba47 c746
00000020: 8e36 ec46 5247 9e46 bf72 1347 65ac 2747
00000030: be20 6846 9833 7547 a3f8 9446 c656 d746
00000040: d545 1547 7cb2 9047 ed06 8f46 9891 fd46
00000050: f0cf 1847 100d 0847 93a3 b846 f628 1847
00000060: 5294 1a47 d76b 8c46 7d84 7c47 153b 8a47
00000070: cb3f 5e47 06ba b546 f1b3 0f46 412f 2a46
00000080: 6934 8d45 4226 2547 665b c246 6917 0447
00000090: 8b07 5247 2f02 cb46 058f 4347 0fd6 8546
000000a0: 461c 7247 3ce3 9446 af1a f446 9e66 e946
000000b0: a038 bb46 485e ce46 abd8 8f46 20ac 5547
000000c0: 3672 4a47 6735 fc46 a47f 6846 9b20 8846
000000d0: 9229 0847 6683 4447 44f5 b646 3531 0947
000000e0: 83a0 4e47 7dbe 6345 0944 1547 8ce2 3a47
000000f0: 383d 2e46 baef 1c46 8a6a 0547 2fd5 9946
41863.496 40961.895 13941.934 8990.65 18278.02 17390.158 47845.938 25507.863
30235.277 20259.66 37746.746 42924.395 14856.186 62771.594 19068.318 27563.387
38213.832 74084.97 18307.463 32456.797 39119.938 34829.062 23633.787 38952.96
39572.32 17973.92 64644.49 70774.164 56895.793 23261.012 9196.985 10891.813
4518.5513 42278.258 24877.7 33815.41 53767.543 25985.092 50063.02 17131.03
61980.273 19057.617 31245.342 29875.309 23964.312 26415.14 18412.334 54700.125
51826.21 32282.701 14879.91 17424.303 34857.57 50307.4 23418.633 35121.207
52896.51 3643.9055 38212.035 47842.547 11151.305 10043.932 34154.54 19690.592

conv1.shortcut.0.weight f4 [64, 9]
00000000: e5f2 06bf eb0f 883f 385d b9bf 54d6 6a3e
00000010: 7219 403f cad7 ae40 055c 683c e8ae 1740
00000020: 3bfe af40 4fe0 da3f 5e29 e93f 99e2 c43f
00000030: 12de 35be 72ea 833f 94d5 4e40 7208 19c0
00000040: 4a87 5fbf 9e25 4340 4b31 4abe bb05 37c0
00000050: 8b44 1fc0 2add f4be 2183 87bf ca83 5640
00000060: 2175 1740 b00a a140 f3a2 8fc0 da3e 58bf
00000070: 38d1 af3f 55d9 5fbf cd03 aebf e71e d8bf
00000080: 7458 da40 08c4 de3f f919 bd3f b24c 51c0
00000090: b20d 3d3f cbb3 7a3f 181b b4bf 23a3 203f
000000a0: 6a29 a0be 2057 80c0 7dbc 93c0 9eb4 1540
000000b0: 39d9 bc3f b139 8fbf 97f0 2940 7622 83c0
000000c0: 2dc1 0cbf 2e7a 2940 031b 33c0 cfec 0ec0
000000d0: ec24 7f40 be8b 80c0 171c 9fbf f997 bd40
000000e0: 2791 6240 0003 a840 9872 16bf 7fcd 8a40
000000f0: 8fce 29ba f99d 8b40 ddd5 86c0 8d95 1d40
00000100: 5da0 ba3f 2604 c6bf 21a1 9ebf aff7 f1bf
00000110: 03df 19c0 ad9b 78c0 40da 8bbf f298 e4bf
00000120: d4e1 1bc0 39c0 40c0 09f5 7dbf 6404 1540
00000130: 333d 4c40 0499 893e 18bc 6740 e3de 13c0
00000140: fce8 bc40 a31e a340 b93b 4fc0 02e7 45c0
00000150: 5a11 1640 ba25 6fbd dd08 63bf d806 cc3f
00000160: 8590 a73e ac00 3640 fb33 953c 7502 123f
00000170: 2470 03c0 c896 b03f ceac 4540 de17 bf40
00000180: 2bb5 ce3f 6734 aabf 2d77 de40 6a63 a040
00000190: 3179 c140 80f5 0c3e 637a 0140 deab 853e
000001a0: bc99 11c0 7e34 91bf 1210 4fbf 760e 2a40
000001b0: 5b3f 1f3f 62f9 c83f d009 edbd 17d3 5a3f
000001c0: 685b 17bf 84f3 49bf 3b4e debe c929 163e
000001d0: b8d9 2341 1e23 543f 3eef 1d3f 2579 0c40
000001e0: 6d05 a33f dc9f 8bc0 3b2a dd40 bdcf c23e
000001f0: dfe3 8540 3385 0e40 461b ecbf 4f7d c0be
00000200: a588 64c0 f10a 7ebe 56f9 843f e85a 45c0
00000210: 67c7 6140 d8f0 a73d d45d 28c0 0345 65c0
00000220: 3130 28c0 43f8 a9be 3efc 953f 63ab 8b40
00000230: 7e54 2240 46f2 b93f 58db 3340 dfca 3c40
00000240: 4d87 273f 1baa 32c0 1e20 d43f b8e4 4dc0
00000250: 8f5c 03c0 7f16 3a40 bcd9 3b40 c959 8c3e
00000260: e07d ffbf abca dfbf 9d41 85be 5cff 2dc0
00000270: 1897 babd 0367 15bf 4702 23c0 8433 89c0
00000280: d0d0 61bf 27be d13f 197f 91c0 8056 48bd
00000290: 60e3 87c0 3060 753f 9d6b 03c0 6353 34bf
000002a0: 1c75 83bf c844 a7bf 4018 4e40 a910 6f3e
000002b0: 1429 10bf 57e6 1f3f 89bc 93be 010d cabf
000002c0: 25bc d9c0 89ab a5be 296d 093e 50d4 1140
000002d0: 8219 b0c0 29f5 98be a487 6bbf e9dc 943f
000002e0: 398a 9740 3cc5 f03c d4d2 993e d1cb 08c0
000002f0: 96d1 b440 5bfa 2f3f 4ca5 863f 6f74 39c0
00000300: dde5 1d40 f680 c63e 3f4c be40 b6e2 043f
00000310: 868b 9940 5213 bfbe ccbc cebe c60e bfbf
00000320: 4a2f 39c0 0850 2740 ae97 ab40 99ff 523f
00000330: e41a a8bf 4b9a 4740 723a 2741 4fda b0bf
00000340: 9474 3540 b78c 9c40 3953 11c0 622a cb3b
00000350: acea bec0 f869 5abf 3a68 543f 2a41 833f
00000360: 554b afbe 0cc8 9b3f 5045 0a40 aff4 1b40
00000370: 06d0 923f 9497 2640 a73e 98bf 3319 8c40
00000380: 8458 0ec1 c424 f13f b16e 2940 4b81 6b40
00000390: 9f9c d0bf b9a8 9abe 96d1 84c0 5a3c 42c0
000003a0: e4e9 a0bf 2d7e 383f d4a7 4d40 6021 523f
000003b0: 4350 99bf f334 7bc0 a074 a3bd 6c7e d4bf
000003c0: 8eda 1d3f 856c 593e 738e 84c0 045f 7e40
000003d0: e3f5 9d40 2f1c 88bf 23e6 f33f d370 4f3f
000003e0: eafb 3240 64e3 a23f 2cea 9e40 8b01 70c0
000003f0: 988e 453f e3ef 923f 84e5 7d40 d733 0740
-0.5271438 1.0629858 -1.4481573 0.22933322 0.75038826 5.4638414 0.014182095 2.3700504
5.499784 1.7099704 1.8215749 1.5381652 -0.17760494 1.0305922 3.2317858 -2.3911405
-0.8731581 3.049171 -0.19745366 -2.8597248 -2.4885585 -0.47824985 -1.0586892 3.3517938
2.366524 5.0325546 -4.4886413 -0.84470904 1.3735723 -0.87441 -1.359491 -1.6884431
6.8232975 1.7403574 1.4773551 -3.270306 0.7384902 0.9793059 -1.4070768 0.62748927
-0.31281596 -4.0106354 -4.616759 2.339149 1.4753791 -1.1189481 2.6553094 -4.0979567
-0.5498226 2.6480823 -2.7985237 -2.2332036 3.9866285 -4.0170584 -1.2430447 5.9248013
3.5401094 5.250366 -0.58768606 4.337585 -0.0006477618 4.363034 -4.2136064 2.4622529
1.4580189 -1.5470016 -1.2392923 -1.8903712 -2.4042366 -3.8845017 -1.092598 -1.7859175
-2.4356585 -3.0117323 -0.9920202 2.328393 3.1912353 0.26874554 3.6208553 -2.310479
5.9034405 5.09749 -3.2380202 -3.0922246 2.344809 -0.05838559 -0.886854 1.5939589
0.32727447 2.843791 0.018213263 0.57035 -2.0537195 1.3796015 3.0886722 5.9716635
1.6149038 -1.3297242 6.952048 5.0121355 6.046044 0.13765526 2.023095 0.26107687
-2.2750082 -1.1344144 -0.80883896 2.6571326 0.6220605 1.5701106 -0.11574137 0.8547835
-0.5912385 -0.788872 -0.4341906 0.14664377 10.240654 0.82866085 0.6169318 2.194894
1.2736031 -4.363264 6.911405 0.38049117 4.1840663 2.2268798 -1.8445823 -0.37595603
-3.5708401 -0.24808861 1.0388591 -3.0836735 3.5277956 0.08200234 -2.6307268 -3.5823371
-2.6279414 -0.3319722 1.1717603 4.364671 2.536407 1.4527061 2.8102627 2.9498823
0.6544083 -2.7916324 1.6572301 -3.217085 -2.0525243 2.907623 2.9351645 0.2741225
-1.9960289 -1.7483724 -0.2602662 -2.718711 -0.0911085 -0.5836031 -2.547014 -4.2875385
-0.8820925 1.6386155 -4.546765 -0.048910618 -4.2465057 0.95849895 -2.0534432 -0.7043974
-1.0270114 -1.3067865 3.22023 0.23346199 -0.5631268 0.62460846 -0.28854778 -1.5785218
-6.804217 -0.32357433 0.13420548 2.2785835 -5.5031137 -0.29874542 -0.92003846 1.1629916
4.735623 0.029390924 0.30043662 -2.13744 5.650584 0.6874139 1.0519195 -2.8977315
2.4671547 0.38770264 5.9468074 0.51908433 4.7982817 -0.37319428 -0.40378416 -1.4926383
-2.8935113 2.6142597 5.3622656 0.8242126 -1.3133206 3.1187923 10.451769 -1.3816622
2.8352404 4.892177 -2.2707045 0.006200121 -5.9661465 -0.85317945 0.8297154 1.0254261
-0.3423716 1.2170424 2.1604805 2.4368093 1.1469734 2.6030016 -1.189412 4.378076
-8.89661 1.8839345 2.647381 3.6797664 -1.6297797 -0.3020685 -4.150584 -3.0349336
-1.2571378 0.7206753 3.2133684 0.82082176 -1.1977619 -3.9251068 -0.07981229 -1.6601081
0.61661613 0.21232803 -4.142389 3.9745493 4.9362655 -1.0633601 1.9054607 0.8103153
2.7966256 1.2725644 4.9660854 -3.7500942 0.77170706 1.1479458 3.9671335 2.112539

conv1.shortcut.0.bias f4 [64]
00000000: 95a5 81be 5393 913e ef94 81be b994 9bbe
00000010: 5d76 01be 0e8b 4b3d 3190 91be bbd2 ca3d
00000020: f41f 29be 8ce8 a93e 9cfb 8d3e 1e7b e43d
00000030: 0600 053e 77e9 fd3c 45ca 54be 4f64 783e
00000040: 0141 e93d 667d 953e 9cc4 9a3e 4603 94be
00000050: c370 043e 6578 a2be 7af5 3dbe daf5 de3d
00000060: 41a5 28be a5fb 2d3b 9204 a23e c253 023e
00000070: cf8a 95bd e191 8b3d 255d 373e cb66 03bc
00000080: 73ae ab3e 33b8 673d 990c 853e 400a 4cbd
00000090: 73af fa3a 9133 04be 38e8 53be d541 33be
000000a0: 6c06 463e d487 5dbe 8f27 bf3d 276c 3b3e
000000b0: 58d0 0bbe 2139 6cbe adf1 a03e 39b0 9abe
000000c0: 766b 64bc bfe3 97bc 3ca1 243e 96bf 17bd
000000d0: 02e6 803e ecad 28be c821 8f3d 0350 5cbe
000000e0: 0d2e a63d 4f2f 8f3e 56e0 293e 78ba 01be
000000f0: 0576 55be fe6c 92be 9a7b 1ebe 78a0 73be
-0.25321642 0.28432712 -0.2530894 -0.30386904 -0.12642808 0.04969316 -0.28430322 0.09903475
-0.16516095 0.33185232 0.27731025 0.11156295 0.1298829 0.030995114 -0.20780285 0.24257015
0.11389352 0.29197234 0.30228126 -0.28908747 0.1293364 -0.3173248 -0.18550673 0.10886736
-0.1646929 0.0026547697 0.31644112 0.12727264 -0.07301866 0.068149336 0.17906626 -0.008020113
0.33531532 0.05657215 0.25986174 -0.049814463 0.0019125774 -0.12910296 -0.20694053 -0.17505582
0.19338387 -0.21633846 0.09333717 0.18302976 -0.13653696 -0.23068668 0.31434384 -0.30212572
-0.013941636 -0.018541215 0.16077131 -0.037047945 0.25175482 -0.16472596 0.06988865 -0.21514897
0.08114252 0.2796578 0.16589484 -0.12668788 -0.20845802 -0.2859878 -0.15476838 -0.23791683

conv1.shortcut.1.weight f4 [64]
00000000: e5cb 0940 a4ec 5a3e a5d5 3cc0 6f14 23c0
00000010: da8d d3bd 68b1 773f 13dd 8940 0af4 473f
00000020: 78d8 2340 3317 3340 75a9 1940 2f0a da3f
00000030: e7fb 2740 6960 3e40 e61b 7a3e dd38 933f
00000040: ccec e5be 3bec abbf acb0 023f 3307 c43f
00000050: 99e3 2240 c952 4cbf 1584 10c0 3bab 97bf
00000060: 2057 bb3f 31cc f23f 5cd9 6f3f e377 0140
00000070: cd25 2440 cd00 a43e 2c4d 2e40 f817 a3be
00000080: 728a b3be 3d30 1ebd 8b01 32be c35a 8dbe
00000090: bfd9 0940 9084 1b40 5af3 723c e71c 3240
000000a0: 4b2a 813f e446 8440 a7d6 993f e3c1 bfbf
000000b0: 02c9 ee3f 0c48 b43f 903f 89bf 65f0 0f40
000000c0: 88a6 643e 4d02 483f 1960 553f b30d 0f40
000000d0: 096d 94bf 9ea5 6540 34bb 80bd aa74 9740
000000e0: c9e5 1440 a71a 843f 6cd3 23bf f598 763f
000000f0: 74fe 73be 4877 10c0 0097 3340 efa2 13c0
2.1530697 0.21379334 -2.9505398 -2.5481222 -0.103297904 0.96755075 4.3082366 0.7810675
2.5600872 2.798291 2.4009678 1.7034358 2.62475 2.9746344 0.24424705 1.1501728
-0.44907224 -1.3431467 0.5105083 1.5314697 2.5451415 -0.7981382 -2.2580616 -1.184913
1.4635963 1.8968564 0.9369104 2.0229423 2.5648072 0.3203186 2.7234602 -0.31854224
-0.35066563 -0.038620222 -0.17383401 -0.27608308 2.1539152 2.429966 0.014828527 2.783014
1.0091032 4.1336536 1.2018632 -1.4981045 1.8655093 1.4084487 -1.0722523 2.2490475
0.22329152 0.7812851 0.8334976 2.2352111 -1.1595775 3.5882335 -0.06285706 4.732991
2.326525 1.0320634 -0.6399448 0.96327144 -0.23827535 -2.2572803 2.8060913 -2.3068197
