GraphNeuralNet/Skim1E2Mu/MHc-160_MA-85_vs_ttZ/models/ParticleNet-nNodes32_Adadelta_initLR-0p0001_StepLR.pt (torch, 115156 bytes, 102 tensors)

gn0.weight f4 [9]
000000 0a 00 80 3f 02 00 80 3f ee ff 7f 3f cc ff 7f 3f
       1.0000012 1.0000002 0.9999989 0.9999969
000010 00 00 80 3f ce ff 7f 3f f8 ff 7f 3f 01 00 80 3f
       1.0 0.999997 0.9999995 1.0000001
000020 ff ff 7f 3f
       0.99999994

gn0.bias f4 [9]
000000 17 96 b7 35 51 74 8b b5 59 0f bf b5 db df 85 b5
       1.3678244e-06 -1.039016e-06 -1.4235076e-06 -9.974423e-07
000010 63 08 09 33 a1 d9 7b b5 c6 3b 56 b4 4a 8d ac b5
       3.1905426e-08 -9.382148e-07 -1.9952049e-07 -1.2856119e-06
000020 78 c7 87 35
       1.0116337e-06

gn0.mean_scale f4 [9]
000000 f1 ff 7f 3f 00 00 80 3f 00 00 80 3f 01 00 80 3f
       0.9999991 1.0 1.0 1.0000001
000010 ff ff 7f 3f 01 00 80 3f 00 00 80 3f 00 00 80 3f
       0.99999994 1.0000001 1.0 1.0
000020 fa ff 7f 3f
       0.99999964

gn1.weight f4 [32]
000000 01 00 80 3f f9 ff 7f 3f fe ff 7f 3f fc ff 7f 3f
       1.0000001 0.9999996 0.9999999 0.99999976
000010 fc ff 7f 3f f9 ff 7f 3f 01 00 80 3f f6 ff 7f 3f
       0.99999976 0.9999996 1.0000001 0.9999994
000020 fe ff 7f 3f ff ff 7f 3f fd ff 7f 3f fa ff 7f 3f
       0.9999999 0.99999994 0.9999998 0.99999964
000030 02 00 80 3f f9 ff 7f 3f f9 ff 7f 3f ff ff 7f 3f
       1.0000002 0.9999996 0.9999996 0.99999994
000040 04 00 80 3f f9 ff 7f 3f fe ff 7f 3f 01 00 80 3f
       1.0000005 0.9999996 0.9999999 1.0000001
000050 01 00 80 3f f2 ff 7f 3f fa ff 7f 3f ff ff 7f 3f
       1.0000001 0.99999917 0.99999964 0.99999994
000060 fd ff 7f 3f ff ff 7f 3f f6 ff 7f 3f fc ff 7f 3f
       0.9999998 0.99999994 0.9999994 0.99999976
000070 01 00 80 3f e9 ff 7f 3f 02 00 80 3f f5 ff 7f 3f
       1.0000001 0.9999986 1.0000002 0.99999934

gn1.bias f4 [32]
000000 85 68 08 34 65 02 da 33 f8 52 76 b5 11 ad b0 34
       1.2704011e-07 1.01518516e-07 -9.1762877e-07 3.2908477e-07
000010 24 fa cf 35 5b 97 a0 b5 18 c8 59 35 2d 2d 08 b5
       1.5495502e-06 -1.1964979e-06 8.1129974e-07 -5.072969e-07
000020 49 b2 e0 32 7a 93 70 b5 f0 7a 2e b4 9c 1d d7 b4
       2.6158107e-08 -8.9621574e-07 -1.6249737e-07 -4.0068414e-07
000030 65 dd bb b5 cc a4 16 35 f3 dd 96 b4 33 22 9d 35
       -1.399702e-06 5.6119165e-07 -2.8101167e-07 1.1707365e-06
000040 72 4e 44 b5 12 63 0d b5 72 da 2e 35 78 b3 84 b4
       -7.312984e-07 -5.267076e-07 6.513793e-07 -2.4717497e-07
000050 db 03 27 b5 d8 25 3b b5 ed 79 40 b5 c4 02 e3 b4
       -6.221796e-07 -6.9718e-07 -7.1703e-07 -4.2284057e-07
000060 c6 9d e8 32 a9 20 9e b5 b5 31 72 b5 bf e7 9e b5
       2.7080102e-08 -1.1781423e-06 -9.022436e-07 -1.1839364e-06
000070 f7 d6 10 35 54 33 51 35 75 d0 f0 b4 0d 0a 70 35
       5.3956995e-07 7.793326e-07 -4.4855156e-07 8.9421593e-07

gn1.mean_scale f4 [32]
000000 31 ff 7f 3f 29 02 80 3f 6d fd 7f 3f 16 f9 7f 3f
       0.99998766 1.0000659 0.9999607 0.9998945
000010 b3 fb 7f 3f 3d 00 80 3f 24 fc 7f 3f 70 fb 7f 3f
       0.9999344 1.0000073 0.9999411 0.9999304
000020 8d 02 80 3f 09 02 80 3f 21 01 80 3f b0 fd 7f 3f
       1.0000778 1.0000621 1.0000345 0.9999647
000030 98 fd 7f 3f 77 02 80 3f d1 04 80 3f 9e fa 7f 3f
       0.9999633 1.0000752 1.000147 0.99991786
000040 b4 03 80 3f 56 02 80 3f be 00 80 3f 0a 02 80 3f
       1.000113 1.0000713 1.0000226 1.0000622
000050 49 01 80 3f 67 fd 7f 3f 14 f5 7f 3f 74 01 80 3f
       1.0000392 0.99996036 0.99983335 1.0000443
000060 e9 fc 7f 3f 8f 02 80 3f 1f 02 80 3f 01 fb 7f 3f
       0.99995285 1.0000781 1.0000647 0.99992377
000070 9a fd 7f 3f 80 ff 7f 3f 56 fd 7f 3f b5 01 80 3f
       0.9999634 0.9999924 0.99995935 1.0000521

gn2.weight f4 [32]
000000 00 00 80 3f fe ff 7f 3f ff ff 7f 3f ff ff 7f 3f
       1.0 0.9999999 0.99999994 0.99999994
000010 ff ff 7f 3f ff ff 7f 3f ff ff 7f 3f 00 00 80 3f
       0.99999994 0.99999994 0.99999994 1.0
000020 ff ff 7f 3f fc ff 7f 3f fb ff 7f 3f ff ff 7f 3f
       0.99999994 0.99999976 0.9999997 0.99999994
000030 ff ff 7f 3f ff ff 7f 3f fa ff 7f 3f fb ff 7f 3f
       0.99999994 0.99999994 0.99999964 0.9999997
000040 ff ff 7f 3f fb ff 7f 3f ff ff 7f 3f f8 ff 7f 3f
       0.99999994 0.9999997 0.99999994 0.9999995
000050 ff ff 7f 3f fe ff 7f 3f fd ff 7f 3f fc ff 7f 3f
       0.99999994 0.9999999 0.9999998 0.99999976
000060 00 00 80 3f 01 00 80 3f 00 00 80 3f fb ff 7f 3f
       1.0 1.0000001 1.0 0.9999997
000070 00 00 80 3f ff ff 7f 3f ff ff 7f 3f ff ff 7f 3f
       1.0 0.99999994 0.99999994 0.99999994

gn2.bias f4 [32]
000000 73 d5 93 b4 cc cf 09 33 0f ae 1b b4 e9 f0 7c 35
       -2.7536188e-07 3.208679e-08 -1.4498822e-07 9.4227886e-07
000010 cb 95 32 35 1f e6 0c 35 6a 8f c3 34 8f ec db b4
       6.6528145e-07 5.2488934e-07 3.6425928e-07 -4.0964048e-07
000020 a2 69 88 b4 95 b8 0f b5 0c 79 55 b4 b3 e7 9e b4
       -2.5408832e-07 -5.3540253e-07 -1.9881207e-07 -2.9598377e-07
000030 f9 53 ad b3 84 32 b9 34 fe cb ec 34 bc 2f c1 b4
       -8.071215e-08 3.449569e-07 4.410685e-07 -3.5983783e-07
000040 07 c1 a1 b4 54 7f 4a b4 c4 09 22 35 8b d6 08 b5
       -3.0129033e-07 -1.8859038e-07 6.0363914e-07 -5.097615e-07
000050 b2 cb 62 34 5e d0 1b b2 ce 25 a3 b4 51 6c 1f b4
       2.1121994e-07 -9.069565e-09 -3.0388622e-07 -1.4847434e-07
000060 e0 48 8f 33 fc c2 d1 33 a4 11 17 35 70 ae a7 b4
       6.672212e-08 9.7677884e-08 5.6277554e-07 -3.1233094e-07
000070 0e de 59 b3 d8 21 bd b4 76 f8 e7 b4 ce e2 95 34
       -5.0726207e-08 -3.5228618e-07 -4.3207882e-07 2.7918435e-07

gn2.mean_scale f4 [32]
000000 6b 00 80 3f 9a fb 7f 3f 24 06 80 3f 96 02 80 3f
       1.0000128 0.9999329 1.0001874 1.0000789
000010 3f 01 80 3f db ee 7f 3f 44 01 80 3f e3 fe 7f 3f
       1.000038 0.9997384 1.0000386 0.999983
000020 48 01 80 3f cb f4 7f 3f c9 fd 7f 3f 4d fc 7f 3f
       1.0000391 0.999829 0.9999662 0.99994355
000030 28 00 80 3f 15 01 80 3f 4c e5 7f 3f 85 04 80 3f
       1.0000048 1.000033 0.99959254 1.0001379
000040 c4 03 80 3f f5 f9 7f 3f d2 f2 7f 3f 90 f7 7f 3f
       1.0001149 0.9999078 0.9997989 0.99987125
000050 92 fe 7f 3f e3 00 80 3f 66 f3 7f 3f eb 01 80 3f
       0.9999782 1.0000271 0.9998077 1.0000585
000060 66 00 80 3f e7 fd 7f 3f 67 02 80 3f eb 04 80 3f
       1.0000122 0.999968 1.0000733 1.0001501
000070 0d fa 7f 3f f1 fc 7f 3f 98 01 80 3f 4f 00 80 3f
       0.9999092 0.9999533 1.0000486 1.0000094

gn3.weight f4 [32]
000000 00 00 80 3f 00 00 80 3f fc ff 7f 3f 00 00 80 3f
       1.0 1.0 0.99999976 1.0
000010 00 00 80 3f 00 00 80 3f 00 00 80 3f 00 00 80 3f
       1.0 1.0 1.0 1.0
000020 00 00 80 3f 00 00 80 3f 00 00 80 3f 00 00 80 3f
       1.0 1.0 1.0 1.0
000030 00 00 80 3f 00 00 80 3f fe ff 7f 3f 00 00 80 3f
       1.0 1.0 0.9999999 1.0
000040 ff ff 7f 3f 00 00 80 3f 00 00 80 3f 00 00 80 3f
       0.99999994 1.0 1.0 1.0
000050 00 00 80 3f 00 00 80 3f ff ff 7f 3f 00 00 80 3f
       1.0 1.0 0.99999994 1.0
000060 00 00 80 3f fe ff 7f 3f 00 00 80 3f 00 00 80 3f
       1.0 0.9999999 1.0 1.0
000070 00 00 80 3f 00 00 80 3f 00 00 80 3f 00 00 80 3f
       1.0 1.0 1.0 1.0

gn3.bias f4 [32]
000000 57 c8 83 30 01 a5 c7 30 ac 99 95 b0 bc 32 81 b0
       9.588444e-10 1.4526053e-09 -1.0884853e-09 -9.400405e-10
000010 35 e2 e8 b0 7c 42 0e b0 dd 54 fc 30 49 22 bb 2d
       -1.6944514e-09 -5.175378e-10 1.8359533e-09 2.1274664e-11
000020 9d 21 4a 31 a5 b1 9c 2f 8c de 8c 30 24 e6 94 b0
       2.9413976e-09 2.850246e-10 1.0249592e-09 -1.0833827e-09
000030 5c 9a 31 af eb e6 90 30 b1 da 62 b0 a5 67 e8 2f
       -1.6152896e-10 1.054301e-09 -8.25291e-10 4.2274198e-10
000040 a5 11 f7 30 28 1d 06 ae b6 44 44 b0 a5 a0 43 b1
       1.797663e-09 -3.049397e-11 -7.140203e-10 -2.846755e-09
000050 c4 0d ac b0 55 09 7a ae c7 35 c7 30 84 d7 81 b0
       -1.251856e-09 -5.6851707e-11 1.449444e-09 -9.447239e-10
000060 46 e4 bc 30 48 1e 20 b1 10 46 3d 31 e6 02 0b b1
       1.374368e-09 -2.3300277e-09 2.7542946e-09 -2.022881e-09
000070 92 4c 1e b1 3a 68 d2 b0 6b fe 34 30 b7 5e e6 af
       -2.3035551e-09 -1.5309134e-09 6.584517e-10 -4.1904055e-10

gn3.mean_scale f4 [32]
000000 a4 ff 7f 3f c0 fa 7f 3f a1 0b 80 3f c6 04 80 3f
       0.9999945 0.9999199 1.0003549 1.0001457
000010 8b f5 7f 3f ef 00 80 3f db fe 7f 3f 97 00 80 3f
       0.99984044 1.0000285 0.99998254 1.000018
000020 85 00 80 3f a1 f8 7f 3f 1c 00 80 3f 49 fa 7f 3f
       1.0000159 0.9998875 1.0000033 0.9999128
000030 0d ff 7f 3f f6 01 80 3f e4 f4 7f 3f 8f 01 80 3f
       0.9999855 1.0000598 0.9998305 1.0000476
000040 b6 06 80 3f 37 01 80 3f 3e f8 7f 3f 7a ff 7f 3f
       1.0002048 1.0000371 0.9998816 0.999992
000050 74 ff 7f 3f 02 01 80 3f bb f9 7f 3f 61 00 80 3f
       0.99999166 1.0000308 0.99990433 1.0000116
000060 b9 00 80 3f 3f 02 80 3f a9 fe 7f 3f b9 01 80 3f
       1.000022 1.0000685 0.99997956 1.0000526
000070 57 00 80 3f 73 fe 7f 3f 7f f8 7f 3f 2c 00 80 3f
       1.0000104 0.99997634 0.9998855 1.0000052

bn0.weight f4 [36]
000000 00 00 80 3f 00 00 80 3f 01 00 80 3f fd ff 7f 3f
       1.0 1.0 1.0000001 0.9999998
000010 fe ff 7f 3f fe ff 7f 3f 00 00 80 3f 00 00 80 3f
       0.9999999 0.9999999 1.0 1.0
000020 ff ff 7f 3f fb ff 7f 3f 00 00 80 3f ff ff 7f 3f
       0.99999994 0.9999997 1.0 0.99999994
000030 00 00 80 3f ff ff 7f 3f fd ff 7f 3f fd ff 7f 3f
       1.0 0.99999994 0.9999998 0.9999998
000040 fd ff 7f 3f 00 00 80 3f 00 00 80 3f fd ff 7f 3f
       0.9999998 1.0 1.0 0.9999998
000050 00 00 80 3f 00 00 80 3f 00 00 80 3f 00 00 80 3f
       1.0 1.0 1.0 1.0
000060 00 00 80 3f fb ff 7f 3f fe ff 7f 3f fe ff 7f 3f
       1.0 0.9999997 0.9999999 0.9999999
000070 00 00 80 3f 00 00 80 3f 00 00 80 3f 00 00 80 3f
       1.0 1.0 1.0 1.0
000080 ac 1f 80 3f a8 b5 7f 3f 0a 30 80 3f 7b 85 7f 3f
       1.0009665 0.9988656 1.001466 0.9981305

bn0.bias f4 [36]
000000 68 b7 d6 39 72 d4 38 ba 97 c2 96 3a 14 27 b2 b9
       0.0004095391 -0.00070507 0.0011502084 -0.0003397992
000010 0b a2 a9 39 c1 d8 e0 ba fb 67 04 bb 5c 2f 8e ba
       0.00032354923 -0.0017154441 -0.0020203579 -0.0010847854
000020 ad 03 e6 ba 72 48 9c ba c2 0f 3d 3b 9f 7f e2 39
       -0.0017548703 -0.0011923446 0.0028848504 0.00043201164
000030 ba e9 85 ba 2d 54 62 3a a5 97 f7 3a 37 92 a1 3a
       -0.0010216751 0.0008633759 0.0018889798 0.0012326901
000040 7f 81 8b 39 87 f4 9d ba 95 19 13 3a 91 d8 ec b7
       0.00026608628 -0.0012051024 0.0005611417 -2.8234239e-05
000050 95 f7 97 38 fb 92 15 ba 93 1a 6f b9 56 93 81 ba
       7.246357e-05 -0.0005705801 -0.00022802716 -0.0009885828
000060 44 c7 cd 39 01 10 04 bb 2d bc f4 b8 a6 00 eb 3a
       0.0003924911 -0.002015114 -0.00011669877 0.001792927
000070 23 46 85 ba 34 ac af 3a 42 16 92 b9 00 76 6d 3a
       -0.0010167997 0.0013402761 -0.00027863873 0.0009058416
000080 3f 0a 45 ba db b6 ad 3a 39 a3 1d ba 97 42 c4 b9
       -0.00075164804 0.0013253348 -0.0006013397 -0.00037433647

bn0.running_mean f4 [36]
000000 fc 4d 86 b4 66 c1 3f 35 19 7d 25 37 ce d1 c6 35
       -2.5016186e-07 7.1434476e-07 9.863893e-06 1.4813211e-06
000010 30 42 1f 36 71 62 98 b6 24 ed 44 35 1b e9 5f b6
       2.3731372e-06 -4.541413e-06 7.3360775e-07 -3.3365275e-06
000020 0b a2 96 35 91 5b c5 b6 c3 d2 01 b4 c0 12 7c b6
       1.1223032e-06 -5.8817172e-06 -1.2090736e-07 -3.756184e-06
000030 00 9a 0c b6 1b d1 6d 36 59 04 fe b6 18 ea 04 35
       -2.0951265e-06 3.5437467e-06 -7.570296e-06 4.9514483e-07
000040 2b f7 1b 37 ee 48 b7 35 3c 13 ba b6 d5 48 22 b5
       9.296268e-06 1.3655788e-06 -5.545471e-06 -6.045569e-07
000050 10 7f aa b4 13 59 22 b5 67 c1 a3 b6 5e d6 b5 35
       -3.1757418e-07 -6.0479323e-07 -4.8802935e-06 1.354794e-06
000060 46 ae 84 b5 54 3e d7 b4 79 e1 43 36 71 e1 94 34
       -9.885487e-07 -4.009222e-07 2.9188507e-06 2.7731178e-07
000070 74 21 c2 b4 82 83 79 b5 d8 05 e6 b5 61 d7 88 36
       -3.6159656e-07 -9.29511e-07 -1.7138036e-06 4.0781892e-06
000080 f8 2d 96 40 ea 57 9c 3f 08 cb 98 42 dc 30 13 43
       4.6931114 1.2214329 76.396545 147.19086

bn0.running_var f4 [36]
000000 8d 1e 1c 2e aa 3f dd 30 fb 15 9b 32 f8 ea 90 31
       3.5497428e-11 1.6097961e-09 1.805437e-08 4.2176644e-09
000010 f4 6f 6b 31 0e 02 0e 32 ce 07 2a 30 23 75 1e 30
       3.4260639e-09 8.265955e-09 6.185673e-10 5.7646526e-10
000020 b2 97 6d 30 6d 64 a7 31 38 cd 9d 2f 84 de ba 30
       8.643567e-10 4.8717568e-09 2.870395e-10 1.3596524e-09
000030 62 94 3c 2f ae ce 8e 30 e2 7f c1 32 1d 81 49 31
       1.7151217e-10 1.0390602e-09 2.2526311e-08 2.9322742e-09
000040 22 67 0d 32 9a b1 d5 30 9a a9 cb 31 a2 c5 1c 31
       8.23073e-09 1.5548267e-09 5.927359e-09 2.281333e-09
000050 bf 17 85 2f 96 c5 aa 2f b5 2f 09 32 9b f8 19 30
       2.4209432e-10 3.1063213e-10 7.985297e-09 5.6014365e-10
000060 d0 0a ad 2f b7 95 ae 30 33 1a 8a 30 9e c0 7a 31
       3.14762e-10 1.2702718e-09 1.0048268e-09 3.6489278e-09
000070 70 23 9e 30 d0 6f ab 2f fc d1 03 31 58 86 a9 2f
       1.1506085e-09 3.1184166e-10 1.9182371e-09 3.0836378e-10
000080 de 43 54 40 4d 80 1c 3f b3 d4 4a 45 74 24 eb 45
       3.3166423 0.6113327 3245.2937 7524.5566

bn1.weight f4 [32]
000000 1c 5c 7f 3f ab 79 7f 3f da 17 80 3f 43 d3 7f 3f
       0.9974992 0.99795026 1.0007279 0.99931735
000010 e1 0f 80 3f 49 f5 7f 3f 16 f4 7f 3f da f8 7f 3f
       1.0004846 0.9998365 0.9998182 0.9998909
000020 67 42 80 3f 6a ff 7f 3f 1e 5c 7f 3f a0 13 80 3f
       1.0020264 0.99999106 0.99749935 1.0005989
000030 3a 91 7f 3f 19 e7 7f 3f cb 3a 80 3f 06 f4 7f 3f
       0.99830973 0.99962 1.0017942 0.99981725
000040 55 01 80 3f 50 25 80 3f 00 28 80 3f 2d 23 80 3f
       1.0000407 1.0011387 1.0012207 1.0010735
000050 e7 17 80 3f 40 00 80 3f c4 0a 80 3f 34 a1 7f 3f
       1.0007294 1.0000076 1.0003285 0.9985535
000060 5d 4d 80 3f 8e 16 80 3f 18 c0 7f 3f 1c 10 80 3f
       1.0023609 1.0006883 0.99902487 1.0004916
000070 65 31 80 3f bf f0 7f 3f ee 25 80 3f 4e 63 7f 3f
       1.0015074 0.99976724 1.0011575 0.997609

bn1.bias f4 [32]
000000 e1 ff 7b b8 44 78 19 b9 cd 81 06 b8 5f d2 06 3a
       -6.008137e-05 -0.0001463602 -3.2068976e-05 0.0005143042
000010 5b c0 e6 b9 20 1e 5a ba e4 f5 84 39 31 45 08 38
       -0.00044012335 -0.0008320529 0.00025360205 3.2489366e-05
000020 b3 05 e5 b9 46 78 46 3a 47 b0 44 38 7e cc 0c 3a
       -0.0004368253 0.0007571023 4.6894213e-05 0.0005371048
000030 83 d2 86 b9 f2 83 99 b9 0d 64 17 ba 63 43 9d b9
       -0.00025715315 -0.0002928074 -0.00057751016 -0.0002999558
000040 4c d9 28 3a 44 b6 49 3a 24 4e e3 b5 cc 84 da b9
       0.0006441071 0.0007694701 -1.693556e-06 -0.00041679142
000050 e6 5a 96 b9 d4 e2 31 3a 44 bb 95 37 b6 4c f5 b9
       -0.00028677954 0.0006785814 1.7849386e-05 -0.00046787196
000060 0c 92 9d b9 d0 d1 6f 3a 73 16 1e 3a fb dc bf 39
       -0.00030054187 0.0009148391 0.0006030567 0.00036595002
000070 8e 4b 44 ba 1a d6 93 b9 30 58 67 39 45 1c e4 b8
       -0.0007488065 -0.00028197543 0.00022062729 -0.00010877153

bn1.running_mean f4 [32]
000000 a3 8e 0a 3e c6 c0 41 3d 08 5a 07 3e 64 40 9d 3d
       0.13530974 0.047302984 0.13217938 0.07678297
000010 ef 35 d5 3b 7b db 08 3e 2a 7c 24 3e 93 d7 b3 3c
       0.0065066735 0.13364975 0.1606299 0.02195338
000020 86 bf 35 3d 58 78 bb 3d e4 6d 3c 3d 32 c4 b3 3d
       0.044372104 0.09153813 0.046003237 0.08777656
000030 6e 7c 23 3e 96 15 3b 3c 14 9b 58 3d fb 75 e5 3d
       0.15965435 0.011418721 0.05288227 0.112041436
000040 4d ea 5a 3d e1 92 fe 3d a0 09 80 3d e9 1d e4 3d
       0.053446103 0.12430359 0.06251836 0.111385174
000050 f3 24 b9 3d 27 1f 39 3e 51 e7 04 3d fb 0c 7d 3d
       0.09040251 0.1807829 0.032447163 0.061779957
000060 bd 58 30 3e 01 c2 df 3d ee 62 e1 3c f7 d3 32 3d
       0.17221351 0.10925675 0.027512994 0.043659177
000070 59 ab e2 3c 7f a2 85 3d ef b0 78 3d ea d1 23 3e
       0.027669596 0.06525134 0.060715612 0.15998045

bn1.running_var f4 [32]
000000 14 87 8f 3c 32 dc 06 3c 9b df 8a 3c 3e 34 10 3c
       0.017520465 0.00823121 0.016952327 0.008801518
000010 64 8d 48 3a 3a d6 4f 3d 33 42 94 3c 10 d8 06 3b
       0.00076504634 0.05074141 0.018097972 0.002057556
000020 49 1e 56 3c 39 7b 15 3c fe 5d 8d 3b 1b cc 19 3c
       0.013068744 0.009123617 0.0043141833 0.009387041
000030 70 7c 9b 3c bb 4e 7a 3a 38 0c 19 3c df 05 d7 3c
       0.018980235 0.0009548475 0.009341292 0.026247917
000040 1f 22 d8 3b 0e f9 84 3c 1e d8 53 3c 6f 2f 2e 3c
       0.0065958644 0.01623204 0.012929944 0.010631426
000050 af 84 88 3c e1 26 87 3c 8d 28 99 3b 4b 6e 84 3c
       0.016664831 0.016498031 0.0046740235 0.016165873
000060 7a 66 8e 3c 15 76 2f 3c 30 cc f1 3b 05 bb d6 3b
       0.017382849 0.010709305 0.0073790774 0.006553056
000070 06 13 9d 3b 9f fd 06 3c d8 f1 9d 3b d6 3d d2 3b
       0.0047935275 0.008239179 0.00482009 0.006416063

bn2.weight f4 [32]
000000 00 f2 7f 3f 0b 3b 80 3f ec a8 7f 3f cc f5 7f 3f
       0.9997864 1.0018018 0.9986713 0.9998443
000010 18 97 7f 3f 3b 0a 80 3f 68 58 7f 3f 91 dc 7f 3f
       0.99839926 1.0003122 0.9974427 0.9994593
000020 8e 9a 7f 3f d7 ff 7f 3f c6 29 80 3f c5 e0 7f 3f
       0.99845207 0.99999756 1.0012748 0.99952346
000030 9b b5 7f 3f f3 16 80 3f 53 2b 80 3f 79 e7 7f 3f
       0.9988648 1.0007004 1.0013222 0.99962574
000040 56 e5 7f 3f ed 81 7f 3f b2 14 80 3f 50 49 80 3f
       0.99959314 0.99807626 1.0006316 1.0022373
000050 6a 09 80 3f d0 d5 7f 3f 86 23 80 3f 01 00 80 3f
       1.0002873 0.99935627 1.0010841 1.0000001
000060 a6 23 80 3f a9 13 80 3f 24 1b 80 3f 6c f9 7f 3f
       1.0010879 1.0006 1.0008283 0.9998996
000070 73 22 80 3f e4 1b 80 3f 00 00 80 3f 22 9b 7f 3f
       1.0010513 1.0008512 1.0 0.9984609

bn2.bias f4 [32]
000000 d1 1f 0c b9 e6 03 a1 39 24 93 63 39 8e ea d7 b8
       -0.00013363293 0.00030711218 0.00021703221 -0.00010295688
000010 95 80 8d 39 c0 d9 a3 b9 f8 f8 c0 39 42 d8 a1 39
       0.00026989417 -0.0003125202 0.0003680659 0.00030869438
000020 d9 10 dc 39 c8 92 9f b8 7b 68 4f b9 96 34 f2 39
       0.00041974222 -7.609051e-05 -0.0001977998 0.00046197016
000030 b7 d7 5c 39 c9 c5 ca b9 2d ae 67 39 04 57 a1 b9
       0.00021061195 -0.00038675804 0.00022094762 -0.00030773145
000040 00 58 26 b9 e9 53 a6 39 43 11 cf b9 93 d1 e0 b9
       -0.00015863776 0.00031724505 -0.00039494978 -0.00042880754
000050 23 9e ea 38 f2 2a f6 38 4b 2f 77 39 ce a8 8f b8
       0.00011187445 0.00011738193 0.00023573374 -6.850214e-05
000060 1b fe 1a b9 61 a1 02 ba 65 b3 be 39 ca ac f0 38
       -0.00014781246 -0.0004983154 0.00036373283 0.00011476276
000070 fd af d7 b9 42 94 ee b9 73 c4 fd 35 2e 34 d5 39
       -0.00041139117 -0.00045505358 1.8907143e-06 0.00040665403

bn2.running_mean f4 [32]
000000 79 85 36 3e 8f 84 2b 3e 79 74 37 3e 4c f5 1b 3e
       0.17824353 0.16749786 0.17915525 0.15230292
000010 ae 59 8f 3e 5e 52 27 3e 93 ec 52 3e ea 3d 1f 3e
       0.27998108 0.16340014 0.20598058 0.15550962
000020 6b 2a 80 3e 1e 4e 63 3e 8c 73 96 3e f8 78 04 3e
       0.25032362 0.22197768 0.2938503 0.12936771
000030 a7 e9 8f 3e 85 29 79 3e 91 41 3d 3e 95 c9 b3 3e
       0.2810795 0.24332245 0.18482043 0.35114732
000040 68 41 ad 3e 19 83 96 3e 9b d1 9b 3e 96 f5 5b 3e
       0.33838964 0.29396895 0.30433354 0.21480402
000050 d5 83 6c 3e b1 b6 1b 3e c9 d9 96 3e ba 3a 16 3e
       0.23097165 0.1520641 0.29463032 0.1467084
000060 ce 0c 55 3e 41 19 f5 3d 8d 68 19 3e 12 db 2d 3e
       0.20805666 0.119677074 0.14981289 0.169781
000070 95 42 41 3e d4 9a a7 3e b5 0b a4 3e d5 42 4a 3e
       0.18873055 0.32735312 0.32040182 0.19752057

bn2.running_var f4 [32]
000000 a9 be 3a 3e b5 e7 98 3d c2 3c 20 3e 00 f8 9b 3d
       0.18236794 0.074660696 0.15648177 0.076156616
000010 2d a9 a2 3e a0 23 d1 3d 4e 42 21 3e e8 fa b4 3d
       0.31769696 0.10211873 0.1574795 0.08836919
000020 2c cd a8 3e e7 da 33 3e 9f 68 a2 3e ce 7b 78 3d
       0.32969034 0.17563973 0.31720445 0.060664944
000030 8b ed e7 3e ee 2b ea 3d 2c 7c 27 3e ee 49 5f 3e
       0.45298418 0.1143416 0.16355962 0.21805546
000040 d3 18 25 3e 9c 73 ba 3e 66 8f a6 3e 87 0a cd 3d
       0.16122751 0.36416328 0.3253128 0.100117736
000050 12 24 7f 3e ce 2b 47 3e 26 3d 9a 3e 2e df ba 3d
       0.24916103 0.19450304 0.30124778 0.091245994
000060 3f 76 9a 3e 8e c8 d1 3d 5f c6 b0 3d 1a 29 2c 3e
       0.3016834 0.10243331 0.08631586 0.16812554
000070 5d 38 66 3e f5 65 4a 3e 65 ac 48 3e 1d 3a 85 3e
       0.22482438 0.19765456 0.19597013 0.260209

conv1.mlp.0.weight f4 [32, 18]
000000 c1 87 7b 3d de 78 74 bc cb 97 e4 bc 8c 01 f2 3d
       0.061408762 -0.014921395 -0.027904412 0.11816701
000010 b2 74 2e bd 7a 9e 34 be 8a a9 cf 3d b1 95 63 3e
       -0.042591758 -0.17638579 0.10139759 0.22225071
000020 ef a6 5b 3d 2d 76 46 3d ab 54 ba 3d 21 33 15 be
       0.053625997 0.048452545 0.090981804 -0.14570285
000030 b5 ce 0e be cc 7e 89 bd c1 12 21 bd 09 4f ac 3d
       -0.1394604 -0.06713638 -0.039324526 0.08413512
000040 05 03 f3 bd b0 f7 69 be 65 b6 7f 3d 5f 52 87 3d
       -0.1186581 -0.22848392 0.062429804 0.06607508
000050 df f9 45 bd 7e c9 12 bd b6 65 4c 3e 8d 81 35 be
       -0.048334 -0.03583669 0.19960675 -0.17725201
000060 a9 b2 d2 bc 32 b5 a4 3c ec 1c bf bc 64 eb 9d 3d
       -0.025719957 0.020105932 -0.02332922 0.07710913
000070 2e a9 ca 3d b4 de 00 3e e9 dd 44 3e 21 6d 81 3d
       0.0989555 0.12584955 0.19225277 0.06319643
000080 47 8e 6e be dd e9 58 3e 3d e9 01 3d 95 cc b2 3d
       -0.23296462 0.21182962 0.031716574 0.08730427
000090 50 9e 90 bd c6 26 6a 3e b1 97 41 3e 09 98 2d 3e
       -0.07061446 0.22866353 0.18905522 0.16952528
0000a0 4d 40 67 bb cc ef 3c 3d c0 27 bb 3d 8f b7 53 3e
       -0.003528613 0.046127126 0.09138441 0.20675491
0000b0 5b 7e 6c be b6 b6 45 3c 24 3e 0d 3e ff c4 07 3e
       -0.23095076 0.012067487 0.13793236 0.13258742
0000c0 f2 5d d1 3d d3 6d 6f bd 04 91 50 be 5e 34 b8 bd
       0.10222997 -0.058454346 -0.20367819 -0.08994363
0000d0 a8 b5 61 3e 1f ab 5b 3e e2 0c a4 3d c9 21 69 3b
       0.22041953 0.21451996 0.0801027 0.0035573116
0000e0 68 ad 15 be 86 19 2a 3e 7d 9a 70 be 3a 62 9e bd
       -0.1461693 0.16611299 -0.23496433 -0.07733579
0000f0 bc 53 0f 3d 5a 3b 1a 3e 06 2d 59 be 9b 62 44 bc
       0.034991965 0.15061703 -0.21208581 -0.0119864
000100 6a 31 62 3e c0 01 30 bd f3 98 4b 3e e8 6c 1a 3e
       0.22089162 -0.04297042 0.19882564 0.15080607
000110 bc ac 20 3e 36 bc 59 3e a3 27 4e be 7b 98 9d 3d
       0.15690893 0.21263203 -0.20132308 0.07695099
000120 d4 0e 41 be 7c 6f 74 3d bb 96 98 bd 01 cb 01 3d
       -0.18853313 0.059676632 -0.074506246 0.03168774
000130 52 80 6f 3e fd d4 51 3e ae 18 68 be 51 6a 94 bd
       0.23388794 0.20491405 -0.22665665 -0.07246841
000140 e1 58 4d be 55 14 37 3e 1f b2 4b 3e d1 66 d7 bd
       -0.20053436 0.1787885 0.19892167 -0.105176575
000150 f9 55 6b 3e cb a0 4f bd e4 af 91 3d 6e bf 18 3e
       0.22982015 -0.050690453 0.071136266 0.14916775
000160 2d f4 70 be a3 c1 00 be db d9 22 3d d8 ba 55 3e
       -0.23530646 -0.12573867 0.039758544 0.20872056
000170 00 ba f2 3d 02 fd 06 be 5b 69 50 be 01 86 0d 3a
       0.11851883 -0.13182452 -0.2035269 0.0005398691
000180 4c d2 6b be b0 ff 55 3e d7 6b 52 be 9c eb 05 3e
       -0.2302944 0.20898318 -0.2054895 0.13078159
000190 87 db 03 bd 1c 84 57 3e 7f 38 e6 bc 03 38 f9 bd
       -0.03219178 0.2104649 -0.028103111 -0.121688865
0001a0 a5 70 ab 3d 08 8d ff bd 26 a7 5d be 50 91 9c bb
       0.083710946 -0.124780715 -0.21645793 -0.004778065
0001b0 c6 85 4e bb 64 0a 0d 3d 86 ce d7 3d f5 9b 10 3d
       -0.003151284 0.034433737 0.10537438 0.035304982
0001c0 1b 66 ff 3b 11 e6 c1 bd 47 90 24 3e cc a1 5f bd
       0.0077941543 -0.0946771 0.16070662 -0.05459766
0001d0 21 9f 15 be 69 42 64 be fd 08 9c 3c 54 6f ec bd
       -0.14611484 -0.22290958 0.019047255 -0.11544672
0001e0 5c ef 8a bd 8a ab 3a be 94 1d 61 3e f9 e2 08 3e
       -0.067839354 -0.182295 0.2198394 0.13367833
0001f0 55 45 f8 bd e1 bd cc 3d 30 14 14 3b 06 6e 37 3e
       -0.12122599 0.09997154 0.002259504 0.17913064
000200 ce 76 46 bc 1c 99 1f 3e a3 f3 1f 3e 8c 38 3a 3e
       -0.012113286 0.1558575 0.15620284 0.18185633
000210 2b db f7 bc 93 08 29 3c 4b 3f a2 bc 34 1e 1c bb
       -0.030255875 0.010316986 -0.019805571 -0.0023821713
000220 b5 fd 05 be be be 88 3d 91 52 7f 3c 05 55 02 3e
       -0.13085063 0.06677006 0.01558365 0.12727745
000230 54 90 c1 3c fe 46 5d 3d 13 32 50 3e 79 71 ea 3d
       0.023628391 0.05402278 0.20331602 0.114474244
000240 d8 d8 5a be ce 99 ad 3d a1 be 80 bd 08 24 8f 3d
       -0.21371782 0.084766015 -0.062863596 0.06989294
000250 b3 bd 22 bb 99 cc 0a be 37 b7 6e be 70 1f 3a 3e
       -0.0024832308 -0.1355461 -0.23312078 0.18176055
000260 41 7f 64 3d 74 c4 89 3d 7f f4 ee bc 68 02 45 bc
       0.05578542 0.067269236 -0.02916932 -0.0120244995
000270 e4 e7 f0 3d 24 5b 28 3e 1b 04 c8 bd 2d 56 11 be
       0.117629796 0.16441017 -0.09766408 -0.1419303
000280 09 c8 c9 bd 9e ef 3a be 51 4c 6b bc 82 03 4f 3e
       -0.09852607 -0.18255469 -0.014361457 0.20216182
000290 c1 bb 3a 3c b7 20 d9 3d 90 9d ed bd b4 34 20 be
       0.011397303 0.10601943 -0.11602318 -0.15645105
0002a0 d3 af 14 3e 5a 20 35 be 30 37 39 3e 80 5a 6e be
       0.14520197 -0.17688122 0.18087459 -0.2327671
0002b0 e1 e6 2b bd e4 8a 6c bd 9e 16 bf 3d 3c 76 96 3d
       -0.04196823 -0.057749644 0.09330486 0.0734677
0002c0 0c 21 8c 3c ea 62 18 3c 99 9d 69 be 32 ae 99 bd
       0.017105602 0.009300927 -0.22814025 -0.07503928
0002d0 dc 77 fb bd d9 e9 2b 3e da be 1e be 2f 70 a6 bd
       -0.12278721 0.16788425 -0.15502492 -0.08126866
0002e0 9f eb 51 be 89 78 dc 3c f2 19 0b 3d 60 92 80 bd
       -0.20500039 0.026912944 0.03396029 -0.06277919
0002f0 27 08 25 3e 67 9c 4c 3d 09 d3 98 bd 71 b5 15 3e
       0.16116391 0.049953844 -0.07462127 0.14619996
000300 81 55 54 3e b5 9b f4 bb 71 28 1a be 77 96 68 3e
       0.20735742 -0.007464851 -0.1505449 0.22713648
000310 87 9f 4e bd 0b c0 a8 bd 8a fa 89 bc 88 1d 61 3e
       -0.050445106 -0.08239754 -0.0168431 0.21983922
000320 89 85 bf 3d 4a 20 08 3e ec 4f 6d bd d2 f7 51 3e
       0.09351642 0.13293567 -0.057937548 0.20504692
000330 86 7c f7 3d b5 ae 24 be 48 bb c3 bd 38 ab 11 3e
       0.12084298 -0.1608227 -0.095572054 0.14225471
000340 a0 ce 01 be 1a 97 48 be fd dd 0d 3d 39 ee 3d 3e
       -0.12676477 -0.1958889 0.034635533 0.18547906
000350 b5 cc 08 3e e5 28 ff 3d ac ac 1b be f0 9b 37 3e
       0.1335934 0.12458972 -0.15202588 0.17930579
000360 93 f8 b5 3c 53 58 10 be a7 e5 17 bd 13 2b d4 bc
       0.022213256 -0.14096193 -0.037084248 -0.025899446
000370 ed 8c 14 be 6a 3c 72 bc 27 a6 79 bd 33 f0 07 3d
       -0.14506884 -0.014784912 -0.06094947 0.033188056
000380 4e 02 66 bd 04 b2 af 3d 89 a2 67 be ea 28 d7 3b
       -0.05615454 0.08578876 -0.22620596 0.0065661566
000390 5b 1c a3 3d 33 61 c0 3b 09 b7 0a 3e d1 53 7a bd
       0.07964393 0.005870962 0.13546385 -0.06111509
0003a0 97 89 5d 3e e3 fa ab bd 14 70 1e 3e af 24 20 3b
       0.21634518 -0.08397462 0.15472442 0.0024435928
0003b0 c6 90 2b be 9e 0c 43 3e 90 04 ad 3d e0 5e 12 be
       -0.16754445 0.19047782 0.08448136 -0.14294004
0003c0 de f6 df 3c f9 71 bc bd 79 35 21 3e 8c 5d 36 bd
       0.027339395 -0.09201426 0.15743054 -0.044522807
0003d0 db 5e 57 3e f2 58 4e 3e e5 82 63 be de e1 5f 3e
       0.21032278 0.20151117 -0.22217901 0.21863505
0003e0 44 ee 24 3e 90 ee 20 be b2 65 7f bd 60 a7 6a be
       0.16106516 -0.15716004 -0.062352844 -0.22915411
0003f0 e7 5e f9 3d 77 ad 8c 3d aa e1 1f 3e bc 68 66 3e
       0.12176304 0.06869023 0.15613428 0.2250089

conv1.mlp.0.bias f4 [32]
000000 20 59 76 3d 9f 72 07 be 13 f4 da 3d 0f ab 7b 3d
       0.06014359 -0.13227318 0.10691085 0.06144243
000010 7e 63 28 be 90 c3 c4 3d a2 61 1b be 68 1e e4 bd
       -0.16444203 0.09607613 -0.15173963 -0.11138612
000020 3c f1 49 be f5 43 ab bb d4 4f dd 3d 2e aa bf bd
       -0.1972093 -0.005226607 0.10806242 -0.09358631
000030 c7 b7 d1 3d f6 19 1a be 0a 60 04 3e c0 7b 3e 3e
       0.10240131 -0.15048966 0.12927261 0.18601894
000040 c5 f7 5b bd f1 bf e5 3d 56 1e ae 3d e0 2e e9 3c
       -0.05370309 0.112182505 0.0850188 0.028464735
000050 79 45 2f be 92 e6 e3 3d e8 cb b9 3b 95 a9 bf 3d
       -0.17116345 0.11127962 0.0056700595 0.09358517
000060 4b 46 d8 bd b5 e4 0f be 63 bd 33 be 2f 3a 44 be
       -0.10560282 -0.14052089 -0.17552714 -0.1916282
000070 72 e5 47 3e f2 9d 4e be ef 95 a9 bd bf f5 39 3e
       0.1952112 -0.20177439 -0.08280551 0.18160151

conv1.mlp.2.weight f4 [32]
000000 fe ff 7f 3f 00 00 80 3f f9 ff 7f 3f 00 00 80 3f
       0.9999999 1.0 0.9999996 1.0
000010 07 00 80 3f f8 ff 7f 3f ff ff 7f 3f 03 00 80 3f
       1.0000008 0.9999995 0.99999994 1.0000004
000020 fe ff 7f 3f 01 00 80 3f 02 00 80 3f f4 ff 7f 3f
       0.9999999 1.0000001 1.0000002 0.9999993
000030 00 00 80 3f fe ff 7f 3f fd ff 7f 3f f6 ff 7f 3f
       1.0 0.9999999 0.9999998 0.9999994
000040 00 00 80 3f fa ff 7f 3f f9 ff 7f 3f 02 00 80 3f
       1.0 0.99999964 0.9999996 1.0000002
000050 fe ff 7f 3f fd ff 7f 3f fb ff 7f 3f ff ff 7f 3f
       0.9999999 0.9999998 0.9999997 0.99999994
000060 fc ff 7f 3f ff ff 7f 3f ff ff 7f 3f 01 00 80 3f
       0.99999976 0.99999994 0.99999994 1.0000001
000070 fb ff 7f 3f 00 00 80 3f 02 00 80 3f fc ff 7f 3f
       0.9999997 1.0 1.0000002 0.99999976

conv1.mlp.2.bias f4 [32]
000000 4c 5e 2b 35 d3 80 f2 35 70 b5 fb 35 7b a5 55 b4
       6.3839684e-07 1.8067898e-06 1.8753763e-06 -1.9897372e-07
000010 66 5f 74 35 11 4a a2 35 81 a4 aa 35 b8 03 bc 35
       9.1035906e-07 1.2091497e-06 1.2713864e-06 1.4008174e-06
000020 d7 50 69 b5 ae 36 12 35 78 cd ae b5 ae cb 76 35
       -8.69169e-07 5.446881e-07 -1.302381e-06 9.1938534e-07
000030 ef 92 36 34 9f ea c8 34 0a cb 0b b4 81 f5 38 35
       1.7003525e-07 3.7423612e-07 -1.3019249e-07 6.8902597e-07
000040 d5 46 c7 34 d2 bc 7c b5 76 9d aa b4 74 6d b0 34
       3.7118176e-07 -9.4152085e-07 -3.1779535e-07 3.2862192e-07
000050 df 67 c5 34 dd 3d 34 b1 75 27 9f 35 e7 2d c3 35
       3.6769686e-07 -2.6228613e-09 1.1857907e-06 1.4541992e-06
000060 0f a4 9b 35 1c bb c7 35 2f 25 83 35 9b d5 3d 34
       1.1596147e-06 1.4881111e-06 9.771082e-07 1.7679706e-07
000070 e6 51 69 35 48 d6 5b 33 58 27 cf b5 97 f4 3d 34
       8.691844e-07 5.11848e-08 -1.5434152e-06 1.7690978e-07

conv1.mlp.2.running_mean f4 [32]
000000 72 94 91 3e 3f a3 21 3e 0c 12 9e 3e ce 3f c5 3e
       0.28433567 0.1578493 0.30873144 0.38525242
000010 29 bc 83 3e d1 36 a2 3e 81 e5 75 3e 4d 78 03 3e
       0.25729492 0.31682447 0.2401333 0.1283886
000020 75 bb 0f 3e d2 2c 6c 3e d7 92 d6 3e d4 a7 6d 3e
       0.14036353 0.23063973 0.41908905 0.23208553
000030 05 86 7a 3e 06 ce 91 3e b5 42 c7 3e 1d 16 cc 3e
       0.24465187 0.28477496 0.3891808 0.3986062
000040 59 22 5e 3e 1a 71 ac 3e a6 bd a9 3e cd f0 ac 3e
       0.2169279 0.3368004 0.33152503 0.33777466
000050 26 f8 79 3e 76 f0 91 3e 05 6a 62 3e c7 8c b5 3e
       0.24411067 0.2850377 0.22110756 0.35458967
000060 a6 98 8f 3e 28 82 34 3e 56 e3 63 3e a7 0f 16 3e
       0.2804615 0.17627776 0.2225469 0.14654408
000070 64 64 b2 3e f8 3d 2a 3e 67 1e 6f 3e 5c 78 d0 3e
       0.34842217 0.16625202 0.23351441 0.40716827

conv1.mlp.2.running_var f4 [32]
000000 ff f3 23 3e a2 3f 9a 3d 35 ef 33 3e 83 37 ce 3e
       0.16011046 0.07531668 0.17571719 0.40276727
000010 83 75 3d 3e c6 e7 9f 3e fc e4 25 3e 0f b9 6a 3d
       0.18501858 0.31231517 0.16200632 0.057305392
000020 16 2e 81 3d cc 23 de 3d b1 36 91 3e de 2a 16 3e
       0.06307618 0.108466715 0.2836204 0.1466479
000030 03 40 e7 3d 7d 89 7d 3e ef 34 92 3e 27 a8 79 3e
       0.11291506 0.24759479 0.2855601 0.24380551
000040 c5 5a fb 3d a9 c1 84 3e 13 df 6c 3e 06 63 39 3e
       0.12273172 0.25929 0.23131971 0.1810418
000050 c9 fc 2f 3e c6 f8 14 3e 06 c3 00 3e 5b fe 91 3e
       0.17186274 0.14548025 0.12574396 0.2851437
000060 ea cf 76 3e 79 8a ca 3d 45 dc 23 3e b0 e7 94 3d
       0.2410275 0.09889693 0.16001995 0.072707534
000070 ef 9a 50 3e 7d b5 d9 3d d8 31 13 3e 67 40 43 3e
       0.20371602 0.10630319 0.14374483 0.19067536

conv1.mlp.4.weight f4 [32, 32]
000000 b4 07 d6 3d ad 66 62 bd 5d b9 bb bd f8 bc c2 3d
       0.10450688 -0.0552737 -0.091662146 0.09508699
000010 0b b9 95 3b ec 9f bd bd 60 19 f0 3b 33 c1 04 3e
       0.004569178 -0.09259018 0.0073272437 0.12964325
000020 bf 76 f9 3d a6 e4 94 3c 87 80 ff bd 92 1b 2f be
       0.12180852 0.018175434 -0.124756865 -0.17100361
000030 70 ca 02 3c b5 ec 9f bd 46 80 b8 3c 67 69 10 3e
       0.007982835 -0.0780882 0.022522103 0.14102708
000040 8e 9f 1a 3d 9b b2 1b 3e bd 47 1f 3e 2a 80 cb bb
       0.03774982 0.15204851 0.1555471 -0.0062103467
000050 16 46 1b bd 59 88 a3 bd d5 b4 d4 3d d5 5e 0b 3e
       -0.037908636 -0.079849906 0.103860535 0.13610394
000060 94 2f 44 bc 11 17 68 3c 62 0a ba bd 94 24 07 3e
       -0.011974234 0.014165656 -0.090840116 0.13197547
000070 5e 2d b6 3d f9 5c 24 3e fb c5 92 3c cc 0c 2b 3e
       0.08895372 0.16051091 0.01791667 0.167041
000080 ab 6f 00 be 9d 92 f8 bd 15 15 19 be b3 03 9a 3d
       -0.12542598 -0.12137339 -0.14949448 0.07520237
000090 83 ff 41 bb aa 32 4a bd d4 f0 1b be 91 b5 64 3d
       -0.002960176 -0.049364723 -0.15228587 0.055837218
0000a0 e8 fe f9 3b 81 43 78 bd 4e 36 18 3e ce 38 73 3d
       0.007629264 -0.06061125 0.14864466 0.059380345
0000b0 93 cb 48 3d 08 81 09 be 6f e3 8d bb b3 b5 94 bd
       0.04902227 -0.13428128 -0.0043300907 -0.07261219
0000c0 7e 7a 27 be fb 6e 2b 3e e2 08 d9 bd 6c 1f 28 3e
       -0.16355321 0.16741554 -0.105973974 0.16418236
0000d0 aa 69 df bd cc d8 25 be 27 3a 10 bd 91 ed 10 be
       -0.10908826 -0.16195983 -0.03521171 -0.14153124
0000e0 65 98 1d bc 0e 24 1a 3e 7f e4 1f 3e a0 40 77 3d
       -0.009618853 0.15052816 0.15614508 0.060364366
0000f0 5e 29 04 be 0a 73 54 bd 86 c4 1a be dd 17 06 3e
       -0.12906405 -0.051867522 -0.1511403 0.1309504
000100 68 e6 23 3e 79 87 7b bd ce d1 24 3b ef fd f9 bd
       0.16005862 -0.061408494 0.0025149467 -0.12206637
000110 f0 cb 0b be 3a 3a 12 be 34 3f 05 3c e6 9a 10 be
       -0.13652015 -0.14280024 0.008132745 -0.14121589
000120 cd 77 06 3e ef 2d 22 bc 39 20 d0 3d 2a cf 17 3e
       0.13131638 -0.009898647 0.10162396 0.1482512
000130 a0 ee 4f 3c 91 49 da bd 47 55 5e 3d d9 8d 12 bb
       0.01269117 -0.10658563 0.054280546 -0.002236238
000140 90 3a 1d 3c af bd aa 3d b4 d1 1c 3d e1 10 8d 3d
       0.009596482 0.083369605 0.038285926 0.06887985
000150 88 66 2d 3e fc 08 e0 bd a3 21 73 3d e0 37 f3 3d
       0.16933644 -0.10939214 0.05935825 0.11875892
000160 f4 94 3b bd 27 22 0b be 5e 05 87 bd 13 19 39 3d
       -0.04579635 -0.13587247 -0.065928206 0.04518993
000170 e7 e7 1f 3e e5 98 0a 3e 69 6c 34 3e 46 18 01 be
       0.15615807 0.13534887 0.1761948 -0.12606916
000180 8a 50 d5 bd 8b 28 11 3e e7 4a 96 3d bf 0f 04 bb
       -0.10415752 0.14175622 0.07338505 -0.0020150987
000190 fc 3b ce 3d 2d f6 12 be b8 43 e8 bb 2e 46 10 3d
       0.10070035 -0.14351721 -0.007088151 0.03522318
0001a0 c0 b5 b1 3d 0d c7 c7 3d e5 8e 2f 3e ab 0f d6 3d
       0.08677244 0.09754763 0.17144354 0.10452207
0001b0 a4 01 8b 3d 3f d0 85 bd d9 d5 ca 3d 56 70 2f be
       0.06787422 -0.065338604 0.099040695 -0.17132697
0001c0 74 0b 07 3e aa 3b ed 3c 88 8e d6 bd 89 9b 01 be
       0.13187963 0.028959114 -0.104764044 -0.12656988
0001d0 ef 59 fe 3d 78 eb ec 3d d5 f1 c7 bd de 86 4a 3c
       0.12419497 0.115683496 -0.09762923 0.012361256
0001e0 11 32 8d bd 95 5a e0 3c 0e b4 1f be 66 70 03 3e
       -0.06894315 0.027386943 -0.15596029 0.12835845
0001f0 d4 5d e2 3d f1 73 8a 3d 1e b2 1c 3e 10 ba 64 3d
       0.110530525 0.06760395 0.15302321 0.055841506
000200 ff fa 84 bd 17 84 84 bd d3 67 ca 3d fd 18 ff bd
       -0.06493186 -0.06470507 0.09883084 -0.12455938
000210 bb 55 cd bc da 6d b8 3d 0e 86 43 3d f0 94 39 3c
       -0.025065294 0.090053275 0.047735266 0.011327013
000220 80 a4 27 3e d3 ab 2f 3e 3a 7d e8 bd 43 79 f5 bd
       0.16371346 0.1715539 -0.1135201 -0.119860195
000230 49 d5 e0 bd 89 42 e1 3d 94 e4 24 3d 7b cb 2e be
       -0.10978181 0.10999019 0.04025705 -0.17069809
000240 ab af 08 bd 00 20 11 3e 85 19 13 be 7a 3b d7 bd
       -0.033370655 0.14172363 -0.14365204 -0.10509391
000250 18 93 3a 3c 98 51 ce 3d 56 60 01 be 2f e5 25 3e
       0.011387609 0.100741565 -0.12634405 0.16200708
000260 01 0d 73 bd eb be 7b 3d ca df 5d bd 81 ce 79 3d
       -0.059338573 0.06146137 -0.0541685 0.060987953
000270 08 19 31 3e 31 16 1a 3e cd b8 af 3d 6a 8f 15 3e
       0.17294705 0.15047528 0.0858017 0.1460549
000280 db 08 cb bd 26 03 27 be c6 0d 58 3d 32 77 2e 3e
       -0.099137984 -0.16309795 0.05274751 0.17037657
000290 02 56 89 bc df aa 4f 3d 97 f2 c5 bd 12 58 0a be
       -0.016764645 0.050700065 -0.09665411 -0.13510159
0002a0 12 f4 74 bb 8d e8 bc bd 4c a7 22 be 7b 34 90 bd
       -0.0037376923 -0.09224043 -0.15884131 -0.0704126
0002b0 fb 24 da bd 9e 09 54 bd 64 37 da 3d 7c cf f0 bd
       -0.10651585 -0.051766984 0.10655096 -0.117583245
0002c0 df 28 08 3e fc c3 81 bc 38 5e 99 bc ee aa 8a bd
       0.13296841 -0.015840523 -0.018721685 -0.067708835
0002d0 ba 35 dd 3b 4f f8 cc bd a8 3d ca bc 44 4b ff 3c
       0.0067507895 -0.100082986 -0.024687603 0.03116382
0002e0 5e e5 d6 bd 01 6c 18 be e9 6d 13 be 6c 20 32 3e
       -0.10492967 -0.1488495 -0.14397396 0.1739518
0002f0 82 84 fe bd 2f 4d 1e bd df e3 13 bc 28 e1 f5 bd
       -0.124276176 -0.038647827 -0.009026497 -0.12005836
000300 8d f5 c3 bd f1 01 27 be a7 12 1b 3e 18 87 12 be
       -0.095683195 -0.16309334 0.15143834 -0.14309347
000310 99 bf 1a bd 5b e5 cd 3d 2e 6d cf bc c6 cd 2c 3e
       -0.037780378 0.10053512 -0.025320616 0.16875371
000320 2d 69 c9 bd d0 df 73 bd e0 a7 f3 3d a5 74 31 3e
       -0.09834514 -0.059539616 0.11897254 0.17329653
000330 14 ed a8 bd f8 1c 1f be 33 b6 49 bc 20 2a 52 bd
       -0.08248344 -0.15538394 -0.012311506 -0.051309705
000340 e4 89 bc bb 56 06 bf bd c6 be f7 bd cf 8e 12 be
       -0.0057537425 -0.0932738 -0.12096934 -0.1431229
000350 20 32 d8 bd 9f 03 f9 bc 7a b2 35 3c 96 f9 c5 3d
       -0.105564356 -0.030397234 0.011089915 0.09666745
000360 88 0d d9 bb 55 60 86 bd a0 a6 5d bb f3 c6 d9 bd
       -0.0066239275 -0.065613426 -0.003382124 -0.1063365
000370 5c af 36 3d 84 34 e3 3d 06 ab 7f bd ee a5 ef bd
       0.04460083 0.11094001 -0.06241896 -0.117015705
000380 ec 03 5f bd bf 54 a5 bc 37 3c b8 bd 93 50 a9 3d
       -0.0544471 -0.020182012 -0.0899586 0.082673214
000390 42 00 2b be cf ea db bd 78 e5 03 3e f2 d0 a1 bc
       -0.16699317 -0.107381456 0.12880504 -0.019752953
0003a0 a7 d2 05 3e 7e 46 e8 3d 67 0b 2f be 22 7c 09 be
       0.13068639 0.1134157 -0.17094193 -0.13426259
0003b0 6f 95 35 bc e2 3d fa 3c 6c 2e 64 3d bf 11 9a bd
       -0.011082991 0.030547086 0.055708334 -0.07522916
0003c0 7f 69 66 3d 68 28 1e be 58 21 09 be 79 cc 57 3d
       0.056252953 -0.15445101 -0.13391626 0.052685235
0003d0 7f d6 ac bd f9 6b a7 3d ac a2 00 be 1a 68 ba bd
       -0.084393494 0.08174891 -0.12562054 -0.09101887
0003e0 a4 4b 30 be 89 f2 4a bd 4f 21 2d 3e e7 31 30 bd
       -0.17216355 -0.049547706 0.16907237 -0.04301634
0003f0 d8 c7 c1 bd ab c5 1a 3d 74 59 20 3e e7 d1 4b 3d
       -0.09461945 0.037786167 0.15659124 0.049760725

conv1.mlp.4.bias f4 [32]
000000 fa 67 19 be 65 9e f1 3c 8d 76 2b be ee 12 e2 bd
       -0.1498107 0.029494474 -0.16744442 -0.11038767
000010 7f 7a de 3d f4 6a 00 be 87 5a f8 3d b8 2b 82 3d
       0.10863208 -0.125408 0.12126642 0.06355995
000020 4f c9 18 3e 3b 70 14 be 38 11 24 be b0 3d 20 3e
       0.14920543 -0.14495938 -0.16022193 0.15648532
000030 48 03 0c 3e af a4 9e 3b 2c d8 d6 3d c1 5e c4 bd
       0.13673127 0.004841409 0.1049045 -0.095883854
000040 ce 31 fb 3d 21 ef 83 3c 92 e4 32 be 46 a2 d5 bd
       0.12265359 0.016105236 -0.17470005 -0.10431342
000050 ec 7e df bd bd 2b f2 bc 16 47 f0 bd a3 eb 07 be
       -0.1091288 -0.029561872 -0.117323086 -0.13273482
000060 79 c9 7c bd 55 8d 01 3e 0a ee 07 3e 92 2a 8c 3a
       -0.061715577 0.1265157 0.13274398 0.0010693839
000070 f8 51 98 bd d2 d6 29 3e 17 43 8f bd f9 1d 32 be
       -0.07437509 0.16585854 -0.06995218 -0.17394246

conv1.mlp.6.weight f4 [32]
000000 01 00 80 3f fd ff 7f 3f fc ff 7f 3f fa ff 7f 3f
       1.0000001 0.9999998 0.99999976 0.99999964
000010 00 00 80 3f ff ff 7f 3f f9 ff 7f 3f fa ff 7f 3f
       1.0 0.99999994 0.9999996 0.99999964
000020 00 00 80 3f fc ff 7f 3f fd ff 7f 3f 00 00 80 3f
       1.0 0.99999976 0.9999998 1.0
000030 fb ff 7f 3f 00 00 80 3f fd ff 7f 3f 00 00 80 3f
       0.9999997 1.0 0.9999998 1.0
000040 fd ff 7f 3f fe ff 7f 3f f9 ff 7f 3f ff ff 7f 3f
       0.9999998 0.9999999 0.9999996 0.99999994
000050 fd ff 7f 3f ff ff 7f 3f fe ff 7f 3f fd ff 7f 3f
       0.9999998 0.99999994 0.9999999 0.9999998
000060 fb ff 7f 3f fe ff 7f 3f fa ff 7f 3f fc ff 7f 3f
       0.9999997 0.9999999 0.99999964 0.99999976
000070 fe ff 7f 3f fe ff 7f 3f ff ff 7f 3f fb ff 7f 3f
       0.9999999 0.9999999 0.99999994 0.9999997

conv1.mlp.6.bias f4 [32]
000000 d9 43 b0 b4 94 ba fb b5 69 ba c0 35 20 fb ae 35
       -3.283192e-07 -1.8755259e-06 1.4359367e-06 1.3037097e-06
000010 5f b0 d1 b3 02 eb a4 33 9c 50 60 35 26 2b c6 b5
       -9.7644026e-08 7.679593e-08 8.3563805e-07 -1.4764707e-06
000020 d1 85 15 35 48 9c cb 34 65 1a 29 35 34 25 53 34
       5.5701554e-07 3.7925406e-07 6.2995815e-07 1.9664441e-07
000030 b8 38 cb 35 77 5d fa 2f 4b 00 d3 b4 95 9d 47 b2
       1.5141186e-06 4.5541146e-10 -3.9302026e-07 -1.16191545e-08
000040 6f ad 16 35 40 37 e0 35 04 1d 78 34 49 70 a2 31
       5.6131734e-07 1.670538e-06 2.3107356e-07 4.727586e-09
000050 9e 7a eb 34 9e 19 fb 34 1d 5e 23 35 af b9 8e 35
       4.3861377e-07 4.6771032e-07 6.0859185e-07 1.0633865e-06
000060 da 91 b8 34 88 4c d6 33 ce 73 d6 b5 50 d9 ac b5
       3.4378792e-07 9.9790725e-08 -1.5977946e-06 -1.2878245e-06
000070 d1 d1 2f 34 ad b7 39 b5 14 a2 ca 34 57 ed a9 34
       1.6374476e-07 -6.9185154e-07 3.774336e-07 3.165139e-07

conv1.mlp.6.running_mean f4 [32]
000000 c3 20 40 3e 9a 16 ca 3e 54 e6 4c 3e 7b 77 99 3e
       0.18762498 0.3947037 0.20009738 0.2997397
000010 f5 d4 b8 3e 8c c2 4c 3e bd 4e a8 3e 6f 1e 9e 3e
       0.36099973 0.19996089 0.32872573 0.30882594
000020 7c 44 c0 3e d0 4e 22 3e 80 82 66 3e 3b c2 a3 3e
       0.3755225 0.15850377 0.2251072 0.31984124
000030 09 7d 97 3e 41 71 8c 3e 88 ce 98 3e 1f 07 76 3e
       0.29587582 0.27430156 0.2984507 0.24026154
000040 0a 93 ae 3e 32 d8 92 3e db 5f 8d 3e 01 db 92 3e
       0.34096557 0.2868057 0.27612194 0.28682712
000050 22 01 7b 3e 3a 81 86 3e 8d 5a 8b 3e cc c4 0c 3e
       0.24512151 0.26270467 0.27217522 0.13746947
000060 ff 5d 84 3e 7c 02 ab 3e 2d 69 bd 3e 10 17 94 3e
       0.25852963 0.33400333 0.36994305 0.28923845
000070 f8 97 63 3e 76 12 a9 3e e2 a7 68 3e 90 31 7d 3e
       0.2222594 0.33021897 0.22720292 0.24725938

conv1.mlp.6.running_var f4 [32]
000000 39 2b 0c 3e d5 d0 75 3e e8 cb 1d 3e 5f b0 8f 3e
       0.13688363 0.24005444 0.15409815 0.28064248
000010 25 1e 83 3e 17 fc d1 3d 49 a8 35 3e 69 4f 1e 3e
       0.25608936 0.102531604 0.17739977 0.1545998
000020 ce dc 6b 3e 87 04 a6 3d c2 2d 2e 3e 07 45 27 3e
       0.23033449 0.08106332 0.17009643 0.16334926
000030 18 f3 28 3e 6d ff 36 3e e4 92 14 3e 0c 0a 39 3e
       0.16498983 0.17870875 0.1450916 0.18070239
000040 5b 6e 81 3e c2 1e 69 3e f1 2a 85 3e 4b e8 7a 3e
       0.25279507 0.2276564 0.26009324 0.24502675
000050 14 9b 12 3e a8 78 37 3e e3 79 86 3e dc 3b 84 3d
       0.1431697 0.1791712 0.26264867 0.0645673
000060 b6 15 0e 3e 78 52 37 3e 27 28 99 3e cb 86 4d 3e
       0.1387547 0.17902553 0.29913446 0.2007095
000070 a2 d2 1f 3e b9 bf 27 3e b6 5e 24 3e 2e 75 3c 3e
       0.15607694 0.1638173 0.16051754 0.18404076

conv1.mlp.8.weight f4 [32, 32]
000000 30 5f 26 be bd 69 17 3d 41 89 ec 3d 01 89 02 be
       -0.16247249 0.036966074 0.115496166 -0.12747575
000010 81 0e 07 3e 3b e2 ae 3d 89 5b b7 3d 5a 4b ce 3c
       0.13189127 0.08539244 0.08953006 0.025182415
000020 79 f9 92 3c a9 3f 09 be 81 29 2c be a6 e4 aa 3d
       0.017941223 -0.1340319 -0.16812707 0.083443925
000030 5d a6 91 3d 84 71 c5 bd 05 ec 31 3d d0 34 00 bd
       0.071118094 -0.09640792 0.043437976 -0.031300366
000040 de 96 13 be 0f 53 e9 bc 3d e9 24 be 04 73 79 bc
       -0.1441302 -0.028481988 -0.16104598 -0.015225176
000050 3a 99 37 bd 68 60 26 3e 07 6a f9 bd 64 1a ce 3d
       -0.044823863 0.16247714 -0.12178426 0.10063627
000060 a5 62 d1 3d de 60 23 bd 6b 0b 5b 3b 6c 27 08 3d
       0.10223893 -0.0398873 0.0033423554 0.03324072
000070 7e cd 2d 3e fb f4 9d bd df 47 cb 3d b9 98 6e 3c
       0.1697292 -0.07712742 0.09925818 0.014562779
000080 12 eb 11 3c 9a 14 25 bd 54 e1 1a 3e fb 57 26 be
       0.008906143 -0.04030285 0.15125018 -0.162445
000090 5e 62 ec bd 38 07 fc 3d 69 45 f7 3c 1b 1f 1d 3d
       -0.115421996 0.12306064 0.030184465 0.038359743
0000a0 14 65 f5 bd 54 65 e4 bc bf 73 07 be 13 c6 ea 3d
       -0.1198217 -0.027880348 -0.13227747 0.11463561
0000b0 62 3c 1a be 9b 5f 83 bb d5 34 c6 bd b9 7d 20 bc
       -0.15062097 -0.0040092 -0.09678046 -0.0097956
0000c0 38 d5 1a 3e e0 a7 18 be d1 4d 9e 39 2b 6c f2 bd
       0.15120399 -0.14907789 0.00030194086 -0.11837038
0000d0 19 6e 07 be 3d 49 d5 3c d2 14 b5 bd 8b 05 8e bd
       -0.13225593 0.0260359 -0.08841862 -0.06934651
0000e0 8f 7d 1d 3e 05 be e1 3d 77 b0 07 be ff 20 ca 3d
       0.15379928 0.110225715 -0.1325091 0.09869575
0000f0 73 8e b3 bd a1 13 ac bc ef 9e a8 bd 92 7b 51 bd
       -0.087674044 -0.021005454 -0.08233439 -0.051143236
000100 94 63 33 be 85 7c 0e be 79 f0 e8 bd 0a 4d a0 bd
       -0.17518455 -0.13914688 -0.113739915 -0.07827194
000110 36 d4 c8 3d 39 62 aa bd ec 65 09 3e fb 0c a3 bd
       0.09806101 -0.08319516 0.13417786 -0.0796146
000120 fb 0a 1b be 23 6e c7 3d 9c a7 a5 3c 91 cf 2a bd
       -0.15140907 0.09737804 0.020221524 -0.041701857
000130 2c d1 cd 3d aa 2b 03 3a 5f bc 28 be 82 7c 2d be
       0.10049662 0.000500376 -0.16478108 -0.16942027
000140 b8 8b fe 3d 33 36 30 be 04 5b 0a 3e 4b 36 d0 3d
       0.12428993 -0.17208175 0.13511282 0.101666056
000150 71 2d aa ba d9 61 11 3e 28 95 e9 3c 75 fe f6 bd
       -0.0012983513 0.14197482 0.028513506 -0.120602526
000160 07 f5 0b bc 1a bd e2 3d fb b8 08 3e 35 2e 74 3d
       -0.008542306 0.110712245 0.13351814 0.05961438
000170 da e7 01 3e 08 e7 57 3d 64 7a 1e 3e 85 6e d3 bd
       0.126861 0.052710563 0.15476376 -0.10323814
000180 60 5f 9a bd 06 f2 21 3d 3a 72 14 be c1 83 9a bd
       -0.075377226 0.039537452 -0.14496699 -0.07544661
000190 91 6d a3 3d c2 dd 20 bc 5c ef f3 bd 61 93 55 3d
       0.079798825 -0.009818496 -0.119108886 0.052142505
0001a0 2b d2 0f be 44 d2 7c bd c2 af 1c be 84 23 16 3e
       -0.14045016 -0.061723962 -0.15301421 0.14661986
0001b0 e8 ab 27 3e 78 96 26 3d 75 9f 06 be 68 b3 9b bd
       0.16374171 0.040670842 -0.13146766 -0.076025784
0001c0 8a 1c e7 3d 92 5c ad bd 50 1d 1a be c7 de d7 3c
       0.1128474 -0.08464922 -0.15050244 0.026351346
0001d0 22 53 bb 3d bf df 09 3e 1a ac 29 be 50 87 1d be
       0.09146716 0.13464259 -0.16569558 -0.15383649
0001e0 f0 3c be 3d 68 27 eb 3c 9b ca 34 be a5 51 88 bd
       0.09288967 0.028705314 -0.17655413 -0.066561975
0001f0 d9 b0 f7 3d 9f dd c4 3d 8b f4 00 3d 96 97 08 bd
       0.12094278 0.09612583 0.031483214 -0.03334769
000200 6c 8b 2d 3e bd ca 81 3d 5d 2d fd bd 43 b7 01 3e
       0.16947716 0.063374974 -0.12362168 0.12667565
000210 1e 32 e0 3d fd 4d 0c 3e aa 5f 6a bd 28 28 ac 3d
       0.10947059 0.13701625 -0.05722014 0.08406097
000220 03 95 b6 3d 5a 14 fc bd 96 0d 1e bd 79 de ea 3d
       0.089151405 -0.12308569 -0.038587175 0.114682145
000230 0a 1e 30 be 9b 0c 28 bd da 00 85 3c f8 c3 b6 bd
       -0.17198959 -0.041027647 0.016235758 -0.08924097
000240 c5 94 cb bc bd 57 cc bd 6a be cf 3c 02 3d 13 3c
       -0.024851212 -0.09977672 0.025359351 0.008986713
000250 a2 35 94 bd bb 7b 17 3e 1a 10 8b 3c fb ff 14 be
       -0.07236792 0.14793293 0.016975451 -0.14550774
000260 8c be 0f 3e 9d a4 84 3d 8d d4 9f 3b 31 4d a2 bd
       0.14037532 0.0647671 0.004877633 -0.07924879
000270 1b d9 39 3d 2d 4e 24 3d a2 b8 ef bd 50 fd 13 3e
       0.045373064 0.040113617 -0.11705138 0.144521
000280 c3 9e 30 be 40 68 34 3c d0 71 19 be 35 88 ba bd
       -0.17248063 0.011011183 -0.14984822 -0.09108011
000290 ad 3c 23 be 88 78 74 bd 7a a5 16 bd b6 86 9f bd
       -0.15941115 -0.05968526 -0.036778904 -0.07789366
0002a0 dd 8f df 3d a1 53 27 3d 54 da 39 3d 2b e0 81 3d
       0.109161116 0.04085124 0.04537423 0.06341585
0002b0 ec 20 7e 3d f8 8c bd bd 1f e7 44 3d 1b dd 7d 3d
       0.062043115 -0.09255403 0.048071977 0.06197844
0002c0 38 ad cb 3d ad a4 fa 3c 8d 50 89 bd 67 ab d6 bd
       0.09945148 0.030596102 -0.06704817 -0.10481911
0002d0 c4 fd dd bd 81 e6 3c bd 82 ad d7 3c 4e 54 0c be
       -0.108394176 -0.046118263 0.026327852 -0.13704035
0002e0 8a 9c 18 be 0f 33 5b bd 1f 68 bc bd 48 f3 04 bd
       -0.14903465 -0.05351549 -0.09199547 -0.032458574
0002f0 9e c3 5a 3d 2d 3f 0a be 71 a8 33 3c 7d c5 e5 bb
       0.05340921 -0.13500662 0.0109654525 -0.007012068
000300 95 20 db bd 6d 37 7c bd 94 9e c4 3c f4 95 41 3d
       -0.10699574 -0.061576296 0.024001397 0.047262147
000310 49 44 1f 3e b4 05 17 be 7d 9c 93 3d 22 6b bc 3d
       0.15553392 -0.1474827 0.07207582 0.092001215
000320 fc 15 02 3e 2f 5c 88 bd 7c eb 2e be b4 30 ac bd
       0.12703699 -0.066582076 -0.17082018 -0.08407727
000330 c9 77 c2 bc c4 40 cf b9 08 f1 0f be 01 8e 8d 3d
       -0.023738759 -0.0003953037 -0.1405679 0.06911851
000340 f1 f4 01 be a8 8e 89 bd 8e f4 2f 3e 36 bb 36 3d
       -0.12691094 -0.06716663 0.17183134 0.044612132
000350 ce 6c e9 3d 57 1d 31 be c8 30 0a 3e e4 c2 72 bd
       0.11397706 -0.17296349 0.13495171 -0.059267893
000360 f8 14 fb 3d 60 2c 2e be 2b 7e 0e bd 70 a0 04 be
       0.12259859 -0.17009115 -0.034788292 -0.12951827
000370 23 d9 04 3e 01 9b e0 3d 88 46 25 3e 10 79 e6 3d
       0.12973456 0.10967065 0.16140187 0.112535596
000380 66 d2 01 3e d7 4c 26 3e 53 94 20 be 5c b7 a3 3d
       0.12677917 0.1624025 -0.15681581 0.079939574
000390 67 9a 0e 3e da 01 b1 bd 97 62 1a be 07 ae 20 3d
       0.13926087 -0.08642931 -0.15076672 0.039228465
0003a0 24 67 07 be 6c 03 9e 3d ed 76 cf 3d a3 93 09 3c
       -0.13222939 0.077154964 0.10130105 0.008397016
0003b0 b4 c9 09 be 0f 2e 28 3e b4 fa 2a 3e 16 44 2b be
       -0.1345585 0.1642382 0.16697198 -0.16725191
0003c0 b1 77 15 be 79 52 62 bb c5 4c 1e bd 2a 87 c7 3d
       -0.1459644 -0.003453402 -0.038647432 0.097425774
0003d0 f6 1b 32 3e 9a 58 fb 3c 16 49 24 be 9f 48 8a 3d
       0.17393479 0.030681897 -0.16043505 0.067521326
0003e0 0b b6 1b 3e d0 ae 9b 3c 44 04 f4 3d e6 d1 09 3e
       0.15206163 0.019004256 0.11914876 0.13458976
0003f0 cf 44 88 3d ec c8 03 be da 54 39 3c 92 c8 73 bd
       0.06653749 -0.12869614 0.011311734 -0.05951745

conv1.mlp.8.bias f4 [32]
000000 4d 76 1d bc 18 cd fa 3d 6f c5 20 3e 4c 0b b7 bd
       -0.009610725 0.1224615 0.15700315 -0.089377016
000010 8a 8b 34 be 8d a4 17 3e 1b e7 25 3e 56 a0 2a 3e
       -0.17631355 0.14808865 0.16201441 0.16662726
000020 6e bb 27 3e 66 b5 a1 bd 0b 0b da 3c 39 0a e3 3d
       0.16380093 -0.07895927 0.026616594 0.11085934
000030 c5 3f ba 3d c2 38 b3 bd c7 fd 31 bd d5 1c 0c 3e
       0.09094194 -0.0875106 -0.04345491 0.13682874
000040 ab 97 c1 bc ef f5 b8 bd 28 79 ff bd e2 19 08 be
       -0.023631891 -0.09031283 -0.124742806 -0.13291124
000050 f2 52 0f 3d 22 76 15 3e e1 13 19 be ef 93 81 3d
       0.034991212 0.14595845 -0.1494899 0.06327044
000060 87 24 b0 3d 7c c4 01 be 55 02 ad bd 50 cc 29 be
       0.08600717 -0.12672609 -0.084477104 -0.16581845
000070 03 f3 f4 3d 5a ec 1b 3e 41 20 20 3e a7 15 78 bd
       0.11960413 0.1522688 0.15637304 -0.060567524
