GraphNeuralNet/Skim3Mu/MHc-130_MA-90_vs_nonprompt/models/ParticleNet-nNodes64_RMSprop_initLR-0p01_CyclicLR.pt (torch, 287475 bytes, 89 tensors)

gn0.weight f4 [9]
00000000: 4b99 2840 e3e3 aabd ff4a 4d40 c3a9 babf
00000010: 6813 123f b2d2 bb40 dc87 8240 0000 803f
00000020: 4a69 8940
2.6343563 -0.08344247 3.2077024 -1.4583057 0.5706086 5.8694696 4.0790844 1.0
4.2941027

gn0.bias f4 [9]
00000000: f195 f63f 7a48 f03d 2e72 9b3e 0df5 f13e
00000010: b4cd 1a3f 20a3 c43f 0826 9140 8523 6c3e
00000020: 5b3c 67bf
1.9264508 0.11732574 0.3036055 0.4725727 0.6047013 1.5362282 4.5358925 0.23060425
-0.9032647

gn0.mean_scale f4 [9]
00000000: c377 2540 0a88 7b3f ffb0 043f e179 4140
00000010: 49bc 5d3f 3a22 6a3f 157a d53f 0000 803f
00000020: 54bd dfbe
2.5854347 0.98254454 0.51832575 3.023064 0.86615425 0.91458476 1.6677881 1.0
-0.43699133

conv1.mlp.0.weight f4 [64, 18]
00000000: b923 16bf 1ffc b53e e88b aebd 741c b83e
00000010: 8d41 08bf ece7 a6bf f880 8abf 2d21 f13f
00000020: b547 3bbf 3531 f23e 0070 7bc0 874d 0e3d
00000030: 85b7 15be 586e 57be 69a1 81be 8a11 8c40
00000040: 9bb1 dabd 9709 b1bf 46ce 9740 61a9 50bf
00000050: 6a08 84c0 e261 a13e e4b5 0cbf 0327 1bbf
00000060: df22 eb3e f373 a2bd 8574 a4be 4ae9 36c0
00000070: 7246 a53f f73f 2140 d43e 3dbf e7f2 5440
00000080: cf1c 1d40 4ea6 953e 0ab0 fa3d 8681 7d40
00000090: a585 0740 c12b 58bf 0f7a 5ebf b779 c7be
000000a0: 9aac 1bbf 8687 1440 5291 20c0 f9a7 2bbf
000000b0: 9978 83c0 c7e8 6ec0 a994 b23f 3641 3b3f
000000c0: a596 b33e 6bc0 d13f 4841 5cc0 1bc8 ef3f
000000d0: e242 f5bd 1960 963f 63d9 77c0 d24c aa3b
000000e0: 4356 3d3f a7e9 c23f ea8d 10bf 0333 63c0
000000f0: bc1b 14c0 f5d1 55bf f8a1 7d40 aea1 8f40
00000100: 6e12 f6bf 9251 54bf 5f04 f93e b4af 8ebe
00000110: c329 9e3f c0e3 603f 7d46 0dbe a3fe 3bc0
00000120: e314 2140 a48c 9dbf ad33 b5bf 1bfa 3bc0
00000130: 8640 88bf 40f0 dbbf 28dd 903f 36b6 4940
00000140: 104f d8bf a825 82c0 c909 06c0 2c0f b43e
00000150: 5748 4d3f 2b53 0940 2871 9c3e a1db 55c0
00000160: 8a28 00be 1900 063f 5441 883e 299f e8be
00000170: 33c7 2341 104f 5d3f e660 eb3e 6435 9d3f
00000180: 0bcd e5be 2642 05c0 db03 a6bf 0cc9 633f
00000190: 6503 693e 13f7 85bf bfc0 02bf 5aab 803f
000001a0: a88c 4cbf b91a 8abd 07f0 883d 408e 5b40
000001b0: 9d95 49be 5f28 ae40 9cf3 6ac0 0957 813f
000001c0: 40c4 edbf 501b 4bbe ee80 9e3f e52f 013f
000001d0: 0692 88be 1a79 0c40 4f5c 3c3f cb59 8b40
000001e0: 2975 ed3d 812b 3b40 136c 3fc0 b131 933f
000001f0: d6d2 4ebe afef c33f 8a75 f03f be37 0b40
00000200: 62ea 2a40 447e 9c3f 7087 d3bf 30fe 22bf
00000210: 93d9 8040 e0e0 7b3f 9442 b6bc 2de0 08c0
00000220: aa46 8dbf 32a1 ccbf 4446 02bf 3675 6940
00000230: 7270 47bf 1076 14c0 28c1 8b3d b1f2 563f
00000240: 3fa0 2cc0 eda7 1bc0 70ff ea3e 701c 5bbf
00000250: b91e 103e 6226 be3f 9c25 b83e 21b2 6d40
00000260: 6370 fc3f c805 3b40 e437 e1bf 2b1d 9e40
00000270: 35cb 233f 9f4d 243f 4052 05bf 46a1 aa3f
00000280: b007 b43d e8de 19be 73bd 953e 45f1 e5c0
00000290: 3791 c2bf c67e 9bbf 5f5b b93e b2fd 11c0
000002a0: 665d e73e 6aaa fc3f f07d 80c0 71c4 cf3f
000002b0: 67ec fc3f 5851 adbf b09f b7bf a82d 5f40
000002c0: 7031 0040 8b68 4d40 a6a8 1b3d 684e ed3f
000002d0: 6ba0 0c3f 4a4e 993f 18e0 893f d773 d5bd
000002e0: 103e 86bf b623 e53f 856a db3d 7f58 03c0
000002f0: 8c04 d9bd bc56 e4bf 9cec 233e 5829 d2bf
00000300: 0e8b dd3f ef55 ae3f dadd 26c0 e771 acbe
00000310: 75c1 22be 05c2 6dbe 23aa b0be 9bda f8bf
00000320: 084f 94be 2cf7 5d3e bcd7 d3bd 9288 5f40
00000330: 0df7 cebf 245a 0d3f 2f9d 00c0 7ade 7ebf
00000340: fbff df3e f9b1 01bf 96ff 12bf 0101 c0bf
00000350: 9ce1 4fbf 4b78 a83e 75ef 8b3d 43a3 2b3f
00000360: e86a 3cbf 8f90 2a40 d673 143f 9530 833f
00000370: 9438 18bf 0e07 2640 b4a1 84bf dd5c bc3f
00000380: f896 89bf 09e2 24bf 2ca6 a03f e956 aebe
00000390: 18bc 543f d5d6 b7be 4944 0ac0 db7a dcbf
000003a0: 9210 413e 32f3 083f b720 433e f0b6 dc3d
000003b0: f84e 803f 8f80 a0be 8258 223f 83df 6a3f
000003c0: 19eb d9bf 2859 063f 9863 e03e 7fdf b2bf
000003d0: 4bbe 89be acd4 cdbf 19b7 3a3e f939 e93e
000003e0: 2e26 5d40 cded 04bf 0a50 33be 4d9f 0c3f
000003f0: 1879 c83f 2082 b23f cf7c 85bf 4213 8bc0
-0.5864826 0.35543916 -0.08522779 0.35959208 -0.5322502 -1.3039527 -1.0820608 1.883825
-0.7315629 0.47303167 -3.928711 0.034741905 -0.14620788 -0.21038187 -0.2531846 4.377141
-0.10678407 -1.3831052 4.74393 -0.8150845 -4.126027 0.3151999 -0.54965043 -0.606064
0.45925042 -0.07932272 -0.32120147 -2.8579888 1.2912123 2.519529 -0.73923993 3.3273256
2.4548833 0.29228443 0.12240608 3.9610305 2.117532 -0.84441763 -0.86904997 -0.3896005
-0.60810244 2.3207717 -2.5088696 -0.6705318 -4.1084714 -3.7329576 1.3951617 0.7314638
0.3507587 1.6386846 -3.4414845 1.8732942 -0.119756475 1.1748077 -3.8726432 0.005197146
0.7395975 1.5227555 -0.56466544 -3.5499885 -2.3141928 -0.83523494 3.9630108 4.4884863
-1.9224374 -0.82936966 0.48636147 -0.27868426 1.2356495 0.8784752 -0.1379642 -2.9374168
2.5168998 -1.2308545 -1.4156395 -2.9371402 -1.0644691 -1.7182693 1.1317492 3.1517463
-1.6899128 -4.0670967 -2.0943472 0.35167825 0.80188507 2.1457012 0.3055508 -3.34153
-0.12515464 0.523439 0.2661234 -0.4543393 10.236133 0.86448765 0.45972365 1.2281919
-0.44882998 -2.0821624 -1.2969927 0.8897865 0.22755201 -1.0466026 -0.5107536 1.0052292
-0.79902124 -0.06743378 0.066864066 3.4305573 -0.19685979 5.442428 -3.6711187 1.0104686
-1.8575516 -0.19834638 1.2383096 0.50463706 -0.26673907 2.1948915 0.7357835 4.354711
0.11594612 2.9245303 -2.9909713 1.149954 -0.20197615 1.5307521 1.878587 2.1752772
2.6705556 1.2226033 -1.6525707 -0.6366911 4.0265594 0.98390007 -0.022248544 -2.1386826
-1.103719 -1.5986693 -0.50888467 3.647779 -0.7790595 -2.319706 0.06823951 0.8396407
-2.6972806 -2.4321244 0.45898008 -0.8559027 0.1407422 1.4855464 0.35966194 3.7139971
1.9721798 2.9222279 -1.7595181 4.9410605 0.63981944 0.6418094 -0.5207863 1.3330467
0.08790529 -0.15026438 0.292461 -7.185702 -1.5200566 -1.2148063 0.36202523 -2.2811093
0.45188445 1.9739506 -4.015373 1.6231824 1.9759644 -1.3540449 -1.4345608 3.4871616
2.0030174 3.2095058 0.038002633 1.8539553 0.5493228 1.1977017 1.0771513 -0.10422485
-1.048769 1.7901523 0.10713676 -2.0522764 -0.105965704 -1.7838969 0.16008228 -1.6418867
1.7308061 1.3619975 -2.6072907 -0.3368065 -0.1589411 -0.23218544 -0.34504804 -1.9441713
-0.28966546 0.2167632 -0.103438824 3.4927106 -1.6169144 0.5521567 -2.0095937 -0.9955822
0.43749985 -0.5066219 -0.57421243 -1.5000306 -0.8120363 0.32904276 0.06832782 0.6704599
-0.73600626 2.6650732 0.5798925 1.0249201 -0.5946133 2.5941806 -1.0361848 1.471584
-1.0749197 -0.644074 1.2550712 -0.34050682 0.8309951 -0.3590609 -2.1604178 -1.7224993
0.18853977 0.53496087 0.19055448 0.1077708 1.0024099 -0.31348082 0.634163 0.917473
-1.7024871 0.5247979 0.43825984 -1.3974456 -0.26902995 -1.6080527 0.18233909 0.45552042
3.4554553 -0.51925355 -0.17511001 0.54930574 1.5661955 1.3945961 -1.0428714 -4.346101

conv1.mlp.0.bias f4 [64]
00000000: af91 163e fd73 0d3f 75b7 18c0 72d2 0d3d
00000010: 6c48 2ac0 5db1 3e3f 9f51 cc3f 78a1 9e3f
00000020: 405f a33e 80f3 e6bf ef90 33be e1e4 c7bf
00000030: 8fc7 56c0 6bd1 7f3f b4d8 67c0 a75f de3e
00000040: bd55 c1bf a073 9dbf 97f6 2bc0 c377 8040
00000050: cfc0 2bc0 d213 fabf 48d0 f5bf 8b69 25c0
00000060: 6af5 12c0 39ed 85bf 45f6 cebf 0f34 8e40
00000070: 800d c03f 06a3 8bc0 acf4 16c0 36e5 9c3f
00000080: 2928 fcbf 962d bdbe 21a9 9cbf 4286 c2bf
00000090: 8437 f03e 1089 253e 0c39 4f40 45cf 46bf
000000a0: 5ca7 13c0 bad7 07c0 27ca e6be a159 d9bf
000000b0: 981d 393f bcc8 efbf 0c8b 2bbe f9f8 c3be
000000c0: 5fa5 3ac0 2713 89c0 85fb 5ac0 1a04 63bf
000000d0: 1251 0dc0 5185 833f 9821 3bc0 4853 7dbf
000000e0: 7b7a cd3f 64bf 04c0 fa23 c9bf e377 28bf
000000f0: a1f7 3ac0 8ad1 0fc0 3bf9 6fc0 dfc7 c83e
0.14704011 0.5525511 -2.3861973 0.034624524 -2.6606703 0.74489385 1.5962409 1.2393026
0.31908607 -1.804306 -0.17535757 -1.5616723 -3.35593 0.9992892 -3.6226015 0.43432352
-1.510429 -1.2300911 -2.6869256 4.0146194 -2.683643 -1.9537299 -1.9204187 -2.5845668
-2.296229 -1.046302 -1.6168905 4.443855 1.500412 -4.3636503 -2.3586836 1.225745
-1.9699756 -0.36948842 -1.2239114 -1.5197222 0.46917355 0.16165566 3.2378569 -0.7766002
-2.3070898 -2.122542 -0.45076105 -1.6980478 0.7231078 -1.8733134 -0.16752261 -0.3827589
-2.9163435 -4.283588 -3.4216015 -0.88678133 -2.2080731 1.027506 -2.9239254 -0.989552
1.6053003 -2.0741816 -1.5714104 -0.6580793 -2.921364 -2.2471642 -3.7495868 0.3921499

conv1.mlp.2.weight f4 [64]
00000000: e357 6bbf 2ad6 4640 3f00 9640 d5c4 d040
00000010: c6c2 5440 b5db 6c40 7c84 9840 3db7 ff3f
00000020: d112 fe3e f677 2240 9428 8dbe dad0 c8be
00000030: 0170 75bf 88fb 4fbe 4192 6440 d1dc d740
00000040: 2447 803f 6602 5440 deb1 7640 98ac e73f
00000050: 8808 b240 8407 af40 f824 c63f 64b7 c940
00000060: 22cd 6140 f71c 1c40 e16a 0840 3e1a 643f
00000070: c6cf 943f b994 a63f c1b8 4a40 666c f73f
00000080: e3ad 5840 9704 8940 dfac 6b3e e713 a640
00000090: 2a7c 83bf caa3 3440 d5f3 8840 eb3f 0f40
000000a0: 97f4 3e40 d806 5440 d337 ba40 6a1f e23f
000000b0: a511 a33f 4078 7740 58c9 8f3f 4b5d 2ebf
000000c0: 614b 5440 8b22 a840 6a95 0640 d5e1 943f
000000d0: ed68 b73f 9aa8 a6be 4d92 9b40 24a6 a940
000000e0: 3119 ac40 b383 08c0 f2d7 f63f 963f 1f40
000000f0: 83af ad40 9d28 8940 195d df3f 2705 3240
-0.9193098 3.1068215 4.68753 6.5240273 3.324388 3.7009099 4.7661724 1.9977795
0.4962373 2.5385718 -0.2757002 -0.3922184 -0.9587403 -0.20310795 3.5714266 6.745705
1.002171 3.3126464 3.8546062 1.8099546 5.5635414 5.4696674 1.5480032 6.3036366
3.5281453 2.4392679 2.1315234 0.8910254 1.1625907 1.3014137 3.1675265 1.9329956
3.3856132 4.2818103 0.23015164 5.1899295 -1.0272267 2.822497 4.2797647 2.2382762
2.9836786 3.3129177 5.8193145 1.7665837 1.273976 3.8667145 1.123332 -0.68111104
3.3171008 5.2542167 2.1028695 1.1631418 1.4328896 -0.32550508 4.861609 5.301531
5.378075 -2.1330383 1.9284651 2.488256 5.427675 4.2862077 1.7450286 2.7815645

conv1.mlp.2.bias f4 [64]
00000000: 1d7a 0cbf 4a6d ef3f 7391 05bf 2986 b2be
00000010: 099e 163f fa0a 8f3f 2f0c 313d 2cd9 583f
00000020: 568e 90be 17f7 21bf 39fa ab3e ae8e 27bf
00000030: 762d d03f ee1b 213f 22d3 d3be 8f1d 9b3f
00000040: 92f6 923f 4278 42bf 061d 71c0 d335 babe
00000050: 2d2c 0d40 12ea ac3f 9e24 35be d445 47bf
00000060: 5335 aebf b4de 9dbd 73e3 3940 0779 dabf
00000070: 2305 a63f 40e4 e93f 6fcc c63f 6d93 b9bf
00000080: c2a8 8f3f e28d 603e 81a1 45c0 17c2 0740
00000090: 77bd 19bf 7568 f93f e307 aa3f d926 5e40
000000a0: 3156 ecbb 2006 b6bb f874 bc3e b61b ebbe
000000b0: 1f52 e7bf 5169 f33c ef1e 3240 7e49 f5bf
000000c0: 1eea 9e3f e0f2 8dbf 777e 66bf 8849 c8be
000000d0: 5296 eebe e4b0 a73f 31c5 473f beaa 30c0
000000e0: ba7a df3e 0fb8 e8be 85fb e33f 65d7 6ebe
000000f0: f6a2 6ebe 646b 79bf 624e 0240 bcc5 13c0
-0.5487383 1.8705227 -0.5217506 -0.3486798 0.5883489 1.1175225 0.04322451 0.8470638
-0.28233594 -0.63267654 0.33589342 -0.65452087 1.6263874 0.6293324 -0.4137202 1.2118396
1.1481497 -0.7596475 -3.7673965 -0.3636919 2.2058213 1.3508933 -0.1768975 -0.77840924
-1.3610023 -0.07708493 2.9045074 -1.7068185 1.2970318 1.8272781 1.5531138 -1.4498116
1.1223376 0.21929124 -3.0879824 2.1212213 -0.60054725 1.9485003 1.3283657 3.471121
-0.0072124233 -0.0055549294 0.3680799 -0.4591958 -1.8071936 0.029713305 2.783138 -1.9163053
1.2415197 -1.1089745 -0.9003672 -0.391186 -0.4659906 1.3100858 0.78035265 -2.7604213
0.4364832 -0.45452926 1.7811133 -0.23324354 -0.23304352 -0.9742949 2.036034 -2.3089437

conv1.mlp.2.running_mean f4 [64]
00000000: 9c68 0c41 79e3 6641 2d62 3741 cbe1 5541
00000010: 1c8c 1f41 56f7 6941 0790 7941 612e 9241
00000020: 25b3 8b41 2670 9440 0731 5341 4d7c 0a41
00000030: da10 1a41 bc0b 2341 5c06 f840 303a 4d41
00000040: 2fde 9441 142f dd40 d765 1241 16b0 ad41
00000050: e949 0741 a829 dc40 df0e ac41 890c 4e41
00000060: 44d3 1b41 4dad ad41 9a54 8641 dd49 6141
00000070: d229 9a41 e14a 3241 8467 2e41 1c08 8b41
00000080: a128 4940 b26b 8841 63bf 6f40 86d2 2b41
00000090: b6aa 2141 aff2 5341 cc40 0242 b957 af41
000000a0: 59da 8941 c525 c340 1814 3341 1ce7 2141
000000b0: 53e4 2e41 7dfe 2d41 8f5e aa41 bd75 6341
000000c0: 760c 8041 d5d9 f440 ac23 9d41 5d2e 9c41
000000d0: 5b26 9041 d6ff 4641 e348 1040 fcd0 0b41
000000e0: 42a2 4a41 be89 8f41 a79e 3e40 765b 0a41
000000f0: ae64 1c41 0eb3 f140 4d6a 3c41 e742 3041
8.775539 14.430535 11.461469 13.367625 9.971706 14.622885 15.597663 18.272646
17.462473 4.63869 13.19947 8.655347 9.629114 10.190365 7.7507763 12.826706
18.608488 6.911997 9.149863 21.71098 8.455544 6.880085 21.507261 12.87806
9.7390785 21.70962 16.79131 14.080533 19.27042 11.143281 10.900272 17.37896
3.1431048 17.052586 3.7460563 10.738897 10.104177 13.246749 32.56328 21.917833
17.231615 6.0983605 11.192406 10.118923 10.930743 10.874631 21.296171 14.216245
16.006084 7.651591 19.642418 19.522638 18.018728 12.43746 2.2544487 8.738522
12.664614 17.942257 2.9784334 8.647329 9.77458 7.5531073 11.775952 11.016334

conv1.mlp.2.running_var f4 [64]
00000000: 9f2b 5943 74dd 0444 94c0 2044 6d9b ad43
00000010: 1f37 7a43 8e26 f643 e9c9 e943 a505 0544
00000020: 0233 da43 6b2f ac42 2fe1 1144 e27a b843
00000030: 927f d843 924b b743 2075 5543 13a7 e443
00000040: 7632 3c44 6156 0243 3e69 5843 5f53 0344
00000050: 08ea 8e43 f3b2 d342 6867 1f44 2a29 ce43
00000060: dbbb 6643 9211 8f44 a238 0144 5981 b443
00000070: ec83 ac43 acaa 1b44 af12 b543 4047 9743
00000080: 6642 9d42 1720 0c44 0520 3442 d72d b243
00000090: 47c2 5743 9b69 bd43 4e1b a744 1a33 7244
000000a0: d4cd af44 c95c ff42 83e2 3743 9ebd 8943
000000b0: a933 7e43 f528 ba43 80ea c644 204e df43
000000c0: 6df1 9044 6931 3b43 712d 5c44 bd1a b444
000000d0: c052 1944 7de0 9343 caff 4242 8773 1043
000000e0: 45f9 8443 05a4 8944 f6c1 8542 c448 5343
000000f0: 2dbc 1243 7c30 4443 7789 9e43 2b73 9043
217.1704 531.4602 643.00903 347.21426 250.21532 492.3012 467.57742 532.0882
436.3985 86.09261 583.5185 368.96002 432.99664 366.5904 213.45752 457.30527
752.78845 130.33742 216.4111 525.3027 285.82837 105.84951 637.6157 412.3216
230.73381 1144.5491 516.8849 361.01053 345.03064 622.66675 362.14597 302.55664
78.629684 560.5014 45.03127 356.35812 215.7589 378.82504 1336.8533 968.79846
1406.4321 127.68122 183.88481 275.48138 254.2018 372.31998 1591.3281 446.61035
1159.5446 187.19301 880.71 1440.8356 613.29297 295.7538 48.749794 144.45128
265.94742 1101.1256 66.87883 211.28424 146.73506 196.18939 317.07394 288.89975

conv1.mlp.4.weight f4 [64, 64]
00000000: b5ac d1bf 05ed 253f 75de ee3f 3004 823f
00000010: e390 f83c 3585 97bf 0a2b 513e 1e37 0e3e
00000020: ebab 183d 6a5e bfbe 6c41 633e 8f65 283f
00000030: 43dd c13f fe09 a5bf 96cb ef3f 0e6d 73bf
00000040: 9972 18c0 0435 b6bf 961d 08bf f785 123f
00000050: dff2 45c0 1e50 16c0 d5e8 0040 1fd7 8bc0
00000060: 7075 69bf 54e7 823f 7b37 1040 0e52 c13e
00000070: ee6b 5c3f 36cd 06bf f663 cbbf 66a0 e0bd
00000080: d6e3 0840 f182 97c0 8b4c 4d3e a4cf 1f40
00000090: 6c62 e5be c239 e53f 393f 88c0 5fa0 273f
000000a0: c065 7ebe 907c a93f 467b 56c0 5f27 713e
000000b0: 85cc 2abf a617 8dbf 89a2 c13f d252 12c0
000000c0: 5097 0e3e eea4 fe3f b24f 91bf 86d5 d03f
000000d0: 0e33 d7bc b16a 6f3e 9958 103f 1462 50bf
000000e0: e844 bbbf 97b5 543f e8ce 953f b8fd a53f
000000f0: b1eb 2ec0 f0a4 1240 3cd9 283d f5e8 403e
00000100: a390 5b3e 8606 ad3c 3f2c 173f 312d 2040
00000110: d41a 17c0 add6 d0bf d350 66c0 da71 51c0
00000120: bebe a2bf aeb9 ca3f c9b8 523f 3721 833f
00000130: 22a8 fcbb 005b 0dbf ff69 27c0 bdb3 3c3f
00000140: 8dd4 36bf ed3d b03f 34a1 d63f 1e55 0bc0
00000150: 3ce8 11bf 9d42 f03f e5bc c3be d520 133f
00000160: 46e7 1240 d4fe 22c0 278c d73f 9fb4 213f
00000170: f647 c23f 4611 e73f 163b 09c0 730e 2c3f
00000180: 8550 48c0 4c8d eebf 7155 30bf e69e 06c0
00000190: 5f0f 1b3e 8253 92bf 6c6b 98c0 e7be 5cc0
000001a0: 3ba8 4cc0 a1f7 babf ba25 4340 ea0d e2bf
000001b0: 4f3e 6d3f 07a9 17c0 87fd a43f db05 bcbf
000001c0: e2f3 873e deb8 afc0 cea1 34c0 2f40 4bc0
000001d0: f204 5cc0 3447 c1bc 925f c03e d79a f340
000001e0: ad82 1140 f527 cc3e 6e59 7ebf 6c7d 6bc0
000001f0: 9dd1 2340 5a0a 25c0 6bec 63c0 18dc 79be
00000200: b23d 163f d010 863f b7c4 89bf 60bb 7e40
00000210: 8d18 cdbf 9b45 39c0 06d9 54c0 39f1 07c0
00000220: 1c62 e43f 46cd 70c0 1c84 993f 21f8 ccbc
00000230: eda8 15c0 a50e 6bc0 5bd1 8f3f a5dd e2bf
00000240: 82f4 b4bf 407b ba3f 0e7a 1a40 a832 6f3f
00000250: 7fff 1cc0 2a14 b33f 145b 8340 84e4 9fbf
00000260: 6e65 a640 5a40 f2bf e3ea 96bf ca9d 1d40
00000270: 09e0 e83f 04e3 0fc0 279d 95c0 a08a 7d40
00000280: 5489 993f e000 f83f a2ee 0fc0 7456 96bf
00000290: f6f2 6a40 6b6e 25c0 04e3 e1bf d251 14c0
000002a0: 7d45 e4bf 7631 e9bf b706 a03f 1d4e 8e3e
000002b0: a414 8040 dbfe b1be 8b72 213e 9e5e f73f
000002c0: 93af a0bf eba4 d6bf 8733 1fbe e52c 81bf
000002d0: 7f03 923f c453 1240 6436 4140 912f 7b40
000002e0: 448c 2240 2f59 86bf 7b47 4fc0 1b77 f2bf
000002f0: 08bb 0540 2a75 b6be 338a ffbe 3f0c c7be
00000300: 58df 91be df5d 22c0 0d0b 42c0 584a b73f
00000310: d7e5 80c0 5d17 03c0 be82 f0bf 7e78 e73f
00000320: 348a 07bf b67d 00c0 4140 80bd 113b f0bf
00000330: 55e8 13bc 5ee4 2c40 4c2e 1b3d 746c 9fbf
00000340: 78cf d7be 2b5d b83f a802 9540 3f49 f0bf
00000350: b5ce cdbf c13b 523f 7fc9 24bf cd06 44bf
00000360: 708b 683e f6ff 91bf da27 b83f 7b71 4b3f
00000370: dce9 803f 52da dd3e 24e8 b1bf e0bd 39be
00000380: 3f32 cc3f acdb 32c0 b3fa eabf ef54 54bf
00000390: 70d6 ae3f 11b9 16c0 d81e 10c0 4409 7dbf
000003a0: f4ad f4bf e01e 85c0 fb26 3d3f fb6a d23f
000003b0: c3a9 03bf 9066 34c0 9cf3 b0bc cb86 f8bf
000003c0: 7f89 e3bf 281d 113f 8ad0 3cc0 c0ea 8bbf
000003d0: a608 f9bf 9dae bd3e ba54 93c0 de4a 3240
000003e0: 9e4a c8bf bafd 5ebe 9fbc d03e 6c13 83bf
000003f0: b7c4 3a3d 9c77 b3bf cab9 14c0 719d a2bf
-1.6380831 0.6481479 1.8661638 1.0157528 0.030342525 -1.1837527 0.20426574 0.13888213
0.03727333 -0.3737672 0.22192925 0.65779966 1.5145649 -1.2893674 1.8734004 -0.9508828
-2.3819945 -1.4234929 -0.53170145 0.57235664 -3.0929487 -2.34864 2.014211 -4.37001
-0.9119482 1.0226846 2.2533863 0.37757915 0.8610219 -0.5265688 -1.5889881 -0.109680936
2.138906 -4.734734 0.2004873 2.4970484 -0.44801652 1.7908251 -4.2577176 0.6547908
-0.24843502 1.3241138 -3.351274 0.23550175 -0.6671832 -1.1022842 1.5127727 -2.286305
0.13924909 1.9894083 -1.1352446 1.6315162 -0.026269462 0.23380543 0.5638519 -0.81399655
-1.4630404 0.83089584 1.1703768 1.2968054 -2.7331355 2.291317 0.041222796 0.18838866
0.21441893 0.021121275 0.5905189 2.5027583 -2.3610125 -1.6315514 -3.598683 -3.272574
-1.271446 1.5837915 0.8231321 1.0244511 -0.0077104727 -0.5521698 -2.6158445 0.7371176
-0.71418077 1.3768898 1.6767945 -2.1770701 -0.56994987 1.8770329 -0.38230053 0.5747197
2.2953658 -2.5468035 1.6839646 0.6316623 1.5178211 1.8052146 -2.1442313 0.6720955
-3.1299145 -1.863687 -0.68880373 -2.1034484 0.15142582 -1.1431735 -4.763113 -3.4491518
-3.197768 -1.460682 3.0491776 -1.7660496 0.926732 -2.3696916 1.288987 -1.4689287
0.26553255 -5.491317 -2.8223758 -3.1757925 -3.4378018 -0.023593523 0.37572914 7.6126513
2.2736008 0.39874235 -0.9935521 -3.6795301 2.5596688 -2.5787568 -3.5613048 -0.24400365
0.5868789 1.0473881 -1.0763158 3.9801865 -1.6023117 -2.8948734 -3.325746 -2.124098
1.7842441 -3.762529 1.1993442 -0.02502066 -2.3384354 -3.6727688 1.1235765 -1.772389
-1.4137118 1.4568863 2.4136996 0.9343667 -2.4530942 1.3990529 4.104868 -1.2491612
5.1998816 -1.8925889 -1.1790432 2.4627557 1.819337 -2.248231 -4.6754336 3.961586
1.1995034 1.9375267 -2.24894 -1.1745133 3.6710792 -2.5848644 -1.7647405 -2.317494
-1.7833706 -1.8218219 1.2502049 0.2779397 4.0025196 -0.34764752 0.15766351 1.932575
-1.2553581 -1.6769079 -0.15547 -1.0091826 1.1407317 2.2863626 3.0189447 3.9247782
2.5398111 -1.0495967 -3.2387378 -1.8942598 2.0895405 -0.35636264 -0.49910125 -0.3887653
-0.2849071 -2.5369794 -3.0319245 1.4319563 -4.0280566 -2.048301 -1.8789899 1.8083646
-0.52945256 -2.0076728 -0.062622555 -1.8768026 -0.00902756 2.7014384 0.03788595 -1.2454972
-0.42150474 1.4403433 4.6565742 -1.8772353 -1.6078707 0.8212243 -0.6436996 -0.7657288
0.22709441 -1.1406238 1.4387162 0.7947003 1.0071368 0.43330628 -1.3898969 -0.18138838
1.5952834 -2.7946577 -1.8357757 -0.829421 1.3659191 -2.3550456 -2.2518826 -0.98842263
-1.9115586 -4.160019 0.73887604 1.6438898 -0.5143091 -2.81876 -0.021600537 -1.9416136
-1.7776335 0.56685114 -2.9502282 -1.0931015 -1.9455764 0.37047282 -4.6040926 2.7858195
-1.5647771 -0.21776477 0.40768906 -1.0240302 0.04559776 -1.4020877 -2.3238397 -1.2704297

conv1.mlp.4.bias f4 [64]
00000000: 0e03 703f 20e5 0e40 5981 c5bf 5992 dd3f
00000010: e648 3cbf 4b70 babe 5ffc 933f 675e 90be
00000020: 9586 fdbd 768d 1340 1ecf 12c0 269a 0940
00000030: 419e 92bf d7cc 85bf 789f 443f 3ae1 1ac0
00000040: 7b80 d43e a861 3ebf f337 cc3d 4fca c93f
00000050: a27b fbbe 7a29 d23f 22b5 483e 08c6 d1be
00000060: d018 0bc0 aab4 9ebe 614b 4ebf 986d d4bf
00000070: 5b6d 62bd c1fe 353d 38da 983e c6fa 0b3f
00000080: 1e72 a5bf 07dc acbd 5c1b b3bf 0fe9 09bf
00000090: cec5 b3bf d200 493e a426 ba3d 1ef5 babf
000000a0: 5c74 3040 df2a f7bf e8c4 803f 12f6 f03f
000000b0: 776a c2be cb89 1bc0 cdc5 af3e 9408 933f
000000c0: 5076 0cc0 20d9 90bf 4971 99c0 e190 ee3f
000000d0: 20d7 87be 308f ba3e 9fbd 3a3e b285 42c0
000000e0: 5f22 1bbf b8fa 16c0 698b c33f 29c0 29be
000000f0: 3943 55c0 7915 15c0 1f3d c2bd b3f5 053e
0.9375466 2.2327347 -1.5430099 1.7310287 -0.73548734 -0.36413798 1.1561393 -0.28197023
-0.12379185 2.305509 -2.2938914 2.1500335 -1.1454545 -1.0453137 0.7680583 -2.4199967
0.41504273 -0.7436776 0.09971609 1.5764865 -0.49117762 1.6418908 0.19600347 -0.40971398
-2.1733894 -0.3099721 -0.8058377 -1.6595945 -0.05528007 0.044432405 0.29853988 0.54679525
-1.2925451 -0.084404044 -1.3992724 -0.53871244 -1.404474 0.19629219 0.09089401 -1.4606054
2.757102 -1.9309958 1.0060091 1.8825095 -0.3797185 -2.4302852 0.34330598 1.1486993
-2.1947212 -1.1316261 -4.7950788 1.8637964 -0.26531315 0.36437368 0.18236397 -3.03941
-0.6059932 -2.3590527 1.527692 -0.1657721 -3.332228 -2.3294356 -0.09484314 0.13082008

conv1.mlp.6.weight f4 [64]
00000000: 69ce 4240 98e9 9b40 4e0e 5740 65b1 de3f
00000010: a116 2e40 1086 9140 fec6 ba3f 142b 8240
00000020: a8f2 423e e802 b240 37c0 c240 081b 9c40
00000030: 3e9f 8340 51bb b740 283b 7240 4ea9 1c40
00000040: d64c 8b40 3e12 8d40 3290 8e40 0e48 9340
00000050: 0f7f a5bf 46b4 463f d0e7 843f 93ed 5b3f
00000060: c351 0940 813a 8a3f 9524 ca40 030a 573f
00000070: 7f9c 8240 f68f 873c 07bb 6340 04ee f9be
00000080: 1680 aabf bcce 5f40 c0d9 cc3f 84cb c83f
00000090: a66f 4340 27c4 5040 e7d9 6840 70aa 4140
000000a0: 8c10 c040 8b13 9040 777a 9f40 5347 a5bf
000000b0: be31 55bf 942e 2840 a16d ae3f f141 bb3f
000000c0: f741 7a3f 6ac2 8a40 dd98 2d40 883a 4640
000000d0: f18a d63f 1e4a 7240 0424 e93c 99c4 993f
000000e0: bb42 af3f 9326 c140 9149 943f 1011 2a3f
000000f0: 9a78 8340 042f a940 3006 e23f 1d67 0f40
3.0438483 4.872265 3.360248 1.7397887 2.7201312 4.547615 1.4591978 4.0677586
0.19037879 5.562855 6.0859637 4.8782997 4.1131887 5.741616 3.7848606 2.4478335
4.3531294 4.408477 4.455102 4.6025457 -1.29294 0.77618825 1.0383244 0.85909384
2.1456153 1.0799104 6.3169656 0.8399965 4.0816035 0.016548138 3.5582902 -0.48814404
-1.3320339 3.496993 1.6003952 1.5687108 3.0536895 3.2619722 3.6382997 3.0260277
6.00202 4.5023856 4.9836993 -1.2912391 -0.83279026 2.627843 1.3627206 1.4629499
0.97756904 4.336232 2.712455 3.0973225 1.6761152 3.7857738 0.028459556 1.2013122
1.369224 6.035959 1.1584951 0.66432285 4.108472 5.286989 1.7658138 2.2406685

conv1.mlp.6.bias f4 [64]
00000000: b5e2 89bf a164 31c0 be55 88be bbd8 8440
00000010: a36f a13f 8dc1 91c0 4525 41c0 00f3 3e3f
00000020: 8b57 2cc0 44bb dfbe 21bc 983f 46f8 0940
00000030: 98f3 86be 7a87 4bc0 7e28 51bf 410f a9bf
00000040: b863 81bd 7e12 f5bd badb 8cbf 2510 0ac0
00000050: cf0f 37c0 7ca8 bb3f 63dd e83f 001d a340
00000060: 4d86 903e 4cb6 f43f 2676 d83e 18f5 51bd
00000070: 7fca 3ebf 012e ccbe e86c b4bf 1718 f83f
00000080: 480c 96bf 5a76 7fbf 57d9 9cbf 8c36 e83d
00000090: f7d9 de3f f473 233f bd72 bebf be84 1f40
000000a0: eeb6 7abf 8acd 2f40 f2ca f23f 9190 8340
000000b0: 96a2 b3bf 1270 783f d340 c43f 6c25 bcbe
000000c0: 49aa af3f 085c 9e3d 794d 7140 e046 23bf
000000d0: 2ac2 e5bf 1f3a 72be 5009 0740 d40b 6ac0
000000e0: 2a29 2cbf cda8 053e ab25 a5bf a1b3 adbf
000000f0: 872e 0040 b6eb 1740 f7e6 dc3e b377 533f
-1.077231 -2.771767 -0.26627916 4.1514564 1.2612194 -4.554877 -3.0178998 0.7458954
-2.6928432 -0.4369756 1.1932412 2.1557784 -0.26357722 -3.1801438 -0.8170241 -1.320778
-0.06317848 -0.11966418 -1.1004555 -2.1572354 -2.8603399 1.4660792 1.8192562 5.09729
0.28227463 1.9118133 0.4227764 -0.05125913 -0.74527735 -0.39878848 -1.4095736 1.9382352
-1.1722498 -0.99789965 -1.2253827 0.11338529 1.7410268 0.63848805 -1.4878765 2.492477
-0.9793538 2.74692 1.8968184 4.1113973 -1.4033992 0.97046006 1.5332283 -0.367473
1.3723842 0.07732397 3.7703536 -0.6378002 -1.7949879 -0.23654984 2.1099434 -3.656972
-0.6725031 0.13052674 -1.290212 -1.3570443 2.0028398 2.3737617 0.43144962 0.8260452

conv1.mlp.6.running_mean f4 [64]
00000000: eaa7 3642 1b5f 5a42 d5e1 e441 d223 0742
00000010: f8ee 3142 1da1 1a42 e4bf df41 c774 6542
00000020: 90b5 3242 e5d7 9f42 ea7e f841 d675 9b42
00000030: d827 7241 1a22 0342 90b3 4142 c444 4242
00000040: 6e97 3142 390f bb41 2d2b 1042 0b9e 8142
00000050: d47c b741 7b38 7742 a2f4 7942 05d5 f041
00000060: b40c 1a40 4f0c 0f42 2591 3b42 44b5 bd41
00000070: 672c 9c42 82a1 be41 5103 8742 1cd3 3f42
00000080: bbe0 b441 1b07 7e42 e157 4542 74db 1342
00000090: 93a6 9b42 545a 6c42 7129 2542 9ecb 5342
000000a0: 1a54 8242 ae02 8241 5c30 8242 1e02 2c42
000000b0: 40d4 9a41 cacd e141 4095 6742 c136 a542
000000c0: 6c9d 8841 1f15 6c42 9615 4b41 1330 8a42
000000d0: cece 8742 e7a6 0d42 70c6 1a42 9c6c 3641
000000e0: f243 0142 2283 4342 7439 4742 b12b 7442
000000f0: 6c4f ca41 ef48 0d42 5402 2842 c2a5 5042
45.66398 54.592876 28.61027 33.78498 44.483368 38.657337 27.968697 57.36404
44.677307 79.92167 31.06197 77.73015 15.1347275 32.783302 48.425354 48.567154
44.39788 23.382433 36.042164 64.80868 22.935951 61.805157 62.4889 30.104013
2.4070253 35.76202 46.891743 23.713509 78.08672 23.828861 67.50648 47.95616
22.609732 63.50694 49.33582 36.96431 77.82534 59.08821 41.29047 52.948845
65.16426 16.251308 65.09445 43.002068 19.353638 28.225483 57.895752 82.60694
17.076866 59.020626 12.69277 69.093895 67.903915 35.41299 38.693787 11.401516
32.316353 48.87806 49.806107 61.042667 25.28878 35.321224 42.002274 52.161873

conv1.mlp.6.running_var f4 [64]
00000000: d12d 4b45 5254 1646 a8f9 7b45 2323 2f45
00000010: 35cf 7f45 d9da e245 e3b5 d544 2b97 eb45
00000020: c135 8645 4a4b cb45 ac41 9c45 317f d045
00000030: bf26 d244 7adb 4d45 f574 0946 3bd4 b945
00000040: 1f5c 8f45 3d9c e844 a2eb 3445 0d58 5446
00000050: f9b6 d344 ca9b 3645 d973 9645 56b4 3045
00000060: 9d65 1343 9374 2445 89eb aa45 9714 c644
00000070: a339 0446 4721 c944 fe91 9e45 5aa8 3345
00000080: 9c8d 1045 5e6c 0446 66c6 9745 88b9 c244
00000090: 3627 d245 e274 c745 858a a745 5d0d aa45
000000a0: ee03 cf45 0c9b 0445 4585 be45 30ff 6645
000000b0: 9edd ca44 f36e 4845 5cab 1846 cb93 cd45
000000c0: 20d0 8344 6559 a645 09dc 9144 1bce 9b45
000000d0: d488 f545 c7e5 8545 7c3e 2845 2df1 7d44
000000e0: 2236 1545 73b2 0b46 51cc 5b45 a4dc 4f45
000000f0: b63b 8645 475a 9b45 98fb 6c45 5f59 dc45
3250.8635 9621.08 4031.6035 2802.196 4092.9504 7259.356 1709.684 7538.896
4294.719 6505.411 5000.209 6671.899 1681.2108 3293.7173 8797.239 5946.529
4587.515 1860.8824 2894.727 13590.013 1693.7179 2921.7368 4814.481 2827.271
147.39693 2631.286 5469.442 1584.6434 8462.409 1609.0399 5074.249 2874.522
2312.8506 8475.092 4856.8 1557.7979 6724.9014 6382.6104 5361.315 5441.6704
6624.491 2121.6904 6096.6587 3695.9492 1622.9255 3206.9343 9770.84 6578.474
1054.5039 5323.1743 1166.8761 4985.763 7857.1035 4284.722 2691.9053 1015.7684
2387.3833 8940.612 3516.7698 3325.79 4295.464 4971.2847 3791.7246 7051.1714

conv1.mlp.8.weight f4 [64, 64]
00000000: bdd1 7cbf 441f 4c3f 6226 63be dca6 8c3f
00000010: 22a5 84bf b05a 94bf 1ea6 f03f 208a 01c0
00000020: dcdb 2940 103c 7a3f 6ef2 b4bf 38e3 c33e
00000030: e4cc d23f ba69 6a40 a6f3 82c0 3236 6740
00000040: 7afa 3f40 8329 cfbf daa3 6140 7d7a ccbd
00000050: 850e 1d40 891b cdbf 14c3 313e 9cb5 c5bf
00000060: 6daf e83f 66d5 3bc0 7ee7 1e40 c724 95be
00000070: de55 90c0 9c08 f9bf cd57 343e 27ad 4cbf
00000080: af25 90bf 81c3 4840 7dd7 723f 2c63 dfbf
00000090: 98a7 16c0 38a7 41c0 03fc 69c0 0e34 88bd
000000a0: 730e ea3f aa59 7d3f a63a 8540 23a2 e93e
000000b0: 6e1f 0dc0 e0b6 143d d176 c03f d1ff 0ec0
000000c0: 1457 78c0 6b9a b9bf c61b 06c0 03ab b5bf
000000d0: b24e 9540 5135 6cc0 88ca 273e 499a 0ec0
000000e0: 04ab 16be 341b 8d3f 4f59 b1be 0dd2 a9bf
000000f0: 4767 023f 66f1 85be d804 543f 177b 233f
00000100: afa8 e0bf b0ef adc0 acf3 c93f f5ba 0840
00000110: 51f2 45c0 97f6 c7c0 4ed6 73c0 7b77 f2bf
00000120: a227 db3f eaa1 0340 5676 5cc0 eec8 c4bf
00000130: 0628 30c0 f907 4740 c77a 8ac0 08b6 bfbf
00000140: 6c9e fbbf 8df3 9fc0 eb26 073f 74e1 5bc0
00000150: 3f03 dabf 5e83 75bf 33f4 6440 a008 f03f
00000160: 7203 74bf d751 42bf 5f48 1a40 ec79 8bbf
00000170: 106c 3ac0 94a7 babf f88a 1a40 6a7a 66bf
00000180: 22a1 48c0 da9a 593f da58 533f 8abf 583e
00000190: f5b3 03c0 9076 c9be 16af 3cc0 a64d d33e
000001a0: c8a7 b33f 83e4 92bf bfa5 8fbf 4a30 6940
000001b0: 75b5 14c0 eaac 773f 856b dfbf 673e babe
000001c0: 04f2 a0bf 6e24 41bd 941a d5be 49f4 5e3f
000001d0: f3c3 a5bf 588d 22c0 6015 743f 1c03 ee3e
000001e0: 4c5b 993d 7937 b2bf 5414 003f f891 8d3f
000001f0: 55ab 833e 33d3 50c0 b302 1640 b74d d0bf
00000200: 518d 2cc0 c086 70bf 7f7a 29bf 69f4 27c0
00000210: e731 b2bf f675 013d 9af6 8740 d8d4 b3be
00000220: cab5 9040 e9e3 c93f 451c a140 6686 293f
00000230: 8027 17bf 2db5 1240 7acf 0cbe cbcb 6140
00000240: f15d fb3f 98bf 76c0 f7cb 1940 7a9c 09be
00000250: fa4d 2240 f5a2 93bf f879 acbf 3d18 a5c0
00000260: d257 863f 2b13 49c0 6e29 0dbf 3136 ccbf
00000270: fcf0 ef3f c231 25bf d100 993f 25e4 e73e
00000280: edb5 1a3f 821e 323f a6ef b93f 81ae 1840
00000290: f3d5 d8bd 2350 77bf 99d0 d8bf 6a40 92bc
000002a0: 9097 51be b98b e13c b958 8b3f 43d8 07c0
000002b0: c7c5 8ebf 166e d23e 6eb5 0b40 5f0d a93f
000002c0: 3452 71bf a4ec bebf 418c 00c0 006e 0540
000002d0: f33e 4f40 9b3c 2140 1cfc 31c0 56ef 3440
000002e0: 37af f5be 509f 6240 e59b 8ebf 19dc a23f
000002f0: 6a79 5b40 fefa e3bf 0ecd 663f 7eb9 e93f
00000300: c074 f13e 777f d33e ac35 05bf b7f1 c93f
00000310: f44e 48bf e443 853f 46d5 803f 7344 23bd
00000320: 91ec b7be 13a3 bfbf b50f b0be 0dc2 923e
00000330: a976 923f 111a dfbf 7e2e 3f3f c3e6 40c0
00000340: 121b 8c3e f96f 47be ee3b 5b3f 8939 82be
00000350: be17 a43f 7236 6a3f 2c8d 993f 5ea6 1740
00000360: 1d20 bf3e 32c2 133f b2e4 753e 6bab 09bf
00000370: 62e3 e93e 04b4 e43e 6506 18c0 892d 853e
00000380: 4fcd d03d a304 98be e720 edbe 2385 5f3e
00000390: 4693 01c0 c6c4 c6be 9dce 24bf 3231 5ebf
000003a0: 5b53 04c0 c20e b93f 25e7 70bf 5e70 233f
000003b0: ebbe 4e3f 010e f5bf 02be 64bf 2469 01c0
000003c0: 5bf2 f1bf 3808 11bf fee8 a9bf 4c03 86be
000003d0: 75fc 06c0 69f1 743f 971f b7bf 72d0 2740
000003e0: 6a11 e43e 30b8 ab3f 59fd 83be 9bb1 8dbf
000003f0: 5715 bc3f 9d46 09c0 bbb1 ec3e e2ce e8be
-0.98757535 0.7973521 -0.2218261 1.0988421 -1.0362895 -1.1590176 1.8800695 -2.0240555
2.6540442 0.977479 -1.4136484 0.38259292 1.6468778 3.662703 -4.0922422 3.6126828
2.9996629 -1.6184543 3.5256257 -0.099843 2.4540112 -1.6024028 0.17359573 -1.5446048
1.8178536 -2.9348998 2.4828792 -0.2912962 -4.510482 -1.9455752 0.17611618 -0.7995171
-1.12615 3.1369326 0.9486006 -1.745214 -2.353979 -3.0258312 -3.6560066 -0.06650554
1.828566 0.9896494 4.163409 0.45631513 -2.2050433 0.036307216 1.503626 -2.2343638
-3.8803148 -1.450025 -2.0954452 -1.4192814 4.6658564 -3.6907542 0.16385853 -2.2281668
-0.14713675 1.1023927 -0.3463845 -1.3267227 0.5093884 -0.26160735 0.8281989 0.63859695
-1.7551478 -5.4355087 1.5777488 2.136411 -3.0929148 -6.2488513 -3.8099551 -1.8942713
1.712147 2.0567575 -3.4447227 -1.5373819 -2.7524428 3.1098616 -4.3274875 -1.4977427
-1.9657722 -4.9984803 0.5279376 -3.4356356 -1.7032241 -0.95903575 3.5774047 1.8752632
-0.9531776 -0.7590613 2.4106672 -1.0896583 -2.9128456 -1.4582391 2.414732 -0.9003054
-3.1348348 0.8500191 0.8255745 0.21166816 -2.0578587 -0.39348269 -2.9481864 0.4127018
1.4035578 -1.1475986 -1.1222457 3.6435723 -2.3235753 0.9674822 -1.7454687 -0.36375734
-1.2573857 -0.047153883 -0.4162184 0.870915 -1.2950424 -2.539877 0.95345116 0.46486747
0.074881166 -1.3923179 0.5003102 1.1060171 0.25716653 -3.2628906 2.3439147 -1.6273717
-2.6961253 -0.9395561 -0.6620254 -2.6242926 -1.3921479 0.031606637 4.2488527 -0.35123324
4.522191 1.5772678 5.034701 0.662207 -0.5904465 2.292308 -0.13751021 3.5280635
1.9638044 -3.855444 2.403074 -0.13438597 2.5360093 -1.1534106 -1.3474722 -5.159209
1.0495551 -3.141795 -0.5514134 -1.5954038 1.8745418 -0.6452905 1.1953374 0.45291248
0.60433847 0.695778 1.452626 2.3856509 -0.105876826 -0.96606654 -1.6938659 -0.01785298
-0.20467973 0.027532445 1.0886451 -2.1225746 -1.1154107 0.41099614 2.1829486 1.3207206
-0.94266057 -1.4915967 -2.0085604 2.0848389 3.238217 2.519324 -2.7810125 2.827108
-0.4798524 3.5409737 -1.1141325 1.2723418 3.4292855 -1.7810972 0.9015664 1.8259733
0.47159386 0.41308185 -0.5203502 1.577689 -0.7824547 1.0411344 1.0065086 -0.0398602
-0.35922673 -1.4971641 -0.34386984 0.28663674 1.1442462 -1.742983 0.74680316 -3.0140846
0.27364403 -0.19476308 0.8563832 -0.2543452 1.2819746 0.91489327 1.1996207 2.3695292
0.37329188 0.57718194 0.24013022 -0.5377719 0.45681292 0.4466859 -2.3753903 0.26011303
0.101954095 -0.29691038 -0.46314165 0.21828131 -2.0246139 -0.38822 -0.64377767 -0.86793816
-2.0675876 1.4457629 -0.941027 0.63843334 0.8076007 -1.9144899 -0.8935243 -2.0220423
-1.8902086 -0.56653166 -1.3274229 -0.2617439 -2.1091588 0.9568086 -1.4306515 2.6220975
0.44544536 1.3415585 -0.25779226 -1.1069826 1.4694012 -2.144935 0.46229348 -0.4547034

conv1.mlp.8.bias f4 [64]
00000000: 21d7 0b3f 532f 133e 1f45 79c0 67a2 0d3f
00000010: aad0 a93d ad7d 3040 4f49 103f 1526 4140
00000020: 2637 4840 5864 4abe da4f ed3d c861 113f
00000030: ceff ce3f 4580 593f 920d 6e3f 32ca 1340
00000040: 0d69 33be 2c21 85c0 d0b0 8f3f e642 c63f
00000050: 1a0e 343f 220f 29c0 0f81 043f 9798 4bbf
00000060: 3534 9fbf fc31 26c0 18b0 c0be 0eae 823f
00000070: e422 febe 0364 823f 49d8 c83e 04ee 0d40
00000080: 4c62 593f 6f1a cf3f da08 21bf 12d1 9ebe
00000090: 1853 6b3f b0a2 aa3f 782e 54be 2d15 d83f
000000a0: 0e47 733f caa4 be3f 49d1 9bbe fc23 4840
000000b0: f530 0140 3237 923f e402 debe f87f 9f3f
000000c0: ec33 4440 7c2f 10bf 1c6f 0240 cc18 963f
000000d0: 910e 0e40 da99 c23f 5468 69bf adf8 8a3f
000000e0: 97ec 39bf 24d4 af3f 4bb9 05be 118b 96bf
000000f0: 2308 0f40 e168 1640 7c26 41be 8b03 8dbf
0.54625136 0.14373522 -3.8948438 0.5532593 0.08291753 2.7576706 0.5636186 3.0179493
3.128366 -0.1976484 0.11587496 0.5678983 1.6171815 0.8496135 0.92989457 2.309216
-0.17520542 -4.1602993 1.1225834 1.5489166 0.7033402 -2.6415486 0.5175943 -0.7952971
-1.2437807 -2.5968008 -0.3763435 1.0209367 -0.49635994 1.0186771 0.39227512 2.2176523
0.84915614 1.6179942 -0.6290413 -0.31018883 0.91923666 1.3330898 -0.20720851 1.6881462
0.95030296 1.489404 -0.3043311 3.1271963 2.018613 1.1423094 -0.4336158 1.2460928
3.065669 -0.56322455 2.0380316 1.1726317 2.219639 1.5203202 -0.9117482 1.085714
-0.7262663 1.3736615 -0.13058965 -1.176119 2.2348716 2.3501513 -0.18862337 -1.1016706

conv1.mlp.10.weight f4 [64]
00000000: d0a9 22c0 11e7 6940 3eef ad3f 0e2b 743f
00000010: c9f8 6f40 8fe1 3940 8b58 0540 aff6 1a40
00000020: 20e5 cc3f 9b50 4d40 16cd e9be d382 643f
00000030: 25f0 c5bf e0e5 4f40 b3b0 5abf f276 5540
00000040: 7da3 5340 d582 c13e cc85 43be d1ce ecbf
00000050: 5d46 98bf e037 e13e ec17 a43f 9a37 8a3f
00000060: 6233 41bf c4ee 7040 d77f bd3f 3ede ab3f
00000070: 67d3 aa3d 498e d63e 7285 24c0 2252 5b40
00000080: ec51 433f 2683 7b3f db22 083e 3cfc 0f40
00000090: 3890 5f3f 5012 8640 33d5 6740 2ec4 de3f
000000a0: 4020 7640 ea9e 1dbf eae5 b73f 9e46 fcbf
000000b0: 9954 1bc0 18e4 863f 011d acbf 537e 86c0
000000c0: e699 8dc0 ec9a 6f3f 82d2 4440 7ba8 1b3f
000000d0: bf11 b63f 1218 90bd f43b b43f d47a 5a40
000000e0: b2bf 53c0 baf8 513f 1089 913f 0b32 3640
000000f0: fa67 3140 e698 b0bf bbf5 2ebf a559 473f
-2.5416145 3.6547282 1.3588636 0.95378196 3.7495596 2.904392 2.0835292 2.4213064
1.6007423 3.2080448 -0.4566428 0.8926212 -1.5463911 3.2484055 -0.8542587 3.3353848
3.3068535 0.3779513 -0.19094008 -1.8500615 -1.1896473 0.43987942 1.28198 1.0798218
-0.7546903 3.764573 1.4804639 1.3427198 0.08341103 0.4190543 -2.5706449 3.426888
0.7629688 0.9824699 0.13294546 2.2497702 0.87329435 4.1897354 3.6223876 1.7403619
3.8457184 -0.6157061 1.4367039 -1.9709051 -2.4270384 1.0538359 -1.3446351 -4.2029204
-4.4250364 0.9359577 3.0753484 0.60803956 1.4224166 -0.07035841 1.4080796 3.4137468
-3.3085752 0.8202015 1.1369953 2.8468044 2.7719712 -1.3796661 -0.68343705 0.7787116

conv1.mlp.10.bias f4 [64]
00000000: 3173 6b40 903b 993d ab26 44c0 aa91 8cbe
00000010: 6c47 6dbf 5545 e03f 797a ddbe 2729 06c0
00000020: 5658 4e3f 1c93 adbf 69f1 6340 25f4 693f
00000030: 65ab 2b40 a146 3ac0 65ca 8dbf 45fb 983f
00000040: a49d a63d b8b9 1c3f 1fcc 80bf f0b4 d2bf
00000050: 53cb d53e 4de5 18be 1e46 8ec0 5e7c 8d3f
00000060: dd90 37bf 230f 14bc e41a e8be bf4f 3dc0
00000070: 51ab c93f 0545 1cbf 0ff1 4a3e 7d1e 0c40
00000080: 85d9 593d c935 e0be 66c0 e6bf 7ccd 933f
00000090: cd2f 463f 3846 0540 aa64 8e3f b764 99bf
000000a0: 9b41 1c3f 9ac7 b63f 02a3 ca3f 9c52 733f
000000b0: 07cf 6e3f e94c c0bf a77e 003f c9ab 2d40
000000c0: 151e 61c0 fb51 cfbe 77ec 1140 cd74 00c0
000000d0: 96a7 32bf 9954 7fbf b52f e43f 6cd2 c93f
000000e0: 8d96 10c0 f71b 1840 c6df b8bf 0f47 7c3e
000000f0: abf3 9fbf 476f 0840 d8a1 bc3f 315a f0bd
3.6789057 0.07482064 -3.06486 -0.27454883 -0.92687106 1.7521158 -0.43257502 -2.0962617
0.8060354 -1.3560519 3.5616095 0.9138816 2.682336 -2.9105608 -1.1077391 1.1951681
0.08135536 0.61220884 -1.0062293 -1.6461468 0.41756687 -0.14931221 -4.446059 1.1053579
-0.7170542 -0.009036812 -0.45333016 -2.9579923 1.5755407 -0.61042815 0.19818519 2.1893609
0.05318596 -0.43791035 -1.8027465 1.1547084 0.7741669 2.0824108 1.112447 -1.1983861
0.61037606 1.4279664 1.5830996 0.95047927 0.9328465 -1.5023471 0.50193256 2.71361
-3.517461 -0.40492234 2.2800577 -2.007129 -0.69786966 -0.9973846 1.7827059 1.5767341
-2.259189 2.3767068 -1.444329 0.24636482 -1.2496237 2.1317918 1.4736891 -0.11735953

conv1.mlp.10.running_mean f4 [64]
00000000: 59e8 0942 7818 d142 83da d640 321f bd41
00000010: afe6 8242 21f1 f142 df47 9142 cd3e 0c43
00000020: 7883 ed42 f6af 9942 ba1f ad41 54c5 aa42
00000030: 796e 4242 a637 8742 6b91 ac41 266c e242
00000040: 2182 8d42 674b 7a40 3473 7d42 ec33 a242
00000050: 6278 a142 9c69 423f 12b9 2442 1c04 ea40
00000060: b674 3742 1ee5 0541 c5af b141 486c 7f42
00000070: 46ee 9641 bde4 9542 0bc3 bc42 55f2 e442
00000080: 6c80 3d42 b7de ab42 c037 1842 c050 9b42
00000090: 17e5 9542 235a bf42 b0b5 4142 fd0c e742
000000a0: a54c 7642 7994 1d42 5744 ad42 f7ed f642
000000b0: fc3d f542 dc30 9942 f88f 5b42 95fb ca42
000000c0: 470e 1a43 b884 7242 160e e042 e73d b042
000000d0: 3a35 0543 d3f1 4a42 90f3 f241 3063 5c42
000000e0: c21a a641 694c d842 ed46 8742 5618 fc41
000000f0: 20ae f942 95a2 c142 1350 d441 0e5d e941
34.476902 104.54779 6.714174 23.640232 65.450554 120.970955 72.64037 140.24532
118.756775 76.84367 21.640491 85.38541 48.607883 67.60869 21.571005 113.21123
70.75416 3.9108522 63.362503 81.10141 80.73512 0.759424 41.180733 7.3130016
45.863976 8.368437 22.210825 63.855743 18.866344 74.946754 94.38094 114.473305
47.375412 85.93499 38.054443 77.657715 74.94744 95.67605 48.42743 115.52537
61.57485 39.394993 86.63348 123.464775 122.62106 76.59543 54.890594 101.49137
154.05577 60.62961 112.02751 88.1209 133.20792 50.736156 30.368927 55.096863
20.763065 108.14924 67.63853 31.511883 124.84009 96.81754 26.539099 29.170437

conv1.mlp.10.running_var f4 [64]
00000000: a264 9445 3a7c 1a46 f19f 8a44 1d4e 9444
00000010: aa1e 3b46 c3e6 2e46 4fab 3146 3642 3c46
00000020: 68d4 5446 d5c6 4846 2d5b b344 0367 8146
00000030: 4854 af45 f480 2c46 4f84 e644 5363 4746
00000040: 8153 5846 7f89 0944 ee8e 8f45 937b a245
00000050: 24b7 8f45 1475 5542 6fa4 d645 f903 e943
00000060: b0d8 7845 d72e 7944 35ca f344 0d89 0546
00000070: 853e b844 3da5 1745 d8bd a045 dfe7 0f46
00000080: 613a a245 515c 4145 1af0 7345 e3a2 d645
00000090: 2297 4745 4d43 9d46 85ad d845 b55a 1f46
000000a0: d095 2b46 3f9b 2645 86c4 9745 b1e2 e045
000000b0: 2d1d 3146 a3ae 0846 053e 0f46 c102 9e46
000000c0: 99c0 8f46 35a6 1546 f1b8 2946 819b cf45
000000d0: b5d2 ff45 c3d2 f645 7f06 1845 30f9 1a46
000000e0: 0896 6e45 5070 e245 4b20 e445 b76d c745
000000f0: 1377 2446 c08d cf45 b066 f644 ca69 3b45
4748.579 9887.057 1108.9982 1186.441 11975.666 11193.69 11370.827 12048.553
13621.102 12849.708 1434.8492 16563.506 5610.535 11040.238 1844.1346 12760.831
13844.876 550.1484 4593.866 5199.447 4598.8926 53.364334 6868.554 466.03104
3981.543 996.7319 1950.319 8546.263 1473.9537 2426.3274 5143.7305 9209.968
5191.2974 3093.7698 3903.0063 6868.361 3193.4458 20129.65 6933.69 10198.677
10981.453 2665.703 4856.5654 7196.3364 11335.294 8747.659 9167.505 20225.377
18400.299 9577.552 10862.235 6643.438 8186.3384 7898.345 2432.406 9918.297
3817.377 7246.039 7300.0366 6381.7144 10525.769 6641.7188 1971.209 2998.6118

conv1.shortcut.0.weight f4 [64, 9]
00000000: 67e0 973e 65da 143f 9f5e c73f 6204 86bc
00000010: 4517 b83e 0e31 6040 7ea5 28bf 7b14 913e
00000020: 4626 1b40 cf69 e13f be90 ebbd 2393 713f
00000030: 6079 693e 354b 0fbf e322 a53f f143 a6c0
00000040: 57d4 303e e8e6 d7c0 b0f5 c540 4a1a 09c0
00000050: c130 5540 792a 14bf 547f 06c0 021b fc3e
00000060: 8007 1bc0 ce9b a33e 3f90 c8bf 427b 50bc
00000070: ea7f a03f aad6 82bf be48 98be 7356 46be
00000080: 58f2 42c0 239d ea3f 9f35 933e 59d6 983e
00000090: 5780 2840 1e5a 833f c4e6 47be 5bc6 65be
000000a0: 65de ecbe 91bf 9c3f 913f cdc0 4f67 cdbc
000000b0: 48af 8cc0 9683 38c0 a578 b63d f9c0 b8bf
000000c0: 8edf 313c 9246 9cbd 323c b6bf 795d a140
000000d0: 225a 93bd 7c07 7640 11de 53c0 f907 82bf
000000e0: 0b4c 1abf 0563 a6be 2408 3940 bc6e 4f40
000000f0: b208 23c0 151c 943d 4e97 03c0 3010 5f40
00000100: 22b1 1fc0 0948 3a3f b468 8fbe ef66 3d3f
00000110: 235f df3e ba9f 96c0 a5ce 02bd 90a3 54c0
00000120: a2e0 e4bf 5f34 ecbc 55b0 17c0 31ae 933d
00000130: 04a8 c83f b898 90be f53a b4c0 8830 60be
00000140: 2e30 26c0 feb8 1c40 7d18 92be ceff b63f
00000150: 1e9e c5bc 2192 29bf 4e5d ab3f 2441 d2c0
00000160: be87 a13e 5f40 8ac0 c4e7 debf af0a 873f
00000170: f826 5dc0 16c5 8ebf 1238 0b3f d8c2 12bf
00000180: b22c f9bf 6328 fa3c d77a 723f 1272 4b40
00000190: 2bce 743f 37ac 3c3f f4d9 1cbe ea5b aebf
000001a0: 9a4a 903f c293 9ec0 5308 5c3e f354 b3c0
000001b0: 8c0f 04bf 1f24 b93e c969 5440 335e 823f
000001c0: d67a 6abf b837 89bf 27be b9bf c235 41be
000001d0: 1edb f3bf a53a 49c0 ddb5 bfbf 700c 07c0
000001e0: 5832 053d 3cbf 2f40 b7be 1440 a6cb 8ec0
000001f0: 494c 903e 04ff 53bf c574 d740 56ae 67bf
00000200: 2328 2740 3553 d43d dc37 abbf 56d0 b6be
00000210: 31bc 96be 5ee3 f4bd e36c c5be 5a80 01c0
00000220: 4dd6 8f3e 07b7 80bf 9525 6a3e d48e 1b3f
00000230: dfd9 acbf 7d74 e140 02a6 7d3e 7a97 8740
00000240: 5500 f63e 5ab2 a0bf 15ff 0cc0 f116 0e3e
00000250: b58e 2cbf 9af7 343f 9ed6 70c0 950a 4abd
00000260: 4e44 e0c0 7ad9 903f 9ca8 b73f 622b 0e40
00000270: 374f 9cbf 2403 d73d 03a4 0e3f dad5 25bf
00000280: 4dab 563c ada9 12c0 e210 9ac0 f437 a9be
00000290: 795b 8cbe 8b70 92be 5e08 8b3f ed75 a0bf
000002a0: 71af dbbf 2f60 27be 5ab9 35bf 8eba 1540
000002b0: 111a 96bf a1e8 a840 6852 a63d f1ac 0ac0
000002c0: 9542 bbbf 5341 b23f 3efc 6ebd 8645 82bf
000002d0: 1bd2 8840 cc40 51c0 477a ab3f 6103 ffbe
000002e0: 3014 a23f 8beb 0840 37cb 72c0 01df 78be
000002f0: 4d23 fcbf 6aeb 9640 311b 9f3d b876 bbbd
00000300: 6bf8 b73e bdbb e33f 03e9 04c0 5c30 73bf
00000310: 0aea f7bc 424e 1340 0dd3 5a40 5ae8 95bf
00000320: 98bf a540 8222 2c3f 04d8 debe 6991 fa3e
00000330: ceaa 12c0 10ea 32be 246f 13c0 6625 c7c0
00000340: e2bb adbf be4d 083d 79ef 333f abff da3d
00000350: 4fca 163f 4d25 1740 c815 5d3e 34ec 10bf
00000360: af15 49bf 4303 dbbe 9a55 a6bf 02d9 d3bb
00000370: 0d34 253f 0dfb cabf f0da 6c40 f5e2 40be
00000380: 0897 b840 de5a 89bf a027 0ebf 46fe d3be
00000390: fe76 003f 9f48 c9bd 9f52 a7bf e4e4 e340
000003a0: eea6 9bbe 7196 6540 d437 ab3f 5103 9e40
000003b0: ca34 b03f 3efe 5e3f c6ac f3bf 60b4 a7bf
000003c0: 5176 5ebd fe3f 9cbc 5e35 00c0 55c1 913d
000003d0: ae18 3640 83f3 88c0 a53c 453e 967a 88be
000003e0: e935 353f 0434 78c0 312f 1cbe 6f74 b8be
000003f0: 0ca4 4cc0 b869 67bf 6fb7 04bf e5b2 d93d
0.29663393 0.58145744 1.5575751 -0.016359512 0.35955253 3.502994 -0.6587752 0.28335938
2.424211 1.7610415 -0.11502217 0.9436514 0.22800207 -0.5597413 1.2901272 -5.1957936
0.17268501 -6.746937 6.186241 -2.1422296 3.3311007 -0.5787731 -2.1015215 0.49239355
-2.4223328 0.31954807 -1.566902 -0.012724699 1.2539036 -1.022176 -0.29742998 -0.19368915
-3.0460415 1.8329204 0.28751847 0.29851034 2.6328332 1.0261877 -0.19521624 -0.22438948
-0.46263424 1.2245961 -6.4140096 -0.025073675 -4.3963966 -2.8830314 0.0890973 -1.443389
0.010856522 -0.07630648 -1.423712 5.04266 -0.07194926 3.8442068 -3.3104289 -1.0158683
-0.6027228 -0.3249742 2.8911219 3.2411337 -2.5474057 0.07231919 -2.05611 3.485363
-2.4951863 0.72766167 -0.2800957 0.7398519 0.4362727 -4.706998 -0.031935353 -3.322483
-1.7881052 -0.028833566 -2.3701375 0.07210959 1.5676274 -0.28241515 -5.632197 -0.21893513
-2.5966907 2.448791 -0.28534308 1.4296815 -0.024123248 -0.662386 1.3387849 -6.5704517
0.31548876 -4.320358 -1.7414479 1.0550135 -3.4555035 -1.1153896 0.5438243 -0.5732856
-1.9466765 0.030536836 0.9471869 3.1788373 0.9562709 0.7370028 -0.15317518 -1.36218
1.1272767 -4.955537 0.2148755 -5.60412 -0.5158622 0.3616037 3.3189566 1.0184997
-0.9159368 -1.0720129 -1.4511155 -0.18868163 -1.9051244 -3.1442044 -1.4977375 -2.1101341
0.032518715 2.746047 2.3241403 -4.4623594 0.281832 -0.82811 6.733004 -0.9050039
2.6118248 0.10367433 -1.3376422 -0.35705823 -0.29440454 -0.11957429 -0.38559636 -2.023459
0.28093186 -1.0055856 0.22865899 0.60764813 -1.3503989 7.0454698 0.24770358 4.237241
0.48047128 -1.2554429 -2.203069 0.13875939 -0.67405254 0.7069031 -3.7630992 -0.049326498
-7.008338 1.1316369 1.434833 2.2213979 -1.2211674 0.10498646 0.5571901 -0.64779437
0.013102365 -2.2916062 -4.814561 -0.330505 -0.27413538 -0.28601488 1.0861928 -1.2535988
-1.7162915 -0.16345285 -0.7098595 2.3395114 -1.1726705 5.278397 0.081211865 -2.1668055
-1.4629694 1.3926185 -0.058346026 -1.0177467 4.2756476 -3.26958 1.3396691 -0.49807265
1.2662411 2.1393764 -3.7936532 -0.24303819 -1.9698273 4.716237 0.07768858 -0.09153503
0.35931715 1.7791668 -2.076722 -0.94995666 -0.030262966 2.3016515 3.4191315 -1.1711533
5.179638 0.67240155 -0.43524182 0.48939064 -2.291675 -0.174721 -2.3036585 -6.2233152
-1.3572962 0.033277266 0.7028728 0.10693296 0.5890245 2.3616517 0.2159034 -0.5661042
-0.7854871 -0.42775926 -1.2994874 -0.0064650783 0.6453255 -1.5857865 3.700863 -0.18836577
5.7684364 -1.0730855 -0.5552921 -0.41404933 0.5018157 -0.098283045 -1.3072089 7.1216908
-0.30400795 3.5873072 1.3376412 4.937905 1.376611 0.8710669 -1.9037101 -1.3101921
-0.054312054 -0.019073483 -2.0032573 0.07116953 2.8452563 -4.2797256 0.19261415 -0.26656026
0.70785385 -3.8781748 -0.15252377 -0.36026332 -3.1975126 -0.9039569 -0.518424 0.106298245

conv1.shortcut.0.bias f4 [64]
00000000: 7e16 f23d 3168 5bbe 7cd3 90bd 80a8 8ebe
00000010: 3ed4 1d3e d4a7 803e 6c07 10bd 7b6f bdbd
00000020: d418 84be 588c 7d3d 7864 873e 5d3d 173e
00000030: 4701 21be 42c6 323e f092 97be 0c5a 743c
00000040: 9749 133e d935 92be 7703 65be ce82 58be
00000050: f879 733c 621c 9e3d e16e 523e 2bad 8fbe
00000060: 176c 3f3b 8e75 95bd 16b8 3d3e d629 0c3e
00000070: 64cb 91be 2ae4 b2bd a0b2 4bbe c654 a13e
00000080: b13a cfbd b731 a03d 633c d1bd eddc 273e
00000090: 26be 86bd 1c03 79be 66cd 0cbd 8671 6ebe
000000a0: 3595 463e c30b 00be c863 47be 88b5 1f3e
000000b0: 904e 813e b334 303e 9839 a73e 2972 14bd
000000c0: 0da7 05be b867 983e ceff 0e3d 74f0 5c3d
000000d0: 7b45 963e 104a cd3d f137 3dbb 98f3 b73e
000000e0: c755 693e bc10 14be 4393 80ba 4f43 68bd
000000f0: 1342 a4be b637 893e 86a4 33be f08d 993e
0.11820696 -0.21426465 -0.070715874 -0.2786293 0.15412995 0.25128043 -0.035163328 -0.09249779
-0.25800192 0.06190142 0.2644384 0.14769502 -0.15723144 0.17458442 -0.29604292 0.014914047
0.14383541 -0.28556708 -0.22364603 -0.21143648 0.014860623 0.07720257 0.2055011 -0.28061804
0.0029208714 -0.072978124 0.18527254 0.13687834 -0.28475487 -0.08734925 -0.19892359 0.3150999
-0.10118616 0.07821982 -0.10216596 0.1639287 -0.06579237 -0.24317592 -0.03437557 -0.23285493
0.19392855 -0.12504487 -0.19471657 0.15596592 0.2525525 0.17207603 0.32661128 -0.036241684
-0.13052006 0.2976663 0.034911923 0.05394025 0.29349884 0.10023892 -0.0028872455 0.35928035
0.22786628 -0.14459509 -0.0009809512 -0.056704815 -0.3208166 0.26800317 -0.1754323 0.29991102

conv1.shortcut.1.weight f4 [64]
00000000: aebf 8dbf 0485 d940 34ab ae40 2757 c03e
00000010: 3606 e240 bc66 9a40 ab9c 7240 305e 2b40
00000020: f2f0 3940 e855 b040 da65 b73f 6b8c 9f40
00000030: 7454 ca3e da0e 7040 e721 a440 3c43 e640
00000040: ce0f 5540 3453 d03e 859e 16bf d5c4 1e40
00000050: 23cf 8940 eca6 3340 1c70 8340 2b69 1440
00000060: 49f8 a540 0766 a840 12ad 7a3f f856 3640
00000070: 726f b33f fb9d db3f 3a0f 8d40 2e1f 6d40
00000080: d26b 7d40 b1e7 0e40 9652 0840 e5ce b740
00000090: a24f f53f 8983 9340 05e5 d13f be63 ab40
000000a0: 46a5 d140 0727 4b3f 1a25 713f 0c13 3540
000000b0: 30bc 7340 d017 4940 c65c b040 bace 6a40
000000c0: 36d7 b240 1857 0441 7811 6b40 6bba 9a3f
000000d0: 5e67 c440 a409 b840 666c e03e d3eb e540
000000e0: 2e40 8340 1fa9 aa3f 7f9f 4740 c5f6 5f3f
000000f0: e608 4840 856d f13f 883a 103f f6ac a040
-1.1074121 6.7974873 5.458399 0.37566492 7.063258 4.825041 3.7908123 2.6776237
2.9053311 5.5104866 1.4327958 4.985891 0.39517558 3.7509065 5.1291385 7.1957073
3.3290896 0.4068848 -0.5883563 2.4807637 4.3065352 2.807063 4.107435 2.318919
5.1865582 5.2624545 0.97920334 2.8490582 1.4018385 1.7157587 4.4081087 3.705028
3.9597058 2.2328913 2.1300406 5.7440057 1.9164927 4.6098065 1.6398016 5.3559256
6.551425 0.79356426 0.9419724 2.8292875 3.808361 3.1420784 5.511325 3.6688676
5.588771 8.271263 3.6729412 1.208814 6.137618 5.751177 0.438327 7.185037
4.1015844 1.3332862 3.1191099 0.87485915 3.125543 1.8861548 0.5633931 5.0211134
