GraphNeuralNet/Skim3Mu/MHc-130_MA-90_vs_nonprompt/models/ParticleNet-nNodes32_Adam_initLR-0p01_CyclicLR.pt (torch, 114936 bytes, 102 tensors)

gn0.weight f4 [9]
00000000: 8289 0040 36cd c23f d9de b03f 1f1c 983f
00000010: 6ac7 6ebd 9dac ab3f 1df5 ea3e 0000 803f
00000020: c3a3 8c3f
2.0083928 1.5218875 1.3818008 1.1883582 -0.058295645 1.3412052 0.45890132 1.0
1.0987476

gn0.bias f4 [9]
00000000: a1b9 b4be 8e0b 313c 8812 cabd 7f84 943d
00000010: 7b88 e0bd c445 793f 5035 a9bd b930 a83f
00000020: 3f0a 2dbf
-0.35297874 0.0108059775 -0.09866816 0.07251834 -0.109635316 0.9737208 -0.08262122 1.3139869
-0.6759376

gn0.mean_scale f4 [9]
00000000: 69b9 323e 78fe 303f 8aff 3d3f 6e9f 3440
00000010: 71c9 8b3f 3a97 f33f 494e 7f3f 0000 803f
00000020: 8bcb 583f
0.17453541 0.6913829 0.74218047 2.8222308 1.092085 1.9030526 0.9972883 1.0
0.8468558

gn1.weight f4 [32]
00000000: a9ef af3f bd60 b03f 27c6 b73f 4d7f 9e3f
00000010: 294a 1d3f a721 d13f d74f 833f 8a14 9f3f
00000020: 44ac c63f 44d2 c63f caca 9b3f 832d 663e
00000030: d6ce a83f fc5d 893f 46a2 a83f 76a8 bc3f
00000040: 1af8 a93f fe43 d93f ae86 b73e 6786 bb3f
00000050: f38c 6d3f 47c8 9a3f bdea 513f 5418 c23f
00000060: ceff 943f d60f eb3f 5d27 9c3f 618a 673f
00000070: ef2b 813f 461d 923f a104 c33f eaaf 953f
1.3745013 1.3779522 1.4357346 1.2382599 0.61441284 1.6338395 1.025874 1.2428143
1.5521321 1.5532918 1.2171261 0.22478299 1.3188121 1.0731807 1.3174522 1.473891
1.327884 1.6973875 0.3584494 1.4650391 0.92793196 1.209237 0.8199881 1.5163674
1.1640565 1.8364208 1.2199513 0.90445524 1.0091532 1.1415184 1.5235788 1.169431

gn1.bias f4 [32]
00000000: dd0c d8be 40f9 933e da17 953f 0c1c 783f
00000010: 8dd5 2e3f cd49 a23e 10fa 9cbf fc21 6ebe
00000020: 920a 4b3f 6fdd 04be 2ede 0040 74ce a5bf
00000030: c40b 04bf 84e3 abbe acd3 893f f5cf 943e
00000040: 3bd3 653f e5ad 0b3f 1414 4dbf 1338 9b3d
00000050: ddf7 2fbf aee9 dcbf 9306 793d 2989 af3f
00000060: 4780 813e 36ca 53bf a252 33bf 1a13 34bf
00000070: 4a4f 0fbf a928 ef3e ae68 0540 31fc 1cbf
-0.42197314 0.289011 1.1647904 0.96917796 0.682946 0.3169693 -1.2263813 -0.23255152
0.79313004 -0.12975095 2.0135608 -1.295363 -0.5158045 -0.33572018 1.0767722 0.2906491
0.8977544 0.54562217 -0.8010876 0.07579055 -0.68737584 -1.7258813 0.060797285 1.3713733
0.2529318 -0.82730424 -0.7004796 -0.70341647 -0.5598036 0.4671071 2.0845141 -0.61322314

gn1.mean_scale f4 [32]
00000000: 6971 423f e4c7 693f 274d 963f 6b13 573f
00000010: ff11 973f cc1e 633f 239f 9b3f c35e 763f
00000020: a670 ab3f df05 6d3f b4e9 6a3f bd62 7f3f
00000030: 0f71 563f e15e 7a3f 2754 5d3f e789 a93f
00000040: 1ab5 4d3f 6cd9 373f 3512 813f 4582 5e3f
00000050: 293c 953f a63a 743f 9c2b 633f b8a1 af3f
00000060: 78f1 8c3f 4016 4e3f 0306 9c3f 912c a33f
00000070: 90db 9c3f eae2 803f b650 043f ec92 933f
0.759543 0.91320634 1.1742295 0.84014004 1.1802367 0.8871887 1.215794 0.96238345
1.3393753 0.92587084 0.9176285 0.9976004 0.83766264 0.97801024 0.8645653 1.324521
0.80354464 0.71816134 1.0083681 0.86917526 1.1658984 0.9540199 0.8873842 1.3721228
1.101119 0.805027 1.2189335 1.2747976 1.2254505 1.0069249 0.51685655 1.1529212

gn2.weight f4 [32]
00000000: cf9d 133f 006c 803f 2e61 df3d 107b e23e
00000010: ba6c 003f 681a 563f ba7d 853f 0f94 be3f
00000020: b35a 1e3f b0be 653f 3aaa 0c3f 6fdf 773f
00000030: 26cd 313f 0a16 b83f 4482 8c3f 41fe 363f
00000040: 86e2 513f cc86 843f d780 523f 7d2f 473f
00000050: 30ad 8e3e 1496 d23f 004b aa3f 36b7 713f
00000060: 0d6d 983f 655b a83e dfb6 0e3f 5f21 cc3e
00000070: f545 a63e b8cc 463f 79ca f63e a5b1 813f
0.5766267 1.0032959 0.109072074 0.44234514 0.50165904 0.8363404 1.0428994 1.4888934
0.61857146 0.8974409 0.54947245 0.9682531 0.69453657 1.4381726 1.0977254 0.7148171
0.8198627 1.0353637 0.82227844 0.77806836 0.27866507 1.645205 1.3304138 0.9442018
1.190828 0.32882228 0.5574779 0.3986921 0.32475248 0.77656126 0.4820135 1.0132338

gn2.bias f4 [32]
00000000: 1d0c 383e fa20 9abe 0cdb 163e d722 b7be
00000010: e916 a93d 87db fc3c 98cc 8cbe 55b2 41bd
00000020: 4c0b 553e 69e8 5abe 30c7 923d 6950 9a3e
00000030: 6e1c 87be 491a 9abd 42d3 cd3c 3bc0 d93e
00000040: 86f0 c2be e3a4 7bbd 1270 0bbd 9039 37bd
00000050: 233b 063d 7c9c 0a3f b621 06be 7efb b2be
00000060: a4da 5abe 2a87 a43e 5ece f93d a770 2abf
00000070: b638 7abe 4166 dd3d 9e3a 31bc 9310 c13d
0.17973371 -0.30103284 0.14731997 -0.35768768 0.08256323 0.030866398 -0.27499843 -0.04728921
0.2080509 -0.2137772 0.07166898 0.30139473 -0.26388878 -0.07524545 0.02512515 0.42529473
-0.3807413 -0.061436545 -0.034042425 -0.04473263 0.03277124 0.54145026 -0.13098797 -0.34957498
-0.21372467 0.32134372 0.121975645 -0.66578144 -0.24435696 0.10810519 -0.010817198 0.094269894

gn2.mean_scale f4 [32]
00000000: a07b 7c3f 72be 623f f9d3 823f 82cc 793f
00000010: 737e 6e3f 2b2a 8a3f 0375 913f 66f6 8a3f
00000020: 178a 5a3f 689e 683f c881 7a3f b46c 723f
00000030: 355d 823f 068a 7b3f 97ba 913f f5de 953f
00000040: 0269 813f 9979 8e3f 7b9c 863f 4a99 8f3f
00000050: 7e57 803f 31fe 723f c19a 6d3f fe30 5d3f
00000060: 1281 7a3f b13e 7c3f 49ff 5d3f de99 733f
00000070: 187b 6d3f 45f4 8a3f f1c1 893f 25d8 563f
0.98626137 0.88571846 1.0220939 0.9757768 0.93161696 1.0794119 1.1363834 1.0856445
0.8536696 0.9086671 0.9785428 0.9469712 1.0184695 0.9825748 1.1385068 1.1708666
1.0110171 1.1130859 1.0516504 1.1218655 1.00267 0.94919115 0.9281426 0.8640288
0.97853196 0.9853316 0.8671766 0.9515666 0.9276595 1.0855795 1.0762311 0.8392356

gn3.weight f4 [32]
00000000: b81d fa3e f6f8 1c3f 03c3 b33d 9c86 003f
00000010: cb25 a23c 668d a13e dbb1 1f3f 909d 933f
00000020: 8d7b 823e 23ba 2f3f 4d9b 8f3f 5683 943f
00000030: f309 233f 2e53 b43f 0262 853e 83c7 7d3f
00000040: d3bf b33e e028 0a3f 689d b53f b415 8f3f
00000050: 672e b73d bf72 593f c04d be3f b3f9 043f
00000060: 97ab 1e3f 2b9e 073f a03b 0abf 811e 793d
00000070: 2153 d93e 636a 8a3f 5f79 883e b148 0f3f
0.488508 0.61317384 0.0877743 0.502054 0.019793412 0.3155319 0.6238076 1.1532459
0.25484887 0.686434 1.1219269 1.160258 0.63687056 1.4087884 0.26051337 0.99132556
0.35107288 0.5396862 1.4188662 1.1178498 0.089443974 0.84940714 1.4867477 0.5194351
0.61980575 0.5297572 -0.5399723 0.060820106 0.42446235 1.0813717 0.266551 0.55970293

gn3.bias f4 [32]
00000000: b39d aabd 9ec4 c73d cd9f 3b3d ad84 773c
00000010: 61be 95bd 1954 d33b 4be4 b23c d21e 313c
00000020: f41a 40be 1a7c cfbb 2f3b 9abc 14c0 d63d
00000030: 2630 1f3c 869e 93bd a7d0 283e 9875 de3c
00000040: 8f26 b53c 3c71 89bd dbcd 153c d1dc b6bb
00000050: b71e 0a3d f23e 193d 515b 47be e479 cfbd
00000060: 4a46 653d 57e8 57be 9c73 04be 3337 61bd
00000070: 5c4b 9fb9 da17 8f3c 2a24 c03d 045d 093e
-0.0833086 0.097542986 0.045806695 0.015107316 -0.073117025 0.006449234 0.021837374 0.010810571
-0.18760282 -0.0063319327 -0.018827049 0.10485855 0.009716069 -0.0720797 0.16485845 0.027155682
0.022113113 -0.06711051 0.009143318 -0.0055805226 0.0337207 0.037413545 -0.19468428 -0.10130671
0.055975236 -0.21084724 -0.12934726 -0.054984283 -0.0003038299 0.017467428 0.09381898 0.13414389

gn3.mean_scale f4 [32]
00000000: f3b2 703f fc30 813f e7c4 7d3f 8823 7f3f
00000010: df02 7f3f 57a6 803f 3808 8d3f 3ec2 8a3f
00000020: c23b 843f 8ef4 803f dbd9 8a3f 7f9d 6f3f
00000030: 3bfe 723f d1e2 693f fdbb 803f 0513 8e3f
00000040: 8ef1 753f b31e 733f 6813 8b3f 15c2 863f
00000050: 7107 803f fdb9 823f 3585 8a3f bab5 753f
00000060: 6756 7a3f 65df 683f 2991 8f3f 1347 823f
00000070: 9ce0 6d3f bee6 713f 65eb 813f 7ddc 753f
0.94023055 1.0093074 0.99128574 0.9966359 0.99613756 1.0050763 1.1018133 1.0840528
1.0330737 1.0074632 1.0847734 0.93599695 0.94919175 0.9136172 1.005737 1.1099554
0.9607171 0.9496872 1.0865297 1.0527979 1.0002271 1.0213009 1.0821902 0.9598042
0.9778809 0.90965873 1.1216174 1.017794 0.9292085 0.9449271 1.0149962 0.96039563

bn0.weight f4 [38]
00000000: cbbc a33e 85b0 d03e ba0a f73e 8577 e6be
00000010: ff4c f43e 5857 80be 09f2 ae3e 2caf 693d
00000020: bfa0 f83e 5b8e e9bd c37c 77be 5098 2ebe
00000030: a15c bc3e 7525 923d bfc7 923e d58e b03e
00000040: 4c14 123f 0a58 bc3e ec53 a6bc 95d4 aebe
00000050: 103d 0a3f 1af2 b03c 97b9 203e c640 1e3f
00000060: 8297 b0bd 4384 d93e 6abd 0d3f 376c ae3e
00000070: 922b f43e 363b 17be b685 343f 9dd2 d53e
00000080: 0a9e 0e40 27b9 f73f 6e04 1840 08a4 e13f
00000090: c0dc b43f 59c4 e03f
0.31979975 0.40759674 0.4825037 -0.4501306 0.47714993 -0.25066638 0.34169033 0.057051823
0.4856014 -0.11404105 -0.24168687 -0.1705029 0.3678942 0.071360506 0.2866802 0.34483972
0.5706222 0.36785918 -0.020303689 -0.34146562 0.53999424 0.021599818 0.15695797 0.61817586
-0.08622648 0.4248372 0.5536715 0.34066936 0.47689492 -0.14768681 0.70516527 0.41762248
2.228396 1.9353379 2.3752704 1.7628183 1.4129868 1.755992

bn0.bias f4 [38]
00000000: c463 573d 3725 9b3e 158c c9bd 0deb 49be
00000010: 80f0 b9bd d8cb b53d 603e 17bf 84f9 4f3e
00000020: 3d66 023e 9af7 39bd f9fe 9abd 807a 0fbf
00000030: 1ba2 67be ada8 853d 629b cdbc ff38 34bc
00000040: 9ea1 af3d 6c97 c03e 9b60 92bc 82bd bc3c
00000050: 6bfc 203e 3403 0b3e c218 8fbd 36cb 753c
00000060: dc12 933c af6a cebe faf2 a0bd b735 d7bd
00000070: 76d5 ab3e d877 84bd 47df 4a3d b559 95be
00000080: 6c14 ae3e 4a92 f83e 6e58 ebbe 3f61 973e
00000090: 400b dd3e 27c4 953e
0.05258538 0.3030183 -0.09841172 -0.19718571 -0.09079075 0.08876771 -0.5907955 0.20310026
0.12734313 -0.045402147 -0.075681634 -0.56046295 -0.22620432 0.06526313 -0.025098506 -0.010999917
0.08575748 0.37615526 -0.01786833 0.023039583 0.1572129 0.1357544 -0.06987144 0.015002063
0.017953329 -0.40315768 -0.07858844 -0.10508292 0.33561295 -0.06468171 0.04952934 -0.29170004
0.33999956 0.4854911 -0.45965904 0.2956638 0.43172646 0.29251215

bn0.running_mean f4 [38]
00000000: e7f3 a2be 5229 3f3d 454d 953f d5d5 163f
00000010: 988a 543f 3e22 903e f5e3 d1bf 2ebc aebe
00000020: d13f d23e a73b b3be aa99 0740 9947 61bf
00000030: cb84 81bf ef61 17bf 51b8 a23f 468f 113f
00000040: 850e bf3e 8819 053e 996e 51bf 5aa0 993d
00000050: 9455 27bf 5105 93bf 3b31 80be 375c aa3f
00000060: bb8d c63d c48d 85bf 515e 7abf 6e86 d8bf
00000070: b720 18bf fbdd 253f c6e9 0940 c6e5 67be
00000080: c812 7540 ebc1 873f 57f9 8342 2c1a 2243
00000090: 2c0d fa42 1a8e ca42
-0.31826708 0.046670265 1.1664206 0.5892003 0.8302398 0.28151125 -1.6397692 -0.34127945
0.41064313 -0.3500645 2.118754 -0.87999874 -1.011865 -0.5913381 1.2712499 0.5685924
0.37315765 0.1299802 -0.81809384 0.07501288 -0.65364957 -1.1485997 -0.2503756 1.3309392
0.09695002 -1.0433888 -0.97800165 -1.6916025 -0.5942492 0.6479184 2.1548934 -0.22646245
3.8292713 1.0606054 65.98699 162.10223 125.02573 101.27754

bn0.running_var f4 [38]
00000000: f322 773c d7f2 733b 9c9d db3b f92d 833c
00000010: d69b c23b 1f40 c73b 1aae 213c 989d 823b
00000020: 3e6c b33c 4760 f93a e225 643b 8744 933a
00000030: 1ff1 0d3c 1b5b ae3b 1643 f73b 5e9d 2f3d
00000040: cf31 483c e6bc 8e3d 5e04 b53a d9bd 8e3b
00000050: dd76 b93b 206f aa3a 6bce 933b 255f 8e3d
00000060: a548 bc3a 7263 f73c 0660 243c e334 ba3b
00000070: 23f0 1d3c 7f70 923a a76f 2a3e 3f40 dc3c
00000080: 2656 2a40 60e2 0e3f 3231 f544 bdd0 a445
00000090: 9b44 5645 1422 2045
0.015084016 0.0037223601 0.006702138 0.016013132 0.0059389872 0.006080642 0.009868169 0.003986072
0.0219022 0.0019025885 0.003481262 0.0011235633 0.008663445 0.005320919 0.007545839 0.042874686
0.012218907 0.06969623 0.0013810506 0.0043561277 0.0056599216 0.0013003089 0.004510691 0.06951741
0.0014364911 0.030198786 0.010032659 0.005682574 0.009639773 0.0011172442 0.16644154 0.026886104
2.661508 0.5581417 1961.5374 5274.0923 3428.2878 2562.13

bn1.weight f4 [32]
00000000: 9190 1c3e c77f 813f c058 5e3f 6adc df3f
00000010: 498b 453e 083a b03f 0024 f73e b93a a03f
00000020: 3ec7 8d3f a309 823f f576 b73f 99bc 603f
00000030: b794 1540 948a 873f 0942 723f 8026 f53f
00000040: a554 b13f 4cc6 973f c3a0 0140 fbd7 6c3f
00000050: 1984 8e3f facc 9e3f 8f7e d53e b1b5 a43f
00000060: 5933 a73f 9d5c a03f e23b d83e e638 a83f
00000070: 97c7 9d3f efbf c93f 1a99 e03f 6c58 933e
0.15289523 1.011712 0.8685417 1.748914 0.19291414 1.376771 0.48269653 1.2517921
1.1076429 1.0159191 1.4333178 0.8778778 2.3372018 1.0589166 0.9463201 1.9152374
1.3853956 1.185739 2.025437 0.9251706 1.1134063 1.2406304 0.4169812 1.2867948
1.3062545 1.2528263 0.42233187 1.3142364 1.2326535 1.5761698 1.7546723 0.28778398

bn1.bias f4 [32]
00000000: a7d0 dc3d 6c4e 04bf c89f 343f 3348 c9be
00000010: 6ea8 063e b110 f13d b49c b2bc ee90 12bf
00000020: 6e7b ae3e 8f09 8bbe b2ee 1b3c d218 793e
00000030: 23a1 0b3e d6fb 3c3f 4194 173e ce64 04be
00000040: 7dea 053f 3034 883e 3ab1 ef3d dcab 8b3f
00000050: 9d31 883d 9c89 393e 98f4 d0be bbc4 fb3d
00000060: 7cc7 0f3f baa9 e63e 14a7 8f3e d1ab bbbd
00000070: f2fe 03bd 68af bcbc f205 60bd a94a 39be
0.10781985 -0.5168216 0.70556307 -0.39312896 0.13150188 0.11770762 -0.021803237 -0.57252395
0.34078544 -0.2715573 0.009517359 0.24325874 0.13635688 0.7382177 0.14802648 -0.12929079
0.52310926 0.26602316 0.11703725 1.0911822 0.06650088 0.181189 -0.4081161 0.12293383
0.56163764 0.45051366 0.28057158 -0.09163631 -0.032225557 -0.023032859 -0.05469317 -0.18094887

bn1.running_mean f4 [32]
00000000: 1178 db3e d913 813e 3989 b43f 2c5a 0140
00000010: 7bc4 773e e825 e13f 755a c23d 22b5 c83f
00000020: 35d7 1c40 110c 833f 346e 1c3e 1d1a ee3e
00000030: 9e10 2040 f484 843e 4684 3a3f 3da1 a73f
00000040: 3d75 c13e fd37 2140 2884 1840 8090 713f
00000050: bd1c 713f 35a7 fd3e d22e 943f 489e a03e
00000060: a8cd a13e 695a bd3f 0ac3 f73d b8bd 2240
00000070: 6942 ba3e 2eeb 8a3e 2522 4740 bb82 5a3f
0.4286504 0.25210455 1.4104377 2.0211287 0.24196045 1.7589693 0.094899096 1.5680277
2.4506352 1.0238057 0.15276414 0.46504298 2.5010142 0.25882685 0.72858083 1.3096081
0.37784758 2.5190423 2.3830662 0.94361115 0.94184476 0.4954163 1.1576788 0.3137076
0.31602216 1.4793216 0.120977476 2.5428295 0.36378792 0.27132553 3.111459 0.8535573

bn1.running_var f4 [32]
00000000: 4586 d63e 5f00 503f 3c2c 5040 7fef c140
00000010: 6693 483e dba6 3b40 1b3b ff3d d5b3 7140
00000020: cd91 4d40 cc3c b33f a52c 053e 3f51 813f
00000030: dce2 1241 0cfb 2d3f 2be0 a43f f2c4 6740
00000040: 6668 913f ff91 9d40 7a23 1f41 6e9c d93f
00000050: bf89 2340 f3c9 793f 917e 0140 49d1 2a3f
00000060: fcc3 c23f ea89 5b40 5023 923e f7a3 df40
00000070: 834d 693f 5628 163f 01bc dd40 bccc 913f
0.41899315 0.81250566 3.2526999 6.0604854 0.19587478 2.932059 0.12462445 3.776601
3.212024 1.4002929 0.13005312 1.0102919 9.180386 0.6796119 1.2880911 3.6213956
1.1359985 4.924072 9.946161 1.7000864 2.5552824 0.97573775 2.02335 0.66725594
1.521606 3.4302926 0.28542566 6.9887652 0.911339 0.586553 6.9291997 1.1390605

bn2.weight f4 [32]
00000000: bb8c a73f 0a05 443e 3b5d 393f 3883 a83e
00000010: 552f 293f 4354 833f ccab 473f eb99 173f
00000020: 9287 da3d 343c 7cbd 648b b33e d579 803f
00000030: 3485 ab3e d8b9 493f 1719 883f 17a8 cd3e
00000040: 3b48 5c3f d88d 163f ae81 923f c917 fa3e
00000050: f828 433f c8ac a53f c2db 573f 61b3 4f3f
00000060: 1307 703f 7b86 4c3f 4a7e 923f f876 8d3f
00000070: 2cec 8d3d 59ca 1b3f d468 5b3f c886 703e
1.3089823 0.19142547 0.72407883 0.32912612 0.6608785 1.026009 0.77996516 0.59219235
0.10670389 -0.06158085 0.35067284 1.003718 0.33500063 0.787992 1.0632657 0.40167305
0.86047715 0.58810186 1.1445825 0.48846272 0.7623439 1.2943354 0.843197 0.81133085
0.93760794 0.798927 1.144479 1.1051931 0.06929812 0.60855633 0.8570683 0.23488915

bn2.bias f4 [32]
00000000: d60f e43e 2706 8d3d fea1 6a3e edb6 e13d
00000010: 5144 6e3e bc28 c43e ecb6 9c3e 3030 203e
00000020: 27b9 0a3d fa1a 283a 6213 023e 2ba4 bd3e
00000030: 59e9 ef3d c14e ac3e 7307 d03e 2326 0a3e
00000040: 2fb9 a23e dbdd 663e 5244 d63e 89aa 253e
00000050: 80c5 a03e bd9d ec3e 360e b73e 1458 a03e
00000060: 7e8c a13e 5a2c 8e3e c624 da3e f295 d33e
00000070: f821 d23c 2869 2f3e 54c7 ad3e 0cac 9c3d
0.44543332 0.06885939 0.22913358 0.110212184 0.23268248 0.38312328 0.30608308 0.15643382
0.03386798 0.0006412711 0.12702706 0.37039313 0.117144294 0.33653834 0.40630683 0.1349111
0.3178191 0.22545569 0.41849 0.16178335 0.3140068 0.46214095 0.3575303 0.31317198
0.315525 0.27768213 0.4260618 0.41325337 0.025650963 0.17129958 0.33941138 0.07650003

bn2.running_mean f4 [32]
00000000: b4db 1b40 299a 913f b2d6 ab3f 95ec 233f
00000010: 2887 a63f b784 9640 455a 4840 ca8c 733f
00000020: c088 103f 2638 123f 4c8f 1440 6a86 ac3f
00000030: e080 813f 85b1 5740 68d7 b73f 6b6d 793f
00000040: 9594 0140 e391 5240 9902 3840 65d6 ae3f
00000050: 0269 3640 5564 ec3f bf78 3640 1b9e 3a40
00000060: f260 9c3f d9fc a63f d4fc 4240 f90d 1240
00000070: 6d7a 063f 5f8d 853f 9904 5540 cf92 9b3f
2.4352846 1.1375171 1.3424895 0.6403287 1.3009996 4.7037005 3.1305096 0.951367
0.56458664 0.57116926 2.3212461 1.347852 1.0117455 3.37021 1.4362612 0.97432584
2.0246937 3.2901542 2.8751585 1.3659178 2.8501592 1.8468119 2.8511198 2.9159
1.2217085 1.3045913 3.0466814 2.2821028 0.52530557 1.0433768 3.3284056 1.2154177

bn2.running_var f4 [32]
00000000: 9316 1c42 d544 0f41 6e56 4f41 93e7 6740
00000010: 0038 2d41 d30f 8042 0e3f 3d42 3c54 2441
00000020: 4e65 4740 9ec1 0440 f019 0342 9e79 4141
00000030: a3a2 c940 88a4 2f42 8cac 4841 6fd6 fb40
00000040: 78f5 b841 0d06 3142 74d8 1242 72d9 4041
00000050: dc5a 2942 875f b941 4707 eb41 0040 0f42
00000060: 3164 2741 88f5 4441 c10e 4142 c258 db41
00000070: 0c08 0640 019d 2741 71be 3b42 0054 3341
39.022045 8.954305 12.958601 3.6235092 10.826172 64.03091 47.311577 10.270565
3.1155581 2.0743175 32.77533 12.092192 6.301103 43.910675 12.542126 7.869926
23.119858 44.25591 36.71138 12.053087 42.33873 23.171644 29.378553 35.8125
10.461961 12.309944 48.26441 27.418339 2.0942411 10.475831 46.935978 11.208008

conv1.mlp.0.weight f4 [32, 18]
00000000: bdf5 88be 4599 1dbe 0d92 2c3e 285c a53e
00000010: 35e3 583e 008a b33c a666 4b3f d789 26c0
00000020: 1f25 c03d 6eba 0f3e 4599 41bd 0609 d53d
00000030: e58b 083f 964c 9fbc d07f 0ebd 56cf 593e
00000040: 2ba9 8e3d 4ede 02bf 01f2 a7bd f175 69bd
00000050: 0d7d aebc b717 a53d 374b 873e f073 a5be
00000060: 6ac1 dc3b 6026 57c0 39b5 ac3e b774 bcbd
00000070: 04fc 78bd 0b92 8fbe b467 b0bd 82ac 8a3d
00000080: ff1a 9cbd 5d4a c9bd 5a32 5ebe 596c 1b3d
00000090: 8cd0 26be a336 e83d e44b 26c0 747e db3d
000000a0: 40a8 95be 55ae 333e 1a92 c13d 1efe 80be
000000b0: b068 fa3d c906 5f3e e270 abbd 7789 a63c
000000c0: c3f5 e7bd 2669 dc3e 83e3 9abd e64c ca3d
000000d0: d770 253d ac6d 913e 1b6d 6dbe 4943 c2bf
000000e0: 993e 56be 8dc5 913e 2af7 4cbe 91a1 b8be
000000f0: 185e e3be 1350 c33e a896 4abf 6487 b23e
00000100: 96c7 733e 0585 153c b919 963d 099e 333c
00000110: a873 d8bd ff1d 8d3e 792a bcbc c9b9 e93e
00000120: 0236 1dbf bce5 b73e 699c 2cbe 70e5 2cbe
00000130: 43b2 ee3c 064e 3cbe 5844 cd3d 1f14 7bbf
00000140: 05d7 563e 6da5 3b3f 23ca 44be 5a8c e23b
00000150: 81ca bebd 52a0 dd3b fbd3 42bf 3307 063f
00000160: 7712 203e db72 a4bf 680c 11bf dbe3 11bc
00000170: a873 3f40 db86 303d 6726 193e 10ce 60be
00000180: c1c3 c63c 3dbc 64be 13ca 813d 7470 633e
00000190: cbc5 4ebb 6fb7 7fbd a1bf 1fbd 0805 74be
000001a0: cf7b 4bbd 202f c03d 0a11 f7bd 39b7 b13e
000001b0: 375f 40bf 3339 b53c e05b 033f 6f5c 96be
000001c0: cbcd 553e e5e1 8c3e e217 eb3e 5cff 9ebf
000001d0: 29ac 443c 6479 433f 4084 66be 39c5 923e
000001e0: a33b 93be c808 1d3e d4df 4ebf cbe6 bc3e
000001f0: 5d27 23be b9bc a8be 0bbb 49be 886c 1ec0
00000200: ddab 4fbd 7c7a 39bc c83b 933d fa09 f73b
00000210: ef3e 983d ccbb bebe b202 04bf 1092 ae3e
00000220: f85d 4dbd 2079 9ebd 735d 0fbe 8f05 ae3e
00000230: 109b 89be ac03 8e3e be51 3a3d 5d76 473e
00000240: a1a8 313e 661e bc3f c3ce 6b3e aba6 44be
00000250: 1e38 8f3d 09fe 41bf c0ee 013d b599 a83e
00000260: f8dd aebf f0c2 153f d2e1 b0be 0b61 f9be
00000270: d70f 5cbe 7ba8 5cbe be6b 70bd d13d 6abc
00000280: c020 f43d ad4c 5d3f 382b 223f e43c b3bc
00000290: c71f 293d aef1 a43e c4a9 043e 05c7 0cc0
000002a0: 0e75 183f 0aa0 0cc0 ed11 d1be ae45 cabe
000002b0: f4fd d5bd ba4b f63d 939e cc3d adcd 77be
000002c0: 2195 cb3d d491 33bf 0cb9 29be 1de7 733f
000002d0: ddff 9dbd 98aa 0dc0 4277 12be 1b6c 993d
000002e0: aa21 c4bd 968e 573c 48a3 59be f759 19bf
000002f0: 5505 d3be b07a 783e 69bb 913d daf7 a0bd
00000300: 0e2a 2abe 40a3 c1bc a4e6 bdbd 77c8 263e
00000310: 4ee9 053d 88d4 263e 1981 28be 2d53 b13d
00000320: b1ea 2fc0 cd36 56bd abc5 003e a64f 69be
00000330: 3d47 45bd 6935 03bf 48d4 cfbe 3ddd bd3e
00000340: aaf7 c839 97cb 0abd 8608 b6bd 02b4 87bd
00000350: 599e fcbe a610 2b3f 213a ecbc 3c1b ab3e
00000360: 6996 2f3f a122 f13c dafd 86be c4d8 0b3e
00000370: b850 1a3e c532 22c0 7ec4 b03e 654e eabf
00000380: 23e1 25bf 990d b4be f3ae 4dbe 204e 0dbe
00000390: 5d09 803e a18a 573d 40dc 1c3e 8810 c7be
000003a0: c5c4 f5bd 9353 8e3f 38ce d2bd 9c8b ddbe
000003b0: b89f 0140 26fa 5f3e 46e3 f63e cbf7 02bd
000003c0: 611c 19bd 8340 34bf 2d41 02bf d0f3 493e
000003d0: 2a05 02be 8de8 983b 9a44 abbd ddbe 50be
000003e0: 2070 f7be 2e9d d03e f5ac 303e e088 e73d
000003f0: e087 1fbf c703 4bbe 597b f4bc aec3 523e
-0.26749983 -0.15390499 0.16852589 0.32296872 0.21180423 0.02191639 0.79453504 -2.602163
0.0938208 0.14035961 -0.04726531 0.10402112 0.5333846 -0.019445699 -0.03478986 0.21270499
0.0696586 -0.5112046 -0.082004555 -0.056997243 -0.021299863 0.08061164 0.26424572 -0.32315016
0.006736924 -3.3617172 0.33732012 -0.09201949 -0.060787216 -0.2804111 -0.0861353 0.067711845
-0.076223366 -0.09828637 -0.21698895 0.037945125 -0.16290492 0.11338546 -2.598382 0.107174784
-0.29229927 0.17546971 0.09451695 -0.25193876 0.12226999 0.21779932 -0.0837114 0.02032922
-0.11326172 0.43048972 -0.07562926 0.098779485 0.040390816 0.28403986 -0.23186152 -1.5176784
-0.20922317 0.28471032 -0.2001616 -0.36060765 -0.44407725 0.3814703 -0.79136133 0.3486892
0.23806605 0.009125953 0.07329125 0.0109629715 -0.10568935 0.27561948 -0.022969471 0.45649555
-0.61410534 0.3591746 -0.1685654 -0.16884398 0.029137736 -0.18389139 0.10022801 -0.9807758
0.20980461 0.73299295 -0.19217734 0.006913704 -0.09315968 0.0067634964 -0.76104707 0.52354735
0.15632044 -1.2847551 -0.56659555 -0.008904423 2.991434 0.04309736 0.14956056 -0.21953607
0.024263265 -0.22337432 0.06337371 0.22210866 -0.0031551 -0.062430795 -0.03900111 -0.23830044
-0.04967862 0.093839884 -0.12063797 0.347101 -0.75145286 0.022122001 0.51312065 -0.29367396
0.20879285 0.27516094 0.4591666 -1.242168 0.012003937 0.763571 -0.22511387 0.28666094
-0.28756437 0.15335381 -0.80810285 0.3689483 -0.15932985 -0.32956484 -0.19700257 -2.4753742
-0.05070101 -0.011320706 0.07189137 0.007539031 0.07433879 -0.37252653 -0.5156661 0.34095812
-0.050138444 -0.077379465 -0.14000492 0.33988616 -0.26876116 0.27737176 0.04548811 0.19478746
0.17349483 1.4696777 0.23028092 -0.19204204 0.069931254 -0.7577825 0.03172183 0.3292977
-1.366149 0.58500576 -0.34547287 -0.4870685 -0.21490417 -0.21548645 -0.0586965 -0.014296965
0.11920309 0.8644512 0.63347197 -0.02187962 0.04129007 0.32215637 0.12955385 -2.1996472
0.5955361 -2.197268 -0.4083399 -0.39506286 -0.10448828 0.120261624 0.09991183 -0.24199553
0.099405535 -0.7014439 -0.16574496 0.95274526 -0.07714818 -2.2135372 -0.14303306 0.074913226
-0.095767334 0.013156554 -0.21253693 -0.599029 -0.41215006 0.24265552 0.07115824 -0.07859774
-0.16617605 -0.023637414 -0.09272507 0.16287409 0.0326932 0.16292012 -0.16455497 0.08658443
-2.7486994 -0.052298356 0.12575404 -0.2278429 -0.04816364 -0.5125337 -0.40591645 0.37082854
0.00038331497 -0.033885565 -0.088883445 -0.06626131 -0.4933956 0.6682228 -0.028836312 0.33419216
0.6858888 0.029435458 -0.26365548 0.13656908 0.15069854 -2.5343487 0.34524912 -1.8305174
-0.64796656 -0.35166624 -0.20086269 -0.13799334 0.25007144 0.05262244 0.15318394 -0.388798
-0.120004214 1.1119255 -0.10293239 -0.43270576 2.0253735 0.21872768 0.4822027 -0.031974595
-0.03738058 -0.7041094 -0.508807 0.19721913 -0.12697282 0.004666394 -0.08362694 -0.20385309
-0.48327732 0.4074492 0.17253478 0.11305404 -0.62316704 -0.1982566 -0.029843973 0.20582458

conv1.mlp.0.bias f4 [32]
00000000: 28cf b2bf 0fae 9fbf 9790 a5be f601 ed3e
00000010: a908 e8be dec1 b5bd 72da 87bf d809 aabe
00000020: 5d78 fe3e 3976 80bf 35e8 9fbe e316 e6be
00000030: d5b9 87bf 97d9 03bf 9cd7 0c3f f5f5 27bf
00000040: 7c61 b1be d761 823d 14a8 abbe b0cf afbe
00000050: 514d 2fbd 1e76 f33d f290 82bf 4974 00be
00000060: dc98 a2be 2e55 88bf 07e3 2cbf c89d 90bf
00000070: f001 0ebf e534 38bd 2bfc 86be 8633 673e
-1.3969469 -1.2474993 -0.32336876 0.4629056 -0.45319107 -0.08874868 -1.0613539 -0.33210635
0.49701205 -1.0036079 -0.31231847 -0.44939336 -1.0603586 -0.5150389 0.55016494 -0.65609676
-0.34644687 0.06366318 -0.3352667 -0.3433814 -0.042798344 0.118877634 -1.0200484 -0.1254436
-0.31757247 -1.0650995 -0.67533916 -1.1298151 -0.55471706 -0.04497232 -0.26364264 0.22578248

conv1.mlp.2.weight f4 [32]
00000000: 249a 653f e980 8d3f ee9d 9e3f 29af a23f
00000010: dc9b 913f 0c4e a43f 3f43 733f ebad a83f
00000020: d74d b73f 7806 c53f 94e6 b93f ae02 8f3f
00000030: 9d19 e13f 6938 8f3f 9e43 773f 363a b33f
00000040: 8ebf f63f 9fe9 8e3f 2b1b d73f 8fe3 5c3f
00000050: 7916 e23f 56f0 573f 9d9c f53f 3df5 863f
00000060: ac0d 9f3f df24 983f acfa c73f ff1f 6d3f
00000070: 3195 b33f cc2d 893f f62c 943f ec99 453f
0.89688325 1.1054965 1.2391946 1.2709705 1.137569 1.2836318 0.95024484 1.3178076
1.432063 1.5392599 1.4523492 1.1172693 1.7585942 1.118909 0.9658755 1.400214
1.9277208 1.1165045 1.6805166 0.86284727 1.7663108 0.843511 1.918842 1.0543591
1.2426047 1.1886252 1.5623374 0.9262695 1.4029905 1.0717101 1.1576221 0.7718799

conv1.mlp.2.bias f4 [32]
00000000: d4cb e0bd 0079 89be a18c 313e 6eb9 583e
00000010: f0dd e9be b5c4 113f e4ff 85be 2872 b33e
00000020: ae57 223f e873 f33d 2109 ba3e cbaf 6f3e
00000030: 52c2 ccbd a338 0c3f 72fc e3be 4424 dd3d
00000040: b121 8e3d 5b1c 413e 738a d83e 4db7 d7be
00000050: 407a 253f 068d 87be e22c d23e cd0c 063f
00000060: 7501 e53e 660b 80bd a696 013f adb7 58bf
00000070: ab48 8d3e 6884 073f 1798 813c 2f79 0b3d
-0.10976377 -0.26850128 0.17338802 0.21164486 -0.45677137 0.56940776 -0.26171792 0.35048032
0.6341504 0.11887342 0.3633509 0.23406903 -0.09998001 0.5477392 -0.44528538 0.10797933
0.0694002 0.18858473 0.42293128 -0.42132035 0.64639664 -0.2647478 0.41049868 0.5236328
0.44727674 -0.06252174 0.50620496 -0.84655267 0.27594504 0.5293641 0.015819592 0.034051117

conv1.mlp.2.running_mean f4 [32]
00000000: 35ac 3e1d 0400 0000 fb4e 8e3f ae8b d43f
00000010: dd61 233f bac4 603f 2fa4 1f3e d693 7c3f
00000020: 72e1 1c40 c74e d63e 503c 583f 5aef 7b3f
00000030: dafb 2a3f 09c9 f03e 9840 2640 5f6d ca3e
00000040: 8ce5 a43e 760b 973f cc9e 963e 6777 973e
00000050: 0d15 623f 74f0 f03d 6ba4 c73e baac b03f
00000060: 1ed4 0640 9686 7c3e 02e4 363f 97cf cb17
00000070: c9fa e63e bab9 863f 0667 0e3f a65c 503f
2.523532e-21 6e-45 1.1117853 1.6605127 0.638212 0.8780018 0.15589975 0.9866308
2.45126 0.41856977 0.8446703 0.98412097 0.66790545 0.47028378 2.5976925 0.3953657
0.3220638 1.1800373 0.29418027 0.29583284 0.8831337 0.11764613 0.38992628 1.3802712
2.1066966 0.24660715 0.7144166 1.3170971e-24 0.4511321 1.0525429 0.5562595 0.8139137

conv1.mlp.2.running_var f4 [32]
00000000: 8381 151c 0400 0000 0867 4440 ecc8 6e40
00000010: 021f d93f e2a6 2440 b39a ba3e edb4 2e40
00000020: 8cbd 0b41 1113 7d3f c21e 1240 2c0d 3340
00000030: 2181 dd3f 587d 8b3f 931e c740 3c2b 9d3f
00000040: 92ec 4f3f 2fc8 4540 66f1 223f a0d7 3a3f
00000050: 8d8d 823f 7a2b 043e 3ff4 b13f 43cb 7140
00000060: 9c2f ba40 d909 2f3f f248 0240 f5bf 4615
00000070: f521 a53f 6531 0740 2169 ab3f be86 ef3f
4.9467354e-22 6e-45 3.0687885 3.7310133 1.6962588 2.5726857 0.3644615 2.7297928
8.733776 0.9885722 2.2831273 2.797679 1.7305032 1.0897627 6.222482 1.2278819
0.8122035 3.0903432 0.63649595 0.7298527 1.0199448 0.1290721 1.3902663 3.778031
5.8183117 0.683744 2.0357022 4.013721e-26 1.2900988 2.1123898 1.3391458 1.8712995

conv1.mlp.4.weight f4 [32, 32]
00000000: 0a68 2c3e b6d9 c13d d761 9b3e 7900 1bbf
00000010: 2d38 bc3e 58b3 213e e289 0e3f a488 573e
00000020: 4a20 12bf 122a a73e 8653 943e ff6e 8c3d
00000030: b79b 3d3e a2bc d03e dd10 c03e 9e85 ebbe
00000040: 2aff 21bf 7b27 27be 323a 49bf 6e38 27be
00000050: 46c8 d9be 4cb5 bcbe 482b 14bf f7c7 0bbd
00000060: 7313 5dbe 8f73 b5bd d847 bd3d 2f90 b63e
00000070: f4c3 993e e837 d7be 565b 243f b907 bc3c
00000080: ac65 a0bd 8554 9b3e 150f 4b3f 0323 d73e
00000090: 5976 77bd e75b cc3e b49f 05be dbd2 423e
000000a0: b267 b63e 2de6 36be 8b0d aa3e 3b1c b63d
000000b0: 87e9 d5be f4e0 12be d002 3b3f 706e 183f
000000c0: dc98 273f b115 c93e c199 cf3e 8324 373e
000000d0: e89e 253f 58da 523d 867b 313f 602a a53e
000000e0: 9590 d7bd 9a1a a5bc 5368 9fbe fd0f 4dbe
000000f0: dbb0 833e 891e 163e 200b 183e 36e0 ad3e
00000100: 3ffc c13d 1cb4 fe3e 0c31 be3e 76ec 373e
00000110: 2076 2a3f d93c c23e 6b2d e43e 8e87 babe
00000120: 7147 153f d246 613f a903 e03e 9c7f 2d3e
00000130: 1b81 363f 2e16 633e 586e 0ebe 16f6 f4bd
00000140: a472 b63c 08a9 8c3d 380b a93c d8c0 3bbe
00000150: c936 3f3f 3150 a1bd c665 0d3e 8f08 973e
00000160: 883f b03e c7d3 c13d cef2 b03e 382f 403e
00000170: bf88 0d3d ca4b f43e 16b6 50be 3cc9 2038
00000180: fcaa 45be 610b edbd c39c bfbe 0178 bbbd
00000190: 9de2 cf3d c4ea 303e d469 52be 9bb8 a7bd
000001a0: e161 703d 0d78 3d3f afb2 fa3c d215 c4bc
000001b0: cb03 e03e 0b3d f13e 8e5b 93bf 8b21 bdbe
000001c0: db5a cdbe 942a 2a3d ff8f 5dbe ba27 efbd
000001d0: 6c06 1d3f 2534 99be d4e3 efbe b186 333e
000001e0: 9de8 cc3e b0a7 95be 78ad 6a3d d2b6 c2bd
000001f0: cc1d 8dbd 67c6 283f d8db e0be 0ebb 09bf
00000200: 04d0 313f 3e4b 333e 52c3 7c3d ea8d 5a3e
00000210: 676b 883f 169d b33e add1 f53e 3284 8bbd
00000220: 97b1 ecbd 831b 043f 9935 bebd 3996 673e
00000230: 6560 873f 4e36 1cbe ace7 15bf 923e 18be
00000240: 4913 a13d ab2b 9c3e 2f2c 993e 60aa dabd
00000250: 000c 613e d5b7 c23b 2d0e 3bbc 8ec6 5cbe
00000260: a7c1 04be 7346 d43e c9b4 893d 74ff 293f
00000270: 084b c7bd 24b5 7dbe 4659 cbbe 1366 8c3e
00000280: 89b6 cd3d aabf 9abe beba 973e 1f9a d93c
00000290: cc36 e7bd 7ba7 a4bd 7c42 d7bd 8217 fb3e
000002a0: dd69 7abc 340c 643e 051e 5c3e 4871 b13e
000002b0: 362f 403f d0fd 0bbe ee1f d2bc a6bf 00bf
000002c0: b295 dbbe d1a1 67be df01 fcbe 757e 6abe
000002d0: ecff d8bc 1e2a 0fbf 7bae 0abf 8fac a03e
000002e0: a5bf b93d 0132 ec3d 5f2e 043f bf68 013e
000002f0: c893 c53e 50f1 cc3c f826 ccbe fbff 85be
00000300: a798 02be 1da5 a2be 17eb 063e 23f7 913e
00000310: badf 80be 3844 7a3e 9c8f 28be 2e9c 5f3e
00000320: 4016 883e 6d3a 7fbf f153 bd3e eab6 2d3e
00000330: e90a 10bf acd7 9abc b415 a93e 6c01 97be
00000340: 60b3 843c e55b c93e f59f b7be a06a d33e
00000350: 7100 b43d b9f5 c7be debf 16bf 2146 e03e
00000360: 2896 06bf 188b 41be d7ef 2e3f 8b63 9bbe
00000370: 1d4c a93d 6997 373e c6d0 243e c201 afbd
00000380: 6cec 013e 4234 de3e b1f0 47bf e4f0 30bf
00000390: e23c 96be 68ef 83bf 9970 8ebe 40d8 3bbf
000003a0: 4867 06bf b646 40be dbbf 80bf 8ea8 42bf
000003b0: c1f9 5cbe 4f29 9dbf 7645 edbd 929b 393d
000003c0: 627b 5e3d cab6 cdbe fba3 4ebd 3b0b 053d
000003d0: 56cb 75bf 4e50 52be 1907 1e3e d419 50bf
000003e0: 7ea6 0dbd bfba 92bd e4a4 7fbf c3cb 5b3e
000003f0: 3ad8 38bf f6ee dabe 6c68 4ebe daf2 a33e
0.16836563 0.09465353 0.30348083 -0.60547596 0.3676161 0.1579107 0.5567914 0.21048218
-0.5708052 0.32649285 0.28969973 0.06857108 0.18516432 0.40768915 0.37512866 -0.4600038
-0.63279974 -0.16323654 -0.78604424 -0.1633012 -0.4253561 -0.3685707 -0.5787854 -0.03412625
-0.2158945 -0.08859932 0.09242219 0.35656878 0.30032313 -0.4203484 0.6420187 0.022952901
-0.07831892 0.3033792 0.7931989 0.420189 -0.0604156 0.39913866 -0.13049203 0.19025747
0.35625988 -0.17861243 0.33213457 0.08892103 -0.4177973 -0.14343625 0.73051167 0.59543514
0.6546762 0.39274362 0.40546992 0.17885022 0.64695597 0.05147776 0.69329107 0.32258892
-0.10525624 -0.020154286 -0.3113428 -0.2002563 0.25720868 0.14660086 0.14847994 0.33960122
0.0947194 0.49746788 0.37146795 0.17961296 0.66586494 0.37937048 0.445659 -0.36431545
0.58312136 0.8799869 0.43752792 0.1694321 0.7129075 0.2217643 -0.1390928 -0.11961
0.022271462 0.06868178 0.020635232 -0.18335283 0.7469297 -0.078766234 0.13808355 0.29498717
0.3442347 0.094642214 0.34560245 0.18768013 0.03455424 0.47714072 -0.2038196 3.8334387e-05
-0.19303507 -0.11574436 -0.37424287 -0.09153748 0.10150645 0.17277056 -0.20548183 -0.081895076
0.058687095 0.7401131 0.030602781 -0.023936186 0.43752894 0.47116885 -1.1512315 -0.36939654
-0.4010838 0.041544512 -0.21636961 -0.11677499 0.61337924 -0.29922596 -0.46853507 0.1753185
0.4002122 -0.29229498 0.05729434 -0.095075265 -0.06890449 0.6592774 -0.43917727 -0.5380105
0.6945803 0.17509171 0.06170971 0.21343198 1.0657777 0.35080785 0.48011532 -0.06812324
-0.1155731 0.5160448 -0.09287567 0.22615899 1.0576292 -0.1525509 -0.5855663 -0.14867619
0.078650065 0.30502066 0.29916522 -0.10677028 0.21977234 0.0059423246 -0.011416954 -0.21560118
-0.12964498 0.41459998 0.06723935 0.66405416 -0.09731108 -0.24776131 -0.39716548 0.27421626
0.100445814 -0.30224353 0.2963466 0.026562748 -0.112897485 -0.08039757 -0.10510728 0.49041373
-0.015284029 0.2227028 0.21495827 0.3465674 0.7507204 -0.1367104 -0.02564999 -0.5029243
-0.42887646 -0.22620322 -0.49220178 -0.22899802 -0.02648922 -0.5592364 -0.54172486 0.31381652
0.090697564 0.11532975 0.51633257 0.12637614 0.3858931 0.02501741 -0.3987348 -0.2617186
-0.12753545 -0.31766596 0.13175617 0.28508863 -0.2517069 0.24440086 -0.16461033 0.21836922
0.26579475 -0.99698526 0.36978105 0.16964307 -0.5626665 -0.018901668 0.3302437 -0.29493272
0.016198814 0.39327922 -0.35864225 0.41292286 0.08789147 -0.3905466 -0.58886516 0.43803504
-0.5257287 -0.18900716 0.68334717 -0.30349383 0.082664706 0.17928852 0.16095266 -0.08545257
0.12687844 0.43399245 -0.7810164 -0.6911757 -0.29343325 -1.0307436 -0.2782028 -0.73376846
-0.52501345 -0.18776974 -1.005855 -0.76038444 -0.21579649 -1.2278231 -0.11585514 0.04531438
0.054316886 -0.4017852 -0.050449353 0.032481413 -0.9601339 -0.20538446 0.15432395 -0.8128941
-0.034582607 -0.07164525 -0.9986098 0.21464448 -0.72204936 -0.42760438 -0.20157021 0.3202122

conv1.mlp.4.bias f4 [32]
00000000: bebc 45be f016 403d f1db 7abf aad7 1f3e
00000010: 9998 53bd 37a5 623e 405d 643e a5cb 87bf
00000020: 4845 0f3f 6102 473f 6c62 d3bd 80be 353e
00000030: 4151 053f 5ec7 d4be 3062 e83e 9cb7 0f3d
00000040: 5dcf 3ebf a6a6 dd3d 1533 4e3f 100b c23f
00000050: 2f96 d73e 835c 953f 55df 6f3f eb27 a33f
00000060: 7bac aa3f 9324 733f a4aa a539 5440 873e
00000070: bc70 113f a870 af3d 46c3 0b3f 5800 1abd
-0.1931028 0.046896875 -0.97991854 0.15609613 -0.0516592 0.22133337 0.22301197 -1.0609022
0.5596509 0.77738005 -0.10321507 0.17748451 0.5207711 -0.41558355 0.4538741 0.035087213
-0.7453516 0.10822801 0.80546695 1.5159626 0.42106768 1.1668857 0.9370015 1.2746557
1.3333887 0.9497768 0.0003159839 0.26416266 0.56812644 0.08566409 0.5459484 -0.037597984

conv1.mlp.6.weight f4 [32]
00000000: c369 823f c52e c63f d79c a33f 7af3 4c3f
00000010: ae75 993f 75c2 843f 7162 633f bde1 d13f
00000020: 8f3f a93f 0448 b13f 9fe1 9c3f 44bb 513f
00000030: 658a 9d3f 4348 863f 3325 863f c109 4f3f
00000040: c456 453f 9e8b 2e3f f365 b13f aceb de3f
00000050: 8308 6f3f b246 c03f b206 bb3f e9a5 d63f
00000060: a4ce a03f 7aa2 c03f f917 cd3f 0778 b43f
00000070: d931 bd3f 5155 2c3f ffaf 823f 1492 b13f
1.0188526 1.5483023 1.2782239 0.80059016 1.1989038 1.0371844 0.88822085 1.6397015
1.3222522 1.3850102 1.2256354 0.8192637 1.230786 1.0490803 1.0480102 0.8087426
0.7708552 0.6818179 1.3859237 1.7415671 0.9337236 1.5021574 1.4611418 1.6769382
1.2563062 1.5049584 1.6022941 1.409913 1.4780837 0.6731768 1.020996 1.3872705

conv1.mlp.6.bias f4 [32]
00000000: eb88 423e c660 3d3f 2404 553c b554 5d3e
00000010: 0280 d73e 4cb5 cbbe 3109 bd3d 30b7 25bf
00000020: 4899 21be 6b62 223d 8288 16be e8fa a53d
00000030: e75a d33e 5c21 27be 5834 08bd ca0d febe
00000040: bb66 babe 584b 0dbe 884a 86bd 1a59 abbe
00000050: c1a1 85be f0a8 8abe 4ed9 1a3e 72b4 843e
00000060: 19dc cd3e 04d5 a2be 4c1d d63c a4be ed3d
00000070: d10e 733d bc5e a5be 34b9 80bf b7e4 f6bd
0.18997543 0.7397579 0.0130014755 0.21614344 0.4208985 -0.39786756 0.09230269 -0.64732647
-0.15781128 0.03964464 -0.14700511 0.08104497 0.4128029 -0.1632132 -0.033253044 -0.49619895
-0.36406502 -0.13798273 -0.065571845 -0.33466417 -0.2609997 -0.27082014 0.15121958 0.2591892
0.40206984 -0.31803143 0.026137017 0.116086274 0.059340302 -0.3229884 -1.005652 -0.12055343

conv1.mlp.6.running_mean f4 [32]
00000000: eaa4 523f eab6 1c40 24a3 0f40 83d4 3d40
00000010: 90a0 843f 9738 ea3f ee76 1440 8f41 003f
00000020: 30b2 5140 8d21 6240 0fc1 3c40 401e 2540
00000030: 9a7c 6a40 4c4c 3b3f 10a6 2140 c988 5c3f
00000040: 0b3d 093f 7489 1640 d54d d13f 0da4 0c40
00000050: 66d8 9e3f 1d42 c73f 53d2 e13f 0bdb 8840
00000060: aa96 9040 89f0 0a40 11c8 923f 8f9d cc3f
00000070: 90bf 913f 6bbf 4b3f 4341 9d3f 8436 de3f
0.8228289 2.4486642 2.2443323 2.9660957 1.03615 1.829852 2.319759 0.50100034
3.2765007 3.5332978 2.9492834 2.5799713 3.663855 0.73163295 2.5257607 0.8614622
0.5360877 2.3521395 1.6351877 2.1975129 1.240979 1.5567051 1.7642311 4.2767386
4.5183916 2.170931 1.1467305 1.5985583 1.1386585 0.79588956 1.2285541 1.7360387

conv1.mlp.6.running_var f4 [32]
00000000: 5e80 7840 3042 3941 f1ac 8441 cde3 6a41
00000010: 9657 da40 03dd f640 61e2 d340 b914 a33f
00000020: af0a 1341 2034 1b41 d288 3e41 35cc 0c41
00000030: cb00 5e41 10ef 9b40 99dc f840 c87c eb3f
00000040: f4be e63f 3ddb 1e41 e104 dd40 13b0 0041
00000050: 0f38 2c40 c4ed c740 2450 bc40 1aca 4c41
00000060: bf6e 5c41 048d 9941 f4a4 d740 1dfb 6041
00000070: a9ab 8040 3de8 1340 7e5c 5340 efd6 6a41
3.882835 11.578659 16.584444 14.680615 6.8231916 7.714479 6.621384 1.2740699
9.190108 9.700226 11.908403 8.799855 13.875194 4.8729324 7.7769284 1.8397455
1.8027024 9.928525 6.9068456 8.042987 2.6909215 6.247774 5.884783 12.799341
13.777038 19.193855 6.738886 14.061307 4.0209546 2.3110497 3.3025203 14.677474

conv1.mlp.8.weight f4 [32, 32]
00000000: e18e 27be 0657 65be 40da 55be ca88 28be
00000010: 6d87 c83e 5dd7 bcbd bf23 f1bd e6b5 323f
00000020: 4055 353c fed7 cabe c010 4dbe 220b d3be
00000030: b040 39be 797e df3e 9258 dbbe 8e84 9fbe
00000040: fbb4 0bbe b348 bdbe 54c9 8e3e d035 bb3e
00000050: 1ff8 47be d2ab 2b3f f8a7 123f 96a0 5d3d
00000060: 869e 99be a86f 3b3f 719a d6bd 7b7a ea3e
00000070: 157c 463f e9c1 473e 2f4d 4abc da21 103e
00000080: 813d 053f 4356 71be 51e2 e0bd 55ec 03be
00000090: 73fe a5bd 4cb5 873c 1d9f 0a3e ed99 853e
000000a0: 97d9 b2be c276 0dbd bbeb debe 582d 92bd
000000b0: c62c 79be fa24 8f3d 225f 20be dd0c 18bf
000000c0: bfcf 9abc 3fd8 fabd b26c 963e b073 d23e
000000d0: 024a 0cbd 433a 713e 5399 e73d 944a 73be
000000e0: 8c83 92be 9af5 b6bb 434b 82be 7720 d73d
000000f0: 8849 0abe 71b5 1b3e bbb1 bb3e e9d0 94be
00000100: 713d 313f ba4c 2d3e 3a23 ef3e 10cb fcbe
00000110: 8f83 393f 8f18 3dbe f2ff 0abf 48a8 01bf
00000120: d96c 3fbf 41aa 9cbe ac9f 59bf f067 f4bd
00000130: 5a96 323e e6d9 0a3f c40b 19bf d993 703d
00000140: ae53 773e 2292 2fbf bcdb 1d3c 4727 6abe
00000150: be7e 363f 6862 c4be 5a24 983c 0600 5a3f
00000160: 2de7 aabe 582c a63d c96f d6be 5ea1 89be
00000170: 86e6 31bc d1e4 9d3e 51d9 093e f09f 31be
00000180: f721 8cbe b9cb efbd 9664 0cbe 2521 143e
00000190: 2547 983e 1207 b3be 3e75 ccbe a150 03be
000001a0: 6bd7 90be addc 8f3d 6689 5fbe 34e5 c63d
000001b0: 3665 0cbe af30 c0bd 0095 f6bd 489b 8fbe
000001c0: dd4c efbe a6d7 f2be f461 6c3e 1a2f c43e
000001d0: 862b ffbe e76c 953e 56b7 f63e 8dd2 5abf
000001e0: 9107 f7bd a238 5c3f 6996 4a3f 9efa 293f
000001f0: cd26 863e 90d5 ebbe ea34 21bf b779 41be
00000200: 2226 edbd 5ce7 36bf e057 ac3e 90d3 573e
00000210: 6c40 05be 666b c5be da34 92be 8efa 5e3e
00000220: 5e28 61bf 3784 28bf 5863 30bf 1a9b 613e
00000230: 8afa 28bf 676c 57be 993f 14bf 98ea 2f3c
00000240: 5b97 d8bd 1d46 a2be fea1 e8bd 30ee 043e
00000250: 0e11 68bf cf9b 4a3f 6cb3 8dbd cdf7 a2be
00000260: f454 3ebd 34f8 c6be f3d4 053f 87b3 a43e
00000270: 049e ab3e 1eeb 4dbe a20d f6bd b7bf 11be
00000280: f3dd d83e 6a11 113f 535c dbbe 1eef dd3d
00000290: e2a7 013e 1353 febe a1e3 98bd 6646 19be
000002a0: 6ba3 f3be 66a4 bebe d2b8 9bbd cd24 27be
000002b0: 0781 a53e ad91 fe3e 5588 87be 47e9 33be
000002c0: 77e9 b63e 5721 c6be 447e 703e 5c50 b93e
000002d0: 5af1 92be 89b3 d0bd 2388 8b3e 2c29 d2be
000002e0: 8fba 883e e7b1 343c e941 f93b 4b89 433e
000002f0: db36 d4bd 5a2e f13e 4094 563d cd8b adbe
00000300: b8d1 e43e ba4c a3be ca5a 69bf 332f 22be
00000310: 28d7 c2be a0a2 e03d 6f7f 643e f7a9 86be
00000320: f961 a53e dced 95bd bbe3 993e 8800 0ebe
00000330: 8e5b c23e 07e7 2abf 85bd 5a3c c370 f9bd
00000340: f1e4 7c3d 53d7 d0bc f77d 81bf c311 8bbf
00000350: 7900 ebbc bc2e 33bf a9a8 90be 9b09 b93e
00000360: eef9 c5be 1a96 89be d11b 84be a996 eebd
00000370: b332 29bf 83b1 e6be 73dc d7be 9e1d adbe
00000380: 34cb 4dbe 0c81 1f3e 07d2 13bb edcf 623e
00000390: 4d1f 0a3e 7e62 10be 2f00 98bd 8106 cabe
000003a0: 1997 44be edfd 5cbe fada a2be 7617 193e
000003b0: 5922 7fbe d98c 63be e4b8 5abd 863d ee3d
000003c0: 0004 d13d 51e7 953d 32b7 463e 584f 17be
000003d0: eef3 a63d 5969 bcbe 8eed a0be 26e1 ae3e
000003e0: da61 6bbe 943b 0fbd 06f4 b6bd 3b7b cebd
000003f0: f108 89bd 215a 973d 2651 8cbe ccae 81bd
-0.16363098 -0.22396478 -0.20884037 -0.16458431 0.39165822 -0.09220765 -0.11774396 0.69808805
0.011067688 -0.39617914 -0.20025921 -0.4121943 -0.18091083 0.43651178 -0.4284101 -0.3115582
-0.13643257 -0.36969528 0.27887976 0.36564493 -0.19528244 0.6705905 0.5728755 0.054108225
-0.30003756 0.7321725 -0.10478676 0.4579657 0.77533084 0.19507565 -0.012347504 0.14075413
0.5204697 -0.23568062 -0.109806664 -0.12883122 -0.08105173 0.016565941 0.1353726 0.26094
-0.34931633 -0.034537084 -0.43539223 -0.07137555 -0.24333486 0.069894746 -0.1566129 -0.5939463
-0.01889789 -0.12248277 0.29379803 0.41103888 -0.034250267 0.23557381 0.11308541 -0.23758918
-0.28615987 -0.005583477 -0.25448045 0.10504239 -0.13504612 0.15205933 0.36659035 -0.29065636
0.6923438 0.169238 0.46706563 -0.49373674 0.7246637 -0.184664 -0.5429679 -0.506474
-0.74775463 -0.30598643 -0.85009265 -0.11933887 0.17440167 0.54238737 -0.5978358 0.05873475
0.24153015 -0.68582356 0.009634908 -0.22866546 0.71287143 -0.38356328 0.018572021 0.85156286
-0.33379498 0.08113927 -0.4188216 -0.26880926 -0.010858184 0.30838636 0.13461806 -0.17346168
-0.27369663 -0.11708779 -0.13710245 0.14465769 0.2974178 -0.34966332 -0.399332 -0.12823726
-0.2828935 0.070245124 -0.21829757 0.09711686 -0.13710484 -0.09384286 -0.12040138 -0.28048158
-0.4673833 -0.47430152 0.23084241 0.38317186 -0.49837893 0.29184648 0.4818675 -0.85477525
-0.1206199 0.86023915 0.7913576 0.66398036 0.26201478 -0.46061373 -0.62971365 -0.18894087
-0.11579539 -0.71446776 0.33660793 0.21076798 -0.13012856 -0.385585 -0.28555948 0.21775267
-0.8795222 -0.65826744 -0.68901587 0.22031823 -0.6600729 -0.21037446 -0.5790954 0.010737084
-0.10575744 -0.31694117 -0.113590226 0.12981486 -0.90651023 0.79143995 -0.06918988 -0.31829682
-0.046467736 -0.3886124 0.5227806 0.32168218 0.33518994 -0.20109221 -0.12014319 -0.1423329
0.42356834 0.56667197 -0.42843875 0.108366236 0.12661698 -0.49672756 -0.07465292 -0.14968261
-0.47585616 -0.372348 -0.07603611 -0.16322632 0.32325003 0.49720517 -0.264712 -0.17569457
0.35724995 -0.3869731 0.23485667 0.36194122 -0.28699762 -0.101904936 0.27252302 -0.41047037
0.26704833 0.011028743 0.007606734 0.19095342 -0.10362025 0.47105676 0.052387476 -0.33895722
0.44691253 -0.31894475 -0.9115416 -0.15838318 -0.38054776 0.10968518 0.22314237 -0.26301548
0.3230131 -0.07320759 0.30056557 -0.1386739 0.37960476 -0.6675877 0.013350849 -0.12179711
0.061741773 -0.0254933 -1.0116566 -1.0864795 -0.028686749 -0.69993186 -0.28253677 0.3614014
-0.38667244 -0.2687233 -0.25802472 -0.1164983 -0.66092986 -0.45057306 -0.42160377 -0.3381166
-0.20097047 0.15576571 -0.0022555606 0.2214963 0.13488503 -0.14100072 -0.0742191 -0.39458087
-0.19198264 -0.2158124 -0.3180769 0.14950356 -0.24915446 -0.22221698 -0.05339898 0.116328284
0.10205841 0.07319511 0.19405821 -0.14776361 0.08151995 -0.36799124 -0.3143124 0.3415615
-0.22986546 -0.034968928 -0.089332625 -0.10082098 -0.066911586 0.073902376 -0.2740566 -0.06332168

conv1.mlp.8.bias f4 [32]
00000000: 4e0a 0d3f 8c3b 093f 816c 073f d38b b9be
00000010: b5af aabe bf80 86be a775 bf3f 908a 813d
00000020: c2cd 673e 9e75 163e a194 a2bd 9032 48bd
00000030: ad06 ab3e 27ae eebe 0bf7 093f f3e2 853f
00000040: a485 803d f2a9 b93f 104a 663e 3736 8f3e
00000050: 1267 133f 42ab 943a 8f0f 3dbe b3cf 153f
00000060: c608 60be 59d9 193d ee05 453f 29f4 903e
00000070: 947d 123e d614 95bd 15e1 3f3f d4eb b6bf
0.5509385 0.53606486 0.5289994 -0.3623949 -0.3333718 -0.262701 1.495778 0.06325257
0.22637084 0.14693305 -0.07938505 -0.048876345 0.3340353 -0.46617243 0.5389258 1.0459884
0.0627549 1.4504988 0.2248919 0.2797105 0.5757915 0.0011342543 -0.18462966 0.5852005
-0.21878347 0.037560795 0.76962173 0.2831128 0.14305717 -0.07279365 0.7495282 -1.4290719

conv1.mlp.10.weight f4 [32]
00000000: 2a4a fb3f 92f9 9e3f 56f2 523f c898 3140
00000010: e72d 1040 b655 e03f ca77 1140 3515 e43e
00000020: 9db3 df3f 8247 ad3f b7f9 ad3f 46b4 583f
00000030: 3379 103f 742f b93f 369f a93f 1dfe 1540
00000040: 886e c23f b300 0340 49be 4a3f 1811 933f
00000050: bc83 1040 3a84 8b3f ed25 853e a036 d53f
00000060: 2a52 023f f570 f03f 6131 f73f 94db a63f
00000070: 4e87 9d3f 7f62 033f 0d88 2940 76a5 eb3f
1.9632008 1.2419913 0.82401025 2.77495 2.2528017 1.7526157 2.2729363 0.4454743
1.7476689 1.3537447 1.3591832 0.84650075 0.56434935 1.4467607 1.3251712 2.3436348
1.5189981 2.0469177 0.791966 1.1489592 2.2580404 1.0899727 0.26005498 1.6657295
0.5090662 1.8784472 1.9311944 1.303576 1.2306917 0.5132217 2.6489289 1.840987

conv1.mlp.10.bias f4 [32]
00000000: 6463 ed3e ddeb 343e b8b3 313f bf2c aa3e
00000010: 185d e5be 0fd9 4cbe 9fa1 313f c222 d8be
00000020: 7b78 9a3f 61aa 18bd 639b 133f 87f2 843e
00000030: 50b8 b0bf ac00 b33e 9c10 a8bd a820 1c3f
00000040: 076c 6bbf 68aa 31bf 9a77 983e e8a0 5a3f
00000050: 0bfb 2e3f e950 bcbd 3720 c5bd fb32 40bf
00000060: 1a92 323e 905f 22bf e61a 903f 40bc a43f
00000070: be0e 68bf 4166 83be a314 423f eee8 07bf
0.46364892 0.176681 0.69414854 0.33237264 -0.44797587 -0.20004676 0.6938724 -0.42214018
1.2068018 -0.03727186 0.57658976 0.25966284 -1.3806248 0.3496145 -0.08206293 0.6098733
-0.9196171 -0.69400644 0.2977875 0.85401773 0.6835181 -0.0919512 -0.09625285 -0.7507779
0.17438546 -0.63427067 1.1258209 1.2869949 -0.90647495 -0.2566395 0.7581274 -0.530898

conv1.mlp.10.running_mean f4 [32]
00000000: 2e4a 2a40 91f7 bc3f 0ddf 1b40 1c36 3740
00000010: 62e3 0d40 6ce4 f03f 4ad0 9140 94eb ae3f
00000020: f1ad 9740 b131 3940 67d7 d23f a800 923f
00000030: ac50 3d40 d8dc 233f 94b9 2740 1abd 5840
00000040: 4bf9 5440 c34c 5f40 33ad e53f 198c 2c40
00000050: 35b3 2b40 91b2 b83f 9d21 703f 6a64 0340
00000060: 949b 6a3f 0fce 1240 e449 a040 1dee 6140
00000070: 9994 3240 38c1 9a3f d292 7740 0794 173f
2.6607776 1.4763051 2.435489 2.8626776 2.2170033 1.8819709 4.556676 1.3665643
4.739983 2.893658 1.6471986 1.140645 2.9580488 0.64008856 2.6207018 3.3865418
3.3277156 3.4890602 1.7943481 2.696051 2.682813 1.4429494 0.9380129 2.0530038
0.91643643 2.2938268 5.00902 3.5301583 2.7903197 1.2090216 3.8683362 0.59210247

conv1.mlp.10.running_var f4 [32]
00000000: f72f c941 550a ae40 b421 3e41 62a6 f741
00000010: 024e 5241 a80a 0e41 db7f 8841 be4f 0340
00000020: 9e44 d241 c48b 6041 f0c7 2341 e5a7 2140
00000030: 9738 3141 d21b 0c40 901c b140 05a5 d441
00000040: 28e4 d941 c468 af41 1f62 7a40 2cd0 f840
00000050: f540 a141 3652 ca40 50ac de3f b20e 5c41
00000060: 75ef 2740 3e0d 6d41 8ecc b641 e4e4 6641
00000070: 0da2 bb41 3b56 8840 2537 4f42 2941 a440
25.14842 5.438761 11.883228 30.956242 13.144045 8.877602 17.06243 2.051742
26.283504 14.034122 10.236313 2.5258725 11.076316 2.189198 5.5347366 26.580576
27.236404 21.926155 3.9122388 7.7754116 20.156717 6.3225355 1.7396336 13.753588
2.6239903 14.815733 22.84988 14.4308815 23.454126 4.260526 51.803852 5.132954
