GraphNeuralNet/Skim1E2Mu/epoch120/MHc-70_MA-65_vs_nonprompt/models/ParticleNet-nNodes64_Adam_initLR-0p0001_CyclicLR.pt (torch, 302566 bytes, 102 tensors)

gn0.weight f4 [9]
00000000: 2089 883f 6c78 793f 888a 783f a5e4 783f
00000010: 59be 723f c186 783f b0d7 813f 21a0 813f
00000020: 174d 863f
1.0666847 0.97449374 0.9708638 0.97223884 0.948217 0.9708062 1.0143948 1.0126992
1.0492276

gn0.bias f4 [9]
00000000: 0564 f23c 4cf4 8fbc 68df d93b 22ef 0ebc
00000010: 583f 1bbc d777 e53c 87ed 38bc 0e69 0d3d
00000020: 2408 2bbb
0.029588709 -0.017572545 0.0066489466 -0.008724006 -0.009475552 0.028011246 -0.0112871 0.034524016
-0.0026097381

gn0.mean_scale f4 [9]
00000000: 89a3 853f a78c 823f a752 853f c0cd 813f
00000010: 61f0 793f faf0 873f d5ef 803f d451 773f
00000020: bf70 823f
1.0440532 1.0199174 1.0415848 1.0140915 0.97632414 1.0620415 1.0073191 0.96609235
1.0190657

gn1.weight f4 [64]
00000000: a99e 803f 8023 7e3f a9f2 803f 54af 7b3f
00000010: 7f18 7e3f 8881 7f3f e586 763f 50e1 7b3f
00000020: f1b6 7e3f 6c9d 7b3f 87bd 7e3f 4366 7b3f
00000030: adcb 7b3f 105e 7e3f 0a32 7b3f 35f9 783f
00000040: 4037 7d3f 3fff 7e3f f0d7 7b3f cca6 7d3f
00000050: ecb2 7c3f 4f88 7c3f 6bd0 7e3f cc7f 7e3f
00000060: babd 7e3f 7a17 7d3f 9f12 7a3f c700 7b3f
00000070: e213 7a3f ec5c 7e3f 2cc3 7b3f a4a2 7d3f
00000080: 8846 7c3f 9711 803f a20c 803f 1557 7a3f
00000090: 0b81 7f3f dcb1 7b3f bae1 7d3f f848 7b3f
000000a0: 4066 7e3f 89b9 763f 3642 7d3f a774 783f
000000b0: d1a0 7c3f 4125 7b3f a36a 7b3f 19d9 7c3f
000000c0: c648 7b3f a9a3 803f 3244 7b3f f08b 7b3f
000000d0: 0304 7f3f 70f2 7a3f 8c45 7e3f f020 7c3f
000000e0: 1db5 793f 0f45 7a3f 9880 7b3f 0cb7 7c3f
000000f0: eb96 7b3f a9e4 793f 7d8b 773f 2575 7b3f
1.0048419 0.9927292 1.0074054 0.98314404 0.9925613 0.99807024 0.9629958 0.98390675
0.99497896 0.9828708 0.99507946 0.98202914 0.9835766 0.9936228 0.9812323 0.9725526
0.9891243 0.99608225 0.9837637 0.99082637 0.98710513 0.9864549 0.9953677 0.9941375
0.9950825 0.9886395 0.97684664 0.9804806 0.9768659 0.9936054 0.98344684 0.99076295
0.9854512 1.0005368 1.0003855 0.97789127 0.9980628 0.98318267 0.99172556 0.98158216
0.9937477 0.96376854 0.98929155 0.97053 0.98682886 0.9810372 0.9820959 0.98768765
0.9815792 1.0049945 0.9815093 0.982604 0.99615496 0.9802618 0.9932487 0.9848776
0.9754198 0.97761625 0.98243093 0.9871681 0.9827716 0.9761453 0.9669722 0.98225623

gn1.bias f4 [64]
00000000: 0cc7 51bb 315a 20bc 5d18 02bc e643 d33c
00000010: 29be 0fbb 6943 f93b 39e6 103b f062 343c
00000020: d16f bdbc 4bb5 13bc 4568 523c 00a8 e73b
00000030: 6a4e 903b 14bb 543c f658 47bb 717c 88bc
00000040: 1f25 683c a460 05bb 1bf4 4f3c 235c 1eb9
00000050: e5e2 2d3c e962 5eba 375c 6dba 7750 a63a
00000060: 89c6 02bc 5cd9 3b3c 9ca4 7e39 95dc e83b
00000070: 68f4 83ba c7a8 7b3c 59b5 08bd 72bd 8c3b
00000080: 19ca 54bc e42e b4bb f2d9 4a3c 07bf 8b3c
00000090: c5bb 503b 6831 da3a c76b 803c a922 dfbb
000000a0: 5c2b 113c 6fa2 b4bc 5141 043c 5a06 4f3c
000000b0: e89c da3b 9999 3b3c f15f ca3a 4764 b2bb
000000c0: 284d 73bc 625d 66bc 0c66 f8b8 b7b6 15bc
000000d0: bc51 9e3b 2313 543b 67fa 2f3c 7d45 203c
000000e0: a647 4d3c a38d 11bc 1d6d 54bc 70d7 f03c
000000f0: b456 64bc d418 47bc cde7 f338 4d2b d4bb
-0.003200951 -0.009787128 -0.007940379 0.025789212 -0.0021933413 0.007606913 0.002210988 0.011009917
-0.023124607 -0.009015392 0.012842243 0.0070695877 0.004403879 0.012984056 -0.0030418015 -0.0166609
0.014169007 -0.0020351792 0.012692477 -0.00015102378 0.010613178 -0.00084833667 -0.00090545736 0.0012688775
-0.007981905 0.011465397 0.0002428465 0.0071063736 -0.0010067346 0.015360064 -0.03337607 0.0042950446
-0.012987637 -0.005498754 0.012381064 0.017058862 0.00318502 0.0016646804 0.015676392 -0.0068095517
0.008860435 -0.02205011 0.008072213 0.012635792 0.0066715367 0.011450195 0.001543997 -0.005444083
-0.014849938 -0.01406035 -0.00011844569 -0.009137801 0.004831521 0.003236004 0.010740853 0.009782192
0.012529289 -0.0088838665 -0.012965468 0.029399604 -0.013936687 -0.012151916 0.00011630319 -0.0064748884

gn1.mean_scale f4 [64]
00000000: fcd0 7f3f 6966 803f 9235 803f 96af 7f3f
00000010: a89a 7f3f f5d7 7f3f 7250 803f 9502 803f
00000020: 2cc8 7f3f 1a3a 803f 3162 7f3f c876 7f3f
00000030: 12aa 7f3f d3ea 7f3f 88ef 7f3f 3e41 803f
00000040: 4cb6 7f3f 4c45 803f 8934 803f d2c5 7f3f
00000050: 1dee 7f3f ca59 7f3f 58bb 7f3f 1e5a 803f
00000060: db54 7f3f a266 7f3f 3825 803f 2fb2 7f3f
00000070: 5915 803f b613 803f c79a 7f3f e608 803f
00000080: 92b6 7f3f 262d 803f 3540 7f3f 068a 7f3f
00000090: c770 803f cf95 7f3f 63fd 7f3f 6a15 803f
000000a0: 55fe 7f3f 6d09 803f a8dc 7f3f 4cc2 7f3f
000000b0: cf13 803f 2143 803f 5d47 803f d46e 803f
000000c0: e043 803f ec26 803f d8d1 7f3f 016f 7f3f
000000d0: ef03 803f c067 803f 1c76 803f 9622 803f
000000e0: 38c1 7f3f 0dd9 7e3f 9f4c 803f 5f34 803f
000000f0: 074b 803f d13d 803f f124 803f 969f 7f3f
0.9992826 1.0031253 1.0016348 0.998773 0.9984536 0.999389 1.002455 1.0000788
0.99914813 1.0017731 0.99759203 0.9979062 0.9986888 0.9996769 0.9997487 1.001991
0.9988754 1.0021148 1.0016032 0.99911225 0.9997271 0.9974638 0.9989524 1.0027502
0.99738854 0.9976598 1.0011358 0.9988126 1.0006515 1.0006015 0.99845546 1.0002716
0.99887955 1.0013778 0.9970735 0.9981998 1.0034417 0.99837965 0.9999601 1.0006535
0.99997455 1.0002877 0.9994607 0.9990585 1.0006045 1.0020486 1.0021778 1.0033822
1.0020714 1.0011878 0.9992957 0.99778754 1.00012 1.0031662 1.0036044 1.0010555
0.99904203 0.99549943 1.0023383 1.0015982 1.0022897 1.0018865 1.0011274 0.99852884

gn2.weight f4 [64]
00000000: dcf2 783f 2062 793f 018a 773f 20b9 793f
00000010: df67 7b3f 0494 793f 2b44 7c3f b547 793f
00000020: e5fc 793f 81cd 763f 243a 7a3f 12ca 783f
00000030: a749 7d3f 6636 7a3f dcc0 7a3f 3f68 773f
00000040: 7e2e 763f df21 7a3f cb4f 773f b863 7b3f
00000050: 767d 7a3f e3be 7a3f 3c34 7d3f 9136 773f
00000060: c8f3 7c3f 8aac 7c3f 59a1 763f 969d 763f
00000070: d23a 7c3f 5385 7a3f 416d 783f bcd2 793f
00000080: 66be 7c3f 15cd 783f 566f 7a3f 582a 7b3f
00000090: 0082 793f 273a 7c3f 5fa2 7d3f 54db 7a3f
000000a0: c87b 7f3f c004 7e3f 3712 7a3f 5abd 793f
000000b0: 290f 763f 4cbd 773f 2209 783f 9b8d 7a3f
000000c0: 3a3a 7a3f d29b 7b3f 79cb 793f 4492 7a3f
000000d0: 2d11 763f 3180 7c3f cda9 7f3f 3960 7b3f
000000e0: 014e 773f a402 7b3f 7e43 7a3f eebc 763f
000000f0: 9540 773f 42b8 7e3f 4c61 7d3f b408 793f
0.97245574 0.9741535 0.9669495 0.97548103 0.9820537 0.9749148 0.98541516 0.9737504
0.9765151 0.96407324 0.97744966 0.97183335 0.9894051 0.97739255 0.9795053 0.9664344
0.9616469 0.97707933 0.9660613 0.98199034 0.9784769 0.9794752 0.9890783 0.96567637
0.9880948 0.98700774 0.96339947 0.9633421 0.9852725 0.97859687 0.9704171 0.9758718
0.98728025 0.9718793 0.97826135 0.98111486 0.9746399 0.98526233 0.99075884 0.9799092
0.9979825 0.99226 0.97684044 0.9755455 0.9611688 0.9677322 0.96888936 0.9787232
0.97745097 0.9828464 0.975761 0.97879434 0.9611996 0.98633105 0.9986847 0.981937
0.966034 0.98050904 0.97759235 0.96382034 0.9658292 0.99499905 0.9897659 0.97278905

gn2.bias f4 [64]
00000000: 3346 683c 890d 353b da6b 073c 675f 303b
00000010: 1098 953a 62e2 0a3c 2139 1f3c c52d 2c3c
00000020: 9112 7d3b 8cf1 053a 6beb adba 3ea9 633c
00000030: e3c1 6cbc f324 373a e8b2 1a3c ed7b a038
00000040: 40a4 68bc 8f72 10bc 8520 9ebb b3c1 833c
00000050: d0a5 b138 6412 ca3b 1e52 43bb a11d 5abc
00000060: bd58 c53a dc8a ca3b 2b9e 06bc 634f 66bb
00000070: 3a48 e93b 16b2 11bc 7bab 5c3c 2e1e 7c3c
00000080: 0e65 9d3b e6c5 b93b 39a7 193a b5db 7f3b
00000090: d76d 293a 7259 72bb 9469 cbbb f6d6 843b
000000a0: 6b78 e13b 7094 24bb bd57 243c 5c44 7e39
000000b0: 0c92 073c 8121 293b 2cd3 443b 4988 48bc
000000c0: a779 cb3b 8bdb 8ebc 0727 8bbb c038 d93b
000000d0: 8594 283c c1e7 89bc a360 263c 603c c93b
000000e0: e843 bdbb b387 e3b9 14ff 7b3b 8815 5c3b
000000f0: 03a1 9ebb bf50 08bc d6f5 a3bb f9de f33b
0.014176893 0.0027626476 0.00826546 0.0026912333 0.0011413116 0.008476825 0.00971821 0.010508959
0.0038615803 0.00051095407 -0.0013269013 0.013895331 -0.014450523 0.0006986402 0.009442069 7.6524775e-05
-0.0141993165 -0.008816375 -0.004825654 0.016083574 8.470903e-05 0.006166743 -0.0029803584 -0.013312728
0.0015056353 0.006181104 -0.008216421 -0.0035142533 0.007119206 -0.008892557 0.0134686185 0.015388055
0.0048033064 0.0056693433 0.0005861405 0.0039040868 0.0006463206 -0.0036979583 -0.0062076543 0.0040539457
0.00688081 -0.002511289 0.010030684 0.00024248793 0.008274566 0.0025807323 0.0030033095 -0.012239524
0.0062095704 -0.01743867 -0.004246596 0.0066290796 0.010289316 -0.016834142 0.010154876 0.0061412305
-0.0057759173 -0.00043397918 0.00384516 0.003358217 -0.0048409714 -0.008320033 -0.005003671 0.007442352

gn2.mean_scale f4 [64]
00000000: 7379 7f3f 408c 7f3f f60b 803f 3c16 803f
00000010: 7231 803f 752f 803f 69a3 7f3f 0ed9 7f3f
00000020: fb18 803f 7ccb 7f3f 17b9 7f3f 682f 803f
00000030: 8d02 803f 8bdb 7f3f a1e5 7f3f cc0e 803f
00000040: 087b 7f3f cbf4 7f3f 3188 7f3f 6f95 7f3f
00000050: 7e08 803f 8314 803f dc02 803f ccf6 7f3f
00000060: 0568 7f3f 88b3 7f3f 922a 803f 7b1a 803f
00000070: aeec 7f3f de4b 803f 393c 803f bfe4 7f3f
00000080: ec30 803f 9d5c 7f3f 0536 803f dd17 803f
00000090: 94d1 7f3f bd9e 7f3f a1e0 7f3f 1d05 803f
000000a0: 99a3 7f3f 841d 803f aa5e 803f 3913 803f
000000b0: 1b2f 803f 8de7 7f3f b0b5 7f3f d43c 803f
000000c0: 59e9 7f3f a8f2 7f3f 3dcb 7f3f 583c 803f
000000d0: 9c01 803f 50d0 7f3f 850e 803f a81b 803f
000000e0: ce0f 803f ecce 7f3f 6714 803f 3c0a 803f
000000f0: a277 7f3f 2f13 803f a627 803f a2b2 7f3f
0.9979469 0.9982338 1.000365 1.0006785 1.001509 1.0014483 0.9985872 0.99940574
1.0007623 0.9991987 0.998918 1.0014467 1.0000778 0.9994437 0.9995976 1.0004516
0.99797106 0.999829 0.99817187 0.9983739 1.0002592 1.000626 1.0000873 0.9998596
0.99768096 0.9988332 1.0012991 1.0008081 0.9997052 1.0023153 1.0018378 0.99958414
1.001493 0.9975069 1.0016485 1.0007282 0.99929166 0.9985159 0.9995213 1.000156
0.99859005 1.0009007 1.0028889 1.0005866 1.0014375 0.99962693 0.9988661 1.0018563
0.99965435 0.9997964 0.9991949 1.0018415 1.0000491 0.99927235 1.0004431 1.000844
1.0004823 0.9992511 1.0006226 1.0003123 0.9979192 1.0005854 1.00121 0.9988195

gn3.weight f4 [64]
00000000: 4a50 753f 54b9 723f 9776 723f 5d38 733f
00000010: a5e4 743f df61 723f 1d35 723f 8be4 713f
00000020: 7915 733f e5d5 753f 10cd 763f e29e 773f
00000030: 2a9f 713f 1d05 733f 37bc 763f dc44 763f
00000040: 0825 703f 425c 723f 2d08 743f e1e8 743f
00000050: b1e4 723f c3a5 743f e258 733f 47d5 6e3f
00000060: 6f3e 723f 3ee9 743f f068 743f 4c17 743f
00000070: ef09 753f 5841 753f 07bd 6f3f d749 733f
00000080: 0e31 723f b426 743f 0336 6d3f 3a7b 703f
00000090: 112e 6e3f 73b9 723f 5f45 783f b53f 753f
000000a0: 19d6 763f ad92 753f d173 753f 5663 733f
000000b0: ddd0 713f a3eb 743f 8563 753f 3c35 703f
000000c0: e31f 763f 7970 703f b656 763f 05e2 753f
000000d0: ce80 713f b0fa 733f c605 713f afbd 713f
000000e0: fe93 733f b099 6c3f 4351 753f 4703 753f
000000f0: 9329 743f 1586 763f bce1 733f f08a 713f
0.95825636 0.9481404 0.94712204 0.9500788 0.95661384 0.9468059 0.94612294 0.94489354
0.9495464 0.960295 0.9640665 0.9672681 0.9438349 0.9492968 0.96380943 0.9619882
0.93806505 0.94672024 0.95324975 0.95667845 0.94880205 0.9556543 0.950575 0.93294185
0.94626516 0.956684 0.9547262 0.9534805 0.9571828 0.9580283 0.9364781 0.95034546
0.946061 0.95371556 0.9266054 0.9393803 0.9303904 0.94814223 0.9698085 0.95800334
0.9642044 0.95926934 0.95879847 0.9507345 0.94459325 0.95672053 0.9585498 0.9383123
0.96142405 0.9392162 0.9622606 0.96048003 0.94337165 0.95304394 0.94149435 0.9443006
0.95147693 0.9242201 0.9582712 0.95708126 0.9537594 0.9629834 0.9526632 0.94352627

gn3.bias f4 [64]
00000000: c774 463c 0ff4 9e3b 4ef3 de3a 8ade a7bb
00000010: 6709 853c 6c00 e3bb a339 f7ba b276 9fba
00000020: ad74 1139 d618 ff3b c008 98bb 5459 163b
00000030: fae4 373a 039d 343c eba3 3ebb 4896 0cba
00000040: b182 963a dd5b 70ba 1b9b 0f3c 0ccc dbbb
00000050: 84b8 703a 920c 323c 62ec 393c a83b 7bbb
00000060: fd58 c339 8a1d e6bb c896 d53b 1431 923b
00000070: 9bc7 57bb 62b3 053b 3893 033b 3186 1dbc
00000080: c9cc 8dbb c910 94bb 90b3 81bb 6f1b 603b
00000090: 0097 8a3b 64b7 94b9 63a0 24bc 89d6 1e3a
000000a0: 9d5e 0739 26bd ae3b 6d5f 74bc 677e 0bbb
000000b0: 1121 943b d653 c03b c40d 14bc d942 d83b
000000c0: 54a3 033a 7c17 343c 45c3 233b 454d ac3a
000000d0: 499c 1a3a 3a5b 7639 9625 1c3c 6eba 3c3c
000000e0: 0eb1 d0bb fa58 473c c307 bdba bd41 bdbb
000000f0: 820c 373b 8bc0 92b7 064f 4abb 304f f83a
0.012112803 0.0048508714 0.0017009766 -0.0051229643 0.016239835 -0.0069275405 -0.0018861782 -0.0012166111
0.00013871743 0.007784943 -0.004639715 0.0022941427 0.0007015016 0.011023763 -0.0029089402 -0.000536297
0.0011483041 -0.0009168962 0.008765007 -0.006707674 0.00091827684 0.010867255 0.011347862 -0.0038335118
0.000372596 -0.0070225643 0.0065182187 0.004461417 -0.003292537 0.002040111 0.0020076763 -0.009614513
-0.004327391 -0.0045186025 -0.003958173 0.003419604 0.0042294264 -0.00028365396 -0.010048005 0.000605919
0.0001290985 0.005332607 -0.014915329 -0.0021285058 0.0045205434 0.005869369 -0.009036485 0.0065997657
0.0005021591 0.010991927 0.0024988216 0.0013145587 0.0005897922 0.00023494373 0.009530446 0.011519058
-0.006368763 0.01216721 -0.0014421869 -0.005775659 0.002793104 -1.7494216e-05 -0.0030869856 0.0018944498

gn3.mean_scale f4 [64]
00000000: cebf 7f3f 9622 803f f4ef 7f3f 2526 803f
00000010: e238 803f 04ef 7f3f c0e8 7f3f ee26 803f
00000020: 6005 803f 362a 803f 458a 7f3f 2ae8 7f3f
00000030: 28e3 7f3f 7099 7f3f 22fe 7f3f d729 803f
00000040: 433c 7f3f f249 803f b91b 803f c82a 803f
00000050: 5f0b 803f da04 803f 2321 803f 0c17 803f
00000060: 3d01 803f 5235 803f a110 803f 0279 7f3f
00000070: b22c 803f 9404 803f a131 803f fd93 7f3f
00000080: 4528 803f 0cdf 7f3f 28cd 7f3f c201 803f
00000090: b4eb 7f3f 29e7 7f3f da3e 803f 4c0c 803f
000000a0: e308 803f aeb5 7f3f f8f2 7f3f 8efb 7f3f
000000b0: a01c 803f d34f 803f 7c1e 803f 63b9 7f3f
000000c0: 9671 7f3f d9a9 7f3f 2890 7f3f 23d5 7f3f
000000d0: 1833 803f 7b0f 803f 96cd 7f3f d33d 803f
000000e0: fae2 7f3f b314 803f 7fce 7f3f 726b 7f3f
000000f0: cdda 7f3f 3301 803f 97be 7f3f 4502 803f
0.99902046 1.0010555 0.99975514 1.0011641 1.0017359 0.99974084 0.99964523 1.001188
1.000164 1.0012882 0.9982036 0.9996363 0.9995599 0.998435 0.9999715 1.0012769
0.9970133 1.0022566 1.000846 1.0013056 1.000347 1.000148 1.0010113 1.0007033
1.0000378 1.0016272 1.0005075 0.9979402 1.001364 1.0001397 1.0015146 0.9983519
1.0012289 0.9994972 0.9992242 1.0000536 0.9996903 0.999621 1.0019181 1.0003753
1.0002712 0.99886596 0.99980116 0.99993217 1.0008736 1.002436 1.0009303 0.9989225
0.99782693 0.9986854 0.9982934 0.99934596 1.0015593 1.0004724 0.99923074 1.0018867
0.99955714 1.0006317 0.99924463 0.99773324 0.9994324 1.0000366 0.9990019 1.0000693

bn0.weight f4 [70]
00000000: 952b 6a3f 46da 6a3f 6f74 6b3f f4ee 673f
00000010: cb61 693f 4e57 693f c768 663f 97b9 693f
00000020: 38be 6d3f ef28 6a3f 62ec 6a3f a63f 6f3f
00000030: 9703 683f acbf 693f 3687 6f3f dcf1 6c3f
00000040: 22ed 683f 396d 6a3f fe73 6d3f d329 6a3f
00000050: e443 6a3f 00e9 6b3f 7975 6a3f bc1b 6a3f
00000060: cc0a 6e3f 0bd5 6d3f a1b0 6c3f 4ff3 693f
00000070: d5fe 6c3f b5a7 693f 632f 683f 79ee 683f
00000080: 39b3 6a3f b519 6f3f 650a 6c3f 9b8e 643f
00000090: 209d 6c3f 7673 693f 15fe 6e3f dd66 6d3f
000000a0: 202f 6b3f d24c 693f 7d42 6b3f ff6b 6e3f
000000b0: b0fd 673f 8cee 673f 8dc1 6b3f 074a 6a3f
000000c0: de80 6d3f db35 663f 8f06 6d3f e269 6c3f
000000d0: 286b 673f 3fe4 673f e146 6e3f 654c 6a3f
000000e0: 8dd1 6b3f 5cce 6b3f c177 6d3f 690b 6c3f
000000f0: 9bc0 683f 6b8b 6b3f 3fa5 683f 05a6 6a3f
00000100: 8d29 833f 242e 903f 17cf 893f 594e 8a3f
00000110: b215 8c3f 9880 883f
0.9147275 0.9173931 0.9197454 0.9059899 0.91164845 0.9114884 0.9000363 0.9129881
0.92868376 0.9146871 0.9176694 0.93456495 0.9063048 0.91308093 0.9356569 0.9255655
0.90986836 0.9157291 0.92755115 0.9147007 0.9150984 0.92152405 0.915855 0.9144857
0.92985225 0.929032 0.92457014 0.91386884 0.9257634 0.91271526 0.90697306 0.9098888
0.9167972 0.933986 0.9220336 0.892801 0.92427254 0.91191804 0.9335645 0.9273508
0.9186878 0.91132843 0.9189833 0.9313354 0.9062147 0.9059837 0.9209221 0.91519207
0.9277476 0.89925927 0.9258813 0.92349064 0.9039788 0.9058265 0.930769 0.9152282
0.92116624 0.92111754 0.92760855 0.9220491 0.9091889 0.9200961 0.90877146 0.91659576
1.0247055 1.1264081 1.0766324 1.080516 1.0944121 1.0664244

bn0.bias f4 [70]
00000000: c782 743c d246 2abc 4e34 073c 6c32 f43c
00000010: 97ef 75bb 77af f13c a9da 95bc 571b 233d
00000020: 3e10 b03b 5801 97bc 269a 2a3d 60e0 9cbb
00000030: b8d2 373c bb23 183d 88a0 ab3b aa78 c03c
00000040: 583e c73b 8c73 9d3b d671 a03c 48ec f8bb
00000050: a92b d03a fdf6 fe3c 072d 7cbc fd61 39bd
00000060: 6dcc f1bc a076 5fbc b8c1 523c 87ea 9839
00000070: fb9f 293d 01e0 e53a fcde 1dbc b975 afbc
00000080: 1e31 58bb 2063 a93c 1854 173a efe0 09bd
00000090: 73bd 593d 8b10 f03c 2ab6 cf3b d87a 233d
000000a0: d22e 8d3c 6938 88bc 3cf7 2fbd ba3a 3d3d
000000b0: be39 953c 060c 47bc ff94 b63c eb18 edbc
000000c0: c6ed 1abc 0532 0e3c 414f 463c e78f b03c
000000d0: 3309 cb3c cce1 563d 90e8 2abc 6161 0a3d
000000e0: e5bf 923d 4a19 8a3b 557b 04bb 32ee 91bc
000000f0: 3770 0fbc c066 273c e750 14bc 4238 21bc
00000100: 8c7d f33c 1418 8739 ce54 7abc 183a 13bc
00000110: 43e7 263c fb5d c73c
0.014923758 -0.010392861 0.0082522165 0.0298092 -0.003752684 0.029502613 -0.018292742 0.039820995
0.00537303 -0.018433258 0.041650914 -0.00478749 0.011219673 0.03714345 0.0052376427 0.023495037
0.00608043 0.004805034 0.019585531 -0.0075965263 0.0015882152 0.031123633 -0.015391595 -0.045259465
-0.029516423 -0.013639122 0.012863569 0.00029166436 0.041412335 0.0017538072 -0.009635683 -0.02141844
-0.003298826 0.02067715 0.0005772724 -0.03366178 0.05315919 0.029304763 0.0063388543 0.039912075
0.01723424 -0.016628461 -0.04296039 0.046198584 0.01821601 -0.012148863 0.022287844 -0.028942546
-0.009456104 0.008678918 0.012103857 0.021552993 0.02478466 0.05246143 -0.010431424 0.033784274
0.07165507 0.0042144405 -0.0020215113 -0.017813776 -0.008754781 0.010217369 -0.009052492 -0.009840073
0.029722951 0.00025767146 -0.015279008 -0.008986019 0.010186973 0.024336806

bn0.running_mean f4 [70]
00000000: 6b4c bb3c 0188 0abb 79f2 f63a 546c bf3c
00000010: 6ac9 7c3c d31d 163c bef0 1c3c f51d a63c
00000020: 4ba3 9dbc 9d52 19ba 3fa3 e13b fc9b c03c
00000030: 3347 1fbc 1fed c43c 739f 643b d094 8abc
00000040: 2ea0 9f3a 4b3d 3dbc 0f7d 8a3c ca09 1b3c
00000050: 08ef 3f3c 0a74 803c bcb7 023c 3ce3 7dbc
00000060: b843 d5bb f98d 383c 4b02 c2ba e27e fe3b
00000070: 43f7 533b dc28 0e3c 8104 92bc 208f 2b3c
00000080: c1b7 4dbc 552d 85bb 2036 163c 454f ca3c
00000090: 95bf 0e3c fd55 0abb e115 cc39 93b4 efba
000000a0: 7c46 833c b348 9dbc 1396 403b 4c03 353c
000000b0: 46bc a53c 41f3 a33c 370e 9dbb 2f1a 30bc
000000c0: 6990 07bc e4e9 a1bc 36af 25bb b9af fbba
000000d0: af8d 803c afcb 59bc cb14 fb3c c53b e03c
000000e0: d291 b5b9 6000 3b3b 93b7 2dbc b430 dd3c
000000f0: 9e90 84bc 3a7b a6bc 3ea6 02bc 7c21 3b3b
00000100: ffa9 6140 4d98 913f 3d10 8d42 a6da 8742
00000110: 7779 c342 a13e 6e42
0.022863587 -0.0021138194 0.0018840573 0.023367085 0.01542888 0.009162384 0.009578882 0.020277957
-0.019242903 -0.0005848797 0.0068859155 0.02351188 -0.009721565 0.02403885 0.0034885078 -0.016916662
0.0012178475 -0.011550258 0.016905336 0.009462783 0.011714704 0.015680332 0.007978376 -0.015496071
-0.006508317 0.011264318 -0.0014801709 0.0077665905 0.0032343424 0.008676734 -0.017824413 0.010471135
-0.012556017 -0.004064242 0.009168178 0.024696002 0.008712669 -0.0021108382 0.00038926213 -0.0018288068
0.01602482 -0.019199705 0.0029386326 0.011048149 0.020231377 0.020013453 -0.0047929543 -0.01074843
-0.008274176 -0.019764848 -0.0025281436 -0.001920215 0.01569256 -0.013293191 0.030649563 0.02737225
-0.00034631655 0.002853416 -0.01060285 0.027000763 -0.01618224 -0.02032243 -0.007974206 0.0028553894
3.5260007 1.1374604 70.531715 67.92705 97.737236 59.56116

bn0.running_var f4 [70]
00000000: bd84 3e35 947e d935 bbeb bb34 0614 af34
00000010: 735d 6335 a879 9234 1d51 5c35 8201 8f34
00000020: c52f 6434 b32f 3d35 04a9 9e35 3f90 7a35
00000030: d393 8434 a474 f034 46da 0733 ba18 2335
00000040: d1b2 d935 4c95 a035 290b 2135 02f3 2835
00000050: 1353 5433 34eb 8335 c4ea 9734 a768 6e35
00000060: 6ca5 dd35 40de ae35 8ac1 b834 2e31 2235
00000070: 94b1 ac34 5088 3b35 f474 8235 f6f3 0a35
00000080: 6d6f 2d35 51a6 6935 d650 bf35 9447 fd34
00000090: 3478 ce35 6ead 2f35 8101 e834 fa50 8c33
000000a0: d897 6634 8901 8634 fb0e 6a35 4c86 d733
000000b0: e21d ba34 0260 8a35 b88a 6835 1822 fb35
000000c0: 43d1 ad35 b26b a734 d682 d134 9a17 9835
000000d0: 8dd4 9a34 6201 be35 a56b fe35 41e9 1735
000000e0: e2c1 a834 5651 0d36 d5f3 4b35 4812 8735
000000f0: 4781 8f35 ee42 da34 84ab e834 436f d134
00000100: 7aca 0f40 5c35 0d3f db0e 0045 0512 ef44
00000110: a037 9045 9462 e244
7.0973675e-07 1.6204599e-06 3.500298e-07 3.261086e-07 8.4700076e-07 2.7283136e-07 8.207442e-07 2.6636923e-07
2.1251533e-07 7.04774e-07 1.1821107e-06 9.3342163e-07 2.4694472e-07 4.478835e-07 3.1630655e-08 6.0758214e-07
1.6219802e-06 1.196438e-06 5.9993414e-07 6.29385e-07 4.9435652e-08 9.828714e-07 2.8296756e-07 8.88142e-07
1.6513927e-06 1.3028694e-06 3.441349e-07 6.042127e-07 3.2166702e-07 6.986129e-07 9.719793e-07 5.1764016e-07
6.460967e-07 8.7041286e-07 1.4254135e-06 4.7177002e-07 1.538318e-06 6.5444954e-07 4.3214462e-07 6.5339876e-08
2.147566e-07 2.4960562e-07 8.719359e-07 1.0036146e-07 3.4666942e-07 1.0309743e-06 8.66286e-07 1.871088e-06
1.2950408e-06 3.1184533e-07 3.902448e-07 1.1331751e-06 2.8839386e-07 1.4156506e-06 1.8955803e-06 5.659131e-07
3.1433507e-07 2.105798e-06 7.5978215e-07 1.0063604e-06 1.0691955e-06 4.0654362e-07 4.3338162e-07 3.9010237e-07
2.2467332 0.55159545 2048.9285 1912.5631 4614.953 1811.0806

bn1.weight f4 [64]
00000000: 0ee6 813f 80b2 7b3f 5044 803f 1e97 773f
00000010: be27 7b3f 8b9d 843f 0402 7c3f c591 7c3f
00000020: 7867 803f 4e96 803f 9845 803f 6dd1 793f
00000030: f358 803f 88b4 813f e7ed 7c3f 0dd7 823f
00000040: 4915 853f 8a62 803f 079b 7f3f 8e3c 7f3f
00000050: 27b9 823f 2d7f 793f 4256 7f3f f0cf 803f
00000060: f701 863f a352 833f d83f 7f3f 2807 813f
00000070: a9d6 7c3f e507 7c3f 1a75 803f 985e 7d3f
00000080: 038e 7c3f ff53 823f 4cd9 833f 1100 823f
00000090: 0837 813f 21bc 813f 1377 6f3f 4722 853f
000000a0: 76b5 793f 828d 7e3f 263b 7f3f be9f 7e3f
000000b0: 72d6 7e3f 408e 7b3f 49ba 7d3f e208 7a3f
000000c0: 2b99 723f 5fa3 7a3f 686a 7f3f fb43 7f3f
000000d0: 2ac0 813f 0e4d 783f 71ee 783f 7d1e 833f
000000e0: d386 813f 4b1b 823f ae68 803f c28d 7e3f
000000f0: 67a8 843f c9ce 7f3f a7ee 843f 1cfc 7c3f
1.0148332 0.98319244 1.0020847 0.9671496 0.98107517 1.0360578 0.98440576 0.98659927
1.0031576 1.0045869 1.0021238 0.97585183 1.0027145 1.0133219 0.9880051 1.0221878
1.0397121 1.0030072 0.9984593 0.99701774 1.0212754 0.9745968 0.99740994 1.0063457
1.046935 1.0259594 0.9970679 1.0080309 0.98765045 0.98449546 1.0035737 0.98972464
0.9865419 1.0181884 1.0300689 1.015627 1.0094919 1.0135537 0.9354107 1.0401086
0.9754251 0.99434674 0.9969963 0.994625 0.9954597 0.9826393 0.99112374 0.97669804
0.94764966 0.97905535 0.9977174 0.99713105 1.0136769 0.96992576 0.9723883 1.0243679
1.011927 1.0164579 1.0031946 0.99435055 1.0363892 0.99924904 1.0385331 0.9882219

bn1.bias f4 [64]
00000000: 479e 02bd 5c15 bbbc 63db bdba 046f b23c
00000010: 6a9e 4c3c 4bb3 63bc e3e2 e53a 581a 273c
00000020: e78e 0c3c bbc7 0aba c8f0 f33b 567e 2dbd
00000030: 0403 83bc f599 8e3a d7fe f1ba 7551 4ebc
00000040: 38fe 6fbb 5ca2 c7bb 368e 0ebd 5301 913c
00000050: e6a8 c73c 91e4 fbbc ff9a 62bc e3f0 a8bb
00000060: dd52 35bc 9b6c 89bc cb3c 043c 1d15 2dbc
00000070: 65c3 dcbb d1aa c2bc 5a30 cdbc f4f0 9d3c
00000080: 8a64 293c 714a 0d3c a9c4 47bc 456c abbb
00000090: d307 84bc ba8a 873c 8660 2fbb 9b23 96bc
000000a0: f612 4f3b cb13 223c e466 5cbc e10f aabb
000000b0: a5ac 53bc b61b c7bb 22f7 f6bb a22c f23b
000000c0: 4d44 233a ca50 0c3b 4c2b cbb8 b833 28ba
000000d0: 2d38 05bc 84e9 27ba 58c9 f53c e8ec f1bc
000000e0: f1e4 8f3c c297 033c ede7 92ba b501 7d3c
000000f0: 056a 57bc d8a3 7c3c 2069 dc3b 0cc0 e53b
-0.031889226 -0.022837333 -0.0014484938 0.021781452 0.012488941 -0.013897727 0.0017538931 0.010199152
0.008578992 -0.00052940444 0.007444475 -0.04235681 -0.015992649 0.0010879623 -0.0018462789 -0.012592663
-0.0036620032 -0.006092353 -0.03480359 0.017700827 0.02437253 -0.030748637 -0.013830899 -0.005155669
-0.011067119 -0.01677542 0.008071135 -0.010564116 -0.00673716 -0.023763092 -0.02504747 0.019279934
0.010338912 0.008623705 -0.0121928835 -0.0052314126 -0.016117012 0.016545642 -0.0026760413 -0.018327525
0.0031596995 0.009892414 -0.013452265 -0.005189881 -0.01291958 -0.0060763014 -0.0075367847 0.0073905746
0.0006228134 0.0021410459 -9.687859e-05 -0.0006416398 -0.008131069 -0.0006405341 0.030003235 -0.029531911
0.017565222 0.008031787 -0.0011208035 0.0154423015 -0.013147836 0.015419923 0.006726399 0.007011419

bn1.running_mean f4 [64]
00000000: d463 a43d 6f60 123e 9a06 153e 256a 0e3e
00000010: b16d b53d 6d9e 1a3e bdd2 a33d 2ca4 e63d
00000020: 3d86 263e 9a3c c23d fdc2 ec3d 392c 2e3e
00000030: 67ac 283d e5aa bd3d 11a0 1c3e 3829 343e
00000040: 2a11 eb3d 8f93 363e 5bc8 e03d c5f5 cc3d
00000050: cc50 4c3e b018 8e3d 1f33 573d 5797 b63d
00000060: 4c6d 823d a3a4 2f3e 15e1 b73d 1cc9 bb3d
00000070: 1215 143e 33f7 ec3d 55bc 473d 60af 543d
00000080: 2d8f 8f3d 07f6 423e 900d 173e 98aa fa3d
00000090: 7f11 263e df3d bd3d 8e18 753d 2524 e53d
000000a0: d34a 803d 42e5 cd3d 57c0 753d f85e e63d
000000b0: 9292 df3d 85d3 233e c824 b03d 3f8c 373d
000000c0: b142 973d 4113 a43d 4a7c 3c3d 51f1 f83d
000000d0: 488e c93d 564d 313e dd58 203e f7e2 393e
000000e0: d3b7 733e 451e c93d fde4 053e 8ed7 903d
000000f0: 9fe2 d03d 879c 723d d6d3 9c3d ed42 193e
0.08026853 0.14294599 0.145533 0.13907678 0.088588126 0.15099497 0.079991795 0.11261782
0.16262145 0.09484215 0.115606286 0.17009057 0.04118004 0.09261111 0.15295435 0.17593849
0.11477883 0.17829727 0.10975715 0.10007814 0.19952697 0.069383025 0.052538987 0.089155845
0.06368503 0.17152648 0.08978478 0.09169218 0.14461163 0.11570587 0.04876359 0.051925063
0.070097305 0.19039164 0.14751267 0.122395694 0.16217612 0.092403166 0.05983787 0.11188535
0.062642716 0.10053493 0.059997883 0.112485826 0.10916628 0.15998657 0.086007655 0.044811483
0.07385767 0.08011485 0.04601697 0.121554025 0.09841591 0.17314658 0.15658899 0.18152986
0.23800592 0.098202266 0.13075633 0.07072364 0.101994745 0.059231307 0.07657592 0.14966936

bn1.running_var f4 [64]
00000000: 0ebf 7f3c 609f f13c ee6c 013d 6ce4 9e3c
00000010: cc3e 683c 9952 d93c 8adb b33c 990e 1b3d
00000020: dba3 d73c 5294 cc3c 2961 b93c b616 343d
00000030: 1778 ff3b 5cfb 853c aa4a 473d 81b9 f63c
00000040: f0b5 bf3c eb59 1a3d f936 713c 40d8 ef3c
00000050: 8ce3 fa3c fbde 9e3c 6b7f 263c 9c48 d33c
00000060: 1654 9d3c 9925 833d f962 683c d3c5 863c
00000070: 8ddb de3c 38ac ba3c a3f9 203c 74b6 413c
00000080: f0a0 543c 9c3d e23c d076 e13c 26eb c13c
00000090: bdc0 313d 31b1 7f3c eebb 4d3c feb9 b33c
000000a0: b979 263c 8df8 963c 0a27 453c d6d4 ab3c
000000b0: bc02 0f3d 8a50 9f3c 72bf 5e3c 5ce6 2e3c
000000c0: 7c29 903c 5d41 473c 6474 0f3c e08f a63c
000000d0: e48c c33c 2a78 d73c 441c 2e3d 3356 bd3c
000000e0: 9d9d 553d 70be 0e3d bc10 e63c 74a1 883c
000000f0: 343a ba3c 7de8 3c3c 2ac3 a63c c430 253d
0.015609516 0.029494941 0.031598024 0.01939603 0.014175128 0.026528643 0.02195527 0.03785572
0.02632325 0.024973068 0.022629337 0.04396697 0.0077962982 0.016355209 0.04865519 0.030117752
0.023402184 0.03768341 0.014722579 0.02927792 0.03062608 0.019393435 0.010162215 0.025791459
0.019205134 0.064036556 0.014183753 0.016451752 0.0272043 0.022787198 0.009825143 0.011823285
0.012977824 0.027617268 0.027522475 0.023671698 0.0433967 0.015606211 0.012557013 0.021939274
0.010160857 0.018429065 0.012033233 0.020975512 0.034914717 0.019447584 0.013595449 0.010675039
0.017597906 0.01216158 0.008755777 0.020332277 0.023870893 0.026302416 0.042507425 0.023112392
0.052152265 0.034849584 0.028084151 0.01667855 0.022732832 0.011530039 0.020356733 0.04032971

bn2.weight f4 [64]
00000000: b915 833f 3f6b 843f 7c60 823f de02 833f
00000010: 4000 813f 92f2 7d3f e173 823f 1b7b 813f
00000020: 47f4 7b3f 6c28 823f ea45 833f e79c 803f
00000030: 119d 813f 43dc 843f 19d1 7d3f 4ed6 803f
00000040: 607d 7b3f a19f 833f 3b1d 7e3f 6cd7 7d3f
00000050: 4cc4 813f 3975 793f 261e 863f 7c71 783f
00000060: 8c71 813f 8ea7 803f ad9c 803f 4fa1 7a3f
00000070: a71d 7d3f de50 803f bd1a 833f 252e 7d3f
00000080: 258f 7b3f ee9d 7d3f f7e6 833f ac5c 7e3f
00000090: 09ab 7b3f 6acf 7c3f aed5 803f 71d0 803f
000000a0: dcce 823f a898 823f e992 7c3f 5d13 8a3f
000000b0: caae 813f 72bb 7d3f 2a1e 823f 96e3 7a3f
000000c0: ed68 823f 6a3a 823f 87ee 7d3f cabd 803f
000000d0: 07ab 813f f3d2 7b3f b1d8 7d3f bd26 7f3f
000000e0: af89 823f 6402 803f db3b 833f 3b64 7f3f
000000f0: 54bd 823f d815 803f 46cf 833f 5f89 843f
1.0241004 1.0345229 1.0185695 1.023525 1.0078201 0.9919826 1.0191613 1.0115694
0.9841961 1.0168586 1.0255711 1.0047883 1.0126058 1.0379719 0.9914718 1.0065401
0.9823818 1.028309 0.9926335 0.9915683 1.013803 0.9744449 1.047795 0.97048163
1.0112777 1.0051134 1.0047814 0.9790239 0.9887337 1.0024679 1.0242535 0.98898536
0.98265296 0.99069107 1.030486 0.99360156 0.98307854 0.9875399 1.006521 1.0063611
1.0219378 1.0202837 0.9866167 1.0787159 1.0131466 0.99114144 1.0165455 0.9800352
1.0188271 1.0174077 0.9919209 1.0057919 1.0130318 0.9836876 0.9915877 0.99668485
1.0198268 1.000073 1.0252641 0.99762315 1.0214028 1.0006666 1.029763 1.0354422

bn2.bias f4 [64]
00000000: dda4 71bc 4876 863c 99d4 763c b237 7c3c
00000010: 91b6 e63c 7b67 723c bc3e 783c d320 6dbc
00000020: 016c 583c ee3f 7a3c 80c3 73bc d02f 743c
00000030: 15a8 7b3c 9347 863c 02e4 6d3c b75e 793c
00000040: e678 873c 0390 81bc d0aa 6abc 46f1 723c
00000050: 8aaa 733c b50a 5bbc ad61 8e3c 17b8 61bc
00000060: d3b6 753c 6054 5ebc 5e48 6cbc 5c1f 523c
00000070: 41ad 64bc 223f e83c fc5f 8b3c d9da 703c
00000080: 7c23 69bc b0fc 703c ad96 85bc eea4 6d3c
00000090: 12f3 60bc c520 6a3c 7952 e83c 7957 753c
000000a0: 11b0 873c cd8d 70bc 12a0 26bc ae5a 9e3c
000000b0: ae7c a83c 9f26 953c 460f 6fbc b238 62bc
000000c0: 9caa 72bc a528 7f3c 3ab4 69bc 8178 713c
000000d0: 527b 6ebc 996b 683c bad5 753c 2163 6ebc
000000e0: 7106 74bc ae6d 69bc 1301 82bc b7a2 6bbc
000000f0: 4e64 74bc 0291 b8bc 3cf4 7dbc 0de5 81bc
-0.014748779 0.016413823 0.015065336 0.015394138 0.028163226 0.0147951795 0.015151676 -0.014473158
0.013209344 0.015274031 -0.014878154 0.0149039775 0.015359898 0.016391551 0.014519693 0.015220336
0.016537141 -0.01581574 -0.014322951 0.014828032 0.014872203 -0.013369252 0.01738056 -0.013776801
0.014997202 -0.013569921 -0.014421551 0.0128248595 -0.013957323 0.028350417 0.017013542 0.014700615
-0.014229652 0.014708683 -0.0163072 0.014504654 -0.0137298275 0.014290039 0.028359639 0.014974468
0.016563447 -0.014682245 -0.01017 0.019330349 0.020567264 0.018206893 -0.014591044 -0.0138074625
-0.014811184 0.015573655 -0.014264161 0.014738203 -0.014555769 0.0141858095 0.01500457 -0.014550001
-0.014894114 -0.014247341 -0.015869653 -0.014382056 -0.014916493 -0.022530083 -0.015500125 -0.01585629

bn2.running_mean f4 [64]
00000000: d656 a93e 8ee9 983e a252 0f3e 929d 7f3e
00000010: f863 653e 7434 633e 8d42 ab3e f53f a23e
00000020: 194b 8a3e fc71 c53e c8c3 573e 1c34 773e
00000030: 9359 aa3e 587b a33e 9850 993e 37fd bb3e
00000040: 968f 8c3e cc42 9c3e 175f 973e bc76 c83e
00000050: d3a6 e73e cad7 8f3e 2d82 9f3e ae63 4d3e
00000060: 4370 6b3e db6e b63e fe4f a03e 5f6e 7a3e
00000070: d408 db3e c198 8f3e 10ed a63e bcba 503e
00000080: a26e 973e 94bb a03e 1dcd 6c3e 1e4b 573e
00000090: f37f 913e 6bc4 423e 04d7 813e 01c3 ab3e
000000a0: e7e6 303e c8f8 433e f59c 8c3e 2275 ad3e
000000b0: b680 943e b6a8 893e 4172 983e e9f7 433e
000000c0: 1427 c73e 7a5c 833e a1bb 5a3e 76fb 863e
000000d0: 579e 823e 2a81 a83e 2c04 823e 899d 363e
000000e0: 789d 553e 6c6f c03e 948c 4b3e bc1e 923e
000000f0: 218e 453e aca0 493e cca2 ab3e 114b 863e
0.33074063 0.29865688 0.13996366 0.24962452 0.22401416 0.22187978 0.33449212 0.3168942
0.2701042 0.38563526 0.21070778 0.24140972 0.33271465 0.3193004 0.299443 0.36716625
0.27453297 0.30519712 0.29564735 0.39153087 0.45244464 0.2809432 0.31154004 0.20057556
0.22992043 0.3563145 0.3131103 0.24456166 0.42780173 0.2804623 0.3260274 0.20383734
0.29576594 0.3139311 0.2312512 0.21024749 0.2841793 0.1902024 0.25359356 0.33547214
0.17275582 0.19137871 0.274635 0.33878428 0.2900445 0.2688653 0.2977467 0.19137539
0.38897002 0.25656492 0.21360637 0.26363724 0.2551143 0.32911044 0.25393808 0.17833532
0.20860851 0.37585008 0.19877845 0.28539073 0.19292499 0.19690198 0.33522642 0.26229146

bn2.running_var f4 [64]
00000000: a074 663e eddc 023f 2a16 f13d 658f d13e
00000010: 5b80 573e 8d64 4e3e 6593 c93e a850 de3e
00000020: eb41 953e beeb dd3e 2868 613e 6548 8a3e
00000030: 05c5 b73e ca08 ed3e 6193 943e 389c d83e
00000040: c8b7 b83e ddd3 963e dcaf f53e ebc2 b63e
00000050: 2400 223f 5725 8d3e 7ce2 fb3e 56e0 8d3e
00000060: c0b6 dc3e 3488 c33e 90bd 083f d912 7f3e
00000070: bc4c d93e 9bd8 843e 1b14 8a3e d501 773e
00000080: 2131 e53e 6667 b93e ae8a 823e 552c ce3e
00000090: 47d8 673e 9a31 8b3e 145b dd3e a9e5 c13e
000000a0: 8090 4f3e 7fd3 9b3e a2e1 5b3e 4d84 fe3e
000000b0: 6f5c 8f3e a56a 4e3e 2030 c43e 5b34 503e
000000c0: d4a1 b03e e2c1 9b3e 3229 563e 1d91 bf3e
000000d0: 16d4 733e c979 a73e accb 6e3e 8f37 653e
000000e0: 8cd5 893e d84f 9b3e bbe6 5f3e 1951 603e
000000f0: 78e8 913e 19e0 363e f594 893e 696b 283e
0.22505426 0.51118356 0.117718056 0.40929714 0.21045057 0.20155545 0.39370266 0.4342091
0.29151854 0.4334392 0.22012389 0.27008358 0.358925 0.46295768 0.2901869 0.42306685
0.36077714 0.29458514 0.47985733 0.35695586 0.63281465 0.2756755 0.4919623 0.27710217
0.43108177 0.38189852 0.5341425 0.24909534 0.42441356 0.25946507 0.26968464 0.24121793
0.44764045 0.362117 0.2549643 0.40268198 0.22641097 0.2718628 0.4323355 0.3787053
0.20269966 0.30434796 0.21472791 0.49710312 0.2800021 0.20157869 0.38317966 0.20332472
0.34498465 0.30421358 0.20914152 0.374154 0.23811373 0.32710102 0.23319882 0.22384475
0.26920736 0.30334353 0.2186536 0.21905936 0.28497672 0.17858924 0.26871458 0.16447224

conv1.mlp.0.weight f4 [64, 18]
00000000: 9b4a a4bd cc72 773b 9654 3cbe 9d60 43be
00000010: b7ac 163e 97d1 0ebe 8044 2abe 21d7 243d
00000020: 4497 603e 0365 8abd 9dd6 993d 9871 58bd
00000030: ef22 cd3d 14c3 5a3d 078c 1f3e a4bb 38bd
00000040: 3c12 9b3d 9b57 293e ead2 3fbe 5242 3bbd
00000050: 7e1c edbd 9d0c 24be 418f 133e 2f6c 10be
00000060: 164f 533e 4d4b 3c3e cc7a a43d d2b4 5e3e
00000070: b41b 153e fe49 13be b99e 0f3d 14a9 22be
00000080: 702a 4f3e 4e15 363d fcba d73d a781 573e
00000090: fc63 433e b468 1fbe 7f66 28be facd 973d
000000a0: 7a87 3f3e 342c 58be e398 223e a8be 3dbe
000000b0: 6c56 2ebd 4b45 ad3c d5c0 073b ea1f 093e
000000c0: e279 81bd 34a1 473e 9c0e 27be 1a95 77be
000000d0: 8e56 1fbd 7ce4 263e ef9b 2bbe 25ce 10bd
000000e0: 5ebe 403e 03e5 103e 91da 073e db83 0abe
000000f0: 6ba9 4abe c2ac dbbc e87b 483e 1df7 133e
00000100: 306d ba3c 0700 d4bd 27f1 0cbd e1f5 0d3e
00000110: 94da f33d a085 6fbe 6473 753e 7d8a 433e
00000120: 8507 803e 5070 83be 7fd5 493e efc4 4fbd
00000130: 7058 dd3d 1bad 60bc 0729 18bc 1cc2 343d
00000140: 0e7e fcbc 217a c63c ca32 fd3d 39bb e9bd
00000150: b584 3abe e3f8 5bbe b34d 6ebe 4728 2ebb
00000160: aec4 80bd a78d 1f3e 5a0a 0abe 12d4 5ebe
00000170: 7091 5f3e 77e4 3dbe 6aa7 9e3c 9379 13be
00000180: a039 513e be4a 60be b278 0cbe 6a94 08be
00000190: 5e45 df3d f6da cebd 0f57 273e 12cb 153e
000001a0: b52c d1bd 133a 15be ce24 cf3d af37 17be
000001b0: 1610 033e 8a91 bbbd a3c2 dbbd c1f4 07be
000001c0: d99e da3d f697 f03d 3521 f6bd 6744 3c3e
000001d0: 5ced 1abe cd7d 503e 5f50 04bb 1e4e 273e
000001e0: cbbe 3fbe ce88 0a3e c7f7 3cbd 180c 323e
000001f0: 41ff 32be 5674 44be 82fd 6cbe da99 693d
00000200: 94b5 af3d 8f32 173e d76b 3abe 11f9 d53d
00000210: 56bf 13be de82 053d 1756 15be 1318 3fbe
00000220: 20e0 4bbe 1438 34be cca7 493e 2fd8 293c
00000230: 7a68 7fbd f1a4 b53b 08c2 30be 8216 65bd
00000240: 5da4 363e 2a7a 46be 284e 34be 32c4 5b3e
00000250: 7ea8 2abd f4a9 1cbe 36e1 e5bd 91ba fdbd
00000260: 049a e6bc a099 34bd f177 473e dac2 20be
00000270: 4b20 f43d ceef 1fbe e820 013e 9e5a d4bd
00000280: f3fe 74bd a5a5 acbd ad58 c5bd 1737 39be
00000290: 7466 46be f464 4c3e ec4a 2f3a 5909 663d
000002a0: 264f c4bd 00ad d0bc bab8 5ebd 9e22 62be
000002b0: c602 d8bc ee85 983d 043a 9fbd d668 103e
000002c0: 314b 8cbd 939f f5bb f7dc d3bd 2480 643e
000002d0: ddd7 543e aefa aa3d be29 6e3e 747a fd3d
000002e0: 732a 66bd 8305 093e a536 23bd 3402 713c
000002f0: 51b4 08be 7a23 35be 205e 28be 0bba f13d
00000300: 6ca6 60be d8b1 3ebe ebc0 733e d6f0 063e
00000310: 3f6e 55bd adbb 803d 4059 edbd 1c73 123e
00000320: d02f 433d d2f1 9f3d 59a7 5d3d 0d9d 6dbe
00000330: 907d 09be f0fd 3dbc 35a5 99bd b32c 20be
00000340: 0123 6c3e 20ad cabd 0608 3cbe 3014 823d
00000350: 386b f43d 07a8 4abe 3f9b fd3d b499 f3bd
00000360: 019b 03bd 1fb8 1c3e 7eaa 95bc 9d45 c93b
00000370: 34a6 09be 67b6 533d 11f5 013e 96cf 193d
00000380: 5182 203e af7d bb3c 0585 9d3d 7c10 763d
00000390: 4eb9 953d bdf1 f93d 0dfc 03be f5f8 06bd
000003a0: da8d ad3d 47bd 09be 7b72 ff3d 08c8 55be
000003b0: 7d4c 3dbe bbed 72be 18fe 4d3e 6cd4 0c3d
000003c0: c751 ae3d ddb2 79be 7a98 26be ee1e 84be
000003d0: df0a 0fbe f55c 513d e786 1e3d fcd7 4bbe
000003e0: 3fe2 da3d 4c47 243e b90d e4bd 0b4e 313d
000003f0: 5ae3 e3bd d3ed 3f3e 30a2 ec3c ace0 6bbd
-0.08022042 0.0037757633 -0.18391642 -0.19079824 0.14714323 -0.1394714 -0.16627693 0.040244225
0.21932703 -0.06757548 0.07511637 -0.052842706 0.10016429 0.053408697 0.1558076 -0.045100823
0.07571837 0.16537325 -0.18732801 -0.045717545 -0.115777 -0.16020437 0.14410116 -0.14103769
0.20635638 0.183881 0.08031234 0.21748665 0.14561349 -0.14383695 0.03506348 -0.1588481
0.20231032 0.04445391 0.10533711 0.21045552 0.1908111 -0.15567285 -0.16445349 0.07412334
0.18704024 -0.21110612 0.15878634 -0.18529761 -0.042562887 0.021151206 0.0020714302 0.1339108
-0.063220754 0.19495088 -0.16314167 -0.24177971 -0.038900904 0.16298097 -0.16758703 -0.035352845
0.1882262 0.14149861 0.1326697 -0.13526861 -0.1979119 -0.026815776 0.19578516 0.14449735
0.022757143 -0.10351568 -0.03440967 0.13863327 0.11906925 -0.23390818 0.239698 0.19095798
0.25005737 -0.25671625 0.19710349 -0.05072492 0.10807884 -0.013713147 -0.009287125 0.04413043
-0.030821826 0.024228157 0.12363203 -0.11412663 -0.18214686 -0.21481661 -0.23271827 -0.00265743
-0.06287514 0.1558138 -0.13480511 -0.21760586 0.21832824 -0.18544184 0.019366939 -0.14401846
0.20432138 -0.21903512 -0.13717917 -0.13337865 0.109019026 -0.10100357 0.16341804 0.14628246
-0.10213605 -0.14572935 0.10114442 -0.14767335 0.12799105 -0.09158619 -0.107304834 -0.1327696
0.10674829 0.11747734 -0.120180525 0.18385468 -0.15129608 0.20360489 -0.0020189506 0.16338393
-0.18725125 0.1352875 -0.046134736 0.17387426 -0.17480184 -0.19185004 -0.2314358 0.05703149
0.08579555 0.1476538 -0.182052 0.10447896 -0.14428458 0.032595508 -0.14583622 -0.18661527
-0.19909716 -0.17599517 0.19692916 0.010366484 -0.062355496 0.005543344 -0.17261517 -0.05592967
0.17836137 -0.1938254 -0.17607939 0.21461561 -0.041664593 -0.15299207 -0.11224596 -0.123891
-0.028149612 -0.04409182 0.19479348 -0.1569933 0.11920222 -0.15618822 0.12610209 -0.10368846
-0.05981345 -0.08430032 -0.09636054 -0.18087421 -0.1937502 0.19960386 0.00066868844 0.05616126
-0.09585409 -0.025473118 -0.054375388 -0.22083518 -0.02636851 0.0744742 -0.077747375 0.14102492
-0.06850279 -0.0074958294 -0.1034488 0.22314507 0.2078547 0.083485946 0.23258111 0.12376872
-0.056192826 0.13381009 -0.039847035 0.014709998 -0.13350035 -0.17689314 -0.16442156 0.11803063
-0.21938485 -0.1862253 0.23804061 0.13177809 -0.052107092 0.06285796 -0.11589289 0.14301723
0.04765302 0.078097954 0.054114673 -0.23204441 -0.13426805 -0.011596188 -0.07502214 -0.15642051
0.23060228 -0.09896302 -0.18362436 0.06351507 0.11934513 -0.1979066 0.123831265 -0.11894551
-0.032130245 0.15304612 -0.018269774 0.0061423318 -0.13442308 0.051687624 0.12691142 0.037551485
0.15674712 0.022887079 0.07691387 0.060074314 0.07310735 0.12204311 -0.12889118 -0.032952268
0.08474322 -0.1345111 0.12473007 -0.20877087 -0.18486209 -0.237235 0.2011646 0.03438227
0.085116915 -0.24384637 -0.16269103 -0.25804847 -0.1396899 0.05111404 0.03870287 -0.1990661
0.10687684 0.16042823 -0.1113543 0.04328732 -0.11127348 0.18743066 0.02888593 -0.05758731

conv1.mlp.0.bias f4 [64]
00000000: a531 613e fb40 123c a479 26be e86c 8fbd
00000010: 63a0 05be c216 c7bc 6dec 5fbe 6855 0cbe
00000020: d6ab 0abe 5c29 51bd 1688 00be 3382 6dbe
00000030: 3db8 4b3a 69ff 293e e4ee 47bd 3158 3cbb
00000040: 3645 513d a5f3 773d 710a 103d 7892 d23d
00000050: 14b9 4fbb de04 033e cd0e 2b3e 124b 393e
00000060: e29c 59bd b3ed f2bd b830 fd3d 64fe 313d
00000070: cf93 29bd 9f69 183e bfbc e5bd 4a09 8ebd
00000080: 6e44 20be 1eee 4cbe 0612 eabd b7a8 9a3d
00000090: 005c 883d dbdd 4bbd e57f 5a3c acbb be3d
000000a0: 9001 5e3d 8bc7 8a3d 05c8 dabd 27cb 2bbc
000000b0: f5d1 3a3e 6343 053e 742c 94be 7717 f73d
000000c0: 393b 30be 6acc 74bc 5aeb e4bd 841b 51be
000000d0: 431f 7b3b 3ddf 7dbe 5578 3a3e c2b6 043e
000000e0: e869 133e 724a 81bd d0b2 e9bc 1472 42bd
000000f0: 3343 babd 50cf 47be 6ce1 44be 526d 653e
0.21991594 0.008926625 -0.1625734 -0.07003194 -0.13049464 -0.024302844 -0.21867533 -0.13704455
-0.13542113 -0.051064834 -0.12551913 -0.23194198 0.0007771289 0.16601337 -0.04881181 -0.002873909
0.051091395 0.060535092 0.035166208 0.10281843 -0.0031696009 0.12794825 0.16704865 0.18095043
-0.05312813 -0.11861744 0.12362808 0.043455496 -0.041400727 0.14884041 -0.11217641 -0.069353655
-0.15651104 -0.2001271 -0.11429219 0.07551711 0.066581726 -0.049772125 0.0133361565 0.09313139
0.05420071 0.06776341 -0.10682682 -0.010485447 0.18244155 0.13013987 -0.28940165 0.120650224
-0.17210092 -0.014941314 -0.11177702 -0.20420653 0.0038318194 -0.2479219 0.18209966 0.12960342
0.14395869 -0.063130274 -0.028527647 -0.047472075 -0.090948485 -0.19512677 -0.19226617 0.22404984

conv1.mlp.2.weight f4 [64]
00000000: 191f 7f3f d1e3 823f 947a 803f c156 803f
00000010: 97d7 813f 3350 813f 2c26 7f3f 0b19 7a3f
00000020: e59d 783f 2c8f 7e3f c1ec 773f e0e4 823f
00000030: 1645 7c3f f88f 7e3f 9674 7d3f de11 813f
00000040: ca9e 7f3f 3416 7b3f c179 863f 1ce9 7d3f
00000050: b161 7e3f 73db 7a3f c436 7c3f 0260 7f3f
00000060: c58c 7e3f d8d0 833f 1826 803f 5e34 803f
00000070: 7e58 833f f010 7d3f a2d3 7e3f 4596 773f
00000080: 5759 813f 2266 803f 627d 7b3f 6dde 843f
00000090: 99fe 803f b20c 803f a07e 803f 897e 7b3f
000000a0: 6d65 7d3f b483 833f ef5c 803f fd6a 7c3f
000000b0: 5cd3 7d3f 10dd 7e3f cea2 803f 8439 813f
000000c0: bebb 7f3f fe8f 7d3f 727e 7b3f 9b53 803f
000000d0: ea92 803f 356e 7b3f 1e99 7b3f 787f 7b3f
000000e0: b7a6 7c3f 0140 8a3f 2cbc 803f 0f7b 7e3f
000000f0: c83a 7f3f 9deb 7f3f 2a12 7c3f 99cb 813f
0.99656826 1.0225774 1.0037408 1.0026475 1.0143918 1.01026 0.9966762 0.9769446
0.9711593 0.9943721 0.9684563 1.0226097 0.98542917 0.9943843 0.9900602 1.0083578
0.9985167 0.98080754 1.0505906 0.9918382 0.99367815 0.979911 0.98521066 0.9975587
0.9943355 1.0298109 1.0011625 1.0015981 1.0261381 0.9885397 0.99541676 0.9671367
1.0105389 1.0031168 0.98238194 1.0380379 1.0077697 1.0003874 1.0038643 0.9823995
0.9898289 1.0274568 1.0028361 0.9860075 0.99150634 0.99556065 1.0049684 1.0095677
0.99895847 0.9904784 0.98239815 1.0025514 1.0044835 0.9821504 0.98280513 0.98241377
0.98691887 1.0800782 1.0057425 0.9940652 0.9969907 0.9996889 0.98465216 1.0140258

conv1.mlp.2.bias f4 [64]
00000000: af1b 6b3c 85b9 0dbc c28e 753c d94c 493c
00000010: e315 783c 7f87 01bb 715f d43b 647c 1239
00000020: df3a 963c 66f0 6a3c 9abc a23b 3db9 bebb
00000030: ce6e 4a3c b3e8 5fbb 51f0 553c af59 453c
00000040: 89c3 2b3b 508e 323c c321 7abc ebf2 40bc
00000050: 1d77 3d3c 5d58 e93b 8ea8 3c3c 02f1 533b
00000060: aedc b9bc ef12 943b 0f1c 86bb e246 17bc
00000070: 3694 67bc 4e67 903b e2db 5538 fcfe 6ebc
00000080: 7e2d 9bbb 5ba9 093c dd16 6d3c 4f5a 24bc
00000090: d970 a33c 04da 8ebc 9fff 3a3c fcda 35bc
000000a0: fb98 863b 0ff6 8ebb d7c2 e1bb 9301 8ebc
000000b0: 4be0 723b 201b c63b e2ed caba 1648 283b
000000c0: 32d2 463c 69ce a0bb 3871 193c 06a5 7a3c
000000d0: 7bc6 ae3c b6ae b5bc 9317 8cbb 47ff d43a
000000e0: ae1c 0bbc df5d 17bd c767 3bbc 68c5 483b
000000f0: dec8 23bc c40e 883a 06dc bcbc 5152 c1bb
0.014349862 -0.008650188 0.014987649 0.012286388 0.015141937 -0.00197646 0.006481104 0.00013969984
0.018338619 0.014339542 0.0049663307 -0.005820422 0.012355519 -0.00341658 0.013057784 0.012045308
0.0026209077 0.010898188 -0.0152668385 -0.011776666 0.011564043 0.0071211294 0.011514796 0.0032339697
-0.022688236 0.0045188586 -0.0040927003 -0.009233208 -0.014134457 0.004406846 5.098794e-05 -0.01458716
-0.0047356477 0.008402194 0.014470783 -0.010031297 0.01995127 -0.017437942 0.011413484 -0.011099573
0.004107592 -0.0043628286 -0.006889682 -0.017334735 0.0037059959 0.006045714 -0.0015482272 0.0025677732
0.012135075 -0.0049074185 0.009365372 0.015298134 0.021334877 -0.022178035 -0.004275271 0.0016250395
-0.0084907245 -0.036954757 -0.011438317 0.0030635241 -0.009996621 0.0010380377 -0.023054134 -0.0058997055

conv1.mlp.2.running_mean f4 [64]
00000000: bf5e b53e 4ed4 ca3e 1dd3 873e c1ee 9a3e
00000010: d513 7f3e ea65 af3e 5132 7d3e 031e 483e
00000020: deed 343e fc77 753e e587 8d3e 84a9 253e
00000030: 2e4b 833e 59c0 d43e cc72 673e d61e 913e
00000040: d397 b43e abcc aa3e 8f00 d83e 458e 983e
00000050: 54a0 833e c4a0 d33e 248f a93e 340b bb3e
00000060: 58df 633e a3d4 2f3e 63a0 b43e f280 b43e
00000070: c073 463e 1e6f 963e 97a1 673e 3f8a 9e3e
00000080: ffc6 283e b6b4 5b3e d5e7 603e a54a a53e
00000090: 53eb b93e 9f8f 743e 41b9 403e f0cf b63e
000000a0: d99c 973e decc 943e bcf0 493e 928e 763e
000000b0: 2bb5 a23e ba05 c93e d5f1 4b3e ff46 b03e
000000c0: cea9 683e 8f45 783e 0f2e a53e 52bd 5c3e
000000d0: bae8 8d3e c465 103e a488 d03e 7970 c23e
000000e0: f1e8 c43e 72c5 9e3e 5ab9 973e d7ba 583e
000000f0: 3074 553e c33a 973e 2fd6 ae3e 190f b53e
0.35423848 0.396151 0.26528254 0.3026028 0.24909909 0.34257442 0.24726225 0.19542699
0.17668864 0.23971552 0.27642742 0.16177946 0.25643295 0.41553 0.22602385 0.28343838
0.35272083 0.33359274 0.42187926 0.29796043 0.25708258 0.41333592 0.3311702 0.36531985
0.22253168 0.17170958 0.35278615 0.35254627 0.19380093 0.2938165 0.22620235 0.30964848
0.16482161 0.21455655 0.21963437 0.32283512 0.3631235 0.23882912 0.18820669 0.3570552
0.29611853 0.2906255 0.19720739 0.24077824 0.31778845 0.39262182 0.1991647 0.34429166
0.22721025 0.24245284 0.32261702 0.21556595 0.2771662 0.1410132 0.4072925 0.37976435
0.3845897 0.31010014 0.296336 0.21165024 0.20845103 0.2953702 0.34147784 0.3536308

conv1.mlp.2.running_var f4 [64]
00000000: 71f4 1d3e 8046 a43e 3585 5e3e 4c3e 313e
00000010: ed8f 453e 867a 863e c8bf 393e 0741 e13d
00000020: aea0 d53d 6703 1c3e fd6f 7c3e a2c4 ac3d
00000030: 1f1f e83d 54e5 ae3e 85a0 083e 7f4c 2b3e
00000040: a6b3 913e 2f83 8b3e 66da ac3e 835d 093e
00000050: 150e 313e fbb9 933e de88 1a3e 7ad5 423e
00000060: 8424 e73d d6a5 b03d 510c 463e b0e2 493e
00000070: 8fd0 b63d a6a3 213e c0f0 cd3d 8694 623e
00000080: 43d3 9f3d a104 273e c445 f63d 7d4f 393e
00000090: c6ee 773e ed13 1a3e f579 983d 25fc 843e
000000a0: 8a98 503e 59c6 1a3e a369 e33d d055 093e
000000b0: f0f2 f03d e865 5b3e ef85 213e 418f 333e
000000c0: 1db1 513e 6e63 ec3d a484 a03e e90c 2e3e
000000d0: 9eab 483e 2273 923d 4757 933e a503 923e
000000e0: 49b6 7c3e dc5f 503e 18b4 693e 5d60 dd3d
000000f0: 6ab2 dc3d d759 633e 0703 8a3e 5633 1f3e
0.15425278 0.32085037 0.21730502 0.1730892 0.19293185 0.26265353 0.18139565 0.10998731
0.10431038 0.15235673 0.24652095 0.08435942 0.11334061 0.34159338 0.13342483 0.167284
0.28457373 0.27248523 0.33760375 0.13414578 0.17290528 0.2885283 0.15091273 0.19026747
0.11286262 0.08625381 0.19340636 0.1971538 0.08926498 0.15785083 0.10055685 0.2212697
0.07803967 0.1631036 0.120250255 0.18096729 0.24212179 0.15046664 0.074451365 0.2597362
0.20370689 0.15114726 0.11104133 0.13411641 0.11765087 0.21425593 0.15773748 0.17535116
0.2047772 0.11542402 0.31351197 0.16997112 0.19596717 0.07150866 0.28777525 0.28518406
0.24678911 0.20349067 0.22822607 0.108093955 0.10776217 0.2220224 0.26955435 0.15546927
