GraphNeuralNet/Skim3Mu/MHc-130_MA-90_vs_ttZ/models/ParticleNet-nNodes32_AdamW_initLR-0p0005_CyclicLR.pt (torch, 115549 bytes, 102 tensors)

gn0.weight f4 [9]
0	0x3fb26d2a	1.3939564
1	0x3f04203c	0.51611686
2	0x3f1602df	0.5859813
3	0x3f7baaf9	0.9830776
4	0x3e2bbfae	0.16772339
5	0x3f6f4198	0.93459463
6	0x3f71b8a6	0.94422376
7	0x3f7f4fa0	0.99730873
8	0x3f8f7898	1.1208677

gn0.bias f4 [9]
0	0x3ea1627a	0.31520444
1	0x3e0d600c	0.1380617
2	0xbdfd353d	-0.1236367
3	0x3ca9e300	0.020738125
4	0x3e4dc0e5	0.20093115
5	0x3dcfacbd	0.10140369
6	0x3e997a8c	0.29976308
7	0xbf15cea1	-0.58518416
8	0x3e83da95	0.25752702

gn0.mean_scale f4 [9]
0	0x3fe8424a	1.814523
1	0x3f228b12	0.63493454
2	0x3f6e44de	0.93073833
3	0x3fe4c4a8	1.7872515
4	0x3f573e9e	0.8407992
5	0x3f476dae	0.7790173
6	0x3f45b830	0.7723417
7	0x3f7f4fa0	0.99730873
8	0x3f70ab00	0.94010925

gn1.weight f4 [32]
0	0x3f806dc7	1.0033501
1	0x3f80736a	1.0035222
2	0x3f875c24	1.0574994
3	0x3f740eee	0.9533528
4	0x3f6f5997	0.9349608
5	0x3f830887	1.0236977
6	0x3f857455	1.0426127
7	0x3f7e1426	0.99249494
8	0x3f7003ab	0.93755597
9	0x3f7b9d9a	0.98287356
10	0x3f77d567	0.9681
11	0x3f7de690	0.99179935
12	0x3f734293	0.9502346
13	0x3f70f159	0.9411827
14	0x3f714fb5	0.9426225
15	0x3f5e6f8c	0.8688896
16	0x3f667eff	0.9003753
17	0x3f7ea281	0.9946671
18	0x3f800a9d	1.0003239
19	0x3f7289d1	0.9474154
20	0x3f582807	0.84436077
21	0x3f7c32d6	0.9851507
22	0x3f7d4bea	0.9894396
23	0x3f6b5d41	0.9193917
24	0x3f6c688a	0.92347014
25	0x3f7ad65a	0.97983325
26	0x3f6b5be2	0.9193708
27	0x3f70f2bf	0.941204
28	0x3f745dca	0.9545561
29	0x3f7d6069	0.98975235
30	0x3f89fafc	1.0779719
31	0x3f64ea02	0.8941957

gn1.bias f4 [32]
0	0xbd9b9002	-0.07595827
1	0x3db2436f	0.08704268
2	0xbd95d96c	-0.073168606
3	0xbc7cdea4	-0.015433941
4	0xbdf5996c	-0.119921535
5	0x3dde5334	0.108557135
6	0x3e83fc3d	0.2577838
7	0xbe766232	-0.24060896
8	0xbc1905a9	-0.009339728
9	0x3d30f1d4	0.043199375
10	0x3e285750	0.16439557
11	0xbd7e3e59	-0.062071178
12	0xbe087a51	-0.1332791
13	0xbd5396cb	-0.05165748
14	0x3d53c602	0.051702507
15	0xbe4b2cea	-0.19841352
16	0xbdc6b230	-0.09701955
17	0xbd2b7747	-0.0418618
18	0xbded71d4	-0.115939766
19	0xbc0ebea3	-0.0087124435
20	0xbdc23ef2	-0.09484662
21	0x3e14d5f4	0.14534742
22	0x3c584296	0.013199469
23	0x3d842934	0.06453171
24	0xbdde4298	-0.108525455
25	0x3d32310d	0.04350381
26	0x3d7a7e81	0.0611558
27	0x3e0fcee0	0.1404376
28	0x3e0195bf	0.1265478
29	0x3dc99dd9	0.0984456
30	0xbdc43a8d	-0.0958148
31	0xbda525ca	-0.08063848

gn1.mean_scale f4 [32]
0	0x3f851d6f	1.0399607
1	0x3f83dd29	1.0301868
2	0x3f7966d3	0.9742252
3	0x3f7219e3	0.9457075
4	0x3f78cd75	0.971885
5	0x3f79e3f0	0.9761343
6	0x3f7ece02	0.9953309
7	0x3f865cd0	1.0497074
8	0x3f854d88	1.0414286
9	0x3f7e3889	0.99305016
10	0x3f837ecf	1.0273074
11	0x3f875b46	1.057473
12	0x3f8372c4	1.0269399
13	0x3f75542a	0.9583155
14	0x3f843961	1.0330011
15	0x3f803474	1.0016007
16	0x3f8108c1	1.0080796
17	0x3f731c90	0.9496546
18	0x3f85f20f	1.0464495
19	0x3f76711d	0.9626635
20	0x3f8091f1	1.0044538
21	0x3f752f11	0.9577494
22	0x3f74e070	0.95654964
23	0x3f864216	1.0488918
24	0x3f8190fc	1.0122371
25	0x3f8543fc	1.0411372
26	0x3f6fc087	0.9365315
27	0x3f7935aa	0.9734751
28	0x3f85e944	1.0461812
29	0x3f76039a	0.96099246
30	0x3f82cfe6	1.0219696
31	0x3f76cf8b	0.96410435

gn2.weight f4 [32]
0	0x3f6bce47	0.9211163
1	0x3f6c7437	0.9236483
2	0x3f583082	0.8444902
3	0x3f5ba3e3	0.85796946
4	0x3f54139f	0.8284244
5	0x3f50da45	0.8158305
6	0x3f456788	0.771111
7	0x3f58debc	0.84714866
8	0x3f6bbedf	0.9208812
9	0x3f6efb45	0.93352157
10	0x3f6dbfb9	0.9287067
11	0x3f6756a4	0.9036658
12	0x3f66951b	0.90071267
13	0x3f4964ac	0.7866924
14	0x3f5c1666	0.8597168
15	0x3f52577a	0.8216473
16	0x3f404665	0.75107414
17	0x3f5da70f	0.86583036
18	0x3f4ffe39	0.8124729
19	0x3f507584	0.81429315
20	0x3f510e07	0.8166203
21	0x3f5978e0	0.84950066
22	0x3f64d5ab	0.8938853
23	0x3f654d54	0.8957112
24	0x3f61b020	0.8815937
25	0x3f5c6ebf	0.86106485
26	0x3f5cf504	0.86311364
27	0x3f4daef7	0.803451
28	0x3f5c65f9	0.860931
29	0x3f5d4db6	0.864467
30	0x3f4c4aa4	0.7980139
31	0x3f5e244a	0.8677412

gn2.bias f4 [32]
0	0x3d566e9d	0.052351583
1	0xbce9b537	-0.028528793
2	0x3ca4ca0f	0.02011588
3	0x3da5bb40	0.08092356
4	0x3de923d8	0.1138379
5	0x3d3aacfe	0.045575134
6	0xbd1987d7	-0.037483063
7	0xbd20dc64	-0.03927268
8	0xbc2ea160	-0.010658592
9	0xbd8bcaa8	-0.06825763
10	0xbc0dd0c4	-0.008655731
11	0xbd1e8852	-0.038704224
12	0x3dd5a0f4	0.1043109
13	0xbd4673f4	-0.048450425
14	0xbb8918b6	-0.004183854
15	0x3baf1f4b	0.0053443066
16	0x3cf1c25b	0.029511621
17	0xbd57b178	-0.05265948
18	0xbc53d396	-0.012928864
19	0x3d541254	0.05177529
20	0x3d2dd72c	0.042441532
21	0xbd9a7daa	-0.075435
22	0xbc408fcf	-0.011753037
23	0xbc709fd1	-0.014686541
24	0x3c9edc50	0.019392163
25	0x3ca28ca9	0.019842463
26	0x3d160a65	0.036631007
27	0xbda18082	-0.07885839
28	0x3c85aedd	0.016318733
29	0xbb508f94	-0.003182386
30	0xbdb3c845	-0.08778433
31	0x3cb06970	0.021534652

gn2.mean_scale f4 [32]
0	0x3f790874	0.97278523
1	0x3f80782c	1.0036674
2	0x3f7f12c4	0.9963801
3	0x3f7cc7b4	0.9874222
4	0x3f820f17	1.0160855
5	0x3f7f19f2	0.99648964
6	0x3f8109a8	1.0081072
7	0x3f804638	1.0021429
8	0x3f7c5171	0.9856177
9	0x3f75ecdf	0.9606456
10	0x3f7ca275	0.9868539
11	0x3f82e5ba	1.0226357
12	0x3f7d8bd4	0.99041486
13	0x3f8145fa	1.009948
14	0x3f813f68	1.0097475
15	0x3f7f1476	0.99640596
16	0x3f824de8	1.0180025
17	0x3f7bab4d	0.9830826
18	0x3f7f4446	0.9971355
19	0x3f7f4075	0.9970773
20	0x3f8194ca	1.0123532
21	0x3f7e4e1e	0.9933795
22	0x3f82a471	1.0206434
23	0x3f7cab7e	0.98699176
24	0x3f816fc9	1.0112239
25	0x3f814f32	1.0102293
26	0x3f7cf4c9	0.9881101
27	0x3f821d6d	1.016523
28	0x3f816ccb	1.0111326
29	0x3f82567e	1.0182645
30	0x3f8138de	1.009548
31	0x3f825cb6	1.0184543

gn3.weight f4 [32]
0	0x3f3c9aa9	0.7367349
1	0x3f31d2e7	0.69462436
2	0x3f37344b	0.7156417
3	0x3f416bb2	0.75554955
4	0x3f471932	0.7777282
5	0x3f3401f4	0.7031548
6	0x3f3e734f	0.74394697
7	0x3f21c864	0.63196397
8	0x3f486cce	0.7829102
9	0x3f26f816	0.652223
10	0x3f3dbbf3	0.7411491
11	0x3f4dfeaf	0.8046674
12	0x3f46b575	0.7762063
13	0x3f31a542	0.6939279
14	0x3f308089	0.6894613
15	0x3f340d61	0.70332915
16	0x3f33cf8d	0.7023857
17	0x3f39a3dd	0.7251566
18	0x3f30c032	0.69043267
19	0x3f1ae252	0.6050159
20	0x3f463372	0.7742225
21	0x3f2f071b	0.6837022
22	0x3f3cbbe7	0.73724216
23	0x3f49b14c	0.7878616
24	0x3f3d6991	0.73989207
25	0x3f45fc1a	0.773378
26	0x3f30add3	0.69015235
27	0x3f283009	0.65698296
28	0x3f3e6251	0.7436877
29	0x3f375d93	0.7162716
30	0x3f2914fc	0.66047645
31	0x3f3c5bc9	0.73577553

gn3.bias f4 [32]
0	0xbd1e029c	-0.038576707
1	0x3d844058	0.06457585
2	0xb99eb48d	-0.0003027063
3	0x3cc089e0	0.023503244
4	0xbd04f79e	-0.03246271
5	0xbd949324	-0.07254627
6	0xbdd48461	-0.10376812
7	0x3e010fb2	0.12603644
8	0x3b6cdbe6	0.0036141812
9	0xbc98d519	-0.0186563
10	0x3c666d41	0.014064134
11	0x3bb8d4f4	0.0056406204
12	0xbcd59b86	-0.026075136
13	0x3ced65a9	0.02897914
14	0xbd066789	-0.032813583
15	0x3d36a4fb	0.04459093
16	0x3d256d03	0.040387165
17	0x3aedfb8d	0.0018156633
18	0x3d59fdb3	0.053220462
19	0x3b8b8111	0.0042573293
20	0x3d06ae99	0.032881353
21	0x3c943ade	0.018094476
22	0xbc11cf32	-0.008899497
23	0xbcc83b54	-0.024442352
24	0x3c55bafd	0.01304507
25	0xbca749d5	-0.020420948
26	0x3bf9e6b5	0.0076263794
27	0xbcdeab0e	-0.027181175
28	0x3b0ede88	0.002180012
29	0xbcf5ce9f	-0.030005751
30	0x3def5d1b	0.1168768
31	0xbbcc6f8c	-0.0062388834

gn3.mean_scale f4 [32]
0	0x3f7e51eb	0.99343747
1	0x3f801859	1.000743
2	0x3f803ce5	1.0018584
3	0x3f8021f2	1.0010359
4	0x3f80cb88	1.0062113
5	0x3f7fc2cb	0.99906605
6	0x3f8164b3	1.0108856
7	0x3f814741	1.009987
8	0x3f817ba6	1.011586
9	0x3f7e1c89	0.9926229
10	0x3f800491	1.0001394
11	0x3f7e980a	0.99450743
12	0x3f8034fa	1.0016167
13	0x3f7d28ca	0.98890364
14	0x3f816321	1.0108377
15	0x3f7fe453	0.9995777
16	0x3f7ec419	0.9951797
17	0x3f7d63a9	0.98980194
18	0x3f8070cf	1.0034426
19	0x3f80138e	1.0005968
20	0x3f803b29	1.0018054
21	0x3f80dbbe	1.006706
22	0x3f80218e	1.001024
23	0x3f7fb095	0.9987882
24	0x3f808d9c	1.0043216
25	0x3f7cc7f5	0.9874261
26	0x3f80e2f8	1.0069265
27	0x3f7d97b8	0.9905963
28	0x3f815440	1.0103836
29	0x3f80a39b	1.0049928
30	0x3f7f3e99	0.9970489
31	0x3f80179a	1.0007203

bn0.weight f4 [38]
0	0x3f230ac8	0.63688326
1	0x3f0998d3	0.53748816
2	0x3ed40dab	0.41416678
3	0x3f209d31	0.62739855
4	0x3f065694	0.5247586
5	0x3ee25b60	0.4421034
6	0x3ec25482	0.379551
7	0x3f000cde	0.50019634
8	0x3f2a0029	0.66406494
9	0x3f039570	0.513999
10	0x3ee069d7	0.4383075
11	0x3f30f448	0.69122744
12	0x3ed3822d	0.41310254
13	0x3f054b71	0.5206824
14	0x3ef535b3	0.47892532
15	0x3ec92470	0.39285612
16	0x3ec771d6	0.38954037
17	0x3f35bbe7	0.7098984
18	0x3f2cc247	0.67483944
19	0x3effa8ec	0.49933565
20	0x3eb8fa4b	0.36128458
21	0x3f268056	0.65039575
22	0x3f25e603	0.64804095
23	0x3f146a7e	0.57974994
24	0x3ebb4e08	0.3658297
25	0x3f08a5be	0.533779
26	0x3f23a9c8	0.6393094
27	0x3efbf460	0.4920988
28	0x3f236e17	0.6383986
29	0x3f1dfd34	0.6171448
30	0x3ec26fac	0.37975824
31	0x3eed7735	0.4638001
32	0x3f9b0973	1.2112259
33	0x3f8d175f	1.1022757
34	0x3fa0eb5f	1.257183
35	0x3f9c4a46	1.2210166
36	0x3f959dba	1.1688759
37	0x3f91f1f7	1.1401967

bn0.bias f4 [38]
0	0xbe020c9b	-0.12700121
1	0xbcc55824	-0.02408988
2	0x3e342b94	0.17594749
3	0xbdf8a13e	-0.121401295
4	0xbd20a631	-0.039220992
5	0x3ca1ca7b	0.01974987
6	0x3e17cd49	0.14824404
7	0xbe32043d	-0.1738443
8	0xbde66e59	-0.11251516
9	0x3e391446	0.1807414
10	0xbc226284	-0.009911183
11	0x3a91af3f	0.001111485
12	0x3db80921	0.08986116
13	0x3df66386	0.12030701
14	0x3d03dbe1	0.032192115
15	0xbcca93c1	-0.024728658
16	0xbd429fa2	-0.04751552
17	0xbe1036f6	-0.14083466
18	0x3df5d6b8	0.12003845
19	0x3cad9132	0.021187399
20	0xbdd37132	-0.10324325
21	0x3d8d566c	0.06901249
22	0xbe20624c	-0.15662497
23	0xbd43af38	-0.047774523
24	0x3d940827	0.072281174
25	0x3e09e8a5	0.13467653
26	0x3e219b0c	0.15781802
27	0x3d84c1ab	0.06482252
28	0xbd02957a	-0.031880833
29	0xbdff37af	-0.12461793
30	0x3d6e2e8c	0.05814986
31	0x3e238ca4	0.15971619
32	0x3ca45a0b	0.020062467
33	0xbcfc4163	-0.030792898
34	0x3d5f8596	0.054570757
35	0xbd8d9edd	-0.069150664
36	0xbd8e2f8f	-0.06942665
37	0xbd899dda	-0.06719561

bn0.running_mean f4 [38]
0	0xbd6a11db	-0.057145935
1	0x3e086682	0.13320354
2	0xbd5e99d5	-0.054345924
3	0x3da8b5ad	0.08237777
4	0xbd14919a	-0.03627167
5	0x3da22640	0.07917452
6	0x3ded10a5	0.1157544
7	0xbe48175b	-0.1954016
8	0x3bd91adc	0.0066255163
9	0xbd7d1254	-0.061785057
10	0x3e2f1a1d	0.17099805
11	0xbd40878d	-0.04700427
12	0xbd814e45	-0.06313757
13	0xbd912ca7	-0.07088595
14	0x3cd5dc6f	0.026106087
15	0xbe17fe6a	-0.14843145
16	0xbcdb33f1	-0.026758166
17	0xbdaf2f99	-0.085540004
18	0xbd9af0e4	-0.075654775
19	0x3d888216	0.06665437
20	0xbc9f554f	-0.019449858
21	0x3daa7a39	0.08324093
22	0xba8c4b07	-0.0010703512
23	0x3cf2a872	0.029621337
24	0xbd97736b	-0.07395061
25	0x3c6c20fc	0.014412161
26	0x3d7d0dd0	0.06178075
27	0x3d52e1ba	0.0514848
28	0x3e33d604	0.17562109
29	0x3d6b5d6a	0.057462133
30	0xbd86b944	-0.06578305
31	0xbd7290d9	-0.05922017
32	0x40990786	4.7821684
33	0x3fb6db24	1.4285626
34	0x4291e17d	72.94041
35	0x4341ecfa	193.92569
36	0x4311356e	145.20871
37	0x42e844b0	116.134155

bn0.running_var f4 [38]
0	0x3a2bc0f6	0.0006551886
1	0x392f3456	0.00016708797
2	0x38df9fa8	0.00010663207
3	0x3a0968fa	0.0005241778
4	0x39170b86	0.00014404775
5	0x38852d6c	6.350395e-05
6	0x372e016b	1.0371538e-05
7	0x397a3a1d	0.00023863507
8	0x3a2ad1c1	0.0006516241
9	0x39bbb595	0.0003580271
10	0x39324847	0.00017002328
11	0x3a97b027	0.0011572883
12	0x38ea2a1e	0.000111658344
13	0x39b69a82	0.00034828862
14	0x39508f19	0.00019889734
15	0x35b19e90	1.3233675e-06
16	0x37c0ed3c	2.2998654e-05
17	0x3a1e714f	0.0006044106
18	0x39e45128	0.00043548015
19	0x38ecc84a	0.00011290664
20	0x3765b59c	1.3691748e-05
21	0x39e3648d	0.0004337173
22	0x3a3385ee	0.0006848265
23	0x3a04525e	0.0005047674
24	0x37c435d4	2.3390086e-05
25	0x39986915	0.0002906999
26	0x3a7ea902	0.0009714515
27	0x391f8ab2	0.0001521509
28	0x3a31d10c	0.00067831646
29	0x39b79acf	0.0003501982
30	0x391f9192	0.00015217651
31	0x3933364d	0.00017090999
32	0x405078da	3.2573762
33	0x3f170479	0.589912
34	0x4530da4c	2829.6436
35	0x4625b8b5	10606.177
36	0x45b09ab8	5651.34
37	0x457bfa3e	4031.6401

bn1.weight f4 [32]
0	0x3f731e3f	0.94968027
1	0x3f699463	0.91242045
2	0x3f85bcc0	1.0448227
3	0x3f8d2d02	1.102936
4	0x3f6d3f7d	0.92675
5	0x3f68f7a6	0.9100288
6	0x3f88eefd	1.0697933
7	0x3f6652e7	0.8997025
8	0x3f62d44c	0.8860519
9	0x3f74b63a	0.95590556
10	0x3f891054	1.0708108
11	0x3f6cc474	0.92487264
12	0x3f894903	1.0725406
13	0x3f6c77bb	0.92370194
14	0x3f6b84cf	0.91999525
15	0x3f8c4fd4	1.0961862
16	0x3f8168b9	1.0110084
17	0x3f75f33b	0.96074265
18	0x3f645982	0.8919908
19	0x3f687764	0.90807176
20	0x3f593d3c	0.8485906
21	0x3f667bdf	0.9003276
22	0x3f8eab07	1.1145943
23	0x3f842e64	1.0326657
24	0x3f74a1f0	0.95559597
25	0x3f7f4eb9	0.99729496
26	0x3f8e0846	1.1096275
27	0x3f8599b4	1.0437531
28	0x3f7d8828	0.9903588
29	0x3f58e7a6	0.8472847
30	0x3f7f92d8	0.9983344
31	0x3f7a7b47	0.97844356

bn1.bias f4 [32]
0	0xbdf79bbe	-0.12090252
1	0xbdebe51f	-0.11518311
2	0xbdad2940	-0.084551334
3	0xbdc39ae7	-0.0955103
4	0x3d00ca28	0.03144279
5	0x3e6db65c	0.23214096
6	0xbe741bec	-0.23838776
7	0xbcf93b93	-0.030423915
8	0x3ca4bb41	0.02010882
9	0x3da43fc4	0.08019975
10	0x3ceaf60a	0.028681774
11	0xbe281331	-0.16413571
12	0xbd22d366	-0.039752387
13	0xbe2485a2	-0.16066602
14	0xbe0cbd68	-0.13744128
15	0x3e030685	0.12795456
16	0xbd073399	-0.03300819
17	0xbc220be1	-0.009890527
18	0xbe6967dc	-0.22793525
19	0x3e231605	0.15926369
20	0xbd9d8663	-0.07691648
21	0x3d00d65c	0.03145443
22	0x3e05c812	0.13064602
23	0xbd7a7319	-0.061144922
24	0xbc8df11a	-0.01732688
25	0xbd8a979f	-0.06767201
26	0xbdf0866b	-0.11744388
27	0xbe08bdf9	-0.13353719
28	0x3d6d485d	0.05793034
29	0x3dc4608c	0.09588727
30	0xbe1d603c	-0.15368742
31	0xbd3835ab	-0.044973057

bn1.running_mean f4 [32]
0	0x3ea9dec5	0.33177772
1	0x3e8b6006	0.27221698
2	0x3ea13014	0.31481993
3	0x3ea0ef34	0.31432498
4	0x3e9c8b6c	0.3057512
5	0x3eaf1681	0.34196857
6	0x3e24c768	0.16091692
7	0x3e8f10f3	0.2794262
8	0x3ed768bf	0.42072102
9	0x3e8d59c0	0.27607536
10	0x3e1fa693	0.15590887
11	0x3e6720bf	0.22571085
12	0x3e212cfb	0.15739815
13	0x3e980235	0.29689184
14	0x3e850128	0.25977445
15	0x3e8636a8	0.26213574
16	0x3e2475d2	0.1606057
17	0x3ec16de9	0.37779167
18	0x3e196961	0.14981605
19	0x3ed578b1	0.41693643
20	0x3e85e601	0.26152042
21	0x3eb1ccfd	0.34726706
22	0x3e8a4c9f	0.27011582
23	0x3ea356ad	0.31902066
24	0x3ed21df4	0.41038477
25	0x3e984813	0.29742488
26	0x3ec82639	0.39091662
27	0x3e902cd4	0.281592
28	0x3e928f19	0.286248
29	0x3e86611b	0.2624596
30	0x3db6ff8d	0.08935461
31	0x3ec82abc	0.39095104

bn1.running_var f4 [32]
0	0x3d8bd7c7	0.06828266
1	0x3d8efb35	0.06981508
2	0x3e0c3af3	0.13694362
3	0x3d6ba24c	0.057527825
4	0x3db152b9	0.08658356
5	0x3ea5e522	0.32401377
6	0x3da8a8f3	0.082353495
7	0x3da7f2b6	0.0820059
8	0x3e1a145e	0.15046832
9	0x3e10edad	0.14153166
10	0x3d437e90	0.04772812
11	0x3db00396	0.08594434
12	0x3d82859c	0.0637314
13	0x3e087f28	0.13329756
14	0x3e043c77	0.1291369
15	0x3e5ebaed	0.21750994
16	0x3dd37994	0.103259236
17	0x3dbf6323	0.09345081
18	0x3dde4de3	0.108546995
19	0x3e0b624d	0.13611718
20	0x3dde9ce5	0.10869769
21	0x3e4b4cf2	0.19853571
22	0x3d46c002	0.048522957
23	0x3ddcad41	0.10775233
24	0x3db2ec9f	0.08736538
25	0x3e107d39	0.14110269
26	0x3d8d0a1f	0.06886696
27	0x3d7de9eb	0.06199066
28	0x3e85e3e3	0.26150426
29	0x3db17ac1	0.086659916
30	0x3cd1fb9a	0.025632668
31	0x3d9b1958	0.07573193

bn2.weight f4 [32]
0	0x3f793423	0.9734518
1	0x3f82cfff	1.0219725
2	0x3f7925a4	0.9732306
3	0x3f819c59	1.0125839
4	0x3f773e6d	0.9657963
5	0x3f7d1bed	0.98870736
6	0x3f558269	0.83402115
7	0x3f8e222e	1.1104181
8	0x3f83713a	1.0268929
9	0x3f5c8f13	0.86155814
10	0x3f815e1b	1.0106844
11	0x3f789c7c	0.97113776
12	0x3f5923bd	0.8482016
13	0x3f78c14f	0.97169966
14	0x3f7f89d3	0.9981968
15	0x3f7b12f9	0.98075825
16	0x3f797734	0.97447515
17	0x3f9cbdc5	1.2245413
18	0x3f8120c7	1.0088128
19	0x3f84d366	1.0377014
20	0x3f83456e	1.0255563
21	0x3f8577f4	1.0427232
22	0x3f616e01	0.8805848
23	0x3f6dafe8	0.92846537
24	0x3f81a77e	1.012924
25	0x3f8102b8	1.0078955
26	0x3f7768d0	0.96644306
27	0x3f8fd062	1.1235468
28	0x3f4b4bcd	0.7941254
29	0x3f6f9e3d	0.9360083
30	0x3f72431f	0.9463367
31	0x3f7a85e9	0.9786058

bn2.bias f4 [32]
0	0xbb523c8a	-0.003207954
1	0xbaac83e0	-0.001316186
2	0x3ca1a3d0	0.019731432
3	0x3b694b36	0.0035597808
4	0x3b77260f	0.0037711894
5	0x3d186870	0.037208974
6	0x3dc4dba3	0.09612205
7	0x3cbf5ebc	0.023360603
8	0x3aa1a171	0.0012331438
9	0x3d8cfeeb	0.06884559
10	0x3c989f99	0.01863079
11	0x3ccbf98b	0.024899265
12	0x3ce6b04c	0.028160237
13	0x3cc336c6	0.023829829
14	0x3ca415c4	0.02002991
15	0x3c8a30e2	0.016869012
16	0x3c4b24ac	0.01239888
17	0x3cb9420f	0.022614507
18	0xbb07c621	-0.002071746
19	0x3c9fcf38	0.01950799
20	0x3b90b42c	0.0044160094
21	0x3c959a02	0.018261913
22	0x3c9df825	0.019283364
23	0x3c833c43	0.016019946
24	0x3c4afa4b	0.012388776
25	0x3c94b273	0.018151497
26	0x3bbca6ee	0.0057572043
27	0x3b29beea	0.0025901147
28	0x3df8cb60	0.12148166
29	0x3d124fc2	0.035720594
30	0x3b7737de	0.0037722508
31	0x3c0c684a	0.008569786

bn2.running_mean f4 [32]
0	0x3f20aaec	0.62760806
1	0x3ed4a580	0.41532516
2	0x3ed6d088	0.41955972
3	0x3edf2cd4	0.4358889
4	0x3eda45f4	0.42631495
5	0x3eb6a25f	0.35670754
6	0x3e8b7824	0.27240098
7	0x3e81441b	0.25247273
8	0x3f024c1e	0.50897396
9	0x3ee9de50	0.45677423
10	0x3ef742cb	0.48293146
11	0x3e855ee4	0.26048958
12	0x3e6d2221	0.2315755
13	0x3edd299f	0.43195817
14	0x3e6ff187	0.23431979
15	0x3f145860	0.5794735
16	0x3ef4a22b	0.47779974
17	0x3e681a65	0.22666319
18	0x3e5a869f	0.21340416
19	0x3e7fb070	0.2496965
20	0x3eee9fdd	0.4660634
21	0x3e5a30ad	0.21307631
22	0x3e4d9497	0.20076214
23	0x3eb94ac7	0.36189863
24	0x3eecdb65	0.46261135
25	0x3f0bd6db	0.5462472
26	0x3eb461d1	0.35230878
27	0x3eecadd5	0.46226373
28	0x3e1d80c6	0.15381154
29	0x3e8961ea	0.26832515
30	0x3e997b4c	0.2997688
31	0x3f041296	0.5159086

bn2.running_var f4 [32]
0	0x3fa9eb83	1.3274997
1	0x3f1f4696	0.6221708
2	0x3f0e413e	0.555683
3	0x3f86acba	1.0521462
4	0x3f1e05a8	0.6172738
5	0x3ee41b39	0.4455202
6	0x3ebcc074	0.3686558
7	0x3e83863e	0.25688356
8	0x3f4ec61c	0.8077104
9	0x3efd51a0	0.49476337
10	0x3f21a6b1	0.63144976
11	0x3e852fad	0.26012936
12	0x3e7abd2a	0.24486223
13	0x3ed5881d	0.4170541
14	0x3e90e5fb	0.2830046
15	0x3f08b777	0.53404945
16	0x3f10d9bf	0.56582254
17	0x3e9b8341	0.30373576
18	0x3e819f7d	0.25316992
19	0x3ec2c965	0.38044277
20	0x3faeb88f	1.3650073
21	0x3e5ef050	0.2177136
22	0x3e1a34e0	0.15059233
23	0x3f4d230a	0.8013159
24	0x3f2aff8d	0.6679619
25	0x3edee86e	0.43536705
26	0x3f2616e8	0.648787
27	0x3f08c586	0.53426397
28	0x3e4cc148	0.19995606
29	0x3e8fd047	0.2808859
30	0x3ed24fad	0.41076413
31	0x3f9a8128	1.2070665

conv1.mlp.0.weight f4 [32, 18]
0	0xbdad2536	-0.08454363
1	0xbdf95ae3	-0.121755384
2	0xbef86af1	-0.4851909
3	0x3bc065bb	0.005871502
4	0x3e13fb82	0.14451411
5	0xbd9191b0	-0.07107866
6	0xbe511e6b	-0.2042176
7	0x3e615ca1	0.22007991
8	0xbcd74cb0	-0.026281685
9	0xbd12d702	-0.03584958
10	0x3d4c16e9	0.049826536
11	0x3e76015e	0.24023959
12	0x3c22635f	0.009911387
13	0x3ceb3c2a	0.028715212
14	0xbbf75265	-0.007547664
15	0x3ae45735	0.0017421009
16	0xbe491960	-0.19638586
17	0xbc0d77a4	-0.008634482
18	0x3d78e6b5	0.060766894
19	0xbeda42ab	-0.4262899
20	0x3e970d7a	0.2950247
21	0xbc8f59f7	-0.017498953
22	0xbdb30435	-0.08741037
23	0xbd8338cf	-0.0640732
24	0xbd894bd1	-0.06703914
25	0x3e38d90b	0.18051545
26	0x3d01496c	0.03156416
27	0x3e2c6064	0.16833645
28	0x3e9206be	0.2852077
29	0xbe0a2aa0	-0.13492823
30	0xbd48e7ec	-0.049049303
31	0xbd20bdb5	-0.03924342
32	0xbbf7cc7f	-0.0075622196
33	0xbe09ee2f	-0.13469766
34	0x3e13dd3c	0.14439863
35	0xbd2919d3	-0.041284394
36	0xbe5516c0	-0.2080946
37	0xbda05545	-0.07828764
38	0x3d58de91	0.05294663
39	0xbe54f259	-0.20795573
40	0xbe52b142	-0.20575431
41	0x3d769d24	0.060208455
42	0xbe02eb99	-0.12785186
43	0x3e68ffeb	0.22753875
44	0xbe98afa0	-0.2982149
45	0xbcb0fca9	-0.021604853
46	0xbde3babd	-0.11119602
47	0xbdce90a7	-0.10086184
48	0x3eb86dc8	0.36021256
49	0xbde0c44b	-0.1097494
50	0xbc243716	-0.010022899
51	0x3e792efe	0.24334332
52	0xbd4ab57b	-0.04948948
53	0x3e1be206	0.1522294
54	0xbe3c7ecb	-0.18407743
55	0xbd36cf48	-0.044631273
56	0x3ae0c519	0.0017148583
57	0x3e8bc3a0	0.27297688
58	0xbca836ee	-0.020534005
59	0x3d426643	0.047460806
60	0xbda8bb56	-0.082388565
61	0x3f0dde30	0.55417156
62	0xbd59f94f	-0.053216275
63	0xbda540de	-0.08069013
64	0xbcbf0291	-0.023316653
65	0x3a711f87	0.00091981184
66	0xbe234c80	-0.15947151
67	0xbd990ab2	-0.07472743
68	0x3db904d1	0.09034122
69	0x3ce4e808	0.027942672
70	0x3e42c50f	0.19020484
71	0xbcc84204	-0.024445541
72	0x3e388056	0.18017706
73	0x3e927482	0.28604513
74	0xbe4a38d8	-0.19748247
75	0xbe1fa8ba	-0.15591708
76	0xbdb16cc2	-0.08663322
77	0xbe6ceb28	-0.2313658
78	0xbd912d39	-0.07088704
79	0xbe77dd90	-0.24205613
80	0x3e12450d	0.14284153
81	0xbdebef31	-0.115202315
82	0xbdb92a15	-0.0904123
83	0xbe09d659	-0.13460673
84	0x3daa2244	0.08307317
85	0x39eb2c64	0.00044855766
86	0x3e62c9b3	0.22147255
87	0x3d8c17fb	0.068405114
88	0x3b8e4ee6	0.0043429015
89	0xbe74306f	-0.23846601
90	0xbe3074bc	-0.1723203
91	0xbd7fbdf6	-0.06243702
92	0x3e233c1f	0.15940903
93	0x3e90d22a	0.28285342
94	0xbd096cb2	-0.033550926
95	0x3daf061a	0.08546086
96	0xbda369e6	-0.07979183
97	0x3e727535	0.23677523
98	0xbd469ecb	-0.04849128
99	0x3de79bc9	0.113090105
100	0xba37be3b	-0.00070092425
101	0x3d84d217	0.06485384
102	0xbebeafe5	-0.37243572
103	0xbc9e02e9	-0.019288497
104	0x3d81be1e	0.0633509
105	0xbddd6cab	-0.108117424
106	0x3c7b9c87	0.015357143
107	0xbde33acd	-0.110952
108	0x3ea92e86	0.33043307
109	0xbcf1fca8	-0.029539421
110	0x3cc4c7a7	0.024020983
111	0xbdf7f957	-0.12108105
112	0xbe680584	-0.22658354
113	0xbec9113b	-0.39270958
114	0x3b5c3a89	0.0033604226
115	0x3effcea3	0.4996234
116	0xbe79a07b	-0.24377625
117	0xbe01cc7e	-0.12675664
118	0x3cc562e8	0.024095014
119	0x3def6046	0.116882846
120	0xbda2b948	-0.07945496
121	0xbdf09848	-0.11747795
122	0x3e19a1ad	0.1500308
123	0xbe4a2b02	-0.19742969
124	0xbe09aca1	-0.13444759
125	0x3a72fb69	0.00092690304
126	0x3df97843	0.12181141
127	0xbb9e2486	-0.0048261313
128	0x3d1d8aae	0.038462333
129	0x3ca81550	0.020517975
130	0xbd72cf65	-0.059279818
131	0xbe22dced	-0.15904589
132	0xbe9deb1a	-0.3084343
133	0x3e1012f3	0.14069729
134	0x3cd100e9	0.02551313
135	0x3e3efd9e	0.18651435
136	0x3bede8f1	0.007260435
137	0x3cf0c5dc	0.029391222
138	0xbca004aa	-0.019533474
139	0xbcb99526	-0.022654127
140	0xbe4c3add	-0.1994433
141	0x3defa8e7	0.117021374
142	0xbda44b57	-0.080221824
143	0xbdd6d1ca	-0.10489233
144	0x3db1266c	0.086499065
145	0x3db027bf	0.08601331
146	0xbdd4c498	-0.1038906
147	0xbc43361d	-0.011914757
148	0xbce9ee5d	-0.028556043
149	0xbd43ab13	-0.04777057
150	0xbe45eb1c	-0.19327968
151	0x3eb04bf1	0.3443294
152	0x3dd4a2a5	0.103825845
153	0xbe578465	-0.21046598
154	0x3c634889	0.013872274
155	0xbcc37bf0	-0.023862809
156	0xbbdd8092	-0.0067597115
157	0xb9c07008	-0.00036704564
158	0x3defb0b7	0.117036276
159	0xbdbaf4c7	-0.09128719
160	0xbd2fd388	-0.04292634
161	0xbe7698fc	-0.24081796
162	0xbc46e6bc	-0.012139972
163	0xbe19cfe3	-0.15020709
164	0x3dfcc618	0.12342471
165	0x3d383a03	0.0449772
166	0xbdb0c67b	-0.08631607
167	0xbc9daee2	-0.01924843
168	0xbc91fbc6	-0.01782025
169	0x3edb684d	0.42853013
170	0x3cb26ac2	0.021779422
171	0xbde8c7a9	-0.11366207
172	0x3c3e37c7	0.011609978
173	0xbd89c010	-0.06726086
174	0x3e106ff6	0.1410521
175	0x3d0bcc27	0.03413024
176	0x3d989993	0.07451167
177	0xb9e24635	-0.00043158387
178	0xbdecd6ff	-0.11564445
179	0xbe9329f3	-0.28742942
180	0xbe82be45	-0.2553579
181	0x3ccd8c82	0.025091413
182	0x3c83f8e7	0.016109897
183	0xbc0658ff	-0.008199929
184	0xbd10e9bb	-0.035379153
185	0xbe8e0185	-0.27735534
186	0x3d052ce7	0.032513525
187	0x3f3b23ca	0.73101485
188	0x3ce0cfa7	0.027442766
189	0x3d99e5de	0.07514547
190	0xbd25832d	-0.040408302
191	0x3cbff267	0.023431016
192	0xbc94ef38	-0.018180475
193	0x3cf7268c	0.030169748
194	0xbdb4f748	-0.08836228
195	0x3e1f5638	0.15560234
196	0xbdd3f7fb	-0.10350033
197	0x3ea866de	0.3289098
198	0xbdd69786	-0.104781196
199	0x3b75cd5b	0.0037506435
200	0x3c2d4308	0.0105750635
201	0x3e61904a	0.22027698
202	0xbb33868f	-0.0027393436
203	0x3c4e22d8	0.01258155
204	0xbe4b1bc0	-0.19834805
205	0xbd62b9fc	-0.05535315
206	0xbe30a728	-0.17251265
207	0x3dc2be9a	0.095090106
208	0xbd8b446f	-0.06800162
209	0x3e01114d	0.12604256
210	0xbeaa335c	-0.3324231
211	0x3d573700	0.052542686
212	0x3d27a6b7	0.040930476
213	0x3c4c0862	0.0124531705
214	0x3e35b1dc	0.17743629
215	0xbc734d2a	-0.01484994
216	0x3db955d6	0.09049575
217	0xbcfcc8f7	-0.030857546
218	0x3e879173	0.26478156
219	0xbcb87e0f	-0.022521047
220	0x3d393db7	0.04522487
221	0x3e1ac52b	0.15114276
222	0xbe996812	-0.29962212
223	0x3d563f8a	0.05230669
224	0x3da20bfb	0.07912441
225	0x3e5e2912	0.21695355
226	0xbe4d7eda	-0.20067921
227	0xbdd06495	-0.101754345
228	0xbabc633c	-0.0014372836
229	0x3dc4a7bb	0.096023045
230	0x3d63da39	0.055628035
231	0xbd862e9d	-0.065518595
232	0xbdbbe63e	-0.091747746
233	0x3e5b0af7	0.21390902
234	0x3dc52e6a	0.096279934
235	0x3e8f0bc9	0.2793868
236	0x3e88b876	0.26703233
237	0xbd5e1e77	-0.054228272
238	0xbe220e98	-0.1582588
239	0xbd8e124d	-0.06937084
240	0xbe6b8b87	-0.23002444
241	0x3e67e3c5	0.22645481
242	0xbdbda670	-0.09260261
243	0xbe486a3e	-0.19571778
244	0xbd71bf96	-0.0590206
245	0xbe421243	-0.18952279
246	0xbe29a870	-0.1656816
247	0xbdd15e5b	-0.10223075
248	0x3df214da	0.11820383
249	0xbd50f3dd	-0.051013816
250	0x3d8a8cce	0.067651376
251	0xbe7f8ac7	-0.24955283
252	0x3e0101a6	0.12598285
253	0xbd15089f	-0.036385175
254	0x3e1a20a0	0.15051508
255	0xbd54b6da	-0.051932193

conv1.mlp.0.bias f4 [32]
0	0xbe9943ed	-0.29934636
1	0x3df1fc68	0.11815721
2	0xbe23d4f4	-0.15999204
3	0xbe789cfe	-0.24278638
4	0xbdf2676b	-0.11836132
5	0xbe1d1893	-0.15341406
6	0xbe2cb5ff	-0.16866301
7	0xbec6d3f7	-0.3883359
8	0xbe9b1e00	-0.30296326
9	0xbecef44d	-0.40420762
10	0xbea6461b	-0.3247536
11	0xbe1bc165	-0.15210493
12	0xbe1bef1d	-0.15227933
13	0xbd45d6df	-0.04830062
14	0xbec48789	-0.38384655
15	0xbe473231	-0.1945274
16	0xbdec3648	-0.11533791
17	0x3e050ce9	0.12993206
18	0xbea6deed	-0.32591954
19	0xbe1443a9	-0.14478935
20	0xbe71fae6	-0.23630866
21	0xbe811383	-0.252102
22	0xbd608990	-0.05481869
23	0xbd3a20fa	-0.045441605
24	0xbe022582	-0.1270962
25	0xbe8fa577	-0.28055927
26	0x3d387aa3	0.04503883
27	0xbe8c2e63	-0.2737914
28	0xbed7ef82	-0.42174917
29	0xbe2070a5	-0.1566797
30	0xbe993af1	-0.2992778
31	0xbeb960f5	-0.36206785

conv1.mlp.2.weight f4 [32]
0	0x3f797115	0.97438174
1	0x3f875151	1.0571691
2	0x3f7f62bb	0.99760026
3	0x3f984376	1.1895587
4	0x3f622c2d	0.88348657
5	0x3f9232fd	1.142181
6	0x3f7856f5	0.97007686
7	0x3f5ffc30	0.8749418
8	0x3f85f9a4	1.0466809
9	0x3f8cb4b7	1.099265
10	0x3f7a5250	0.9778185
11	0x3f813ead	1.0097252
12	0x3f67bf3b	0.9052617
13	0x3f6fa4e3	0.9361097
14	0x3f62559c	0.8841188
15	0x3f7aa27f	0.979042
16	0x3f936d50	1.1517735
17	0x3f6ac64a	0.91708815
18	0x3f73ae7b	0.9518811
19	0x3f54c3fc	0.8311155
20	0x3f5cc4eb	0.8623797
21	0x3f6c7fdd	0.92382604
22	0x3f94e908	1.1633615
23	0x3f7027c8	0.938107
24	0x3f7b362c	0.98129535
25	0x3f54a607	0.8306584
26	0x3f684eb3	0.90745085
27	0x3f8101b5	1.0078646
28	0x3f87cde0	1.0609703
29	0x3f5dbed1	0.8661929
30	0x3f8caa7c	1.0989528
31	0x3f65948b	0.89679784

conv1.mlp.2.bias f4 [32]
0	0x3c9142c5	0.017732034
1	0x3e263e83	0.16234784
2	0x3dafad0c	0.08577928
3	0x3e7b8f5b	0.24566405
4	0x3d124210	0.035707533
5	0x3e7436f1	0.23849083
6	0xbcbec90c	-0.023289226
7	0xbde9bc5e	-0.11412881
8	0x3e0cb707	0.13741694
9	0x3e06c204	0.13159949
10	0xbda14133	-0.07873764
11	0x3eaa80c3	0.33301362
12	0x3e16aae3	0.14713626
13	0x3e0cf2c4	0.13764483
14	0xbde49f2a	-0.11163171
15	0x3dce79ad	0.100818016
16	0x3eb9c47d	0.3628272
17	0xbd6053eb	-0.05476753
18	0x3df5caf4	0.12001601
19	0xbd7ea221	-0.062166337
20	0x3e207083	0.1566792
21	0x3e0fc1c4	0.1403876
22	0x3c66ce5b	0.014087285
23	0xbd74b63a	-0.059744097
24	0xbd13445f	-0.035953876
25	0xbdb12ff1	-0.08651722
26	0xbd8c39d6	-0.06846969
27	0x3d88fff3	0.066894434
28	0x3d64498d	0.055734206
29	0xbe967280	-0.29384232
30	0x3d5bf94a	0.053704537
31	0xbddd481f	-0.10804772

conv1.mlp.2.running_mean f4 [32]
0	0x3d0bfc8d	0.034176398
1	0x3dd06b35	0.10176698
2	0x3e0e0f73	0.13873081
3	0x3cfa71b6	0.0305718
4	0x3e893378	0.2679708
5	0x3e4b32b5	0.19843562
6	0x3d9e15c9	0.07718999
7	0x3cdadc33	0.026716327
8	0x3d495654	0.049154595
9	0x3c961489	0.018320339
10	0x3cc430f6	0.023949128
11	0x3e2ed5b2	0.17073706
12	0x3d78a1d0	0.06070119
13	0x3dc1a0c3	0.09454491
14	0x3e183e91	0.14867617
15	0x3d53da42	0.05172182
16	0x3e2e711f	0.1703534
17	0x3e830353	0.25588474
18	0x3cf633b8	0.030053958
19	0x3dedb8b0	0.11607492
20	0x3e8405f9	0.25785807
21	0x3e4a600b	0.197632
22	0x3e403050	0.1876843
23	0x3dcc41e8	0.09973508
24	0x3e1acda6	0.15117511
25	0x3e777ee8	0.24169505
26	0x3eb794e5	0.35855785
27	0x3d20a848	0.039222986
28	0x3d699b21	0.057032708
29	0x3e725ee4	0.2366901
30	0x3df45251	0.11929763
31	0x3df80961	0.12111164

conv1.mlp.2.running_var f4 [32]
0	0x3c45adc9	0.012065359
1	0x3d233941	0.039849523
2	0x3da0d3f9	0.078529306
3	0x3c0c7020	0.008571655
4	0x3e36b4e2	0.17842439
5	0x3dfe1527	0.12406378
6	0x3d54ff6b	0.052001398
7	0x3bfc291a	0.0076953294
8	0x3cc2b953	0.02377001
9	0x3bc77b63	0.006087707
10	0x3bd61e71	0.0065343906
11	0x3dc25319	0.09488506
12	0x3ccc5c94	0.024946488
13	0x3d80ba5c	0.06285545
14	0x3dd134ed	0.10215173
15	0x3cd17bf7	0.025571806
16	0x3db4821b	0.08813878
17	0x3e3e4e0d	0.18584462
18	0x3c387c1c	0.011260059
19	0x3d995bde	0.074882254
20	0x3e27198f	0.16318344
21	0x3d967248	0.07346016
22	0x3db0f4cb	0.086404406
23	0x3d338224	0.043825284
24	0x3ddda721	0.10822893
25	0x3e351f9e	0.17687842
26	0x3de9fa42	0.11424686
27	0x3c3a378e	0.011365784
28	0x3caff312	0.02147821
29	0x3e115210	0.1419146
30	0x3d8d7512	0.06907095
31	0x3d98cbae	0.07460724

conv1.mlp.4.weight f4 [32, 32]
0	0xbd5a3b72	-0.053279348
1	0x3cdbd146	0.026833188
2	0x3e148e32	0.14507368
3	0xbdbc2878	-0.09187406
4	0x3daa8cc9	0.08327634
5	0xbe5f78f4	-0.21823484
6	0xbe34d3da	-0.1765894
7	0xbdb74fa2	-0.08950736
8	0xbe0d0ead	-0.1377513
9	0xbe180b9d	-0.1484818
10	0x3defc2de	0.1170709
11	0xbdd00180	-0.10156536
12	0xbe187ec3	-0.14892106
13	0x3db595eb	0.08866485
14	0xbd3072d6	-0.043078266
15	0xbe21f36a	-0.15815511
16	0xbc96157a	-0.018320788
17	0x3d3ca402	0.046054848
18	0x3e1f66de	0.15566584
19	0xbe1a0b54	-0.15043384
20	0x3c4031ff	0.01173067
21	0x3dd561cd	0.10419045
22	0xbe8312fe	-0.25600427
23	0x3dba527c	0.09097764
24	0xbd77de7d	-0.060514916
25	0x3e1005fd	0.14064784
26	0x3de6ca34	0.11269036
27	0xbd7c9ff5	-0.061675984
28	0x3e7d1471	0.24714829
29	0x3c8af027	0.016960217
30	0xbcc55cfd	-0.024092192
31	0xbdd9cf80	-0.106352806
32	0x3e7f08a8	0.24905646
33	0xbd9d96e6	-0.07694797
34	0x3d71ce3e	0.05903458
35	0xbdbbde0a	-0.0917321
36	0xbd43e4c1	-0.04782558
37	0xbe8b7311	-0.27236226
38	0xbd41157a	-0.047139622
39	0xbda9d98c	-0.08293447
40	0x3e26de91	0.1629584
41	0xbd8a7d18	-0.06762141
42	0xbdec506e	-0.11538778
43	0xba84f4d8	-0.001014377
44	0x3e1b10c1	0.1514311
45	0xbd96f3c9	-0.07370717
46	0xbe0b8449	-0.13624682
47	0xbe098fbf	-0.13433741
48	0x3ceba806	0.028766643
49	0x3dd62bbf	0.10457563
50	0xbc080529	-0.0083020115
51	0x3e04275e	0.12905642
52	0x3dd73b6f	0.10509383
53	0x3c590509	0.013245829
54	0xbe13ac21	-0.1442113
55	0xbd162661	-0.036657695
56	0xbe25ad15	-0.16179307
57	0xbd90cfdc	-0.07070896
58	0xbdf2e394	-0.11859813
59	0xbe1f5ad7	-0.15561996
60	0xbe155bc1	-0.14585783
61	0xbd72b157	-0.059251156
62	0xbd06d61f	-0.032919046
63	0xbdafb1af	-0.08578812
64	0x3e4294e2	0.19002107
65	0x3e1523b6	0.14564404
66	0xbdef7808	-0.11692816
67	0x3e30e62e	0.17275307
68	0x3d59f846	0.053215288
69	0x3c268c7e	0.010165332
70	0xbdc3a9da	-0.09553881
71	0x3da0f019	0.07858295
72	0x3d52a701	0.0514288
73	0x3b9f3afc	0.0048593264
74	0xba0664d4	-0.0005126719
75	0x3ad083fe	0.0015908477
76	0xbb5fe6ed	-0.0034164742
77	0x3c726915	0.014795561
78	0xbd5cfa72	-0.05394978
79	0x3bcfcd56	0.0063416166
80	0x3d8e97d7	0.06962555
81	0xbde2c91d	-0.110735156
82	0x3e1a5b0f	0.15073799
83	0xbda3fe2a	-0.08007462
84	0x3d3d60e1	0.04623497
85	0xbdbb94fa	-0.091592744
86	0x3e1a7860	0.15084982
87	0xbdc41b96	-0.09575574
88	0x3ca2ad64	0.01985807
89	0xbe2557c7	-0.16146766
90	0xbc9fec5f	-0.01952189
91	0x3e2939e1	0.16525985
92	0x3e21a8fb	0.15787117
93	0xbdabac7c	-0.08382508
94	0xbe96c14c	-0.2944435
95	0xbbe6ad9b	-0.0070397384
96	0x3da0c7e9	0.0785063
97	0x3d14360c	0.036184356
98	0x3db293b2	0.08719577
99	0xbc99e5cb	-0.018786332
100	0x3dac71c7	0.08420139
101	0x3d2abea3	0.04168571
102	0xbe32352e	-0.17403099
103	0xbc666821	-0.014062912
104	0x3e1a08db	0.1504244
105	0x3e6a2d82	0.22868922
106	0x3e210c98	0.1572746
107	0x3d11a2d2	0.03555567
108	0x3df41192	0.11917414
109	0x3bede027	0.007259387
110	0xbdca9a26	-0.09892683
111	0xbe288ae4	-0.16459233
112	0xbdbbfa63	-0.09178617
113	0xbe1b43a2	-0.15162519
114	0x3dee475a	0.11634703
115	0xbdc70f10	-0.0971967
116	0xbdd79f2d	-0.10528407
117	0x3d8dcc44	0.06923726
118	0x3dae3964	0.0850704
119	0xbd119493	-0.035542082
120	0xbe0b33ae	-0.13593933
121	0xbdd540f1	-0.10412777
122	0xbdc7f8ad	-0.09764228
123	0x3d8b1452	0.06790985
124	0x3d3d6e76	0.046247922
125	0xbd9c2189	-0.07623584
126	0xbd5edc5a	-0.054409362
127	0xbd55a1aa	-0.052156128
128	0x3dec9c48	0.11553246
129	0xbb883997	-0.004157256
130	0x3d2d0084	0.04223682
131	0xbd3f167a	-0.046652295
132	0x3d13b7f6	0.03606411
133	0x3d34c414	0.044132307
134	0xbd8e9d3a	-0.06963582
135	0x3d11ff9d	0.035644162
136	0x3cbd1614	0.023081817
137	0x3e502411	0.20326258
138	0x3e018400	0.1264801
139	0xbcb61bfc	-0.02223014
140	0xbd9d5840	-0.07682848
141	0x3e137a13	0.14402036
142	0x3d54b160	0.05192697
143	0xbe84cf87	-0.2593958
144	0x3bfde7e9	0.007748593
145	0xbd295ccb	-0.04134826
146	0x3e1877ed	0.14889498
147	0xbdcfc2ce	-0.10144578
148	0xbdae2536	-0.08503191
149	0x3b5a7203	0.0033332116
150	0x3c90028a	0.017579336
151	0x3cd853df	0.02640718
152	0xbe82605e	-0.25464147
153	0x3e002320	0.12513399
154	0xbdef1080	-0.11673069
155	0x3df56343	0.11981823
156	0x3e51a9bd	0.20474906
157	0x3c996440	0.01872456
158	0x3e4ab51a	0.19795647
159	0x3d8997cd	0.06718407
160	0x3d1b8645	0.037969846
161	0xbd522974	-0.051309064
162	0xbe007ec1	-0.12548353
163	0x3bca59f5	0.0061752745
164	0x3db999bf	0.09062528
165	0x3d3a632f	0.045504745
166	0xbe55c8bd	-0.20877357
167	0x3c03c8d6	0.0080434885
168	0x3df45bc5	0.11931566
169	0x3e9f8426	0.3115551
170	0x3da0e648	0.07856423
171	0x3d54a8c3	0.051918756
172	0xbc7fa204	-0.015602592
173	0x3cd3cf98	0.025855824
174	0xbdf10c94	-0.11769977
175	0xbd978fd1	-0.07400478
176	0xbbb85ce9	-0.00562631
177	0xbe0a6ccd	-0.13518067
178	0x3e32ebfc	0.17472833
179	0x3d168c9e	0.036755197
180	0x3e209c98	0.15684736
181	0x3d96849e	0.073495135
182	0x3d9df0d8	0.07711953
183	0x3e0a4451	0.13502623
184	0xbe06b5c5	-0.13155277
185	0x3c9e9d33	0.019362068
186	0x3da206b1	0.079114325
187	0x3e48a491	0.19594027
188	0x3e7b7f8c	0.24560374
189	0x3d109504	0.035298362
190	0xbd9014ad	-0.070351936
191	0xbe41a1c5	-0.18909366
192	0x3c80f383	0.015741115
193	0xbc798a0c	-0.015230667
194	0x3e832501	0.2561417
195	0xbe4c4883	-0.19949536
196	0xbd65d3ee	-0.056110315
197	0xbe34531d	-0.1760983
198	0xbd8e2308	-0.069402754
199	0xbd4dce05	-0.050245304
200	0x3d91371a	0.07090588
201	0x3df674bb	0.12033983
202	0x3da0faf8	0.078603685
203	0x3c7d73be	0.01546949
204	0x3dfcfa25	0.12352399
205	0xbe229234	-0.15876085
206	0xbd216284	-0.039400592
207	0x3cff568b	0.031169197
208	0x3dae5eb4	0.08514157
209	0xbe186eb4	-0.1488598
210	0xbcfcd307	-0.030862344
211	0x3d79f46f	0.061024126
212	0x3d5e75c8	0.054311544
213	0x3bf43e1a	0.007453692
214	0xbe3657e3	-0.17806964
215	0xbd489ff0	-0.048980653
216	0xbd4f0b03	-0.05054761
217	0xbce5eca7	-0.028066946
218	0x3cc9fcfe	0.024656769
219	0xbe58d274	-0.21174031
220	0x3cb3185f	0.021862207
221	0xbc1f808f	-0.009735241
222	0x3e9134d3	0.28360614
223	0xbda54050	-0.08068907
224	0x3d426801	0.047462467
225	0x3d927561	0.071512945
226	0xbe077315	-0.13227494
227	0xbe85a3c1	-0.26101497
228	0xbd45c628	-0.04828468
229	0xbe53307b	-0.20623963
230	0x3d862ecd	0.06551895
231	0xbcf3ecd3	-0.029776013
232	0xbd42e606	-0.04758265
233	0xbbef9814	-0.0073118303
234	0x3ba6b0d8	0.0050869994
235	0xbe404e04	-0.1877976
236	0x3df1e412	0.11811079
237	0xbb9d321a	-0.0047972323
238	0x3dc250e2	0.094880834
239	0x3d1d37e7	0.03838339
240	0xbead54d2	-0.33853775
241	0x3cb35a10	0.021893531
242	0xbd09852d	-0.033574272
243	0x3d84f755	0.06492487
244	0x3d293e3b	0.041319113
245	0xbdbd36cf	-0.092389695
246	0x3e0c0a85	0.13675888
247	0xbc9b8f1a	-0.018989135
248	0x3d71c99b	0.059030157
249	0x3dd13f1d	0.10217116
250	0xbdeb615d	-0.1149318
251	0x3d2b3de7	0.04180708
252	0xba78c2c7	-0.00094894733
253	0xbd475f0f	-0.04867464
254	0xbe3a4022	-0.18188527
255	0xbcb9021e	-0.022584017

conv1.mlp.4.bias f4 [32]
0	0x3c4ab405	0.012372022
1	0xbe138536	-0.14406285
2	0x3d350d31	0.044202033
3	0x3e9a4348	0.30129457
4	0xbdf8f991	-0.12156976
5	0xbc6bdd3a	-0.014396006
6	0x3da4e886	0.08052163
7	0xbed1d17a	-0.4098013
8	0x3c531e94	0.012885708
9	0xbccd632f	-0.025071708
10	0xbe15e0d6	-0.1463655
11	0x3bcd0405	0.0062565827
12	0x3e938bd9	0.28817633
13	0x3ca44758	0.02005355
14	0x3d740335	0.05957337
15	0xbe5b2568	-0.21400988
16	0xbcd734b5	-0.02627025
17	0xbc20af73	-0.009807455
18	0xbd08c09e	-0.03338682
19	0xbe82094f	-0.25397727
20	0xbe54f902	-0.20798114
21	0x3d10e499	0.035374258
22	0xbd5093da	-0.050922252
23	0xbe7e18e5	-0.24814184
24	0x3d32808e	0.04357963
25	0xbe948446	-0.29007167
26	0xbe5f21ec	-0.21790284
27	0x3d9cc52b	0.07654794
28	0xbe20fe88	-0.15722096
29	0xbdda8baa	-0.1067117
30	0xbe207c5a	-0.15672436
31	0xbd16fe33	-0.036863517

conv1.mlp.6.weight f4 [32]
0	0x3f7a08b5	0.97669536
1	0x3f7255c8	0.9466214
2	0x3f7b21f8	0.9809871
3	0x3f724572	0.94637215
4	0x3f80652d	1.0030876
5	0x3f8737ad	1.0563866
6	0x3f7239a8	0.94619226
7	0x3f836866	1.0266235
8	0x3f833e3c	1.0253367
9	0x3f84ef1f	1.0385474
10	0x3f806258	1.0030012
11	0x3f80dbb8	1.0067053
12	0x3f62f986	0.8866199
13	0x3f6ec777	0.9327311
14	0x3f695723	0.91148585
15	0x3f7bf679	0.9842296
16	0x3f73a2b5	0.95170146
17	0x3f89974f	1.0749301
18	0x3f8673d2	1.0504096
19	0x3f899ea0	1.0751534
20	0x3f84162b	1.0319265
21	0x3f6fd198	0.9367919
22	0x3f66e63e	0.9019507
23	0x3f970559	1.1798507
24	0x3f786a67	0.9703736
25	0x3f771f8e	0.96532524
26	0x3f7f1a31	0.9964934
27	0x3f7cd4a8	0.9876199
28	0x3f5c783e	0.86120975
29	0x3f57bae8	0.8426957
30	0x3f917cf7	1.1366261
31	0x3f6a682e	0.91565216

conv1.mlp.6.bias f4 [32]
0	0x3de16e31	0.110073455
1	0x3cd93cd7	0.026518269
2	0xbaa82b99	-0.0012830376
3	0x3da7e48c	0.08197889
4	0x3e2d4333	0.16920166
5	0x3d813bb0	0.063102126
6	0x3df57a5e	0.1198623
7	0xbc8424ef	-0.016130893
8	0xbe72bb69	-0.23704304
9	0x3d75cea9	0.06001154
10	0x3df27710	0.118391156
11	0x3dc9af91	0.0984794
12	0x3e22521e	0.15851638
13	0x3e58114f	0.21100353
14	0xbddd111d	-0.1079428
15	0xbe3e216f	-0.18567441
16	0x3d6b55b4	0.05745478
17	0x3e3ddfa9	0.18542351
18	0x3d7a190d	0.061059047
19	0xbdfa79f3	-0.12230291
20	0x3d29a6dc	0.041418895
21	0xbcfc854e	-0.030825283
22	0x3d26cba5	0.040721554
23	0x3d311edd	0.043242324
24	0x3e6a8b1b	0.22904627
25	0xbe2c3263	-0.16816096
26	0xbd65e1c6	-0.056123517
27	0x3e3e592c	0.18588704
28	0x3aa09e61	0.0012254232
29	0x3df74b7e	0.12074946
30	0x3d9683b9	0.07349343
31	0xbbb7fa84	-0.0056145806

conv1.mlp.6.running_mean f4 [32]
0	0x3eb4afd8	0.35290408
1	0x3e8a2939	0.26984575
2	0x3eeb0282	0.4590035
3	0x3f1d3f4e	0.6142472
4	0x3e944f8e	0.28966945
5	0x3ee49be5	0.44650188
6	0x3eef87e9	0.4678338
7	0x3e12eb4f	0.14347576
8	0x3e3cafc0	0.18426418
9	0x3ef0f3f2	0.47061116
10	0x3ebb36e2	0.3656531
11	0x3eab28e1	0.33429626
12	0x3f0498b1	0.5179549
13	0x3ee789f2	0.4522243
14	0x3ea2d3c1	0.3180218
15	0x3e93afe1	0.28845122
16	0x3f0a3b40	0.5399666
17	0x3eeefb02	0.4667588
18	0x3ed82c78	0.42221427
19	0x3e63cd49	0.22246279
20	0x3e8d6f7a	0.27624112
21	0x3e9d81d6	0.3076312
22	0x3ea26660	0.3171873
23	0x3de94774	0.11390582
24	0x3f0996de	0.5374583
25	0x3e25496e	0.16141292
26	0x3e0b4563	0.13600688
27	0x3efbc485	0.4917337
28	0x3e8a5cf1	0.27024034
29	0x3ebccad2	0.3687349
30	0x3eb3c296	0.35109395
31	0x3ead452d	0.3384184

conv1.mlp.6.running_var f4 [32]
0	0x3e8dcfdf	0.27697656
1	0x3e44d125	0.19220407
2	0x3f01c061	0.5068417
3	0x3efbc8ab	0.49176535
4	0x3ed79ebd	0.42113295
5	0x3f486959	0.7828575
6	0x3f2bc17c	0.6709211
7	0x3e17ea8e	0.1483557
8	0x3dd4d9cf	0.10393106
9	0x3efa219d	0.4885377
10	0x3f14e91e	0.5816821
11	0x3f0ce140	0.55031204
12	0x3e650248	0.22364151
13	0x3f0dd591	0.55404
14	0x3e901b1c	0.28145683
15	0x3e5dfcd0	0.21678472
16	0x3f6ac60a	0.91708434
17	0x3f4e16d9	0.8050361
18	0x3f3a05ed	0.7266529
19	0x3e19edf0	0.15032172
20	0x3ea5809e	0.3232469
21	0x3f061266	0.52371824
22	0x3edc9d63	0.43088827
23	0x3da41a87	0.08012872
24	0x3f3cbade	0.73722637
25	0x3dad4c7d	0.084618546
26	0x3e232f72	0.15936068
27	0x3f02c9ee	0.5108937
28	0x3e6bbb35	0.23020633
29	0x3ed954f8	0.4244764
30	0x3f0356ac	0.51304126
31	0x3e6b3814	0.22970611

conv1.mlp.8.weight f4 [32, 32]
0	0xbde86c54	-0.11348787
1	0x3d601b7d	0.054713715
2	0x3e037b08	0.12839901
3	0x3e22f6c3	0.15914445
4	0x3dfa121e	0.12210487
5	0x3d3f11f6	0.04664799
6	0xbd0d0457	-0.034427967
7	0xbd969e58	-0.073544204
8	0xbc856741	-0.016284587
9	0x3e166e9a	0.14690629
10	0x3e7840e4	0.24243504
11	0xbddb0378	-0.10694021
12	0xbdf14921	-0.11781526
13	0x3e3d2de7	0.18474542
14	0x3d8f5634	0.06998864
15	0xbe1e0afc	-0.15433878
16	0xbdd8b024	-0.10580471
17	0xbcb48eb7	-0.022040708
18	0xbdf86901	-0.12129403
19	0x3d526016	0.051361166
20	0xbe0834af	-0.13301347
21	0x3e5d3202	0.21601108
22	0xbd2a4ebe	-0.041579
23	0xbdc9044a	-0.09815271
24	0x3d31ef64	0.04344119
25	0xbd7dc324	-0.06195368
26	0xbddb2837	-0.1070103
27	0x3dfb9eb8	0.122861326
28	0xbe35c9f4	-0.1775282
29	0x3d7f0559	0.06226096
30	0xbe6da2c6	-0.23206624
31	0xbd989df4	-0.07452002
32	0xbe28f84f	-0.16500972
33	0xbd454106	-0.048157714
34	0x3cfb1f38	0.030654535
35	0x3d1adbd1	0.03780729
36	0xbcf5021a	-0.029908229
37	0xbdb60b7f	-0.088889115
38	0xbe10b1ae	-0.1413028
39	0x3db5ed61	0.08883167
40	0x3df867c1	0.121291645
41	0x3e08d8bc	0.13363928
42	0x3d3b08e8	0.04566279
43	0x3e5b2c43	0.21403603
44	0xbca92b79	-0.020650612
45	0xbd945020	-0.07241845
46	0x3e489396	0.1958755
47	0x3d4de046	0.050262712
48	0x3d52276b	0.051307123
49	0xbd982c0a	-0.07430275
50	0x3bd1fd46	0.0064083664
51	0x3e847d76	0.2587697
52	0xbd255c9f	-0.040371533
53	0xbd27bb9a	-0.040950395
54	0x3db733f5	0.08945457
55	0xbbd4c7c7	-0.006493542
56	0xbdd15504	-0.102212936
57	0x3c7869fd	0.015161988
58	0x3e1520c2	0.14563277
59	0x3c681651	0.014165477
60	0xbc65eae8	-0.014033057
61	0xbd1eb404	-0.038745895
62	0x3d9b15f1	0.07572544
63	0x3da76c90	0.081750035
64	0xbc0e5a1a	-0.008688474
65	0xbc4f1b40	-0.012640774
66	0x3d0ea661	0.03482664
67	0x3e802fad	0.25036374
68	0x3e2f507a	0.17120543
69	0x3d8d1937	0.06889575
70	0x3e03c8b0	0.12869525
71	0x3e40acd0	0.18815923
72	0x3c9a8379	0.01886152
73	0x3e68322d	0.2267539
74	0x3c252552	0.010079699
75	0x3d67abe4	0.056560412
76	0xbe2e81df	-0.1704173
77	0x3cdff517	0.027338548
78	0x3dd6986e	0.104782924
79	0x3e446957	0.19180809
80	0x3ad71a57	0.0016411048
81	0x3cbf1e09	0.023329752
82	0xbc52f2ba	-0.012875253
83	0xbd7526a7	-0.059851315
84	0xbe44560b	-0.19173448
85	0x3e1c242c	0.15248173
86	0x3d2f063d	0.04273056
87	0x3deb77fa	0.11497493
88	0xbe59c2ad	-0.21265669
89	0xbdef38cb	-0.11680754
90	0x3dded476	0.108803675
91	0x3db78be7	0.08962231
92	0xbdce2d9d	-0.10067294
93	0x3e1a0ea1	0.15044643
94	0x3e286117	0.16443287
95	0xbca2c371	-0.019868584
96	0x3d99e071	0.07513512
97	0xbd489cd8	-0.048977703
98	0xbe2bf9db	-0.16794531
99	0xbdc48450	-0.09595549
100	0xbe085094	-0.13311988
101	0x3d997698	0.07493323
102	0xbe5a6aff	-0.21329878
103	0x3ddb0f01	0.10696221
104	0x3e51539b	0.20442049
105	0xbb8672c4	-0.0041030366
106	0x3b261f56	0.0025348268
107	0x3bc20e7b	0.0059221364
108	0x3dd22497	0.10260885
109	0xbd85489e	-0.06507991
110	0x3c9f6388	0.01945664
111	0x3d134979	0.03595874
112	0xbe10013e	-0.14062974
113	0xbc9fa266	-0.019486617
114	0xbe7018af	-0.23446916
115	0x3dd7dbd6	0.10539977
116	0x3c2edc19	0.010672593
117	0x3d97819d	0.07397769
118	0xbd89cd04	-0.06728557
119	0x3dee436e	0.11633955
120	0xbbc770ec	-0.0060864594
121	0xb9e45917	-0.00043553926
122	0xbe2cca40	-0.16874027
123	0xbd114890	-0.03546959
124	0x3ccdf975	0.025143364
125	0x3cf55fa9	0.02995284
126	0xbeafc0bb	-0.3432673
127	0xbe0ef015	-0.13958772
128	0x3b71ee5c	0.0036915755
129	0x3e898def	0.268661
130	0xbdc2b932	-0.095079795
131	0x3dcfb461	0.101418264
132	0x3d6fa620	0.05850804
133	0x3e2597d3	0.16171198
134	0x3e06edcd	0.13176651
135	0xbce53586	-0.027979624
136	0x3d1dc8d3	0.0385216
137	0xbe46140b	-0.19343583
138	0x3e095f46	0.1341525
139	0xbcf34730	-0.02969703
140	0x3cff3471	0.031152936
141	0x3e002439	0.12513818
142	0xbd9601ba	-0.07324548
143	0x3d4ccf16	0.05000218
144	0xbd9c52ed	-0.07633004
145	0x3e117f4f	0.1420872
146	0x3d816d73	0.06319704
147	0xbcaff958	-0.021481201
148	0x3de98b94	0.114035755
149	0xbdfd8f4e	-0.12380849
150	0xbe724091	-0.23657443
151	0xbdacd08a	-0.08438213
152	0xbdc0cec3	-0.09414437
153	0xbd5ff6e1	-0.0546788
154	0x3d072c70	0.033001363
155	0x3e24dcb5	0.16099818
156	0xbd29e0ca	-0.04147414
157	0xbe39ba9b	-0.1813759
158	0x3e840e1e	0.2579202
159	0xbc988b7b	-0.018621197
160	0xbd9d2364	-0.07672766
161	0x3e58f395	0.21186669
162	0xbde73db7	-0.11291068
163	0xbde0f6df	-0.10984587
164	0x3d3204b4	0.043461516
165	0xbe5b72af	-0.21430467
166	0xbcf6d43a	-0.030130494
167	0x3dcfebc5	0.10152391
168	0x3de0e62f	0.10981404
169	0x3caf29f4	0.02138231
170	0x3d8d8b9e	0.069113955
171	0xbd1f9802	-0.038963325
172	0xbd612822	-0.054969914
173	0xbda39b27	-0.07988577
174	0x3dfd137c	0.12357232
175	0xbe46e725	-0.19424112
176	0xbdf56102	-0.119813934
177	0x3cef6a07	0.029225362
178	0xbc8ca512	-0.017168555
179	0x3e7bf270	0.24604201
180	0x3d3a1474	0.045429662
181	0xbd2e6995	-0.04258116
182	0x3c895fb5	0.01676927
183	0xbd7181df	-0.058961745
184	0x3d9388ca	0.07203825
185	0xbe5b8fa6	-0.21441516
186	0xbdbb17c1	-0.0913539
187	0x3c534b57	0.01289638
188	0xbc68c821	-0.014207871
189	0xbd04affe	-0.0323944
190	0x3c38dbbd	0.011282858
191	0x3e180782	0.14846614
192	0xbe1c393c	-0.15256208
193	0x3cc45e71	0.023970814
194	0xbde54fca	-0.11196859
195	0xbdbcf928	-0.0922721
196	0x3e17381d	0.147675
197	0xbcb2878c	-0.02179315
198	0x3d84c81a	0.06483479
199	0x3ea42e4c	0.32066572
200	0xbc5bf04e	-0.013423992
201	0xbda1733c	-0.07883307
202	0xbc21a78a	-0.009866605
203	0x3e246d23	0.16057257
204	0x3db869fa	0.090045884
205	0xbdcb60e0	-0.09930587
206	0x3da00279	0.078129716
207	0xbd6c8743	-0.057746183
208	0x3df94bca	0.12172659
209	0x3ddf4c77	0.109032564
210	0xbde2aebf	-0.110684864
211	0x3e25c384	0.16187865
212	0x3e058ac2	0.13041213
213	0x3c9110a6	0.017708134
214	0xbc7623f2	-0.0150232185
215	0x3d60eaa8	0.054911286
216	0xbe859842	-0.26092726
217	0x3dc235eb	0.0948294
218	0xbdb4890c	-0.08815202
219	0xbd8e49f4	-0.06947699
220	0x3d060f0c	0.032729194
221	0x3d6c3c16	0.05767449
222	0xbe372c39	-0.17887963
223	0xbdc5ff1f	-0.09667801
224	0xbd2bcb14	-0.041941717
225	0xbe1d1980	-0.15341759
226	0x3acb464d	0.0015508622
227	0x3de6e670	0.11274421
228	0x3c94cbab	0.018163523
229	0x3d4bd5be	0.049764387
230	0x3d840e37	0.06448024
231	0xbe1652b4	-0.14679986
232	0xbdc2a00c	-0.09503183
233	0x3e58cd93	0.2117217
234	0x3e100785	0.14065368
235	0xbe6b9cb6	-0.23008999
236	0x3ba857d7	0.0051374245
237	0x3e3a7a5c	0.18210739
238	0xbb02056f	-0.0019839664
239	0xbcccca43	-0.02499879
240	0x3dcd6423	0.10028865
241	0xbc64b861	-0.013959975
242	0x3dce352e	0.10068737
243	0xbe18d57f	-0.14925192
244	0xbe0e06dd	-0.13869806
245	0x3d5d7f5d	0.05407654
246	0xbd726855	-0.05918153
247	0xbddf3019	-0.10897846
248	0x3e093abd	0.13401313
249	0xbde7f58b	-0.113261305
250	0xbe09e9b2	-0.13468054
251	0x3d9bcda8	0.07607585
252	0xbdd900df	-0.10595869
253	0xbe06917a	-0.13141432
254	0xbe3166b1	-0.1732433
255	0x3cc7a253	0.024369394

conv1.mlp.8.bias f4 [32]
0	0xbd865a9b	-0.0656025
1	0x3c76dd5e	0.0150674265
2	0xbe256a47	-0.16153823
3	0x3e821ce0	0.25412655
4	0xbd5d8d69	-0.054089937
5	0xbc1e0845	-0.009645526
6	0x3dcbc656	0.09949939
7	0xbb89796d	-0.0041953833
8	0x3ddc2fe8	0.10751325
9	0xbcdbcdcd	-0.026831532
10	0x3e464152	0.19360855
11	0xbe01cae5	-0.12675054
12	0x3db1af15	0.08675972
13	0xbd3be48e	-0.045872264
14	0xbe084706	-0.13308343
15	0x3e60fc68	0.21971285
16	0xbc342c21	-0.010996849
17	0x3f1a8b25	0.6036857
18	0x3e4ea58c	0.20180339
19	0xbd0d2fd4	-0.03446944
20	0xbe253f32	-0.16137388
21	0x3e47d246	0.19513807
22	0xbe2d21dd	-0.16907449
23	0x3ea69e48	0.32542634
24	0x3dd6d8ce	0.10490571
25	0x3e6e55a7	0.23274861
26	0xbddce3a6	-0.10785608
27	0x3cfe6ff5	0.031059245
28	0x3e942880	0.2893715
29	0x3e18daea	0.14927259
30	0xbc92c68c	-0.01791694
31	0x3cbfda76	0.0234196

conv1.mlp.10.weight f4 [32]
0	0x3fad9c11	1.3563253
1	0x3f8cf054	1.1010842
2	0x3f6f6e25	0.9352744
3	0x3faee8c9	1.366479
4	0x3f95db88	1.1707621
5	0x3f643ad8	0.8915229
6	0x3f5461d3	0.8296177
7	0x3f809736	1.0046146
8	0x3fb5fbaa	1.4217427
9	0x3f857cc6	1.0428703
10	0x3f8bd23f	1.0923537
11	0x3f8e4d43	1.1117328
12	0x3f963493	1.1734794
13	0x3f9e2df2	1.2357771
14	0x3f983c21	1.189335
15	0x3f532873	0.82483596
16	0x3f5a33b5	0.8523515
17	0x3fc7aaeb	1.5599035
18	0x3fc93059	1.571788
19	0x3f71cf5b	0.94457024
20	0x3f77f06b	0.96851224
21	0x3f9a31fc	1.2046504
22	0x3f95155c	1.1647143
23	0x3fab58fc	1.3386531
24	0x3f67b75a	0.9051415
25	0x3f5b216b	0.85597867
26	0x3f8ee378	1.1163168
27	0x3f91aab6	1.1380222
28	0x3fa0f9fb	1.2576288
29	0x3fb33137	1.3999394
30	0x3f71ece4	0.9450209
31	0x3f9608a2	1.1721385

conv1.mlp.10.bias f4 [32]
0	0xbcc2938a	-0.023751993
1	0xbe18c350	-0.14918256
2	0x3d814699	0.063122936
3	0xbce4280a	-0.027851123
4	0x3e0c202a	0.13684145
5	0x3c5feff5	0.01366805
6	0x3df04150	0.11731207
7	0x3f06ea1b	0.52700967
8	0xbe5b7c1b	-0.21434061
9	0x3d226e54	0.039656
10	0x3d2f356f	0.042775568
11	0xbe617b38	-0.2201966
12	0x3e63a7c4	0.22231966
13	0x3ceb6337	0.028733833
14	0xbe02467a	-0.12722197
15	0xbcb29cfe	-0.021803375
16	0x3dfb2157	0.122622184
17	0x3e9c1392	0.3048368
18	0x3e680091	0.22656466
19	0x3ea08ba6	0.31356543
20	0xbcce0ff7	-0.025154097
21	0x3d2a78ad	0.04161899
22	0x3cfa2ad7	0.030538006
23	0x3da3bc4b	0.079948984
24	0xbdbfdce0	-0.093683004
25	0x3ee2230b	0.4416736
26	0xbecd5ef0	-0.40111494
27	0x3e9d00b0	0.30664587
28	0xbeb5e46b	-0.35525832
29	0x3e446436	0.19178852
30	0x3cb75fdb	0.022384575
31	0x3e297e95	0.16552193

conv1.mlp.10.running_mean f4 [32]
0	0x3efc7427	0.49307367
1	0x3ea36059	0.31909445
2	0x3eac5f61	0.33666518
3	0x3ef86c20	0.48519993
4	0x3ecdd8f4	0.40204585
5	0x3eb45acf	0.3522553
6	0x3eba4f04	0.3638841
7	0x3f0b6e20	0.5446491
8	0x3edc4749	0.43023136
9	0x3eb8924f	0.36049125
10	0x3ec54093	0.3852583
11	0x3e9e5597	0.30924675
12	0x3f1d410b	0.6142737
13	0x3ee4e84c	0.44708478
14	0x3e94ff3c	0.29100978
15	0x3eb6ed25	0.35727802
16	0x3ebcfee5	0.3691322
17	0x3f5dd9b0	0.8666029
18	0x3f384ffd	0.7199705
19	0x3e9d8af4	0.30770075
20	0x3e8ae3de	0.27126974
21	0x3f28270d	0.65684587
22	0x3e907104	0.28211224
23	0x3f4b2105	0.7934726
24	0x3ea4ef73	0.32213935
25	0x3f17d55b	0.5930993
26	0x3ec43b2e	0.383264
27	0x3eca41e7	0.39503404
28	0x3f02e361	0.511282
29	0x3f352eef	0.7077474
30	0x3ee13156	0.43982953
31	0x3ecef2e9	0.404197

conv1.mlp.10.running_var f4 [32]
0	0x3f9eccb3	1.2406219
1	0x3f233814	0.63757443
2	0x3f38c2f9	0.72172505
3	0x3ec91fc9	0.39282063
4	0x3f2fd5dd	0.68685704
5	0x3ea91b6c	0.33028734
6	0x3f0e0a3b	0.5548436
7	0x3f4b177e	0.7933272
8	0x3f443648	0.76645327
9	0x3ecd3ac6	0.40083903
10	0x3ed78fe1	0.42101958
11	0x3ef9e42a	0.48806888
12	0x3f87ad82	1.0599825
13	0x3f03e980	0.5152817
14	0x3eb4a145	0.3527929
15	0x3e4f83ea	0.20265165
16	0x3efba8d9	0.49152258
17	0x3ecec96f	0.40388057
18	0x3fd661ed	1.6748635
19	0x3ebdf321	0.37099555
20	0x3e703c8e	0.234606
21	0x3fc2b919	1.5212737
22	0x3ee23cad	0.44186917
23	0x3fabc286	1.3418739
24	0x3ea9a796	0.3313567
25	0x3f74cb3f	0.9562263
26	0x3f225f28	0.63426447
27	0x3f060fd5	0.5236791
28	0x3f45a733	0.7720825
29	0x3fa58663	1.2931637
30	0x3eea9340	0.45815468
31	0x3ee872c2	0.45400053
