GraphNeuralNet/Skim3Mu/MHc-130_MA-90_vs_ttZ/models/ParticleNet-nNodes64_AdamW_initLR-0p01_StepLR.pt (torch, 287475 bytes, 89 tensors)

gn0.weight f4 [9]
0	0x400b8a86	2.1803298
1	0x3da41ec9	0.08013684
2	0x3c33f90d	0.010984671
3	0x3f4c7dbe	0.7987937
4	0x3f1a68c6	0.6031612
5	0x3fa8cd7f	1.3187712
6	0x3f6b4553	0.91902655
7	0x3f5c0dd9	0.8595863
8	0x3f67cc97	0.90546554

gn0.bias f4 [9]
0	0x3e6454a6	0.22297916
1	0xbd285b64	-0.041102782
2	0xbca161f7	-0.019700034
3	0xbda42eba	-0.08016725
4	0xbd7f6554	-0.062352493
5	0x3cdf6d48	0.027273789
6	0x3b6f2b3e	0.003649428
7	0xbf4af302	-0.7927705
8	0x3cf3f09a	0.029777814

gn0.mean_scale f4 [9]
0	0x3ea3baa1	0.31978324
1	0x3f7d04eb	0.9883563
2	0x3f2366d9	0.6382881
3	0x3fe95767	1.8229798
4	0x40445aae	3.0680346
5	0x395093a3	0.00019891425
6	0x3ebdc0e2	0.3706122
7	0x3f5c0dd9	0.8595863
8	0x3fab87be	1.34008

conv1.mlp.0.weight f4 [64, 18]
0	0xbd513837	-0.051079
1	0xbe8c4638	-0.27397323
2	0x3d269feb	0.040679853
3	0x3e52145b	0.20515577
4	0x3e143061	0.1447158
5	0xbecfce7a	-0.40587217
6	0xbe88021f	-0.26564118
7	0x3e235841	0.15951635
8	0xbe9af4af	-0.30264804
9	0x3d14c064	0.03631629
10	0x3cad2bac	0.021138988
11	0xbe0bfe7e	-0.136713
12	0xbbee2348	-0.0072673894
13	0xbfb3a5de	-1.4034994
14	0x3b56fa3f	0.0032802967
15	0x3f5bfc24	0.8593161
16	0x3e381b36	0.1797913
17	0xbd98a65c	-0.074536055
18	0x3f2b433f	0.66899484
19	0x3ea3eb28	0.32015347
20	0x3d89fb5e	0.067373976
21	0xbe1a7053	-0.15081911
22	0x3daece83	0.08535483
23	0xbdadc391	-0.08484567
24	0xbf38d8a3	-0.7220556
25	0x3f2b5d52	0.6693927
26	0x3f3d9ef2	0.74070656
27	0x3ee071ba	0.43836766
28	0xbe8334cb	-0.25626215
29	0x3dfa4d74	0.12221804
30	0xbe1c6a8b	-0.15275018
31	0xbc967533	-0.018366432
32	0xbc8878a5	-0.01665909
33	0xbf5406bb	-0.8282277
34	0xbd871f59	-0.06597776
35	0x3f2931aa	0.66091406
36	0xbf5e2a4b	-0.86783284
37	0x3ccf90cb	0.025337597
38	0xbe637cf7	-0.22215639
39	0xbdf686ae	-0.12037407
40	0xbfd5bd52	-1.6698401
41	0xbefd5850	-0.4948144
42	0xbd8eba3f	-0.069691174
43	0x3f4fb311	0.8113261
44	0x3ea23f43	0.3168889
45	0x3db7f96f	0.089831226
46	0x3dbe9dbf	0.093074314
47	0x3d36d0ea	0.04463283
48	0xbd90fde7	-0.07079678
49	0x3edeb681	0.43498614
50	0xbd87d6cf	-0.06632768
51	0xbe53fc10	-0.20701623
52	0x3cecb19d	0.028893286
53	0xbd6fe470	-0.058567464
54	0x3e8c3bc1	0.2738934
55	0x3d406944	0.04697539
56	0xbdbbd34c	-0.09171161
57	0xbe53aee2	-0.20672181
58	0x3dc9ab51	0.09847129
59	0xbef90264	-0.48634636
60	0x3f448f0b	0.76780766
61	0x3ef2e94e	0.47443622
62	0xbef3f358	-0.47646594
63	0x3edbe3bd	0.42947188
64	0xbc83c66f	-0.016085831
65	0x3d253348	0.04033211
66	0x3e302967	0.17203294
67	0xbd96f87e	-0.07371615
68	0x3e8112fd	0.252098
69	0x3ef0a214	0.46998656
70	0x3dd5f983	0.10447981
71	0xbed52d4b	-0.41636118
72	0xbc9d667c	-0.019213907
73	0xbd96ac46	-0.07357077
74	0xbc95c8b7	-0.018284185
75	0x3d8b4487	0.0680018
76	0x3e51a7cc	0.20474166
77	0xbe91de0d	-0.28489724
78	0x3dc8874f	0.09791433
79	0x3edbeee9	0.4295571
80	0x3c96ef53	0.018424666
81	0xbd3ef1a7	-0.046617176
82	0xbe4db33b	-0.20087902
83	0xbdd105fb	-0.10206219
84	0x3d0487f8	0.032356232
85	0xbfc80f97	-1.5629758
86	0xbd544857	-0.0518268
87	0x3f1a771e	0.6033801
88	0xbd414586	-0.047185443
89	0xbe916598	-0.28397822
90	0x3be5d312	0.007013687
91	0x3ec109ee	0.37702888
92	0x3dafc43d	0.08582351
93	0xbddfa48c	-0.10920057
94	0x3de57a23	0.11204936
95	0xbf1628b4	-0.5865586
96	0xbd577678	-0.052603215
97	0x3f778bbb	0.96697587
98	0xbf11bbd3	-0.5692722
99	0x3d8b348b	0.06797131
100	0xbeb250ef	-0.34827372
101	0xbe0baf7c	-0.1364116
102	0xbd0cd6fb	-0.03438471
103	0x3f981616	1.188174
104	0xbeab0543	-0.33402452
105	0x3e8eed4d	0.2791542
106	0x3e164b9b	0.14677279
107	0x3dfcf0b4	0.12350598
108	0xbdbf3059	-0.093353935
109	0xbccd067f	-0.025027512
110	0x3e806c7d	0.2508277
111	0x3e2fc625	0.1716543
112	0x3c8861ae	0.01664814
113	0xbe4b82be	-0.19874093
114	0xbea7ba90	-0.32759523
115	0x3f9f70f5	1.2456347
116	0x3f236115	0.6382001
117	0x3c871b82	0.016492609
118	0x3d1f628f	0.038912352
119	0x3e8b1c6f	0.2717013
120	0x3e2a738c	0.1664564
121	0x3d03dee4	0.032194987
122	0x3bf1f13e	0.0073834946
123	0x3db8c41e	0.090217814
124	0x3d88d1e1	0.06680656
125	0xbdc1b983	-0.09459212
126	0xbf2ce8d1	-0.6754275
127	0x3e25cf65	0.16192396
128	0x3d4e9ade	0.05044066
129	0xbeb025ef	-0.3440394
130	0xbe1db718	-0.15401876
131	0xbec6f13c	-0.38855922
132	0xbe33edd8	-0.17571199
133	0xbe8b78f4	-0.27240717
134	0x3f09484d	0.5362595
135	0xbef9861b	-0.48735127
136	0x3b17d55f	0.002316795
137	0x3e93da74	0.28877604
138	0x3e38801c	0.1801762
139	0x3c952eed	0.018210853
140	0x3f074af5	0.5284875
141	0xbe127955	-0.14304097
142	0x3e2ea0d7	0.17053543
143	0x3e1369a5	0.14395769
144	0x3ee8ea1b	0.45491108
145	0xbd1b9382	-0.03798247
146	0xbeba34f1	-0.36368516
147	0xbd7112c0	-0.058855772
148	0x3dcee189	0.10101611
149	0xbd1ef574	-0.0388083
150	0xbfa419d6	-1.2820385
151	0x3e0f16b9	0.13973512
152	0xbba95473	-0.005167538
153	0x3e952d28	0.29136014
154	0xbc1e66e4	-0.009668086
155	0x3bd91eee	0.0066260016
156	0x3ce6234e	0.028093006
157	0xbe229a57	-0.15879188
158	0xbdb5f820	-0.08885217
159	0x3e2f4ed3	0.17119913
160	0x3e138ba2	0.14408734
161	0x3f016b71	0.5055457
162	0xbe2fd796	-0.17172083
163	0x3d24e566	0.040257834
164	0x3dfe8878	0.12428373
165	0x3d31f0f9	0.0434427
166	0x3dd88dda	0.10573931
167	0xc07206b5	-3.7816594
168	0xbd9ea5c4	-0.07746461
169	0x3f27aa57	0.6549429
170	0xbe90a521	-0.28250983
171	0x3e6223ab	0.22083919
172	0x3e38a728	0.18032515
173	0xbe8070d1	-0.25086072
174	0xbe22f614	-0.15914184
175	0x3deff5e0	0.11716819
176	0x3ddff776	0.10935871
177	0xbe34bb06	-0.17649469
178	0xbdb1328f	-0.086522214
179	0xbe7e2641	-0.2481928
180	0xbd8d329c	-0.068944186
181	0x3d9348a9	0.07191593
182	0x3e282df9	0.16423787
183	0xbcf53cb9	-0.029936181
184	0x3d042679	0.032263253
185	0xbec75f41	-0.3893986
186	0xbe744dd9	-0.23857822
187	0x3fb4522e	1.4087579
188	0xbd0d6fc3	-0.034530412
189	0x3d9557cd	0.07292137
190	0xbe1d6cc7	-0.15373527
191	0xbc59c901	-0.013292552
192	0xbddd0fe5	-0.10794047
193	0x3ea68887	0.32526037
194	0xbe56a0aa	-0.20959726
195	0x3e673fa3	0.22582869
196	0xbe3f608f	-0.18689178
197	0x3e0352d1	0.1282456
198	0x3f4391b9	0.7639423
199	0x3d3b1c1b	0.0456811
200	0x3bc02a2d	0.0058644027
201	0x3c9ac9ed	0.018895114
202	0xbe134c4b	-0.14384572
203	0xbe90a35b	-0.2824963
204	0x3ec55228	0.38539243
205	0xbf10cb4c	-0.56560206
206	0xbea47701	-0.32122043
207	0x3f2ec9d7	0.68276733
208	0xbecdf7ab	-0.40228018
209	0xbdbf088c	-0.09327802
210	0x3e90c8fe	0.28278345
211	0x3d503a25	0.0508367
212	0xbebeb1f8	-0.37245154
213	0xbeb37729	-0.3505185
214	0x3de7458a	0.112925604
215	0xbe0480a4	-0.12939698
216	0x3eaad29c	0.33363807
217	0x3d264778	0.0405955
218	0xbe073859	-0.13205089
219	0xbe2f714b	-0.17133062
220	0x3e0b7557	0.1361898
221	0xbe32d038	-0.17462242
222	0x3e8e434f	0.27785727
223	0x3fc81702	1.5632021
224	0xbeca1b2d	-0.39473858
225	0x3e8e3b9e	0.2777986
226	0xbd600f9a	-0.05470238
227	0xbc9e34dc	-0.019312315
228	0xbd834165	-0.064089574
229	0xbf946add	-1.1595112
230	0xbdbcac1f	-0.09212517
231	0x3f0c5f6b	0.54833096
232	0xbe1c7b79	-0.15281476
233	0xbed0e796	-0.40801686
234	0xbe8c0e97	-0.2735488
235	0xbebfb40f	-0.3744206
236	0xbe2cf674	-0.1689089
237	0xbd85ec2b	-0.06539186
238	0x3d187b8b	0.037227195
239	0xbd277342	-0.040881403
240	0xbeba45b8	-0.36381316
241	0x3d6fb497	0.058521833
242	0x3f103212	0.563264
243	0x3f20400f	0.62597746
244	0x3ce3b6e2	0.027797166
245	0xbd8428b4	-0.06453076
246	0x3dff0fbf	0.12454175
247	0xbf105d1b	-0.5639207
248	0xbe0b9b07	-0.13633357
249	0xbf6d066f	-0.9258794
250	0x3e3ddd09	0.1854135
251	0xbe091046	-0.13385114
252	0xbf360eb0	-0.7111616
253	0x3bf93f29	0.007606406
254	0xbd97f377	-0.07419484
255	0xbde71071	-0.11282433

conv1.mlp.0.bias f4 [64]
0	0xbea35280	-0.3189888
1	0xbf200aa1	-0.6251622
2	0xbeed3033	-0.46325836
3	0xbecbd5e4	-0.39811623
4	0xbeb73855	-0.35785165
5	0xbf6cec4b	-0.92548054
6	0xbf7de771	-0.99181277
7	0xbdeb830b	-0.11499604
8	0xbe577ed8	-0.21044481
9	0xbe93b045	-0.2884542
10	0xbf6b4b1f	-0.919115
11	0x3e55df9b	0.2088608
12	0xbf77d9fe	-0.96817005
13	0x3db249d4	0.08705488
14	0xbdc769c4	-0.0973697
15	0x3f1a677f	0.6031417
16	0xbe2313ed	-0.1592557
17	0x3d6760c5	0.05648877
18	0xbf622a42	-0.8834573
19	0xbf26ddcb	-0.6518218
20	0x3ec7ffc2	0.39062315
21	0x3e703304	0.23456961
22	0xbec59db6	-0.38596886
23	0xbd86d951	-0.065844186
24	0xbf7d69ab	-0.9898936
25	0x3ef07dad	0.46970883
26	0xbea557ec	-0.32293642
27	0xbf61f474	-0.8826363
28	0xbd0c9a4e	-0.034326844
29	0xbf07cf41	-0.5305062
30	0xbf1d6140	-0.61476517
31	0xbe8deb25	-0.27718464
32	0xbef6be55	-0.48192087
33	0xbf7f294e	-0.996724
34	0xbf516b1c	-0.8180406
35	0xbf02bc6d	-0.51068765
36	0xbe21447a	-0.15748778
37	0xbefe52a9	-0.4967244
38	0xbd919040	-0.07107592
39	0x3d08fea1	0.033445958
40	0xbe76b3b0	-0.24091983
41	0xbeb24f84	-0.3482629
42	0x3e617b37	0.22019659
43	0xbf2865c9	-0.6578031
44	0xbf220090	-0.6328211
45	0x3e8cb000	0.27478027
46	0xbe64a9dc	-0.22330421
47	0xbe5dc028	-0.21655333
48	0x3ea5bf9c	0.3237275
49	0xbd2880e5	-0.04113855
50	0xbea84f61	-0.3287306
51	0xbebd050c	-0.36917913
52	0xbf5f8b09	-0.87321526
53	0xbd188aa9	-0.03724161
54	0xbf70ed47	-0.94112056
55	0xbed64cc4	-0.41855443
56	0x3cf9e678	0.030505404
57	0xbf055060	-0.5207577
58	0xbd486692	-0.048925944
59	0xbf902c5c	-1.1263537
60	0x3e07d406	0.13264474
61	0x3ca67281	0.020318272
62	0x3d6bc324	0.057559147
63	0x3e972298	0.2951858

conv1.mlp.2.weight f4 [64]
0	0x3f9f520e	1.2446916
1	0x3f8fd275	1.1236101
2	0x3f29c62e	0.66318023
3	0x3f396a01	0.72427374
4	0x3f8d4678	1.103713
5	0x3f524dc7	0.8214993
6	0x3f5484b0	0.83014965
7	0x3f1e1b1a	0.61760104
8	0x3f7bc537	0.983478
9	0x3f297c51	0.66205317
10	0x3f272dcf	0.65304273
11	0x3f544a7f	0.8292617
12	0x3f8c4644	1.0958943
13	0x3f85cbd7	1.0452832
14	0x3f91e550	1.1398106
15	0x3f72eced	0.9489277
16	0x3f897827	1.0739793
17	0x3f8523f1	1.0401593
18	0x3f310f36	0.69163835
19	0x3f5ee8f6	0.8707422
20	0x3f866e40	1.0502396
21	0x3f958062	1.1679804
22	0x3f2984c0	0.66218185
23	0x3f6acb1c	0.9171617
24	0x3f7e56cc	0.9935119
25	0x3f89307e	1.0717924
26	0x3f60ecbb	0.8786122
27	0x3f3e04fb	0.7422635
28	0x3f3e040d	0.7422493
29	0x3f87d93c	1.061317
30	0x3f42a181	0.76027685
31	0x3f784654	0.9698231
32	0x3faab11c	1.33353
33	0x3f324b61	0.6964627
34	0x3f6e7fb7	0.9316363
35	0x3f66dce8	0.90180826
36	0x3f93bf9c	1.154285
37	0x3f8fef97	1.1244992
38	0x3f49e42b	0.7886378
39	0x3f5bb7b8	0.8582721
40	0x3f783cef	0.9696798
41	0x3fc24ca4	1.5179639
42	0x3fbafae1	1.4607812
43	0x3fd5b6b1	1.6696378
44	0x3fecb8ee	1.8493936
45	0x3f9bf3bf	1.218376
46	0x3fa41ba4	1.2820935
47	0x3fbb56d2	1.463587
48	0x3f8668ca	1.0500729
49	0x3f623b03	0.88371295
50	0x3f86f2c0	1.0542831
51	0x3fdd64a4	1.7296338
52	0x3f59a406	0.85015905
53	0x3f8427b7	1.032462
54	0x3f55a280	0.8345108
55	0x3f908824	1.1291547
56	0x3fa537e8	1.2907686
57	0x3f9075aa	1.1285908
58	0x3f8a8d3d	1.0824353
59	0x3f6a6985	0.9156726
60	0x3f6a8ad2	0.91618073
61	0x3f843772	1.032942
62	0x3f8429cf	1.0325259
63	0x3f6d1341	0.92607504

conv1.mlp.2.bias f4 [64]
0	0x3eb3b92a	0.35102206
1	0xbd98f565	-0.0746868
2	0xbe50633e	-0.20350358
3	0xbee64629	-0.44975403
4	0x3e5fff9b	0.2187485
5	0x3de8e6e2	0.113721624
6	0xbedca1f5	-0.43092313
7	0xbe44991c	-0.19199032
8	0x3ed2e676	0.41191453
9	0xbcc361b5	-0.023850301
10	0x3d91ea26	0.071247384
11	0xbe838967	-0.25690767
12	0x3daaebdd	0.083457686
13	0x3c8f1a46	0.017468583
14	0x3ec12791	0.377255
15	0xbe8d9b37	-0.27657482
16	0xbe12047b	-0.14259522
17	0xbd462cb9	-0.048382495
18	0xbe0854d3	-0.13313608
19	0xbdb39e1f	-0.087703936
20	0x3ebba5b6	0.36649865
21	0x3eaf7b1d	0.34273615
22	0x3c7708de	0.015077798
23	0x3dff6f2f	0.124723785
24	0xbe222e61	-0.15838005
25	0x3e96813e	0.2939548
26	0xbed5f48d	-0.4178814
27	0x3e1f0393	0.15528707
28	0xbd82e6e2	-0.06391694
29	0x3ee89743	0.45427904
30	0xbee03c84	-0.4379617
31	0x3e094108	0.13403714
32	0x3e5eff9e	0.21777198
33	0x3d698b63	0.057017695
34	0x3a40f062	0.00073600386
35	0x3d5da0a8	0.054108292
36	0x3ee0fd27	0.4394314
37	0x3ec9ce32	0.39415127
38	0xbf173347	-0.5906262
39	0xbda789d0	-0.081805825
40	0xbcf6b4a5	-0.030115435
41	0x3e56f3ab	0.2099139
42	0xbc315074	-0.010822404
43	0x3ed949b7	0.42439052
44	0x3ea00f13	0.312615
45	0x3dd4c8b3	0.10389843
46	0x3ecab5ae	0.39591736
47	0x3ebe2f89	0.3714564
48	0x3ecd7e44	0.40135396
49	0x3ec7068b	0.3887218
50	0xbe7ea788	-0.24868596
51	0x3e1b729b	0.15180437
52	0xbd64f12d	-0.055894066
53	0x3e904f8d	0.28185692
54	0x3dd9293a	0.106035665
55	0x3e8d5574	0.27604258
56	0x3e8d9c1c	0.27658165
57	0xbe2f20e0	-0.17102385
58	0xbedc7989	-0.43061474
59	0xbe2bb233	-0.16767196
60	0xbe0417f0	-0.12899756
61	0x3ee2268a	0.44170028
62	0x3e84dd8e	0.25950283
63	0x3d2a9285	0.04164364

conv1.mlp.2.running_mean f4 [64]
0	0x3ea8b139	0.3294771
1	0x3ead79d7	0.3388202
2	0x3cee52b0	0.029092163
3	0x3ef08827	0.46978876
4	0x3eaa6013	0.33276424
5	0x3d20b1f5	0.039232213
6	0x00000004	6e-45
7	0x3dbd34a0	0.09238553
8	0x3ed6c3bd	0.4194621
9	0x3c2c9b1b	0.010535027
10	0x00000004	6e-45
11	0x40042774	2.064908
12	0x3e1d43ac	0.15357846
13	0x3ed9dd7f	0.425518
14	0x3e33d31a	0.17560998
15	0x4036ffc6	2.8593612
16	0x3e9dc156	0.30811566
17	0x3ecd62e0	0.40114498
18	0x00000004	6e-45
19	0x3e90ddda	0.2829426
20	0x3f714ef2	0.94261086
21	0x3f028d25	0.5099662
22	0x3e6281ab	0.22119777
23	0x3dfc7488	0.12326914
24	0x3e467e56	0.19384131
25	0x3f99045c	1.1954455
26	0x3f4831bc	0.7820089
27	0x00000004	6e-45
28	0x3fb7a89b	1.4348329
29	0x3e513a72	0.20432451
30	0x3f4adee4	0.79246354
31	0x3c2c64ac	0.010522049
32	0x3e09882a	0.13430849
33	0x00000004	6e-45
34	0x3dd25a74	0.10271159
35	0x3e80c941	0.25153545
36	0x3f2f5f4f	0.68504804
37	0x3e8fd9a7	0.28095743
38	0x3f629104	0.88502526
39	0x3f956ba7	1.1673478
40	0x3bda5cc6	0.0066638915
41	0x3e16702e	0.1469123
42	0x3df8c062	0.12146069
43	0x3e496d79	0.19670667
44	0x3e1bcadc	0.15214103
45	0x3ce758f1	0.028240653
46	0x3f41861e	0.7559527
47	0x3e88bd73	0.26707038
48	0x3f033e9f	0.5126743
49	0x3f3b7b78	0.73235273
50	0x3bac0608	0.0052497424
51	0x3ddfde98	0.10931128
52	0x3d6a6b5a	0.057231285
53	0x3f44ec16	0.7692274
54	0x00000004	6e-45
55	0x3ef15937	0.47138378
56	0x3d3922e9	0.04519931
57	0x3d869b82	0.065726295
58	0x3fa8a723	1.3176006
59	0x3e8ad0f8	0.27112556
60	0x3f4510e4	0.769789
61	0x3f724330	0.9463377
62	0x3e881c79	0.26584223
63	0x3fcd90da	1.605983

conv1.mlp.2.running_var f4 [64]
0	0x3f1777b6	0.5916704
1	0x3eae537c	0.3404807
2	0x3cc3edfc	0.02391719
3	0x3f0463aa	0.51714575
4	0x3f185219	0.5950027
5	0x3d06709a	0.03282223
6	0x00000004	6e-45
7	0x3dc9418f	0.098269574
8	0x3e99f675	0.30070844
9	0x3bb7cfe3	0.005609499
10	0x00000004	6e-45
11	0x3fe041d0	1.7520084
12	0x3e42da5d	0.19028611
13	0x3f289994	0.6585934
14	0x3e678947	0.22610961
15	0x3fc18c95	1.5121027
16	0x3f070469	0.52741104
17	0x3f3bb7d0	0.7332735
18	0x00000004	6e-45
19	0x3eb84b24	0.35994828
20	0x3fa76ccc	1.3080077
21	0x3f118def	0.568572
22	0x3e8aff6f	0.27148005
23	0x3df68107	0.12036329
24	0x3e8c91ba	0.2745493
25	0x3feea73f	1.864479
26	0x3f3b3b66	0.7313751
27	0x00000004	6e-45
28	0x3fb1c1f6	1.3887317
29	0x3eb73c43	0.35788164
30	0x3f6d7b25	0.9276603
31	0x3bda8c80	0.006669581
32	0x3e1ad19d	0.15119024
33	0x00000004	6e-45
34	0x3de4d27a	0.11172958
35	0x3eafd1d4	0.34339774
36	0x3fc2ec67	1.5228394
37	0x3ed6030a	0.41799194
38	0x3f8e3b0f	1.1111773
39	0x3fdb1641	1.7116166
40	0x3b4ce748	0.0031265784
41	0x3e1f6f81	0.15569879
42	0x3e157b52	0.14597824
43	0x3e828cac	0.2549795
44	0x3e375b44	0.17905909
45	0x3c14275e	0.009042589
46	0x40002aa2	2.002602
47	0x3e9ffafd	0.31246176
48	0x3f3a2903	0.7271883
49	0x3fbcd06b	1.4751104
50	0x3b22555b	0.0024770114
51	0x3dc5167e	0.09623431
52	0x3d56820d	0.05237012
53	0x3fdca4e4	1.7237821
54	0x00000004	6e-45
55	0x3f49c00c	0.78808665
56	0x3c69ecca	0.014277646
57	0x3d807ff2	0.06274404
58	0x3fb74bdf	1.4320029
59	0x3e90f8f5	0.2831494
60	0x3fc00cc5	1.5003897
61	0x3fdc3fb2	1.7206938
62	0x3e8e4a7a	0.27791196
63	0x3fe37f69	1.7773257

conv1.mlp.4.weight f4 [64, 64]
0	0x3daadd7c	0.08343026
1	0xbf615792	-0.88024247
2	0xbe6909da	-0.22757664
3	0x3ece67a1	0.40313438
4	0xbd659e89	-0.056059394
5	0xbc2d07a3	-0.010560903
6	0xbec2e41a	-0.38064653
7	0xbe7f5421	-0.24934436
8	0xbec3fba1	-0.38277915
9	0x3e605c60	0.21910238
10	0x3dd5d3a3	0.10440757
11	0x3ec26ca4	0.3797351
12	0xbebb4c03	-0.3658143
13	0xbf1c53cc	-0.61065364
14	0xbf069372	-0.52568734
15	0x3edf6ae8	0.4363625
16	0xbe9127c1	-0.28350642
17	0x3d41ef6b	0.047347467
18	0xbc1b6e3b	-0.00948673
19	0xbf4815df	-0.7815837
20	0xbf5ee4ed	-0.87068063
21	0x3dc7e042	0.09759571
22	0xbe711090	-0.23541474
23	0xbe622ad7	-0.22086655
24	0xbed79680	-0.4210701
25	0xbec42c3d	-0.38315
26	0x3f8e7b5d	1.1131397
27	0x3cbcb1ae	0.023033943
28	0xbe6d3219	-0.23163642
29	0xbcd1a3c7	-0.02559079
30	0x3daac44c	0.08338222
31	0x3f018655	0.505956
32	0xbe220d99	-0.158255
33	0xbcc4ac58	-0.024007961
34	0xbe96a941	-0.29426005
35	0xbe2f3949	-0.17111696
36	0x3c98b50a	0.018641014
37	0xbecbce82	-0.3980599
38	0x3ec90610	0.39262438
39	0x3d5ec417	0.054386225
40	0x3dd31da7	0.1030839
41	0xbdefb46e	-0.11704336
42	0xbf3650d7	-0.712171
43	0xbd03395f	-0.032037135
44	0xbdc102dd	-0.09424374
45	0x3e94c353	0.2905527
46	0xbe8e76ea	-0.278251
47	0x3edb1320	0.4278803
48	0xbe31ff95	-0.17382653
49	0xbd49ab4c	-0.049235627
50	0x3db9bb5f	0.09068941
51	0xbe5c26e2	-0.21499208
52	0xbc6964d8	-0.014245234
53	0xbebf4cf2	-0.37363392
54	0x3daa8248	0.083256304
55	0x3ca9d076	0.020729285
56	0x3db4fc6a	0.08837207
57	0xbef3dd8d	-0.47629967
58	0x3ec3e37d	0.38259497
59	0xbe8b5e48	-0.27220368
60	0xbe3ee6a5	-0.18642671
61	0xbed56387	-0.41677496
62	0xbdd5eb42	-0.104452625
63	0xbd7a2b5a	-0.0610765
64	0xbef67877	-0.48138782
65	0x3ed118e7	0.4083931
66	0xbd2cbe04	-0.0421734
67	0xbe0c9090	-0.13727021
68	0xbecbac37	-0.39779827
69	0xbe31e6c8	-0.17373192
70	0x3d1aea40	0.037821054
71	0x3b8e4fce	0.0043430096
72	0xbe351428	-0.1768347
73	0x3e4103b6	0.18849072
74	0xbd9e43fd	-0.077278115
75	0x3d9ff1d1	0.07809795
76	0xbef84a14	-0.48494017
77	0x3d1e6a65	0.038675684
78	0xbdb49b41	-0.08818675
79	0x3ead4b5f	0.33846566
80	0x3ecd2c48	0.40072846
81	0x3da81003	0.08206179
82	0xbcdc7ba6	-0.026914429
83	0x3e806316	0.25075597
84	0x3f145f96	0.5795835
85	0x3ed5f68d	0.41789666
86	0xbe90b319	-0.2826164
87	0xbe39520d	-0.18097706
88	0xbd181a11	-0.037134234
89	0x3f0b0d53	0.54317206
90	0x3c9b0676	0.01892398
91	0xbd8df674	-0.06931773
92	0x3e97ea07	0.29670736
93	0x3dc4a699	0.096020885
94	0x3ea5d4c8	0.32388902
95	0xbd68bca7	-0.056820538
96	0xbea88ea0	-0.32921314
97	0xbe3d38e6	-0.18478736
98	0xbe442417	-0.19154392
99	0xbe8aa17e	-0.27076334
100	0xbd9d52c4	-0.07681802
101	0xbe441125	-0.19147165
102	0x3e663a83	0.22483258
103	0xbe8e9c5d	-0.2785367
104	0xbe43f936	-0.19138035
105	0xbe976dfa	-0.29576093
106	0x3e894bc2	0.2681561
107	0x3ceb07ae	0.028690185
108	0xbdc92b7e	-0.098227486
109	0x3d8eaf9a	0.06967087
110	0xbe1a4804	-0.15066534
111	0x3d266b87	0.04062989
112	0x3ec3161e	0.38102812
113	0xbe83b044	-0.25720417
114	0xbe80a7e7	-0.251281
115	0xbde14482	-0.10999395
116	0xbe7e35f5	-0.2482527
117	0x3f1178ab	0.5682475
118	0xbe8a950f	-0.27066848
119	0xbeaeae81	-0.3411751
120	0xbebd57ee	-0.36981148
121	0x3d75abc0	0.059978247
122	0xbdbdb0bc	-0.09262225
123	0xbd3c7f38	-0.046019763
124	0xbe1f2a48	-0.15543473
125	0x3ee290ec	0.44251192
126	0xbe0c5cd0	-0.1370728
127	0x3e9f343d	0.31094542
128	0x3e0dc1c3	0.13843445
129	0xbe87c39b	-0.26516423
130	0x3d8e0e9a	0.06936379
131	0x3db2f5ad	0.08738265
132	0x3e831a88	0.2560618
133	0x3ed5321c	0.41639793
134	0x3e34b61b	0.17647593
135	0xbd323b90	-0.043513834
136	0xbf21d1d5	-0.63210803
137	0xbe35ce24	-0.17754418
138	0x3d60aad4	0.054850414
139	0x3ec0e16b	0.3767198
140	0x3f1a12ea	0.6018511
141	0xbbc10fb3	-0.005891764
142	0xbe23b289	-0.15986075
143	0x3f1d1ff7	0.613769
144	0x3e0863e9	0.13319363
145	0xbde9430a	-0.1138974
146	0x3e1b02e0	0.15137815
147	0xbe80c07a	-0.25146848
148	0xbe0a51c6	-0.13507757
149	0x3db295a2	0.087199464
150	0x3eb16c89	0.34653118
151	0x3e46df30	0.19421077
152	0xbd34f56f	-0.044179376
153	0x3e9357cf	0.2877793
154	0x3f0e1329	0.55497986
155	0xbd0b5c27	-0.03402343
156	0x3d1dbe26	0.038511418
157	0x3d934d61	0.07192493
158	0x3da852be	0.08218907
159	0xbe226439	-0.15858544
160	0x3ed8044b	0.42190775
161	0x3d7c1d9c	0.061551675
162	0xbd01fcf7	-0.031735387
163	0x3ed0f95e	0.40815252
164	0xbd7502ac	-0.059817
165	0x3dbae266	0.09125213
166	0x3eff21bb	0.49830422
167	0x3dd5a4f6	0.104318544
168	0x3e5293ac	0.20564145
169	0x3dbf1164	0.09329489
170	0xbdbdc341	-0.09265757
171	0x3ec2533a	0.37954122
172	0xbe0da443	-0.13832192
173	0xbd7ae1e9	-0.0612506
174	0xbcf9500b	-0.030433675
175	0xbecd919c	-0.40150154
176	0x3dc32e28	0.09530288
177	0xbe59403d	-0.21215911
178	0x3eb5e3fb	0.35525498
179	0x3f08c078	0.53418684
180	0x3e9399d3	0.28828296
181	0x3ea581e8	0.32325673
182	0x3e878cf3	0.26474723
183	0x3eb73fdb	0.35790905
184	0xbe6e798e	-0.23288557
185	0x3e0c51f9	0.13703145
186	0x3cf26347	0.029588355
187	0xbdf5a57f	-0.119944565
188	0xbe84589a	-0.25848848
189	0xbe505ece	-0.20348665
190	0xbe9d07ff	-0.30670163
191	0x3e9020f5	0.28150144
192	0xbf8a2205	-1.0791632
193	0xbf01f6f8	-0.5076747
194	0xbd1bbe6f	-0.03802341
195	0x3e7e8319	0.24854697
196	0xbf757718	-0.9588485
197	0xbf2bc81a	-0.67102206
198	0xbe6f7749	-0.23385347
199	0xbde5fbc9	-0.11229665
200	0x3e8014a1	0.2501574
201	0xbe7bfded	-0.24608584
202	0x3cf41784	0.02979637
203	0x3db562cb	0.08856734
204	0xbeedc88f	-0.46442077
205	0x3ed390fd	0.41321555
206	0xbeadd606	-0.3395235
207	0x3dde0ff6	0.10842888
208	0xbde12b73	-0.109946154
209	0x3e5e40f3	0.21704464
210	0x3b02869b	0.0019916657
211	0xbd5daaac	-0.054117844
212	0xbefa0ebf	-0.48839375
213	0x3e52069a	0.20510331
214	0xbf1c593c	-0.6107366
215	0xbf420a20	-0.757967
216	0x3d8acc08	0.06777197
217	0xbeb8f013	-0.36120662
218	0x3e5318b9	0.206149
219	0xbe3feadc	-0.18741935
220	0xbae5a5df	-0.0017520747
221	0xbef567e2	-0.4793082
222	0xbe422996	-0.18961176
223	0xbeeb5285	-0.45961395
224	0x3e8307fd	0.25592032
225	0xbe1c0749	-0.15237154
226	0x3dd29a43	0.10283329
227	0xbf26f1d1	-0.6521273
228	0x3e8db138	0.2767427
229	0x3e8b151f	0.27164552
230	0x3e6154a1	0.2200494
231	0x3dc4b715	0.096052326
232	0xbf0eee4e	-0.55832374
233	0x3c803cc9	0.015653985
234	0x3e274754	0.16335803
235	0xbd1624c8	-0.03665617
236	0xbe3c4fa4	-0.18389755
237	0xbedbe5d9	-0.42948797
238	0xbe643e98	-0.22289503
239	0xbdad2557	-0.08454388
240	0xbe7ba570	-0.24574828
241	0x3d2b53e8	0.041828066
242	0xbd9bc244	-0.076054126
243	0xbd6282bd	-0.055300463
244	0xbf220fc9	-0.63305336
245	0xbeb93d87	-0.36179754
246	0xbd60c7b7	-0.054877963
247	0xbf836d96	-1.0267818
248	0xbef3506e	-0.475223
249	0xbec0df12	-0.3767019
250	0x3cdd2e41	0.026999595
251	0xbe27c389	-0.16383184
252	0xbea823a1	-0.32839683
253	0xbed96b45	-0.42464653
254	0xbe7e6179	-0.2484187
255	0x3e890d1a	0.26767808

conv1.mlp.4.bias f4 [64]
0	0x3e0c3f77	0.13696085
1	0xbd75bd3f	-0.059994932
2	0xbece3e68	-0.40281987
3	0x3e382103	0.17981343
4	0x3b3bcb65	0.0028655168
5	0x3f04f8c6	0.519421
6	0xbf3248ee	-0.6964253
7	0x3eab1aeb	0.33418974
8	0xbe849c75	-0.25900617
9	0xbf22232d	-0.63334924
10	0xbf4d226a	-0.80130637
11	0x3ee3b3f7	0.4447324
12	0xbed275b0	-0.41105413
13	0xbbfdf716	-0.007750402
14	0xbede54ef	-0.43424174
15	0xbf84b6de	-1.0368307
16	0xbd869fbc	-0.06573436
17	0x3eb9fa12	0.363236
18	0x3d017b06	0.031611465
19	0xbe9d037b	-0.30666718
20	0x3db84e49	0.08999307
21	0x3dcf1881	0.101120956
22	0xbdf8c6a9	-0.121472664
23	0x3f2a892b	0.6661555
24	0xbe811881	-0.25214007
25	0x3cf6f6ee	0.030147042
26	0xbf5434ae	-0.8289288
27	0xbf811e45	-1.0087363
28	0xbc7b01a6	-0.015320217
29	0xbf18f465	-0.59747916
30	0xbec19601	-0.37809756
31	0x3e36f52a	0.1786696
32	0x3eae00ee	0.33985084
33	0x3dbe7c06	0.09300999
34	0xbdbdbf5b	-0.09265014
35	0xbf2f8ce9	-0.68574387
36	0xbf7e6c81	-0.99384314
37	0xbec0d81e	-0.37664884
38	0x3dbaec60	0.09127116
39	0xbed413ae	-0.41421264
40	0xbe98c9d5	-0.29841486
41	0xbe442b0c	-0.19157046
42	0xbebb77ff	-0.36614987
43	0xbddfcd49	-0.10927827
44	0xbf55bdce	-0.83492744
45	0xbe98fec5	-0.29881874
46	0x3d225084	0.039627567
47	0xbe90dbc7	-0.28292677
48	0x3eb9eccc	0.36313474
49	0x3cce9f3d	0.025222415
50	0x3e105685	0.14095505
51	0x3e25fa0a	0.16208664
52	0xbefbe242	-0.4919606
53	0xbebc0025	-0.3671886
54	0xbc447d6e	-0.011992795
55	0xbe2d2ca2	-0.16911557
56	0x3e9cbaae	0.30611175
57	0x3f1901c6	0.5976833
58	0x3d9ab7b8	0.07554573
59	0xbe0d74cf	-0.1381409
60	0x3f009cbe	0.5023917
61	0xbe552984	-0.20816618
62	0xbf9af146	-1.2104881
63	0xbf0f7e5a	-0.5605217

conv1.mlp.6.weight f4 [64]
0	0x3f797f97	0.9746031
1	0x3f4e9dd8	0.807096
2	0x3f7e8d4a	0.9943434
3	0x3f714b88	0.94255877
4	0x3fae43e2	1.3614466
5	0x3f843805	1.0329596
6	0x3f3f4cea	0.74726737
7	0x3f41be89	0.7568136
8	0x3edcb320	0.43105412
9	0x3f53fe62	0.8281003
10	0x3fa4bde7	1.2870454
11	0x3f55825e	0.8340205
12	0x3f5592ba	0.8342701
13	0x3f877d4b	1.0585111
14	0x3f7c4ef2	0.9855796
15	0x3f108b9d	0.5646303
16	0x3f8f6d68	1.1205263
17	0x3fa211a0	1.2661629
18	0x3f87107e	1.0551908
19	0x3f8582e0	1.0430565
20	0x3f7839d3	0.9696323
21	0x3fa687fc	1.3010249
22	0x3f89ff7d	1.0781094
23	0x3f64feec	0.8945148
24	0x3f93b055	1.1538187
25	0x3f8dfa6c	1.1092048
26	0x3f34c8d8	0.70618963
27	0x3f2e3d1d	0.68062
28	0x3f68f19c	0.90993667
29	0x3fc110eb	1.5083288
30	0x3f808d7b	1.0043176
31	0x3f7645eb	0.96200436
32	0x3f976965	1.1829039
33	0x3f8b54a9	1.0885211
34	0x3fa8e8a7	1.3196
35	0x3f840951	1.0315343
36	0x3fae373b	1.3610605
37	0x3f7ac02f	0.979495
38	0x3f824869	1.0178348
39	0x3f85d042	1.045418
40	0x3f4cd8bb	0.80018204
41	0x3f554e00	0.83322144
42	0x3f975c6d	1.1825081
43	0x3f66a50b	0.90095586
44	0x3f63b33a	0.88945353
45	0x3f61457b	0.87996644
46	0x3f5fde3f	0.87448496
47	0x3f903a89	1.1267864
48	0x3fa0dedd	1.2568012
49	0x3f8a3540	1.0797501
50	0x3fa32146	1.2744529
51	0x3f6ff1df	0.9372844
52	0x3f5d7c87	0.8651814
53	0x3f380ef8	0.7189784
54	0x3f8a87df	1.0822715
55	0x3f949898	1.1609068
56	0x3f4eed95	0.8083127
57	0x3f5ce3ee	0.86285293
58	0x3f6b6561	0.91951567
59	0x3fa6059e	1.2970464
60	0x3f72fcc6	0.9491695
61	0x3fc91edd	1.5712544
62	0x3f815835	1.0105044
63	0x3f79f497	0.9763884

conv1.mlp.6.bias f4 [64]
0	0xbe981fad	-0.29711667
1	0x3e839f18	0.25707316
2	0x3e39cdcf	0.18144916
3	0xbe3a622d	-0.18201514
4	0x3e9bc012	0.30419976
5	0x3ccd7d4a	0.025084157
6	0xbf3768ba	-0.71644175
7	0xbe683955	-0.2267812
8	0x3ebc5d0f	0.36789748
9	0x3ddaf244	0.1069074
10	0x3ee27744	0.44231617
11	0x3e930566	0.28715056
12	0xbea1e35e	-0.3161878
13	0x3ef8867e	0.4854011
14	0x3e4c6446	0.19960126
15	0x3e4c9b63	0.1998115
16	0x3ed5f893	0.4179121
17	0x3c951550	0.01819864
18	0x3eeae35a	0.4587658
19	0x3dec5714	0.11540046
20	0xbf3372cb	-0.70097035
21	0x3e95cc8d	0.29257622
22	0x3eb78ad5	0.35848108
23	0x3ece70c0	0.40320396
24	0x3e4308d5	0.19046338
25	0xbe5f9936	-0.21835789
26	0x3e1deb15	0.15421708
27	0xbed7e9c0	-0.42170525
28	0xbdc0354e	-0.09385167
29	0x3eb5e38b	0.35525164
30	0x3ec30666	0.3809082
31	0x3ea4b81b	0.3217171
32	0x3e49c86b	0.1970536
33	0x3cbaca6a	0.022801597
34	0x3e15d557	0.14632164
35	0xbe561e20	-0.2090993
36	0xbe3e831e	-0.18604705
37	0x3ea1cff2	0.31603962
38	0xbd7c3c66	-0.061581038
39	0x3e28012b	0.16406696
40	0x3dfd0a97	0.123555355
41	0x3edae120	0.42749882
42	0x3ebce2f6	0.36891907
43	0x3e26650f	0.16249488
44	0x3e29109f	0.16510247
45	0x3ed6cf10	0.4195485
46	0x3ec2162b	0.37907538
47	0x3e1b88f1	0.15188958
48	0x3e5122b5	0.20423396
49	0xbdb4f242	-0.088352695
50	0x3f0d93d3	0.55303687
51	0x3e8c930c	0.27455938
52	0x3eb34c94	0.35019362
53	0xbe94f35c	-0.29091918
54	0x3ecaae4b	0.395861
55	0x3e8c40f4	0.27393305
56	0xbf088eb1	-0.5334273
57	0x3dde812d	0.10864482
58	0x3e0046b6	0.12526974
59	0x3ebd77ed	0.3700556
60	0x3ea2dc1b	0.31808552
61	0x3e1e6fab	0.15472285
62	0xbe34d31e	-0.1765866
63	0xbc37b22f	-0.011211916

conv1.mlp.6.running_mean f4 [64]
0	0x3f71e5e0	0.94491386
1	0x3ffd4a66	1.978833
2	0x3f8cb5a6	1.0992935
3	0x3f61657c	0.8804548
4	0x403d2bcc	2.9557981
5	0x402b2cd0	2.6746101
6	0x3e71c8a6	0.23611698
7	0x402ac66a	2.6683602
8	0x3f92695d	1.1438404
9	0x3f2a511c	0.66530013
10	0x3fa29af4	1.2703538
11	0x3fc3ec19	1.5306426
12	0x3f0cb5ac	0.5496471
13	0x402227c7	2.5336778
14	0x3f7e6d6f	0.9938573
15	0x3e9ac4ce	0.30228275
16	0x3fb057e5	1.3776823
17	0x4069be60	3.6522446
18	0x3f91d7ae	1.1393945
19	0x3f9028ff	1.1262511
20	0x3f7783e9	0.96685654
21	0x4054e3f9	3.3264143
22	0x3fd88b8a	1.6917584
23	0x401d4826	2.4575286
24	0x3fff389a	1.9939148
25	0x3fa8408c	1.3144698
26	0x3f2c5300	0.6731415
27	0x3ec5cc8b	0.38632616
28	0x3f2f5cb1	0.6850081
29	0x3fec5cdb	1.8465837
30	0x3fc75cfd	1.5575253
31	0x3f99f040	1.2026443
32	0x3fef3f12	1.8691123
33	0x4010c88f	2.2622411
34	0x40446c99	3.0691283
35	0x3f11d9d5	0.5697301
36	0x3eddfc19	0.43356398
37	0x3fc4eeba	1.5385354
38	0x3fb34ee1	1.4008447
39	0x3f5a7d72	0.85347664
40	0x3fa3eb75	1.2806231
41	0x3f659ef7	0.89695686
42	0x3fe056cd	1.752649
43	0x3fb23bd3	1.3924507
44	0x3f691fce	0.91064155
45	0x3f964ca0	1.1742134
46	0x3fd29e34	1.645453
47	0x3f5ee6b1	0.8707076
48	0x406dc9bb	3.7154377
49	0x3fc6912d	1.5513054
50	0x3fd31c97	1.64931
51	0x3fbfe19e	1.4990728
52	0x3fa926d9	1.321498
53	0x3f3bf4f7	0.7342066
54	0x40216fe1	2.5224535
55	0x3fb8c035	1.4433657
56	0x3f6c66a8	0.9234414
57	0x3fb7897f	1.4338835
58	0x400494ff	2.071594
59	0x401943ee	2.394771
60	0x40219a9a	2.5250611
61	0x405761e9	3.365351
62	0x3e1da0ae	0.15393326
63	0x3f4acb47	0.79216427

conv1.mlp.6.running_var f4 [64]
0	0x404e041e	3.2190013
1	0x412811bf	10.504333
2	0x40ccaa59	6.3957944
3	0x40123b29	2.2848608
4	0x4164f5a1	14.309968
5	0x40ca886e	6.329154
6	0x3ee7ac62	0.45248705
7	0x410faef5	8.980214
8	0x4089d0f8	4.306759
9	0x408f29b9	4.473843
10	0x40a7ca83	5.2434707
11	0x408608ad	4.188559
12	0x400ee6ef	2.232845
13	0x4166273b	14.384578
14	0x4096136d	4.6898713
15	0x40000a32	2.0006223
16	0x40a68f6b	5.205007
17	0x41559ccc	13.3507805
18	0x40929cea	4.5816545
19	0x4099b842	4.8037424
20	0x405f197c	3.4859304
21	0x4130cd5a	11.050135
22	0x40f21336	7.564845
23	0x40f02876	7.504939
24	0x40ce78e1	6.4522557
25	0x40568e1f	3.3524244
26	0x407e32d7	3.971853
27	0x402325fa	2.549193
28	0x4052b97f	3.2925718
29	0x41045063	8.269626
30	0x40c6ecff	6.21643
31	0x40a3d418	5.1196404
32	0x410c0300	8.750732
33	0x40dc1aba	6.8782625
34	0x41be726a	23.805866
35	0x3fce360e	1.6110246
36	0x3fc3f7b3	1.5309967
37	0x4091107b	4.533262
38	0x40a4ad5a	5.146161
39	0x409583b1	4.6723256
40	0x40e98da6	7.298541
41	0x40a63ef4	5.1951847
42	0x41593b02	13.576906
43	0x40d72e38	6.724392
44	0x405f9b64	3.4938593
45	0x409e7361	4.9515843
46	0x40c28d65	6.07976
47	0x40a76122	5.230607
48	0x41a6a699	20.831347
49	0x40ed62ed	7.418326
50	0x40c970f1	6.295037
51	0x408bac0e	4.364753
52	0x40d63d2a	6.6949663
53	0x401c20c1	2.4394991
54	0x411adbd4	9.678669
55	0x40ed750e	7.420539
56	0x401cfb34	2.4528322
57	0x40e43901	7.1319585
58	0x40c35174	6.103693
59	0x4193f998	18.496872
60	0x40fbc855	7.8682046
61	0x41a8d2a0	21.102844
62	0x3ef7a551	0.48368314
63	0x40396ae0	2.8971481

conv1.mlp.8.weight f4 [64, 64]
0	0x3e477702	0.19478992
1	0xbe9fc3bc	-0.3120402
2	0xbdeead62	-0.11654164
3	0x3e132dc6	0.1437293
4	0xbd556efb	-0.052107792
5	0xbe0830d4	-0.13299876
6	0x3f3496fe	0.70542896
7	0x3d3c0e13	0.04591186
8	0xbe14fb48	-0.14548981
9	0xbe83e698	-0.25761867
10	0x3ee496fb	0.4464644
11	0x3e5aa2cb	0.21351163
12	0xbd760ab9	-0.06006882
13	0xbe3bfffe	-0.18359372
14	0xbeb7ebca	-0.3592208
15	0xbe43bb42	-0.19114402
16	0x3e896e22	0.26841837
17	0xbe6fd68e	-0.2342169
18	0x3dcefcbf	0.10106801
19	0xbe891ef3	-0.26781425
20	0x3e6bc3d1	0.23023917
21	0xbf24f19f	-0.64431185
22	0x3d6d38c1	0.057915453
23	0xbec1b07c	-0.3782996
24	0xbe86f563	-0.2635909
25	0xbe32aac8	-0.1744796
26	0xbe7afee8	-0.24511302
27	0xbe95ebe8	-0.29281545
28	0xbefd97da	-0.49529916
29	0xbe68b416	-0.22724947
30	0xbe84b811	-0.25921682
31	0xbeb2971a	-0.34880906
32	0x3e9653b9	0.2936075
33	0xbee3d828	-0.44500852
34	0xbe0bc34b	-0.13648717
35	0x3e7db0e3	0.24774508
36	0xbc0e29c0	-0.008676946
37	0xbee06046	-0.4382345
38	0x3f1430ba	0.5788685
39	0x3e1f5924	0.15561348
40	0xbea717a4	-0.32635224
41	0x3c54bb46	0.012984103
42	0xbec50855	-0.3848292
43	0xbecd95e9	-0.40153435
44	0x3dc5d252	0.09659256
45	0x3e158720	0.14602327
46	0xbf13d853	-0.5775196
47	0xbe8cb05c	-0.27478302
48	0xbe339583	-0.17537503
49	0xbc82daac	-0.015973412
50	0x3dd282c6	0.10278849
51	0xbf578736	-0.8419069
52	0x3d1d13bc	0.0383489
53	0x3db65fd5	0.08904997
54	0xbf1ce1ca	-0.61282027
55	0xbeb932bd	-0.36171523
56	0x3ea6dbeb	0.3258966
57	0xbe4866d2	-0.19570473
58	0x3e2c87c8	0.16848671
59	0xbebbf532	-0.36710507
60	0xbe83c63c	-0.25737178
61	0xbe96e6ba	-0.29472905
62	0x3e7d1368	0.24714434
63	0xbdfa3e2a	-0.12218888
64	0xbee9836a	-0.45608073
65	0x3e236277	0.1595553
66	0xbe9cb218	-0.30604625
67	0x3ef6642a	0.48123294
68	0xbec49ccb	-0.38400874
69	0xbf090fa7	-0.5353951
70	0xbe8149e3	-0.25251684
71	0xbdb9b80e	-0.09068309
72	0xbe965e03	-0.293686
73	0x3dbe6428	0.09296447
74	0xbda2394a	-0.07921083
75	0xbea0801f	-0.3134775
76	0x3d72096b	0.059091013
77	0xbcaa1240	-0.020760655
78	0xbead1d06	-0.33811206
79	0xbe67f0a9	-0.22650398
80	0xbd04d9e3	-0.032434355
81	0xbce7e75d	-0.028308565
82	0xbcb601fc	-0.022217743
83	0x3dc41946	0.09575133
84	0x3e9945ef	0.29936168
85	0x3e25726a	0.16156927
86	0x3eb414af	0.3517203
87	0xbe60dda3	-0.21959548
88	0x3c983b4d	0.018582964
89	0xba164e76	-0.00057337375
90	0x3e0072e8	0.12543833
91	0xbdfeb04e	-0.12435971
92	0x3dad677e	0.08467005
93	0xbeb9a9a1	-0.3626223
94	0xbe0ceb37	-0.13761602
95	0xbe018eae	-0.12652084
96	0x3f472ec6	0.77805746
97	0xbec8bfc4	-0.39208806
98	0xbdee1148	-0.1162439
99	0x3d2593c5	0.040424127
100	0x3ef7e6e8	0.48418355
101	0xbe65d364	-0.2244392
102	0x3ed99454	0.42495978
103	0x3c4ee6ec	0.012628298
104	0x3ea4a99d	0.32160655
105	0x3e6514b3	0.22371177
106	0x3f0fdac4	0.56193185
107	0x3e032db7	0.12810408
108	0xbcdecd28	-0.027197435
109	0x3e677558	0.22603357
110	0xbe247be8	-0.16062891
111	0xbdde5f59	-0.1085803
112	0xbe90bb9f	-0.28268144
113	0x3f8781c0	1.0586472
114	0x3e53dfb3	0.20690803
115	0xbe039132	-0.12848356
116	0x3e716f69	0.23577656
117	0xbee71120	-0.45130253
118	0x3e8d8485	0.27640167
119	0xbefa1a13	-0.48848018
120	0xbe7dbf17	-0.24779926
121	0x3e0baaf9	0.1363944
122	0xbea88936	-0.32917184
123	0x3e50ff55	0.20409901
124	0xbe7aeb3b	-0.24503796
125	0xbf28085c	-0.65637755
126	0xbe7ced52	-0.24699906
127	0xbe7cdba9	-0.24693169
128	0xbf3ba6b6	-0.73301256
129	0x3e532df9	0.20623006
130	0x3ce3d01a	0.027809191
131	0xbf04cdde	-0.5187663
132	0xbf06e475	-0.5269235
133	0xbec5a665	-0.3860351
134	0x3e1d86fa	0.1538352
135	0x3e5c2391	0.21497943
136	0x3c5d4db5	0.013507296
137	0x3ca9d5dd	0.02073186
138	0x3d2db5bc	0.042409644
139	0xbd1162d3	-0.035494637
140	0xbe8223ea	-0.25418025
141	0x3f284e22	0.6574422
142	0x3d4edbb1	0.050502483
143	0xbe937ece	-0.28807682
144	0xbc028439	-0.007966095
145	0x3e082a8b	0.13297479
146	0x3d9439a1	0.07237554
147	0xbeafe5d4	-0.34355032
148	0xbd8533bf	-0.065040104
149	0x3f6e8df6	0.93185365
150	0x3e9ef93f	0.31049535
151	0xbe8a2e7d	-0.26988593
152	0xbd6a3a11	-0.057184283
153	0x3dae4642	0.08509494
154	0xbd769c8d	-0.060207892
155	0x3ce9cfa9	0.028541403
156	0xbf23f5a9	-0.6404672
157	0xbd73fe6a	-0.0595688
158	0x3c1f295a	0.009714449
159	0xbd180edf	-0.037123557
160	0xbd0bb0d6	-0.03410419
161	0xbf380f05	-0.7189792
162	0x3ebb0526	0.36527365
163	0x3e373bd2	0.17893913
164	0xbe558fd0	-0.20855641
165	0xbe9ecb0b	-0.31014284
166	0xbdd217c2	-0.10258438
167	0x3ecfb95a	0.405711
168	0x3e3d8377	0.18507181
169	0x3e849357	0.2589366
170	0x3d146981	0.03623343
171	0xbe5c2f69	-0.2150246
172	0xbcd020e9	-0.025406318
173	0x3ea27468	0.31729436
174	0xbe2948d5	-0.1653169
175	0x3edf1ce6	0.43576735
176	0x3ef3d940	0.47626686
177	0x3e552d69	0.20818104
178	0x3d6edefa	0.058318116
179	0xbcd0195f	-0.025402723
180	0x3ebcdef8	0.36888862
181	0xbeb12964	-0.3460189
182	0x3f10c260	0.5654659
183	0xbeaac3db	-0.3335255
184	0xbe8ed85e	-0.2789945
185	0xbe5c3736	-0.21505436
186	0xbdfc0694	-0.12305942
187	0x3e3fd687	0.1873418
188	0x3ca9f60d	0.020747209
189	0xbd31ab61	-0.04337633
190	0xbe0b480f	-0.13601707
191	0xbe815a17	-0.25264046
192	0xbe4c178f	-0.19930862
193	0x3e8375f5	0.25675932
194	0x3e893836	0.26800698
195	0xbd74ac37	-0.05973455
196	0x3e84ba70	0.2592349
197	0x3d9250d5	0.07144324
198	0xbe5b8121	-0.21435978
199	0x3e116c6c	0.14201516
200	0xbdf2ed65	-0.11861686
201	0xbec0384e	-0.37542957
202	0xbea37c0c	-0.31930578
203	0x3db8dcd2	0.09026493
204	0xbd8e507a	-0.069489434
205	0x3e768256	0.24073157
206	0xbe704b70	-0.23466277
207	0x3da37937	0.07982104
208	0xbec10acd	-0.37703553
209	0xbe570519	-0.20998038
210	0xbf078ab6	-0.5294603
211	0x3ed53c41	0.41647533
212	0xbe40c736	-0.18825993
213	0xbf1d3570	-0.61409664
214	0x3dd03f0e	0.10168277
215	0xbda39016	-0.079864666
216	0xbc631a9c	-0.013861325
217	0x3ef7eded	0.4842371
218	0xbd595ef7	-0.05306908
219	0x3c8a694b	0.01689591
220	0xbc4c9e97	-0.012488983
221	0x3f3dd5d6	0.7415441
222	0xbe9932d9	-0.29921606
223	0xbe8f5ec5	-0.2800199
224	0xbeea4248	-0.45753694
225	0xbe6a422e	-0.22876808
226	0x3ea80ec9	0.3282378
227	0xbaa3fc96	-0.001251119
228	0xbea7de24	-0.32786667
229	0xbed80460	-0.42190838
230	0xbead156c	-0.33805406
231	0x3e1a1a93	0.150492
232	0x3db063bb	0.08612772
233	0xbe4e7771	-0.20162751
234	0xbe71e18a	-0.23621193
235	0xbf70d927	-0.9408135
236	0x3e0d2968	0.13785326
237	0xbee5804b	-0.44824442
238	0xbd23b501	-0.03996754
239	0x3d02e058	0.031952232
240	0x3efafad7	0.490195
241	0xbed43f66	-0.4145462
242	0xbe913878	-0.28363395
243	0xbe222768	-0.15835345
244	0xbe43fc73	-0.1913927
245	0x3e363950	0.177953
246	0xbf0545f6	-0.52059877
247	0xbd7e5a37	-0.062097754
248	0xbafe20c7	-0.001938843
249	0xbed70261	-0.41994002
250	0x3eb1732c	0.34658182
251	0x3b9434a8	0.0045228787
252	0x3e0c5a34	0.13706285
253	0x3f0b6e3b	0.54465073
254	0xbe8294db	-0.25504193
255	0x3e5f67ee	0.2181699

conv1.mlp.8.bias f4 [64]
0	0xbe8c4277	-0.2739446
1	0xbdafe897	-0.08589285
2	0x3e2ad69d	0.16683431
3	0x3d17abd2	0.037029095
4	0xbe9fdb60	-0.31222057
5	0x3f9114ef	1.1334513
6	0x3e9b4293	0.3032423
7	0x3e0504d6	0.12990126
8	0xbdbe1e98	-0.09283179
9	0xbe224389	-0.15846075
10	0xbf10f6c5	-0.5662654
11	0xbe88846b	-0.26663527
12	0xbde93caa	-0.11388524
13	0xbe3454e6	-0.17610511
14	0x3ed1ef57	0.41002914
15	0x3e31030f	0.17286323
16	0x3e5cd1b4	0.2156437
17	0x3ee2a828	0.44268918
18	0x3ea79744	0.32732594
19	0x3f5b5121	0.8567067
20	0x3f4e19a0	0.8050785
21	0x3ea0219e	0.31275648
22	0xbdc5b689	-0.096539564
23	0x3dc6c322	0.097051874
24	0xbe9e2651	-0.30888608
25	0x3eb3b1c5	0.35096565
26	0x3f11f516	0.57014596
27	0x3ef96a32	0.48713833
28	0x3f399e56	0.72507226
29	0x3f71b587	0.94417614
30	0xbed46581	-0.4148369
31	0x3f232245	0.63724166
32	0x3d0b443d	0.034000624
33	0x3f526acc	0.8219421
34	0x3d7d02ae	0.061770134
35	0x3f26a072	0.6508857
36	0x3f0674bf	0.5252189
37	0xbf996c24	-1.1986127
38	0x3f7091dd	0.9397257
39	0x3e6dde53	0.23229341
40	0x3d7ab39e	0.061206453
41	0x3e68011b	0.22656672
42	0x3f4897f7	0.7835688
43	0x3e6ae32a	0.22938219
44	0x3f53f949	0.82802254
45	0x3f3cd935	0.7376893
46	0x3f45af67	0.7722077
47	0xbee08dd0	-0.43858194
48	0x3e9a6bd6	0.30160397
49	0xbf8a6b7e	-1.0814054
50	0x3ea5d9c7	0.32392713
51	0x3ec5d07b	0.3863562
52	0x3e6ef0ac	0.23333997
53	0x3ed4c8c0	0.4155941
54	0xbdad4ea0	-0.08462262
55	0xbeba89af	-0.3643317
56	0x3e971b23	0.2951289
57	0x3eae1882	0.34003073
58	0x3f1ad854	0.6048634
59	0x3edb801c	0.42871177
60	0xbe5cab4b	-0.21549718
61	0xbe60f4b2	-0.21968344
62	0xbdaf74e4	-0.08567217
63	0xbf4366b6	-0.763286

conv1.mlp.10.weight f4 [64]
0	0x3f97fcbe	1.1874006
1	0x3fd00fb7	1.6254796
2	0x3f9e368c	1.2360396
3	0x3f855fcf	1.0419863
4	0x3f1f3e10	0.62204075
5	0x3f948e27	1.1605881
6	0x3f8031e2	1.0015223
7	0x3fa5061f	1.2892493
8	0x3fd9e860	1.702404
9	0x3fb5a661	1.41914
10	0x3fad0ed8	1.3520155
11	0x3f74d657	0.95639557
12	0x3f5750f1	0.8410788
13	0x3f860f3d	1.04734
14	0x3f9ceb20	1.2259254
15	0x3f91d370	1.1392651
16	0x3f8fb5a4	1.1227307
17	0x3faa63c5	1.3311697
18	0x3fcc5180	1.5962372
19	0x3f88fca1	1.0702096
20	0x3f7ca1f9	0.9868465
21	0x3f9398be	1.1530988
22	0x3f8f7977	1.1208943
23	0x3f798c3b	0.974796
24	0x3f28c325	0.65922767
25	0x3fc35783	1.5261081
26	0x3f9c3d8c	1.2206283
27	0x3f830cf3	1.0238327
28	0x3fa4aa3e	1.2864454
29	0x3fb412a6	1.4068191
30	0x3f3b88b1	0.7325545
31	0x3f8c044d	1.0938812
32	0x3f4e7491	0.80646616
33	0x3fa915a1	1.3209726
34	0x3f91d7c7	1.1393975
35	0x3f97d4c5	1.1861807
36	0x3f93161c	1.1491122
37	0x3fc3f378	1.5308676
38	0x3f835781	1.0261079
39	0x3f63a63f	0.88925546
40	0x3f78804a	0.97070754
41	0x3f8f0bbb	1.1175455
42	0x3fac98e4	1.3484159
43	0x3f56d512	0.8391887
44	0x3f8af4c5	1.0855948
45	0x3f8b09eb	1.0862402
46	0x3f8a6d66	1.0814636
47	0x3f2fabe7	0.6862168
48	0x3f22c42f	0.635806
49	0x3fc501c1	1.539116
50	0x3f8a0aa6	1.07845
51	0x3f533fdc	0.82519317
52	0x3f81d65b	1.0143541
53	0x3f60ab40	0.87761307
54	0x3f14aa75	0.58072597
55	0x3f735e0b	0.95065373
56	0x3f46edbc	0.77706504
57	0x3f6746ce	0.90342414
58	0x3f9326af	1.149618
59	0x3f89e311	1.077242
60	0x3f81d87c	1.0144191
61	0x3f42ad27	0.7604546
62	0x3f186ad0	0.5953798
63	0x3fb1435f	1.3848685

conv1.mlp.10.bias f4 [64]
0	0x3ec5fa51	0.3866754
1	0x3d2bce50	0.0419448
2	0x3e22e1f9	0.15906514
3	0x3c6a6652	0.014306622
4	0xbe889532	-0.26676327
5	0x3ec598a2	0.38593012
6	0x3e1f6968	0.15567553
7	0x3c6a99ea	0.014318923
8	0x3ee8d7cf	0.4547715
9	0xbeb60a11	-0.35554555
10	0x3df3cfa5	0.119048394
11	0x3d6112e9	0.054949675
12	0xbe45ada3	-0.19304518
13	0xbda81503	-0.08207133
14	0xbdbd1754	-0.09232965
15	0x3e9686ed	0.29399815
16	0x3eeabc74	0.45846903
17	0xbcc3098e	-0.023808267
18	0x3e6207c0	0.22073269
19	0x3ea076ce	0.3134064
20	0xbeed3a38	-0.4633348
21	0x3e3e8456	0.1860517
22	0x3eb6a584	0.35673153
23	0xbda6b111	-0.081392415
24	0xbe3e0adf	-0.18558834
25	0x3cd7993d	0.026318187
26	0x3ee97b11	0.45601705
27	0x3ec368f8	0.38166022
28	0x3eee0e39	0.46495226
29	0xbdad26c2	-0.08454658
30	0xbc721e09	-0.014777669
31	0x3c8868c7	0.016651524
32	0x3ceb25e0	0.028704584
33	0x3ed8612b	0.42261633
34	0x3e486e1a	0.1957325
35	0x3d8475d9	0.0646779
36	0x3ec5ac3b	0.38607964
37	0x3e90f1f3	0.28309593
38	0x3e4001a3	0.18750624
39	0x3e0366e9	0.12832226
40	0xbe2349b3	-0.15946083
41	0xbdcc39ac	-0.099719375
42	0x3d19a703	0.03751279
43	0x3e624d9a	0.22099915
44	0x3e933962	0.28754717
45	0xbee8d28e	-0.4547314
46	0xbd12c6db	-0.035834175
47	0x3e5538a2	0.20822385
48	0xbc7562f4	-0.014977206
49	0xbd93f461	-0.07224346
50	0x3de12db2	0.10995044
51	0xbded0f22	-0.11575152
52	0xbd916144	-0.0709863
53	0x3dbfbfa4	0.093627244
54	0xbe966175	-0.2937123
55	0xbd525066	-0.051346205
56	0x3e09cda4	0.13457352
57	0xbefdc86e	-0.49566978
58	0xbdf21f07	-0.11822324
59	0xbd3b67cb	-0.04575328
60	0x3df4fa5b	0.11961814
61	0xbe1c53a5	-0.15266283
62	0x3e2546a4	0.16140229
63	0x3ea78045	0.3271505

conv1.mlp.10.running_mean f4 [64]
0	0x3f4b6a5b	0.7945916
1	0x40132349	2.2990286
2	0x404c81d6	3.1954246
3	0x3fbbaa0f	1.4661273
4	0x3f8616ba	1.0475686
5	0x4000abbc	2.0104818
6	0x3fba576d	1.455793
7	0x3fe0dc61	1.7567254
8	0x3fa245e6	1.2677581
9	0x3fe52bcf	1.7903994
10	0x3ed9ab2d	0.4251341
11	0x3f3d07ee	0.73840225
12	0x3f959a0f	1.168764
13	0x4002a3f4	2.041257
14	0x3fd7f633	1.6872009
15	0x3f842c00	1.0325928
16	0x3fb0d438	1.3814764
17	0x3ff16863	1.8859981
18	0x3f5643bf	0.8369712
19	0x3fca63c5	1.5811697
20	0x3fed68d3	1.8547615
21	0x3f6ec85d	0.9327448
22	0x3f2daee1	0.6784497
23	0x3ffc5288	1.9712687
24	0x3f9772c0	1.1831894
25	0x4001515e	2.0205913
26	0x3fc84606	1.564637
27	0x3fa7e349	1.3116237
28	0x402ee678	2.7328167
29	0x3fc6c3be	1.5528486
30	0x3f81dcc9	1.0145503
31	0x3ffd73eb	1.9801
32	0x3fa456ae	1.2838953
33	0x40348cd7	2.8210962
34	0x3f294293	0.6611721
35	0x3fd078bc	1.6286845
36	0x3feebaae	1.865072
37	0x3e3801b6	0.17969403
38	0x40059f77	2.087858
39	0x3f78aa68	0.9713502
40	0x3f141897	0.5785002
41	0x3f7fe9c8	0.99966097
42	0x4011854b	2.2737606
43	0x400563e5	2.084222
44	0x4000b2a1	2.0109026
45	0x40247395	2.5695546
46	0x400600b2	2.0937924
47	0x3f3576b5	0.7088426
48	0x3fe2e940	1.7727432
49	0x3f21354c	0.6297195
50	0x3f938db0	1.1527615
51	0x3f54c770	0.8311682
52	0x3fcbf322	1.5933573
53	0x3f877c72	1.0584853
54	0x3f3f9a17	0.748445
55	0x3f509188	0.81472063
56	0x3ff57e1d	1.9179112
57	0x3fb4cf31	1.412573
58	0x3fe6ac42	1.8021319
59	0x401d99c4	2.46251
60	0x3f2c597e	0.67324054
61	0x3f774dd4	0.9660313
62	0x3f433a29	0.7626062
63	0x3e84a687	0.259083

conv1.mlp.10.running_var f4 [64]
0	0x4075260a	3.8304467
1	0x41a788fa	20.941883
2	0x41851be5	16.63862
3	0x411a14cc	9.630077
4	0x4099b237	4.8030047
5	0x40bbd487	5.8696933
6	0x40b54c43	5.6655593
7	0x413cb933	11.795215
8	0x41176d54	9.464191
9	0x4142f0ff	12.183837
10	0x40122ff9	2.284178
11	0x40a15450	5.041542
12	0x412249f3	10.143054
13	0x41a3c768	20.472366
14	0x411885e2	9.532686
15	0x4041600a	3.0214868
16	0x40979f3f	4.738189
17	0x413b4724	11.704868
18	0x4080e179	4.0275235
19	0x40d60792	6.688424
20	0x40d29378	6.5805016
21	0x40963a95	4.694651
22	0x405a17bb	3.4076984
23	0x41677b0c	14.467541
24	0x41001837	8.005912
25	0x412f2e8b	10.948863
26	0x41027bde	8.155241
27	0x40910329	4.5316358
28	0x416a25a3	14.634189
29	0x40daa00a	6.832036
30	0x40bef61b	5.967542
31	0x410bac36	8.729544
32	0x411e169d	9.880521
33	0x41804ae8	16.036575
34	0x4023094b	2.5474422
35	0x40afdd59	5.49577
36	0x40c0d337	6.025783
37	0x3f48c8da	0.78431475
38	0x40f50027	7.6562686
39	0x409247ac	4.571249
40	0x3fd2223f	1.6416701
41	0x4073f19c	3.8116217
42	0x4118ae33	9.542529
43	0x4126b720	10.419708
44	0x40f51138	7.658352
45	0x415e610d	13.898694
46	0x40c8632d	6.2621064
47	0x40afc761	5.4930882
48	0x40ed6218	7.4182243
49	0x408cd6c3	4.401216
50	0x40b39095	5.611399
51	0x3fe60fce	1.7973573
52	0x40c86edf	6.263534
53	0x40cf725f	6.4827113
54	0x403e42c9	2.9728262
55	0x4092b6eb	4.584829
56	0x4115cff7	9.363273
57	0x40a0ed89	5.028996
58	0x413cb9b2	11.795336
59	0x412c1ff7	10.757804
60	0x4024a26b	2.5724132
61	0x40ad3041	5.4121404
62	0x3ff7b9a0	1.9353523
63	0x3f88a6c2	1.067589
