GraphNeuralNet/Skim3Mu/MHc-130_MA-90_vs_ttZ/models/ParticleNet-nNodes64_RMSprop_initLR-0p002_StepLR.pt (torch, 292612 bytes, 89 tensors)

gn0.weight f4 [9]
3.2914329 0.21639666 0.07233193 0.8242503 0.22492757 1.1123652 0.8867988 1.0
0.73870564
00000000: d6a6 5240 1697 5d3e c322 943d 1102 533f
00000010: 6a53 663e fc61 8e3f 3f05 633f 0000 803f
00000020: d01b 3d3f

gn0.bias f4 [9]
3.552986 -0.050269425 0.044388033 0.01549954 0.032792903 0.04280386 0.7822324 0.36336204
-0.432633
00000000: 1f64 6340 50e7 4dbd 3ad0 353d c8f1 7d3c
00000010: da51 063d 1a53 2f3d 6240 483f 970a ba3e
00000020: 1382 ddbe

gn0.mean_scale f4 [9]
5.367008 0.5107926 -1.7874525 -0.019641783 2.9725409 0.019712297 1.676446 1.0
-0.21606772
00000000: 88be ab40 4ec3 023f 3ecb e4bf cee7 a0bc
00000010: 1c3e 3e40 af7b a13c c895 d63f 0000 803f
00000020: db40 5dbe

conv1.mlp.0.weight f4 [64, 18]
0.4634701 -0.20063765 1.0738369 -0.2801961 -0.21278545 -0.29555953 -4.0550494 -2.2214653
-2.2460828 2.54604 -0.4172822 0.24429266 -0.29207072 -0.27504438 -0.7334041 1.9893172
0.078595445 -1.8609008 3.1578698 0.051808115 0.33737764 -0.14018884 -0.33163062 -4.3023086
-1.8104367 -1.3399135 1.3048414 1.802171 1.2966323 0.23485257 -0.13205433 0.16187944
-0.25298396 -0.66272706 -0.13144834 0.98110354 -5.204754 0.02014184 -0.9931819 0.8071887
0.5926038 -1.5509871 -1.2351885 -1.1140479 -3.3555803 -1.1308634 -0.49699563 -0.59701294
-0.3756501 0.34503078 0.43547344 1.0499941 -0.21393241 0.77504313 0.80796283 -0.41625905
0.45503518 -0.45357516 -0.2231789 0.19537456 -13.977378 0.33420777 0.09643903 -0.78831327
-0.28942057 0.18910874 0.27880827 0.13482863 0.03354129 0.7940229 -0.21801738 1.0381949
-1.010257 0.12941174 -0.037359674 0.28576624 -0.19437811 -0.5785575 -0.8367971 -1.3393652
-1.1160597 -0.34562758 0.1937418 -0.017319322 -0.16256356 0.3273676 -0.050034825 0.014419157
0.21753587 0.19993228 -3.5524187 -0.2003688 -0.45115113 -1.0816557 -0.7678947 0.8919495
-0.6284896 -1.4702919 -1.4367748 -1.3631736 -0.49621433 2.0146868 4.8469915 1.7762523
-0.08002509 -0.36301324 -0.0860166 1.1408685 -4.318826 -0.6343563 -0.36685675 0.40279898
1.0439309 -1.3961928 -1.3850672 -1.516513 -3.0548525 -0.24570684 -0.679642 -0.6364219
0.282717 0.6945938 0.21173811 1.1606989 -0.13625582 1.132248 -9.24265 0.1742461
0.10287023 0.10207617 0.37322584 0.07169302 -0.20296593 -0.11030123 1.9334997 -2.2087379
0.36057362 -0.20463338 -0.0863873 0.36589485 0.050708774 -0.40501043 0.0062007005 0.46620896
-3.6761863 0.24184644 0.11473191 3.6792164 -0.10860384 0.4070564 0.59606165 -0.81995237
-2.4272738 -1.7873652 -0.06541024 -1.0962819 1.5329424 -0.22903016 0.2913092 0.66163373
-0.2059515 0.12369687 -8.562254 0.5653395 -0.27583578 -2.3773448 -0.44468054 0.03122733
0.27411646 -1.487913 0.9564903 0.24651574 -0.12548126 0.26443776 -0.06671487 0.25716072
0.05850403 0.08876774 -0.20042117 0.32899114 0.64792913 0.36382803 0.58946645 0.30775404
0.22501269 -3.0369503 1.6706502 -3.074025 -0.5332115 0.23268601 0.45953715 -0.3438959
0.074548624 -5.0137596 -0.38956776 0.68870455 0.08004262 -1.3402711 -4.4081593 -0.30603576
-0.4241096 0.20955639 0.6698924 -0.5674898 0.75204915 -0.51717806 -4.0781865 -2.4101684
-0.29428545 -0.5769103 1.367481 0.18297182 0.2782717 0.1467533 -0.025724357 -0.17822959
-8.800166 0.019635905 0.22264889 2.871127 0.27403846 -0.05271647 0.089670025 -1.2320302
1.1173445 0.08471079 0.177081 0.37633473 -0.0047396715 -0.30534858 -0.023333577 0.12843883
0.06933761 0.32203194 -2.8676503 -0.5987299 1.3346951 -0.1570489 -0.03519939 -0.054139536
-1.7284503 -1.3208977 0.6956023 -5.7975874 0.82803094 -1.6440883 -0.1547711 -0.45759234
0.18246529 0.36145622 0.117860794 -0.6004084 0.97486824 1.8168219 0.14453168 0.041512538
00000000: f44b ed3e f573 4dbe 7d73 893f dd75 8fbe
00000010: 6ee4 59be 9453 97be f7c2 81c0 7d2c 0ec0
00000020: d2bf 0fc0 52f2 2240 03a6 d5be db27 7a3e
00000030: 4b8a 95be 9ed2 8cbe 5fc0 3bbf f2a1 fe3f
00000040: a6f6 a03d ff31 eebf 8a1a 4a40 bf34 543d
00000050: c3bc ac3e aa8d 0fbe 7dcb a9be 83ac 89c0
00000060: 64bc e7bf 4982 abbf 0b05 a73f 8aad e63f
00000070: 0cf8 a53f 317d 703e 4039 07be b9c3 253e
00000080: 1d87 81be 7ba8 29bf 659a 06be 9a29 7b3f
00000090: 588d a6c0 8000 a53c 2b41 7ebf eba3 4e3f
000000a0: e2b4 173f bf86 c6bf a81a 9ebf 1f99 8ebf
000000b0: d4c1 56c0 22c0 90bf 3676 febe d7d5 18bf
000000c0: 3655 c0be e0a7 b03e 60f6 de3e 3566 863f
000000d0: 1911 5bbe 3a69 463f a7d6 4e3f e81f d5be
000000e0: 5ffa e83e 013b e8be 0289 64be 4510 483e
000000f0: 57a3 5fc1 481d ab3e d381 c53d e6ce 49bf
00000100: ef2e 94be b9a5 413e f5bf 8e3e 8410 0a3e
00000110: 9762 093d 1645 4b3f f33f 5fbe 92e3 843f
00000120: 1a50 81bf 8384 043e 7506 19bd f44f 923e
00000130: 0e0b 47be 581c 14bf 5638 56bf 5270 abbf
00000140: 0bdb 8ebf 19f6 b0be 4064 463e 40e1 8dbc
00000150: 1077 26be ba9c a73e 51f1 4cbd 543e 6c3c
00000160: b9c1 5e3e 0cbb 4c3e d45a 63c0 7b2d 4dbe
00000170: 48fd e6be b273 8abf bf94 44bf cd56 643f
00000180: b2e4 20bf 8632 bcbf 3de8 b7bf 797c aebf
00000190: ce0f febe a1f0 0040 8e1a 9b40 3c5c e33f
000001a0: 32e4 a3bd dfdc b9be 7929 b0bd fb07 923f
000001b0: d333 8ac0 2d65 22bf a6d4 bbbe ab3b ce3e
000001c0: 879f 853f 72b6 b2bf e249 b1bf 191d c2bf
000001d0: b482 43c0 939a 7bbe 05fd 2dbf 8cec 22bf
000001e0: 48c0 903e e6d0 313f e0d1 583e c891 943f
000001f0: a586 0bbe 81ed 903f e5e1 13c1 926d 323e
00000200: a1ad d23d 500d d13d 7517 bf3e cad3 923d
00000210: 4dd6 4fbe 9ce5 e1bd eb7c f73f f65b 0dc0
00000220: 1b9d b83e 6a8b 51be d3eb b0bd 9256 bb3e
00000230: 01b4 4f3d 875d cfbe 3f2f cb3b f1b2 ee3e
00000240: a346 6bc0 98a6 773e 90f8 ea3d 4878 6b40
00000250: b16b debd b269 d03e 7f97 183f 66e8 51bf
00000260: 7458 1bc0 62c8 e4bf cef5 85bd f752 8cbf
00000270: 7537 c43f e286 6abe 7b26 953e d460 293f
00000280: f3e4 52be c954 fd3d fefe 08c1 17ba 103f
00000290: 593a 8dbe 6b26 18c0 2bad e3be 75d0 ff3c
000002a0: fe58 8c3e ef73 bebf 8cdc 743f 9f6e 7c3e
000002b0: 297e 00be 6364 873e cea1 88bd 92aa 833e
000002c0: eca1 6f3d dccb b53d 353b 4dbe 8771 a83e
000002d0: afde 253f ab47 ba3e 46e7 163f f091 9d3e
000002e0: ba69 663e 655d 42c0 ded7 d53f d3bc 44c0
000002f0: 8d80 08bf 3e45 6e3e 7448 eb3e 2013 b0be
00000300: f3ac 983d b870 a0c0 6d75 c7be f14e 303f
00000310: 63ed a33d 018e abbf a40f 8dc0 b8b0 9cbe
00000320: e524 d9be f395 563e 117e 2b3f 0347 11bf
00000330: 4b86 403f c865 04bf 8180 82c0 3340 1ac0
00000340: 95ac 96be 65b0 13bf 9e09 af3f f75c 3b3e
00000350: a179 8e3e 7f46 163e e3bb d2bc d181 36be
00000360: 7bcd 0cc1 7adb a03c 12fe 633e 8bc0 3740
00000370: c54e 8c3e 3aed 57bd eba4 b73d 2ab3 9dbf
00000380: 2505 8f3f da7c ad3d b954 353e f2ae c03e
00000390: 3f4f 9bbb a656 9cbe 0f26 bfbc 7885 033e
000003a0: e000 8e3d 5fe1 a43e 9587 37c0 5d46 19bf
000003b0: 4ad7 aa3f 6dd1 20be 3c2d 10bd 6bc1 5dbd
000003c0: dc3d ddbf 2d13 a9bf fe12 323f d685 b9c0
000003d0: d6f9 533f 7c71 d2bf 517c 1ebe 8b49 eabe
000003e0: 2ed8 3a3e ca10 b93e 0061 f13d 5db4 19bf
000003f0: f790 793f 9f8d e83f 1d00 143e 0d09 2a3d

conv1.mlp.0.bias f4 [64]
-2.3108118 -1.2079676 -1.4369966 0.430328 -1.3967384 -0.929848 -1.5677842 -0.51886964
-0.9962621 -2.0158913 -2.869344 -0.24507715 -1.6434752 -1.5664363 -1.3931273 -3.9359272
-2.454028 -0.74139494 -1.4266549 -1.8134687 -0.8768951 -2.4274437 -0.55196935 -1.832279
0.5376268 -0.5096416 -2.115286 0.027270334 -2.4192488 -2.9584515 -1.2766402 -1.8356752
-0.106076546 -1.4118284 -1.6118926 -1.440078 -3.0001566 -0.37476957 -2.8004446 -1.5353305
0.798838 -0.18905434 -2.017597 0.49261597 -1.1812181 -2.1858487 -1.808492 -1.2568645
-1.441595 -1.8695163 -0.82783455 -1.9774318 -0.43695265 0.08472745 -0.8261655 -0.9206292
-3.024208 -1.0149527 -1.0212384 0.48691523 -2.3946204 -1.5101354 -2.2929082 -2.380506
00000000: 57e4 13c0 af9e 9abf 81ef b7bf f453 dc3e
00000010: 53c8 b2bf 850a 6ebf 27ad c8bf a4d4 04bf
00000020: 080b 7fbf 5d04 01c0 55a3 37c0 81f5 7abe
00000030: 655d d2bf fc80 c8bf ff51 b2bf 3be6 7bc0
00000040: cb0e 1dc0 0fcc 3dbf a19c b6bf be1f e8bf
00000050: 337c 60bf 3d5b 1bc0 dd4d 0dbf 1e88 eabf
00000060: e9a1 093f df77 02bf d960 07c0 0966 df3c
00000070: f9d4 1ac0 4557 3dc0 f268 a3bf 68f7 eabf
00000080: a93e d9bd cbb6 b4bf 7f52 cebf 7a54 b8bf
00000090: 9102 40c0 cce1 bfbe 7c3a 33c0 b685 c4bf
000000a0: a680 4c3f 7697 41be 4f20 01c0 2938 fc3e
000000b0: 2832 97bf f2e4 0bc0 aa7c e7bf f0e0 a0bf
000000c0: 2f86 b8bf 4f4c efbf f7ec 53bf 7c1c fdbf
000000d0: 42b8 dfbe 9685 ad3d 957f 53bf 5bae 6bbf
000000e0: a08c 41c0 f8e9 81bf f1b7 82bf f44c f93e
000000f0: 7641 19c0 1e4c c1bf 02bf 12c0 365a 18c0

conv1.mlp.2.weight f4 [64]
2.1081812 2.593773 2.8791718 2.5449402 0.88643783 2.9811566 2.3724132 2.28822
2.7715256 1.6104423 2.6723738 2.903663 1.6528956 3.9475644 3.2118824 1.5492615
3.039604 3.1439056 1.3240994 1.107136 3.3773186 0.8569414 2.1244621 1.6119376
2.4184432 2.765164 1.0762407 2.94015 2.4197135 2.7194653 3.3410385 1.2000195
1.5503161 1.2195464 2.7147908 2.9847028 -2.8885 2.9632282 1.6141783 3.3773437
2.5506608 3.47809 0.9362398 2.5640469 2.4719174 1.8904879 2.2252324 3.37905
1.0926197 1.2497504 1.478392 1.8255272 2.8963568 2.6983116 3.0659406 2.7318277
1.6097407 3.190705 2.337269 3.2518349 1.912414 1.8059807 1.0331147 2.0445907
00000000: 71ec 0640 6000 2640 5a44 3840 4de0 2240
00000010: 97ed 623f 45cb 3e40 9ed5 1740 3272 1240
00000020: ad60 3140 f922 ce3f 2c08 2b40 9dd5 3940
00000030: 1592 d33f e5a4 7c40 7b8f 4d40 334e c63f
00000040: df88 4240 c035 4940 177c a93f a2b6 8d3f
00000050: fd25 5840 8360 5b3f 30f7 0740 f953 ce3f
00000060: c6c7 1a40 72f8 3040 41c2 893f 6b2b 3c40
00000070: 96dc 1a40 b80b 2e40 93d3 5540 3d9a 993f
00000080: c270 c63f 191a 9c3f 22bf 2d40 5f05 3f40
00000090: 2fdd 38c0 88a5 3d40 659d ce3f 6626 5840
000000a0: 073e 2340 0799 5e40 69ad 6f3f 5819 2440
000000b0: e533 1e40 82fb f13f 356a 0e40 5b42 5840
000000c0: f6da 8b3f d2f7 9f3f f33b bd3f e0aa e93f
000000d0: e95d 3940 23b1 2c40 5f38 4440 44d6 2e40
000000e0: fc0b ce3f 8334 4c40 d195 1540 101e 5040
000000f0: fbc9 f43f 602a e73f 1a3d 843f 93da 0240

conv1.mlp.2.bias f4 [64]
-0.0818573 0.15756734 0.61127895 -0.05105917 -0.30901632 0.9345634 0.81871015 -0.23903453
-0.3613186 -1.3985217 0.07456642 -0.07994676 -1.6232074 0.87799305 0.39489153 -0.16640747
0.051936407 1.025393 0.6350197 0.22839408 0.06000278 0.04717403 -0.53099024 -0.19571593
-0.3208409 0.5005792 0.20220158 1.0079075 -0.2640584 -0.006332234 1.2169104 -0.27760473
-0.1539464 -0.38831016 -1.0811558 0.73968196 -0.5495242 0.9967559 -0.03868447 1.257189
0.47773972 1.1656808 -0.6004287 -0.29795945 0.5138731 0.0721892 -0.1481109 1.0435692
0.1345375 -0.7198178 -0.13120376 -0.98705816 0.8920135 1.0594715 0.73272485 0.71993625
-0.43561098 1.1877186 -0.12349776 1.1910957 -0.16414846 0.20543455 0.10973559 -0.35018754
00000000: cda4 a7bd 5559 213e c77c 1c3f 6c23 51bd
00000010: 6337 9ebe 8c3f 6f3f fd96 513f 78c5 74be
00000020: c0fe b8be c202 b3bf 47b6 983d 20bb a3bd
00000030: 43c5 cfbf 27c4 603f 392f ca3e b866 2abe
00000040: 45bb 543d 1440 833f a790 223f 23e0 693e
00000050: 7ac5 753d 8e39 413d faee 07bf c269 48be
00000060: 4245 a4be f525 003f ee0d 4f3e 1d03 813f
00000070: aa32 87be a17e cfbb b8c3 9b3f 3522 8ebe
00000080: 20a4 1dbe 97d0 c6be 5063 8abf cc5b 3d3f
00000090: 9ead 0cbf 652b 7f3f 9b73 1ebd 92eb a03f
000000a0: 4d9a f43e 0735 953f b2b5 19bf 248e 98be
000000b0: 308d 033f eed7 933d 62aa 17be ad93 853f
000000c0: 33c4 093e fb45 38bf 475a 06be d8af 7cbf
000000d0: ff5a 643f c39c 873f db93 3b3f be4d 383f
000000e0: 6708 dfbe 2a07 983f 65ec fcbd d375 983f
000000f0: 8916 28be 6f5d 523e 0ebd e03d c84b b3be

conv1.mlp.2.running_mean f4 [64]
0.58507496 0.112566106 0.050403524 2.5390923 6e-45 1.261239 0.05516666 0.20576227
0.19178194 0.026017882 0.09016684 0.4111446 0.09297534 0.44563976 0.19749583 0.079206005
0.13323034 1.0592784 0.03144753 6e-45 0.2280571 6e-45 0.7480919 1.698478e-22
0.23439819 1.332318 6e-45 1.5077839 0.07230018 0.062083777 1.05838 0.048769917
0.4474261 6e-45 0.06503339 0.08656527 0.26806146 0.45817006 0.117236406 0.65966237
2.8331585 0.8024821 6e-45 0.24946193 0.51160246 0.0025285135 0.69265807 0.7364819
6e-45 6e-45 0.7026046 0.012154827 1.9106133 1.0536922 0.5205342 0.5778224
0.06196926 0.9281532 0.26634526 1.3159884 0.65556544 0.011337495 6e-45 0.7094214
00000000: 79c7 153f 0f89 e63d ed73 4e3d 7d80 2240
00000010: 0400 0000 4870 a13f 70f6 613d 58b3 523e
00000020: 7c62 443e 7423 d53c 64a9 b83d 8c81 d23e
00000030: db69 be3d e52a e43e 593c 4a3e c236 a23d
00000040: 896d 083e 6f96 873f 20cf 003d 0400 0000
00000050: cd87 693e 0400 0000 f382 3f3f 5955 4d1b
00000060: 1406 703e 6589 aa3f 0400 0000 10ff c03f
00000070: 1e12 943d 8f4b 7e3d ff78 873f f7c2 473d
00000080: 0915 e53e 0400 0000 3a30 853d 2249 b13d
00000090: 5a3f 893e 4495 ea3e a419 f03d a2df 283f
000000a0: 7852 3540 786f 4d3f 0400 0000 f372 7f3e
000000b0: 61f8 023f 6bb5 253b 0a52 313f 148a 3c3f
000000c0: 0400 0000 0400 0000 e5dd 333f 0a25 473c
000000d0: fa8e f43f 63df 863f bb41 053f 2bec 133f
000000e0: 7bd3 7d3d 739b 6d3f 685e 883e 4f72 a83f
000000f0: 23d3 273f e7c0 393c 0400 0000 a49c 353f

conv1.mlp.2.running_var f4 [64]
1.6873728 0.22289939 0.07844061 6.1764956 6e-45 5.653592 0.08579115 0.28272775
0.24547042 0.01676876 0.21704103 0.65919787 0.08432206 1.4729427 0.47132275 0.14106177
0.29345733 4.7210903 0.030560343 6e-45 0.3166572 6e-45 1.5836694 1.2656471e-24
0.11768598 4.813821 6e-45 5.776643 0.15188792 0.1060275 4.195482 0.08154147
0.7985976 6e-45 0.06269014 0.11820667 0.6270262 0.6839729 0.16471884 2.3352602
6.7621417 2.325254 6e-45 0.21090485 1.0900221 0.0028264176 1.2788502 2.4119854
6e-45 6e-45 1.4774839 0.0064229737 11.074021 2.9270875 1.807024 1.5280385
0.08732875 3.258323 0.40865654 3.8157284 2.0297623 0.016600678 6e-45 2.0538256
00000000: d5fb d73f bd3f 643e 78a5 a03d daa5 c540
00000010: 0400 0000 3aea b440 45b3 af3d b1c1 903e
00000020: 995c 7b3e a35e 893c 0140 5e3e 31c1 283f
00000030: 0bb1 ac3d 6389 bc3f 3751 f13e 7f72 103e
00000040: 0a40 963e 2c13 9740 af59 fa3c 0400 0000
00000050: e420 a23e 0400 0000 aeb5 ca3f 72d9 c317
00000060: 5905 f13d d20a 9a40 0400 0000 42da b840
00000070: 8288 1b3e f224 d93d 6341 8640 37ff a63d
00000080: e470 4c3f 0400 0000 b063 803d 5716 f23d
00000090: ca84 203f d918 2f3f 0eac 283e e774 1540
000000a0: 7763 d840 f6d0 1440 0400 0000 71f7 573e
000000b0: d885 8b3f 6b3b 393b 5db1 a33f f85d 1a40
000000c0: 0400 0000 0400 0000 311e bd3f cf77 d23b
000000d0: 312f 3141 6755 3b40 904c e73f c496 c33f
000000e0: 6ad9 b23d 5d88 5040 6e3b d13e e534 7440
000000f0: a0e7 0140 25fe 873c 0400 0000 e171 0340

conv1.mlp.4.weight f4 [64, 64]
-2.414936 0.20591491 -1.4726528 1.1244216 1.2688459 -1.3875419 -0.6654838 -2.6428225
-0.14280006 -0.05256174 0.89342433 -1.6451474 -0.6607356 -0.26913694 -1.2746967 -1.7629299
0.9978636 1.7182403 0.87515056 -0.19446824 -1.8136078 1.4205105 -2.6917617 1.331243
0.655784 -1.5776814 -0.28301215 -1.0969952 1.2607627 2.3930588 -1.2962822 -1.282917
-1.9100958 0.4189553 -1.6807415 -0.6318464 2.258565 -1.6836798 -0.32668072 0.026937244
1.3815522 -3.33054 0.3016219 -0.8617656 -0.42899874 -2.543099 1.2529851 -2.3643553
-1.7358246 1.2246629 -1.6265672 -0.22016159 -3.5591261 -5.2742066 0.6604165 -2.6101213
-0.9423566 -3.1609251 0.23184364 -0.48324594 -2.6531346 -0.4513025 -1.4965963 -2.6640255
0.048872262 -0.29055315 -0.60380423 -0.1319797 -0.122840025 -1.4653369 -0.0034301693 -0.7760008
-1.1358125 -1.7424057 0.96584564 -2.409439 -1.2834277 1.5325105 -1.164789 -3.036613
1.3358693 -0.04532956 1.5194274 -1.0414003 -3.572096 0.8208675 -0.56683487 -0.9593997
-1.276304 -1.9541459 0.17158262 -1.349858 1.1341773 1.0154724 -1.7078265 -0.44521967
0.5939441 -0.045331635 -1.0624422 -0.8005724 1.1906726 -3.1862655 -0.56444365 0.028987419
0.77558315 -4.463829 -2.768205 -0.6434382 -2.5646377 -2.6431062 -0.053541377 -2.6267989
-0.052708846 -0.20785844 -1.4864202 -1.7611636 -4.015807 -4.429287 -0.94102836 -4.1654587
1.3846279 -2.3657122 0.013451564 -0.86075014 -1.088846 -0.40594652 -1.5151297 0.33802348
1.8790854 -0.7428797 0.7173032 -1.0868589 -0.5167583 2.0097747 1.1446841 1.7309135
0.14224416 2.1464796 0.28233737 2.352343 2.571615 -0.24511907 -1.9585874 1.5463938
-1.5321223 -2.9941373 -0.9710847 -0.75694585 0.570678 0.38808608 0.042991176 2.564919
0.01454188 1.8726656 0.16285251 1.4006791 -1.4633597 1.4992733 1.3394936 -0.5225811
1.9405663 0.16208182 1.6161987 -0.008919432 -1.006025 -0.09248413 -0.61354446 -0.29586408
-1.4464593 2.4483562 1.4990686 -0.07397904 -0.6151501 -1.7029256 -1.0573224 1.0456408
1.0412729 2.0079896 -0.044051833 2.3281891 0.8612661 1.0527889 3.0787666 3.7798183
-1.4075338 1.1138514 -0.45007586 -0.6691219 2.8417964 1.0066738 0.75295675 1.1926044
-0.8466631 0.66402537 0.4279972 0.4455126 -0.49500057 1.3270835 -0.6146056 -3.0903525
-2.6682165 -0.66944665 0.66940236 -1.0815989 -0.9604202 -1.7799537 0.49487633 -1.2652174
0.57191974 -0.2845252 -0.28703117 1.0750707 1.6112243 -0.22848737 -3.2243044 -0.9977965
-3.714681 0.73425436 -1.3617073 3.2280777 -0.19637701 -0.7349838 3.6400728 -0.5369279
-2.761854 -0.057770282 0.4513895 -0.71019363 0.29216605 -2.373492 -0.6029722 -1.2712561
0.19117321 0.30769518 -0.120592624 -1.1026605 0.37885398 -0.14179109 0.50598556 0.9506006
0.072709315 -0.4329227 -0.49563083 -1.7153335 2.1700375 -0.51856214 -1.9188455 -0.26777387
-0.89567167 1.8259702 -2.500575 1.5924913 -0.6658677 1.5575205 0.36156872 -1.5036634
00000000: 508e 1ac0 5cdb 523e e37f bcbf 0ced 8f3f
00000010: 8b69 a23f f99a b1bf 255d 2abf 0124 29c0
00000020: 2e3a 12be fb4a 57bd 75b7 643f 3194 d2bf
00000030: f825 29bf 51cc 89be 4329 a3bf b0a7 e1bf
00000040: fd73 7f3f 4cef db3f de09 603f af22 47be
00000050: 4d24 e8bf 4ad3 b53f d345 2cc0 2c66 aa3f
00000060: 76e1 273f 77f1 c9bf f8e6 90be 576a 8cbf
00000070: ac60 a13f e027 1940 93ec a5bf a036 a4bf
00000080: 057e f4bf 4f81 d63e 8a22 d7bf b0c0 21bf
00000090: 548c 1040 d282 d7bf b242 a7be 7fab dc3c
000000a0: b4d6 b03f 9127 55c0 306e 9a3e ac9c 5cbf
000000b0: b9a5 dbbe 22c2 22c0 d161 a03f 9951 17c0
000000c0: 802f debf c1c1 9c3f 5b33 d0bf 0a72 61be
000000d0: b9c8 63c0 4dc6 a8c0 0e11 293f 3a0c 27c0
000000e0: 483e 71bf 994c 4ac0 6b68 6d3e 036c f7be
000000f0: f5cc 29c0 1f11 e7be 7890 bfbf 657f 2ac0
00000100: 482e 483d 62c3 94be ea92 1abf b025 07be
00000110: 8d93 fbbd 2990 bbbf b1cc 60bb fda7 46bf
00000120: 4e62 91bf 2607 dfbf a941 773f 4034 1ac0
00000130: 5c47 a4bf 4e29 c43f ce17 95bf de57 42c0
00000140: c4fd aa3f 7dab 39bd 997c c23f 9b4c 85bf
00000150: 399d 64c0 5f24 523f 171c 11bf 389b 75bf
00000160: ee5d a3bf 7421 fabf 5bb3 2f3e 26c8 acbf
00000170: b92c 913f 00fb 813f 0f9a dabf d5f3 e3be
00000180: b80c 183f aaad 39bd 1bfe 87bf 50f2 4cbf
00000190: f667 983f c6eb 4bc0 617f 10bf 0677 ed3c
000001a0: 9e8c 463f b0d7 8ec0 452a 31c0 5eb8 24bf
000001b0: 0623 24c0 a728 29c0 344e 5bbd 791d 28c0
000001c0: 3be5 57bd d8d8 54be 0443 bebf cf6d e1bf
000001d0: 7e81 80c0 b8bc 8dc0 3ce7 70bf 704b 85c0
000001e0: 7d3b b13f d467 17c0 f363 5c3c 1f5a 5cbf
000001f0: 4e5f 8bbf 39d8 cfbe c5ef c1bf 6a11 ad3e
00000200: df85 f03f 5d2d 3ebf 2fa1 373f 311e 8bbf
00000210: 464a 04bf 26a0 0040 0285 923f 938e dd3f
00000220: 74a8 113e ec5f 0940 868e 903e ca8c 1640
00000230: 5795 2440 7e00 7bbe feb2 fabf 3bf0 c53f
00000240: 951c c4bf f29f 3fc0 0299 78bf 34c7 41bf
00000250: f417 123f 38b3 c63e 8417 303d a227 2440
00000260: 1141 6e3c 82b3 ef3f cfc2 263e 7449 b33f
00000270: 5f4f bbbf 30e8 bf3f 8774 ab3f e0c7 05bf
00000280: 7a64 f83f c7f8 253e 99df ce3f cf22 12bc
00000290: 6dc5 80bf 5268 bdbd 4011 1dbf 7f7b 97be
000002a0: 9425 b9bf deb1 1c40 7be1 bf3f 5382 97bd
000002b0: 7a7a 1dbf 77f9 d9bf 5756 87bf 8fd7 853f
000002c0: 6e48 853f e782 0040 b26f 34bd 0d01 1540
000002d0: ef7b 5c3f c9c1 863f 830a 4540 8be8 7140
000002e0: 112a b4bf af92 8e3f 5870 e6be 934b 2bbf
000002f0: fedf 3540 b0da 803f c6c1 403f 43a7 983f
00000300: eabe 58bf 91fd 293f 7322 db3e 3a1a e43e
00000310: b770 fdbe dfdd a93f cb56 1dbf 56c8 45c0
00000320: 0fc4 2ac0 db60 2bbf f45d 2b3f d571 8abf
00000330: 19de 75bf 86d5 e3bf 6e60 fd3e a5f2 a1bf
00000340: 5569 123f 49ad 91be c0f5 92be eb9b 893f
00000350: 993c ce3f 98f8 69be 015b 4ec0 976f 7fbf
00000360: 55bd 6dc0 18f8 3b3f 6d4c aebf d398 4e40
00000370: 0e17 49be e627 3cbf f4f6 6840 1b74 09bf
00000380: 37c2 30c0 88a0 6cbd 861c e73e 40cf 35bf
00000390: ca96 953e 4be7 17c0 635c 1abf 85b8 a2bf
000003a0: e9c2 433e 398a 9d3e 44f9 f6bd fb23 8dbf
000003b0: 26f9 c13e af31 11be 4588 013f 905a 733f
000003c0: 9fe8 943d 0ba8 ddbe 53c3 fdbe 0c90 dbbf
000003d0: e5e1 0a40 7dc0 04bf bb9c f5bf a819 89be
000003e0: bd4a 65bf 64b9 e93f 6c09 20c0 c1d6 cb3f
000003f0: 4e76 2abf d55c c73f 891f b93e 0b78 c0bf

conv1.mlp.4.bias f4 [64]
-2.5074215 1.9383757 -2.8084342 1.8182836 -1.7768148 -3.2473977 2.9874823 -2.5063832
0.7372839 0.25141823 2.4741814 0.15299194 2.1797767 -2.944876 1.3201935 -2.0491357
-3.6707933 3.4179282 -0.18956123 -3.0131898 2.18964 2.2582908 0.9161594 -6.4015574
-1.689165 3.2548015 -3.4511364 -2.7087138 2.2957587 0.105848044 0.35866454 -5.550175
-4.27358 -1.2894572 -2.019806 -1.6814859 2.0064595 -4.6192136 -0.37723452 -1.1950872
-4.703154 -4.4756866 -4.760039 3.2233152 -2.6061072 -3.1912777 0.16388454 -1.5939798
-3.0171118 0.32384664 -0.8364872 -1.2770935 2.663258 0.6458874 3.929549 -1.2916216
-4.1265054 1.0246092 -1.8519447 0.5901973 -6.120488 -1.6175629 -4.04445 0.25594166
00000000: 9879 20c0 b21c f83f 63bd 33c0 84bd e83f
00000010: ab6e e3bf 5dd5 4fc0 e932 3f40 9568 20c0
00000020: a3be 3c3f e4b9 803e fd58 1e40 eba9 1c3e
00000030: 7681 0b40 d978 3cc0 1afc a83f 0a25 03c0
00000040: 47ee 6ac0 56bf 5a40 571c 42be 1ad8 40c0
00000050: 1023 0c40 d687 1040 6c89 6a3f 8fd9 ccc0
00000060: 8f36 d8bf ab4e 5040 6bdf 5cc0 915b 2dc0
00000070: b6ed 1240 dcc6 d83d e1a2 b73e 099b b1c0
00000080: 2bc1 88c0 ef0c a5bf 8044 01c0 ee3a d7bf
00000090: d569 0040 99d0 93c0 e224 c1be 9ef8 98bf
000000a0: 3d80 96c0 d338 8fc0 3d52 98c0 cc4a 4e40
000000b0: 76ca 26c0 e53d 4cc0 59d1 273e 8807 ccbf
000000c0: 5c18 41c0 3acf a53e 0624 56bf cd77 a3bf
000000d0: d272 2a40 e058 253f bb7d 7b40 db53 a5bf
000000e0: 550c 84c0 6526 833f 860c edbf 2c17 173f
000000f0: 0adb c3c0 4d0c cfbf 226c 81c0 c90a 833e

conv1.mlp.6.weight f4 [64]
2.758515 2.6510954 2.3587122 2.9928703 2.6908627 2.4975076 3.6179857 1.6208344
2.465515 2.866191 1.9394863 1.9088715 1.9464324 2.4294932 2.3118353 1.859179
2.1636238 2.2246678 2.1380665 2.53859 -2.2402594 3.0423913 2.0555143 2.1777892
2.321137 2.278324 2.9887373 2.2685063 2.4907508 2.3329005 2.031309 2.386312
2.5341153 3.2944243 2.7294412 3.216945 2.0811367 1.8246092 2.322692 2.5979552
3.0249732 1.647184 2.388898 3.0346303 2.7817166 2.1474004 2.2425535 4.306818
1.7056388 2.2739127 2.4538949 3.2607934 2.1248348 1.782971 2.3401206 2.1391127
1.9070795 3.2645245 -2.3731582 2.4738553 2.377293 -2.580794 2.6353948 2.9185183
00000000: 828b 3040 8cab 2940 24f5 1640 308b 3f40
00000010: 1837 2c40 2ad7 1f40 148d 6740 8077 cf3f
00000020: ffca 1d40 ac6f 3740 1641 f83f e755 f43f
00000030: b224 f93f d17c 1b40 1cf5 1340 94f9 ed3f
00000040: d078 0a40 f560 0e40 15d6 0840 4278 2240
00000050: 6960 0fc0 8ab6 4240 8c8d 0340 e660 0b40
00000060: 828d 1440 0fd0 1140 7947 3f40 352f 1140
00000070: 7668 1f40 3e4e 1540 f700 0240 56b9 1840
00000080: f22e 2240 d9d7 5240 2aaf 2e40 6de2 4d40
00000090: 5831 0540 cb8c e93f fca6 1440 e644 2640
000000a0: 2999 4140 edd6 d23f b4e3 1840 6237 4240
000000b0: a507 3240 026f 0940 ff85 0f40 74d1 8940
000000c0: 5f52 da3f c987 1140 9d0c 1d40 d7b0 5040
000000d0: 4bfd 0740 6538 e43f 89c4 1540 39e7 0840
000000e0: 2e1b f43f f8ed 5040 d3e1 17c0 a553 1e40
000000f0: 9225 1840 bb2b 25c0 4faa 2840 01c9 3a40

conv1.mlp.6.bias f4 [64]
-0.15582974 0.10358742 0.616705 1.5020299 0.69328153 -0.22597586 1.2529801 -1.2722532
-0.22169961 0.29682723 -0.28971004 -0.7494353 0.40786153 0.0029730364 0.009412305 -0.7428162
-0.6270774 0.15943587 0.61192477 0.22426733 -0.40664044 0.81739736 -1.4313135 0.8901734
-1.7172483 0.880711 0.73857874 -2.172242 0.14652753 -0.08952478 -0.407554 -0.7117159
-0.3100556 1.0553269 0.56754506 -0.361195 -0.13973638 -0.9594604 -2.0080967 -0.23633873
-0.6006322 -0.82836056 -0.3462049 0.62087506 -0.05896712 -1.4632266 -0.69985116 0.9324522
-1.1904277 -1.1459934 0.3069483 1.3588867 -1.1293823 -0.40524992 0.6034986 -1.4358752
-0.95128566 0.5254483 -0.44229156 -0.21999131 -0.6597639 -0.22465199 -0.52545154 0.8793544
00000000: d591 1fbe a425 d43d 61e0 1d3f 8442 c03f
00000010: e67a 313f 3766 67be a761 a03f 31d9 a2bf
00000020: 3905 63be bdf9 973e e054 94be feda 3fbf
00000030: 3ad3 d03e 46d7 423b 1236 1a3c 3429 3ebf
00000040: 2588 20bf 2843 233e 1aa7 1c3f 56a6 653e
00000050: 2d33 d0be f440 513f 4835 b7bf 67e2 633f
00000060: cbce dbbf 4776 613f 7f13 3d3f 0306 0bc0
00000070: 500b 163e c558 b7bd ebaa d0be 0333 36bf
00000080: 9cbf 9ebe f414 873f a24a 113f 8dee b8be
00000090: 0e17 0fbe 329f 75bf a884 00c0 c802 72be
000000a0: 08c3 19bf 700f 54bf c541 b1be abf1 1e3f
000000b0: 8287 71bd 024b bbbf 7229 33bf 30b5 6e3f
000000c0: ef5f 98bf e9af 92bf 5428 9d3e 00f0 ad3f
000000d0: 998f 90bf eb7c cfbe e27e 1a3f c2ca b7bf
000000e0: 7587 73bf c883 063f 0a74 e2be 6745 61be
000000f0: 49e6 28bf 2c0b 66be fe83 06bf 5f1d 613f

conv1.mlp.6.running_mean f4 [64]
13.380652 17.537313 18.869928 30.420752 21.76286 8.088648 38.836617 5.317017
14.749473 18.805387 13.795629 14.528576 20.632805 20.555307 26.64588 6.905232
8.950551 15.804291 23.664755 10.932892 23.928127 40.317875 8.437911 6.352424
6.475044 22.234118 13.150352 6.903475 20.65417 16.774878 26.300001 4.0908866
7.8678694 27.577936 18.784992 12.257575 27.53883 3.7639914 8.985214 19.436815
12.65374 6.052899 6.450915 23.02408 10.709726 6.0582337 10.139316 35.08043
8.919032 10.107256 17.975773 38.66584 9.999997 8.359835 21.120564 9.6578245
7.1374097 30.881487 5.316376 9.541833 3.974433 18.383877 9.355901 36.05683
00000000: 2717 5641 6b4c 8c41 9df5 9641 b35d f341
00000010: 561a ae41 1a6b 0141 b258 1b42 0125 aa40
00000020: d7fd 6b41 6f71 9641 e5ba 5c41 0c75 6841
00000030: fc0f a541 4571 a441 c32a d541 a9f7 dc40
00000040: 7535 0f41 60de 7c41 6b51 bd41 20ed 2e41
00000050: ce6c bf41 8145 2142 af01 0741 0f47 cb40
00000060: 8f33 cf40 79df b141 d767 5241 44e9 dc40
00000070: bd3b a541 f332 8641 6766 d241 8be8 8240
00000080: 96c5 fb40 9d9f dc41 aa47 9641 071f 4441
00000090: 864f dc41 3ce5 7040 70c3 0f41 997e 9b41
000000a0: b875 4a41 59b1 c140 e56d ce40 5131 b841
000000b0: 0a5b 2b41 0ddd c140 a33a 2241 5c52 0c42
000000c0: 5bb4 0e41 52b7 2141 62ce 8f41 d2a9 1a42
000000d0: fdff 1f41 e2c1 0541 eaf6 a841 7386 1a41
000000e0: a965 e440 490d f741 c11f aa40 59ab 1841
000000f0: 1c5d 7e40 2e12 9341 c5b1 1541 323a 1042

conv1.mlp.6.running_var f4 [64]
473.96674 534.28174 1166.948 1188.4801 1268.394 363.05197 1231.171 197.12607
532.3863 1102.0425 424.40762 532.0797 631.8042 1008.3859 1358.2297 260.77008
254.98563 429.74176 783.5347 684.2352 809.15 2047.0878 224.64644 291.07822
284.0584 656.2415 753.5722 203.44788 816.0303 873.16614 856.8712 188.3519
209.98723 1680.2372 804.65234 953.76337 961.31506 147.79916 310.73102 866.674
721.23883 220.63712 204.31366 739.14905 620.2118 229.84468 426.22525 3212.7686
407.33347 345.9383 1193.0896 3225.4355 329.9188 346.92587 622.99164 327.5836
267.8191 1124.7048 193.96275 325.07614 174.67108 599.93604 336.05038 2567.3547
00000000: befb ec43 0892 0544 56de 9144 5d8f 9444
00000010: 9c8c 9e44 a786 b543 79e5 9944 4620 4543
00000020: b918 0544 5cc1 8944 2d34 d443 1a05 0544
00000030: 78f3 1d44 b318 7c44 5ac7 a944 9262 8243
00000040: 52fc 7e43 f2de d643 39e2 4344 0e0f 2b44
00000050: 9a49 4a44 cfe2 ff44 7da5 6043 038a 9143
00000060: 7a07 8e43 750f 2444 9f64 3c44 a872 4b43
00000070: f001 4c44 a24a 5a44 c237 5644 165a 3c43
00000080: bbfc 5143 9707 d244 c029 4944 db70 6e44
00000090: 2a54 7044 96cc 1343 925d 9b43 23ab 5844
000000a0: 494f 3444 1aa3 5c43 4c50 4c43 8ac9 3844
000000b0: 8e0d 1b44 3dd8 6543 d51c d543 4ccc 4845
000000c0: afaa cb43 1af8 ac43 de22 9544 f896 4945
000000d0: 9bf5 a443 8376 ad43 77bf 1b44 b3ca a343
000000e0: d8e8 8543 8e96 8c44 77f6 4143 bf89 a243
000000f0: ccab 2e43 e8fb 1544 7306 a843 ad75 2045

conv1.mlp.8.weight f4 [64, 64]
-2.1690302 1.625063 0.97754043 -4.743522 -0.8462918 0.33586997 -2.0109367 -0.4418522
0.42022154 0.8959738 0.7365783 1.2605321 1.9463975 1.4201438 0.4465094 -0.87010777
-0.8165044 -0.39008123 -2.256528 1.3290347 -0.6605992 0.60789347 0.9998351 1.7292755
-0.64001685 -1.998982 0.5541447 1.6896917 -0.41997644 -0.5837262 -0.22010244 -0.9166251
-1.4004716 -1.9503529 -0.6091746 -1.3096948 -0.78325397 0.9285605 3.5787444 -0.4414447
-0.45662728 0.62677556 -2.3876002 2.7998421 -2.3871398 1.4046353 0.42287302 1.1087565
-0.56403965 1.8868563 0.95546484 1.6203628 1.2751447 -2.3517072 -0.4190873 2.8612266
2.7652318 -4.551297 1.8303707 0.6261669 -1.2098534 -1.1015841 0.8623357 -0.94314855
0.7367878 1.0925963 -2.8553586 0.5488334 -2.3049855 -1.6907601 -3.6404305 -0.15850967
-1.1250044 -0.9444717 0.9177622 2.4094005 0.8874684 0.9932484 -2.8804436 1.5128964
-1.8993567 -0.38081422 -2.7144756 -1.2158452 -0.012930298 -2.5654707 0.9320996 -1.0072312
-0.5263328 2.213792 2.2292206 -1.0196822 -1.5160793 -1.6622705 -1.6672062 0.90504277
0.026044281 -3.8684013 -0.9437209 -3.7199957 -1.5020378 -0.43885162 -0.55488324 -0.57665324
-2.0399616 0.92923015 1.8632358 0.88595194 -2.6309218 -0.07724739 0.4110387 -4.008958
0.28401056 -0.9592006 -1.3926924 -3.5734935 0.38909635 0.532176 0.3609897 -1.2535058
2.024455 -3.0511916 0.6259872 -0.69191873 0.15998317 -0.8677436 -2.0923371 -4.620294
0.7037396 -0.17158857 0.2123063 -1.2904005 0.2933249 -1.8369524 0.5715673 2.5442166
-4.0578017 -1.4199291 0.91224426 -2.649518 -3.1469798 -0.030667549 -2.6977654 1.0608289
1.3545777 0.8445036 -0.27189717 2.6683388 -0.8480991 -1.6371311 0.56292367 1.4479563
-0.24807723 -1.3990823 -0.450659 -0.062174078 -1.8991551 0.5198834 0.6002244 3.2907076
1.6414154 -1.2155253 1.1888202 1.1981697 -2.6110585 1.9060147 0.74461573 1.6015621
0.058465507 0.19178829 -0.71752787 -2.8293676 0.7109295 -1.4430294 0.5738436 -4.8129325
-3.9150329 0.116134666 -0.33588177 -3.5356162 -0.30161893 -0.1430417 -2.060981 -0.029226746
-1.1519893 -2.3520875 -1.5373217 0.07329542 2.2359357 -0.675164 -0.3687639 -0.3709235
-0.66918993 -1.8319772 -3.9111319 -1.7405688 -0.71892333 0.5846777 -2.2130547 0.21645351
0.85001063 -1.0717307 -1.5108663 -1.3165876 2.020056 -2.4718246 0.27354977 0.90085894
-2.1543715 -2.1521175 0.79906344 0.277379 1.4613258 0.28693166 1.4657004 -2.3891535
-0.5626957 0.19769791 -2.0703197 3.9028661 1.5775894 -1.6004544 3.4705672 2.2703154
0.2973115 0.50365406 -1.1595548 -1.3677506 -0.09918756 -0.54977494 -0.016384888 -2.0347605
-2.3630238 0.06808381 -0.47813705 -0.42761144 -1.8710246 -0.051755145 0.3048828 -1.4362832
-1.4624877 1.4838828 -1.8776537 -1.0844499 2.4045925 -1.3325512 -2.0325727 1.7015836
-1.0603708 -2.4129102 -0.7354164 1.034586 1.2268794 1.4444888 1.6516205 -1.6679722
00000000: 64d1 0ac0 1002 d03f 1740 7a3f efca 97c0
00000010: 94a6 58bf 26f7 ab3e 30b3 00c0 743a e2be
00000020: 4727 d73e 8a5e 653f 6590 3c3f 1e59 a13f
00000030: 8e23 f93f 46c7 b53f e19c e43e 62bf 5ebf
00000040: 6f06 51bf bab8 c7be f46a 10c0 cf1d aa3f
00000050: 071d 29bf e89e 1b3f 31f5 7f3f e658 dd3f
00000060: 25d8 23bf a4de ffbf 6ddc 0d3f d147 d83f
00000070: 2707 d7be 156f 15bf 8962 61be f1a7 6abf
00000080: a742 b3bf 2aa5 f9bf def2 1bbf 14a4 a7bf
00000090: 5583 48bf 24b6 6d3f 260a 6540 0a05 e2be
000000a0: 0dcb e9be 5d74 203f 71ce 18c0 9d30 3340
000000b0: e6c6 18c0 17cb b33f d082 d83e bceb 8d3f
000000c0: e764 10bf 8284 f13f 5899 743f 0c68 cf3f
000000d0: f137 a33f 5f82 16c0 9c92 d6be 561e 3740
000000e0: 8ff9 3040 3aa4 91c0 9649 ea3f 794c 203f
000000f0: 7adc 9abf b500 8dbf 08c2 5c3f 2f72 71bf
00000100: 209e 3c3f 32da 8b3f 32be 36c0 5880 0c3f
00000110: e284 13c0 d46a d8bf d0fc 68c0 5c50 22be
00000120: 2500 90bf e6c8 71bf 77f2 6a3f 9e33 1a40
00000130: 2131 633f 8745 7e3f 3059 38c0 97a6 c13f
00000140: 1f1e f3bf 15fa c2be f8b9 2dc0 d1a0 9bbf
00000150: 9ad9 53bc ac30 24c0 149e 6e3f f4ec 80bf
00000160: bfbd 06bf c5ae 0d40 8dab 0e40 f284 82bf
00000170: e30e c2bf 48c5 d4bf 0367 d5bf e2b0 673f
00000180: d15a d53c e393 77c0 b197 71bf 6914 6ec0
00000190: c642 c0bf 29b1 e0be d40c 0ebf 8c9f 13bf
000001a0: bb8e 02c0 07e2 6d3f 837e ee3f bfcd 623f
000001b0: 0661 28c0 e133 9ebd aa73 d23e 6249 80c0
000001c0: d569 913e 2c8e 75bf bf43 b2bf 1eb4 64c0
000001d0: a337 c73e b03c 083f a4d3 b83e e172 a0bf
000001e0: ac90 0140 b946 43c0 b240 203f 9621 31bf
000001f0: a1d2 233e 7224 5ebf dae8 05c0 73d9 93c0
00000200: 4728 343f eab4 2fbe d366 593e d82b a5bf
00000210: ae2e 963e 4221 ebbf 3c52 123f 72d4 2240
00000220: 83d9 81c0 3dc0 b5bf d788 693f b491 29c0
00000230: 1e68 49c0 833a fbbc 30a8 2cc0 3ec9 873f
00000240: cd62 ad3f 6331 583f 1b36 8bbe 10c6 2a40
00000250: 061d 59bf 838d d1bf c41b 103f a256 b93f
00000260: f507 7ebe 2115 b3bf c7bc e6be 3faa 7ebd
00000270: 8417 f3bf 1417 053f 4ea8 193f f49a 5240
00000280: e619 d23f 5596 9bbf 432b 983f a05d 993f
00000290: 951b 27c0 4af8 f33f 239f 3e3f fdff cc3f
000002a0: 8779 6f3d 2664 443e e8af 37bf 5c14 35c0
000002b0: 7aff 353f 30b5 b8bf 6ae7 123f 8b03 9ac0
000002c0: e68f 7ac0 03d8 ed3d b2f8 abbe 8947 62c0
000002d0: cc6d 9abe 8679 12be 1de7 03c0 ee6c efbc
000002e0: 6374 93bf 9a88 16c0 f5c6 c4bf e91b 963d
000002f0: 9219 0f40 8cd7 2cbf 9fce bcbe afe9 bdbe
00000300: 0850 2bbf 3b7e eabf fc4f 7ac0 f5ca debf
00000310: 5c0b 38bf 70ad 153f b0a2 0dc0 fda5 5d3e
00000320: 4c9a 593f 792e 89bf 1164 c1bf f185 a8bf
00000330: 9948 0140 6032 1ec0 b70e 8c3e b19e 663f
00000340: 39e1 09c0 4bbc 09c0 6c8f 4c3f 9f04 8e3e
00000350: b90c bb3f b5e8 923e 129c bb3f e4e7 18c0
00000360: d30c 10bf 5271 4a3e 1e80 04c0 8fc8 7940
00000370: 73ee c93f b1db ccbf c61d 5e40 d94c 1140
00000380: 3739 983e 79ef 003f 4b6c 94bf 7412 afbf
00000390: d922 cbbd 0dbe 0cbf 9a39 86bc 8439 02c0
000003a0: c83b 17c0 866f 8b3d 61ce f4be e3ef dabe
000003b0: bc7d efbf 34fd 53bd 9919 9c3e 21d8 b7bf
000003c0: cc32 bbbf dfef bd3f f556 f0bf 41cf 8abf
000003d0: d8e4 1940 0a91 aabf ac15 02c0 7ecd d93f
000003e0: 3bba 87bf 1f6d 1ac0 4044 3cbf 506d 843f
000003f0: 620a 9d3f 02e5 b83f 4d68 d33f 1d80 d5bf

conv1.mlp.8.bias f4 [64]
0.31247485 2.3608499 4.867198 -0.7723814 0.3686345 3.8677776 0.44464925 -3.408111
1.973652 7.374 0.637852 1.6548685 2.772441 1.762293 0.5263887 4.3945327
5.1989746 -0.32396287 -1.0519568 -0.08411308 -0.1434564 3.818891 2.5058768 -0.7169733
0.58746654 -0.37063393 3.089462 -1.019718 2.398418 2.3325074 8.327327 1.0492487
5.4852 1.3199266 5.39038 -4.7363534 4.4722977 3.4613166 6.045535 -0.18827409
-1.2497048 3.486564 0.45955357 -0.42102012 5.948436 -0.5476587 -0.66976017 -2.4730723
0.8772756 -4.8472342 0.8677821 -3.1461215 -0.19276044 3.267022 0.35406804 5.0341363
2.205452 -1.2753903 -1.1636813 1.9664283 -0.6355033 4.3623133 -1.813046 -1.0109875
00000000: b4fc 9f3e 2a18 1740 16c0 9b40 caba 45bf
00000010: a9bd bc3e ab89 7740 11a9 e33e 7e1e 5ac0
00000020: a1a0 fc3f cff7 eb40 454a 233f bbd2 d33f
00000030: ac6f 3140 d192 e13f 69c1 063f 03a0 8c40
00000040: 005e a640 76de a5be 85a6 86bf 7a43 acbd
00000050: 3ce6 12be b668 7440 4960 2040 908b 37bf
00000060: 3564 163f bbc3 bdbe bfb9 4540 1f86 82bf
00000070: ae7f 1940 cd47 1540 bb3c 0541 c84d 863f
00000080: c286 af40 5bf3 a83f fe7d ac40 3590 97c0
00000090: 101d 8f40 3686 5d40 0675 c140 ecca 40be
000000a0: 54f6 9fbf dd23 5f40 9b4a eb3e f38f d7be
000000b0: 9659 be40 5c33 0cbf 6775 2bbf d146 1ec0
000000c0: 2295 603f 8b1c 9bc0 f826 5e3f 0e5a 49c0
000000d0: fe62 45be e316 5140 6848 b53e a517 a140
000000e0: 2026 0d40 fd3f a3bf 82f3 94bf ecb3 fb3f
000000f0: 58b0 22bf 1298 8b40 e411 e8bf 0a68 81bf

conv1.mlp.10.weight f4 [64]
2.8645806 3.1282783 4.201313 4.0127234 4.5599575 3.9189243 3.3663046 2.9274645
3.3584926 4.4755974 2.2630367 2.3948784 4.2972093 4.367277 4.5109873 3.306025
2.672887 4.785925 6.6544223 4.5092754 4.675026 3.725821 5.101428 4.5330424
3.3593068 4.04548 3.473541 4.006563 2.9407287 2.8388774 5.5470705 3.9863055
3.4464502 5.8102956 3.1677792 4.68197 3.5238779 4.3362417 4.8866987 -2.1664643
4.8592415 3.4626946 3.8635583 4.782311 3.7558079 4.817249 4.9031215 5.635377
4.541491 5.244388 3.8097534 -3.3397493 4.1591325 4.3183165 -2.2693555 4.3276176
3.376753 3.3491554 2.878437 -3.0914164 4.962683 3.362662 2.335642 4.5146456
00000000: 4a55 3740 b635 4840 2871 8640 3b68 8040
00000010: 2ceb 9140 a8cf 7a40 8971 5740 945b 3b40
00000020: 8bf1 5640 1838 8f40 98d5 1040 b045 1940
00000030: bd82 8940 bcc0 8b40 025a 9040 ea95 5340
00000040: 9510 2b40 4c26 9940 07f1 d440 fc4b 9040
00000050: d099 9540 da73 6e40 e63e a340 af0e 9140
00000060: e2fe 5640 9274 8140 7f4e 5e40 c435 8040
00000070: e634 3c40 2bb0 3540 9a81 b140 a11f 7f40
00000080: a492 5c40 f1ed b940 e5bc 4a40 b3d2 9540
00000090: 3787 6140 7ec2 8a40 d65f 9c40 5aa7 0ac0
000000a0: e87e 9b40 ca9c 5d40 8a44 7740 b108 9940
000000b0: 285f 7040 e726 9a40 5fe6 9c40 0255 b440
000000c0: e553 9140 07d2 a740 00d3 7340 74be 55c0
000000d0: 9d17 8540 a62f 8a40 1f3d 11c0 d87b 8a40
000000e0: b91c 5840 9058 5640 5038 3840 c4d9 45c0
000000f0: 4dce 9e40 db35 5740 297b 1540 fa77 9040

conv1.mlp.10.bias f4 [64]
-1.0127277 -1.5366197 -0.002441989 0.5784787 0.8528149 -0.25556946 -0.6245462 0.6416295
0.6588003 0.85579234 1.2160885 -0.5116337 -0.04324811 0.33230707 1.021146 -1.0604402
-0.98723286 1.8856657 1.8419181 0.81914896 2.040436 -0.4610666 0.69340163 0.19008198
-0.638792 0.9794765 -0.46515378 0.8565645 0.013364534 0.48183948 1.0665911 0.6230938
-0.5328332 1.5111485 -0.9239551 1.0158795 -0.18932006 -0.18611212 1.2229352 -1.176946
1.8274937 0.51212305 0.80718476 0.3615477 -1.6527413 0.87343514 1.2290783 1.5998598
0.20613989 1.3992478 -0.7555231 -0.040233914 0.8214699 0.5366478 -0.18985124 -0.49559748
0.8199457 0.51242393 -1.0911258 -2.0272555 0.5811777 0.7324606 -0.0666991 0.14691837
00000000: 10a1 81bf f4af c4bf c709 20bb 2e17 143f
00000010: 1452 5a3f 00da 82be 42e2 1fbf d541 243f
00000020: 23a7 283f 3515 5b3f caa8 9b3f 6dfa 02bf
00000030: ee24 31bd 2724 aa3e eab4 823f 81bc 87bf
00000040: 4bbb 7cbf 7e5d f13f f9c3 eb3f bfb3 513f
00000050: 8196 0240 ec10 ecbe c582 313f daa4 423e
00000060: df87 23bf f9be 7a3f a328 eebe d047 5b3f
00000070: ebf6 5a3c aab3 f63e 0f86 883f 1383 1f3f
00000080: c267 08bf 506d c13f 5288 6cbf 5708 823f
00000090: 1edd 41be 2d94 3ebe 2489 9c3f 2ba6 96bf
000000a0: 50eb e93f 7f1a 033f a9a3 4e3f c81c b93e
000000b0: 078d d3bf 7299 5f3f 7052 9d3f 35c8 cc3f
000000c0: 5616 533e 8d1a b33f f669 41bf 51cc 24bd
000000d0: da4b 523f c061 093f 5d68 42be f4be fdbe
000000e0: f6e7 513f 372e 033f 03aa 8bbf 8ebe 01c0
000000f0: 10c8 143f 8a82 3b3f 8a99 88bd c571 163e

conv1.mlp.10.running_mean f4 [64]
15.411634 32.96536 23.114115 9.751512 15.65331 18.691622 16.366344 8.675914
24.355877 28.724184 48.74452 40.272102 31.210281 16.73338 15.288479 41.931618
33.218002 15.580543 11.344783 18.09593 15.658808 35.96217 22.358036 20.276773
18.362413 10.625264 36.544838 11.7292595 43.19004 15.335449 23.979923 15.571394
21.8409 15.201288 25.316408 8.341391 37.52574 39.086765 44.976658 27.162258
13.992869 37.57385 17.217304 13.9793 28.115171 14.195517 11.773539 10.735135
16.768244 9.98799 22.360855 14.118669 15.756417 19.132675 14.643405 49.578808
33.1914 9.1693735 13.309421 32.699623 15.39013 37.348087 7.9514136 12.497557
00000000: 0e96 7641 87dc 0342 b5e9 b841 3106 1c41
00000010: f573 7a41 7188 9541 46ee 8241 8bd0 0a41
00000020: d6d8 c241 21cb e541 63fa 4242 a216 2142
00000030: a8ae f941 f6dd 8541 9c9d 7441 fab9 2742
00000040: 3cdf 0442 e749 7941 3b84 3541 77c4 9041
00000050: 7a8a 7a41 43d9 0f42 42dd b241 d536 a241
00000060: 39e6 9241 1501 2a41 ea2d 1242 0cab 3b41
00000070: 9ac2 2c42 005e 7541 e2d6 bf41 6e24 7941
00000080: 2aba ae41 7a38 7341 0188 ca41 5676 0541
00000090: 5c1a 1642 d958 1c42 19e8 3342 4e4c d941
000000a0: cbe2 5f41 9f4b 1642 0abd 8941 36ab 5f41
000000b0: dfeb e041 d620 6341 6a60 3c41 1dc3 2b41
000000c0: 5d25 8641 cfce 1f41 08e3 b241 11e6 6141
000000d0: 491a 7c41 b80f 9941 634b 6a41 b350 4642
000000e0: fec3 0442 c1b5 1241 63f3 5441 6acc 0242
000000f0: f93d 7641 7164 1542 fb71 fe40 fef5 4741

conv1.mlp.10.running_var f4 [64]
1301.0831 1730.3315 1802.7018 565.45593 1676.4851 1109.2026 1477.5764 856.47876
1373.463 1677.329 3607.339 1756.7666 1790.2174 1195.6897 1367.8251 2317.0837
1926.192 1547.793 1109.3964 1127.1659 1671.9425 2182.562 2124.6074 1547.5017
939.7239 814.2991 1934.1969 1246.8815 2474.8164 875.981 1192.2948 1219.0388
1186.2338 1889.2894 1201.1971 1030.5149 1517.4031 2009.001 2474.462 800.4309
1284.3666 1918.4662 1909.2595 1837.9073 1032.9 1510.668 1172.5022 985.67633
1550.3995 926.95844 1487.9963 950.51526 865.2147 2344.6921 1064.9739 3717.493
1866.2294 1161.0619 1178.1328 1353.6904 1381.2904 1844.1475 715.57605 1307.4259
00000000: a9a2 a244 9c4a d844 7556 e144 2e5d 0d44
00000010: 868f d144 7ca6 8a44 72b2 b844 a41e 5644
00000020: d1ae ab44 87aa d144 6d75 6145 8898 db44
00000030: f5c6 df44 1276 9544 67fa aa44 57d1 1045
00000040: 25c6 f044 6079 c144 afac 8a44 4fe5 8c44
00000050: 29fe d044 fe68 0845 b8c9 0445 0e70 c144
00000060: 54ee 6a44 2493 4b44 4dc6 f144 35dc 9b44
00000070: 10ad 1a45 c9fe 5a44 6f09 9544 3e61 9844
00000080: 7b47 9444 4329 ec44 4f26 9644 7ad0 8044
00000090: e6ac bd44 0820 fb44 64a7 1a45 941b 4844
000000a0: bb8b a044 ebce ef44 4ea8 ee44 09bd e544
000000b0: cd1c 8144 60d5 bc44 1290 9244 496b 7644
000000c0: c9cc c144 57bd 6744 e2ff b944 faa0 6d44
000000d0: be4d 5844 138b 1245 2a1f 8544 e357 6845
000000e0: 5747 e944 fb21 9144 4044 9344 1836 a944
000000f0: 4ba9 ac44 b884 e644 dee4 3244 a16d a344

conv1.shortcut.0.weight f4 [64, 9]
-1.7784903 0.6216341 -0.7868001 1.2260523 -0.9445963 2.6527812 1.0439206 -0.033729468
-1.4701955 0.27065513 -0.06253097 -0.9317159 0.17409316 0.5208748 4.9773517 1.5868986
-0.14350998 0.8360999 1.8381964 -1.1496979 0.15552527 -0.05288968 -0.55022484 -1.3722469
-0.23002712 0.14438026 3.8978114 -0.9830544 0.8187849 -0.41524822 -0.33224332 0.23083426
-3.757682 -1.6844028 -0.1362206 -0.35560158 4.3171024 0.84909654 -0.32922336 0.09470262
0.49584493 0.20602821 0.50380635 -0.14208579 1.8087611 0.2537647 -0.36668545 0.074127756
0.019437399 0.03384026 -0.48096046 1.9658219 -0.267817 4.0852127 -3.3489785 0.1798131
1.1202954 -0.0713637 0.3477324 0.8133088 -1.7523159 -0.26306117 -0.9347465 0.6165012
0.008774986 -1.1025637 0.018309738 1.1178577 0.3980153 2.1226087 -0.114036866 3.2502198
-1.1843764 0.80603856 -0.18168887 0.22041363 -0.2521387 0.21154594 -0.7829765 0.055783417
-4.807677 -0.2524036 0.5072286 -1.2044201 0.008676262 -0.4907011 2.6353154 1.6760578
0.15130785 4.523782 0.49548653 0.4851137 -0.53082454 -0.16410626 0.27957177 7.292732
0.66861206 -0.03956539 -0.0651975 0.6437157 -0.21104531 -0.3191385 -0.60278857 1.4904729
3.8386548 1.3438077 -0.28491613 -0.24098398 -0.22005206 0.97033226 -0.65468884 -0.121635854
-0.52962154 -1.1441824 -2.1354349 0.05857775 -3.3682778 1.5776227 0.21922979 1.2274219
0.5653442 0.7361295 1.5065954 0.9931154 -0.04606643 3.8520575 0.13399273 -1.5920248
-0.96723676 -0.68863165 -2.398957 1.1119226 1.2504809 0.32393882 2.9257543 4.5627337
0.18237129 0.47074592 -0.046166234 0.429601 -0.3238744 1.0402832 0.13906042 2.030991
-1.6889743 0.6167148 -0.15098345 0.12844008 0.7672244 0.40809488 1.0962605 -0.13295133
3.9836233 -1.2541995 0.5706286 -1.127897 -0.03641558 -0.12042358 -1.8608838 -2.5653875
0.1647719 -0.23334578 -1.2318888 0.9638014 0.89617497 0.264279 -0.67701876 -2.2929463
-2.0257769 -0.31904948 1.0953852 -0.21918045 0.3877183 0.038488783 0.21966784 -0.99082667
-4.7754245 -0.8343275 -0.009708883 -1.7513976 -2.050299 -1.8333279 0.16908373 -0.37830287
-0.014467104 -1.8813087 -2.2363484 0.085806824 0.50958836 1.2296954 -1.0827166 0.4210888
-0.10222109 -0.08549289 -0.2748246 1.0709991 -0.07516269 3.668541 -0.17426099 2.3018923
-0.15847796 -0.09572421 -1.3008379 -3.7070465 -0.40448853 0.054234628 -1.2532235 -1.5907253
1.2383816 0.44553787 -0.25435138 -1.4889264 1.2979405 0.37664646 0.18797906 -3.546557
-2.1302986 -0.10324647 -1.4413129 -0.2002366 -0.5132884 -0.3950006 0.29923108 0.15853335
4.1880565 -0.5278631 -0.26733917 -0.29454765 -0.4098486 -0.038429704 -2.775502 -1.9230686
-0.27328783 -1.9191005 3.6116776 1.5506755 2.3890016 0.20486996 -0.79531974 -0.14017136
0.92761666 0.048126817 2.6731675 -2.6484685 0.80609214 -0.040399663 -0.23889081 -0.3356053
-1.7251359 -0.9401009 -0.081615716 2.1114612 3.8166053 0.17184727 -1.4609723 0.05963172
00000000: 92a5 e3bf 6a23 1f3f bb6b 49bf 48ef 9c3f
00000010: 10d1 71bf 2bc7 2940 319f 853f e927 0abd
00000020: 5e2f bcbf 4f93 8a3e 3d10 80bd ef84 6ebf
00000030: 7a45 323e 0d58 053f 7746 9f40 7e1f cb3f
00000040: 48f4 12be a50a 563f 054a eb3f 4d29 93bf
00000050: 0442 1f3e d9a2 58bd 89db 0cbf c9a5 afbf
00000060: 3b8c 6bbe 6bd8 133e be75 7940 74a9 7bbf
00000070: e39b 513f 6a9b d4be cc1b aabe d15f 6c3e
00000080: dd7d 70c0 839a d7bf 6a7d 0bbe 6911 b6be
00000090: b425 8a40 645e 593f f78f a8be 72f3 c13d
000000a0: 63df fd3e 0ff9 523e 74f9 003f f07e 11be
000000b0: 7c85 e73f 72ed 813e 32be bbbe 4bd0 973d
000000c0: 2e3b 9f3c 169c 0a3d 7340 f6be 0da0 fb3f
000000d0: 4f1f 89be 10ba 8240 aa55 56c0 ed20 383e
000000e0: d765 8f3f 2227 92bd fb09 b23e 0135 503f
000000f0: e34b e0bf f4af 86be 8c4b 6fbf 06d3 1d3f
00000100: f5c4 0f3c cf20 8dbf 4efe 953c f615 8f3f
00000110: a9c8 cb3e d2d8 0740 298c e9bd 9a03 5040
00000120: a599 97bf 8b58 4e3f a60c 3abe 1cb4 613e
00000130: 5318 81be 809f 583e 2671 48bf 277d 643d
00000140: 7dd8 99c0 0b3b 81be bcd9 013f 702a 9abf
00000150: e126 0e3c 2d3d fbbe 02a9 2840 1089 d63f
00000160: 72f0 1a3e d2c2 9040 69b0 fd3e d360 f83e
00000170: 1ee4 07bf 790b 28be 0824 8f3e 0f5e e940
00000180: 292a 2b3f 520f 22bd 4486 85bd 8dca 243f
00000190: 431c 58be 1f66 a3be 5a50 1abf d1c7 be3f
000001a0: 85ac 7540 e401 ac3f 87e0 91be 81c4 76be
000001b0: 5455 61be b267 783f b099 27bf 381c f9bd
000001c0: 4795 07bf 9274 92bf f7aa 08c0 39ef 6f3d
000001d0: dd91 57c0 8aef c93f c67d 603e 291c 9d3f
000001e0: 66ba 103f fc72 3c3f 1ed8 c03f d03c 7e3f
000001f0: 27b0 3cbd 1c88 7640 6435 093e 78c7 cbbf
00000200: d49c 77bf 2a4a 30bf 8388 19c0 7b53 8e3f
00000210: c20f a03f 4fdb a53e 8f3f 3b40 ea01 9240
00000220: 8abf 3a3e 9c05 f13e ce18 3dbd aaf4 db3e
00000230: ded2 a5be 0028 853f db65 0e3e c2fb 0140
00000240: 4f30 d8bf 05e1 1d3f 689b 1abe cc85 033e
00000250: d168 443f d0f1 d03e 4452 8c3f 6524 08be
00000260: aff3 7e40 9c89 a0bf b714 123f ee5e 90bf
00000270: 8128 15bd a3a0 f6bd 7131 eebf 4f2f 24c0
00000280: f7b9 283e 32f2 6ebe 88ae 9dbf b0bb 763f
00000290: b96b 653f 944f 873e 1a51 2dbf a2bf 12c0
000002a0: 54a6 01c0 745a a3be 9535 8c3f d770 60be
000002b0: 0383 c63e 6aa6 1d3d 9bf0 603e d1a6 7dbf
000002c0: 47d0 98c0 7d96 55bf 0212 1fbc cc2d e0bf
000002d0: 1938 03c0 7daa eabf 4924 2d3e eab0 c1be
000002e0: 6f07 6dbc b9ce f0bf 5520 0fc0 7dbb af3d
000002f0: 6274 023f a966 9d3f 7596 8abf f498 d73e
00000300: 4a59 d1bd e516 afbd cfb5 8cbe 8016 893f
00000310: e5ee 99bd 60c9 6a40 7971 32be 3452 1340
00000320: 0c48 22be 0e0b c4bd db81 a6bf 4040 6dc0
00000330: 1f19 cfbe 2125 5e3d a169 a0bf e39c cbbf
00000340: 4a83 9e3f 8a1d e43e 583a 82be 2495 bebf
00000350: ea22 a63f ced7 c03e 957d 403e cafa 62c0
00000360: d056 08c0 e372 d3bd f17c b8bf d30a 4dbe
00000370: de66 03bf 853d cabe d134 993e 9156 223e
00000380: 8f04 8640 0922 07bf aee0 88be f3ce 96be
00000390: add7 d1be 7768 1dbd d3a1 31c0 1d27 f6bf
000003a0: 62ec 8bbe 16a5 f5bf ba25 6740 897c c63f
000003b0: 67e5 1840 6ec9 513e 139a 4bbf 1589 0fbe
000003c0: 4978 6d3f a020 453d 2d15 2b40 8280 29c0
000003d0: 0e5c 4e3f 1e7a 25bd cb9f 74be 75d4 abbe
000003e0: 41d1 dcbf 74aa 70bf 2426 a7bd 2e22 0740
000003f0: 4343 7440 bbf8 2f3e 2401 bbbf 6440 743d

conv1.shortcut.0.bias f4 [64]
0.1639943 -0.058137864 -0.3075136 -0.13785721 0.025961164 0.2195361 -0.13519616 -0.2345545
-0.25259516 0.30162504 -0.014180535 -0.023906332 0.14797768 -0.28699997 -0.0936103 -0.29205722
-0.006821124 -0.30999836 0.08069836 -0.17600368 -0.18514073 0.1016823 0.19758265 -0.09283477
0.043006036 0.093504205 0.19404776 -0.1701815 -0.19998822 0.17063676 -0.19498704 0.011134941
0.26520824 0.2807175 0.05770001 0.27612457 -0.24019486 -0.08979346 -0.06381688 -0.23409475
-0.009609417 -0.03247853 -0.2682997 -0.325593 0.16582942 0.24092881 -0.06441812 0.12329005
-0.03833752 0.20954004 0.21077129 0.081488326 0.031055396 0.19065128 0.058283724 -0.23422386
-0.15381645 -0.06706724 -0.2912 0.2583867 0.23999271 -0.2265216 0.23125406 -0.09249242
00000000: 1fee 273e f821 6ebd 6c72 9dbe 712a 0dbe
00000010: 82ac d43c 12ce 603e dd70 0abe 0e2f 70be
00000020: 2754 81be 996e 9a3e 7a55 68bc 36d7 c3bc
00000030: 7687 173e a9f1 92be c2b6 bfbd 8688 95be
00000040: bc83 dfbb 1bb8 9ebe 2f45 a53d 4f3a 34be
00000050: 8895 3dbe cf3e d03d 1b53 4a3e 2820 bebd
00000060: 1927 303d 227f bf3d 75b4 463e 0f44 2ebe
00000070: b6c9 4cbe 67bb 2e3e afaa 47be 546f 363c
00000080: 60c9 873e 34ba 8f3e d856 6c3d 3360 8d3e
00000090: a4f5 75be a2e5 b7bd 6db2 82bd 89b6 6fbe
000000a0: d170 1dbc 3508 05bd 945e 89be 20b4 a6be
000000b0: 30cf 293e 0bb6 763e a6ed 83bd 7e7f fc3d
000000c0: ce07 1dbd aa91 563e 6ed4 573e 5ae3 a63d
000000d0: e367 fe3c 173a 433e eaba 6e3d 61d8 6fbe
000000e0: 0f82 1dbe 8d5a 89bd 2b18 95be 434b 843e
000000f0: a6c0 753e 47f5 67be ddcd 6c3e aa6c bdbd

conv1.shortcut.1.weight f4 [64]
1.5373291 1.8946437 0.5506553 2.2935479 -0.009692553 2.8395045 2.8292108 0.9172281
1.7791514 0.8701066 3.568356 1.9833784 2.1836135 0.7187251 -0.36232394 1.5269235
2.5534213 0.8324166 0.7278622 1.3598019 0.53726757 1.528129 -0.1602563 0.4692353
1.3261607 1.966631 1.5451971 1.1842391 2.4989989 3.119824 1.2261512 1.1019232
1.520675 0.044715747 1.5053092 1.3038282 1.6627159 1.5585777 0.73306483 2.4024143
0.080439545 1.7152418 -0.73064566 1.2392616 0.51230454 0.09464087 0.41945374 0.7753308
0.91612023 0.83438814 2.7048938 1.9106473 -0.6924874 0.43328902 2.2499928 0.524372
2.3471396 1.367113 1.0244781 3.35741 -0.53259087 1.1658158 2.194802 0.5354359
00000000: 33c7 c43f af83 f23f bff7 0c3f 7dc9 1240
00000010: 84cd 1ebc 71ba 3540 ca11 3540 76cf 6a3f
00000020: 3cbb e33f 4ebf 5e3f f25f 6440 58df fd3f
00000030: 53c0 0b40 5efe 373f 8682 b9be 3b72 c33f
00000040: 416b 2340 4119 553f 2d55 3a3f fd0d ae3f
00000050: 5e8a 093f bb99 c33f 3a1a 24be 9c3f f03e
00000060: a2bf a93f 91ba fb3f 05c9 c53f 2695 973f
00000070: 99ef 1f40 32ab 4740 86f2 9c3f d20b 8d3f
00000080: 7aa5 c23f dc27 373d f9ad c03f d8e3 a63f
00000090: e0d3 d43f 797f c73f 23aa 3b3f 28c1 1940
000000a0: 7dbd a43d 0b8d db3f 980b 3bbf 20a0 9e3f
000000b0: 6426 033f 13d3 c13d a4c2 d63e 147c 463f
000000c0: db86 6a3f 769a 553f fb1c 2d40 1790 f43f
000000d0: db46 31bf 0fd8 dd3e e2ff 0f40 3e3d 063f
000000e0: 8937 1640 8ffd ae3f 1922 833f cedf 5640
000000f0: e057 08bf 7439 953f a377 0c40 5412 093f
