GraphNeuralNet/Skim1E2Mu/MHc-130_MA-90_vs_ttZ/models/ParticleNet-nNodes64_AdamW_initLR-0p001_StepLR.pt (torch, 292402 bytes, 89 tensors)

gn0.weight f4 [9]
00000000: a48e c03f e62f 4c3f e418 4f3f 3da9 5b3f
00000010: 866e dd3c 6d9d 4d3f 987c 8d3f 4f33 083f
00000020: 3d2a 853f
1.504353 0.7976059 0.80897355 0.8580511 0.02703024 0.8031834 1.1053648 0.5320329
1.0403515

gn0.bias f4 [9]
00000000: 2b4b b13e 9281 97bd efb4 53bd 0f76 c23d
00000010: 1ff0 f7be d79d e43d 8a31 193f 5d1b e0bd
00000020: 6606 8a3d
0.3462766 -0.073977605 -0.051686224 0.09495174 -0.48425385 0.11162918 0.59841216 -0.10942719
0.06739502

gn0.mean_scale f4 [9]
00000000: b5ad 1240 e38d 3c3f ab1c b9bd 4880 0840
00000010: d7f6 853f 45cb 9f3e 57f2 3e3f d690 2c3f
00000020: 9afb cc3f
2.2918522 0.73654 -0.09038671 2.1328297 1.0465955 0.3120977 0.7458853 0.674085
1.6014283

conv1.mlp.0.weight f4 [64, 18]
00000000: aeb1 e4bb db6c be3c e95d b93c 5627 563e
00000010: d8e1 0a3d 0768 f9bd 3625 c6be d361 19be
00000020: 89f3 363c ea85 9dbe ebd9 8cbc 842a 62bb
00000030: b92c dfbe 443e c93d 0672 d7bd e20c 643c
00000040: 62d0 36be dec6 023d 064b 08be d4f5 01be
00000050: 39bd 9cbd 7890 9bbb 55ec bb3c 83c7 2fbd
00000060: ba09 87be 0521 f83d b6f6 c8bd c36f a9bd
00000070: f34c ab3e b74e 5e3e 06ec 083c b0bd 953d
00000080: 052f abbb 9a18 10be e57b a83d f623 04be
00000090: 402c 25be 2b83 793d 3bff 683d d514 8ebb
000000a0: e0d9 003e bbd2 9ebe 082e 54be cada e4bd
000000b0: c587 3ebe abf1 77bc e192 02be db7c 47be
000000c0: a0d6 9b3d 0219 d83d a677 803e 8230 69bd
000000d0: 6488 6e3d da9e 6bbe a5a9 ca3e 3864 b1bd
000000e0: c3ba 09bd 7c31 4a3d 9d91 2dbe 6cd8 e8bc
000000f0: a8a1 183e 4b8e 04be e9a6 05bd d253 9e3e
00000100: 54a2 bebd 3c74 36bd f719 f43c 2d98 c8bd
00000110: 8c98 f63c 03dd 453e 3c7e 583c 47e0 7c3b
00000120: 7bf7 9ebd 435a 2b3c b1e7 5dbd 9fed 3dbd
00000130: 33e5 e1bc 42f2 db3d a6f5 5ebf c7bf a1bd
00000140: fb92 2c3f a377 74be 5868 c3ba e045 81bc
00000150: f214 1b3d 04ee cbbd 0da7 ad3d 57ee f13d
00000160: e7ef d83c 9b3d fbbd c340 e2bd 74f4 a13d
00000170: 97f6 04be 7ae4 343d 7f61 723e 1223 7bbd
00000180: 4963 81be e880 3abe 66a8 b9bd 2f3e ccbd
00000190: 5154 fcbd 241b bd3e d498 17be c4a7 813e
000001a0: b565 00bd b341 bbbc 1fa3 35bd f3cf 813d
000001b0: e008 f0bd b552 6f3d cbd1 223c 0f27 37bc
000001c0: c48e c53d 801a c0bd 32b9 533e a3b7 c9bd
000001d0: 989e 983c 7c19 ae3e 9609 00be 64cb 31bc
000001e0: 69f9 5b3e 56eb c43d bea6 22be 6313 ebbd
000001f0: 980d 11bb 9fba cdbd 6c4c 79be 25ee 263b
00000200: 4010 debb cd3b b23d da60 5d3e a6ed a83e
00000210: 590e c03c 2bc6 813e 17da dc3d 96db eebd
00000220: 0141 7c3c 0d55 f539 6db1 bd3e fba3 b83d
00000230: 108a 7a3c 70af a9be 226c 73be 7eea 82bd
00000240: 1c15 99bc cea9 df3c f0ae 1ebc 8b07 ec3d
00000250: 893f 60bc 8834 00be 439e 95bd 7af2 94bd
00000260: 60d8 123e 48f3 483d f5ce e93e e3b6 cc3d
00000270: c61c 383e a937 cfbc 6a24 00be 1aa5 06be
00000280: 5012 bfbc 1bf7 b33d 842a bc3d 9c7f 813d
00000290: 7c4d 30bd ccab 8bbd 448e 2abd c0f2 a53e
000002a0: bbba d7bd 6f88 f0bc 3f38 293e 11bf 3ebc
000002b0: fa92 df3e b86c 8ebe 1ae2 a2bd 22d9 79bd
000002c0: b969 5f3d b474 c1be 5170 b53c 85b2 b23d
000002d0: ca9d 91be 760d a83c ae9f e13c f9d0 cf3d
000002e0: bb99 1a3e 04e2 513d 2e76 d8bd b80a afbd
000002f0: 97de 2bbd cd05 68be 5a91 b5bc 17b6 b0bc
00000300: 8c95 cabe aa2e eb3d 2cdf 903d 1bef 06bd
00000310: ba7f 93ba a56d ff3b 0a4d 9bbd 0954 6b3c
00000320: d0fd 97ba e3b7 39bc 6597 3e3d b946 23bd
00000330: d640 9fbe 1f9d 663e 9576 3fbd 834b eabe
00000340: 07ae 18bd b1e2 2b3c 7ff3 8fbd c266 2fbd
00000350: fcfc 4c3e 823b 213d d5e0 3c3e 88ab b5bd
00000360: 0892 b9bd 612d 9dbd ddab 533d 6b86 e13e
00000370: dfbe 2c3e 27f9 343d 2f04 8fbe 0df4 433e
00000380: d137 213d 8948 293d 7b20 433e 2fb9 84bb
00000390: 8709 c1be 524a 823c 4da2 4d3d 0794 a7bd
000003a0: 190f 6b3e ab74 b53d a0c9 15bd 9bcc af3b
000003b0: 022d a63d 88ff 8dbc a159 f93c 0770 38be
000003c0: 9eee 14bd 51d0 83bd a2b5 3d3e 2aee 2eb9
000003d0: 69c9 2a3c d067 9abe 976a 56bd 33b7 14bd
000003e0: 91a2 bdbd bbc8 e13e 4620 d23d 9fa7 583e
000003f0: c605 2e3d 1440 c2be bc2f ef3b 47fc a33c
-0.006979189 0.023245266 0.022627788 0.20913443 0.033906788 -0.12178045 -0.38700265 -0.14978723
0.011166462 -0.3076623 -0.017193755 -0.0034510205 -0.43588808 0.09826329 -0.10519795 0.013919087
-0.17852929 0.031927936 -0.13309869 -0.12691432 -0.07653279 -0.0047474466 0.02293984 -0.04291488
-0.26374608 0.12115673 -0.098126814 -0.0827327 0.33457145 0.21709715 0.008357054 0.07311571
-0.005224111 -0.14071885 0.08226756 -0.12904343 -0.16130161 0.060916107 0.05688403 -0.0043359795
0.12583113 -0.3102015 -0.20720685 -0.11174543 -0.1860648 -0.015133302 -0.12751342 -0.19481222
0.07609296 0.10551645 0.25091285 -0.056931026 0.05823554 -0.23009816 0.39582554 -0.08661693
-0.033625375 0.0493636 -0.16950078 -0.02842351 0.14905417 -0.12944905 -0.03262988 0.30923325
-0.093083054 -0.044544443 0.029797537 -0.0979465 0.030102037 0.1932259 0.01321369 0.0038585828
-0.07762047 0.010458532 -0.054176036 -0.04636919 -0.027575111 0.107395664 -0.8709358 -0.07897907
0.67411774 -0.23873763 -0.0014908416 -0.01578039 0.037861772 -0.09957507 0.08479128 0.11813038
0.026481582 -0.1226761 -0.110475086 0.07907954 -0.12984692 0.044163205 0.23670004 -0.061312743
-0.2527106 -0.18213236 -0.090653226 -0.09972798 -0.123207696 0.3693477 -0.14804393 0.25323308
-0.031346995 -0.022858476 -0.044345018 0.06338491 -0.11720443 0.058428485 0.009937714 -0.011178746
0.09646371 -0.093800545 0.20676115 -0.09849479 0.01863031 0.34003818 -0.12503657 -0.010851715
0.21481861 0.09615199 -0.1588392 -0.11478307 -0.0022133347 -0.10045361 -0.24345559 0.0025471535
-0.0067768395 0.08702812 0.21618977 0.3299381 0.023444341 0.25346503 0.10783785 -0.116629764
0.0153963575 0.0004679341 0.37049428 0.09015652 0.015291706 -0.3314166 -0.23771718 -0.06392382
-0.018686824 0.027302649 -0.009685263 0.11524876 -0.013687023 -0.12520039 -0.07305577 -0.07272811
0.14340353 0.049060136 0.45665708 0.099958204 0.17979726 -0.025295096 -0.12513891 -0.13148919
-0.023324162 0.08787366 0.09187797 0.06323168 -0.043042645 -0.06819877 -0.04163958 0.32411766
-0.10533663 -0.029361932 0.16525362 -0.0116422335 0.43666822 -0.2781732 -0.07953282 -0.06099809
0.054544184 -0.3778435 0.022148283 0.08725456 -0.28440696 0.020514231 0.027541962 0.1014728
0.15097706 0.051240936 -0.10569416 -0.08546966 -0.041960325 -0.22658463 -0.022164036 -0.021571202
-0.3956722 0.1148351 0.07073817 -0.032942872 -0.0011253275 0.007795053 -0.075830534 0.014363297
-0.0011596028 -0.011335346 0.0465311 -0.03986237 -0.31104153 0.22520874 -0.046743948 -0.45760736
-0.03727534 0.010491059 -0.07028865 -0.042822607 0.20018381 0.03936339 0.18445142 -0.088706076
-0.090610564 -0.07674671 0.051677573 0.44047865 0.16869687 0.044182923 -0.2793288 0.19136067
0.03935987 0.04132894 0.19055359 -0.004050396 -0.3770258 0.01590458 0.05020361 -0.08182531
0.22954978 0.08860143 -0.036569238 0.005364967 0.08114053 -0.01733376 0.030438246 -0.18011485
-0.036360376 -0.064362176 0.18526319 -0.00016682656 0.0104239965 -0.30157328 -0.052347746 -0.036307525
-0.09259523 0.44098458 0.10260062 0.21157692 0.042485975 -0.37939513 0.0072993916 0.020017756

conv1.mlp.0.bias f4 [64]
00000000: 7650 1ebe 370a 01be 0acf bcbd 9cf8 843e
00000010: 673c 7e3c a5f7 15bd 2eca a3be 7f31 62be
00000020: cc78 0abe 86e9 f1bb e773 87be 8862 f3bd
00000030: 4c44 cbbd 4a14 fabc 7360 7fbe ab0c a1bd
00000040: 922c a6bd b704 8ebe f8ba 45be 6272 a2be
00000050: 0ad6 b03c 2cc9 07bf 64f0 12be 5c0d 833e
00000060: 31da c2be 1cb9 b0be a623 7a3d 94d5 da3c
00000070: b50f 313e 4378 50be e8a1 bfbe 5e66 99be
00000080: 81bc 99be 5cb7 b5be 4910 95be f205 7cbe
00000090: 1403 81be 75d9 5bbe d9b3 a1be add5 72be
000000a0: 9dff 6bbe 8396 09be 775b 6bbe 1b67 67bd
000000b0: 1359 d8be 03a1 33be 221a b6be 5e4d dabc
000000c0: 5934 93bd d342 383e c6ed aabe b740 bdbe
000000d0: 2acc fbbd 0897 aebe 9930 53be 8006 02bd
000000e0: d616 11be 061c fcbe 19f5 fa3d db1a d4bc
000000f0: edac 34be 82ac 6fbe 51fa 4dbe 7d55 f0be
-0.15460381 -0.12601553 -0.09219177 0.25970924 0.015517331 -0.036613125 -0.31990188 -0.22089194
-0.13522643 -0.0073825745 -0.26455614 -0.11884028 -0.09925136 -0.030527253 -0.24939136 -0.07863744
-0.0811397 -0.27737972 -0.19309604 -0.31727892 0.021586437 -0.5304134 -0.14349514 0.2559613
-0.38057092 -0.34516227 0.061069153 0.02671317 0.17291148 -0.20358376 -0.37428212 -0.29960912
-0.3002663 -0.35491455 -0.29113987 -0.24611643 -0.2519766 -0.21469672 -0.31582525 -0.23714323
-0.23046727 -0.13436322 -0.2298411 -0.056494813 -0.42255458 -0.1754189 -0.35566813 -0.02664822
-0.07187719 0.17994241 -0.33384532 -0.36963436 -0.122948006 -0.34099603 -0.20624007 -0.03174448
-0.14168867 -0.4924013 0.1225378 -0.025891712 -0.17644091 -0.2340565 -0.2011502 -0.46940222

conv1.mlp.2.weight f4 [64]
00000000: 44e2 933f 2e63 5e3f 3110 483f 9e40 413f
00000010: 23a9 643f 91dc 563f 592e 503f 83e5 543f
00000020: be5d 593f 9833 6b3f a725 823f 348d 843f
00000030: 3ea1 613f b4b3 593f 8207 883f 8389 733f
00000040: 8c64 6c3f 8a18 803f 3e59 833f a56f 313f
00000050: 52fa 523f c2c6 513f 62ba 893f 88c2 513f
00000060: 5257 593f d0d8 7d3f 42cd 5e3f 29ca 783f
00000070: 351b 3b3f f60b 533f 756a 853f 22a8 553f
00000080: e0b5 513f b83a 353f 198c 8a3f 7c79 5b3f
00000090: 0b66 5b3f 483b 563f bbf9 8a3f 17af 843f
000000a0: 671c 893f cce5 8b3f 82a4 843f 517e 363f
000000b0: 3721 4b3f c177 543f 38ba 843f 3828 9d3f
000000c0: 2327 5d3f 0783 633f 08b3 813f 4bea 403f
000000d0: 6125 2e3f ef05 813f 6d50 803f b1f4 5d3f
000000e0: 40c7 603f 6a63 863f 5370 403f c04e 4d3f
000000f0: f2c3 833f 0e6b 7c3f 5a2a 723f 975c 803f
1.1553426 0.86870086 0.78149706 0.75489223 0.8932058 0.8393031 0.8132072 0.8316271
0.84908664 0.918756 1.016774 1.0355592 0.8813666 0.8503983 1.0627291 0.951317
0.9234092 1.0007489 1.026161 0.6931098 0.8241321 0.81943905 1.0760005 0.81937456
0.84898865 0.99158955 0.8703195 0.9718347 0.7308839 0.82440126 1.0423113 0.83459675
0.81918144 0.7079272 1.0824004 0.85732245 0.8570258 0.83684206 1.0857462 1.0365933
1.0711793 1.0929503 1.0362704 0.71286494 0.79347557 0.8299523 1.036933 1.2277899
0.8638784 0.88871807 1.0132761 0.753575 0.68025786 1.0079936 1.0024544 0.86701494
0.8780403 1.0499089 0.75171393 0.8019829 1.0294173 0.9860085 0.94595873 1.0028256

conv1.mlp.2.bias f4 [64]
00000000: 56b3 c73e 7189 bc3e a285 a43e c425 9cbe
00000010: 8d6e a53e 024e a43e 59e5 2fbd 86f8 f03e
00000020: 8610 7b3d e662 f43e 255a 063f 9738 cd3e
00000030: 6b26 c13e a0aa 963e dc79 843e af64 e63e
00000040: 53b3 3e3d 5c3d 883d 3c39 9d3e fda5 47be
00000050: 7802 bbbd 6ec6 7dbd 6781 ac3e 5b2c 513e
00000060: 7f3f 373e c3ab c23e b40f 9f3e 1071 da3e
00000070: 0546 b6be 572e 0a3c dfea 953e fdfe 443e
00000080: ecf4 b6bd 9f3c 8fbe 7b3d 8c3e 6895 6f3c
00000090: 37ab 9a3e 7d1a 833e b6fd 983e d0a8 8c3e
000000a0: f4cb 9f3e b3c9 ad3e 6d35 1d3e 8a63 26be
000000b0: 10f7 b63c 2f74 9e3e 080b 8b3e a96d f33e
000000c0: d68b fb3d 8664 533c 0586 8b3e e887 e3bd
000000d0: ffeb b8be 10bc f93e dc07 913e e49b ac3e
000000e0: 6d1f 043f 16b7 ae3e c2a5 bfbe a445 893e
000000f0: 521d c63e 739a 803d 9d17 0f3f a1ca e43e
0.3900401 0.3682361 0.32133204 -0.30497563 0.32310906 0.32090765 -0.042943332 0.47064608
0.061295055 0.47731704 0.524813 0.40082237 0.37724623 0.29427052 0.2587422 0.4499869
0.046557736 0.06652328 0.3070773 -0.19496913 -0.0913133 -0.061956815 0.33692476 0.20427077
0.17895316 0.3802167 0.31066668 0.42664385 -0.35600296 0.0084339 0.29280755 0.19237895
-0.08933434 -0.27975938 0.27390656 0.014623024 0.30208752 0.25606146 0.29881066 0.27472544
0.3121029 0.33942947 0.15352412 -0.16248909 0.022334605 0.30948016 0.27156854 0.47544602
0.12282531 0.012902385 0.27250686 -0.111099064 -0.3611755 0.48776293 0.2832631 0.33712685
0.5161045 0.34124058 -0.3743115 0.26810944 0.38694245 0.06279459 0.55895406 0.44685844

conv1.mlp.2.running_mean f4 [64]
00000000: 590b 0f3e 0afa ff3d fe44 fc3d 688e 3a3e
00000010: cef7 7c3e f1b3 f03d 31d2 243e d57d 803e
00000020: 861c ba3d 3131 7d3e abd2 2b3e 6eb2 e93d
00000030: c580 553e e372 433e 1015 653d 31f8 3d3e
00000040: cb2e 423d 02ec 4b3d 063e b93d e172 a73b
00000050: bfd9 753f 9cd5 f03c 392a ad3d 2276 323e
00000060: 983d 2c3d bb30 d63d 1ff1 623e d0c1 293e
00000070: db19 4a3e 8e01 1a3d 4e93 da3d b031 493e
00000080: 3032 9d3c c028 323e 9643 883d afa8 c23c
00000090: 0f5d 203e 8ac4 843e a382 793d 49e2 123d
000000a0: 877f a13d 144b 953d 8dca 513d 6938 a13e
000000b0: 0463 9b3c 256c 4f3e 8713 713d d08c 8b3e
000000c0: 6995 ea3d 38f9 333d a75b 7c3d 176c 243d
000000d0: 92fd d43e f254 d13d 918f 843d 70dd 243e
000000e0: 9fb5 703e 4666 7c3d b5da 623e 09ec 853e
000000f0: 7535 253e 4890 c53c 45a2 2a3e 983c 9a3d
0.13969173 0.12498863 0.12317847 0.18218386 0.24703905 0.11753071 0.16095807 0.25096002
0.09087472 0.24725796 0.16779582 0.11410986 0.20849903 0.19086795 0.05592829 0.18551709
0.047407907 0.04978562 0.09045033 0.00511013 0.9603538 0.029398732 0.08455319 0.17427877
0.042050928 0.10458513 0.22162293 0.1657784 0.19736426 0.03759914 0.106726274 0.1964786
0.01918897 0.17398357 0.06653516 0.023762075 0.15660499 0.25931197 0.0609156 0.035860334
0.07885652 0.07289711 0.051218558 0.3148835 0.018968113 0.20256098 0.058856513 0.2725587
0.11454279 0.043938845 0.061610844 0.040142145 0.4159971 0.1022128 0.064726956 0.16100097
0.23506783 0.061620973 0.22153743 0.26156643 0.16133673 0.02411665 0.16663463 0.075310886

conv1.mlp.2.running_var f4 [64]
00000000: 2526 013e 197c 593d 1a47 2f3d 5092 8f3d
00000010: 1c38 f43d d9b4 5d3d 17da b73d 8b60 e13d
00000020: e64b 273d 38ca 133e 19c1 883d 64a5 663d
00000030: 51f5 103e caad ec3d 2f27 ec3c 4fee d63d
00000040: 853c 7b3c 24fa be3c e6a2 543d 1963 653a
00000050: c1e1 cc3e c92b 9e3b 6322 393d 8bb4 833d
00000060: 89f9 833c 86cd 3d3d aba3 013e 5e34 da3d
00000070: 9997 4b3d 6e3b 1c3c 2a3f 4c3d bc36 8e3d
00000080: 15f1 763b 2bc1 a53d 661e 303d 3d98 c03b
00000090: 26dc 913d de38 273e b0a1 023d dd8c 5d3c
000000a0: 0236 473d 538f 153d 00e0 a03c eef7 0d3e
000000b0: 7226 553b 5d77 123e 777b 0a3d fea8 923e
000000c0: fb3b 733d a90b 643b b57c f43c 99af 413c
000000d0: 8676 293e fc5c 023d 0209 003d 4266 c53d
000000e0: 9ea2 a03d e6fd bf3c abc7 033e c654 373e
000000f0: af16 e43d 7b82 d13b 427a 473d a002 a63c
0.12612207 0.053096864 0.042792417 0.07010329 0.119247645 0.054127548 0.08977144 0.11004742
0.040843867 0.14432609 0.066774555 0.056310073 0.14156081 0.11556585 0.028827278 0.104946725
0.015334253 0.023312636 0.051913165 0.00087504234 0.40015987 0.004826997 0.04519881 0.0643092
0.016110199 0.04633858 0.1266009 0.106545195 0.04970512 0.0095356535 0.049864925 0.069440335
0.0037680317 0.080934845 0.04299774 0.005877523 0.07122068 0.16330287 0.03189248 0.013522354
0.04863549 0.036513638 0.019638062 0.13864109 0.0032524136 0.14303346 0.03380915 0.28644556
0.059383374 0.003479699 0.029844621 0.011821651 0.1654912 0.031826958 0.03125859 0.09638645
0.07843517 0.023436498 0.12869136 0.17903432 0.11137139 0.0063937283 0.04870058 0.020264924

conv1.mlp.4.weight f4 [64, 64]
00000000: cb23 bebc 2b10 393e 684b 1c3d 3e67 5a3e
00000010: a8d8 143e f442 e73c c40a 23bc 1ee5 53be
00000020: d1de 3dbd 4288 53bc 4f5c 113c 5b9e 84bd
00000030: a178 00bd 00a6 d33d 082b 9e3d 0372 1d3d
00000040: 4976 50ba 803f 8dbd 2bcf 163e a732 dd3d
00000050: 6628 0b3d 0061 b1bb a0b1 95bc 2447 c43d
00000060: f783 3c3e 02ca 9ebe afb5 bf3a 7293 8c3b
00000070: dd06 863e a1e1 b73d 02ea 45bd 0394 dc3c
00000080: 8f1b 983d 9c0f c2bd ca1e 1ebe 3a9b d73d
00000090: 4903 013e e7b7 f83d e71f 4ebc 5a7d 3abc
000000a0: 31ea b73d 2373 e6bc 0904 05bd 6c3e 533d
000000b0: 9d57 143d 4857 18be f567 503d 6694 7abd
000000c0: baba 1fbe 60c8 aa3c 0599 ba3c 4916 6e3e
000000d0: ca62 4a3e 7ae5 67bd 3f1d f93d 2c2f e5bd
000000e0: f3a6 1fbd 4ddd fb3d e237 643e f507 d9bc
000000f0: c240 b4bc 8f41 073e 1c2f 4c3a 74c3 f63b
00000100: 7ec2 fcbd 96e2 74be 5831 aebd 1b5f 36bd
00000110: 3715 1d3d e984 20be a78d ddbd 0984 483d
00000120: ea46 4fbc 3d6f 2abd d89e 1dbe 5be7 79be
00000130: edf1 a1bd 8866 bd3d 57cb 22be dbe4 17bd
00000140: 05ed 8b3c 820d 4f3e 5c03 56bc cc84 553e
00000150: 323e 33be 4ecc 18be 4f6c f6bd 91b6 0fbd
00000160: ffde 1a3e 74b7 cebb 847b 563d 214c f7bd
00000170: f611 b9bc 6411 463d 5dfb e5bd af52 ce3b
00000180: 286b cc3d 56f6 cebd 50c7 2bbd 65fe 313d
00000190: 4dfb 48bd fac1 3e3d 1e33 c53c d663 f2bd
000001a0: 4cc0 e7bc 6fee b1bc c034 6c3d 739a 0abe
000001b0: af12 c0ba c152 da3d 6418 09bd ea10 02be
000001c0: 5024 4e3d b43f 6ebd eaa4 c0bc 7479 9a3d
000001d0: c130 cebb 2740 14be 818a 1e3c 6ff8 97bb
000001e0: 2861 96be 81c0 a5be f990 763d 7693 3d3d
000001f0: 9003 45be 763a 173e 4fd5 37be 0f56 bdbe
00000200: 6791 8ebc b20b d5bd 1cfc adbd 7b60 ef3d
00000210: c52e 7bbd 46e1 a9bc 2105 8c3d 8023 89be
00000220: 046e 5dbd 7a9a 70be 313f 3dbd 17da 50be
00000230: 47e5 09be d682 bebc 49f8 14bd 5ac9 eabd
00000240: 1725 1c3e c2e1 92bd 9d71 2dbe 2772 93bd
00000250: 306e 1f3d cd0e beb9 0570 b0bd fd8a d7bd
00000260: 30a5 1fbe 9f2a 8abe 5da8 01be c1a2 4abd
00000270: 5d29 f33c ebc4 053e 727a 5e3d cc77 223c
00000280: 806f 143e 6cd3 853d 02ce 12be a6ba 5cbe
00000290: a146 873c 2d56 13be 51ef f2bd 22cf b8bd
000002a0: 3a8c 3c3b 9962 58be 841a 4bbd 9cab 9e3d
000002b0: a5f9 8a3d 9fcf 7abe 5f0c acbd 1347 0c3c
000002c0: 227f 423e 2c8a ca3c b0f4 8cbd 4664 063e
000002d0: 81e6 babc 27ca 74bd da48 31bd a785 8dbe
000002e0: 2b69 50be a29e a3bd e958 0e3e 790f 31be
000002f0: e55c 01be 6288 d7bd 8aec dcbd e81d 35be
00000300: 11c4 cf3c 3f4d 5a3d 648c 093e b7dc 4dbe
00000310: c736 453e e5f9 8cbc a856 e7bd 8425 cc3c
00000320: a3e2 21be becc a9bd 0d9c 023d 9f96 5d3e
00000330: c022 823e 1f86 05be fa3e 22be 030c 13bc
00000340: 485b 93be e8b6 38bd 3ff2 38bb 4a78 03be
00000350: d434 063e 3ff0 30bc e15e 86bd d644 69bd
00000360: 6aa0 9d3b a6e2 1fbe 1cf2 2a3d 702d 2a3c
00000370: 29e8 453b a4db 46be e271 a7bd 9b07 f73c
00000380: f0f7 41be a284 13bd d557 2d3d 7a18 e9bd
00000390: 1d17 5b3d b1cf f03c 8d3b 8bba aacb 9bbd
000003a0: 9338 85bd beaf febb 45d5 d7bd 3fc5 aabc
000003b0: 4327 413d dbee 1cbd e1c8 46bd fcf2 29bd
000003c0: bd8b 5a3c 64cd 2abe 2fbe 27bd bf96 acbd
000003d0: d7b0 c7bd db95 fb3d 91a0 42bd 9e4a 64be
000003e0: 44cd a33d 6a79 a43d c891 c1bd 6cac 17be
000003f0: 9a18 0c3e 1116 e83d 0b67 f13d 41de 493e
-0.023210427 0.18072574 0.03815785 0.21328446 0.14535773 0.028230168 -0.009951297 -0.2069287
-0.046355072 -0.012910904 0.008872106 -0.064755164 -0.03136504 0.10334396 0.07723051 0.03843881
-0.0007952196 -0.06896877 0.14727466 0.10800677 0.033974074 -0.0054131746 -0.018273175 0.095838815
0.18409716 -0.31013495 0.001462629 0.004290038 0.2617711 0.08978582 -0.04831887 0.026926046
0.074271314 -0.094756335 -0.15441433 0.10527654 0.1259891 0.121444516 -0.012580848 -0.011382425
0.08980215 -0.028131073 -0.03247455 0.051573202 0.036216367 -0.14877045 0.05088039 -0.06117668
-0.15598574 0.0208475 0.022778044 0.23250689 0.19764248 -0.05661533 0.121637814 -0.11190638
-0.038977575 0.12298069 0.22286943 -0.026493052 -0.022003535 0.13208602 0.0007789002 0.007530624
-0.12341784 -0.2391456 -0.08505505 -0.044524293 0.03835031 -0.15675701 -0.10818034 0.048954044
-0.012651185 -0.04160999 -0.15392625 -0.24404661 -0.07907472 0.09248072 -0.1589788 -0.037083488
0.017080793 0.20219997 -0.013062324 0.20851439 -0.17504194 -0.14921686 -0.12032377 -0.03508622
0.15124129 -0.0063084904 0.052363887 -0.12075067 -0.022591572 0.04835643 -0.11229584 0.0062964777
0.09981376 -0.101055786 -0.041938126 0.0434555 -0.049067784 0.04657171 0.024072226 -0.118354484
-0.028289936 -0.02172014 0.057667494 -0.1353548 -0.0014654006 0.10660315 -0.033470526 -0.12701765
0.0503276 -0.05816622 -0.023516137 0.075426966 -0.006292433 -0.14477597 0.009676577 -0.00463777
-0.29371 -0.3237343 0.06019685 0.046283208 -0.1923964 0.14768395 -0.17952465 -0.3697972
-0.017403318 -0.10402621 -0.08495352 0.11688324 -0.0613239 -0.020737302 0.06836916 -0.26784897
-0.054059997 -0.23496428 -0.046202842 -0.20395695 -0.13466369 -0.023255747 -0.036369596 -0.11464186
0.15248524 -0.07171966 -0.16937871 -0.07199507 0.038923442 -0.00036250651 -0.08615116 -0.10524557
-0.15590358 -0.26985642 -0.12661882 -0.04947162 0.02968281 0.130634 0.05431599 0.009916257
0.14495659 0.06534466 -0.14336398 -0.21555576 0.01651317 -0.14388342 -0.11862052 -0.090238824
0.0028770105 -0.21131362 -0.049585834 0.07747576 0.06785897 -0.24493264 -0.08400797 0.008561867
0.1899381 0.024724089 -0.06882608 0.13124189 -0.022814991 -0.0597631 -0.043282367 -0.2764103
-0.20352618 -0.07989241 0.13901104 -0.17291059 -0.12633093 -0.1052406 -0.10787304 -0.1768719
0.025362046 0.053296324 0.13432461 -0.20103727 0.19259177 -0.017209003 -0.11295825 0.024920233
-0.15809111 -0.082910046 0.031887103 0.21639489 0.25417137 -0.13039444 -0.15844336 -0.008975032
-0.2878058 -0.045096308 -0.0028220562 -0.12838855 0.1310609 -0.010799467 -0.065610655 -0.056950413
0.0048103826 -0.15613803 0.0417348 0.01038681 0.0030198193 -0.19419724 -0.08176018 0.030154994
-0.18942237 -0.03601516 0.04232009 -0.11381622 0.05348884 0.02939591 -0.0010622606 -0.07607205
-0.06504931 -0.007772415 -0.10538725 -0.020846007 0.047156584 -0.038313728 -0.048531417 -0.041491494
0.01333898 -0.16679913 -0.040952858 -0.0842719 -0.097505264 0.12284442 -0.04751641 -0.22294089
0.07998136 0.080309704 -0.09451634 -0.14811867 0.1368126 0.11332334 0.11787232 0.1971369

conv1.mlp.4.bias f4 [64]
00000000: 2166 59be 643c 04be dc67 dbbd 0ad4 d0bb
00000010: b51b a2be 7e14 eabd 5e86 16be 7129 6fbd
00000020: 65bb 60bd 3a1a 10bf eae3 48be 693d c3be
00000030: dcf6 e9bd 7cc4 b4be 579e 1ebf 85d2 d43c
00000040: 8aac 9fbc 02c9 d2be dd01 68be 1ca5 a9bc
00000050: d708 8abb 6d6d bdbe 6777 893e 105c 3f3e
00000060: fb98 553d 83c1 81be 0e80 c1be 02d4 913d
00000070: cd22 98be e9e7 06be e82e 0c3e 63de 593d
00000080: 141e f0bd 7fad 32be 7a7a bcbe 1b63 29bd
00000090: 0ab0 e3bc 46e2 58bd bed1 09be 5d24 97bc
000000a0: 8aa8 31be e263 9abe 75f4 a0be b65e 3a3e
000000b0: e5d0 e3bc 105a 053e adf3 c8be 04b5 a1be
000000c0: 929f 24be 3770 97be 4ae4 ff3c 65e1 cdbe
000000d0: c470 0cbe 5828 59be c375 fdbe 5cfc 2bbe
000000e0: 6610 cc3d c712 c4be 1730 34bc 1fda 9ebe
000000f0: 6fb2 f8be 8d9f e03d 3fe6 59bc 7e3e ae3d
-0.21230365 -0.12913662 -0.10713169 -0.0063729333 -0.31661764 -0.1142969 -0.14699695 -0.05838913
-0.054866213 -0.5629002 -0.19618192 -0.3813279 -0.11424038 -0.35306156 -0.6196036 0.02597929
-0.019491453 -0.41168982 -0.22656961 -0.020708613 -0.0042124796 -0.36997548 0.2684891 0.18687463
0.052147847 -0.2534295 -0.3779301 0.071205154 -0.2971405 -0.13174404 0.13689768 0.0531906
-0.11724487 -0.17448996 -0.36812192 -0.04135428 -0.027793903 -0.052950166 -0.13458917 -0.018449957
-0.17349449 -0.3015433 -0.31436506 0.18200192 -0.02780957 0.13022637 -0.3924841 -0.31583416
-0.16076496 -0.295778 0.031236786 -0.40211025 -0.13714892 -0.21206796 -0.49503908 -0.16795486
0.09964065 -0.38295576 -0.010997794 -0.31025788 -0.48573634 0.10967932 -0.013299524 0.08508013

conv1.mlp.6.weight f4 [64]
00000000: 4067 813f 8fde 633f 8164 5a3f c24f 903f
00000010: 1393 873f 9981 8f3f 04c0 833f 0a73 743f
00000020: b02e 723f f893 863f dd1b 773f d62d 803f
00000030: 5994 743f 0870 7b3f 7372 8d3f 94ef 6f3f
00000040: e98a 603f ba40 7e3f 3c04 933f 2a7c 693f
00000050: 0465 7e3f 521a 803f 5937 603f 758b 683f
00000060: ebc8 823f 7606 6c3f 27d8 803f 9c10 553f
00000070: cdfd 873f 0ec9 763f 2131 643f a126 7b3f
00000080: 5944 873f 12f3 7b3f faeb 823f 3e49 793f
00000090: 2b91 843f d3ee 563f 650c 4f3f 89de 683f
000000a0: 35d9 7c3f 12c6 7f3f 3c52 633f cd55 803f
000000b0: 101d 683f b65d 5b3f 349b 6f3f 099a 7f3f
000000c0: 788c 893f ab75 853f 117f 683f 5a2c 623f
000000d0: 46b9 783f 93a5 7f3f 4932 833f 5124 793f
000000e0: e36f 7c3f 1179 6e3f a234 703f 3e37 743f
000000f0: ff54 873f 85ba 643f 482f 823f 8ecb 6e3f
1.0109634 0.8901147 0.85309607 1.127434 1.0591758 1.1211425 1.0292974 0.95488036
0.9460249 1.0513906 0.9652689 1.0013988 0.9553886 0.9821782 1.1050552 0.9372494
0.8771196 0.99317515 1.1485667 0.91205084 0.9937289 1.0008032 0.87584454 0.90837795
1.0217565 0.9219736 1.0065964 0.8322847 1.0624329 0.96400535 0.89137465 0.9810582
1.0567733 0.9841777 1.0228264 0.97377384 1.0356802 0.83958167 0.8087829 0.9096456
0.9876893 0.99911606 0.88797355 1.0026184 0.90669346 0.85689867 0.93596196 0.99844414
1.0745993 1.0426534 0.9081889 0.88348925 0.97157705 0.9986202 1.0249721 0.9732104
0.98608226 0.9315348 0.9383031 0.9539679 1.0572814 0.89347106 1.0170679 0.9327935

conv1.mlp.6.bias f4 [64]
00000000: c4d7 793e a875 a93d 1d9e 9bbe 11e2 393e
00000010: e0de 373e 5ded a53e 7591 a63e c460 31be
00000020: bfa5 a03c 6deb 9c3c 9cde 223d aeb7 833e
00000030: ff58 f4bd 9e93 0f3d 1f99 39bd a9ec aa3d
00000040: f7f0 2abe 261a 903e e303 463e dc90 563e
00000050: fc42 7d3e 9dd6 833e 2585 b3bd 26b5 20be
00000060: aab2 4b3e 7414 fcbd 12c3 2bbe ed69 c5be
00000070: 8125 a13e 53ab 913e 2164 d9bd 67e3 8a3e
00000080: a8e4 a03e 028f 32be ad49 ad3e 7ce2 1d3e
00000090: c6d8 5d3e ffaf 1abe 0c5e eebd 5319 883d
000000a0: af63 933e 37c4 6bbe 250e 303e 5e4f 923e
000000b0: f9ac 623e c583 a6be d8da abbc cab9 903e
000000c0: 83e6 a73e 97d7 743e ce0c 983c 3172 08be
000000d0: 7d92 07be c47b 9fbc c87b 0a3d ed4b 42be
000000e0: c110 933e c427 1fbc 3303 703e f8d3 5d3e
000000f0: 9c65 12be 568f d23e e659 913e bc7a 3c3e
0.24398714 0.08274394 -0.30394068 0.18152644 0.17956114 0.32407656 0.3253285 -0.1732207
0.019610284 0.019155229 0.039763078 0.25726074 -0.11931037 0.035052888 -0.045312043 0.083459206
-0.16693483 0.2814495 0.1933742 0.20953697 0.24732584 0.25749674 -0.0876563 -0.15694103
0.19892374 -0.123085886 -0.16773632 -0.38557377 0.31473926 0.28451023 -0.10614801 0.2712662
0.3142445 -0.17437366 0.33845273 0.15418428 0.21664724 -0.151062 -0.11639032 0.06645455
0.2878699 -0.23024069 0.17192896 0.28576177 0.22136296 -0.32522407 -0.020978376 0.28266746
0.32793054 0.23910366 0.018560793 -0.1332481 -0.13239475 -0.019468196 0.033809453 -0.18974276
0.2872372 -0.009714071 0.2343872 0.21662891 -0.14296573 0.41124982 0.283889 0.18406194

conv1.mlp.6.running_mean f4 [64]
00000000: 76ab d73e 764a e33d 0cdd 423d 88a6 4a3f
00000010: 18f3 b53e c5b2 a83e 5aac 4c3f 4a85 733d
00000020: b150 de3e bf4f 163d 5a5e e23e 0d85 223f
00000030: 2c72 033e 4865 a53c 4942 0b3b 8858 663e
00000040: c77a d93d f659 f03e c711 0d3e b7e3 4c3f
00000050: 9d6e 9d3e df14 803e b6fd 563e 1164 af3d
00000060: 2032 903e e320 f53c ebc4 c03b 028f 523d
00000070: 8556 843e db4f 5f3f 57f7 0f3e f033 873e
00000080: 20a4 ca3e 5d41 f83c 7fda 163f 7699 fc3e
00000090: f878 413e f8da 163e 1ee3 f53c c1f5 023e
000000a0: 77bc 4d3f 220b 363d 55b9 623e 5e17 743f
000000b0: 99d9 193e 686e 923d 5438 173e 4fd5 d23e
000000c0: 3137 453f 06cb aa3e 49d8 ce3e f3a6 143c
000000d0: cde7 343e 3e68 ca3e 5f02 163c d20a b73c
000000e0: 4590 1e3f c916 f43c 8dd7 263f cf83 ec3e
000000f0: 0e78 103c 5a71 6b3f 60da f73e 8eeb cc3e
0.42123002 0.11098187 0.047574088 0.79160357 0.35537028 0.3294889 0.7995049 0.059453286
0.43420938 0.036697146 0.4421261 0.6348427 0.12836522 0.020189896 0.0021249226 0.2249471
0.10619121 0.46943635 0.13776313 0.80034965 0.30748454 0.25015923 0.2099522 0.08564008
0.28163242 0.029922908 0.0058828495 0.051405914 0.2584726 0.87231225 0.14059196 0.26406813
0.39578342 0.030304605 0.5892715 0.4933583 0.18893802 0.14731967 0.030015524 0.1278906
0.803657 0.04444421 0.22141011 0.95348155 0.15024413 0.071499646 0.14767581 0.41178367
0.7703734 0.3335802 0.40399387 0.009073007 0.1766655 0.39532655 0.009155839 0.022344027
0.6193889 0.029796021 0.65172654 0.46194312 0.008817686 0.91969836 0.48408794 0.40023464

conv1.mlp.6.running_var f4 [64]
00000000: 6077 733f f34b fc3d 9458 323d ca3b 583f
00000010: c2ce 3d3f dd38 243f a739 983f a1bd 123d
00000020: 0822 143f bc31 cb3c 0460 e63e 9453 983f
00000030: 69db 8c3d 3154 253c 3f07 2e3a 4f7f 203e
00000040: 5830 a23d 3420 0e3f 975e 1e3e dc17 823f
00000050: 335b a83e e745 a33e 99f7 aa3e d999 8f3d
00000060: 0b35 9f3e 3c01 813c 3a80 f73a aba4 283d
00000070: 6f76 cb3e 54e8 813f 06dc 2e3e ae85 843e
00000080: 1534 f23e 97ee 783c 1864 753f 7c44 c53e
00000090: d19a 0f3e aa41 0f3e b5fa f53c 9411 eb3d
000000a0: ef53 b23f ee63 013d 1c22 9d3e b1fb a53f
000000b0: bee6 d63d e558 633d d3a8 063e 50bb 373f
000000c0: 05a3 bb3f ee04 033f a69f c43e 55a4 983b
000000d0: b9b4 1b3e bd3f c03e 5aab 8b3b 6eff 573c
000000e0: a768 0c3f ba3f 773c 4262 0d3f 42db 033f
000000f0: 63fe 643b 0bb5 3b3f e03d f03e 7d84 113f
0.95104027 0.12319174 0.043541506 0.8446623 0.7414361 0.64149266 1.1892594 0.035825375
0.5786443 0.024803989 0.4499513 1.1900506 0.06877787 0.010090874 0.0006638653 0.15673564
0.07919377 0.5551789 0.1546577 1.0163531 0.3288208 0.3188927 0.33392027 0.07011766
0.31095156 0.015747659 0.0018882819 0.041172665 0.39738795 1.0149026 0.1707612 0.2588324
0.4730536 0.015193603 0.95855856 0.38528812 0.14023902 0.13989893 0.030026773 0.11477962
1.3931865 0.03158944 0.30690086 1.2967435 0.10493229 0.0555047 0.13150339 0.7177019
1.4659125 0.511794 0.38403052 0.004658262 0.15205659 0.37548628 0.00426237 0.013183458
0.54847187 0.015090877 0.55228055 0.51506436 0.0034941665 0.73323125 0.46922207 0.56842786

conv1.mlp.8.weight f4 [64, 64]
00000000: 3ce0 01be c13b 14bd 7bef b43c 722a 83bd
00000010: 7baf 8cbd 0e91 56be 0185 36be 28ba 873c
00000020: 2694 95bd bcbd 1dbd fc3b 86be da64 3abd
00000030: 5779 9cbd 71aa 0abe 4edc ad3d d1e3 24be
00000040: 3e27 6e3c 3cac 5ebd ac64 d13c 1515 94bd
00000050: f7f4 c8bd d0a2 f7bc 3d5c b83d 06c9 bc3c
00000060: 22f4 39be a5b5 373d 0eb6 f23d aeda 953d
00000070: 9ff2 42be 85bb 0ebe 7dde 813d 514c 19be
00000080: 66cb 26be 1bde bf3d 3636 483d dfcd 4bbd
00000090: 50d0 c4bb 4110 b9bc 5b95 383c 2146 66be
000000a0: 90ab 81bd fd1c 1d3c 8a94 babd 733a 15be
000000b0: 2909 a7bd d725 813d a949 f43b f7a9 2e3c
000000c0: f819 9dbe 8c5f 2dbe aec6 8dbd 3135 7c3d
000000d0: bbbe 02bd 39e0 4f3e 2d96 2ebd 527e 913d
000000e0: 7d72 00be b881 a5bc 4c13 b1bc d6e4 2abc
000000f0: d544 8d3d 4a4b 09be 7ada acbb 5228 32be
00000100: c0c9 14be 0833 4a3c 272c 6b3d 22ed 25bc
00000110: ba0c 983d c97c 503d ab27 2a3d 1772 943c
00000120: b3a3 793d d11f f13c 1079 573e 73c5 3f3d
00000130: fb94 b43c 30ad 6fbe 4ab2 893e 74e3 f5bd
00000140: d176 453d 9b6f bc3c defb b6bd 178c f03d
00000150: 593b 1cbd c407 0b3e e69e f23d 6078 2bbc
00000160: 1197 3bbe 3636 aa3d a3fe e83d 01ea bbbc
00000170: b990 52be 163c b63c 701d 813c 8f99 07be
00000180: b3f8 9fbd 567c fc3c 815d 123d 3a17 8b3c
00000190: 7669 f8bd fe5d b93d 3df5 27bd f109 4fbe
000001a0: 428c 063d 0d24 0dbd 2832 4fbe b92d 2bbe
000001b0: ae5a f9bd 69f1 913d 7942 83bc 3ccd 92bd
000001c0: 55e0 4cbe 5abe 42be c737 6fbe 4926 263e
000001d0: f7bb 883d 9d26 f13c e820 eabd ae12 993d
000001e0: 1554 bdbd 0072 64bd 1d7b 17be a683 b8bd
000001f0: 4657 163d ae4a 3cbe 7e2c 8f3c e361 cdbc
00000200: 0999 72bd a3c9 cd3d a2df a9bd a6b6 c13d
00000210: 3dbb 8b3d f258 233d 247e debd b967 77bb
00000220: 6d00 53be 6060 843e 0261 27be 73e4 34be
00000230: 21d2 bbbd 44e7 0e3c 5d1a 8a3c 128b 2fbe
00000240: 6e6a a5bc ccd6 cfbc 1a4b c8bd 49ab 223e
00000250: a054 203e c678 953d 11be bebc 5a0d 0bbc
00000260: c0e5 b8bd b6af a63d 0cb6 38bd ec80 b0bd
00000270: 55fc 8abd 1a29 533d 8ee0 3f3c cfb6 493d
00000280: 64db 953d bad8 233e d46c 94bd e1bb 123e
00000290: f442 2d3e 3070 74bd 6d23 01bb 3c41 5fbd
000002a0: 55e1 f3bd 45b6 ebbd 15ae 8dbd d020 a33c
000002b0: e962 bd3d 7f08 b93d 982f 353e 0f37 c63d
000002c0: 8d94 f9bb dc28 4ebd df58 89be e14c 823d
000002d0: 99fa bd3b 3ac3 023e 6707 083c 8512 48bd
000002e0: e557 09bc f375 bbbd 0172 fa3c 74b2 fc3d
000002f0: 2b18 02bd 63e5 3fbd 7d7e 4ebc ab90 febd
00000300: 44e8 1ebd 9ca5 38bd 6b19 ea3c aa41 95be
00000310: ccad 8fbc bac6 48be e679 e3bd 173f 8cbc
00000320: da48 9fbd 917b d93d e825 91be bfa5 80be
00000330: f104 28be 805d 99bd fcfe 513d cd2c b9bc
00000340: 705d b53b ba62 29bd 08b5 303e d546 32be
00000350: 0e6c f5bd 1c9e 8e3d 2010 b9bd 2ef9 67bb
00000360: 4669 2cbe 251c 7cbd 0581 383d d823 0fbc
00000370: 6708 a5bd 0648 3abc d7d8 9c3d 1fdc 4ebc
00000380: 9237 843e 1ec1 413d 0023 353c b6aa 1dbc
00000390: 8593 48bd 649c 57bd ca4e f43d 84db 16be
000003a0: 5121 8cbc ea38 82bb c29a fdbc 35cc ca3d
000003b0: 7350 cdbd f0d3 54bd a072 8d3d 063e 923d
000003c0: 4767 cb3d 4439 f73c 683d a03d c3ba a83d
000003d0: ff79 833d d56c d7bc a120 26be d08e 8b3c
000003e0: 474f cdbe ece3 2bbe 999f 8cbd fa38 313c
000003f0: 93cf 763d 7328 98bc 8d80 8d3d 4539 763d
-0.12683195 -0.0361898 0.02208685 -0.0640458 -0.06869408 -0.20953771 -0.17824174 0.016568258
-0.07303648 -0.038511023 -0.2621764 -0.045506336 -0.07640331 -0.1354158 0.084892854 -0.1610253
0.014535723 -0.054363474 0.0255607 -0.072305836 -0.09812348 -0.030229002 0.09001968 0.023045074
-0.18159536 0.044850964 0.118511304 0.073171005 -0.19037865 -0.1393872 0.063412644 -0.14970519
-0.16288528 0.09368535 0.048879825 -0.04975688 -0.006006278 -0.022590758 0.011266078 -0.2248769
-0.06331551 0.009589431 -0.09110363 -0.14573078 -0.08156044 0.063060455 0.00745507 0.01066064
-0.30683875 -0.1693098 -0.06922661 0.061574165 -0.031920176 0.20300378 -0.042623688 0.07104172
-0.12543674 -0.020203456 -0.021615647 -0.010430535 0.06897894 -0.13407627 -0.005275068 -0.17398193
-0.14530087 0.012341268 0.057415154 -0.010127338 0.074243024 0.050900254 0.041541737 0.018120809
0.06094713 0.029434117 0.21042275 0.04681916 0.022043696 -0.2340591 0.26893836 -0.12006274
0.048209015 0.023002436 -0.089347586 0.1174547 -0.038142536 0.13577181 0.11846714 -0.010465711
-0.18319346 0.08311121 0.11376693 -0.02293873 -0.2056302 0.022245448 0.015761107 -0.13242172
-0.078111075 0.030821007 0.035733704 0.016978849 -0.1212949 0.09051131 -0.04100536 -0.20218636
0.032848604 -0.03445821 -0.20233977 -0.1671666 -0.12175499 0.071261235 -0.016022908 -0.071680516
-0.20007451 -0.19017926 -0.23361121 0.16225542 0.066764764 0.029437358 -0.114320576 0.07474266
-0.09244553 -0.05577278 -0.14793058 -0.09009485 0.036704324 -0.18387863 0.01747727 -0.02507109
-0.059227977 0.10048225 -0.08294608 0.094586655 0.06822822 0.039879747 -0.10863903 -0.0037751033
-0.20605631 0.25854778 -0.163456 -0.17665271 -0.09170938 0.00872213 0.016858274 -0.17142895
-0.020192351 -0.025370978 -0.097799495 0.15885653 0.15657282 0.07298426 -0.02328399 -0.00848707
-0.09028196 0.08138983 -0.04509549 -0.0861834 -0.0678641 0.05155287 0.011711253 0.049246605
0.07317236 0.16000643 -0.0724732 0.14329483 0.16920072 -0.059677303 -0.0019704953 -0.05450557
-0.11908213 -0.115093745 -0.06917969 0.019913107 0.09247381 0.090348236 0.17693937 0.0967847
-0.0076165856 -0.050331935 -0.26825616 0.0636232 0.005797696 0.12769786 0.008302546 -0.048845787
-0.008382772 -0.091533564 0.03057194 0.12338725 -0.03176133 -0.04684962 -0.012603399 -0.12429937
-0.038795725 -0.045079812 0.028576573 -0.2915166 -0.017538927 -0.19607058 -0.11107235 -0.017119927
-0.07777567 0.106192715 -0.28349233 -0.25126454 -0.16408135 -0.07488537 0.051268563 -0.02260437
0.0055348203 -0.04135392 0.17256558 -0.17409833 -0.119835004 0.06963751 -0.09036279 -0.0035396325
-0.16837034 -0.06155028 0.045044918 -0.008736573 -0.08058243 -0.011369711 0.076585464 -0.012625723
0.25823647 0.04730331 0.011055708 -0.00962322 -0.04896881 -0.05263938 0.1192909 -0.14732176
-0.01710573 -0.00397407 -0.030957583 0.09902231 -0.1002511 -0.05195993 0.069066286 0.07140736
0.09931808 0.030178674 0.07824212 0.08238747 0.06419753 -0.026297012 -0.16223384 0.017035872
-0.40099546 -0.16786164 -0.06866378 0.010816807 0.060256552 -0.018573975 0.06909285 0.06011321

conv1.mlp.8.bias f4 [64]
00000000: 4907 c6be 83fb 043b d3e9 34be 63cc 2f3e
00000010: 4cdd 20be e788 fbb8 ec47 cf3b 2a63 60bd
00000020: 4408 303e ff5f fa3d 9059 1abf c4cd d03d
00000030: 0aec 1d3e 9539 c8bc ebf1 9bbc 59ad 993d
00000040: 1e53 4f3e 17d2 bdbd b833 db3e 67fe adbd
00000050: ccc7 bfbe 51eb 5dbe be9a 803c 79ad c9be
00000060: c90d 033d b4b9 2a3e 5b35 f8be deb3 e1bd
00000070: ff36 6bbe 464e 4f3b 59ee 04bd 1bf8 8f3e
00000080: 1a02 7d3d 2a90 353d b141 8c3e 980e 0cbe
00000090: 5e8c 8c3e f9b5 e0bd a8e3 193e f179 96bd
000000a0: 3988 9d3e 4c67 bc3d 9ad7 0b3e 1c23 b43b
000000b0: f08e 2dbd 714c 33be 8f8d 8e3e a1e6 3a3e
000000c0: 74ac a33d d46e c63c 75df b3bc c7ab c53d
000000d0: dab4 d6bd d5b4 ebbd 77aa 90bd f8a8 56be
000000e0: a82a 8fbe e266 15bf b037 8cbe d661 6abe
000000f0: 1244 ed3c 77ba a7bd a307 b6be faac 943e
-0.38677433 0.0020291514 -0.17667322 0.17167811 -0.15709418 -0.00011994113 0.0063257124 -0.05478207
0.17190653 0.12225341 -0.6029291 0.10195497 0.15422073 -0.02444152 -0.019036254 0.075037666
0.2024655 -0.09268587 0.42812896 -0.08495789 -0.3745712 -0.21671797 0.015698787 -0.39390162
0.03199557 0.16672403 -0.48478207 -0.11020635 -0.22970198 0.0031632348 -0.03245387 0.28118977
0.061769582 0.04432694 0.2739387 -0.13677442 0.27450842 -0.109722085 0.1502825 -0.07347477
0.30767992 0.0919939 0.13656464 0.0054973494 -0.042372644 -0.17509629 0.27842376 0.1825204
0.07991877 0.024222769 -0.021957139 0.096519046 -0.104837134 -0.115091 -0.070637636 -0.20962894
-0.27962232 -0.5836011 -0.27386236 -0.22888884 0.028963123 -0.08189862 -0.355527 0.2903822

conv1.mlp.10.weight f4 [64]
00000000: b131 ae3f 29ab b43f d0ce b03f 51d1 9d3f
00000010: eda3 9c3f 2ecf aa3f a5e5 c83f d8b3 b13f
00000020: f601 9e3f ebef a43f 5a54 c43f 7b25 903f
00000030: 62e6 9e3f aba5 8a3f e35d b93f e509 8f3f
00000040: 1a38 a03f 0a51 c33f b374 aa3f 72b5 9d3f
00000050: ba4f ac3f 1c4d ac3f e953 c73f 0bb0 dc3f
00000060: 7c76 9e3f 8d07 9c3f c7c2 a53f fc26 c33f
00000070: 6462 9f3f cbf4 913f 4c4d 9d3f a297 a13f
00000080: cf3c 893f 8825 bd3f 95af 863f 3fe4 a53f
00000090: 1b38 8b3f 0518 a23f 8501 bd3f 2ecd 983f
000000a0: 692f a13f 11be 7c3f e573 8e3f f879 823f
000000b0: 3b83 d03f 720e aa3f 1711 7a3f a3ce 7f3f
000000c0: b8f0 973f f948 ec3f 0f57 c63f e4d7 ae3f
000000d0: bf87 af3f 0681 b13f d02f d73f 2e49 983f
000000e0: 486b a13f 6391 bf3f 6979 7d3f f098 c43f
000000f0: 1860 de3f 6bf8 cf3f 8883 af3f 94c2 b23f
1.3608915 1.4114734 1.3813114 1.2329503 1.2237526 1.3344476 1.5695082 1.3883009
1.2344348 1.2885717 1.5338242 1.1261438 1.2414057 1.0831808 1.4481777 1.1174895
1.2517121 1.5259106 1.3316864 1.2320998 1.3461831 1.3461032 1.5572482 1.7241224
1.2379909 1.2189804 1.2950066 1.5246272 1.2451901 1.140283 1.2289214 1.26244
1.0721682 1.4777079 1.0522333 1.296028 1.0876497 1.266358 1.4766089 1.1937616
1.2592593 0.9872752 1.1129118 1.0193472 1.6290048 1.3285658 0.9768233 0.9992468
1.1870337 1.845977 1.5495318 1.3659635 1.3713301 1.38675 1.6811466 1.1897333
1.2610865 1.4966244 0.9901338 1.5359173 1.7373075 1.6247686 1.3712015 1.396563

conv1.mlp.10.bias f4 [64]
00000000: a544 693d ac94 563d f4a2 9a3e 7429 ad3e
00000010: 4d46 983e 4b7c 8a3e 39fc 203e 319c 1e3e
00000020: d0f6 2c3e cd15 3f3d 4528 f83d 134a 0abe
00000030: 63a4 7bbe 3c8d 3b3e 2d8d 8e3e 4c4d 903e
00000040: 9295 ac3e 4dec ca3d 5a24 483e 9754 a43d
00000050: db27 543e c4c0 9b3e 6bed 5e3d d9e9 ad3e
00000060: ef06 ef3d aefb e73d da73 543e 05f2 a53e
00000070: 5482 b33c 023b dc3e aacf aabd a9ad 573e
00000080: c68e 94be 4df7 663e af6b 543e e596 f0bc
00000090: 8264 af3e 8845 833e 3f46 8a3e 60ab b33c
000000a0: b564 3f3e ea67 793e df80 7bbd baae c03d
000000b0: 7c99 b63e 4524 ae3e b3bb 703e 12c2 723e
000000c0: 9502 863e c55e a73e fc22 ba3e 86cb 3bbd
000000d0: 18ff 6f3e bef0 a83e 3105 4b3d 433e 013e
000000e0: 01a9 c33d 8c50 313c 3a38 cbbd a1cd 9a3e
000000f0: ad70 143e 6d31 c03e b92c 183e a7fe 483d
0.05695023 0.05238788 0.30202448 0.3382069 0.29741135 0.27047953 0.15721215 0.1548927
0.16891026 0.04665165 0.12117056 -0.1350482 -0.24574427 0.18315595 0.27842084 0.28183973
0.33707863 0.09908352 0.19545117 0.08023947 0.20718329 0.30420506 0.05442564 0.33967474
0.11671244 0.11327301 0.20747319 0.3241121 0.021912731 0.4301377 -0.0834039 0.2106234
-0.29015177 0.22555275 0.20744203 -0.029368827 0.3425637 0.25638986 0.2700672 0.021932304
0.1869076 0.24356046 -0.061402198 0.094083264 0.35663974 0.34012046 0.23509102 0.23706844
0.26173845 0.3268949 0.36354816 -0.045848392 0.23437154 0.32996172 0.049565498 0.12621407
0.09553719 0.0108224265 -0.09922834 0.30235007 0.14496107 0.3753771 0.1486081 0.04907098

conv1.mlp.10.running_mean f4 [64]
00000000: 88da bd3d 5b54 9c3e 878f 013f 3093 1b3f
00000010: 29ba f93e 3963 9c3e b2dc b73e 7f20 ee3e
00000020: 69bd 6e3f 4941 2a3f 23a2 1d3d 37b9 de3e
00000030: f6c2 1c3f fa6c 2d3f 4d51 963e c8b4 143f
00000040: 589a 203f e4a6 643e 1a3a 773f f6a5 fc3e
00000050: 97f5 5e3e b71b b13e e28f c03e 3110 9f3d
00000060: ba8a a03e 4561 013f 4589 953e e3ae c93e
00000070: 996f 983e 4276 693f 9515 e13e 6ef7 2d3f
00000080: 472b fe3e 8316 163f 13e8 ce3e 4e6c f63e
00000090: 3155 2f3f db19 d03e 3bba 8e3e abc3 0f3f
000000a0: 7a11 6c3f 5251 0d3f 1906 0d3f 637f f63e
000000b0: 34d8 653e 8b52 053f ae5f dd3e 2d57 f93e
000000c0: 003c 273f 370a b83e a570 e83e b98c 093f
000000d0: 0069 a23e 654d f63e f63a 4b3e 8c57 173f
000000e0: 3e73 a43e 60c3 163d 0e23 213f f1a0 d43e
000000f0: 2e66 be3e 0928 c13e 42d1 a73e cb03 273f
0.09270197 0.30533108 0.5060963 0.60771465 0.4877484 0.3054445 0.35910565 0.46509168
0.93257767 0.6650587 0.038484704 0.43500683 0.61234987 0.6774441 0.29358903 0.5808835
0.6273551 0.22329289 0.9657303 0.49345368 0.21773373 0.34591457 0.37609774 0.0776676
0.3135584 0.50539047 0.2920629 0.3939124 0.29772642 0.9119607 0.43961778 0.6795567
0.49642393 0.586281 0.40411434 0.48129505 0.68489367 0.40644726 0.27876458 0.5615794
0.9221417 0.5520221 0.5508743 0.48144063 0.22445756 0.52079076 0.4323706 0.48699322
0.6532593 0.35945293 0.4539844 0.5373035 0.31720734 0.48105922 0.1984671 0.5911796
0.32119173 0.036807418 0.62944114 0.4152904 0.37187332 0.37725857 0.3277684 0.6524016

conv1.mlp.10.running_var f4 [64]
00000000: 2b5d 863e ebb9 413f 2ba0 5f3f 4266 733f
00000010: b202 4840 18b9 ee3e 4aaf 933f 69ae 0d3f
00000020: 1306 8f3f 3ff1 233f 8b3c 883d fdfe e33e
00000030: bae2 613f 7268 2e40 d113 323f 460c af3f
00000040: eb3b 773f 2d99 1c3f 75ad a83f 9935 903f
00000050: ee31 ab3f 6ae9 063f e4bb d03f 05ca 333e
00000060: ef16 3f3f d7f8 333f 6393 a23f b1c8 1e40
00000070: bda3 093f 311b cb3f fedd 073f 3335 6b3f
00000080: e5f6 113f da39 903f bdcf 463f 53a6 693f
00000090: 8f1b 353f 6f69 d53f 127a d43e b756 4d3f
000000a0: dc32 c53f 6387 453f a786 d53e aa6b 2140
000000b0: 57de f03e d054 3440 da0e e83e 7746 873f
000000c0: a18c 3d3f ede1 993f 4da0 3440 689f 4d3f
000000d0: ce7e 5d3f d414 2140 8c3b 303f df2b 7c3f
000000e0: 37fc 0c3f 64bc 6a3d d601 b43f 1884 fe3f
000000f0: 91f8 b03f 6215 bb3f 6969 533f db0a 203f
0.26242957 0.75674313 0.8735377 0.9507791 3.1251645 0.4662559 1.1537869 0.55344254
1.1173729 0.6403999 0.06652173 0.44530478 0.8823658 2.7251248 0.6956149 1.367562
0.965758 0.6117123 1.3177935 1.1266357 1.3374612 0.5269991 1.630734 0.17557533
0.7464437 0.70301574 1.2701229 2.4809992 0.5376547 1.5867673 0.5307311 0.9187805
0.57017356 1.1267655 0.77660733 0.91269416 0.70745176 1.6672801 0.41499382 0.8021044
1.5406146 0.7715971 0.41704294 2.5221963 0.47044632 2.8176765 0.4532383 1.0568379
0.7404271 1.2022072 2.822284 0.8032136 0.86521614 2.5168962 0.6884086 0.9850444
0.5507235 0.05730857 1.406306 1.9884062 1.3825856 1.46159 0.8258272 0.62516564

conv1.shortcut.0.weight f4 [64, 9]
00000000: 9da8 f33d 5b6c 51bc 659b 3abc b46e 283c
00000010: 4ea1 403d 06b9 b13e 2deb 0cbe 1cfb 643e
00000020: cd16 ffbe 5bd7 ec3e 9a42 eebc 1a18 0a3c
00000030: a73c b03c e101 9a3e db18 863e 7e76 5bbe
00000040: 829d 24be cba1 2dbe 8974 34be b5ce f03c
00000050: 10f8 4fbd cd09 e63d 23b1 333e 0671 ccbd
00000060: 6928 223f 72bd 5e3e 40fa c3bb de36 0b3e
00000070: 74be e83b 620f 033d 60b1 43bc 62de 8a3c
00000080: 5244 99be cad5 063f 7c9a babd 1297 29bd
00000090: 6028 2dbf af65 0f3b e575 18b9 fb82 9b3b
000000a0: 6e36 d33b 9a6d bfbd b681 88bd 512a 66bd
000000b0: 25ca f33d 100c e43b aa4e bf3c 8ce4 a5bd
000000c0: 8823 3c3d 1d6c 783e 3a5d a5be dae1 89be
000000d0: 5bee 753c fdf3 f5be 30bb 053f 1aff bb3c
000000e0: 6d54 54bd 3cf2 d9bc 1bf0 54be 3471 e63e
000000f0: adee ae3d e505 b43e 99b2 683e a504 8dbe
00000100: 63f1 c3bd 7e8c 403d c7bd 41bc ebf1 373e
00000110: a3c7 9bbd 0e7f 9abe 36b5 53be 097a fc3e
00000120: 9853 0d3f 3cb5 59bb f1bf e13b 2b65 153d
00000130: 2f7e 60be 755a 173d 8bf7 e53d e54d b13d
00000140: 0b24 d2bd 6459 c33e abb0 a73b 2802 303b
00000150: a6bf 2fbd 6079 b53e f95c b3be 36b8 8f3d
00000160: 8df4 77be c5c7 ac3e 289d 053e 627c 963c
00000170: 2d70 0c3c b069 1f3b 0ea4 ccbd c020 8d3d
00000180: 1c69 66be ad0c 53be 2963 f2be f733 133f
00000190: 6fc0 78bc 9514 473d e64a d0bc 627e 053d
000001a0: 568f 22be 539f 9dbd 2d57 df3d c046 44bd
000001b0: ea09 bc3e ec5b 1bbe f1c3 4ebd 8a71 b93d
000001c0: c1ea 803e 2a6b 4dbe 5e2d debd ce40 aabc
000001d0: cc5e e53e 632a 23be c88d 0e3d 0ac2 88bc
000001e0: 74d5 adbd 9cc6 33be 7339 69be 28f5 c9be
000001f0: 1399 0fbd e8eb b83e 09f4 603e b06a 14bc
00000200: ffce eb3c 1100 cabc 9d57 4a3e df98 d03d
00000210: 1d48 96be c5f2 6f3e 3d10 05bf 6382 99bd
00000220: 59f2 4ebd 2a33 28bc 2ef8 623d a572 d2bd
00000230: 9f2b 95bd 31a7 f93e 02a5 a0bd e68a cfbe
00000240: 03b7 bdbe d130 9b3c b59f a43c 688d 953d
00000250: 72cd 70be 013b 9abe 1b96 393e 07db 5abe
00000260: c5ce e83d abc8 e03e e621 01bd 427a 63bd
00000270: caa8 72bd 4058 b1ba b674 c3be 7224 04bd
00000280: bcc4 9c3e 0004 243d e4c3 d3be 902e 9a3d
00000290: 499b 48bd af7d bf3a 9ea3 93bb 3c47 5cbe
000002a0: ddd0 c83e 70b0 9bbd d23a 3a3d 9944 a1be
000002b0: 731a cf3c 7f70 493d 1ada 69bd fec4 d6bd
000002c0: b25f 3dbe 39c5 81be 6493 bcbd b26c 523e
000002d0: ea95 46bf 9691 15bc 6a8c e9b8 5eb1 a8bc
000002e0: ddd6 123e b64b 593d 2f5d 493c d860 983d
000002f0: 25c8 513e 55a8 5dbe 5f5c e7bb 944f 083c
00000300: f57f d3b9 8ffa 323e df19 c0be 321f dc3d
00000310: 3a83 7cbd 3f47 b13e 55b0 2e3e 860b f13c
00000320: 1747 9abb 66cb c13c f133 373e f51c 513e
00000330: de60 233e bb93 edbe 9782 a73e c2d4 cf3d
00000340: 2319 983d fb38 8e3a 6a8c 373e 7cb1 2ebd
00000350: 1945 a73e 0fe7 f1bd 6c1b d9be 591b 973c
00000360: 5f47 003c 7bad adb9 a0e4 7bbb a507 27bc
00000370: b5a4 12bd 6130 40bc b4a5 51be b071 90be
00000380: b53e a8be 955a df3e 0b07 c3bb e286 87bb
00000390: 7f67 11bd 70f7 40bc 7cd3 b23e b729 10be
000003a0: c832 1a3e 6886 79bc 5638 3fbf 7f52 833b
000003b0: 6ec1 a2bc 38cb 03bd dcd1 0cbe 4cfc 073e
000003c0: 6384 3abe bcf9 41be 4102 5ebd 466f 21bf
000003d0: ce1e aabb 614a 963d 540a 6a3d 0fc1 073e
000003e0: 5d58 5b3d e0ba b2bd 94bb c9bd 8ce9 a43c
000003f0: eb74 433e 04cf 07bd 27fb 61bd 5965 b73c
0.11897395 -0.012782182 -0.011389588 0.0102803 0.047028832 0.34711474 -0.13761587 0.22361416
-0.49822083 0.46258053 -0.029084492 0.008428598 0.021513296 0.30079558 0.26190838 -0.2143192
-0.1607571 -0.1695625 -0.1762258 0.02939544 -0.05077368 0.11232338 0.17548041 -0.09982495
0.6334291 0.21751955 -0.00598076 0.13595149 0.007102782 0.031997092 -0.011944145 0.016951744
-0.29934937 0.52669966 -0.09111497 -0.041403838 -0.6763973 0.0021880677 -0.00014539769 0.0047458387
0.0064456975 -0.09347077 -0.066653654 -0.0561927 0.119037904 0.006959446 0.02335294 -0.081002325
0.045932323 0.24259992 -0.3229769 -0.26930124 0.015010442 -0.4803771 0.5223875 0.02294879
-0.051838327 -0.026604764 -0.20794718 0.45008242 0.085416175 0.35160747 0.2272438 -0.27542606
-0.09567525 0.047008984 -0.011825032 0.17963378 -0.07606437 -0.3017506 -0.20674595 0.49311855
0.5520568 -0.0033219596 0.0068893363 0.036473434 -0.21923135 0.0369515 0.11228856 0.08657435
-0.10260781 0.38154137 0.005117496 0.0026856754 -0.04290738 0.35444164 -0.3503187 0.07017557
-0.24214382 0.33746162 0.13048232 0.018369857 0.008571667 0.002432447 -0.099922284 0.06891012
-0.22501034 -0.20610304 -0.47341278 0.5750117 -0.0151825985 0.048603613 -0.02542634 0.03259123
-0.15874991 -0.07696404 0.10905299 -0.047919035 0.36726314 -0.15171784 -0.050479833 0.09054859
0.25179103 -0.20060411 -0.10848497 -0.020782854 0.44798887 -0.15934138 0.034803182 -0.016694088
-0.084879786 -0.17556232 -0.22775821 -0.39444852 -0.035058092 0.36117482 0.21968092 -0.009058639
0.028785227 -0.024658235 0.19759984 0.10185408 -0.29351893 0.23432453 -0.519779 -0.074955724
-0.05052409 -0.010266105 0.055412464 -0.10275773 -0.07283711 0.4876037 -0.07843973 -0.4053566
-0.3705369 0.018944176 0.020095685 0.07302362 -0.23515871 -0.3012314 0.18123667 -0.21372615
0.11367563 0.43903098 -0.03152647 -0.055536516 -0.059243 -0.0013530329 -0.3817498 -0.03226132
0.30618846 0.040042877 -0.4136039 0.07528412 -0.048976216 0.00146096 -0.0045055887 -0.21511549
0.3922185 -0.07602012 0.04546625 -0.31497648 0.025281167 0.04917955 -0.057092763 -0.10486792
-0.18493536 -0.2534578 -0.092078 0.20549276 -0.775725 -0.009128949 -0.0001113646 -0.020592388
0.14339776 0.05305072 0.012290283 0.074403465 0.20486505 -0.21646245 -0.007060572 0.008319754
-0.00040340392 0.17478393 -0.37519738 0.107481375 -0.061648585 0.3462467 0.17059453 0.02942444
-0.0047081816 0.023656558 0.17890908 0.20421202 0.1595492 -0.46401772 0.3271682 0.10148002
0.074266694 0.0010850722 0.17924657 -0.04264973 0.32669905 -0.11811649 -0.42403734 0.018445658
0.007829516 -0.00033126384 -0.0038435832 -0.010194694 -0.035801608 -0.011730284 -0.20473367 -0.28211737
-0.32860342 0.43623796 -0.0059517673 -0.0041359523 -0.035499092 -0.011777744 0.34926975 -0.14078413
0.15058434 -0.015229799 -0.74695337 0.004007637 -0.019867625 -0.032176226 -0.1375193 0.13279837
-0.18214564 -0.18942922 -0.05420137 -0.63060415 -0.0051916605 0.073384054 0.057138756 0.1325724
0.053551067 -0.0872705 -0.09850231 0.020130895 0.1908757 -0.03315641 -0.05517116 0.022387194

conv1.shortcut.0.bias f4 [64]
00000000: 18e4 273d 4d45 52be 7fde 59be 2005 3bbd
00000010: 3cbc 2d38 fefe d6bc 6ae5 84be 8b97 413e
00000020: 92fc 593d a2f1 2b3e ca85 8bbe a110 97be
00000030: 72d3 c33d 5e30 863e 7542 56be 9ab1 04bc
00000040: 7049 c4bd 139b 97be c4c2 33be b380 8c3e
00000050: ff5d 0e3e 1258 26bd 7bd5 2d3e 5eea 5e3e
00000060: 241f f13d 48ba 98be 0bd0 143d 6ff3 3fbe
00000070: 70c0 3ebe 456c 0fbe 0b0d 853e 1c27 09bd
00000080: 6478 ba3d ea6a 2d3e 9406 573e bb90 863e
00000090: 1680 48be 9679 89be 8fce 303e 10b3 783e
000000a0: 606e 413e 38d5 16bd cc38 4abe c608 30be
000000b0: 74e7 44be 630d 373e 295e 54be 04f5 1fbe
000000c0: b2e3 a33e 689c 8e3e f7f1 843e be5c 6e3d
000000d0: 470a 7ebe d464 6d3e 430e 6fbe d704 903e
000000e0: 4621 82be f359 1d3d 8201 24be 83b2 74be
000000f0: 1711 293e 7365 723e a9d2 a9bd 4851 a43e
0.04098901 -0.20534249 -0.21276282 -0.045659184 4.142172e-05 -0.026244637 -0.2595628 0.18905465
0.053219385 0.16791394 -0.2725051 -0.29504874 0.09561814 0.26208776 -0.20923789 -0.008098984
-0.095843196 -0.296105 -0.17554766 0.2744194 0.13903044 -0.040611334 0.16975968 0.21769091
0.11773518 -0.2982962 0.036331218 -0.18745206 -0.18628097 -0.14006145 0.25986513 -0.033484563
0.09104994 0.16935316 0.20998603 0.26282296 -0.19580111 -0.26850575 0.17266296 0.24287057
0.18889761 -0.036824435 -0.19748229 -0.17190847 -0.19228917 0.178762 -0.20739044 -0.1562081
0.32009655 0.27853703 0.25965855 0.058193915 -0.24808608 0.23182994 -0.23345284 0.28128693
-0.2541601 0.03841586 -0.160162 -0.23896222 0.16510426 0.23671512 -0.08292133 0.32093263
