GraphNeuralNet/Skim3Mu/epoch70/MHc-70_MA-65_vs_nonprompt/models/ParticleNet-nNodes48_RMSprop_initLR-0p01_StepLR.pt (torch, 194543 bytes, 102 tensors)

gn0.weight f4 [9]
00000000: c307 883f 6bce f5bf b1c6 0ac0 2d3c 03bf
00000010: 9965 10bf e786 5e40 86af 8b40 0000 803f
00000020: 138a 0a40
1.0627369 -1.9203619 -2.1683772 -0.51263696 -0.56405026 3.4769838 4.365176 1.0
2.1646774

gn0.bias f4 [9]
00000000: ee49 a53f b201 b1bd 6568 4abe 18e4 f9be
00000010: 7ac9 4740 faa4 04c0 8f3d 2bc0 563f 81bf
00000020: 34d8 94be
1.2913187 -0.086429015 -0.19766386 -0.48806834 3.1216722 -2.0725694 -2.6756322 -1.0097454
-0.290712

gn0.mean_scale f4 [9]
00000000: 365f cabf f4bf 7f40 f8b8 803d f099 8e40
00000010: 757d 9f40 c8a4 4d40 a09c 3dbf 0000 803f
00000020: 2d1d 943d
-1.5810306 3.996091 0.0628528 4.456291 4.9840646 3.2131824 -0.74067116 1.0
0.07232127

gn1.weight f4 [48]
00000000: d5f4 98bf 1610 04c0 61b2 7b40 2e30 1240
00000010: a5c7 b23c f995 97bf 2c40 1c40 d70f 4640
00000020: bec1 e93f df8f bb3f 7975 0740 8930 133f
00000030: f250 c23f b467 2a40 9780 3040 57ab a13f
00000040: bfef d33f 9901 93bf f7d1 853f fb6d c03f
00000050: eef0 c93f 0ce1 a03f 792b 2e40 e199 1bbf
00000060: b13d 75c0 32fc 1140 8ee6 8b40 ad2d b73f
00000070: f836 a73f ff93 d53f 1dc9 b93f c9b9 173f
00000080: fe3b 373f ceb7 9040 25e6 9c40 39c8 4940
00000090: 8bd6 aabe 2e76 2c3f 209d 0fc0 823e 9fbf
000000a0: b911 55c0 23e5 d6bd e3f9 1740 c36b 98be
000000b0: dbc6 1840 bb90 dd3f e7e5 9e3e 75a2 a1bf
-1.1949717 -2.0634818 3.9327624 2.2841907 0.021823714 -1.1842643 2.4414167 3.0947168
1.826225 1.4653281 2.116545 0.57495934 1.5180953 2.6625795 2.7578485 1.2630414
1.655754 -1.1484863 1.0454701 1.5033563 1.5776651 1.2568679 2.7214034 -0.60781676
-3.8318903 2.2810178 4.371894 1.4310814 1.306365 1.668579 1.45145 0.5926786
0.71575916 4.522437 4.903094 3.1528456 -0.33366808 0.6736783 -2.2439651 -1.2440951
-3.3292067 -0.10492923 2.3746269 -0.29769716 2.3871372 1.7309793 0.31034777 -1.2627703

gn1.bias f4 [48]
00000000: a181 a4c0 0056 623f 96b7 1640 3936 483f
00000010: 513a 1bbf fa7d 0c40 d32b b9c0 1af6 33bf
00000020: 326a 1840 3bbc 8340 b438 3ec0 aae2 e9bf
00000030: b4e8 fbbe 47f3 d93f a5c4 503f 2be4 23c0
00000040: f13d 2ec0 4b66 9bc0 9aa6 843f 0a1f 3b3f
00000050: 3feb d13f 90f2 2140 4bb2 24bf a5fa 0140
00000060: 652c a3bf 6176 cf3f 28d9 5e40 6a36 7e3f
00000070: 4c5e b5bc 4ecb 4c40 32d4 443e e6c7 7240
00000080: dcf1 97bf ba64 873f f079 0c40 8704 cb3d
00000090: 0fe1 4b3f ac6f 2ac0 c168 20bf 0417 f53f
000000a0: 51ce c13f 8f1a 65c0 f010 1c3f a2e0 a2bf
000000b0: 1519 c43f 9fad 5dc0 6241 d83e ade4 db3f
-5.140824 0.88412476 2.3549552 0.7820774 -0.6063586 2.195189 -5.7865996 -0.70297396
2.3814816 4.1167274 -2.972211 -1.8272297 -0.49200976 1.7027367 0.81550056 -2.5608013
-2.7225306 -4.856237 1.0363343 0.73094237 1.6399916 2.5304298 -0.64334553 2.0309231
-1.2747923 1.6208001 3.4820042 0.9930178 -0.02213969 3.1999087 0.19221571 3.7934508
-1.1870685 1.0577614 2.1949425 0.09912973 0.7964029 -2.663066 -0.6265984 1.9147649
1.5141088 -3.579746 0.60963345 -1.2724802 1.5320154 -3.463722 0.42237383 1.7179161

gn1.mean_scale f4 [48]
00000000: 5d70 0040 80ce 0040 70e2 d53f 61ee 0140
00000010: d9f9 0340 18cb fe3f d026 bb3c 5c03 34be
00000020: f78c 2ebc 14c7 fb3f b0db cd3c e803 23bc
00000030: 4123 0abe b271 78bd 5f0b ce3f 905b 9f3d
00000040: 89e1 fa3f 0f46 b939 e65d f9bc a436 fd3f
00000050: 76d6 1fbf a43b 52bc 73da 7a3c 1720 d23c
00000060: 78c0 dd3f 4536 0040 8a85 3ebf fa0d 0140
00000070: dbc7 d5bd 9377 ed3f c2d6 0240 1748 f53f
00000080: 7e45 cc3c e784 0440 d27a e63f 9131 d2bf
00000090: e8c2 0240 6e9e 0140 59a8 c93b 304a fc3f
000000a0: 251b fc3f 8b51 8fbd 03ef d43f 64b0 0440
000000b0: 64a4 fd3f 34ee fe3f f079 273e eb21 95bf
2.006858 2.0126038 1.6709728 2.0301745 2.0621245 1.9905729 0.022845656 -0.17579406
-0.010653726 1.9670129 0.02512917 -0.009949662 -0.13490011 -0.060655303 1.609722 0.07781136
1.9600078 0.00035338147 -0.030440282 1.97823 -0.62436616 -0.012831602 0.015310871 0.025650067
1.7324362 2.0033123 -0.74422514 2.016478 -0.1043851 1.8552116 2.0443578 1.9162625
0.02493548 2.0706117 1.8006232 -1.6421376 2.0431461 2.0252948 0.006154102 1.971014
1.9695784 -0.06997975 1.663544 2.073266 1.9815793 1.9916444 0.16355109 -1.1650976

gn2.weight f4 [48]
00000000: 89d7 2340 2abe 933d 375b 7640 507d de3e
00000010: 33f7 0f40 51ae 763f d1ab e8be 28ac b43f
00000020: 7556 5e3f 6019 c33e 06f4 3b40 9cff 6a40
00000030: 4dae aebf 66fe a540 5619 91bf c2bb 9040
00000040: a3f2 c73f ff82 53be d643 22bf 25b8 4d40
00000050: 3dab 9d3f 8114 3d3e 84cb 4b40 c849 903f
00000060: dac6 4b40 b8dd 803f da32 0f40 6fa9 6d3f
00000070: 2aab 9dbf 3b9f 843f 69ed 1040 794e cd40
00000080: 916f 20c0 d240 3f3f d508 9140 7869 a140
00000090: fdd0 0c3f 027e 183f 99bc 7040 89b6 cdbf
000000a0: b683 6abf 0ef1 793f 6d11 e8be e4e9 1e40
000000b0: 1b12 2d40 d2a9 aa3e 9135 e63e c936 ec3f
2.5600302 0.07214005 3.8493173 0.4345498 2.2494628 0.96359736 -0.45443586 1.4115038
0.8685067 0.38105297 2.936769 3.6718512 -1.3646942 5.1873045 -1.1335857 4.5229197
1.5620922 -0.2065544 -0.6338476 3.2143643 1.2317883 0.18464853 3.1842966 1.1272516
3.184012 1.0067663 2.2374787 0.9283666 -1.231786 1.0361093 2.2644904 6.415829
-2.5068095 0.7470828 4.532328 5.0441246 0.5500639 0.5956727 3.761511 -1.607133
-0.91607225 0.97633445 -0.45325795 2.4830256 2.70423 0.33332688 0.44962743 1.8454219

gn2.bias f4 [48]
00000000: fc26 46be f5ae b63e 2112 2c3e c258 04c0
00000010: e752 453e f9c2 d9bf 5cb2 38bf d802 58c0
00000020: 71b4 00bf b345 e63d 5ee6 4f3f feeb 93bf
00000030: 3739 acbf 282f 843d 92c2 dd3b 5b0a 1cc0
00000040: 126c 0dc0 f066 85be bbe5 cabf 440e 9e3e
00000050: 8d08 eb3f c9a0 35bf e2b4 67bf c514 1cbf
00000060: 8e1c 293e 8823 d6bd 718a 0f40 6ac4 53bf
00000070: 28c6 cebe 9848 a4be 46c7 aebe 6bd8 2340
00000080: 2c98 8a40 eef1 c83f 91b2 c43f bec3 133e
00000090: 9f8a d3bf 996f b93f 5bc6 4ac0 a3d7 c13f
000000a0: d2a0 f33f 3ba1 15bf dfdd 803d d4bb da3f
000000b0: 08fa 27bf 2d57 1cbf 2260 303f fbf2 3dbf
-0.19350809 0.35680357 0.1680379 -2.0679173 0.19269906 -1.7012626 -0.72147155 -3.3751736
-0.5027533 0.11243763 0.8121089 -1.1556394 -1.345496 0.06454307 0.0067675794 -2.438132
-2.209721 -0.26055098 -1.5851358 0.3087026 1.8361984 -0.70948464 -0.9051038 -0.6096919
0.16514799 -0.10455996 2.2428248 -0.8272158 -0.40385556 -0.32086635 -0.3413641 2.560084
4.3310757 1.5698831 1.5366994 0.14430138 -1.6526679 1.4487182 -3.1683567 1.5143932
1.9033453 -0.58449143 0.062923186 1.708857 -0.6561589 -0.6107052 0.6889669 -0.74198884

gn2.mean_scale f4 [48]
00000000: ec6f fd3f 7522 f53f 2d2f df3f 6d14 0040
00000010: c0ad 0140 b5df b73f ac25 0040 e270 4ebc
00000020: b43f ff3f f835 85bf 3220 0140 6fc6 d8bc
00000030: 3f37 4ebd 1e01 973d d489 41bd 71d1 823e
00000040: f05a a4bc 2c3c f0ba 938e fe3f 4bea cbbe
00000050: 4d0e b13d 4f2c 4f3d 521f fa3f d528 0040
00000060: 5748 0240 500a 0040 f1d0 8f3b 7171 0040
00000070: 2560 9ebc 3b62 e0bc f518 d43d b382 f83d
00000080: 5ae5 f13f 8312 9f3d 2c92 ff3f d830 f53f
00000090: 06a2 fc3f b7db 0540 feef fe3f 961a fd3f
000000a0: 2083 6f3d 5ade 433d b8f7 593e f155 f2bc
000000b0: d56f 593d 3728 0140 3197 f73f cd62 0640
1.9799781 1.915114 1.7436272 2.0012467 2.0262299 1.4365145 2.0022993 -0.012600156
1.9941316 -1.0407095 2.01759 -0.026461808 -0.050345656 0.0737326 -0.047250584 0.25550416
-0.020062894 -0.001832848 1.988726 -0.3982719 0.08645306 0.050579365 1.9540808 2.0024922
2.0356653 2.0006294 0.0043889214 2.006924 -0.019332955 -0.02739059 0.10356323 0.12134304
1.8898118 0.07767203 1.9966483 1.9155531 1.9736946 2.0915353 1.991699 1.9773738
0.05847466 0.047819473 0.21285903 -0.029581996 0.053085167 2.0180795 1.9343015 2.0997803

gn3.weight f4 [48]
00000000: cb6a 11bf 4158 6a40 0625 3340 55de b73f
00000010: 553d 863f fc32 0e40 e94a ab3f f1b5 a6bf
00000020: 66d9 16bf dacd b73f 7014 fabe bfde adbf
00000030: 2023 07c0 3320 6f40 78ec e23e ac13 5a40
00000040: 2c77 803f cb96 b23f aedd 3040 8a66 1640
00000050: 504d 0640 c3d5 a13f 3fe5 dd3f c4d8 323e
00000060: 6f7d 0ebf f24b de3f b3d0 9bbf 0cc0 d8bf
00000070: 569d 0d40 eba7 8940 baf1 3140 d4eb fd3e
00000080: 9285 ca3e aaf2 2d40 5a34 a6be 5f37 25c0
00000090: 721d 8fc0 14df 8cbd c549 b33f b705 7040
000000a0: 7c3d fd3f 2407 3740 32f3 8440 fce9 6f3f
000000b0: a334 28c0 0026 8a40 c24e 4040 81b7 98be
-0.5680358 3.6616366 2.7991347 1.4364725 1.0487467 2.2218618 1.3382236 -1.3024274
-0.58925474 1.4359696 -0.48843718 -1.3583602 -2.1115189 3.7363403 0.44321036 3.4074507
1.0036368 1.3952268 2.7635303 2.3500085 2.0984688 1.264336 1.7335585 0.17465502
-0.55660146 1.7366927 -1.2173065 -1.6933608 2.212728 4.301748 2.7803788 0.49593985
0.3955503 2.717936 -0.32461816 -2.5815046 -4.4723444 -0.06878486 1.4006888 3.7503488
1.9784389 2.8598108 4.154687 0.93716407 -2.6282127 4.3171387 3.004807 -0.29827502

gn3.bias f4 [48]
00000000: b6a5 c8bd 1408 353f fdee 533f 90de b4bd
00000010: 283d d0be 46d1 4cbf 0cd3 54bf 27ad 52bf
00000020: 2663 4ebf 1a38 9d3e 8eab bfbe 8832 1ebf
00000030: a997 653f 9766 20bf 39d3 423f 748f 39bf
00000040: 3943 adbd 3ce5 3dbf 11f0 10bf 334b 38bf
00000050: f808 183f b7fe 7d3f 65bf d4be 343d 453f
00000060: 608c 6c3f 5b0f 07bf f8e0 553f 979f 94be
00000070: 9469 d4be b8e9 663d 5736 ca3e 8615 333f
00000080: f780 593f b6b2 363f b065 013f bd1a 2e3f
00000090: dfbc d53e 1f54 2ebf 68e9 35bf 79c9 303f
000000a0: 9268 5f3f d460 ef3e 4a51 383f 9960 6a3f
000000b0: 90bf 1f3d 8507 2ebf 1bb7 33be 11f2 59bf
-0.09797232 0.7071545 0.8278654 -0.08831513 -0.4067166 -0.80006826 -0.8313453 -0.8229546
-0.8062004 0.30706865 -0.37435573 -0.61795855 0.8968454 -0.6265654 0.7610355 -0.7248452
-0.08460087 -0.7417791 -0.5661631 -0.71989745 0.59388685 0.9921679 -0.41552272 0.77046514
0.92401695 -0.52757806 0.835464 -0.29028007 -0.414868 0.056375235 0.39494583 0.6995472
0.8496241 0.7136644 0.5054579 0.6800955 0.4174566 -0.6809711 -0.71059275 0.6905742
0.87268937 0.46753561 0.7199904 0.91553646 0.039001048 -0.67980224 -0.17550318 -0.8513499

gn3.mean_scale f4 [48]
00000000: 06ef ff3f 0da5 c0bc 5b9e f93f a15b 5abc
00000010: 8b15 ff3f be8e 0040 7ca1 b13f fc6c 0240
00000020: 75c2 fe3f 0ba1 0340 22e7 ef3f 7ff7 813d
00000030: 9904 e43f 64b7 0140 f84b 96bc 6d34 6cbc
00000040: c0ee 0140 241b 0640 2280 f13f aba3 66be
00000050: 4fbb 0040 f13b 0340 9ded 0140 3860 853d
00000060: ee05 0040 ea91 ff3f e4c8 fa3f f220 893c
00000070: e29a 063d 5829 0240 8c05 d4bf 35c4 f23f
00000080: ff4e b7bc 5aa8 d1bd 31eb 4d3b f409 df3f
00000090: 1437 0040 e1cd f63d 93e5 0340 994f 0140
000000a0: d786 cd3d 8bda 0040 7188 02bd 659b 183d
000000b0: a6de 893c 4962 8fbc d52d 41be a987 f23f
1.9994819 -0.023516202 1.9501451 -0.01332751 1.9928449 2.0087123 1.3877406 2.0379019
1.9903094 2.0567043 1.8742411 0.06346034 1.7813903 2.0268183 -0.018346772 -0.014416796
2.0301971 2.0954065 1.8867228 -0.22523372 2.0114324 2.0505335 2.0301278 0.06512493
2.000362 1.9966404 1.9592557 0.016739342 0.03286255 2.0337734 -1.6564193 1.8966128
-0.022376535 -0.10237189 0.0031420703 1.7424912 2.0033617 0.12050987 2.060887 2.0204833
0.10035484 2.0133388 -0.031868402 0.03725757 0.0168298 -0.01750292 -0.1886514 1.894765

bn0.weight f4 [54]
00000000: 6f24 96bf 7814 043e 1c99 04c0 07c5 acbf
00000010: 98f6 cebf 84fc 04c0 15f5 8c3f f363 d7bf
00000020: 631a 08bf b448 f8be 2ff9 0bc0 7dc0 b03f
00000030: d39f 943f cf58 4e3f b6ac efbf c42d 1b3e
00000040: 926f cd3f 476d ff3c dd82 9d3f f316 2bbe
00000050: 8a05 cb3f 47d9 e43d 0a92 60bf 3e3e 023f
00000060: 303a d23f d3e6 7a3e ea47 373d 468f 133f
00000070: 1001 5e3f 7401 49bf 2563 373f 9fc9 71c0
00000080: 4fbd d53f a945 e73f ce4d 983e 9697 0a3e
00000090: a9df b7be 6f1a 28bf 1455 27bf 6020 9f3e
000000a0: fc12 cd3f 1161 c7bf c627 1040 0381 853f
000000b0: 06c8 99bf 0a90 48bf c331 0640 932a 55bf
000000c0: 18ba 7f40 190c 1541 53ed 5040 231d 3f3f
000000d0: d0dd 0e40 6075 87bf
-1.1729869 0.12898433 -2.071845 -1.3497628 -1.6169004 -2.0779123 1.1012293 -1.6827377
-0.5316526 -0.48492968 -2.187084 1.3808743 1.1611274 0.8060426 -1.8724582 0.15154177
1.6049674 0.031180037 1.2305561 -0.16707973 1.5861065 0.11174255 -0.8772284 0.50876224
1.6424007 0.24502115 0.044746317 0.5764049 0.8672037 -0.7851784 0.7163566 -3.777931
1.6698397 1.8068134 0.2974686 0.13534388 -0.35912827 -0.65665334 -0.65364194 0.31079388
1.6021419 -1.5576497 2.2524276 1.0429996 -1.2014167 -0.78344786 2.0967872 -0.8326809
3.9957333 9.315454 3.2644851 0.74653834 2.2322884 -1.0582695

bn0.bias f4 [54]
00000000: 7260 6bbe 6165 0fc0 81fb d9bf 62a0 963f
00000010: f9e1 bf3f ac25 293f ee20 26c0 07eb 0a40
00000020: c05c 60c0 2247 37c0 a9c5 7abf 3f1e 3ec0
00000030: 2603 68be 3abc 07c0 db14 b8bf be09 e43f
00000040: 1972 fdbf 82a8 36bf 82cd eabf 48ab 1f3e
00000050: e743 c93e 0b4f 25c0 851f 47bf 513d 0b40
00000060: 7311 1040 9681 c8bf 9fe5 4d3f adda 52bf
00000070: 9155 62c0 58bf 43c0 b726 16c0 6d74 55c0
00000080: 10b4 23c0 ab24 60c0 af4b 96bd 616a 093f
00000090: f921 ae40 e55f 6dc0 4091 673a 6ce8 0540
000000a0: 8084 35c0 8e0f 91bf 270e 063f bd57 da3f
000000b0: cb4e 3dc0 08b8 b8bf 705d f9bf d416 163f
000000c0: 6740 8bbf b879 0fbd 8f07 253e 6f81 3e3f
000000d0: f0db 2940 0a15 5a3d
-0.2298601 -2.2405627 -1.7029878 1.1767695 1.4990836 0.6607311 -2.5957599 2.170595
-3.505661 -2.8637166 -0.97957855 -2.970596 -0.22657451 -2.1208634 -1.4381365 1.7815473
-1.9800445 -0.7135087 -1.8343966 0.15592682 0.39309618 -2.5829494 -0.7778247 2.1756175
2.251065 -1.5664546 0.804285 -0.8236492 -3.5364726 -3.0585537 -2.346113 -3.335231
-2.5578651 -3.502238 -0.07338654 0.53677946 5.441647 -3.708978 0.00088335946 2.092311
-2.8362122 -1.1332872 0.52365345 1.7058026 -2.9579341 -1.4431162 -1.948164 0.5862858
-1.0879029 -0.03502819 0.16116165 0.7441625 2.654049 0.05324272

bn0.running_mean f4 [54]
00000000: 80d8 a3c0 5021 3040 5f58 9940 acbb 58c0
00000010: e76f 16bf 44a9 493f 9bca 02c1 a60d 93c0
00000020: fb62 d13f 3570 9240 4a5f 82be 4617 42c0
00000030: c2e1 373e 2f1c e1c0 ba1d 1640 f54e ddbf
00000040: 12e3 d0c0 463b 6ac0 00b4 77c0 e695 6c40
00000050: 62d6 d13f 9a49 4440 5d03 3ebf ed38 9d3f
00000060: 0048 a7c0 8e2a 1c40 8cf5 0a41 7942 81be
00000070: c82e aabf f4c7 5140 9549 8640 4c30 1741
00000080: 765d b540 8996 adbf 2b50 b43f dc75 84c0
00000090: c4ab 6940 d6e6 27c0 03ad 52c0 1ba1 8b40
000000a0: 7a10 8a40 b0c5 cbc0 603c 18c0 4482 3c40
000000b0: c3f8 4ebf 704d 05c1 f158 27bf a26a ff3f
000000c0: b4c3 5f40 9e85 913f 9256 8f42 b034 cb42
000000d0: e852 8d42 26da 4f42
-5.120178 2.7520332 4.7920375 -3.3864546 -0.587645 0.78773904 -8.174464 -4.595416
1.6358331 4.576197 -0.25463325 -3.0326705 0.17957214 -7.0346904 2.3455644 -1.7289721
-6.5277185 -3.6598678 -3.8703613 3.696649 1.639355 3.0669923 -0.7422388 1.2282997
-5.227539 2.4400973 8.684948 -0.25246027 -1.3295527 3.2778292 4.196482 9.449291
5.667659 -1.3561565 1.4086965 -4.139387 3.6511087 -2.623464 -3.2918098 4.363416
4.3145113 -6.367882 -2.378685 2.9454508 -0.8084833 -8.331406 -0.6537009 1.9954417
3.4963198 1.1368902 71.66908 101.602905 70.66193 51.963036

bn0.running_var f4 [54]
00000000: 3ede 423f 928c d33f ad53 1140 9439 b83e
00000010: 595b e03e 9b5a f33e 2143 593f 1e95 3d3f
00000020: a2da c63e 4c02 3d3e b018 433f cde6 4e3f
00000030: da98 ae3d e7f9 6d3f d3f6 fb3d 773a 853f
00000040: 457b 183e 65fe 953c 7c3d 063e b002 6a3f
00000050: 60df 9d3e a2f4 143d 86fd 863f 054d fd3c
00000060: 491c a43f 500d fa3e c67a 8c3f f041 cc3e
00000070: 5434 143d 9663 0940 cb05 8f3e a97c 1a40
00000080: e7ef 313e 6e4c 943f d1ad 2640 c926 973f
00000090: e6ca 953e 34ae 223d 9594 833f 0641 553f
000000a0: 8dcf 813f 2cf6 263e c1a1 2a3f e775 d73e
000000b0: c306 0e3f 81ac 2b3f e6c4 d53e 0fbf 753e
000000c0: 64dd 0640 8d46 0b3f b54d 0545 e9f7 8d45
000000d0: a852 f344 9a70 8f44
0.76120365 1.6527274 2.2707322 0.3598143 0.43819693 0.47530064 0.84868056 0.7405566
0.3883868 0.18457907 0.76209545 0.80820924 0.08525248 0.92959446 0.12302937 1.0408467
0.14890774 0.018309781 0.13109392 0.9141035 0.30834484 0.036366113 1.0546119 0.030920515
1.2821132 0.48838282 1.0974967 0.39894056 0.036182716 2.1467032 0.27934107 2.4138587
0.17376672 1.1585824 2.604359 1.1808711 0.29256362 0.039716914 1.0279719 0.8330234
1.0141464 0.16304845 0.66653067 0.4208214 0.5547907 0.67060095 0.41751784 0.23998664
2.1072626 0.54404527 2132.8567 4542.989 1946.583 1147.5188

bn1.weight f4 [48]
00000000: 2a31 a9bf 7159 1e40 facf 6740 7858 843f
00000010: 8cc5 0f3e 6d6d 7140 d480 ee3e 3d97 3a40
00000020: 150b 19c0 67ff 7440 3407 5040 7602 9c40
00000030: 3ef4 3dbd 1dfd 373f 93c4 8e3d b333 ec3f
00000040: 385b 5240 e5c1 01c0 6b3b 4f40 0278 adbe
00000050: ba3d 1740 b555 6940 629c d9bf 51c8 d3bf
00000060: 6cda ecbf 3982 9340 532f ed40 c3bf 2c40
00000070: 2c46 0640 b814 c540 5114 1240 2239 243f
00000080: 0da5 0240 6315 f83f 0da9 2f40 293b d73f
00000090: e0bb 00bf 6beb d0bf e89f b6bf 8560 3b3f
000000a0: 54bd 7cbf ee57 a4be cf78 edbf 0445 0240
000000b0: f371 e33f 4e32 903f e6a4 3340 fdd1 1840
-1.3218129 2.474209 3.622069 1.0339499 0.14040202 3.7723038 0.46582663 2.9154809
-2.3913014 3.8280885 3.2504396 4.8753004 -0.046375506 0.71870595 0.06971087 1.8453277
3.2868176 -2.0274594 3.2380016 -0.3388062 2.3631425 3.6458561 -1.7000849 -1.6545507
-1.8504157 4.6096463 7.412027 2.6992042 2.098033 6.158779 2.28249 0.6414968
2.041324 1.9381527 2.744693 1.6814929 -0.50286674 -1.6321844 -1.426755 0.7319415
-0.9872639 -0.32098335 -1.8552493 2.0354624 1.776915 1.1265352 2.8069396 2.3878167

bn1.bias f4 [48]
00000000: 2707 97bf e4b3 2d40 9062 2d3f 376d 65bf
00000010: b5c4 0040 0db5 8bbf 00b9 9fbf 92b8 8bbd
00000020: 8499 6e3e bffd d8bf e444 90bf 0216 edbe
00000030: 9349 adbf 3c62 3f3f 3c6d e43d 4df9 ae3f
00000040: d2d5 babf 1fc9 92be 1ae1 05bf ef5c d13f
00000050: b7e9 d4bf 9733 92be 3a26 b53f 0248 b03f
00000060: e7ec 853e 2059 aabf dc25 71bf 2441 563f
00000070: bda8 d13f 789b a93f a0f9 17bf e03e a03f
00000080: a911 973f 13d4 ffbf 5080 483e 866a 933e
00000090: cac0 bcbf b3a4 8bbf eb04 bcbd 8306 6abe
000000a0: 7e2f d33e d0d6 e83e 6dee b9bd c437 1bbe
000000b0: 50c5 3840 dbe1 d93e 6ea9 c43e 410c 03bf
-1.1799058 2.7141047 0.6772852 -0.89619774 2.012006 -1.0914627 -1.2478333 -0.06822313
0.23300749 -1.6952437 -1.1271024 -0.46305853 -1.3538078 0.7475927 0.11153647 1.366983
-1.4596503 -0.28669068 -0.522966 1.6356486 -1.6633824 -0.28554985 1.4152291 1.3771975
0.26157305 -1.3308449 -0.94198394 0.83693147 1.637962 1.325057 -0.5936527 1.2519188
1.1802264 -1.9986595 0.19580197 0.28792208 -1.4746335 -1.0909637 -0.091806255 -0.22854047
0.4124717 0.4547639 -0.09078679 -0.15157992 2.887043 0.42555127 0.38410515 -0.5119057

bn1.running_mean f4 [48]
00000000: 97cc 0c40 6bee c241 2635 5941 39b6 9641
00000010: d714 a741 7a89 1742 0df8 0340 acba 0642
00000020: 1b38 a542 ae3e 3242 d597 8f42 4060 ef40
00000030: e29d 1b39 2312 813b ed80 7742 7375 2a42
00000040: 1a4c d734 6969 9941 2aa8 6e42 539a 9541
00000050: ae93 873f 0400 0000 0400 0000 8e1f e941
00000060: b600 9242 32dd 7d42 0e4a cc42 1f6c 303e
00000070: b958 f741 8b15 8742 ae54 d83f a44d a040
00000080: 7f22 7c41 08d0 763e e96f ba39 a5c8 013d
00000090: a98d 3a23 eaf7 6942 b364 ef41 d51b e640
000000a0: 9e16 d041 4515 663a 4c81 e241 6c5a d341
000000b0: 1ddf 0c42 3764 a73b 965c 7b42 3641 1242
2.1999872 24.366415 13.575476 18.838976 20.885176 37.884254 2.0620148 33.682297
82.60958 44.56121 71.79655 7.4804993 0.00014840768 0.0039389296 61.875904 42.614697
4.0102242e-07 19.17647 59.664223 18.700354 1.0591943 6e-45 6e-45 29.140408
73.00139 63.46601 102.14464 0.17228745 30.918322 67.542076 1.6900842 5.0094776
15.758422 0.24102795 0.00035560064 0.03168549 1.0113078e-17 58.492104 29.92417 7.1908975
26.011044 0.0008776973 28.313133 26.419151 35.217884 0.005108382 62.840416 36.563683

bn1.running_var f4 [48]
00000000: 908c f541 f41d 3f44 b98d b943 0644 c643
00000010: 04f1 2843 deec 1744 0808 0142 c596 4944
00000020: be30 b843 6085 8944 fa26 ba44 0c0b 9e43
00000030: dffe 7f3a 14c9 cb3c 5485 d143 717c 1c44
00000040: 7eca 7435 23cc 3543 e97b 9543 4b67 8b43
00000050: 3d84 8741 0400 0000 0400 0000 6b93 a143
00000060: 4b12 8a44 0e04 1745 eb03 8445 2c24 ef3f
00000070: 0a7a 3044 1baf 1545 d0d2 0f42 1ab5 9a42
00000080: da45 6443 c3fa a540 1607 c43a d983 943e
00000090: 67a1 f623 f49a ff43 f8f3 7443 cb32 cc42
000000a0: 0465 6a43 cfd1 943b b7a1 9943 063f a443
000000b0: 0f90 9c43 69fd 583d 5159 5344 8262 8144
30.693634 764.468 371.1072 396.53143 168.94147 607.70105 32.257843 806.3558
368.3808 1100.168 1489.218 316.0863 0.0009765457 0.024876155 419.04163 625.9444
9.119175e-07 181.79741 298.96805 278.80698 16.93957 6e-45 6e-45 323.1517
1104.5717 2416.2534 4224.4897 1.8682914 705.90686 2394.944 35.95587 77.353714
228.27286 5.1868606 0.0014955725 0.29006842 2.673973e-17 511.21057 244.953 102.099205
234.39459 0.0045416127 307.2634 328.49237 313.12546 0.052976046 845.39557 1035.0784

bn2.weight f4 [48]
00000000: 4bbe 49be 31ff 833f c8a5 acbf e054 b040
00000010: 9d09 9440 af46 2fc0 d2b7 afbf fc76 d33c
00000020: 6366 e8bf 3f3b ad40 4007 bb3e f4d9 11c0
00000030: dd94 cd3e de8d ebbd c4c2 8240 3709 2e3f
00000040: 4814 763f c6a8 8340 58a6 21c0 5a13 72bf
00000050: 7cc2 cbbe cdbc 5c3e 8c3a efbf ada7 993d
00000060: 91c2 6f3e 3001 0e3f 6b6b d63e 374c 1ec0
00000070: d488 12bf f583 cebf e133 4f40 909d d7bf
00000080: bd22 033f fdf2 fabb ae9f 0ebd 3b7c 143f
00000090: 8e2d 8240 5348 b540 f808 b0bf e6e5 19c0
000000a0: 32e8 3b3e 628b 243f 791a 853f ead6 8640
000000b0: e20c bbbf 79d3 65bf 09d1 8c3f f3b4 5cbd
-0.19701497 1.0312253 -1.3488092 5.5103607 4.6261735 -2.7386892 -1.3727973 0.025813572
-1.8156246 5.413482 0.3652897 -2.2789278 0.40152636 -0.115016684 4.086275 0.6798281
0.96124697 4.114352 -2.5257778 -0.9456078 -0.39796817 0.21556397 -1.8689742 0.07502685
0.23414065 0.5547056 0.41878828 -2.4734018 -0.57240033 -1.613402 3.2375414 -1.6844959
0.5122488 -0.007658361 -0.03482025 0.5800206 4.068061 5.6650786 -1.3752737 -2.404657
0.18350294 0.6427518 1.0398704 4.2137346 -1.4613307 -0.89775807 1.1001292 -0.053883504

bn2.bias f4 [48]
00000000: da53 863f 15ff f43e 25ae ea3f 1111 5dbf
00000010: 40d0 81bf f827 c93f 78ca 2d40 c0ba 883f
00000020: 024b 1a40 735d 6ebf 028c 9d3e 75e6 3240
00000030: 2d3d 2440 d236 1540 8708 5fbf 68d3 883f
00000040: 2cc0 33c0 50f4 8cbf a4b5 aa3f fd84 a23f
00000050: d50c 0b3f 2416 573f 379a ed3f 6628 1540
00000060: 429d 1b3f 20f0 443f 9529 5d3f af27 0240
00000070: 40ee de3f d23d ea3f 4a18 55bf 9e3d fb3f
00000080: cbf9 233f 009a 853f d9f4 de3e a295 6a3e
00000090: 3f99 68bf 98d4 a0bf aeb1 ce3f a7e3 1940
000000a0: b461 dabf eaf4 e03e e679 163f 9991 7fbf
000000b0: 1122 dc3f ca20 cd3f f452 06c0 61e6 e43e
1.049434 0.47850862 1.8334395 -0.86354166 -1.0141678 1.5715322 2.7154827 1.0681992
2.410828 -0.9311134 0.3077088 2.795316 2.5662339 2.331471 -0.87122387 1.0689516
-2.8086042 -1.1012058 1.3336682 1.2696835 0.54316455 0.8401816 1.8562688 2.3305907
0.6078683 0.769289 0.86391574 2.033672 1.7416458 1.8300116 -0.8324019 1.9628179
0.6405303 1.0437622 0.4354618 0.22908643 -0.90858835 -1.2564878 1.6147974 2.4045198
-1.7061067 0.43936855 0.5877975 -0.9983154 1.7197896 1.6025631 -2.098813 0.44707015

bn2.running_mean f4 [48]
00000000: 5797 8c41 9688 0641 c3c8 bb41 3ab5 4942
00000010: 56a0 3142 259d c341 a6b9 9241 0fb6 3a41
00000020: 8860 b341 30a9 3142 243c 9541 d48c 2e42
00000030: 75c1 f740 4fe8 6741 5f06 1f42 d9a7 f040
00000040: b892 9241 208a 0a42 4154 b341 ba30 a641
00000050: eff8 7641 0d12 7b41 7aec 7e41 8022 1041
00000060: 9dfc 2b41 b91d 8a41 126d 0c41 4f5c d941
00000070: 54c5 9241 4edb b741 05a4 2142 8969 a741
00000080: dadd 9841 29aa 6f41 6e2a 2441 de57 8341
00000090: 520e 0042 097e 5142 f2d4 9041 3790 7541
000000a0: 42ef 6c41 68a2 7041 383f d13f c358 1b42
000000b0: ead7 b241 6730 a341 170b 5241 7023 2a41
17.573896 8.408346 23.473028 50.42698 44.406578 24.45173 18.340649 11.669448
22.422134 44.415222 18.654366 43.637527 7.7423654 14.494216 39.75622 7.520489
18.32164 34.634888 22.41614 20.773792 15.435775 15.691907 15.932734 9.008423
10.749173 17.264513 8.7766285 27.170073 18.346352 22.982082 40.410175 20.92653
19.108326 14.979043 10.260359 16.417904 32.013985 52.37308 18.103977 15.347709
14.808413 15.03965 1.6347418 38.83668 22.355427 20.398634 13.1277075 10.633652

bn2.running_var f4 [48]
00000000: 4b78 d744 643d ee43 8033 ab44 b0cb f745
00000010: 0e30 d845 7536 fc44 2949 8844 56f0 2544
00000020: 045f ec44 2d2c c845 9ba0 c744 38a8 9845
00000030: f1ca 8e43 2816 8843 583b 9645 6080 a843
00000040: d8ae 2d44 2d11 8f45 017f be44 1140 9e44
00000050: f485 8944 0176 a144 e204 7144 8064 6c43
00000060: 205f 2e44 2273 ae44 9515 d943 0a6f 1d45
00000070: a355 4344 aac1 b044 8874 6d45 7e9b a944
00000080: 3d1e c744 a74c ae44 00df 2a44 de39 b044
00000090: 1ec9 5f45 42ed 1c46 3925 8544 529d 6644
000000a0: 46d3 6944 339c 8c44 acd3 7f42 8991 b145
000000b0: ae53 c944 a27b ae44 4739 9343 53f5 3744
1723.7592 476.4796 1369.6094 7929.461 6918.007 2017.7018 1090.2863 663.75525
1890.9692 6405.522 1597.0189 4885.0273 285.58548 272.1731 4807.418 337.00293
694.73193 4578.147 1523.9689 1266.0021 1100.186 1291.6876 964.0763 236.39258
697.4863 1395.5979 434.1686 2518.94 781.3381 1414.052 3799.2832 1356.8591
1592.945 1394.3954 683.4844 1409.8083 3580.5698 10043.314 1065.1632 922.4581
935.30115 1124.8812 63.95671 5682.192 1610.615 1395.8635 294.44748 735.8332

conv1.mlp.0.weight f4 [48, 18]
00000000: 05da 8ebf eea4 3f40 e4e7 8a3f 1433 a43f
00000010: 6a13 56c0 d444 7640 60ae 71bf ea13 63bf
00000020: 43d1 a13d a745 d7bd 72bb b63d a452 d6be
00000030: 7de0 60bf 575a 433f b946 4bc0 e20c 743f
00000040: ef1e 973d c59c 0cc0 ce48 ed3f 667a adbf
00000050: f9e0 1fbf a6c3 be3e 0a71 22be d640 26c0
00000060: 9380 2e3f 53f7 983f 4394 18c0 40f9 803e
00000070: 7a69 ee3e a6f0 193b 77b0 7040 d089 afbf
00000080: 0079 5440 1320 2ebf c3bf 0a3e abf1 fb3f
00000090: 2ad1 50c0 a1b6 2ac0 f12a 4ebe 9023 d33c
000000a0: 84fd 0fbf 7e90 913e 618b ae3f 3dee f0bf
000000b0: 4235 4e3f 987c 0440 b30c 1640 7504 edbf
000000c0: ccc9 3f3f 5ca1 323f f750 f43f 0d3c c4bf
000000d0: 5f2d 56be 250d b53f 29b3 233f 0261 c33f
000000e0: a2c1 6abe e787 5dbf 0f5e 503f 1508 d1bf
000000f0: a8d9 0040 d4d8 89bf fb6b 99bf a8fe 82be
00000100: 47d6 ebbf d722 323f 2314 e6bf d69c 993f
00000110: 11cb 0ebf c2eb 06c0 61d5 dc3d d202 9f3f
00000120: 5d04 103f f7dc 0c40 686d 6ebe 5c18 d3bf
00000130: ac78 79be 59de e03f 50af 05c0 be45 34c0
00000140: 086c de3e eac1 11bf 019f 133f eea9 1b3d
00000150: 0a8d d23f f95a 7b3f 21ae 03c0 11d0 eb3f
00000160: 258b 87bc 708c 103e d8e7 913f f831 20bf
00000170: 39b0 293f 7930 983d f8d7 5640 f78d 153f
00000180: 1119 65c0 8377 4dbf 09bf c23f 6f55 0fc0
00000190: 880b a43e b663 863f 50b4 e63e aef8 733f
000001a0: dee2 03c0 1260 4c3f ae86 54bd d891 c3bf
000001b0: 971f 3640 f242 77bf bfff 24c0 5a59 a43f
000001c0: 9b47 8c40 d0fa 343e e8ea 8a3e 0e42 d83f
000001d0: 94b8 ddbf fcb5 4cc0 95c9 763f ee8b 1b3f
000001e0: 4ad2 67bf d3fb 1ec0 8720 fcbd 7348 34c0
000001f0: 860e 45be 6dbc 0e3f 6ca5 84c0 57ca 333f
00000200: 8ab9 95bf aa73 4a3e b4c0 88bf 2b46 a83f
00000210: 2f72 bfbf 3cd9 053f ab3b 923f c8c3 2540
00000220: 276e bbbf 8867 493f f5b8 113e 547f f8be
00000230: 9afd f4bf ad33 1440 6565 11bc 57e0 d1bf
00000240: e4ba 843e f292 2bbf b053 b73f 6d7c e6bf
00000250: 366e b03f d4b2 1ec0 5273 5a3f 3c79 28bf
00000260: d06f fdbe c08f 31c0 25e3 87bd ea7b 12c0
00000270: e5af 913f 98cd 02c0 d5d1 3640 2985 23bf
00000280: bbd2 ac3c f29a 9e3d 46dc 16c0 29b5 8f3f
00000290: c248 f2bf 6cc4 1dc0 9277 bb3f 4cd0 c5bf
000002a0: e404 6fbe d5c1 43c0 511f b5bf 6523 ae3f
000002b0: 7523 65bf 28f1 703f ae6b 1b40 ad85 c2bf
000002c0: 29e8 a83f adee d2bf 70d7 56be c34f 2e3f
000002d0: 5fae 973e fdd6 5e3f 3ebf 1fc0 518b 163f
000002e0: c99f dcbf 6099 1e40 77c0 20c0 802d 8c3e
000002f0: 5513 673f 3e06 6cbf a8d0 2ac0 7d51 cdbe
00000300: 1ec9 c1bf 7ad5 c23f 510f cabf 1a67 dc3f
00000310: f202 343d 7d1e a5bf c4bd cc3f 9f94 e03f
00000320: 06a8 8abf c6d4 3cbf a3f0 39bf 8f9d a33f
00000330: a2cf 55bf e85b 883f 6a70 ef3f 3cf3 ccbf
00000340: 5b9d 93bd 0bc5 8a3f 1d67 073f 040a f2bf
00000350: 8494 22c0 1834 633c f967 83bd 9243 09bf
00000360: f793 883f 4e24 673f d6c6 b5be e7cf 2ebf
00000370: b801 573f 655b 68c0 7ed2 e83e ea41 cb3c
00000380: 3979 4bc0 7646 c53f 8c56 08bf d98d 3440
00000390: 8071 b23e eaba 1f3d dfa2 e93f 40b9 70c0
000003a0: b6a1 61be 3f34 6640 fa3a 873f a3b6 a23d
000003b0: f832 403f 0f46 f7bd 1522 d73e 6075 aabf
000003c0: 5789 f7bf cdea 0a3f b8e8 ca3f e2fc abbf
000003d0: 5d03 2fbf cd4e fabe f0b2 9abe 9892 c0bf
000003e0: ceb5 1a40 e0ca 4040 3689 5d3e c820 a7be
000003f0: db33 dd3e e613 88be b52d cc3f 670f 24bf
-1.1160284 2.9944415 1.0852017 1.2828088 -3.344935 3.847951 -0.944067 -0.8870226
0.07901242 -0.10511332 0.08922471 -0.41859925 -0.8784254 0.7630972 -3.1761916 0.9533216
0.07378947 -2.1970685 1.8537843 -1.3552978 -0.62452656 0.37258643 -0.15863433 -2.5977073
0.6816494 1.1950477 -2.3840492 0.25190163 0.46564847 0.0023489385 3.7607706 -1.3713932
3.3198853 -0.6801769 0.13549714 1.9683126 -3.2627664 -2.6673968 -0.20133568 0.025773793
-0.5624621 0.2843055 1.3636285 -1.8822705 0.80550015 2.0701046 2.344525 -1.8516985
0.7491729 0.69777465 1.9087209 -1.5330826 -0.20915745 1.4144636 0.6394525 1.526398
-0.22925428 -0.86535496 0.8139352 -1.6330591 2.0132847 -1.0769296 -1.1986078 -0.25584912
-1.8424767 0.6958441 -1.7974895 1.2000988 -0.55778605 -2.1081395 0.10782886 1.2422736
0.5625666 2.2009866 -0.23283923 -1.6491809 -0.24362439 1.7567855 -2.0888252 -2.8167567
0.43441796 -0.56936514 0.57664496 0.038003854 1.6449292 0.9818569 -2.057503 1.8422872
-0.016545841 0.14116073 1.1398878 -0.62576246 0.6628452 0.074311204 3.3569317 0.58419746
-3.579655 -0.80260485 1.5214549 -2.2395895 0.32040048 1.0499179 0.45059443 0.9530133
-2.0607219 0.7983409 -0.051886253 -1.5278883 2.845678 -0.96586525 -2.5781095 1.2839768
4.383741 0.17673802 0.27132344 1.6895158 -1.7321954 -3.1986074 0.9640134 0.6076039
-0.9055525 -2.4841201 -0.123108916 -2.816922 -0.19243822 0.55756265 -4.145193 0.7023062
-1.1697247 0.19770685 -1.0683808 1.3146414 -1.4956721 0.522846 1.1424459 2.5900745
-1.4642991 0.786736 0.14230712 -0.48534644 -1.9139893 2.315654 -0.008874272 -1.6396588
0.25923836 -0.67021096 1.4322414 -1.8006722 1.3783634 -2.4796648 0.85332215 -0.6580999
-0.4949937 -2.7743988 -0.06635121 -2.288813 1.1381804 -2.0437984 2.8565571 -0.6387506
0.021096578 0.07744397 -2.3571944 1.1227161 -1.8928454 -2.4651136 1.4645865 -1.5454192
-0.2334171 -3.0587056 -1.4150182 1.3604552 -0.8950723 0.94117975 2.4284472 -1.5197045
1.319585 -1.6479088 -0.2098062 0.68090457 0.29625222 0.87046796 -2.4960475 0.5880633
-1.7236263 2.4781113 -2.5117471 0.27378464 0.90263873 -0.92197025 -2.6689854 -0.40101233
-1.5139501 1.5221398 -1.5785924 1.7218964 0.04394812 -1.2899929 1.5995412 1.7545356
-1.0832527 -0.73762167 -0.7263281 1.2782458 -0.8351995 1.0653048 1.8706181 -1.6011729
-0.072077475 1.0841383 0.52891713 -1.8909307 -2.5403147 0.013867401 -0.064163156 -0.5361873
1.0670155 0.9028977 -0.35503262 -0.68285984 0.83987 -3.6305783 0.45473093 0.024811704
-3.1792738 1.5412128 -0.5325706 2.8211577 0.3485222 0.038996615 1.8252829 -3.7613068
-0.22034344 3.5969388 1.0564873 0.079449914 0.7507777 -0.120739095 0.4201819 -1.331707
-1.9338788 0.5426453 1.585227 -1.3436549 -0.68364507 -0.48888245 -0.30214643 -1.5044737
2.4173465 3.0123825 0.21634373 -0.32642198 0.43203625 -0.2657768 1.5951449 -0.64086

conv1.mlp.0.bias f4 [48]
00000000: 781e 07bf a912 85bf 7df6 0bbf db9a 743f
00000010: 00b7 d63f 3c6b fa3f d28b 8140 4d2c e1bf
00000020: 3642 edbf 6c4e c13e 362f 413f 9f31 ccbf
00000030: 2571 d73f 7d95 b5be e887 d2bf 3ba3 853e
00000040: a1fb 6bbf c19a 45c0 5e9e 9cc0 f5cb a8bf
00000050: d5ea 1840 bc9a 59c0 86a4 0e3f e19f 4f3f
00000060: b843 923f e971 dfbf f3b4 c23f 19cc d6bf
00000070: 2807 fcbd f783 9dbd b847 adbd 63c5 b93f
00000080: ed91 2ac0 cca7 18c0 236d 7a40 1399 dc3f
00000090: b04e 19c0 0321 d73e 942e 0dbf 56af a6bf
000000a0: 6b42 37be 7b42 6fbf fd5f 19be ae41 8d3f
000000b0: 9535 013e 78bb f6be d21b 8abf b661 4e3e
-0.52780867 -1.039632 -0.54672986 0.9554879 1.6774597 1.9563975 4.048318 -1.7591645
-1.8535831 0.37755144 0.75462663 -1.5952643 1.6831404 -0.35465613 -1.6447725 0.26101097
-0.9218083 -3.0875704 -4.894332 -1.3187243 2.389333 -3.4000692 0.5571979 0.8110333
1.1426916 -1.7456638 1.5211471 -1.6781036 -0.123060524 -0.07691186 -0.08460945 1.4513363
-2.6651566 -2.3852415 3.9129112 1.7234215 -2.3954277 0.42017373 -0.551492 -1.3022258
-0.1789643 -0.93460816 -0.14978023 1.1035669 0.12618096 -0.48189902 -1.078974 0.20154461

conv1.mlp.2.weight f4 [48]
00000000: fc0b 1e3f df89 273e 7a75 f43f 1add 8fbf
00000010: 7ee3 0940 d008 f83f ca65 aa3f d4a1 c03e
00000020: c877 9e3f b56f 2ebf 0cea 1a3f 736c 60bc
00000030: fd3e ed40 1330 5dbf 16a1 a940 3a65 8240
00000040: 54a6 853f 3276 80c0 4fdc 463f b93b 7a40
00000050: 74a7 c23f de72 943e 5963 583f bdb7 ea3e
00000060: c2dc 22bf 2f8b c840 6052 0040 4460 cfbf
00000070: b68c e340 7939 3d40 5620 3240 7dfe ab40
00000080: c67e 3540 25bc 93bf 7740 6740 18ea 93bf
00000090: e96e 3b40 2d99 633f e1b0 0f40 7a27 bbbf
000000a0: 5b22 fe3e f7d0 17bf aa1a c63e dd38 3d40
000000b0: 69ed 26c0 64e8 2dbd 8500 c53f 88a4 d0bf
0.61737037 0.16361187 1.9098351 -1.123935 2.15451 1.9377689 1.3312314 0.37623465
1.2380304 -0.681392 0.6051338 -0.013697731 7.413939 -0.8640148 5.300914 4.0748568
1.0441384 -4.014428 0.77679914 3.9098952 1.5207353 0.28993887 0.8452659 0.45843306
-0.636181 6.26699 2.0050278 -1.6201253 7.1109266 2.9566329 2.7832236 5.3748155
2.8358626 -1.1541792 3.6133096 -1.1555815 2.9286444 0.889056 2.2451708 -1.4621422
0.49635586 -0.5930323 0.38692218 2.9565957 -2.6082404 -0.042457953 1.5390784 -1.6300211

conv1.mlp.2.bias f4 [48]
00000000: e52f f83e df42 7c40 0c44 e83f 5405 95be
00000010: e7f1 77bf fb32 2340 df03 bebd 75ea 3b3f
00000020: b832 6bbf fe64 9abf bfcd 46bf a862 c73f
00000030: d29f a4c0 7e74 2ebf bd6e cfbe fa8d 9fbe
00000040: 1883 4bc0 9e88 2b40 74f7 d53e e408 1340
00000050: 5a35 4e3f 797a ad3f 563b 463f 27f8 a8bf
00000060: 2b4e 953f b054 34bf 2b34 19c0 662b 51bf
00000070: 7df2 6bbf efce 88bf d36d 3040 19b3 30bf
00000080: 0c5d 8a3e 00c5 26bf b4ec c0be ecc9 4c3e
00000090: 5046 963f c96f 1140 78a7 bebf 67d7 873f
000000a0: ec2a 8140 9bdb 33bf f61d e9bf af16 2b3f
000000b0: 7322 ebbf fd42 17c0 48a5 3ebd 9482 2ac0
0.4847404 3.9415815 1.8145766 -0.29105628 -0.9685349 2.5499866 -0.09278082 0.7340463
-0.91874266 -1.206207 -0.77657694 1.5576982 -5.1445093 -0.681465 -0.40514174 -0.31163007
-3.1798763 2.6802135 0.41790354 2.2974176 0.8055016 1.3553001 0.7743429 -1.320073
1.166448 -0.7044172 -2.393809 -0.81706846 -0.9216688 -1.0688151 2.7567031 -0.6902328
0.27024114 -0.6514435 -0.3768059 0.19998902 1.1740208 2.2724478 -1.4894857 1.061261
4.0364895 -0.70256966 -1.8212268 0.6683149 -1.8369888 -2.3634636 -0.046544343 -2.6642199

conv1.mlp.2.running_mean f4 [48]
00000000: d1f5 1240 505d 8741 aa49 8940 bd8f 8241
00000010: 70b7 cd40 1ea9 8541 e807 a541 4bb5 1540
00000020: a4fe 9541 e0ad 4441 d5ef 7840 d4c6 9040
00000030: 3ae8 db41 f6fc 4641 e679 1340 722b 8941
00000040: 62ae 3f41 937b a840 f039 3a40 c060 ce3e
00000050: 02eb 9141 53f5 d540 5039 7741 94c6 2e41
00000060: 0efd 7041 7906 8840 6204 8440 09de f540
00000070: f76d e940 558c de40 487d 6641 34fb b341
00000080: c701 993e b135 7d40 3a0f c441 8b4b 1041
00000090: ae17 a740 1dda 1740 537f 7e41 6786 a641
000000a0: dadc 5141 8f3c 4a41 374b 4a41 3a47 6141
000000b0: 4f8a 9641 158f cb40 0e93 9d41 3085 ac40
2.2962534 16.920563 4.290242 16.320185 6.4286423 16.707577 20.62886 2.3391902
18.749336 12.29245 3.8896382 4.524271 27.488392 12.436758 2.304315 17.146214
11.980074 5.2650847 2.9097862 0.4030819 18.23975 6.686197 15.451492 10.923481
15.061781 4.25079 4.125535 7.683354 7.2946734 6.9546304 14.405586 22.497658
0.29884169 3.956402 24.507435 9.018443 5.2216406 2.3726876 15.906085 20.815626
13.116419 12.639785 12.643363 14.079889 18.817533 6.361216 19.696804 5.3912582

conv1.mlp.2.running_var f4 [48]
00000000: 9f3f 4742 6bb1 8643 f236 8142 f303 7c43
00000010: 061d cd42 77f2 8b43 f378 6943 9d8f 0642
00000020: 2837 5543 2308 0b43 30cf 9442 78d6 9e42
00000030: 7a9c 3544 0502 2043 5adf 2e42 1ffd b743
00000040: 5b37 6843 5aa5 8b42 e507 5842 494d b940
00000050: ec10 0d43 0d96 9442 9a44 8243 7444 3143
00000060: 8d96 4943 6030 c942 1b05 3742 b5cd 3742
00000070: d520 0f43 909b 7243 986e 8b43 dbec 9843
00000080: 832e 4e40 ec43 de41 f595 4e43 417b 4643
00000090: 933e e342 c387 0342 d9ea 8743 4b3c 3743
000000a0: cd75 7443 77d5 f442 d956 9243 a158 8d43
000000b0: 88d3 0144 edf7 8542 4276 9843 40c2 9b42
49.81213 269.38608 64.607315 252.01543 102.55669 279.89426 233.47246 33.640247
213.21545 139.03178 74.40466 79.418884 726.44495 160.00789 43.718117 367.9775
232.21623 69.82295 54.00771 5.790684 141.0661 74.29307 260.53595 177.2674
201.58809 100.59448 45.754986 45.950886 143.12825 242.60767 278.864 305.85043
3.2215889 27.783165 206.58577 198.48146 113.622215 32.88258 271.83475 183.23552
244.46016 122.41692 292.6785 282.6924 519.3052 66.98423 304.9239 77.879395

conv1.mlp.4.weight f4 [48, 48]
00000000: 7156 803e b57e 973f eb2f bebf 2ce9 d1bf
00000010: 7125 ba3f 2380 223f 6bcc d0be b065 16be
00000020: d60c 523f 4085 b43f 5eb7 b3bf 4039 553f
00000030: aee1 ecbf 70b4 873f 5e16 7d3f eae7 1bbe
00000040: f3eb 5bbf 240c bb3e 1268 d23f 668c d6bd
00000050: 218d eb3f a515 ce3f de21 e83d 9bf4 123d
00000060: adce ba3c ab27 1e40 102a 0dbf 7beb 2ebf
00000070: d08d cbbf b317 5dbf 930a fc3f f99c 63bf
00000080: 3191 e3be d465 e1bf d530 913f 26b7 c4bf
00000090: 488c 8f40 6405 13be e9b1 c5bf 9275 06bf
000000a0: 4569 9d3e 7306 a8be cb88 dabf b322 b5bf
000000b0: 4b0c f8be 9c4d 4f3f 8153 0fc0 9c74 fdbf
000000c0: ab2e d6bf f1c2 373e 5e03 5b3f 1243 fdbf
000000d0: 7262 8d3f 13fc 88bf 7039 e53f abe0 903e
000000e0: 5a57 a2bc e534 343f e655 2e3e 5d1b 933f
000000f0: b97c 8f3f fd9b f2bf ba0b 2d3f 66ae 00bc
00000100: af42 f53e 6a01 fd3f 4eb9 613f f1a0 e1be
00000110: 5f78 de3f 2fc7 773f 3aa4 2a40 3a42 3ac0
00000120: 34a9 2e3f 539b 5a40 9f55 bfbf fb24 afbf
00000130: 5089 87bf 99fc b83f 99c0 d13f 439d 1dc0
00000140: 2e80 cfbf c957 bebd 6759 023f 943d 04bf
00000150: 112c 413f bd7c 4e3f 2bcf 973f 6832 fb3e
00000160: 08b4 5d3f d6ee d5bf 3bbf ee3f a3db 2bc0
00000170: 6b04 6ebf c71c 81bf 92e7 fbbe 6781 ccbf
00000180: 18c1 cfbf 57e2 eabf fe91 333f 378c ef3f
00000190: 1633 1440 7bfe b23f 6b14 633f ee53 2cbe
000001a0: 10e7 b13e fd70 ca3e c84b d8bf 1f82 edbf
000001b0: 78da 41be 264f 13be 3856 2fc0 ae68 d93f
000001c0: 6913 363e a88e e43f 472c 073f 7c89 0dbf
000001d0: c731 3ec0 d44e e9bf a626 e2be 21b1 e63f
000001e0: d432 4ebd 9f13 15bf 16eb b93f 66ec 9fbe
000001f0: bd27 0140 4d62 b03c 0024 0c40 2a37 87bf
00000200: e722 85bf e67f ec3f 79a0 05c0 87f0 b23f
00000210: 2b9f abbf 33aa 8b3f 542f e9bf 1749 013e
00000220: ede4 df3f e467 ee3f f017 c73f aeb9 4d40
00000230: c2ca 983d 5e09 51c0 11f7 eebe 83e2 9b3e
00000240: 7ce7 bdbd e31c 09c0 76e5 fc3f 6786 e1bf
00000250: 0ea5 5ebf d4e5 9b3e 97f9 70be a560 43be
00000260: 7237 5e3d 012c 43bf 0ced 0b40 08f4 0b40
00000270: acdd a3bf 6648 c7be 4f95 5840 1502 03c0
00000280: b5b6 983e fcdc b03f 9209 b93e b19c df3f
00000290: 0761 dfbe 97fb b33f 04a4 e9be c9d1 1a3e
000002a0: 27c2 e23d b2da e53f aef4 55c0 2e88 e9be
000002b0: 8871 893f 30bf 1840 50e1 79c0 0cc2 9a3f
000002c0: 7768 2d3f 7877 cabf 4a27 2d3f b2be 983f
000002d0: 49da 0b40 f2df c6bf 18fd 77be b7d6 443f
000002e0: 110c 35c0 3b96 91bf 8022 49c0 6110 6fbf
000002f0: 5e32 733f 0e22 d7be fbff e6be 9afd b33f
00000300: 3ada 143f 69d2 0240 3e95 44bf d0d2 0bbf
00000310: 3abe 83bc 5023 55c0 8470 13bf 89ad de3f
00000320: df1f 833d a67e 0ebf 9565 0cc0 1803 4c3f
00000330: a7b5 d73f 2d34 bf3f ed46 6cc0 146d 913f
00000340: 15a4 0340 00ff c1be 467d ff3e d1bb 1b40
00000350: 8492 8d3f d925 c13f df32 b33f 8444 8ebf
00000360: b7b9 c53f 5dbd 0ac0 8345 8e3f 5dd3 493e
00000370: b3b6 12bf 6748 99bf 23dd 88be bb60 f2bf
00000380: 1fb1 b63f 5459 a8bf 1887 d2bf ad3e 8cbf
00000390: 9f81 153e 6a86 133f 0d6a 97be cd89 0e3d
000003a0: 371e d1bf d687 dcbd 0c8e 1640 380e 463e
000003b0: 62c3 a33f 152f f53f 703a 4340 91e1 893f
000003c0: 76ee 68bf 8a66 373f 37d2 7c40 a885 95bd
000003d0: 93c9 33c0 fef8 2cbf b407 3cc0 f6a6 8cbf
000003e0: a164 223f e7e0 05bf c871 15c0 67b7 f2bf
000003f0: db7f d33f 31ab 0abc 361b adbf 5bfc d33f
0.2506595 1.1835543 -1.4858373 -1.6399283 1.4542676 0.6347677 -0.4078096 -0.14687228
0.82050836 1.4103165 -1.4040334 0.8329048 -1.8506372 1.060194 0.98862255 -0.15225187
-0.85906905 0.365327 1.643801 -0.104759976 1.8402444 1.6100355 0.11334585 0.035877805
0.022803629 2.4711711 -0.5514231 -0.68328065 -1.5902653 -0.8636429 1.9690727 -0.88911396
-0.4444671 -1.76092 1.1343027 -1.5368392 4.485874 -0.14357525 -1.5444919 -0.5252315
0.30744377 -0.3281742 -1.7072996 -1.4151214 -0.4844688 0.809778 -2.2394717 -1.9801211
-1.6732992 0.17945458 0.8555201 -1.9786093 1.1045668 -1.0701927 1.7908154 0.28296408
-0.019817043 0.7039321 0.17024955 1.1492726 1.1209937 -1.8953854 0.6759602 -0.00785408
0.47902438 1.9766057 0.8817338 -0.440681 1.7380484 0.96788305 2.6662736 -2.9102921
0.68226933 3.4157302 -1.4948004 -1.368316 -1.058878 1.4452087 1.6386901 -2.4627235
-1.6210992 -0.092940874 0.5091767 -0.5165646 0.75457865 0.80659086 1.1860098 0.49061894
0.8660283 -1.6713512 1.8652109 -2.6852806 -0.9297549 -1.0086907 -0.49200112 -1.597699
-1.6230803 -1.8350323 0.7014464 1.8714665 2.315618 1.3983911 0.8870303 -0.16828892
0.347466 0.39539328 -1.6898127 -1.8555335 -0.18930995 -0.14385661 -2.7396374 1.6985071
0.17780842 1.7856035 0.52801937 -0.5528791 -2.9717882 -1.8227181 -0.4417011 1.8022805
-0.050341442 -0.58233064 1.4524868 -0.31235045 2.0180504 0.021531248 2.1896973 -1.056371
-1.0401276 1.8476532 -2.0879195 1.3979653 -1.3407949 1.0911316 -1.8217568 0.12625538
1.7491738 1.8625455 1.555418 3.214458 0.07460548 -3.2661967 -0.46672872 0.30446252
-0.09272668 -2.142388 1.9757526 -1.7619141 -0.86970603 0.30448782 -0.23532711 -0.19079836
0.054252096 -0.7623902 2.1863432 2.1867695 -1.2802024 -0.38922423 3.384113 -2.047002
0.29826894 1.3817439 0.36140114 1.7469693 -0.43628713 1.4061154 -0.45632946 0.15119089
0.11072188 1.7957366 -3.343059 -0.4561171 1.0737772 2.3866692 -3.904377 1.2090468
0.67737526 -1.5817709 0.67638075 1.1933196 2.185198 -1.5537093 -0.24217641 0.7689013
-2.8288615 -1.1373972 -3.1427307 -0.9338437 0.9499873 -0.4201817 -0.45117173 1.4061768
0.5814549 2.0440924 -0.76790226 -0.5461855 -0.016081918 -3.3302803 -0.5759356 1.7396709
0.06402563 -0.55662 -2.1937 0.7969222 1.6852311 1.4937798 -3.691829 1.1361413
2.0568898 -0.37889862 0.49900264 2.4333384 1.1060338 1.5089675 1.39999 -1.1114659
1.5447301 -2.1678078 1.1114963 0.19709535 -0.57310027 -1.197522 -0.26731214 -1.893577
1.4272803 -1.3152261 -1.6447477 -1.0956627 0.14600228 0.57626975 -0.29573098 0.034799386
-1.6337346 -0.10768096 2.3524199 0.19341362 1.2794001 1.9154993 3.0504417 1.0771962
-0.9098886 0.7164084 3.9503305 -0.073008835 -2.809178 -0.6756743 -2.9379702 -1.0988452
0.634348 -0.522963 -2.3350697 -1.896222 1.6523393 -0.008463667 -1.3523929 1.6561388

conv1.mlp.4.bias f4 [48]
00000000: 98a3 573f f539 e73f 7bfa 18c0 06ec 413e
00000010: b19e f33e 77e4 873f 164e 5bbf 1739 b13f
00000020: 30e1 f33e b280 b23f 20c8 473f fa20 aebf
00000030: 7141 423f e8d4 0cbe d308 98bf cf84 fd3f
00000040: 0279 2dc0 79c2 883f 88c1 1e3f dd99 42bf
00000050: 7173 4840 aa36 10bd 4930 b1bf 5a0a 613e
00000060: ceaf 69bf 929a 7fbf 60b5 06c0 7f9d ae3f
00000070: d5fb 62be 4b2d 07c0 6240 213f 0f38 90be
00000080: 7143 44bf af98 193f fefd 1040 1227 0a40
00000090: f565 c73d aee2 49bf d728 efbd a884 4640
000000a0: cb48 12be 12d6 2440 006c 52bf 2beb 70be
000000b0: 8d87 fbbe 5423 9b3f 113e 02be 39de 24be
0.84234 1.8064562 -2.390288 0.18937692 0.4758201 1.0616597 -0.85666025 1.3845547
0.47632742 1.3945525 0.7803974 -1.3603814 0.75881106 -0.13753092 -1.1877693 1.9806155
-2.7105107 1.0684348 0.62014055 -0.76016027 3.132046 -0.03520838 -1.384286 0.21976605
-0.9128388 -0.9984523 -2.1048203 1.3641814 -0.22166379 -2.1121395 0.62988865 -0.2816777
-0.7666541 0.599986 2.2655025 2.1586347 0.09736244 -0.7886151 -0.116777115 3.1018467
-0.14285581 2.5755658 -0.82196045 -0.2352721 -0.49126855 1.2120156 -0.12718989 -0.16100396

conv1.mlp.6.weight f4 [48]
00000000: c7ed b13f 3ca1 6f3e a6eb 1940 0059 5c40
00000010: ee06 1ec0 5dd9 cf3f c420 fb3f e848 bd3f
00000020: 9ecb 003f 1f75 e5bf b300 0240 1109 5140
00000030: 67da 2540 d5a2 963c 2762 02c0 f7c9 3e3f
00000040: b80e 35bf 1792 8740 0d27 2140 4ee3 2040
00000050: 914b ad40 fcdf 233e dead 183e 4296 8abe
00000060: 9cf4 2140 eeeb 4c3e 6683 7e3e 01e6 3a3f
00000070: 09a5 b9bf 522d 90bf ea56 13bd aaaa ec3f
00000080: 54c5 7f40 b8e6 30c0 94dd b63f 33a1 81bf
00000090: 78d4 5740 89e4 7e3f d5c0 f83e 6bfa 3e40
000000a0: d8bd 3040 4566 a33e ccb3 9640 29e7 9740
000000b0: 3877 a03f 7476 f1bc 3f67 543f 5803 2440
1.3900689 0.2340135 2.4050078 3.4429321 -2.469173 1.6238209 1.9619374 1.4787874
0.50310695 -1.7926368 2.0312927 3.2661784 2.5914552 0.018388191 -2.0372407 0.74526924
-0.70725584 4.236583 2.5180085 2.5138736 5.4154744 0.16003412 0.14910075 -0.27067763
2.5305548 0.20011875 0.24854812 0.7300721 -1.450349 -1.1263831 -0.03597156 1.8489583
3.996419 -2.764082 1.428637 -1.0127319 3.372343 0.99567467 0.4858462 2.9840343
2.7615871 0.31913963 4.709448 4.746968 1.2536383 -0.029475428 0.8297004 2.562704

conv1.mlp.6.bias f4 [48]
00000000: 9f83 bb3f 2215 b4bf 35ea a8bf ef29 e0bf
00000010: c080 53bf 54e7 3b40 c642 fc3e 0d70 cc3f
00000020: 674f d4bf 646f f73f fe4a 863f ac1d 60bf
00000030: 15b1 58bf 5491 8e40 8ecc 96bf 25d0 b53d
00000040: 0502 513f 9b63 d1bf 55ee 8bbf 45fa 273f
00000050: afef 2e3e faa9 a4bf 6987 9d3f 6bdb e3bf
00000060: ecc6 833d 9c06 c23f a081 343e 9a31 0440
00000070: 3b24 833f 8ec0 d33f ba72 1340 7de2 143f
00000080: f728 1fbf c6f3 81c0 43c2 19c0 73ba 9b3f
00000090: 22ba 383f 7e0a f43f fa0d 003e 44fd c53e
000000a0: 3bfe 3940 46ce 1a40 8d82 3940 b5ec 7ec0
000000b0: 0fa5 c23e ad51 05c0 7a27 0abf 7db4 87bf
1.4649543 -1.4068949 -1.3196474 -1.7512797 -0.8261833 2.9359941 0.49269694 1.5971695
-1.6586732 1.9330869 1.0491636 -0.87545276 -0.84645206 4.4552402 -1.1781175 0.08877591
0.81643707 -1.6358522 -1.0932108 0.65616256 0.1708362 -1.2864373 1.2306949 -1.7801336
0.06434426 1.5158267 0.17627573 2.0655274 1.0245432 1.6543138 2.3038774 0.58158094
-0.6217188 -4.0610075 -2.4024818 1.2166275 0.72159016 1.9065702 0.12505332 0.3866979
2.906142 2.41884 2.8985932 -3.9831975 0.38016555 -2.08311 -0.53966486 -1.0601956

conv1.mlp.6.running_mean f4 [48]
00000000: 4f8c 4542 90b8 e741 aba5 7b41 20e1 9b41
00000010: d4f8 3641 bfd5 8441 6927 0c42 afd1 0d42
00000020: be34 a941 cda7 0542 d23b 9941 9c93 8c42
00000030: 66c9 d241 e3dc cb41 00bb 9e41 e41a 9841
00000040: ab17 4a41 4dc9 f841 7963 0741 2803 a741
00000050: 3e70 4442 6831 1b42 5982 8941 5a92 7940
00000060: 2139 bc41 c0ef c040 b48c ef41 6a51 9841
00000070: 708e 6441 8f79 3141 b151 a341 77fa c741
00000080: ce84 0d42 6fad d341 cc46 be41 a889 8e41
00000090: a7cb a041 8a68 5741 df72 a640 65b4 6242
000000a0: a561 8b42 9d17 0042 d326 9940 201e 2b41
000000b0: 901c e641 0ddc 0e42 a962 2142 64f0 e641
49.38702 28.965118 15.727946 19.484924 11.435749 16.604368 35.038486 35.45477
21.150753 33.413868 19.15421 70.2883 26.34834 25.482855 19.841309 19.01313
12.630778 31.098291 8.461785 20.876541 49.10961 38.79825 17.188646 3.8995576
23.527895 6.0292664 29.943703 19.039753 14.284775 11.092177 20.414888 24.997297
35.379692 26.459684 23.784569 17.817215 20.09944 13.463022 5.2015224 56.676167
69.69071 32.02306 4.7859893 10.694855 28.763947 35.714893 40.346348 28.867378

conv1.mlp.6.running_var f4 [48]
00000000: c825 2945 b24e a344 84fb 1444 2e4a da44
00000010: 22e2 c143 5e3b 7044 c424 fb44 6201 fe44
00000020: 3397 6e44 ef46 5a44 e3ba 8144 efea c044
00000030: 7d5e ca43 223c 7744 d6de 9144 d911 3a44
00000040: 65f2 b243 e241 b944 5e20 8743 fb32 1b45
00000050: d433 b044 e105 0645 8c31 8044 2c80 aa42
00000060: 7008 c244 7b50 ad43 6a9b 8444 4bfa 4444
00000070: cf42 3644 47c7 a643 2587 fd43 2d5c c444
00000080: fd27 5045 ca12 7345 aeba b344 72e3 8e44
00000090: 6cd8 b944 8d6f 3c44 1725 b642 2516 2145
000000a0: 49d4 7f45 bb21 3945 517f 5e43 e7b6 9244
000000b0: bbc9 8944 7788 c844 ff39 a544 7a58 a844
2706.3613 1306.4592 595.92993 1746.3181 387.76666 960.9276 2009.1489 2032.0432
954.3625 873.10834 1037.8402 1543.3417 404.7382 988.9396 1166.9636 744.2789
357.8937 1482.0588 270.25287 2483.1863 1409.6196 2144.3674 1025.5483 85.250336
1552.2637 346.62875 1060.8567 787.9108 729.0439 333.55685 507.05582 1570.8805
3330.4993 3889.1743 1437.8337 1143.1077 1486.7632 753.743 91.07244 2577.384
4093.2678 2962.1082 222.49733 1173.7157 1102.3041 1604.2645 1321.8124 1346.7649
