GraphNeuralNet/Skim1E2Mu/MHc-100_MA-95_vs_diboson/models/ParticleNet-nNodes64_AdamW_initLR-0p01_CyclicLR.pt (torch, 292507 bytes, 89 tensors)

gn0.weight f4 [9]
1.4735653 1.3748015 1.2993263 0.049457997 0.13999274 2.7638931 0.9583443 0.573859
1.2378926
00000000: ca9d bc3f 7ff9 af3f 5350 a63f 7894 4a3d
00000010: 425a 0f3e a0e3 3040 0d56 753f 6ce8 123f
00000020: 4473 9e3f

gn0.bias f4 [9]
-0.11338371 0.022170184 0.053367555 0.14157319 0.19466569 0.5455147 1.0956664 0.2939797
0.6904988
00000000: b835 e8bd 3f9e b53c f097 5a3d 90f8 103e
00000010: 7156 473e daa6 0b3f cc3e 8c3f 8284 963e
00000020: 88c4 303f

gn0.mean_scale f4 [9]
-0.045606647 0.56683666 0.45376 0.39186957 -1.0350825 0.44240487 2.0878282 3.057372
1.1206245
00000000: 09ce 3abd 351c 113f 3b53 e83e 21a3 c83e
00000010: 957d 84bf e482 e23e fa9e 0540 fcab 4340
00000020: a070 8f3f

conv1.mlp.0.weight f4 [64, 18]
-0.13091895 0.062271442 0.08712056 0.5080744 -0.19074814 -3.6287282 0.41272607 -0.010893951
1.6164677 0.11970262 0.20139378 0.18981944 -0.08638732 -0.25837833 0.2983592 0.14130612
-0.20671302 -0.27839798 -0.6825352 -5.2420897 -0.12020912 -0.6255539 -0.77233696 0.09076682
-0.92855024 0.877908 0.13037175 0.15667628 -0.2754977 0.18302917 0.096469775 0.019420035
0.1338554 0.11824211 -0.19465244 -0.14706047 0.05923146 -0.011034351 0.13112412 -0.50639534
-0.8862198 -2.31051 -0.10214697 0.16313563 -5.026571 0.21735732 -0.11674949 0.06959018
-0.1229107 0.2030979 -0.08951085 0.0785311 0.28926447 0.3177334 -1.1367052 2.9696846
-3.2302837 -0.1270806 0.33566833 0.07279154 -1.5068365 0.83261514 -0.11025644 0.077389054
0.0146838995 0.12061281 -0.8287531 0.0565792 0.04153532 0.027217323 0.04222867 0.078172706
1.1875098 0.8680519 0.60204566 0.031775273 -0.6229763 0.56559086 -2.6271508 -1.012458
-1.501727 0.65991175 0.06919946 -0.1639023 -0.16962333 0.3207256 -0.07927693 1.0857314
1.5423127 0.87136817 -1.0157578 4.0647793 -0.7322846 -0.7973804 -0.83710414 0.1034979
-1.2693282 1.0626078 0.36001724 -0.32376 0.11300659 0.011007181 0.06569272 0.47444168
0.055361584 0.23939003 -0.73500496 -0.22886859 -0.92755544 -1.0670048 -4.5261793 -0.66898763
-1.1246343 0.05953709 -1.4301766 0.786913 0.06389404 0.12663509 0.23090065 -0.2906373
-0.44681874 -0.32148522 0.035702527 -0.43315998 -0.98881257 -0.095968276 -1.2890403 0.5586153
-5.397498 -0.28326634 0.68611485 0.069521904 -0.86323386 1.0362219 0.26561654 0.37513065
-0.06977226 0.024475677 -0.360915 -0.14247206 0.035446923 0.10364267 -0.0070428126 -0.21723741
1.3425122 0.079723 -0.2771667 0.025836695 -0.32024 0.26823404 -1.7032152 -2.8978374
-0.7018452 -0.9072098 -0.45086762 -0.3225099 -0.07249856 0.012558416 -0.40303296 -0.088869266
1.3481754 0.7462206 -1.4238213 4.5910063 -0.862992 -0.14327219 0.30288976 0.107916825
-0.78902864 0.9358631 -0.1261418 -0.103352994 0.19437717 -0.17385335 -0.0171251 -0.296778
-0.066228166 -0.021374999 -0.25037333 0.06203212 -1.0063388 0.36449796 5.324593 -0.30670688
-0.04568879 -0.005659516 -0.49314764 0.38397077 -0.15415382 -0.087559216 0.013731578 -0.06432612
0.18291953 -0.050347872 0.026104832 -0.40076032 0.09260087 0.06489839 -1.8840889 1.0144504
4.6724253 -0.79514164 -0.13563856 -0.12936398 -0.6876196 0.27163 0.4243641 0.28865907
-0.030321257 -0.05200578 0.28358692 -0.5071058 -0.22939423 -0.4105939 0.1877859 -0.04206779
-0.4167117 -0.14443457 -0.008534605 -0.27888665 -0.43322226 0.6570966 0.14697164 1.7550547
-2.9265747 -0.9707816 0.31753725 0.0747337 0.1667956 0.17644262 -0.50445026 -2.2040098
0.3066973 0.7041261 -1.4643422 -3.589464 2.3044035 -0.41405535 -0.52878386 0.12543942
-1.6901737 0.168848 -0.08179803 0.10436671 -0.06377717 -0.010946074 -0.3882571 -0.45587057
0.15032123 0.036837198 0.16778591 -0.15219137 0.40468076 0.09572414 0.010102056 0.07569323
00000000: 9e0f 06be 5710 7f3d 446c b23d 2a11 023f
00000010: 7b53 43be 153d 68c0 d550 d33e 8b7c 32bc
00000020: 6ae8 ce3f a626 f53d 2c3a 4e3e 0760 423e
00000030: d6eb b0bd 2a4a 84be 89c2 983e 8db2 103e
00000040: 94ac 53be 2e8a 8ebe a0ba 2ebf 33bf a7c0
00000050: 3330 f6bd 4d24 20bf e0b7 45bf f4e3 b93d
00000060: 78b5 6dbf 94be 603f 2c80 053e bf6f 203e
00000070: 090e 8dbe 006c 3b3e f291 c53d c416 9f3c
00000080: 6411 093e eb28 f23d f852 47be 0597 16be
00000090: b09c 723d 6cc9 34bc 6745 063e 20a3 01bf
000000a0: 4ddf 62bf 65df 13c0 6e32 d1bd 070d 273e
000000b0: abd9 a0c0 eb92 5e3e 5b1a efbd 4c85 8e3d
000000c0: 9bb8 fbbd e5f8 4f3e 7751 b7bd ead4 a03d
000000d0: 791a 943e f4ad a23e 8e7f 91bf 500f 3e40
000000e0: f8bc 4ec0 6b21 02be b8dc ab3e bb13 953d
000000f0: 05e0 c0bf 4426 553f 21ce e1bd 277e 9e3d
00000100: bd94 703c d903 f73d 2a29 54bf 97bf 673d
00000110: f120 2a3d ddf6 de3c f8f7 2c3d 0319 a03d
00000120: 5200 983f a638 5e3f aa1f 1a3f ca26 023d
00000130: 607b 1fbf 90ca 103f 3d23 28c0 3998 81bf
00000140: 9738 c0bf faef 283f 72b8 8d3d 01d6 27be
00000150: bdb1 2dbe 2536 a43e f15b a2bd 3ff9 8a3f
00000160: 816a c53f fc11 5f3f 5a04 82bf ac12 8240
00000170: 0177 3bbf 1f21 4cbf 754c 56bf b5f6 d33d
00000180: 5979 a2bf 8803 883f 2e54 b83e dfc3 a5be
00000190: 0070 e73d 7757 343c e889 863d 05ea f23e
000001a0: d4c2 623d a922 753e 4929 3cbf 875c 6abe
000001b0: 4674 6dbf 9d93 88bf 76d6 90c0 c642 2bbf
000001c0: 04f4 8fbf 2add 733d 0710 b7bf 2173 493f
000001d0: e1da 823d a1ac 013e 3871 6c3e 6ace 94be
000001e0: 6dc5 e4be b699 a4be d03c 123d 25c7 ddbe
000001f0: d222 7dbf 048b c4bd 46ff a4bf 6a01 0f3f
00000200: 4eb8 acc0 4908 91be 39a5 2f3f 8061 8e3d
00000210: e5fc 5cbf eba2 843f e4fe 873e 2011 c03e
00000220: c2e4 8ebd 3781 c83c dac9 b8be 32e4 11be
00000230: cb30 113d 9c42 d43d 65c7 e6bb 7c73 5ebe
00000240: 71d7 ab3f d045 a33d cbe8 8dbe 7aa7 d33c
00000250: 7ff6 a3be f955 893e f502 dabf 2b76 39c0
00000260: 21ac 33bf e73e 68bf 1fd8 e6be 0520 a5be
00000270: 207a 94bd d1c1 4d3c 565a cebe 1701 b6bd
00000280: 0391 ac3f 5008 3f3f c73f b6bf 86e9 9240
00000290: 0bed 5cbf f2b5 12be 5e14 9b3e 7f03 dd3d
000002a0: c8fd 49bf b994 6f3f 512b 01be bcaa d3bd
000002b0: cf0a 473e 9d06 32be f049 8cbc 49f3 97be
000002c0: a2a2 87bd 9f1a afbc ef30 80be 6415 7e3d
000002d0: b6cf 80bf 7a9f ba3e 1163 aa40 af08 9dbe
000002e0: 2b24 3bbd 7673 b9bb d97d fcbe d197 c43e
000002f0: 80da 1dbe 3f52 b3bd 6afa 603c 6abd 83bd
00000300: 424f 3b3e 9239 4ebd cdd9 d53c 7530 cdbe
00000310: 86a5 bd3d 72e9 843d d329 f1bf 83d9 813f
00000320: 8284 9540 678e 4bbf d6e4 0abe fe77 04be
00000330: d707 30bf 1613 8b3e 4046 d93e 1fcb 933e
00000340: 4964 f8bc 0304 55bd 4e32 913e b0d1 01bf
00000350: 52e6 6abe 5d39 d2be f24a 403e 464f 2cbd
00000360: 3c5b d5be a8e6 13be bad4 0bbc 3bca 8ebe
00000370: 4fcf ddbe 7c37 283f bc7f 163e a2a5 e03f
00000380: 004d 3bc0 2585 78bf 3e94 a23e fb0d 993d
00000390: 77cc 2a3e 60ad 343e a723 01bf 7f0e 0dc0
000003a0: 6e07 9d3e 9c41 343f 916f bbbf c7b9 65c0
000003b0: 597b 1340 10ff d3be 615e 07bf 3173 003e
000003c0: 9d57 d8bf 7de6 2c3e ba85 a7bd 37be d53d
000003d0: 9b9d 82bd 2957 33bc a2c9 c6be de67 e9be
000003e0: cfed 193e 9ae2 163d 12d0 2b3e 0ed8 1bbe
000003f0: 5132 cf3e 050b c43d 1883 253c 0d05 9b3d

conv1.mlp.0.bias f4 [64]
1.3459916 -1.3810122 -1.4823577 -1.6486541 -0.3814505 -1.7928098 -1.1362109 -0.8146222
-0.5936775 -0.9874858 -0.6361694 -1.5691051 -0.934323 -2.0004396 -0.66365457 0.8073144
-0.84951985 0.17583063 -0.9672052 -0.6801524 -2.4832413 0.57287234 -0.75913036 -2.1492503
-0.83486235 -1.5399147 -1.518572 -1.0674442 -0.66785395 0.040276118 0.23147184 -1.6568156
-2.4258575 -1.3789892 -0.16707097 -0.88260055 -1.4996389 -0.77028036 -0.9833429 -0.5872251
-1.0375773 1.2473506 -1.2053336 1.98382 -1.2941598 -1.242785 -2.012362 -0.13700531
-0.264986 -2.0665858 -0.520201 -1.0188792 1.0566725 0.68693423 -1.4613519 -0.36718714
-0.7651012 -0.80062133 -0.15232083 0.4797587 -0.8297781 2.3713896 1.3301474 -0.28803474
00000000: 7449 ac3f 02c5 b0bf e6bd bdbf 1907 d3bf
00000010: 7b4d c3be cb7a e5bf 5c6f 91bf 158b 50bf
00000020: 40fb 17bf dfcb 7cbf ffdb 22bf 70d8 c8bf
00000030: cb2f 6fbf 3407 00c0 44e5 29bf 28ac 4e3f
00000040: 227a 59bf f20c 343e c39a 77bf 781e 2ebf
00000050: 6ded 1ec0 c3a7 123f 5e56 42bf 518d 09c0
00000060: 8ab9 55bf ed1b c5bf 9160 c2bf 03a2 88bf
00000070: 7af8 2abf 92f8 243d f406 6d3e 8912 d4bf
00000080: 4041 1bc0 b882 b0bf a714 2bbe 1cf2 61bf
00000090: 2bf4 bfbf 1831 45bf 5cbc 7bbf 6254 16bf
000000a0: 55cf 84bf 2fa9 9f3f 5f48 9abf d0ed fd3f
000000b0: 07a7 a5bf 9413 9fbf 8aca 00c0 1f4b 0cbe
000000c0: 3fac 87be f142 04c0 e52b 05bf a26a 82bf
000000d0: 0b41 873f ecda 2f3f 940d bbbf f4ff bbbe
000000e0: acdd 43bf 85f5 4cbf fef9 1bbe efa2 f53e
000000f0: 566c 54bf d9c4 1740 4542 aa3f 4a79 93be

conv1.mlp.2.weight f4 [64]
1.3462632 1.7426244 2.265561 2.092481 1.6785824 1.767318 1.7385608 1.6854534
1.0048374 1.6748245 1.8121359 1.4764313 1.7348895 1.8182453 1.5026829 1.4563
1.7335624 1.983333 1.7124466 1.4370149 1.1241986 1.3121467 2.1432106 1.8957932
1.5485895 1.6665019 1.7728142 1.7103144 1.63766 1.959587 1.3466473 2.046844
1.194376 0.93350685 1.869661 1.6740721 1.6857867 1.8208452 1.6330435 1.9161503
1.4021186 1.3004117 1.0396434 1.4526689 1.5814253 1.6441962 1.4625442 1.8464252
1.1350994 0.54755735 0.5532409 1.9154629 0.9062024 1.2016108 2.2315047 1.8923876
1.7358332 2.2093842 1.2931418 0.9787388 1.4303758 1.0805196 1.395635 1.8287793
00000000: 5a52 ac3f 510e df3f f4fe 1040 35eb 0540
00000010: cadb d63f 7a37 e23f 2989 de3f f0bc d73f
00000020: 839e 803f a660 d63f 12f4 e73f b3fb bc3f
00000030: dc10 de3f 43bc e83f ea57 c03f 0a68 ba3f
00000040: 5fe5 dd3f dbdd fd3f 7331 db3f 1bf0 b73f
00000050: bde5 8f3f 6cf4 a73f 5d2a 0940 5aa9 f23f
00000060: 2e38 c63f ef4f d53f 93eb e23f 95eb da3f
00000070: d89e d13f bfd3 fa3f f05e ac3f 7eff 0240
00000080: 50e1 983f 4efa 6e3f 0d51 ef3f ff47 d63f
00000090: dcc7 d73f 7511 e93f 9207 d13f 6a44 f53f
000000a0: 9f78 b33f e473 a63f 0913 853f 0ef1 b93f
000000b0: 256c ca3f 0575 d23f a634 bb3f a957 ec3f
000000c0: f04a 913f b82c 0c3f 32a1 0d3f e32d f53f
000000d0: e1fc 673f 62ce 993f f9d0 0e40 c239 f23f
000000e0: c82f de3f 8d66 0d40 ac85 a53f a08e 7a3f
000000f0: 8e16 b73f 774e 8a3f 2ba4 b23f 7115 ea3f

conv1.mlp.2.bias f4 [64]
-0.9297528 0.23960845 -0.020584593 0.5750271 0.60747737 0.4426159 0.27882668 0.32045525
-0.38782123 0.63242936 0.6244404 0.41208935 0.4049918 0.57158655 0.59731245 -0.078413606
0.3295529 0.6794485 0.67851394 -0.39524066 -0.28520483 -0.9055091 0.48198316 0.30125687
-0.051144555 -0.22947833 0.39163494 0.33301508 -0.2531218 0.5534921 0.40486357 0.9048665
-0.108237945 0.3301915 -0.864183 -0.7682464 0.23077215 0.5185157 0.41191348 0.40351918
0.44703108 0.28167513 0.11763796 0.7317415 0.33562005 0.48286718 -0.09269252 0.5778679
-0.16790292 -0.58642477 0.41135272 0.22396198 -0.19687979 -0.5042719 0.076678336 -1.0435119
0.5053197 0.73318225 -0.17212929 0.7621211 -0.88677263 -0.24998897 -0.6213993 -0.17119248
00000000: 4804 6ebf eb5b 753e 05a1 a8bc fa34 133f
00000010: a383 1b3f 8d9e e23e 5fc2 8e3e b612 a43e
00000020: 8190 c6be e4e6 213f 53db 1f3f 60fd d23e
00000030: 165b cf3e 7f53 123f 78e9 183f 5097 a0bd
00000040: 28bb a83e 56f0 2d3f 17b3 2d3f fc5c cabe
00000050: 5e06 92be 72cf 67bf 7fc6 f63e 573e 9a3e
00000060: f47c 51bd 5efc 6abe 6084 c83e f480 aa3e
00000070: 2e99 81be a9b1 0d3f 474a cf3e 55a5 673f
00000080: dbab ddbd dc0e a93e 193b 5dbf ccab 44bf
00000090: 894f 6c3e 72bd 043f 53e6 d23e 119a ce3e
000000a0: 42e1 e43e b937 903e 2cec f03d 6953 3b3f
000000b0: 64d6 ab3e 5e3a f73e 93d5 bdbd 27ef 133f
000000c0: beee 2bbe ef1f 16bf d39c d23e 4a56 653e
000000d0: db9a 49be f717 01bf 8809 9d3d cc91 85bf
000000e0: a25c 013f d5b1 3b3f a942 30be 5e1a 433f
000000f0: 8803 63bf 1cfd 7fbe 0614 1fbf 154d 2fbe

conv1.mlp.2.running_mean f4 [64]
1.4728292 1.3731112 0.6784875 0.7617284 0.84274083 0.8330091 0.8259866 1.4620831
1.3570362 1.1155527 1.7252079 0.80366707 1.1991664 0.5137085 2.292349 0.2851983
1.1314683 1.0585955 1.8693023 0.3490523 0.914258 0.5192816 1.1190647 0.27601162
0.09740903 0.6645107 1.2059681 1.125254 0.12881772 1.9488012 0.38569972 0.8234103
0.054937094 0.74985075 0.19094576 0.18642879 1.093307 1.0309922 1.0848132 2.1060631
3.5297425 1.3733014 3.1210864 4.8446503 0.7466995 1.0737848 0.1485868 2.0817196
0.38707694 6e-45 1.7095317 1.2734877 1.1550678 0.4889849 1.0040674 0.15767749
0.491074 0.68474364 2.5442622 2.3637676 0.07636634 2.0739603 1.7741063 0.33849037
00000000: ab85 bc3f 1cc2 af3f 5bb1 2d3f a200 433f
00000010: ddbd 573f 1640 553f dc73 533f 8a25 bb3f
00000020: 5db3 ad3f 6eca 8e3f 9dd3 dc3f 20bd 4d3f
00000030: 497e 993f 6682 033f d9b5 1240 8305 923e
00000040: f4d3 903f 0f80 873f 4c45 ef3f fcb6 b23e
00000050: d00c 6a3f a4ef 043f 833d 8f3f 6551 8d3e
00000060: 637e c73d 601d 2a3f 2a5d 9a3f 5308 903f
00000070: cbe8 033e 5172 f93f 6f7a c53e 04cb 523f
00000080: b805 613d 38f6 3f3f 4987 433e 30e7 3e3e
00000090: 7cf1 8b3f 8df7 833f 29db 8a3f bdc9 0640
000000a0: 4de7 6140 57c8 af3f e1bf 4740 6007 9b40
000000b0: b327 3f3f c871 893f 2327 183e e53a 0540
000000c0: f32e c63e 0400 0000 efd1 da3f a501 a33f
000000d0: 43d9 933f 3b5c fa3e 4885 803f 3576 213e
000000e0: 0d6e fb3e 5c4b 2f3f 31d5 2240 f847 1740
000000f0: f565 9c3d c4bb 0440 ea15 e33f 9c4e ad3e

conv1.mlp.2.running_var f4 [64]
2.4917886 6.772862 1.2764708 3.5351853 2.1772416 3.448793 3.5071697 6.846178
4.17416 4.790173 9.212637 3.1812077 4.1461067 2.0748165 9.058837 0.5262886
4.965026 3.1149297 10.0029745 0.4760759 4.24769 0.9160889 2.8802843 0.5116441
0.20467821 1.8336965 5.3922105 4.638259 0.38665393 10.815644 0.9450176 3.2366066
0.11312063 2.7807858 0.15654196 0.19547234 5.2536187 4.158607 5.026271 13.455676
25.542442 3.415003 28.811577 10.85281 2.6717515 4.78191 0.24302168 12.6755085
0.49325693 6e-45 6.537763 5.753787 2.0884295 0.84828556 2.3732314 0.10567226
1.0302297 1.9363352 14.995799 7.329182 0.07076707 3.8657072 3.0043442 1.3308351
00000000: 7779 1f40 49bb d840 6563 a33f 7a40 6240
00000010: ed57 0b40 06b9 5c40 7875 6040 e413 db40
00000020: b892 8540 1949 9940 f666 1341 e898 4b40
00000030: e8ac 8440 cbc9 0440 fff0 1041 daba 063f
00000040: 7ee1 9e40 025b 4740 2f0c 2041 38c0 f33e
00000050: 14ed 8740 cd84 6a3f 9456 3840 1cfb 023f
00000060: 2a97 513e 91b6 ea3f fd8c ac40 9e6c 9440
00000070: 81f7 c53e e10c 2d41 acec 713f 9024 4f40
00000080: caab e73d 65f8 3140 894c 203e e729 483e
00000090: a51d a840 4f13 8540 36d7 a040 734a 5741
000000a0: ec56 cc41 698f 5a40 1c7e e641 1ca5 2d41
000000b0: fafd 2a40 6805 9940 adda 783e e2ce 4a41
000000c0: 2c8c fc3e 0400 0000 5b35 d140 061f b840
000000d0: d4a8 0540 3e29 593f 06e3 1740 b36a d83d
000000e0: 91de 833f d5d9 f73f cbee 6f41 a988 ea40
000000f0: 53ee 903d bf67 7740 2d47 4040 ce58 aa3f

conv1.mlp.4.weight f4 [64, 64]
0.7022483 -0.88003373 0.410093 -0.9786871 -1.5663596 -0.6458408 -0.9290945 -1.4390453
-0.69722736 -0.5625983 -0.6805399 -0.6530187 0.49601933 -1.504078 -0.25411597 0.27159128
-0.66299963 -1.0653807 -0.056742795 0.036833722 -0.07241806 0.106368974 -0.47336957 0.30244792
-1.0023566 -0.0010311595 -1.1748619 -1.1969198 -0.539464 -0.9885455 -1.2105955 -0.42360756
0.16475452 -0.37240282 0.0053307214 0.3781087 -1.0310141 -1.015897 -1.0043105 -1.1003456
-1.5610582 0.5078037 -1.0374185 -0.8979723 -0.8229368 -0.16602223 -0.54945964 -0.4161474
0.7914745 -0.05850436 0.2666274 -0.63058364 0.28681567 0.04562527 0.06820009 -0.0625234
0.30447945 -0.48638698 -0.8184849 -0.29911825 0.13728473 0.70017886 0.5342725 -1.1629739
-1.3453103 0.47463262 -0.20275562 -0.274044 0.35322303 0.2234009 0.13605902 0.39433736
-1.2769701 0.08386954 0.54866314 0.11138521 -0.19458368 -0.25926387 0.011407548 0.8340501
0.31910178 0.26625463 -0.34613353 -0.52147865 -1.1054045 -0.3547429 -0.4576286 -0.918576
1.606885 -0.4094908 0.06639815 -0.47440723 1.3279763 0.8373883 0.7865308 0.9760175
-1.3154272 0.60385084 0.115680575 -0.3851263 -0.37809524 0.46123207 0.78883886 -0.0496381
-0.10579126 -0.8133211 -0.4967534 -0.66723156 0.10831934 0.43577844 0.20552334 -0.348731
-0.08709225 0.19391723 0.2619271 -0.26147017 -0.228277 -0.45492178 -0.9483605 -0.36556676
0.41179436 -0.55468315 -0.22254731 0.994053 -0.37293747 0.372389 0.03849534 1.6117401
-0.26853722 0.43981615 0.8038894 0.43880278 0.103355445 0.465646 0.5003597 0.578281
1.0385242 0.51614916 0.39423215 0.4064955 1.0806688 0.69474506 0.82480264 -0.9384321
0.17354044 -0.1487247 0.6422624 0.7410549 0.8160348 -0.23660287 0.6216801 0.7741908
0.54665476 0.37949678 0.32845253 0.25210303 -0.6777044 0.8448759 -0.3621353 -0.97185475
0.044013616 0.4025269 0.22859384 -0.41079953 0.48906454 0.44148442 0.74769694 0.7044776
0.47767878 -1.0868244 0.7444404 0.66357565 0.6536341 0.43266264 1.0729927 0.6854513
0.017087728 0.18959689 0.97865975 0.5501878 -0.7888068 -0.4681447 0.6036167 0.44440788
0.04260163 -1.9778212 0.8148568 0.17247799 0.8553094 -0.7314738 -1.4810667 -1.4714055
0.9861521 -0.33498776 -0.93240494 0.1140234 -1.1502475 -0.5095013 -0.4359487 -0.27950606
0.4287461 -0.21214373 -0.4869653 -0.26258993 -0.59511536 -0.25021487 -1.5022453 0.13226317
-0.5469753 0.4478735 -0.60882384 0.27834842 0.47634134 0.5820267 -1.0609466 -0.679412
-0.6171469 -0.34471837 -0.5205055 -0.34850633 -1.1102862 -0.5752513 -0.3900251 0.69156504
0.7248508 -0.6507681 1.605293 0.42583874 -0.532183 -0.2509915 -0.8635909 -0.190494
-0.59084034 0.06858829 -0.20663331 -0.23009478 -0.15781623 -0.7063121 -0.19291677 -0.36045954
0.44305402 -0.4502338 -0.721682 -0.82717973 0.72898996 0.81860304 -1.200042 1.3549076
-0.80678904 0.4284903 0.17333357 -0.9715413 0.8576558 0.62598455 0.67529166 -0.33586553
00000000: 8bc6 333f e449 61bf b6f7 d13e 3d8b 7abf
00000010: 797e c8bf d355 25bf 23d9 6dbf a332 b8bf
00000020: 7e7d 32bf 7106 10bf dd37 2ebf 3c2c 27bf
00000030: 3ff6 fd3e a185 c0bf 7d1b 82be 030e 8b3e
00000040: 58ba 29bf 655e 88bf 226b 68bd f5de 163d
00000050: eb4f 94bd fad7 d93d 7f5d f2be 74da 9a3e
00000060: 394d 80bf f927 87ba e061 96bf ab34 99bf
00000070: 501a 0abf 5111 7dbf cbf4 9abf 17e3 d8be
00000080: 69b5 283e 95ab bebe 55ad ae3b 7797 c13e
00000090: 45f8 83bf ea08 82bf 3f8d 80bf 20d8 8cbf
000000a0: c1d0 c7bf 6cff 013f 21ca 84bf 83e1 65bf
000000b0: fcab 52bf bb01 2abe 63a9 0cbf 4611 d5be
000000c0: 139e 4a3f 45a2 6fbd 6383 883e ee6d 21bf
000000d0: 81d9 923e 90e1 3a3d 7dac 8b3d 450c 80bd
000000e0: bbe4 9b3e b707 f9be 3a88 51bf 0726 99be
000000f0: 5e94 0c3e ec3e 333f 15c6 083f 54dc 94bf
00000100: 2133 acbf 0c03 f33e 2b9f 4fbe 7f4f 8cbe
00000110: a6d9 b43e 35c3 643e 0e53 0b3e 96e6 c93e
00000120: c273 a3bf cbc3 ab3d 3075 0c3f ee1d e43d
00000130: f240 47be 3cbe 84be b9e6 3a3c 4f84 553f
00000140: 4f61 a33e 8752 883e 6a38 b1be a07f 05bf
00000150: e57d 8dbf dda0 b5be 4c4e eabe cc27 6bbf
00000160: 68ae cd3f c7a8 d1be c1fb 873d 81e5 f2be
00000170: 21fb a93f 145f 563f 155a 493f 48dc 793f
00000180: eb5f a8bf f895 1a3f f0e9 ec3d 462f c5be
00000190: b395 c1be 9c26 ec3e 58f1 493f 5251 4bbd
000001a0: 17a9 d8bd d035 50bf 7656 febe b0cf 2abf
000001b0: 88d6 dd3d 5a1e df3e b674 523e df8c b2be
000001c0: 6c5d b2bd 3d92 463e 4f1b 863e 6bdf 85be
000001d0: 72c1 69be 82eb e8be c1c7 72bf 912b bbbe
000001e0: b6d6 d23e b7ff 0dbf 71e3 63be 427a 7e3f
000001f0: a9f1 bebe c5a9 be3e 4aad 1d3d 804d ce3f
00000200: b67d 89be 952f e13e b2cb 4d3f c2aa e03e
00000210: 05ac d33d 2769 ee3e 9317 003f 390a 143f
00000220: 5cee 843f 5a22 043f ccd8 c93e 2e20 d03e
00000230: 5b53 8a3f d0da 313f 4426 533f 163d 70bf
00000240: 96b4 313e 4a4b 18be 4f6b 243f c6b5 3d3f
00000250: a8e7 503f 0648 72be 6d26 1f3f 5e31 463f
00000260: 91f1 0b3f 674d c23e ee2a a83e a613 813e
00000270: 097e 2dbf c949 583f cc69 b9be 79cb 78bf
00000280: 9f47 343d 0118 ce3e 8114 6a3e 5154 d2be
00000290: ab66 fa3e 3f0a e23e 1169 3f3f a558 343f
000002a0: 5092 f43e 101d 8bbf a593 3e3f 18e0 293f
000002b0: 9054 273f f585 dd3e d357 893f bd79 2f3f
000002c0: 90fb 8b3c b025 423e 7289 7a3f 1cd9 0c3f
000002d0: 3eef 49bf aab0 efbe a086 1a3f 6e89 e33e
000002e0: 0c7f 2e3d 3f29 fdbf 759a 503f 129e 303e
000002f0: 8ff5 5a3f de41 3bbf 9893 bdbf 0457 bcbf
00000300: 7774 7c3f 8483 abbe 17b2 6ebf 1a85 e93d
00000310: 4f3b 93bf ad6e 02bf ab34 dfbe 6b1b 8fbe
00000320: 9c84 db3e 353c 59be 8453 f9be 3072 86be
00000330: 7b59 18bf 2a1c 80be 9349 c0bf ff6f 073e
00000340: 9306 0cbf ad4f e53e e1db 1bbf af83 8e3e
00000350: 03e3 f33e b4ff 143f 19cd 87bf f2ed 2dbf
00000360: 57fd 1dbf ed7e b0be d93f 05bf 6c6f b2be
00000370: dc1d 8ebf ab43 13bf 5fb1 c7be 680a 313f
00000380: d28f 393f bd98 26bf 3e7a cd3f 8907 da3e
00000390: 253d 08bf f581 80be 4b14 5dbf dc10 43be
000003a0: 5041 17bf 0478 8c3d af97 53be f79d 6bbe
000003b0: 949a 21be dfd0 34bf f98b 45be 278e b8be
000003c0: fad7 e23e 0b85 e6be 27c0 38bf 0dc2 53bf
000003d0: 169f 3a3f f88f 513f fa9a 99bf 9d6d ad3f
000003e0: ba89 4ebf 1563 db3e 5b7e 313e eeb6 78bf
000003f0: 558f 5b3f 8640 203f eadf 2c3f 91f6 abbe

conv1.mlp.4.bias f4 [64]
0.67920995 0.69607204 -0.30545256 -0.87809205 0.74749035 -0.58221656 -0.6502339 0.3988037
-1.1298733 -1.0896881 0.1791983 -1.3649609 -0.10612086 -0.31922504 -0.26588616 -1.457055
-0.023908237 -2.071189 0.90582603 0.8949586 0.59201485 -1.0444453 -0.1755743 1.2202846
-1.9293463 -1.6104515 0.031362467 -0.17050132 0.41735765 -1.1319909 0.97413754 1.7325424
1.9330457 0.8554626 -0.41507706 0.08681188 0.70886046 -1.2918103 -2.2208312 -0.5082919
0.30542555 -0.7750465 -0.4143811 -1.6970563 -1.0009334 -1.2699376 -0.52991897 0.1707893
-1.338007 -1.2481313 -2.014677 0.2805562 0.9383489 -0.8575956 0.50429595 -0.9947676
-0.74367744 0.63786966 -0.6937708 -0.9451729 1.0705566 -0.9399395 0.8817805 -0.36109868
00000000: b4e0 2d3f c731 323f 4764 9cbe a4ca 60bf
00000010: 875b 3f3f 250c 15bf bb75 26bf 0030 cc3e
00000020: b09f 90bf e67a 8bbf c27f 373e 0ab7 aebf
00000030: e555 d9bd 7771 a3be 3b22 88be c780 babf
00000040: 35db c3bc 5c8e 04c0 37e4 673f 021c 653f
00000050: 498e 173f 62b0 85bf c0c9 33be 4932 9c3f
00000060: d2f4 f6bf 4623 cebf ee75 003d e697 2ebe
00000070: e7af d53e 14e5 90bf 1461 793f f3c3 dd3f
00000080: 0b6e f73f 99ff 5a3f fb84 d4be 6dca b13d
00000090: e177 353f 0a5a a5bf 1922 0ec0 6b1f 02bf
000000a0: bd60 9c3e 7369 46bf c229 d4be 2439 d9bf
000000b0: 961e 80bf 518d a2bf c5a8 07bf 64e3 2e3e
000000c0: d043 abbf c4c2 9fbf 78f0 00c0 10a5 8f3e
000000d0: a237 703f 638b 5bbf 8a19 013f 17a9 7ebf
000000e0: a561 3ebf 6d4b 233f f79a 31bf daf6 71bf
000000f0: 0008 893f e09f 70bf 5ebc 613f ede1 b8be

conv1.mlp.6.weight f4 [64]
1.6638951 1.084908 1.6526116 1.3895272 1.4741063 0.9460573 1.2030872 1.720597
1.3662727 1.7120961 1.7154658 1.757673 1.0181022 1.2720498 1.5790377 2.3728526
1.3548214 1.7254207 1.4898411 1.3495167 1.367032 1.6005334 1.8919711 1.1711346
1.4435203 2.305752 1.5214603 1.5857322 1.8179752 1.2355875 1.4219986 1.829162
1.9555229 1.6460266 1.7914883 1.4451765 1.3761033 1.4272455 1.5622365 1.3790929
1.4688971 1.6705483 1.000017 1.3599845 2.063834 1.7268147 1.4947758 1.7049798
0.70626414 1.1783013 2.7587042 1.8508211 1.8388835 1.4416677 2.1036832 1.7193593
1.5054339 1.5007671 1.5639749 1.3317298 1.3093998 1.5242771 1.8589758 1.6498685
00000000: 84fa d43f 44de 8a3f c788 d33f 07dc b13f
00000010: 84af bc3f d030 723f c3fe 993f 863c dc3f
00000020: 06e2 ae3f f725 db3f 6294 db3f 6efb e03f
00000030: 2c51 823f 87d2 a23f e81d ca3f d1dc 1740
00000040: ca6a ad3f 96da dc3f 1db3 be3f f7bc ac3f
00000050: e8fa ae3f 47de cc3f 1c2c f23f bde7 953f
00000060: 46c5 b83f 7191 1340 36bf c23f 46f9 ca3f
00000070: 69b3 e83f bb27 9e3f 0d04 b63f fb21 ea3f
00000080: 934e fa3f 00b1 d23f 7d4f e53f 8bfb b83f
00000090: 2724 b03f fbaf b63f 5ef7 c73f 1e86 b03f
000000a0: d204 bc3f 87d4 d53f 8f00 803f f913 ae3f
000000b0: db15 0440 4408 dd3f d054 bf3f c73c da3f
000000c0: bacd 343f 94d2 963f 9c8e 3040 b5e7 ec3f
000000d0: 8960 eb3f 9188 b83f bfa2 0640 f713 dc3f
000000e0: 0fb2 c03f 2319 c03f 5430 c83f 1f76 aa3f
000000f0: 6a9a a73f 831b c33f ebf2 ed3f e42e d33f

conv1.mlp.6.bias f4 [64]
-0.35038838 0.07267066 0.016136134 -0.5311546 0.8744367 0.40936178 -0.05738616 -0.07641149
-0.25394347 0.30020082 0.14497669 0.2869913 0.037010442 -0.20880757 -0.012651792 0.6543918
-0.8428606 -0.4372624 -0.3252267 -0.4604757 -0.30835035 -0.52803165 0.20548871 -0.73819715
-0.22341007 -0.39930704 -0.39794093 -0.12807578 -0.49215552 -0.46578452 -0.13372801 0.35975805
-0.15013024 -0.22953032 -0.29792082 0.34892204 0.1928648 -0.034603402 -0.5308842 -0.76629657
0.3075764 -0.002022687 -0.013720222 -0.256466 0.34724376 -0.05794928 -0.26517704 0.03761164
-0.25461593 -0.76511943 0.8900637 0.16703336 0.080276586 0.36980167 0.086284064 -0.59177446
-0.41629827 -0.098675534 -0.5459593 0.07884626 -0.34862074 -0.11277191 -0.052487973 0.6714821
00000000: 1b66 b3be 5bd4 943d ed2f 843c bff9 07bf
00000010: 15db 5f3f de97 d13e c00d 6bbd a17d 9cbd
00000020: e104 82be ecb3 993e c574 143e 86f0 923e
00000030: 4398 173d a7d1 55be 7649 4fbc 3986 273f
00000040: b6c5 57bf dbe0 dfbe 1d84 a6be 79c3 ebbe
00000050: 19e0 9dbe 152d 07bf a26b 523e 7dfa 3cbf
00000060: 9cc5 64be f971 ccbe eabe cbbe 4c26 03be
00000070: cffb fbbe 4f7b eebe ffef 08be 3532 b83e
00000080: bebb 19be ff09 6bbe 1489 98be e9a5 b23e
00000090: 5a7e 453e 4cbc 0dbd 07e8 07bf 032c 44bf
000000a0: a77a 9d3e 0f8f 04bb c8ca 60bc 834f 83be
000000b0: efc9 b13e 395c 6dbd 49c5 87be aa0e 1a3d
000000c0: 055d 82be dede 43bf 37db 633f cb0a 2b3e
000000d0: 0d68 a43d a556 bd3e b3b5 b03d 887e 17bf
000000e0: 0c25 d5be 6616 cabd fdc3 0bbf 267a a13d
000000f0: 6b7e b2be f6f4 e6bd a1fd 56bd 40e6 2b3f

conv1.mlp.6.running_mean f4 [64]
3.5534656 7.8208585 9.943022 2.3848445 7.1801257 7.9394407 5.9548607 4.614954
10.150826 5.2502646 3.2465525 4.9905677 9.23378 2.5862596 4.1105304 7.5271463
3.1270516 1.269011 3.632412 3.3033288 5.157293 1.7496278 4.1399856 5.698023
6.295338 6.41523 11.7054 5.752998 4.0138197 8.573309 11.280854 5.2165422
5.186255 7.7264333 2.9296222 2.8206704 3.524486 2.2195094 2.0138614 1.9090344
8.557032 2.1554282 6.117623 5.812552 7.2902613 2.714972 9.091307 2.5213778
7.0869427 5.4089546 8.254361 3.6808066 3.2646253 7.6819415 4.2864966 2.8353508
7.8057957 10.274369 1.6419513 8.495686 8.528288 2.4922326 5.496999 7.446092
00000000: fb6b 6340 7944 fa40 9e16 1f41 4ba1 1840
00000010: 97c3 e540 e60f fe40 388e be40 b4ad 9340
00000020: c969 2241 2b02 a840 84c7 4f40 bbb2 9f40
00000030: 90bd 1341 4785 2540 7789 8340 62de f040
00000040: 9d21 4840 f46e a23f 7079 6840 bd69 5340
00000050: 8b08 a540 cef3 df3f c37a 8440 3456 b640
00000060: 6973 c940 9049 cd40 5249 3b41 8f18 b840
00000070: 3671 8040 462c 0941 617e 3441 eaed a640
00000080: cdf5 a540 f13e f740 ee7e 3b40 dd85 3440
00000090: 2e91 6140 710c 0e40 1be3 0040 3d5b f43f
000000a0: 9ae9 0841 89f2 0940 91c3 c340 6d00 ba40
000000b0: d249 e940 1ac2 2d40 fe75 1141 415e 2140
000000c0: 3cc8 e240 2816 ad40 dd11 0441 5692 6b40
000000d0: 9fef 5040 77d2 f540 fb2a 8940 6376 3540
000000e0: 14c9 f940 d163 2441 762b d23f 54ee 0741
000000f0: de73 0841 bd80 1f40 6ae7 af40 6346 ee40

conv1.mlp.6.running_var f4 [64]
38.59058 110.83119 166.03584 58.986065 131.00467 109.81913 93.692154 58.592957
163.09798 128.46165 59.134506 126.63113 103.36912 51.535652 99.257645 237.50667
27.797976 8.938134 126.74277 29.147528 47.4452 16.190643 47.579388 57.230125
97.669975 142.456 118.548325 105.37976 43.575054 144.62035 107.24654 66.428474
108.111115 97.576096 76.46891 79.392876 118.72741 60.973106 29.349512 15.669032
177.83936 40.373524 142.70688 77.00968 222.54417 31.579552 145.36623 27.139723
132.12643 98.07433 281.88086 136.69258 93.662735 78.10819 56.526344 24.91219
145.01486 92.5076 13.13244 123.36488 85.607994 59.298798 136.45502 186.01115
00000000: c15c 1a42 92a9 dd42 2d09 2643 bbf1 6b42
00000010: 3201 0343 65a3 db42 6262 bb42 305f 6a42
00000020: 1519 2343 2f76 0043 bc89 6c42 2343 fd42
00000030: fdbc ce42 8224 4e42 ea83 c642 b581 6d43
00000040: 4162 de41 9902 0f41 4c7c fd42 232e e941
00000050: e3c7 3d42 7086 8141 4b51 3e42 a6eb 6442
00000060: 0757 c342 bc74 0e43 be18 ed42 70c2 d242
00000070: db4c 2e42 cf9e 1043 3a7e d642 61db 8442
00000080: e438 d842 f626 c342 15f0 9842 27c9 9e42
00000090: 6f74 ed42 76e4 7342 cdcb ea41 5bb4 7a41
000000a0: e0d6 3143 7d7e 2142 f6b4 0e43 f504 9a42
000000b0: 4f8b 5e43 eca2 fc41 c15d 1143 271e d941
000000c0: 5e20 0443 0f26 c442 c0f0 8c43 4db1 0843
000000d0: 5253 bb42 6537 9c42 fa1a 6242 2a4c c741
000000e0: ce03 1143 e403 b942 791e 5241 d2ba f642
000000f0: 4b37 ab42 f831 6d42 7c74 0843 db02 3a43

conv1.mlp.8.weight f4 [64, 64]
0.15092635 -0.16098173 0.9492367 0.84318584 -0.4041489 0.86116636 0.06827239 -1.7812356
1.2080728 -0.9354257 0.6515997 -0.26657745 0.12756097 0.8284915 0.73161733 -0.9827152
-0.79715914 0.9061149 0.32439277 -0.52676696 -0.43380216 1.1081572 0.123850495 -0.26987332
0.114605874 -0.89295393 -0.50922257 1.0603089 0.5039109 -0.113722764 -0.2864543 0.5687328
0.34512895 -0.3316356 0.79850024 0.5283199 -0.029462652 0.63828397 1.0010233 0.27003458
-0.5243612 1.0083463 -0.2270088 0.16147666 -0.25522658 -1.362032 0.6671819 0.7102809
0.21242733 1.0090235 -1.4441322 0.07421555 0.13892403 -0.8482064 0.12518045 0.5918076
1.4520675 -0.7736977 0.30128548 0.9680168 -0.036136277 0.7974907 -0.9541739 -0.7436993
-1.3177022 0.09072888 -0.5756172 -0.021726597 0.12626237 0.9432001 -0.04367305 -0.9737417
0.42714956 -0.26253554 -1.0399898 -0.051503498 1.0647478 -0.2845324 -0.7316311 0.5837372
0.15624484 -0.5567511 0.5555875 -0.75904804 -0.058445904 -0.45343333 -1.1734836 -0.3604469
0.24251916 -0.045717012 0.4330741 -0.14479876 -0.9619012 0.33795267 0.25215176 -0.18865718
-0.83342725 0.34987566 -0.6290586 -0.67284137 -0.36786944 0.31372908 0.23211002 -0.045299724
-0.009461415 -0.42356557 0.54084736 0.49163857 0.066376865 -0.93495697 -0.07798607 -0.62915987
0.47120646 -0.4083251 1.2482623 1.126412 0.0061610052 0.7430428 -0.9261754 0.2779025
-0.37819028 0.33241814 -0.13083087 0.3011082 0.0054025007 -0.38374293 0.542787 0.042600814
-0.95326054 -0.69750786 0.8662 -0.18496625 0.034129396 0.6732448 0.39854902 -1.0311744
1.1569871 -0.22855648 -0.16800675 -0.05984567 0.44330877 0.5739017 0.25466168 0.7118978
-0.7110725 -0.060473323 0.23932344 -0.8845799 -0.96892416 0.017416317 -0.039747044 -0.791379
0.7091278 -0.5970772 0.6750716 0.25520504 -0.7662209 0.7869435 0.19944048 0.12316733
0.1839224 -0.97795033 -0.67580336 0.07721133 -0.16570272 0.103496075 -0.0019545658 -0.54000896
0.25260434 0.3722194 0.786725 0.9408675 0.16372593 -1.0137663 0.9772424 -0.43043724
0.1520834 0.25484765 0.4840124 1.1149416 0.7932007 0.5128449 -0.5318641 0.3305969
0.076380104 0.07581769 0.116703786 0.9022006 -0.5076635 -0.16567256 -0.37098035 0.24071367
-0.40246662 -0.7746795 -0.44560698 -0.3083955 -0.2526008 -0.8698074 -1.2088443 0.37290332
-0.20670414 -0.37272534 -0.47453064 -0.56835324 -0.31547624 -0.36856514 0.102779575 -0.32118237
-0.19832562 0.3161648 -0.47440094 1.0053946 0.027392942 -0.08688156 -0.5468618 0.78404397
-0.2891961 -1.444687 -0.7534388 -0.42810956 -0.38065898 -1.4024273 -0.47544417 -0.2771153
-0.7169841 0.66837436 -0.5910944 0.68547857 -0.53888255 -0.064481795 -0.24093392 -0.7064198
-0.21325721 -0.5725313 -0.78085595 -0.77541435 0.43587816 0.28294703 -0.4883163 -0.48254505
-0.9962711 -0.30667707 0.0050466447 -1.4463457 0.07085987 -0.23203675 -0.65656567 -0.46002045
-0.56744486 -1.5194705 0.23478067 -0.6344529 -0.25898662 -0.24080944 -1.0537417 -0.5161254
00000000: 708c 1a3e 65d8 24be 2d01 733f 07db 573f
00000010: 9bec cebe 6675 5c3f 65d2 8b3d 87ff e3bf
00000020: 21a2 9a3f 0f78 6fbf 3dcf 263f d77c 88be
00000030: 589f 023e 0518 543f 464b 3b3f 3993 7bbf
00000040: 9f12 4cbf 25f7 673f cf16 a63e 33da 06bf
00000050: 511b debe 18d8 8d3f 54a5 fd3d d62c 8abe
00000060: 7cb6 ea3d a198 64bf 695c 02bf 34b8 873f
00000070: 4e00 013f 7be7 e8bd 23aa 92be 7998 113f
00000080: beb4 b03e 24cc a9be 836a 4c3f f93f 073f
00000090: a95b f1bc 9466 233f 8821 803f f941 8a3e
000000a0: 893c 06bf 7e11 813f ff74 68be 235a 253e
000000b0: 0fad 82be 1157 aebf 6fcc 2a3f f8d4 353f
000000c0: 8d86 593e af27 813f 53d9 b8bf 53fe 973d
000000d0: 1a42 0e3e 0e24 59bf 4e2f 003e b480 173f
000000e0: 59dd b93f 0d11 46bf 1742 9a3e f3cf 773f
000000f0: a203 14bd 5a28 4c3f be44 74bf 1463 3ebf
00000100: 77aa a8bf 10d0 b93d a65b 13bf fafb b1bc
00000110: ec4a 013e 9075 713f 83e2 32bd 2347 79bf
00000120: 59b3 da3e 0f6b 86be 631e 85bf 55f5 52bd
00000130: a849 883f 3bae 91be 2d4c 3bbf cd6f 153f
00000140: a6fe 1f3e 3d87 0ebf fb3a 0e3f f950 42bf
00000150: f964 6fbd 6a28 e8be b634 96bf 7f8c b8be
00000160: f156 783e c341 3bbd e3bb dd3e 2046 14be
00000170: 283f 76bf 2208 ad3e 091a 813e 592f 41be
00000180: 7d5b 55bf e722 b33e fc09 21bf 553f 2cbf
00000190: 6259 bcbe 19a1 a03e 40ae 6d3e 348c 39bd
000001a0: 0d04 1bbc 96dd d8be f974 0a3f 0db8 fb3e
000001b0: 98f0 873d 5759 6fbf 29b7 9fbd 9f10 21bf
000001c0: f941 f13e fd0f d1be 0fc7 9f3f 452e 903f
000001d0: 42e2 c93b 0e38 3e3f d519 6dbf 3d49 8e3e
000001e0: 28a2 c1be b632 aa3e 87f8 05be db2a 9a3e
000001f0: 7607 b13b f479 c4be 17f4 0a3f 317e 2e3d
00000200: e208 74bf e08f 32bf 48bf 5d3f cb67 3dbe
00000210: 44cb 0b3d c559 2c3f 9e0e cc3e 86fd 83bf
00000220: 2718 943f b60a 6abe f609 2cbe bc20 75bd
00000230: 5ef9 e23e 39eb 123f 0463 823e ef3e 363f
00000240: d908 36bf e0b2 77bd 3411 753e d473 62bf
00000250: 6a0b 78bf aaac 8e3c cccd 22bd d097 4abf
00000260: 6689 353f 0dda 18bf 7ed1 2c3f 3caa 823e
00000270: 0e27 44bf 2175 493f 203a 4c3e 273f fc3d
00000280: 2756 3c3e f45a 7abf 7301 2dbf f920 9e3d
00000290: f9ad 29be c0f5 d33d 2c18 00bb 073e 0abf
000002a0: 5b55 813e 8b93 be3e cf66 493f b1dc 703f
000002b0: c5a7 273e 18c3 81bf 8f2c 7a3f 4562 dcbe
000002c0: c0bb 1b3e 647b 823e 79d0 f73e 68b6 8e3f
000002d0: 330f 4b3f ce49 033f 3f28 08bf ff43 a93e
000002e0: 2c6d 9c3d 4e46 9b3d 6502 ef3d 9ef6 663f
000002f0: 3cf6 01bf 11a6 29be 23f1 bdbe a57d 763e
00000300: 1b10 cebe 6551 46bf 9926 e4be 04e6 9dbe
00000310: e454 81be b3ab 5ebf 69bb 9abf 2fed be3e
00000320: 40aa 53be dbd5 bebe aef5 f2be 997f 11bf
00000330: 1a86 a1be 92b4 bcbe 197e d23d 0472 a4be
00000340: df15 4bbe 5ae0 a13e aee4 f2be c5b0 803f
00000350: 2a67 e03c f6ee b1bd 23ff 0bbf 1bb7 483f
00000360: 8311 94be 81eb b8bf 5de1 40bf 2d31 dbbe
00000370: bce5 c2be bd82 b3bf 6b6d f3be 0ee2 8dbe
00000380: 458c 37bf 951a 2b3f f651 17bf 867b 2f3f
00000390: 35f4 09bf 080f 84bd 62b7 76be eed7 34bf
000003a0: 1960 5abe 6991 12bf 2de6 47bf 8e81 46bf
000003b0: 6c2b df3e 6fde 903e 9804 fabe 2510 f7be
000003c0: 9f0b 7fbf c704 9dbe 535e a53b db21 b9bf
000003d0: fb1e 913d 0b9b 6dbe b014 28bf cd87 ebbe
000003e0: 1144 11bf 027e c2bf 586a 703e 816b 22bf
000003f0: e599 84be c096 76be 02e1 86bf cb20 04bf

conv1.mlp.8.bias f4 [64]
1.1902817 0.3188934 0.72445554 0.97136194 0.21746488 -0.7752613 0.83645785 2.4976687
-1.0385478 0.46022508 0.57127625 0.9919309 1.1225591 0.6731635 -0.35274348 1.0958472
-1.6372218 0.7781743 0.2229829 -0.76841617 0.28176913 0.5818131 1.9774675 0.09350198
-0.18324926 2.1936884 0.40294534 1.3681614 -0.20114419 0.18975112 1.6605324 0.5295104
-0.10228857 0.3736387 -1.87873 -0.46669716 -0.13173369 -2.0262191 -1.3794099 0.42821455
-1.202982 0.12500854 -0.021240147 -1.2860886 -1.0975033 1.8312336 0.53939176 -1.0156232
0.10497353 0.7153498 0.51259273 -0.1714209 2.1997504 -0.004094246 0.771838 0.21536416
1.2734448 0.6413738 1.0499672 0.35238788 0.79201514 -0.76328874 -0.8284472 0.74256194
00000000: 275b 983f ff45 a33e eb75 393f 2dab 783f
00000010: 1daf 5e3e 8677 46bf 1a22 563f ced9 1f40
00000020: 22ef 84bf 9fa2 eb3e 293f 123f 2fef 7d3f
00000030: 04b0 8f3f 7154 2c3f cb9a b4be b944 8c3f
00000040: 7c90 d1bf 6e36 473f a155 643e ecb6 44bf
00000050: 0b44 903e b4f1 143f a81d fd3f f77d bf3d
00000060: b2a5 3bbe 6465 0c40 da4e ce3e ea1f af3f
00000070: bef8 4dbe 1e4e 423e 538c d43f fe8d 073f
00000080: ab7c d1bd 924d bf3e 3a7a f0bf eef2 eebe
00000090: 32e5 06be 93ad 01c0 8190 b0bf f03e db3e
000000a0: 50fb 99bf 3d02 003e d1ff adbc 8d9e a4bf
000000b0: fd7a 8cbf dd65 ea3f 9415 0a3f f1ff 81bf
000000c0: 5dfc d63d 2a21 373f 4739 033f f688 2fbe
000000d0: b6c8 0c40 0629 86bb 2d97 453f 6c88 5c3e
000000e0: 3d00 a33f 1331 243f 5365 863f 2f6c b43e
000000f0: 81c1 4a3f e466 43bf 1e15 54bf 8a18 3e3f

conv1.mlp.10.weight f4 [64]
4.348362 1.9635391 1.7294542 2.1903787 2.5962296 2.4499516 1.6469457 2.819362
3.1666708 3.853706 1.5749385 1.9193106 2.0472746 3.3756096 0.90858376 3.6756215
2.3250697 1.140862 3.1403298 2.342655 0.6940493 2.4229832 2.4650772 2.4415007
3.9968345 2.628448 2.485574 2.6991627 2.3540125 2.2465355 1.8607149 3.2704647
1.8359697 1.1689986 1.6092309 2.6078882 1.6828316 1.4423764 4.488453 1.1372817
1.3921013 3.8309796 1.98618 2.276456 2.3172028 3.1326604 1.4288445 0.90723157
3.1102283 1.5513599 4.16177 4.6103473 1.7378106 3.0515916 2.4518857 2.303074
1.8899665 2.0039885 1.3708842 2.38128 1.5893375 1.8517313 2.1441886 1.3185986
00000000: c825 8b40 4055 fb3f c15e dd3f 2a2f 0c40
00000010: a028 2640 02cc 1c40 1ecf d23f 6d70 3440
00000020: bcaa 4a40 1ea3 7640 9697 c93f f8ab f53f
00000030: 8c06 0340 fd09 5840 f298 683f 623d 6b40
00000040: f1cd 1440 c407 923f 2afb 4840 0fee 1540
00000050: 37ad 313f 2812 1b40 d3c3 1d40 8c41 1c40
00000060: 23cc 7f40 7e38 2840 a513 1f40 15bf 2c40
00000070: 24a8 1640 3dc7 0f40 e82b ee3f 4b4f 5140
00000080: 0e01 eb3f bfa1 953f 47fb cd3f a4e7 2640
00000090: 0767 d73f ca9f b83f 68a1 8f40 7292 913f
000000a0: 6030 b23f c52e 7540 253b fe3f 75b1 1140
000000b0: 0d4d 1440 827d 4840 60e4 b63f 5440 683f
000000c0: fb0d 4740 f692 c63f 382d 8540 f787 9340
000000d0: 9470 de3f 474d 4340 b2eb 1c40 9065 1340
000000e0: 6cea f13f 5941 0040 2279 af3f e466 1840
000000f0: 696f cb3f 8805 ed3f 633a 0940 d7c7 a83f

conv1.mlp.10.bias f4 [64]
0.24429132 -0.95439494 -0.957076 0.65414274 -0.6437634 -1.2996635 0.23560248 0.032737955
0.1779539 0.8220067 0.17500894 -0.17895406 0.5546927 0.61806196 0.29809397 1.0745552
0.22877516 0.74696165 0.16189784 0.11735941 -0.21690531 0.062272314 -0.19051883 0.12220022
1.1880425 -0.13165337 0.10106486 0.28011388 0.26401696 -0.17102985 0.59561324 -0.06791875
-1.136735 0.1340729 0.6774787 0.9104753 0.09607987 -0.19128448 -0.011718666 -0.33840248
-0.08991332 0.7657734 0.0705301 0.27451184 0.43954358 0.26190293 0.09856491 -0.07523441
0.4081887 0.20651138 1.5781649 1.2806041 0.18839441 1.1992252 -0.19236957 0.6507381
0.010161497 -0.31080586 0.28794757 0.10237922 0.7229072 0.821784 0.30072063 -0.12086422
00000000: 8127 7a3e 3a53 74bf ef02 75bf e675 273f
00000010: aecd 24bf 605b a6bf c741 713e 3c18 063d
00000020: 8c39 363e 086f 523f 8b35 333e bc3f 37be
00000030: 5700 0e3f 4f39 1e3f c69f 983e 068b 893f
00000040: 0944 6a3e e138 3f3f 8cc8 253e 215a f03d
00000050: 6d1c 5ebe 4111 7f3d 5e17 43be 1c44 fa3d
00000060: c711 983f 24d0 06be 18fb ce3d 166b 8f3e
00000070: 3b2d 873e 7322 2fbe 1c7a 183f fc18 8bbd
00000080: 8880 91bf 684a 093e 3e6f 2d3f e914 693f
00000090: 86c5 c43d 14e0 43be a6ff 3fbc 1743 adbe
000000a0: 7a24 b8bd ba09 443f 1672 903d d18c 8c3e
000000b0: db0b e13e 2418 863e 66dc c93d 8014 9abd
000000c0: 1cfe d03e b877 533e 4f01 ca3f d6ea a33f
000000d0: 77ea 403e 3680 993f 87fc 44be c696 263f
000000e0: 687c 263c f221 9fbe dd6d 933e 32ac d13d
000000f0: 7210 393f 7060 523f 0ef8 993e a987 f7bd

conv1.mlp.10.running_mean f4 [64]
6.044493 8.654831 9.740243 8.011882 11.422201 4.028752 5.623283 10.700323
3.1867945 7.2504935 3.6394563 7.1072073 8.909764 8.471386 6.179419 9.115131
4.2645497 6.9816995 6.942148 4.5504274 5.9092603 7.1852818 8.912911 5.000511
6.649565 12.386091 5.307841 8.190871 6.80586 6.9097476 6.408176 6.9414687
6.9274344 7.544327 3.7126305 3.0414717 5.4155097 2.8650289 5.625813 8.1577
4.490915 6.9108024 4.1793694 4.3143144 3.611859 10.020181 3.4255366 2.9285324
4.7724705 4.351133 9.621236 7.271398 10.879412 9.305465 16.023964 5.3709517
12.0408 10.450565 10.2684 5.686048 7.113931 3.3407109 3.4835289 7.6266546
00000000: 7d6c c140 307a 0a41 09d8 1b41 ab30 0041
00000010: 56c1 3641 89eb 8040 eff1 b340 8634 2b41
00000020: 71f4 4b40 0b04 e840 daec 6840 3e6e e340
00000030: 658e 0e41 cc8a 0741 cdbd c540 94d7 1141
00000040: 3177 8840 156a df40 1426 de40 1a9d 9140
00000050: a918 bd40 d4ed e540 499b 0e41 3004 a040
00000060: 3dc9 d440 6e2d 4641 d5d9 a940 cf0d 0341
00000070: 9bc9 d940 a71c dd40 c70f cd40 8320 de40
00000080: 8bad dd40 206b f140 bd9b 6d40 79a7 4240
00000090: db4b ad40 a25c 3740 a906 b440 f085 0241
000000a0: 93b5 8f40 4b25 dd40 65bd 8540 dd0e 8a40
000000b0: b328 6740 a952 2041 fe3b 5b40 136d 3b40
000000c0: 14b8 9840 7b3c 8b40 95f0 1941 4baf e840
000000d0: 1212 2e41 2fe3 1441 1431 8041 d6de ab40
000000e0: 1ea7 4041 8435 2741 5e4b 2441 1bf4 b540
000000f0: 53a5 e340 35ce 5540 23f2 5e40 8e0d f440

conv1.mlp.10.running_var f4 [64]
230.26126 92.39142 173.27687 84.91339 225.00764 60.995308 163.35681 156.00877
72.29155 250.80803 40.4221 203.60709 196.88626 215.4237 51.754032 389.10822
83.65563 152.14037 155.9704 67.309074 79.22062 108.247 101.615234 100.720795
296.0468 112.84395 163.18478 142.44933 102.77688 186.38376 71.738434 150.22583
111.53626 122.77425 159.21506 63.60421 220.01024 97.81886 354.1879 101.39645
232.33688 237.75328 177.75938 194.07713 178.43593 163.23145 55.863617 49.252098
174.09824 44.365498 283.7699 307.80392 107.30176 318.9712 269.8457 106.161674
210.32619 153.86185 99.68734 122.91637 138.50104 56.61581 70.66249 251.88158
00000000: e242 6643 68c8 b842 e146 2d43 a8d3 a942
00000010: f501 6143 32fb 7342 585b 2343 3f02 1c43
00000020: 4695 9042 dbce 7a43 3bb0 2142 6a9b 4b43
00000030: e2e2 4443 786c 5743 2104 4f42 da8d c243
00000040: af4f a742 ef23 1843 6cf8 1b43 3f9e 8642
00000050: f570 9e42 777e d842 003b cb42 0c71 c942
00000060: fe05 9443 1ab0 e142 4e2f 2343 0773 0e43
00000070: c38d cd42 3e62 3a43 147a 8f42 d039 1643
00000080: 9112 df42 6a8c f542 0e37 1f43 b66a 7e42
00000090: 9f02 5c43 42a3 c342 0d18 b143 fbca ca42
000000a0: 3e56 6843 d7c0 6d43 67c2 3143 bf13 4243
000000b0: 996f 3243 403b 2343 5874 5f42 2602 4542
000000c0: 2619 2e43 4576 3142 8ce2 8d43 e7e6 9943
000000d0: 809a d642 507c 9f43 40ec 8643 c752 d442
000000e0: 8153 5243 a2dc 1943 eb5f c742 2ed5 f542
000000f0: 4480 0a43 9776 6242 3253 8d42 afe1 7b43

conv1.shortcut.0.weight f4 [64, 9]
0.9751363 -0.5776917 -0.25559267 -0.021663135 -0.2571778 0.37308216 -0.30869502 0.4257854
0.5141858 -0.46111166 0.29557475 0.06581532 0.14571528 0.18310592 0.82857794 0.34164914
-0.4605284 -1.618474 1.4689268 -0.016238332 -0.014415768 -0.42709455 -0.46220145 0.8952113
0.9940053 1.2377923 -1.3848281 -1.2779776 0.08856434 -0.11914342 0.4821499 0.96497476
-0.6449081 -0.28435373 -0.22869919 1.6448191 1.6799874 -0.16317667 0.19972306 0.044960298
-0.27013832 0.57700044 0.6037155 0.63596296 -1.3666346 0.877061 -0.15280911 -0.116602525
-0.17670037 0.9671727 0.6992279 -0.41326758 1.2601736 0.22034049 -0.039786536 -0.2649483
-0.1703013 0.55632627 -0.29624608 -1.8576095 0.6701207 -0.60044366 0.78465307 -0.8451485
-0.09434466 0.38040534 0.08772137 -0.05622097 0.67375636 -0.762678 0.2604193 0.4226035
-0.7942335 0.11820421 -0.10387898 -0.07837605 0.64096856 -0.80690026 0.80631596 -1.2241471
1.3804088 -0.11783842 1.0278186 0.1238454 -0.05348802 0.47731826 -0.35228693 0.33696845
-0.5077231 1.244623 -1.3702198 -0.08026875 0.2918153 0.16515481 -0.59832263 -0.10114397
0.2025323 -1.8232669 -0.043474145 -0.43953133 0.019712713 -0.3546204 -0.015724754 -0.616108
-1.6742957 0.469155 -0.06580487 0.7216844 1.8203622 0.008207829 -0.12552986 0.46912193
-0.52849436 -0.907526 1.1276869 0.066972956 0.78144133 0.17289878 0.43868014 -0.2310363
0.10164589 -0.4516613 -1.1321969 -0.03612962 -0.22673084 0.64628017 -1.005527 0.1264041
-0.02766652 -0.6420275 0.21836744 1.5716722 -0.73001117 -0.53408533 -0.9681354 1.2486631
-0.34787744 -0.31512958 0.13545546 -0.54922223 0.55864865 -0.11342265 1.3707219 -0.87878716
-3.1203477 -0.33382446 -0.38331518 0.107483156 0.5391492 -0.37620062 -0.044659782 -0.86458236
0.4128252 1.8763382 0.03092803 0.026175493 0.14770173 -0.022453146 -0.81210446 0.84145737
0.6527917 1.0121039 -2.081252 -0.16807635 -0.25121373 -0.016513271 -0.4256663 -0.39932024
0.309385 -1.2966746 -0.27913466 -0.76678425 0.1807472 -0.2954834 -0.022897888 0.3588221
-0.7977096 -0.1532199 -0.5771931 0.80292827 2.8636308 0.087150134 -0.18805479 -0.1743269
-0.11022358 0.09574522 0.8258775 1.7889398 -0.13110973 -0.5951369 0.17155463 -0.05593769
-0.117242485 0.4757434 -0.5125283 -0.4530993 -1.4189328 1.3425851 -0.5565021 0.20745403
0.55187666 0.20510983 0.21720512 0.9416931 -0.38054806 0.33927035 -0.34358284 -2.83369
0.19291192 -0.27015138 0.20532073 0.2363146 -0.21076597 0.08572926 -1.6006645 -0.17669566
0.21946537 0.6074609 -0.63951856 -0.043040205 0.44548783 -0.98711175 -0.17906627 0.106437065
0.0742808 0.72496223 0.1402925 -0.071107574 -0.055207852 0.5299083 0.12302091 0.15505405
0.96953815 -1.180167 -0.42957297 -0.33537203 -0.30218777 -0.49663693 -0.9960848 0.9019184
0.139811 -0.2516777 -1.450682 -1.5284977 -0.44550183 0.38966066 0.20000096 0.24854493
-0.52448815 -0.4467854 -0.38186556 0.6433269 -0.33652857 -0.44790113 0.14209126 -0.099144414
00000000: 88a2 793f 9ae3 13bf 0bdd 82be e376 b1bc
00000010: cfac 83be a004 bf3e 460d 9ebe 8b00 da3e
00000020: aea1 033f d416 ecbe 9355 973e 2fca 863d
00000030: 6336 153e 1e80 3b3e af1d 543f a3ec ae3e
00000040: 61ca ebbe 282a cfbf cb05 bc3f 4006 85bc
00000050: 1d30 6cbc 23ac dabe aba5 ecbe 912c 653f
00000060: 2277 7e3f fa6f 9e3f 0c42 b1bf c594 a3bf
00000070: 3861 b53d 7701 f4bd 5adc f63e 9608 773f
00000080: b218 25bf d096 91be 1f30 6abe 6f89 d23f
00000090: d409 d73f c917 27be 3484 4c3e 4a28 383d
000000a0: 924f 8abe 4db6 133f 198d 1a3f 78ce 223f
000000b0: e2ed aebf 1287 603f fe79 1cbe 4ecd eebd
000000c0: f1f0 34be a198 773f 9a00 333f cf97 d3be
000000d0: 5e4d a13f f0a0 613e 35f7 22bd 4ea7 87be
000000e0: 7763 2ebe 666b 0e3f 91ad 97be 26c6 edbf
000000f0: 088d 2b3f adb6 19bf 06df 483f a75b 58bf
00000100: c637 c1bd 7dc4 c23e 43a7 b33d f647 66bd
00000110: 4c7b 2c3f de3e 43bf ae55 853e 7c5f d83e
00000120: e352 4bbf 0d15 f23d 81be d4bd 9f83 a0bd
00000130: 8416 243f 0491 4ebf b96a 4e3f dab0 9cbf
00000140: 3cb1 b03f 4555 f1bd 8f8f 833f a8a2 fd3d
00000150: 4116 5bbd 0f63 f43e f45e b4be 2187 ac3e
00000160: 24fa 01bf ce4f 9f3f 5d63 afbf f163 a4bd
00000170: d168 953e 581e 293e ac2b 19bf 9224 cfbd
00000180: a164 4f3e cf60 e9bf f211 32bd 400a e1be
00000190: 8e7c a13c ce90 b5be 33d1 80bc 41b9 1dbf
000001a0: 524f d6bf 1635 f03e b4c4 86bd 4fc0 383f
000001b0: a101 e93f 217a 063c e68a 00be c030 f03e
000001c0: 684b 07bf a053 68bf 0b58 903f 1e29 893d
000001d0: 8a0c 483f 610c 313e af9a e03e c894 6cbe
000001e0: b82b d03d 2640 e7be d4eb 90bf a7fc 13bd
000001f0: 212c 68be 9e72 253f 1cb5 80bf 1470 013e
00000200: e6a4 e2bc ea5b 24bf b79b 5f3e 8e2c c93f
00000210: 03e2 3abf d1b9 08bf b9d7 77bf 31d4 9f3f
00000220: fe1c b2be aa58 a1be d6b4 0a3e d499 0cbf
00000230: 9903 0f3f 224a e8bd d173 af3f 32f8 60bf
00000240: c7b3 47c0 0aeb aabe e341 c4be 2120 dc3d
00000250: af05 0a3f 5e9d c0be 2ded 36bd 4555 5dbf
00000260: d35d d33e da2b f03f c85c fd3c fd6d d63c
00000270: 1f3f 173e a9ef b7bc 14e6 4fbf c069 573f
00000280: 5b1d 273f 9f8c 813f 3c33 05c0 351c 2cbe
00000290: 169f 80be d746 87bc eff0 d9be b473 ccbe
000002a0: b667 9e3e 6ff9 a5bf bdea 8ebe f94b 44bf
000002b0: cb15 393e 9a49 97be 5a94 bbbc 88b7 b73e
000002c0: b236 4cbf ade5 1cbe edc2 13bf b58c 4d3f
000002d0: ba45 3740 c57b b23d 6f91 40be c082 32be
000002e0: e6bc e1bd 1216 c43d b56c 533f fbfb e43f
000002f0: a141 06be e45a 18bf 04ac 2f3e eb1e 65bd
00000300: d41c f0bd a494 f33e 0e35 03bf a2fc e7be
00000310: 979f b5bf d4d9 ab3f ec76 0ebf d46e 543e
00000320: ca47 0d3f 5008 523e 056b 5e3e cd12 713f
00000330: 32d7 c2be d8b4 ad3e 17ea afbe 2d5b 35c0
00000340: b48a 453e 4851 8abe 993f 523e 74fc 713e
00000350: 09d3 57be d392 af3d 93e2 ccbf b5ef 34be
00000360: 88bb 603e 8f82 1b3f 7db7 23bf ed4a 30bd
00000370: fb16 e43e 5bb3 7cbf 265d 37be adfb d93d
00000380: 8820 983d 2097 393f d6a8 0f3e d9a0 91bd
00000390: a121 62bd 12a8 073f 63f2 fb3d 7dc6 1e3e
000003a0: a733 783f b60f 97bf fdf0 dbbe e2b5 abbe
000003b0: 5bb8 9abe 3247 febe 6aff 7ebf 20e4 663f
000003c0: 9d2a 0f3e e6db 80be f3af b9bf d0a5 c3bf
000003d0: d118 e4be 9a81 c73e 0dcd 4c3e 9082 7e3e
000003e0: db44 06bf 0ec1 e4be e283 c3be 12b1 243f
000003f0: 794d acbe 4c53 e5be 5f80 113e 3a0c cbbd

conv1.shortcut.0.bias f4 [64]
-0.18705867 -0.08664283 -0.024923684 0.27419075 0.040389884 0.027616482 0.2230976 -0.12667067
0.07358758 -0.06463146 -0.14160311 0.31201708 0.072977245 -0.20725064 -0.1543615 0.19325528
-0.24374682 -0.013085948 -0.23681325 -0.28701976 -0.286308 -0.16582513 0.2907245 -0.19765662
0.14158075 0.21818925 -0.19215344 0.068520226 0.18367788 -0.050982885 -0.016910097 -0.26675788
-0.11382266 0.00074661843 -0.18522984 0.19109707 -0.1189517 0.25400862 0.12684424 -0.071778685
0.031970397 0.0423603 -0.14278525 -0.15639113 0.069727615 0.19871496 -0.03584618 -0.20999205
0.2855043 0.13326624 0.17690001 0.3185918 -0.22544904 0.19480203 0.1764816 0.21852307
-0.025086658 0.18630399 0.23863083 -0.12206405 0.20261562 -0.0565655 0.15681624 -0.2307986
00000000: 4f8c 3fbe cc71 b1bd c12c ccbc bb62 8c3e
00000010: dd6f 253d f63b e23c b273 643e f5b5 01be
00000020: 16b5 963d 805d 84bd 6800 11be b4c0 9f3e
00000030: 1875 953d 8339 54be f110 1ebe b6e4 453e
00000040: c498 79be 7266 56bc 2c7f 72be 41f4 92be
00000050: f696 92be 10ce 29be d7d9 943e 7f66 4abe
00000060: 8bfa 103e 016d 5f3e dfc3 44be 5554 8c3d
00000070: 0e16 3c3e 6ed3 50bd 0b87 8abc 7d94 88be
00000080: db1b e9bd b7b8 433a e4ac 3dbe f3ae 433e
00000090: f39c f3bd 6b0d 823e 75e3 013e b400 93bd
000000a0: 64f3 023d fe81 2d3d 4c36 12be ff24 20be
000000b0: 5acd 8e3d ef7b 4b3e 72d3 12bd 2808 57be
000000c0: 9f2d 923e f276 083e 4725 353e 771e a33e
000000d0: 1ddc 66be 2f7a 473e 98b7 343e 83c4 5f3e
000000e0: 8982 cdbc 79c6 3e3e a45b 743e b7fc f9bd
000000f0: 787a 4f3e 3ab1 67bd 7094 203e 7856 6cbe

conv1.shortcut.1.weight f4 [64]
0.24009776 1.9545397 1.7460136 1.477416 1.5996156 0.625208 1.4209111 0.20885745
0.55755323 -0.26189476 0.93720216 1.3334415 2.176288 0.42933697 1.7766553 0.7388624
1.4937462 2.5680068 0.8147765 0.3499703 1.8182386 1.0978867 -0.38821897 1.971679
-0.52517545 0.36840343 1.5838833 0.29206768 0.6495736 1.02009 1.770958 0.44695735
1.0418888 1.3559327 2.022906 1.9613355 2.0250204 2.2478662 0.98305756 1.7686483
2.0987923 0.6607644 1.6662419 2.069556 1.9754763 0.18339816 1.724937 2.1600683
-0.3409905 2.0866835 1.0880386 0.0047968808 0.9808052 1.656408 1.2801163 1.3401293
1.7152835 1.3493025 1.6991612 1.49239 2.3429437 0.9567169 1.3045224 2.155443
00000000: 30dc 753e 5b2e fa3f 607d df3f f81b bd3f
00000010: 34c0 cc3f a20d 203f 6ae0 b53f bade 553e
00000020: cfbb 0e3f 1217 86be 7bec 6f3f 36ae aa3f
00000030: 4d48 0b40 0ed2 db3e 7169 e33f 1626 3d3f
00000040: 1333 bf3f 395a 2440 3195 503f 4f2f b33e
00000050: 0bbc e83f 8d87 8c3f a3c4 c6be fa5f fc3f
00000060: e671 06bf 609f bc3e b0bc ca3f e589 953e
00000070: 754a 263f 4f92 823f c0ae e23f 98d7 e43e
00000080: 9d5c 853f 348f ad3f 4b77 0140 0b0d fb3f
00000090: ef99 0140 0add 0f40 a9a9 7b3f 1163 e23f
000000a0: 9d52 0640 db27 293f 6a47 d53f 9b73 0440
000000b0: 68dc fc3f bacc 3b3e bcca dc3f 8f3e 0a40
000000c0: 4f96 aebe 398c 0540 d944 8b3f 272f 9d3b
000000d0: 0d16 7b3f 2d05 d43f dada a33f 5b89 ab3f
000000e0: 698e db3f f2b5 ac3f 1d7e d93f a306 bf3f
000000f0: caf2 1540 66eb 743f 97fa a63f c7f2 0940
