GraphNeuralNet/Combined/epoch120/MHc-130_MA-90_vs_nonprompt/models/ParticleNet-nNodes48_Adam_initLR-0p002_CyclicLR.pt (torch, 194543 bytes, 102 tensors)

gn0.weight f4 [9]
1.547013 1.0654867 0.9778749 0.9222586 0.8754791 1.1535965 0.6220567 0.64016116
0.6781195
00000000: 8604 c63f de61 883f 0256 7a3f 2419 6c3f
00000010: 661f 603f 0da9 933f 1c3f 1f3f 9ae1 233f
00000020: 3d99 2d3f

gn0.bias f4 [9]
-0.006626023 0.021002483 -0.025891913 -0.19807526 0.048091464 0.520341 0.3113306 0.31928387
0.5005361
00000000: 1c1f d9bb 660d ac3c 471b d4bc 3ed4 4abe
00000010: 8efb 443d 1135 053f b966 9f3e 2d79 a33e
00000020: 2223 003f

gn0.mean_scale f4 [9]
0.40447608 -0.5103769 -0.34290722 2.0377145 2.9155161 3.2661757 1.5206293 2.3542497
0.5191996
00000000: 7d17 cf3e 0fa8 02bf 8991 afbe ea69 0240
00000010: d197 3a40 0609 5140 fba3 c23f 07ac 1640
00000020: 44ea 043f

gn1.weight f4 [48]
0.80891585 0.7072727 1.1681501 1.1189775 1.2849448 1.1061406 1.008179 0.9409164
1.2651083 0.86551815 0.92343146 0.883931 0.9469898 0.93244207 1.0432361 1.3947331
1.4448874 1.115646 1.0632466 1.065582 0.56612 1.0618674 1.0792862 1.1451836
0.94796866 1.2215259 0.98574936 1.1877306 1.0132046 1.1389263 1.5923437 1.307788
1.1680341 0.654379 0.62161785 1.194914 1.0824381 0.7742893 0.6441392 1.0490047
1.350629 1.3101187 1.0986481 0.598104 1.1336026 0.94333255 0.86959916 1.1514275
00000000: 1c15 4f3f d30f 353f f185 953f a83a 8f3f
00000010: 1279 a43f 0496 8d3f 020c 813f e6df 703f
00000020: 12ef a13f 9992 5d3f 0166 6c3f 4d49 623f
00000030: ec6d 723f 86b4 6e3f c388 853f 9d86 b23f
00000040: 12f2 b83f 7dcd 8e3f 7718 883f fe64 883f
00000050: 3eed 103f 45eb 873f 0d26 8a3f 6095 923f
00000060: 13ae 723f f65a 9c3f 125a 7c3f 8e07 983f
00000070: b0b0 813f 56c8 913f ebd1 cb3f 9965 a73f
00000080: 2482 953f 6285 273f 5922 1f3f f1f2 983f
00000090: 558d 8a3f d337 463f 4ee6 243f c945 863f
000000a0: 69e1 ac3f f8b1 a73f 80a0 8c3f 581d 193f
000000b0: e419 913f 3e7e 713f 0d9e 5e3f fa61 933f

gn1.bias f4 [48]
1.1167507 0.5791875 0.1347024 0.022858785 -0.23172627 -0.65261966 0.45407474 0.4845102
0.25919524 -0.2656702 0.027954608 -0.45543242 0.11520205 0.09684124 0.40102893 0.043095116
-0.86232555 0.24385042 0.11659189 -0.3759348 0.6936463 0.15377681 0.08731535 -0.29282683
-0.4704592 0.6651548 -0.3120746 0.43553877 0.5599025 -0.2558597 0.4977802 0.11724436
0.33906278 0.7126641 0.29207084 -0.5417813 0.33698276 0.11506203 0.6276672 -0.5322752
0.5776139 -0.27143288 0.25948656 -0.6046946 0.1489106 0.17591931 0.28535208 1.0334922
00000000: b0f1 8e3f a245 143f 6def 093e 5942 bb3c
00000010: a749 6dbe 1512 27bf 7c7c e83e b911 f83e
00000020: 3db5 843e ed05 88be 1001 e53c 702e e9be
00000030: 0def eb3d b354 c63d aa53 cd3e 8184 303d
00000040: 5ec1 5cbf edb3 793e bbc7 ee3d 877a c0be
00000050: ce92 313f ab77 1d3e 64d2 b23d 66ed 95be
00000060: 07e0 f0be 9647 2a3f 3ec8 9fbe f0fe de3e
00000070: c555 0f3f 0b00 83be 0cdd fe3e d01d f03d
00000080: a399 ad3e 2871 363f 4f8a 953e 2eb2 0abf
00000090: 0189 ac3e a4a5 eb3d ccae 203f 3043 08bf
000000a0: 81de 133f 40f9 8abe 6cdb 843e 44cd 1abf
000000b0: 057c 183e 3124 343e ab19 923e 7949 843f

gn1.mean_scale f4 [48]
0.71256393 0.39383873 1.3932496 1.5742724 1.2143387 0.6748216 0.54150504 0.3568028
1.4305428 1.2530745 0.6132682 0.4785263 1.0053666 1.5129874 1.3916633 1.6612777
0.8808894 1.2962179 0.83753824 1.1707461 1.7013328 1.0184758 1.0487546 0.60302067
1.6157982 1.1379602 1.3008697 1.0935843 1.2214746 1.1410847 1.2953115 1.4505186
1.1365536 0.45403942 0.5438196 1.2409061 1.1239719 0.67562383 0.46478745 0.8244826
0.8145949 1.7056243 1.5912882 -0.21506843 0.89154357 0.3586981 1.2790147 0.84010136
00000000: 976a 363f 3ba5 c93e 0156 b23f c281 c93f
00000010: 736f 9b3f 1cc1 2c3f 13a0 0a3f dbae b63e
00000020: 071c b73f bf64 a03f 25ff 1c3f 6601 f53e
00000030: daaf 803f 92a9 c13f 0622 b23f bfa4 d43f
00000040: f881 613f 78ea a53f e868 563f 02db 953f
00000050: 46c5 d93f 6a5d 823f 973d 863f 905f 1a3f
00000060: 7ad2 ce3f aea8 913f e682 a63f 92fa 8b3f
00000070: 4859 9c3f 100f 923f c4cc a53f 98aa b93f
00000080: 977a 913f db77 e83e c337 0b3f 03d6 9e3f
00000090: 50de 8f3f aff5 2c3f 9ff8 ed3e 4b11 533f
000000a0: 4b89 503f e651 da3f 55af cb3f e63a 5cbe
000000b0: 333c 643f 47a7 b73e c1b6 a33f e210 573f

gn2.weight f4 [48]
0.66658396 0.8218588 1.1613225 1.1467915 0.8182359 0.4574598 0.80619675 1.0385275
0.8384179 0.8511868 0.87704986 0.93608594 1.0615823 1.123228 1.0771118 1.0917182
1.1721064 1.1144055 1.0112375 1.1487665 0.9961668 1.0115806 1.3256904 0.9510254
0.9915327 1.2118784 1.0026344 1.0406445 0.83753574 1.2812579 0.58790034 0.9041698
1.3532335 0.7983695 0.66295904 0.89315027 1.4031857 0.7973501 0.87614894 1.642004
1.0129517 1.3518398 1.0160997 1.0571656 1.1591786 0.75395 0.5972602 1.0968914
00000000: 3fa5 2a3f 5765 523f 37a6 943f 10ca 923f
00000010: e877 513f 2c38 ea3e e962 4e3f 78ee 843f
00000020: 8ea2 563f 61e7 593f 5786 603f 54a3 6f3f
00000030: eee1 873f efc5 8f3f cdde 893f 6cbd 8b3f
00000040: 9507 963f d7a4 8e3f 3b70 813f c80a 933f
00000050: ca04 7f3f 797b 813f 39b0 a93f 6776 733f
00000060: 16d5 7d3f d51e 9b3f 5356 803f d733 853f
00000070: be68 563f 4200 a43f a380 163f ac77 673f
00000080: c136 ad3f f261 4c3f afb7 293f 7fa5 643f
00000090: 979b b33f 231f 4c3f 4c4b 603f 302d d23f
000000a0: 67a8 813f 1609 ad3f 8e0f 823f 3451 873f
000000b0: f75f 943f de02 413f 0be6 183f f066 8c3f

gn2.bias f4 [48]
0.49937436 0.33855578 0.6023261 -0.5799095 -0.08267442 0.28356236 0.2672371 -0.2889314
0.05220814 1.1659476 -0.43339726 -0.68953544 0.27957264 0.33694658 -0.47491056 0.35939735
-0.0023013765 0.35531875 0.16674796 -0.28425065 -0.6501587 0.44536778 0.15609734 -0.3844853
-0.56209934 0.26870745 -0.49343708 0.47103527 0.17130871 0.021272086 -0.9774134 -0.47774276
0.15953077 -0.2072336 -0.9508839 0.19746657 -0.32186317 -0.395044 -0.2582157 0.47182304
0.33633077 0.17685778 -0.11213961 0.46878943 0.42483553 0.39328438 0.045927007 -0.8222098
00000000: ffad ff3e 2f57 ad3e 0b32 1a3f f374 14bf
00000010: 3551 a9bd 162f 913e 4dd3 883e d1ee 93be
00000020: 34d8 553d c53d 953f 3fe6 ddbe 6585 30bf
00000030: 2524 8f3e 4384 ac3e 7a27 f3be ee02 b83e
00000040: b1d2 16bb 57ec b53e fabf 2a3e 4d89 91be
00000050: cd70 26bf 3f07 e43e fbd7 1f3e 42db c4be
00000060: bee5 0fbf 0694 893e c9a3 fcbe 892b f13e
00000070: 8d6b 2f3e cc42 ae3c c437 7abf b39a f4be
00000080: 095c 233e 0b35 54be 216d 73bf ad34 4a3e
00000090: 40cb a4be 3543 cabe d934 84be ca92 f13e
000000a0: 8c33 ac3e 351a 353e 74a9 e5bd 2b05 f03e
000000b0: 0b84 d93e 925c c93e f51d 3c3d 577c 52bf

gn2.mean_scale f4 [48]
1.2714447 0.58118993 0.61967635 1.2922289 1.0891027 1.5253016 1.2508729 0.95507854
1.7559795 0.9523822 0.98435175 0.88709885 0.7554549 0.84174395 1.0911258 0.95858616
1.534583 1.1351075 1.4991263 1.5981762 0.5201967 0.7526676 1.3597227 0.96959764
0.8533246 0.503819 0.5777157 1.5874574 1.3238217 0.39381614 0.82871795 1.6699834
1.5206511 0.7555994 1.1911681 1.1057876 1.5044944 1.2120353 0.53548557 1.0202198
0.95474064 1.1370534 0.87039405 0.8020113 1.5405313 0.66875607 0.8250981 0.9526735
00000000: b3be a23f ddc8 143f 1ca3 1e3f c267 a53f
00000010: b867 8b3f 153d c33f 9a1c a03f 0780 743f
00000020: f0c3 e03f 52cf 733f 7afe 7b3f e918 633f
00000030: 7e65 413f 887c 573f 03aa 8b3f e765 753f
00000040: 376d c43f 344b 913f 5fe3 bf3f 0a91 cc3f
00000050: 9c2b 053f d3ae 403f 650b ae3f 8d37 783f
00000060: 7b73 5a3f 48fa 003f 2de5 133f ce31 cb3f
00000070: fd72 a93f 45a2 c93e dc26 543f 04c2 d53f
00000080: b2a4 c23f f66e 413f 3278 983f 738a 8d3f
00000090: 4693 c03f f923 9b3f 9515 093f 9096 823f
000000a0: e269 743f f78a 913f 25d2 5e3f 9d50 4d3f
000000b0: 2130 c53f 9933 2b3f a139 533f 69e2 733f

gn3.weight f4 [48]
0.41201037 0.51827943 0.9528712 0.92841923 0.5099581 0.48397428 0.6123539 0.47421545
0.36647418 0.0021212725 0.5708108 0.24756324 1.086938 0.48423567 0.43859237 1.8709365
0.6135293 0.8689387 0.5084778 0.85398406 0.51614124 0.825277 0.8564974 0.53374237
0.44375917 0.770987 0.5706695 1.1743838 0.4299972 0.5376293 0.70346695 0.7939373
0.76147985 0.24194679 0.4270825 -1.2177732e-06 0.79095244 0.4553696 0.53896993 1.298495
0.42690158 0.6869275 0.7944068 0.71354985 0.87289006 0.3804645 0.34298733 0.45723176
00000000: 06f3 d23e f6ad 043f 5eef 733f e2ac 6d3f
00000010: 9d8c 023f 7acb f73e 3ac3 1c3f 5ecc f23e
00000020: 81a2 bb3e 0c05 0b3b a820 123f 3881 7d3e
00000030: c920 8b3f bded f73e 2e8f e03e d97a ef3f
00000040: 4210 1d3f c472 5e3f 9a2b 023f b39e 5a3f
00000050: d521 043f 5a45 533f 6a43 5b3f 57a3 083f
00000060: 6734 e33e 675f 453f 6517 123f 3552 963f
00000070: 9828 dc3e 13a2 093f 6916 343f 7a3f 4b3f
00000080: 58f0 423f e6c0 773e 8faa da3e 5e72 a3b5
00000090: dc7b 4a3f 3426 e93e eff9 093f 1635 a63f
000000a0: d892 da3e 7bda 2f3f 3e5e 4b3f 34ab 363f
000000b0: b975 5f3f 3ecc c23e 099c af3e 481a ea3e

gn3.bias f4 [48]
-0.041179705 0.050388947 -0.16708246 0.04826886 0.069738105 0.0360464 -0.11174977 0.021667434
-0.21869068 0.15072688 -0.0879764 -0.0053635035 0.03537379 0.0022851985 0.016705554 -0.05118982
0.057574112 -0.067732856 -0.07264759 -0.055151783 0.04261704 -0.1417205 -0.07550186 0.044283587
-0.14637214 0.037538923 0.026981385 0.017365953 -0.1360823 -0.10572309 -0.037261248 -0.07134267
0.015564437 -0.038349558 0.006497517 -0.053143084 0.02450197 0.04593916 -0.016727554 -0.04708373
-0.043764696 0.08783333 0.13884827 0.096109875 0.016264657 -0.015266255 -0.09000128 -0.03801741
00000000: 0dac 28bd a464 4e3d aa17 2bbe 91b5 453d
00000010: dad2 8e3d 64a5 133d 10dd e4bd e77f b13c
00000020: 73f0 5fbe 2658 1a3e f92c b4bd 54c0 afbb
00000030: 1be4 103d 45c3 153b 16da 883c 6bac 51bd
00000040: d5d2 6b3d 86b7 8abd 42c8 94bd d6e6 61bd
00000050: 358f 2e3d 2e1f 11be b8a0 9abd b562 353d
00000060: 94e2 15be 6ac2 193d 1108 dd3c 0b43 8e3c
00000070: 2959 0bbe 5985 d8bd 409f 18bd 1b1c 92bd
00000080: fb01 7f3c 6d14 1dbd 20e9 d43b 90ac 59bd
00000090: 5bb8 c83c b32a 3c3d 3908 89bc dfda 40bd
000000a0: 9c42 33bd f6e1 b33d 3e2e 0e3e 41d5 c43d
000000b0: 753d 853c 501f 7abc 9752 b8bd 25b8 1bbd

gn3.mean_scale f4 [48]
0.8445063 0.81071174 1.3669496 0.7039702 0.79890275 0.90454537 0.7899282 0.84457487
1.1451584 1.001507 0.7732052 0.9068595 1.3144283 1.2050908 1.3359485 1.6587853
0.79915607 1.261932 1.2568585 0.6694168 0.8020669 1.2652781 0.71588916 0.79098266
0.7618371 0.7466151 0.84825724 0.6254085 1.1316389 0.72665924 1.3091366 1.4755106
1.1749038 0.9224178 1.1528298 0.9999996 0.7858612 0.7434247 1.2123078 0.29593456
0.83823144 0.62498116 1.2273214 0.8224331 1.303979 1.2065312 1.2090908 1.1196145
00000000: 9131 583f ce8a 4f3f 34f8 ae3f 6437 343f
00000010: e484 4c3f 4990 673f bc38 4a3f 0f36 583f
00000020: 8d94 923f 6231 803f c7f0 453f f227 683f
00000030: 303f a83f 6a40 9a3f 5c00 ab3f 1453 d43f
00000040: 7e95 4c3f fd86 a13f bde0 a03f e65e 2b3f
00000050: 4254 4d3f a2f4 a13f 8344 373f d77d 4a3f
00000060: c207 433f 2b22 3f3f 6327 593f c51a 203f
00000070: 8bd9 903f 5706 3a3f ca91 a73f 88dd bc3f
00000080: 3f63 963f 9323 6c3f ed8f 933f f9ff 7f3f
00000090: 332e 493f 1551 3e3f e72c 9b3f bc84 973e
000000a0: 5696 563f c4fe 1f3f de18 9d3f fa8a 523f
000000b0: c9e8 a63f 9d6f 9a3f 7dc3 9a3f 874f 8f3f

bn0.weight f4 [54]
0.38016245 0.43472072 0.3034769 0.17996791 0.56011456 0.4245248 0.32094094 0.34238145
0.2211044 0.48586485 0.5696518 0.9209155 0.31852725 0.3410288 0.3832643 0.04596045
0.29826325 0.27069327 0.2770738 0.34241852 0.45061854 0.3803945 0.45435312 0.48699424
0.37205616 0.41234535 0.3645116 0.48846406 0.3585964 0.44265956 0.495564 0.3352511
0.373881 0.28097084 0.35433438 0.119108774 0.45914465 0.44857523 0.6091514 0.23764424
0.24245355 0.17184415 0.36629412 0.6765938 0.3687179 0.445767 0.54614466 0.400948
1.812127 1.6404587 2.0130982 2.1282275 1.9820651 1.7014945
00000000: a7a4 c23e b793 de3e 5361 9b3e 8249 383e
00000010: ab63 0f3f 515b d93e 5f52 a43e 9f4c af3e
00000020: 3169 623e 47c3 f83e b3d4 113f 1ec1 6b3f
00000030: 0116 a33e 549b ae3e 383b c43e 0641 3c3d
00000040: f6b5 983e 4f98 8a3e 9edc 8d3e 7b51 af3e
00000050: 79b7 e63e 11c3 c23e f9a0 e83e 4f57 f93e
00000060: 257e be3e ee1e d33e 44a1 ba3e f617 fa3e
00000070: f399 b73e 46a4 e23e 91ba fd3e 08a6 ab3e
00000080: 556d bf3e 69db 8f3e 516b b53e 4def f33d
00000090: 0215 eb3e a7ab e53e 59f1 1b3f 0359 733e
000000a0: be45 783e eaf7 2f3e e78a bb3e 4035 2d3f
000000b0: 98c8 bc3e 923b e43e 23d0 0b3f 0e49 cd3e
000000c0: c7f3 e73f 8dfa d13f 9ad6 0040 e134 0840
000000d0: 4fb4 fd3f 92ca d93f

bn0.bias f4 [54]
-0.09521475 -0.034234922 -0.056805726 -0.07139409 0.10640848 -0.3464469 0.002886699 0.12791854
0.03368481 -0.049622 -0.016450608 -0.11922265 -0.23483182 0.13421299 0.049408082 0.016982356
0.006865131 -0.0011978949 0.19530636 -0.1257522 -0.15992208 -0.123244554 0.16250284 -0.19308199
0.22498411 0.2128782 0.021146245 0.071134984 0.066615544 0.2713822 -0.059227787 0.09007969
-0.0033714632 -0.00896666 -0.035266377 -0.10105393 -0.11571451 0.0032610884 -0.1305573 -0.00963719
0.080367915 0.0687467 0.0060917693 0.087483734 0.16433194 0.041305695 0.2182373 0.043730684
0.54486054 0.4403266 -0.09174551 0.058495868 -0.14572749 0.03721419
00000000: f3ff c2bd eb39 0cbd 1fad 68bd 1137 92bd
00000010: b0ec d93d 7d61 b1be c62e 3d3b 14fd 023e
00000020: 15f9 093d 7040 4bbd 6dc3 86bc 012b f4bd
00000030: c177 70be 216f 093e 2160 4a3d 951e 8b3c
00000040: e5f4 e03b af02 9dba 64fe 473e 2fc5 00be
00000050: 9dc2 23be a467 fcbd 2567 263e 49b7 45be
00000060: 3c62 663e befc 593e e43a ad3c 38af 913d
00000070: bb6d 883d 9cf2 8a3e d698 72bd b37b b83d
00000080: c4f3 5cbb e6e8 12bc 7a73 10bd 5df5 cebd
00000090: bbfb ecbd fcb7 553b d0b0 05be 4ee5 1dbc
000000a0: ef97 a43d 12cb 8c3d 779d c73b ac2a b33d
000000b0: a246 283e 2930 293d 9979 5f3e f21e 333d
000000c0: fb7b 0b3f 7d72 e13e 12e5 bbbd 5d99 6f3d
000000d0: 9639 15be e86d 183d

bn0.running_mean f4 [54]
1.7212932 0.7778536 0.038143426 -0.46557793 -0.33334273 -0.1589035 0.8008511 -0.30516908
0.73056763 1.2447362 -0.80536103 -1.5499967 -0.027406204 0.44149604 0.0043130917 0.52656925
-0.6356425 0.6532411 0.6650799 -1.3831067 -0.17336571 0.09700342 0.35263824 -1.0065762
-0.77098197 0.6975699 -0.13305548 1.0363936 0.755177 -1.071712 -0.41648278 0.09890534
1.0846246 0.6598712 -0.8319663 -0.240388 0.7495255 -0.3260635 -0.15627651 -0.9387041
0.807197 0.2830205 0.5270753 -0.30042 1.3735346 0.46643198 0.1961399 0.078533895
3.8433218 1.0528187 65.91989 77.720726 77.667725 52.575874
00000000: 5653 dc3f 6a21 473f 483c 1c3d 3b60 eebe
00000010: e6ab aabe 99b7 22be 9404 4d3f 1f3f 9cbe
00000020: 7b06 3b3f 8453 9f3f 242c 4ebf 4b66 c6bf
00000030: fa82 e0bc c50b e23e d654 8d3b 3ecd 063f
00000040: 78b9 22bf cf3a 273f ad42 2a3f a409 b1bf
00000050: c886 31be bba9 c63d 008d b43e 7dd7 80bf
00000060: 135f 45bf f193 323f b23f 08be 8ca8 843f
00000070: 4853 413f dc2d 89bf 3b3d d5be e28e ca3d
00000080: fbd4 8a3f 52ed 283f befb 54bf 4628 76be
00000090: e7e0 3f3f ccf1 a6be f306 20be e94e 70bf
000000a0: 76a4 4e3f 10e8 903e 68ee 063f a6d0 99be
000000b0: fbcf af3f 2cd0 ee3e e6d8 483e 61d6 a03d
000000c0: fcf8 7540 c3c2 863f fcd6 8342 0371 9b42
000000d0: e055 9b42 b24d 5242

bn0.running_var f4 [54]
0.024062898 0.03590167 0.053054612 0.067191966 0.032871865 0.053822003 0.016743442 0.020268185
0.10308242 0.007435082 0.041141678 0.097557835 0.021477625 0.048757534 0.052131686 0.21364701
0.09774686 0.023483656 0.07077365 0.059670493 0.06375131 0.026494902 0.112875976 0.04172195
0.048760884 0.097418435 0.022984937 0.116751276 0.023878152 0.058854397 0.08028332 0.1127283
0.09966063 0.027042383 0.019901143 0.0077773053 0.08214346 0.030191815 0.052117936 0.06150325
0.021586701 0.07746855 0.06256572 0.16902749 0.046637297 0.056182172 0.018297927 0.01033495
2.7318494 0.5553855 1922.8253 3274.7214 3126.7544 1275.8346
00000000: 8e1f c53c a10d 133d cb4f 593d f19b 893d
00000010: a6a4 063d 7674 5c3d 8b29 893c 7709 a63c
00000020: e01c d33d fda1 f33b 2d84 283d 67cc c73d
00000030: d8f1 af3c fbb5 473d 0988 553d 48c6 5a3e
00000040: 812f c83d cc60 c03c c7f1 903d 0c69 743d
00000050: 0c90 823d d60b d93c 852b e73d a3e4 2a3d
00000060: 7eb9 473d 5183 c73d e84a bc3c 4b1b ef3d
00000070: 1d9c c33c 4f11 713d 956b a43d 18de e63d
00000080: df1a cc3d fd87 dd3c b907 a33c c4d8 fe3b
00000090: d53a a83d d354 f73c 9e79 553d d5ea 7b3d
000000a0: 98d6 b03c d5a7 9e3d 7522 803d 8b15 2d3e
000000b0: c006 3f3d 471f 663d 89e5 953c ec53 293c
000000c0: 9fd6 2e40 be2d 0e3f 695a f044 8bab 4c45
000000d0: 126c 4345 b57a 9f44

bn1.weight f4 [48]
1.0266775 0.82090837 0.9172075 0.9099472 1.347033 0.9148459 0.6895128 0.8544985
0.9711734 0.9567877 1.0298215 1.4214075 1.1948551 0.91704506 0.7533783 0.94908565
1.3021857 1.3522378 0.83855695 1.2754722 0.89089435 1.3311913 1.3285929 0.76675373
0.8895556 0.7844602 0.8912448 1.2409742 1.0195537 1.0278982 1.0975916 1.119046
1.5142533 1.0707381 0.902118 0.8293636 1.2807597 0.90904146 0.98846316 0.7563553
0.97054946 1.1039463 1.080637 0.9546323 1.3249704 1.041818 0.82175976 1.059468
00000000: 2b6a 833f 0d27 523f 1cce 6a3f 4df2 683f
00000010: 946b ac3f 5733 6a3f e983 303f 6ac0 5a3f
00000020: d29e 783f 0af0 743f 31d1 833f aef0 b53f
00000030: 03f1 983f 77c3 6a3f 66dd 403f 47f7 723f
00000040: 05ae a63f 2116 ad3f abab 563f ac42 a33f
00000050: a711 643f 7a64 aa3f 550f aa3f f949 443f
00000060: eab9 633f 62d2 483f 9f28 643f 3ed8 9e3f
00000070: bc80 823f 2b92 833f e27d 8c3f e63c 8f3f
00000080: 0dd3 c13f f20d 893f 35f1 663f 2c51 543f
00000090: efef a33f f1b6 683f ec0b 7d3f 80a0 413f
000000a0: ee75 783f 1d4e 8d3f 5052 8a3f c862 743f
000000b0: a198 a93f 4b5a 853f d95e 523f a69c 873f

bn1.bias f4 [48]
0.28420416 -0.3598657 -0.6533591 0.44790372 0.38369516 -0.26952443 0.29086235 0.12931417
-0.208345 -0.82008547 0.3080815 -0.42460117 0.29471022 0.099893704 -0.23813823 -0.17902958
0.057763726 -0.085680835 0.2317151 -0.0838646 0.33665207 0.4186762 -0.1990113 0.45280942
-0.05020695 0.5512404 -0.019766519 -0.128755 0.020746695 -0.29292595 -0.002818773 -0.23355015
0.12189442 -0.55365884 -0.8159288 0.29602873 0.5017791 0.018012 0.59876215 -0.18501353
0.03947702 0.3687588 0.34429216 0.0010548903 0.029972957 0.21178618 0.4471642 0.28350407
00000000: 3583 913e 5140 b8be 8b42 27bf a353 e53e
00000010: b173 c43e 1bff 89be e9eb 943e ef6a 043e
00000020: 6458 55be 1ff1 51bf dcbc 9d3e 5365 d9be
00000030: 42e4 963e 1295 cc3d 82da 73be 8853 37be
00000040: a899 6c3d 6f79 afbd b946 6d3e 34c1 abbd
00000050: a95d ac3e ba5c d63e 9ec9 4bbe a3d6 e73e
00000060: cea5 4dbd 171e 0d3f 65ed a1bc 5ad8 03be
00000070: f9f4 a93c 64fa 95be 2abb 38bb c527 6fbe
00000080: c8a3 f93d 96bc 0dbf b6e0 50bf 1491 973e
00000090: 9874 003f e78d 933c 7a48 193f 3074 3dbe
000000a0: a8b2 213d f4cd bc3e 1047 b03e 3f44 8a3a
000000b0: d989 f53c 7ade 583e b5f2 e43e 7227 913e

bn1.running_mean f4 [48]
0.6989089 1.47094 0.5423404 0.60404027 0.7259358 0.70309204 0.36426094 1.1368237
0.55141044 0.5188229 1.2532375 2.1353269 1.2875979 0.67814463 0.7844745 0.65774006
0.83493805 1.4910463 0.34836125 1.5651052 0.48431122 0.5732865 1.1811025 0.7165329
2.7173595 0.4458381 1.0545958 2.827269 0.6879262 0.53928417 1.6402038 0.6728516
1.0446023 1.5211552 1.5088809 1.3606709 1.0066957 0.59338856 0.73324054 0.5157076
1.1847848 0.6027359 0.7985687 1.5341442 1.5934026 0.27630395 0.40876707 0.82023764
00000000: b2eb 323f c347 bc3f d2d6 0a3f 62a2 1a3f
00000010: eed6 393f d7fd 333f 6980 ba3e 7083 913f
00000020: 3c29 0d3f 94d1 043f 166a a03f 32a9 0840
00000030: 02d0 a43f e39a 2d3f 52d3 483f a761 283f
00000040: 80be 553f 9bda be3f 685c b23e 5e55 c83f
00000050: a4f7 f73e e7c2 123f 5e2e 973f b36e 373f
00000060: 38e9 2d40 e444 e43e fffc 863f faf1 3440
00000070: ee1b 303f 870e 0a3f 33f2 d13f 0140 2c3f
00000080: 87b5 853f 37b5 c23f 0223 c13f 772a ae3f
00000090: 68db 803f 50e8 173f a7b5 3b3f 6a05 043f
000000a0: 07a7 973f e64c 1a3f 006f 4c3f d65e c43f
000000b0: 9ef4 cb3f b677 8d3e eb49 d13e 18fb 513f

bn1.running_var f4 [48]
2.2703707 4.0621467 1.0760462 1.1857446 1.483778 1.4110007 0.57377595 2.5457463
1.0737377 1.3662717 2.3685186 5.3882284 2.1875663 1.2675487 1.4711406 1.4262006
1.8832282 3.2443125 0.6613572 4.8753705 1.8660688 1.2763838 2.6834137 1.2396094
6.130386 0.59443444 2.3273168 5.578917 1.2306557 1.4249074 3.1734974 1.6953925
2.962758 3.3028848 3.5934234 2.2994058 2.7394977 1.156121 1.4728827 1.1650127
2.13799 0.7002619 1.4692918 3.441678 5.657433 0.39467388 0.8803449 1.551749
00000000: c14d 1140 1bfd 8140 e2bb 893f 7bc6 973f
00000010: 70ec bd3f ac9b b43f fbe2 123f 82ed 2240
00000020: 3d70 893f fee1 ae3f cf95 1740 5e6c ac40
00000030: 1601 0c40 093f a23f 564e bc3f be8d b63f
00000040: 9f0d f13f d1a2 4f40 b54e 293f 0903 9c40
00000050: 58db ee3f 8b60 a33f 0dbd 2b40 85ab 9e3f
00000060: 1f2c c440 db2c 183f c2f2 1440 7d86 b240
00000070: 2086 9d3f 5e63 b63f 951a 4b40 9f02 d93f
00000080: d49d 3d40 7762 5340 a6fa 6540 7729 1340
00000090: ee53 2f40 c6fb 933f 6c87 bc3f 231f 953f
000000a0: d4d4 0840 5d44 333f c111 bc3f 7444 5c40
000000b0: b109 b540 b212 ca3e 495e 613f b69f c63f

bn2.weight f4 [48]
0.8606055 0.74140674 0.98126006 0.5425267 0.98463064 0.7739201 0.76436424 0.7808444
0.03160093 0.7354275 0.73277384 0.815403 0.79515207 0.68066955 0.72869575 0.8889973
0.825169 0.69625616 0.81188816 0.724176 0.6506992 0.5145025 0.6960644 1.0127207
0.6769223 0.5582668 0.72392917 0.82360363 0.8355456 1.0040289 0.83919704 0.6309058
0.8885321 0.51412874 0.95185435 0.70702654 0.82010496 0.624855 0.8582559 0.8850013
0.18865088 1.1094737 0.93603736 0.950903 0.8610223 0.75922346 0.7753135 0.7503103
00000000: a450 5c3f d5cc 3d3f dc33 7b3f 08e3 0a3f
00000010: c110 7c3f a11f 463f 60ad 433f 6be5 473f
00000020: fa6f 013d fa44 3c3f 1197 3b3f 40be 503f
00000030: 168f 4b3f 5c40 2e3f ce8b 3a3f 5495 633f
00000040: 473e 533f d83d 323f e7d7 4f3f 9963 393f
00000050: 3994 263f 70b6 033f 4731 323f d5a0 813f
00000060: c84a 2d3f 93ea 0e3f 6c53 393f b0d7 523f
00000070: 51e6 553f 0584 803f 9ed5 563f 0b83 213f
00000080: d776 633f f19d 033f baac 733f b1ff 343f
00000090: 66f2 513f 7ff6 1f3f a9b6 5b3f 728f 623f
000000a0: b22d 413e 3c03 8e3f 25a0 6f3f 616e 733f
000000b0: f56b 5c3f 785c 423f f27a 463f 5614 403f

bn2.bias f4 [48]
0.23017465 0.14175895 0.15196799 0.11659483 0.28992382 0.21132852 0.18907502 0.17305188
0.0046454556 0.1825137 0.18761685 0.15648589 0.19515292 0.17508355 0.20961817 0.17170063
0.1856346 0.17139187 0.12973729 0.1656745 0.23692934 0.13819653 0.20825106 0.12946053
0.1587419 0.20598514 0.25757024 0.16287585 0.12830374 0.34608465 0.14943683 0.16507298
0.29032892 0.07815272 0.3523583 0.20676786 0.24226338 0.2156553 0.19530249 0.15911505
0.048877086 0.26334888 0.22681232 0.34291512 0.16327858 0.12726595 0.20229794 0.17591597
00000000: e7b2 6b3e 4229 113e 7f9d 1b3e 45c9 ee3d
00000010: e570 943e 8166 583e e29c 413e 8334 313e
00000020: e838 983b dfe4 3a3e a21e 403e d63d 203e
00000030: 2bd6 473e 1a49 333e 25a6 563e 4ad2 2f3e
00000040: ff16 3e3e 5a81 2f3e dad9 043e 93a6 293e
00000050: 9b9d 723e 6483 0d3e c43f 553e 4d91 043e
00000060: 3d8d 223e c5ed 523e 3fe0 833e edc8 263e
00000070: 0e62 033e 0232 b13e f805 193e e408 293e
00000080: fea5 943e 890e a03d 4f68 b43e f4ba 533e
00000090: e413 783e bed4 5c3e 60fd 473e 0eef 223e
000000a0: 5733 483d aad5 863e 7d41 683e 9292 af3e
000000b0: 8032 273e 0152 023e 3127 4f3e 5123 343e

bn2.running_mean f4 [48]
0.36373153 1.8974138 0.81382495 0.123822786 0.64614195 0.3003155 0.40298924 1.6484684
0.032289594 0.74488926 1.1913311 0.41068625 0.4833875 0.40957898 0.3896211 1.1197501
1.692383 0.6650803 0.20817095 0.5126331 0.7026053 0.49857652 0.5439651 1.0928981
0.85889435 0.8176574 1.2749395 1.0668485 0.3672512 0.97954935 0.092585154 1.2355708
0.4703656 0.10397844 0.81745803 1.3970082 1.565645 0.86171865 0.58365154 0.5372372
0.31371325 0.8029589 1.7229354 1.5024922 2.2879558 1.6620209 0.38522717 1.7371117
00000000: 053b ba3e 75de f23f d556 503f cd96 fd3d
00000010: 8f69 253f f4c2 993e 9b54 ce3e 0301 d33f
00000020: 1842 043d 10b1 3e3f 8a7d 983f 7845 d23e
00000030: 917e f73e 56b4 d13e 6b7c c73e f953 8f3f
00000040: 02a0 d83f b442 2a3f c42a 553e ec3b 033f
00000050: f1dd 333f 6c45 ff3e 4c41 0b3f 16e4 8b3f
00000060: 80e0 5b3f ff51 513f 3831 a33f 7e8e 883f
00000070: 5908 bc3e bfc3 7a3f 499d bd3d 2f27 9e3f
00000080: c3d3 f03e a6f2 d43d ee44 513f 2ad1 b23f
00000090: 0e67 c83f 9899 5c3f 306a 153f 6188 093f
000000a0: 069f a03e b78e 4d3f 2689 dc3f aa51 c03f
000000b0: de6d 1240 1abd d43f 7f3c c53e ad59 de3f

bn2.running_var f4 [48]
1.292207 8.669954 5.149903 0.4700553 3.5261526 1.2431222 1.7562883 9.290361
0.08739063 2.185955 4.671763 1.8670022 2.5092819 1.7692683 1.4643668 3.6291163
11.199733 2.4609091 1.0565825 1.7936705 2.608905 2.2024279 2.0750751 4.625951
3.9787483 3.7704875 8.347334 5.1353483 1.8604342 4.785221 0.39209634 6.164274
2.2094667 0.32701957 3.5511963 6.077206 7.7071314 3.8939762 2.6679025 2.975393
1.431121 3.654376 13.808548 8.686586 10.374532 6.965949 1.2222668 9.481589
00000000: 0a67 a53f 22b8 0a41 01cc a440 17ab f03e
00000010: 7cac 6140 a11e 9f3f 0ece e03f 52a5 1441
00000020: dcf9 b23d b0e6 0b40 157f 9540 eef9 ee3f
00000030: 1398 2040 6277 e23f 5f70 bb3f 7143 6840
00000040: 1b32 3341 897f 1d40 183e 873f ff96 e53f
00000050: 4df8 2640 94f4 0c40 08ce 0440 ca07 9440
00000060: d0a3 7e40 ab4f 7140 ae8e 0541 c654 a440
00000070: b522 ee3f 8820 9940 dac0 c83e bc41 c540
00000080: e767 0d40 1c6f a73e cd46 6340 7978 c240
00000090: d2a0 f640 e836 7940 eabe 2a40 d76c 3e40
000000a0: f92e b73f 4ce1 6940 d0ef 5c41 42fc 0a41
000000b0: 15fe 2541 0ee9 de40 3d73 9c3f 97b4 1741

conv1.mlp.0.weight f4 [48, 18]
-2.1677165 -0.19421755 -0.07370855 -0.06314455 0.11185525 -0.36132604 0.48523667 0.14186619
0.24109985 0.26560062 0.15158021 0.0036906223 -0.25245124 -0.054908738 -0.14284977 -0.21257517
-0.209263 0.24189937 -0.35414892 1.7922915 0.8244039 -0.0050039953 -0.26553488 0.14730667
-0.020104958 -0.20968936 -0.044201978 0.10921777 0.049829148 0.1155414 -0.10696204 -0.14188005
-0.07326915 -0.18965766 -0.2985433 -0.05583918 0.16809002 0.04946647 -0.09891101 -1.5174009
0.06910761 0.09225144 0.34100205 0.1351683 -0.56742734 -0.058513694 0.049294427 0.121173345
0.25651565 -0.032670654 0.0039990423 -0.17406283 -0.1301222 -0.4340399 0.42301303 0.14748245
-0.049275532 -0.09788267 0.16891174 0.7678689 -1.3039035 0.20876679 0.44529733 -0.1083117
0.13103977 0.08938891 0.11341903 0.027718144 -0.16586468 -0.20702393 -1.0890465 0.21225919
-0.20816311 -0.03786961 0.21731095 0.056884907 -0.18046217 0.2631156 -0.79420334 0.06678915
0.22898346 -0.28332496 -0.15610175 -1.160606 -0.10094077 0.066336945 0.06852622 0.15114251
-0.7129314 0.4383585 -0.41185966 0.07956069 -0.050983265 0.09798429 0.0032237156 -0.36553463
0.8604882 -0.02492963 -0.04239706 0.05955822 -0.16285878 -0.18529904 0.07088497 -0.037517954
-0.56773484 0.838123 -0.73606235 -0.9165191 -0.024480708 -0.029638242 -0.017241623 0.030683294
0.022628294 -2.857708 -0.15048683 0.056192223 -0.038803916 -0.034300454 0.028886152 0.012558442
-0.012433684 0.018818663 0.00033974185 0.03101395 -0.028862393 -0.020914227 0.12909698 0.10947883
-0.008381072 0.024962403 -0.2052103 0.57100755 0.45936993 -0.14903675 -1.1537818 0.0671857
0.05874882 0.017215867 0.0807236 0.74666405 0.1168654 0.036610093 -0.25985745 -0.82354957
-0.32570833 -0.20765784 2.4412572 -0.0026633693 0.17062306 -0.3381043 -0.31133154 -0.28038427
-0.012758218 0.041342273 0.031007992 0.12992074 -0.0036348968 0.0044831834 -0.08012703 0.12002645
0.032240078 0.13043404 0.05627999 -0.010433501 0.006655998 0.0022001418 -1.8884792 0.41038778
-0.632671 -0.44271484 0.17103921 0.056392074 -0.025555037 -0.028923701 0.058698237 -0.15689637
0.030377392 0.1896399 0.16647197 0.22672571 0.33812612 0.09473376 0.08348176 -0.015593679
-0.29327777 -0.9475222 0.22578432 0.65128297 -0.544346 0.03662987 0.02054302 0.015462295
0.0861503 -0.032195095 -0.08637891 -0.80233 -0.59421253 0.15283589 0.14003165 -0.06868563
-0.043465327 0.079962224 -1.3474451 0.9747009 -0.5962594 -0.56353545 0.48359868 0.05492214
0.019357111 0.012343214 0.00883746 0.053420883 -0.23496884 0.061439633 0.18680042 -0.018285641
0.07208292 -0.0347877 0.089362554 -0.027521374 -0.00048742758 0.3110075 -0.7043681 0.45528805
-0.9732228 -0.4696092 -0.0632278 0.037833955 0.048137844 -0.050234586 0.029022418 0.025074963
-0.891117 0.10959862 0.019612718 -0.07811955 0.0800273 0.037914455 1.9276422 0.64791954
-0.033939112 -0.09937599 0.5176284 -0.06036764 0.0017023281 0.09609032 0.017843714 0.20709345
0.01889255 0.17498685 -0.24625124 0.1790891 -0.6686932 0.39519992 -0.014348561 -0.20277187
00000000: debb 0ac0 f7e0 46be 82f4 96bd ee51 81bd
00000010: 5e14 e53d baff b8be f170 f83e 5f45 113e
00000020: e1e2 763e cefc 873e d837 1b3e 5ede 713b
00000030: 4a41 81be fce7 60bd 3647 12be 4ead 59be
00000040: 0a49 56be 78b4 773e 0253 b5be cf69 e53f
00000050: 220c 533f 8ef8 a3bb 30f4 87be 8fd7 163e
00000060: 27b3 a4bc cfb8 56be 220d 35bd 91ad df3d
00000070: a619 4c3d f8a0 ec3d ea0e dbbd 0149 11be
00000080: 230e 96bd 9e35 42be abda 98be a0b7 64bd
00000090: ca1f 2c3e 5a9d 4a3d db91 cabd 313a c2bf
000000a0: 4a88 8d3d 53ee bc3d d297 ae3e 8f69 0a3e
000000b0: eb42 11bf 0eac 6fbd f4e8 493d bb29 f83d
000000c0: 0556 833e aad1 05bd 660a 833b 873d 32be
000000d0: c13e 05be 7a3a debe 2a95 d83e a405 173e
000000e0: 24d5 49bd b676 c8bd 33f7 2c3e 0e93 443f
000000f0: 4fe6 a6bf f6c6 553e 03fe e33e 86d2 ddbd
00000100: 4a2f 063e 8811 b73d 3d48 e83d 2911 e33c
00000110: 6ed8 29be 15fe 53be e065 8bbf 795a 593e
00000120: b628 55be 2a1d 1bbd c386 5e3e 2600 693d
00000130: 13cb 38be 17b7 863e e950 4bbf c0c8 883d
00000140: a47a 6a3e f80f 91be 23d9 1fbe bd8e 94bf
00000150: 09ba cebd aadb 873d 7a57 8c3d 1ac5 1a3e
00000160: ac82 36bf 8670 e03e 45df d2be b7f0 a23d
00000170: d4d3 50bd fdab c83d f944 533b 5b27 bbbe
00000180: f448 5c3f 3939 ccbc 8aa8 2dbd 52f3 733d
00000190: 74c4 26be 08bf 3dbe 242c 913d 6dac 19bd
000001a0: 1257 11bf 3b8f 563f 956e 3cbf ffa0 6abf
000001b0: c48b c8bc e6cb f2bc 4e3e 8dbc 885b fb3c
000001c0: f95e b93c b0e4 36c0 3819 1abe d129 663d
000001d0: dbf0 1ebd a27e 0cbd a7a2 ec3c ecc1 4d3c
000001e0: a7b6 4bbc 9929 9a3c 611f b239 f810 fe3c
000001f0: d370 ecbc 5054 abbc 0032 043e 7036 e03d
00000200: c450 09bc f47d cc3c a622 52be 8d2d 123f
00000210: 8932 eb3e 179d 18be 1faf 93bf a898 893d
00000220: 9aa2 703d 4a08 8d3c 6a52 a53d 6025 3f3f
00000230: 2057 ef3d 77f4 153d 090c 85be 25d4 52bf
00000240: 3ec3 a6be 42a4 54be 8f3d 1c40 ec8b 2ebb
00000250: d0b7 2e3e 021c adbe d966 9fbe 878e 8fbe
00000260: d807 51bc 8456 293d 7904 fe3c f109 053e
00000270: 7337 6ebb abe7 923b a419 a4bd 6dd0 f53d
00000280: 2c0e 043d 8090 053e d985 663d 46f1 2abc
00000290: 8f1a da3b 4130 103b b0b9 f1bf 591e d23e
000002a0: baf6 21bf 85ab e2be e724 2f3e 60fb 663d
000002b0: cc58 d1bc 66f1 ecbc 906d 703d 71a9 20be
000002c0: 02da f83c f630 423e a177 2a3e c92a 683e
000002d0: de1e ad3e c603 c23d 7cf8 aa3d a17c 7fbc
000002e0: 8128 96be d190 72bf 0134 673e 7bba 263f
000002f0: 425a 0bbf 3409 163d d649 a83c 9155 7d3c
00000300: 926f b03d 01df 03bd 6de7 b0bd 8065 4dbf
00000310: 501e 18bf 0381 1c3e 7564 0f3e 0dab 8cbd
00000320: b308 32bd 3cc3 a33d 1579 acbf 0086 793f
00000330: 75a4 18bf dc43 10bf 3f9a f73e 0af6 603d
00000340: ce92 9e3c 313b 4a3c feca 103c dbcf 5a3d
00000350: ac9b 70be 20a8 7b3d 9c48 3f3e c5cb 95bc
00000360: 36a0 933d 8c7d 0ebd b703 b73d 8174 e1bc
00000370: 6c8d ffb9 603c 9f3e 7851 34bf 841b e93e
00000380: 2125 79bf 9e70 f0be 947d 81bd c7f7 1a3d
00000390: 302c 453d c8c2 4dbd 6cc0 ed3c 026a cd3c
000003a0: 3e20 64bf 3e75 e03d daaa a03c 25fd 9fbd
000003b0: 5ae5 a33d 304c 1b3d fbbc f63f 0ede 253f
000003c0: bd03 0bbd a485 cbbd 4b83 043f 0f44 77bd
000003d0: a720 df3a 00cb c43d fb2c 923c 4e10 543e
000003e0: 8dc4 9a3c c12f 333e 4929 7cbe 2263 373e
000003f0: 7a2f 2bbf a557 ca3e 3a16 6bbc 6ea3 4fbe

conv1.mlp.0.bias f4 [48]
0.17833713 -0.40623716 -1.0095451 -0.6044777 -0.61814874 -0.75472134 -1.1071061 -0.9280463
-0.43327674 -0.6476467 -1.1259209 -0.7643104 -1.3703437 -0.58666754 -0.045600872 -0.7983054
-0.5240875 -0.24922705 -1.3865229 -0.45402148 -0.3538626 -0.24502245 -1.2410033 -0.83484876
-0.96412015 -0.3374953 -0.3247558 0.3146124 -0.8102032 -0.25826114 -0.13996255 -0.6661855
-0.44121724 -1.0361124 -1.2687392 -0.6227243 -0.2892649 -0.20598786 0.5545564 -0.3472261
-0.07407261 -0.3952045 -0.7983472 -1.1403632 -0.38736942 -0.12470725 -0.51275957 -0.41363943
00000000: 029e 363e 51fe cfbe c638 81bf 0dbf 1abf
00000010: ff3e 1ebf 6b35 41bf a7b5 8dbf 7194 6dbf
00000020: 73d6 ddbe 2dcc 25bf 2d1e 90bf d9a9 43bf
00000030: 6c67 afbf d82f 16bf fbc7 3abd be5d 4cbf
00000040: 992a 06bf 6035 7fbe 9579 b1bf 8175 e8be
00000050: 7b2d b5be 2ae7 7abe 32d9 9ebf a6b8 55bf
00000060: 94d0 76bf 2fcc acbe 6446 a6be e014 a13e
00000070: 7a69 4fbf ce3a 84be 5852 0fbe 228b 2abf
00000080: 3ae7 e1be 559f 84bf 0c66 a2bf dc6a 1fbf
00000090: 871a 94be 7bee 52be 69f7 0d3f 9fc7 b1be
000000a0: 61b3 97bd 3f58 cabe 7b60 4cbf 6cf7 91bf
000000b0: 4955 c6be 8466 ffbd 3644 03bf 8cc8 d3be

conv1.mlp.2.weight f4 [48]
0.69335985 1.0316937 1.2665958 1.2182369 0.90623075 1.0899582 1.6142545 1.0527883
0.9748476 1.4278936 1.0058607 1.3207656 1.3829089 1.123826 0.8653369 0.5873862
1.106181 0.9934096 1.1248214 0.98648316 1.1566719 1.0433626 0.67120206 1.204206
0.74185973 0.655408 0.93331635 0.84731597 0.9379092 1.02283 1.3271656 1.149519
0.9057976 1.2568141 0.96511954 1.100865 1.0762177 0.69421977 1.1303823 1.0509933
1.2298084 1.0327091 1.0292876 1.3126299 1.192347 1.459593 1.0083159 0.9243932
00000000: 0880 313f 8a0e 843f d01f a23f 30ef 9b3f
00000010: bdfe 673f c083 8b3f e49f ce3f c4c1 863f
00000020: 9d8f 793f 38c5 b63f 0bc0 803f d90e a93f
00000030: 2903 b13f 88d9 8f3f b886 5d3f f15e 163f
00000040: 5797 8d3f 1750 7e3f 26fa 8f3f 298a 7c3f
00000050: d30d 943f e88c 853f e6d3 2b3f 6c23 9a3f
00000060: 85ea 3d3f d2c8 273f d2ed 6e3f b3e9 583f
00000070: d11a 703f 18ec 823f 90e0 a93f 7023 933f
00000080: 5ae2 673f 49df a03f 1312 773f 25e9 8c3f
00000090: 80c1 893f 63b8 313f 5eb0 903f f386 863f
000000a0: 5d6a 9d3f d02f 843f b2bf 833f 4204 a83f
000000b0: d49e 983f f2d3 ba3f 7f10 813f 08a5 6c3f

conv1.mlp.2.bias f4 [48]
-0.00109902 0.19527002 -0.011614318 0.15258597 0.148809 -0.13222276 0.33609313 0.026586743
0.23298563 0.21177383 0.15445563 0.16191797 0.10681133 0.022118345 0.1921586 -0.06284832
0.022799969 0.23020147 -0.039988566 0.14026818 0.28638986 0.045978703 -0.4462977 0.18708971
-0.23701784 0.1424951 0.17769149 0.139335 -0.32609794 0.22426711 0.38908842 0.38679785
0.04972777 0.23409368 -0.1727043 0.22832295 0.21727607 0.19729535 0.233521 0.17527963
0.38961366 0.058364984 0.32207844 -0.12871869 0.33688316 0.46844253 0.18420894 -0.020108288
00000000: fe0c 90ba ddf4 473e fb49 3ebc 7f3f 1c3e
00000010: 6361 183e 6765 07be 6614 ac3e 71cc d93c
00000020: c993 6e3e 3ddb 583e 9e29 1e3e d3cd 253e
00000030: e6bf da3d 8831 b53c 39c5 443e 9fb6 80bd
00000040: 00c7 ba3c efb9 6b3e 0dcb 23bd 76a2 0f3e
00000050: b1a1 923e 2a54 3c3d 2281 e4be 7294 3f3e
00000060: ceb4 72be 3cea 113e c2f4 353e d6ad 0e3e
00000070: 4ff6 a6be 47a6 653e 9936 c73e 5e0a c63e
00000080: 59af 4b3d 41b6 6f3e 65d9 30be 7ecd 693e
00000090: 9e7d 5e3e cb07 4a3e 2120 6f3e 817c 333e
000000a0: 717b c73e 1f10 6f3d 77e7 a43e d5ce 03be
000000b0: f37b ac3e b3d7 ef3e 45a1 3c3e 23ba a4bc

conv1.mlp.2.running_mean f4 [48]
0.35188246 0.3803016 0.34665433 0.5981659 0.36606386 0.2709255 0.5910803 0.04564462
0.47639513 0.2920784 0.40440622 0.4116184 0.053715408 0.52001876 0.43989545 0.011541503
0.46844822 0.39502403 0.06628188 0.40184355 0.40230045 0.49534693 0.23187375 0.2550877
0.3298267 0.34883177 0.27652913 0.3469322 0.40186724 0.6625619 0.12767604 0.6751601
0.3240279 0.11322302 0.2158743 0.7659143 0.3647589 0.33292165 0.42734268 0.5096876
0.15433197 0.9711641 0.40748706 0.08083129 0.17202891 0.13655025 0.29771638 0.2753634
00000000: f029 b43e e4b6 c23e ad7c b13e 6721 193f
00000010: b96c bb3e bfb6 8a3e 0a51 173f daf5 3a3d
00000020: 10ea f33e 4d8b 953e 550e cf3e a6bf d23e
00000030: b004 5c3d f31f 053f fa39 e13e 9218 3d3c
00000040: 72d8 ef3e 9740 ca3e cbbe 873d 70be cd3e
00000050: 53fa cd3e 1d9e fd3e 5070 6d3e db9a 823e
00000060: 0cdf a83e 149a b23e 3a95 8d3e 19a1 b13e
00000070: 8bc1 cd3e a89d 293f 82bd 023e 4bd7 2c3f
00000080: fce6 a53e 79e1 e73d 270e 5d3e f612 443f
00000090: aec1 ba3e b574 aa3e a9cc da3e e37a 023f
000000a0: 3309 1e3e 369e 783f 25a2 d03e e08a a53d
000000b0: 5928 303e d4d3 0b3e 486e 983e 6efc 8c3e

conv1.mlp.2.running_var f4 [48]
0.4349785 0.5388516 0.5397915 0.9111532 0.5535715 0.28919816 0.20558979 0.04192046
0.7793705 0.26045454 0.45064586 0.6796403 0.07614834 0.57885635 0.7495266 0.0068356376
0.7424305 0.6918459 0.0557693 0.57243013 0.72743565 0.47983748 0.3796748 0.3858112
0.6111598 0.4891314 0.4055688 0.33681548 0.56964314 1.1720866 0.085746765 1.0875525
0.2931011 0.08919849 0.34120786 1.1872615 0.58939475 0.4659294 0.39472917 0.85800433
0.11486857 1.200539 0.60923064 0.064175464 0.15095274 0.089177586 0.42484552 0.19672799
00000000: 80b5 de3e 2ef2 093f c72f 0a3f 5641 693f
00000010: ddb6 0d3f c811 943e 2186 523e cab4 2b3d
00000020: d384 473f 4c5a 853e 0ebb e63e e8fc 2d3f
00000030: a9f3 9b3d ee2f 143f fae0 3f3f 7cfd df3b
00000040: ed0f 3e3f d01c 313f 596e 643d c88a 123f
00000050: 3939 3a3f 42ad f53e bc64 c23e 0c89 c53e
00000060: f874 1c3f 6e6f fa3e b7a6 cf3e 1473 ac3e
00000070: 22d4 113f ef06 963f 009c af3d ec34 8b3f
00000080: 5911 963e b3ad b63d ccb2 ae3e 2ff8 973f
00000090: 93e2 163f 4c8e ee3e f119 ca3e 2ca6 5b3f
000000a0: 3640 eb3d 43ab 993f 8af6 1b3f 6d6e 833d
000000b0: 5b93 1a3e bda2 b63d 5a85 d93e 1073 493e

conv1.mlp.4.weight f4 [48, 48]
0.45349208 0.3708165 0.29388773 0.15569915 0.6961523 0.3942833 0.1985377 0.24131054
0.35560894 0.2924322 0.37047842 0.094003074 1.0320019 0.1421862 0.46364474 0.07784644
0.09493134 0.46781585 0.19542179 -0.2894062 0.40945178 0.3211817 -0.043622468 0.16156685
0.12404314 0.10779625 0.32516477 -0.07227255 0.11079988 0.16201508 0.30134788 0.033547044
0.04015295 0.3692962 -0.39980307 0.30623856 0.30327633 0.28726715 -0.078335315 0.03588705
0.21699527 -0.66583025 0.11427624 0.5352213 0.20279984 0.41138807 0.31710213 0.5123361
0.063625894 -0.11653958 0.061942045 -0.83352906 -0.020991428 -0.43434712 0.3778903 0.3312435
0.24232613 0.6302621 -0.43411165 -0.46492177 -0.2543909 0.31134707 0.18600228 0.115285784
-0.01979815 0.1916018 0.65168345 -0.0057533686 0.045581844 0.008729945 0.29793403 0.15978985
0.31489727 0.31855112 0.10699339 0.21826051 0.25311515 -0.045595646 0.44690597 0.0125730755
0.4864721 0.11522048 0.033961885 -0.1273609 0.05964303 0.0019918238 0.7788089 0.08065843
0.32132605 0.05732749 -0.19133487 0.72076315 0.15216424 0.48612925 -0.055018015 0.39664477
0.088227734 -0.5710128 -0.31701267 -0.3199676 0.2795326 0.30002773 -0.87000126 -0.78117126
-0.22442102 -0.12778224 -0.048696492 -0.25423783 -0.64958555 -0.63896245 0.2539855 -0.012811778
-0.11728771 0.056390505 -0.6318426 -0.095127314 -0.3157092 0.110631764 0.010744527 0.048862685
-0.09194697 -0.25548407 -0.5412051 0.29014733 -0.3107452 -0.13740686 0.39686936 -0.009700843
-0.66261905 -0.72333646 0.07141544 -0.26317742 -0.19866575 0.031146348 -0.54896396 -0.036933143
0.2222043 0.42354596 0.1317807 -0.5389851 0.6632714 0.25744563 -0.3156067 -1.0043646
-0.39436397 0.29385725 1.0811532 -0.26890707 -0.30429766 0.09288469 0.09907113 0.16067864
0.015706418 0.10277707 0.17368005 -0.42069888 0.1162593 0.31566662 0.050358713 -0.27957898
-0.070471644 0.022797747 0.038188692 0.2724998 -0.15990174 -0.04707312 0.91724974 -0.34493372
1.0360434 -0.27351192 -0.12176472 -0.3396851 0.3169204 -0.2589357 0.030401224 -0.47373304
-0.026342215 0.12309492 0.011838207 -0.5449405 -0.050065223 -0.6706957 -0.518411 -0.15508327
0.03462353 -0.14462617 0.6351023 0.1426855 -0.9621884 -1.0320736 0.12996551 -0.074752085
0.26579162 -0.5067996 -0.39628562 -0.41131654 -0.025261397 -0.16963726 0.58446026 0.22725828
0.33269298 0.27195925 -0.16683587 0.7241126 0.2102386 0.1740639 -0.43002093 -0.11820612
0.10467109 0.47745022 0.0914187 0.10386822 -0.7599832 0.21605481 -0.3049707 -0.10385841
-0.6703241 -0.84475124 0.32944033 0.068628624 0.05515425 -0.77638257 -0.37424016 -0.5244003
0.010964585 -0.010790245 -0.0017444612 -0.05343239 0.4515868 -0.028585577 -0.52228165 0.67283255
-0.39287025 -0.41742513 0.14420344 0.005377381 0.19481526 0.4291026 -0.22440307 -0.42610186
0.37069732 -0.60102737 0.1281773 -0.023828631 -0.28344002 -0.6905374 -0.19323014 0.12211152
-0.8534008 -0.4469045 -0.37483466 0.19064036 -0.20267557 0.211764 0.23836726 -0.03995411
00000000: 1d30 e83e a9db bd3e 7478 963e 996f 1f3e
00000010: 0a37 323f 80df c93e 784d 4b3e 1c1a 773e
00000020: 6012 b63e acb9 953e 59af bd3e af84 c03d
00000030: a318 843f 4299 113e d862 ed3e f46d 9f3d
00000040: 5d6b c23d 8f85 ef3e a61c 483e 0d2d 94be
00000050: aaa3 d13e ee71 a43e 79ad 32bd c871 253e
00000060: 540a fe3d 48c4 dc3d ff7b a63e a103 94bd
00000070: 0ceb e23d 48e7 253e 454a 9a3e a068 093d
00000080: 6b77 243d 6414 bd3e fdb2 ccbe 4dcb 9c3e
00000090: 0947 9b3e ae14 933e 446e a0bd 4dfe 123d
000000a0: 0234 5e3e da73 2abf a909 ea3d 4304 093f
000000b0: c3aa 4f3e 75a1 d23e 365b a23e 7528 033f
000000c0: 4b4e 823d 4eac eebd f1b6 7d3d 2962 55bf
000000d0: 37f6 abbc bf62 debe d67a c13e bf98 a93e
000000e0: 5724 783e db58 213f e243 debe 3a0a eebe
000000f0: 863f 82be e268 9f3e 6277 3e3e f41a ec3d
00000100: bb2f a2bc 4333 443e bad4 263f c186 bcbb
00000110: 07b4 3a3d 0b08 0f3c cf8a 983e f39f 233e
00000120: 373a a13e 2219 a33e 5a1f db3d af7f 5f3e
00000130: 4f98 813e 80c2 3abd dcd0 e43e 4dff 4d3c
00000140: df12 f93e b7f8 eb3d 9e1b 0b3d e56a 02be
00000150: 404c 743d 4289 023b 0560 473f 3f30 a53d
00000160: d984 a43e 3bd0 6a3d 4aed 43be ef83 383f
00000170: f1d0 1b3e efe5 f83e 925a 61bd 0615 cb3e
00000180: beb0 b43d e52d 12bf 7c4f a2be cbd2 a3be
00000190: e61e 8f3e 3c9d 993e 67b8 5ebf d7fa 47bf
000001a0: a0ce 65be 59d9 02be f975 47bd 762b 82be
000001b0: 3d4b 26bf 0b93 23bf 630a 823e 7ee8 51bc
000001c0: 8a34 f0bd bbf9 663d 70c0 21bf 1cd2 c2bd
000001d0: a3a4 a1be e892 e23d d009 303c 3d24 483d
000001e0: b14e bcbd cfce 82be 6b8c 0abf 318e 943e
000001f0: ff19 9fbe 62b4 0cbe 7632 cb3e 49f0 1ebc
00000200: 67a1 29bf 942c 39bf 4242 923d 31bf 86be
00000210: 096f 4bbe a026 ff3c e788 0cbf 3547 17bd
00000220: 8689 633e 04db d83e 85f1 063e edfa 09bf
00000230: 28cc 293f eacf 833e 3497 a1be 058f 80bf
00000240: 13ea c9be 7574 963e 3a63 8a3f 30ae 89be
00000250: e7cc 9bbe 543a be3d cee5 ca3d f188 243e
00000260: bfaa 803c c97c d23d 2fd9 313e d865 d7be
00000270: 5b19 ee3d 0e9f a13e f044 4e3d fa24 8fbe
00000280: 7053 90bd 57c2 ba3c bf6b 1c3d 1885 8b3e
00000290: 48bd 23be becf 40bd e1d0 6a3f 279b b0be
000002a0: 129d 843f c109 8cbe c85f f9bd 35eb adbe
000002b0: 6443 a23e 3893 84be fd0b f93c 238d f2be
000002c0: a1cb d7bc 3019 fc3d 0af5 413c 3881 0bbf
000002d0: 3111 4dbd b7b2 2bbf 95b6 04bf 26ce 1ebe
000002e0: 67d1 0d3d e218 14be 1096 223f 261c 123e
000002f0: fb51 76bf fd1a 84bf ae15 053e 9f17 99bd
00000300: d715 883e 9ebd 01bf f3e5 cabe 1598 d2be
00000310: fdf0 cebc 64b5 2dbe 309f 153f 65b6 683e
00000320: bc56 aa3e 3e3e 8b3e 06d7 2abe 715f 393f
00000330: ca48 573e cf3d 323e b42b dcbe 0d16 f2bd
00000340: cc5d d63d 5b74 f43e ba39 bb3d dcb8 d43d
00000350: 428e 42bf 793d 5d3e 1f25 9cbe b8b3 d4bd
00000360: 5c9a 2bbf 9e41 58bf 67ac a83e 2a8d 8c3d
00000370: 6ce9 613d 02c1 46bf 689c bfbe 193f 06bf
00000380: cda4 333c 91c9 30bc 68a6 e4ba ecdb 5abd
00000390: 6336 e73e 4d2c eabc 40b4 05bf c13e 2c3f
000003a0: 4a26 c9be bfb8 d5be 11aa 133e be34 b03b
000003b0: a77d 473e 56b3 db3e ebc9 65be 062a dabe
000003c0: 0acc bd3e eedc 19bf e940 033e 4334 c3bc
000003d0: 0d1f 91be 0fc7 30bf 1fde 45be 9b15 fa3d
000003e0: 7a78 5abf abd0 e4be 54ea bfbe 3a37 433e
000003f0: 2f8a 4fbe a9d8 583e 8c16 743e eca6 23bd

conv1.mlp.4.bias f4 [48]
-1.5581704 -1.5799316 0.11261144 -0.9498917 0.67378676 0.6443698 -0.14842418 -0.40543246
0.6012452 -0.98388976 -0.626862 -0.2948957 -0.56778055 -0.7966125 -0.56197804 0.036375325
0.06977874 -0.59459585 -0.7855713 0.5278322 0.3351113 -0.097774506 -0.1762195 -0.5804074
-0.19958897 0.5433792 -0.3876898 -0.93173075 -0.028663635 -0.17994761 -0.49812046 -0.44742423
-1.8097429 -1.1093802 1.1319968 -0.99473083 0.46752125 -0.33859414 -1.0172482 0.73030275
-0.8775961 0.25668585 0.46465418 0.056755006 -0.10507343 -0.64775664 -0.5238937 -0.014287707
00000000: 2172 c7bf 333b cabf d4a0 e63d 1a2c 73bf
00000010: 4a7d 2c3f 6bf5 243f 82fc 17be d894 cfbe
00000020: 35eb 193f 33e0 7bbf 077a 20bf 92fc 96be
00000030: 115a 11bf ccee 4bbf cbdd 0fbf 4bfe 143d
00000040: 28e8 8e3d 6f37 18bf 331b 49bf 0320 073f
00000050: b593 ab3e 003e c8bd e272 34be 9495 14bf
00000060: 0d61 4cbe e61a 0b3f 477f c6be e885 6ebf
00000070: 00d0 eabc 3044 38be a509 ffbe ca14 e5be
00000080: a8a5 e7bf 2c00 8ebf 45e5 903f aea6 7ebf
00000090: f25e ef3e 365c adbe 3035 82bf 1ff5 3a3f
000000a0: 23aa 60bf 546c 833e 27e7 ed3e f077 683d
000000b0: bd30 d7bd 61d3 25bf e61d 06bf fd16 6abc

conv1.mlp.6.weight f4 [48]
0.9931303 1.1325759 1.1489731 1.430863 0.8567695 1.0709169 1.0465721 0.93483526
0.9103378 1.0970742 1.2856586 0.93433523 1.1025661 1.0336868 0.8826579 1.1410118
0.9336531 0.8803727 1.0981143 1.185265 1.2174917 1.0502619 0.9334963 1.1604658
1.2006108 1.0620673 1.1448737 0.8964946 1.0807978 0.8795309 1.0177442 1.0012921
1.0312054 1.1610609 0.8860433 0.971744 0.92694217 0.8834407 0.91449904 0.9281834
0.96389204 0.8890552 1.2031628 0.88052315 1.0867262 1.0454234 1.2207162 0.97172123
00000000: ca3d 7e3f 3ff8 903f 8d11 933f 8526 b73f
00000010: 3f55 5b3f ce13 893f 13f6 853f 5d51 6f3f
00000020: e60b 693f ed6c 8c3f 7690 a43f 9830 6f3f
00000030: e320 8d3f d94f 843f def5 613f ad0c 923f
00000040: e403 6f3f 1b60 613f 028f 8c3f c3b6 973f
00000050: c5d6 9b3f fb6e 863f 9df9 6e3f 258a 943f
00000060: 9dad 993f d2f1 873f 398b 923f ac80 653f
00000070: 9557 8a3f f028 613f 7145 823f 572a 803f
00000080: 8afe 833f a59d 943f bcd3 623f 37c4 783f
00000090: 154c 6d3f 2b29 623f 9c1c 6a3f 6d9d 6d3f
000000a0: a1c1 763f 1f99 633f 3d01 9a3f f769 613f
000000b0: d819 8b3f 6fd0 853f 6e40 9c3f b9c2 783f

conv1.mlp.6.bias f4 [48]
0.15137248 0.20973314 -0.18669705 0.052671056 -0.08563592 0.050079122 0.21272306 0.09183597
0.060927086 -0.005132078 0.15424465 0.26722836 0.047579344 0.19860047 -0.08559972 0.044537343
0.18929529 -0.4273622 0.4057739 0.25956166 0.18178302 0.17462602 -0.161904 0.01167774
0.10750527 0.063697755 -0.45967412 -0.10338945 0.21775424 -0.02201395 -0.1350347 0.03077887
-0.1298468 0.33731675 0.028096426 -0.09376169 0.088623784 0.12885635 -0.17954825 0.48006442
0.19263373 -0.26770765 0.06535062 -0.19537254 0.09680298 -0.140331 0.34000096 -0.1838922
00000000: 6301 1b3e 49c4 563e 832d 3fbe 9bbd 573d
00000010: e361 afbd c41f 4d3d 13d4 593e 7f14 bc3d
00000020: ae8e 793d fe2a a8bb 4ff2 1d3e 28d2 883e
00000030: 8fe2 423d ec5d 4b3e e84e afbd ca6c 363d
00000040: a0d6 413e 38cf dabe 99c1 cf3e 44e5 843e
00000050: 5425 3a3e 2ad1 323e 2aca 25be fe53 3f3c
00000060: b92b dc3d f873 823d 685a ebbe d9bd d3bd
00000070: f8fa 5e3e 9956 b4bc 8946 0abe f823 fc3c
00000080: 8ff6 04be c8b4 ac3e 7a2a e63c 2106 c0bd
00000090: 6380 b53d ebf2 033e 7fdb 37be 01cb f53e
000000a0: c741 453e fa10 89be 8cd6 853d bd0f 48be
000000b0: a440 c63d eeb2 0fbe 9b14 ae3e 3d4e 3cbe

conv1.mlp.6.running_mean f4 [48]
1.4947168 0.93639505 1.7636467 0.861044 2.3563097 1.6666827 1.8320127 0.45886025
1.8958899 0.6481133 1.4042852 2.0206025 1.3579886 1.2157764 1.3481174 2.0615866
1.7205178 1.400405 0.9371274 3.0071301 1.529476 1.3384814 1.3596861 0.9104346
2.8357773 1.8196833 1.1294173 1.2973616 0.9296106 0.92467016 0.4857429 0.8790239
1.4602554 0.28292775 2.250888 0.9937061 2.426769 1.5722048 1.9368734 1.4706768
1.5716655 1.3977034 1.507565 1.540694 0.8196999 0.42175463 1.1241156 0.9651881
00000000: e152 bf3f 96b7 6f3f 2dbf e13f 616d 5c3f
00000010: c7cd 1640 dc55 d53f 647f ea3f bbef ea3e
00000020: 85ac f23f c1ea 253f 9ebf b33f 8d51 0140
00000030: 92d2 ad3f 909e 9b3f 1c8f ac3f 09f1 0340
00000040: ed39 dc3f 7940 b33f 95e7 6f3f d274 4040
00000050: dfc5 c33f 5c53 ab3f 320a ae3f 3e12 693f
00000060: 607d 3540 62eb e83f bf90 903f f20f a63f
00000070: f6fa 6d3f 2fb7 6c3f 4bb3 f83e b607 613f
00000080: a6e9 ba3f e8db 903e 8d0e 1040 8663 7e3f
00000090: 2f50 1b40 023e c93f 78eb f73f 233f bc3f
000000a0: 562c c93f f2e7 b23f e4f7 c03f 7635 c53f
000000b0: dad7 513f 39f0 d73e 05e3 8f3f 9116 773f

conv1.mlp.6.running_var f4 [48]
8.176998 3.6238034 5.297271 6.4726725 8.61749 5.2752147 6.823256 1.152698
8.479039 3.6539583 10.14425 7.564884 6.6359525 5.1974177 5.449658 6.2501826
5.561807 4.338974 3.830313 9.596575 5.6402745 6.2093525 4.9018703 2.998018
11.426442 8.035952 6.5291443 5.680488 1.9140158 3.1549625 1.153035 2.8549504
6.1841583 0.4869726 5.4701905 4.7448483 6.869049 4.11296 8.042783 3.507439
7.0961037 4.3453393 4.600291 7.5216103 1.7222575 1.0384859 4.5226088 3.967359
00000000: fcd4 0241 65ec 6740 3e83 a940 2220 cf40
00000010: 3de1 0941 8fce a840 1d58 da40 9c8b 933f
00000020: 25aa 0741 74da 6940 d94e 2241 8813 f240
00000030: b959 d440 3f51 a640 9963 ae40 7f01 c840
00000040: 53fa b140 e0d8 8a40 d923 7540 928b 1941
00000050: 217d b440 04b3 c640 1fdc 9c40 87df 3f40
00000060: b5d2 3641 4293 0041 c0ee d040 8fc6 b540
00000070: 78fe f43f e8ea 4940 a796 933f 82b7 3640
00000080: a0e4 c540 7954 f93e cd0b af40 ccd5 9740
00000090: 40cf db40 5e9d 8340 3daf 0041 e179 6040
000000a0: 4813 e340 050d 8b40 9535 9340 08b1 f040
000000b0: ef72 dc3f 1bed 843f 36b9 9040 36e9 7d40
