GraphNeuralNet/Combined/epoch150/MHc-130_MA-90_vs_nonprompt/models/ParticleNet-nNodes64_Adam_initLR-0p0005_StepLR.pt (torch, 302072 bytes, 102 tensors)

gn0.weight f4 [9]
00000000: 908b 9c3f 266e 713f ba5c 653f 85d1 603f
00000010: 4e0c 803f a9e5 603f b32c 5a3f 4df5 833f
00000020: edbc 7f3f
1.2230091 0.943087 0.89594615 0.878197 1.0003755 0.87850434 0.85224456 1.0309235
0.9989765

gn0.bias f4 [9]
00000000: 9f8d 8a3d 4d2e 073d 7a73 4a3d 5355 2d3e
00000010: 2c64 893d ec1e 63bd 228a aa3d 2173 c13d
00000020: 2027 a2bd
0.06765293 0.03300314 0.049426533 0.1692708 0.067085594 -0.05544941 0.08327128 0.09445787
-0.07917619

gn0.mean_scale f4 [9]
00000000: 3832 fc3e 55d5 b43e df1f f13e 6bb8 0040
00000010: 451a 0f40 57fd 2a3e 9315 493f 1de9 ef3f
00000020: fd2e 6f3f
0.49257064 0.3531901 0.47094628 2.011256 2.2359784 0.16698204 0.78548545 1.8743016
0.93431073

gn1.weight f4 [64]
00000000: 4468 7d3f c795 713f 3649 7c3f dc49 783f
00000010: b55c 783f 93c5 823f 30e9 823f e93e 803f
00000020: 4cc8 823f 3236 7d3f 7b26 783f eea7 663f
00000030: 4320 5f3f 65e9 803f 903d 853f 04ca 7e3f
00000040: e520 7a3f 00a2 6d3f cd16 773f bd45 7a3f
00000050: 04fb 7e3f b94b 803f d634 753f 42db 783f
00000060: 523f 723f 4321 813f caea 813f c1a7 7b3f
00000070: 9f43 733f 8344 7a3f a87b 863f 31b4 753f
00000080: e756 7b3f 9e28 5d3f 4a93 6e3f f788 793f
00000090: 92e7 733f 411a 713f 74ea 7a3f 41ee 893f
000000a0: a5c4 813f b499 7c3f 24de 743f e8dd 873f
000000b0: f532 783f 10c3 7c3f 7f67 753f 4b90 813f
000000c0: 277a 7e3f 5531 773f 47fc 833f 4a5f 783f
000000d0: 7c61 863f 18be 793f 4355 7a3f c86a 843f
000000e0: 972a 783f 68ba 683f 7b1d 703f bb7a 653f
000000f0: 97f0 833f 71d6 643f ede8 7e3f cc72 813f
0.9898722 0.9436917 0.9854921 0.969877 0.9701646 1.0216545 1.0227413 1.0019199
1.0217376 0.9891082 0.96933717 0.9009999 0.871586 1.0071226 1.0409412 0.99527
0.97706443 0.9282532 0.96519166 0.9776266 0.9960177 1.0023109 0.95783746 0.9720956
0.9462787 1.0088276 1.0149777 0.9830285 0.95025057 0.9776079 1.0506487 0.95978075
0.9817948 0.863901 0.93193495 0.97474617 0.95275223 0.94180685 0.98014 1.0775834
1.0138136 0.9867203 0.9565146 1.0614595 0.96952754 0.9873514 0.9586105 1.012216
0.9940514 0.9655965 1.0311364 0.970204 1.04985 0.97555685 0.9778635 1.0345087
0.96939987 0.90909433 0.93794984 0.89640397 1.0307797 0.8938971 0.99574167 1.0113158

gn1.bias f4 [64]
00000000: 8c68 fdbd a75a 223e c101 823e 6eea 923d
00000010: abd3 a33e 0309 ff3d 4513 b6bd 7432 a6bc
00000020: a186 3e3e f724 183d ae71 38bd 0ae5 01bf
00000030: fc1e ffbc e02d d2be d864 303e c048 8e3e
00000040: 06ff 3fbd 360c 44be dd32 2dbe 4d3e 943e
00000050: b4ad 6cbe c400 5b3e 8e5a 76be ff66 3fbe
00000060: fe70 c7bc 8d2f a43e ac04 95bd 9677 b93e
00000070: 09cd 90be c1d8 c23e 13ba 403e bfba c53c
00000080: 70d5 40be 770d 5dbe e53f 8d3e 524a bfbe
00000090: dc69 3abe b7f6 ad3b 321a 123e 8089 0e3e
000000a0: 3c45 0d3e 1f0f b5bc 85c9 0d3f 4b2d 74be
000000b0: 3bbe 07bc 3d87 dbbe d477 a93c 20c8 09be
000000c0: d6c6 dc3d 0b74 45be f200 9e3d 0768 033e
000000d0: 3d4c 2cbd 4e12 983c 2126 c3bd 9da2 a53d
000000e0: a297 e93d 9deb 1fbe 97ce df3d 5a89 933e
000000f0: 1454 e83c b074 b33d 8517 fabd b56d a93d
-0.12373456 0.15854894 0.25391963 0.0717362 0.31997427 0.12452891 -0.08890394 -0.02028773
0.18606044 0.037144627 -0.04503029 -0.5074011 -0.031142704 -0.41050625 0.17225969 0.2778988
-0.04687407 -0.19145283 -0.16913934 0.28953782 -0.23113137 0.21387011 -0.24057981 -0.18691634
-0.024345871 0.32067528 -0.07276282 0.3622405 -0.2828143 0.38055995 0.18820982 0.024136899
-0.1883142 -0.21587168 0.2758781 -0.3736139 -0.18204445 0.0053089517 0.14267805 0.1391964
0.13795942 -0.022101937 0.5538562 -0.23845403 -0.008285101 -0.42876616 0.020687021 -0.13455248
0.107801124 -0.19282548 0.07715024 0.12832652 -0.042064894 0.018563416 -0.09528757 0.08087657
0.11405875 -0.15617223 0.10928076 0.28815728 0.028360404 0.08762491 -0.12211517 0.08272878

gn1.mean_scale f4 [64]
00000000: 46e1 803f 1366 6c3f 92a4 603f 17f4 753f
00000010: d2ae 843f bd56 713f 0427 6f3f b3c7 713f
00000020: 340c 6c3f fbf3 873f 767f 8a3f cabe 6f3f
00000030: ce54 813f 47fe 833f fb40 7f3f e060 823f
00000040: 4800 6f3f 1bdf 6d3f bde2 833f 06de 853f
00000050: ba72 843f 6427 6f3f 2870 713f 601c 793f
00000060: 7370 863f 6481 8c3f 3578 863f d3d0 873f
00000070: 3de6 883f cb90 893f edc2 813f 3136 873f
00000080: 9915 793f 0e67 833f 9725 813f a9d1 7c3f
00000090: 27c3 6c3f e991 883f deb4 6e3f 4d1e 833f
000000a0: a2b8 753f 9d22 6a3f aed6 883f eb31 813f
000000b0: dae8 793f 52a4 773f 7044 8c3f 865a 6a3f
000000c0: 3035 903f 2b8d 6d3f c672 773f a21b 893f
000000d0: 90f7 6f3f d0d6 773f d463 753f 7825 763f
000000e0: add6 773f bcab 833f addc 8d3f 5ff9 863f
000000f0: 3c57 853f 8289 773f e97c 703f 3a2d 823f
1.0068748 0.9234325 0.87751114 0.96075577 1.0365851 0.9427298 0.9341891 0.9444534
0.9220612 1.0621332 1.0820148 0.93650496 1.0104005 1.0311974 0.9970853 1.0185814
0.93359804 0.92918557 1.030357 1.0458381 1.0347512 0.9341948 0.9431176 0.9730892
1.0503067 1.0976987 1.0505434 1.0610603 1.0695263 1.0747312 1.0137612 1.0563413
0.9729858 1.0265825 1.0089597 0.98757416 0.9248528 1.0669528 0.9324473 1.0243622
0.9598485 0.91459066 1.0690515 1.0093359 0.9762093 0.9673511 1.0958385 0.9154438
1.1266232 0.9279353 0.96659505 1.0711558 0.93737125 0.9681215 0.9585545 0.9615092
0.96811944 1.0286784 1.108297 1.0544852 1.0417247 0.96694195 0.939406 1.0170052

gn2.weight f4 [64]
00000000: b395 763f 36a1 6e3f f807 7b3f df91 803f
00000010: 0a8a 6e3f 23c7 693f 7593 813f 87d7 683f
00000020: 7751 793f 03eb 813f ba3a 6a3f 5a37 753f
00000030: 979a 5d3f ad6c 873f cca8 763f f923 863f
00000040: 4db4 693f 4eff 6d3f 12e2 6c3f f549 663f
00000050: b9a3 593f c3fb 743f e792 6a3f 6ea5 683f
00000060: 98fe 763f 5668 853f 4a9b 613f bc26 753f
00000070: 588b 683f 49af 583f 61b6 773f 11a7 693f
00000080: 3453 643f 2f10 843f bf4d 843f 7760 7b3f
00000090: 6826 783f a1d6 7b3f d552 5c3f 3256 763f
000000a0: edaf 773f 1c6d 7d3f 0a57 633f 4851 803f
000000b0: e198 753f 30a9 7b3f 1e07 833f 3293 773f
000000c0: 29e2 5f3f 4233 563f 25a6 6d3f 812c 7f3f
000000d0: 16ac 593f 671d 813f 6f35 773f 62c4 6d3f
000000e0: 25e4 793f a29b 743f 8070 5d3f 8d2b 6f3f
000000f0: 739e 6f3f 6117 733f 9322 703f 0484 793f
0.9632217 0.9321474 0.98059034 1.0044516 0.9317938 0.91319484 1.0123125 0.9095387
0.9738993 1.0149845 0.9149586 0.95787585 0.8656401 1.058004 0.96351314 1.0479728
0.9129074 0.9296769 0.92532456 0.899566 0.85015446 0.9569666 0.91630405 0.90877426
0.9648223 1.0422466 0.8812758 0.9576223 0.9083762 0.84642464 0.96762663 0.9127055
0.8918946 1.0317439 1.0336226 0.9819407 0.96933603 0.9837437 0.8606389 0.96225274
0.96752816 0.9899461 0.88804686 1.0024805 0.959364 0.98305035 1.0236547 0.9670898
0.8745447 0.83671963 0.9283164 0.9967728 0.8502821 1.0087098 0.9656591 0.9287778
0.97613746 0.95549977 0.86499786 0.9342583 0.9360115 0.9495755 0.93802756 0.97467065

gn2.bias f4 [64]
00000000: e876 743d 1a86 14be f329 693d 71cb 01be
00000010: e223 07be 296b d63d 3a4a 68bc 1970 dfbd
00000020: 1c48 d9bd 8aca 2d3d e0a6 843d 1525 be3d
00000030: 6d3c cf3d d130 143d 3037 f73d 6c1e 6abd
00000040: be30 023e aa43 4f3d 0be5 30be ed5a 7cbd
00000050: fc0d bd3d 99bf 5ebe cceb 8dbe 6a9a adbd
00000060: c60a 39bc a451 7cbd 5ebc 1f3d 9d85 1ebe
00000070: 5cd7 1e3d 0371 e4bd 4329 cb3d d688 253e
00000080: 72d8 3cbe e7e4 0bbe ae8a 62bd 9969 0e3e
00000090: 4992 3cbd ce86 353c dc32 28be 1fa4 233e
000000a0: 75d9 c3bd d745 123c 07b4 f5bb 4f60 53bd
000000b0: 9217 2abe 57bc d1bd a9fc c53d f816 303e
000000c0: 0391 df3d 8cf9 d33d 2e16 053e b40c 09be
000000d0: e144 06bc 6664 e5bd ecd6 cdbd 0bae 2ebd
000000e0: 434b 853d 658b 41be 47c1 8fbd 509e b7bd
000000f0: e5bb 713d 626c 893b c1ed b03d 3fc1 2dbe
0.05968371 -0.1450428 0.05692477 -0.12675263 -0.13197282 0.10469658 -0.014177853 -0.10910053
-0.10609457 0.042429484 0.064771414 0.092844166 0.10118947 0.036179367 0.12071073 -0.05715792
0.12713906 0.05060164 -0.17274873 -0.06161015 0.09231183 -0.21752776 -0.2771896 -0.08476718
-0.0112940725 -0.061601296 0.038998 -0.15480657 0.0387796 -0.11154368 0.099199794 0.1616548
-0.18441942 -0.13661538 -0.055308037 0.1390747 -0.046037946 0.011079503 -0.16425651 0.15980576
-0.09562961 0.008927784 -0.0074982676 -0.05160552 -0.16610554 -0.10241001 0.09667332 0.17196262
0.10916331 0.10350332 0.12996742 -0.13383752 -0.008195133 -0.1120079 -0.10050759 -0.04264645
0.06508496 -0.18900831 -0.070192866 -0.089657426 0.05901708 0.0041938284 0.08639098 -0.16968249

gn2.mean_scale f4 [64]
00000000: 224c 863f 9913 7c3f 4b42 7e3f 1ea9 833f
00000010: 7d69 813f fcf1 773f dc6c 823f de51 793f
00000020: ad9e 833f 3e6c 7e3f 3d17 803f 249f 7f3f
00000030: b71c 7c3f 1300 863f ca6d 703f b7c7 853f
00000040: ec19 833f 89e4 7f3f d803 763f 23d2 793f
00000050: a80c 7b3f 1861 833f 8279 7c3f caf4 7a3f
00000060: f78c 843f 01b5 7c3f a3bf 783f 49c1 823f
00000070: 39b4 7a3f ae94 7c3f f139 743f 3ae3 763f
00000080: 33e4 823f 2cb4 773f fcbe 763f d74c 873f
00000090: 6d64 7c3f 5643 813f ab8c 823f e1f9 703f
000000a0: 1eff 783f 284d 803f 1b83 773f 9a5e 6d3f
000000b0: be25 7c3f c554 763f bd82 823f 5c68 803f
000000c0: 9b06 813f d202 793f cd97 823f 58a6 803f
000000d0: e2a3 813f 9b6b 823f 5808 833f a76d 783f
000000e0: fc50 763f 8753 743f db97 803f 482b 7b3f
000000f0: 82e6 823f dd5c 7a3f 5cc5 823f 08be 873f
1.0491984 0.98467404 0.99319905 1.0285985 1.0110317 0.96853614 1.0189471 0.97390544
1.0282799 0.99383914 1.0007092 0.99852204 0.98481315 1.0468773 0.93917525 1.0451573
1.0242286 0.9995809 0.96099615 0.9758627 0.98066187 1.0264006 0.98622906 0.9802977
1.0355519 0.9871369 0.97167414 1.0215236 0.9793125 0.9866437 0.9540091 0.9644047
1.0225891 0.96759295 0.9638517 1.0570325 0.9859074 1.0098674 1.0199178 0.94131285
0.9726428 1.0023546 0.96684426 0.92722476 0.9849509 0.962231 1.0196148 1.0031848
1.0080141 0.9726993 1.0202576 1.0050764 1.0128138 1.0189089 1.0236921 0.97042316
0.9621732 0.9543995 1.0046343 0.98112917 1.0226595 0.9779795 1.0216479 1.0604868

gn3.weight f4 [64]
00000000: 7e8f 573f 758d 563f 6253 513f 44a7 6c3f
00000010: 1ba7 513f 7842 4d3f 1823 493f b8a8 5e3f
00000020: b820 613f 3ce6 723f f4a7 573f 277a 403f
00000030: 1967 3f3f 4344 633f 6156 673f a8df 563f
00000040: e211 5c3f 23cc 643f 518a 493f 01c7 623f
00000050: e8da 5e3f 5f21 433f 51e5 503f 1003 6a3f
00000060: b739 5f3f 0618 4e3f 67ce 433f 0de4 463f
00000070: 59b1 563f 4f3c 5c3f 589d 4a3f 265c 573f
00000080: f2ee 583f 6f2d 623f 2a56 5a3f 2a76 5a3f
00000090: 13f7 5e3f 9cb2 4d3f 52ff 5c3f deb5 493f
000000a0: dd5e 573f 4f4a 5f3f a248 523f 09e6 4e3f
000000b0: 65ed 443f 48a3 483f c15e 523f 2ba3 613f
000000c0: 636c 503f a10c 443f bace 593f 6991 673f
000000d0: 3bc7 603f 679e 633f 5df1 6a3f 73fe 413f
000000e0: a2bb 4f3f 5ca9 6f3f 36fe 523f e7e1 513f
000000f0: 7782 613f 4f02 513f 8119 4f3f 0ecf 663f
0.84203327 0.83809596 0.8176786 0.9244273 0.8189561 0.8017955 0.78569174 0.86976194
0.8794055 0.9488256 0.8424065 0.7518639 0.7476669 0.88776034 0.9036618 0.8393502
0.85964787 0.8937399 0.7872668 0.88584906 0.87052774 0.76222795 0.8159991 0.91410923
0.8719744 0.80505407 0.7648682 0.7769173 0.8386436 0.86029524 0.7914634 0.8412498
0.847396 0.88350576 0.85287726 0.85336554 0.87095755 0.8035066 0.8632709 0.7879313
0.84129125 0.8722276 0.8214208 0.80819756 0.76924735 0.7837415 0.82175833 0.881396
0.81415385 0.7658177 0.85081065 0.90456253 0.87804 0.8891358 0.9177454 0.75778884
0.8114568 0.93617797 0.82419145 0.81985325 0.880897 0.8164415 0.8089829 0.9015969

gn3.bias f4 [64]
00000000: 0e1f 403c b51f 77bc 05fc f1bc 7273 93bc
00000010: a74d c7bc 2c85 033b 0550 733b 2b3c c23b
00000020: 4c29 3abc 1da7 cebc bdfa 133d 140b 97bc
00000030: 3315 28bd 3984 323d 8fa9 1cbc 332f 92bd
00000040: 0026 e53a 3bb8 5bbc 8c26 43ba 736b 90bb
00000050: c69d 8a3c 319d febc 3369 2b3d 1f09 903d
00000060: 22f3 13bd e893 bebc ef98 203d 708d b6bc
00000070: 9525 ff3c 4a9f c8bc 81be 4ebd 6abf 41bd
00000080: 388d 943d 3e0d 5a3d 26c4 06bd bfaf 0a3c
00000090: 4637 9a3c b5d8 8abb 403f bdbc 1004 9ab8
000000a0: d382 e8bc 2ca6 39ba b54b 1ebd a742 26bb
000000b0: f813 3b3d db7b c13d 76a9 f3bc 5bed b93b
000000c0: c343 cd3b 063d 3bba b0c4 26bd e208 1c3d
000000d0: d230 163d ccef 243d 6ab7 c23d b153 993a
000000e0: e898 2e3c 46d8 133d fff0 47bd b4c1 cabc
000000f0: 27f7 9b3b 7277 873b 5cad ca3c 2cf0 fdba
0.011726154 -0.015083243 -0.029539118 -0.017999385 -0.02432902 0.002006839 0.0037126553 0.0059275827
-0.011362385 -0.02522617 0.036127795 -0.0184379 -0.041035842 0.04358313 -0.00956191 -0.07137909
0.0017482638 -0.013410623 -0.00074444036 -0.00440734 0.016920935 -0.031080814 0.041848373 0.0703299
-0.03612054 -0.023263887 0.03920835 -0.02228424 0.03114585 -0.024490017 -0.050474647 -0.047301687
0.07253498 0.053235285 -0.032901905 0.008464753 0.018825185 -0.0042372593 -0.023101449 -7.344049e-05
-0.028382694 -0.00070819515 -0.03864642 -0.0025369318 0.04567334 0.09447452 -0.029743891 0.005674047
0.0062641813 -0.0007142577 -0.04071492 0.03809441 0.036667652 0.04026775 0.0950764 0.0011697916
0.010656573 0.036094926 -0.048813816 -0.024750568 0.0047596875 0.004134112 0.024740867 -0.0019373945

gn3.mean_scale f4 [64]
00000000: b355 7a3f 03ba 813f e060 823f 79cc 843f
00000010: f77e 7a3f ca2c 7e3f 6025 7f3f efa5 7d3f
00000020: 75b5 7a3f bd4b 843f 1da5 7c3f c815 7f3f
00000030: 340c 7f3f 29a9 823f 089e 843f 8e3e 813f
00000040: 2c8d 7d3f 8626 7a3f ed45 7e3f 187b 793f
00000050: d5af 843f 01e2 7f3f 79a0 7e3f db92 783f
00000060: 2edb 7b3f 125b 7b3f eadd 7c3f f6d8 803f
00000070: dc6b 7b3f b3f0 823f aee7 7d3f fd62 7d3f
00000080: 140c 813f 6710 793f 7b66 823f 439f 833f
00000090: 4c18 7b3f 56a8 803f 357a 7e3f 657a 7c3f
000000a0: 0931 7b3f 4f4c 7f3f 1d48 7d3f 7007 7d3f
000000b0: 7aa5 7c3f 08e7 7a3f 024d 803f b73a 833f
000000c0: cc98 7a3f a745 7e3f 773f 793f 0e38 843f
000000d0: 16fa 813f 618f 7a3f 9d4e 7b3f 4d4f 7c3f
000000e0: 2359 7c3f a2f5 833f 2132 7e3f 9f4d 813f
000000f0: 3d1f 823f a7f0 803f 2db9 7e3f eb8a 833f
0.97787017 1.0134891 1.0185814 1.03749 0.9784998 0.9928709 0.99666405 0.9908132
0.9793313 1.0335613 0.9868944 0.9964261 0.99627995 1.0207874 1.0360727 1.0097215
0.99043536 0.9771503 0.9932545 0.9745345 1.036616 0.9995423 0.9946361 0.97099084
0.98381317 0.9818584 0.98776114 1.0066211 0.98211455 1.0229706 0.9918164 0.9897917
1.0081811 0.97290653 1.0187525 1.0282978 0.9808395 1.0051372 0.99405223 0.9862426
0.98121697 0.9972581 0.9893816 0.98839474 0.9869 0.98008776 1.0023501 1.0252293
0.978894 0.9932503 0.97362465 1.0329607 1.0154445 0.9787503 0.9816683 0.98558503
0.9857351 1.0309336 0.9929524 1.0101813 1.0165783 1.0073441 0.99501306 1.0276769

bn0.weight f4 [70]
00000000: 68bf 033f 5842 193f 74f1 433f 93b1 393f
00000010: fc91 053f e6f9 3d3f 7e6d 473f 35cb 1e3f
00000020: c3c8 4e3f ea9b 4f3f 3624 353f 3db8 033f
00000030: 3293 e23e c6b8 263f 5fc7 353f d50a 113f
00000040: c733 313f 2fc7 293f 5b15 133f 8c79 2e3f
00000050: aa00 223f caa5 233f 09c3 173f 853c 093f
00000060: 60a7 313f ae28 3a3f 4b77 2c3f 78e8 2a3f
00000070: fd82 323f b3cd 373f 4edf 0a3f 190b 383f
00000080: 2a39 fb3e 846b 123f 47ff fd3e 7c4c 1c3f
00000090: 8e18 273f de06 1b3f 2216 253f c0bf 253f
000000a0: 9f9e 223f 2614 1b3f cd54 413f d765 1b3f
000000b0: c1cb ee3e 9241 223f fcc9 2f3f a9a3 383f
000000c0: dde3 3f3f 5b1a 2f3f 450e 053f ea03 3e3f
000000d0: c617 263f 0bd3 093f 8dfe 1b3f 0660 173f
000000e0: ebb5 1b3f e1f5 383f 8828 253f aa6c 243f
000000f0: 4db2 133f 98df 023f fa6a 223f 9b5a 2f3f
00000100: 7f2d b33f 053f af3f 30b7 af3f 9cf2 a73f
00000110: 19bd 9e3f 4207 a33f
0.5146394 0.5986686 0.76540303 0.7253658 0.5217588 0.7420944 0.77901447 0.6202882
0.8077509 0.8109728 0.7075838 0.51453 0.44252926 0.6512569 0.7100734 0.56657153
0.6921963 0.66319555 0.5745446 0.68154216 0.63282263 0.6392485 0.59281975 0.5360797
0.6939602 0.7271832 0.67369527 0.6676097 0.6973112 0.7179825 0.54246986 0.71891934
0.4906705 0.57195306 0.49608824 0.61054206 0.6527184 0.60557353 0.64486897 0.6474571
0.63523287 0.6057762 0.7552002 0.6070227 0.46639827 0.633813 0.6866758 0.72124726
0.74957067 0.6839959 0.519749 0.7422472 0.64880025 0.5383765 0.6093529 0.59130895
0.6082446 0.7225018 0.6451497 0.6422831 0.5769394 0.51122427 0.63444483 0.6849763
1.3998259 1.3691107 1.3727779 1.3120914 1.2401458 1.273659

bn0.bias f4 [70]
00000000: 0089 db3c 8c23 dfbd 4e7a 633e 2dab 17be
00000010: 86ce 163d 46df 7abd d1b4 b639 ba08 3a3d
00000020: a1a1 ce3d 18b8 45bd 232b 1dbd 5048 ca3d
00000030: 4c5f 3ebe 46f3 1fbd 2378 383e 68d4 aabd
00000040: 6cbf 44bd e79e 8d3c e310 54bc b79e 5a3d
00000050: 8b12 fdbb 0ff5 723d 6be4 8cbd b1b8 103e
00000060: dc88 3fbd 8f6a d0bd ce56 49be bb85 f93c
00000070: 92f8 d13c d7ab 873d 73ea dcbd ce1d 08be
00000080: b4b5 2a3d 2200 5bbe a1cf 2c3e cf3e 17be
00000090: 7124 44bd 55e6 82bd be61 39be a6c8 2bbe
000000a0: 0504 33bd decb a23c e21d 00be 69ce 57be
000000b0: cfa2 b03d 8a00 683d bffb c7bd 82b8 a33c
000000c0: 4cdb 4b3e 9ab5 04be cf58 5cbc b29a d33d
000000d0: 7f0a 1abc fb43 ef3d f056 15be 4e52 c03d
000000e0: 0614 ce3c 904b ff3d 7acf 68bd e5cf b53d
000000f0: c3e3 d9ba 546b 0d3e 683d 2abc e5f7 6d3e
00000100: b730 28bd cbb4 77bd b50b 9f3b f42d d5bc
00000110: 2248 68bd a7d7 15be
0.026798725 -0.10895452 0.22214624 -0.14811392 0.03681805 -0.061248086 0.00034848464 0.04541848
0.10089422 -0.04827127 -0.038371217 0.09877074 -0.1859104 -0.039050363 0.18014579 -0.083412945
-0.048034117 0.017287685 -0.012943479 0.05337402 -0.0077231578 0.059315737 -0.06879505 0.14132954
-0.04676138 -0.101765744 -0.1966202 0.030459275 0.025631223 0.06624573 -0.10786905 -0.1329262
0.04167719 -0.2138677 0.16876079 -0.14770053 -0.047886316 -0.063915886 -0.18103692 -0.1677576
-0.043705005 0.019872602 -0.125114 -0.21074833 0.08624803 0.05664114 -0.09764814 0.019985441
0.19907874 -0.129599 -0.013448908 0.1033224 -0.0094019165 0.11682888 -0.14583945 0.093906984
0.025156032 0.12465584 -0.05683849 0.08877543 -0.0016623664 0.13810474 -0.010390617 0.23239096
-0.041062083 -0.060475152 0.0048536905 -0.026022889 -0.056709416 -0.14633046

bn0.running_mean f4 [70]
00000000: 7190 13bd a274 eabb b438 633e 1659 40bd
00000010: c954 213e 0095 503e 27e8 06be cd5b f8bd
00000020: 6797 f33c 5b53 cb3d d6c2 293d 064b d1be
00000030: 21c0 fe3c 2bd1 9cbe c073 8f3e 8aad 2b3e
00000040: 030e de3d 02b1 14be 557d b2be 6650 643e
00000050: 00f7 fdbd b4bc 0bbd ae98 f2be 525c 54be
00000060: 71cf 89bd cb02 893e 30cf adba 0179 203e
00000070: bcb5 35be ee98 923e c13f 5c3e 5048 173e
00000080: c7e4 97be e2b1 9abe c4ab 363e 0cb7 4dbe
00000090: 39c3 4fbe 5aea 613c 91e4 2cbd 5bce 8f3e
000000a0: 4ec4 3bbb f65c 92bc e44a 063f fa37 98be
000000b0: ca50 05be 6881 e3be e7dc d03d aac6 8b3c
000000c0: 3677 783e 8e1e c8bd 76f5 2d3e e865 993d
000000d0: 8761 8bbc 5f0b 72bd 3bbc eabd b898 f43c
000000e0: 028d 343e fe9f a4be 0407 17bd 049f 213e
000000f0: d1c9 e33d 27c8 c23d 7490 93bc fcb3 75bd
00000100: 18f6 7340 3ddd 883f c1a7 8342 1c14 1043
00000110: f4a7 0c43 9ae7 d342
-0.036026422 -0.007155017 0.221896 -0.04695996 0.15754999 0.20369339 -0.13174497 -0.121268846
0.02973528 0.09928008 0.041445576 -0.4087755 0.031097474 -0.30628332 0.28017998 0.16765419
0.10842516 -0.14520648 -0.34861246 0.22296295 -0.12400627 -0.03411551 -0.4738211 -0.20738342
-0.067290194 0.26759943 -0.0013260599 0.1567116 -0.17745107 0.286323 0.21508695 0.14773679
-0.2966673 -0.3021384 0.17838961 -0.20089358 -0.20289315 0.013788784 -0.042210165 0.28087124
-0.0028650942 -0.017866593 0.52458024 -0.29730207 -0.130191 -0.44434667 0.10198384 0.017062504
0.24264225 -0.09771453 0.16988167 0.0749014 -0.017014278 -0.059092876 -0.11461683 0.029857978
0.17631915 -0.32153314 -0.036871925 0.15783316 0.11122478 0.09510832 -0.018013217 -0.0599861
3.8118954 1.0692517 65.827644 144.07855 140.65607 105.95235

bn0.running_var f4 [70]
00000000: 6cae 4c3a cd56 863a 9b23 973b a857 913a
00000010: a6ce 5939 e43b b83a d8bc 153b 66d9 2b3a
00000020: 67e9 f83a e4d7 b13a 3e79 033b 2d5c 103a
00000030: 5331 f737 d576 7b3a e78e e23a 0174 f039
00000040: 953d b73a 1603 4f3a b088 e639 e12b 283a
00000050: d93f f039 5d71 5e3a c4c7 023a deb9 a839
00000060: 1579 4c3a eb25 e93a bebd 513a fcf9 1c3a
00000070: b81d a93a dabc a83a 95a2 bd39 4b7f 7c3a
00000080: 4bc6 2539 bd61 023a e184 4439 06e7 8b3a
00000090: 0c47 6f3a 696a 5b3a 9477 693a 3c08 9f3a
000000a0: b2fe e439 ffcb 803a e0ea c43a 7555 893a
000000b0: 3e46 cd38 158a f139 5517 083b c3e3 d73a
000000c0: 918b b53b a2d5 7b3a 23b0 bb39 8459 923a
000000d0: d2dc 423a 1931 8539 e46d bc39 4d87 9b39
000000e0: 699c 183a ecb3 553a ce8f ca3a 877a f139
000000f0: 7cd0 de39 aa39 6239 cae5 7e3a a3e3 013b
00000100: 894b 2c40 654f 0d3f 4a91 ef44 d927 a245
00000110: 4fe5 8845 487b 2645
0.00078079733 0.0010249257 0.004612399 0.0011088746 0.00020771715 0.0014055935 0.0022848155 0.0006555527
0.0018990458 0.0013568369 0.002006128 0.00055068993 2.9467663e-05 0.00095925975 0.001728502 0.00045862797
0.0013980145 0.0007896883 0.0004397086 0.000641523 0.00045823937 0.00084855204 0.0004988874 0.0003218194
0.0007800025 0.001778779 0.0008000991 0.00059881783 0.0012902534 0.0012873665 0.00036170022 0.0009632005
0.00015809496 0.00049736706 0.00018741518 0.0010673709 0.0009127713 0.00083700434 0.0008906063 0.0012133191
0.00043677312 0.000982642 0.0015023611 0.0010477739 9.7882454e-05 0.0004606998 0.002076586 0.0016471077
0.0055403193 0.0009606724 0.00035798652 0.0011165594 0.00074334175 0.00025404317 0.0003594003 0.0002966471
0.0005821647 0.00081521156 0.0015454234 0.00046058392 0.00042498473 0.00021574521 0.00097235723 0.001981952
2.6921103 0.5519927 1916.5403 5188.981 4380.6636 2663.705

bn1.weight f4 [64]
00000000: 2706 823f 0782 733f 29ee 623f 9953 6a3f
00000010: a751 7d3f c078 693f 53ff 593f 02d6 813f
00000020: 56f6 693f 5a0d 833f df37 7d3f 9685 713f
00000030: 706b 843f c01d 853f b9da 7a3f 9d5c 793f
00000040: 39df 663f b26b 583f abfc 733f 4339 713f
00000050: 8b1a 773f 67c0 823f 2b00 863f 1122 7e3f
00000060: ac25 733f 9bd6 6b3f 48c1 753f 5dea 723f
00000070: a634 783f 4c3d 5f3f 08d4 6b3f 2bce 793f
00000080: 2c71 813f 6f15 893f 6c76 5d3f 9b43 8c3f
00000090: 728e 5e3f 18a6 7b3f 7a6a 633f 1b78 8b3f
000000a0: 6e8c 683f 4280 7e3f d648 583f 3116 7d3f
000000b0: 5f04 753f ea7f 803f 2863 7e3f a511 823f
000000c0: 4272 5d3f a426 883f 1c77 5f3f ba58 8a3f
000000d0: fce5 833f d2c7 773f f12e 583f 4390 873f
000000e0: be76 a13f 75a2 553f 99db 6e3f faf1 7a3f
000000f0: 81d5 6b3f dc61 803f 400d 5e3f f90f 7e3f
1.0158128 0.9512028 0.88644654 0.9153381 0.98952717 0.91199875 0.8515522 1.0143435
0.91391504 1.023845 0.9891338 0.9434446 1.0345287 1.0399704 0.97989994 0.9740694
0.9018436 0.8453933 0.95307416 0.94228 0.96524876 1.0214967 1.0468801 0.9927073
0.9497936 0.92124337 0.9599805 0.9488886 0.96955335 0.87202907 0.9212041 0.9758021
1.0112662 1.0709666 0.8650882 1.0958132 0.86936104 0.98300314 0.88834345 1.0896028
0.9083928 0.99414456 0.8448614 0.98861986 0.95709795 1.0039036 0.9937005 1.0161635
0.8650247 1.0636792 0.8729112 1.0808327 1.0304561 0.96789277 0.84446627 1.05909
1.2614362 0.83451015 0.9330383 0.98025477 0.92122656 1.0029864 0.8673897 0.9924312

bn1.bias f4 [64]
00000000: 6e6c 03be 114f 8ebd 4b49 023e 842f 4fbe
00000010: 26f2 2d3d bc8f a4bc 45c6 a23c 1141 e9bd
00000020: 4f16 b0be 7511 623d e791 413e 15c0 53bb
00000030: 5e81 c8bc 6c7a d83e cb8d 8fbc 7da8 823d
00000040: d5b7 693d 16df 593e ed5d a6be c673 6fbd
00000050: 6509 883c 48bb d1bb 360f 82bc 944a 4dbe
00000060: 1053 523d c1f6 05bc 6540 96bd 3227 6bbe
00000070: 5304 6cbe f79c ba3d c7d6 263e 1c31 8f3e
00000080: 8f6f d9bd 1a91 1fbe dd32 58bb 99de 59be
00000090: b64f 1d3e 9f23 1abe e8ba a2bd 348b 46be
000000a0: 9298 04bd 0aa0 65be 5614 ee3e 740f c7bd
000000b0: 597f cfbd c5d4 95bd ddd4 48be e9b0 3e3e
000000c0: a508 823d 671d a6bd e8f1 bf3d c689 26be
000000d0: dbf1 a53b 0937 47be be25 8d3e 54a1 aabd
000000e0: 3427 c13d 0e52 823e 6313 a3be 8519 be3d
000000f0: e511 2dbb da36 9d3e 8e4f 253d be7d a6be
-0.12834331 -0.069486745 0.12723272 -0.2023297 0.04246726 -0.02008807 0.019869933 -0.113893636
-0.3439202 0.05519243 0.18903314 -0.0032310535 -0.02447575 0.422809 -0.017523667 0.06379793
0.05706008 0.21276507 -0.32493535 -0.05846002 0.016606042 -0.0064004995 -0.015876394 -0.2004798
0.051348746 -0.0081765065 -0.07336501 -0.2296417 -0.23048525 0.0911197 0.16292869 0.27967155
-0.10616981 -0.15582696 -0.0032989301 -0.2127632 0.15362439 -0.15052651 -0.07945806 -0.1938904
-0.032372065 -0.22424331 0.4649989 -0.09719744 -0.101317115 -0.07315973 -0.19612451 0.18622173
0.06349305 -0.08111077 0.09372312 -0.16263494 0.005064232 -0.19454588 0.27567858 -0.08331552
0.094313055 0.25453228 -0.31850728 0.09282211 -0.002640837 0.3070591 0.040359072 -0.3251781

bn1.running_mean f4 [64]
00000000: e4a5 ee3e 4d7b dc3e 5211 b63e 0c1b 8d3e
00000010: 1ff3 a73e 54f3 9a3e aa9a b23e 625f b83e
00000020: 5678 d23e 352c 983e ade8 793e c23b ea3e
00000030: b602 dc3e 74cf e33e e2b3 9b3e 2d3b 453e
00000040: 1b42 b03e 686a cf3e 9282 903e 8857 003f
00000050: 14d2 b83e 3fb2 b33e 0ee6 003f 050e 983e
00000060: 762b 353e 5dd7 b43e 3567 003f 4bff 703e
00000070: 4072 b93e 9b52 833e 6d3c b33e e2c3 c63e
00000080: 9b37 a03e 6658 e23e 787f b93e b2cb a13e
00000090: d1ab 063f bd3d e63e 97cd a23e 3148 4c3e
000000a0: 177f f43e fe0a d93e 5817 963e 5ecd 0d3f
000000b0: f550 b53e 1b78 ac3e 8a60 e63e 8a2f be3e
000000c0: 728d 983d 1de9 c33e 7a4a 833e 9655 9b3e
000000d0: fd37 fa3e c009 a13e 8c8b b73e 3476 e13e
000000e0: 039c 4c3e b73d 9a3e 11c7 893e 7fb0 aa3e
000000f0: 2cda af3e be48 ee3e 4957 573e 30e3 f73e
0.4661094 0.4306282 0.3556009 0.27559698 0.32802674 0.3026377 0.34883624 0.3601027
0.41107434 0.29721227 0.24405165 0.45748717 0.42970818 0.44494212 0.30410677 0.19260855
0.34425434 0.4051087 0.28224617 0.5013356 0.36097777 0.35096928 0.50351036 0.29698196
0.1769236 0.3532056 0.5015748 0.23534887 0.36219978 0.2564896 0.3500704 0.38821322
0.31292424 0.44208068 0.36230063 0.3160072 0.5260592 0.44968978 0.31797478 0.19949414
0.47753212 0.423912 0.29314685 0.5539149 0.35413328 0.33685383 0.44995528 0.37145644
0.074488536 0.3826379 0.2564276 0.30338734 0.4887084 0.3145275 0.35848653 0.44035494
0.19981389 0.3012521 0.26909688 0.3333778 0.3434614 0.46539873 0.2102939 0.48415518

bn1.running_var f4 [64]
00000000: e67d 9a3e 984c 743e 66b8 7a3e 32cf 063e
00000010: bcf9 273e 4477 3f3e 9cd9 4a3e 455d ab3d
00000020: e9de 9c3e b5eb 3f3e 22e5 593e e113 913e
00000030: 88cb a83e 9390 6d3e e8ca 243e 30dc 6e3e
00000040: 0453 803e 4797 6a3e 0fdb 7b3e 2d50 733e
00000050: acf0 763e 1e87 513e 8171 9d3e 473b 023e
00000060: bac5 fb3d 9016 873e b928 9c3e 8339 0d3e
00000070: 0d6c 643e d812 0c3e ce43 af3e db50 3a3e
00000080: 3fc8 2b3e e7e6 2c3e 98a9 5c3e 51e5 783e
00000090: b34a 8b3e fef3 953e cf9e 6b3e 1dd4 363d
000000a0: 9846 b33e 86d5 703e 0fe3 2c3e 1fad b73e
000000b0: 04de 343e 0d9e 1c3e 5ce1 933e ee3a e43d
000000c0: 3be2 333d 1f36 f33d 755a 3c3e 9e11 603e
000000d0: 1a32 893e 48f3 173e 9921 833e c478 3c3e
000000e0: 303d ab3d 51ba 233e 09e1 183e 05cb 7c3e
000000f0: e3e5 363e 6a7c 113e 5a7c 313e cd38 ab3e
0.30174178 0.23857343 0.24484405 0.13164976 0.1640386 0.1869784 0.19809574 0.08367399
0.30638817 0.18742259 0.21278813 0.2833548 0.32967782 0.23199682 0.16093028 0.23326182
0.25063336 0.2290927 0.24595283 0.23761053 0.24115247 0.204617 0.3075066 0.12717925
0.12293573 0.263844 0.3049982 0.1379147 0.22306843 0.13679063 0.34231418 0.18194906
0.16775607 0.16884957 0.2154907 0.24306227 0.27205428 0.29287714 0.230098 0.04463588
0.35014796 0.23518953 0.16883491 0.35874268 0.17662817 0.15294667 0.28882873 0.111440524
0.043916922 0.11875557 0.18393882 0.2188172 0.26796037 0.14838898 0.2561157 0.18405443
0.0836128 0.15989043 0.14929594 0.24686821 0.17861132 0.14207616 0.17332593 0.33441773

bn2.weight f4 [64]
00000000: fe8c 823f bf45 753f 367b 753f d46c 5f3f
00000010: 75c6 7c3f 1b8b 833f dfea 763f 377c 773f
00000020: a582 843f 56c7 803f 5aa5 893f 6da1 783f
00000030: 4b66 7d3f a883 773f 7068 783f 400d 773f
00000040: 66d0 823f 9c96 7e3f 7374 833f e1f0 7d3f
00000050: 28df 833f 5b99 833f 1f4b 6e3f 66cc 703f
00000060: fce7 6d3f 112e 783f 1b6b 3e3f c4c2 953f
00000070: eb63 813f 9a40 873f 8fe9 7a3f bcf5 673f
00000080: 2f96 803f b373 743f 2f3f 663f 5f37 3d3f
00000090: f279 5d3f 9805 7f3f f8b4 6a3f 401a 7f3f
000000a0: b0c1 6f3f acaf 773f 945f 793f b049 813f
000000b0: 25e1 7e3f a9c7 703f ba04 793f 2f8d 463f
000000c0: 7dd8 6e3f 880b 8d3f 6cda 773f a828 863f
000000d0: 66f6 6d3f 43c2 7f3f f706 3e3f e2f3 833f
000000e0: c803 773f 7652 843f 5488 703f 9a04 703f
000000f0: 16c0 493f 6831 823f a5d0 313f 6a0e 733f
1.0199277 0.9580955 0.9589113 0.87275434 0.9874032 1.0276827 0.96452135 0.9667391
1.035237 1.0060833 1.0753586 0.97121316 0.9898421 0.96685266 0.9703436 0.9650459
1.0219848 0.9944856 1.0269912 0.9919568 1.0302477 1.0281175 0.93083376 0.9406189
0.92932105 0.9694529 0.7438218 1.1700063 1.0108618 1.056659 0.9801263 0.90609336
1.0045832 0.95489043 0.8994016 0.73912615 0.865142 0.9961791 0.91682386 0.9964943
0.9365492 0.9675243 0.97411466 1.0100613 0.99562293 0.9405466 0.9727284 0.7755918
0.93299085 1.1019144 0.9681766 1.0481157 0.929541 0.99905795 0.7422938 1.0308802
0.96490145 1.0337665 0.9395802 0.9375702 0.78808725 1.0171328 0.6945899 0.9494387

bn2.bias f4 [64]
00000000: aa51 d03c 3a2d c53c 0727 a43c a487 173d
00000010: c766 563d e0f5 bf3c 8e5a 063d cf76 803d
00000020: 9fea 9f3c 43fe 6a3c 3d15 713c 9d0a d43c
00000030: 9bce 543d 5587 d83b eb64 e03b 34ec 183d
00000040: 3b7f 023d ddce 6f3c 7ae0 d33c fb8c 9f3c
00000050: 2b1f ce3c 0ce4 e83c be36 f13c 9519 b93c
00000060: 97f7 9c3d d1ed 223d b651 1a3e f207 b53b
00000070: 3800 aa3b ce81 6e3c 57b1 e43c 08df 9f3d
00000080: f028 dc3c 6746 033d 9885 913d 0fec 663e
00000090: 2cff dc3d 287d 243c 1636 713d e590 5a3c
000000a0: 9f22 b23c e4f4 853b 7213 d63c 268d fb3c
000000b0: 50d8 1b3d 567e 3d3c 6494 b43b a148 c03d
000000c0: ad28 d43c 632e 383c 5050 e03c 2fd2 c33c
000000d0: 11a5 193d ed8c c83c edc8 073e f058 a73c
000000e0: 16f0 303d 1135 303d 2485 e63c 9ce0 923d
000000f0: 7286 293e a169 743c b4c9 af3d 5fb6 753c
0.025429565 0.024069417 0.020038141 0.03699459 0.05234411 0.023432672 0.032801203 0.06272661
0.019521056 0.014342847 0.014714536 0.025883967 0.051954847 0.0066079297 0.006847968 0.037334636
0.031859618 0.014636722 0.025863875 0.019476404 0.025161346 0.028429054 0.029445048 0.022595206
0.076644115 0.03977758 0.15070233 0.005524629 0.0051880144 0.014557315 0.027916593 0.07806212
0.02687499 0.032049563 0.07105559 0.22550987 0.10790858 0.010039605 0.05888947 0.01334021
0.021745024 0.004088031 0.02613232 0.030706953 0.03804809 0.011565765 0.0055108536 0.09388853
0.025898302 0.011241528 0.027382046 0.023903934 0.037510935 0.024481261 0.13260241 0.02042815
0.043197714 0.043019358 0.028139658 0.07171747 0.16555193 0.014917762 0.08583394 0.014997094

bn2.running_mean f4 [64]
00000000: 97b4 bf3e 1b99 1e3e e23c 073f efe7 023f
00000010: 74a6 343f 92e5 e83e 322c f93e a88f 533e
00000020: 04de 8f3e 2889 cd3e fcb8 7e3d 5b81 333f
00000030: 5cb9 cf3e a35b 0f3f 16cb 383e e805 ab3e
00000040: 84dc d13e 84b1 543e 956d e03e 10ff 7b3e
00000050: bf97 8f3e 59c5 6b3e e9c3 2f3e af4f 883e
00000060: 3001 933e 4afc 883e ed8b a03e ac9a a63d
00000070: 643b cc3e ec8c 8f3d 5680 0d3f ff76 bf3e
00000080: b087 f53d 56c7 cf3e d692 393e 2350 db3e
00000090: f699 073f 4c6e f13e 7e5d a53e bcb5 5e3e
000000a0: 1c2f ba3e 0d58 af3e 76a6 913e 1bc2 173e
000000b0: 7383 003e 2730 173f 78fe f43e 278a 563e
000000c0: c968 d93e cb8e 483e d5c4 013f adf3 553e
000000d0: 1297 e73e 64dd 813e e253 8f3e 20e7 753e
000000e0: b2c8 673e 21b0 e13e 1540 433e c146 c03e
000000f0: 7fa0 853e df4c c73d c905 8b3e 1263 f33e
0.37442467 0.15488093 0.52827275 0.5113515 0.7056649 0.45487648 0.4866653 0.2066027
0.28099072 0.40143704 0.062188134 0.70119256 0.40571105 0.559992 0.18046221 0.33402944
0.40988553 0.20770842 0.43833604 0.24609017 0.2804546 0.23024501 0.17164578 0.26623294
0.28711843 0.2675498 0.31356755 0.0813497 0.3988906 0.070093006 0.5527395 0.37395474
0.11988771 0.4058177 0.1812242 0.42834577 0.529693 0.47154462 0.3229789 0.21749014
0.36364067 0.34246865 0.28447312 0.14820139 0.12550144 0.5905785 0.47850394 0.20951138
0.42462757 0.19585721 0.50690967 0.20893736 0.45232445 0.2536422 0.27993685 0.24013948
0.22635153 0.44079688 0.19067414 0.3755398 0.2609901 0.09731459 0.2715285 0.47536522

bn2.running_var f4 [64]
00000000: 7f22 2a3f e1d1 573e dfdd 7f3f c50b 4a3f
00000010: 9714 0040 4bd9 033f c3c6 2b3f 9e0e c23e
00000020: ef32 d23e 4b4e 673f c163 5f3d 1cbf d53f
00000030: dbae 6a3f bad7 8a3f aca8 373e c4ef 1a3f
00000040: bc12 843f 095f 6d3e 75a0 9a3f 94da 9a3e
00000050: d967 0b3f e193 273e 184a 443e 2ddd a83e
00000060: 6e3b 8a3e 285b fb3e 7846 e83e eae2 783d
00000070: 83cc 343f 8545 003d 1c45 9a3f 6223 113f
00000080: 4d38 1f3e d2ae 313f 78a9 113e db70 6e3f
00000090: 1002 7e3f f4cb 2f3f 1531 f43e 1d3a b93e
000000a0: 7b40 f13e 84f7 163f e3d5 db3e df42 343e
000000b0: 9699 4a3e 895f 423f be46 8c3f 384a 0c3e
000000c0: 93f0 6a3f 4b1e b33e 9217 a03f bc8b 9b3e
000000d0: cda5 f73e 5d14 bf3e b531 bd3e d976 c93e
000000e0: a5c0 b23e cd4e 903f 5187 623e e3bd fa3e
000000f0: e8d4 a13e 809c fd3d 0b0d be3e ad54 613f
0.66458887 0.21076156 0.99947923 0.7892421 2.0012567 0.5150344 0.6710016 0.37901777
0.41054484 0.9035384 0.054538492 1.6698947 0.9167306 1.0847085 0.17935437 0.60522103
1.0318217 0.23180784 1.2080218 0.30244887 0.54455334 0.16365005 0.1916889 0.32981244
0.26998466 0.49092984 0.45366263 0.060763277 0.7062456 0.0313163 1.205234 0.56694615
0.15548821 0.6940738 0.14224803 0.93140954 0.992219 0.6867058 0.47693697 0.3617715
0.47119507 0.5897143 0.4293662 0.17603634 0.19785151 0.75927025 1.0959089 0.13700187
0.9177334 0.3498405 1.2507193 0.30380046 0.48368683 0.37320223 0.36951986 0.39348486
0.349126 1.1274048 0.22121932 0.48972997 0.31607747 0.12383366 0.37119326 0.8801983

conv1.mlp.0.weight f4 [64, 18]
00000000: 83af 3e3e c7e7 58bd 0418 9dbb 8265 4d3d
00000010: b620 b33d 1cc2 3dbd 3e82 1e3d f291 91be
00000020: 8765 46bd d219 813e 9741 9fbd 9cf3 fcbc
00000030: fb13 32bd 07a7 e7bd dfe9 113e 8203 b8be
00000040: 7249 8f3e 7a0d 89bd 10fa 873e 8840 ef3c
00000050: 8387 153d d749 8a3d 6ec5 d03c 5ff3 1e3e
00000060: 9b22 703e b00f 2d3d 6cae 41be e386 eb3d
00000070: 7c49 8b3c 6188 933a e5b0 683c 92d7 083e
00000080: e24a 1f3e a827 983d 66d6 353e b8b8 673c
00000090: 1dfb 6bbe e38c 073c d47e cb37 e5fb e6bd
000000a0: 5889 a43b 6e13 bcbc 2750 c43d 02e0 293e
000000b0: 8bb4 c33d d9da 00be 0a73 a93b 32b1 303c
000000c0: 1f41 573e c0b4 7dbc a8e7 113e d393 fb3d
000000d0: 18aa 723d 6951 f7bd 1972 acbd 76b1 40bc
000000e0: c4e8 b23d 19ec b4ba ce7f f83e 3d1b f03d
000000f0: c151 1a3e 3842 28bc a8e0 88bb 2b79 edbd
00000100: c563 8abb 4ec0 193d 98ba 873b f07e e23d
00000110: a141 26bc a652 6d3d e709 093c cf24 08bd
00000120: e83e 8f3e 1ac9 703c f969 84bd 7d1e 833c
00000130: c7f9 303e faf6 653e 724c 043d e388 663e
00000140: a628 72be c3f8 2b3e d7a8 ae3d 1709 11bd
00000150: e887 50bd 9978 043e f788 f63d 3f9a c1bd
00000160: 31f8 573e 5a25 823d 3d15 64be 20f7 28be
00000170: 3b95 0ebf b97d 113d a6ce 00be 88b7 9e3d
00000180: 1ce1 aebd 4ff6 efbd 8bd2 803d 93d3 fcbc
00000190: d30d 8e3c a220 393d d49e 0e3c 01ee 35bd
000001a0: 6cd7 023d 6e67 bf3d df12 5c3d af6e 033e
000001b0: 3dda 2bbe 3f20 2e3f dcca cebc b522 e0bc
000001c0: 89f3 d3bc 2dae bb3c 9920 52bd 4108 f4bc
000001d0: 1a3d 9c3c 4249 f93b 277f cbbb e408 e2bb
000001e0: 2d9f debb 02a0 94bc 7540 16bc 59f9 e93c
000001f0: 104b cf3c 514a 2f3d 138e 8fbe cbb2 8f3d
00000200: 19c7 11bd 85d8 6fbe 851d 97bd 2ff7 08be
00000210: 77a2 ca3c 3502 27bd 9786 05be 68dd 083d
00000220: 1161 2abd 428e 943c ba80 9f3e 64dd 93bd
00000230: 1cf4 3d3d 5d1f 35be 7701 8dbd 8304 26be
00000240: 1c26 24be a6f2 5abf 796d 0e3d e3b3 57bd
00000250: b799 06be a1af 8b3d 3db5 a63d 421f 903d
00000260: 21fa df3a 4c3a 393d c3f5 533b cdbc 65bc
00000270: 801d b3bc c168 7bbd d375 12bc 914c 543d
00000280: 4889 cb3c c4fa 963c 8fea a3bd efd3 db3e
00000290: d59c 70bd 90d3 7e3b 00b1 d33e 932e 9a3d
000002a0: 1349 263d f9cd 173d a51a 463d bfd6 0dba
000002b0: 1266 223d ec4a aebc a73d 55bc e139 fe3c
000002c0: 7b61 7bbd 7988 f83b 9e09 68bd b6fd 0f3c
000002d0: b947 d5bd 74bf 21bd 3ac1 4abd d4c6 ba3c
000002e0: 9c45 bf3e 2513 16bf f27c 59be a25c f6bd
000002f0: 4490 22be fe4d d9bc 00d9 91bb 5b11 08bc
00000300: 384c 893c cbe2 883d 8656 3c3c 7d16 1f3e
00000310: b914 9f3d 4581 9f3d 0fe4 7e3e e4b2 25bd
00000320: fb29 c2bc 41c9 adba b506 42bd f46c 3fbe
00000330: 64de 2fbe 8980 10bd 8fac 333e a303 813e
00000340: 14e9 2bbd 41f6 e03b 7028 843c 4ff4 1cbd
00000350: e4ff 6fbd 12e5 85be 6f47 2c3e 7330 6f3e
00000360: d9db 9a3d 53ff f2bb f17b 8fbb 9b52 863d
00000370: 6839 3ebf 38f7 883d 2934 fa3d 1de1 023e
00000380: b9c7 923d 4cff 1f3d a492 b2bc ce60 fdbc
00000390: 82d0 703d 7944 393d ec6c 0bbc a537 c6bd
000003a0: 2425 4abd 1b1a 01be 130b 06be 3aa8 3b3e
000003b0: ddfc 48bf 64e0 58bc a8a2 cabd 1f6c 04be
000003c0: c402 12be e3d4 00be 47c6 cdbc fc48 f73c
000003d0: e63f 8cbc 0281 d73c 837d b1bc 4c96 0cbd
000003e0: 500e 0abd 8221 1cbd 7499 fabc bc0c a23b
000003f0: fb5e d73d 9926 c73d f611 b03e 909a 95bd
0.1862164 -0.052955415 -0.0047941227 0.050145634 0.087464735 -0.046327695 0.038698427 -0.2843166
-0.048436668 0.25215012 -0.07776182 -0.03087788 -0.043476086 -0.11311155 0.14249371 -0.35940176
0.27985722 -0.066920236 0.2655797 0.029205576 0.036506187 0.06752365 0.025484767 0.15522526
0.23450701 0.04225129 -0.18914193 0.11500337 0.017002814 0.0011255854 0.014202331 0.13363484
0.1555591 0.07429439 0.17757568 0.0141431615 -0.23045011 0.008273336 2.4258545e-05 -0.11278514
0.0050212555 -0.022958484 0.095856 0.16589358 0.0955592 -0.12583484 0.0051711844 0.010784434
0.21020935 -0.015484989 0.14248526 0.122840546 0.059244245 -0.12076075 -0.084202 -0.01176106
0.08735803 -0.0013803273 0.48535007 0.11723945 0.15070249 -0.010269694 -0.0041771717 -0.115953766
-0.0042233192 0.03753691 0.0041421168 0.11059368 -0.010147483 0.057940148 0.008364177 -0.03323823
0.2797768 0.014696384 -0.06465525 0.016005749 0.17282782 0.22457495 0.032299466 0.22513156
-0.23648319 0.16794114 0.085282974 -0.03540906 -0.05091086 0.1293663 0.12037843 -0.09453248
0.21090771 0.063547805 -0.22273727 -0.1650052 -0.5569646 0.03552029 -0.1257883 0.077498496
-0.0853903 -0.117169015 0.06290158 -0.030862605 0.017340576 0.045197137 0.00870486 -0.04441643
0.031943724 0.093458995 0.053728934 0.12835191 -0.1678247 0.68017954 -0.025243215 -0.0273603
-0.025872963 0.022910202 -0.05130062 -0.029789092 0.019072104 0.00760761 -0.006210226 -0.0068980325
-0.0067938776 -0.018142704 -0.009170641 0.028561281 0.025304347 0.042795483 -0.28038082 0.07016524
-0.035590265 -0.2342244 -0.07378677 -0.13375543 0.024735672 -0.04077359 -0.13039623 0.033414274
-0.041596476 0.01813424 0.31152898 -0.07219961 0.04637538 -0.17687745 -0.06885045 -0.16212659
-0.16030163 -0.855265 0.03477237 -0.052661788 -0.13144575 0.06820608 0.08140037 0.07037212
0.0017088094 0.04522161 0.003234253 -0.014022064 -0.021864653 -0.061379198 -0.008939224 0.051830832
0.024845734 0.018430121 -0.08003723 0.4293513 -0.058743317 0.0038883425 0.41345978 0.075284146
0.040597033 0.037061665 0.048365254 -0.0005410723 0.039648123 -0.02127596 -0.013015187 0.031033458
-0.06137226 0.007584628 -0.056649797 0.008788517 -0.10414071 -0.039489225 -0.04950068 0.022799887
0.37357795 -0.5862296 -0.21239069 -0.12029387 -0.15875345 -0.026526447 -0.0044509172 -0.008304919
0.016759977 0.06683882 0.011495238 0.15535922 0.077676244 0.07788328 0.24891685 -0.040453807
-0.023701658 -0.0013258831 -0.047369678 -0.18693906 -0.17174679 -0.03527883 0.17546295 0.25198087
-0.041970327 0.0068652933 0.016132563 -0.03831893 -0.058593646 -0.2615133 0.16824125 0.23358326
0.07561464 -0.007415691 -0.0043787886 0.065587245 -0.74306345 0.06687778 0.1221698 0.12781186
0.07167 0.03906183 -0.02179844 -0.03092995 0.0587926 0.045231316 -0.008509856 -0.09678582
-0.049351826 -0.12607615 -0.13090162 0.18325892 -0.7851084 -0.013237093 -0.098943055 -0.1293187
-0.14258868 -0.1258121 -0.02511896 0.030186169 -0.017120313 0.026306633 -0.021666294 -0.03432302
-0.033705056 -0.038117893 -0.03059075 0.0049453657 0.10516163 0.09724159 0.34388703 -0.07304871

conv1.mlp.0.bias f4 [64]
00000000: ae10 273e 4f4a 91be aa14 e6be 9c89 93be
00000010: 2d2b 4fbe 68e7 b1bd 0a3c 24be a261 0f3e
00000020: e805 4fbe 1981 dcbe 340d 09be e3d2 65be
00000030: 712e bcbe 1e6e 2abe c092 2f3e 32d1 d9be
00000040: cc08 d4bd a2b6 99be 3f97 33be c449 41be
00000050: 942b a0bd b590 ffbe 60b0 c83c 0093 99be
00000060: 59bd c3be ba36 ae3d 5e1e d9bc f074 dcbd
00000070: e5f5 833d 608b e2bc e362 88be 7e6e 8e3d
00000080: 668a 39bd 8ae8 35be a05b bbbd eff9 81be
00000090: 700f 7fbe 501a a1be 5ac3 32be 26f5 c93b
000000a0: 91a0 193e c3f2 aabe 5b2c ffbe 4bd4 9cbe
000000b0: 87df 09bd ff86 2b3e 2d5f 01be d0ca d13d
000000c0: a519 5cbe 7407 633e 1555 d33d 6f96 4d3e
000000d0: a160 9a3d b723 1c3e 250e c7be 4398 4cbe
000000e0: 38ec bcbd 9a25 09bf d5fc a0be e189 9c3c
000000f0: 5cda 3bbc 81cf b2be 7443 f5bd a997 523e
0.16314957 -0.28377005 -0.4493764 -0.28815925 -0.20231314 -0.08686715 -0.16038528 0.14002088
-0.20217097 -0.43067244 -0.13383943 -0.22443728 -0.36754182 -0.16643569 0.17145824 -0.42542416
-0.1035324 -0.3002215 -0.17538165 -0.18875796 -0.07820812 -0.4991509 0.024498165 -0.29994965
-0.38230398 0.08506532 -0.026503738 -0.107644916 0.06443385 -0.02765435 -0.26637945 0.069546685
-0.045298003 -0.17764488 -0.091483355 -0.25385997 -0.24908233 -0.31465387 -0.17457333 0.006163257
0.15002657 -0.33388337 -0.49838528 -0.30630717 -0.033660438 0.16750716 -0.12633963 0.102437615
-0.21494158 0.22170812 0.103189625 0.20076917 0.07537962 0.15247999 -0.3887798 -0.19979958
-0.09224743 -0.53573 -0.31442896 0.019108715 -0.011465635 -0.34923938 -0.11975756 0.20565666

conv1.mlp.2.weight f4 [64]
00000000: a9c5 773f d943 743f 8622 843f 3b9c 843f
00000010: 6dad 6d3f d3e5 793f 4780 933f ea6d 6e3f
00000020: d766 883f 0318 7f3f 1abf 863f ec26 823f
00000030: 0a5c 863f 64f2 8a3f 91f6 5f3f 2db0 843f
00000040: 0347 6d3f 00bd 813f 2694 803f cf1b 533f
00000050: e0ec 843f cbf7 7a3f e614 633f b47d 823f
00000060: 2541 7a3f 9e35 573f dd47 803f 8bcd 873f
00000070: 4b2c 713f ac00 723f 9178 7c3f 06e4 683f
00000080: 1912 903f 645e 8c3f cfa0 703f 06c2 873f
00000090: 1b80 893f 21e5 683f 93ba 753f 11a2 813f
000000a0: 265f 723f 5364 843f 211c 653f ec72 523f
000000b0: dc77 733f 6127 823f d803 843f 3002 7c3f
000000c0: f602 783f 392c 813f a95c 733f 7cbc 703f
000000d0: f518 6c3f 0263 7e3f eb89 8c3f 7e10 743f
000000e0: 3535 803f f6fc 723f d019 8e3f d091 6a3f
000000f0: eb6e 5e3f ec4c 823f 4a8a 873f f7ae 613f
0.9678598 0.9541603 1.0323036 1.0360178 0.9284275 0.9761631 1.1523522 0.93136466
1.0656384 0.99646014 1.052707 1.0168128 1.0496838 1.0855222 0.87485605 1.0366265
0.9268648 1.0135803 1.0045211 0.8246431 1.0384789 0.9803435 0.88703763 1.0194612
0.9775565 0.8406619 1.0021931 1.0609602 0.9420821 0.94532275 0.9862147 0.90972936
1.1255523 1.0966306 0.93995374 1.0606086 1.074222 0.9097462 0.95987815 1.0127584
0.94676435 1.0343117 0.89496046 0.82206607 0.95104766 1.0168267 1.0313673 0.9844084
0.9687952 1.0091621 0.95063263 0.94037604 0.9222558 0.99369824 1.0979589 0.95337665
1.0016237 0.9491724 1.1101627 0.9162874 0.86888 1.0179725 1.0589077 0.881576

conv1.mlp.2.bias f4 [64]
00000000: 9f17 ddbc 4285 07be de36 1abd 1190 9d3d
00000010: b1e0 3dbd 6fc6 873d 50ec 513e 762e ed3d
00000020: a0b1 203e 4404 173e da84 de3d b3a4 2bbd
00000030: 2c4a bf3d 04ca 053e f8cc af3d 2baf a13d
00000040: 032c dcbd 08db ddbb 60a7 c53c 99b8 fa3d
00000050: 9e36 5f3e 8079 bbbd 8801 7e3d db37 eebb
00000060: 718b 903c 3357 84bd 3ee3 0dbe 0c42 4f3e
00000070: 1b29 0f3d eebd 493d 8952 f7bd 2d80 ebbc
00000080: 1aac 713d 55ec 013e f83a 923c dbed 46bc
00000090: f754 1c3d d51d 24be 8c8d 473d bbb3 cfbd
000000a0: 78c5 0dbe aa83 0a3d 6c95 f7bc 41c5 9cbd
000000b0: 2f46 24be 3795 b33d 5076 ef3d 744e 73bc
000000c0: 69b8 b53d bf6d 02bc 32a5 a33d eb9d e23d
000000d0: cbe7 c8bd f074 143d a6b2 843c 57e5 253e
000000e0: 626c 1c3e 2d3b 05be 34a0 98bd eeae cb3d
000000f0: 877d 463e 5dce 59bd 7df3 f83c bc9f f43d
-0.026988802 -0.13234428 -0.03764998 0.07693494 -0.04635686 0.06629645 0.20500302 0.11581127
0.15692759 0.14747721 0.10865183 -0.041905116 0.09340319 0.13065344 0.085840166 0.07894739
-0.10750582 -0.0067704953 0.024127662 0.122422405 0.21798179 -0.09154034 0.06201318 -0.007269842
0.017644616 -0.064619444 -0.13856217 0.20240039 0.03495131 0.049253397 -0.12076289 -0.028747642
0.05900202 0.1268781 0.017850384 -0.01214167 0.038166966 -0.16027005 0.048718974 -0.10141703
-0.1384486 0.03381697 -0.030222617 -0.07654811 -0.16042398 0.08768695 0.11692488 -0.014850248
0.08873064 -0.007960736 0.07990493 0.11065277 -0.09809836 0.036244333 0.016198467 0.16200767
0.1527572 -0.13010855 -0.07452431 0.099454746 0.19383822 -0.05317532 0.030389542 0.119445294

conv1.mlp.2.running_mean f4 [64]
00000000: 4a62 063f b4dc 4a3e 2b7f 403c 88c2 9b3d
00000010: 3fd4 813e 4601 c13d 838b f03d 88fa 3a3e
00000020: 151a 1c3e 7eb2 7e3d 4010 7a3d 8122 283e
00000030: b137 5b3e fd5d ed3d 9d84 dc3e 021a 493d
00000040: 595b 3b3e 2c66 283e 4102 923e 3ab1 093e
00000050: d56e 123e 8b5d 093d c6f5 b23e 1632 563e
00000060: c47e e73d 7e9a b33e f5c6 e73e 0f8b ce3d
00000070: 6123 9e3e 161d 973e d411 783e 1e15 233e
00000080: e695 053e 84d3 013e 90e8 373e 4182 8d3d
00000090: 099c a03d 9d6d a23d 3fff 713e b97b c43e
000000a0: d077 1e3f e317 493e e247 e63d c2d6 cc3d
000000b0: b22c ad3e 9ce3 623e 0e4b b23d 92cf 223e
000000c0: e3a7 293e 754d 5a3e 1ec0 dc3e c781 853e
000000d0: f5a3 c73e 50a7 ff3d 9cad 3d3d 228b c73d
000000e0: 694e 113e bfa2 593d b211 e43d 1b4d 2c3e
000000f0: 5143 283e 1899 503e 1047 943d 8e30 a53e
0.5249373 0.19810754 0.011749069 0.07605463 0.25357243 0.09424071 0.1174536 0.18259633
0.15244325 0.062181942 0.061050653 0.16419412 0.21407963 0.115901925 0.43069926 0.04909707
0.18296565 0.16445225 0.28517345 0.13446513 0.14300092 0.033536475 0.34953135 0.20917544
0.113034755 0.35078806 0.4526898 0.10085117 0.30886367 0.29514378 0.24225551 0.15926024
0.13045463 0.12678343 0.1795981 0.069096096 0.07842261 0.07931063 0.23632525 0.38375643
0.6190157 0.19638018 0.11244179 0.10001899 0.33823162 0.22157139 0.08705722 0.15899494
0.1656795 0.2131861 0.43115324 0.26075575 0.38992277 0.12483084 0.046308145 0.09743334
0.14190067 0.053133722 0.111361876 0.16826288 0.16431929 0.203709 0.072401166 0.32263607

conv1.mlp.2.running_var f4 [64]
00000000: 8e75 b23e 7796 ad3d eda3 363b 1772 d33c
00000010: 4bd9 dd3d afea 1f3d 9fd3 523d b400 ad3d
00000020: 935a ac3d 1bd6 cc3c 3940 9d3c d0aa 853d
00000030: 8cd6 0c3e 6cca 7e3d 62ee 853e 0e78 a33c
00000040: a4ed 933d 63d5 953d 6c2e 1b3e c2ca 8c3d
00000050: 9a27 913d dfbd 343c af45 0f3e c476 003e
00000060: eb8b 3a3d 046c 533e 00b5 823e a212 583d
00000070: fc74 2f3e cb4c 2e3e 5980 ca3d 9e23 8d3d
00000080: a4c6 6f3d dfae 803d d902 d73d 5ab3 b83c
00000090: 1724 dd3c 7443 043d 475e 4b3e 69de 4d3e
000000a0: 69db 803e 9c28 ac3d 235c 983d f45b 6b3d
000000b0: b337 4c3e f1b7 b43d 0332 153d 8f41 4a3d
000000c0: 1f5c ab3d 0d1a c43d 94aa 553e a920 f83d
000000d0: 09d7 623e f291 4f3d 6ca2 893c 104f 263d
000000e0: 8b04 993d 7003 e13c 35f7 fe3c 5627 b23d
000000f0: 04d2 983d 84ec e83d c5d8 af3c 4c73 253e
0.34855312 0.084759645 0.0027868703 0.025811238 0.10832461 0.03904217 0.05147135 0.084474
0.08415713 0.025004437 0.019195663 0.065267205 0.13753718 0.062204763 0.26158434 0.019954707
0.07223061 0.07316091 0.15154427 0.068746105 0.070876315 0.011031597 0.13991426 0.12545305
0.045543592 0.20646673 0.25528717 0.052752145 0.1713447 0.17021482 0.098877616 0.06891559
0.058539048 0.06283354 0.1049859 0.022546459 0.026994748 0.03229089 0.19860183 0.20104374
0.25167397 0.08406183 0.07439449 0.05746074 0.19943123 0.088241465 0.036424648 0.049378928
0.0836718 0.09575281 0.20865852 0.121156044 0.22152342 0.050676294 0.016801082 0.040602744
0.0747157 0.02746746 0.031123737 0.08698909 0.07461932 0.11373237 0.021465668 0.16157264
