GraphNeuralNet/Combined/epoch150/MHc-130_MA-90_vs_nonprompt/models/ParticleNet-nNodes64_RMSprop_initLR-0p0005_CyclicLR.pt (torch, 302923 bytes, 102 tensors)

gn0.weight f4 [9]
0	0x3fddb1f3	1.7319931
1	0x3f622b49	0.883473
2	0x3f5068bb	0.81409806
3	0x3f699a95	0.912515
4	0x3f528789	0.8223806
5	0x3f7d23b3	0.988826
6	0x3f322ff4	0.6960442
7	0x3f569945	0.8382762
8	0x3f516ab6	0.8180345

gn0.bias f4 [9]
0	0xbd38910d	-0.045060206
1	0x3da7adfa	0.0818748
2	0xbd3cd9de	-0.04610621
3	0x3a5bd6af	0.00083861774
4	0x3e2f28d0	0.17105412
5	0xbf235cc5	-0.6381343
6	0x3e9e862f	0.3096175
7	0xbd8589b0	-0.065204024
8	0x3da7b1bf	0.08188199

gn0.mean_scale f4 [9]
0	0x3ebf22a9	0.3733113
1	0xbf108341	-0.5645028
2	0xbeee6788	-0.46563363
3	0x401cffb5	2.453107
4	0x402b361b	2.6751773
5	0xbfa77a81	-1.308426
6	0xbe5284ee	-0.20558521
7	0xbfcf395b	-1.6189378
8	0x3f423c12	0.7587291

gn1.weight f4 [64]
0	0x3fce9a44	1.6140828
1	0x3fdd3dda	1.7284501
2	0x3f976b37	1.1829594
3	0x3f56fe48	0.8398175
4	0x3fc9ee88	1.5775919
5	0x3fbcbe23	1.4745525
6	0x3fc07297	1.503497
7	0x3fc0714e	1.5034578
8	0x3f9e5f71	1.2372876
9	0x3fd532d4	1.6656137
10	0x3f1e37cb	0.61803883
11	0x3f511427	0.81671375
12	0x3f8ce0bd	1.1006085
13	0x3fbc91d9	1.4732009
14	0x3fb669e6	1.4251068
15	0x3feb9106	1.8403633
16	0x3f41f90b	0.75770634
17	0x3fcd3e8b	1.6034712
18	0x3fd2850e	1.6446855
19	0x3fcaa1a8	1.5830584
20	0x3f8d5b64	1.1043515
21	0x3ffb3408	1.9625254
22	0x400409cc	2.063098
23	0x3fc1a16f	1.5127391
24	0x3f54e8eb	0.83167905
25	0x3f590ab5	0.8478196
26	0x3fce68dc	1.612575
27	0x3fb03905	1.3767401
28	0x3fd3dacd	1.6551148
29	0x3fc1eddd	1.5150715
30	0x3fb919dc	1.4461017
31	0x3fdaa265	1.7080809
32	0x3fb2598c	1.3933578
33	0x3fc9a802	1.5754397
34	0x3fd9e1fb	1.7022089
35	0x3fd37617	1.6520413
36	0x3ffedc96	1.9911067
37	0x3fbd0e3f	1.4769973
38	0x3f2fa90e	0.6861733
39	0x3f8aa5d5	1.0831858
40	0x3fc3b1e0	1.5288658
41	0x3fe0a2c3	1.7549671
42	0x3fa1383a	1.2595284
43	0x3febce54	1.8422341
44	0x3f5d2250	0.8638048
45	0x3f69db23	0.9135
46	0x3fe739a4	1.8064466
47	0x3fd36875	1.6516253
48	0x3f4b9e33	0.7953827
49	0x3f909a93	1.1297172
50	0x3f5c2769	0.85997635
51	0x3f89735f	1.0738333
52	0x3fc37c9e	1.5272405
53	0x3f9663b8	1.1749182
54	0x3f24489f	0.6417331
55	0x3fa9e005	1.327149
56	0x3fcce2a9	1.6006671
57	0x3f417e25	0.75583106
58	0x3f60f69e	0.8787631
59	0x3fe50804	1.7893071
60	0x3f98ee23	1.1947674
61	0x3f88d587	1.0690163
62	0x3fd4a0bc	1.6611552
63	0x3fc47da8	1.5350847

gn1.bias f4 [64]
0	0xbf318eb8	-0.69358397
1	0xbf0ccc3b	-0.5499913
2	0x3eff86e2	0.49907595
3	0xbda6ee2e	-0.08150898
4	0x3f05641d	0.52105886
5	0x3e8a3b63	0.26998433
6	0xbee559a8	-0.44794965
7	0xbf1c420a	-0.6103827
8	0xbf55cae5	-0.8351272
9	0x3e9eced0	0.3101716
10	0x3ea8cd78	0.3296926
11	0x3ecb567a	0.39714414
12	0xbe838351	-0.25686124
13	0xbe1417d1	-0.1446221
14	0x3f049e2c	0.5180385
15	0xbec168dd	-0.37775317
16	0x3e2d3d28	0.1691786
17	0xbf9fa20a	-1.2471325
18	0xbdf41847	-0.11918693
19	0xbf047234	-0.5173676
20	0xbf7e4927	-0.9933037
21	0x3f3d91cd	0.740506
22	0x3e1b8655	0.15187962
23	0x3f8c0772	1.0939772
24	0x3f8d0555	1.1017252
25	0xbf9bfd4d	-1.2186676
26	0xbf4b7ede	-0.7949046
27	0x3cd14b8d	0.02554872
28	0x3f272cfb	0.6530301
29	0xbf2a4c7c	-0.66522956
30	0x3f5bfb44	0.85930276
31	0x3ef189ec	0.4717554
32	0xbe81b30b	-0.2533191
33	0x3e17a028	0.14807189
34	0xbd8b8e21	-0.06814218
35	0xbf31ec3a	-0.6950108
36	0x3e630f5c	0.22173828
37	0x3f687374	0.9080117
38	0x3f691267	0.91043705
39	0x3f413598	0.754724
40	0x3e26440d	0.16236897
41	0x3cd459bb	0.025921693
42	0xbdfa2a29	-0.12215073
43	0xbee50272	-0.44728428
44	0x3eefeef6	0.46862
45	0x3f7453ca	0.9544035
46	0x3f2d90c7	0.6779904
47	0x3edd0647	0.43168852
48	0x3eedd5b8	0.46452117
49	0x3f576947	0.84145015
50	0x3f8d76fa	1.1051934
51	0xbf88f826	-1.0700729
52	0xbd7360a4	-0.059418336
53	0x3e642b25	0.22282083
54	0x3eeab960	0.45844555
55	0xbf429586	-0.76009405
56	0x3e1a6313	0.15076856
57	0x3fd4e3b3	1.6631988
58	0x3e86a65b	0.26298794
59	0x3f0db8ee	0.55360305
60	0xbe2547af	-0.16140626
61	0x3f9b1cd8	1.2118177
62	0x3f67c1ba	0.9052998
63	0xbd6f9ab2	-0.05849714

gn1.mean_scale f4 [64]
0	0x3f8193bd	1.0123211
1	0x3fb86146	1.4404685
2	0x3fdb259b	1.7120851
3	0x3fce31d1	1.6108953
4	0x3f98f29f	1.1949042
5	0x3fb34214	1.400454
6	0x3f608f64	0.87718797
7	0x3fa1fbda	1.2654984
8	0x3e709f0e	0.23498175
9	0x3f856cfe	1.0423887
10	0xbe3ae2f0	-0.18250632
11	0x3dbb36d2	0.091413155
12	0x3fc1df02	1.5146182
13	0x3ebecd22	0.3726588
14	0x3fb9879d	1.4494511
15	0x3f4a0cc8	0.7892575
16	0x3f132e8b	0.57492894
17	0x3f659316	0.8967756
18	0x3f573798	0.84069204
19	0x3f14f751	0.58189875
20	0x3f0b286e	0.54358566
21	0x3f483f94	0.7822201
22	0x3fdd4c93	1.7288994
23	0x3f1c33c6	0.610165
24	0x3fcc7259	1.5972396
25	0x3ed32c37	0.4124467
26	0x3f6b0e51	0.9181872
27	0x3ea0095d	0.31257144
28	0x3fc98c60	1.5745964
29	0x3f44e254	0.7690785
30	0x3f1b163b	0.60580796
31	0x3f905af5	1.1277758
32	0x3e2465b8	0.16054428
33	0x3f9630e2	1.1733668
34	0x3f9ce487	1.2257241
35	0x3f84beca	1.0370724
36	0x3f4ad9e4	0.79238725
37	0x3fc10a23	1.5081218
38	0x3ff01d4b	1.875894
39	0x40860a20	4.188736
40	0x3fb2c381	1.3965913
41	0x3eea8add	0.4580907
42	0x3e611cf6	0.21983704
43	0x400bb24f	2.182758
44	0x3ea99335	0.33120123
45	0x3fd434e0	1.6578636
46	0x3f26631b	0.6499497
47	0x3fc7b833	1.5603088
48	0x4006bc12	2.105229
49	0x3e5ae5aa	0.21376672
50	0x3d56a2c0	0.052401304
51	0x3eb2a615	0.34892336
52	0x3feb78fd	1.8396298
53	0x3fe5268f	1.7902392
54	0xbde50425	-0.11182431
55	0x3fd5e05b	1.6709093
56	0x3f8e1b9d	1.1102177
57	0x4009458b	2.1448696
58	0x3fd96189	1.698289
59	0x3f4cbee6	0.7997879
60	0x3f2b6040	0.6694374
61	0x3e80b09e	0.25134748
62	0x3fc78ecb	1.5590452
63	0x3fc70b17	1.5550259

gn2.weight f4 [64]
0	0x3f98099b	1.1877931
1	0x3f516342	0.8179208
2	0x3fe85d6b	1.8153509
3	0x3f8fb351	1.1226598
4	0x3f72765a	0.9471184
5	0x3fc1047d	1.5079495
6	0x3fa13945	1.2595602
7	0x3fbbc285	1.4668738
8	0x3f1af2d4	0.60526776
9	0x3f9cbac9	1.2244502
10	0x3f10982f	0.56482214
11	0x3f43712f	0.7634458
12	0x3f80dd88	1.0067606
13	0x3f32bc87	0.6981892
14	0x3f230a70	0.636878
15	0x3fbb781d	1.4646031
16	0x3f883f09	1.0644237
17	0x3fc36696	1.5265682
18	0x3f0fda66	0.56192625
19	0x3f879c92	1.0594656
20	0x3ecbd295	0.398091
21	0x3f624d7b	0.88399476
22	0x3f5b01f6	0.8554987
23	0x3f3d9921	0.7406178
24	0x3f2aea61	0.66763884
25	0x3f1c4ca8	0.6105447
26	0x3fb36fc6	1.4018486
27	0x3f939bc5	1.1531912
28	0x3f2d106e	0.67603195
29	0x3fa3c0f3	1.2793258
30	0x3e85f88b	0.26166186
31	0x3fb5c5bf	1.4200972
32	0x3fb70384	1.4297948
33	0x3f8320b5	1.0244356
34	0x3fa63a9e	1.2986639
35	0x3fc893fd	1.5670162
36	0x3fcd487a	1.6037743
37	0x3fad84bc	1.3556132
38	0x3ee81ab8	0.45332885
39	0x3f7c5191	0.9856196
40	0x3f8b0947	1.0862206
41	0x3f94004d	1.1562592
42	0x3f850624	1.0392499
43	0x3fdf7ea9	1.7460529
44	0x3f04589b	0.516977
45	0x3f3f552e	0.7473935
46	0x3ea7aa65	0.32747188
47	0x3fa1eabf	1.2649764
48	0x3f2ad501	0.6673127
49	0x3f3d91ac	0.740504
50	0x3f49740b	0.7869269
51	0x3faa2c9a	1.3294861
52	0x3f5c8f9c	0.8615663
53	0x3eead1b0	0.45863104
54	0x3f06a3ae	0.52593505
55	0x3f22570c	0.63414073
56	0x3f913500	1.1344299
57	0x3f07632d	0.52885705
58	0x3f6275e0	0.8846111
59	0x3eb20d93	0.3477598
60	0x3eece426	0.46267813
61	0x3f899290	1.0747852
62	0x3f0d7a31	0.55264574
63	0x3f84723a	1.0347359

gn2.bias f4 [64]
0	0xbfb0a6c7	-1.3800896
1	0xbeabdd0d	-0.33567086
2	0xbec5b3a5	-0.3861362
3	0xbd86305c	-0.065521926
4	0xbe8cbd9b	-0.27488407
5	0xbf6a0c03	-0.9142458
6	0x3f6c37ef	0.9227285
7	0x3de159f2	0.11003484
8	0x3ee45c86	0.4460184
9	0xbf151b02	-0.58244336
10	0x3ef121ba	0.47096044
11	0x3f916da3	1.1361583
12	0x3e6bef0c	0.23040408
13	0xbf1d74d8	-0.61506414
14	0xbef376ad	-0.4755148
15	0xbe94cb18	-0.29061198
16	0xbfa62cd3	-1.2982429
17	0x3f4f01ac	0.80861926
18	0x3e73fd4a	0.23827091
19	0xbf8a2705	-1.0793158
20	0x3f207ba9	0.6268869
21	0xbf9a2488	-1.2042398
22	0xbcdf17b8	-0.02723299
23	0xbf3ce30b	-0.7378394
24	0x3d3b4683	0.045721542
25	0xbce693f7	-0.028146727
26	0xbfb3c82b	-1.4045461
27	0xbe56b583	-0.20967679
28	0x3f879a28	1.059392
29	0x3d0217bb	0.031760912
30	0xbf845198	-1.03374
31	0x3f1bf5ef	0.6092214
32	0x3f002336	0.5005373
33	0xbf03922b	-0.5139491
34	0x3f79ed69	0.97627884
35	0xbf994773	-1.197493
36	0xbd40035c	-0.046878204
37	0xbf467b90	-0.7753229
38	0x3fe3ae9c	1.7787662
39	0xbe1c432b	-0.15259998
40	0x3f0f6f0c	0.5602882
41	0x3ed4bfda	0.4155262
42	0xbe839abe	-0.25703996
43	0x3dd82614	0.10554138
44	0x3cb3a96f	0.021931378
45	0x3e85c338	0.26125503
46	0xbf379bb4	-0.7172196
47	0x3f74a2f0	0.9556112
48	0xbd4ff582	-0.050771244
49	0x3f5420e8	0.8286271
50	0xbef5f9b2	-0.48042065
51	0x3f3b32ab	0.7312419
52	0x3f6e55d2	0.930997
53	0x3f7e6c1a	0.993837
54	0x3f736880	0.9508133
55	0x3ee706ec	0.45122468
56	0xbe13e6ad	-0.14443465
57	0xbe4ad407	-0.19807445
58	0xbd0ab514	-0.033864096
59	0x3f526da7	0.82198566
60	0xbe520a79	-0.20511808
61	0x3f50611f	0.81398195
62	0x3f341d1c	0.7035692
63	0x3e85cadf	0.2613134

gn2.mean_scale f4 [64]
0	0x3f043af4	0.51652455
1	0x3e1ee292	0.15516117
2	0x3f7230c8	0.94605684
3	0x3f0a62d8	0.54057074
4	0x3f599a1f	0.85000795
5	0x3f819739	1.0124274
6	0x3fd7e978	1.6868124
7	0x3ecfda46	0.40596217
8	0x3fd1f953	1.6404213
9	0x3e81a80b	0.2532352
10	0x3ed819d1	0.42207196
11	0x3f90d8e4	1.131619
12	0x3f77761c	0.96664596
13	0x3f740b80	0.9533005
14	0x3f13db84	0.5775683
15	0x3f982dbc	1.1888957
16	0x3f9df03c	1.2338939
17	0x3ff69ce8	1.9266634
18	0x3fbad98e	1.4597642
19	0x3f348ba2	0.7052556
20	0x3faec392	1.3653433
21	0x3f98a707	1.1925973
22	0x3f8e1f05	1.1103216
23	0x3fafeb40	1.3743668
24	0x3f37e5f5	0.7183526
25	0x3f8de63d	1.1085888
26	0x3ed3837f	0.4131126
27	0x3f89bda3	1.0760998
28	0x3f9e0082	1.2343905
29	0x3fa943ec	1.3223853
30	0x3f4a83a4	0.7910712
31	0x3ed41e4b	0.41429362
32	0x3f9356f3	1.151091
33	0x3fe0e065	1.756848
34	0x3e403953	0.18771867
35	0x3da817c4	0.08207658
36	0x3e66f135	0.2255295
37	0x3fc00085	1.5000159
38	0xbc76179d	-0.015020278
39	0x3f8cbf46	1.0995872
40	0x3f17324c	0.5906112
41	0x3f164cea	0.5871111
42	0x3f836ff7	1.0268544
43	0x3f60b7d0	0.87780476
44	0x3f9ae7eb	1.2102026
45	0x3de791b9	0.11307091
46	0x3f9f05ef	1.2423686
47	0x3fee5763	1.8620418
48	0x3f5228a9	0.8209329
49	0x3ee5f6fc	0.44914997
50	0x3f334477	0.70026344
51	0x3ed554bc	0.4166621
52	0x3eea4a9e	0.45760053
53	0x3f96a09c	1.1767764
54	0x3f8925f5	1.0714709
55	0x3f47f379	0.78105885
56	0x3feb2a87	1.8372353
57	0x3dbf9902	0.09355356
58	0x3fc795cf	1.5592593
59	0x3fa3a5f3	1.2785019
60	0x3f78ef23	0.97239894
61	0x3f551e81	0.8324967
62	0x3f72923f	0.94754404
63	0x3f13f6ed	0.57798654

gn3.weight f4 [64]
0	0x3f449d20	0.76802254
1	0x3f9382ff	1.1524352
2	0x3edccb8c	0.43124044
3	0xb8469bd8	-4.735202e-05
4	0x3b14d5cf	0.0022710448
5	0x3e1de7a4	0.15420395
6	0x3f69ea15	0.91372806
7	0xb5e930a9	-1.7374015e-06
8	0x3ecbbfe2	0.39794832
9	0x3f726955	0.94691974
10	0x3a0e6224	0.0005431494
11	0xb9451965	-0.00018796844
12	0xbe1496f8	-0.14510715
13	0x3eac6392	0.33669716
14	0x3eccbef6	0.39989442
15	0x3f5e3a33	0.86807555
16	0xb657bc37	-3.2147052e-06
17	0x3f31c5e6	0.69442594
18	0xbf01d836	-0.50720537
19	0x3e4037f9	0.18771352
20	0x3eb9d4c8	0.36295152
21	0x3f6ff18b	0.9372794
22	0x3f31600f	0.692872
23	0x3f2453e1	0.6419049
24	0x3ea40151	0.32032254
25	0xbd8772aa	-0.06613667
26	0x3f2d798d	0.67763597
27	0x3e8b5927	0.27216455
28	0x3e597d6b	0.2123925
29	0x3f1e7c10	0.61908054
30	0x3e9f3c49	0.3110068
31	0x3f1fed4d	0.6247147
32	0x3f1d2e00	0.61398315
33	0x3f91f1a1	1.1401864
34	0x3f5d6724	0.86485505
35	0x3f4ffd42	0.81245816
36	0x3f27eea2	0.655985
37	0x3f4be424	0.7964499
38	0x3e105f03	0.14098744
39	0x3bbaade4	0.005696999
40	0x3fc3cd34	1.5296998
41	0x3f32248b	0.6958701
42	0x3e909f77	0.28246662
43	0x3f95bd70	1.1698437
44	0x3cdede1a	0.027205516
45	0x3f391948	0.723042
46	0x3e7fb2fa	0.24970618
47	0x3f976f33	1.183081
48	0xbe2a49f5	-0.16629775
49	0x3e47be7b	0.19506256
50	0x3e922bed	0.28549138
51	0x3f1250a4	0.571543
52	0xbed18acb	-0.40926203
53	0x3e2cf5a6	0.16890582
54	0xb8f6a9ae	-0.000117617994
55	0x3ea0bf5d	0.31396
56	0x3f63e5a8	0.890223
57	0x3f37b5cf	0.7176179
58	0x3e23ece6	0.16008338
59	0x3ecb7665	0.39738765
60	0xbd2eb844	-0.0426562
61	0x3ed3744c	0.41299665
62	0x38964902	7.166156e-05
63	0x3f541194	0.8283932

gn3.bias f4 [64]
0	0x3cbcda58	0.023053333
1	0xbc976fc6	-0.018485915
2	0x3b12ac27	0.0022380443
3	0xbb906dd8	-0.0044076256
4	0xbb84232f	-0.0040325145
5	0xbaa27eff	-0.0012397467
6	0x3cbd4210	0.02310279
7	0xbca79a81	-0.020459415
8	0xba927de6	-0.0011176437
9	0xbb766d64	-0.0037601823
10	0xbcd59bc5	-0.026075253
11	0x3d776c1f	0.060405847
12	0x3cb6e099	0.022323893
13	0x3be88856	0.0070963306
14	0xba1c196d	-0.00059547165
15	0x3b6c0069	0.0036010987
16	0x3c508117	0.01272609
17	0x3c8e0d4e	0.017340329
18	0x3bce6ad2	0.006299355
19	0x3d9f6e47	0.077847056
20	0x3addf093	0.0016932659
21	0xbce1cf9b	-0.027564814
22	0x3ab91c9b	0.0014122905
23	0x3905eeeb	0.00012772872
24	0xbcef2db6	-0.029196601
25	0xbc3d9b8d	-0.011572731
26	0x3ba5b327	0.005056757
27	0x3cc028d8	0.023456976
28	0x3c3b4402	0.011429789
29	0x3cc9b142	0.024620656
30	0xbd886d32	-0.06661452
31	0x3c847d70	0.016173095
32	0xbb68dc34	-0.0035531642
33	0x3b4fbcda	0.0031698258
34	0xbc59838b	-0.013275991
35	0x3da4bd49	0.08043916
36	0x3cd061ac	0.025437199
37	0x3d0f9ffe	0.03506469
38	0xbbc55c03	-0.0060229315
39	0x3c0cf3d0	0.008603051
40	0x3bd33eb4	0.006446684
41	0x3d3ee127	0.04660144
42	0x3d87f524	0.06638554
43	0xbbbc32a8	-0.0057433434
44	0xbc774c17	-0.015093825
45	0x3afb27be	0.0019161624
46	0xbc7cb0de	-0.015423028
47	0x3c41ca72	0.011828052
48	0x3bbcb319	0.005758655
49	0xbc5c97b3	-0.013463902
50	0xbc0641f9	-0.00819444
51	0xbd0af1af	-0.033921894
52	0x3b5f10ce	0.0034037116
53	0x3d1c840e	0.038211875
54	0x3d5943ef	0.053043302
55	0x3ba4e361	0.0050319885
56	0xbcc847d0	-0.024448305
57	0x3ce7a08e	0.0282748
58	0xbc4e52b4	-0.01259296
59	0x3c4f8cd3	0.012667852
60	0x3bb32db3	0.0054680943
61	0x3c41f213	0.0118375
62	0xbd97baf7	-0.074087076
63	0x39be2e1c	0.00036273978

gn3.mean_scale f4 [64]
0	0x3f2caaa5	0.6744788
1	0x3fc8b1e7	1.5679291
2	0x3fa6ca76	1.3030536
3	0x3f7ff335	0.9998048
4	0x3f7f6b62	0.9977323
5	0x3f924fac	1.1430564
6	0x3f3a111c	0.72682357
7	0x3f800024	1.0000043
8	0x3fa03c6a	1.2518437
9	0x3f9b58db	1.2136492
10	0x3f8011b9	1.0005409
11	0x3f7fe0fe	0.99952686
12	0x3f59a771	0.8502112
13	0x3ef9f1d7	0.48817322
14	0x3f973fa4	1.1816297
15	0x3fcbe2e3	1.5928615
16	0x3f7fffda	0.99999774
17	0x3fa780b8	1.3086157
18	0x3fdad6d4	1.709681
19	0x3f5093c1	0.81475455
20	0x3f963467	1.1734742
21	0x3f3692e2	0.71317875
22	0x3f14b02b	0.5808131
23	0x3f50e84f	0.81604475
24	0x3f30fa10	0.69131565
25	0x3f740c9d	0.95331746
26	0x3f256a97	0.6461577
27	0x3f8870e0	1.0659447
28	0x3f8b8e11	1.090273
29	0x3f4d534d	0.8020523
30	0x3f33e806	0.70275915
31	0x3f7c9699	0.98667294
32	0x3fa2c7f4	1.2717271
33	0x3fd96325	1.6983382
34	0x3f3fc40a	0.74908507
35	0x3f1b91dd	0.60769445
36	0x3f224566	0.63387144
37	0x3fa18b43	1.2620624
38	0x3f6a6e34	0.91574407
39	0x3f80ad2c	1.0052848
40	0x3de34127	0.11096411
41	0x3f59b7c5	0.85046035
42	0x3f9b080c	1.2111831
43	0x3fb25976	1.3933551
44	0x3f7f01bb	0.99612015
45	0x3f341d25	0.7035697
46	0x3efe9af2	0.4972759
47	0x3fd57f43	1.6679462
48	0x3f95063d	1.1642529
49	0x3f8ed14b	1.1157621
50	0x3f37b8b8	0.71766233
51	0x3faa8dad	1.3324486
52	0x3fc36083	1.5263828
53	0x3f869a28	1.0515795
54	0x3f7fef6a	0.9997469
55	0x3f1e0340	0.6172371
56	0x3fa044a1	1.2520944
57	0x3fb81bf5	1.4383532
58	0x3f52f979	0.82411915
59	0x3f8be35d	1.0928761
60	0x3f7551b5	0.958278
61	0x3f8ab796	1.0837276
62	0x3f800021	1.0000039
63	0x3fb6962a	1.4264576

bn0.weight f4 [70]
0	0x3ef618ca	0.48065788
1	0x3e87e3b1	0.26540902
2	0x3e6bf748	0.23043549
3	0x3f295e7d	0.661598
4	0x3ec3cbbe	0.3824138
5	0x3eb7b623	0.35881147
6	0x3ea6599e	0.32490247
7	0x3e06f19e	0.13178107
8	0x3f2c1427	0.6721825
9	0x3e336f68	0.17522967
10	0x3ead3cc0	0.3383541
11	0x3e93502d	0.28772107
12	0x3f1aae20	0.60421944
13	0x3ee99d15	0.45627657
14	0x3ec16ee5	0.37779918
15	0x3e216c73	0.15764026
16	0x3e6e371c	0.2326321
17	0x3e747bb1	0.2387531
18	0x3e757b72	0.23972872
19	0x3ec80f84	0.39074337
20	0x3f2a9b65	0.66643363
21	0x3dea806f	0.11450278
22	0x3db94f8c	0.090483755
23	0x3ea3bc5f	0.31979653
24	0x3ed8028f	0.42189452
25	0x3edbb5c4	0.42912114
26	0x3ec2f054	0.3807398
27	0x3e8b963c	0.27263057
28	0x3ee88d14	0.45420134
29	0x3eb6f116	0.3573081
30	0x3e27d063	0.16388087
31	0x3e8f7b99	0.28023985
32	0x3eafc286	0.34328097
33	0x3e858801	0.26080325
34	0x3e9f93c2	0.31167418
35	0x3e551fb4	0.20812875
36	0x3e5318b4	0.20614892
37	0x3e41bce4	0.18919712
38	0x3e9d1862	0.30682665
39	0x3f9b72fb	1.2144464
40	0x3dae20c5	0.08502344
41	0x3e8a8316	0.27053136
42	0x3ecd5da8	0.40110517
43	0x3e070c05	0.13188179
44	0x3e809477	0.2511327
45	0x3e80baa7	0.25142404
46	0x3e9a73ee	0.30166572
47	0x3e85ec3e	0.261568
48	0x3ed94061	0.4243193
49	0x3e5ba587	0.21449862
50	0x3e91767b	0.28410706
51	0x3efb394e	0.49067158
52	0x3e02bed9	0.12768115
53	0x3eab63b3	0.33474502
54	0x3eae0335	0.33986822
55	0x3eb49fb0	0.35278082
56	0x3e3372cb	0.17524259
57	0x3e90df78	0.28295493
58	0x3e9a3a22	0.30122477
59	0xbdee1591	-0.11625207
60	0x3ed3b4a9	0.4134877
61	0x3e7bd85a	0.2459425
62	0x3e85a094	0.26099074
63	0x3f037f31	0.51365954
64	0x40078358	2.1173916
65	0x4008d2b1	2.1378596
66	0x402ab41f	2.6672437
67	0x4007df5f	2.1230085
68	0x400a6fc5	2.1630719
69	0x40183048	2.3779469

bn0.bias f4 [70]
0	0xbe0ed285	-0.13947494
1	0xbe14e03f	-0.14538668
2	0xbd731720	-0.059348226
3	0xbed47de3	-0.41502294
4	0xbe86286e	-0.2620272
5	0xbe75f157	-0.24017845
6	0xbd8b8a89	-0.06813533
7	0xbdae11cb	-0.084994875
8	0xbe42d552	-0.19026688
9	0xbefa7c51	-0.4892297
10	0x3e103da5	0.14086016
11	0xbd553dfd	-0.05206107
12	0xbe0af0d9	-0.13568439
13	0xbe28bd64	-0.16478497
14	0xbe0fd53e	-0.14046189
15	0x3c8fa399	0.017534064
16	0xbcfd29dd	-0.030903751
17	0x3ddad3b6	0.10684912
18	0xbb524b22	-0.003208824
19	0xbd183690	-0.03716141
20	0xbd986d85	-0.07442764
21	0xbd7aff76	-0.061278783
22	0xbe6cf2f7	-0.23139559
23	0x3d75d96e	0.06002181
24	0xbed1f712	-0.41008812
25	0xbdaed4c9	-0.08536679
26	0x3e3392f9	0.17536534
27	0xbd0afd51	-0.033932988
28	0xbd22d19a	-0.039750673
29	0x3e338913	0.17532758
30	0x3e01f96a	0.126928
31	0x3e01ce29	0.126763
32	0xbe6cf930	-0.23141932
33	0xbe4147b1	-0.18875004
34	0x3e82ae6a	0.25523692
35	0x3d505661	0.050863627
36	0x3ebea06a	0.3723176
37	0xbdfe65da	-0.124217704
38	0x3e8e62fb	0.2780989
39	0xbdaf064c	-0.08546123
40	0x3dbcb28a	0.09213741
41	0x3da7f5a8	0.08201152
42	0xbe36b39f	-0.17841958
43	0x3e46f464	0.19429165
44	0xbd8a3924	-0.0674918
45	0xbdc53a50	-0.09630263
46	0x3e109fdd	0.14123483
47	0xbd29ab73	-0.041423272
48	0x3ef97991	0.4872556
49	0xbe1defb2	-0.15423468
50	0x3e5db6b9	0.21651734
51	0x3edf3bc8	0.43600297
52	0xbe9dfa26	-0.3085491
53	0x3d29fc30	0.04150027
54	0xbd503386	-0.050830387
55	0xbee84cfa	-0.45371228
56	0x3bfcf158	0.0077192
57	0xbddca27d	-0.1077318
58	0xbe3ef84d	-0.18649407
59	0xbcf1caac	-0.029515587
60	0xbda8d0f1	-0.082429774
61	0xbdc16ec4	-0.09444955
62	0xbcf8a487	-0.03035189
63	0x3c2425e7	0.010018802
64	0x3ec66c4f	0.38754508
65	0x3efff420	0.4999094
66	0xbf100505	-0.5625766
67	0x3e55a252	0.20862702
68	0x3dd94932	0.10609664
69	0x3e7c7a99	0.24656142

bn0.running_mean f4 [70]
0	0xc02a4523	-2.6604698
1	0xbee57e0b	-0.44822726
2	0xbce27a34	-0.027646162
3	0xbd478e92	-0.04871995
4	0x3ea34a28	0.31892514
5	0xbead458c	-0.33842123
6	0x3f8a9904	1.0827947
7	0xbf561ecb	-0.83640736
8	0xbf05915d	-0.5217493
9	0xbf3d589e	-0.73963344
10	0x3f7d5ec7	0.98972744
11	0x3fdccea4	1.7250562
12	0x3e196ae9	0.14982189
13	0xbecbb96e	-0.3978991
14	0x3ea4c6ad	0.32182828
15	0xbe486366	-0.19569167
16	0xbf688969	-0.9083467
17	0x3e86efcc	0.26354825
18	0x3c9420f5	0.018082121
19	0xbff1550c	-1.8854079
20	0xbecc7b3b	-0.39937767
21	0xbe88718d	-0.26649132
22	0xbec83763	-0.39104757
23	0x3e364015	0.17797883
24	0x3f014727	0.50499195
25	0xbfa5ea25	-1.296208
26	0xc0445362	-3.0675893
27	0xbf7fd383	-0.99932116
28	0x400a9d0d	2.1658356
29	0xbf248127	-0.6425957
30	0x3d76063c	0.06006454
31	0x3eb06420	0.3445139
32	0x3dc88bba	0.09792276
33	0xbeec3aeb	-0.461387
34	0x3eacc9b0	0.33747625
35	0xbfcb33ae	-1.5875146
36	0xbf130f32	-0.5744506
37	0x3ea161ad	0.31519833
38	0x401ae981	2.420502
39	0x3f1fcf32	0.6242553
40	0xbea6d55a	-0.3258465
41	0x3f64fb52	0.89445984
42	0xbf756b8c	-0.9586723
43	0x3f0fbbf0	0.56146145
44	0x3f34204e	0.70361793
45	0x3f383a18	0.71963644
46	0x3f040030	0.51562786
47	0x401ba1af	2.4317434
48	0x3e58ded3	0.2117875
49	0x3ffbbb2c	1.9666495
50	0x3e841ae2	0.2580176
51	0xbf43143b	-0.76202744
52	0x3f87f5c8	1.0621881
53	0x3f66370d	0.8992775
54	0x3fc1fe84	1.5155797
55	0xbe46985b	-0.19394056
56	0xbf166104	-0.58741784
57	0x3fb70aad	1.4300133
58	0x3f132a87	0.57486767
59	0x3fcecea0	1.6156807
60	0xbf315184	-0.6926501
61	0x401770b1	2.3662531
62	0x3f91260d	1.1339737
63	0xbe0ef586	-0.13960847
64	0x40743410	3.8156776
65	0x3f86a1dc	1.0518146
66	0x42847fe8	66.24982
67	0x431096f0	144.5896
68	0x430d2125	141.12947
69	0x42d63758	107.10809

bn0.running_var f4 [70]
0	0x3d9278a5	0.07151917
1	0x3e83b02e	0.25720352
2	0x3dd2556b	0.102701984
3	0x3e074c3c	0.13212675
4	0x3d06ee5b	0.032942157
5	0x3d79107e	0.060806744
6	0x3d92a203	0.071598075
7	0x3dabcdea	0.08388884
8	0x3e4219d6	0.18955168
9	0x3d9b38b6	0.07579176
10	0x3dbb716b	0.09152492
11	0x3d90daa3	0.07072952
12	0x3d9b6c63	0.075890325
13	0x3db1ce19	0.08681888
14	0x3d8f44f8	0.069955766
15	0x3d4f235a	0.050570823
16	0x3d50968d	0.050924826
17	0x3e3c9fee	0.18420383
18	0x3d63d4d6	0.055622898
19	0x3ddb01c9	0.106937
20	0x3db3671f	0.08759903
21	0x3d3ea4ff	0.04654407
22	0x3e82fb37	0.25582287
23	0x3dc2cf52	0.095121995
24	0x3c84a210	0.016190559
25	0x3d85d4aa	0.06534703
26	0x3e25085a	0.16116467
27	0x3d0d3a32	0.034479327
28	0x3e238bef	0.15971349
29	0x3d8601c2	0.06543304
30	0x3cf972c4	0.030450232
31	0x3d882359	0.06647367
32	0x3e5186fd	0.2046165
33	0x3e49c0db	0.19702475
34	0x3e40697b	0.18790238
35	0x3e10ea48	0.14151871
36	0x3e5574c6	0.20845327
37	0x3e1108c9	0.14163508
38	0x3da78613	0.081798695
39	0x3f7666fb	0.96250886
40	0x3e8652ad	0.26234952
41	0x3e1918ec	0.14950913
42	0x3d74e744	0.059790865
43	0x3ea41a13	0.32051143
44	0x3d133a47	0.03594425
45	0x3d9cbbf5	0.076530375
46	0x3d1a6d6a	0.037702
47	0x3e9d6f0b	0.30748782
48	0x3e1fe56f	0.15614866
49	0x3dfa9a91	0.122365125
50	0x3dfd7b0a	0.123769835
51	0x3e45ab4b	0.19303624
52	0x3e3df90f	0.1855204
53	0x3d488301	0.04895306
54	0x3d92c985	0.07167343
55	0x3e2e2d74	0.17009526
56	0x3d3086e2	0.043097384
57	0x3e4f40b6	0.20239529
58	0x3ded9941	0.116014965
59	0x3c873b31	0.016507717
60	0x3cd2b979	0.025723206
61	0x3dd5905c	0.10427925
62	0x3d90da21	0.07072855
63	0x3e4c0824	0.1992498
64	0x40268460	2.6018295
65	0x3f0e7392	0.55645096
66	0x44f3206c	1945.0132
67	0x45a2b780	5206.9375
68	0x458bf3a0	4478.453
69	0x4532068f	2848.41

bn1.weight f4 [64]
0	0x3fa83e4e	1.3144014
1	0x3f53e1d8	0.82766485
2	0x3fa0c804	1.256104
3	0x3f531b16	0.82463205
4	0x3fc02179	1.5010215
5	0x3f88e10d	1.069368
6	0x3e45e8a5	0.19327028
7	0x3f112ae3	0.56706065
8	0x3f8bd160	1.0923271
9	0x3f679e27	0.90475696
10	0x3fc1e9a4	1.5149426
11	0x3f8bab1c	1.0911593
12	0x3fa22db5	1.2670199
13	0x3f9c986b	1.2234014
14	0x3f8f4010	1.1191425
15	0x3f9b07a9	1.2111713
16	0x3fa894d3	1.3170418
17	0x3f8ef499	1.1168395
18	0x3faf2294	1.3682427
19	0x3f23ef01	0.64036566
20	0x3fa3a4d2	1.2784674
21	0x3f7f86ee	0.9981526
22	0x3f4e90be	0.8068961
23	0x3f175364	0.5911162
24	0x3f143e7f	0.5790786
25	0x3f2d6bde	0.6774272
26	0x3f24cc87	0.64374584
27	0x3f3dc610	0.74130344
28	0x3f8ace2f	1.0844172
29	0x3f8f1c0d	1.1180435
30	0x3f8b0980	1.0862274
31	0x3f8fabf4	1.1224351
32	0x3f7417cc	0.9534881
33	0x3e9c5ce8	0.30539632
34	0x3fb50e22	1.4144938
35	0x3f904d45	1.1273581
36	0x3f851a74	1.0398698
37	0x3f9d51df	1.229061
38	0x3f8ea15e	1.1142995
39	0x3f14169d	0.57847005
40	0x3eb2bd7f	0.349102
41	0x3f2f9808	0.68591356
42	0x3ffb68a5	1.964131
43	0x3fca8f0b	1.5824903
44	0x3f3d5136	0.73952043
45	0x3f13ab57	0.5768332
46	0x3fb27089	1.3940593
47	0x3febf2b7	1.8433446
48	0x3f9e9682	1.2389681
49	0x3f99816b	1.199262
50	0x3fa7072e	1.3049066
51	0x3fcf19b2	1.6179717
52	0x3f50792c	0.81434894
53	0x3f938017	1.1523465
54	0x3f740bf0	0.95330715
55	0x400c9f5a	2.197226
56	0x3fa4eddc	1.2885089
57	0x3f7259db	0.9466836
58	0x3f9d3504	1.2281804
59	0x3f548bfc	0.830261
60	0x3eb86ee1	0.36022094
61	0x3f7f04e5	0.99616843
62	0x3eb575d7	0.35441467
63	0x3f3e71ce	0.743924

bn1.bias f4 [64]
0	0xbeb12074	-0.34595072
1	0xbf516f25	-0.8181022
2	0x3ef60b3b	0.48055443
3	0x3f36f934	0.71474004
4	0xbeb74618	-0.35795665
5	0x3e01d3ef	0.12678503
6	0x3e1686af	0.14699815
7	0x3d8df7db	0.0693204
8	0x3ddab360	0.10678744
9	0xbf1a2462	-0.60211766
10	0x3e8b84bf	0.27249715
11	0x3c7f6d68	0.015590049
12	0xbe4743bb	-0.19459431
13	0xbd822107	-0.06353956
14	0x3f64b997	0.8934569
15	0x3e94f371	0.2909198
16	0x3d98634b	0.07440814
17	0x3f3ba0fc	0.7329252
18	0x3e189f14	0.14904433
19	0xbe43e2ac	-0.19129437
20	0x3dd284bf	0.102792256
21	0xbdbdb3ef	-0.09262835
22	0xbda14dbc	-0.07876155
23	0x3c1650a0	0.009174496
24	0x3d40c1d8	0.047059864
25	0x3e88b4f8	0.26700568
26	0x3d40049a	0.04687939
27	0xbf24a7a1	-0.6431828
28	0xbd5db465	-0.054127116
29	0x3f4afd40	0.7929268
30	0xbea6c0b4	-0.32568896
31	0x3f4f0643	0.8086893
32	0x3f5fa005	0.87353545
33	0xbf51ab75	-0.8190225
34	0xbea90462	-0.33011156
35	0x3e48ce62	0.19609979
36	0x3e65ce3c	0.22441953
37	0x3f2039e0	0.6258831
38	0x3f3d60af	0.7397565
39	0x3eea5526	0.45768088
40	0xbf527b07	-0.82218975
41	0x3f32dec4	0.69871163
42	0xbdf5d7a3	-0.1200402
43	0x3da6fb52	0.08153404
44	0x3eae1411	0.33999684
45	0x3ca99986	0.020703088
46	0x3de6cb07	0.11269193
47	0x3e9fc15d	0.31202212
48	0xbf3dca4a	-0.74136794
49	0x3ee43169	0.44568947
50	0x3f35ce77	0.71018165
51	0xbe01e10f	-0.1268351
52	0x3dd73f13	0.10510077
53	0x3f5599ea	0.8343798
54	0xbe1c6c11	-0.15275599
55	0xbe85cee9	-0.26134422
56	0x3dfc142c	0.12308535
57	0xbd93613a	-0.07196279
58	0xbe9025ee	-0.28153938
59	0xbd5b2bdd	-0.05350863
60	0xbf7f22d5	-0.99662524
61	0x3ebb8bd5	0.3663012
62	0xbefb61fa	-0.49098188
63	0xbda27a8d	-0.07933531

bn1.running_mean f4 [64]
0	0x400cb419	2.1984923
1	0x3f46e313	0.7769024
2	0x3ed0d20c	0.40785253
3	0x3e08acb0	0.13347125
4	0x3eecd0f2	0.46253163
5	0x3f2cc430	0.6748686
6	0x3fa4ddc4	1.2880177
7	0x3f694114	0.91114926
8	0x3fd7ad93	1.6849846
9	0x3f49e3a4	0.7886298
10	0x406e3644	3.722062
11	0x3ed60f05	0.41808334
12	0x3f49a849	0.7877241
13	0x3f884d18	1.0648527
14	0x3dcb2be9	0.099204846
15	0x3e8ad8ae	0.27118438
16	0x3f6c9443	0.9241373
17	0x3f2e17f1	0.6800528
18	0x40e2db8e	7.089301
19	0x3fa877a1	1.3161508
20	0x3ee2557a	0.44205838
21	0x40b7b99a	5.7414064
22	0x3e58d8a2	0.21176389
23	0x40482413	3.1272018
24	0x40b6c43e	5.7114553
25	0x406487e8	3.570795
26	0x401aca99	2.4186156
27	0x3dcfe9e3	0.10152032
28	0x40642625	3.5648282
29	0x3f98ff51	1.1952916
30	0x3dd521b6	0.104068205
31	0x3f1a8060	0.60352135
32	0x3edd32d6	0.43202847
33	0x3ffe26f0	1.9855633
34	0x3e215c6a	0.1575791
35	0x40155ddd	2.333854
36	0x402fbdb8	2.7459545
37	0x3f589c86	0.84613836
38	0x3ff337a2	1.9001353
39	0x400a481e	2.1606517
40	0x3f4fd914	0.8119061
41	0x3f68a6cf	0.9087953
42	0x404e77cc	3.2260618
43	0x3fafa7bc	1.3723063
44	0x402451e6	2.5674987
45	0x3b36e9ba	0.0027910308
46	0x3f855488	1.0416422
47	0x401215fd	2.282592
48	0x409101d0	4.5314713
49	0x3fdb6b38	1.7142096
50	0x4011652a	2.2717996
51	0x3e3c32f3	0.1837881
52	0x3e8facb7	0.28061458
53	0x3f5e1144	0.86745095
54	0x40cc0aec	6.376333
55	0x4020d785	2.5131543
56	0x3ec05691	0.37566045
57	0x3f059a41	0.521885
58	0x3ec7e167	0.39039156
59	0x40002c4f	2.0027044
60	0x4027039c	2.6095953
61	0x4003b042	2.057633
62	0x3f9a04a3	1.2032665
63	0x40225d16	2.5369315

bn1.running_var f4 [64]
0	0x410f576b	8.958842
1	0x4021e139	2.5293715
2	0x3fa50f69	1.2895328
3	0x3edf9a79	0.4367254
4	0x3f7a40a1	0.97754866
5	0x3fec20f3	1.8447555
6	0x408a0be4	4.3139515
7	0x40260775	2.5942051
8	0x410bde5e	8.741789
9	0x403642ed	2.8478348
10	0x41caebf3	25.36521
11	0x402705b2	2.6097226
12	0x4054b083	3.3232734
13	0x40a1240d	5.0356507
14	0x3e9ea2a8	0.30983472
15	0x3fa087ab	1.2541403
16	0x401a149a	2.4075074
17	0x3fd5fa54	1.6717019
18	0x41b86f2f	23.054289
19	0x41229fa0	10.163971
20	0x3f99adeb	1.20062
21	0x41d79ebd	26.952509
22	0x3ee40e6a	0.44542247
23	0x41184db3	9.51897
24	0x4173b523	15.231723
25	0x4170aeeb	15.042705
26	0x40f182f0	7.5472336
27	0x3e910459	0.2832363
28	0x41169b17	9.412864
29	0x40a2ec6b	5.0913596
30	0x3e06e8be	0.13174722
31	0x40183eb4	2.378827
32	0x3f85f0c0	1.0464096
33	0x4142cd78	12.175163
34	0x3e0ccd05	0.13750084
35	0x4130ed4d	11.057935
36	0x412a1c61	10.631928
37	0x400ad11c	2.169013
38	0x410cef72	8.808458
39	0x41100532	9.001268
40	0x3ff4c1fa	1.9121697
41	0x40805894	4.0108128
42	0x41ad1c50	21.638824
43	0x40bb8023	5.8593917
44	0x40e2f1b9	7.092007
45	0x3bb48de1	0.0055100773
46	0x406fbca7	3.7458894
47	0x4122b2c9	10.168649
48	0x4188ecc9	17.115618
49	0x40b9144d	5.783728
50	0x415b467e	13.70471
51	0x3e53a8df	0.20669888
52	0x3f210f8e	0.6291436
53	0x403676fb	2.851012
54	0x41e57688	28.682877
55	0x4141770d	12.091565
56	0x3f37e74e	0.7183732
57	0x3fac0405	1.3438727
58	0x3fa715cb	1.3053526
59	0x41043bf7	8.26464
60	0x412b8927	10.720984
61	0x40b92590	5.7858353
62	0x4086b263	4.2092757
63	0x40d32310	6.59803

bn2.weight f4 [64]
0	0x3ef11d73	0.4709278
1	0x3ee0ffaf	0.4394507
2	0x3f49bc0f	0.7880258
3	0x3f29c89a	0.6632172
4	0x3f3519db	0.7074258
5	0x3ef217a4	0.4728366
6	0x3f55a970	0.83461666
7	0x3f6db0a8	0.9284768
8	0x3f6f4072	0.9345771
9	0x3f35df90	0.71044254
10	0x3f6f5967	0.9349579
11	0x3f1c9453	0.61163825
12	0x3f09bf41	0.53807455
13	0x3ec710af	0.38879916
14	0x3f5790e3	0.84205455
15	0x3f5f4bfc	0.8722532
16	0x3f44a63d	0.7681616
17	0x3f7f6582	0.99764264
18	0x3f6af0f4	0.91773915
19	0x3f4ee92d	0.8082455
20	0x3f53bb18	0.8270736
21	0x3f4f23f8	0.8091426
22	0x3f618682	0.8809587
23	0x3f512a07	0.81704754
24	0x3f138c26	0.57635725
25	0x3f307cdf	0.6894054
26	0x3eb94816	0.3618781
27	0x3e664e25	0.22490747
28	0x3f7b7e6a	0.9823977
29	0x3f1a39a9	0.6024423
30	0x3e5b9813	0.2144473
31	0x3f78ddc0	0.97213364
32	0x3ed4d506	0.41568774
33	0x3f48e609	0.78476006
34	0x3f4305e2	0.7618085
35	0x3f3708c6	0.7149776
36	0x3f416141	0.7553902
37	0x3f64cf90	0.89379215
38	0x3f012118	0.5044112
39	0x3cd9334c	0.026513718
40	0x3f6bd055	0.92114764
41	0x3f64d266	0.8938354
42	0x3f19d350	0.6008806
43	0x3f58e6a9	0.8472696
44	0x3f2d8414	0.6777966
45	0x3f52847f	0.82233423
46	0x3f3b33ea	0.7312609
47	0x3ecf1fbb	0.40453896
48	0x3f4c6260	0.7983761
49	0x3f0c7de7	0.5487961
50	0x3e9bf415	0.30459657
51	0x3e93f939	0.2890108
52	0x3ec07f2c	0.37597024
53	0x3ecd2fab	0.4007543
54	0x3f3353db	0.7004983
55	0x3de442ab	0.111455284
56	0x3f142f37	0.57884544
57	0x3f4b07f5	0.79309016
58	0x3f6e7fbc	0.9316366
59	0x3ebcd323	0.36879835
60	0x3f74eb75	0.9567178
61	0x3eeb3a66	0.45942992
62	0x3f01eff6	0.50756776
63	0x3e9c0768	0.304744

bn2.bias f4 [64]
0	0x3e0ba45d	0.13636918
1	0x3deb732c	0.11496577
2	0x3ea4e1ba	0.32203466
3	0x3e40d22c	0.18830174
4	0x3e2b4297	0.16724621
5	0x3e25f460	0.16206503
6	0x3e963a95	0.2934157
7	0x3ea0b989	0.31391552
8	0x3eb1b3c0	0.3470745
9	0x3e36f466	0.17866668
10	0x3eccb9ef	0.39985606
11	0x3e36b26e	0.17841503
12	0x3e16c748	0.14724457
13	0x3ddb5f58	0.10711545
14	0x3ea4f5e7	0.3221886
15	0x3eb3205b	0.34985623
16	0x3e948004	0.29003918
17	0x3ec17a9e	0.37788862
18	0x3eb842d7	0.35988495
19	0x3e9e752a	0.30948764
20	0x3e75fd19	0.2402233
21	0x3eb1086d	0.3457674
22	0x3e8609a9	0.26179245
23	0x3e3a45c1	0.18190672
24	0x3e1647a7	0.1467577
25	0x3e847f69	0.25878456
26	0x3da4feb3	0.080563925
27	0x3d176f88	0.0369716
28	0x3eb992bb	0.3624476
29	0x3e3a3ba4	0.18186814
30	0x3c786ada	0.015162194
31	0x3e794fdb	0.24346869
32	0x3dc37356	0.09543483
33	0x3e6587c5	0.22415073
34	0x3df63939	0.12022633
35	0x3e94be89	0.29051617
36	0x3e01b4be	0.12666604
37	0x3e8f551c	0.2799462
38	0x3db70104	0.089357406
39	0x39915b94	0.00027724786
40	0x3ea6e4c6	0.32596415
41	0x3e095ab0	0.13413501
42	0x3e30b1d9	0.17255343
43	0x3ea462ae	0.32106537
44	0x3e6ac87d	0.22928043
45	0x3e8333c7	0.2562544
46	0x3dfe2177	0.12408727
47	0x3dee4d59	0.11635847
48	0x3e6dfabc	0.23240179
49	0x3e2e2ece	0.17010042
50	0x3c487c83	0.012236717
51	0x3da20101	0.07910348
52	0x3d556c96	0.05210551
53	0x3dd982c2	0.10620643
54	0x3e83ed95	0.25767198
55	0x3c82eee2	0.015983049
56	0x3e5c90db	0.21539633
57	0x3e8ccfab	0.27502188
58	0x3eb85bd9	0.36007574
59	0x3d8304c6	0.06397395
60	0x3ecc848d	0.39944878
61	0x3e1246d2	0.14284828
62	0x3e45976e	0.19296047
63	0x3ddb3e74	0.10705271

bn2.running_mean f4 [64]
0	0x3fb28864	1.3947873
1	0x3f2dbd4c	0.6786697
2	0x406dd98b	3.7164028
3	0x3fc783c3	1.5587085
4	0x3f98af16	1.1928432
5	0x4002d6b5	2.0443547
6	0x4002af0b	2.0419338
7	0x3feab404	1.8336186
8	0x40d563a5	6.6684136
9	0x4013a152	2.3067212
10	0x406cde5a	3.7010713
11	0x3f93d907	1.1550606
12	0x4002d008	2.0439472
13	0x3f49eddb	0.78878564
14	0x4042730e	3.0382724
15	0x405af4ee	3.4211993
16	0x408fa9f6	4.489497
17	0x40240e2f	2.5633657
18	0x402d1315	2.7042897
19	0x402333dc	2.5500402
20	0x3fa2c622	1.2716715
21	0x403bb637	2.9329965
22	0x3f980802	1.1877444
23	0x3f011cea	0.50434744
24	0x3f6f7029	0.9353052
25	0x40379863	2.868676
26	0x3ee7a9f3	0.45246848
27	0x3ebc4cd4	0.36777365
28	0x401bbb13	2.433293
29	0x3f90c439	1.1309882
30	0x3c83c96b	0.016087255
31	0x3f7fb11d	0.9987963
32	0x3eef9467	0.4679291
33	0x3f453c07	0.7704472
34	0x3e57bc03	0.21067815
35	0x40357fc9	2.8359244
36	0x3ed253ec	0.41079652
37	0x3fa0ce1e	1.2562902
38	0x3f8cb662	1.0993159
39	0x3a9b7478	0.0011860272
40	0x3fada230	1.3565121
41	0x3ef1a0fd	0.47193137
42	0x40001fb2	2.0019345
43	0x401e9c9f	2.4783094
44	0x408180e5	4.046984
45	0x3f8003d8	1.0001173
46	0x3ee1ccfa	0.44101697
47	0x3f6e81f0	0.9316702
48	0x3f171efc	0.59031653
49	0x3fd957a9	1.6979877
50	0x3c2bdd48	0.010489769
51	0x3f22556f	0.6341161
52	0x3e88b68d	0.26701775
53	0x3f313eab	0.6923625
54	0x3fd17aec	1.6365638
55	0x3d9cef8f	0.0766288
56	0x3fdd49a9	1.7288104
57	0x40d11df6	6.5349073
58	0x40200c17	2.500738
59	0x3ee1baad	0.44087735
60	0x40290a72	2.6412625
61	0x3f5228b1	0.8209334
62	0x3fc29f2f	1.5204829
63	0x3fcebe14	1.6151757

bn2.running_var f4 [64]
0	0x41ab9193	21.446081
1	0x40effbde	7.4994955
2	0x42a3d923	81.924095
3	0x417f2325	15.94608
4	0x41884cc4	17.037483
5	0x41fa7dcf	31.31143
6	0x41d7b1fe	26.96191
7	0x41d18d8b	26.194113
8	0x42f08487	120.25884
9	0x421344e7	36.817287
10	0x42824f63	65.15505
11	0x4186cb57	16.849287
12	0x41bfa7ca	23.956928
13	0x411933c2	9.575136
14	0x4253c655	52.943684
15	0x4250f720	52.241333
16	0x42508732	52.132027
17	0x421fd6ae	39.95965
18	0x42236df4	40.857376
19	0x420d415a	35.31382
20	0x418c924f	17.57144
21	0x423328b0	44.789734
22	0x417371ba	15.215265
23	0x40a5b6ce	5.178565
24	0x4177ee93	15.495746
25	0x421b4efd	38.827137
26	0x40a2c24b	5.0862174
27	0x40d1b507	6.553348
28	0x42011be8	32.277252
29	0x40ff2329	7.973042
30	0x3dc37939	0.09544606
31	0x415955d0	13.58345
32	0x4090f6bc	4.530119
33	0x40f9424c	7.789343
34	0x4007b27d	2.120269
35	0x424bb35f	50.925167
36	0x40b11077	5.53326
37	0x4165fde4	14.374485
38	0x4195504f	18.664213
39	0x3c9088cf	0.01764336
40	0x417f8b5f	15.971526
41	0x40eb000b	7.3437552
42	0x422b5415	42.83211
43	0x4211ccc5	36.44997
44	0x4256bd82	53.685066
45	0x40ee5007	7.447269
46	0x408dda2b	4.432882
47	0x413b5875	11.709096
48	0x408e9848	4.456089
49	0x41bbc588	23.47145
50	0x3dcfd2de	0.101476416
51	0x40e8a746	7.270419
52	0x406ac748	3.6684132
53	0x4108d8f7	8.55297
54	0x41a94e36	21.163189
55	0x3f2cee53	0.67551154
56	0x419fb354	19.962563
57	0x42b27f96	89.24919
58	0x42062e92	33.54548
59	0x40f602dd	7.6878495
60	0x422043ad	40.06609
61	0x410ae757	8.681479
62	0x419c7e84	19.561775
63	0x41bf66e6	23.925243

conv1.mlp.0.weight f4 [64, 18]
0	0xbf9b408c	-1.2129073
1	0xbe83f7f6	-0.25775117
2	0x3d76dadf	0.060267325
3	0xbcd6ecde	-0.026235994
4	0x3d206992	0.03916318
5	0xbd38eace	-0.045145802
6	0x3e670dff	0.22563933
7	0xbde8b60e	-0.11362849
8	0xbabaecf8	-0.0014261296
9	0xbf2a1a4e	-0.6644639
10	0xbe369ced	-0.178333
11	0x3e7464fc	0.23866647
12	0x3fe6d579	1.8033897
13	0x3d341c60	0.043972373
14	0x3e683ff4	0.22680646
15	0xbe8d2088	-0.27563882
16	0xbe9bfadd	-0.3046483
17	0xbeb2c9a6	-0.3491947
18	0x3ea7d106	0.3277666
19	0x3e80e008	0.25170922
20	0x3e3ec8d3	0.18631296
21	0xbe8c9b1a	-0.27462083
22	0x3e08af1a	0.13348046
23	0xbf38482a	-0.71985114
24	0xbdbd2869	-0.09236223
25	0x3f45618b	0.77101964
26	0x3e2c4bd9	0.16825809
27	0xbea8f92b	-0.330026
28	0xbe2ad0de	-0.16681239
29	0x3cf1f17d	0.029534096
30	0xbe64ff20	-0.22362947
31	0xbe78c3de	-0.24293467
32	0x3e108be5	0.14115866
33	0xbdf78894	-0.12086597
34	0xbec0e09e	-0.3767137
35	0x3fa77c6f	1.3084849
36	0x3f837dfa	1.027282
37	0xbe60546c	-0.21907204
38	0xbe83f720	-0.2577448
39	0xbdfc7fa1	-0.12329031
40	0xbca96d27	-0.02068193
41	0x3f2cbcdf	0.67475694
42	0xbed8d87e	-0.4235267
43	0x3f75d887	0.9603352
44	0xbf9ed91c	-1.2410007
45	0x3d4bd594	0.04976423
46	0x3d8c9ab8	0.06865448
47	0x3ea7b381	0.32754138
48	0x3d2f55d9	0.04280648
49	0xbe493a11	-0.19651057
50	0xbf1a5d30	-0.6029844
51	0x3d0743ac	0.03302352
52	0x3f0f7e69	0.5605226
53	0x3ea5040d	0.32229653
54	0xbe5ed57d	-0.21761127
55	0xbdc67f07	-0.09692197
56	0x3e741cfa	0.23839179
57	0xbc3d9f28	-0.01157359
58	0x40093e08	2.144411
59	0xbf84b014	-1.0366235
60	0xbecbdc5e	-0.39816564
61	0xbed004ac	-0.40628564
62	0xbeb01153	-0.34388217
63	0xbe375609	-0.17903914
64	0x3ce82638	0.028338537
65	0xbe0126a8	-0.12612402
66	0xbd101873	-0.035179567
67	0x3f265a52	0.6498157
68	0x3d9b8e91	0.07595552
69	0x3f08caed	0.5343464
70	0x3d6c9a79	0.057764504
71	0x3e91a649	0.28447178
72	0xc041cd52	-3.0281568
73	0xbec625e3	-0.3870078
74	0x3f0db49c	0.55353713
75	0x3e5b6c01	0.21427919
76	0x3e26e397	0.16297756
77	0x3e6510ac	0.22369641
78	0xbef9089a	-0.48639375
79	0xbef351db	-0.47523388
80	0x3f925875	1.1433245
81	0xbe1dd6b9	-0.15413941
82	0xbc8ef512	-0.017450843
83	0xbc045b06	-0.008078342
84	0x3e70cbb8	0.23515213
85	0xbd938c85	-0.07204536
86	0xbc91f570	-0.017817229
87	0xbeeffa0f	-0.46870467
88	0x3f55bf92	0.8349544
89	0xbecc087b	-0.3985022
90	0xbedbaff8	-0.4290769
91	0x404f96cb	3.2435787
92	0x3f204215	0.62600833
93	0xbcbe8888	-0.023258463
94	0xbd6ddd14	-0.058072165
95	0x3d816679	0.06318373
96	0xbe3d208e	-0.1846945
97	0x3d164b59	0.03669295
98	0xbdcaa9eb	-0.098956905
99	0xbc01de31	-0.00792651
100	0x3e37d5a5	0.17952593
101	0x3e0b0e0f	0.13579582
102	0xbd2e4df9	-0.04255483
103	0xbdc73abe	-0.09728001
104	0xbe91850a	-0.28421813
105	0x3e57050d	0.2099802
106	0xbdcc14fe	-0.099649414
107	0x3e4ab527	0.19795667
108	0xbe50f3d4	-0.20405513
109	0x3dd44311	0.103643544
110	0x3da55d05	0.08074383
111	0xbbf28f64	-0.0074023474
112	0x3e130d74	0.143606
113	0x3e1bac1b	0.15202372
114	0xbf47f611	-0.7810984
115	0x3efee381	0.49782947
116	0x3e0111d5	0.12604459
117	0x3f0ad6a9	0.54233795
118	0x3ccc32b3	0.024926519
119	0xbd5d1ad0	-0.05398065
120	0x3d1cc217	0.038271036
121	0x3d1159e1	0.035486106
122	0x3cdca075	0.02693198
123	0x3f0f23db	0.55914086
124	0xbf873969	-1.0564395
125	0xbf9f1ff8	-1.2431631
126	0xbfa40d88	-1.281663
127	0x3dafbf31	0.08581389
128	0xbd6b4e40	-0.057447672
129	0xbdd0fec2	-0.10204841
130	0xbcbf3a45	-0.023343215
131	0x3dfc0fc4	0.123076946
132	0x3ea695d7	0.32536194
133	0x3c00678f	0.00783719
134	0x3df13cb7	0.117791586
135	0xbf431b1a	-0.7621323
136	0x3d985fd2	0.07440151
137	0xbcfed905	-0.031109342
138	0x3fe101d2	1.757868
139	0xbcb56e35	-0.022147277
140	0x3db34a1c	0.087543696
141	0x3da676ee	0.08128153
142	0xbde8d522	-0.11368777
143	0xbd8e4296	-0.06946294
144	0xbf703a2c	-0.93838763
145	0xbc337435	-0.010952999
146	0xbc9d0a15	-0.019169847
147	0xbf975b44	-1.1824727
148	0xb8da9d07	-0.00010424299
149	0x3dc4eb98	0.096152484
150	0xbfe32aa4	-1.7747388
151	0x3e419b57	0.18906914
152	0xbd33e4c9	-0.04391936
153	0xbee25977	-0.4420888
154	0xbc894029	-0.016754227
155	0x3c3931f1	0.011303411
156	0x3f849f3c	1.0361094
157	0xbcff3f6f	-0.031158177
158	0x3eaa5091	0.33264592
159	0xbd92cd14	-0.07168022
160	0x3c0b26d2	0.008493142
161	0xbed6ddcd	-0.41966096
162	0xbf2b1531	-0.6682921
163	0xbbf7e9a1	-0.0075656925
164	0xbe24c510	-0.16090798
165	0x3fa40b10	1.2815876
166	0xbdb6d675	-0.08927623
167	0xbe9e84f5	-0.30960813
168	0xbfd7787f	-1.6833647
169	0xbee86822	-0.45391947
170	0x3e18a1bf	0.14905451
171	0xbebfa211	-0.37428334
172	0xbcc29dbd	-0.023756856
173	0x3c44ccd3	0.0120117245
174	0xbf4276a7	-0.759623
175	0xbdc75c7f	-0.09734439
176	0x3efaef3f	0.49010655
177	0xbea92e56	-0.33043164
178	0x3e6c97ef	0.23104833
179	0xbf380815	-0.7188733
180	0xbf36a6a6	-0.71348035
181	0xbe5f1494	-0.21785194
182	0xbdc7cca0	-0.09755826
183	0xbd5c8165	-0.053834338
184	0xbe947842	-0.28998
185	0x3eb53ab1	0.3539634
186	0x3db67507	0.0890904
187	0xbde1d354	-0.11026636
188	0xbeb98b35	-0.3623902
189	0x3f3e3065	0.74292594
190	0xbe6bbdf1	-0.23021676
191	0xbdcc5d86	-0.09978776
192	0xbd58ff05	-0.05297758
193	0xbdff96bf	-0.124799244
194	0xbf29387f	-0.6610183
195	0x3f83ff82	1.031235
196	0xbf8c1c56	-1.0946147
197	0xbf2a3418	-0.6648574
198	0xbe11e6ce	-0.14248201
199	0x3cf70312	0.030152831
200	0x3e20a6d9	0.15688647
201	0x3d918e40	0.0710721
202	0xbc9f50a0	-0.019447625
203	0xbfbfb37b	-1.4976648
204	0xbe7b46f4	-0.24538785
205	0xbf5310de	-0.8244761
206	0xbf74ba72	-0.9559699
207	0xbcc3a580	-0.023882627
208	0x3d3cffbe	0.046142332
209	0xbd0b068e	-0.033941798
210	0x3dc76cae	0.09737526
211	0x3f0c1352	0.5471698
212	0xbf87b239	-1.0601264
213	0x3fa60e11	1.2973043
214	0xbea6c4a5	-0.32571903
215	0x3f4cfb28	0.80070734
216	0xbe99371e	-0.29924864
217	0x3daffd04	0.08593181
218	0xbe1a435f	-0.15064763
219	0xbe21d183	-0.15802579
220	0x3fd39b0e	1.6531694
221	0xbd51a9dc	-0.05118738
222	0x3e233772	0.1593912
223	0xbe347284	-0.17621809
224	0x3fb57d58	1.4178877
225	0xbeca9908	-0.3956988
226	0x3da4e2d1	0.08051074
227	0xbdad61ad	-0.08465896
228	0xbe551e04	-0.20812231
229	0xbeedb07f	-0.46423718
230	0x3e9b9bf6	0.30392426
231	0xbd89e5f5	-0.06733314
232	0x3f455834	0.7708771
233	0xbf1b78db	-0.60731286
234	0xc05088f9	-3.2583601
235	0x3ed64681	0.41850665
236	0xbf015673	-0.50522536
237	0xbc0cc935	-0.008592893
238	0x3e5a3944	0.21310908
239	0xbe871c31	-0.26388696
240	0x3e046000	0.12927246
241	0x3e828b02	0.2549668
242	0x3f2c3f9f	0.6728458
243	0x3e5c6278	0.21521938
244	0xbe12db31	-0.14341427
245	0x3e3b193d	0.18271346
246	0xbe21593e	-0.157567
247	0x3e9c1219	0.30482557
248	0x3f23da58	0.6400504
249	0xbe78b7eb	-0.24288909
250	0xbd9f72b1	-0.077855475
251	0x3e65c2ea	0.22437635
252	0x3cf196b8	0.029490814
253	0x3e4090f6	0.18805298
254	0x3d8a24ea	0.06745322
255	0xbdd36727	-0.10322409

conv1.mlp.0.bias f4 [64]
0	0xbf3c01b3	-0.7344009
1	0xc0009077	-2.0088174
2	0xbfbbc92d	-1.4670769
3	0xbf060810	-0.5235605
4	0xbd764523	-0.060124528
5	0xbe894aea	-0.26814967
6	0xbfd997c3	-1.6999439
7	0xbf2cdbbb	-0.6752278
8	0xbf6ac9e5	-0.91714317
9	0xbf8be7e7	-1.0930146
10	0xbf9f90c8	-1.2466059
11	0xbf14f64f	-0.5818834
12	0xbecaba9b	-0.39595494
13	0x3f26fe17	0.6523146
14	0xbf81b619	-1.0133697
15	0x3dcd52e9	0.100255795
16	0x3ebb1652	0.36540467
17	0xbedc3857	-0.43011734
18	0xc01ae5f8	-2.4202862
19	0xbef9c517	-0.4878318
20	0xbfd01051	-1.6254979
21	0xbfb7f36e	-1.4371164
22	0x3e834b54	0.25643408
23	0xbe733910	-0.23752236
24	0xbfac50ed	-1.3462197
25	0xbf15b281	-0.584755
26	0xc0191409	-2.3918478
27	0xbfa72f2a	-1.3061268
28	0xbf27c5c0	-0.6553612
29	0xbf812524	-1.008946
30	0x3f0065f2	0.50155556
31	0x3e8e8018	0.27832103
32	0x3f8bcec3	1.0922474
33	0xbefaaaf1	-0.48958543
34	0xbf492e90	-0.78586674
35	0xbf267e32	-0.6503631
36	0xbffd511b	-1.9790376
37	0x3e31cae0	0.17362547
38	0x3e16dc8c	0.1473257
39	0xbff6b5c4	-1.927422
40	0x3e34c607	0.17653666
41	0xbe1df608	-0.15425885
42	0xbf28a8a9	-0.65882355
43	0xbf968b6c	-1.1761298
44	0xbedb2208	-0.427994
45	0xbfd18bc4	-1.6370778
46	0x3e6ee373	0.23328952
47	0xbfddf578	-1.7340536
48	0xbf891770	-1.0710278
49	0xbecdbf6e	-0.40185112
50	0xbfc5e6f6	-1.5461109
51	0xbfad3636	-1.3532169
52	0xbf919e11	-1.1376363
53	0x3efc0e04	0.49229443
54	0xbf0c38df	-0.5477428
55	0xbfd69da4	-1.6766858
56	0xbf6cb9cc	-0.92471004
57	0xbeae312f	-0.340219
58	0xbf1e1274	-0.6174691
59	0xbe9c0496	-0.3047225
60	0xbf8b5e26	-1.0888107
61	0xbf90cb1b	-1.1311983
62	0xbe62a4f4	-0.22133237
63	0xbe9944a4	-0.2993518

conv1.mlp.2.weight f4 [64]
0	0x3fb81f9d	1.4384648
1	0x3f68eba1	0.9098454
2	0x3f8bd6f2	1.0924971
3	0x3f92aaec	1.1458411
4	0x3f903079	1.1264793
5	0x3fbc896c	1.4729438
6	0x3f541929	0.8285089
7	0x3fd1d795	1.6393915
8	0x3fd77d96	1.6835201
9	0x3f977583	1.1832737
10	0x3f42f00d	0.7614754
11	0x3fbc083c	1.4690013
12	0x3f868073	1.050795
13	0x3f87c011	1.0605489
14	0x3fbd880b	1.4807142
15	0x3f7cf893	0.98816794
16	0x3f982fc3	1.1889576
17	0x3fae4640	1.3615189
18	0x3fb31f59	1.3993942
19	0x3f91d46c	1.1392951
20	0x3f86393b	1.0486215
21	0x3fa2139e	1.2662237
22	0x3fa1cc37	1.2640446
23	0x3f927441	1.1441728
24	0x3f6063c1	0.8765221
25	0x3fdd71d7	1.7300366
26	0x3f69e552	0.9136554
27	0x3fb13e77	1.3847188
28	0x3fb2061d	1.3908116
29	0x3f858c00	1.043335
30	0x3fa0bc11	1.2557393
31	0x3f5d0469	0.86334854
32	0x3f8415f9	1.0319206
33	0x3faabb0b	1.3338331
34	0x3f743c00	0.9540405
35	0x3f939587	1.1530007
36	0x3f5db24c	0.86600184
37	0x3f9eafd3	1.2397407
38	0x3f7aea96	0.980142
39	0x3f33495e	0.70033824
40	0x3fd3c553	1.6544594
41	0x3f9e15dc	1.2350421
42	0x3f4500a9	0.7695413
43	0x3fb68fcd	1.4262635
44	0x3fa2c68d	1.2716843
45	0x3f6f59aa	0.9349619
46	0x3f8819d4	1.0632882
47	0x3f55a76e	0.834586
48	0x3f76c7fc	0.963989
49	0x3faedfb1	1.3662015
50	0x3fd269b5	1.6438509
51	0x3f968e3f	1.176216
52	0x3fb923c7	1.4464043
53	0x3fc23ec5	1.5175406
54	0x3fa97fdd	1.3242146
55	0x3f4214b2	0.7581283
56	0x3f58bd68	0.8466401
57	0x3fac27a2	1.3449595
58	0x3f8e62b5	1.1123873
59	0x3fc9f77e	1.5778654
60	0x3fb8fb47	1.4451684
61	0x3f87f727	1.06223
62	0x3fab6dd9	1.3392898
63	0x3fbdbbca	1.4822934

conv1.mlp.2.bias f4 [64]
0	0x3ebbc65e	0.3667478
1	0xbeb413e6	-0.3517143
2	0x3b9e974f	0.0048398147
3	0x3c0ed950	0.0087188035
4	0x3ce396c2	0.027781848
5	0x3e7bff3e	0.24609086
6	0xbe03b0c6	-0.12860402
7	0x3f16b8f6	0.5887598
8	0x3e6ff454	0.23433048
9	0x3dc24d7d	0.09487436
10	0xbdf0d885	-0.11760048
11	0x3e520e3f	0.20513247
12	0x3dab14ce	0.083535776
13	0x3e9a748b	0.3016704
14	0x3e82db83	0.255581
15	0x3f031306	0.512009
16	0x3e23b91c	0.15988582
17	0x3ebe32cb	0.37148127
18	0xbee7d4bb	-0.45279488
19	0xbe5f817a	-0.21826735
20	0xbead2f5b	-0.33825192
21	0x3e6ef396	0.23335108
22	0x3e0b4e98	0.136042
23	0x3e2eed1e	0.1708264
24	0x3d41b096	0.047287546
25	0x3e7d396e	0.24728939
26	0xbebfa05c	-0.37427032
27	0x3e4f8060	0.20263815
28	0x3eeca232	0.46217495
29	0xbbe5e90c	-0.0070163067
30	0x3e0e980e	0.13925192
31	0x3e77cd3c	0.24199384
32	0x3e7cb573	0.24678592
33	0x3dff2340	0.12457895
34	0x3e0acb9f	0.13554238
35	0x3d7e1007	0.062027004
36	0xbe416688	-0.18886769
37	0x3f057336	0.5212892
38	0xbd1c9141	-0.038224462
39	0x3cfec8b7	0.031101568
40	0x3eada33c	0.339136
41	0xbd5e417f	-0.05426168
42	0x3eac3de9	0.33640984
43	0x3ec233dc	0.3793019
44	0xbe97e7e0	-0.29669094
45	0xbe0158ca	-0.12631527
46	0x3e6e2962	0.23257974
47	0xbdd1849c	-0.10230371
48	0xbe4fe132	-0.20300749
49	0x3e676b3c	0.225995
50	0x3ea692c4	0.32533848
51	0xbe370f45	-0.17876919
52	0x3e918e6c	0.28428972
53	0x3f17e2b6	0.5933031
54	0x3e9f9b68	0.31173253
55	0xbe89d943	-0.2692357
56	0xbdd79a30	-0.10527456
57	0x3ea12f3e	0.31481355
58	0xbdacab23	-0.08431079
59	0x3f00ac49	0.50262886
60	0xbea22e98	-0.31676173
61	0xbce02104	-0.027359493
62	0x3e433fab	0.19067256
63	0x3df90740	0.12159586

conv1.mlp.2.running_mean f4 [64]
0	0x3e0bd309	0.13654722
1	0x3eb77a53	0.35835513
2	0x3ee65905	0.44989792
3	0x3e69d918	0.22836721
4	0x3e4d0782	0.20022395
5	0x3f375b3e	0.716236
6	0x3e7a6d3c	0.24455732
7	0x3e26ff9c	0.16308445
8	0x3d7b7d29	0.06139866
9	0x3db9cde3	0.09072473
10	0x3eac3ac9	0.336386
11	0x3e043405	0.12910469
12	0x3f8ef1dc	1.116756
13	0x3f0955f2	0.5364677
14	0x3ef812e4	0.48451912
15	0x3ec8cdfe	0.3921966
16	0x3e9c0586	0.30472964
17	0x3ea7ab0c	0.32747686
18	0x3d2cd97f	0.042199608
19	0x3ea85d0c	0.3288349
20	0x3c0b2721	0.008493216
21	0x3e6108ec	0.2197606
22	0x3f817469	1.011365
23	0x3f9cee9d	1.2260319
24	0x3eb83c3b	0.35983452
25	0x3ef3325e	0.47499365
26	0x3e8ef805	0.279236
27	0x3e974004	0.29541028
28	0x3e9172fc	0.2840804
29	0x3d18f41e	0.037342183
30	0x3fa9e926	1.3274276
31	0x3ff7ee1f	1.9369544
32	0x3f05051e	0.51960933
33	0x3ebc9732	0.36834103
34	0x3f151e1c	0.5824907
35	0x3e2e115c	0.1699881
36	0x3e568407	0.20948802
37	0x3ec4d39f	0.38442704
38	0x3f85ef53	1.0463661
39	0x3c7e9ebc	0.015540775
40	0x3e379a31	0.17929913
41	0x3e5b7773	0.21432285
42	0x3de8d44f	0.1136862
43	0x3ea94ca6	0.3306629
44	0x3f362a63	0.71158427
45	0x3f06fb67	0.5272736
46	0x3edaa320	0.4270258
47	0x3e9b4017	0.30322334
48	0x3f07b29a	0.530069
49	0x3ee93fe6	0.45556563
50	0x3e472548	0.19447815
51	0x3e0f170e	0.13973638
52	0x3ed62233	0.41822967
53	0x3ea66183	0.3249627
54	0x3efb61ca	0.49098045
55	0x3e98c6f7	0.29839298
56	0x3f084674	0.532325
57	0x3eea422b	0.45753607
58	0x3f48cc9c	0.7843721
59	0x3e074c6f	0.13212751
60	0x3ea2e171	0.31812623
61	0x3edb5fa2	0.428464
62	0x3f0b61b1	0.5444594
63	0x3f1aeb60	0.60515404

conv1.mlp.2.running_var f4 [64]
0	0x3e140b45	0.14457424
1	0x3f301946	0.68788564
2	0x3f4f9982	0.8109361
3	0x3e888aeb	0.26668486
4	0x3e9e56b8	0.30925536
5	0x3fb5e06c	1.4209113
6	0x3eb3b773	0.35100898
7	0x3e351263	0.17682795
8	0x3d88056a	0.06641658
9	0x3e013ede	0.12621638
10	0x3f2c1b71	0.6722937
11	0x3e1cc55d	0.15309663
12	0x3fd3d853	1.6550392
13	0x3f74b7a1	0.95592695
14	0x3f3b3406	0.73126256
15	0x3f20a563	0.6275236
16	0x3eff0c0a	0.49813873
17	0x3ee8fbfd	0.45504752
18	0x3d00ab52	0.031413384
19	0x3e763910	0.24045205
20	0x3bdd0736	0.0067452444
21	0x3ed2c064	0.41162407
22	0x3f0c563e	0.54819095
23	0x40040e14	2.0633593
24	0x3f013594	0.5047238
25	0x3f6c876f	0.92394155
26	0x3ed667e4	0.41876137
27	0x3f1e0c14	0.6173718
28	0x3ec7c420	0.3901682
29	0x3ccd4b0f	0.025060205
30	0x404f3370	3.2375145
31	0x4081ba54	4.053995
32	0x3f31936d	0.6936558
33	0x3f424e56	0.7590078
34	0x3f8bacb8	1.0912085
35	0x3e9d6f6c	0.3074907
36	0x3e7cdfe9	0.2469479
37	0x3f10b05c	0.56519103
38	0x3fe78edb	1.8090471
39	0x3c8ec072	0.01742575
40	0x3e316d38	0.1732682
41	0x3e936e0f	0.28794906
42	0x3e07df31	0.13268735
43	0x3f3353fa	0.70050013
44	0x3fa01f50	1.2509556
45	0x3f895564	1.0729184
46	0x3f2b70f8	0.6696925
47	0x3ee75d81	0.45188525
48	0x3f59e19f	0.85109895
49	0x3f51d63b	0.81967515
50	0x3ebe1b55	0.37130228
51	0x3e49543b	0.19661038
52	0x3f2bcf56	0.67113245
53	0x3ec1983d	0.3781146
54	0x3f7fcbf3	0.99920577
55	0x3edc260f	0.42997786
56	0x3f62ac5c	0.8854425
57	0x3f52030a	0.8203589
58	0x3fad2ffd	1.353027
59	0x3e06eb8c	0.13175792
60	0x3ee5e273	0.4489933
61	0x3f3da2d7	0.740766
62	0x3f9d6083	1.2295078
63	0x3f64ca9f	0.89371675
