GraphNeuralNet/Combined/epoch100/MHc-70_MA-65_vs_ttZ/models/ParticleNet-nNodes64_AdamW_initLR-0p001_CyclicLR.pt (torch, 302566 bytes, 102 tensors)

gn0.weight f4 [9]
00000000: 7d22 be3f 86be 333f 0346 4a3f eb37 823f
00000010: ded2 173f 4287 403f fdbd 553f 4c4d 323f
00000020: b835 4f3f
1.4854275 0.7021259 0.7901308 1.0173315 0.5930613 0.7520639 0.83493024 0.69649196
0.80941343

gn0.bias f4 [9]
00000000: 6186 463f e27f 84bc 7420 053c f782 5cbd
00000010: 38f8 a0bd 7b9d 943e b7a7 1c3e de87 8f3e
00000020: 5b05 a2be
0.77548796 -0.01617426 0.008125413 -0.053835835 -0.07859844 0.29026398 0.15298353 0.28033346
-0.3164471

gn0.mean_scale f4 [9]
00000000: 8eec 0d40 dc4d 903d a372 393e 5925 213e
00000010: f65b 9c3f 7470 2340 a2b1 323f 23bc 7c3f
00000020: 3895 5a3f
2.2175632 0.070461005 0.18110137 0.15736903 1.2215564 2.5537386 0.69802296 0.98724574
0.8538394

gn1.weight f4 [64]
00000000: ae89 6e3f 7bbb 763f 0f01 893f db61 613f
00000010: 9e0f 723f 04ea 663f 271f 433f ca26 603f
00000020: 9738 6e3f fc2a 7c3f ad1f 853f 96cb 6b3f
00000030: 3aec 893f f9e5 683f 423a 853f c893 8a3f
00000040: 9f49 6d3f 7148 6f3f d851 7c3f 2f11 493f
00000050: bdd5 7b3f aecd 913f be09 7e3f 09b6 7b3f
00000060: 60af 663f 3e6b 953f d0b7 973f 532c 693f
00000070: 0486 663f 6825 5b3f 5243 723f 2dc5 613f
00000080: 542e 5e3f 4793 673f d9aa 943f 634f 7d3f
00000090: 3bc4 5f3f 5332 583f e3ba 2d3f 4a94 3c3f
000000a0: fb77 633f c194 4c3f 158a 903f 5972 903f
000000b0: 1b17 3b3f 3b28 5f3f 3eea 723f 58b4 6c3f
000000c0: 58cc 6c3f ca45 603f 76d2 693f 5ff8 623f
000000d0: af45 543f 9f02 8b3f 533d 453f 637f 753f
000000e0: 8bfb 623f 381b 633f 9a2e 5b3f cb05 763f
000000f0: 470d 333f dce6 6f3f 1e0b 653f 86b1 793f
0.9317883 0.9637982 1.0703448 0.8803994 0.9455508 0.9020083 0.7621941 0.8755919
0.930551 0.9850309 1.0400292 0.9210752 1.0775216 0.9097591 1.0408404 1.0826349
0.9269046 0.9346991 0.98562384 0.78541845 0.98373014 1.1390893 0.99233615 0.9832464
0.9011135 1.1673353 1.185297 0.9108326 0.9004824 0.8560395 0.9463397 0.8819149
0.8678944 0.904591 1.1614639 0.9894926 0.874088 0.8445179 0.6786329 0.7366377
0.8885495 0.7991448 1.1292139 1.1284896 0.7308213 0.8717076 0.94888675 0.9246268
0.92499304 0.8760649 0.9133676 0.88660234 0.8291883 1.0860175 0.770467 0.958975
0.88665074 0.8871341 0.85617983 0.9610259 0.69942135 0.9371164 0.8947009 0.97536504

gn1.bias f4 [64]
00000000: 22d8 2f3e 3852 c33e 8a3a 3dbf 6cdb 423e
00000010: 0b51 f83e 02ee 733e 06ff b6be e1a1 5d3f
00000020: 5d38 a03e 9dcd 69bd 80e9 573f 79ed b83e
00000030: a319 293d d8a2 943e de44 263e 371d 9cbe
00000040: e7ab c5be 0574 35bf d24b dc3e d38d 50bf
00000050: 725e aabe 6f59 26be 19cf ee3c 85c0 2e3e
00000060: cabb 763f fb80 9e3d 2fe1 d0be d1fb d63e
00000070: 534e a53c e6dd 48be 1af1 353e 1edb d9be
00000080: 36c2 b13e 861c b43e 54df 3b3f f2f2 d9bd
00000090: c0a5 dfbe 694b 29be 166e 50bf 2174 973d
000000a0: 0480 ba3d b7c9 f9be e0c0 533e f9c3 b0be
000000b0: b79c 42be 90dd bc3c cd9f b1be 0930 ba3d
000000c0: d49d ebbd 84ba d53e 2d49 e43d 7571 87bf
000000d0: dc5f 84bf 38be 6bbc b485 abbd 1a5c 293e
000000e0: d033 503e 3c24 65be 25e4 d8bd 91a4 98be
000000f0: 68b4 5c3f 8efd f7be 9c76 75bd df5b 67bd
0.17172292 0.38148665 -0.7391745 0.19029015 0.4849933 0.23821262 -0.35741442 0.8657513
0.31293002 -0.057080854 0.8434067 0.36118677 0.041284215 0.2903049 0.16237208 -0.3049104
-0.38607714 -0.70880157 0.43026596 -0.81466407 -0.3327518 -0.16245054 0.029151486 0.17065628
0.96380293 0.07739445 -0.407968 0.41988996 0.02017895 -0.19615898 0.17767754 -0.42549986
0.34718484 0.35178012 0.73387647 -0.10642041 -0.43681145 -0.16532673 -0.8141798 0.07395197
0.09106448 -0.4878671 0.20679045 -0.34524515 -0.19005094 0.023054868 -0.3469223 0.09091193
-0.11504713 0.41743863 0.1114677 -1.0581499 -1.0341754 -0.014388613 -0.08375111 0.1653904
0.20332265 -0.22377104 -0.1059039 -0.29813054 0.8621278 -0.48435634 -0.059927568 -0.0564841

gn1.mean_scale f4 [64]
00000000: 514d 7e3f 85d5 7a3f 72f7 923f 754d 7e3f
00000010: acfa 6a3f 4df5 673f 9252 213f 0fb9 c33f
00000020: f564 503f eb07 913f bd3b 623f e97f 733f
00000030: dcb6 2b3f c925 9f3f 8743 323f 2247 713f
00000040: 15ce 653f fb06 323f e963 a03f 2002 913f
00000050: 5f70 873f f2b8 683f 5fd3 633f 2997 643f
00000060: fdd8 6c3f 3edf 6f3f 28e8 a03f f774 c53f
00000070: 786f 893f 47c3 9a3f 7607 a53f a587 843f
00000080: 4f4e 643f f5a2 293f 9abc 943f 762d 893f
00000090: 28d0 383f 6e71 c03f fcc7 983f 4612 b83f
000000a0: 629a 843f fc08 803f f281 463f e352 9e3f
000000b0: ef25 9d3f 8285 533f 6bef cf3e 22fb 8c3f
000000c0: 6a11 9f3f 582a 6d3f 615b 953f ab3f 9f3f
000000d0: 8bb7 9f3f b0b1 803f 3227 9b3f 52ee 9a3f
000000e0: b7c4 833f 3d17 823f ca0b 9e3f fb60 383f
000000f0: d1f9 b13f dbeb 983f c045 963f 555e 4f3f
0.99336725 0.97982055 1.1481764 0.9933694 0.91788745 0.90608674 0.6301662 1.529085
0.8140405 1.1330541 0.88372403 0.9511705 0.67075896 1.2433406 0.6963429 0.94249165
0.8976758 0.695419 1.253049 1.1328773 1.0581168 0.90907204 0.889944 0.8929315
0.925186 0.93700016 1.2570848 1.542632 1.0737143 1.2090844 1.2892902 1.0353895
0.8918199 0.6626428 1.1620057 1.0716999 0.7219262 1.5034616 1.193603 1.4380577
1.0359614 1.0002742 0.7754203 1.2369045 1.2277201 0.8262559 0.4061235 1.101414
1.2427189 0.92642736 1.1668512 1.2441305 1.2477888 1.0054226 1.2121336 1.210398
1.0294408 1.0163342 1.2347348 0.7202298 1.3904363 1.1946977 1.1740036 0.81003314

gn2.weight f4 [64]
00000000: 31f5 6e3f 25c6 9f3f 0132 543f 1d5a 613f
00000010: 47b1 903f 3d87 593f 3e1a 4b3f 123f 2a3f
00000020: a2dd 303f e2e6 343f 7621 233f e886 5e3f
00000030: f883 393f 639b 6e3f c89a 723f ee1d 463f
00000040: 607c 7b3f 747e 913f c673 453f 48c0 3c3f
00000050: c5f1 703f 553b 4e3f a683 463f f6cc 1d3f
00000060: cdb1 6b3f 9c83 723f 617a 593f 3c96 343f
00000070: 3e4a 743f 5fa0 3d3f 9023 3b3f 926c 803f
00000080: 040e e33f 4b2e 7d3f bb9e 4b3f 262b 563f
00000090: 0ebf 823f 1117 2e3f 74ee 323f 33f4 4d3f
000000a0: a3cd 573f 7bd1 463f f2da 4d3f df39 893f
000000b0: d3ab 273f 5901 7e3f 7641 6a3f 7253 7c3f
000000c0: b887 493f ddf8 813f 298f 3f3f 50a7 433f
000000d0: 9548 493f 0052 573f 235e 273f 892c 863f
000000e0: 50d8 633f e876 603f a85e 383f d4fc 3d3f
000000f0: 96e4 853f 85f0 543f 4258 813f 89ae 543f
0.9334288 1.2482344 0.828888 0.88028127 1.1304101 0.8497198 0.7933692 0.6650249
0.69088185 0.706648 0.6372293 0.869246 0.72466993 0.9320585 0.9476743 0.7738942
0.98236656 1.1366715 0.7712978 0.737309 0.9411891 0.80559283 0.7754463 0.6164087
0.9206818 0.9473207 0.8495236 0.7054174 0.95425785 0.7407283 0.7310114 1.0033133
1.7738652 0.9889876 0.7953908 0.8365959 1.0214555 0.68003947 0.698951 0.80450743
0.8429815 0.7766339 0.8041221 1.0720786 0.6549656 0.99220806 0.91506135 0.9856483
0.78722715 1.0154072 0.7482782 0.76427174 0.78626376 0.841095 0.65378016 1.0482341
0.8900194 0.87681437 0.72019434 0.7421391 1.0460384 0.83179504 1.0105059 0.8307882

gn2.bias f4 [64]
00000000: 88b9 bbbe a4d8 ea3d 3938 d4be 75ae 0e3f
00000010: 79a9 a23e 9a27 663e d4d0 08be 8cb2 14bf
00000020: 2e4d af3d 49dc 773e 181f e83e d63a afbe
00000030: 891e 20be e149 a3be 092b 723e 1741 d9be
00000040: 0a60 f23d 32ca 483d 95a4 e43d 4860 d8be
00000050: 816e 3a3d bb6e 1fbf 00d2 74be 0fe3 173e
00000060: ecfe 113f ce88 f0be 9951 1cbe 509c efbe
00000070: 120f b5be 5f2a 783f 5807 98be 0c73 a8be
00000080: f941 fd3d cb8a 523d aeab cfbe b896 4ebe
00000090: 29ad 623e 1854 6b3e 66eb a93b a3d7 87be
000000a0: 4937 183e 581e cebc bdc1 f53e 3069 153f
000000b0: 1bb0 e43e 7a7b f1be 91c3 8ebe 8ee9 2e3f
000000c0: f7c7 10bf 5194 7cbd 7da2 f1be 5556 19bf
000000d0: cb91 a63d 18da ddbd a118 51bd 2f44 f53d
000000e0: 006d b0bd 92b0 e4be 2d97 963e 95f4 9a3d
000000f0: 5815 19be 9b7a 3cbc b753 b6be 9582 203f
-0.36664987 0.11467102 -0.41449144 0.5573495 0.31769922 0.22476044 -0.13360912 -0.5808494
0.08559643 0.24205126 0.45336223 -0.34224576 -0.15636648 -0.31892303 0.23649229 -0.42432472
0.11834724 0.049020953 0.11164204 -0.42260957 0.04551554 -0.62278336 -0.23908234 0.1483271
0.57029605 -0.46979374 -0.15265502 -0.46798944 -0.3536306 0.96939653 -0.29693103 -0.32900274
0.12366099 0.051401895 -0.4056067 -0.20174682 0.22136368 0.22981298 0.0051855324 -0.26531705
0.1486484 -0.025160953 0.47999373 0.5836363 0.44665608 -0.47164518 -0.2788358 0.68325126
-0.5655512 -0.061664883 -0.4719428 -0.5989736 0.081332766 -0.10832614 -0.05104888 0.119758956
-0.0861454 -0.44665962 0.29412213 0.075661816 -0.14949548 -0.011503841 -0.35610744 0.6269925

gn2.mean_scale f4 [64]
00000000: 8803 5c3f 6a62 a93f ab70 163f b31d 193f
00000010: beb6 923f 4e1c 8e3f 5f2c 483f 1729 933f
00000020: b6c0 833f 36d6 af3f c42b b23f 8f37 a23f
00000030: b9c4 613f a36e 8d3f 5be6 5f3f a419 773f
00000040: d077 6e3f ee25 733f 1de8 6d3f bddf 1d3f
00000050: caf4 3d3f f4c0 8e3f 3259 813f 1981 9d3f
00000060: 686d 9a3f ab16 613f 13e7 803f 6a92 7b3f
00000070: 6622 863f 093f 803f 073c 7d3f 54bc 7d3f
00000080: 91e9 703f c2fe 813f 1097 6a3f 6231 5b3f
00000090: 1728 703f 573b 703f 206a 8d3f bcf1 703f
000000a0: 0c41 593f 7760 233f d7df 883f efb6 3b3f
000000b0: 979c 5e3f 07f6 683f 831d 803f b093 a63f
000000c0: c1d3 403f bbc6 9e3f 0a8e 573f 9cb9 693f
000000d0: f458 753f 2f6f 9b3f f953 3b3f fb97 9b3f
000000e0: 3ca4 413f 7db2 583f 9010 983f 4833 7c3f
000000f0: eedb 803f 199f 893f 7256 843f 5f9a 573f
0.8594289 1.3233159 0.5876567 0.5981094 1.1462018 1.1102388 0.78192705 1.1496915
1.0293186 1.3737247 1.3919606 1.2673205 0.881908 1.1049389 0.8746087 0.965235
0.9315157 0.9497975 0.929323 0.6166952 0.74201643 1.1152635 1.0105345 1.2305022
1.2064638 0.87925214 1.0070518 0.98270285 1.0479248 1.0019237 0.9891972 0.9911549
0.94106394 1.0155871 0.91636753 0.8562223 0.9381117 0.93840545 1.1048012 0.9411886
0.8486488 0.6381907 1.069331 0.7332601 0.8695769 0.9100041 1.0009006 1.3013821
0.7532311 1.2404398 0.8420111 0.9129884 0.95838857 1.2143306 0.7317501 1.2155756
0.75641227 0.8464735 1.1880054 0.9851575 1.0067117 1.0751678 1.0338881 0.84219927

gn3.weight f4 [64]
00000000: d6b8 863f e5e0 733f bf87 463f f91e 103f
00000010: d136 623f 8e07 773f f172 2b3f e831 2e3f
00000020: 914e 233f cc6f 483f 14d0 303f 08dc 4e3f
00000030: 2a20 543f a4b5 1b3f a142 563f 4b05 033f
00000040: d897 7e3f 1b56 203f a627 5a3f e505 583f
00000050: 3ff7 413f 34cd 503f 2ca3 803f 2a5a 283f
00000060: c558 323f 2a6d 9e3f d531 693f 33ae 5b3f
00000070: 5489 963f ea38 843f c2ce 523f 9225 d33f
00000080: 6b6f 7b3f ff96 213f 3aca 563f 85d1 803f
00000090: 9da6 443f fc0b 463f 7a4e 503f 05e6 0b3f
000000a0: 2d60 723f 40b0 213f defb 523f 0b62 3f3f
000000b0: 2486 2b3f 4a50 493f 3c30 143f d5b2 2c3f
000000c0: f029 4a3f 095b 693f 0862 6a3f f4fa 313f
000000d0: dd7b 443f 7a05 463f 9ce6 1b3f a2c6 5e3f
000000e0: bd4a 613f a2c2 5a3f 53df 3c3f fe67 423f
000000f0: 60d3 1d3f 8a82 453f c265 573f 9775 573f
1.0525157 0.95265037 0.7755088 0.5629726 0.88364893 0.964959 0.6697226 0.680449
0.6379176 0.7829559 0.690675 0.8080449 0.8286158 0.60824037 0.8369542 0.5117995
0.99450445 0.62631387 0.8521675 0.84383994 0.7576789 0.81563115 1.0049796 0.6576258
0.696667 1.2377064 0.9109166 0.8581268 1.1760659 1.0329869 0.8234674 1.649584
0.98216885 0.63121027 0.83902323 1.006394 0.7681673 0.77362037 0.81369746 0.54647857
0.94678 0.6315956 0.8241557 0.74758977 0.6700156 0.78638136 0.578861 0.67460376
0.7897024 0.91154534 0.91555834 0.6952355 0.767515 0.77352107 0.60898757 0.8702184
0.88004667 0.85453236 0.73778266 0.7593993 0.6165066 0.7715231 0.84139645 0.841638

gn3.bias f4 [64]
00000000: 4455 103e 6a8c 17bd d42f 56bc ba13 4bbd
00000010: 7e86 0f3d 8933 22be ed79 a33c c76d 82bd
00000020: 1077 9cbd d9d4 7f3d f173 73bd 2133 4ebd
00000030: 0066 c8bc a641 d93d 5a6b 9ebd ac99 023d
00000040: 481e 2b3d a3fb 093e e266 c53d 8047 8b3d
00000050: 32d9 afbd 02fe 3dbd e447 a83d 76b0 24be
00000060: efa8 5abd a49f 4ebd 4db0 293d d1d6 363d
00000070: a317 8e3d 5d4e f7bd 5279 f63d c521 423d
00000080: 2238 60be 0810 f03c 2eef 0bbd 2fc7 183e
00000090: c8b1 363c e92a 6e3c 1eb5 c03c 040e 223d
000000a0: f4be 04be 7d9d 3a3d eeee 6ebb f239 5bbd
000000b0: 09ec 08ba 2831 b7bc 0f00 eabd c853 96bd
000000c0: 0b6f 803d 4659 9ebd 9157 f83d bad3 043e
000000d0: c9c9 a83d aab3 6abd 0465 993d ffc3 cbbc
000000e0: f492 63bd 8583 343e 0cd0 5fbd 2ec2 50bd
000000f0: 903d d3bd b77c 313d d59d 533c 596c dabc
0.14095026 -0.036999144 -0.013072927 -0.04957936 0.03504037 -0.15839972 0.0199556 -0.063685946
-0.07639897 0.062458847 -0.059436742 -0.05034173 -0.0244627 0.106082246 -0.077353194 0.031884834
0.041776925 0.13474898 0.09638764 0.06800747 -0.085863486 -0.04638482 0.08216837 -0.1608294
-0.053383764 -0.050445214 0.0414279 0.04463846 0.06938102 -0.120754935 0.12034859 0.047395486
-0.21896413 0.02930452 -0.034163646 0.14919733 0.011150785 0.014536598 0.023523863 0.039564148
-0.12963468 0.04556035 -0.003645833 -0.053522058 -0.000522316 -0.022362307 -0.114257924 -0.07340199
0.0627118 -0.07731871 0.12126077 0.12971392 0.082416125 -0.057300247 0.0748997 -0.024873732
-0.055560067 0.17628296 -0.05464177 -0.050966434 -0.103144765 0.043331828 0.012916048 -0.026662992

gn3.mean_scale f4 [64]
00000000: 959e 3b3f e0e1 9f3f 0592 9f3f 154f 893f
00000010: 224c 453f 3c47 993f cff0 683f 7145 5e3f
00000020: bbdc 8b3f d042 543f 1cb9 713f 585f 543f
00000030: 15a0 933f 5581 673f 1579 553f 9c88 873f
00000040: e4f5 943f 397b 8a3f 285c 933f 6267 623f
00000050: 0738 8d3f c194 8b3f 417d 303f 481a 6a3f
00000060: 36d1 973f e682 093f 3b89 973f e374 913f
00000070: acba b23f 8ed9 a63f 3e80 713f f96c b03f
00000080: 43a2 973f a2b5 6a3f 58ef 263f f13c a83f
00000090: 1b15 633f abe0 583f abfd 8d3f 583a 8d3f
000000a0: e412 993f 2d7a 903f 443e 433f 7ac8 8c3f
000000b0: 5046 6b3f 4ac9 8b3f 0a57 673f 2b9c 563f
000000c0: 98bf 5c3f 6efc 943f 28d3 9b3f ee05 673f
000000d0: f2de 893f e7f0 8c3f e1b1 903f 777a 943f
000000e0: e1f0 3b3f 62f3 973f 7724 613f a60c 623f
000000f0: 4a2e 4b3f c939 5d3f 4c9a 203f aab9 513f
0.7328885 1.2490807 1.2466437 1.0727259 0.77069294 1.1974864 0.90992445 0.8682471
1.0926737 0.8291445 0.9442308 0.82957983 1.1533228 0.9043172 0.8338788 1.0588565
1.163754 1.0818855 1.1512499 0.88439 1.1032723 1.0904771 0.6894112 0.9144635
1.1860721 0.5371536 1.1838754 1.1363796 1.3963218 1.3035142 0.9433631 1.3783256
1.1846393 0.916834 0.6520896 1.3143598 0.8870408 0.84717816 1.1093038 1.103343
1.195889 1.1287285 0.76266885 1.099868 0.91904163 1.0920804 0.90367186 0.83832043
0.8622985 1.1639535 1.2173815 0.90243423 1.0771163 1.1011018 1.1304284 1.1599873
0.7341443 1.187115 0.87946266 0.8830055 0.79367507 0.864163 0.6273544 0.81923926

bn0.weight f4 [70]
00000000: 55a2 5b3e c79c 973e 7bd2 073f e06e 913e
00000010: 8f36 773e b027 083e 9146 d03e 5f5c e03e
00000020: b9c6 e23e b3fe aa3e 5a81 893e 5e7a ff3e
00000030: eca2 ea3e 9a26 233e e421 bf3e a9e7 a33e
00000040: 52ff b83e 00a8 163f 23a3 9b3e 1bbe b73e
00000050: 7ce3 893e 46af e03e d827 6d3e a35a 8d3e
00000060: ea62 673e 02d0 8d3e 13a0 c83e c8cb a93e
00000070: 5140 9b3e 5031 b33e e073 533e 18e6 e83e
00000080: 833f 723e dc67 bb3e f5a5 af3e 431d 283e
00000090: d80b 213e 6be8 f63e c06f f33e 3ba3 883e
000000a0: dbfb bc3e a88f cf3e 6791 0d3e 6e0d bd3e
000000b0: fbc6 bb3e 4899 a73e 5bf7 913f 519c 9e3e
000000c0: 47c1 dd3e c66b 963e 919f 8b3e 3a10 843e
000000d0: 0f70 d53e 52e8 8b3e 3f26 b83e ffb8 f63e
000000e0: 180c e13e 3199 663e 8565 033f ef6d 1b3f
000000f0: 0409 bf3e 667e 9a3e 068b 9b3e 31d0 5d3e
00000100: 4b00 b33f 45de 8b3f 87ba f53f a7b3 e03f
00000110: 6ff0 f23f 533d e33f
0.21448644 0.296118 0.5305554 0.28404903 0.24141906 0.1329639 0.40678838 0.43820474
0.44292238 0.33397445 0.268565 0.49898046 0.45827425 0.15932694 0.37330544 0.3201268
0.36132294 0.588501 0.303979 0.35887226 0.2693137 0.43883723 0.2315973 0.27608213
0.22596326 0.2769776 0.39184627 0.33163285 0.30322507 0.3499856 0.20649672 0.45488048
0.2365704 0.36602676 0.34306303 0.16417412 0.15727174 0.48224196 0.47546196 0.26687035
0.369109 0.4053929 0.13824998 0.3692431 0.36675248 0.32734132 1.1403612 0.30978635
0.4331152 0.293791 0.27270177 0.2579363 0.41687056 0.27325684 0.3596668 0.48188016
0.4395454 0.22519375 0.5132678 0.6071462 0.37311566 0.3017456 0.30379504 0.2166145
1.3984464 1.0927206 1.9197549 1.7554826 1.8979625 1.775309

bn0.bias f4 [70]
00000000: 02cc 01bd aadf 153d ac70 613d 9a8a 78bd
00000010: 03fd 2bbd a91a e1bd 9584 8f3d edd3 8cbd
00000020: d7e7 0bbe 09ae 50bd 65b4 14be 457b 553d
00000030: eb6e 143d d1d4 84be d0b4 233e 9b5f 3cbc
00000040: 44c9 ed3b c6ac 133e b436 b83d cdd9 87bd
00000050: 930f b23d 158b babd 9564 6cbd 00ad a9bd
00000060: 72d6 58bc 49be e3bd a8da 623d 38fe 2a3c
00000070: 70e9 4cbd d678 04bd b93a 27be 2f24 8ebb
00000080: 4a74 563c 8143 64bd a10b 1d3e 8a60 573d
00000090: 6561 133d da85 e73d aec3 e53d ca56 3b3d
000000a0: 7283 583c 640a cd3d dc54 52bd 4e1c b03b
000000b0: 5106 b03d 71ee 89bc be5a 43bd 1b88 52be
000000c0: 984b 323e 1765 a9bd d6ad 4f3e 2e1f 833d
000000d0: 1cb9 2cbe 318b 353e 0f1e 833d 4ec0 8c3e
000000e0: affe 643c 7d60 a73b c6db abbc e753 23bd
000000f0: 4eb1 9a3e 6484 04be 3350 0dbd 945c c43d
00000100: f2fb 36be 265a 9a3d f26c f53e e767 c73d
00000110: 5155 1c3e e836 053c
-0.031688698 0.036590256 0.055039093 -0.060679056 -0.041989338 -0.10991413 0.0700771 -0.06876359
-0.13662659 -0.050947223 -0.1452194 0.052119512 0.036238592 -0.25943616 0.15986943 -0.0114974035
0.0072566587 0.14421377 0.08994809 -0.06633339 0.08694377 -0.09108559 -0.05771311 -0.0828495
-0.0132347215 -0.111202784 0.055384308 0.010436587 -0.05002731 -0.0323418 -0.16330995 -0.0043378095
0.013089249 -0.05572844 0.15336467 0.0525823 0.035981555 0.11304827 0.112189636 0.045737065
0.013214933 0.100117475 -0.05135046 0.005374468 0.08594955 -0.01683733 -0.04769396 -0.20559733
0.17411649 -0.082712345 0.20281157 0.064024314 -0.16867489 0.17728879 0.064022176 0.27490467
0.013976737 0.005107938 -0.02097882 -0.039874937 0.30213398 -0.12941128 -0.034500312 0.095879704
-0.17869547 0.07536726 0.4793468 0.09736615 0.1526692 0.008130766

bn0.running_mean f4 [70]
00000000: 6f7a c4bd 5a8e 3c3f a888 9ebf c5cb f93e
00000010: 2cf0 213f 87eb f53e 8923 06bf fa6d 023f
00000020: 8cf7 843e fca0 063f 2da5 b03f a7cb 1e3c
00000030: 8173 8abe b82d 8cbd 4e2c e43d b0da 39bf
00000040: feb5 e8bd a9b5 23bf 75ea 3f3f 9d7a b6bf
00000050: d074 e9be 09f4 46bf 0c06 f6be 6dd7 343e
00000060: 0763 cb3f 53f3 7fbf 5891 62be 5933 013f
00000070: d5ee ff3d 4148 523f f87c 4d3d 01f8 0bbe
00000080: a3d8 073f 1697 563e 3396 22bd 6592 673d
00000090: 3f12 74be 970a a53e af1d 28bf ed9f 48bc
000000a0: 9a3e 3f3e 9e07 32bf 5c18 153f 60ee 613e
000000b0: 91d1 af3e 5cf9 13bf 9323 a0bf 36b9 743f
000000c0: 5ad3 4ebf c57c 903e 1da5 75be 5a70 b8bf
000000d0: 592b 32bf d7a7 91bd 51ca c1be 7e02 253f
000000e0: cd17 b9be f98f d6be 02be a13e afd1 ecbe
000000f0: 23a1 3d3f 9c8c eabe 6868 42bf fcf1 083f
00000100: 69af 8e40 1aab be3f 650e 9d42 2978 bb42
00000110: 9425 cf42 eaa6 8742
-0.09593665 0.7365471 -1.2385454 0.48788276 0.632571 0.48031256 -0.5239797 0.5094906
0.25970113 0.5258939 1.3800408 0.009692109 -0.27041247 -0.06844658 0.11141263 -0.72599316
-0.11362837 -0.63949066 0.7496713 -1.4256169 -0.45596933 -0.7771612 -0.48051488 0.17660303
1.5889596 -0.9998066 -0.22125757 0.50468975 0.124967255 0.821415 0.050168008 -0.13668825
0.53064936 0.20956072 -0.039694022 0.056536097 -0.23835085 0.32234642 -0.65670294 -0.0122451605
0.18676224 -0.6954287 0.58240294 0.22063589 0.34339574 -0.5780237 -1.2510856 0.9559511
-0.80791247 0.28220192 -0.23988767 -1.4409287 -0.69597393 -0.07112091 -0.37849668 0.6445693
-0.3615097 -0.41906717 0.31590277 -0.46253726 0.74074 -0.458104 -0.7594056 0.5349424
4.4589124 1.4895966 78.528114 93.73469 103.573395 67.826004

bn0.running_var f4 [70]
00000000: e1c9 773c bbc7 953d 2144 053e 541c e23c
00000010: 3271 843c f19a ba3b e1c8 b03c 54b5 2d3d
00000020: 71dd 783c 78bf bf3c 9415 6f3c 3077 513d
00000030: 2442 f23c d4f8 bd3b ddaa 4f3d 1bb1 ae3a
00000040: 0b1a 543c 4053 183d 557f 8e3c 3353 203d
00000050: 3736 923c 7fff 213c 285a 613d 163a e23b
00000060: ff4c 1b3c 0d50 a33d 9596 d23c fff2 103d
00000070: 35e6 633d db5a b43c 2d74 373c a9ea 353e
00000080: 30a4 3f3c 4e77 833c b409 d83c 4bb0 793d
00000090: 75a6 c23b e65b e03c 995a 463c 7982 8e3c
000000a0: de60 aa3c 172d 033d 9d8b aa3c e3d1 133d
000000b0: 0fb2 223c a708 063c 7623 e83d fda1 363d
000000c0: 2bcb ea3c f9e6 a63c b62a 443c b85c e93b
000000d0: 00f9 113c dd52 023c 1b3b 8d3c 082e 4c3d
000000e0: e80f 343d af90 2d3c f028 cf3c df91 c13c
000000f0: 1af9 4c3c 5b6a 033c 2a43 283d 82b3 623c
00000100: b189 5740 bf68 123f 4864 3745 36d0 b045
00000110: 08c1 cc45 4827 2c45
0.015123815 0.07313486 0.1301427 0.027601399 0.016167257 0.00569474 0.021580162 0.042409256
0.0151895145 0.02340673 0.014592547 0.051139057 0.029572554 0.005797485 0.050700057 0.0013327928
0.012945662 0.03718877 0.017394701 0.039141845 0.017848117 0.009887575 0.05501762 0.006903897
0.0094788065 0.07974253 0.025706569 0.03538799 0.055639464 0.02201598 0.011197132 0.17765297
0.01169686 0.0160481 0.026371814 0.06095914 0.0059402534 0.02738757 0.012106561 0.017396199
0.020798143 0.032025423 0.020818526 0.036088835 0.009930148 0.008180774 0.11334889 0.044588078
0.028661331 0.020373808 0.011973074 0.0071216486 0.008909464 0.007954326 0.017240098 0.049848586
0.043960482 0.010593577 0.025288075 0.023629127 0.012510562 0.008020963 0.041079678 0.013836743
3.367779 0.5719108 2934.2676 5658.0264 6552.129 2754.455

bn1.weight f4 [64]
00000000: 6a8a 703f 68d0 3b3f cab9 3c3f ca70 7e3f
00000010: 19c8 863f fc88 3a3f 7a7e 503f 3463 553f
00000020: 09ab 633f 316c 8f3f bad3 893f 816d 3e3f
00000030: 774b 893f 51df 943f 3946 733f b8dc 5b3f
00000040: b10b 693f 83ea 5e3f 2356 5d3f e5ab 9e3f
00000050: b378 843f 6dfd 873f ee69 633f 486f 463f
00000060: 8c4e 373f f9db 863f 1958 8b3f d615 8c3f
00000070: a0cd 833f 6bcb 7a3f 742a 793f 74cd 7e3f
00000080: 401c 8d3f df0e 893f 2725 783f 61ec 8d3f
00000090: 442d 5f3f 68b3 8f3f 5546 583f f96b 883f
000000a0: 816b 793f 9d2d 653f 689d 713f 56a5 7a3f
000000b0: 3d31 9b3f 0962 3b3f 6897 823f 4919 823f
000000c0: db8d 513f 7928 6f3f d5db 743f 2c18 423f
000000d0: d4c8 9a3f 9a02 713f 438f 973f 98d3 8b3f
000000e0: a162 4b3f af82 773f 90ac 903f 7715 1b3f
000000f0: 7af7 483f fc21 6d3f 9e95 7d3f cad6 263f
0.93961203 0.7336488 0.7372099 0.9939085 1.0529815 0.7286527 0.8144299 0.83354497
0.88932854 1.1204892 1.0767739 0.7438584 1.0726155 1.1630651 0.95029026 0.85883665
0.91033465 0.87076586 0.8645956 1.2396208 1.0349334 1.0624214 0.8883351 0.7751355
0.7160423 1.053588 1.088626 1.0944164 1.0297127 0.9796664 0.97330403 0.99532247
1.1024246 1.0707663 0.9693169 1.1087762 0.87178445 1.1226625 0.8448232 1.0657951
0.9742966 0.89522725 0.9438081 0.9790853 1.2124401 0.73196465 1.0202456 1.0163966
0.8185708 0.9342113 0.9564794 0.75818133 1.2092538 0.94144595 1.1840595 1.0923948
0.7944737 0.9668378 1.1302662 0.6057963 0.7850262 0.9262998 0.9905642 0.6517149

bn1.bias f4 [64]
00000000: 5712 0ebe e805 983d 5a8e 05be d089 3cbd
00000010: 84be f9bd b834 6fbd 494a 583d 48fe 993e
00000020: d170 843e 9307 a0bd e892 d6bc 14d7 1e3e
00000030: 6199 033f f553 6dbe 3deb 6e3e 0fb5 05bf
00000040: d9f7 8abe d2e3 7a3e 0811 b53c 6041 d83e
00000050: 6ab2 54be a0c6 b53e 69bd 0c3e f3b9 12bf
00000060: 3478 223e b5fa 2dbe 0f30 d83d 68c1 74be
00000070: 8fa7 68bd 3254 473d 1184 5b3e b32c 4bbe
00000080: 1e5f 613d 9c94 5fbe fcb8 53bd f011 b9be
00000090: 77a4 10be 3a34 a93d c1cb bc3e 274c 443d
000000a0: d3dd 5e3d c5b6 ba3e 4a4f 1d3e 1023 8f3e
000000b0: 1516 ab3e 92c1 5bbc 746f 8d3d 1218 fabb
000000c0: 5868 613e 01b9 5fbf 468d ea3e 2da3 bebe
000000d0: 37d2 ee3e d1a3 b4be e50e 813e 6b25 cf3e
000000e0: a823 86bd f889 21be 5d5b 8abe 39d6 c13e
000000f0: 66bf 243e 18da 4a3d 2b4e a0be 728e 30bf
-0.13874184 0.074230015 -0.13042584 -0.046029866 -0.12194541 -0.058399886 0.05280522 0.30076814
0.25867322 -0.07813945 -0.026193097 0.15511733 0.5140591 -0.23176558 0.23331924 -0.522294
-0.27142218 0.24500969 0.022102848 0.42237377 -0.20771185 0.355031 0.13744129 -0.57314986
0.15866166 -0.16990168 0.105560414 -0.23901904 -0.05680042 0.04866428 0.21437098 -0.1984127
0.05502235 -0.21834034 -0.051690087 -0.36146498 -0.14125238 0.082619146 0.36874202 0.047924187
0.054410767 0.36467567 0.15362278 0.27956438 0.33415285 -0.01341285 0.069060236 -0.007632264
0.2201246 -0.8739167 0.45810908 -0.37233868 0.46644756 -0.35281232 0.25206676 0.40458235
-0.0654977 -0.15775287 -0.2702283 0.3785875 0.16088638 0.049524397 -0.31309637 -0.68967354

bn1.running_mean f4 [64]
00000000: 7756 113f a6e8 253f a166 3c3f cd84 3e3f
00000010: 881d 9c3e 4804 603e 5419 e73e 95d7 f23d
00000020: 528d 063f 152a e73e 2ea1 353e 35fc 943e
00000030: 0a4f aa3e b82e f73e cbca 4a3f 3fdd c93e
00000040: ef5f e53e fb19 a43e 3d69 473e 4dc9 b33e
00000050: 406b ac3e 0784 963e 47c2 9f3f 0567 293f
00000060: 4bd9 093e e98b 033f a012 133f b5af 133f
00000070: ce76 c73e d92e 043f 230f 1d3f 72c6 223f
00000080: b261 533e 5697 053f ed1c 743d f818 d03e
00000090: 70d1 b73e a479 cf3e e42e 6a3e 000c 9a3e
000000a0: a4e4 473e dcf3 033f 7275 d63e e33f e13e
000000b0: fa0a 083f c3d6 933e c870 0d3f f448 c83e
000000c0: 4957 df3e d1fb 1f3f b42b 243f 8a6d 8e3e
000000d0: ecc0 033f d5ae 033f 5792 433f c80d 063f
000000e0: b579 a23e 556f 383f b74c 693f 112e c53e
000000f0: f04a 6c3e f5b9 0a3f a542 243f f293 be3e
0.5677256 0.6480812 0.735941 0.7442139 0.3049128 0.21876633 0.4513651 0.11857525
0.5255939 0.45149294 0.17737266 0.2909867 0.33263427 0.4827783 0.7921569 0.3942661
0.44799754 0.32051072 0.19473739 0.35114518 0.33675575 0.29397604 1.2481164 0.6617282
0.13461797 0.5138536 0.57450294 0.5768998 0.38957828 0.51633984 0.6135122 0.63584054
0.20642737 0.52184045 0.0595979 0.4064405 0.35901976 0.40522492 0.2286945 0.3008728
0.19520813 0.51543975 0.4188648 0.43994054 0.5314175 0.28874788 0.55250216 0.3911816
0.4362128 0.62493616 0.64129186 0.27817947 0.5146625 0.5143865 0.7639517 0.5236478
0.3173348 0.7204488 0.9113268 0.38511708 0.23075461 0.5419 0.6416419 0.37222248

bn1.running_var f4 [64]
00000000: 0d69 083f ef1a 2a3f aa12 323f 218d d73f
00000010: aad0 713e 9781 233e 814d 023f d75f 0a3e
00000020: 6558 0d3f b5e0 ee3e 5a76 133e 0225 bb3e
00000030: 18a5 143f 7b63 d13e afe1 0a3f 19bf d73e
00000040: ea4d ed3e 4030 ba3e 5b20 463e d835 d13e
00000050: 3bbb 953e 0708 063f 1d61 9a3f 32f4 503f
00000060: b2fb aa3d 52b6 373f a6d9 203f 4cd3 153f
00000070: cf7b d73e e1eb 163f b619 4d3f 0978 143f
00000080: 64f6 2b3e a48f c83e 3be2 203d fa15 c13e
00000090: 48a2 d33e 3668 033f 6034 4f3e dd9e 553e
000000a0: fb7b 7c3e 0e3a f73e 4359 db3e 5051 d83e
000000b0: 599f 0240 1648 7f3e 873d dd3e 6086 c93e
000000c0: fe17 f23e a927 3e3f 8e55 0c3f 43af 983e
000000d0: 69cc c63e 1998 ac3e 2e6e 343f c0ef 083f
000000e0: 031c 693e 6168 1b3f e210 263f b7cf 9c3e
000000f0: 05c9 4d3e 07fc 0d3f dace 683f fd67 bd3e
0.53285295 0.6644735 0.6955973 1.6839944 0.23614755 0.15967403 0.5089951 0.13513122
0.55213004 0.46655813 0.14400616 0.36551672 0.58064413 0.4089621 0.54250616 0.42137983
0.46348506 0.36364937 0.1934828 0.40861392 0.29244408 0.52356 1.2060887 0.8162261
0.08348788 0.71762574 0.62832105 0.5852554 0.42086646 0.5895367 0.80117357 0.5799566
0.1679321 0.3917209 0.03927825 0.3771208 0.41334748 0.5133089 0.20234823 0.20861383
0.2465667 0.4828648 0.4284154 0.42249537 2.0409758 0.24929842 0.43211004 0.39360332
0.4728393 0.74279267 0.54818046 0.29821214 0.38827828 0.3370979 0.7048062 0.5349083
0.22764592 0.60706145 0.6486951 0.30627224 0.20096214 0.5546269 0.9094063 0.369934

bn2.weight f4 [64]
00000000: ef0f 013f 6f4b 783f e261 6c3f dc12 503f
00000010: 3919 773f 5227 453f 940d 633f 1933 503f
00000020: 9aac 723f bb57 693f 5515 343f fce3 4c3f
00000030: 3f18 5c3f 9abd 603f f3cc 893f 6ffb 763f
00000040: 0aef 6f3f e4f4 6b3f 41c3 8e3f 0df2 703f
00000050: ede9 7e3f 1427 5b3f 4299 683f 37d4 663f
00000060: 94b0 753f a13f 863f 38a4 673f db48 903f
00000070: 3f7c 623f 05e2 893f c5fa 793f dc17 843f
00000080: fba3 883f 95b9 623f 60af 553f 6161 7d3f
00000090: c647 693f 18b6 893f 45b4 893f 6c09 4a3f
000000a0: 6fc0 843f cb29 643f 50e7 533f 9c60 833f
000000b0: be5e 5d3f b9d0 663f 2bf3 6e3f 4b60 5b3f
000000c0: a1d8 883f ee4d 813f 3805 723f 29ae 763f
000000d0: 9e11 893f 0a6e 533f 8817 4b3f 5fbc 6d3f
000000e0: c058 733f 1c0c 813f da9e 733f ef56 853f
000000f0: 0f30 673f e9b5 4a3f 0d37 513f e602 553f
0.5041494 0.969901 0.9233686 0.8127878 0.9652286 0.77013123 0.88692594 0.8132797
0.9479462 0.9114949 0.7034505 0.80035377 0.85974497 0.8778931 1.076567 0.9647741
0.9372412 0.9217055 1.1153337 0.9411934 0.9957569 0.85606503 0.9085885 0.90167564
0.9597256 1.0488168 0.9048495 1.1272234 0.88470834 1.0772101 0.9764827 1.0319781
1.0675043 0.88564426 0.83470726 0.98976713 0.9112514 1.0758696 1.0758139 0.78920627
1.0371226 0.8912627 0.8277483 1.0263858 0.8647269 0.90162235 0.93339795 0.85693806
1.069111 1.0101907 0.94539213 0.963595 1.0708501 0.8258978 0.7933278 0.92865556
0.95057297 1.008182 0.95164263 1.0417155 0.90307707 0.7918382 0.81724626 0.8320755

bn2.bias f4 [64]
00000000: c907 153e 4c14 0b3e 80ce 673d 8ab7 0a3e
00000010: a4fe a03d 1877 4b3e d6c9 943d 38fe 193e
00000020: a205 bb3d 648b cb3d e260 023e 3756 1f3e
00000030: 13ef af3d eda0 f83d ac39 ab3d 7bce 1e3e
00000040: de4f 733d 1b21 c53d 1caf 093d eaed cd3d
00000050: 13ce 113e 9903 163e 0c9b 4b3d 04ad ae3d
00000060: fee7 0b3e a73d e43d 31a5 113e aedb aa3d
00000070: 005f 233e d13c 7c3d 4c73 813d 8f10 c43d
00000080: 273c 233d 2687 093e 853d 1b3e 8ddd a03d
00000090: 0553 053e 850a ba3d 2bb6 f83d 0054 c83d
000000a0: 00e9 2d3e 750a ec3d 45ff 323e 7d49 8f3d
000000b0: 7bf9 ac3d 5996 813d b592 203e 90a6 f43d
000000c0: fe90 213e f5ed 833d fb69 0f3e 0205 a13d
000000d0: efe2 a23d 0624 bc3d 1078 173e b101 f83d
000000e0: a8f3 753d 1dcc 823d 5279 bc3d aadd 8f3d
000000f0: b08a 2f3e 58c3 fe3d dc75 273e 4cde 203e
0.14553751 0.13581961 0.056593418 0.13546577 0.07861069 0.1986965 0.0726506 0.15038383
0.09131934 0.09938696 0.1273227 0.15560232 0.08590522 0.12140069 0.083606094 0.15508454
0.05940234 0.09625455 0.033614263 0.10055144 0.14238767 0.1464981 0.04970841 0.08529094
0.13662717 0.11144572 0.14223172 0.08342682 0.15954208 0.061581437 0.06320819 0.09573471
0.039852288 0.13430461 0.15160187 0.078547575 0.1301995 0.09084038 0.12144121 0.09781647
0.16983414 0.11525432 0.1748019 0.06996439 0.08446022 0.06327505 0.15680964 0.11945832
0.15777966 0.06441871 0.14005272 0.07862283 0.079534404 0.091865584 0.14791894 0.121096976
0.06004682 0.06386588 0.092028275 0.07024701 0.17142749 0.124396026 0.16353554 0.157098

bn2.running_mean f4 [64]
00000000: 54b2 f43e 86e9 dd3e 318d a13e f484 7a3e
00000010: c2bc 0e3f d856 8b3e 357b c13e 3e7d 303f
00000020: 66d2 de3e 4cfa 6e3d 6455 9b3f e3fc ad3e
00000030: 5e4b 293f 124a b93e 4348 c93d 19e3 0c3f
00000040: 640a b43f 0dc3 593e d519 9a3e 0452 1d3f
00000050: 9b75 9b3e 0f55 5e3f 1ad9 973f 0408 f83e
00000060: ee43 6b3e 45aa 0e3e c326 ae3e 1a1a 163f
00000070: c019 1f3f 00e6 ca3d fa3f 983f 292d 023f
00000080: 8cb7 b23f 5fe1 3b3f 3dbd 003f be50 1f3e
00000090: 8a03 2a3f 8777 ce3e 1810 e93e 859a 433f
000000a0: ad2c 9a3e b537 2d3f a1e2 bc3e 0fee 303f
000000b0: 226b 1b3f a165 563f 1519 0b3e 4dab 273f
000000c0: aa3b f23e 1c18 793f e6db 083e c426 e43d
000000d0: e684 343e 47e6 763f 958e 643f 863e e83e
000000e0: 251f 9c3f b4fb 123f 7bf9 873f bd2f f33e
000000f0: 3f10 d83d e1e0 a43e 0d1f bc3e 5bbe 3b3f
0.47792304 0.43342227 0.31553033 0.2446478 0.5575677 0.27214694 0.37789312 0.68941104
0.43519896 0.05834417 1.2135434 0.33982 0.66130626 0.36189324 0.09828236 0.55034024
1.4065671 0.21265812 0.30097833 0.6145327 0.30363163 0.8684854 1.1863129 0.48443615
0.22975132 0.1393214 0.34013948 0.5863358 0.62148666 0.0990715 1.1894524 0.5085016
1.3962264 0.73390764 0.50288755 0.15558144 0.6641165 0.40325567 0.4552009 0.76407653
0.3011221 0.6766313 0.36891654 0.6911325 0.60710347 0.83748823 0.13583787 0.6549576
0.47311145 0.97302413 0.13365135 0.111402065 0.17628822 0.96445125 0.8928006 0.45360202
1.2197005 0.5741532 1.062301 0.4749736 0.10549974 0.3220282 0.3674244 0.73337334

bn2.running_var f4 [64]
00000000: bc48 b83f 3fef 723f 723c 3c3f 83ba ae3e
00000010: 9a6e c53f 0e65 113f 3555 9a3f 2a79 e63f
00000020: cdfd 9c3f c9cf af3d e7d9 4840 4373 473f
00000030: 994e 933f 432d 323f dbb7 583e 02f4 aa3f
00000040: e717 8140 ff3b 0f3f 7c9b 0f3f 782e 943f
00000050: af92 473f f40b 1340 e92e 6f40 9ad9 683f
00000060: da14 d53e 8cd9 9f3e 2bae 4a3f 74b7 cb3f
00000070: fd92 b13f e230 273e 704d 6540 b423 913f
00000080: f9d3 7140 00ef f53f e77e 853f d7c0 ac3e
00000090: 7df4 d03f f063 9f3f a069 bb3f 23ee df3f
000000a0: 0669 2b3f 0462 dd3f 31a5 453f c017 4040
000000b0: 8e6b ec3f 2e99 0d40 5bc0 883e 28f7 a03f
000000c0: 6c4c a83f 6181 1340 e90c 8d3e 5375 773e
000000d0: 93f1 1e3f 0b0b 1440 fcb2 0e40 f51f a83f
000000e0: b872 3b40 4a88 e43f 4724 0840 2184 e53f
000000f0: 2417 3f3e b1e3 373f 4694 493f 4f12 1b40
1.4397197 0.9489631 0.7352973 0.34126672 1.5424378 0.5679482 1.2057253 1.8005726
1.2264954 0.08584554 3.1382997 0.7791025 1.1508361 0.69600314 0.21163885 1.3355715
4.034168 0.5595092 0.56096625 1.1576681 0.77958196 2.2976046 3.7372382 0.90957034
0.4161747 0.31220663 0.7917201 1.591536 1.3872982 0.16327241 3.5828514 1.1339021
3.7785628 1.9213562 1.0429353 0.33740875 1.6324612 1.2452374 1.4641609 1.7494549
0.6695713 1.7295537 0.7720519 3.0014496 1.8470323 2.2124743 0.26709256 1.2575426
1.3148322 2.3047717 0.27548912 0.2416585 0.62087363 2.313174 2.2296743 1.3134753
2.9288769 1.7854092 2.1272142 1.7930948 0.18661171 0.71831805 0.7874187 2.4229925

conv1.mlp.0.weight f4 [64, 18]
00000000: e61e b83d f3a2 3a3f e9f7 033e e9c0 5abe
00000010: cc35 d13d e86b b73e ff18 a83c b7e3 7a3e
00000020: a5db 4fbd c628 873d 10a9 cabe 5ffb 12be
00000030: 0a09 123e 2709 273d 747b ccbd 827c b4be
00000040: 8f35 08be f4ed adbc 4adf 61bf b9c1 1cbe
00000050: e43b 00be e51b 113f 1910 f1bd 64b2 e63d
00000060: d833 1f3e 03d3 913e a143 8ebe 4ee8 0b3d
00000070: ed4a 1bbc 2710 533d 4aa4 7bbd a603 4dbd
00000080: e804 47bb e5b3 043e 5f0e d1bc eb1f a63c
00000090: b710 a9bd 5ef4 9dbc f8cf 4abd f0c1 473d
000000a0: 14c3 13bd ef57 ec3e 6b79 a63c 90bc 3ebd
000000b0: 6289 0b3d 4471 e7be c65e e73c db80 98bd
000000c0: 84d1 da3d a59f 87bc 9409 163e 58ae ddbe
000000d0: a794 b0be 9d4b 7ebe bd64 0ebf 2a58 bd3a
000000e0: f773 51bd ebea 5bbf 2751 1a3d bb35 d93c
000000f0: 77d5 923d 3f78 34be eee8 97bd bee0 7b3d
00000100: c12e cf3c f60a ea3b 2fda d43b 2917 2a3c
00000110: 9e7f 7dbd 2dd9 583d c5da 9a3c 7bd4 0e3d
00000120: 8d38 453a 9099 053c 303f 75bc 3b7a 3dbb
00000130: c858 7bbf d3cb 35be aada 56be 24e0 c2bd
00000140: 90f3 0c3e aaf6 a8bb 22f5 933c 6f3f 3c3b
00000150: 20b0 63bc 8378 dabc 401d 143d 6d42 f43c
00000160: 2826 813b 2b53 db3c 8ecd ae3e ddeb cbbc
00000170: 4415 15bd f5fc f43c b86b 8dbd f2f6 013f
00000180: 0439 d93e 4bc0 9ebd bc2c 50be 68e7 623e
00000190: ada2 f13c 2450 07bd 2218 42bb 7757 473d
000001a0: b277 853d 9999 ef3e c769 3bbe f99c 6fbd
000001b0: 8704 51bd 37aa 7e3c 6d4b 513d 50d9 71bc
000001c0: c284 203f d2f8 3ebe 902b 403c 5d1e c0bd
000001d0: 1a57 093e bef2 5dbe 96fd aabd c025 103d
000001e0: 6c19 39bc 006c e9be facc 2e3d f0cc 803e
000001f0: 3ac1 f0bc ff0a 19be 7534 193f d40f 283d
00000200: 7d38 2d3d b6f9 16bd c186 373a e7e6 0bbe
00000210: f718 693e afff f5be bf8c 05bf c1a2 633d
00000220: b33a ce3c c65b 053d fd39 b1bc b626 39ba
00000230: d3cf 3fbe bd36 37bd 17b4 143d 763e f03d
00000240: 07b9 13bf dffc 23bd b853 8a3c 9406 573f
00000250: e4d9 063c cd62 5e3e c7ca 023e b682 8d3c
00000260: 6dc1 01be 685b 2e3d 108d 48bc ecda 25b9
00000270: 6a6e 70bc 5544 a53c 4e8a 933b 1e64 fe3d
00000280: 720c 9a3d ff82 a63d 45b3 57bf 235b 9abd
00000290: 43e5 6d3d da3d c13e 4ba1 1b3d 381a 763e
000002a0: c6d3 b6bd ec13 b33d e56e ccbd c99c 003d
000002b0: 0933 673c 9d63 5ebd d050 073d 9686 943c
000002c0: e2c7 653d dca1 eebc a36c c13c 0844 a3bc
000002d0: 7d7c aabe 8e8a 213d f66a cf3b 4f24 aebd
000002e0: ab6f ff3c 8506 97bf ff3a ad3e 2652 fbbd
000002f0: 6787 cebe 4c23 f93c 6544 163e fe5e 41bc
00000300: 45c1 5bbd 9da0 f53d 3775 0f3d fa17 4dbd
00000310: 1e19 223e c127 9a3d 8746 ddbe a407 1c3d
00000320: 726b b9b9 df26 b0bc 274b c13d 39a1 b5bc
00000330: db98 29be 75e2 b23d 92d9 7dbd 966f 26be
00000340: 2714 0f3e 58a9 a13d 8e35 103e be2e f7be
00000350: 9b58 6bbe 6872 9e3e e5d6 323d 3130 923e
00000360: c5e0 27be 5e80 01be 01c7 8dbf f985 e33b
00000370: e037 4bbc 44d9 873d 9aee 153e 2351 afbe
00000380: 8ed7 ad3e 23a5 823c 8ac1 b9bc 3eef c4bd
00000390: 4b49 673c 3cab f13c 4c25 53bd 0d1f efbd
000003a0: 297b 21bc 4222 96bd 6e69 8c3e 9f02 8cbe
000003b0: 91dc 44be a742 1cbd 5981 2438 c3dd c13e
000003c0: 37f1 08bf 0305 1fbe 93c7 0a3f 048e bb3d
000003d0: 39e2 e1bd cabc 57bd 46cc 82bd 0d0e f3bb
000003e0: 7e70 9cbd 0b43 00be f964 8e3e 3a25 e83e
000003f0: 93ae d8bd e1df d13f 1efa 93be 9126 44bd
0.089902684 0.7290489 0.12887539 -0.21362652 0.10215339 0.35824513 0.020519732 0.24500929
-0.05074658 0.06599574 -0.3958211 -0.14353703 0.1426126 0.040780213 -0.09984484 -0.35251242
-0.13301681 -0.021231629 -0.8823134 -0.15308274 -0.12522846 0.5668319 -0.117706485 0.11264494
0.1554712 0.28481302 -0.27785972 0.03415709 -0.009478313 0.051529076 -0.061435975 -0.050052308
-0.0030367915 0.1295925 -0.025519548 0.020278892 -0.08255141 -0.019281562 -0.04951474 0.048768938
-0.036074713 0.46160838 0.020321568 -0.046566546 0.034066565 -0.45203602 0.028243434 -0.07446452
0.10684493 -0.016555617 0.14652091 -0.43297076 -0.34488413 -0.24833532 -0.55622464 0.0014445831
-0.051135983 -0.8590533 0.03767505 0.026514878 0.071696214 -0.17623995 -0.07417475 0.061493628
0.025290849 0.00714242 0.006495736 0.010381498 -0.061889283 0.05294149 0.018903146 0.034870606
0.00075233803 0.008154288 -0.014968678 -0.0028911966 -0.98182344 -0.17753534 -0.20981851 -0.09515408
0.13764787 -0.005156358 0.018061224 0.0028724333 -0.013896972 -0.026668793 0.036160707 0.02981683
0.003941316 0.026773056 0.341412 -0.024892742 -0.036397234 0.029905776 -0.06905311 0.50767434
0.42426312 -0.07751521 -0.20329565 0.22158587 0.029496515 -0.033035412 -0.0029616435 0.048667397
0.06516971 0.46796873 -0.1830207 -0.05849931 -0.05102971 0.015543512 0.051097322 -0.014761284
0.6270257 -0.18649605 0.011729136 -0.09380791 0.13412133 -0.2167463 -0.08349149 0.03519225
-0.011297565 -0.4559021 0.04267595 0.25156355 -0.029389013 -0.14945601 0.5984567 0.04103072
0.0422902 -0.036859237 0.0007000976 -0.13662301 0.2276343 -0.48046634 -0.52167886 0.055575136
0.025174474 0.032558225 -0.021634096 -0.00070629583 -0.18731622 -0.044729937 0.03630456 0.117306635
-0.57704204 -0.04003608 0.016885623 0.8399441 0.00823066 0.21717377 0.12772666 0.017274242
-0.12671442 0.04256764 -0.012240663 -0.00015817181 -0.014674762 0.020174185 0.004502571 0.124214396
0.07521905 0.08130454 -0.8425792 -0.07536914 0.05807997 0.37742501 0.037995618 0.24033439
-0.08927111 0.08744034 -0.09982089 0.031399522 0.014111289 -0.054294217 0.033036053 0.018130582
0.056098826 -0.029129915 0.023611372 -0.0199299 -0.33298102 0.039438777 0.0063298894 -0.08503019
0.031181177 -1.1798865 0.33834073 -0.12271528 -0.4033768 0.030412339 0.14674528 -0.011802433
-0.053651113 0.11993525 0.035023894 -0.050071694 0.15829894 0.07527114 -0.4321787 0.038093224
-0.00035366003 -0.02150291 0.09438162 -0.022171604 -0.16562216 0.087345995 -0.06197507 -0.16253504
0.13972531 0.07893628 0.1408293 -0.4827785 -0.22983019 0.3094666 0.04366197 0.28552392
-0.16394337 -0.12646624 -1.1076356 0.006943461 -0.012403458 0.06633237 0.146418 -0.3424159
0.33953518 0.015947884 -0.022675294 -0.09615944 0.0141165955 0.029500596 -0.05154924 -0.11675844
-0.009856024 -0.07330753 0.27424186 -0.2734575 -0.19224764 -0.038149502 3.922111e-05 0.37864503
-0.53493065 -0.15529256 0.54210776 0.09157947 -0.11029477 -0.052670278 -0.06386618 -0.0074174465
-0.07638644 -0.12525575 0.2781141 0.45340902 -0.105801724 1.6396447 -0.28901762 -0.047888342

conv1.mlp.0.bias f4 [64]
00000000: 015c 61be c8c3 a0be 78f0 23bf edb0 1bbf
00000010: 62f3 1dbf 39d9 cabe b14d 37bf c4ec d03d
00000020: 54f0 fabe 2818 4ebf e4ee 6e3d c3d2 cfbe
00000030: 8be7 e4be 65d6 ebbd 69a9 80be 2f61 90be
00000040: 3940 b6bd 08f9 23be 7d6f 473e 3477 c7be
00000050: 63de 90be 98db e6be 2fd4 01bf 04de 07bf
00000060: 6bb4 11bf 9c66 cfbe a676 d4be 15c9 1fbe
00000070: ff98 a73d be62 fdbe c25e 4bbe a6c7 dbbe
00000080: f8e3 21bf 42c9 8a3d 86b5 f7be a40c 86be
00000090: d8a3 b3be a31e d73d 9b3e 14bf cee8 b6be
000000a0: 720c 94be 4bb4 90be ec52 55be 9530 6a3e
000000b0: 7a47 d9be c3c3 e2bd f19f 7dbc 3bcd bcbe
000000c0: 2d19 b3be e72c 37be 6c86 f2be cb1b 9bbe
000000d0: a605 3a3c 61f8 85be 58c1 8cbe 3f5b 3abf
000000e0: 1036 9bbe ed8e 68be 0cae 7a3d c1fa 6bbe
000000f0: 84a5 10bf af94 fcbe 2528 88be a941 20bf
-0.22007753 -0.3139937 -0.640388 -0.6081684 -0.616995 -0.39618853 -0.7160292 0.102014095
-0.4901148 -0.8050561 0.058333293 -0.40590486 -0.44707903 -0.11515502 -0.2512925 -0.28199145
-0.08898968 -0.16012967 0.19476123 -0.38958132 -0.28294668 -0.45089412 -0.5071439 -0.53073144
-0.5691592 -0.40507972 -0.41496772 -0.1560405 0.081834786 -0.49489397 -0.19860366 -0.42925757
-0.6323848 0.06776668 -0.4838068 -0.2618152 -0.3508594 0.1050389 -0.5790803 -0.3572449
-0.28915745 -0.28262553 -0.20832413 0.22870095 -0.42437345 -0.11072495 -0.0154800275 -0.36875328
-0.34980145 -0.17888223 -0.4736818 -0.30294642 0.011353886 -0.2616606 -0.2749126 -0.7279548
-0.30314684 -0.22710772 0.06120114 -0.23044874 -0.56502557 -0.49332187 -0.26593128 -0.6260019

conv1.mlp.2.weight f4 [64]
00000000: 3789 573f 0249 463f 7f66 883f dc97 823f
00000010: 4546 863f 1d78 5e3f d876 503f 4cdf 713f
00000020: 21e4 953f 52a0 3b3f 69fc 4f3f e779 273f
00000030: 063b 883f e47c 863f 7cf3 883f 5c69 703f
00000040: d1ab 563f b275 913f 6d2b 893f 55d1 863f
00000050: 6890 4a3f 20f4 893f 1b5f 733f ea88 963f
00000060: 0f27 363f 1bb0 7d3f 512b 5f3f 46ec 833f
00000070: 6001 793f 7b1a 6e3f e1dc 943f 9f3d 803f
00000080: adee 433f 5963 433f 69ad 773f 6cd3 8a3f
00000090: d9a0 5f3f d18c 5f3f 0ac0 7e3f 3fea 893f
000000a0: ab39 833f 476e 763f e3c2 7b3f d825 883f
000000b0: 442f 8e3f aa8b 963f 1494 793f c08f 833f
000000c0: 7f6e 763f f19c 7d3f 286c 913f aec9 9c3f
000000d0: 5320 7b3f 194c 813f 0d87 793f 9bee 8a3f
000000e0: f423 5e3f ff7f 7d3f fb45 543f c664 493f
000000f0: 04f6 193f cd59 753f 3e48 743f 63f3 913f
0.8419375 0.7745515 1.0656279 1.0202594 1.0490195 0.8690203 0.8143134 0.9448135
1.1710244 0.73291504 0.8124452 0.65420383 1.0643013 1.0506864 1.0699306 0.93910766
0.8385592 1.1364043 1.0716377 1.0532633 0.79126596 1.0777626 0.95066994 1.1760533
0.7115335 0.9909684 0.8717547 1.030648 0.97267723 0.93009156 1.1629907 1.0018805
0.76536065 0.7632347 0.9674898 1.0845771 0.8735481 0.87324244 0.9951178 1.0774611
1.0251974 0.9626202 0.9834425 1.0636549 1.1108174 1.1761372 0.97491574 1.0278244
0.96262354 0.990676 1.1361132 1.2249048 0.980962 1.0101348 0.97471696 1.0854067
0.8677361 0.9902343 0.8291928 0.78669393 0.60141015 0.9584015 0.9542273 1.1402401

conv1.mlp.2.bias f4 [64]
00000000: b05c e73d 5373 29bf f05b a63e 261f 8dbd
00000010: f6fc 813c 5e19 d13c 8ca5 65bd bc13 c0b9
00000020: 1c6e 5bbe 5ffe c5be 49bc 64bb 1b55 03be
00000030: 8d8b 8f3e acd8 b43e 7d14 6a3d 1b69 aa3e
00000040: 55bc b03e d442 0a3f 6fc5 84bd cb50 37bd
00000050: 94bf 06be 3a58 bf3e b795 0d3e aa44 b83d
00000060: 6cbb 16bd 2c80 853e 07d8 bb3d c6d4 283e
00000070: 85f0 443e 9d53 e33d f5c7 b23e d942 ee3d
00000080: 4417 16be b74d 8d3e 2f5e b63d d3b0 ccbd
00000090: 10cf ca3c 9c47 3e3e fbf3 8fbd 9c72 9b3e
000000a0: 2c5c a53d c64a 4b3e 606c 963d c2d8 623e
000000b0: fd8c 883e 5b30 cb3e 5bb9 3e3d 3bce bd3c
000000c0: 131f 4c3e ed7e b13d 4fbb 413e 7489 a33e
000000d0: 3fba cabd 84bb 3bbd a593 003f d67f 463e
000000e0: 2a7a af3e 656c 553e f049 193e c189 b8be
000000f0: 988c 4cbe 8b7a c63d 1f9d 543c 69e0 cf3e
0.112969756 -0.66191596 0.32492018 -0.06890707 0.015867691 0.025524791 -0.05606608 -0.00036635797
-0.21428722 -0.38670632 -0.0034902266 -0.12825434 0.28036156 0.35321558 0.057148445 0.33283314
0.34518686 0.5400822 -0.0648297 -0.044754785 -0.13159019 0.37372 0.13826643 0.08997472
-0.036799833 0.2607435 0.09172063 0.16487417 0.19232376 0.11099932 0.3491818 0.11633844
-0.14657313 0.27598354 0.08904683 -0.09994664 0.024756938 0.18582004 -0.070289575 0.30360878
0.08074221 0.19852743 0.0734489 0.22152999 0.26670066 0.3968533 0.046563487 0.023169627
0.19933729 0.08666787 0.18919109 0.31940806 -0.09898805 -0.045833126 0.5022529 0.19384703
0.3427289 0.2084213 0.14969611 -0.36042598 -0.19975507 0.09691342 0.012976914 0.406009

conv1.mlp.2.running_mean f4 [64]
00000000: 105c 8c3e bfba 053f 0c93 433d c7b7 573e
00000010: 92a0 6f3c f306 843d 837e aa3d 3d0d 903e
00000020: c6fd 7c3e e4a1 753d 06fb 523f d503 2d3e
00000030: 0dc2 0b3e 7086 b13d 9b79 9d3e e30f 9e3e
00000040: 7dec 8a3e 1775 833e ed4f 3c3e 097f 753e
00000050: 1877 8c3e 087e 853e 5722 1a3d 7c32 703e
00000060: 7dea 823d af82 853e 7a69 6b3e 0a90 db3e
00000070: 9e70 443e 6a33 2c3e 5900 fc3d 243f 4a3e
00000080: 9225 c83d fa7e 093f b0eb ee3d d2cb de3e
00000090: fc5e 4d3e 84e6 8b3e 8092 883c 74ac 223e
000000a0: 97f2 5d3e 75c2 0e3e 99a9 933e e2ea a83d
000000b0: 2319 923e 4025 a63e fc27 b03e 99b7 a33e
000000c0: 2e70 873e 5ffd cd3e c63a 423c 5910 5e3e
000000d0: 1963 013f b3b3 5d3d 88f1 913e 3e34 473e
000000e0: 82d7 9d3e db2d 3f3e 1540 aa3e 35f1 e33e
000000f0: 31d4 7f3d 89b7 c63d 866e 303d c94b 4a3e
0.27413988 0.52238077 0.047747657 0.21066199 0.014625685 0.06446638 0.083249114 0.281351
0.24706182 0.059968844 0.8241428 0.16895993 0.13648243 0.0866822 0.3075684 0.30871496
0.2713355 0.2567527 0.18389864 0.23974241 0.2743461 0.26072717 0.037630405 0.23456758
0.06392381 0.26076266 0.22989455 0.4288333 0.19183585 0.16816488 0.12304754 0.19750649
0.09772791 0.53709376 0.116660476 0.43514878 0.20055765 0.27324307 0.01667142 0.15886098
0.21674572 0.13941367 0.2884033 0.08247925 0.28534803 0.32450294 0.34405506 0.3197601
0.26452774 0.4023237 0.011854833 0.21685924 0.50541836 0.054126453 0.28504586 0.19453523
0.30828482 0.18669836 0.33252016 0.44519964 0.06245822 0.09702975 0.043074153 0.19755472

conv1.mlp.2.running_var f4 [64]
00000000: ae70 893e 959b 773e 4de2 c63c 0fb6 be3d
00000010: 9a75 313b 28c4 033d 6882 4f3d e7b0 553e
00000020: ba47 d73d 9d21 6c3c 8b31 243f cbf0 bb3d
00000030: 729d b13d 2804 5c3d 10c3 873e f623 8a3e
00000040: 0952 543e ad57 1e3e 3f7f a43d 7f4d 343e
00000050: c601 973e 21ce 823e 4072 7d3c 033f 103e
00000060: 07b5 e33c 502f 8e3e b760 da3d 27bb a13e
00000070: a46a 0d3e ede8 dc3d 82cd a53d 4f7c 0d3e
00000080: 1747 6a3d 9dbb cc3e e2e8 913d 1833 3e3e
00000090: 5bca 343e 6aa0 403e 45a9 643b 1fc9 f13d
000000a0: 550f 483e f492 b23d 210c 6c3e 8efe 093d
000000b0: 6fed 8e3e c306 b23e 20ef 993e f9ed b03e
000000c0: e315 683e 561a cb3e 342a 673b f611 2e3e
000000d0: 9476 693e 43d7 e43c f5c8 8e3e 3556 a23d
000000e0: 585c a03e c8f1 c83d 949c 8c3e 7caa 663e
000000f0: 4f8a f33c 055b 8b3d 0297 563c 5c9e 453e
0.2684378 0.24180444 0.02427783 0.09312069 0.0027078153 0.03216949 0.050661474 0.20868264
0.10511728 0.014412311 0.64138097 0.09176787 0.086726084 0.0537149 0.26516008 0.2698056
0.20734419 0.15463133 0.08032083 0.17607687 0.2949354 0.2554789 0.015469134 0.14086537
0.027796282 0.27770472 0.10662978 0.31588098 0.13810211 0.107866146 0.08095838 0.13816951
0.057196703 0.39986888 0.07124497 0.18574178 0.17655317 0.18811193 0.0034890932 0.11805939
0.19537099 0.08719435 0.23051502 0.033690028 0.27915522 0.34770784 0.3006525 0.3455656
0.22664599 0.3966853 0.0035272958 0.16999039 0.2279914 0.027934676 0.27887693 0.07926599
0.31320453 0.09811741 0.2746321 0.22525972 0.029729037 0.0680447 0.0130975265 0.1929869
