GraphNeuralNet/Skim3Mu/MHc-100_MA-95_vs_nonprompt/models/ParticleNet-nNodes32_RMSprop_initLR-0p001_StepLR.pt (torch, 115430 bytes, 102 tensors)

gn0.weight f4 [9]
00000000: e49c a53f fc6d 803f 1d3c 963f 5d8d b53d
00000010: 7086 183f 310c f73f 24b4 043f 0000 803f
00000020: 633c 793f
1.2938504 1.0033565 1.1737095 0.088648535 0.59580135 1.9300596 0.5183737 1.0
0.9735777

gn0.bias f4 [9]
00000000: 3b46 0d3f a995 f3bd b9ed e53d 34b7 0e3f
00000010: 198a b83e 556b 403f 5ed3 3b3e 80bd 77bf
00000020: 7666 7bbf
0.5518529 -0.1189378 0.112269826 0.55748296 0.3604286 0.75163776 0.18342349 -0.9677353
-0.9820322

gn0.mean_scale f4 [9]
00000000: 8680 d03f c814 073e a5ee b23e e6a4 1d3f
00000010: 189e 9ac0 a3e7 2740 7430 1540 0000 803f
00000020: 796a f33e
1.6289222 0.13191521 0.34947696 0.6157974 -4.8317986 2.623513 2.3310823 1.0
0.4754217

gn1.weight f4 [32]
00000000: 7aaa c63f d053 d93f 9fab d73f ad0f a43f
00000010: af68 ac3f 35c1 b33f f0df 873f 17f9 a13f
00000020: 2bdc 963f 6a57 c23f 67b8 a63f 8281 d13f
00000030: 40dc 9a3f 1717 923f c406 d23f c253 863f
00000040: e19b aa3f 5270 d73f b5ca d33f 63c3 b93f
00000050: 1b6a 7c3f 2e24 0440 9b7e 833f b100 8d3f
00000060: 83dc f73f 524c c63f c660 ef3f 4674 773f
00000070: 1665 7b3f e370 1740 aefd 943f ff72 8f3f
1.5520775 1.6978703 1.684925 1.2817284 1.3469447 1.4043337 1.0615215 1.2654141
1.178594 1.5182927 1.3025025 1.6367648 1.2098465 1.1413296 1.6408315 1.0494311
1.332882 1.6831152 1.6546236 1.4512752 0.98599404 2.0647082 1.0273012 1.1015836
1.936417 1.5492041 1.8701408 0.96661794 0.9820112 2.366265 1.1639917 1.1206969

gn1.bias f4 [32]
00000000: 853e c1be 1241 323e a109 b23f 4de2 963f
00000010: dbff 4a3f 1f5c b1be 80a3 97bf e4be 533f
00000020: b05a 823e a6e9 92be 4ece 783f d9af a73f
00000030: 0a07 893f b1fb 32bf 1174 113f 0b0f 4fbf
00000040: f3cf 37be f6eb 3b3f bc05 f53d 74e1 473f
00000050: 3c90 053f b356 a4bf f88a 993f 2f79 b7bd
00000060: e9ab fdbe 07f5 173f 7576 40bf cbf6 55be
00000070: ff8f 6b3f 76b1 febe a87c 1a3f 826d 263b
-0.3774301 0.17407635 1.3909189 1.1787812 0.79296654 -0.34640595 -1.1846771 0.8271315
0.25459814 -0.28693885 0.97189796 1.310054 1.0705273 -0.699153 0.5681773 -0.8088233
-0.1795042 0.7340692 0.11963984 0.7807839 0.5217321 -1.2838959 1.1995535 -0.08958661
-0.4954522 0.5935826 -0.7518075 -0.20894925 0.92016596 -0.49744767 0.6034646 0.0025394862

gn1.mean_scale f4 [32]
00000000: 166d 223f 6aad 373f eef4 073f 1dc4 9e3f
00000010: 185e b53f 0ac9 503e 4a98 9f3e 43aa e43d
00000020: b8d8 c83f 77b8 653f 6b6a c63f 53b1 443f
00000030: 3a0d 7c3f 80f3 033f 48d8 db3f 9012 da3e
00000040: 20ef a83f c8a8 cf3f 7f59 443f 12b8 c53f
00000050: 50c3 1b3f a4d9 b03e e733 043f 307f af3d
00000060: a082 a63f 3720 823f 3f19 a53f bee2 ea3e
00000070: 09fa 1d3f 1aac 5c3f 41f4 d93f 688e 6c3e
0.634477 0.71748984 0.5310811 1.2403599 1.416934 0.2038919 0.31170875 0.11165287
1.5691137 0.89734596 1.5501226 0.76833075 0.9845768 0.51543427 1.7175379 0.42592287
1.3197975 1.6223383 0.7669906 1.5446799 0.608449 0.34541047 0.51641697 0.08569181
1.3008614 1.0166081 1.289833 0.45876116 0.6170965 0.86200106 1.7027665 0.23101199

gn2.weight f4 [32]
00000000: 09b0 b43e ff95 9d3f 2083 7e3f bbc2 a93e
00000010: 7a5e 453f 779f 623f e410 0b3f 37ea 003f
00000020: 2333 923f 2be0 af3f c5f8 4a3f 975b b63f
00000030: ed6f 0640 fb85 b33f 9b2c ec3e 9c4a 493f
00000040: ec58 b93f 91a8 f23e a83e 383f 8d50 9b3f
00000050: dcdd 583f ec89 813f fe4c 4e3e 27a3 a23f
00000060: fb2c 18bf 3f36 4e3f 7e64 0040 ff57 253f
00000070: 9165 453f 72b2 333f e8d5 003f a8b6 0d3f
0.35290554 1.23114 0.9941883 0.3315638 0.77097285 0.88524574 0.5432265 0.50357383
1.1421856 1.3740286 0.7928584 1.4246701 2.1005814 1.4025263 0.4612778 0.7862947
1.4480262 0.4739423 0.71970606 1.2133957 0.8471353 1.0120215 0.20146558 1.270604
-0.59443635 0.8055152 2.0061336 0.64587396 0.77108103 0.7019416 0.50326395 0.55356836

gn2.bias f4 [32]
00000000: d857 00bf 4ff4 463f 60c4 e8bc 78d2 9fbe
00000010: f5d0 f63e d060 203f 661f 823d db5d 823f
00000020: cd41 293e 46c2 08bf daff 6f3e fcb3 83bf
00000030: f331 0bbf 5914 3ebf bb8c 9c3e e2df 0cbf
00000040: 9aeb 85bf 8148 903e a171 78be 2dbb 23bf
00000050: 9608 bd3d 422f 94be f1cb 22bf ba64 713d
00000060: 7148 a93e 8378 8abe e699 48be f6d5 5c3e
00000070: f6d3 383f 6770 323e 7c8d 13bf e10d 45bf
-0.5013404 0.77716535 -0.028413951 -0.31215262 0.48206297 0.62647724 0.06353645 1.0184892
0.16529007 -0.5342144 0.23437443 -1.0289302 -0.5437309 -0.742498 0.3057612 -0.5502912
-1.0462525 0.28180316 -0.24262096 -0.6395748 0.09230153 -0.28942305 -0.6359244 0.05893395
0.3306308 -0.27045068 -0.19589958 0.21565995 0.72198427 0.1742569 -0.57637763 -0.769743

gn2.mean_scale f4 [32]
00000000: 7b8f d93f ef21 b33f 89f5 343f 8128 a73f
00000010: a921 9b3f 08af b53e 6806 a03f 9c45 a03f
00000020: 9da5 a73f 36b6 c53e faa8 9f3f 76c3 463e
00000030: c0d4 a93f 5381 263f a53f 023f 253f da3e
00000040: 254c c63f fd17 a13f 94cb 4e3f 6d26 fb3e
00000050: 6ecb 9c3f 48b2 de3f 60c3 4d3f 91e2 ca3e
00000060: 58bb cf3f f95a 3b3f 16b4 aa3d 978d a23f
00000070: 82f2 943f a6a6 683f 5061 743f 9a12 013f
1.6996912 1.3994731 0.70687157 1.3059236 1.2119647 0.354851 1.2501955 1.2521243
1.3097416 0.38615578 1.2473443 0.194105 1.3268051 0.65041083 0.50878364 0.426263
1.5491987 1.2585446 0.80779386 0.49052754 1.2249582 1.7398157 0.80376244 0.3962598
1.6229048 0.7318569 0.0833513 1.269946 1.1636508 0.90879285 0.9546099 0.5041901

gn3.weight f4 [32]
00000000: c36d 6d3f a3b2 0b3f 681f 243c 6d7b 783f
00000010: 266c 2d3d f0aa 573e f10a 133e d274 1f3f
00000020: 3cd5 813e cb5b 223e 21e2 483f 2578 233f
00000030: 6d89 54bd ecd8 093f 47de f4bd f5be 993e
00000040: ed21 033f c05d e23d f957 1abe 1efd b03e
00000050: 69a3 1f3f da46 be3e 442e ac3e 3d33 bc3f
00000060: 2c69 2a3f 8307 343f ad44 843f 11d8 453e
00000070: f648 9a3d 4e6b b63e df00 753f 85ab 483f
0.9274561 0.54569453 0.010017253 0.9706333 0.042339467 0.21061301 0.14359643 0.6228763
0.25357997 0.15855329 0.78470045 0.638552 -0.051888872 0.5384662 -0.119564585 0.300285
0.5122364 0.11053038 -0.15072621 0.34568113 0.6235872 0.3716343 0.33629048 1.4703137
0.6656673 0.7032396 1.0333458 0.19320704 0.075334474 0.35628742 0.95704454 0.7838672

gn3.bias f4 [32]
00000000: 28e3 693d 36b1 183b 169d 923d ad70 afbd
00000010: 820a c4bd 9dc3 a13d bd99 923d 7e2a 4dbb
00000020: 62d5 353d 3bfa a2bc 6de6 7b3d 5269 543d
00000030: 5f28 9cbd 2e19 263d c0d0 12bd 9b1b 593d
00000040: 433f 29bc 7e6c 58bd 80aa 9ebd 0895 133d
00000050: b9d9 b3bc a411 a23d fef3 6fbd bfe1 a0bd
00000060: 94d2 0d3d b4d6 69bd 01ff cf3d 45ed 533d
00000070: 98b4 95bd 85d1 66bd 0e39 a8bd af9a b13c
0.0571014 0.0023298985 0.07158868 -0.08566413 -0.09572317 0.078986384 0.071582295 -0.0031305845
0.04439295 -0.01989471 0.061499048 0.051858254 -0.07624888 0.040551357 -0.03584361 0.053004842
-0.010330024 -0.05283784 -0.07747364 0.0360308 -0.021954404 0.07913521 -0.0585823 -0.07855558
0.03462465 -0.057089522 0.1015606 0.05173995 -0.07309836 -0.056352157 -0.08214007 0.021680204

gn3.mean_scale f4 [32]
00000000: bb96 833f b893 aa3f bd5d 813f 564f d93f
00000010: 1cab 293f ac51 6b3f c19e 913f b07c 843f
00000020: fc85 523f a32e 893f 9c69 953f c0e8 d3bd
00000030: 28a3 863f 971c 9a3f ed63 5d3f 2c08 2b3f
00000040: adb2 8f3f e511 8d3f c80c 593f 4c62 a43f
00000050: 4f6b 6a3f 9620 a93f 1b71 ad3f 648a 533f
00000060: fe42 a43f 9d82 a03f 8b69 073f d637 f43f
00000070: 8b48 703f 2610 993f 87cf 993f 7e8d bd3f
1.0280374 1.332633 1.0106732 1.6977336 0.6627672 0.91921496 1.1376573 1.0350552
0.82235694 1.0717357 1.1672854 -0.10347128 1.0518541 1.2039975 0.864806 0.66809344
1.1226403 1.1021086 0.8478513 1.2842498 0.9156999 1.321307 1.3550142 0.8263304
1.2832944 1.253986 0.5289542 1.907954 0.9386069 1.1958053 1.2016457 1.4808805

bn0.weight f4 [38]
00000000: 96ac a93e 4201 9e3e 5622 803e 8463 a2bd
00000010: 0fb9 8d3e 8437 9a3e fdbe 7c3e 67fa 3f3e
00000020: 3b90 aa3e 2931 95bd 9fda 803e a794 9abd
00000030: 4e09 893e 463a 723e f26b 9cbe 2d42 e43e
00000040: b612 bcbd 9ae5 a23e 28f9 bc3e acc4 ca3e
00000050: 1ebf b7be b7e5 c23e e300 7d3e 7d9d 81bd
00000060: 3ca9 8fbe cd8e 923d b533 a63b 66b3 9d3e
00000070: 8f04 963e 579a 813e 096d 4a3e 7eb5 423e
00000080: f1a6 a63f 4a02 c33f a48d 0f40 1868 ca3f
00000090: b98b d03f 3420 0140
0.33139485 0.30860335 0.25026196 -0.07929137 0.2768025 0.3012048 0.24682231 0.18747865
0.33313164 -0.07284767 0.25166795 -0.075478844 0.2676491 0.23655042 -0.30551106 0.44581738
-0.09183256 0.31815797 0.3690884 0.39603174 -0.35887998 0.38065884 0.2470737 -0.06328867
-0.28058803 0.07156143 0.005072082 0.30800933 0.29300353 0.25313064 0.19768156 0.19014546
1.3019696 1.5235074 2.24302 1.5813017 1.629264 2.0175905

bn0.bias f4 [38]
00000000: da09 17bd 55b0 d73d c491 3f3d f51a 693d
00000010: bfac c4bd c588 b8bc fd17 d73c 1f5b 07be
00000020: 3c33 983e d1ef 2ebd 7b46 f13d 5437 a03c
00000030: 4fe3 11be fb67 cabd 9ad5 cb3d 56de e83b
00000040: 35c6 8b3b fdcd 223d b7f3 2d3e 79fc 85bd
00000050: 5f44 aabd 2253 c4bc efa0 ddbd 9452 2a3c
00000060: 7e74 30bd c359 2b3d fb2b 2a3d 57c5 4d3d
00000070: 892a ca3d e0ec a5bd 637a d73b 48a0 02be
00000080: c561 8c3d edc3 1f3f b3c9 cfbe d657 953e
00000090: 083d 123e d8cc 25bd
-0.03687463 0.105316795 0.046769872 0.056910474 -0.09603261 -0.022526154 0.026256556 -0.13218354
0.2972659 -0.042709175 0.11781021 0.019557633 -0.14246868 -0.09883114 0.09952851 0.0071065826
0.0042655715 0.039747227 0.16987501 -0.06542296 -0.08313822 -0.023965422 -0.10821711 0.010395665
-0.043079846 0.04183365 0.04154585 0.050237026 0.09871394 -0.08101821 0.006575869 -0.12756455
0.068545856 0.62408334 -0.40583572 0.29168576 0.14281094 -0.040478557

bn0.running_mean f4 [38]
00000000: f0b7 44bf 293a 253f d0e3 0040 b2cb 373e
00000010: 7abb aa3f 0d8f 03bf eaad c1bf ace0 1540
00000020: 1537 173f 1c8e 6bbf 0c12 933f e386 693f
00000030: cfaa 613f 166f 08c0 4cc1 df3f ff7b fabf
00000040: 38bb e0bf 0ca2 d63f a805 9bbe 2ec3 863f
00000050: 4e88 d53e cb62 03c0 051e bc3e 0923 46bd
00000060: 9478 373f 86a9 a43e 8271 d8bf 5e66 12bf
00000070: 68c8 b83f 0b20 09bf 7617 643e 195d 10bf
00000080: 4b41 6040 40b6 8b3f f4b1 8c42 f0fc 2d43
00000090: 87dd 0643 1ddd da42
-0.76843166 0.6454187 2.0139046 0.17948797 1.3338463 -0.51390153 -1.5131199 2.341838
0.59068424 -0.92013717 1.1489882 0.91221446 0.8815126 -2.1317801 1.7480865 -1.9569091
-1.7557135 1.6768203 -0.30277753 1.0528314 0.41705555 -2.0529048 0.36741653 -0.048373256
0.7166836 0.32160586 -1.690964 -0.5718745 1.4436159 -0.5356452 0.22274575 -0.56392056
3.5039852 1.0914993 70.347565 173.98804 134.86534 109.43186

bn0.running_var f4 [38]
00000000: dd80 173e 1883 553d dc9d cf3d 430b 143d
00000010: 2bb2 053e 0cf9 653e 7b95 ea3d 8f96 9a3d
00000020: 09a2 2d3e 0a25 853d a5dc c83d 39ac 523d
00000030: 4d57 bd3d a7dd 673e f765 4f3e 44c0 283e
00000040: 38cb ad3d aad7 673e cde8 793d ee21 933e
00000050: 986e 823d 2b71 403e 82ae 983d b2b4 893e
00000060: 4d0e 053e 9b30 8c3c 6c11 723e 027a b13d
00000070: b090 653d 0ffe 243d c8ad 263e 50ca 4b3e
00000080: c37d 1140 a701 0a3f 96a9 0245 dff6 b945
00000090: 4488 6a45 59ef 2e45
0.14795251 0.052126974 0.10137531 0.036143553 0.13056247 0.22458285 0.114542924 0.07548248
0.16956343 0.06501205 0.098077096 0.051433776 0.09245167 0.22643147 0.2025374 0.16479594
0.084860265 0.22640863 0.06101303 0.28736824 0.0636875 0.1879317 0.0745516 0.26895672
0.12993737 0.01711302 0.23639458 0.08665849 0.056046188 0.04028135 0.1627723 0.19901395
2.273301 0.5390877 2090.599 5950.859 3752.5166 2798.9592

bn1.weight f4 [32]
00000000: c0a8 c13f 0a0c d63e e84f 593f 377b a53f
00000010: 77a1 903f 917b 993f 92fd d13f 3136 833f
00000020: 1549 b63f c8db cebc d4da de3f 42c9 ac3e
00000030: 2652 8d3f 6be7 803f f0ac 83bd c6f3 a53f
00000040: f21b 983f d4d3 75bd 7a3e ab3f 3679 d23f
00000050: c590 8a3f 77a4 7e3f 55bb 613f cb47 b83f
00000060: ae43 d83f e13d 3c3f d4f8 ac3f 543f 763f
00000070: e4c4 a33f 17a9 963e af2b 9e3f 829a b73f
1.5129623 0.4180606 0.8488755 1.2928227 1.1299275 1.1990834 1.6405509 1.0250913
1.4241053 -0.025251284 1.7410531 0.33747298 1.1040695 1.0070623 -0.064294696 1.2965019
1.1883528 -0.06001647 1.3378441 1.6443241 1.082543 0.99469703 0.8817647 1.439691
1.6895654 0.7353192 1.3513436 0.9619038 1.2794461 0.2942588 1.2357081 1.4344027

bn1.bias f4 [32]
00000000: 6b7c 12bf 3655 a23b ab76 853d 0fa6 9e3d
00000010: 386e 0b3e d681 ad3e 3f64 373f 9537 40bf
00000020: 1224 81be 9b83 68bc 6f70 d0bd c292 8c3f
00000030: 0de9 e23b 9d9a c03e d796 34bb f4b7 a2be
00000040: ca62 883e d63a 1f3c da0c 66bd c63b 56be
00000050: 09b8 113e 7b12 b2bd ba78 af3e 7725 923e
00000060: c20d 9cbe f0a6 a0be 2585 97be fcd8 0b3f
00000070: 7ea7 753d 1d46 4fbe 4fd9 1fbd 0116 94bc
-0.57221097 0.0049540056 0.06516775 0.07746517 0.13616264 0.3388812 0.7163734 -0.7508481
-0.25222832 -0.014191533 -0.10177695 1.0982287 0.0069247545 0.3761796 -0.0027555728 -0.3178097
0.2663787 0.009718617 -0.0561646 -0.2092124 0.1423036 -0.08694931 0.34271795 0.28544208
-0.30479246 -0.31377363 -0.2959377 0.54627967 0.059974186 -0.2024159 -0.0390256 -0.018076899

bn1.running_mean f4 [32]
00000000: a400 1f40 b4bb 1c3f 3afb a03e ce90 2840
00000010: 62a5 b13e 2875 6b3f b8ab 8b3f 8acf 263f
00000020: f271 2240 9b2f 213f 42e5 433f 0f73 a53d
00000030: 8de9 b63e faa4 e33f 98e0 623f 385e 5240
00000040: d06f 2440 a427 9c3f 5d98 793f 1497 023f
00000050: 7394 4c40 d949 433f 691a 053f 4212 163f
00000060: 979e 933e 902c 2c40 7fb0 143e c09b b53e
00000070: a746 873f 49ac 8b3f d811 693f 310b e53e
2.484414 0.6122391 0.3144167 2.6338382 0.3469649 0.9197564 1.0911779 0.6516043
2.5382047 0.62963265 0.76521695 0.08078586 0.3572506 1.7784722 0.8862395 3.2870007
2.5693245 1.2199597 0.9749811 0.51011777 3.1965606 0.7628456 0.51993424 0.5862161
0.28831932 2.6902199 0.14520453 0.3547039 1.0568436 1.0911952 0.9104285 0.447351

bn1.running_var f4 [32]
00000000: 7f84 0541 885e 7c3f 8ca3 d03e dca1 2c41
00000010: d7c3 c43f 2829 2f3f 43df be3f 0383 5b3f
00000020: c6b0 1f41 de2f b83f 28a1 1240 4db4 e03d
00000030: 0c29 3d3f 5786 b140 310e f73f d07b ce40
00000040: 86ee 6340 9be7 3740 3f82 c73f 5e13 2c3f
00000050: 90a3 8a40 758b da3f 1a49 943f 98e2 773f
00000060: 13b3 623e 7d51 1841 3112 0e3e 56c6 073f
00000070: 8d63 4f40 1517 1440 0427 b53f 8118 453f
8.344848 0.98581743 0.40749776 10.789516 1.5372266 0.68422174 1.4911884 0.85746783
9.980658 1.4389608 2.2910862 0.1097189 0.7389076 5.547649 1.9301206 6.452614
3.5614333 2.873511 1.5586623 0.6721705 4.332466 1.7073809 1.1584809 0.9683013
0.22138624 9.519895 0.13874127 0.5303701 3.240451 2.3139088 1.4152532 0.76990515

bn2.weight f4 [32]
00000000: e2c9 003f e4b7 ee3d ef34 58bc f8b0 2a3f
00000010: 5188 7d3f 10df 523f ebaf 853f 7248 723f
00000020: c064 a83e f540 933f 340b e13e 5458 503f
00000030: 138f 8d3f 1c6c 803f f8af 293f e2eb 533f
00000040: 577b 373f a8b1 603f 2b8e 123f 86f0 723f
00000050: d720 32bc bc9e b0ba 26c7 763f d096 653f
00000060: 6302 ad3d bff9 163c d6dd be3d d053 083f
00000070: 9e43 42bc feab 5d3f 8e8a 723f f908 273f
0.5030805 0.11656168 -0.013196214 0.6667628 0.9903613 0.82371616 1.0444311 0.9464179
0.32889366 1.1504198 0.4395386 0.8138478 1.1059288 1.0032992 0.6628413 0.82781804
0.71672577 0.8777108 0.5724818 0.9489826 -0.010872087 -0.0013475041 0.96397626 0.89683247
0.08447721 0.009214818 0.093196556 0.5325289 -0.0118569415 0.86590564 0.9474267 0.65248066

bn2.bias f4 [32]
00000000: 9c0f 193e 98a9 0d3d 71b8 23bc 9e2b 863e
00000010: 167a 803e 26d3 a93e 2df7 d13e 5a6d be3e
00000020: efcc cc3d 272b cb3e f7ab 1f3e bf0f 893e
00000030: 2794 d23e dde9 c73e fab3 6f3e 640c 8b3e
00000040: 395f 9e3e b528 ba3e e010 4c3e 1935 ce3e
00000050: b5ae 4e3a 3318 12b9 5cf2 8d3e 12ff ae3e
00000060: 0f2a 633c 7134 173a 25d4 d23c b0ed 443e
00000070: 2551 82bb dd01 863e 9d5b c13e d662 8e3e
0.14947361 0.034585565 -0.009992705 0.26205152 0.25093144 0.33168906 0.41008893 0.37192804
0.100000255 0.3968136 0.15592943 0.26769826 0.41128656 0.3904561 0.234085 0.2715789
0.30932024 0.36359182 0.19928312 0.40274885 0.000788431 -0.0001393266 0.27723968 0.34178978
0.013865008 0.0005768007 0.025735924 0.19231296 -0.0039769583 0.26173297 0.37765208 0.2780978

bn2.running_mean f4 [32]
00000000: 311a 6f40 e6bb 7f3f 7465 4e3f a888 cc3f
00000010: d5ff d93e 177d 2140 4591 0640 7a0c 5840
00000020: 581a 623f 3983 bf3f 2232 993f 4186 0c40
00000030: 36fa cb3f 1d76 f53f 7183 a13f 2fe0 be3f
00000040: 7ac9 4c40 2b4c 8a40 4980 3f40 e31c 3040
00000050: 5ecb 253f 6468 293f 197a 563f 1e6e 993f
00000060: 1aff f53c c9ed 553f ae84 513f 2292 8b3f
00000070: 71ae cb3f 8f05 d43f 2309 4140 a78e 9140
3.7359736 0.99896085 0.80623555 1.5979204 0.42577997 2.5232599 2.1026165 3.3757615
0.8832145 1.4961921 1.1968424 2.1956942 1.5935733 1.917667 1.2618238 1.4912165
3.1997972 4.321798 2.992205 2.751763 0.6476344 0.6617491 0.83780056 1.198673
0.030028868 0.83565956 0.8184308 1.0903971 1.591261 1.6564196 3.0161827 4.5486636

bn2.running_var f4 [32]
00000000: de30 fe41 9b5a 2441 0e24 3040 8c37 8141
00000010: 6cce 4740 b5c2 dd41 0901 a641 6e09 3742
00000020: 0a8a 0a41 e36e 8e41 e01c 5041 a0dd 8e41
00000030: 6df5 8f41 7cca b641 071b 4b41 a8d2 7541
00000040: 01b3 3742 f2a1 8642 6e0e 2b42 70cf f541
00000050: a0a6 1040 81fe 0440 4ee3 dd40 41c0 1c41
00000060: 470f 033e 3735 6340 fc32 0741 3f24 1c41
00000070: 7c68 1e41 aad7 8041 f323 2a42 2f09 6c42
31.77386 10.27212 2.7522006 16.152122 3.121974 27.720072 20.750505 45.75921
8.658701 17.804144 13.00705 17.858215 17.994837 22.84887 12.694098 15.36393
45.92481 67.3163 42.76409 30.726288 2.26017 2.0780337 6.933997 9.796937
0.12798797 3.550123 8.449947 9.758849 9.900509 16.105305 42.535107 59.00897

conv1.mlp.0.weight f4 [32, 18]
00000000: 46c4 473e 65be 723d 0b8b 79be 8075 2ebf
00000010: b651 8fbe deb2 5c3f 74a4 b9bf 957f f93c
00000020: a98c 6abf 20fa 083f 6d93 583d f273 9d3c
00000030: 5ccf 28be 05dd 543f 5323 ccbe 3761 443f
00000040: 6685 233d 7203 69bf af06 3fbe f6e2 1fc0
00000050: 2c67 5b3e f834 88be ef22 4c3e 085a 3e3e
00000060: e23e d7bc 893b b43f 922a 5e3f af01 fbbc
00000070: 59b1 993c 236f 0b3c a5c2 ebbe d2e5 c6bc
00000080: a0b1 f03b 6148 c43b 5a65 3f3e b7f6 3bbe
00000090: 2a09 26bf 9ed0 1ac0 665e 86bf 4f23 5bbe
000000a0: faf7 d4bd 8a3e 513d 5987 d73d 7ed4 933f
000000b0: a4b3 ea3e 6ecf c5bc 9284 41bd 6363 a23d
000000c0: bd89 6dbe f14b 82be 6b1e bebd b38d d0be
000000d0: 276d 55be cfcf 343e b2e7 80be 4ad9 aa3e
000000e0: 7a62 fb3f acdd 4abf 1d21 8abc 16f6 203c
000000f0: d130 20bf 89fb 473f 118e 913f b306 223e
00000100: f7e8 16be ad51 813c 959f 51be cc04 183c
00000110: 2d5d e83d f076 80be 5182 8c3d 3db0 41be
00000120: 9e89 aabe c40c 07c0 4aa2 b9bf a102 5dbf
00000130: 2680 08bf 646c 3a3e 1b26 153f c736 613f
00000140: 421e 103f c36a ef3d b27e 823d 44e8 d1bd
00000150: 7ed1 99be e774 4bbe 51b6 983c 396f d3be
00000160: 68d4 16be 54f5 f9bd 201b 893f bf23 963f
00000170: 44a3 e93d f144 68bf d429 69be f9ef 033f
00000180: 7b5e fb3e 6388 a63f 7082 89be eae9 723e
00000190: adcf b3be ec33 8d3e b8db fd3e 57b3 243f
000001a0: fe60 00be f933 83be 48ca 293e 8e9d 183f
000001b0: fe91 28be c2ca f8bc 50b5 223e 2908 4c3e
000001c0: 3bcc 853e 62ec 8ec0 689a 793e f674 8c3f
000001d0: 4479 c53e 158e 113d c874 a23c 335b b23d
000001e0: c8a1 f83d da0d abbd 4af9 63bd 86e6 ff3e
000001f0: 80df 5d3e 3131 983e ac00 0c3f cc53 453f
00000200: 4233 c93c aeaa 0b3f f902 4b3f f511 073f
00000210: 9f23 bbbf 9975 8cbe f6f1 fb3f dbc9 02bf
00000220: c029 a6bc 1d9b 193e ab1a 6239 f0f8 23be
00000230: c5c0 a53d 354e 4ebd 2cd6 3bbe 95da 15bf
00000240: 7a7c c93f 4500 1abe 9c13 20be a2fd 2bbe
00000250: c626 b9be 4b1a e83e ffcc b7be f3f2 113f
00000260: 0517 c13f 5706 1d3f 3a2f 5dbe 90a4 3e3e
00000270: 7d75 db3e 6095 d2be 3735 cd3d b9e5 dabe
00000280: 32e6 5f3c c2ad 483f 5af5 9c3d 6424 933e
00000290: b426 e0be b431 1b3e a1e9 323f 33b3 283f
000002a0: b40f 8abf c8a0 2bbf 3e77 9c3f 2a30 67bf
000002b0: cb83 0fbe 0d50 f83d 1082 ff3d 5395 ed3a
000002c0: de9a d9bd 2fec 8bbe ecf2 633e c913 673f
000002d0: ac06 0cbf a4ce d3bf 6c44 c73f a01d 14bf
000002e0: c708 84bd 084b 16be 5c72 dd3e 0c3c 073f
000002f0: 5f7b 833e f837 d8bd 9084 38be 66fb 0a3e
00000300: 1871 1bbf 6ac8 343d 3888 17bd 4022 4a3e
00000310: 21f5 fabc cc7b 9b3e 586a 22bf 300e 4c40
00000320: 0095 3abf 0300 14bf 1923 593d 39c7 df3d
00000330: 6152 28be e4bf a03e 7a76 313f d3df 0fbc
00000340: 6e96 b13d 48ea efbc 5d30 d3be 8233 fabd
00000350: 463d e23c 287f 7cbe 099c 6cbe 7b9a 793d
00000360: 020a 223d 4436 c33d 970f 27bd d86e adbc
00000370: b6c2 2c3c 3c31 87c0 c439 ab3d a402 8e3f
00000380: 756e d33e 5717 6e3d ed52 aebd 9ee6 013d
00000390: 67f8 c73d 391d 24be cfbc 2bbc 8896 b13e
000003a0: 8fd8 b8bd 1228 973e 692b 983f 6951 623d
000003b0: dde5 043e fa42 c7be 95e4 be3d 5801 2c3f
000003c0: 977c b8be f429 ce3e 85cc 923f 57f9 2f3f
000003d0: 7418 86be fc93 06be e2de 913f 47bb a63f
000003e0: b4c2 423e ffdb 32bf 2963 b63d f3ff 253f
000003f0: 3667 a23f 6695 52be 80dc 903e a3b9 6bbf
0.19508466 0.059263606 -0.24369447 -0.6814804 -0.27992028 0.8621043 -1.4503312 0.030456344
-0.9162088 0.5350666 0.05287497 0.019220326 -0.16485351 0.8314975 -0.398707 0.7671084
0.03992214 -0.9102088 -0.18654893 -2.4982276 0.21426076 -0.26602912 0.19935201 0.18589032
-0.026275102 1.4080669 0.8678371 -0.030640451 0.018761324 0.008510384 -0.4604694 -0.024279509
0.0073453933 0.0059900736 0.18691006 -0.18355833 -0.64857733 -2.418983 -1.0497558 -0.21400188
-0.1039886 0.051085033 0.105238624 1.1549222 0.4584018 -0.024146762 -0.04724557 0.07929113
-0.23197074 -0.25448564 -0.092831455 -0.40733108 -0.2084242 0.17657398 -0.2517677 0.33368903
1.9639428 -0.79244494 -0.016861493 0.009824296 -0.6257449 0.7811819 1.137148 0.15822868
-0.14737307 0.015786016 -0.20471032 0.009278487 0.11345897 -0.25090742 0.068607934 -0.18914886
-0.3330812 -2.1101542 -1.4502652 -0.86332136 -0.5332054 0.1820541 0.5826127 0.8797421
0.5629617 0.11690285 0.063718215 -0.10249379 -0.30042642 -0.19868813 0.018641623 -0.41295794
-0.14729464 -0.12204996 1.0711403 1.1729659 0.114080936 -0.90730196 -0.22769862 0.51538044
0.4909552 1.3010372 -0.26857328 0.23722044 -0.35119382 0.27578676 0.49581695 0.6433615
-0.12537 -0.2562559 0.1658107 0.5961541 -0.16461942 -0.03037012 0.15889478 0.19924988
0.26132378 -4.4663553 0.24375308 1.0973194 0.3856908 0.03553589 0.019831076 0.08708801
0.12140232 -0.08352251 -0.055657662 0.49980563 0.2166729 0.2972503 0.54688525 0.7708099
0.024560574 0.5455731 0.7930141 0.52761775 -1.4620246 -0.2743347 1.9683216 -0.51089257
-0.02028358 0.15000577 0.00021562974 -0.16012931 0.080934085 -0.050367553 -0.18343419 -0.58536655
1.5741112 -0.15039165 -0.1563248 -0.16795972 -0.36162394 0.4533256 -0.35898587 0.57011336
1.508515 0.613378 -0.21600047 0.18617463 0.42863074 -0.4112959 0.100199156 -0.4275339
0.013665723 0.78390133 0.076639846 0.287387 -0.43779528 0.15155679 0.6988774 0.65898436
-1.0786042 -0.6704221 1.222389 -0.9030787 -0.14015119 0.121246435 0.12475979 0.0018126167
-0.10625242 -0.2732863 0.22260636 0.90264565 -0.5469768 -1.6547437 1.5567756 -0.57857704
-0.06446987 -0.1467706 0.43251312 0.52826 0.25680062 -0.1055755 -0.18019319 0.13572463
-0.6071944 0.044136442 -0.036995143 0.19739628 -0.030634465 0.30367887 -0.6344352 3.188366
-0.72883606 -0.5781252 0.053011987 0.109266706 -0.16437675 0.313964 0.69321406 -0.008781391
0.0867127 -0.029286519 -0.41247836 -0.122168556 0.027617108 -0.24657881 -0.23106398 0.06093834
0.039560325 0.09531835 -0.040786352 -0.021171018 0.01054447 -4.22476 0.08360627 1.1094556
0.4129521 0.058127727 -0.085119106 0.031714074 0.09764176 -0.16026773 -0.010482027 0.3468516
-0.0902568 0.2952276 1.1888248 0.05525342 0.12978311 -0.38918287 0.09320942 0.6718955
-0.36032555 0.40266383 1.1468664 0.6873984 -0.2619053 -0.13142389 1.1396143 1.3025903
0.19019586 -0.6986694 0.08905632 0.6484367 1.2687747 -0.20564803 0.28293228 -0.92080134

conv1.mlp.0.bias f4 [32]
00000000: d6f4 ee3e f75d 28bf f1fa 09bf 5485 9abf
00000010: da79 05bf eab7 8bbf 2f33 7cbf 7d7b db3e
00000020: cce0 1dbf 6d39 ac3e 9492 62bf 6ba1 53bf
00000030: f16d 08bf 51b3 32bf 4cc1 61bf d376 9dbe
00000040: 2168 58bf 93a0 98bf fe41 5bbf 26d8 9fbf
00000050: 6abb dbbe fa31 80bf 0d5a 03bf 63ab 3abf
00000060: 1a30 40bf 03f4 853f f031 5ebf d521 22bd
00000070: c2a9 cdbe 541d 6fbf 3032 47bf b72c 4ebf
0.4667117 -0.6576838 -0.5389853 -1.2071939 -0.52139056 -1.0915501 -0.985156 0.42867652
-0.6167114 0.33637562 -0.8850491 -0.8266818 -0.5329276 -0.69804865 -0.8818557 -0.30754718
-0.8453389 -1.1924003 -0.8564757 -1.2487838 -0.42916423 -1.0015252 -0.5130928 -0.72917765
-0.750734 1.0465091 -0.8679495 -0.039583046 -0.40168577 -0.93404126 -0.77810955 -0.8053698

conv1.mlp.2.weight f4 [32]
00000000: adc8 6f3f 6cf7 c63f 7e90 ac3f 7c94 973f
00000010: fc4c 9d3f b88a 993f 4f00 c73f 06b1 4b3f
00000020: 0a9e bb3f ef8d 883f be9e b23f 6c8c c33f
00000030: 026e bb3f 3d06 be3f 2dfb 4e3f ab9c 963f
00000040: dfbf b63f 3bbf b23f 4fea 4f3f b19e 983f
00000050: 7c9e 9f3f 0f8a 9e3f 8783 9b3f 600f 6f3f
00000060: a164 a03f d65e 263f 7b41 ef3f e127 c83f
00000070: cf77 ac3f 14b5 b73f 9278 ae3f b2e7 603f
0.9366558 1.5544257 1.3481596 1.1842189 1.2289119 1.1995459 1.5546969 0.7956699
1.4657605 1.0668315 1.3954694 1.5277228 1.4642947 1.4845654 0.80852014 1.1766561
1.4277304 1.3964609 0.812169 1.1923429 1.247024 1.2385882 1.2149514 0.93382835
1.253071 0.6498846 1.8691858 1.563717 1.3474063 1.4352136 1.3630545 0.8785354

conv1.mlp.2.bias f4 [32]
00000000: 2804 283e b9ad 85bb 2e12 d23e a6fd d7bd
00000010: 4173 5d3e 7d76 413e 3cb8 c0bd 3e07 97be
00000020: 9757 1f3e 6bd2 1b3e 2dec 953d d18f ea3d
00000030: 3c4c 71bd 4755 51bc b652 623e a788 6dbe
00000040: eeec 14be 3e11 b03e 4575 663c c76c 503f
00000050: 0369 08bc 4caf 303e 3c74 673d a01f 38bd
00000060: 4da7 933e d5a9 2d3e 05a3 963e c78b 223f
00000070: e2ef afbc 6c6b 6a3e ded1 8c3e 267a a9bd
0.16407835 -0.0040795472 0.41029495 -0.105464265 0.21625997 0.18892856 -0.0941014 -0.29497713
0.15560757 0.15216987 0.073204376 0.11453212 -0.058910593 -0.012776679 0.22101864 -0.2319666
-0.14543507 0.34388155 0.014066045 0.8141598 -0.008325818 0.1725437 0.056507334 -0.044952035
0.28838578 0.16959317 0.2942125 0.63494533 -0.02147669 0.2289254 0.27503866 -0.08275251

conv1.mlp.2.running_mean f4 [32]
00000000: ac06 a73f 3698 803e 4eb8 ac3e dea7 183e
00000010: cd46 573e 55b3 8f3d 0b0a 1d40 f260 d23f
00000020: 84aa 6c3d b36b 943f 82e8 9a3e 8a61 d83e
00000030: d85d 1840 25d9 823d 3e5f 023f 571c 2740
00000040: 3e21 ee3f 462f ae3f 3372 733e 8bde 813f
00000050: 0824 883e 1d26 1a3f b386 e53e 9572 ff3f
00000060: 698f e83e f0d9 8640 5c6f ad3e 7150 3a3f
00000070: 1961 4b3f fef4 983e 3593 333f 13af 5d3e
1.3048911 0.25116128 0.33734363 0.14907786 0.21023102 0.07016627 2.453738 1.6435835
0.057779804 1.1595367 0.30255514 0.42261916 2.3807278 0.06389073 0.5092658 2.6111047
1.8603895 1.3608177 0.23774032 1.014604 0.2658999 0.60214406 0.4482933 1.9956843
0.45421913 4.2141037 0.33874023 0.72778994 0.79445034 0.29874414 0.70146495 0.21648817

conv1.mlp.2.running_var f4 [32]
00000000: 82bd 7f40 2848 063f fa0f 313f c662 773e
00000010: a735 e53e 34fc 0a3e cb81 3940 4e0f 8740
00000020: ae87 b03d 6bad 3140 86b5 093f 1294 783f
00000030: 52ee 2a40 164c ab3d 3572 e53f 93c8 3340
00000040: c06e f33f e561 9f3f a3a1 623e 7973 e33f
00000050: d2b0 163f da48 bd3f 5a05 573f 8dda ff3f
00000060: ab59 d93f a994 eb40 803b 453f 5ed8 e23f
00000070: f55e 0940 cc1d 243f b3f1 4640 e3c6 563e
3.9959416 0.5245385 0.69165003 0.24158773 0.44767496 0.1357277 2.898547 4.2206182
0.08619629 2.7762096 0.5379261 0.9710094 2.670796 0.083641216 1.7925478 2.809117
1.9018173 1.245175 0.22131972 1.7769614 0.58863556 1.4787858 0.8399254 1.9988571
1.698049 7.361897 0.77043915 1.772228 2.1464207 0.64107966 3.1085021 0.20974307

conv1.mlp.4.weight f4 [32, 32]
00000000: ced9 53bf 46b5 4f3e b036 b53e 502b 6fbf
00000010: cc4b b93e b285 47bf 6b60 c63f 4742 2fbf
00000020: 12cb 21bf ee5c 03be 27ca a03e 2ede 07bc
00000030: ce1c b13f 9fbe fbbd 4925 a73c eec4 013f
00000040: 3356 9a3f 2ed6 833f 2f66 383e 9107 9bbd
00000050: 34f7 c03d 12b9 8c3e eb85 48bf 79cc dc3e
00000060: df52 8e3e efea 093f f152 033e 901b 733e
00000070: 70fc d83e 8156 a43e 88c2 283e 479d f63e
00000080: 4ab4 83be 8ccd 6f3d 1f60 b7be 2b2f 6abf
00000090: 611f 4dbf ffed 9fbd 7f00 b53f 5704 a63a
000000a0: de89 cbbe a35b 17bf 7ce2 5abd afa4 febe
000000b0: aa7a 763f 4d9b 05bf faea e73e 71f4 733f
000000c0: f504 9d3f 7dac 663f be98 413e 853d 69bb
000000d0: 185d fdbe 74f1 29be 8cc6 cfbe cb63 f53e
000000e0: 104e 8fbf 6f8c 1f3f a033 cdbc a190 56bf
000000f0: ff14 71be 6d50 643d 8f89 a53d 1b58 183e
00000100: b500 4b3d 0601 463f 588c b13e 1d7e f13e
00000110: a013 563f 89d7 cebd 527d 76be b3ce ca3d
00000120: a43d 873d 12d8 453d 3fe4 403f 12d7 003f
00000130: 0fe5 e3bd c263 a9be 5dea 16bf d460 64bd
00000140: 6c7c a3be de69 a3be 1ec9 4f3f 9e34 9fbf
00000150: c1d8 583f c68f 033f d8d9 40bc 4eb6 18bf
00000160: db5d 1cbf ac93 27be f951 873f 173e cbbf
00000170: a594 343f 5ae7 323e 36ae 39be 4906 4cbf
00000180: 763c e2be 57af f5be 36ac 9bbf 734e c0be
00000190: df7b a8bf aa94 57bf 98b0 273c e90e 0bbf
000001a0: d99f 82bd f014 03bf 208f 80bf ae39 17bf
000001b0: ac31 77be b77c 79be 5641 a1bf 3216 b3be
000001c0: db25 a9bd bc6c 5cbe da49 933d 979a 733e
000001d0: 0732 6abf 2229 60bf 7061 0b3d cf31 98be
000001e0: 6977 69bf 178b 953e 53e9 8cbf e433 35be
000001f0: 0991 93bf e5f8 a0bf 99e8 d5bf 6f37 303e
00000200: a86c 87be e614 193f 07e0 963e 6869 413f
00000210: 8e8f 1a3f 3ed4 09be 849b 80be 1980 343e
00000220: 978e 11bd bcb8 ea3e 3366 413f 9637 303f
00000230: 7723 b1be eb98 0c3e c55a 28bf 5c9b 4e3e
00000240: 44f8 a1be 8963 bbbe 7824 e2bd a933 95bf
00000250: 6c0c 393f 1883 3e3f aecc 27be 2113 33bf
00000260: 18ec 29be 896d 84bf 2c3a f23e 5a35 a8be
00000270: 1555 f73e 8e14 863e cd33 24bf 81a7 97bf
00000280: 6326 26bf dc95 6abf 1c79 a9bf 2714 043e
00000290: 0ba5 72bf 42de 48be 3023 253e ef4e 26bf
000002a0: 30ae 863e c232 833d 6b21 01bf ea47 aabf
000002b0: a0c6 06bd e56b c23e 56b0 423e fca3 b3be
000002c0: a306 7bbb a858 223e 06c4 0cbf 9350 c53e
000002d0: 7b57 4bbf c941 35bf df42 273f 8c52 c4be
000002e0: 12d2 cebe 7af9 893e a68a 45bf 28c1 113f
000002f0: 255c 58bf 5af5 2bbf 34da c0bf b5bc f8be
00000300: 1268 873e 1a5d f83e 4974 d63e 4114 403e
00000310: 4bd8 233f 037c 7dbf 8441 c7be 26a5 823e
00000320: 2be6 52bf 5375 9ebe 781e 123f b52e 153f
00000330: 93ce d9be 47e2 8ebf c17e 35be c45f 17bf
00000340: 94a2 10bf 9c53 25bf 691c 003e 8dc1 ffbe
00000350: 805f b93e 1194 ee3e d874 a53c 247a 12bf
00000360: 5b85 80bf d5f7 01bf 1086 0b3f 0ecf bbbf
00000370: 2cc0 103f 5081 d93e 4697 92be d7b5 b2bf
00000380: d443 ac3d d5f0 7f3f 8533 a53e c184 643f
00000390: 2fd3 033f b3f7 01bf f53d a7be 6b9a 273f
000003a0: 6a04 e0bd ab80 653e a18e 813f d68f 173f
000003b0: 95f7 fabe a962 2d3d b1da bebd 2069 97be
000003c0: 72aa 8ebe e67c 28bf 24fd e1be 31e2 b0bf
000003d0: 47e6 433f 95da 2f3f 3930 5d3e f5f2 c7be
000003e0: 7a88 96be 0d16 46bf 423f 4e3f 453a 61bf
000003f0: 9e3e 403f 4d26 6f3d a88b f7be a8cc a4bf
-0.8275422 0.20283994 0.35393286 -0.93425465 0.3619064 -0.7793838 1.5498174 -0.68460506
-0.63200486 -0.12828419 0.3140423 -0.008292718 1.3836915 -0.122922175 0.020403521 0.50691116
1.2057556 1.0299737 0.1800773 -0.075698026 0.0942215 0.27484947 -0.7832934 0.4312475
0.277976 0.53874105 0.12824608 0.23740983 0.42380095 0.32097247 0.16480458 0.48166868
-0.25723487 0.058545634 -0.35815522 -0.9147822 -0.80126005 -0.07809066 1.4140776 0.0012666088
-0.39753622 -0.591242 -0.05343865 -0.4973502 0.9628092 -0.52190095 0.4529646 0.95294863
1.2267138 0.90106946 0.18905923 -0.0035589647 -0.49485087 -0.16596013 -0.40581167 0.47927698
-1.1195698 0.6232366 -0.02504903 -0.83814436 -0.23543166 0.055740763 0.08082878 0.1487736
0.04956122 0.7734531 0.34677386 0.4716653 0.83623695 -0.10099704 -0.24071243 0.09902706
0.06603554 0.048301764 0.75348276 0.5032817 -0.11127674 -0.33083922 -0.5895136 -0.055756405
-0.31930864 -0.31916708 0.81166255 -1.2437932 0.8470574 0.51391256 -0.011770688 -0.59653175
-0.6108071 -0.16364926 1.0571891 -1.5878323 0.70539314 0.17471066 -0.18132862 -0.7969709
-0.44186753 -0.47985336 -1.216193 -0.37559852 -1.3162802 -0.8421122 0.010234974 -0.54319626
-0.06378145 -0.51203823 -1.0043678 -0.5907239 -0.24140042 -0.24363981 -1.2598064 -0.3497787
-0.082591735 -0.21525854 0.071918204 0.2378944 -0.91482586 -0.87562764 0.03402847 -0.297255
-0.9119783 0.2920768 -1.1008705 -0.17695576 -1.1528636 -1.2575957 -1.6711608 0.17208646
-0.26450086 0.59797513 0.29467794 0.7555146 0.603753 -0.1345987 -0.2511865 0.1762699
-0.035536375 0.45844066 0.7554657 0.6883482 -0.3459737 0.13730209 -0.65763503 0.20176452
-0.31634724 -0.36599377 -0.11042112 -1.165639 0.7228458 0.74418783 -0.16386673 -0.69951063
-0.16593969 -1.0345927 0.47310007 -0.32853204 0.483071 0.26187557 -0.6414154 -1.1847993
-0.64902323 -0.9163492 -1.3240085 0.12898313 -0.94783086 -0.19616035 0.16126704 -0.64964193
0.2630477 0.06406166 -0.50441617 -1.3303196 -0.032904267 0.37972942 0.1901258 -0.35086048
-0.0038303516 0.15854132 -0.5498661 0.38538036 -0.7943036 -0.70803505 0.6533641 -0.38344228
-0.40394646 0.26948148 -0.77164686 0.5693536 -0.845156 -0.6717125 -1.506659 -0.48581472
0.26446587 0.4850853 0.41885594 0.18757726 0.6400191 -0.9901735 -0.38917172 0.25516623
-0.8238246 -0.30948886 0.5707774 0.58274394 -0.42540416 -1.1162804 -0.17724134 -0.591305
-0.56498075 -0.645807 0.12510838 -0.49952355 0.36205673 0.4659734 0.020197317 -0.5721762
-1.0040697 -0.50768787 0.5450144 -1.4672563 0.5654323 0.4248147 -0.28631037 -1.3961743
0.08411375 0.99976856 0.3226587 0.89265066 0.51494116 -0.50768584 -0.32664457 0.6547
-0.10938342 0.22412364 1.0121652 0.5920385 -0.49017015 0.042330418 -0.09319056 -0.29572392
-0.27864414 -0.6581558 -0.44138443 -1.3819028 0.7652325 0.68692905 0.21600427 -0.3905255
-0.29400998 -0.77377397 0.80565274 -0.8797954 0.75095546 0.058386136 -0.48348737 -1.2874956

conv1.mlp.4.bias f4 [32]
00000000: 2d68 f73e 50bd 543d 93d6 56be ee39 43be
00000010: 3ff9 0bc0 ffa4 b3be a0d2 6abf 674a 6fbf
00000020: c1f4 733f de93 b5bf 6944 7bbf 88b8 df3e
00000030: 975e cabe 63bb 6d3f 6f74 a6bf 6858 093f
00000040: 80b4 c43f ea1c 7cbe f19d 9c3d 8f66 bb3f
00000050: 0988 e83e 6aaf c03f c8e1 273f 8736 39bf
00000060: cd2a 27bf debb cbbf e50c 42bf 9453 a73d
00000070: b788 d6be 0d16 1340 0571 5abf d2ff d2bf
0.48321667 0.051938355 -0.20980291 -0.19065067 -2.1870878 -0.3508682 -0.9172764 -0.93472904
0.9529534 -1.418575 -0.9815126 0.43695474 -0.3952529 0.92864054 -1.3004283 0.5365052
1.5367584 -0.24620405 0.076473124 1.4640673 0.45416287 1.5053532 0.6557889 -0.7234883
-0.65299684 -1.5916708 -0.75800925 0.08170238 -0.4190118 2.2982209 -0.85328704 -1.648432

conv1.mlp.6.weight f4 [32]
00000000: 2841 f33f 2dcc ba3f 3e13 473f 9975 aa3f
00000010: 30d1 7d3f e911 a03f 3007 643f 354a 763f
00000020: 761d f13f 3552 c33f 5fb6 c43f 7422 b53f
00000030: 34b8 1d3f 09fe ab3f 3935 a03f fd82 963f
00000040: 01cf a33f 3cad 8d3f 6f6e 953f 1bdd 973f
00000050: e066 ab3f 569f af3f 62b8 d63f bfe3 af3f
00000060: 756a 913f 63ea b63f 1a2d 643f 4a70 863f
00000070: 3e38 853f 0ea9 b03f 178f b23f b331 aa3f
1.9004259 1.459356 0.77763736 1.3317138 0.9914732 1.2505466 0.8907347 0.9620698
1.8837116 1.5259463 1.5368155 1.4151139 0.61609197 1.34369 1.2516242 1.1758724
1.2797548 1.1068492 1.1674327 1.1864351 1.339077 1.37205 1.6775019 1.3741378
1.1360613 1.4290279 0.8913132 1.0503018 1.0407789 1.3801591 1.3949918 1.3296417

conv1.mlp.6.bias f4 [32]
00000000: d81b 533f 6289 ed3e 28c4 5dbe 2664 cbbd
00000010: 78fa dbbd 412c 67be 6415 c2be 663a 5ebe
00000020: 7a3f 573f e329 08bd db0e cb3e 7869 ec3e
00000030: bef5 faba 311a c73e 029c 7fbe aaa1 123f
00000040: ba33 2d3f 3ebb 943e 3944 023d 7da4 81bd
00000050: f948 223f 2eab 163e b046 c33e 206c 8a3e
00000060: 073c 8e3e cf27 d03e 7eb3 bdbd 81c4 c1bd
00000070: 2061 cfbe 015b 133f 16e9 e03e 4da1 a13d
0.8246436 0.46393877 -0.21656859 -0.09931211 -0.107411325 -0.22575475 -0.37906945 -0.21701965
0.8408123 -0.03324307 0.3965977 0.46174216 -0.0019146723 0.3888717 -0.24961856 0.5727793
0.67657053 0.29049104 0.031803343 -0.06330202 0.633926 0.14713737 0.38139868 0.27035618
0.27780172 0.40655372 -0.09262751 -0.09461308 -0.40503788 0.57560736 0.4392783 0.07892094

conv1.mlp.6.running_mean f4 [32]
00000000: e852 9540 16c3 6b40 f592 ec3f 45e1 0e40
00000010: 11ca aa3f c461 0c40 4abf ff3f 378a 0f40
00000020: 61aa ac40 301f 1440 3b28 1440 046c 2c40
00000030: c098 4640 092c 3f40 afc8 cd3f 6860 9740
00000040: 1630 6a40 284f 6140 9c10 4c40 01ea 3540
00000050: 02a4 a040 991b 4540 6a26 7d40 ac82 6040
00000060: c453 3340 f45f 4640 9569 e03f 4b8c 1840
00000070: 86db 0b40 25c9 ac40 9c9a 5740 6bdb f33f
4.6663704 3.683782 1.8482348 2.2324994 1.3342916 2.1934671 1.9980252 2.242811
5.395798 2.3144035 2.3149555 2.6940928 3.1030731 2.9870627 1.6076869 4.7305183
3.659185 3.5204563 3.1885138 2.8424075 5.0200205 3.0798094 3.9554696 3.5079756
2.8019876 3.0996065 1.7532221 2.3835628 2.1852736 5.399554 3.3688116 1.9051336

conv1.mlp.6.running_var f4 [32]
00000000: 6dce 0d42 bf26 d541 58ad 8041 e4f8 c540
00000010: 128f 3641 1056 e440 8e69 6641 7a11 b541
00000020: fe19 2c42 bc8e e041 a4ab cb41 ec95 3341
00000030: 76e9 e041 fabc 6041 ff2f b340 3a19 ff41
00000040: ab6d 7d41 fdd1 0342 b22c 2842 54af fe40
00000050: 69b1 0c42 0f6f 0541 d5e1 d841 08f6 8142
00000060: e652 2842 0cf0 3142 6ee4 f740 654e c441
00000070: 803d 9641 4f2b e941 7b1a 3342 f5a7 e041
35.451588 26.643919 16.08464 6.186632 11.409929 7.1355057 14.40077 22.633533
43.025383 28.069695 25.458809 11.224102 28.113995 14.046137 5.599609 31.887318
15.839274 32.955067 42.043648 7.9589024 35.173252 8.339614 27.11027 64.98053
42.080956 44.48442 7.7466345 24.538279 18.78003 29.146147 44.77586 28.08201

conv1.mlp.8.weight f4 [32, 32]
00000000: 9d17 ec3d ab59 043f 7688 1e3e cb7c 143f
00000010: 85c8 853f 24bb dbbe fd84 ac3b 01d7 403f
00000020: f567 5cbf 9e21 283f ed98 40bf 59cf 353f
00000030: 72fd a2bd a99f f8be d152 18be f476 79be
00000040: 2d54 0d3d 141c 8dbe daca e4be 9943 1dbf
00000050: dfd5 f33e 891d 013f 39d8 e33d 3874 283c
00000060: aaee 45be 8d44 72bf 66ec 28bf dcef 02be
00000070: f6f8 193f f9b3 9abe fecc 8bbf 1381 81bf
00000080: 3269 9dbf d19c 063f 90af 41be 8588 0abf
00000090: 9361 5a3f 0d3b 57bc 404c de3e 3767 0d3f
000000a0: 3883 3dbf 0172 913e 3d54 33bf 6bf7 7dbe
000000b0: 7a6d 063f dc5a 66bf e29a 4a3e cb64 853d
000000c0: c330 84bf bce1 1f3f 316a fa3c d743 0cbe
000000d0: 8fec 0ebf ebc0 6cbf 525f 85bd f0c7 203e
000000e0: 07d8 823f 2ae0 76be ae3b 403d c70c 0d3f
000000f0: 07b6 1b3e e399 23bf ba76 edbe 9c16 07bf
00000100: 2abc d13d 1d2a cdbe 2c43 12bf 78cc 47be
00000110: 8bc1 a3bf a1a1 bbbf fd59 5dbe c786 51bf
00000120: b8e9 443d 4ec5 babf 2703 db3e 490f 1ebf
00000130: c573 77be 834e af3e 939e 83bf 0c33 71be
00000140: 0321 88bd e9f3 9ebd 6c1f 1abf e938 9dbf
00000150: dae1 7fbe 3052 01bf ca1d 373e b7e9 0cbf
00000160: c24c 2c3d a7bc 35be cfd6 1fbf 1f08 5abf
00000170: a822 25bf 0297 823d 93ae cdbe ac4d 98be
00000180: f832 9dbe e7d0 90be b895 67bf 8241 3d3d
00000190: b49b 3ebe 64bb 1cbe bde5 e7be c592 6abe
000001a0: e435 bf3e c390 483d 5835 103f ab80 b33e
000001b0: b51a 6e3e 3229 cd3e e214 88be de9d a43f
000001c0: f386 a43f 1f7c 28bf 7511 a6be 47c8 1b3f
000001d0: 3946 153f 54a2 683e 8af2 79be f600 4fbf
000001e0: 6319 2a3f d361 5ebe 9843 33be b2f4 a3be
000001f0: 36d8 c2bf 5716 b93e 0ecf a93d f8e9 d7be
00000200: 56cb 643b 58d4 203f eb3b 03bf 5132 a13f
00000210: b661 6bbe 2b7e 563e 6dad bbbe 2c0e dabe
00000220: 3b38 9bbd f2e8 d6be 2693 25bf 3c47 8d3f
00000230: 091f 91bf 7759 4f3e bdcf eabd ca22 cd3e
00000240: f708 a13e 18a5 b5bf cdf1 35bf 418f 2a3e
00000250: 462f b83e d65d 133f d589 0b3e 4b3d 13bf
00000260: ec82 03bf 2960 53bf a8ee 80bd 97b0 3abf
00000270: ce92 a6be 34e1 073e 3772 91bf f9a3 c0be
00000280: 229e f13e 502e 1c3f a224 c9be 5c5b 063f
00000290: 0a2d 18bf 691c 8fbe 595f 20be dfe8 1b3d
000002a0: 89de 323f 1f73 2ebf 96e8 c9bb 9073 633f
000002b0: 73c7 47bf 8153 513f 9a65 0cbf b8b5 e13e
000002c0: 097c 223f 4323 e4be 487b 8bbe c40e 34bf
000002d0: 0574 6a3e 1105 263f e348 853f 9036 48bf
000002e0: d987 0ebf 95e6 d8be c8e3 d2be 7580 85bb
000002f0: 2573 e2bd 6d59 0e3f dfe7 88bf 066c ffbb
00000300: a9c6 57bf 0fb7 a8bf e544 82be 840a a13e
00000310: cd5f 97bd da4d 823e 9934 a1be e7f0 9cbe
00000320: a569 2ebf 9b5a 6ebf 28c4 643e e590 4bbf
00000330: 5f7c a7bf 3db8 78bf 682f e73e 0cb6 5fbf
00000340: e46e 83bf 87e6 c6be abc4 54bf 6179 11be
00000350: 79a3 0dbf bb17 5a3e a29a 92bf 69c0 a9be
00000360: 8b58 d43e d41a 84be 68ea 133f ca30 08bf
00000370: 9b2f 84be a1a3 aabe 54a4 dd3e fb1f ad3e
00000380: 3f55 02bf 20c0 70be 62fe 05bf e5c5 c63e
00000390: 722e 84be 7ee7 eebd ec22 cabe d35f 7dbe
000003a0: df78 00bb 3047 a7bf 8fe0 be3e 5864 7c3e
000003b0: 0574 7ebe c6a9 6abc 7ed3 20be 093c dabe
000003c0: 6b16 4b3f d93a 90bf 696c 21be 45ca 6fbd
000003d0: 1dbb ce3d 88dd 753f 8a89 afbe 44aa aebf
000003e0: 567f 90bf 2c8a 9cbf 6a30 b73e 9732 01be
000003f0: 3dd1 09bf a898 4ebf e9f1 4ebf 97b7 04bf
0.115279414 0.5169932 0.15481743 0.5800292 1.0451819 -0.42916214 0.005264877 0.7532807
-0.86096126 0.65676296 -0.75233346 0.7101951 -0.07958497 -0.4855931 -0.14875342 -0.24361783
0.034504104 -0.27560484 -0.44686013 -0.6143127 0.47624108 0.5043569 0.111252256 0.010281615
-0.19329324 -0.9463585 -0.65985715 -0.12786812 0.6014551 -0.30215433 -1.0921934 -1.0117515
-1.2297728 0.5258303 -0.18914628 -0.5411456 0.85305136 -0.013136637 0.4341755 0.5523562
-0.7402835 0.2840729 -0.7005041 -0.24801414 0.525108 -0.8998239 0.19785646 0.06513365
-1.0327381 0.6245382 0.030568214 -0.13697754 -0.5582971 -0.9248187 -0.065123215 0.1570127
1.0222176 -0.2410895 0.046931915 0.5509762 0.15206157 -0.6390669 -0.46379644 -0.52768874
0.102409676 -0.40071192 -0.57133746 -0.19511592 -1.279344 -1.46587 -0.21616359 -0.8184628
0.048074454 -1.4591463 0.42775843 -0.61742073 -0.24165256 0.34239587 -1.0282768 -0.23554629
-0.066469215 -0.07761366 -0.60204196 -1.2282993 -0.249885 -0.50516033 0.17882457 -0.5504412
0.04206539 -0.17747746 -0.62437147 -0.8516864 -0.64506006 0.06376459 -0.40172252 -0.2974676
-0.3070295 -0.2828438 -0.9046283 0.04620505 -0.18614084 -0.15305859 -0.45292464 -0.2290755
0.37345803 0.04896618 0.56331396 0.35059103 0.23252375 0.40070492 -0.26578432 1.2860677
1.2853683 -0.65814394 -0.32435194 0.60852474 0.58310276 0.22718173 -0.24408928 -0.8086084
0.6644499 -0.21717004 -0.17506254 -0.32022625 -1.5222232 0.36149856 0.08291446 -0.42170691
0.0034911237 0.6282401 -0.512633 1.259348 -0.22986493 0.20946567 -0.3665575 -0.42588937
-0.075790845 -0.41974598 -0.64677656 1.1037364 -1.1337596 0.20248972 -0.11465404 0.40065604
0.31452152 -1.4191008 -0.71072084 0.1665621 0.35973567 0.5756506 0.13626797 -0.575154
-0.51371646 -0.82568604 -0.0629552 -0.72925705 -0.32533878 0.13269502 -1.1362981 -0.376251
0.47190958 0.6100817 -0.3928576 0.52483153 -0.59443724 -0.27951363 -0.15661372 0.03806388
0.6987081 -0.6814441 -0.0061617596 0.8884821 -0.7803871 0.8176804 -0.5484253 0.44083953
0.6347051 -0.44558153 -0.27242494 -0.7033503 0.2289582 0.6485148 1.0412868 -0.78208256
-0.5567604 -0.4236342 -0.41189408 -0.004074151 -0.11057118 0.556052 -1.0695761 -0.00779486
-0.84287506 -1.3180865 -0.25443187 0.31453335 -0.073913194 0.2545002 -0.3148544 -0.30652544
-0.6812995 -0.93107 0.22340453 -0.79517967 -1.308483 -0.97156125 0.45153356 -0.87387156
-1.0268216 -0.38847753 -0.8311259 -0.14206459 -0.55327564 0.21298115 -1.145344 -0.3315461
0.41473803 -0.25801718 0.5777955 -0.53199446 -0.2581757 -0.33327964 0.43289435 0.33813462
-0.50911325 -0.2351079 -0.5234128 0.38822857 -0.25816685 -0.116652474 -0.39479768 -0.24743585
-0.0019603295 -1.30686 0.372807 0.24647653 -0.24848945 -0.014322704 -0.15705678 -0.42623928
0.7933108 -1.1267959 -0.15764011 -0.05854251 0.10094283 0.96041155 -0.3428462 -1.3645711
-1.128886 -1.2229667 0.35779124 -0.12616955 -0.538349 -0.80701685 -0.80837876 -0.51842636

conv1.mlp.8.bias f4 [32]
00000000: 7646 7a3e 533c b7bd af13 ec3e 1e06 423f
00000010: 7187 09bf 9fe7 b6bb 6fa5 713f 3908 bf3e
00000020: a944 cc3f a8d8 64be aa1c 7b3f 4aa0 533f
00000030: 7c23 893f 660f e5bf aa7b 78be 1cd4 2e3e
00000040: e510 6d3f 2473 cd3e df02 5e3f b01a d13e
00000050: d496 b33d c978 59bf 44d1 d33e ff2c 803f
00000060: 42db a9be bf8f 1f3e de40 633f 596b 0240
00000070: 742e 7abe 2a3c 89bf 38bd 503f 782b 05bf
0.24440941 -0.08947053 0.46108767 0.75790584 -0.5372229 -0.0055818106 0.94393057 0.3731096
1.5958453 -0.22348273 0.9809061 0.82666457 1.0713954 -1.7895324 -0.24265924 0.17073101
0.92603904 0.40126908 0.8672313 0.40840673 0.087690026 -0.8494993 0.41370595 1.0013732
-0.33175093 0.15582179 0.88770854 2.037802 -0.24431783 -1.0721486 0.81538725 -0.52019453

conv1.mlp.10.weight f4 [32]
00000000: 6165 e13e bb8e f33f ea50 c03f ae24 ac3f
00000010: f7fa 4b3f 3448 a53f 0636 0840 8af8 8a3f
00000020: 93b3 0740 dc3e 07bf d71d e33f b14f a23f
00000030: 0590 b63f 5d4a 0140 3641 bb3f 4418 e23f
00000040: e495 a13f e579 f33f 7f6e 0f40 520a 2340
00000050: 716a 603f 8a40 793f b6c2 1340 497f 923f
00000060: 79d4 e13f 9759 923f 1a6f e73f b7c6 0240
00000070: ec2f 763f 886d f63f 4c42 a5be 6e6d 7a3f
0.44022658 1.9027933 1.5024693 1.3448694 0.79679817 1.291266 2.1282973 1.0857098
2.1203353 -0.5283029 1.7743481 1.268057 1.4262701 2.0201638 1.4629276 1.7663655
1.2623868 1.9021574 2.2411191 2.547505 0.87662417 0.97364104 2.3087592 1.1445094
1.7642967 1.1433591 1.808078 2.0433786 0.9616687 1.9252176 -0.32277143 0.97823226

conv1.mlp.10.bias f4 [32]
00000000: 1ba3 07be 213b 073f 3043 2e3f 2cf1 533f
00000010: df0c d93d ef1a 0abf 6c36 2fbf 2232 383f
00000020: 13fd 29bf 787b a43e 0d34 a03e e6b2 003f
00000030: b6db 413f 2b3b c7be 5b63 25bf bd15 77bf
00000040: d4ad 573f 5b12 54bf 13e1 963e 9235 953c
00000050: 8622 4d3e dfa5 44bf 6a19 39be 0f73 02bf
00000060: 1d3f 32bf a793 453f 5012 20be aae0 5cbf
00000070: cb2a 7a3e b511 4bbf c274 60be 900e 1b3f
-0.13245814 0.528246 0.6807127 0.82789874 0.10598158 -0.5394735 -0.68442416 0.71951497
-0.66401786 0.3212545 0.31289712 0.5027298 0.7572588 -0.3891233 -0.6460473 -0.96517545
0.84249616 -0.8284051 0.29468593 0.01821402 0.20032701 -0.768156 -0.18076101 -0.50956815
-0.69627553 0.77178425 -0.15631986 -0.8628031 0.24430387 -0.79323894 -0.2191954 0.60569096

conv1.mlp.10.running_mean f4 [32]
00000000: a6ae af3f 62ea 0a40 1064 6c40 4754 b840
00000010: 9fee 9240 1781 c440 bb03 2a40 cc62 4640
00000020: 335a 7640 6c0e 0040 120e 3940 5328 fb40
00000030: c3e6 ae40 ab8b 943f a6d7 7640 98a7 f93f
00000040: 955b d440 fa08 5040 3822 e440 189e 0041
00000050: 2155 b140 9090 2b40 5247 eb3f f544 8540
00000060: 3671 2740 30c6 ad40 7077 a340 f6f9 3c40
00000070: 23f3 9440 a72a e83f ee28 0a40 c9f3 d340
1.3725173 2.1705556 3.6936073 5.760288 4.5916286 6.140758 2.6564777 3.09978
3.8492553 2.0008802 2.8914838 7.8486724 5.465669 1.1605123 3.8569121 1.950427
6.6361794 3.250548 7.129177 8.038597 5.5416417 2.6806984 1.838114 4.1646676
2.6162848 5.430443 5.10833 2.9527564 4.65468 1.8138016 2.1587481 6.623509

conv1.mlp.10.running_var f4 [32]
00000000: f236 c040 8628 9d41 a006 7241 1976 0742
00000010: a86a fb41 d4dd 8e42 e8b3 6a41 30a8 4941
00000020: a9bb c041 1754 4f41 1fa3 5741 cd28 d442
00000030: 8a07 bb41 7127 3141 379f 1f42 b698 3941
00000040: 921e 4842 1c21 c141 86f0 b142 e970 da42
00000050: 6415 8142 d8c6 4542 5b2d 1e41 fd5b f741
00000060: d03e 2542 1ab5 5242 eae2 8742 0adb 5841
00000070: 870a 1442 2383 3a41 65b3 1041 fc22 a242
6.006707 19.644787 15.126617 33.86533 31.427078 71.43326 14.668922 12.603561
24.09163 12.95803 13.4773245 106.07969 23.378681 11.072129 39.905483 11.599783
50.029854 24.141167 88.96977 109.22053 64.54178 49.444183 9.886073 30.919916
41.31134 52.676857 67.94319 13.553476 37.01028 11.657016 9.0437975 81.06833
