GraphNeuralNet/Skim3Mu/epoch60/MHc-100_MA-95_vs_nonprompt/models/ParticleNet-nNodes48_AdamW_initLR-0p001_StepLR.pt (torch, 194168 bytes, 102 tensors)

gn0.weight f4 [9]
1.2105672 0.88520694 0.87096643 0.845704 0.9712417 1.0376894 1.0511066 0.99726534
1.0159222
00000000: def3 9a3f ec9c 623f a8f7 5e3f 0f80 583f
00000010: 4ca3 783f 02d3 843f a98a 863f c84c 7f3f
00000020: bd09 823f

gn0.bias f4 [9]
0.112124756 0.0027057317 -0.036895793 0.10651754 0.00082078076 0.018609144 0.038095463 -0.19514322
0.16668278
00000000: aaa1 e53d a552 313b 0b20 17bd de25 da3d
00000010: aa29 573a 3472 983c fd09 1c3d a0d3 47be
00000020: e4ae 2a3e

gn0.mean_scale f4 [9]
0.568995 0.98342395 0.9530995 1.0830452 1.7054483 -0.020619338 0.92541647 0.99726534
0.8867945
00000000: a8a9 113f acc1 7b3f 54fe 733f 3aa1 8a3f
00000010: 214c da3f e3e9 a8bc 18e8 6c3f c84c 7f3f
00000020: f704 633f

gn1.weight f4 [48]
1.0103512 0.973161 0.9206629 1.0326164 0.9355226 0.95105785 1.0272979 1.0883251
1.0300547 1.0719593 0.9912142 1.0873026 0.9785703 0.9890707 0.9321978 0.8778692
1.004409 0.98203576 0.97514313 0.9007901 0.96615493 1.0894431 1.0435213 1.0448357
0.9614096 0.8978753 1.0094082 0.9382237 0.9528752 0.92046744 1.0123591 0.96052164
0.9379827 1.0124166 1.0276047 0.9748532 1.0234649 0.95444924 0.9733934 0.95122033
1.0678607 0.9521898 0.9352801 0.97189784 1.0128528 0.93251765 0.90093935 1.0622915
00000000: 3053 813f 1421 793f 90b0 6b3f c62c 843f
00000010: 697e 6f3f 8778 733f 7f7e 833f 3d4e 8b3f
00000020: d5d8 833f f635 893f 37c0 7d3f bb2c 8b3f
00000030: 9583 7a3f bd33 7d3f 84a4 6e3f 09bc 603f
00000040: 7990 803f b266 7b3f fba2 793f 2e9a 663f
00000050: ee55 773f df72 8b3f 1b92 853f 2dbd 853f
00000060: f11e 763f 28db 653f 4a34 813f 6e2f 703f
00000070: a1ef 733f c1a3 6b3f fc94 813f bfe4 753f
00000080: a21f 703f de96 813f 8d88 833f fb8f 793f
00000090: e600 833f c956 743f 4f30 793f 2d83 733f
000000a0: a9af 883f b6c2 733f 846e 6f3f 4cce 783f
000000b0: 29a5 813f 7ab9 6e3f f6a3 663f 2bf9 873f

gn1.bias f4 [48]
-0.05328654 0.0963759 0.093901075 0.00089181034 0.008036831 0.04121761 0.085866906 0.044865496
-0.030146092 -0.11652546 -0.041086216 0.0015919787 -0.058299657 -0.00036359497 0.06630657 0.006589039
-0.022187581 -0.027037304 -0.02984069 -0.0027461022 0.023749378 -0.014195439 -0.029624071 0.090406425
-0.019701913 0.00917266 0.07859133 0.04027396 0.001268758 -0.026567778 0.020583598 0.037826426
0.06624608 -0.019373225 0.024272107 -0.03603992 0.08255337 -0.008305885 -0.08096885 0.028217705
0.001310046 0.022367379 -0.03422548 -0.06586189 0.037330102 0.040402718 0.08370987 0.016893549
00000000: fd42 5abd ba60 c53d 354f c03d 61c8 693a
00000010: eaac 033c ccd3 283d fdda af3d e2c4 373d
00000020: f0f4 f6bc e6a4 eebd 054a 28bd f1a9 d03a
00000030: 9fcb 6ebd e4a0 beb9 bdcb 873d dee8 d73b
00000040: bbc2 b5bc 567d ddbc 7674 f4bc f3f7 33bb
00000050: 0e8e c23c fd93 68bc 2eae f2bc 0127 b93d
00000060: e865 a1bc ed48 163c 7ef4 a03d 4ff6 243d
00000070: 744c a63a aba4 d9bc ef9e a83c e2ef 1a3d
00000080: 06ac 873d 99b4 9ebc 4cd6 c63c 989e 13bd
00000090: be11 a93d 6815 08bc ffd2 a5bd d128 e73c
000000a0: d9b5 ab3a cb3b b73c 0430 0cbd 99e2 86bd
000000b0: 73e7 183d 527d 253d 1570 ab3d 5764 8a3c

gn1.mean_scale f4 [48]
1.028911 0.9485208 1.0413333 0.956252 1.0265352 1.0259062 1.0081948 1.0365254
0.96137613 1.020892 0.96754706 0.94283867 0.97515756 0.9570508 0.98369384 0.9785552
1.0312941 0.9711374 1.0310097 1.0015734 1.023419 1.0448419 0.9459174 1.0438945
0.9481517 1.0134267 1.0194948 1.0258987 0.9627633 0.96813107 0.9599244 1.0599666
0.9827841 0.95297647 1.0317668 1.0228459 1.0428348 0.9972418 0.99571437 0.96778184
0.9593116 1.0052152 1.0370548 0.9718252 0.95555395 0.976919 1.0042845 1.0051941
00000000: 5bb3 833f 42d2 723f 694a 853f eecc 743f
00000010: 8165 833f e550 833f 870c 813f ddac 843f
00000020: bf1c 763f 97ac 823f 2ab1 773f e05d 713f
00000030: eda3 793f 4801 753f 5cd3 7b3f 9882 7a3f
00000040: 7201 843f 769c 783f 20f8 833f 8f33 803f
00000050: 65ff 823f 61bd 853f a527 723f 569e 853f
00000060: 12ba 723f f7b7 813f ce7e 823f a650 833f
00000070: a877 763f 70d7 773f 9bbd 753f fcac 873f
00000080: bd97 7b3f 44f6 733f ef10 843f 9dec 823f
00000090: 9c7b 853f 3d4b 7f3f 23e7 7e3f 8dc0 773f
000000a0: 7295 753f e4aa 803f 36be 843f 89c9 783f
000000b0: 2f9f 743f 5d17 7a3f 658c 803f 33aa 803f

gn2.weight f4 [48]
0.9139326 0.9900229 0.98184884 0.98603207 0.92981744 0.917172 1.0456343 0.88232124
0.9598237 0.9828104 1.0357007 0.9758891 1.0051701 0.9749652 0.9377347 0.92785776
1.0507582 0.93280053 1.0680797 0.948495 0.9526402 0.9508581 0.95798534 0.9058666
0.9075713 1.0242966 0.921397 0.94250435 0.94171077 0.9223801 0.9497858 0.93493134
0.9675598 1.0011503 0.89053714 0.8670386 1.027292 0.99869686 0.8867873 0.99190915
0.9520324 0.97682357 0.912816 0.91298807 0.9011927 0.97436225 0.9516574 0.9981115
00000000: 7df7 693f 2472 7d3f 725a 7b3f 996c 7c3f
00000010: 8408 6e3f c9cb 6a3f 58d7 853f cedf 613f
00000020: 02b7 753f 7699 7b3f d791 843f ded3 793f
00000030: 6aa9 803f 5297 793f 620f 703f 1688 6d3f
00000040: 3f7f 863f 04cc 6e3f d6b6 883f 91d0 723f
00000050: 3ae0 733f 706b 733f 873e 753f e0e6 673f
00000060: 9856 683f 271c 833f ace0 6b3f f747 713f
00000070: f513 713f 1a21 6c3f 2a25 733f a957 6f3f
00000080: 00b2 773f b125 803f 3efa 633f 3ef6 5d3f
00000090: 4e7e 833f 99aa 7f3f 7e04 633f c2ed 7d3f
000000a0: 65b8 733f 1c11 7a3f 4fae 693f 96b9 693f
000000b0: 91b4 663f ce6f 793f d29f 733f 3c84 7f3f

gn2.bias f4 [48]
0.06968477 0.05638015 -0.042417135 0.0860097 -0.0010832064 -0.060056698 0.030692019 -0.03377016
0.026577806 0.014314529 0.020662678 0.074118584 -0.011591334 0.022862742 -0.066818304 0.07907924
-0.032487232 0.03647157 0.04380372 0.10612938 -0.06102642 0.024787975 0.06662829 0.017453868
0.0049256957 0.005503308 0.022217862 0.042500265 0.007058415 -0.043485235 -0.0022983511 -0.050181326
-0.0056432034 0.044016633 -0.0643563 -0.0028835689 0.013420425 0.11907695 -0.06399013 0.062029216
0.06840498 0.061575714 0.030785652 0.037998203 -0.017513791 -0.0068123667 -0.017502341 0.089066185
00000000: e4b6 8e3d dfee 663d 97bd 2dbd db25 b03d
00000010: 60fa 8dba 03fe 75bd d46d fb3c 9452 0abd
00000020: b3b9 d93c 7c87 6a3c c744 a93c 7ccb 973d
00000030: 94e9 3dbc a54a bb3c 09d8 88bd 4cf4 a13d
00000040: 5511 05bd 3763 153d 886b 333d 5c5a d93d
00000050: d7f6 79bd 2710 cb3c 6a74 883d 6afb 8e3c
00000060: bb67 a13b 1855 b43b 3c02 b63c c214 2e3d
00000070: 474a e73b 931d 32bd ef9f 16bb ef8a 4dbd
00000080: 9fea b8bb c94a 343d 3ccd 83bd 42fa 3cbb
00000090: 58e1 5b3c 9ede f33d 420d 83bd 5912 7e3d
000000a0: e917 8c3d d136 7c3d 3132 fc3c 01a4 1b3d
000000b0: 1579 8fbc 463a dfbb 1261 8fbc 5568 b63d

gn2.mean_scale f4 [48]
0.9902772 1.009853 0.9980984 1.0183313 0.9869362 0.99768174 1.0451113 0.9960145
1.0101993 1.0222752 0.9837344 1.0058495 1.0429707 0.9972449 0.99375606 1.0114645
0.9932516 1.0248178 1.0134263 0.9918077 0.9720214 0.9978359 1.0010953 0.9899167
0.9962386 1.0424908 1.0187007 0.9871132 1.0217619 0.9898118 0.97358096 1.0141163
1.007765 1.0125451 0.997036 1.008155 0.9873785 0.9579823 0.9804946 0.9710983
0.9831567 0.98100585 1.0166577 0.9856921 1.0161226 1.0170974 1.0307709 0.95836985
00000000: ce82 7d3f dd42 813f 6083 7f3f ae58 823f
00000010: daa7 7c3f 1268 7f3f 35c6 853f cefa 7e3f
00000020: 364e 813f ead9 823f 05d6 7b3f adbf 803f
00000030: 1080 853f 714b 7f3f cc66 7e3f ab77 813f
00000040: bd45 7e3f 3b2d 833f f4b7 813f 1ce7 7d3f
00000050: 65d6 783f 2c72 7f3f e423 803f 2e6b 7d3f
00000060: 7e09 7f3f 5770 853f c964 823f 73b3 7c3f
00000070: 18c9 823f 4e64 7d3f 9a3c 793f 90ce 813f
00000080: 72fe 803f 149b 813f c03d 7f3f 390b 813f
00000090: d6c4 7c3f 543e 753f b201 7b3f e699 783f
000000a0: 28b0 7b3f 3323 7b3f d721 823f 5156 7c3f
000000b0: 4e10 823f 3f30 823f 4df0 833f ba57 753f

gn3.weight f4 [48]
0.9335372 0.8866989 0.8659589 0.95561314 0.8836577 0.88991374 0.88677526 0.8359872
0.9583292 0.95511985 0.91003996 0.85214573 0.92659044 0.8652097 0.9125647 0.81916314
0.9217006 0.9042451 0.89804965 0.8403212 0.91620773 0.8544583 0.9144432 0.83964455
0.7762939 0.87357783 0.8580841 0.79359865 0.92296463 0.84624946 0.8460504 0.8418905
0.83027613 0.88604945 0.92974573 0.7957574 0.92038286 0.85166043 0.8557722 0.9787977
0.7760159 0.90572613 0.8193293 0.86209154 0.86012626 0.82631826 0.86045104 0.8546767
00000000: 4bfc 6e3f b3fe 623f 7caf 5d3f 10a3 743f
00000010: 6437 623f 63d1 633f b403 633f 4203 563f
00000020: 1055 753f bc82 743f 61f8 683f 3926 5a3f
00000030: 0835 6d3f 627e 5d3f d79d 693f adb4 513f
00000040: 92f4 6b3f 9b7c 673f 95e6 653f 4a1f 573f
00000050: 978c 6a3f c7bd 5a3f f318 6a3f f2f2 563f
00000060: 32bb 463f cca2 5f3f 66ab 5b3f 4829 4b3f
00000070: 6947 6c3f cea3 583f c296 583f 2386 573f
00000080: fa8c 543f 23d4 623f d103 6e3f c2b6 4b3f
00000090: 369e 6b3f 6b06 5a3f e313 5b3f 7c92 7a3f
000000a0: faa8 463f abdd 673f 91bf 513f 08b2 5c3f
000000b0: 3c31 5c3f 9889 533f 8546 5c3f 18cc 5a3f

gn3.bias f4 [48]
0.036231317 -0.0027267903 -0.014948558 -0.0139805535 -0.014829661 0.023937501 0.036036342 -0.042678863
-0.0073070927 -0.012939803 -0.020218868 -0.035629615 0.054130733 -0.007099882 0.038685523 -0.05170442
0.026327105 -0.016602322 -0.0501977 -0.033516657 1.7137078e-05 0.01683198 -0.008486891 0.023203228
-0.018496951 -0.024598664 -0.019658381 -0.04496364 -0.0073295934 0.017864542 -0.016614093 -0.022872167
-0.035703678 0.0036457228 -0.0015195665 -0.012281981 -0.033870894 -0.0070578656 0.06777432 0.013661275
-0.02786998 -0.04134145 -0.034249667 -0.00038087947 -0.050682873 -0.009177204 -0.039836638 -0.028053645
00000000: 4a67 143d f3b3 32bb ccea 74bc b10e 65bc
00000010: 1bf8 72bc 9418 c43c d89a 133d 08d0 2ebd
00000020: 5670 efbb 7801 54bc 0aa2 a5bc 5cf0 11bd
00000030: 30b8 5d3d 20a6 e8bb b674 1e3d 04c8 53bd
00000040: f1ab d73c 9801 88bc 1a9c 4dbd c348 09bd
00000050: 98c1 8f37 38e3 893c 9a0c 0bbc b214 be3c
00000060: eb86 97bc 2383 c9bc 9d0a a1bc cb2b 38bd
00000070: 162d f0bb a958 923c 471a 88bc 695e bbbc
00000080: 053e 12bd 14ed 6e3b 312c c7ba 5d3a 49bc
00000090: 35bc 0abd ab45 e7bb 43cd 8a3d 8ad3 5f3c
000000a0: 964f e4bc a755 29bd 6149 0cbd c7b0 c7b9
000000b0: d898 4fbd fc5b 16bc be2b 23bd c2d0 e5bc

gn3.mean_scale f4 [48]
0.9732897 0.99613637 0.9944508 0.97750366 0.9878534 1.0091119 0.9968975 1.0011815
1.0259591 1.0268501 1.0232118 0.9914227 0.97891843 0.9957908 1.0300952 0.9993612
1.0255773 1.0090508 1.0022669 1.0260603 1.0185745 0.9994225 1.0018749 0.9990619
0.9872394 1.0109379 0.99292487 1.0006075 0.99932253 1.005567 1.0039375 0.99674755
1.000998 0.993443 0.9788609 0.995916 1.0169886 0.98644197 1.012575 1.0139894
1.00419 0.9690523 1.0008512 1.0024526 1.0030515 1.0074099 1.0099776 0.995551
00000000: 8429 793f cb02 7f3f 5494 7e3f ae3d 7a3f
00000010: f6e3 7c3f 942a 813f ad34 7f3f b726 803f
00000020: a152 833f d36f 833f 9bf8 823f e1cd 7d3f
00000030: 669a 7a3f 25ec 7e3f 29da 833f 23d6 7f3f
00000040: 1e46 833f 9428 813f 484a 803f f255 833f
00000050: a660 823f 27da 7f3f 703d 803f 85c2 7f3f
00000060: b9bb 7c3f 6a66 813f 5330 7e3f e813 803f
00000070: 9ad3 7f3f 6bb6 803f 0681 803f d92a 7f3f
00000080: b420 803f 4852 7e3f a196 7a3f 5af4 7e3f
00000090: af2c 823f 7687 7c3f 0f9c 813f 68ca 813f
000000a0: 4c89 803f d013 783f e41b 803f 5e50 803f
000000b0: fe63 803f cff2 803f f246 813f 6edc 7e3f

bn0.weight f4 [54]
0.57893395 0.5981667 0.5174634 0.56294096 0.550617 0.48101634 0.559953 0.5432638
0.5232994 0.56463057 0.54932106 0.6412736 0.57889867 0.51306355 0.509034 0.43676275
0.5249837 0.5210908 0.53683573 0.4962538 0.56015867 0.5274585 0.5799168 0.54630554
0.61422783 0.52741617 0.46051803 0.46844274 0.5123437 0.5426492 0.5910772 0.6365697
0.43631136 0.5783361 0.52216256 0.45322734 0.57554585 0.5541802 0.45398015 0.5307628
0.5786924 0.48239297 0.4865307 0.5105722 0.5523409 0.49146998 0.50210506 0.53549755
1.1882893 1.3389192 1.3609607 1.3625958 1.2759087 1.264347
00000000: 0435 143f 7421 193f 7b78 043f e61c 103f
00000010: 3cf5 0c3f c647 f63e 1459 0f3f 5613 0b3f
00000020: f3f6 053f a18b 103f 4ea0 0c3f 822a 243f
00000030: b432 143f 2258 033f 0d50 023f 5e9f df3e
00000040: 5565 063f 3566 053f 116e 093f fa14 fe3e
00000050: 8f66 0f3f 8507 073f 6d75 143f aeda 0b3f
00000060: 093e 1d3f bf04 073f 05c9 eb3e bad7 ef3e
00000070: f528 033f 0feb 0a3f d650 173f 3bf6 223f
00000080: 3464 df3e d60d 143f 72ac 053f 6a0d e83e
00000090: f956 133f c1de 0d3f 1670 e83e 12e0 073f
000000a0: 2f25 143f 36fc f63e 8d1a f93e dcb4 023f
000000b0: 3766 0d3f f4a1 fb3e f589 003f 5e16 093f
000000c0: dd19 983f b461 ab3f f633 ae3f 8a69 ae3f
000000d0: fa50 a33f 1fd6 a13f

bn0.bias f4 [54]
-0.049021315 -0.002992147 0.20722584 0.008354588 0.05212908 -0.18625318 -0.08488176 -0.0653333
0.19227514 0.078493685 -0.14755975 0.09129292 0.14018166 -0.15168837 0.13791375 0.12615
-0.11207123 0.15947692 -0.02942885 0.030882932 0.01432769 0.11217534 -0.10575461 0.24631938
0.06769623 0.121606834 -0.178173 -0.19829632 -0.13163936 -0.182537 0.011703162 0.16551045
0.10007288 0.034853235 -0.013797552 0.06421845 0.010270154 -0.10150301 -0.0130378725 -0.0077908803
-0.16046573 0.17328589 -0.040304065 0.06437572 -0.17906727 0.0047369273 -0.25998217 0.07132717
-0.034457393 0.008840969 -0.00928506 0.048831373 0.043150626 -0.0338091
00000000: 93ca 48bd e617 44bb 0333 543e afe1 083c
00000010: 4d85 553d 27b9 3ebe 7dd6 adbd 77cd 85bd
00000020: c6e3 443e 4cc1 a03d e719 17be c8f7 ba3d
00000030: c88b 0f3e 3254 1bbe 4339 0d3e 772d 013e
00000040: 9a85 e5bd eb4d 233e c614 f1bc 34fe fc3c
00000050: b0be 6a3c 2fbc e53d df95 d8bd 263b 7c3e
00000060: 52a4 8a3d 010d f93d fc72 36be 310e 4bbe
00000070: 78cc 06be fbea 3abe 9fbe 3f3c 927b 293e
00000080: 03f3 cc3d 44c2 0e3d 210f 62bc f684 833d
00000090: 2644 283c cfe0 cfbd cd9c 55bc a44a ffbb
000000a0: 2151 24be db71 313e e015 25bd 6bd7 833d
000000b0: 695d 37be 3a38 9b3b 621c 85be fb13 923d
000000c0: 3223 0dbd b6d9 103c 5d20 18bc 6803 483d
000000d0: b6be 303d 697b 0abd

bn0.running_mean f4 [54]
0.04997546 0.14941269 0.042753 0.0657441 -0.007070422 0.005597673 0.15576322 -0.03154271
-0.006532918 -0.11598702 -0.04225597 0.050407574 -0.010858002 0.011665291 0.037514992 0.031576302
-0.026842784 -0.004098397 -0.034200955 0.070702404 -0.039712623 0.04129308 0.02637134 0.13094437
-0.034268785 -0.008878622 0.08246392 0.03874889 -0.0019803508 -0.056588434 0.008771747 -0.002881857
0.024343442 0.025111392 -0.043376695 -0.048535608 0.07787333 0.10204844 -0.074719764 0.09835139
0.05142416 0.040485684 -0.037382197 -0.031348735 -0.042664208 0.021377083 0.027304789 0.07788386
3.4949734 1.1040859 70.92071 106.1193 71.04774 52.67501
00000000: 11b3 4c3d a4ff 183e c51d 2f3d d8a4 863d
00000010: 00af e7bb af6c b73b 6580 1f3e ee32 01bd
00000020: 1712 d6bb 9a8a edbd 9914 2dbd 2c78 4e3d
00000030: c3e5 31bc c71f 3f3c 52a9 193d 2756 013d
00000040: 66e5 dbbc d94b 86bb 4d16 0cbd 6ccc 903d
00000050: b4a9 22bd ef22 293d b508 d83c 4816 063e
00000060: 6d5d 0cbd a477 11bc d8e2 a83d 28b7 1e3d
00000070: c6c8 01bb 46c9 67bd 60b7 0f3c 8add 3cbb
00000080: e66b c73c 68b6 cd3c c3ab 31bd 46cd 46bd
00000090: 0d7c 9f3d c6fe d03d ad06 99bd 746c c93d
000000a0: 24a2 523d 51d4 253d 131e 19bd 8867 00bd
000000b0: aac0 2ebd fe1e af3c 4bae df3c 9381 9f3d
000000c0: a5ad 5f40 b052 8d3f 67d7 8d42 153d d442
000000d0: 7118 8e42 36b3 5242

bn0.running_var f4 [54]
0.00018344619 0.0004226485 0.00024354715 0.00042314088 0.0001238877 8.466321e-05 0.00019979979 0.00020781536
0.00028173567 0.00022265573 0.00022184254 0.00061879965 0.00043019408 0.00025534898 0.000111798356 6.7435525e-05
0.00019842565 0.00021438602 0.0001332264 7.892083e-05 0.00019807249 0.00039518307 0.00044946795 0.00024803882
0.00040526455 0.00026085816 8.7781635e-05 9.753273e-05 0.00027877756 0.0001498952 0.00030994852 0.00083860103
3.491575e-05 0.00040809799 0.00021258576 8.366399e-05 0.0004529798 0.000264106 5.9435584e-05 0.00020623922
0.0002609798 0.0001306677 0.00023569778 0.00013096245 0.0004110299 9.729355e-05 0.00015882922 0.0003100747
2.1493728 0.54514724 1970.4386 4891.6167 2000.3005 1119.578
00000000: 765b 4039 ec96 dd39 b160 7f39 02d9 dd39
00000010: dae7 0139 378d b138 5981 5139 03e9 5939
00000020: ecb5 9339 b178 6939 679e 6839 f136 223a
00000030: ac8b e139 5ce0 8539 4975 ea38 2c6c 8d38
00000040: 7b10 5039 cfcc 6039 b0b2 0b39 4c82 a538
00000050: aeb1 4f39 9330 cf39 91a6 eb39 350b 8239
00000060: b079 d439 cac3 8839 6817 b838 7c8a cc38
00000070: e428 9239 302d 1d39 9680 a239 90d5 5b3a
00000080: 8072 1238 fcf5 d539 8ee9 5e39 c374 af38
00000090: eb7d ed39 b577 8a39 794a 7938 eb41 5839
000000a0: 1ed4 8839 d803 0939 a425 7739 f752 0939
000000b0: 807f d739 140a cc38 658b 2639 8691 a239
000000c0: 538f 0940 c58e 0b3f 094e f644 efdc 9845
000000d0: 9e09 fa44 7ff2 8b44

bn1.weight f4 [48]
0.97428834 0.8567702 1.0433735 0.8201326 0.85153127 0.9089157 0.8811352 0.9583066
0.8936451 1.1595448 0.96080434 1.027103 1.0389816 1.1031637 1.0171306 0.96343297
0.9331014 0.7890452 1.0060774 0.9215204 1.0082432 1.0311301 0.91898334 1.0282158
0.78288746 0.79855204 0.96190643 0.85916746 0.9060031 0.93974096 0.9255544 0.9425512
1.013734 0.8435345 1.1444464 1.0150406 0.95501757 0.88267875 0.90789145 1.0399593
1.0826075 1.0387126 0.9547786 1.0936024 1.0325055 1.0302246 0.85627013 1.1277592
00000000: f66a 793f 4b55 5b3f 438d 853f 36f4 513f
00000010: f4fd 593f b3ae 683f 1492 613f 9553 753f
00000020: edc5 643f f76b 943f 46f7 753f 1c78 833f
00000030: 59fd 843f 7834 8d3f 5631 823f 8ba3 763f
00000040: bcdf 6e3f defe 493f 25c7 803f c3e8 6b3f
00000050: 1d0e 813f 12fc 833f 7e42 6b3f 939c 833f
00000060: 506b 483f e86d 4c3f 803f 763f 66f2 5b3f
00000070: d2ef 673f dd92 703f 22f1 6c3f 094b 713f
00000080: 09c2 813f e1f1 573f 387d 923f daec 813f
00000090: 087c 743f 3cf7 613f 936b 683f 631d 853f
000000a0: e292 8a3f 89f4 843f 5f6c 743f 2afb 8b3f
000000b0: 2429 843f 66de 833f 8534 5b3f 6a5a 903f

bn1.bias f4 [48]
0.117138736 -0.23092103 0.06140901 -0.14023651 0.07259851 -0.06249995 -0.0985466 0.0040363832
-0.22263522 -0.11436135 -0.106447734 0.11542916 -0.0961673 -0.060624875 -0.14140981 -0.050026007
-0.1836286 0.049150832 0.16346 -0.010650796 -0.02972823 -0.10360754 -0.22906128 0.08926634
-0.11633839 -0.13045022 0.18052113 -0.055671453 -0.06798799 0.23664136 0.11622275 -0.059923917
-0.06614672 0.17377703 -0.09871248 0.06731601 0.022163851 0.026675444 -0.13552502 -0.17431894
-0.11357967 0.06471393 -0.12565923 -0.1565019 -0.021405455 0.21332094 0.058959253 -0.040272053
00000000: 6fe6 ef3d 9076 6cbe 0488 7b3d 299a 0fbe
00000010: 87ae 943d f3ff 7fbd cdd2 c9bd a343 843b
00000020: 7dfa 63be 4936 eabd 4501 dabd 2066 ec3d
00000030: 5df3 c4bd ca51 78bd bccd 10be 12e8 4cbd
00000040: 2309 3cbe 6252 493d 0f62 273e ad80 2ebc
00000050: 9e88 f3bc 3130 d4bd 0a8f 6abe 45d1 b63d
00000060: d242 eebd be94 05be 88da 383e c007 64bd
00000070: 4a3d 8bbd 1d52 723e 3106 ee3d c872 75bd
00000080: ee77 87bd 9bf2 313e c529 cabd fadc 893d
00000090: f790 b53c 7686 da3c 12c7 0abe aa80 32be
000000a0: 759c e8bd bd88 843d d0ac 00be 0942 20be
000000b0: 7e5a afbc ce70 5a3e 427f 713d 4ff4 24bd

bn1.running_mean f4 [48]
0.4396976 0.19741257 0.21196108 0.32095343 0.2092486 0.29738256 0.27779952 0.4505653
0.21045391 0.45094952 0.40480092 0.2609269 0.5470257 0.39483836 0.49723393 0.3582626
0.36139762 0.3722078 0.17188343 0.39358276 0.5129539 0.17042725 0.27018276 0.3715033
0.23133717 0.4050619 0.25792152 0.15566748 0.2657005 0.31341934 0.19591229 0.21073821
0.23645113 0.43620366 0.3551853 0.53474957 0.2818937 0.3068567 0.27976927 0.3979397
0.5408775 0.14635246 0.26888165 0.22366913 0.33470818 0.24698362 0.40119553 0.28534925
00000000: 0b20 e13e 8526 4a3e 530c 593e 0254 a43e
00000010: 4445 563e 8742 983e bd3b 8e3e 7fb0 e63e
00000020: 3b81 573e dbe2 e63e 1142 cf3e 3698 853e
00000030: e009 0c3f 4128 ca3e 7295 fe3e 326e b73e
00000040: 1c09 b93e 0592 be3e 3602 303e ae83 c93e
00000050: f250 033f 7b84 2e3e 6555 8a3e ae35 be3e
00000060: a7e3 6c3e 4664 cf3e 4a0e 843e 4c67 1f3e
00000070: e509 883e 8078 a03e 3b9d 483e c2cb 573e
00000080: 3f20 723e 1656 df3e d9da b53e 59e5 083f
00000090: 5f54 903e 521c 9d3e eb3d 8f3e c1be cb3e
000000a0: f376 0a3f 6bdd 153e dbaa 893e 8509 653e
000000b0: df5e ab3e 46e9 7c3e 8069 cd3e 4c19 923e

bn1.running_var f4 [48]
0.27412677 0.09854303 0.1272172 0.21116571 0.102980636 0.19278824 0.16098204 0.23098063
0.09114129 0.25672916 0.2262464 0.1427968 0.21595 0.21517988 0.2838917 0.19872066
0.2838845 0.13587512 0.08165396 0.18213509 0.20060314 0.085689 0.14668442 0.1286617
0.09764223 0.13012932 0.099117115 0.086493075 0.117477424 0.12866129 0.108528785 0.08884635
0.07826782 0.16162412 0.32571235 0.24842347 0.13392267 0.17131181 0.16474858 0.20031005
0.3469786 0.048499938 0.11605651 0.09010727 0.23293716 0.14556673 0.23480399 0.20108849
00000000: 585a 8c3e eed0 c93d 3a45 023e d33b 583e
00000010: 83e7 d23d 486a 453e 7ad8 243e 3086 6c3e
00000020: 49a8 ba3d 0172 833e 23ad 673e 5339 123e
00000030: ff21 5d3e 1d58 5c3e 415a 913e 6e7d 4b3e
00000040: 4f59 913e d922 0b3e 313a a73d 9f81 3a3e
00000050: e96a 4d3e b77d af3d 7134 163e e5bf 033e
00000060: a6f8 c73d 9f40 053e eafd ca3d 4823 b13d
00000070: 0198 f03d c9bf 033e 5744 de3d 13f5 b53d
00000080: e14a a03d cb80 253e c5c3 a63e b962 7e3e
00000090: 0623 093e 5d6c 2f3e dab3 283e 141e 4d3e
000000a0: 2ea7 b13e dfa7 463d 09af ed3d 298a b83d
000000b0: 1487 6e3e 720f 153e 7570 703e 24ea 4d3e

bn2.weight f4 [48]
0.98165834 0.8416372 0.7921163 1.106384 1.009696 0.9422151 1.0272431 0.9051512
1.0839391 0.94417185 0.9261603 0.9544495 0.6431054 0.949211 1.0893977 1.0137357
0.9741157 0.99729925 0.7125684 0.94966143 0.9780773 0.72852093 0.9001814 0.92615926
0.9812428 0.9449709 0.9304175 1.0193161 0.9092533 0.8493811 1.0455014 0.9948752
0.91174966 1.0127033 0.9468274 0.9301466 0.89702225 0.92815715 1.0020393 1.1149366
0.97204864 0.95196795 0.98396087 0.9083592 0.98608065 0.90661305 0.96029913 1.0769092
00000000: f64d 7b3f 8975 573f 22c8 4a3f fe9d 8d3f
00000010: b83d 813f 0235 713f b47c 833f fdb7 673f
00000020: 84be 8a3f 3fb5 713f d718 6d3f cd56 743f
00000030: 8ea2 243f 7eff 723f 6271 8b3f 17c2 813f
00000040: a65f 793f 014f 7f3f e26a 363f 031d 733f
00000050: 4663 7a3f 5980 3a3f 4a72 663f c618 6d3f
00000060: ba32 7b3f 9de9 713f d72f 6e3f f378 823f
00000070: d3c4 683f 0a71 593f fdd2 853f 24b0 7e3f
00000080: 6d68 693f 43a0 813f 4863 723f 161e 6e3f
00000090: 40a3 653f b59b 6d3f d342 803f 3eb6 8e3f
000000a0: 2ed8 783f 2cb4 733f dce4 7b3f 3b8a 683f
000000b0: c86f 7c3f cb17 683f 2ad6 753f 29d8 893f

bn2.bias f4 [48]
0.13717477 0.038343515 0.110516086 0.056240756 0.0630409 0.04991196 -0.010464584 0.07440831
-0.010095158 0.0009886252 0.049823664 -0.017113967 0.14524959 0.051282912 0.06290952 0.058894563
-0.013634665 0.052163124 0.08939701 0.004534601 0.08808806 0.11003277 0.036372274 0.04972509
-0.01709081 0.012724189 -0.00631546 -0.020100847 0.027877934 0.056566313 0.07383588 -0.021555046
-0.00013965517 0.085642 -0.00029580435 0.05127552 -0.010049054 0.008853722 -0.022794582 0.06618298
-0.009286507 -0.011232278 0.058838338 0.06568805 0.048078664 -0.01319179 -0.02410201 0.05895317
00000000: 8b77 0c3e 170e 1d3d 4256 e23d b55c 663d
00000010: 961b 813d 7c70 4c3d a673 2bbc 6263 983d
00000020: 2966 25bc c294 813a e613 4c3d 9732 8cbc
00000030: 4fbc 143e 080e 523d b5d6 803d 6d3b 713d
00000040: ee63 5fbc 00a9 553d c815 b73d fd96 943b
00000050: 8367 b43d dc58 e13d 18fb 143d 89ac 4b3d
00000060: 0702 8cbc 1e79 503c ebf1 cebb 88aa a4bc
00000070: 4460 e43c 14b2 673d 4437 973d 3594 b0bc
00000080: 6670 12b9 1365 af3d 3016 9bb9 4806 523d
00000090: caa4 24bc 340f 113c b4bb babc f18a 873d
000000a0: 6f26 18bc 9707 38bc 7800 713d 7587 863d
000000b0: 22ee 443d 6122 58bc 9471 c5bc e178 713d

bn2.running_mean f4 [48]
0.2628808 0.23290502 0.22582918 0.50006884 0.5085894 0.45183066 0.39328572 0.18131877
0.27291325 0.49548632 0.6553688 0.59099555 0.3879943 0.2430927 0.4728611 0.53912276
0.19513966 0.22816084 0.14573002 0.33066022 0.27573335 0.4959892 0.3829456 0.58115965
0.2666852 0.27531633 0.26027513 0.32345012 0.37841988 0.25265473 0.19679286 0.31592748
0.5438822 0.4928987 0.4926593 0.4550323 0.3069834 0.24325901 0.38517618 0.33700618
0.49802262 0.49248138 0.43939352 0.28856274 0.14876938 0.5752165 0.44502696 0.5116745
00000000: 5098 863e a77e 6e3e c43f 673e 8304 003f
00000010: ea32 023f 5956 e73e bf5c c93e a1ab 393e
00000020: 49bb 8b3e 62b0 fd3e 40c6 273f 7c4b 173f
00000030: 30a7 c63e 4bed 783e da1a f23e f303 0a3f
00000040: b1d2 473e ffa2 693e 403a 153e 4c4c a93e
00000050: ec2c 8d3e 4cf2 fd3e 7211 c43e e1c6 143f
00000060: f68a 883e 43f6 8c3e c842 853e 419b a53e
00000070: 40c0 c13e f65b 813e 1184 493e 3fc1 a13e
00000080: dd3b 0b3f 385d fc3e d73d fc3e fef9 e83e
00000090: ee2c 9d3e e418 793e d035 c53e 138c ac3e
000000a0: d2fc fe3e 8526 fc3e 30f8 e03e 7fbe 933e
000000b0: 0057 183e 6341 133f 93da e33e 1afd 023f

bn2.running_var f4 [48]
0.5479619 0.20244418 0.3954195 1.5791204 1.0144395 1.2045527 0.6494012 0.2024222
0.5018691 0.8386237 1.260205 1.2521433 0.57395864 0.46853104 1.1574445 1.1351657
0.24539502 0.4116798 0.22400725 0.75421906 0.52126044 0.79899365 0.5517804 1.0944128
0.39892933 0.43986136 0.33344823 0.4678867 0.5807497 0.5104116 0.30356416 0.5842699
0.8604768 1.4385185 0.6990817 0.91250426 0.40643713 0.27876863 0.69939315 0.73385304
0.8189426 0.7807037 1.2511786 0.5315863 0.21851274 0.79009676 0.7747676 0.7764821
00000000: 3b47 0c3f 874d 4f3e 6d74 ca3e 9e20 ca3f
00000010: 27d9 813f c82e 9a3f 283f 263f c447 4f3e
00000020: 7e7a 003f 0bb0 563f 664e a13f 3b46 a03f
00000030: f4ee 123f 4de3 ef3e 2427 943f 1c4d 913f
00000040: d548 7b3e b2c7 d23e 2862 653e 8014 413f
00000050: 5371 053f d98a 4c3f 7b41 0d3f b815 8c3f
00000060: 7740 cc3e 8235 e13e bab9 aa3e d88e ef3e
00000070: 03ac 143f 56aa 023f c36c 9b3e b692 153f
00000080: 3548 5c3f 6021 b83f 05f7 323f e199 693f
00000090: 8718 d03e c3ba 8e3e 6e0b 333f cbdd 3b3f
000000a0: 39a6 513f 33dc 473f 9f26 a03f 0a16 083f
000000b0: cec1 5f3e c843 4a3f 2b57 463f 88c7 463f

conv1.mlp.0.weight f4 [48, 18]
0.05457951 0.28683227 -0.3687363 0.1997415 -0.050985802 -0.082730815 0.07530484 0.016572306
-0.019671308 0.032488573 -0.18165985 0.15996079 0.19719708 -0.07360979 -0.17120218 0.20221703
-0.15589358 0.122950114 -0.20937353 -0.113658056 0.25574985 0.21124284 0.12018872 -0.019228766
-0.26014066 -0.03196193 0.114713736 0.13915396 0.15264338 -0.0064271544 0.2068461 -0.09913033
-0.2555987 0.013773959 0.1433064 0.102394834 -0.12690674 0.09496474 -0.19546665 -0.009961849
-0.06735935 -0.29855582 0.12362654 -0.3036064 0.2780973 -0.06154718 0.15633847 0.035410717
-0.1021991 -0.1616681 0.22392103 -0.000845195 0.05471395 -0.17936093 0.0024045978 0.28082874
-0.063336864 -0.0141753405 -0.21763933 0.06876083 0.11443348 0.1484869 0.2628782 -0.08866926
0.106182456 0.23148516 -0.082384475 -0.06665349 -0.12945075 -0.20946854 -0.0054699373 0.18952711
-0.062180605 0.24510285 0.19743243 0.003611301 -0.028084042 -0.29407626 -0.13114113 0.099807836
0.033738453 -0.20361385 -0.0121080065 -0.015436944 -0.10959945 -0.19295353 0.2641222 0.18579227
-0.03624396 -0.14603844 -0.19136003 -0.0053115506 -0.08055824 -0.21628116 0.07124105 0.03912414
0.06104194 -0.031224929 -0.06385965 0.19361298 0.2222153 0.048006773 -0.020369958 0.15018226
0.18394515 -0.12361189 0.13694645 -0.012508297 0.2619426 0.23485298 -0.035142347 -0.11041393
-0.12872963 -0.034165405 0.00010271258 0.10514282 -0.0735157 -0.071164146 0.06864799 0.14366281
-0.19778822 -0.041666914 -0.15673696 0.15950827 -0.08833271 0.3085094 -0.35953414 -0.010546439
-0.084110916 0.19520357 0.06410877 -0.006737101 0.13861255 -0.1475177 0.12550649 0.09181998
-0.048227794 -0.09944245 -0.036795747 0.10926253 0.12163859 -0.050573345 -0.21518211 -0.32967094
-0.18802638 -0.012706231 -0.17775248 -0.13604891 0.0804297 0.16728315 -0.12024879 -0.19167134
0.21948317 0.14879672 0.0033380513 0.19207866 -0.023968417 0.12931862 -0.24278532 -0.1639685
0.05273754 0.071221545 -0.29854795 -0.19324295 -0.124866605 -0.13432169 0.0008632643 0.09058535
-0.14215608 0.19613385 -0.1646471 0.11134283 0.1407951 -0.15575697 0.046624172 -0.2203798
0.14274389 0.13183889 -0.13000064 0.0906668 0.08914035 -0.17223762 0.12524451 -0.112368196
0.35515192 -0.18695861 0.1344756 -0.12620255 0.07402458 -0.19570221 -0.025693506 -0.10829057
0.20008042 -0.042625476 -0.0329179 0.13928305 0.09934098 -0.13021277 -0.30166095 0.024391297
0.100374416 -0.11698856 0.07827233 -0.21126406 0.03646574 0.2770357 0.062369086 -0.020826666
-0.09244547 -0.12478492 0.00029313716 0.06718277 0.044593338 -0.21491104 0.059495844 0.22939944
0.13815449 -0.014640616 0.24268779 -0.047740877 -0.060273428 0.039915588 -0.11047986 0.10991024
0.073366955 0.087752745 0.024490084 0.10268349 0.056058463 0.16163541 -0.01660308 0.16181171
0.100669086 0.33843797 -0.1981952 -0.01774324 -0.102286875 -0.05388846 -0.004074487 -0.1700329
0.20086797 -0.1491744 -0.17073672 0.21329856 -0.15890001 -0.04135216 0.044261836 -0.075153135
-0.10780063 0.12658198 -0.17868036 0.25303447 0.10850277 0.21806675 -0.19393651 -0.2512014
00000000: c48e 5f3d aedb 923e 01cb bcbe 0989 4c3e
00000010: 7dd6 50bd c66e a9bd 6d39 9a3d a5c2 873c
00000020: b925 a1bc bd12 053d 0a05 3abe c3cc 233e
00000030: 08ee 493e bbc0 96bd a04f 2fbe fb11 4f3e
00000040: 91a2 1fbe 45cd fb3d 0466 56be 8ec5 e8bd
00000050: a5f1 823e 0b50 583e 8125 f63d a585 9dbc
00000060: 2831 85be 83ea 02bd 09ef ea3d 607e 0e3e
00000070: 8c4e 1c3e e19a d2bb 77cf 533e d804 cbbd
00000080: d5dd 82be 2cac 613c eabe 123e 62b4 d13d
00000090: d7f3 01be e07c c23d 6928 48be 0637 23bc
000000a0: b3f3 89bd 4fdc 98be e92f fd3d 4c72 9bbe
000000b0: c562 8e3e e518 7cbd 3117 203e d40a 113d
000000c0: c34d d1bd 538c 25be 8e4b 653e 1490 5dba
000000d0: bc1b 603d 64aa 37be 7596 1d3b c9c8 8f3e
000000e0: c2b6 81bd b03f 68bc d8dc 5ebe 7ad2 8c3d
000000f0: 1a5c ea3d f30c 183e f997 863e 3b98 b5bd
00000100: 3076 d93d 720a 6d3e 31b9 a8bd a081 88bd
00000110: bd8e 04be ec7e 56be 293d b3bb 6513 423e
00000120: 17b1 7ebd 3efc 7a3e ba2b 4a3e 94ab 6c3b
00000130: 8110 e6bc 2a91 96be dc49 06be 0d68 cc3d
00000140: 5531 0a3d 2680 50be a960 46bc 3ceb 7cbc
00000150: ad75 e0bd 9c95 45be 063b 873e 5440 3e3e
00000160: 8c74 14bd 1a8b 15be e2f3 43be 840c aebb
00000170: b8fb a4bd cf78 5dbe d4e6 913d a240 203d
00000180: 1d07 7a3d 6ccb ffbc d9c8 82bd 7b42 463e
00000190: 688c 633e c0a2 443d e6de a6bc 61c9 193e
000001a0: 1e5c 3c3e 3b28 fdbd b13b 0c3e 9aef 4cbc
000001b0: 571d 863e 4d7d 703e 6cf1 0fbd b320 e2bd
000001c0: b3d1 03be 06f1 0bbd 6667 d738 1e55 d73d
000001d0: 668f 96bd 82be 91bd 5197 8c3d 581c 133e
000001e0: ff88 4abe edaa 2abd a77f 20be 2356 233e
000001f0: c8e7 b4bd f2f4 9d3e dc14 b8be f9ca 2cbc
00000200: 5842 acbd 72e3 473e 754b 833d e6c2 dcbb
00000210: 73f0 0d3e e10e 17be c684 003e 1d0c bc3d
00000220: 828a 45bd 7ca8 cbbd 23b7 16bd 09c5 df3d
00000230: a71d f93d ff25 4fbd b358 5cbe a1ca a8be
00000240: fd89 40be cc2d 50bc bf04 36be 6850 0bbe
00000250: 54b8 a43d 464c 2b3e ff44 f6bd 7e45 44be
00000260: 32c0 603e 2b5e 183e 35c3 5a3b 45b0 443e
00000270: 6a59 c4bc 1a6c 043e b79c 78be 5ce7 27be
00000280: 5203 583d 9adc 913d 47db 98be 7be1 45be
00000290: 10ba ffbd a08b 09be b04c 623a d084 b93d
000002a0: 5d91 11be 50d7 483e 4099 28be b607 e43d
000002b0: 972c 103e c17e 1fbe fdf8 3e3d 3eab 61be
000002c0: 742b 123e c600 073e e31e 05be 84af b93d
000002d0: 378f b63d 0f5f 30be 1940 003e 4c21 e6bd
000002e0: 79d6 b53e 1472 3fbe f9b3 093e 3e3b 01be
000002f0: 339a 973d 2966 48be 307b d2bc 72c7 ddbd
00000300: e2e1 4c3e 0d98 2ebd ebd4 06bd 37a0 0e3e
00000310: 4973 cb3d 7f56 05be 4e73 9abe 42d0 c73c
00000320: 1a91 cd3d b397 efbd 3e4d a03d 9b55 58be
00000330: 1a5d 153d a0d7 8d3e ba76 7f3d af9c aabc
00000340: 0d54 bdbd 3c8f ffbd 34b0 9939 1f97 893d
00000350: 81a7 363d a411 5cbe eab1 733d b0e7 6a3e
00000360: 5f78 0d3e 32df 6fbc 2683 783e f08b 43bd
00000370: 45e1 76bd 877e 233d 4443 e2bd 9f18 e13d
00000380: 6a41 963d b6b7 b33d 6e9f c83c b94b d23d
00000390: 8f9d 653d c183 253e 2f03 88bc f8b1 253e
000003a0: 982b ce3d be47 ad3e aff3 4abe 455a 91bc
000003b0: c87b d1bd 25ba 5cbd 4683 85bb 1b1d 2ebe
000003c0: 55b0 4d3e 2dc1 18be 9bd5 2ebe f06a 5a3e
000003d0: afb6 22be e260 29bd e64b 353d e3e9 99bd
000003e0: 94c6 dcbd b59e 013e fcf7 36be bc8d 813e
000003f0: b336 de3d e44c 5f3e 4b97 46be 789d 80be

conv1.mlp.0.bias f4 [48]
-0.18599063 0.085257635 -0.09943566 -0.11113411 0.13682137 0.086487554 0.06270172 -0.07460531
0.19430138 -0.07577617 0.19498152 -0.01981484 0.1370198 -0.09636504 -0.07557736 -0.08754303
-0.15496467 0.055982783 -0.17178047 -0.120843075 -0.18945275 0.09367461 -0.030528953 -0.13753465
-0.042196743 0.33637848 -0.1103856 -0.13924226 -0.14379022 -0.1076639 0.065330766 -0.12836641
-0.011533853 -0.35921317 -0.09664242 -0.14415716 0.15086749 -0.022234054 -0.12276092 -0.08060437
-0.0032467302 -0.22099389 0.049385548 -0.07961231 -0.19750127 0.2559168 -0.072925046 0.14715534
00000000: 5474 3ebe 8e9b ae3d eca4 cbbd 489a e3bd
00000010: e71a 0c3e 6320 b13d c269 803d abca 98bd
00000020: f1f6 463e 8930 9bbd 3ca9 473e bb52 a2bc
00000030: eb4e 0c3e 095b c5bd 4ec8 9abd c349 b3bd
00000040: 0faf 1ebe 344e 653d 38e7 2fbe 937c f7bd
00000050: e7ff 41be 79d8 bf3d db17 fabc e2d5 0cbe
00000060: 7ed6 2cbd cd39 ac3e d811 e2bd 8695 0ebe
00000070: be3d 13be e47e dcbd 23cc 853d 7c72 03be
00000080: 7cf8 3cbc caea b7be 76ec c5bd ef9d 13be
00000090: 027d 1a3e 3124 b6bc 146a fbbd e713 a5bd
000000a0: 18c7 54bb 394c 62be 8048 4a3d c70b a3bd
000000b0: c63d 4abe 8707 833e ba59 95bd e4af 163e

conv1.mlp.2.weight f4 [48]
1.0497712 0.9485715 1.0025626 0.97820455 0.9554434 0.9749051 0.971437 1.0633923
0.9135871 1.0472813 0.97927076 0.9183998 1.0025449 0.97281134 0.9636643 0.97241944
0.9596294 0.92491484 0.908811 1.0052779 0.940774 1.0649272 1.0247641 0.99693006
1.019661 0.96930397 1.001865 1.0875621 1.0293971 0.97725844 1.0109216 1.0258062
0.8792816 1.0246855 1.0448041 1.0440698 1.0531635 1.0219679 1.0384732 1.0449022
1.0542443 1.0399082 1.0011109 0.98783857 1.1255825 0.8803239 0.9543416 0.98879695
00000000: e75e 863f 95d5 723f f953 803f 9d6b 7a3f
00000010: f097 743f 6193 793f 18b0 783f 3d1d 883f
00000020: d8e0 693f 500d 863f 7db1 7a3f 401c 6b3f
00000030: 6453 803f 2a0a 793f b4b2 763f 7bf0 783f
00000040: 46aa 753f 38c7 6c3f d6a7 683f f2ac 803f
00000050: 91d6 703f 894f 883f 782b 833f cf36 7f3f
00000060: 4084 823f 4e24 783f 1d3d 803f 3c35 8b3f
00000070: 49c3 833f 9c2d 7a3f e165 813f 9e4d 833f
00000080: 9918 613f e528 833f 24bc 853f 14a4 853f
00000090: 10ce 863f d8cf 823f b1ec 843f 5bbf 853f
000000a0: 7af1 863f b61b 853f 6724 803f fde2 7c3f
000000b0: 1613 903f e85c 613f bb4f 743f cc21 7d3f

conv1.mlp.2.bias f4 [48]
-0.07419296 -0.03637775 0.024505103 0.10670533 0.04671085 0.003824448 0.057130657 0.046089042
0.08867981 -0.00969044 0.024730919 -0.0113598425 0.07928186 -0.036379587 0.032249972 0.06165265
0.07870691 -0.061346877 -0.028001726 -0.016420735 -0.054102216 0.06114457 0.014097116 -0.014590511
0.011298323 0.05759761 -0.024192125 0.034348566 0.10282234 0.08132091 0.036572583 0.06956672
-0.00022377992 0.09448901 -0.04442439 0.095079325 -0.032000836 0.036664676 0.0038940003 0.02924715
0.055052374 0.03865183 0.034284104 0.029547842 -0.1302334 -0.07615729 0.049328852 0.00062911684
00000000: 7bf2 97bd d600 15bd edbe c83c 5388 da3d
00000010: e053 3f3d 97a3 7a3b d601 6a3d ddc7 3c3d
00000020: c39d b53d a7c4 1ebc 7f98 ca3c a21e 3abc
00000030: 875e a23d c302 15bd 8c18 043d 7d87 7c3d
00000040: 1731 a13d dd46 7bbd e063 e5bc c784 86bc
00000050: 499a 5dbd bb72 7a3d 97f7 663c 0a0d 6fbc
00000060: 9a1c 393c 79eb 6b3d 902e c6bc 15b1 0c3d
00000070: 8594 d23d 948b a63d 22cd 153d ff78 8e3d
00000080: 77a6 6ab9 7483 c13d 59f6 35bd f3b8 c23d
00000090: 4f13 03bd b32d 163d 7c32 7f3b b897 ef3c
000000a0: 997e 613d 6251 1e3d 7d6d 0c3d 510e f23c
000000b0: e85b 05be 5af8 9bbd 0d0d 4a3d 51eb 243a

conv1.mlp.2.running_mean f4 [48]
0.19530192 0.2599643 0.15354826 0.25249532 0.26479733 0.24678579 0.33262485 0.15685697
0.39303228 0.11282601 0.43498176 0.16946319 0.319688 0.15498804 0.45148176 0.38019457
0.17030574 0.3627446 0.36413252 0.06926021 0.24417837 0.4264558 0.23070301 0.27506244
0.37551144 0.41146645 0.23179874 0.083547756 0.086095326 0.15929057 0.24640407 0.24413615
0.25578532 0.31252068 0.08139066 0.1160003 0.2561418 0.16116655 0.2617229 0.067122005
0.22258832 0.22535157 0.35802373 0.1269991 0.006550843 0.4259881 0.22559886 0.31117055
00000000: 3afd 473e 0a1a 853e c13b 1d3e 1147 813e
00000010: 8493 873e 6ab5 7c3e ce4d aa3e 1d9f 203e
00000020: 873b c93e 5311 e73d eeb5 de3e c287 2d3e
00000030: 25ae a33e 2fb5 1e3e 9e28 e73e dda8 c23e
00000040: a164 2e3e a9b9 b93e 946f ba3e 4cd8 8d3d
00000050: e509 7a3e 6a58 da3e 693d 6c3e fcd4 8c3e
00000060: 0943 c03e bbab d23e a65c 6d3e 161b ab3d
00000070: bf52 b03d 111d 233e 5951 7c3e d4fe 793e
00000080: 4bf6 823e b602 a03e 25b0 a63d 9191 ed3d
00000090: 0525 833e d808 253e 8b00 863e 4377 893d
000000a0: 31ee 633e 90c2 663e e34e b73e 0d0c 023e
000000b0: 74a8 d63b 1d1b da3e 6303 673e bf51 9f3e

conv1.mlp.2.running_var f4 [48]
0.12579222 0.14390917 0.06688474 0.13319273 0.16460043 0.144861 0.17444375 0.07315272
0.23335777 0.058347497 0.28791654 0.098224305 0.11006522 0.08492579 0.42128155 0.3217796
0.069383174 0.217907 0.28582272 0.02350797 0.13137874 0.16567567 0.12031924 0.18024398
0.24386135 0.22286813 0.11284205 0.031073416 0.034124922 0.04372716 0.13398482 0.20078544
0.14852625 0.24403927 0.04014278 0.03804833 0.13801762 0.060353406 0.15079391 0.026719498
0.11762547 0.1665988 0.26039606 0.06692362 0.001475889 0.26152682 0.11320999 0.17739424
00000000: adcf 003e ed5c 133e defa 883d ad63 083e
00000010: 048d 283e 7156 143e 62a1 323e 18d1 953d
00000020: 57f5 6e3e c9fd 6e3d cc69 933e d329 c93d
00000030: e069 e13d 93ed ad3d 37b2 d73e 4cc0 a43e
00000040: c418 8e3d 0323 5f3e 5b57 923e c993 c03c
00000050: 2688 063e e2a6 293e ef69 f63d e191 383e
00000060: cab6 793e 8b37 643e bc19 e73d ad8d fe3c
00000070: 93c6 0b3d 401b 333d 5133 093e b39a 4d3e
00000080: 4417 183e 6ee5 793e c16c 243d 91d8 1b3d
00000090: 7e54 0d3e 2235 773d b869 1a3e d9e2 da3c
000000a0: 9fe5 f03d e098 2a3e a252 853e 400f 893d
000000b0: 9e72 c13a d8e6 853e a4da e73d d6a6 353e

conv1.mlp.4.weight f4 [48, 48]
-0.06670127 -0.16508147 0.0100373095 -0.12226759 -0.12433364 0.028716523 -0.07277257 -0.11839039
0.11868826 0.05316569 0.1990922 -0.058297016 0.14724918 0.032006618 -0.08331184 0.17115113
-0.025116935 0.041171342 -0.01864586 -0.007157843 0.09233968 0.03298637 0.1318238 -0.10780794
0.13885775 0.027546233 0.035971884 -0.12438189 -0.06549365 0.18829195 -0.15606222 0.006268211
-0.09989207 0.056347467 0.10725634 -0.08085508 0.088892534 0.12545885 -0.11288794 -0.033363406
0.031239156 0.012447674 -0.036505897 -0.06197191 -0.11700429 0.15030737 0.051589757 0.011112928
0.052149147 0.096650824 -0.100751 -0.0667872 0.08873562 0.0969909 -0.073278025 -0.12871668
-0.105364464 0.16984472 0.09465852 0.047801487 0.16600117 0.04531398 0.027374376 0.10725262
0.10503734 0.11394903 -0.06355983 0.12179616 0.047925223 -0.03672982 0.11966048 -0.065184854
-0.06828265 0.11318049 -0.053367563 0.119077146 0.03955334 0.13031621 -0.19309275 -0.079289936
0.10426786 -0.086084545 0.047584146 -0.19317101 0.14753275 -0.043798458 -0.1506963 -0.07067624
-0.1155085 -0.14701092 0.13368873 0.03346734 0.18557815 -0.095528044 -0.12646739 -0.12912004
-0.017400261 0.14239532 -0.039670434 -0.0344595 0.03194747 -0.015251126 -0.051655415 -0.041163385
-0.044264283 0.0514197 -0.07962653 0.13275295 0.12577601 0.005329194 0.01448748 -0.2028279
-0.071283996 0.082260944 -0.022948248 -0.03634944 0.12359099 -0.06136005 0.03277744 0.08619148
-0.13949203 -0.11628847 0.0052584396 -0.18118066 0.14688747 0.10042217 -0.041614022 0.11848431
0.10133315 -0.013289707 0.1499633 -0.19970416 0.05071721 0.09096322 0.017784035 0.078532055
0.038192604 0.12831089 -0.08581556 0.077763855 -0.038955797 0.036427874 0.024076134 0.006388749
0.00065619143 -0.0888468 0.13116227 0.09293781 0.107372455 -0.0099069085 -0.07193522 0.08575048
-0.020589124 -0.044289567 -0.08182777 0.0019305067 -0.115084596 0.11159824 -0.089024626 -0.03634932
-0.20420024 -0.025327494 0.013397075 -0.095440604 0.114687525 -0.1648857 -0.123584315 -0.058435332
-0.14502919 -0.15017417 0.05744316 -0.21179305 0.10003972 -0.07677916 -0.16730875 -0.065770805
-0.15361503 0.041972067 0.115841985 -0.04408666 -0.0937267 -0.06951488 -0.065868974 0.03246897
-0.08910214 0.033054203 0.016442863 0.0089843245 -0.056022596 -0.0023788058 -0.01877442 0.06192857
-0.016960748 0.12809747 0.118203305 -0.06277688 -0.0427105 -0.15716009 0.12611765 -0.12449247
-0.0062402165 -0.14302991 0.14309438 0.105175994 -0.105994806 -0.003235342 0.061155476 -0.091727756
0.12936243 -0.12502983 -0.04529997 0.05986185 0.055896383 0.0048979605 -0.16407141 -0.10825093
0.13048743 -0.11332041 -0.17673081 0.10925577 0.055809606 0.08257332 0.04451459 0.17481135
-0.008994712 -0.055110533 -0.18362196 0.093112394 -0.12848899 0.011409448 -0.21983083 -0.0288717
0.041425526 0.059293725 -0.06699867 -0.08865879 -0.07235293 -0.13594393 -0.046330065 -0.0029617944
0.12352602 0.094832875 -0.0850031 0.103896655 -0.08239493 0.14189018 0.08076148 0.07868263
-0.15460357 0.14494003 -0.0917837 0.03323908 -0.00664231 -0.10015531 0.027359832 -0.032678947
00000000: ad9a 88bd 1e0b 29be 8773 243c 6e67 fabd
00000010: a3a2 febd ea3e eb3c c909 95bd a976 f2bd
00000020: d512 f33d 44c4 593d d3de 4b3e dac8 6ebd
00000030: 7dc8 163e 5f19 033d 669f aabd 3e42 2f3e
00000040: 08c2 cdbc 48a3 283d 34bf 98bc 578c eabb
00000050: 961c bd3d b71c 073d d1fc 063e 69ca dcbd
00000060: ba30 0e3e a3a8 e13c 4157 133d efbb febd
00000070: 8921 86bd 9bcf 403e c6ce 1fbe 9165 cd3b
00000080: 3794 ccbd 9acc 663d 36a9 db3d 5997 a5bd
00000090: 4a0d b63d 4978 003e cb31 e7bd 11a8 08bd
000000a0: 42e9 ff3c 54f1 4b3c 3587 15bd 42d6 7dbd
000000b0: f29f efbd 2dea 193e c84f 533d 0013 363c
000000c0: 589a 553d def0 c53d 8a56 cebd bac7 88bd
000000d0: 05bb b53d 2aa3 c63d ca12 96bd 4ece 03be
000000e0: 53c9 d7bd c6eb 2d3e 53dc c13d 7ecb 433d
000000f0: 36fc 293e 279b 393d 3a40 e03c 43a7 db3d
00000100: d11d d73d 1c5e e93d a82b 82bd 4470 f93d
00000110: 3d4d 443d 0272 16bd 8e10 f53d a37f 85bd
00000120: c6d7 8bbd 2ccb e73d f297 5abd b8de f33d
00000130: af02 223d 9d71 053e 1bba 45be c362 a2bd
00000140: 638a d53d 184d b0bd 98e7 423d 9fce 45be
00000150: d312 173e 0366 33bd 2250 1abe b4be 90bd
00000160: b88f ecbd 088a 16be b3e5 083e 0d15 093d
00000170: 3308 3e3e 35a4 c3bd ab80 01be 0b38 04be
00000180: fe8a 8ebc 14d0 113e 777d 22bd 6825 0dbd
00000190: 5adb 023d dcdf 79bc a194 53bd f09a 28bd
000001a0: 774e 35bd 779d 523d 3c13 a3bd 64f0 073e
000001b0: 6dcb 003e 85a0 ae3b e55c 6d3c 1eb2 4fbe
000001c0: 58fd 91bd 6d78 a83d f7fd bbbc 27e3 14bd
000001d0: 461d fd3d ad54 7bbd a341 063d 2985 b03d
000001e0: 00d7 0ebe a628 eebd fd4e ac3b 6c87 39be
000001f0: ab69 163e 23aa cd3d 7773 2abd e7a7 f23d
00000200: c187 cf3d 12bd 59bc fb8f 193e 3f7f 4cbe
00000210: d9bc 4f3d ed4a ba3d d3af 913c 6ad5 a03d
00000220: d96f 1c3d ee63 033e 11c0 afbd a842 9f3d
00000230: 1d90 1fbd 6535 153d 503b c53c b658 d13b
00000240: 4304 2c3a 50f5 b5bd 674f 063e 2e56 be3d
00000250: 17e6 db3d 9650 22bc c652 93bd f39d af3d
00000260: 86aa a8bc fa68 35bd 5195 a7bd 0e09 fd3a
00000270: 79b1 ebbd 9e8d e43d 8b52 b6bd 06e3 14bd
00000280: de19 51be 9b7b cfbc 687f 5b3c 5d76 c3bd
00000290: 4be1 ea3d ccd7 28be c619 fdbd e359 6fbd
000002a0: 8882 14be 42c7 19be 8549 6b3d 47e0 58be
000002b0: a0e1 cc3d 643e 9dbd fc52 2bbe d8b2 86bd
000002c0: 424d 1dbe e7ea 2b3d 903e ed3d 3794 34bd
000002d0: c9f3 bfbd d15d 8ebd 50e6 86bd 2ffe 043d
000002e0: 2f7b b6bd d863 073d 2fb3 863c fd32 133c
000002f0: f377 65bd bde5 1bbb d0cc 99bc d0a8 7d3d
00000300: 44f1 8abc fc2b 033e 9314 f23d 2a91 80bd
00000310: 35f1 2ebd 93ee 20be fc24 013e e8f5 febd
00000320: bb7a ccbb 6f76 12be 5587 123e 8366 d73d
00000330: ce13 d9bd 0808 54bb 2a7e 7a3d c3db bbbd
00000340: 9677 043e d207 00be 768c 39bd b331 753d
00000350: 9bf3 643d 127f a03b 5602 28be aab2 ddbd
00000360: 7f9e 053e 8814 e8bd ecf8 34be 7dc1 df3d
00000370: 9d98 643d 331c a93d ee54 363d bf01 333e
00000380: 8e5e 13bc 95bb 61bd 6507 3cbe b6b1 be3d
00000390: 9e92 03be b2ee 3a3c 551b 61be 5884 ecbc
000003a0: d0ad 293d fadd 723d 9936 89bd bd92 b5bd
000003b0: c62d 94bd e334 0bbe 98c4 3dbd aa1a 42bb
000003c0: 36fb fc3d bd37 c23d 1b16 aebd c5c7 d43d
000003d0: acbe a8bd a94b 113e 4666 a53d 5c24 a13d
000003e0: 6650 1ebe 296b 143e 18f9 bbbd b425 083d
000003f0: bca7 d9bb 3a1e cdbd ba21 e03c 5cda 05bd

conv1.mlp.4.bias f4 [48]
-0.05302396 -0.18992826 -0.004592441 0.02210821 -0.06613806 -0.15445721 -0.14268747 -0.089798965
0.073407196 -0.06586513 0.22375487 0.04513482 0.059173103 0.045834165 0.0583828 -0.06706927
-0.11621738 -0.018007183 0.19699013 -0.008240812 0.025223358 0.058995213 0.019904135 0.05715657
0.018145628 -0.08050902 0.1122205 0.06930214 -0.121698186 -0.07499944 0.01996134 -0.07130326
-0.01760108 -0.048242986 0.021423869 -0.1265945 0.021188218 -0.16750745 -0.1804676 0.07143403
0.07075455 0.08693086 0.07687157 -0.0610794 -0.1415699 -0.051467795 0.03142466 -0.07915044
00000000: a72f 59bd 8e7c 42be 307c 96bb 471c b53c
00000010: 6473 87bd 082a 1ebe aa1c 12be 85e8 b7bd
00000020: 8356 963d 4ce4 86bd ff1f 653e 4adf 383d
00000030: 7f5f 723d 9bbc 3b3d ce22 6f3d 9d5b 89bd
00000040: 6103 eebd cd83 93bc c8b7 493e 7904 07bc
00000050: 37a1 ce3c f7a4 713d ff0d a33c 021d 6a3d
00000060: 24a6 943c eae1 a4bd ddd3 e53d 48ee 8d3d
00000070: e63c f9bd 4e99 99bd f785 a33c 7207 92bd
00000080: 2430 90bc 709a 45bd 1c81 af3c fda1 01be
00000090: ea92 ad3c 1387 2bbe 80cc 38be 014c 923d
000000a0: c3e7 903d cf08 b23d d76e 9d3d 652e 7abd
000000b0: b3f7 10be e5cf 52bd 25b7 003d a019 a2bd

conv1.mlp.6.weight f4 [48]
0.9561216 1.0398105 0.9834938 0.99239516 0.95035535 0.9226373 1.05745 1.1504402
1.0319691 1.0293046 0.90835667 0.95725983 1.0171856 1.005813 1.0777712 0.9140701
1.034354 0.98970056 1.058684 0.97210604 0.9891493 1.0203443 0.8887865 0.95703447
0.9489314 0.9370128 0.9352744 0.97655165 0.9033525 0.969134 1.0570527 1.0408295
1.003146 0.96765846 1.0125299 1.106217 0.9525496 0.9923208 1.0125974 0.9139258
0.9856428 1.2217407 0.9639676 0.9731552 1.0626578 0.9729704 1.0147969 0.9237634
00000000: 63c4 743f 8318 853f 40c6 7b3f 9c0d 7e3f
00000010: 7d4a 733f f531 6c3f 865a 873f a041 933f
00000020: 9017 843f 41c0 833f 108a 683f fb0e 753f
00000030: 2333 823f 7bbe 803f 68f4 893f 8000 6a3f
00000040: b665 843f 045d 7d3f f582 873f f1db 783f
00000050: e338 7d3f a49a 823f 8387 633f 3600 753f
00000060: 2bed 723f 12e0 6f3f 256e 6f3f 4aff 793f
00000070: 1c42 673f 2a19 783f 814d 873f e739 853f
00000080: 1767 803f 77b8 773f 949a 813f 8598 8d3f
00000090: 4ada 733f bc08 7e3f cb9c 813f 0bf7 693f
000000a0: 1653 7c3f 0062 9c3f 95c6 763f b320 793f
000000b0: 2c05 883f 9714 793f dde4 813f c27b 6c3f

conv1.mlp.6.bias f4 [48]
0.046445537 -0.017021427 -0.061055288 0.06083284 -0.057477478 0.0046950453 -0.006489776 0.013805194
0.012191265 -0.017340802 -0.022997897 0.03373052 -0.0065483004 0.04117086 0.020252137 0.03788401
-0.0024392765 0.07999881 0.03629444 -0.046030317 -0.015395063 0.013372428 0.08299144 0.017419433
-0.019407153 -0.028080905 0.048945393 0.06489082 -0.061021946 -0.03533036 -0.048653554 0.015119749
0.054052744 -0.115655795 -0.026571468 -0.019781254 -0.043784596 -0.07665798 0.019954953 -0.06381617
-0.07533993 0.06016874 0.009037485 0.026427113 -0.03717776 -0.0009699766 0.010499603 0.18926021
00000000: ad3d 3e3d 8570 8bbc 1c15 7abd db2b 793d
00000010: 816d 6bbd e5d8 993b 30a8 d4bb 2e2f 623c
00000020: dfbd 473c 4c0e 8ebc 1666 bcbc 0429 0a3d
00000030: 2093 d6bb c7a2 283d cfe7 a53c 432c 1b3d
00000040: 45dc 1fbb 6bd6 a33d 7ba9 143d 498a 3cbd
00000050: 933b 7cbc 0718 5b3c 6bf7 a93d 33b3 8e3c
00000060: c0fb 9ebc ed09 e6bc f77a 483d 7ae5 843d
00000070: 26f2 79bd 91b6 10bd f348 47bd d3b8 773c
00000080: 6966 5d3d f2dc ecbd 68ac d9bc 4c0c a2bc
00000090: 7a57 33bd dcfe 9cbd 9278 a33c 0db2 82bd
000000a0: d24b 9abd 7f73 763d f611 143c ac7d d83c
000000b0: b547 18bd 0746 7eba 8706 2c3c 6ecd 413e

conv1.mlp.6.running_mean f4 [48]
0.31705517 0.32484338 0.33618245 0.36718094 0.42126504 0.34218836 0.46922314 0.38747767
0.39780584 0.41122624 0.47737545 0.4954914 0.4494025 0.3803658 0.38387832 0.37607136
0.39921808 0.45206597 0.6148202 0.38443205 0.42934617 0.41222227 0.42613077 0.39692587
0.37923923 0.29851985 0.43728822 0.4737863 0.45317718 0.29624727 0.34843037 0.32504112
0.41678408 0.3655797 0.35171303 0.32471037 0.48766294 0.2879356 0.30840984 0.40497097
0.4392187 0.4786666 0.45017937 0.32609266 0.3458799 0.36516473 0.31908566 0.3428656
00000000: 0e55 a23e df51 a63e 1b20 ac3e 24ff bb3e
00000010: 0db0 d73e 5033 af3e 043e f03e 7963 c63e
00000020: 35ad cb3e 3f8c d23e 8e6a f43e 0cb1 fd3e
00000030: 1618 e63e 4ebf c23e b38b c43e 6d8c c03e
00000040: 5066 cc3e 3175 e73e db64 1d3f 47d4 c43e
00000050: 43d3 db3e cc0e d33e d02d da3e de39 cb3e
00000060: a52b c23e 98d7 983e 3ee4 df3e 1e94 f23e
00000070: d706 e83e b9ad 973e 7765 b23e ca6b a63e
00000080: b964 d53e 432d bb3e bb13 b43e 7040 a63e
00000090: f5ae f93e 4c6c 933e e5e7 9d3e 5b58 cf3e
000000a0: 46e1 e03e ca13 f53e e97d e63e 9ef5 a63e
000000b0: 2c17 b13e dff6 ba3e 325f a33e 148c af3e

conv1.mlp.6.running_var f4 [48]
0.28698963 0.47090337 0.2674516 0.26736796 0.33741903 0.42175603 0.65837985 0.38933727
0.3001026 0.26096344 0.37020046 0.5643665 0.41143847 0.36611566 0.3599948 0.32638878
0.3841679 0.55049235 0.5746785 0.2705175 0.44441348 0.43442464 0.49923915 0.43329775
0.4451476 0.2779918 0.39050722 0.5467843 0.59862036 0.30880624 0.3550778 0.22879443
0.31909356 0.39251578 0.2944076 0.24956083 0.42303193 0.36454573 0.34507412 0.4035499
0.37270358 0.3646554 0.5204706 0.27693784 0.38770676 0.42357075 0.34892428 0.33176044
00000000: 4ef0 923e 3f1a f13e 6bef 883e 74e4 883e
00000010: 30c2 ac3e 68f0 d73e 958b 283f 3757 c73e
00000020: 0ca7 993e 009d 853e ea8a bd3e 537a 103f
00000030: 10a8 d23e 8373 bb3e 3d51 b83e 6e1c a73e
00000040: a8b1 c43e 11ed 0c3f 211e 133f 4581 8a3e
00000050: 2a8a e33e e86c de3e 469c ff3e 34d9 dd3e
00000060: 63ea e33e f154 8e3e 90f0 c73e 0efa 0b3f
00000070: 2f3f 193f da1b 9e3e c2cc b53e 1649 6a3e
00000080: 3b60 a33e d4f7 c83e 98bc 963e e08c 7f3e
00000090: a497 d83e bda5 ba3e 8ead b03e 189e ce3e
000000a0: 01d3 be3e 1db4 ba3e 903d 053f ccca 8d3e
000000b0: 8081 c63e 44de d83e 34a6 b23e 81dc a93e
